increased_data/benchmark_experiment_increased_data/experiment_1_experience_1_2_3/model_experience_1_2_3.pth (torch, 854482 bytes, 36 tensors)

features.0.weight f4 [32, 3, 3, 3]
0	0x3dfd5aca	0.12370832
1	0xbd2ac3d9	-0.04169068
2	0xbd9d0087	-0.07666116
3	0x3d9e7d99	0.077387996
4	0x3c3d12d5	0.011540134
5	0x3d7f34a9	0.06230608
6	0x3c34470b	0.011003266
7	0x3da70907	0.08156019
8	0x3d9557c4	0.072921306
9	0x3e156ba0	0.14591837
10	0xbd200108	-0.039063483
11	0x3cbca74c	0.023028992
12	0xbd8a5fd1	-0.06756557
13	0xbe159743	-0.14608483
14	0xbbc8fd9c	-0.006133748
15	0xbdd390a5	-0.10330323
16	0x3e4e334c	0.20136756
17	0xbdc03722	-0.09385516
18	0x3e482db9	0.19548692
19	0xbe2cf353	-0.16889696
20	0x3d3352d0	0.043780148
21	0xbd9351c8	-0.07193333
22	0xbe1d7596	-0.15376887
23	0xbe2ac535	-0.16676791
24	0x3cf10833	0.029422855
25	0xbd30573c	-0.043051943
26	0x3de29f53	0.11065545
27	0xbd63d2a2	-0.055620797
28	0xbd6fb004	-0.05851747
29	0x3e29071e	0.16506621
30	0x3d530f6a	0.051528372
31	0xbd4accb9	-0.049511645
32	0x3e1045a1	0.14089061
33	0x3d487542	0.04893995
34	0xbd83869d	-0.0642216
35	0xbd723f68	-0.0591425
36	0xbe19441e	-0.14967391
37	0x3bd45c5c	0.0064807367
38	0x3e458282	0.19288066
39	0x3cefc734	0.029269792
40	0x3dc9e052	0.09857239
41	0xbd9b37ea	-0.07579024
42	0x3e40f622	0.18843892
43	0xbdf057aa	-0.117354706
44	0x3e0161b5	0.12634929
45	0x3e1a026d	0.15039988
46	0x3e1faf15	0.15594132
47	0x3e050337	0.12989508
48	0x3e209945	0.15683468
49	0xbdc713c5	-0.097205676
50	0xbc49695a	-0.012293184
51	0x3e016526	0.12636241
52	0xbdb9a159	-0.09063978
53	0x3d928fd2	0.07156338
54	0x3d74c35f	0.059756633
55	0xbe3401a1	-0.17578746
56	0x3e12be69	0.14330448
57	0x3ded92e8	0.11600286
58	0xbd3e1005	-0.046401996
59	0xbcd71dd3	-0.026259338
60	0x3b1718f8	0.0023055654
61	0x3d16df51	0.036834065
62	0xbe10601e	-0.14099166
63	0x3d001cae	0.03127735
64	0x3da9d428	0.08292419
65	0xbe2bc073	-0.16772632
66	0x3e319330	0.17341304
67	0x3d23de49	0.04000691
68	0xbd9e4183	-0.07727339
69	0xbe2ae537	-0.16689001
70	0xbd1fbd5c	-0.038998947
71	0x3d291f8c	0.04128985
72	0xbdb96dc5	-0.0905414
73	0x3e0fd81c	0.14047283
74	0x3e4f97fd	0.20272823
75	0x3e3f94d8	0.18709123
76	0x3e0b50ca	0.13605037
77	0x3e4dce05	0.20098121
78	0x3dd48db2	0.10378589
79	0x3d57e6a6	0.052710198
80	0xbc99cccf	-0.018774418
81	0xbd8f2ec9	-0.069913454
82	0xbe53c247	-0.2067958
83	0x3d96226d	0.07330785
84	0xbe11a0c4	-0.14221483
85	0xbdc6657f	-0.096873276
86	0xbe303702	-0.17208484
87	0x3dadbc93	0.08483233
88	0xbd067e26	-0.03283515
89	0xbd9b0a61	-0.07570339
90	0x3dc289cb	0.09498938
91	0x3d771dfb	0.060331326
92	0xbe2b7d1c	-0.16746944
93	0x3ddd1ee8	0.107969105
94	0xbd4bef9d	-0.04978906
95	0x3dc1b100	0.09457588
96	0x3d9cd7bc	0.076583356
97	0xbcee397a	-0.029080141
98	0x3e4a89d5	0.19779141
99	0x3e170a29	0.1474997
100	0xbd785415	-0.060627062
101	0x3e2de633	0.16982345
102	0xbe04451c	-0.12916988
103	0x3e3c3742	0.18380454
104	0x3bc3eecd	0.005979395
105	0x3c262a8d	0.010141981
106	0xbddde9ca	-0.10835607
107	0xbdc02a9a	-0.093831256
108	0x3e0b42e0	0.1359973
109	0x3dba490f	0.09095966
110	0x3d7a2fcc	0.06108074
111	0xbdcbefd5	-0.09957854
112	0xbdbb8d19	-0.091577716
113	0xbdfae241	-0.12250186
114	0xbe4548c6	-0.19266042
115	0x3db7f02b	0.08981355
116	0x3e3c6f26	0.18401775
117	0xbe335a98	-0.17515028
118	0xbe4a455b	-0.1975302
119	0xbdaddfd4	-0.084899575
120	0x3dc71a92	0.09721865
121	0xbe3a77d7	-0.18209778
122	0xbe117909	-0.14206327
123	0x3e0a7a73	0.13523273
124	0xbdd34437	-0.10315745
125	0x3ded7850	0.115952134
126	0x3d777b3f	0.06042027
127	0x3db19bcd	0.08672295
128	0xbdc38e57	-0.095486335
129	0x3e373639	0.17891778
130	0x3d1fa092	0.03897149
131	0xbd9c98c1	-0.07646323
132	0xbe08ad30	-0.13347316
133	0xbd2aa03e	-0.041656725
134	0x3e47b6c4	0.19503313
135	0x3d98f24a	0.07468088
136	0xbe44562f	-0.19173501
137	0xbdb3931c	-0.08768293
138	0xbdea7090	-0.11447251
139	0xbe3ac037	-0.18237387
140	0xbdfc8575	-0.123301424
141	0xbd0d168d	-0.034445334
142	0x3e19464c	0.14968222
143	0x3de0c033	0.10974159
144	0xbb89d525	-0.004206317
145	0x3e03a163	0.12854533
146	0xbdd57a60	-0.10423732
147	0x3cea767d	0.028620953
148	0x3cc0dd3a	0.023542989
149	0xbdfe2a04	-0.124103576
150	0xbd14fd04	-0.036374107
151	0x3d806157	0.06268566
152	0xbde55c14	-0.11199203
153	0x3d153af3	0.03643317
154	0x3dd5db88	0.10442263
155	0x3e3f816f	0.18701719
156	0x3dd5f95b	0.104479514
157	0xbc1791fc	-0.009251114
158	0x3e053183	0.13007168
159	0x3c9c1c9c	0.01905661
160	0xbe04a87b	-0.12954895
161	0xbc8d0733	-0.017215347
162	0xbc24ebe6	-0.010066008
163	0xbc9046cb	-0.017611882
164	0xbd975479	-0.07389159
165	0x3e229f5e	0.15881106
166	0x3be5428b	0.006996458
167	0x3e20aec9	0.15691675
168	0x3d38714a	0.045029916
169	0xbdb4ed42	-0.08834316
170	0x3b35fe96	0.0027770153
171	0xbe237dec	-0.15966004
172	0xbb60ef6a	-0.003432239
173	0x3daf6c40	0.08565569
174	0xbe0f9a1d	-0.14023633
175	0xbe17ef50	-0.14837384
176	0x3d988e74	0.07449046
177	0x3d8d511b	0.06900235
178	0x3d841058	0.0644843
179	0x3e07c2b4	0.13257867
180	0x3dde2bd2	0.10848202
181	0x3e390fd4	0.18072444
182	0x3d95513d	0.072908856
183	0x3e030fb0	0.12798953
184	0x3da30f3a	0.079618886
185	0x3db423d9	0.087959
186	0xbd8ad4a6	-0.06778841
187	0xbdc44c3f	-0.09584855
188	0x3e2cd668	0.16878664
189	0x3e069892	0.13144138
190	0xbdbf897a	-0.093523934
191	0x3e1227c1	0.14272977
192	0xbd765cbd	-0.060147036
193	0x3e407968	0.18796313
194	0xbdfa04fb	-0.12207981
195	0x3dd57bb6	0.104239866
196	0x3e175434	0.14778215
197	0xbe0de31c	-0.13856167
198	0xbc8f7b12	-0.01751474
199	0x3d84d182	0.06485273
200	0xbdc5a91b	-0.09651395
201	0x3e147ab8	0.14499938
202	0x3cc39baa	0.023877937
203	0xbe185d75	-0.14879401
204	0x3e0e8cda	0.13920918
205	0x3e2b328d	0.16718502
206	0x3da79105	0.08181957
207	0xbc2df2ca	-0.010616967
208	0x3dc9cc1e	0.098533854
209	0x3dc969bb	0.098346196
210	0xbcd0855f	-0.025454221
211	0x3d6ab915	0.057305414
212	0xbe49001c	-0.19628948
213	0x3da070e0	0.07834029
214	0x3e3cb11f	0.18426941
215	0xbe28f18a	-0.1649839
216	0x3d25ca2c	0.04047601
217	0xbd82c804	-0.06385806
218	0xbd04ebea	-0.032451548
219	0xbd69f6fb	-0.057120305
220	0x3d1c9d02	0.03823567
221	0x3e278704	0.16360098
222	0xbe0e53d4	-0.13899165
223	0x3c9826b1	0.018573137
224	0x3d3283a9	0.043582592
225	0x3e0ca80f	0.13735984
226	0x3d438f67	0.04774418
227	0xbd2fa7dd	-0.042884696
228	0x3ca82b0a	0.020528335
229	0xbd129ccf	-0.035794076
230	0xbc83448f	-0.016023902
231	0x3dae3423	0.08506038
232	0xbd4fa5c6	-0.050695203
233	0xbd409a3d	-0.047022093
234	0x3e1920f1	0.14953972
235	0x3d9295b2	0.07157458
236	0xbcc7986a	-0.024364669
237	0xbdfe4ede	-0.124173865
238	0x3e3de326	0.18543682
239	0x3d530dc5	0.051526804
240	0xbe187190	-0.1488707
241	0xbdb1083c	-0.08644149
242	0xbd26ea2e	-0.040750675
243	0xbdf7f20a	-0.12106712
244	0x3d4e53aa	0.050372757
245	0x3d927384	0.07150939
246	0xbe0406c3	-0.12893204
247	0xbc98598e	-0.01859739
248	0x3db84f59	0.08999509
249	0x3e358301	0.17725755
250	0x3e007bec	0.12547272
251	0x3e2bba48	0.1677028
252	0xbded5c62	-0.11589886
253	0xbc9354ba	-0.017984737
254	0xbe2bb35c	-0.16767639
255	0xbdf5f1f5	-0.1200904

features.0.bias f4 [32]
0	0x3cb9b69c	0.022670083
1	0x3d1363d8	0.03598389
2	0x3e2c31e2	0.16815904
3	0x3d95ec9c	0.0732052
4	0x3e4da0c0	0.20080853
5	0xbd22ba8b	-0.039728682
6	0x3e140646	0.14455518
7	0xbcd207a8	-0.025638416
8	0xbe08a8c5	-0.1334563
9	0x3db568b9	0.08857865
10	0xbd853949	-0.06505067
11	0xbd55f535	-0.0522358
12	0x3d1078ee	0.035271578
13	0xbdcc15d1	-0.09965099
14	0x3cbd94ad	0.023142183
15	0x3e4755e3	0.19466357
16	0x3db00b6d	0.08595929
17	0xbcb5b678	-0.022181734
18	0xbd492664	-0.049108878
19	0xbd16fd68	-0.03686276
20	0x3c492eca	0.012279222
21	0x3e32986f	0.17440961
22	0x3d9529f4	0.072833925
23	0x3d7dd36a	0.0619692
24	0x3c6a1486	0.01428712
25	0x3dca4cd8	0.09877938
26	0x3e353c07	0.1769868
27	0xbe347252	-0.17621735
28	0x3debc789	0.11512668
29	0xbda3511e	-0.07974456
30	0x3d7d5447	0.06184795
31	0x3e041ab3	0.1290081

features.2.weight f4 [32, 32, 3, 3]
0	0xbd2e13a8	-0.042499214
1	0xbccaa325	-0.024735996
2	0xbcb52d2c	-0.022116266
3	0xbca54339	-0.020173656
4	0xbd153724	-0.03642954
5	0xbc960a04	-0.018315323
6	0x3d65c2c8	0.05609396
7	0x3c4343e5	0.011918043
8	0xbd3cebbf	-0.046123262
9	0xbb09f23a	-0.002104892
10	0x3d73ec8d	0.059551764
11	0xbcc4b99d	-0.024014289
12	0x3bfe4298	0.0077594034
13	0xbc9f0d47	-0.01941551
14	0xbc97acab	-0.018514952
15	0xbd32b8f6	-0.043633424
16	0xbb58065a	-0.003296277
17	0x3d3eff11	0.04662997
18	0xbc1a1596	-0.009404561
19	0xbcd878c4	-0.026424773
20	0xbc895d5c	-0.01676815
21	0x3d212557	0.03934225
22	0xbd641503	-0.0556841
23	0xbd2b52be	-0.041826956
24	0xbd2c344f	-0.042042073
25	0xbd127aba	-0.035761572
26	0xbd7e665d	-0.06210934
27	0xbce08369	-0.027406411
28	0xbb995f21	-0.0046805297
29	0x3c964943	0.01834548
30	0xbc77bb34	-0.015120316
31	0x3ccf8acf	0.025334744
32	0xbd394778	-0.045234174
33	0xbd179d12	-0.03701503
34	0xbc85b95c	-0.016323738
35	0x3ccf994c	0.025341652
36	0x3c54ca71	0.012987719
37	0xbd4cf52a	-0.050038494
38	0xbce27c0a	-0.027647037
39	0xbd9ade1c	-0.07561895
40	0x3b8a4718	0.004219901
41	0x3c50aa6c	0.012735944
42	0xbabfa1c3	-0.0014620352
43	0xbd1af264	-0.037828818
44	0x3c7f408e	0.015579356
45	0x3c861639	0.016368018
46	0x3c022be5	0.007945036
47	0xbd24f8f1	-0.04027647
48	0xbd4fdef6	-0.05074974
49	0xbd58a6e2	-0.052893527
50	0xbbc6323b	-0.0060484684
51	0xbd124b43	-0.035716306
52	0xbd67cd0b	-0.05659203
53	0xbcbba52f	-0.022905914
54	0xbd0640e7	-0.03277674
55	0x3d191e20	0.037382245
56	0x3c54d720	0.012990743
57	0x3d0baab8	0.034098357
58	0xbd69bc0f	-0.057064112
59	0x3d39c676	0.045355283
60	0xbd6b9ed4	-0.057524517
61	0xbd7f1932	-0.062279887
62	0x3d34fa3c	0.044183955
63	0x3abe29f0	0.0014508348
64	0xbbe7e7d8	-0.0070771985
65	0x3c9211f6	0.01783083
66	0xbcce523a	-0.025185693
67	0x3d2bb0e8	0.041916758
68	0x3d0826df	0.033240195
69	0xbccc5f82	-0.024947885
70	0xbd79d87c	-0.06099747
71	0xbcd446e4	-0.02591271
72	0x3d7df0d5	0.061997253
73	0x3d4e0f78	0.05030772
74	0x3d4976eb	0.049185675
75	0x3be7e71a	0.00707711
76	0x3d71c23e	0.059023134
77	0x3d22bd19	0.03973112
78	0x3d067102	0.032822616
79	0x3d74aba6	0.05973401
80	0x3cc74676	0.02432559
81	0x3c5dbc12	0.013533609
82	0xbd2e2833	-0.042518806
83	0x3cb23de7	0.021758033
84	0xbce0cc85	-0.027441273
85	0x3c0e6dee	0.0086932015
86	0xbc3e8900	-0.011629343
87	0xbcb6c0f5	-0.022308806
88	0xbd103ade	-0.03521239
89	0x3af510f6	0.0018697071
90	0xbd0247dc	-0.03180681
91	0x3d587ea4	0.05285515
92	0xbd51bae2	-0.051203616
93	0xbca00353	-0.019532835
94	0x3d4b4bb5	0.049632747
95	0xbd4ffc88	-0.050777942
96	0x3d015790	0.031577647
97	0x3d73721a	0.059434988
98	0xbcbe5010	-0.023231536
99	0xbd718009	-0.058959994
100	0xbc781556	-0.015141806
101	0xbd0d1d60	-0.034451842
102	0xbcf8aa2c	-0.030354582
103	0x3c00cc6b	0.007861237
104	0xbcb00504	-0.021486767
105	0xbd2509ec	-0.040292665
106	0x3ca9e976	0.020741206
107	0x3c9fe60b	0.019518873
108	0x3d7b2387	0.06131318
109	0xbd013d93	-0.031552862
110	0x3c8b34d7	0.01699297
111	0x3d3ff64d	0.04686575
112	0x3beac189	0.0071641845
113	0xbd23c4c9	-0.03998259
114	0xbb20c511	-0.0024531523
115	0xbb804f1b	-0.00391568
116	0x3ccec7f1	0.025241824
117	0x3d3a99b4	0.04555674
118	0x3d0177de	0.031608455
119	0xbc9df7ba	-0.019283164
120	0xbd0c4ef9	-0.034255
121	0x3c9bd800	0.019023895
122	0x3d5a7d02	0.053341873
123	0xbd0658cc	-0.032799527
124	0x3d206084	0.039154544
125	0xbc5b1fab	-0.013374249
126	0x399a8103	0.0002946929
127	0xbd119afa	-0.035548188
128	0xbd3ab93b	-0.045586806
129	0x3d0f1ef9	0.034941647
130	0xbc080e56	-0.008304199
131	0x3d3f8b19	0.046763513
132	0xbc8cfcde	-0.01721042
133	0x3d2f40ed	0.042786527
134	0xbcf07bed	-0.029355967
135	0xbd0b8353	-0.034060787
136	0xbd5c4b4e	-0.053782754
137	0x3d2fa902	0.042885788
138	0x3d21c951	0.03949863
139	0xbc0f3706	-0.008741146
140	0x3c98bf74	0.01864598
141	0xbcc00fc0	-0.02344501
142	0xbce18e22	-0.027533595
143	0x3d0ab0eb	0.03386013
144	0x3a9c5134	0.0011926056
145	0x3cbf1237	0.023324115
146	0xbd451486	-0.048115276
147	0xbc96fb49	-0.018430369
148	0x3b5952c4	0.0033160904
149	0x3cb8f64c	0.022578381
150	0xbd45b908	-0.048272163
151	0xbc75e75b	-0.015008773
152	0x3d16c9b8	0.036813468
153	0x3d803e36	0.06261866
154	0x3c2941a2	0.0103305895
155	0x3d328a1d	0.043588746
156	0xbcb05281	-0.021523716
157	0xbc9c394e	-0.019070294
158	0x3d67fbce	0.056636624
159	0xbc3a479c	-0.011369612
160	0x3ce757e8	0.02824016
161	0x3d016494	0.03159006
162	0xbd1fd771	-0.03902382
163	0x3a93d9dd	0.0011280138
164	0x3d63f077	0.055649247
165	0xbd0e2303	-0.03470136
166	0xbc8e5eb8	-0.01737915
167	0xbc61985b	-0.0137692345
168	0xb9f0c052	-0.00045919657
169	0x3c91e950	0.017811447
170	0x3d5bbd72	0.053647466
171	0x3d64d0a5	0.05586304
172	0x3cbb0995	0.022831718
173	0xbcde25a3	-0.027117556
174	0x3d5fe13f	0.05465817
175	0x3d5e118e	0.05421596
176	0x3bc1d6e9	0.005915512
177	0xbb996b1c	-0.004681958
178	0xbd47eaeb	-0.04880802
179	0xbceca7e6	-0.028888654
180	0x3c7bfd63	0.015380236
181	0xbd5bdcb1	-0.053677265
182	0xbd5d8352	-0.054080315
183	0xbd9e6418	-0.07733935
184	0xbdadf329	-0.08493645
185	0xbd13dc03	-0.03609849
186	0xbd39ad9a	-0.045331575
187	0x3d278334	0.04089661
188	0x3ca1ae8e	0.019736554
189	0x3d1884e5	0.037236113
190	0xbd874a49	-0.06605966
191	0xbc49a460	-0.012307256
192	0xbc94017b	-0.018067112
193	0x3d2cd92d	0.042199302
194	0x3c960810	0.018314391
195	0x3cc1376e	0.023586001
196	0x3d1b6b14	0.037943915
197	0xbd26c429	-0.040714417
198	0xbc9ab569	-0.018885331
199	0xbd15e5f7	-0.036596265
200	0x3c464ba9	0.012103
201	0x3b9a9aed	0.0047181756
202	0x3d2ca6eb	0.042151373
203	0xbcf97d49	-0.030455248
204	0xbd443406	-0.047901176
205	0xbb49b063	-0.00307753
206	0x3c792c28	0.015208282
207	0x3c65921d	0.014011887
208	0x3c0f9c69	0.008765318
209	0x3cbbe602	0.022936825
210	0x39c231e7	0.00037039744
211	0xbd1ba001	-0.03799439
212	0xbd46c2e6	-0.048525713
213	0x3d45eb5c	0.04832016
214	0xbd61e68d	-0.05515151
215	0xbd30f253	-0.04319985
216	0x3d3279c3	0.043573152
217	0xbc946865	-0.018116185
218	0xbd7403e2	-0.059574015
219	0xbc5af14b	-0.013363193
220	0x3c99668a	0.018725652
221	0xbcd90854	-0.026493229
222	0xbd54e9b1	-0.051980678
223	0xbd15a43c	-0.03653358
224	0x3cffcd3c	0.031225793
225	0x3d864afe	0.065572724
226	0x3c946bf3	0.01811788
227	0x3c785e89	0.015159258
228	0xbc4b9017	-0.01242449
229	0x3cddbc19	0.027067231
230	0xbb2398eb	-0.0024962972
231	0x3d0206b1	0.031744663
232	0xbcdc3f19	-0.026885556
233	0x3d111b5a	0.035426475
234	0xbc30408a	-0.010757575
235	0xbcd4d235	-0.02597914
236	0xbc5fb054	-0.01365288
237	0x3d3db9aa	0.04631964
238	0xbd19e7a4	-0.037574425
239	0x3d654af2	0.055979677
240	0x3d3ae57f	0.04562902
241	0x3d567e9a	0.05236683
242	0xbcc36ab2	-0.023854587
243	0xbd152d21	-0.03641999
244	0x3c4ac93d	0.0123770805
245	0x3c01491d	0.007890967
246	0x3b6fa48b	0.003656658
247	0x3c43ca2c	0.011950057
248	0x3d5ed4ab	0.054402035
249	0xbc02eb12	-0.007990615
250	0xbc75ac27	-0.014994658
251	0x3d82a9de	0.06380056
252	0xbd91910d	-0.07107744
253	0xbd4a75d4	-0.049428776
254	0xbd658c46	-0.05604198
255	0xbd0b7d83	-0.034055244

features.2.bias f4 [32]
0	0xbc9c2f13	-0.019065415
1	0xbd4069c2	-0.04697586
2	0x3d807189	0.06271655
3	0xbbb4701b	-0.005506528
4	0x3d25079c	0.04029046
5	0xbd47f303	-0.04881574
6	0x3c898819	0.01678853
7	0xbca01160	-0.019539535
8	0x3d70a564	0.05875148
9	0x3bd754ab	0.0065713725
10	0xbd4bf9c2	-0.049798734
11	0x3d61cf5d	0.055129398
12	0xbd614ad0	-0.055002987
13	0xbcb937f2	-0.022609685
14	0x3cefeb94	0.029287137
15	0xbc3a12e4	-0.011357043
16	0xbd05a41f	-0.03262722
17	0x3d6559a2	0.055993684
18	0xbc6401b8	-0.013916425
19	0xbd3be1da	-0.045869686
20	0x3c75d302	0.015003921
21	0xbb55b81c	-0.0032610958
22	0xbce1d05e	-0.027565178
23	0xbc3e8658	-0.01162871
24	0x3c9bb475	0.019006947
25	0x3d62e520	0.055394292
26	0xbd59bd1b	-0.05315886
27	0x3d1260f3	0.03573699
28	0x3c9f0595	0.019411841
29	0x3d2b36ca	0.041800298
30	0x3c751c05	0.014960294
31	0x3d5d0fc5	0.053970117

features.5.weight f4 [64, 32, 3, 3]
0	0xbcbb928c	-0.022897027
1	0xbd1c270d	-0.03812318
2	0xbcb4792d	-0.022030437
3	0xbcf917c4	-0.03040684
4	0xbc3af0da	-0.011409963
5	0x3cbc5812	0.022991214
6	0xb97d3e36	-0.00024151136
7	0x3c77b803	0.015119555
8	0x3d0f6628	0.035009533
9	0x3cc51abf	0.024060605
10	0xbb552844	-0.003252522
11	0x3d0de27f	0.03463983
12	0x3cc27d85	0.023741493
13	0xbcf4f812	-0.029903445
14	0xbd345f92	-0.044036455
15	0xbc46e1da	-0.012138808
16	0xbd4eb8e7	-0.050469305
17	0xbc849773	-0.016185498
18	0x39d765d3	0.0004108386
19	0xbd861bbb	-0.06548258
20	0xbc8aff31	-0.016967388
21	0x3cd72c69	0.026266294
22	0xbd8af3f1	-0.067848094
23	0xbc47d01c	-0.012195613
24	0x3d3b3951	0.045708958
25	0xbd7a08eb	-0.06104366
26	0xba76f00a	-0.0009419924
27	0x3c8a4fb7	0.016883714
28	0x3d085786	0.033286594
29	0xba843651	-0.0010086988
30	0xbcd433ff	-0.0259037
31	0xbd928d8d	-0.07155905
32	0x3c76f14b	0.015072177
33	0xbca84e4e	-0.020545151
34	0xbbc7eb9e	-0.006101086
35	0xbcda9505	-0.026682386
36	0x3b94299a	0.004521561
37	0x3d12451b	0.035710435
38	0xbbaa9af7	-0.0052064615
39	0x3d5df065	0.054184336
40	0xbd075929	-0.033044014
41	0x3d4eafd8	0.050460666
42	0x3d649a04	0.055810943
43	0x3cdd45df	0.027010856
44	0xbd0cbe38	-0.034361094
45	0xbceaf3c6	-0.028680693
46	0xbd3a9712	-0.045554228
47	0x3cc8298c	0.024433874
48	0xbd33da4d	-0.04390936
49	0xbca27c4b	-0.019834658
50	0xbd40acfb	-0.047039967
51	0x3d29c04d	0.041443158
52	0xba2a5b22	-0.0006498565
53	0x3cdeb9a0	0.027188122
54	0xbd6e7ded	-0.05822556
55	0xbc96ae42	-0.01839364
56	0xbd6a1672	-0.05715031
57	0xbd1798b0	-0.03701085
58	0x3915ae1d	0.0001427461
59	0xbd4fc238	-0.05072233
60	0xbc4b7693	-0.012418407
61	0x3d0b7972	0.034051366
62	0xbd3c42a6	-0.045962
63	0x3d029b07	0.031886127
64	0xbcf5a010	-0.02998355
65	0x3ce17a49	0.02752413
66	0xbd2b114d	-0.041764546
67	0xbcf1f88f	-0.029537467
68	0xbcc5482f	-0.024082271
69	0xbc01799f	-0.007902532
70	0xbb09f64a	-0.002105134
71	0x3c50a35f	0.012734263
72	0x3bd084b1	0.0063634743
73	0xbd3ebef7	-0.046568837
74	0x3d095687	0.033529785
75	0x3ba6c589	0.005089466
76	0xbca07e9b	-0.01959162
77	0x3c5a9294	0.013340611
78	0xbbf6dfa8	-0.007533986
79	0xbd3c5439	-0.04597876
80	0xbd1777ae	-0.03697937
81	0x3bacdaa8	0.0052750893
82	0x3d1095f1	0.035299245
83	0xbd1b50a5	-0.037918705
84	0x3c3484ea	0.011018017
85	0x3d219d76	0.039456807
86	0x3cab5e51	0.020918997
87	0x3d696ca3	0.05698837
88	0x3d0a6c9c	0.033794984
89	0xbc9b2571	-0.018938752
90	0x3bcb9e73	0.006213957
91	0xb7a02f8e	-1.909563e-05
92	0xbc8890fb	-0.016670695
93	0xbcd5efb3	-0.026115274
94	0x3c9edaaa	0.019391377
95	0xbcaba34e	-0.020951893
96	0x3c10cfdf	0.008838623
97	0x3d71fee8	0.05908099
98	0x3ce707da	0.028201986
99	0xbd39bbe4	-0.045345202
100	0x3cd95e1d	0.026534135
101	0x3ca6012f	0.020264236
102	0xbd1e1b88	-0.038600475
103	0xbba008d9	-0.004883867
104	0xbca73fd2	-0.020416174
105	0x3d337494	0.04381235
106	0x3c36e76d	0.011163575
107	0x3cf22a3e	0.029561158
108	0x3d131dcb	0.035917085
109	0xbc79cb6b	-0.0152462525
110	0xbd60282d	-0.054725815
111	0x3d801718	0.06254405
112	0x3b18b87f	0.0023303328
113	0x3d156c23	0.03648008
114	0x3cb0a7e5	0.021564433
115	0xbcfd142f	-0.030893413
116	0x3d8f02a3	0.06982925
117	0x3c5ef9c5	0.013609354
118	0x3c61fade	0.013792722
119	0xbcda7883	-0.026668793
120	0x3a8d80c3	0.001079582
121	0x3d6e7eef	0.058226522
122	0x3c157000	0.009120941
123	0xbce6b258	-0.028161213
124	0xbb482538	-0.0030539762
125	0x3b921ba8	0.0044588633
126	0x3d141be2	0.036159404
127	0x3bd10965	0.0063792937
128	0x3d1e31d7	0.03862175
129	0xbaadedbf	-0.0013269706
130	0xbd1594b2	-0.03651876
131	0xbd093015	-0.03349312
132	0x3d6fb062	0.05851782
133	0xbd5e69c2	-0.054300077
134	0xbcc273ee	-0.02373692
135	0xbd21eb04	-0.03953077
136	0xbd3155d7	-0.043294754
137	0x3c06cfb0	0.0082282275
138	0x3d2e16f3	0.042502355
139	0x3d37a935	0.044839103
140	0x3ce46a34	0.027882673
141	0x3d2ce78f	0.04221302
142	0xbd4a9a07	-0.0494633
143	0xbc86a13a	-0.0164343
144	0xbd381f9c	-0.04495202
145	0xbb6830fc	-0.0035429588
146	0xbcfbbcd7	-0.030729694
147	0xbd1961fc	-0.03744696
148	0x3d7912b0	0.060808837
149	0x3d24699f	0.04013979
150	0x3d45adeb	0.048261564
151	0x3d6bf730	0.057608783
152	0xbd3170b7	-0.043320384
153	0xbd582838	-0.05277273
154	0x3c790bca	0.015200565
155	0x3d118455	0.035526592
156	0x3d709078	0.058731526
157	0x3d37fee1	0.044920806
158	0x3cad3e04	0.021147735
159	0xbd4962c3	-0.049166452
160	0xbc8aac99	-0.016928004
161	0xbd03b67b	-0.03215645
162	0xbd42cd33	-0.047558974
163	0xbc684858	-0.014177404
164	0x3c46538d	0.012104881
165	0xbd4ae358	-0.04953322
166	0x3d706dfa	0.05869863
167	0xbd59415c	-0.053040847
168	0x3c3c0842	0.011476578
169	0x3ca3043a	0.019899476
170	0x3d2bd26d	0.041948725
171	0xbd58ed67	-0.05296078
172	0x3d0fbf24	0.035094395
173	0x3d23f9e4	0.040033236
174	0xbd2e9db3	-0.042630862
175	0xbc4e5d12	-0.012595432
176	0xbd840d03	-0.06447794
177	0xbd341d2f	-0.043973144
178	0xbd3f58a8	-0.04671541
179	0xbd225b82	-0.03963805
180	0xbd61065e	-0.054937713
181	0x3d0bcb0d	0.03412919
182	0xbd2ee5e2	-0.042699702
183	0x3a579b67	0.0008224756
184	0x3d4cf769	0.050040636
185	0x3be83f14	0.0070875976
186	0x3cf503e9	0.029909091
187	0xbbf3d819	-0.0074415323
188	0x3cfcd216	0.030861896
189	0x3d101a7d	0.03518151
190	0x3cb1734a	0.02166142
191	0xbd43012d	-0.047608543
192	0xbc28f249	-0.0103116715
193	0x3d505b18	0.050868124
194	0xbd22764c	-0.039663598
195	0xbcda3f37	-0.026641471
196	0xbc87399f	-0.016506968
197	0x3d695de6	0.056974314
198	0xbb485d89	-0.003057333
199	0x3cfdc411	0.03097728
200	0x3d2e2f75	0.042525727
201	0x3d2c5060	0.04206884
202	0xbd5e148c	-0.054218814
203	0xbd0d1e9c	-0.03445302
204	0xbd509319	-0.050921533
205	0xbd95c25f	-0.07312464
206	0x3d17fb4d	0.037104893
207	0x3cf22379	0.02955793
208	0xbc60af73	-0.013713705
209	0xbd0dc5ed	-0.034612585
210	0x3cb84e95	0.022498408
211	0xbd2497db	-0.040183883
212	0x3c042e1f	0.008067637
213	0xbd233d36	-0.039853297
214	0x3d109177	0.035294976
215	0x3d1a4317	0.037661638
216	0x3d503f47	0.050841596
217	0x3d6ef2a8	0.058336884
218	0x3ca7f70d	0.020503545
219	0x3d90a3de	0.07062505
220	0xbc6fe1ad	-0.014641208
221	0x3d6e6210	0.05819899
222	0x3cf524db	0.0299248
223	0xbd2dae81	-0.042402748
224	0x3d0df03e	0.03465294
225	0xbc5690ba	-0.013096029
226	0xbc970cd7	-0.01843874
227	0x3c9a5dcb	0.018843552
228	0xbd8010ef	-0.0625323
229	0x3d331fa7	0.043731358
230	0x3d735603	0.0594082
231	0xbd888150	-0.066652894
232	0xbd615290	-0.05501038
233	0x3d37c0ec	0.04486172
234	0xbcd484fe	-0.025942322
235	0x3cbfe612	0.023425136
236	0x3be84c4f	0.007089175
237	0xbc8ab85e	-0.016933616
238	0xbd721100	-0.059098244
239	0xbc00d426	-0.00786308
240	0xbb20410a	-0.0024452829
241	0xbd649f7f	-0.05581617
242	0xbd2b522d	-0.041826416
243	0x3d16cbb1	0.03681535
244	0x3d5bdace	0.053675465
245	0xbc2ae3e0	-0.010430306
246	0x3d640256	0.05566629
247	0xbccf9ae6	-0.025342416
248	0x3d42dc1b	0.04757319
249	0x3cfd7476	0.030939322
250	0x3b9fb75b	0.0048741526
251	0x3d848414	0.064705044
252	0xbc81d840	-0.015850186
253	0xbc150723	-0.00909594
254	0xbcd9ca1a	-0.026585627
255	0x3d0fe51c	0.035130605

features.5.bias f4 [64]
0	0x3cf48b33	0.029851532
1	0xbafb690a	-0.0019181084
2	0x3d485bda	0.04891572
3	0x3cefebf3	0.029287314
4	0x3d67abd6	0.05656036
5	0xbc735741	-0.014852346
6	0xbd42223c	-0.04739593
7	0x3d1ace56	0.037794434
8	0x3c9f582e	0.019451227
9	0xbb689f34	-0.0035495283
10	0x3d0da74c	0.034583375
11	0xbd3a0bc8	-0.04542139
12	0x3d72eccc	0.05930786
13	0xbcbb84c9	-0.022890465
14	0xbcef1621	-0.029185357
15	0x3d0fbf87	0.035094764
16	0x3d2f1110	0.04274088
17	0xbd2ffe00	-0.042966843
18	0xbc0324fc	-0.008004423
19	0xbb412043	-0.0029468692
20	0xbc1b67eb	-0.009485225
21	0x3d586df5	0.05283924
22	0x3cb52514	0.022112407
23	0xbb172a85	-0.0023066115
24	0x3c9a244e	0.01881614
25	0xbba4227e	-0.0050089946
26	0xbd155b12	-0.036463805
27	0x3c30a003	0.010780337
28	0xbc19e0b7	-0.009391955
29	0xbd5bdede	-0.05367934
30	0xbce36984	-0.027760275
31	0x3d6b95d6	0.05751594
32	0x3d0f6d9e	0.03501665
33	0xbc5e8e3a	-0.013583714
34	0xbd47fdcd	-0.048826028
35	0xbcc46e96	-0.023978513
36	0xbcc252a7	-0.023721052
37	0xbd3f8393	-0.04675634
38	0x3d2a9c4c	0.041652963
39	0xbc505a23	-0.012716803
40	0x3d3583ef	0.044315275
41	0x3c144ac9	0.009051033
42	0x3d0eb5e1	0.034841422
43	0xbd6f3330	-0.058398426
44	0x3cb6ce8c	0.022315286
45	0x3cd04feb	0.025428733
46	0x3cf76f35	0.030204395
47	0x3d48797f	0.048943993
48	0xbcd261fe	-0.025681492
49	0xbd45cc58	-0.04829058
50	0x3cb1787f	0.021663902
51	0xbd0a41c0	-0.03375411
52	0x3cdb7635	0.026789764
53	0x3b240a49	0.0025030544
54	0x3cac7a75	0.021054486
55	0xbcf26f26	-0.029594015
56	0xbd34b735	-0.044120032
57	0x3d545e9b	0.051848035
58	0x3d69432c	0.056948826
59	0xbd70447e	-0.05865907
60	0x3be11488	0.0068689026
61	0xbcd9a7b2	-0.026569221
62	0x3d5bd568	0.053670317
63	0x3d27883d	0.04090141

features.7.weight f4 [64, 64, 3, 3]
0	0x3c317b88	0.010832675
1	0xbcd09063	-0.025459474
2	0x3cc02b79	0.02345823
3	0xbd07e342	-0.033175714
4	0x3ba8a932	0.005147123
5	0x3b80de04	0.0039327163
6	0x3beced27	0.007230419
7	0xbc98b735	-0.018642047
8	0x3cb99d2e	0.022657957
9	0xbc9bbad6	-0.019009989
10	0xbccec2b5	-0.025239328
11	0xbcbfe0fb	-0.023422709
12	0xbcc0d3f7	-0.023538573
13	0x3d1fac2f	0.038982566
14	0xbc123549	-0.008923837
15	0xbc891573	-0.01673386
16	0x3c74a1b8	0.014931135
17	0xbccca4ef	-0.02498099
18	0xbc9aa007	-0.018875135
19	0xbcc43371	-0.02395031
20	0xbcff3e3c	-0.031157605
21	0xbd13c360	-0.036074996
22	0xbd448277	-0.047975983
23	0xbc983ff0	-0.018585175
24	0xbad8b639	-0.0016533799
25	0xbd34f912	-0.044182844
26	0xbc9f5d13	-0.019453561
27	0x3d3aa1e3	0.045564543
28	0x3c355af9	0.011069053
29	0x3d04025e	0.03222882
30	0xbc22dc3e	-0.009940205
31	0x3d03a4ca	0.032139577
32	0xbc669988	-0.014074691
33	0xbc488fce	-0.012241317
34	0x3d4d47c7	0.05011728
35	0x3ce09497	0.027414603
36	0xbd044ab8	-0.03229782
37	0xbd423409	-0.047412906
38	0x3d05aeca	0.032637395
39	0xbce78b15	-0.028264562
40	0xbc848d60	-0.016180694
41	0xbc9ca0d1	-0.019119652
42	0x3d1a3bf8	0.037654847
43	0x3bb9e996	0.0056735976
44	0xbc8aa8c5	-0.016926179
45	0x3cdb37c5	0.026759991
46	0x3bd32a64	0.0064442623
47	0x3cc15e21	0.023604454
48	0x3bd1ce75	0.0064027854
49	0x3d038ae9	0.032114897
50	0xbbfaad42	-0.0076500485
51	0x3c985ad5	0.018598
52	0x3b445e12	0.0029963297
53	0x3d6c2868	0.057655722
54	0x3c270e08	0.010196216
55	0x3d452ae0	0.048136592
56	0x3d09135f	0.03346574
57	0x3b5f126e	0.0034038085
58	0x3d6f9098	0.058487505
59	0x3cece386	0.028917085
60	0x3c475244	0.01216561
61	0x3d3099e9	0.04311553
62	0x3c848ecc	0.016181372
63	0xbc9db0aa	-0.019249279
64	0xbb6368f0	-0.0034699999
65	0xbd48547f	-0.048908707
66	0x3caa81ff	0.02081394
67	0xbbde9eb2	-0.0067938203
68	0xbd26740a	-0.040638007
69	0x3c7ce478	0.015435331
70	0xbc65e150	-0.0140307695
71	0xbc559dc5	-0.0130381035
72	0x3d40bd0b	0.047055285
73	0x3d23cd8d	0.03999095
74	0xbba01451	-0.0048852344
75	0x3d37c0fd	0.044861782
76	0x3c6ee7a4	0.014581595
77	0x3c7a265b	0.015267934
78	0x39b333b0	0.0003418005
79	0x3c3887f9	0.011262887
80	0xbbd4eadc	-0.006497724
81	0x3cee8675	0.029116848
82	0x3cc1885d	0.023624593
83	0x3d0ce9e5	0.034402747
84	0x3d6034c5	0.054737825
85	0x3d29e40c	0.041477248
86	0xbc840c50	-0.016119152
87	0x3d4829dc	0.048868045
88	0xbc85c710	-0.016330272
89	0xbc8880c3	-0.01666296
90	0xbd065186	-0.03279259
91	0xbce60c17	-0.028081937
92	0x3cbd0d19	0.023077535
93	0xbcf1f3c3	-0.02953518
94	0x3ccce296	0.025010388
95	0xba06349b	-0.0005119533
96	0x3cb57249	0.022149222
97	0x3c2c7dc4	0.010528032
98	0xbd0457ca	-0.032310285
99	0xbc0d1c87	-0.0086127585
100	0x3d5873c6	0.052844785
101	0x3c34a7e4	0.011026356
102	0x3cd5223d	0.026017303
103	0xbc8a24f8	-0.016863331
104	0x3cc1bd3a	0.0236498
105	0xbd139a12	-0.036035605
106	0x3bea3bc7	0.0071482393
107	0x3d8bfd68	0.06835443
108	0x3cb75e05	0.0223837
109	0xbd456d4c	-0.048199937
110	0xbd0c4dc7	-0.03425386
111	0x3c576318	0.013146184
112	0xbd0c707b	-0.034286957
113	0xbd5c8110	-0.05383402
114	0x3c933be4	0.017972894
115	0x3cd65994	0.026165761
116	0x3d124f2d	0.03572004
117	0x3d300ed2	0.042982884
118	0x3cc7fa46	0.024411332
119	0x3d018ff6	0.031631432
120	0xbbdbb1fc	-0.006704567
121	0x3d415eef	0.047209676
122	0xbb86e32f	-0.004116438
123	0x3d1a98b9	0.037743304
124	0x3d1452f3	0.03621192
125	0xbc6a9f64	-0.014320228
126	0x3ca3e955	0.020008722
127	0x3d4549de	0.04816615
128	0x3c29ff29	0.010375776
129	0xbcc36fc0	-0.023856997
130	0x3ccf6e13	0.025321042
131	0x3d0c6660	0.03427732
132	0xbc6ee2b7	-0.01458042
133	0x3d587999	0.05285034
134	0x3ca49fdf	0.020095764
135	0x3d00ff5b	0.031493526
136	0x3c1527b7	0.009103707
137	0xbd342409	-0.04397968
138	0x3ce3b75e	0.027797397
139	0xbb0353b8	-0.0020038914
140	0xbcb1f07b	-0.021721115
141	0xbc716424	-0.014733348
142	0x3c6288f6	0.013826599
143	0x3d5245cf	0.051336106
144	0x3c1be42a	0.009514848
145	0x3d25503a	0.040359713
146	0x3d00b8ac	0.031426117
147	0xbbc1966e	-0.005907825
148	0x3c21eeaf	0.009883567
149	0x3c3e982a	0.011632958
150	0xbbe02b90	-0.0068411306
151	0xbc99add1	-0.01875964
152	0x3ca6a016	0.020340007
153	0x3ccf9c11	0.025342973
154	0xbd34d596	-0.044149004
155	0x3ce28d20	0.027655184
156	0x3c2e6050	0.01064308
157	0x3d233bf3	0.039852094
158	0xbd2627e7	-0.040565398
159	0x3c13e9a0	0.0090278685
160	0x3b865ff4	0.004100794
161	0x3c864e5a	0.016394783
162	0x2302a959	7.083175e-18
163	0xb8d01508	-9.92213e-05
164	0xa8bbc23b	-2.0845405e-14
165	0x18db38f2	5.6667673e-24
166	0x1cacafef	1.1427483e-21
167	0xb5a36332	-1.2173316e-06
168	0x387ad201	5.9800226e-05
169	0x1c1f9fae	5.281507e-22
170	0x9ae0bc8f	-9.294886e-23
171	0x3b001e36	0.0019549257
172	0x3d28c735	0.041205604
173	0x3d0aa092	0.033844538
174	0x3d58b4fc	0.052906975
175	0xbc6395b7	-0.013890675
176	0x3d430ee6	0.04762163
177	0x3cff69ae	0.031178322
178	0xbacbb6e9	-0.0015542182
179	0x3d6b636f	0.057467874
180	0xbd40fde9	-0.047117148
181	0xbc0101f6	-0.007874003
182	0x3d1e488d	0.03864341
183	0x3d000f10	0.031264365
184	0xbcfc741c	-0.030817084
185	0xbbd379ed	-0.0064537437
186	0xbcab2a44	-0.020894177
187	0xba830873	-0.0009997025
188	0xbcb9cb87	-0.022680057
189	0x3d225f61	0.03964174
190	0x3d7bd8ea	0.061486162
191	0x3d785b43	0.06063391
192	0x3d73e95e	0.05954873
193	0x3d167709	0.036734615
194	0xbc07c4b9	-0.008286648
195	0xba9995c9	-0.0011717613
196	0x3d295ca0	0.0413481
197	0x3c41843b	0.011811311
198	0x3d0f3aa0	0.03496802
199	0xbc87997a	-0.016552676
200	0xbbd97c75	-0.006637151
201	0x3d0d7e3e	0.034544222
202	0x3d15982c	0.036522076
203	0xbc8f9ab0	-0.017529815
204	0xbc733d7e	-0.014846204
205	0xbd1952f7	-0.037432637
206	0x3baab3ea	0.0052094357
207	0xbd10ad6e	-0.035321645
208	0xbcef5cd8	-0.029219076
209	0x3c6fab31	0.014628218
210	0xbc989aaf	-0.018628446
211	0x3d3b366e	0.045706205
212	0x3d6edc75	0.058315713
213	0xbc851b3a	-0.016248334
214	0xbd14e35e	-0.036349647
215	0xbcb21b0d	-0.021741414
216	0x3bdba8f7	0.006703492
217	0xbd0d6680	-0.03452158
218	0x3cf41a36	0.029797655
219	0x3cfa1c37	0.030531032
220	0x3d1943b5	0.037418086
221	0xbcbdcec4	-0.023169883
222	0x3b1dc3b5	0.002407295
223	0xbc0314c3	-0.008000555
224	0xbd154439	-0.036442015
225	0x3cc29986	0.023754846
226	0x3cb3c25a	0.02194326
227	0x3cb8b5fc	0.022547714
228	0xbcc28726	-0.023746084
229	0x3d1b4357	0.037906017
230	0x3cfe7863	0.031063264
231	0xbd11e49c	-0.03561841
232	0x3ce0f83c	0.027462117
233	0x3c9847c8	0.018588915
234	0x3bf90820	0.0075998455
235	0xbc6bace7	-0.014384485
236	0x3d00e550	0.03146869
237	0xbc023d6c	-0.007949214
238	0x3d0e740e	0.034778647
239	0xbb1e5ab2	-0.0024162945
240	0x3c45f02a	0.012081185
241	0x3c97c07b	0.018524399
242	0x3d5cc22c	0.053896114
243	0xbd1acae8	-0.037791163
244	0xbca67af3	-0.020322299
245	0xbcba94bb	-0.022775998
246	0x3c5a1fc9	0.013313242
247	0xbcd21a46	-0.025647294
248	0x3cd7a2cb	0.026322743
249	0x3d3d08aa	0.04615084
250	0x3ce10000	0.02746582
251	0x3c364d37	0.011126808
252	0x3bd3f505	0.0064684176
253	0xbd450be0	-0.048107028
254	0xbc7b2168	-0.015327789
255	0xbb4a1055	-0.0030832489

features.7.bias f4 [64]
0	0x3d227268	0.039659888
1	0xbc861d76	-0.01637147
2	0x3d307e5f	0.043089267
3	0xbc666b3f	-0.014063655
4	0x3d25909a	0.040421106
5	0xba130eea	-0.00056098273
6	0x3cecb6e6	0.028895807
7	0x3d0eb6a6	0.034842156
8	0x3cefc4a6	0.029268574
9	0xbc4d9497	-0.012547634
10	0xbc417dd5	-0.011809786
11	0x3d05eb94	0.032695368
12	0x3d381162	0.044938453
13	0xbd2da9af	-0.04239815
14	0xbcdccaa1	-0.02695209
15	0xbbbe498e	-0.0058071082
16	0xbcf4fe79	-0.029906498
17	0x3d33f8b2	0.043938346
18	0x3c0429c8	0.008066602
19	0xbb19102f	-0.0023355593
20	0xbd0a93e1	-0.033832435
21	0x3c8688e3	0.016422695
22	0xbcf36890	-0.029712945
23	0x3d1f55ea	0.038900293
24	0xbcfb761e	-0.030695971
25	0xbccbb778	-0.024867758
26	0xbcdc1bf3	-0.026868796
27	0xbbc202c7	-0.0059207412
28	0xbc0f6c0d	-0.008753789
29	0x3cbc68ea	0.022999246
30	0xbce3f4d9	-0.027826713
31	0x3c95599e	0.01823121
32	0x279eaf29	4.404372e-15
33	0x3ca83071	0.020530911
34	0xbc58da20	-0.013235599
35	0x3d117556	0.03551229
36	0xbd2b57cb	-0.041831773
37	0x3c9a326e	0.018822875
38	0x3cfc5515	0.030802289
39	0x3d108ac7	0.0352886
40	0x3d003ac1	0.031306032
41	0x3c8ad0ab	0.016945204
42	0x3b293334	0.0025817873
43	0x3d1d5b9e	0.03841745
44	0xbb0c8be0	-0.0021445677
45	0x3cadf6fd	0.021235937
46	0x3c7551c4	0.014973108
47	0x3b178d9c	0.0023125177
48	0x3d0ddf48	0.034636766
49	0xbcd1b768	-0.02560015
50	0x3c3c6bad	0.011500281
51	0xbb98e8ad	-0.004666409
52	0x3bdb794c	0.0066978093
53	0xbbe99824	-0.0071287323
54	0xbbafca60	-0.005364701
55	0xbbfa2a3c	-0.0076344293
56	0x3b3dc781	0.0028958025
57	0x3cf585d7	0.029971046
58	0xbbe94e46	-0.0071199266
59	0xbc8f9b30	-0.017530054
60	0xbbbf1390	-0.0058311895
61	0xbd060f26	-0.03272929
62	0x3b87b7e8	0.0041417964
63	0x3c6c4fb6	0.014423301

features.10.weight f4 [64, 64, 1, 1]
0	0x3deef519	0.116678424
1	0x3d25beda	0.040465213
2	0xbd29a94a	-0.041421212
3	0xbdaf638a	-0.085639074
4	0x3da994b5	0.08280317
5	0x1ce48d3e	1.5124285e-21
6	0xbd4f2cbd	-0.050579775
7	0xbd004f90	-0.031325877
8	0x3d357b33	0.044306945
9	0x3d9ee7f4	0.07759085
10	0x3dbc0c86	0.09182076
11	0x3dffb877	0.12486356
12	0x3da7a57c	0.081858605
13	0xbd802251	-0.06256545
14	0xbd2b4cc2	-0.04182125
15	0x3dec3c58	0.11534947
16	0x3d8258ab	0.06364568
17	0xbda7d91e	-0.08195709
18	0xbd568aab	-0.052378338
19	0x3e07f061	0.13275291
20	0x3d5489ef	0.051889356
21	0x3da1ef90	0.07907021
22	0x3daebe74	0.0853242
23	0xbc6f297a	-0.014597291
24	0x3e06fb11	0.13181712
25	0xbcfca476	-0.03084014
26	0x3d3134f4	0.04326339
27	0xbdebc7f0	-0.115127444
28	0x3d416453	0.047214817
29	0x3ddc6062	0.10760571
30	0xbd1ea0d1	-0.038727585
31	0x3bb9fdf8	0.0056760274
32	0xbce75297	-0.028237624
33	0x3de4419a	0.11145325
34	0xbd346895	-0.04404505
35	0x3dc57e59	0.096432395
36	0x3c67239c	0.014107611
37	0x3d4f50cb	0.05061416
38	0x3d9a6a3c	0.07539794
39	0x3d14ebf2	0.036357827
40	0xbc23b8cb	-0.009992789
41	0x3c8c9380	0.017160177
42	0x3cdb5622	0.02677447
43	0x3d7c6dab	0.061628025
44	0x3dcbd558	0.099528015
45	0xbcbec266	-0.023286056
46	0xbdcc843e	-0.09986161
47	0x3dfd8906	0.12379651
48	0xbd3c2042	-0.0459292
49	0xbdc0c48b	-0.094124876
50	0xbe0d10df	-0.13775967
51	0x3e050910	0.12991738
52	0x3d1b37c3	0.037894975
53	0x3c9020c2	0.017593745
54	0x3d2cb4b1	0.04216451
55	0x3d03b0c2	0.03215099
56	0xbc250d05	-0.010073905
57	0xbd93f6d6	-0.072248146
58	0xbd1e5853	-0.03865845
59	0xbdaeba0b	-0.08531579
60	0x3e0104c6	0.12599477
61	0xbd79134c	-0.06080942
62	0xbd260013	-0.040527415
63	0xbdb0bb93	-0.08629527
64	0x3e0119c3	0.12607484
65	0x3dcdeee9	0.10055334
66	0x3d863d59	0.0655467
67	0x3d1882e1	0.03723419
68	0x3d1d4279	0.03839347
69	0xbc00de29	-0.007865467
70	0xbd88be3d	-0.0667691
71	0xbd9ad149	-0.07559449
72	0xbdc458b2	-0.0958723
73	0x3ddfa4c5	0.10920099
74	0xbcc0d98a	-0.02354123
75	0x3dbf0fe2	0.09329201
76	0x3c1ff174	0.009762157
77	0x3dbe8fe4	0.09304789
78	0x3cb61b96	0.02222995
79	0x3dc58c51	0.09645904
80	0x3d426f1c	0.047469243
81	0x3df18f85	0.11794952
82	0x3b799939	0.0038085713
83	0xbdd86ffb	-0.105682336
84	0x3d2175b7	0.039418902
85	0x3d4598ae	0.04824131
86	0x3b30ea4d	0.0026995123
87	0xbcf4cf06	-0.029883873
88	0xbd6bbf1f	-0.057555314
89	0xbb1586d2	-0.0022815955
90	0xbd098b0b	-0.033579867
91	0xbdde1377	-0.108435564
92	0xbd8be6bd	-0.06831119
93	0xbcad315d	-0.021141702
94	0x3d8e1e3e	0.06939362
95	0x3ddfa8d3	0.109208725
96	0x9aa05af7	-6.632141e-23
97	0xbcc90603	-0.024539
98	0xbd9f6ecb	-0.07784804
99	0x3d8a0ebf	0.06741094
100	0xbdb592ab	-0.08865865
101	0x3d9dcbc3	0.0770488
102	0xbcb143ab	-0.021638712
103	0xbdf51265	-0.11966399
104	0xbd8cbfda	-0.0687253
105	0xbd8374e1	-0.06418777
106	0xbd9d4df2	-0.076808825
107	0xbda1889a	-0.07887383
108	0xbca2cbcf	-0.019872574
109	0xbca40cc5	-0.02002562
110	0xbdb5b1b5	-0.088717856
111	0x3d0da3a0	0.034579873
112	0x3da3cd00	0.07998085
113	0x3d561027	0.052261498
114	0x3dec65f8	0.115428865
115	0xbd78fc30	-0.06078738
116	0x3def755a	0.11692305
117	0xbca92787	-0.02064873
118	0xbdd77a13	-0.10521331
119	0xbd501658	-0.05080256
120	0xbd932a8d	-0.0718585
121	0x3df376ce	0.118878946
122	0x3cfe6be2	0.031057302
123	0xbd8f90dd	-0.07010052
124	0xbd3dc99b	-0.046334844
125	0x3ce227f0	0.027606934
126	0xbdbf2d30	-0.09334791
127	0x3ddd46e1	0.10804535
128	0x3e05a221	0.13050129
129	0x3dcc95f9	0.099895425
130	0xbd86e86f	-0.06587302
131	0xbaa0ecba	-0.0012277581
132	0xbde31ca9	-0.11089451
133	0xbaf2f52c	-0.0018536202
134	0x3d76f904	0.060296074
135	0xbda2da66	-0.079518124
136	0xbdb88d43	-0.090113185
137	0xbd08bd57	-0.033383694
138	0xbd816391	-0.06317819
139	0x3dd9e3c0	0.10639143
140	0x3cfe1d46	0.031019818
141	0x3da51915	0.08061425
142	0xbdedff8b	-0.116210066
143	0xbcb98851	-0.022648009
144	0x3dac4d82	0.08413221
145	0xbd94679b	-0.07246324
146	0x3a6b791e	0.00089825864
147	0xbddb92a6	-0.1072133
148	0xbd2860c0	-0.041107893
149	0xbdb96c55	-0.09053866
150	0x3db6ec65	0.089318074
151	0x3cecb0ce	0.0288929
152	0xbdf5591d	-0.11979888
153	0x3aae1330	0.0013280865
154	0xbdb64482	-0.088997856
155	0xbd341607	-0.04396632
156	0x3c94a193	0.01814345
157	0x3dc418bb	0.095750295
158	0xbdadcab6	-0.0848593
159	0xbca3752d	-0.019953335
160	0xbb931619	-0.004488718
161	0xbdcf951f	-0.101358645
162	0x3e009020	0.1255498
163	0xbdb14412	-0.086555615
164	0x3dccacd6	0.09993903
165	0x3debeb62	0.11519505
166	0x3c7e26d3	0.015512186
167	0x3cef70ca	0.029228587
168	0xbdc4b523	-0.096048616
169	0xbd3479f1	-0.044061605
170	0x3dc6dc50	0.0970999
171	0xbda637fc	-0.08116147
172	0xbb1aacf2	-0.0023601619
173	0x3d17bee5	0.037047286
174	0x3bc647c3	0.006051035
175	0x3d88c720	0.06678605
176	0xbda20c59	-0.079125114
177	0xbccf6906	-0.025318634
178	0xbdef06c5	-0.11671213
179	0x3dab9ce3	0.08379533
180	0xbca05cf4	-0.019575574
181	0xba358d16	-0.00069256255
182	0xbd9a84f4	-0.0754489
183	0xbdbf6682	-0.09345724
184	0xbd3a76b0	-0.045523345
185	0x3dd6b482	0.10483648
186	0x3dceb516	0.10093133
187	0xbc0c8936	-0.0085776355
188	0x3d12df02	0.035857208
189	0x3e08c9e4	0.13358265
190	0xbdd1b91c	-0.10240385
191	0xbdd2741d	-0.10276053
192	0xbd3a657b	-0.045506936
193	0x3c937315	0.017999211
194	0x3d6d2427	0.057895806
195	0xbb20c646	-0.0024532243
196	0xbc25826f	-0.010101899
197	0x3b81922a	0.0039541917
198	0x3c55d610	0.013051525
199	0x3b8c7a37	0.00428703
200	0xbb7b9f79	-0.0038394614
201	0xbcd830ce	-0.02639046
202	0x3d327c69	0.043575678
203	0xbd9fd5ad	-0.07804427
204	0xbd1e4588	-0.03864053
205	0x3b39490a	0.0028272294
206	0x38d94b8e	0.000103614395
207	0xbd0f01e2	-0.034913905
208	0xbc812dc0	-0.015768886
209	0xbcdef023	-0.027214115
210	0x1a2e9dfd	3.610998e-23
211	0xbb21ba89	-0.0024677834
212	0xbb438dea	-0.0029839226
213	0x3ce38f90	0.027778417
214	0xbd29b8b0	-0.041435897
215	0x3a46ceae	0.0007583898
216	0x39da1cc8	0.00041601644
217	0x3d7c7a30	0.061639965
218	0xbd91c162	-0.07116963
219	0x3cb196e0	0.021678388
220	0x3b13b50a	0.0022538328
221	0xbadff175	-0.001708551
222	0xbb4784cb	-0.003044414
223	0xbbaa9886	-0.0052061705
224	0x3c68b8a9	0.014204183
225	0x3d6e9de6	0.058256052
226	0x3d843ec9	0.06457288
227	0xbd47c001	-0.048767094
228	0xbb06faa9	-0.0020596182
229	0xbd57c4ba	-0.052677847
230	0xbb219e10	-0.0024660863
231	0xbc19ddf0	-0.009391293
232	0x3cf67e39	0.030089485
233	0x3c9450b0	0.018104881
234	0x3cd3097c	0.025761358
235	0xbd44df71	-0.048064653
236	0x3d8392b5	0.064244665
237	0xbb209717	-0.002450412
238	0xbb4d70fa	-0.0031347857
239	0xbbf2e5ad	-0.0074126334
240	0xbaf535b2	-0.0018708019
241	0xbcb89669	-0.022532659
242	0x3d3638a2	0.044487603
243	0x3cc8d92e	0.024517622
244	0xbcc856fc	-0.02445554
245	0xb7743d22	-1.4557767e-05
246	0xbb562b6e	-0.0032679695
247	0x3b951eb6	0.00455078
248	0xbb159c5a	-0.0022828788
249	0xbb3b00f9	-0.0028534515
250	0x3d6112bf	0.05494952
251	0xbcf95dc0	-0.030440211
252	0x3cbd25b1	0.023089262
253	0xbb2a8a91	-0.0026022533
254	0xbd347275	-0.044054467
255	0xbd8264c1	-0.063668735

features.10.bias f4 [64]
0	0xbd17d82a	-0.037071384
1	0x3c0920d8	0.008369647
2	0x3de9a0e7	0.11407643
3	0xbd5aa884	-0.053383365
4	0x3dada0b4	0.08477917
5	0x3cdc86ed	0.026919806
6	0xbd609318	-0.05482778
7	0xbd2baa24	-0.041910306
8	0x3da59659	0.08085317
9	0xba3a9b43	-0.0007118473
10	0x3de07f81	0.109618194
11	0x3c3222c3	0.010872546
12	0xbbaac5c6	-0.0052115647
13	0xbd1de17b	-0.038545113
14	0x3dd7fcc3	0.10546257
15	0x3db365b1	0.087596305
16	0xbd315723	-0.04329599
17	0x3d7292d4	0.059222057
18	0xbc9da961	-0.019245805
19	0xbd24a986	-0.040200733
20	0x3d4d2989	0.05008844
21	0xbd72b4c8	-0.059254438
22	0xbdaa5d1a	-0.08318539
23	0x3d02c647	0.031927373
24	0x3db7d96e	0.08977018
25	0x3dd1c83f	0.10243272
26	0x3d2240ff	0.039612766
27	0xbd92018a	-0.071292
28	0xb9a1f4b0	-0.0003089062
29	0xbd5f8ea8	-0.054579407
30	0xbd0ed993	-0.034875464
31	0x3ddc8da6	0.10769205
32	0x3bac164a	0.0052516805
33	0xbd50950d	-0.050923396
34	0xbd4bdda3	-0.049771916
35	0xbc05eb85	-0.008173828
36	0xbdbc4cc5	-0.0919433
37	0x3b49fe0a	0.0030821585
38	0x3d2856e7	0.0410985
39	0x3cde9f7f	0.027175663
40	0xbd843d9c	-0.064570636
41	0xbbf5b605	-0.007498505
42	0x3dc60bb1	0.09670199
43	0xbba8fc57	-0.0051570344
44	0xbdba970c	-0.09110841
45	0xbccccab1	-0.024998995
46	0xbd1c43da	-0.038150646
47	0xbca2ee04	-0.019888885
48	0xbdac1d54	-0.084040314
49	0xbd9c5a41	-0.07634402
50	0xbdc248b3	-0.094865225
51	0x3d82cbbe	0.06386517
52	0x3cb03e62	0.021514121
53	0x3d660ed1	0.056166474
54	0xbc5c3102	-0.013439419
55	0x3dc6b01b	0.09701558
56	0x3d9edbc0	0.07756758
57	0x3def8f69	0.11697275
58	0x3d706d31	0.058697883
59	0xbdb15f9e	-0.08660816
60	0xbc023d4b	-0.007949184
61	0xbd2017f2	-0.039085336
62	0x3de7e37f	0.11322688
63	0xbc21c8e4	-0.009874556

classifier.0.weight f4 [3, 64]
0	0xbdf429e8	-0.119220555
1	0xbd5dc339	-0.054141257
2	0xbdbf3548	-0.093363345
3	0xbd001e15	-0.03127869
4	0x3d941476	0.07230465
5	0x3d70bc39	0.058773253
6	0x3d0bdc52	0.03414566
7	0x3d845ada	0.06462641
8	0xbc7fe936	-0.015619567
9	0x3d546793	0.05185659
10	0x3de72a92	0.112874165
11	0xbca374d4	-0.019953169
12	0x3da47378	0.080298364
13	0xbbd64e33	-0.006540084
14	0x3de23aac	0.11046347
15	0xbbcaebca	-0.006192659
16	0xbc8223e6	-0.015886258
17	0x3d3ef562	0.046620734
18	0xbc4e294c	-0.012583088
19	0xbcb985ec	-0.022646867
20	0x3dfd9c60	0.12383342
21	0xbdfb2561	-0.12262989
22	0xbd9ca35d	-0.076483466
23	0xbc8921cc	-0.016739748
24	0xbddeb302	-0.10873987
25	0x3c1b7b39	0.009489828
26	0x3d136d84	0.035993114
27	0x3c91c498	0.017793939
28	0x3cf0098f	0.029301433
29	0x3c4d09c2	0.0125145335
30	0xbb978b99	-0.0046247956
31	0x3d7b779f	0.061393376
32	0x3c19d160	0.009388298
33	0x3c909f48	0.017654076
34	0xbddd98db	-0.108201705
35	0xbd3ad6f9	-0.04561517
36	0xbc936ec1	-0.017997148
37	0xbd46fd3f	-0.048581358
38	0xbe0e31e7	-0.13886224
39	0xbd200a18	-0.039072126
40	0x3aebf28c	0.0018001362
41	0xbe0b7ea2	-0.13622525
42	0xbdd2ef50	-0.102995515
43	0xbc380d31	-0.011233614
44	0xbda4bbf0	-0.08043659
45	0x3d82878e	0.06373511
46	0xbcf95919	-0.030437993
47	0x3cc5b718	0.024135157
48	0x3d1dcf6c	0.03852789
49	0x3d792fcf	0.06083661
50	0xbdae0424	-0.084968835
51	0xbd733629	-0.059377823
52	0x3da2e4a8	0.07953769
53	0x3d847375	0.06467334
54	0x218846c5	9.234451e-19
55	0x3c7530ae	0.014965219
56	0x3cd1daa9	0.02561696
57	0xbd182b54	-0.037150696
58	0xbd6ba4c0	-0.057530165
59	0xbdebffb0	-0.11523378
60	0x3bc293ef	0.005938045
61	0x3d4553ee	0.048175745
62	0xbd0a9c75	-0.033840615
63	0x3c19ce67	0.009387589
64	0x3c31cc57	0.010851941
65	0x3dd9a9d1	0.10628093
66	0xbdd440a9	-0.103638954
67	0xbd91737e	-0.071021065
68	0x3dda5bd8	0.10662049
69	0x3dd38b23	0.103292726
70	0x3b36d4f5	0.0027897928
71	0xbd675211	-0.05647475
72	0xbd6d24f1	-0.05789656
73	0xbd55e35c	-0.05221878
74	0x3d279202	0.04091073
75	0x3cbe2b30	0.023213953
76	0x3d7c0e30	0.061536968
77	0x3c143162	0.009044977
78	0xbc6ef55c	-0.014584865
79	0xbda1aad2	-0.078939095
80	0xbdb27dbc	-0.08715388
81	0x3d7f1de1	0.062284354
82	0xbc66bd82	-0.014083268
83	0x3a6152b3	0.0008595392
84	0x3d2d7e92	0.042357035
85	0x3d8dd68e	0.06925689
86	0xbbced516	-0.006312023
87	0xbcdd3569	-0.027003007
88	0xbd903051	-0.070404656
89	0x3def9f42	0.11700298
90	0xbdb8f394	-0.09030834
91	0xbdd8cf2e	-0.105863914
92	0xbb8c934e	-0.004290021
93	0x3d1f13d4	0.03883727
94	0xbcf924d4	-0.030413069
95	0xbdf488d4	-0.119401604
96	0xba84992b	-0.0010116448
97	0x3ded2cec	0.11580834
98	0xbd42d8c3	-0.04757
99	0x3c4c3514	0.012463827
100	0x3cf0775e	0.029353794
101	0x3de94411	0.11389936
102	0x3de02b3d	0.10945747
103	0xbdba7f17	-0.09106272
104	0xbd818e6d	-0.06325994
105	0x3c4aba21	0.012373478
106	0x3c0f7538	0.0087559745
107	0x3c039421	0.008030922
108	0x3d2667ca	0.040626325
109	0x3cf74417	0.030183835
110	0x3b40524b	0.0029345925
111	0x3cfbaa4a	0.030720849
112	0xbdc23ef9	-0.09484667
113	0xbd24b992	-0.040216036
114	0xbd49a213	-0.04922683
115	0x3cacd4f5	0.02109764
116	0xbd08fc6b	-0.03344385
117	0x3dc2d838	0.09513897
118	0xbc85c40a	-0.01632883
119	0x3d7651b3	0.06013651
120	0xbc4dcd7e	-0.0125612
121	0xbd7a0eeb	-0.061049383
122	0xbd573fcd	-0.05255108
123	0xbd6daf4f	-0.058028515
124	0x3d94b230	0.07260549
125	0x3bac5367	0.005258966
126	0x3cf08601	0.029360773
127	0x3d0f2f92	0.034957476
128	0x3d760347	0.06006172
129	0xbd9bc3d5	-0.07605711
130	0x3d9c20f9	0.076234765
131	0xbb811fd5	-0.0039405623
132	0xbc8abc80	-0.016935587
133	0xbd79c421	-0.06097806
134	0xbdea0e9a	-0.11428566
135	0xb8d2f2e8	-0.00010058825
136	0x3dbceb27	0.09224539
137	0xbdfa58ea	-0.1222399
138	0xbd2a4769	-0.04157201
139	0x3d76b5bb	0.060231905
140	0xbb183c7b	-0.0023229409
141	0x1ac3e128	8.101387e-23
142	0x3dccb470	0.09995353
143	0xbd6f41c1	-0.058412317
144	0xbd6f4e9b	-0.058424573
145	0x3d1f3422	0.038868077
146	0xbdb3302d	-0.08749423
147	0x3c6eba02	0.014570715
148	0xbd95ed34	-0.073206335
149	0x3ca00d6c	0.01953765
150	0xbdaf2eb8	-0.08553833
151	0x3c415dc5	0.011802142
152	0xbda1b257	-0.07895344
153	0x3ce16d6d	0.027517999
154	0x3cda9ca2	0.026686016
155	0x3d1ac94a	0.03778962
156	0xb07d5b8f	-9.2170976e-10
157	0xbda73f1c	-0.08166334
158	0xbb0b9880	-0.0021300614
159	0xbcde8b48	-0.027166024
160	0xbdcd8aae	-0.10036217
161	0xbd5d0c6f	-0.053966936
162	0xbca66c6f	-0.020315377
163	0xbb20d5ee	-0.0024541575
164	0xbcb45b30	-0.022016138
165	0xbdc436fc	-0.095808
166	0x3d890bf8	0.06691736
167	0xbdd83c06	-0.105583236
168	0xbd4657d4	-0.048423603
169	0x3d841a4f	0.064503305
170	0xbc9250b5	-0.01786075
171	0x3d85d56f	0.0653485
172	0x3dbb29bc	0.091388196
173	0xbd1af890	-0.037834704
174	0xbda115d1	-0.07865489
175	0xbc094ead	-0.008380574
176	0x3d859513	0.06522574
177	0xbd2e3c2d	-0.042537857
178	0x3ccf5aeb	0.025311908
179	0xbd34fd3b	-0.044186812
180	0x3cf5aef6	0.029990654
181	0xbe01edd4	-0.1268838
182	0xbb3ea561	-0.0029090273
183	0x3c8e93b2	0.017404411
184	0xbd0b05b8	-0.033941
185	0xbde3ddc7	-0.11126285
186	0xbd6ee83e	-0.058326952
187	0xbd925cfa	-0.0714664
188	0x3d048856	0.032356583
189	0x3b0e6514	0.0021727728
190	0x3d0868c2	0.03330303
191	0x3d8615b7	0.065471105

classifier.0.bias f4 [3]
0	0xbd095e49	-0.033537183
1	0xbd29f1c8	-0.041490346
2	0xbc3e5c10	-0.011618629
