benchmark_model_data/20000_image_experiment_50_epochs_incomplete/benchmark_experiment_increased_data/experience_1_2_3/model_experience_1_2_3.pth (torch, 854994 bytes, 36 tensors)

features.0.weight f4 [32, 3, 3, 3]
-0.09179599 -0.07061583 -0.18828626 -0.04924283 0.18851149 -0.13898957 0.18036409 0.117023975
0.07778279 0.050787218 0.04187192 0.05498935 -0.080846705 -0.18829449 -0.16061379 -0.013234703
0.17822313 -0.088203214 -0.0066991085 -0.07340858 -0.15462077 0.16051616 -0.21193767 -0.22904377
0.012223081 -0.20948303 0.011221009 -0.22611982 -0.06403607 -0.12214056 -0.059660755 -0.10395181
0.133457 -0.107554436 0.0047516134 -0.09083679 0.18227328 -0.14915814 0.20479496 0.15239681
-0.10618963 0.07423931 -0.014452463 0.037489083 0.051476527 -0.16713598 0.10027827 -0.020637233
0.03793138 -0.20554312 0.02514279 -0.03032786 0.07220829 0.06344238 -0.077363886 -0.08221338
-0.066326186 -0.18628472 0.13764481 -0.12657455 0.103370175 0.034098793 0.14044768 -0.22146185
-0.14247693 0.11062624 -0.248138 -0.06451991 0.095563866 -0.10226316 -0.2680468 -0.115067475
-0.14258756 0.105468206 0.17623131 0.025365898 -0.08122891 0.103161044 0.068481244 -0.06452009
-0.09310562 0.098456964 -0.1804759 0.021083293 0.08667087 0.0009305633 0.08430211 -0.13573006
-0.15152597 -0.1907975 0.20684184 -0.06617202 0.16726238 0.061457034 0.16847977 -0.015006041
0.20033345 0.01418122 0.087512754 -0.099480875 -0.10704112 -0.1642866 -0.11507554 0.071380265
0.102427185 0.05695839 0.07785424 -0.22165065 0.007363318 0.07812067 -0.18331924 0.0712103
0.03681037 0.14672706 0.18283568 0.0010503604 0.17810877 -0.11349908 -0.05362558 -0.020491704
0.03948141 -0.039382458 -0.21896964 0.07131371 -0.08629183 -0.19518156 0.0031623335 -0.052432913
-0.2373526 0.1342803 -0.084703706 -0.19883558 0.18735111 0.18979007 -0.12576687 0.1750927
0.018284686 -0.011125459 0.0048696543 -0.10141238 -0.15727605 -0.14351876 -0.22382428 -0.0033915897
-0.088616766 -0.13509074 -0.004461962 0.22397985 0.12580988 0.18049914 0.26137167 0.14544483
0.11500799 0.075092316 0.107709415 0.17582487 0.06844078 -0.20409645 -0.063273124 0.08203989
-0.19382365 -0.09942915 -0.050107375 0.09133277 -0.030668387 -0.14341384 -0.09376609 -0.09163659
0.06616546 -0.07413172 -0.010837351 0.105356276 -0.06231994 -0.16715224 -0.08887174 -0.19600223
-0.16883993 0.1405763 -0.14971183 -0.20879544 -0.062620625 0.1341882 -0.1539386 -0.040279023
0.16096874 0.0020073366 -0.04447768 -0.095161825 0.009162497 0.11284366 -0.18353197 -0.01856344
0.0062143775 0.10438482 -0.16394311 0.13358827 0.12697342 0.064279765 -0.069626525 -0.13314748
-0.08297393 0.02533096 0.13827267 -0.112259656 0.06498898 -0.049626347 -0.061527442 -0.18080951
0.09773454 0.16538304 -0.1233721 0.21505581 0.17732324 0.116738245 0.23728772 -0.13077393
0.08048095 0.17404638 0.020225482 0.13917655 0.11504257 0.031205982 -0.07669108 0.058821075
-0.0952034 0.10901058 0.05775148 0.14942738 0.16353934 0.055695772 -0.09846297 -0.034220338
-0.0760631 0.10399968 -0.005239942 -0.15748428 -0.018179493 0.03930371 -0.09747868 0.06816579
-0.006502689 0.08411809 0.2021775 -0.07361522 0.22022495 0.013982972 -0.09515895 0.20678936
0.058409166 -0.028618902 -0.057174508 -0.10179419 0.111505054 0.08712559 -0.018476399 0.026194924
00000000: 89ff bbbd 089f 90bd 1dce 40be dab2 49bd
00000010: 2809 413e 4853 0ebe 5db1 383e 44aa ef3d
00000020: 954c 9f3d 4206 503d e481 2b3d 833c 613d
00000030: f592 a5bd 45d0 40be f177 24be 5ed6 58bc
00000040: 2080 363e e3a3 b4bd 3284 dbbb 3d57 96bd
00000050: e854 1ebe 595e 243e 3006 59be 738a 6abe
00000060: 5143 483c b882 56be 53d8 373c f48b 67be
00000070: 5825 83bd d424 fabd d65e 74bd b0e4 d4bd
00000080: f4a8 083e 8045 dcbd 6cb3 9b3b a408 babd
00000090: d9a5 3a3e e9bc 18be c5b5 513e e90d 1c3e
000000a0: f379 d9bd c80a 983d 06ca 6cbc 278e 193d
000000b0: 0dd9 523d b225 2bbe b25e cd3d 6a0f a9bc
000000c0: ef5d 1b3d e579 52be 41f8 cd3c 2272 f8bc
000000d0: f1e1 933d 14ee 813d f570 9ebd 7d5f a8bd
000000e0: 06d6 87bd 6cc1 3ebe c3f2 0c3e c29c 01be
000000f0: beb3 d33d 2dab 0b3d 84d1 0f3e e5c6 62be
00000100: 79e5 11be 0390 e23d e317 7ebe 0423 84bd
00000110: fdb6 c33d 596f d1bd 6e3d 89be 7fa8 ebbd
00000120: 7902 12be b7ff d73d fb75 343e 25cc cf3c
00000130: 585b a6bd 1946 d33d e53f 8c3d 1c23 84bd
00000140: 29ae bebd cea3 c93d adce 38be dfb6 ac3c
00000150: 7f80 b13d 0cf1 733a 96a6 ac3d d2fc 0abe
00000160: a029 1bbe 6b60 43be 59ce 533e 3285 87bd
00000170: d446 2b3e 5fba 7b3d f685 2c3e e6db 75bc
00000180: 3624 4d3e 5958 683c e339 b33d a1bc cbbd
00000190: 6038 dbbd bf3a 28be baac ebbd d12f 923d
000001a0: 58c5 d13d 334d 693d 0b72 9f3d 63f8 62be
000001b0: fd47 f13b bbfd 9f3d 0ab8 3bbe b5d6 913d
000001c0: 78c6 163d 9e3f 163e 4739 3b3e 3fac 893a
000001d0: 2562 363e 3572 e8bd 7fa6 5bbd 38de a7bc
000001e0: 42b7 213d 804f 21bd 9439 60be ec0c 923d
000001f0: c5b9 b0bd addd 47be 273f 4f3b e5c3 56bd
00000200: 8f0c 73be c680 093e 2379 adbd 8e9b 4bbe
00000210: f8d8 3f3e 5458 423e 08c9 00be 804b 333e
00000220: c4c9 953c 8f47 36bc 9f91 9f3b 4bb1 cfbd
00000230: f90c 21be 95f6 12be 3132 65be 6f45 5ebb
00000240: b57c b5bd 3a55 0abe a635 92bb f95a 653e
00000250: 4ed4 003e c4d4 383e 82d2 853e 7def 143e
00000260: 4f89 eb3d 00ca 993d c196 dc3d 6f0b 343e
00000270: ae2a 8c3d a9fe 50be 5795 81bd 8804 a83d
00000280: b579 46be 83a1 cbbd 643d 4dbd ad0c bb3d
00000290: 453c fbbc 14db 12be 7008 c0bd f7ab bbbd
000002a0: c281 873d 5fd2 97bd 258f 31bc 08c5 d73d
000002b0: 3243 7fbd f529 2bbe 6302 b6bd cfb4 48be
000002c0: 60e4 2cbe 3cf3 0f3e 0f4e 19be 79ce 55be
000002d0: 3e3f 80bd a268 093e 15a2 1dbe 9efb 24bd
000002e0: fdd4 243e 858d 033b 3a2e 36bd 34e4 c2bd
000002f0: 4c1e 163c 941a e73d ceef 3bbe 5b12 98bc
00000300: faa1 cb3b b5c7 d53d b4e0 27be 5dcb 083e
00000310: 5205 023e 1ca5 833d 5a98 8ebd d057 08be
00000320: 3cee a9bd e082 cf3c 5a97 0d3e 64e8 e5bd
00000330: f118 853d ff44 4bbd 3304 7cbd 2126 39be
00000340: 0c29 c83d 2c5a 293e 83aa fcbd 9737 5c3e
00000350: 3994 353e 7614 ef3d 8dfb 723e 9ae9 05be
00000360: 32d3 a43d 3739 323e e9af a53c 4c84 0e3e
00000370: 709b eb3d b0a3 ff3c 3710 9dbd 5eee 703d
00000380: 00fa c2bd f040 df3d d18c 6c3d 7e03 193e
00000390: db76 273e 4021 643d f4a6 c9bd a02a 0cbd
000003a0: f8c6 9bbd c9fd d43d d2b3 abbb 8f43 21be
000003b0: 29ed 94bc edfc 203d e7a2 c7bd 819a 8b3d
000003c0: 8214 d5bb 1b46 ac3d 9e07 4f3e 94c3 96bd
000003d0: a682 613e d618 653c b2e2 c2bd 97c0 533e
000003e0: 733e 6f3d 3072 eabc d12f 6abd 7979 d0bd
000003f0: c35c e43d e76e b23d d15b 97bc bd96 d63c

features.0.bias f4 [32]
-0.11738146 -0.086830154 -0.16439834 -0.114774354 -0.1617496 -0.10788615 -0.16721852 0.117947824
-0.13885272 0.15342136 0.009851931 -0.027176064 0.03743377 -0.21434404 -0.0684524 -0.075038195
-0.13404018 -0.04522301 0.13925411 -0.078374565 0.15092306 -0.08760237 -0.14843751 0.088033184
-0.114440925 0.23890002 0.18821697 -0.061304435 0.2407838 0.17223214 -0.1524982 0.10300973
00000000: b165 f0bd 02d4 b1bd 0a58 28be d10e ebbd
00000010: b0a1 25be 6af3 dcbd 553b 2bbe a18e f13d
00000020: 682f 0ebe 7d1a 1d3e fe69 213c 56a0 debc
00000030: 2754 193d 017d 5bbe c630 8cbd a0ad 99bd
00000040: d441 09be c33b 39bd a198 0e3e d882 a0bd
00000050: 938b 1a3e df68 b3bd 0100 18be be4a b43d
00000060: 0160 eabd 35a2 743e f3bb 403e 5c1a 7bbd
00000070: 0790 763e 9f5d 303e 7d28 1cbe c4f6 d23d

features.2.weight f4 [32, 32, 3, 3]
-0.07445915 0.0042923056 -0.047412742 0.08849824 0.05794752 0.097248584 -0.0249903 0.09098288
0.051929545 0.039001167 0.009994549 0.13025142 0.0007753435 -0.0062322333 0.09233602 0.037515067
0.0632854 0.10894159 0.005368046 0.057742894 0.05106376 -0.037105843 0.05392426 -0.004159692
-0.008043226 -0.028200038 0.05354031 0.07316097 0.01550738 0.10112227 0.016697643 0.050328586
0.046557292 0.050528634 0.0076967105 0.05304772 -0.010681912 0.019879466 -0.03247289 -0.020835929
-0.024995686 -0.029041592 0.065008715 -0.0024823751 -0.016362458 0.13287881 0.08957678 0.058475688
0.060082212 0.027399631 0.008818439 0.021154437 0.03751368 -0.007199084 0.062981166 0.034607198
0.048420172 -0.014354114 0.046148583 0.026301643 0.031486154 -0.0055143763 -0.0064262524 0.07810824
-0.118011475 -0.08402582 0.064210296 -0.031001195 0.025652273 0.06030668 -0.08412218 0.021666272
-0.058787573 -0.015016539 -0.017725129 0.013172636 -0.076116726 -0.057422537 -0.06639389 -0.11293058
-0.056982286 0.04614732 0.041150894 -0.022080205 0.007101428 0.061033312 -0.012949891 -0.03717782
0.00023106596 -0.07574843 -0.026564438 -0.02981954 0.019143753 0.0121502 0.04944162 -0.027479958
0.033784643 0.018172013 0.07034265 0.035870023 -0.043051727 0.03432752 -0.07219442 -0.0015070944
-0.0762559 0.00910821 0.019949038 -0.09873436 -0.0059860596 -0.058916405 0.015253754 -0.044947267
0.055083286 0.0192865 0.065176085 0.037688233 -0.04150128 0.03350062 -0.04139673 0.03988067
0.025796585 0.019151635 0.044315368 0.07313624 -0.019135704 -0.006462834 -0.007939182 -0.05494257
0.020315463 0.003942804 -0.007757966 -0.059055638 -0.04133651 -0.17062517 -0.15278488 -0.021901632
0.03392021 -0.05191955 -0.15469494 -0.03633206 -0.07219842 -0.18041956 -0.22270405 -0.11694345
-0.06779301 0.002627035 -0.015164977 -0.07987738 -0.06649946 -0.01968993 0.0074875155 -0.061738346
-0.06114009 -0.014455323 -0.029631283 0.013643201 0.03702809 0.005095489 0.0008471767 -0.09820927
-0.07518688 -0.058941275 0.009680791 0.03187764 -0.0012120652 -0.013144975 0.061386067 0.04929793
-0.022508558 0.04729693 0.029858952 0.07824585 0.0033245108 0.025601171 0.1005022 0.09596348
0.06960012 0.08176743 0.09731771 0.039089173 -0.10735233 -0.000940043 0.038348846 -0.075943775
-0.08318692 -0.004009064 -0.08276028 -0.01685109 -0.020373598 -0.0482772 0.09967768 0.10421631
0.01827096 0.07370876 0.0006740717 0.05518904 0.0657252 0.089482784 0.023406716 -0.06087671
0.08187723 -0.11251892 -0.26213592 -0.056531694 -0.027952736 -0.04655616 -0.0045235166 -0.05132488
-0.02627175 0.07298563 -0.0349392 0.017636739 0.031434715 0.035539985 0.0036412296 0.05662893
0.044156905 0.0106745325 0.047130253 -0.06281066 -0.055592608 -0.026362896 -0.09098752 -0.022580976
0.019340102 0.0009985768 0.011158677 0.05448077 0.018953212 0.012527006 0.030734967 -0.0561389
-0.036643516 -0.04336977 0.036726933 -0.0102782715 -0.06368104 0.01713776 -0.006931946 0.014016935
-0.05336813 -0.0089079095 0.028557131 0.030997181 0.020172684 0.095148265 0.04695243 0.029278362
0.0464134 0.07314023 0.07051281 0.060165584 -0.012765595 0.011824331 0.029132742 0.038475875
00000000: 0a7e 98bd 78a6 8c3b dd33 42bd 913e b53d
00000010: 615a 6d3d 442a c73d 75b8 ccbc 3b55 ba3d
00000020: 13b4 543d b0bf 1f3d 2dc0 233c a160 053e
00000030: 6c40 4b3a c337 ccbb ab1a bd3d 66a9 193d
00000040: c79b 813d c51c df3d 6fe6 af3b d083 6c3d
00000050: 3c28 513d 4cfc 17bd afdf 5c3d 074e 88bb
00000060: bcc7 03bc c403 e7bc 164d 5b3d 6bd5 953d
00000070: aa12 7e3c 3119 cf3d 7fc9 883c 5925 4e3d
00000080: dcb2 3e3d 1df7 4e3d b034 fc3b 9148 593d
00000090: 3003 2fbc 43da a23c 4b02 05bd 1cb0 aabc
000000a0: c1c3 ccbc a2e8 edbc 4a23 853d 58af 22bb
000000b0: 900a 86bc 6211 083e 0874 b73d 3484 6f3d
000000c0: c418 763d 3175 e03c 377b 103c 124c ad3c
000000d0: f2a7 193d 4be6 ebbb 45fc 803d 47c0 0d3d
000000e0: 3b54 463d 852d 6bbc 4c06 3d3d 8b76 d73c
000000f0: a0f7 003d f1b1 b4bb 5093 d2bb 37f7 9f3d
00000100: 00b0 f1bd bb15 acbd b080 833d 38f6 fdbc
00000110: b724 d23c 2304 773d 4048 acbd 777d b13c
00000120: 3dcb 70bd ee07 76bc 4a34 91bc 0ad2 573c
00000130: 16e3 9bbd e533 6bbd 85f9 87bd 2648 e7bd
00000140: 4266 69bd f904 3d3d d78d 283d 8ce1 b4bc
00000150: 19b3 e83b 11fe 793d c82b 54bc c547 18bd
00000160: 4c4a 7239 fe21 9bbd aa9d d9bc 1c48 f4bc
00000170: 5cd3 9c3c a211 473c 4c83 4a3d a61d e1bc
00000180: c461 0a3d 79dd 943c cf0f 903d 72ec 123d
00000190: 0257 30bd 039b 0c3d abda 93bd b289 c5ba
000001a0: 0e2c 9cbd 9a3a 153c 2a6c a33c 3d35 cabd
000001b0: b526 c4bb 5452 71bd e2ea 793c a01a 38bd
000001c0: 039f 613d b9fe 9d3c 0a7b 853d fa5e 1a3d
000001d0: 3ffd 29bd f237 093d 9e8f 29bd ea59 233d
000001e0: 5c53 d33c e4e3 9c3c 0884 353d 74c8 953d
000001f0: 7bc2 9cbc 2ec6 d3bb 5813 02bc 760b 61bd
00000200: 9d6c a63c a332 813b 8936 febb 53e4 71bd
00000210: 7950 29bd 5db8 2ebe a473 1cbe 0d6b b3bc
00000220: ebef 0a3d 98a9 54bd 5a68 1ebe edd0 14bd
00000230: c4dc 93bd e8bf 38be 880c 64be 0c80 efbd
00000240: 10d7 8abd 552a 2c3b 8676 78bc c096 a3bd
00000250: de30 88bd c74c a1bc d559 f53b 59e1 7cbd
00000260: 086e 7abd 05d6 6cbc 4ebd f2bc bc87 5f3c
00000270: c4aa 173d 0ff8 a63b 1115 5e3a f121 c9bd
00000280: 94fb 99bd 686c 71bd 2e9c 1e3c 2192 023d
00000290: 29de 9eba 055e 57bc f56f 7b3d a0ec 493d
000002a0: de63 b8bc 6dba 413d c39a f43c 5c3f a03d
000002b0: 09e0 593b 8cb9 d13c 19d4 cd3d 8088 c43d
000002c0: 828a 8e3d af75 a73d 824e c73d f81b 203d
000002d0: 8adb dbbd 386d 76ba ae13 1d3d 6988 9bbd
000002e0: e75d aabd 775e 83bb 397e a9bd 4c0b 8abc
000002f0: 88e6 a6bc 50be 45bd d023 cc3d 5c6f d53d
00000300: fbac 953c 9ef4 963d 30b4 303a e70d 623d
00000310: ef9a 863d c042 b73d 71bf bf3c db59 79bd
00000320: 40af a73d 5270 e6bd ae36 86be c78d 67bd
00000330: 23fd e4bc acb1 3ebd 023a 94bb 0a3a 52bd
00000340: da37 d7bc 7d79 953d 681c 0fbd ec7a 903c
00000350: b0c1 003d 6092 113d b2a1 6e3b bdf3 673d
00000360: dfdd 343d 3ce4 2e3c a70b 413d e0a2 80bd
00000370: 13b5 63bd 00f7 d7bc aa57 babd bdfb b8bc
00000380: 226f 9e3c ade2 823a e2d2 363c 3a27 5f3d
00000390: c443 9b3c 123e 4d3c e6c7 fb3c e7f1 65bd
000003a0: 8317 16bd 80a4 31bd fb6e 163d 3266 28bc
000003b0: 356b 82bd 7d64 8c3c 6125 e3bb 49a7 653c
000003c0: 8a98 5abd 7bf2 11bc a5f0 e93c cded fd3c
000003d0: 2f41 a53c 18dd c23d 3151 403d 2dd9 ef3c
000003e0: fa1b 3e3d 8bca 953d 0569 903d 3070 763d
000003f0: c926 51bc d7ba 413c caa7 ee3c e198 1d3d

features.2.bias f4 [32]
0.05429444 0.032238983 0.09205178 0.053060003 -0.010616478 0.0739704 -0.06158736 -0.07389582
0.02950029 0.050111804 -0.026583614 -0.04330262 0.050848488 0.04477447 0.02081639 0.014511903
-0.05000447 0.007607747 0.061232727 0.11745415 -0.03420289 0.051985893 0.008580788 0.0014025483
0.04009339 0.07325509 -0.076379314 -0.030185565 -0.041634176 0.017997723 -0.004478158 0.03086097
00000000: d963 5e3d 060d 043d a585 bc3d 7255 593d
00000010: bcf0 2dbc cb7d 973d 0743 7cbd b156 97bd
00000020: 98aa f13c 0942 4d3d e1c5 d9bc 175e 31bd
00000030: 8146 503d 6f65 373d 2287 aa3c 55c3 6d3c
00000040: 7dd1 4cbd 684a f93b 2bcf 7a3d cd8b f03d
00000050: 5418 0cbd 29ef 543d 6f96 0c3c b6d5 b73a
00000060: f738 243d c406 963d c26c 9cbd b847 f7bc
00000070: 9988 2abd f66f 933c 83bd 92bb 25d0 fc3c

features.5.weight f4 [64, 32, 3, 3]
0.07748786 -0.03171632 0.029272998 -0.018354334 -0.014784269 0.025493933 0.06732648 -0.01642582
0.008185541 0.04390471 -0.058055937 0.023276629 -0.10992795 -0.10631806 0.013759097 -0.13251016
0.039839786 0.0015222131 0.01239478 -0.06004161 -0.02575728 0.039048906 0.068449736 0.07081765
-0.0014930576 -0.03308831 -0.006234689 0.04088581 -0.0047550197 -0.06642225 0.008814203 -0.09168221
0.037157148 0.018699242 -0.046115726 -0.09272071 0.084796846 0.0011054766 -0.003225809 0.025239388
-0.05732748 -0.02266632 -0.0073278625 0.032037668 -0.06394631 0.06038097 -0.017653754 0.0485308
-0.029053014 -0.030133512 -0.026463961 0.070747286 8.5670355e-05 -0.073943704 -0.039167386 0.009724575
-0.040036973 -0.028875977 -0.07859046 0.021280535 -0.053205 -0.09231909 -0.041105177 -0.05264104
-0.04989636 -0.06467685 -0.018403925 -0.06660531 -0.06369676 0.03236485 -0.012318622 0.010956179
0.084171265 -0.0083928695 -0.028088026 0.030040309 -0.006994535 0.0042507364 -0.049125172 -0.026717372
-0.0744387 0.0051650708 0.029862285 -0.02682561 0.019276839 0.0054203128 -0.006688313 0.09043847
0.0666691 0.029598314 -0.009020968 0.060268816 0.042153697 0.035011664 -0.01156172 -0.010633841
0.09656794 -0.01756981 0.042228576 -0.0048791165 0.0244678 -0.039865583 0.067361325 0.06571525
0.02836337 0.0849852 0.037591405 -0.04025406 -0.035875432 -0.084909275 -0.04504803 0.008492237
-0.061476063 -0.04538617 -0.09065732 -0.035759255 -0.033554815 0.066411264 0.05550084 0.038306106
0.018590903 -0.008696517 -0.04215436 0.0662095 0.004497393 0.032391556 -0.016411453 0.05639261
-0.097055204 0.05868434 0.052105065 -0.08019365 0.03405557 -0.02038814 -0.12895274 0.06305102
0.0038117468 0.037334133 -0.028754083 0.030357696 0.015274662 0.06782242 0.02211712 -0.019384267
0.0010776421 0.015815822 -0.0005745069 -0.07627107 -0.060566112 0.068171866 -0.014217099 0.023924895
0.112783276 -0.010328402 -0.06997139 -0.07582264 -0.019441264 -0.00051994534 -0.06671054 -0.07251017
-0.06957994 0.025376553 -0.032129593 0.04025166 0.005636154 0.0060798028 -0.0066754753 0.021087468
-0.021367934 0.019669639 0.011000843 0.031026516 -0.077141285 -0.0673062 0.078433365 0.04161044
-0.0015317443 -0.030746965 -0.01911149 0.021253427 -0.022276452 -0.025765318 -0.029888693 -0.068575546
-0.12776126 -0.03200916 -0.04053445 -0.110831514 -0.075983614 -0.018697329 -0.026543593 -0.10854195
-0.05555512 -0.012145657 -0.10899521 -0.021868253 -0.01825399 0.02243585 0.05657611 -0.06702742
-0.07887026 0.047794513 0.0158397 -0.058653288 -0.010931019 -0.074411735 -0.12212039 0.05056299
0.05441522 0.0048642145 0.039382286 -0.0027467597 -0.06592966 0.080360755 0.05719274 0.04739156
0.017131064 0.030379837 0.020886967 -0.05098761 -0.03974863 0.070925176 -0.056925736 0.04571008
0.039038423 -0.07687435 -0.014590355 0.07117538 -0.06282861 0.10508544 0.019771613 -0.07210722
0.0072283926 0.08979621 0.010845773 -0.057836324 -0.030223442 0.010245798 -0.027677953 -0.0680719
-0.03375155 -0.052754663 -0.09065186 0.056394883 0.0641194 -0.0065651755 0.00083475147 0.034275036
-0.02303442 0.05477107 -0.027000116 -0.00771293 -0.03547186 -0.006242259 -0.041064274 0.038310472
00000000: f5b1 9e3d f9e8 01bd edcd ef3c d45b 96bc
00000010: b839 72bc a7d8 d03c 77e2 893d 718f 86bc
00000020: a61c 063c 6dd5 333d 10cc 6dbd a1ae be3c
00000030: e821 e1bd 48bd d9bd d66d 613c beb0 07be
00000040: 0b2f 233d ff84 c73a 7a13 4b3c 31ee 75bd
00000050: ee00 d3bc bff1 1f3d 602f 8c3d d808 913d
00000060: b3b2 c3ba 9c87 07bd 5d4c ccbb e177 273d
00000070: ffcf 9bbb 6308 88bd 7269 103c e2c3 bbbd
00000080: 1832 183d 272f 993c d8e3 3cbd 5be4 bdbd
00000090: f8a9 ad3d a4e5 903a 1868 53bb d5c2 ce3c
000000a0: 38d0 6abd b8ae b9bc 911e f0bb ee39 033d
000000b0: 48f6 82bd 0952 773d 9b9e 90bc 3bc8 463d
000000c0: 9600 eebc 8eda f6bc f3ca d8bc f4e3 903d
000000d0: eca9 b338 cc6f 97bd fb6d 20bd d353 1f3c
000000e0: cffd 23bd 508d ecbc 09f4 a0bd 8454 ae3c
000000f0: 7ced 59bd cb11 bdbd e75d 28bd 229e 57bd
00000100: 2060 4cbd 4c75 84bd d4c3 96bc 5d68 88bd
00000110: 7273 82bd 0191 043d 0cd4 49bc 8c81 333c
00000120: fc61 ac3d 3f82 09bc dc18 e6bc 1817 f63c
00000130: 6a32 e5bb c349 8b3b 7a37 49bd 64de dabc
00000140: 5173 98bd c13f a93b c0a1 f43c 62c1 dbbc
00000150: 76ea 9d3c e19c b13b a329 dbbb ce37 b93d
00000160: cf89 883d 2a78 f23c afcc 13bc 6fdc 763d
00000170: 5ba9 2c3d 6468 0f3d 5e6d 3dbc 9039 2ebc
00000180: 6ac5 c53d 90ee 8fbc dff7 2c3d ffe0 9fbb
00000190: b270 c83c 184a 23bd bcf4 893d b895 863d
000001a0: 4c5a e83c b80c ae3d 72f9 193d 71e1 24bd
000001b0: 1ef2 12bd eae4 adbd 4884 38bd 0623 0b3c
000001c0: 53ce 7bbd d9e6 39bd 8caa b9bd 4c78 12bd
000001d0: c670 09bd a102 883d d954 633d dde6 1c3d
000001e0: f34b 983c d67b 0ebc 0daa 2cbd d998 873d
000001f0: de5e 933b 02ad 043d 5071 86bc f0fb 663d
00000200: e1c4 c6bd fe5e 703d 1f6c 553d 923c a4bd
00000210: da7d 0b3d 0705 a7bc 300c 04be e520 813d
00000220: 80ce 793b adeb 183d af8d ebbc b4b0 f83c
00000230: 9342 7a3c 7be6 8a3d f62e b53c c1cb 9ebc
00000240: ab3f 8d3a 2f90 813c 819a 16ba 0234 9cbd
00000250: 2c14 78bd b19d 8b3d d6ee 68bc 24fe c33c
00000260: ebfa e63d 7538 29bc 294d 8fbd e648 9bbd
00000270: 4943 9fbc f14c 08ba 899f 88bd 3680 94bd
00000280: ed7f 8ebd 7de2 cf3c 529a 03bd edde 243d
00000290: 7daf b83b 1539 c73b f2bd dabb a0bf ac3c
000002a0: ce0b afbc 3922 a13c e13c 343c 522b fe3c
000002b0: 40fc 9dbd d5d7 89bd aca1 a03d b56f 2a3d
000002c0: cfc4 c8ba 0fe1 fbbc b38f 9cbc ab1b ae3c
000002d0: 1b7d b6bc ca11 d3bc 22d9 f4bc 5671 8cbd
000002e0: d9d3 02be 091c 03bd 7407 26bd a2fb e2bd
000002f0: 4c9d 9bbd 242b 99bc f371 d9bc 3e4b debd
00000300: c48d 63bd 94fe 46bc e138 dfbd 0d25 b3bc
00000310: 6489 95bc 63cb b73c 5abc 673d ac45 89bd
00000320: bb86 a1bd 2ec4 433d 42c2 813c 6e3e 70bd
00000330: 0418 33bc 2e65 98bd 411a fabd 231b 4f3d
00000340: 7ee2 5e3d fd63 9f3b 524f 213d fb02 34bb
00000350: 2106 87bd 2e94 a43d ef42 6a3d a71d 423d
00000360: 7256 8c3c 23df f83c 251b ab3c 62d8 50bd
00000370: 76cf 22bd 3841 913d f62a 69bd 7e3a 3b3d
00000380: c1e6 1f3d 4d70 9dbd 620c 6fbc 66c4 913d
00000390: 49ac 80bd 0937 d73d 14f8 a13c f3ac 93bd
000003a0: 27dc ec3b 13e7 b73d 78b2 313c c8e5 6cbd
000003b0: 2797 f7bc fedd 273c e0bc e2bc 4869 8bbd
000003c0: 113f 0abd 4615 58bd afa7 b9bd 52fe 663d
000003d0: 0851 833d af20 d7bb 39d3 5a3a fb63 0c3d
000003e0: aeb2 bcbc a157 603d 592f ddbc bfbc fcbb
000003f0: f14a 11bd dd8b ccbb 0333 28bd 71eb 1c3d

features.5.bias f4 [64]
0.08024642 0.051088512 -0.050983984 -0.0017467936 0.042828724 0.038664542 0.12062472 0.1120718
-0.046986744 0.044640142 0.0022365162 -0.0013475972 -0.04567169 0.10805773 0.0048052105 0.03753011
0.055904742 0.09040179 -0.004327979 -0.0617522 -0.03494195 -0.05676087 0.016182492 -0.010675302
0.048331432 -0.019977394 -0.041558087 0.034324996 -0.010431864 -0.01557195 -0.038188968 0.0037793103
0.045086615 -0.049405523 -0.055217873 0.039965007 0.05658149 -0.0493146 0.05708723 0.058258407
-0.0053139976 0.011446184 0.0014385758 0.060517885 0.067261845 0.0877336 -0.03685255 0.011553429
0.029924253 0.006283183 0.014366066 -0.068552606 0.001989414 -0.0013236396 -0.06691158 -0.065266095
-0.03533247 -0.024479818 0.0893175 0.01785622 0.08806726 0.08702911 -0.035617277 -0.06966637
00000000: 3c58 a43d 3042 513d 95d4 50bd abf4 e4ba
00000010: 2c6d 2f3d b65e 1e3d 180a f73d e685 e53d
00000020: 2c75 40bd 95d8 363d 8492 123b dca1 b0ba
00000030: 3d12 3bbd 5f4d dd3d 0775 9d3b 2cb9 193d
00000040: 5ffc 643d 9324 b93d b8d1 8dbb e0ef 7cbd
00000050: 4a1f 0fbd 167e 68bd 2591 843c 76e7 2ebc
00000060: 2ef7 453d a2a7 a3bc d038 2abd 5e98 0c3d
00000070: 69ea 2abc 7e21 7fbc 096c 1cbd 4eae 773b
00000080: beac 383d 725d 4abd 232c 62bd 59b2 233d
00000090: fec1 673d 1bfe 49bd 4dd4 693d 5ea0 6e3d
000000a0: 0b21 aebb c688 3b3c 988e bc3a 9ae1 773d
000000b0: 94c0 893d acad b33d b3f2 16bd 984a 3d3c
000000c0: b523 f53c 29e3 cd3b a65f 6b3c 4f65 8cbd
000000d0: d460 023b fa7d adba f008 89bd 3baa 85bd
000000e0: c8b8 10bd e689 c8bc 18ec b63d 3547 923c
000000f0: 9c5c b43d 513c b23d 6ce3 11bd 3ead 8ebd

features.7.weight f4 [64, 64, 3, 3]
0.021573335 0.017026376 0.03643719 -0.022066172 0.034540404 -0.051942598 -0.041159544 0.038006224
0.0005999168 0.06554425 0.058789507 0.020483365 -0.01214036 -0.024193613 0.018668788 0.02571716
-0.013512047 0.028365474 -0.060331386 0.0036920763 0.025802657 -0.047847144 -0.03133193 -0.020527573
-0.060686413 -0.035515465 -0.017742382 -0.033225443 0.014766771 -0.011629186 -0.034289874 -0.025659123
0.086575106 -0.04981217 -0.016031574 0.049433064 0.039540604 0.0013331557 0.04322023 0.058078807
0.025650492 0.020346401 -0.035275605 -0.020661648 0.012125897 0.031040912 -0.037314255 -0.04320097
0.05591178 -0.028787512 -0.0038601751 0.024012428 -0.0030779594 -0.010234985 -0.038718894 -0.014424779
-0.041691255 -0.02245084 0.014641417 -0.05788982 0.0010693617 -0.023234505 -0.05823478 0.07598983
0.017602878 0.06325518 0.0339562 0.014852653 -0.031662013 -0.0030372194 0.0063668867 -0.019067012
0.031428702 -0.0055995756 -0.033687674 0.05029167 0.019376207 -0.036179416 0.028984401 0.052444756
-0.012826713 -0.026498867 0.031956386 0.0048299124 -0.0060869493 -0.010756576 0.004274382 0.01256442
-0.008673718 0.029456485 -0.023635788 0.01804031 0.011511123 -0.0020503784 0.011868418 0.027744848
0.04825917 0.02687626 0.054111764 0.040839136 0.04413654 -0.033028353 0.025827285 -0.0074329423
-0.01647172 0.033793297 -0.004058078 -0.0083996495 -0.00041228347 -0.042639114 -0.033352178 -0.018396402
0.0025478336 0.04860388 0.04483104 -0.009912335 0.020572938 0.051224712 0.058295395 0.08430898
0.009291334 -0.052474804 0.002847414 -0.031918798 -0.091405444 -0.01925557 -0.04781406 -0.0019200437
-0.004918941 0.003089576 -0.039121743 0.02118111 0.016354814 -0.012675758 -0.0002593675 0.02257488
0.018214034 -0.032327227 0.0056562386 -0.017558405 -0.05416029 0.056072164 -0.016838886 -0.060488146
-0.016617548 0.03113939 0.07723398 -0.009536955 0.015515053 -0.009300014 0.008987543 0.027902935
0.09546157 -0.01035225 0.0024831074 0.047629356 -0.032772966 -0.022402527 -0.0074172625 -0.057513226
-0.039462868 -0.016907854 0.022674523 -0.019168116 -0.004089054 0.030805154 0.043803517 0.02204324
0.008995611 -0.003166802 -0.00014225037 0.047846384 0.027722914 0.020313887 0.009621086 0.01120351
0.006372386 0.009985937 0.031265687 0.038871117 0.02344686 0.032139834 -0.0020690167 0.009217447
0.038706183 -0.038404513 -0.030666899 -0.023815377 0.040667303 0.047973946 0.051148582 0.044906467
-0.010934679 -0.046636406 0.00092397636 0.05301893 -0.04264177 -0.08147027 -0.046405505 -0.05494062
-0.026159331 -0.08143613 -0.04781326 -0.042924363 -0.006290011 -0.039693795 -0.032916058 0.030527905
0.042077124 -0.028419806 0.016295549 -0.011599011 -0.007972675 0.035223465 0.046598423 -0.021672431
-0.04576518 0.018754084 0.039222546 -0.014646717 0.034071077 0.10206497 -0.017792137 0.0071349796
0.03786245 0.04746453 -0.013751167 0.04358218 -0.00011421352 -0.044476368 0.010545833 0.026957659
0.019790104 -0.026189618 -0.04954171 0.04770669 0.0042040707 -0.01624061 0.036496952 0.039562088
-0.018554894 0.016369069 -0.03456704 0.0065611415 0.051575378 -0.012018677 0.03389697 0.020752793
-0.06957766 0.014151922 -0.017447349 -0.0033009273 -0.022836424 -0.013124941 0.012015992 0.018420035
00000000: 90ba b03c e67a 8b3c 2a3f 153d 1ec4 b4bc
00000010: 3d7a 0d3d c3c1 54bd e996 28bd 6aac 1b3d
00000020: bc43 1d3a 103c 863d 44cd 703d bbcc a73c
00000030: 5ce8 46bc af31 c6bc 49ef 983c cbac d23c
00000040: a261 5dbc b65e e83c 0b1e 77bd c3f6 713b
00000050: 1860 d33c 5efb 43bd e955 00bd 7129 a8bc
00000060: 5192 78bd aa78 11bd 7958 91bc 6717 08bd
00000070: 54f0 713c 5788 3ebc 8a73 0cbd 1533 d2bc
00000080: 4a4e b13d d907 4cbd a654 83bc 537a 4a3d
00000090: 54f5 213d 48bd ae3a b207 313d 0be4 6d3d
000000a0: fb20 d23c 7fad a63c 277d 10bd 9e42 a9bc
000000b0: b3ab 463c 8349 fe3c d5d6 18bd 80f3 30bd
000000c0: c003 653d cad3 ebbc fefa 7cbb b6b5 c43c
000000d0: 97b7 49bb a3b0 27bc b497 1ebd e955 6cbc
000000e0: 73c4 2abd d3ea b7bc 8ee2 6f3c e01d 6dbd
000000f0: d329 8c3a 4a56 bebc 9887 6ebd 8ea0 9b3d
00000100: e933 903c ef8b 813d a815 0b3d 8b58 733c
00000110: 07b0 01bd 160c 47bb 51a1 d03b 6c32 9cbc
00000120: 62bb 003d a57c b7bb 16fc 09bd a3fe 4d3d
00000130: daba 9e3c de30 14bd b270 ed3c 50d0 563d
00000140: 2227 52bc 2714 d9bc b3e4 023d 3e44 9e3b
00000150: 0875 c7bb 5a3c 30bc 1d10 8c3b ffda 4d3c
00000160: 361c 0ebc ba4e f13c d79f c1bc 46c9 933c
00000170: 2699 3c3c a45f 06bb c173 423c 2a49 e33c
00000180: 68ab 453d 9a2b dc3c 4ca4 5d3d f046 273d
00000190: 84c8 343d bd48 07bd be93 d33c 0a90 f3bb
000001a0: b3ef 86bc d76a 0a3d a0f9 84bb af9e 09bc
000001b0: c027 d8b9 5aa6 2ebd 4b9c 08bd 0db4 96bc
000001c0: 8ef9 263b dd14 473d c1a0 373d 5967 22bc
000001d0: 9488 a83c 01d1 513d 27c7 6e3d 30aa ac3d
000001e0: ae3a 183c d2ef 56bd ae9b 3a3b 49bd 02bd
000001f0: c732 bbbd dbbd 9dbc add8 43bd faa9 fbba
00000200: 112f a1bb 7c7a 4a3b 1f3e 20bd 0284 ad3c
00000210: 88fa 853c fcad 4fbc b7fb 87b9 f4ee b83c
00000220: 9935 953c 8e69 04bd f857 b93b a5d6 8fbc
00000230: 2ed7 5dbd edab 653d b4f1 89bc 6bc2 77bd
00000240: 8621 88bc 0918 ff3c d92c 9e3d e340 1cbc
00000250: d932 7e3c 165f 18bc 7d40 133c b294 e43c
00000260: 5b81 c33d 7c9c 29bc a1bb 223b 0017 433d
00000270: f23c 06bd 8185 b7bc 820c f3bb fd92 6bbd
00000280: d1a3 21bd 5782 8abc ecbf b93c 7406 9dbc
00000290: 79fd 85bb 175b fc3c 516b 333d 0694 b43c
000002a0: 5462 133c 1f8a 4fbb 0b29 15b9 92fa 433d
000002b0: 2a1b e33c 4f69 a63c c2a1 1d3c ed8e 373c
000002c0: 73cf d03b 0e9c 233c 7310 003d 5237 1f3d
000002d0: a113 c03c 0fa5 033d 5798 07bb c604 173c
000002e0: 608a 1e3d 0d4e 1dbd 2639 fbbc 7718 c3bc
000002f0: c292 263d 5480 443d 2d81 513d d8ef 373d
00000300: 5e27 33bc d105 3fbd 0137 723a 612a 593d
00000310: 23a9 2ebd e3d9 a6bd b313 3ebd 6a09 61bd
00000320: 184c d6bc fcc7 a6bd d6d7 43bd 75d1 2fbd
00000330: 701c cebb f695 22bd fdd2 06bd a815 fa3c
00000340: 1059 2c3d a7d0 e8bc 3e7e 853c c709 3ebc
00000350: d39f 02bc 7b46 103d fddd 3e3d 628a b1bc
00000360: 4574 3bbd 2aa2 993c d2a7 203d c9f8 6fbc
00000370: 1d8e 0b3d 7007 d13d d1c0 91bc 8ccc e93b
00000380: a815 1b3d 2b6a 423d 934c 61bc 3a83 323d
00000390: eb85 efb8 da2c 36bd 6ec8 2c3c 4fd6 dc3c
000003a0: db1e a23c 9c8b d6bc 40ec 4abd 1768 433d
000003b0: 4dc2 893b 070b 85bc d47d 153d db0b 223d
000003c0: 6f00 98bc 6d18 863c 2b96 0dbd d8fe d63b
000003d0: b440 533d fce9 44bc 8dd7 0a3d c301 aa3c
000003e0: bb7e 8ebd 77dd 673c beed 8ebc 5f54 58bb
000003f0: 7413 bbbc fe09 57bc b9de 443c 9de5 963c

features.7.bias f4 [64]
0.11436928 0.012963183 0.06242504 -0.054536995 -0.0130322445 -3.153006e-39 -0.015357643 -1.0399362e-37
-0.05999956 0.0060599297 -6.963746e-25 0.01958174 0.031254537 -0.02883134 -4.5101676e-33 -0.16528486
0.036954403 -0.050556958 0.098010585 -9.235e-39 0.002460797 0.054312717 -0.029007573 0.03760087
0.048568454 0.07838274 -0.024121214 0.0018742604 0.05479574 -0.0026405705 0.023048868 0.015623905
-0.029256552 -4.905e-40 0.08029384 0.02753204 -0.05411762 -0.008502327 0.012007628 -0.02795617
-2.298884e-38 0.0028126675 -0.035635334 -0.02640168 0.009203276 -4.90815e-40 0.00644191 0.023148479
0.004155376 0.03720277 -0.026020907 0.0073043643 -0.0429241 -0.017700061 -0.036605533 0.026512435
0.028907092 -0.07315773 0.024772298 -0.03086466 0.00058256096 0.04316422 0.022641392 0.022909952
00000000: 713a ea3d 8863 543c 66b1 7f3d 2f62 5fbd
00000010: 3285 55bc 4c55 2280 a09e 7bbc 7d8c 0d82
00000020: 19c2 75bd 6092 c63b 7b84 5797 e369 a03c
00000030: c204 003d b42f ecbc 5458 bb89 6f40 29be
00000040: 805d 173d d014 4fbd c6b9 c83d 6c8f 6480
00000050: 5345 213b 0377 5e3d 4aa1 edbc 5f03 1a3d
00000060: b7ef 463d 2187 a03d da99 c5bc bea9 f53a
00000070: 7f71 603d 6c0d 2dbb fbd0 bc3c 68fb 7f3c
00000080: 70ab efbc 5057 0580 1971 a43d df8a e13c
00000090: 70aa 5dbd 584d 0bbc a4bb 443c 5604 e5bc
000000a0: 8853 fa80 bb54 383b 5bf6 11bd 5648 d8bc
000000b0: 56c9 163c 3158 0580 a816 d33b e1a1 bd3c
000000c0: d229 883b ef61 183d cc29 d5bc 7359 ef3b
000000d0: 2ed1 2fbd b8ff 90bc afef 15bd 9b30 d93c
000000e0: 91ce ec3c b8d3 95bd 46ef ca3c e2d7 fcbc
000000f0: 01b7 183a f7cc 303d 717a b93c a7ad bb3c

features.10.weight f4 [64, 64, 1, 1]
0.09374843 -0.011409621 0.14711373 -0.0015490388 -0.041389655 -3.6918116e-38 0.018702867 1.221255e-37
-0.016220946 -0.048486236 3.0922422e-15 -0.13399418 -0.010929576 0.11195918 -3.3871693e-32 0.11392143
-0.14094064 -0.10504373 -0.11796384 -2.346073e-38 0.03207789 -0.07464654 0.018500388 0.14663835
0.006481388 -0.00059711083 -0.008029752 -0.006768475 -0.05551445 0.09351946 -0.06300199 0.060744036
0.10055868 4.90494e-40 0.05766557 -0.019316345 -0.049159672 0.09892865 -0.094752036 -0.09670603
-1.6927625e-37 0.05862733 0.08764538 -0.034709234 0.102686584 -4.95447e-40 -0.10339674 0.0045903143
0.006116715 0.041044887 0.10595683 -0.046512324 -0.035156265 -0.03208331 0.10613207 0.09091844
-0.09882238 -0.07405878 -0.14938125 0.15106949 0.042367443 -0.12154948 0.057683803 -0.1362019
-0.03603526 0.04977169 0.0061424896 -0.053626265 0.01738853 2.2575277e-38 0.043777946 2.2897192e-38
0.0597659 0.032107387 1.245585e-17 0.08275826 0.010951429 0.029903319 4.830823e-33 0.05377877
-0.13447501 0.045623165 0.039165623 2.68887e-40 0.004839276 -0.013132462 0.028270919 -0.1386138
-0.018009214 -0.02703746 0.07849705 0.0967707 0.035168152 0.080242634 -0.04565163 0.051326405
-0.07399316 -4.90466e-40 -0.07358839 -0.011383515 0.08852473 -0.019504383 -0.050061036 0.06466862
4.4039027e-38 -0.15814583 -0.082844585 0.044767532 -0.18824075 -4.97835e-40 0.020823881 0.026713155
0.014429392 -0.042375147 0.04933851 -0.015472731 -0.04840384 -0.060858123 0.014206135 0.112896346
0.026005408 -0.16404143 -0.06130788 -0.04873916 -0.06647183 0.018258713 -0.18675959 -0.12408592
0.09591815 0.10706858 0.015948378 0.08592621 0.02836092 5.833457e-39 0.12096803 1.3693962e-38
0.07779646 0.013921081 -2.6443224e-17 -0.013635699 -0.0767158 -0.101314336 -1.6619233e-34 -0.034981597
0.03163851 0.08562281 0.046299234 -1.2375705e-38 0.0212957 0.0074293977 -0.13860792 0.009383507
-0.08844344 -0.019296896 -0.06563963 -0.0010398006 0.13646002 0.05021193 0.10197143 0.09814308
-0.013641026 4.90463e-40 -0.026647184 -0.028005473 0.1027779 -0.04182195 -0.11713967 0.0027468312
-2.9078594e-38 -0.01703483 -0.034768444 0.020573806 -0.12829752 4.97831e-40 -0.074845344 0.08671581
0.06497239 -0.02333729 -0.023275735 -0.06510732 0.047420174 -0.06482249 -0.0056981533 0.0056179753
0.010316957 0.07006269 0.037782818 0.10028988 -0.053201906 -0.019174587 0.09064597 0.09750266
0.04578273 0.008926146 0.013221247 -0.06461572 0.017722573 2.821279e-38 -0.102359645 4.3229113e-38
0.00514715 -0.057798002 -1.6256098e-17 0.09072683 0.0139234625 -0.12183079 1.3370733e-33 0.0824911
0.046784487 -0.12525646 -0.08955712 -5.044504e-39 4.91283e-40 0.10078894 0.11651723 0.010965197
4.93847e-40 0.011507343 -4.91619e-40 -0.02181617 0.00044412195 0.061057016 0.022443589 0.007073432
0.029925317 -4.90533e-40 -0.030902421 -4.91274e-40 0.039607078 -0.13170569 0.049824797 -0.05567036
3.251242e-38 0.032459233 -0.11925677 -0.02830965 -0.029993873 4.93017e-40 -0.045328304 -0.02662527
0.06507052 -0.1331785 0.01677503 -0.14411086 0.019744946 -4.92102e-40 0.00050489465 -0.025411094
-0.05396116 -0.04062775 0.0735077 -0.007457886 -4.94053e-40 -0.04168336 -0.08194558 0.048579242
00000000: 2dff bf3d 6bef 3abc fba4 163e 1e09 cbba
00000010: 3388 29bd 5800 4981 c136 993c 873a 2602
00000020: cae1 84bc 8199 46bd cdd1 5e27 c535 09be
00000030: f711 33bc db4a e53d 34df 2f8b a44f e93d
00000040: be52 10be 2b21 d7bd 0797 f1bd f876 ff80
00000050: 1b64 033d 49e0 98bd 208e 973c 5d28 163e
00000060: d361 d43b 6e87 1cba 398f 03bc 15ca ddbb
00000070: 1f63 63bd 2187 bf3d 3007 81bd bdce 783d
00000080: b6f1 cd3d 4c57 0500 bc32 6c3d 503d 9ebc
00000090: a75b 49bd 1b9b ca3d 5b0d c2bd d00d c6bd
000000a0: 2a68 6682 3623 703d 6c7f b33d 452b 0ebd
000000b0: 584d d23d 1b65 0580 acc1 d3bd 596a 963b
000000c0: b96e c83b af1e 283d e5ff d83d b583 3ebd
000000d0: 0400 10bd ca69 03bd c55b d93d 7233 ba3d
000000e0: 6363 cabd 21ac 97bd 66f7 18be f6b1 1a3e
000000f0: 7c89 2d3d efee f8bd da45 6c3d 8378 0bbe
00000100: b599 13bd 66dd 4b3d f046 c93b 37a7 5bbd
00000110: 6472 8e3c b0d2 f500 8150 333d 0e54 f900
00000120: 17cd 743d 0983 033d 17c5 6523 2a7d a93d
00000130: 9f6d 333c cef7 f43c 1faa c809 2147 5c3d
00000140: d1b3 09be 5bdf 3a3d 226c 203d 8ced 0200
00000150: ca92 9e3b 8a29 57bc 6a98 e73c c7f0 0dbe
00000160: 0f88 93bc aa7d ddbc 10c3 a03d b72f c63d
00000170: 7b0c 103d 4056 a43d 34fd 3abd a33b 523d
00000180: ba89 97bd 3857 0580 83b5 96bd ec81 3abc
00000190: 744c b53d a8c7 9fbc cd0c 4dbd fb70 843d
000001a0: 72c5 6f01 fbf0 21be 6caa a9bd 295e 373d
000001b0: 2fc2 40be c36b 0580 d896 aa3c 8cd5 da3c
000001c0: 4269 6c3c 9091 2dbd 2d17 4a3d 5681 7dbc
000001d0: 1b43 46bd 5e46 79bd d9c0 683c 3336 e73d
000001e0: 4b09 d53c 7afa 27be f91d 7bbd b7a2 47bd
000001f0: 6222 88bd 4c93 953c e83d 3fbe c220 febd
00000200: bc70 c43d c646 db3d 2ca6 823c 15fa af3d
00000210: 2955 e83c 4e85 3f00 16be f73d 321d 9500
00000220: c053 9f3d 3f15 643c 4ce5 f3a3 4468 5fbc
00000230: 2c1d 9dbd e47d cfbd 52e8 5c87 dd48 0fbd
00000240: 6297 013d 035b af3d 44a4 3d3d 6ec2 8680
00000250: 5274 ae3c 4e72 f33b 3cef 0dbe 48bd 193c
00000260: d621 b5bd 8614 9ebc 126e 86bd eb49 88ba
00000270: 2dbc 0b3e 06ab 4d3d 66d6 d03d 3dff c83d
00000280: 9c7e 5fbc 3657 0500 324b dabc bc6b e5bc
00000290: 387d d23d 7e4d 2bbd ece6 efbd 2e04 343b
000002a0: a551 1e81 a18c 8bbc 5b69 0ebd 668a a83c
000002b0: 6d60 03be c06b 0500 8448 99bd 0f98 b13d
000002c0: 3f10 853d d82d bfbc c1ac bebc fd56 85bd
000002d0: a83b 423d a7c1 84bd 93b7 babb fe16 b83b
000002e0: 7408 293c 077d 8f3d 28c2 1a3d c864 cd3d
000002f0: 3eea 59bd 0614 9dbc 98a4 b93d 79af c73d
00000300: ac86 3b3d f83e 123c ee9d 583c 3f55 84bd
00000310: ee2e 913c e49a 1901 efa1 d1bd 975c 6b01
00000320: 6ca9 a83b 99bd 6cbd a0ef 95a3 fdce b93d
00000330: 3c1f 643c 6c82 f9bd cf28 de08 18f1 a83d
00000340: 17a1 3f3d 3b43 00be b969 b7bd 06ee 3680
00000350: 7f59 0500 6f6a ce3d 96a0 ee3d 5fa7 333c
00000360: a560 0500 4b89 3c3c 6f5a 0580 d3b7 b2bc
00000370: 0ad9 e839 ec16 7a3d 9edb b73c 40c8 e73b
00000380: f025 f53c 6857 0580 1327 fdbc 7959 0580
00000390: 083b 223d dbdd 06be 1615 4c3d 9a06 64bd
000003a0: b303 3101 f9f3 043d e53c f4bd a4e9 e7bc
000003b0: b6b5 f5bc 555e 0500 2caa 39bd 3d1d dabc
000003c0: b143 853d f25f 08be ca6b 893c cc91 13be
000003d0: 27c0 a13c c85b 0580 e85a 043a ed2a d0bc
000003e0: 6106 5dbd 4969 26bd 348b 963d 4861 f4bb
000003f0: 3861 0580 2cbc 2abd 16d3 a7bd 07fb 463d

features.10.bias f4 [64]
0.091850094 -0.0868241 -0.07274442 0.025166817 0.025530554 0.020329894 0.0054055885 0.054591596
0.074396536 0.019505657 0.060752038 0.08423828 0.084653 -0.10406579 -0.086395 0.043049414
0.10002119 -0.017085316 -0.10230195 0.15645441 0.09477457 -0.07597386 -0.07431691 -0.07048815
-0.0123596 0.092909895 -0.087638244 -0.057733312 -0.0921333 -0.038358234 -0.022867499 -7.2981944e-14
-2.4965437e-36 0.0065245302 0.050560735 0.021187196 0.019082097 0.16045156 -0.014755827 0.09238233
0.13254508 -0.057239003 0.026652936 -0.0016651383 -0.07810071 0.14702338 -0.069754735 -0.012800674
-0.09982802 0.035537988 0.067836136 0.15794623 -0.07828747 0.09142169 0.05186551 -1.5830139e-34
0.11813209 -0.060201887 0.0043782247 -0.09577361 0.06556292 0.016096182 -0.06620208 -0.013770353
00000000: e71b bc3d d5d0 b1bd 07fb 94bd a42a ce3c
00000010: 7425 d13c e18a a63c 5d21 b13b 709b 5f3d
00000020: 365d 983d 54ca 9f3c 21d7 783d 1f85 ac3d
00000030: 8d5e ad3d 7220 d5bd ddef b0bd 9554 303d
00000040: e9d7 cc3d 81f6 8bbc af83 d1bd 9635 203e
00000050: 2b19 c23d 2f98 9bbd 7733 98bd 175c 90bd
00000060: eb7f 4abc 8b47 be3d ae7b b3bd c479 6cbd
00000070: 62b0 bcbd 861d 1dbd 9f54 bbbc 3a57 a4a9
00000080: e861 5484 bacb d53b c618 4f3d c590 ad3c
00000090: 0f52 9c3c 6a4d 243e 6dc2 71bc f232 bd3d
000000a0: e6b9 073e 7273 6abd 4257 da3c c540 daba
000000b0: 44f3 9fbd 4c8d 163e 92db 8ebd ebb9 51bc
000000c0: a272 ccbd 4890 113d aced 8a3d a8bc 213e
000000d0: 2e55 a0bd 4c3b bb3d ee70 543d 2c6b 5287
000000e0: 3def f13d 4196 76bd 3677 8f3b f424 c4bd
000000f0: da45 863d 24dc 833c f594 87bd 0c9d 61bc

classifier.0.weight f4 [3, 64]
-0.1956051 0.1620116 0.06742658 0.07264869 0.086359 -0.11644036 0.162043 0.053954177
-0.03193258 0.21848656 0.04436842 0.2147965 -0.05364389 0.036986336 -0.1043537 -0.21931347
-0.20219819 0.20959015 0.07318044 -0.013695721 -0.22267306 0.14539196 0.09080204 0.16774762
0.13178973 0.1388054 0.16220692 -0.10936725 0.10786481 -0.0015460163 0.0702556 1.745329e-09
7.217738e-34 -0.15043171 -0.12731126 0.035753235 0.04875731 -0.0929185 0.005869136 0.19690986
-0.115950584 -0.115874 0.17832664 0.011258737 -0.062909216 -0.097661994 0.02135287 -0.16266756
0.04027304 0.025176292 -0.12504496 -0.2876492 0.045068145 -0.0888166 -0.002740956 -2.6763362e-34
0.071880475 -0.132771 0.0068981056 0.112314045 0.08312714 0.12392709 0.046034 0.08062132
-0.0548034 -0.1017284 0.0020593249 -0.11601978 -0.0645216 0.09810145 -0.050588254 0.15155053
0.016464062 0.037869427 -0.09599463 -0.039574604 0.1630861 -0.04706712 0.034060985 0.002514164
0.026083639 0.06542618 0.0068614515 -0.16448249 0.1575179 0.0022526484 0.007316717 0.061568495
0.08964594 -0.03586596 0.07625058 0.027747279 -0.08025406 -0.15260705 0.03138367 1.5812066e-09
-3.4327332e-34 0.13928449 0.03481681 -0.10897856 -0.027573543 -0.026465757 -0.012444653 -0.10657415
-0.058399018 0.13873436 0.002912053 -0.0010274441 0.021559587 0.056132883 0.028618885 -0.016156605
0.09421324 0.12563801 0.02468518 -0.07367951 -0.078204244 0.058230776 0.07417602 -2.1174635e-35
-0.04292002 -0.04461985 -0.015173723 -0.06240161 -0.11207602 0.09373172 -0.008601283 -0.118741594
0.21535285 0.011391407 0.1598787 -0.041962948 0.027629936 0.0010550506 -0.19500637 -0.09167523
0.16298139 -0.14927027 0.11353128 -0.1933602 -0.06956059 -0.09753594 0.117298156 0.06200333
0.1764723 -0.22373225 -0.0028532953 0.17056777 0.05573234 -0.026011422 -0.09723856 -0.116665065
-0.10627404 -0.24644062 -0.16209914 -0.0049700146 -0.08176146 -0.18216746 -0.041259933 -4.0092782e-09
-3.784961e-34 -0.10581273 0.060664523 0.042724818 -0.09658938 0.19481918 0.0031216014 0.05762945
0.05301897 -0.00026340265 -0.13783689 -0.0070146904 -0.14292775 0.14730015 0.09921253 0.09995744
-0.14094117 0.077723384 0.028572276 0.14262353 0.062003672 0.013315772 0.13100772 2.8880808e-34
0.067297764 0.09206035 0.0021216029 -0.036709018 0.120200664 -0.087120205 0.0007817189 0.033813987
00000000: b44c 48be 5ee6 253e f216 8a3d d6c8 943d
00000010: fddc b03d 4978 eebd 9aee 253e 0eff 5c3d
00000020: bdcb 02bd f1ba 5f3e a9bb 353d 9df3 5b3e
00000030: b2b9 5bbd fc7e 173d 65b7 d5bd b693 60be
00000040: 0b0d 4fbe cd9e 563e a0df 953d 0464 60bc
00000050: 6804 64be a1e1 143e 6cf6 b93d 08c6 2b3e
00000060: e3f3 063e 0123 0e3e 9219 263e f0fb dfbd
00000070: 3ae8 dc3d b3a3 caba 2be2 8f3d 4ee0 ef30
00000080: b9d9 6f08 c50a 1abe e25d 02be fc71 123d
00000090: bfb5 473d 0e4c bebd e251 c03b bda2 493e
000000a0: 8077 edbd 594f edbd 429b 363e 9176 383c
000000b0: 8cd6 80bd 0303 c8bd 37ec ae3c 5392 26be
000000c0: 58f5 243d 833e ce3c c90b 00be c246 93be
000000d0: 6099 383d 7ae5 b5bd 9ca1 33bb 80df b187
000000e0: 1236 933d 1ff5 07be 8109 e23b e804 e63d
000000f0: 903e aa3d 7ccd fd3d 268e 3c3d ca1c a53d
00000100: 8879 60bd fb56 d0bd bdf5 063b c79b edbd
00000110: e723 84bd 6ae9 c83d a135 4fbd 1030 1b3e
00000120: a4df 863c f91c 1b3d d598 c4bd fb18 22bd
00000130: 0b00 273e 74c9 40bd 8883 0b3d acc4 243b
00000140: 5bad d53c 29fe 853d 07d6 e03b 196e 28be
00000150: 5f4c 213e 2ba1 133b 12c1 ef3b 3f2f 7c3d
00000160: 4a98 b73d 2fe8 12bd 4429 9c3d 434e e33c
00000170: 3e5c a4bd 0645 1cbe 2a8c 003d c351 d930
00000180: ee24 e487 98a0 0e3e 129c 0e3d 2730 dfbd
00000190: e9e1 e1bc b7ce d8bc a8e4 4bbc 8c43 dabd
000001a0: cf33 6fbd 6110 0e3e 24d8 3e3b 4eab 86ba
000001b0: bb9d b03c 98eb 653d 2772 ea3c db5a 84bc
000001c0: dff2 c03d 40a7 003e 9338 ca3c 48e5 96bd
000001d0: 8c29 a0bd 6583 6e3d 99e9 973d d72a e185
000001e0: e7cc 2fbd 4ec3 36bd 359b 78bc d598 7fbd
000001f0: 1d88 e5bd 6af6 bf3d 65ec 0cbc cb2e f3bd
00000200: 7585 5c3e 06a3 3a3c 3eb7 233e 57e1 2bbd
00000210: 2d58 e23c a049 8a3a c0af 47be 39c0 bbbd
00000220: 98e4 263e 4eda 18be 1683 e83d 3700 46be
00000230: c875 8ebd ecc0 c7bd 043a f03d 34f7 7d3d
00000240: 28b5 343e 111a 65be 5afe 3abb 51a9 2e3e
00000250: 9847 643d e815 d5bc 0325 c7bd 18ee eebd
00000260: 34a6 d9bd ee5a 7cbe 51fd 25be 81db a2bb
00000270: 8d72 a7bd 1b8a 3abe 2d00 29bd fcc1 89b1
00000280: c68d fb87 58b4 d8bd 5d7b 783d 3800 2f3d
00000290: a7d0 c5bd ae7e 473e c893 4c3b dc0c 6c3d
000002a0: 6b2a 593d 4e19 8ab9 1d25 0dbe 7ddb e5bb
000002b0: a75b 12be dad5 163e f02f cb3d 7cb6 cc3d
000002c0: e252 10be 702d 9f3d 6810 ea3c e70b 123e
000002d0: 90f7 7d3d 652a 5a3c e326 063e 26f2 bf07
000002e0: 69d3 893d 238a bc3d 970a 0b3b 325c 16bd
000002f0: c42b f63d 146c b2bd 44ec 4c3a 8980 0a3d

classifier.0.bias f4 [3]
-0.04920532 -0.11050792 0.040891625
00000000: 858b 49bd fa51 e2bd fa7d 273d

exp_avg f4 [32, 3, 3, 3]
0.029349513 0.022559755 0.027987253 0.02902627 0.020769536 0.022301478 0.025115434 0.017678803
0.0170713 0.019920059 0.015643014 0.021871185 0.020904832 0.014655298 0.017120866 0.017400278
0.010549732 0.009672063 0.021950694 0.0077515855 0.005412079 0.019629288 0.006953467 0.0036572907
0.014284373 0.005389911 0.0033424734 0.0007728928 0.0021724782 -0.010116693 -0.0020717054 -0.0042513832
-0.01704042 -0.003442601 -0.009414563 -0.023952326 0.008144287 0.0061485902 -0.010752567 0.0038528882
-0.0005048079 -0.016289743 8.675429e-05 -0.008005797 -0.023642274 0.034203175 0.032270372 0.02639154
0.035608362 0.030994466 0.020315226 0.03662687 0.030460106 0.018702751 0.002120669 -0.00353211
-0.01882939 0.0009191103 -0.0038586853 -0.017234936 -0.00035307108 -0.0066265 -0.01854523 0.00087752234
-0.011656471 -0.033308987 -0.00014845452 -0.010852418 -0.030836657 -0.00081624486 -0.011777871 -0.02856326
0.019349044 0.01332432 0.0050493013 0.01724328 0.010332851 0.002975078 0.01581624 0.0067456746
-0.002013636 -0.009814485 -0.012471586 -0.007441993 -0.012409404 -0.013258613 -0.011238442 -0.014043584
-0.014843772 -0.014815622 -0.016771138 -0.016085884 -0.008790981 -0.021581396 -0.019652344 -0.015244663
-0.024825701 -0.022849921 -0.021494057 0.0043425416 -0.00096957345 -0.00093243754 0.0030321502 -0.0017768792
-0.0034230752 0.0050626067 0.0023224035 0.0026028487 0.004717668 0.0100756455 0.008541986 0.0026741226
0.007464962 0.0066716606 -0.001491148 0.0030072874 0.003811941 0.0030093372 0.0077567776 0.0056508235
0.0010849234 0.0054638246 0.004137914 -0.0027997906 0.0010064286 0.000763327 0.0019460083 0.00094147737
-0.0018706777 -0.0087298015 -0.0049654865 -0.0034607805 -0.017198173 -0.0072994297 -0.0024115902 -0.014848891
-0.012070757 -0.008975385 -0.016244235 -0.017315188 -0.012526163 -0.016634518 -0.018363245 -0.0144258365
-0.023349816 -0.01531167 -0.01501514 -0.029010389 -0.024148233 -0.020200232 -0.032653704 -0.03028218
-0.025874605 0.035175707 0.025556853 0.03309529 0.038541112 0.030016284 0.03364656 0.040159073
0.037736475 0.04260757 0.02421357 0.022178221 0.020660533 0.023663111 0.021857003 0.019679457
0.022759741 0.021016855 0.01926953 0.022002595 0.019188851 0.016919166 0.022140991 0.019271841
0.01603444 0.021337736 0.018334527 0.014858975 0.02525784 0.0201051 0.016320389 0.025029281
0.019636504 0.015527945 0.025095403 0.019376632 0.015179543 0.0029176234 0.0037465743 0.006888198
0.0056643398 0.007121787 0.010067711 0.0049448586 0.005858547 0.008003727 0.0033930521 0.0031234787
0.006111315 0.0063476893 0.006909711 0.009508812 0.0056178854 0.0061670146 0.008020001 0.022381945
0.01902391 0.022896087 0.020387735 0.018129406 0.024698636 0.0153294075 0.013912492 0.021118723
0.0086175185 0.013098645 0.0133396275 0.010321834 0.014967745 0.01673676 0.011871898 0.014302781
0.017024728 0.013856924 0.015177203 0.012917558 0.01407261 0.016401833 0.016041467 0.0151054505
0.01614567 0.016959516 0.0073145726 0.0126461955 0.014393486 0.0060928264 0.008648948 0.011280342
0.006092497 0.0067535155 0.009674024 0.016197892 0.015986996 0.018382214 0.011721033 0.0076916073
0.010425288 0.008199268 0.0016644911 0.004133665 0.022035873 0.01861907 0.017518954 0.017143067
00000000: 646e f03c 3ccf b83c 8645 e53c 80c8 ed3c
00000010: e024 aa3c 97b1 b63c e2be cd3c 23d3 903c
00000020: 1cd9 8b3c 642f a33c c725 803c 332b b33c
00000030: 9c40 ab3c c61c 703c 0f41 8c3c 078b 8e3c
00000040: c8d8 2c3c 9377 1e3c f1d1 b33c 0301 fe3b
00000050: cf57 b13b 9acd a03c e9d9 e33b 28af 6f3b
00000060: 0109 6a3c da9d b03b 660d 5b3b f59b 4a3a
00000070: 2360 0e3b 7cc0 25bc 73c5 07bb 304f 8bbb
00000080: 5a98 8bbc 439d 61bb 8a3f 1abc ab37 c4bc
00000090: 9e6f 053c 1d7a c93b 892b 30bc bd80 7c3b
000000a0: 1655 04ba 1172 85bc dbef b538 bf2a 03bc
000000b0: 71ad c1bc a118 0c3d f02d 043d 1233 d83c
000000c0: 13da 113d 1be8 fd3c 1e6c a63c 0f06 163d
000000d0: 7987 f93c 8336 993c ecfa 0a3b f97a 67bb
000000e0: 1840 9abc 73f0 703a ffe1 7cbb 4830 8dbc
000000f0: 661c b9b9 1c23 d9bb 2bec 97bc 8709 663a
00000100: c8fa 3ebc 016f 08bd 75aa 1bb9 57ce 31bc
00000110: 289d fcbc 44f9 55ba f9f7 40bc 7ffd e9bc
00000120: e381 9e3c 404e 5a3c 9c74 a53b c741 8d3c
00000130: 1e4b 293c 87f9 423b 0f91 813c d20a dd3b
00000140: 35f7 03bb efcc 20bc 9f55 4cbc f6db f3bb
00000150: d050 4bbc a73a 59bc 7121 38bc 0f17 66bc
00000160: 4b33 73bc 39bd 72bc a063 89bc 8bc6 83bc
00000170: 0c08 10bc 78cb b0bc f4fd a0bc c0c4 79bc
00000180: 455f cbbc c22f bbbc 4e14 b0bc e14b 8e3b
00000190: f92a 7eba d36e 74ba 0ab7 463b 2ce6 e8ba
000001a0: ac55 60bb 39e4 a53b 7733 183b 8e94 2a3b
000001b0: ab96 9a3b 5214 253c b0f3 0b3c 5540 2f3b
000001c0: a49c f43b f29d da3b a072 c3ba e915 453b
000001d0: c2d1 793b 4d38 453b 912c fe3b 8b2a b93b
000001e0: fd33 8e3a e209 b33b 5797 873b b17c 37bb
000001f0: 24ea 833a 021a 483a 3411 ff3a 7acd 763a
00000200: 8731 f5ba 7107 0fbc 85b5 a2bb 43ce 62bb
00000210: 2fe3 8cbc 0e30 efbb c50b 1ebb c348 73bc
00000220: 6dc4 45bc 7e0d 13bc a112 85bc 95d8 8dbc
00000230: 893a 4dbc 1d45 88bc 846e 96bc 585a 6cbc
00000240: 1d48 bfbc ccdd 7abc 1002 76bc 32a7 edbc
00000250: 84d2 c5bc f57a a5bc e4bf 05bd 5612 f8bc
00000260: fbf6 d3bc 6714 103d 9b5c d13c ed8e 073d
00000270: 49dd 1d3d b6e4 f53c fad0 093d d77d 243d
00000280: 9091 1a3d 4685 2e3d 895b c63c 1aaf b53c
00000290: 4740 a93c 24d9 c13c 750d b33c d036 a13c
000002a0: a372 ba3c 8a2b ac3c 22db 9d3c c93e b43c
000002b0: f031 9d3c 109a 8a3c 0661 b53c fbdf 9d3c
000002c0: a85a 833c 7acc ae3c 4a32 963c 0f73 733c
000002d0: 88e9 ce3c 73b3 a43c 56b2 853c 350a cd3c
000002e0: bcdc a03c ec68 7e3c e094 cd3c bebb 9e3c
000002f0: 9eb3 783c 9935 3f3b 1689 753b 65b6 e13b
00000300: ed9b b93b e15d e93b 0af3 243c 7b08 a23b
00000310: 0ef9 bf3b 1022 033c f85d 5e3b 47b3 4c3b
00000320: 6d41 c83b 4700 d03b db6a e23b d9ca 1b3c
00000330: 3d16 b83b ab14 ca3b 5366 033c 575a b73c
00000340: 08d8 9b3c 9390 bb3c 2e04 a73c 1f84 943c
00000350: cb54 ca3c 3228 7b3c 39f1 633c 2c01 ad3c
00000360: 7e30 0d3c b39b 563c 748e 5a3c e91c 293c
00000370: 463b 753c 881b 893c 5982 423c 3656 6a3c
00000380: 7177 8b3c 2708 633c cea9 783c 2aa4 533c
00000390: ce90 663c 235d 863c 6569 833c da7c 773c
000003a0: ed43 843c afee 8a3c 15af ef3b fd31 4f3c
000003b0: a8d2 6b3c 55a6 c73b 51b4 0d3c 2fd1 383c
000003c0: 92a3 c73b 984c dd3b cc7f 1e3c 71b1 843c
000003d0: 29f7 823c 4c96 963c 9309 403c e109 fc3b
000003e0: d4ce 2a3c 3956 063c 0e2b da3a b273 873b
000003f0: 9384 b43c 0587 983c e983 8f3c 9e6f 8c3c
