benchmark_model_data/15000_image_experiment_50_epochs/benchmark_experiment_increased_data/experience_1_2_3/model_experience_1_2_3.pth (torch, 854994 bytes, 36 tensors)

features.0.weight f4 [32, 3, 3, 3]
0	0xbe47ad8b	-0.19499795
1	0xbd893586	-0.06699662
2	0x3c9f0344	0.019410737
3	0xbe13d506	-0.1443673
4	0xbe72e51d	-0.23720212
5	0xbe511948	-0.204198
6	0xbde5eea8	-0.11227161
7	0xbe53671a	-0.20644799
8	0xbe4a80ef	-0.19775747
9	0x3da80085	0.08203224
10	0xbda995dd	-0.08280537
11	0xbe434224	-0.190682
12	0xbde503ef	-0.11182391
13	0x3db06ed3	0.08614888
14	0xbe1e86c2	-0.15481094
15	0x3d98ebde	0.07466863
16	0x3b817257	0.003950398
17	0xbe1a1bf8	-0.15049732
18	0xbe328a7d	-0.17435642
19	0xbd74ffa7	-0.05981412
20	0x3dff36d4	0.124616295
21	0x3e17965a	0.14803448
22	0xbe134d45	-0.14384945
23	0x3c134b78	0.008990161
24	0x3dc523ab	0.09625944
25	0xbe06c751	-0.1316197
26	0xbdf799c2	-0.12089874
27	0x3df57855	0.11985842
28	0x3e1a860b	0.15090196
29	0x3d617a86	0.055048488
30	0x3deda9e3	0.11604669
31	0x3e069a82	0.13144878
32	0xbcc8b06d	-0.024498189
33	0x3e3ebec0	0.18627453
34	0x3d9bde1b	0.07610723
35	0xbddb57c5	-0.107101
36	0x3e65fee5	0.22460516
37	0x3e267613	0.16255979
38	0xbdb65876	-0.08903591
39	0xbe02d79d	-0.12777562
40	0xbd83c682	-0.06434347
41	0xbd1dc36b	-0.038516443
42	0x3e4748af	0.1946132
43	0x3e3b62cb	0.18299405
44	0xbb45e6be	-0.0030197348
45	0xbd45c4ba	-0.048283316
46	0x3e274a11	0.16336848
47	0x3dea1457	0.11429661
48	0x3d566053	0.052337956
49	0xbc8247ff	-0.015903471
50	0xbe170f00	-0.14751816
51	0xbded89bc	-0.11598536
52	0xbd12a4e9	-0.0358018
53	0x3e316547	0.1732379
54	0xbdcb394f	-0.0992304
55	0xbdcee8cd	-0.10102997
56	0x3dcfef87	0.10153108
57	0x3e2438bd	0.16037269
58	0x3e485dd1	0.19567038
59	0x3d895adb	0.067067824
60	0xbdf3af7d	-0.11898706
61	0xbcaeb128	-0.021324709
62	0x3afab032	0.0019125997
63	0x3e2e8798	0.17043912
64	0xbc6ab830	-0.01432614
65	0xbc8e979a	-0.017406274
66	0x3e6744ed	0.22584887
67	0x3dc3175c	0.0952594
68	0x3ddbd693	0.10734286
69	0x3e93b8f7	0.28852054
70	0x3d794c17	0.06086358
71	0xbcabc46b	-0.020967683
72	0xbcff8d65	-0.031195352
73	0x3d1ef5e0	0.038808703
74	0xbe5990de	-0.21246669
75	0xbdcc8c21	-0.09987665
76	0x3dbb828e	0.09155761
77	0x3d2ece38	0.042677134
78	0x3ddc332f	0.1075195
79	0x3e0130d7	0.12616287
80	0xbd9e7f6b	-0.07739147
81	0xbe124e7f	-0.14287756
82	0x3e047efb	0.12939064
83	0x3db1ed39	0.08687825
84	0x3db67772	0.08909501
85	0xbd976938	-0.07393116
86	0xbe03fe90	-0.12890077
87	0x3e0ba68f	0.13637756
88	0xbe0421cc	-0.12903517
89	0xbb931411	-0.004488476
90	0x3e4b04c4	0.19826037
91	0x3e26e913	0.16299848
92	0x3e892623	0.26786909
93	0x3d3dd90d	0.046349574
94	0x3c86ec19	0.016470002
95	0x3e516fec	0.20452851
96	0xbda83b56	-0.082144424
97	0x3e72bd92	0.23705128
98	0x3d922cb7	0.07137435
99	0xbe1365f6	-0.14394364
100	0xbcdf7062	-0.027275268
101	0x3dacfaaa	0.08446248
102	0xbd42a2fc	-0.047518715
103	0x3e63b742	0.22237876
104	0x3e215960	0.1575675
105	0x3e0f5b49	0.13999666
106	0x3e0f6ab5	0.14005549
107	0xbe00b520	-0.12569094
108	0xbdf0a611	-0.11750425
109	0x3d3be84c	0.045875832
110	0xbd826d2c	-0.06368479
111	0xbe813c80	-0.2524147
112	0xbe7638e5	-0.24045141
113	0x3da071f1	0.078342326
114	0xbe89107e	-0.26770395
115	0x3d3fb7e7	0.046806242
116	0x3d575513	0.052571367
117	0xbe58bb85	-0.21165283
118	0xbdda62a0	-0.106633425
119	0x3e6a7233	0.22895126
120	0xbe6f8016	-0.23388705
121	0x3e339625	0.17537744
122	0x3db04847	0.08607536
123	0x3def4f41	0.11685038
124	0xbe130f62	-0.14361337
125	0xbe0ac0be	-0.13550088
126	0x3c4908d7	0.012270174
127	0xbd1fa865	-0.038978953
128	0x3dd2c817	0.1029207
129	0x3a9f4947	0.0012152576
130	0xbd943443	-0.07236531
131	0x3de0d68f	0.10978424
132	0xbd2641b4	-0.040590003
133	0xbe03e57f	-0.12880515
134	0xbe44c139	-0.19214334
135	0xbb731363	-0.0037090413
136	0x3c6085ce	0.0137037765
137	0x3db1b10b	0.086763464
138	0xbdfee330	-0.12445676
139	0x3dabf082	0.083954826
140	0x3e39f9eb	0.18161742
141	0xbc12b94f	-0.008955314
142	0x3c74eefa	0.014949555
143	0x3e36e5ca	0.17861095
144	0x3df62ac2	0.12019874
145	0x3e182617	0.1485828
146	0x3da0db73	0.078543566
147	0x3e88c0d1	0.26709607
148	0x3e5c8511	0.21535136
149	0x3be4b43d	0.006979494
150	0x3e41ca5e	0.18924853
151	0xb9dccdcd	-0.00042115003
152	0x3d9ebe06	0.07751088
153	0xbde0c6c9	-0.10975415
154	0x3e030538	0.1279496
155	0xbe4d3e36	-0.20043263
156	0x3d48102a	0.04884354
157	0xbd8ac354	-0.06775537
158	0xbe305657	-0.17220436
159	0x3e0f9e77	0.14025293
160	0x3e53662a	0.20644441
161	0x3dab04e1	0.0835054
162	0x3c3b52b4	0.011433292
163	0xbd45fa3b	-0.04833434
164	0x3e0bf571	0.13667847
165	0x3e33a46e	0.17543194
166	0x3e4cb5bc	0.19991201
167	0x3e22c798	0.15896451
168	0x3d5f3824	0.0544969
169	0x3e47b58d	0.1950285
170	0x3e15e415	0.14637788
171	0xbd649aee	-0.055811815
172	0xbdb67f33	-0.0891098
173	0x3d375afa	0.044764496
174	0xbc9d428a	-0.019196767
175	0xbcb4ca85	-0.022069225
176	0xbd8cf821	-0.06883264
177	0x3e04a700	0.1295433
178	0xbd4b39fc	-0.049615845
179	0x3c3f8be0	0.011691064
180	0x3d8c356e	0.068461284
181	0x3e4f5028	0.20245421
182	0x3e5fd2ca	0.21857753
183	0x3e3762c5	0.17908771
184	0x3d7c3dd8	0.061582416
185	0x3d1bc01b	0.038025003
186	0xbe1c5028	-0.15264952
187	0x3d66e49a	0.056370355
188	0x3e05459f	0.1301484
189	0xbcb075e0	-0.021540582
190	0x3d7771b7	0.06041118
191	0x3dbb9825	0.09159879
192	0xbe2f7b4e	-0.17136881
193	0xbe19fcf2	-0.15037897
194	0x3c9e3180	0.019310713
195	0xbe44ed99	-0.19231261
196	0xbb9740cf	-0.00461588
197	0xbe5e0890	-0.21682954
198	0x3bcc0ba1	0.006226972
199	0x3d84b000	0.06478882
200	0x3e6ae7af	0.22939943
201	0x3d840769	0.06446726
202	0x3e786630	0.24257731
203	0x3e8f9613	0.28044185
204	0xbdef9823	-0.1169894
205	0x3d04b8d4	0.03240283
206	0x3d8947cf	0.067031495
207	0x3e481aac	0.19541425
208	0xbe33d2f3	-0.1756094
209	0x3d58733d	0.052844275
210	0xbd9ff086	-0.07809548
211	0x3c85f6d4	0.016353048
212	0xbe1a2039	-0.15051354
213	0xbd8db0d9	-0.06918497
214	0xbde868cb	-0.11348113
215	0x3d71dc77	0.059048142
216	0xbd586057	-0.05282625
217	0x3dc2a990	0.09504998
218	0xbe00af54	-0.12566882
219	0xbdf9163d	-0.12162445
220	0x3e139b2e	0.14414665
221	0x3d23df23	0.04000772
222	0xbd2bfb3a	-0.041987635
223	0xbd9af2bb	-0.075658284
224	0xbe4dfc9b	-0.20115893
225	0x3e27fc22	0.16404775
226	0x3e07ae05	0.13249977
227	0xbd619f20	-0.055083394
228	0x3dca2c8b	0.09871777
229	0x3ba7b180	0.005117595
230	0xbe0e4260	-0.13892508
231	0x3e236336	0.15955815
232	0x3e721d78	0.23644054
233	0x3e58c015	0.21167023
234	0x3d911072	0.07083215
235	0x3d5638d9	0.052300308
236	0x3c7c6077	0.015403858
237	0x3d829ff3	0.06378164
238	0xbdcd95fa	-0.100383714
239	0xbe5dc6c7	-0.21657859
240	0x3deb74d5	0.11496893
241	0xbe3faa88	-0.18717396
242	0xbe61901b	-0.22027628
243	0xbe4777c0	-0.19479275
244	0x3e1b477d	0.1516399
245	0x3ce38794	0.02777461
246	0x3df7b8ab	0.120957695
247	0x3db641de	0.08899282
248	0x3d46e345	0.048556585
249	0xbd3b451d	-0.04572021
250	0x3e04e51a	0.1297802
251	0x3d7e6544	0.062108293
252	0x3de6d5af	0.11271226
253	0x3d82f5a7	0.06394511
254	0x3e263be2	0.16233781
255	0x3e0cbd04	0.13743979

features.0.bias f4 [32]
0	0xbd04c8cc	-0.032418057
1	0x3d2fcbde	0.042919032
2	0xbdfa6310	-0.12225926
3	0x3db8e61f	0.09028267
4	0x3e159ff1	0.14611794
5	0x3da08b35	0.07839052
6	0x3dea90b3	0.114533804
7	0xbd6d3b05	-0.057917614
8	0x3db8fd73	0.090327166
9	0xbe4bcaf6	-0.19901642
10	0xbd43dc3d	-0.047817457
11	0x3e893dda	0.26805001
12	0xbdaaeb1d	-0.083456255
13	0xbdec5be5	-0.11540965
14	0x3d0c0357	0.034182873
15	0x3e0ab151	0.13544203
16	0x3c83bd63	0.016081518
17	0xbe22f22f	-0.15912698
18	0x3cc011b8	0.023445949
19	0x3e03b394	0.12861472
20	0x3bf42049	0.0074501378
21	0x3d81113a	0.06302114
22	0x3d91d437	0.07120555
23	0xbc43bd4a	-0.0119469855
24	0x3df6a15e	0.12042497
25	0x3e54cbfb	0.20780937
26	0x3e19b1ef	0.15009283
27	0x3e48d3ee	0.19612095
28	0x3db74ccc	0.08950195
29	0xbe155bc5	-0.14585789
30	0x3e4efe1d	0.20214124
31	0xbe01b8f3	-0.12668209

features.2.weight f4 [32, 32, 3, 3]
0	0x3c0ec53e	0.008714018
1	0xbc866baa	-0.01640876
2	0x3d5bff66	0.053710364
3	0x3d131194	0.035905436
4	0x3d22e188	0.039765865
5	0xbc54b0bb	-0.012981589
6	0x3d727d75	0.059201676
7	0x3cd95ad9	0.026532577
8	0x3d78c75a	0.06073699
9	0xbd4cb61c	-0.04997836
10	0xbd58946a	-0.052875914
11	0xbcb98b38	-0.022649392
12	0xbd997f3b	-0.074949704
13	0x3bd80ef8	0.0065935813
14	0x3ce2ab63	0.027669614
15	0xbd76aed7	-0.060225334
16	0x3d4f1568	0.050557524
17	0xbcde4902	-0.027134422
18	0xbd703722	-0.05864633
19	0x3a776ae5	0.0009438231
20	0xbc8ae507	-0.016954912
21	0xbb167709	-0.0022959134
22	0x3cdbb907	0.026821626
23	0x3d12fb24	0.035884038
24	0x3cde3d96	0.027128976
25	0x3da2e5fa	0.07954021
26	0x3d17caea	0.03705875
27	0xbd12446c	-0.035709783
28	0xbd850531	-0.06495131
29	0xbe10d468	-0.14143527
30	0xbd8427ce	-0.06452905
31	0xbd97d0c5	-0.074128665
32	0xbe2ebbe1	-0.17063858
33	0xbcab81b4	-0.02093587
34	0x3cef68eb	0.029224833
35	0xbdedb848	-0.116074145
36	0xbd53ba33	-0.051691245
37	0xbd37d4c8	-0.04488066
38	0xbcb85a2a	-0.022503931
39	0x3c8a6851	0.016895445
40	0xbcf01d06	-0.029310714
41	0x3ce2a1db	0.02766507
42	0x3db3d9db	0.08781787
43	0xbc155d70	-0.0091165155
44	0xbd3e0a7a	-0.04639671
45	0x3c97a6fb	0.01851224
46	0xbcb4acea	-0.022055108
47	0xbcf3ebc3	-0.029775506
48	0x3d6ebda6	0.05828633
49	0x3c69c2c8	0.014267631
50	0xbca4c813	-0.020114934
51	0x3d4dae5a	0.050215103
52	0x3d944f25	0.07241658
53	0xbb056c1b	-0.0020358625
54	0xbd827a8d	-0.06371031
55	0xbca45a29	-0.020062523
56	0xbdcf3555	-0.10117594
57	0xbd9dad3c	-0.076990575
58	0xbd11f796	-0.035636507
59	0xbc7a17c4	-0.015264455
60	0xbd8d1c4e	-0.06890164
61	0x3cdac524	0.026705332
62	0xbd5d8971	-0.054086152
63	0x3d8128ff	0.063066475
64	0x3cb6f5f8	0.022334084
65	0xbcfad75c	-0.03062027
66	0x3db7cc6c	0.08974537
67	0x3d3d56ee	0.04622548
68	0xbd24f75b	-0.04027496
69	0x3e0c5123	0.13702826
70	0x3d15104f	0.036392506
71	0xbb2570a9	-0.0025244153
72	0x3cf74582	0.030184511
73	0x3c99b0c9	0.018761056
74	0xbc00e17a	-0.007866258
75	0x3d9bc941	0.076067455
76	0x3da384af	0.07984292
77	0x3dcd9aee	0.10039316
78	0x3c9fd1e5	0.019509265
79	0x3db890f2	0.09012021
80	0x3d877155	0.06613413
81	0xbd0b7cf7	-0.034054723
82	0xbc0f7343	-0.008755508
83	0xbd3f3478	-0.046680897
84	0x3d52b919	0.051446054
85	0x3d5d8399	0.05408058
86	0xbd122fdb	-0.03569017
87	0x3d888e5d	0.06667779
88	0x3d54eeff	0.051985737
89	0x3d5271a3	0.051377904
90	0xbccda471	-0.025102826
91	0x3c19ed29	0.009394922
92	0xbdf6ba4d	-0.12047253
93	0x3db1e891	0.08686937
94	0x3cee3325	0.029077122
95	0xbd2d7625	-0.042349
96	0x3d3cb832	0.0460741
97	0x3ce75a78	0.028241381
98	0xbd6d1c10	-0.05788809
99	0x3dab7ec4	0.08373788
100	0x3d827fcd	0.06372032
101	0x3c8a3b45	0.016873965
102	0x3d875480	0.06607914
103	0xbc8f8f36	-0.017524343
104	0x3b682393	0.0035421595
105	0x3d4f10b8	0.050553054
106	0xbc83ef3f	-0.016105292
107	0x3d014a04	0.031564727
108	0xbc18d60c	-0.0093283765
109	0x3c19a982	0.009378793
110	0x3d2506b1	0.040289585
111	0xbd5b43fc	-0.05353163
112	0x3c202d2f	0.009776398
113	0xbe116008	-0.1419679
114	0x3cba11a8	0.022713497
115	0x3d4d4226	0.050111912
116	0xbde1ddbb	-0.1102862
117	0x3d902e88	0.07040125
118	0x3c07a05c	0.008277979
119	0xbccb7a76	-0.024838667
120	0x3c8f31b2	0.017479751
121	0xbe287d28	-0.16453993
122	0xbc52692e	-0.01284246
123	0x3c56594a	0.013082812
124	0xbc1b214c	-0.009468388
125	0xbc9a9e2e	-0.018874254
126	0x3ca43f9e	0.020049866
127	0xbd3929a5	-0.04520573
128	0x3d5c9d38	0.053860873
129	0xbc6c65bc	-0.014428552
130	0xbc8b5837	-0.017009838
131	0x3d43efd7	0.04783615
132	0x3d41a1d2	0.047273465
133	0x3d84b461	0.06479717
134	0xbc9ee6e7	-0.019397212
135	0x3c669c0e	0.014075292
136	0xbe1bc34c	-0.15211219
137	0xbd1a548e	-0.037678294
138	0xbd4197c6	-0.047263883
139	0xbdc350e6	-0.095369145
140	0xbddaf58d	-0.10691366
141	0x3c31c5f5	0.010850419
142	0xbd4d2426	-0.050083302
143	0xbd125bca	-0.035732068
144	0xbd1764b4	-0.036961272
145	0xbcb93c12	-0.022611652
146	0xbd8e5abf	-0.06950902
147	0xbc61404d	-0.013748241
148	0xbd789c0c	-0.060695693
149	0xba17d5df	-0.0005792062
150	0xbc754754	-0.014970619
151	0xbc96daa3	-0.018414801
152	0x3d480085	0.04882862
153	0xbd9034c2	-0.07041313
154	0xbd9a983b	-0.07548567
155	0x3cf86ae2	0.030324403
156	0xbd38beb2	-0.045103736
157	0xbd8b8d07	-0.06814008
158	0x3d23231a	0.039828397
159	0xbca761ee	-0.020432439
160	0xbd9d0de8	-0.07668668
161	0xbd5c0efb	-0.053725224
162	0x3d056f22	0.032576688
163	0x3a02b2e1	0.00049857615
164	0x3d903780	0.07041836
165	0x3bb5097f	0.0055248137
166	0x3d6054ab	0.054768246
167	0x3d68236e	0.056674413
168	0x3d79b3b2	0.060962386
169	0x3de60adf	0.11232542
170	0x3db9b4fd	0.09067724
171	0x3caa2766	0.02077074
172	0xbc14bfa0	-0.00907889
173	0xbcd74a7a	-0.02628063
174	0xba647664	-0.00087151513
175	0xbd34607f	-0.04403734
176	0xbc8628b2	-0.016376827
177	0xbc36492f	-0.011125847
178	0xbc75ab59	-0.014994466
179	0xbd1855cc	-0.037191197
180	0x3d373d91	0.04473645
181	0x3d8154cd	0.063150026
182	0xbce3081b	-0.027713826
183	0xbce7e00e	-0.02830508
184	0xbc284ba4	-0.01027194
185	0x3cd7500b	0.026283285
186	0x3cfe1a97	0.031018538
187	0x3cad0d8f	0.02112463
188	0x3d0a3f73	0.033751916
189	0x3db607ca	0.088882044
190	0x3cda67c4	0.026660807
191	0x3d47dc64	0.048794165
192	0x3d909718	0.07060069
193	0x3ba0b587	0.0049044522
194	0x3da255b8	0.07926506
195	0x3cf39eed	0.029738868
196	0x3d4f2151	0.050568882
197	0x3dbe36f9	0.09287829
198	0xbd3792ec	-0.04481785
199	0xbd5b15ad	-0.05348747
200	0xbd6825fc	-0.05667685
201	0x3cc45801	0.023967745
202	0xbd107a4d	-0.035272885
203	0xbd6ff1d4	-0.058580235
204	0x3d1f3aa4	0.038874283
205	0x3d229c09	0.039699588
206	0xbc8778c5	-0.01653708
207	0xbd46b878	-0.048515767
208	0xbd083c43	-0.033260595
209	0x3b6a87cc	0.0035786508
210	0x3bf9bf17	0.0076216566
211	0x3d04077c	0.0322337
212	0xbd2573ec	-0.040393755
213	0xbdaf4af0	-0.08559215
214	0x3d47deba	0.048796393
215	0xbc21ce72	-0.009875881
216	0xbd646387	-0.05575898
217	0xbcb15bed	-0.021650279
218	0xbd42470e	-0.047431044
219	0xbd0a1af0	-0.033717096
220	0xbc03259f	-0.008004575
221	0xbd772d60	-0.060346007
222	0xbc950d15	-0.018194715
223	0x3c926737	0.017871482
224	0xbcfd128e	-0.030892637
225	0xbd215f3d	-0.039397467
226	0x3d2ad840	0.04171014
227	0xbd80ce97	-0.06289404
228	0x3d251fe5	0.04031362
229	0xbd04cd27	-0.03242221
230	0x3bf8b2ff	0.0075896974
231	0x3d5ca8bf	0.053871866
232	0xbd10ab2d	-0.035319496
233	0x3d9b4643	0.07581761
234	0x3d827f38	0.06371921
235	0x3a3c6332	0.0007186412
236	0x3d7a20e2	0.061066516
237	0x3c02c068	0.007980444
238	0x3d918b04	0.07106593
239	0x3b970a07	0.0046093496
240	0xbc755555	-0.014973958
241	0xbc190e5c	-0.009341802
242	0x3cea9f93	0.028640544
243	0x3b396320	0.0028287843
244	0xbd9eb85e	-0.07750009
245	0xbdd21613	-0.102581166
246	0xbd9d1b13	-0.076711796
247	0xbd487309	-0.04893783
248	0xbe15f3b6	-0.1464375
249	0xbd329c0b	-0.043605845
250	0xbcd47d58	-0.025938675
251	0xbda07d89	-0.07836444
252	0xbc3dc377	-0.011582247
253	0xbc39d2b0	-0.011341736
254	0x3d5758a9	0.052574787
255	0x3db54f29	0.08852989

features.2.bias f4 [32]
0	0x3c7ce0ff	0.015434503
1	0x3d4b56e4	0.049643412
2	0x3d011477	0.031513657
3	0x3ce7b4f3	0.028284525
4	0xbc8a4660	-0.01687926
5	0x3c2a52c3	0.0103957085
6	0x3cfc9aeb	0.03083559
7	0x3defea2e	0.11714588
8	0x3c57180b	0.013128291
9	0xbd66d1c8	-0.056352407
10	0xbd0dd8b4	-0.034630492
11	0x3dceb6de	0.10093473
12	0x3c8769e5	0.016529987
13	0x3bcb33ad	0.0062012286
14	0xbbe9a690	-0.0071304515
15	0xbc8146ef	-0.015780894
16	0x3d192dbe	0.03739714
17	0xbd09399f	-0.033502217
18	0x3cdef2e5	0.02721543
19	0xbc777b9d	-0.015105155
20	0x3d625368	0.055255324
21	0xbd4c5741	-0.0498879
22	0xbcd62352	-0.026139889
23	0x3da173b4	0.07883397
24	0xbda49da6	-0.080378816
25	0x3d10f039	0.035385344
26	0x3d890b28	0.06691581
27	0xbc0881e8	-0.008331753
28	0xbafcb9eb	-0.0019281482
29	0x3d03bf0d	0.032164622
30	0x3c45dd13	0.012076634
31	0x3ca9b873	0.020717835

features.5.weight f4 [64, 32, 3, 3]
0	0x3dd85fb5	0.1056513
1	0x3d3964cf	0.045262154
2	0xbd33adc2	-0.04386688
3	0x3c737fed	0.014862043
4	0x3cc02b86	0.023458254
5	0x3c8ce5a5	0.017199347
6	0x3d289e7e	0.041166775
7	0x3c500554	0.012696583
8	0xbbbf1385	-0.0058311843
9	0xbd360a5b	-0.04444347
10	0xbd96f4ac	-0.07370886
11	0x3d0b4aa3	0.034006726
12	0xbca0991c	-0.019604258
13	0x3b52cc37	0.0032165179
14	0xbd6b4714	-0.057440832
15	0x3d67ca63	0.056589495
16	0x3c1faf08	0.009746321
17	0xbc367a86	-0.01113761
18	0xbc784ce2	-0.015155049
19	0x3d2d8897	0.04236659
20	0x3d01717b	0.031602364
21	0x3d4babe0	0.04972446
22	0x3da019e3	0.078174375
23	0xbcc561f3	-0.024094557
24	0x3d1ffbf5	0.039058644
25	0xbd11b8ea	-0.03557674
26	0x3c0563ec	0.008141499
27	0x3d90f3a8	0.07077724
28	0xbd65b71f	-0.05608284
29	0xbdc072ca	-0.09396894
30	0x3c7c6e8e	0.015407218
31	0xbd2a91aa	-0.041642822
32	0x3d182de4	0.03715314
33	0xbb45c1a1	-0.0030175226
34	0xbbb9104e	-0.0056476956
35	0x3cb7fb0d	0.022458578
36	0x384d13d3	4.889427e-05
37	0x3da0642d	0.07831607
38	0x3d9f33c9	0.07773549
39	0xbda6db18	-0.081472576
40	0x3da57585	0.08079056
41	0x3d34457b	0.044011574
42	0xbd440229	-0.047853623
43	0x3d7b2ea9	0.061323795
44	0x3c7e5efd	0.015525577
45	0xbc78c772	-0.01518427
46	0x3d52cfd1	0.05146772
47	0xbd5a92e6	-0.05336275
48	0xbd2cdd39	-0.042203162
49	0xbd616e56	-0.055036865
50	0xbcc35596	-0.023844521
51	0xbceb15a9	-0.028696852
52	0xbc4aedb7	-0.012385777
53	0x3d27ab81	0.040935043
54	0xbd153871	-0.03643078
55	0xbd0037b3	-0.03130312
56	0xbd0b8a0d	-0.034067202
57	0x3d884fb7	0.066558294
58	0xbd76b3db	-0.060230117
59	0x3c129a75	0.008947958
60	0x3dd667c2	0.10469009
61	0x3d8bf704	0.06834224
62	0x3dab297b	0.08357521
63	0x3dc32d95	0.095301785
64	0xbd7dbbba	-0.061946608
65	0xbca214b9	-0.019785272
66	0x3cf333b5	0.029687742
67	0x3d296d4d	0.041364003
68	0x3da57efc	0.08080861
69	0x3c70afa9	0.014690318
70	0x3dd7e66d	0.10541997
71	0x3c82dd05	0.015974531
72	0xbcd7ac39	-0.02632724
73	0x3b8894f6	0.004168148
74	0x3c25eddd	0.010127512
75	0x3cc3417c	0.023834936
76	0x3c900633	0.017581081
77	0x3d9b5260	0.07584071
78	0xbd2c63fc	-0.04208754
79	0xbc4e8819	-0.01260569
80	0xbd249218	-0.04017839
81	0x3d459a16	0.04824265
82	0x3d1e62c2	0.0386684
83	0x3dc294e5	0.09501056
84	0x3c996a94	0.018727578
85	0xbd5ee2b9	-0.05441544
86	0x3d97d3f6	0.07413475
87	0xbd2081a5	-0.03918614
88	0xbd7622ae	-0.060091667
89	0xbbb4568f	-0.0055034827
90	0x3db004a7	0.08594637
91	0xbd0dea63	-0.034647357
92	0xbdea91b1	-0.1145357
93	0x3db21f19	0.08697338
94	0xbc2f9a9b	-0.010718013
95	0xbb11222b	-0.002214561
96	0x3cfffd13	0.031248605
97	0x3a933ef7	0.0011233975
98	0x3d0ae6d3	0.033911537
99	0x3cb1682b	0.021656116
100	0x3d2ad40a	0.041706122
101	0xbc57d7de	-0.013174025
102	0xbce5c095	-0.028045932
103	0x3c9fac9b	0.019491484
104	0xbbe61526	-0.007021564
105	0x3c8e90da	0.017403055
106	0x3da988a7	0.082780175
107	0x3d1cb2c2	0.038256414
108	0x3cd15da7	0.025557352
109	0x3cd4f1de	0.025994238
110	0x3cfacf20	0.030616343
111	0xbd8dab42	-0.069174305
112	0x3d325f55	0.043547947
113	0xbcec18aa	-0.028820354
114	0xbc8b6f53	-0.017020857
115	0xbc33d4e5	-0.010976051
116	0x3d4c7785	0.04991867
117	0xbd3e8bfd	-0.046520222
118	0x3cddc614	0.02707199
119	0xbc85c898	-0.016331002
120	0xbd09a191	-0.033601347
121	0x3cbb97ba	0.022899497
122	0x3d6b6d76	0.057477437
123	0xbc3c67ec	-0.011499386
124	0xbd511cec	-0.051052973
125	0x3cc4da78	0.024029955
126	0x3d1fa603	0.03897668
127	0xbc36bec1	-0.011153878
128	0xbcec4053	-0.028839266
129	0xbc827aab	-0.015927633
130	0xbc3ce554	-0.011529285
131	0x3d4d7853	0.05016358
132	0xbcb0ba63	-0.021573251
133	0x3cf84011	0.030303987
134	0x3d318f73	0.043349694
135	0xbd070433	-0.03296299
136	0x3ccff2e5	0.025384376
137	0x3ba70996	0.0050975783
138	0xbd346821	-0.044044618
139	0x3d5fd611	0.05464751
140	0xbb8d9872	-0.0043211514
141	0x3c814420	0.015779555
142	0xbd57d690	-0.052694857
143	0x3ce1f029	0.027580338
144	0x3c6362c6	0.01387853
145	0x3d93321d	0.07187293
146	0xbccb991e	-0.024853285
147	0xbcb03bec	-0.021512948
148	0xbd241690	-0.04006058
149	0x3d00b183	0.03141929
150	0xbbf3e0c1	-0.0074425642
151	0x3d4e9beb	0.050441664
152	0x3c669b72	0.014075147
153	0xbd9c27e5	-0.07624797
154	0x3d63aa01	0.05558205
155	0xbd0cfc29	-0.034420166
156	0x3d379371	0.044818345
157	0x3d176c0a	0.03696827
158	0xbd2273b5	-0.039661128
159	0x3d2bd3cd	0.041950036
160	0xbd629b4d	-0.055323888
161	0x3c4cc4d5	0.0124981
162	0x3cd43eab	0.025908789
163	0xbcdd2dea	-0.026999433
164	0x3ba86923	0.0051394864
165	0x3ba17d70	0.0049282834
166	0x3c3e03a8	0.011597551
167	0xbd43ce92	-0.047804423
168	0xbd3088b1	-0.04309911
169	0x3d72ff02	0.059325226
170	0x3ca88bce	0.020574477
171	0xbd4f5cba	-0.05062554
172	0xbd5bb36b	-0.053637903
173	0x3d5ba9fe	0.053628914
174	0x3c8ea4a1	0.017412486
175	0x3cb5bd9f	0.022185145
176	0xbcdb3e54	-0.026763119
177	0xbc79afe3	-0.015239689
178	0x3b05478c	0.0020336835
179	0x3b7ad9fd	0.0038276904
180	0x3d113af6	0.03545662
181	0x3d90c1d7	0.07068222
182	0x3da57b0c	0.0808011
183	0xbd936d85	-0.071986236
184	0x3d558905	0.052132625
185	0x3c72e935	0.014826109
186	0xbb4b09e5	-0.003098124
187	0xbd0968e5	-0.0335473
188	0x3d3d8a0a	0.046274222
189	0xbd543d93	-0.051816534
190	0xbce9038e	-0.028444078
191	0xbcc36faf	-0.023856966
192	0x3cdd25eb	0.02699562
193	0x3c077ee6	0.008270001
194	0xbca404bc	-0.020021789
195	0xbc926c6b	-0.017873963
196	0xbd91ea97	-0.071248226
197	0x3cf0875a	0.029361416
198	0xbd3b0687	-0.04566052
199	0x3d9038e2	0.070420995
200	0xbce43095	-0.027855197
201	0x3bcd3953	0.006262937
202	0x3d208b20	0.03919518
203	0x3c9c3ef7	0.019072993
204	0xbc8accbc	-0.016943328
205	0x3d394bce	0.04523831
206	0x3c93f7ae	0.018062439
207	0x3d734782	0.059394367
208	0x3c3c66c6	0.0114991125
209	0xbd5419e0	-0.05178249
210	0x3cf407f1	0.029788943
211	0x3d602089	0.054718528
212	0x3c8ba06c	0.017044269
213	0x3d4af78a	0.049552478
214	0xbce201b6	-0.027588706
215	0x3b9eb9bd	0.004843919
216	0xbbed7acd	-0.007247305
217	0x3cc8c62a	0.024508554
218	0x3cf49dcb	0.029860398
219	0x3cabc846	0.020969521
220	0xbabac7c2	-0.0014250206
221	0xbdba6e93	-0.091031216
222	0xbc348ffe	-0.011020659
223	0xbc991817	-0.018688245
224	0xbca80261	-0.020508947
225	0x3d18e363	0.037326228
226	0x3d473712	0.048636504
227	0x3cfb864c	0.030703686
228	0xbb3176c5	-0.0027078849
229	0x3d46953a	0.048482157
230	0xbcf4127d	-0.029793972
231	0xbcdce8e8	-0.026966527
232	0x3d0373a3	0.0320927
233	0x3d083c08	0.033260375
234	0x3d620da4	0.05518879
235	0xb90b5c27	-0.00013290402
236	0xbba3e49c	-0.0050016176
237	0x3d64bcfd	0.055844296
238	0x3cb25da5	0.021773169
239	0x3d20d503	0.039265644
240	0xbd367c1e	-0.04455196
241	0xbcfef834	-0.031124212
242	0x3c6f81c2	0.014618339
243	0x3da9ebf8	0.082969606
244	0x3d41db6a	0.04732839
245	0x3d4bde72	0.049772687
246	0x3db45cbb	0.088067494
247	0x3d671f57	0.056426372
248	0x3c96ad36	0.01839314
249	0x3bef4c67	0.007302809
250	0x3d91388d	0.07090864
251	0x3d2a0e7c	0.04151772
252	0xbbc322e4	-0.005955087
253	0x3d28c5c8	0.041204244
254	0x3d04624d	0.03232031
255	0x3b16e7c9	0.0023026338

features.5.bias f4 [64]
0	0x3c37b24f	0.011211946
1	0x3d5e8161	0.054322604
2	0x3b3f9021	0.0029230195
3	0x3c4ff5f1	0.012692914
4	0xbd370927	-0.044686463
5	0xbd67515e	-0.056474082
6	0x3cef3ec8	0.029204741
7	0x3d62d64f	0.05538016
8	0xbd5bb310	-0.053637564
9	0xbc832742	-0.01600993
10	0x3d6589fd	0.0560398
11	0x3d99acc7	0.07503658
12	0x3dc65bb9	0.096854635
13	0xbca8a3cd	-0.020585919
14	0xbd70a709	-0.058753047
15	0x3d0f4278	0.0349755
16	0xbd3cd0fc	-0.04609774
17	0xb651e784	-3.1278187e-06
18	0x3d5b4fe6	0.053542994
19	0xbafe20c8	-0.0019388432
20	0xbcdff9df	-0.027340828
21	0x3d169e9a	0.036772348
22	0x3d7681d8	0.060182422
23	0x3cfc4eba	0.030799259
24	0xbd0c2a69	-0.034220133
25	0x8d5c7b3c	-6.794107e-31
26	0x39e38bc5	0.0004340095
27	0x3d32e362	0.04367388
28	0x3d68f260	0.05687177
29	0xbcef760d	-0.029231096
30	0xbcd385b0	-0.025820583
31	0xbc955295	-0.018227855
32	0x3b000974	0.0019536885
33	0x3cdf5ebf	0.027266858
34	0x3b5f9868	0.003411794
35	0xbca48665	-0.020083616
36	0x3c18d683	0.009328487
37	0x3d4e8980	0.0504241
38	0xbd3762d3	-0.04477198
39	0x3c7b60a4	0.015342865
40	0xbccb2053	-0.024795687
41	0xbd398ac9	-0.04529837
42	0x3d4a6260	0.049410224
43	0xbd4abf26	-0.0494987
44	0x3d13178c	0.035911128
45	0xbc52d02b	-0.012867014
46	0xbcc333c7	-0.0238284
47	0x3be7e321	0.0070766364
48	0x8e2a9531	-2.102595e-30
49	0xbbc7a8d7	-0.0060931253
50	0x3d2d3fea	0.04229728
51	0x3d1e5751	0.03865749
52	0x3cfb946e	0.030710425
53	0xbb53abc0	-0.0032298416
54	0xb9cc5d76	-0.00038979546
55	0xbb2d81d8	-0.0026475098
56	0x3d8101fc	0.062992066
57	0x3be780c8	0.0070649125
58	0xbd0b92ce	-0.03407555
59	0x3cb5ab97	0.022176547
60	0xbbcca8d7	-0.006245713
61	0x3c4a6ba9	0.01235477
62	0x3cad9186	0.021187555
63	0xbb96d53b	-0.004603056

features.7.weight f4 [64, 64, 3, 3]
0	0x3d335054	0.04377778
1	0x3d4c698c	0.049905345
2	0x3cd5da6b	0.026105126
3	0x3d2734ce	0.040821843
4	0x3d094751	0.03351528
5	0x3cca6433	0.024705982
6	0x3cbc8ef3	0.023017382
7	0x39307204	0.00016827142
8	0xbc68da9a	-0.014212275
9	0xbd8312b7	-0.06400054
10	0xbad300b9	-0.0016098238
11	0xbca4d1bf	-0.020119546
12	0x3caffd17	0.021482987
13	0x3b6eb2ca	0.0036422485
14	0xbd14a62b	-0.036291283
15	0x39e73d68	0.00044105505
16	0x3cecb171	0.028893204
17	0xbc937e58	-0.018004581
18	0xbcd239c6	-0.025662314
19	0xbc9cac0d	-0.019125009
20	0xbca64406	-0.020296108
21	0x3c81989f	0.015819846
22	0x3c73c839	0.01487928
23	0x3c99e46b	0.018785676
24	0x3d0a8dd7	0.033826675
25	0x3cce9f2f	0.025222389
26	0xba92f49a	-0.0011211813
27	0xbc9ccfa2	-0.019141976
28	0xbb491a63	-0.0030685894
29	0xbd857c47	-0.06517845
30	0x3ce26cd9	0.027639793
31	0x3ccca339	0.024980174
32	0xbd3901f5	-0.045167882
33	0x3c838be4	0.016057916
34	0x3d181f2e	0.03713911
35	0xbca8c669	-0.020602422
36	0x3c6a1455	0.014287074
37	0x3d8f2bdf	0.069907896
38	0x3be158a4	0.006877022
39	0x3d1e8652	0.038702317
40	0xbacb0569	-0.0015489283
41	0xbcd48e49	-0.025946753
42	0xbd4ff729	-0.05077282
43	0xbceb8aa5	-0.028752634
44	0xbd4763cf	-0.04867917
45	0x3d882c16	0.06649034
46	0x3d4004f3	0.04687972
47	0x3d8dc490	0.06922257
48	0x3c0626b1	0.008187936
49	0x3cc40562	0.023928348
50	0x3d4849d7	0.048898544
51	0x3d1b0cb1	0.0378539
52	0xbd5b1707	-0.053488757
53	0x3a6e9c33	0.0009102255
54	0x3d801898	0.06254691
55	0x3ca891d8	0.020577356
56	0xbd24eb28	-0.040263325
57	0x3ce544a6	0.027986836
58	0x3d484a3c	0.04889892
59	0x3c806de3	0.015677398
60	0xbd33d6c3	-0.043905985
61	0x3ca51edf	0.020156322
62	0x3c6669c2	0.014063301
63	0x3d301794	0.042991236
64	0x3b5e4733	0.003391695
65	0xbcaf3257	-0.021386309
66	0xbc0373f9	-0.0080232555
67	0xbcc5dab5	-0.02415214
68	0xbc97bc9d	-0.018522555
69	0xbd1c3f6e	-0.03814643
70	0xbce1837b	-0.027528515
71	0x3c5930c8	0.013256259
72	0x3ca5e3d0	0.020250231
73	0xbc3c53e0	-0.011494607
74	0x3d683dd1	0.056699578
75	0x3c6d8015	0.014495869
76	0x3c3d3409	0.011548051
77	0x3c31d953	0.010855037
78	0x3cb9732c	0.022637926
79	0x3c8abace	0.016934779
80	0x3c562bee	0.013071997
81	0xbd1064c9	-0.035252366
82	0x3cb8d15f	0.022560773
83	0x3d4cf210	0.050035536
84	0x3bf6fab2	0.0075372094
85	0xbd24b93d	-0.04021572
86	0x3ca9bb7b	0.02071928
87	0x3ca55950	0.02018419
88	0xbc885af8	-0.01664494
89	0x3d5324c4	0.051548734
90	0xbc619a4b	-0.0137696965
91	0x3d5e6f2b	0.054305237
92	0xbda8f537	-0.08249896
93	0x3d76a276	0.06021353
94	0x3dea27c3	0.11433365
95	0xbc63b8e3	-0.013899061
96	0x3b27bdbf	0.0025595275
97	0x3d3ecdbe	0.04658293
98	0xbd8a14a4	-0.06742218
99	0x3d7dacf0	0.061932504
100	0x3d326596	0.04355391
101	0x3d04085c	0.032234535
102	0x3d7d5a65	0.061853785
103	0x3c7ce178	0.015434615
104	0xbcd3aa48	-0.025838032
105	0x3ba6f7e5	0.0050954693
106	0x3d3c364a	0.04595021
107	0x3d49ebc3	0.049297106
108	0xbd4c61c0	-0.04989791
109	0xbc5a48b3	-0.013322997
110	0xbd423508	-0.047413856
111	0xbc5e6810	-0.013574615
112	0xbd422d53	-0.047406506
113	0x3d0f7571	0.03502411
114	0xbc989628	-0.018626288
115	0xb9c9afc2	-0.00038468657
116	0xbb87446c	-0.0041280296
117	0x3cde9de4	0.027174897
118	0xbd061aa0	-0.032740235
119	0x3c913cc6	0.017729174
120	0xbcba16ea	-0.022716004
121	0xbc823768	-0.01589556
122	0x39932c48	0.00028071017
123	0xbca8afac	-0.02059158
124	0xba78088e	-0.0009461724
125	0x3cbd9c71	0.023145886
126	0xbda18bff	-0.0788803
127	0xbd6003dd	-0.054691184
128	0xbc93cac5	-0.018041024
129	0x3c9073a2	0.017633263
130	0x3cce5def	0.025191275
131	0x3d09c790	0.033637583
132	0x3c66bfe5	0.014083837
133	0x3cd1d0bf	0.025612233
134	0xbd1571d3	-0.036485504
135	0x3d08f033	0.033432197
136	0x3be8e03a	0.007106808
137	0x3b985d71	0.004649811
138	0xbc59610c	-0.013267767
139	0x3bc2c4d4	0.005943874
140	0xbc1b1d35	-0.009467413
141	0x3d144131	0.036194984
142	0xbd03b682	-0.032156475
143	0x3d212b89	0.03934816
144	0x3d1291b9	0.035783503
145	0x3d02a73c	0.03189777
146	0xbc087be8	-0.008330323
147	0xbcdc3f51	-0.02688566
148	0x3c29f12a	0.010372439
149	0x3cbe551d	0.023233945
150	0x3c424de3	0.01185939
151	0xbd289bf8	-0.04116437
152	0xbcb4998e	-0.022045877
153	0xb78cd104	-1.6786631e-05
154	0xb7f85c13	-2.960678e-05
155	0xb7ce86d8	-2.4619905e-05
156	0xb6f22563	-7.2165144e-06
157	0xb772eb97	-1.4479177e-05
158	0xb7039ccf	-7.844718e-06
159	0xb70ef52e	-8.520945e-06
160	0xb784e306	-1.5841342e-05
161	0xb68ec781	-4.255155e-06
162	0xbd2dd3b7	-0.042438235
163	0x3d0bd2aa	0.03413645
164	0x3d4064c0	0.046971083
165	0x3c9dc152	0.019257221
166	0x3c41ff01	0.011840583
167	0x3c48fd2e	0.012267394
168	0xbcc48d4e	-0.02399316
169	0xbbdcdbda	-0.0067400755
170	0x3c8e9310	0.01740411
171	0x3c449f94	0.012000937
172	0x3cc90aa0	0.0245412
173	0x3d48ca42	0.049021013
174	0xbc3e5bdd	-0.011618582
175	0xbd6d43a0	-0.05792582
176	0xbcdeb54c	-0.027186058
177	0x3d081fed	0.03323357
178	0xbc052470	-0.008126363
179	0x3d36f897	0.044670667
180	0x3d46ebe8	0.04856482
181	0x3d2b1f53	0.04177792
182	0xbd11b393	-0.035571646
183	0xbcd8fead	-0.026488626
184	0x3a907d47	0.0011023664
185	0x3bbb9367	0.005724359
186	0xbd32f352	-0.04368908
187	0x3c7fa024	0.015602145
188	0x3c786f2e	0.015163226
189	0xbd77a062	-0.060455687
190	0x3c4f164c	0.012639593
191	0xbdc4f367	-0.09616738
192	0xbc1edd3e	-0.009696303
193	0x3bdfef81	0.006833971
194	0xbced090d	-0.02893498
195	0x3cb3eae2	0.021962587
196	0x3c8761c0	0.016526103
197	0x3c0eae5f	0.0087085655
198	0x3d60082b	0.05469529
199	0x3c834e94	0.01602868
200	0xbb8151ef	-0.003946535
201	0x3d30227b	0.043001633
202	0x3d33815d	0.043824542
203	0xbca1e3d8	-0.019761965
204	0x3d21e192	0.03952176
205	0xbcfa400b	-0.030548116
206	0xbbe3c8b8	-0.006951418
207	0x3d3d3767	0.046195414
208	0x3cbf9c38	0.02338992
209	0x3c0814cb	0.008305739
210	0x3b74ce6d	0.0037354485
211	0x3cdfc75f	0.027316747
212	0x3cf18eda	0.029487062
213	0x3ce84f15	0.028358022
214	0xbd12aa86	-0.035807155
215	0xbc7f95bd	-0.015599665
216	0x3aa281b9	0.001239828
217	0xbb88560a	-0.0041606473
218	0xbcd1a004	-0.025588997
219	0x3d205afa	0.039149262
220	0x3b719ab0	0.0036865883
221	0x3c7cec19	0.015437149
222	0x3ca9b96d	0.0207183
223	0xbcec2df1	-0.0288305
224	0xbc0fa145	-0.008766477
225	0x8d6b48a1	-7.250239e-31
226	0x8d8c43b1	-8.644462e-31
227	0x8dbd1eec	-1.16554685e-30
228	0x8cc1e76d	-2.9875643e-31
229	0x8d105627	-4.447713e-31
230	0x8d7b2ec0	-7.740162e-31
231	0x8b73e74b	-4.6974103e-32
232	0x8cb47fe9	-2.7810374e-31
233	0x8d51af60	-6.4614197e-31
234	0x3b1ec3ad	0.0024225519
235	0x3cb8f819	0.02257924
236	0xbcacc942	-0.021092061
237	0x3ceb0bad	0.02869209
238	0xbb849a8a	-0.004046743
239	0xbc1ecb7d	-0.00969207
240	0xbb79c323	-0.0038110695
241	0xbc0713cd	-0.008244467
242	0xbd5f7ec7	-0.054564264
243	0xbcc0ae39	-0.023520576
244	0x3b2ea91b	0.0026651088
245	0xbc68b3e2	-0.014203044
246	0x3cb5fed5	0.02221624
247	0x3be3b5d7	0.0069491672
248	0x39af74fe	0.00033465767
249	0x3d79fbea	0.06103126
250	0x3ca6d505	0.020365248
251	0xbcecbd9c	-0.028899007
252	0x3c9e8623	0.01935107
253	0x3d0fd7a4	0.03511776
254	0x3d997d4e	0.07494603
255	0x3d300846	0.04297664

features.7.bias f4 [64]
0	0xbcf9db02	-0.030499939
1	0x3d956413	0.07294478
2	0x3c02d217	0.00798466
3	0x93c4a95f	-4.964437e-27
4	0xbc9c2e8f	-0.01906517
5	0xbc8db25f	-0.017296968
6	0xbc4d89f8	-0.012545101
7	0x3d1b9de9	0.03799239
8	0xbbbc3182	-0.0057432065
9	0x3d838b98	0.0642311
10	0xbc592147	-0.013252563
11	0xbcf05a25	-0.02933986
12	0xbd58eb6f	-0.052958902
13	0xa1841872	-8.951139e-19
14	0x3c9ec72f	0.019382088
15	0x800af0a8	-1.004686e-39
16	0x3d667430	0.05626315
17	0xbd4504a1	-0.048100118
18	0x3c49f91a	0.012327457
19	0x3c79bb23	0.015242371
20	0xb9227313	-0.00015492392
21	0x3b5bb3cb	0.0033523913
22	0x3cecb718	0.0288959
23	0x3d0bc0a7	0.034119274
24	0x3d5ec9d4	0.054391697
25	0x3d0b8e15	0.034071047
26	0x3c2df0cd	0.010616493
27	0x3d287878	0.041130513
28	0x3c076958	0.008264862
29	0x968556c3	-2.1542063e-25
30	0x3d19889b	0.037483793
31	0x3ce8b203	0.028405195
32	0x3d26838d	0.0406528
33	0x3d0b35ae	0.03398674
34	0x3d1ac5c3	0.037786257
35	0xbd2abebb	-0.0416858
36	0x82ecb1d1	-3.4779145e-37
37	0x9ccf679f	-1.3724896e-21
38	0x3d0fb77f	0.035087105
39	0x3c140222	0.009033712
40	0xa5c02dfe	-3.3337856e-16
41	0xbbd568be	-0.0065127304
42	0x3c8a3847	0.016872538
43	0xbd42230d	-0.04739671
44	0x3d0731ef	0.033006605
45	0x3d444ed6	0.047926746
46	0x3cdd773b	0.027034393
47	0x3ab1228e	0.0013514326
48	0xbcd66860	-0.026172817
49	0xbca320d1	-0.019913109
50	0x3cfec914	0.03110174
51	0xbd2a248e	-0.041538768
52	0xbc0619c0	-0.00818485
53	0x3ce15d26	0.027510237
54	0x3c8b7ad4	0.017026342
55	0xbc1f3a99	-0.009718561
56	0xbcd7d1ce	-0.02634516
57	0x3bd13ea4	0.006385641
58	0x3ccbc704	0.024875171
59	0x3cda7d5b	0.026671102
60	0xb8eb933f	-0.000112331
61	0x3d3946d2	0.045233555
62	0xbc916daa	-0.017752487
63	0xbbcc9a85	-0.006244006

features.10.weight f4 [64, 64, 1, 1]
0	0xbdd1a1c8	-0.102359354
1	0x3d9c93af	0.07645356
2	0xbd9d1293	-0.076695584
3	0x91ec7265	-3.7304736e-28
4	0xbdcf43b7	-0.101203375
5	0xbc6143bb	-0.013749058
6	0xb9effe9a	-0.00045775325
7	0xbc85197b	-0.016247502
8	0xbddc255f	-0.107493155
9	0x3deca7a4	0.115554124
10	0x3d2dcdb2	0.042432494
11	0xbd83885e	-0.06422494
12	0xbde8a8f0	-0.11360347
13	0x2e9b1db4	7.05386e-11
14	0x3d1822b1	0.03714246
15	0x8020c010	-3.007635e-39
16	0x3cfdfa56	0.031003159
17	0x3de2085f	0.11036753
18	0x3d81d0b3	0.06338634
19	0xbd303f89	-0.04302934
20	0x80055760	-4.90522e-40
21	0xbd55ba46	-0.052179597
22	0xbdc022a0	-0.09381604
23	0x3c759473	0.014989006
24	0x3ddc800f	0.10766613
25	0xbc1467f8	-0.009057991
26	0x3dcbe743	0.09956219
27	0xbd1b5d82	-0.037930973
28	0x3d23baa3	0.039972913
29	0x3004dc65	4.833452e-10
30	0x3c0fe297	0.008782051
31	0x3d2dc07b	0.04241989
32	0xbc8abf9b	-0.016937068
33	0xbd5a52f6	-0.053301774
34	0x3cf00bc3	0.029302483
35	0x3b27a4ed	0.002558048
36	0x86edebbb	-8.9495866e-35
37	0x879ed235	-2.3896746e-34
38	0xbd92a81a	-0.07160969
39	0x3cef9dd3	0.029250061
40	0xa5616796	-1.9550735e-16
41	0x3c54ecf6	0.012995949
42	0xbdd10b17	-0.10207193
43	0xbd8e3aff	-0.06944846
44	0x3da5e607	0.08100515
45	0xbcfc3390	-0.030786306
46	0xbdb865bb	-0.090037785
47	0xbe402591	-0.1876433
48	0xbc6da74c	-0.014505219
49	0xbddf1c27	-0.108940415
50	0xbd804d28	-0.062647164
51	0x3d6257b3	0.055259418
52	0xbd291da8	-0.041288048
53	0x3cea205c	0.028579883
54	0x3dddbd3c	0.10827109
55	0xbcc96427	-0.02458389
56	0xbccadbe8	-0.024763063
57	0x3d8bb418	0.068214595
58	0x3cd5f081	0.026115658
59	0x3d95083a	0.0727696
60	0xbabaae5d	-0.0014242638
61	0x3daeeeb4	0.08541623
62	0xbd40af4a	-0.04704217
63	0xbdd49e7a	-0.103817895
64	0xbcc2cf04	-0.023780353
65	0x3caa98ad	0.020824755
66	0xbd131489	-0.035908256
67	0x940fd180	-7.2609716e-27
68	0x3a8994a5	0.001049657
69	0x3cf40c20	0.029790938
70	0xbc83101c	-0.015998892
71	0x3d0cc511	0.034367625
72	0x3d603702	0.05473996
73	0x3c6b2fbe	0.014354644
74	0xbd57ca82	-0.05268336
75	0x3d9b00f7	0.075685434
76	0x3c28869f	0.010286002
77	0xa9780f16	-5.5080147e-14
78	0x3ccb8e7d	0.024848217
79	0x001f538c	2.876871e-39
80	0xbd6ea909	-0.058266673
81	0x3bfecf73	0.0077761947
82	0xbb325ec9	-0.002721714
83	0xbce6b03a	-0.028160203
84	0x00055a38	4.91542e-40
85	0xbda8a627	-0.08234816
86	0x3c12f20f	0.008968844
87	0xbc76030b	-0.015015374
88	0x3d94c48e	0.07264052
89	0x3d2911fd	0.04127692
90	0x3c712ebb	0.014720614
91	0x3cdba5a4	0.026812382
92	0x3ce396e8	0.027781919
93	0xaf0195b3	-1.1785665e-10
94	0xbd64110c	-0.05568032
95	0x3da35017	0.0797426
96	0x3d3a2bc3	0.04545189
97	0x3c8c9f9a	0.017165948
98	0xbc9d94a5	-0.019235918
99	0xbd61aae7	-0.055094626
100	0x068dd637	5.3353066e-35
101	0x901f3517	-3.139812e-29
102	0xbc97c2de	-0.018525537
103	0x3bc1ec5c	0.005918069
104	0x25b5e048	3.1550474e-16
105	0xb9e5979b	-0.0004379124
106	0x3cd7202a	0.026260454
107	0x3c4efce6	0.012633538
108	0xbcb49434	-0.022043325
109	0x3d00e3f5	0.031467397
110	0x3ddc8c2d	0.10768924
111	0x3d0239b7	0.031793322
112	0xbcabbb79	-0.020963417
113	0x3d0f7b9e	0.03503
114	0x3bee6988	0.007275764
115	0x3dbbfe59	0.09179372
116	0xbcfafeca	-0.030639071
117	0xbcf55e9c	-0.02995234
118	0xbb831877	-0.004000719
119	0x3d4d7a7a	0.05016563
120	0xbc3b126e	-0.011417968
121	0x3d3bd613	0.045858454
122	0xbc46b9c7	-0.012129254
123	0xbd2d26ec	-0.042273447
124	0x3415c99f	1.3950056e-07
125	0xbd89d55e	-0.0673015
126	0x3d5afc7c	0.053463444
127	0xbd141955	-0.03615697
128	0x3c9cf1da	0.019158293
129	0x3e14dcb5	0.14537318
130	0x3dde27db	0.108474456
131	0x940ba476	-7.050141e-27
132	0xbd7c2a16	-0.061563574
133	0x3ced8190	0.028992444
134	0xbe00afa9	-0.12567009
135	0x3b915f44	0.0044364054
136	0xba03bae2	-0.0005025101
137	0x3e087284	0.13324934
138	0x3debf011	0.115203984
139	0xbd8f25ef	-0.06989657
140	0xbc4f4f08	-0.01265312
141	0xadef408a	-2.7199815e-11
142	0xbd742a72	-0.05961079
143	0x0030d600	4.484873e-39
144	0xbd986e83	-0.074429534
145	0xbe371f45	-0.17883022
146	0x3cae24f8	0.021257862
147	0x3d70af6f	0.058761057
148	0x92c2be02	-1.2289962e-27
149	0x3d3d1a1a	0.04616747
150	0xbd58ab69	-0.052897844
151	0xbd15b544	-0.03654982
152	0x3d94f48c	0.07273206
153	0xbdc6f060	-0.09713817
154	0x3cbcc39e	0.023042496
155	0x3df18938	0.117937505
156	0xbd98d2ca	-0.0746208
157	0xaf448add	-1.787543e-10
158	0x3e204b51	0.15653731
159	0x3df2ae5f	0.11849665
160	0x3bc6d0dc	0.0060673784
161	0xbd2a98a9	-0.041649494
162	0xbe103fd4	-0.14086848
163	0xbc349794	-0.011022467
164	0x06ba47bc	7.007083e-35
165	0x0a18d180	7.357936e-33
166	0x3db6f985	0.08934311
167	0x3e01a14f	0.1265919
168	0x2487ecfe	5.89484e-17
169	0x3cc4e32a	0.024034102
170	0xbd7f6640	-0.062353373
171	0xbe161448	-0.14656174
172	0xbe04906c	-0.12945718
173	0xbe24c297	-0.16089855
174	0xbb200924	-0.002441951
175	0x3db0f1f7	0.08639901
176	0xbdab5c5f	-0.08367228
177	0x3e20f191	0.1571715
178	0x3d312fb6	0.04325839
179	0xbddc830f	-0.10767185
180	0xbd55a286	-0.052156948
181	0x3de88e50	0.11355269
182	0xbe0382b4	-0.12842828
183	0x3db09cb5	0.086236395
184	0x3da56d9d	0.08077548
185	0x3d2b827a	0.04187248
186	0xbd89f60d	-0.067363836
187	0xbde69130	-0.11258161
188	0x3ab16be2	0.001353618
189	0xbe082a1e	-0.13297316
190	0xbd8c7cab	-0.06859716
191	0x3d92f3b6	0.071753904
192	0xbd83440a	-0.06409462
193	0xbdf645b4	-0.120250136
194	0xbd10154c	-0.03517656
195	0x94dfae5f	-2.2586023e-26
196	0x3d3ad4c1	0.045613054
197	0xbcbe40a3	-0.02322418
198	0x3d7b0ca1	0.06129134
199	0xbd96f5c2	-0.07371093
200	0x3dd23a08	0.10264975
201	0xbdbb1109	-0.091341086
202	0xbe0a623a	-0.13514033
203	0xbd358431	-0.04431552
204	0xbcdc5534	-0.026896097
205	0xacecb4b3	-6.727585e-12
206	0xbdcba8d8	-0.09944314
207	0x002105f4	3.032707e-39
208	0xbe4ce301	-0.2000847
209	0xbb932099	-0.00448997
210	0x3d9239d4	0.07139936
211	0x3cbe9173	0.023262715
212	0x00055a44	4.91559e-40
213	0xbc6be0da	-0.0143968705
214	0x3dd82c78	0.10555357
215	0x3e0096af	0.12557481
216	0xbda70b0b	-0.08156403
217	0xbd1e7e8f	-0.038694914
218	0xbd7e0dd3	-0.062024903
219	0xbd1adee8	-0.037810236
220	0xbde82074	-0.11334315
221	0xb028f991	-6.14727e-10
222	0xbd873554	-0.066019684
223	0x3d6e3926	0.05815997
224	0xbdcde93f	-0.10054254
225	0x3d9b3bf7	0.07579797
226	0xbdbfb883	-0.09361365
227	0x3dede4bb	0.116158925
228	0x06fdd904	9.54869e-35
229	0x8ba3abb7	-6.3043684e-32
230	0x3e0a955d	0.1353354
231	0xbd74a89a	-0.059731103
232	0x252ee4fc	1.5169677e-16
233	0x3e10ecba	0.14152804
234	0x3d52eef2	0.051497407
235	0x3de660c5	0.11248926
236	0xbd432b2f	-0.047648605
237	0xbe01c356	-0.12672171
238	0xbdaebc8d	-0.08532057
239	0x3c8afcb9	0.01696621
240	0x3bf1b448	0.0073762275
241	0x3dc1246e	0.094307765
242	0x3de2281d	0.11042807
243	0xbd09dd84	-0.03365852
244	0xbd8c5959	-0.06852979
245	0xbd069a2d	-0.032861877
246	0xbdaee785	-0.085402526
247	0xbd572aa8	-0.052530915
248	0x3e14d79f	0.14535378
249	0x3d3c9145	0.046036977
250	0xbc3cb68e	-0.011518134
251	0xbcd0908f	-0.025459556
252	0x363a12a4	2.772701e-06
253	0x3ca2af4e	0.019858982
254	0xbd7d0199	-0.0617691
255	0x3dbae2ed	0.09125314

features.10.bias f4 [64]
0	0x3e236e3b	0.15960018
1	0xbd9ae618	-0.07563418
2	0x3d819c33	0.06328621
3	0x3d3eecdd	0.04661261
4	0x3a9486f4	0.0011331723
5	0x3d88eec7	0.06686168
6	0xbd15f988	-0.036614925
7	0x3e07082c	0.13186711
8	0x3d13250f	0.035924014
9	0x3d34d2af	0.044146236
10	0xbced0521	-0.02893311
11	0xbd765bd4	-0.060146168
12	0x3da06221	0.078312166
13	0x3dd8890e	0.10573016
14	0x3da3948a	0.07987316
15	0xbbb50f26	-0.0055254875
16	0x3dc97699	0.09837074
17	0x3db7d345	0.08975843
18	0xbbd6f08a	-0.006559436
19	0xbe02d98b	-0.12778299
20	0x3d0570fc	0.032578453
21	0xbd462f4a	-0.048384942
22	0x3da7b760	0.08189273
23	0x3e03ca90	0.1287024
24	0xbda7a19a	-0.0818512
25	0x3d2c7949	0.042107854
26	0xbbb0dd5f	-0.0053974832
27	0xbc84b4aa	-0.016199429
28	0x0005592d	4.91168e-40
29	0xbc3583de	-0.011078803
30	0x3d8a7eaf	0.06762444
31	0x3b6f24ad	0.0036490366
32	0xb7832440	-1.5633297e-05
33	0x3cdd3925	0.027004788
34	0xbc9cc376	-0.019136172
35	0xbdc9aa5d	-0.09846947
36	0x8e139fbf	-1.8196064e-30
37	0x3d08cde6	0.033399485
38	0xbd5c8220	-0.053835034
39	0x3dbd56a8	0.09245044
40	0x3dca6201	0.09881974
41	0x3dd3ad1c	0.10335752
42	0xbb407a62	-0.002936982
43	0x3d8e98b6	0.06962721
44	0x3bd5599f	0.006510928
45	0xbd458609	-0.04822353
46	0xbd8d2c01	-0.06893159
47	0xbb98fed3	-0.0046690493
48	0x3db532f1	0.08847607
49	0xbcb60438	-0.022218809
50	0x82e47636	-3.3569439e-37
51	0x3d18cb37	0.037303176
52	0xbd45cb32	-0.048289485
53	0x3da15eeb	0.07879432
54	0xbdd00a19	-0.10158176
55	0xbdc58290	-0.096440434
56	0x3e0b0a9d	0.13578267
57	0xbca370f6	-0.019951325
58	0x3ce3be25	0.027800629
59	0xbd80dd19	-0.06292171
60	0xbdc35ec3	-0.09539559
61	0x3ca41d6c	0.02003356
62	0x3d1e83aa	0.038699783
63	0x3c0d6ab6	0.008631399

classifier.0.weight f4 [3, 64]
0	0xbd9c74b6	-0.07639448
1	0x3d0d5f6e	0.034514837
2	0x3e2779eb	0.16355102
3	0x3d77384d	0.060356427
4	0xbb3fc454	-0.0029261308
5	0xbd5e4ef4	-0.054274514
6	0x3e187b1c	0.14890712
7	0xbc96e064	-0.018417545
8	0xbdce7267	-0.10080414
9	0xbdcc69c5	-0.099811114
10	0x3d92fdb9	0.071773
11	0x3d86baa9	0.06578571
12	0xbe164c90	-0.14677644
13	0x3df68b3e	0.12038277
14	0x3dbfb553	0.09360757
15	0x3dce08f8	0.100603044
16	0xbdad09c2	-0.08449127
17	0x3d0d8206	0.03454783
18	0xbd01dd37	-0.031705108
19	0xbe1a9c7f	-0.15098761
20	0xbdcfa46d	-0.101387836
21	0xbe0d6606	-0.1380845
22	0x3e19855b	0.14992277
23	0xbe672133	-0.22571258
24	0x3dff2d3b	0.12459799
25	0x3d8d91c5	0.06912569
26	0x3e3bde3f	0.18346499
27	0x3e08906a	0.1333634
28	0xa18a6132	-9.376971e-19
29	0xbdf4ae72	-0.11947335
30	0x3dccc8a7	0.09999209
31	0xbb51ea23	-0.0032030426
32	0xb88caca1	-6.707875e-05
33	0xbd468a63	-0.04847182
34	0xbe1aa282	-0.15101054
35	0x3d6a7b6a	0.057246603
36	0x14f86f9d	2.5085624e-26
37	0xbd78d899	-0.06075344
38	0xbda4d66f	-0.080487125
39	0xbdcd7ea4	-0.100339204
40	0xbe276461	-0.16346885
41	0xbeac0cc9	-0.33603504
42	0xbe0c1348	-0.1367923
43	0x3d1949c3	0.03742386
44	0x3c0c5950	0.008566216
45	0x3e1e2c39	0.15446557
46	0x3e057444	0.13032633
47	0x3e20a21e	0.15686843
48	0xbe3286b1	-0.17434193
49	0x3cf0037a	0.029298533
50	0x311a0b39	2.2416329e-09
51	0x3db14257	0.086552314
52	0x3dc54a3d	0.096333005
53	0xbd7b21a7	-0.06131139
54	0x3e13b0d8	0.1442293
55	0xbddad60c	-0.106853575
56	0xbd922631	-0.07136191
57	0x3cb75724	0.02238042
58	0xbde2dfe3	-0.11077859
59	0x3d9380b4	0.072022825
60	0x3c98055d	0.018557245
61	0x3d194150	0.037415802
62	0x3df326e7	0.118726544
63	0x3ba3b737	0.004996206
64	0xbe1a3867	-0.15060578
65	0x3d056286	0.032564662
66	0xbd8ad80e	-0.067794904
67	0xbda180d9	-0.07885904
68	0x3ad5ff66	0.0016326725
69	0x3e00b5ff	0.12569426
70	0x3ce0ffe6	0.027465772
71	0xbd47e712	-0.04880435
72	0xbd2d7283	-0.042345535
73	0xb9920f49	-0.00027858678
74	0x3ccdac60	0.025106609
75	0xbdb285ce	-0.087169275
76	0x3dd89e9e	0.10577129
77	0xbe25d82e	-0.16195747
78	0xbda2f5e1	-0.07957054
79	0xbcd9af04	-0.026572712
80	0x3dc2d231	0.09512747
81	0xbde47e95	-0.11156956
82	0x3daf18dc	0.085496634
83	0x3d317e6f	0.043333467
84	0x3d9ac323	0.075567506
85	0xbdc1d117	-0.09463709
86	0xbd003b6f	-0.03130668
87	0x3d444910	0.04792124
88	0xbcba5285	-0.022744427
89	0xbd86d296	-0.06583135
90	0xbd344381	-0.04400969
91	0x3dd9329e	0.106053576
92	0x1cb406df	1.1913177e-21
93	0x3e0868d4	0.13321239
94	0xbcead108	-0.028664127
95	0xbdae6a28	-0.085163414
96	0x38f515f5	0.000116866
97	0xbdbf32c0	-0.09335852
98	0xbd966157	-0.07342785
99	0x3cdf9c77	0.027296288
100	0x94f1eb94	-2.44277e-26
101	0xbdad9e30	-0.084774375
102	0x3d08c390	0.033389628
103	0x3c865a12	0.01640037
104	0xbdd9ee95	-0.10641209
105	0xbc27bc5a	-0.010237778
106	0x3d9ac977	0.075579576
107	0x3d08dc66	0.033413313
108	0xbda774ab	-0.081765495
109	0x3cc3022f	0.023804752
110	0x3d8ad9b0	0.06779802
111	0xbbe674e1	-0.007032976
112	0xbcc17960	-0.023617446
113	0xbd0bb6ad	-0.03410976
114	0xb076c647	-8.977605e-10
115	0x3de91e17	0.11382692
116	0x3da1916b	0.078890644
117	0xbda08f0f	-0.07839786
118	0x3dead138	0.114656866
119	0x3c7220a0	0.014778286
120	0xbdb7ea6a	-0.08980258
121	0xbdf8d016	-0.12149064
122	0xbde76b7d	-0.11299799
123	0x3d9207cb	0.07130393
124	0x3d841b80	0.06450558
125	0xbda56056	-0.08075015
126	0x3e0009e5	0.12503774
127	0x3db74a15	0.08949677
128	0x3e1eb40b	0.15498368
129	0xbde70055	-0.1127936
130	0xbe255d34	-0.16148835
131	0xbe0e2f85	-0.13885315
132	0xbb919010	-0.0044422224
133	0x3ce3953a	0.027781118
134	0x3c0c5d17	0.008567116
135	0x3da16f79	0.0788259
136	0x3e0fda2f	0.14048074
137	0x3e3b1ca7	0.18272649
138	0xbd6b040c	-0.057376906
139	0xbd90774f	-0.07054006
140	0x3d3e2a5f	0.046427127
141	0xbd3939c7	-0.045221116
142	0xbd92dcb1	-0.07171
143	0xbddbaef5	-0.1072673
144	0xbe031394	-0.12800437
145	0x3dba6aa5	0.09102372
146	0x3e301aa6	0.17197666
147	0xbcb88290	-0.022523195
148	0xbdffba46	-0.12486701
149	0xbd4354df	-0.04768836
150	0xbdd74ac4	-0.10512307
151	0x3e0de7ee	0.13858005
152	0xbda36c7f	-0.07979678
153	0x3df974f8	0.12180513
154	0xbca52237	-0.020157916
155	0xbd14f437	-0.036365714
156	0xa20e15a5	-1.9256047e-18
157	0x3b162ab2	0.0022913632
158	0x3d782c85	0.060589332
159	0xbd7f11ab	-0.06227271
160	0xb8c5615b	-9.411826e-05
161	0xbd1d43aa	-0.038394608
162	0x3d9a2953	0.07527413
163	0xbdbb66fa	-0.091505006
164	0x0fa05b29	1.5812332e-29
165	0x3dcbcde1	0.09951378
166	0x3b7a75bb	0.0038217145
167	0x3e3d3047	0.18475448
168	0x3dc7dec6	0.097592875
169	0x3e83c7d3	0.2573839
170	0x3d62a1f1	0.05533022
171	0x3c8becbc	0.017080657
172	0xbd758f45	-0.059951086
173	0x3dcb5618	0.099285305
174	0xbe163457	-0.14668404
175	0xbd5cca77	-0.053904023
176	0x3e090449	0.13380541
177	0xbdd7dd24	-0.10540226
178	0xae02898a	-2.9680737e-11
179	0xbdb30289	-0.08740718
180	0xbce3b2fd	-0.02779531
181	0x3dce2a5b	0.100666724
182	0xbd46c465	-0.04852714
183	0x3dc9cbcf	0.098533265
184	0x3e0310ed	0.12799425
185	0xbe139bd6	-0.14414915
186	0x3d537dd1	0.05163366
187	0xbd9df80f	-0.07713329
188	0xbe07a75b	-0.13247435
189	0x3d037f69	0.03210393
190	0xbe0a914d	-0.1353199
191	0xbd8025fe	-0.062572464

classifier.0.bias f4 [3]
0	0xbdc47e9e	-0.09594463
1	0x3ad391af	0.001614144
2	0x3d9169cc	0.07100257
