benchmark_experiment/experience_1_2_50_epochs/model_experience_1_2.pth (torch, 854314 bytes, 36 tensors)

features.0.weight f4 [32, 3, 3, 3]
00000000: 0336 ca3d 71eb 11bc 38c1 293e 6728 33be
00000010: 9a12 1dbe bdc8 dd3d eec6 0c3d 6f9d d73d
00000020: b124 5c3d be4a 413e f093 90bd df72 77bc
00000030: 9965 08bd afa4 193e 7f4d 34be f0d4 2ebe
00000040: d523 84bd 5768 b3bd 7621 1cbe c9a2 cebd
00000050: ee77 d93c 0824 3fbe ec0e 22be d9a0 96bd
00000060: 712f 01be da76 3cbe b20d a73d 8a5d 7e3d
00000070: 54c9 b93d 89dc 3ebe 70b8 3bbe 4186 b73d
00000080: 02ae 033e d894 8ebd a174 b63d 237e 64bd
00000090: c9c3 64bd 935a f6bd acf9 2e3e eba1 3abe
000000a0: 21fd da3c 9605 843b 3830 a33d 4568 d3bc
000000b0: abf2 ef3c 3d0a 44bd 6717 a43d 5b6e 1fbd
000000c0: 5cf3 8e3d 7dbe 2ebe 93a5 91bc f724 c33d
000000d0: aa15 093c c228 033d d8f7 883d 9639 1f3e
000000e0: 76f0 a1bd 68b6 1f3e 033e 5ebb b676 8fbd
000000f0: 8dd5 e9bd 31cd 423e 7b54 673d 3d90 82bd
00000100: 0401 cd3c 9f44 0cbe e2a8 6dbd f69c 173e
00000110: e746 14be 349a 563d 9138 b73d fd1b b4bd
00000120: c0dc eb3d c955 40be 0709 e43d 80ed 113e
00000130: c15c e93d 499d 1f3e 26a0 0bbe 17ab 1abd
00000140: e9e6 403e 935b c03d cd51 2b3e 9248 a93d
00000150: 1168 05bd c6f8 d13d b8dc 8bbd e2a9 243e
00000160: 8d3e 8c3c 6f8a f53d 6ba2 37bc 5173 403e
00000170: 10b8 24be f32f 34be f98e 053e 6936 31bd
00000180: d2e4 013c 0fdc f33d 72fb b8bd 8799 ee3d
00000190: 45bd a63c 082f ed3d 5409 343d 97f5 b7bc
000001a0: 0e89 2a3e 99d2 33be bb4b 0abd b98e 4abd
000001b0: 9c8e 073c 7be3 88bd e0df 1c3e 06f2 61bd
000001c0: 58d9 27be 16c3 c03d fb55 12be 5682 88bd
000001d0: 1586 b93d ea84 7b3c ef57 48bc 97fa 343e
000001e0: 97c3 abbd dcc0 1fbd a1c0 a7bd 1aff babd
000001f0: 83b3 043e defa 983d 8fde 5dbd 4db0 0f3e
00000200: efa0 433e c34f 2f3e 3993 263e c65d 3c3d
00000210: 91b3 02be a8c8 183e 57c8 e2bc 431c 383e
00000220: a9bd 57bd 2350 c5bd a181 0a3e de6a 753d
00000230: 133d 023e b57b 0ebd c8a3 82bd e760 9e3d
00000240: c568 133e ab10 e03d 699e 333e 0f08 2b3e
00000250: 31f6 08be 3c1d 3ebe 928d 633d a125 2f3e
00000260: 9ed3 913d c250 8abc d6eb 0bbd 5c76 ec3d
00000270: 3f3f 84bb 0993 ae3d 9869 50bd 0172 87bc
00000280: dceb 49bd 31a3 2fbe 8eba dd3d e456 a7bd
00000290: 472d 3cbe ba18 73bc f592 513c aab6 10be
000002a0: 0454 d1bd fcfa 1ebe 1627 2abe 97fb e83c
000002b0: 8249 43be 5314 c63c ad41 eebd c11c d8bb
000002c0: 97e7 723b e65a f8bd f8c6 0abe 4a31 11be
000002d0: 8a26 13be ca57 053d 37b0 153e a0e8 013e
000002e0: 170c 6fbd 1a5c 2abe c954 2fbd 8e7f 443e
000002f0: a87d 073c 6840 7b3b fc26 543d 26e2 78bd
00000300: 8f7d cabd 4e7e 2ebe 2162 2b3e f6f4 0f3c
00000310: 0ad4 bc3d a1ee b13d ce3e 42be 2f6c 3cbe
00000320: 2f93 a13c 7a2b 053e 08e7 1e3e 5468 4f3d
00000330: 0de6 293d 2a8e 093e ee10 b3bd 02d4 65bc
00000340: 5907 39be 7153 893d d09f 79ba 739d aabb
00000350: 751b 8fbd 36ac 073e d4d3 003e 4fed 30be
00000360: 4c75 463e 8069 16be c40c 973d a670 3f3e
00000370: 4047 f2bd 3e26 e1bc 0449 1c3e 2d61 20be
00000380: 2519 30be 736b e5bc 10d2 bcbd c306 25be
00000390: e8ad 5bbd 9f65 b4ba 8450 8b3d 912d 3b3d
000003a0: 4476 213c 8c4f c4bd 5ede 16be 61ae 933d
000003b0: 5420 b2bd 46ce d93d e6f4 bc3d bd1c cdbd
000003c0: cf44 a53c 0869 583c 92ea 27be 2d51 213e
000003d0: 64f0 303e bd98 d73d 0703 42bd 9ded a23d
000003e0: c7e9 2b3e 7a0d 143e 58c2 e2bd 6092 7fbd
000003f0: 50a6 063e 3cc1 3f3e 7597 74bd 45ce 0f3e
0.09873583 -0.008906231 0.16577613 -0.17495881 -0.15339127 0.108293034 0.0343694 0.10528075
0.05374593 0.18876168 -0.07059467 -0.015103071 -0.033300016 0.15004228 -0.17607687 -0.17073417
-0.06452147 -0.087601356 -0.1524714 -0.100896426 0.026546445 -0.18666089 -0.15826005 -0.07354898
-0.12615754 -0.18404713 0.08156909 0.062100925 0.090716034 -0.18638815 -0.18332076 0.08961154
0.12859347 -0.069619834 0.08908964 -0.055784356 -0.055850778 -0.120289944 0.1708743 -0.1822583
0.02673203 0.004028986 0.07968181 -0.025806556 0.029290518 -0.047861326 0.08012276 -0.038923603
0.06980011 -0.17064853 -0.017779147 0.09528535 0.0083669815 0.03202129 0.066878974 0.15549311
-0.079071924 0.15596926 -0.0033911474 -0.07005064 -0.11417685 0.19023587 0.05647705 -0.063751675
0.025024898 -0.13698052 -0.058022387 0.1480597 -0.14480172 0.052393153 0.08946336 -0.08794401
0.11516714 -0.18782724 0.11134534 0.14250755 0.113946445 0.15587343 -0.1363531 -0.03776082
0.18838085 0.093924664 0.16730423 0.08265795 -0.03256995 0.10252528 -0.06829208 0.1608043
0.01711967 0.11989295 -0.011208157 0.1879399 -0.1608584 -0.17596416 0.13042821 -0.04326478
0.00792809 0.11907207 -0.090323344 0.11650377 0.020353923 0.11581236 0.04395421 -0.022455974
0.16653845 -0.17560805 -0.03376363 -0.049452517 0.008273747 -0.066840135 0.15319777 -0.055162452
-0.16391504 0.0941221 -0.14290611 -0.066654846 0.09058777 0.015351513 -0.012227996 0.17673717
-0.08386915 -0.039002284 -0.08191038 -0.09130688 0.12959103 0.07469724 -0.054167327 0.14032097
0.1910436 0.1712027 0.16267098 0.045987867 -0.12763812 0.14920294 -0.02768342 0.17979531
-0.05267111 -0.096344255 0.13526012 0.05991637 0.1271861 -0.034785945 -0.06378895 0.077333264
0.14395435 0.10940679 0.17540897 0.16702293 -0.13375165 -0.1856584 0.055554934 0.17104198
0.07120441 -0.016884211 -0.034160458 0.11546013 -0.00403586 0.085241385 -0.050881952 -0.016533853
-0.0492972 -0.17152096 0.10826598 -0.0817087 -0.18376647 -0.014837438 0.012791385 -0.14132181
-0.10221103 -0.1552543 -0.16616473 0.02844028 -0.1907101 0.024179613 -0.116336204 -0.0065952246
0.0037064308 -0.121267125 -0.13552463 -0.14178959 -0.1437017 0.032554425 0.14618002 0.12686396
-0.05836114 -0.16636696 -0.042805467 0.19189283 0.008269705 0.003833795 0.05179499 -0.060762547
-0.0988723 -0.17040369 0.16736652 0.008786431 0.09220131 0.08688093 -0.1896927 -0.18400644
0.019723503 0.13004866 0.15517819 0.050636604 0.04147916 0.13433138 -0.087434635 -0.014027597
-0.18069209 0.06705368 -0.000952241 -0.0052067577 -0.06987659 0.13249287 0.12580806 -0.17278026
0.19380683 -0.14688683 0.07375482 0.18695316 -0.11829996 -0.027484056 0.15262228 -0.1566207
-0.17197092 -0.028005337 -0.09219754 -0.1611586 -0.053632647 -0.0013763196 0.068024665 0.045697752
0.009854857 -0.09585485 -0.14733264 0.072109945 -0.08697572 0.10635047 0.09226398 -0.10015247
0.020174412 0.013208635 -0.16398075 0.15753622 0.17279202 0.105271794 -0.04736617 0.079554774
0.16788398 0.14458266 -0.110722244 -0.062395453 0.1314938 0.18726057 -0.059714753 0.1404353

features.0.bias f4 [32]
00000000: c874 0cbd 19bf ce3d 59c8 413e a5f7 babb
00000010: de3d 92bd a814 1bbe b412 2a3c 3188 3f3e
00000020: 33b4 39be b568 f23d 8178 dd3c 024e 0f3d
00000030: d140 58bd 0975 9b3d c548 fb3d 527e 3a3e
00000040: 66d8 2abd 3eb5 333c 2ede 00be 91a4 78bd
00000050: a23e 0a3e 3bef 8e3d 00f9 18be ef88 933d
00000060: a336 de39 92e4 cf3d 8286 42be e61a a83d
00000070: c3d1 143e c3bc 1cbe b976 943d 1ab3 6ebd
-0.03429106 0.10095043 0.18924083 -0.005705791 -0.071407065 -0.15144598 0.010380436 0.18704297
-0.18135147 0.118363775 0.027035 0.034986503 -0.05279619 0.07590682 0.12269739 0.1821225
-0.04171028 0.0109685045 -0.12584755 -0.060703818 0.13500455 0.06979223 -0.14938736 0.072038524
0.00042383847 0.10151018 -0.18996623 0.082082555 0.14533143 -0.15306382 0.07249207 -0.058276273

features.2.weight f4 [32, 32, 3, 3]
00000000: 0f22 ffbb 5251 333d a6cf 35bd f7be 5f3c
00000010: 1231 273d 5c57 afbc d63e 693d a4e0 653c
00000020: 796d 003c b776 8e3c e757 3dbc 1ee8 29bd
00000030: e1cb d4bc 6887 493c b7f6 6a3d 4bdf 0d3c
00000040: 6fb3 093d 1804 d8bc 6e04 90ba c1ba 8bbc
00000050: 1a60 08bd e258 6dbd 0060 51bd d336 543c
00000060: 700a ec3c cafc 05bd 2943 5bbd abe3 c8bc
00000070: 56ce 0ebc 2d41 1fbd 294f 623d e1c6 493d
00000080: 90af 4bbd 7529 57bd 3006 1f3d 04a2 a5bc
00000090: 3669 523d a820 fabb 8b89 a83a dafa c8bc
000000a0: 583a 273d 7256 073d 2e98 373d c24d 283d
000000b0: 910e d83c 511d 013b a434 013d 4183 48bd
000000c0: 0447 08bd 36f7 09bd d7d8 72bc 409f 60bb
000000d0: 59df ad3c 9bb5 533d 485d 4c3d f30d 7abb
000000e0: 7297 5abd f996 dcbc d6b7 0c3d d376 193b
000000f0: bfca 4dbc f103 09bd ddd3 5e3d eaba 53bd
00000100: e3d1 28bd 99a4 59bd 9e87 69bc aebf ee3c
00000110: b277 b0bc 7fa1 13bd 8ade 31bd bb2c 153d
00000120: 1dc9 c73c 559d 553d ea8d 203d 4bb2 5ebd
00000130: 1ce7 353d 4a7d 433c b2be 5ebc 4b1d a73b
00000140: 65c2 893c bada 5e3b ee33 50bd 77b6 583c
00000150: c930 5d3d 4d7f e6bc 73de 6abd 0813 09bd
00000160: 1645 54bd f361 493d f2b2 24bd 35dd 46bc
00000170: 41e2 10bc a78b 633d 6be9 e2bc c612 663d
00000180: d1a8 643d b373 123d b1de e0bc abd4 193d
00000190: cae8 c3bb ac94 683d 009a fe3a 1818 5e3d
000001a0: cdb5 cebc 774a 813c 5fc9 1dbb a6f2 323c
000001b0: 20c9 1ebd 58e9 78bc b1ad 29bd 7484 db3c
000001c0: f5b9 643c ce66 223d 132d 65bd 2d25 56bd
000001d0: f7f4 423d c08c 5f3d 266d c73b cd71 d7bc
000001e0: fe69 99ba 897c 32bb f05b a13c a2f6 6cbd
000001f0: d64c 30bd 3533 0a3c 13d4 4a3d 1552 61bd
00000200: ec19 d9bc e6ef 103d c0ea f03b a1a5 593d
00000210: 5e3c f53c 8525 e23c 8566 383c f359 493d
00000220: 79f9 633d d161 5c3d 3662 7e3c 437c 473d
00000230: 5cb1 17bc 8651 6a3d e0ce 0ebd 3168 e13c
00000240: bf31 593c ffdd 0fbd bfda 28bd 0404 47bd
00000250: 8945 2d3d b5a8 cebc f303 e2bb 8e7b 413c
00000260: 286f 0ebd 6ff4 673d 7d29 ddbb 597b e13c
00000270: 9241 54bc a71e 623d d788 e23c 6c23 103d
00000280: 7887 58bd 5376 00bd 3a8d ee3c 8866 453d
00000290: c98d efbc abc7 f93c 1c65 cf3c 57f8 72bc
000002a0: 0e1b 1fbd fc07 50bd 04c0 9d3a 1542 74bd
000002b0: 24ff eabc c69c 67bc 416d b0bc 6412 1dbd
000002c0: 7501 623d 3df5 f43c cce7 9abc 388d ecbc
000002d0: a483 36bd 86f8 2d3d a2f1 3e3d 8df0 eebc
000002e0: 1569 5a3d 7961 21bd e4c8 56bd d003 afbb
000002f0: 0cfb dd3c bdca 163d b158 373d 5223 4fbd
00000300: 0613 34bb c8b5 09bd 1a7c 44b9 c248 18bd
00000310: a56c 51bd 612e f3bc 7ddf 1a3d 9a24 4ebd
00000320: d7eb 97bb b27d b83c 8f23 23bd 995f 103c
00000330: fbcc f73c 079a 303c 65ed b2bc 1906 113b
00000340: 80b8 5f3b a1af 9d3b 3597 b4bc 6ca3 6fbc
00000350: d62c b73b e8b2 07bd 37f0 66bc d659 e73b
00000360: b6aa 30bd b055 12bb 4ef2 8f3c 1d13 26bd
00000370: 7f28 8cbc 3fb9 6c3c c6b2 25bc b83f 013c
00000380: 8ce1 1a3b 7ee1 0cbd 8533 413d d8cd 0dbd
00000390: c531 fcbc 3df7 583c 45dd 193b 3a8f 583b
000003a0: e56e 6dbd 0f44 3c3d b945 733c 008b 2dbd
000003b0: 1525 d33c 9d78 03bd 0315 25bd ef34 b13c
000003c0: 1420 903c 3643 143d 8cd3 fe3c 9fb2 0b3d
000003d0: a67d 38bd 7161 42bd 8f89 29bd 4ab8 113d
000003e0: 4bd8 373d b498 613d 7b37 2bbd a053 323d
000003f0: ae2f 4dbd 224b 50bb c2d6 45bd 9b01 0d3c
-0.0077860425 0.043778725 -0.044387482 0.013656369 0.04081828 -0.02140396 0.05694469 0.014030609
0.0078386 0.017390592 -0.011556602 -0.04148113 -0.025976123 0.01230035 0.05736419 0.008659194
0.033618387 -0.02636914 -0.0010987648 -0.017056825 -0.033294775 -0.057946093 -0.051116943 0.012952524
0.02881357 -0.03271178 -0.053530846 -0.024522623 -0.0087161865 -0.038880516 0.055251274 0.04926193
-0.049727976 -0.05252977 0.03882426 -0.020218857 0.05136987 -0.0076332875 0.0012858374 -0.024533678
0.040827125 0.033041425 0.044822864 0.04108978 0.026374133 0.0019701312 0.031544343 -0.0489533
-0.03327085 -0.033683024 -0.014822206 -0.0034274608 0.021224665 0.051686864 0.049893647 -0.0038155287
-0.053367086 -0.026927458 0.034355007 0.0023416772 -0.0125605455 -0.033451024 0.054401267 -0.051691927
-0.04121579 -0.05313549 -0.014253525 0.029144134 -0.02154145 -0.036042687 -0.04342512 0.03641961
0.02438789 0.052151997 0.03919784 -0.054369252 0.044409856 0.011931727 -0.01359527 0.0050999275
0.016816327 0.0034004883 -0.050830774 0.013227097 0.054001603 -0.028136874 -0.05734105 -0.033465415
-0.051823698 0.049165677 -0.040209718 -0.012137701 -0.008843006 0.055553105 -0.027699193 0.056170247
0.05582506 0.03575487 -0.027449938 0.03755633 -0.0059786784 0.05678241 0.0019424558 0.054222196
-0.025233174 0.015782578 -0.0024076325 0.01092211 -0.038766026 -0.015192352 -0.04142541 0.026796557
0.013960351 0.039648823 -0.05595119 -0.052281547 0.047596898 0.05457759 0.0060860096 -0.026299382
-0.0011704562 -0.0027234873 0.01969716 -0.057852395 -0.043042026 0.00843506 0.049518656 -0.05500992
-0.026501618 0.035385035 0.007352203 0.05313647 0.029936012 0.027605781 0.011254911 0.049158048
0.055657838 0.053804222 0.015526345 0.04870249 -0.009258594 0.057206653 -0.03486526 0.027515503
0.013256489 -0.03512382 -0.041224238 -0.048587814 0.042302642 -0.02522693 -0.0068974434 0.011809243
-0.034773976 0.056629594 -0.0067493306 0.027524637 -0.012955086 0.055205014 0.027653141 0.03519003
-0.052863568 -0.031362843 0.029120076 0.048193485 -0.029242413 0.030490717 0.025316767 -0.014829717
-0.03884416 -0.050788864 0.0012035375 -0.059633333 -0.028686114 -0.014136499 -0.021536471 -0.038347617
0.05517717 0.029902095 -0.018909357 -0.028875932 -0.044559136 0.04247334 0.046617158 -0.029167438
0.05332287 -0.039399598 -0.052437678 -0.0053410307 0.027097248 0.03681444 0.044762317 -0.050570793
-0.002747716 -0.033620626 -0.00018738248 -0.037178762 -0.051129002 -0.029685201 0.03781079 -0.050327875
-0.0046362686 0.022520874 -0.039828833 0.008811855 0.03024911 0.0107789105 -0.021841714 0.0022128879
0.003413707 0.0048121964 -0.022044757 -0.014626365 0.0055900617 -0.033129603 -0.014095358 0.00706027
-0.043131553 -0.0022328906 0.017571595 -0.04054557 -0.017109154 0.014448463 -0.010113424 0.007888727
0.0023632972 -0.034394734 0.047168273 -0.034620136 -0.03078545 0.01324254 0.0023477834 0.0033044354
-0.057967085 0.045963343 0.014848166 -0.04236889 0.025774518 -0.032097448 -0.04030324 0.021631686
0.017593421 0.03619691 0.031106733 0.034105893 -0.045041703 -0.04745621 -0.04139095 0.035576142
0.044884007 0.05507727 -0.041800957 0.043536782 -0.0500943 -0.0031783064 -0.048300512 0.00860634

features.2.bias f4 [32]
00000000: 858d dc3c d28d 2ebd 6550 f53c d1aa bebc
00000010: cc44 503c 0b7e 593c c2fa 633d 3d54 18bb
00000020: 4cbe 17bd b843 34bd fcda bb3b e742 5abd
00000030: 9c45 24bd 1cfa dc3c c988 38bd 0c91 babc
00000040: ee29 96bb 4e83 8bbc bc1f 6e3c 75c6 30bd
00000050: 4c10 17bc c980 f43c 3735 f5bc 6b27 debc
00000060: 9552 213c a6bd 63bc d205 c33b e225 8ebc
00000070: b7ea bfbc e31a 013d 5b40 5cbd da31 5abd
0.02692295 -0.04261572 0.029945562 -0.023274811 0.012711715 0.01327468 0.055659063 -0.002324357
-0.037046716 -0.044009894 0.005732892 -0.05328646 -0.040105447 0.02697473 -0.045052323 -0.022774242
-0.004582635 -0.017030384 0.014533933 -0.043158013 -0.009220194 0.029846566 -0.029932601 -0.027118405
0.009846349 -0.013900196 0.0059516216 -0.017352048 -0.02342735 0.03151978 -0.05377231 -0.0532702

features.5.weight f4 [64, 32, 3, 3]
00000000: 180b e6bc 5712 59bd 6a61 63bc 191a 1c3d
00000010: d672 103d 7df1 69bd 62dc 653d a2e4 9c3c
00000020: 2fea 043c e762 1e3d aeee 92bc e58a 643d
00000030: 49b3 90bc 058b 49bd 20cb f6bc 297a 163d
00000040: 3cb3 63bd e932 59bd d890 23bd 35de 92bc
00000050: 55a1 89bc c801 1f3d ffe2 353d a2ad 6a3d
00000060: f44a a23c f088 f43c ca01 333d aab8 06bd
00000070: f7eb 78bc 3a77 bc3c 104a f1bb f502 243d
00000080: 73ae 11bd 1a21 c33c d7d1 5f3d 5fd9 bb3c
00000090: 9b55 56bd efcc 04bd 3589 a53c 5a9a 543d
000000a0: ba28 683d 10df 6b39 232d dfbc 475a 9fbc
000000b0: a3a8 d63c c010 273d b2a9 283d 9cce 4cbc
000000c0: bc47 513d c1bb 2fbc c901 2ebd 6fac 563c
000000d0: ebcf 6bbc 1ebb 003d 7340 56bd da94 0cbd
000000e0: 29f0 023d bb64 e6bc 0b28 d1bc 3bb7 42bd
000000f0: 9aac 15bd a822 b1bc 81e1 fdbc d971 03bd
00000100: 429b 4cbd 5892 f43c 7a06 b73c faea 223d
00000110: d4af b43c 89b1 483c 7a4b 253a 29e2 113d
00000120: 72f5 e43c 3bb7 cd3c 03b0 38bb 276c 3ebd
00000130: 870d 0b3c 9b6e 17bd 4d3b 043c 5325 753c
00000140: 1f41 05bd 0b57 a7bc bece 6a3d efef 12bd
00000150: 4530 f7bc 4426 aa3c e90d c43c 14b5 b63c
00000160: 30d5 3d3d 09e7 b5bb b26d 893a 8990 6a3d
00000170: 263d 843c 15fe 29bb f413 b73b a86a 643c
00000180: 8547 26bd b3c7 36bd 5062 51bd b198 10bc
00000190: 0770 16bd 1565 4bbd 1df3 0c3d 8d0f b3bc
000001a0: 296b 63ba bd3e d83b 54db 22bd 23a0 02bd
000001b0: 21e0 313c 39b4 983c 6441 3d3c f9e7 693b
000001c0: 1875 00bd c1e7 213d f947 343d 16ea 1bbd
000001d0: d95e c8bc c516 393d 4754 e4bc a920 74bc
000001e0: 3530 30bc 8a9f 293b bcc1 9fbc cddf 393b
000001f0: 76f6 f3bc 06bb be3c 8304 6e3d a67c 5dbd
00000200: e38e 4cbd af67 d33c 1fc5 de3a 3475 4abd
00000210: 9fc6 573c ba38 383d 8496 40bd cf9a 1c3d
00000220: 54b0 02bb a30c 45bd bbbb 603d 9c0f e4ba
00000230: e55d 3a3d d344 5bbc 12b0 28bd e187 cebc
00000240: 80c1 36bd 45bf 073d ccc0 66bb cfcb 173d
00000250: d8de 5bbb 8c4c 273d 4ab7 473d 89ba 4cbd
00000260: 7cc1 ff3b e110 2f3d 0234 f33b 43b6 713d
00000270: f659 4dbd ac44 53bc fc8b d03c 4f7c d1bc
00000280: cf30 d93a 6325 50bc e02b 2c3d f344 5fbd
00000290: 4158 ab3c 6ecb 13bd a348 5bbd 33ed d53c
000002a0: 904c 1cbd 248d b3bc fed1 05bd ba9d 49bd
000002b0: 25a7 f9bc e5eb b03c 1c82 b7bc 85d6 d2bc
000002c0: 1803 1ebd 96e0 04bd cf67 193b 3be2 32bc
000002d0: 9058 10bc 4e40 233c 8069 413d bdba 33bd
000002e0: 322e 0ebd 546e 4dbd cad1 37bb c0f6 66bc
000002f0: 3827 4c3d e6ad 2e3d 2f3b 303d 2d91 053d
00000300: c9d6 c0bc 2e7c 2ebd e1a0 d8bc 1616 5c3d
00000310: 3878 f8bc 8076 183d 629e 6a3d 4515 193d
00000320: a529 5d3c 1d52 583a a5a4 533d 171e 20bd
00000330: 9f6b b3bc 9c08 883c 228e 5d3d 703e 4a3d
00000340: 3444 683d 4449 7dbc 2527 923c 9366 73bb
00000350: 4916 70bc c58d 383c 130d 44bd a98a 07bd
00000360: 626e 723c 79cf 6a3d 898b 30bd 7986 62bd
00000370: 8715 d7bc 8938 0ebd 48fc 883b b1c4 1bbc
00000380: a210 3f3d 7750 1c3d bbc8 98bc 6bef 31bd
00000390: f3ef 083d e9dd 7e3b 3fa3 03bd 5b99 c4bc
000003a0: 284e f6bc e003 3d3d 18f7 94bb 70e6 1fbd
000003b0: 894a 4d3d b11b 23bd baa5 abbc a7d4 383d
000003c0: f6e2 5f3d 646a c53c 455e d6bc 2474 99bc
000003d0: cc70 fdbb 47df 60bd 1031 7f3c 1c43 ef3b
000003e0: 7c14 223c 6f68 113d e347 173c 851a 0f3d
000003f0: e6ad 3abd b0ef 8bbc 6a3c 1e3d 2453 633d
-0.028081462 -0.052996006 -0.013878206 0.038110826 0.035265766 -0.057115067 0.056118377 0.01915199
0.008112474 0.03866854 -0.017936077 0.055796523 -0.017663615 -0.049204845 -0.030126154 0.036737595
-0.055590853 -0.053027067 -0.039933056 -0.017928222 -0.016800562 0.038820058 0.044405933 0.057294495
0.019811131 0.029850453 0.043702878 -0.032890953 -0.015192977 0.02300607 -0.0073635653 0.040041883
-0.03556676 0.023819495 0.05464348 0.022930799 -0.052327733 -0.032422002 0.020207027 0.051905014
0.056679465 0.00022494444 -0.027243203 -0.019452227 0.02620346 0.04078746 0.04117746 -0.012500431
0.0510938 -0.010725916 -0.04248217 0.013102635 -0.014392833 0.03142845 -0.052307557 -0.034321643
0.031967316 -0.028124204 -0.02553179 -0.047538023 -0.03654156 -0.02162297 -0.030991318 -0.032090995
-0.049952753 0.029854938 0.022341955 0.039774872 0.022056498 0.012249359 0.00063054974 0.035616074
0.027949069 0.025111785 -0.0028181083 -0.04648986 0.008487112 -0.036970716 0.008070779 0.014962512
-0.032532807 -0.020427248 0.05732607 -0.03587335 -0.030174384 0.0207702 0.023932414 0.022303142
0.04634589 -0.005551223 0.0010484962 0.057266746 0.01614244 -0.0025938798 0.0055870954 0.013941444
-0.04059555 -0.04462404 -0.05111915 -0.008825467 -0.03672793 -0.049656946 0.03441154 -0.021858001
-0.0008675331 0.006599276 -0.03975995 -0.031891 0.010856659 0.018640624 0.011551235 0.0035691245
-0.03136167 0.03952766 0.04401395 -0.03806504 -0.02445929 0.04518773 -0.027872218 -0.014900365
-0.010753681 0.0025882446 -0.01950156 0.0028362155 -0.029780608 0.02328254 0.05810977 -0.054073952
-0.049940955 0.025806276 0.0016996003 -0.04942818 0.013169914 0.044975974 -0.047018543 0.038233574
-0.0019941526 -0.048107754 0.054866534 -0.0017399671 0.0454997 -0.013383108 -0.04118354 -0.025211276
-0.04461813 0.033141393 -0.003521013 0.0370596 -0.0033549573 0.040844485 0.048758782 -0.04998258
0.0078050476 0.042740706 0.0074219713 0.05901171 -0.05013462 -0.012894791 0.025457375 -0.02557197
0.0016570332 -0.012704226 0.04203403 -0.054509114 0.020916106 -0.036082678 -0.05353607 0.026114082
-0.038158953 -0.021917887 -0.032670967 -0.049222685 -0.030475209 0.021596858 -0.022400908 -0.025737057
-0.03857717 -0.032440744 0.0023407822 -0.010918195 -0.008810177 0.009964062 0.047219753 -0.04387926
-0.034712024 -0.050154045 -0.0028048628 -0.014096916 0.04984209 0.04264631 0.043025192 0.032609154
-0.023539918 -0.042598896 -0.0264439 0.053732 -0.030330762 0.037222385 0.057279952 0.0373738
0.013498698 0.0008251982 0.05167069 -0.039091196 -0.021901904 0.016605668 0.054090627 0.04937595
0.05670567 -0.015459362 0.017840931 -0.0037139996 -0.014653751 0.011264269 -0.04786403 -0.03309122
0.014796825 0.057326768 -0.04310182 -0.055304024 -0.026255382 -0.034721885 0.004180465 -0.009507344
0.04664672 0.038162675 -0.018650403 -0.043441217 0.03343196 0.0038889593 -0.032138105 -0.023998907
-0.030066565 0.046146274 -0.0045460574 -0.03903812 0.05011991 -0.03982133 -0.020953048 0.045124676
0.054659806 0.024098583 -0.026167998 -0.018732138 -0.0077343937 -0.054900434 0.015575662 0.007301701
0.009892579 0.035499986 0.009233448 0.0349374 -0.045576 -0.017082065 0.038631834 0.05549921

features.5.bias f4 [64]
00000000: 8964 d8bb 8205 72bd 0cf6 b8bc f746 0d3d
00000010: 7e01 6dbc 21e8 693d 7112 613d d382 e33a
00000020: 6277 9a3c ff34 1d3d e63b 1ebb 57a3 fc3c
00000030: 04cf 243d 850e 62bd 2d1e 3abd 6bd4 05bd
00000040: e748 6abd 24ee 153d 4b57 063a 9e9b 63bd
00000050: be24 32bd afdd 0b3d b59b ca3c b8cd d23c
00000060: f017 403d 6e55 48bd 85fc 8c3c 5842 e5bc
00000070: cf9c 16bd e5ee 203c dc31 443d ebc8 8cbc
00000080: db2c 45bd f7dd 573d d1e5 f9bc 0c4d 4d3d
00000090: ce39 4fbb 6b62 39bc b221 55bd c8af a33c
000000a0: 4c0e 37bd f628 59bd cc0d 36bd 158f ccbc
000000b0: 2153 043c d06f 4e3c 47e1 043d 093c 33bd
000000c0: 63f6 7bbc 9a23 f33c 8d20 8d3c fd63 5ebd
000000d0: 8184 193d 1258 5fbd e3f7 54bc a466 f2bc
000000e0: 31e5 48bd 0798 0bbd 9e98 05bd 1a77 3bbd
000000f0: 92ea 92bb e2b5 fb3a a39b 9ebc 6c9b 4d3a
-0.0066037816 -0.059087284 -0.022578262 0.034491505 -0.014465688 0.05710614 0.054949228 0.0017357714
0.018855754 0.03838062 -0.002414459 0.030839605 0.040236488 -0.05518963 -0.045438934 -0.03267328
-0.05719843 0.03660406 0.0005124702 -0.05556833 -0.04349207 0.03414696 0.02473245 0.02573286
0.04689783 -0.048909597 0.017210254 -0.027985737 -0.036770638 0.009822582 0.047899112 -0.017185649
-0.04813848 0.052701917 -0.030505093 0.050122306 -0.0031620148 -0.011314969 -0.052034087 0.01998128
-0.04469137 -0.05301758 -0.04444675 -0.02497057 0.00807646 0.0125999 0.032441404 -0.043758426
-0.015378567 0.029680062 0.017227435 -0.054294575 0.03747988 -0.05452735 -0.012998554 -0.029589958
-0.0490467 -0.03408053 -0.03261625 -0.04576788 -0.0044835294 0.0019203986 -0.019361323 0.0007843289

features.7.weight f4 [64, 64, 3, 3]
00000000: c380 033d 93de 1c3c aa2b 133d 5125 cfbc
00000010: e9fa 193d e42c 023d 1f9c b4bc 0ac5 20bd
00000020: 41d7 87ba 85e4 1abd 1260 fa3c 37b0 0bbd
00000030: 5e0c ffbc bb84 b83c 5e52 dbbc 8cc8 1c3d
00000040: 1165 8fbb 0442 f93c 47d9 26bc be45 cf3a
00000050: f00c ae3c fe4e e4bc 4345 8dbc 5ed6 943c
00000060: 9c8f ae3c 4ab4 013d 0268 103d de4d 153d
00000070: bf00 bfb9 4fa7 b7bc 919b e03b d222 17bd
00000080: dd14 b3bb 58f7 45bc 13b9 093d b92a b3bb
00000090: 77c8 793c ffcd 0c3d dd71 fabc 94db 0dbd
000000a0: 45e1 b83c d656 8abc 8e5b 2fbd b34d 353c
000000b0: f950 923b b8e1 2eba aabd f5bc 535a 183d
000000c0: a2d1 cdba e5c4 913c d1fd 063c 88bb 01bd
000000d0: b871 7d3c dff8 1a3d c017 26bd 0b10 71bc
000000e0: 2c96 c4bc 2be8 13bc b401 ea3c 2a1b 9fbb
000000f0: 3c6e a3bc ff1d 463c 772d 2cbc 67e4 16bc
00000100: ec09 a3bc 99d4 0d3d f777 1fbd 17d0 343c
00000110: 4af8 22bd 091b bcbc 97e3 fa3a 19ae d13b
00000120: f1a0 b73c 3c5d 02bd 5943 d0bc a891 013d
00000130: 1990 893c 745f 0e3d bab3 273d ae67 ffbb
00000140: 289f 083c c8c9 973c c9d5 a2bb faab 853b
00000150: f970 11bd 014d 19bd f852 22ba d53b a53c
00000160: 54a9 d53c 34de 03bc dc10 b73c 3c54 85bc
00000170: 5031 073d 16c7 04bd 9230 723b 4448 fabc
00000180: 7e88 003b 5456 60ba 9473 253d 4499 94b9
00000190: ce7b af3a d83e 29bd db9a c3bc 2ec7 ee39
000001a0: d6b3 46bc d8b8 1d3c 3b6b 793c 2354 95bc
000001b0: 8535 08bd 4880 bdbc ba61 a43b 4afe 72b8
000001c0: 6748 1d3d f407 91bc 9538 293d a29f 1abd
000001d0: 882c b43c 8147 a8bc 635f 1abd 2bd4 f7bc
000001e0: 30bb 14bd 05ad 19bd 6322 873c fd63 1f3d
000001f0: 0bc8 14bd 9a75 d93c 6ec1 82bb 1104 bfbc
00000200: af2f a6bc 2b9a 573c 62e6 d53c b154 d43c
00000210: efa9 9dbc 5b1e ed3b 3dcf 73bb acc5 bebc
00000220: fc1d a03c 02a3 fdba 5939 b7bc f701 e2bc
00000230: a5bd f73c eee6 b8bb 8d89 2a3c 8cb6 24bd
00000240: f3ce 20bc 193f 123d 0b1a 103d 0e43 c2ba
00000250: a0c7 923b 5e94 3c3b 6cc1 98ba 6489 f5bc
00000260: 399f 18bc 20be 17bd 6d04 17bd 36e7 9cbc
00000270: 6222 e23b 0211 0dbd 287e 43bc c79a cc3c
00000280: 5bb4 583c 55eb ba3c 5fa5 d23c acfe 0a3c
00000290: 142a 7bbb 6697 06bc 18fa a5bc de07 94bc
000002a0: 6474 1a3d 3fb6 093c 3de4 163c 2883 debc
000002b0: b54d 183d 847d 07bd 5e5c d83c 30c6 22bd
000002c0: c990 253d 995b 633c f08c 42bb 083b 17bc
000002d0: b032 063c 37b8 0e3d 547f c9bc 28f2 8ebb
000002e0: 7970 9fbc 24ce a43c 3dec e53c a4ca 92bc
000002f0: e942 903c 9c28 5dbc 3daa cebc aaf9 9cbb
00000300: e20d 263d 2213 24bd 6dc0 2d3b 6aac 2fbb
00000310: d368 883c 1676 d73b 0759 0cbd 6036 f8bc
00000320: 38b1 8fbc d360 8cbc f60b 06bd d885 c6ba
00000330: 08cc 06bd 1c62 573c 905c d83c a4be 123d
00000340: 4a00 273c 3a1e d3bc 74d2 273c 6556 2dbc
00000350: 6638 1cbd 2c43 9abc 0710 023d 8f5a 033d
00000360: 638a ea3c 9bdd 793c cfa9 0abc 0945 283d
00000370: 192a b9bb 279e d5bb fb5e 70bc ee4c 1b3d
00000380: ab27 fdbc a9b2 19bd 945d ec3c dff7 953c
00000390: a50e 54bc 1e04 0ebd 7456 073d 7d5f b33c
000003a0: 72b6 f33c 901c d93c e1c7 a23c 79ad 14bd
000003b0: aac2 e2bc 2ca6 6bbc c2c6 1bbd 9f3e c93c
000003c0: fee4 8aba 6fa6 f3bc dbba ab3b c6b1 11bb
000003d0: 5f32 29bd 2132 1dbd 0b09 01bd fafe cc3b
000003e0: 29b0 19bd 0a00 0e3d 0397 0c3d 40d9 f63c
000003f0: 6f1e 7bbc aee5 0dbd 00f8 e73b 8fd2 73bb
0.03210522 0.00957455 0.035930313 -0.025286349 0.037592802 0.031781092 -0.0220471 -0.03925041
-0.0010363833 -0.03781559 0.030563388 -0.0341036 -0.031133827 0.022524228 -0.026772674 0.038277194
-0.0043760617 0.030426987 -0.010183639 0.0015813631 0.021246403 -0.027869698 -0.01724494 0.018168624
0.021308713 0.031666078 0.03525544 0.036451213 -0.00036430915 -0.022418646 0.0068544825 -0.03689844
-0.0054651336 -0.012082897 0.033623766 -0.0054677394 0.015245548 0.03437614 -0.030571872 -0.034633234
0.022568354 -0.01688711 -0.042811923 0.011065888 0.004465219 -0.0006671208 -0.029997665 0.037195515
-0.0015702734 0.017794082 0.0082392255 -0.031672984 0.015469007 0.037835 -0.040549994 -0.014713298
-0.023997389 -0.009027521 0.028565265 -0.004855533 -0.019950025 0.012092113 -0.010508887 -0.009209729
-0.019902192 0.034626577 -0.038932767 0.011035941 -0.03978757 -0.02296211 0.0019141313 0.006398928
0.02241561 -0.031827196 -0.025422739 0.03163305 0.016792344 0.034759 0.040942885 -0.007794342
0.008338727 0.018528834 -0.004969333 0.004079339 -0.03550813 -0.037426952 -0.0006192173 0.020170132
0.026081719 -0.008048583 0.022346906 -0.016275518 0.033006012 -0.032416426 0.003695522 -0.030552037
0.0019612606 -0.0008557786 0.040393427 -0.00028342952 0.0013388337 -0.041319698 -0.023877552 0.00045543298
-0.012127837 0.00962659 0.01522332 -0.018228596 -0.033254165 -0.023132458 0.0050165327 -5.793412e-05
0.038399126 -0.017703988 0.041313726 -0.037749894 0.02199389 -0.020541908 -0.037688624 -0.030252537
-0.03631133 -0.03751852 0.016495889 0.038913716 -0.03632359 0.026545335 -0.003990344 -0.023317369
-0.02028641 0.013159315 0.026110832 0.02591929 -0.01924607 0.0072362847 -0.003720238 -0.023287617
0.019545548 -0.0019350948 -0.022366213 -0.027588828 0.030241797 -0.0056427633 0.010408771 -0.040213153
-0.009814966 0.035704706 0.035181087 -0.0014821009 0.0044793636 0.0028774957 -0.0011654324 -0.02997274
-0.009315305 -0.03704655 -0.036869455 -0.019153219 0.0069010714 -0.034440048 -0.011931933 0.024976147
0.013226594 0.022817293 0.02571362 0.00848357 -0.003832464 -0.008214807 -0.020260856 -0.018070158
0.037708655 0.008405267 0.00920969 -0.02716215 0.037183482 -0.033078685 0.026411232 -0.039739788
0.04042128 0.013876819 -0.0029686056 -0.009230383 0.008190796 0.03484365 -0.024596848 -0.0043623634
-0.01946281 0.020117827 0.028066749 -0.017918892 0.01761003 -0.013498452 -0.02522766 -0.0047905045
0.040540583 -0.04005731 0.00265124 -0.0026805648 0.016651547 0.0065753562 -0.03426459 -0.030299366
-0.01754056 -0.017136013 -0.03272625 -0.001514609 -0.032909423 0.01314595 0.026411325 0.03582634
0.01019294 -0.02577125 0.010243047 -0.01057968 -0.038139723 -0.018830858 0.031753566 0.032068785
0.028630441 0.015250589 -0.008463337 0.041081462 -0.0056507704 -0.0065190974 -0.014671083 0.037915163
-0.030902704 -0.0375239 0.028853215 0.01830667 -0.012942945 -0.034671895 0.033041432 0.021896118
0.029750083 0.026502877 0.0198707 -0.03629825 -0.027680714 -0.01438288 -0.038031347 0.024565993
-0.001059681 -0.029742448 0.0052407808 -0.0022231205 -0.041307803 -0.038377885 -0.031502765 0.0062559815
-0.037521515 0.034668006 0.034323703 0.03013289 -0.01532708 -0.034642868 0.0070791245 -0.003720436

features.7.bias f4 [64]
00000000: 9ba9 62bc c699 19bd 5ae7 2abb e3a8 a33c
00000010: 854b ef3c 61c2 ac3c a1f5 c4bb edc7 1dbd
00000020: 611d 183c 6244 09bd 8d8a ec3c b8e9 00bd
00000030: 25ee 813c 0cb9 bb3c 347b 693c c9b6 e7bc
00000040: f3b5 e2bc 8556 f9bc 486d 573c fe95 1ebc
00000050: 5a0b 18bd c288 10bd 3f1c c03c 0d5f afbc
00000060: bf4d f43c 64dc 9dbb 0554 a73c bd2b 04bd
00000070: 568d a8bc c0de 103d a53e 42bc 257e 2fbc
00000080: ae19 173d 737f af3c ff3a 8dbb 0c74 a8bc
00000090: 8174 913c 6098 d1bc dde6 073d 86cc 9739
000000a0: 2a77 873c b97c f93c 2dbf 58bb eada c1bc
000000b0: 4946 d3bc 0386 92bc 41ce 363c 2278 163d
000000c0: d3d4 0ebc da97 21bd 5484 5c3c ddde 8cbc
000000d0: bdae be3c e513 a3bc dcc6 14bd 4506 253c
000000e0: ebc4 ff39 cb85 d2bc ee27 063d f108 a73c
000000f0: f0c5 03bd 2bcd 243d 3e72 ba3c 0c5b 82bb
-0.013834382 -0.037500165 -0.0026077838 0.019977992 0.029210815 0.02108878 -0.0060107266 -0.038520742
0.009284348 -0.03351248 0.02887466 -0.03147289 0.015860626 0.022915386 0.014250565 -0.028285401
-0.02767465 -0.030436764 0.013148613 -0.009679316 -0.0371202 -0.035286672 0.023450969 -0.021407628
0.029822228 -0.0048175324 0.020425806 -0.032268275 -0.020575207 0.03536868 -0.011855756 -0.010711228
0.036889724 0.021423077 -0.0043100114 -0.020563148 0.017755749 -0.025585353 0.033179153 0.00028953346
0.016536314 0.03045498 -0.0033072934 -0.023663957 -0.02579035 -0.017886167 0.011157573 0.03673566
-0.008717733 -0.039451458 0.013459284 -0.017196113 0.023276681 -0.019906947 -0.03632246 0.010072296
0.00048784105 -0.025698563 0.032752924 0.020390006 -0.03217119 0.040234726 0.022759553 -0.003978139

features.10.weight f4 [64, 64, 1, 1]
00000000: 99d2 643d 78a2 443d 844b 08bd 6a8d 09bd
00000010: f0ab 0fbd 599e dc3d b92c 86bd 6ce3 2f3d
00000020: 027b 62bd c5f9 a6bd 5b70 083b 534c 38bd
00000030: ac49 aebc 2b7a 05bd f702 f93c 145f c8bd
00000040: 5f93 a03d 6f56 193d de52 203d fbbb 7abc
00000050: ee79 d2bd 363a b13d bbe6 dabd d321 fc3d
00000060: 6604 e2bb daba c53d 1a64 b6bc 8057 b2bd
00000070: 232a d3bd 0708 debd 4a73 d9bd 6e33 02bd
00000080: e719 583d c7a2 b53d 43b0 c73d e7db dc3d
00000090: e337 43bd 614e c4bd 2198 e9bd eb72 d6bc
000000a0: ea07 d9bc 5903 abbd 191d 5d3d d4ef a7bd
000000b0: cfd7 c9bb 0d19 dd3d cea8 febc a9aa dcbd
000000c0: 52df e7bc 0aa0 34bc df86 7cbd b0f4 663d
000000d0: 7d3a a4bd 5b74 d2bd fbfa 9cbd 85f0 ae3d
000000e0: 2e0f 403d 83a0 223d 5a13 a9bd 35dd 94bd
000000f0: d7cc 263d df55 a83d 7a63 cbbc 6de4 b53d
00000100: 625f 2dbb 38f0 c2bd 6fdc 7d3c 5fef 8bb7
00000110: a5a9 763c 9067 c9bc 4b55 49bd 2c22 46bd
00000120: 8a5e 263d ff88 7fbc ec32 a3bd dac0 c13d
00000130: e4de 91bd dfee d63d 48a7 e73d 8a48 4ebd
00000140: ed8c 65bd 3885 a7bc b8b4 5a3d 95c3 f8bc
00000150: d7df 6d3d 5254 d03d a6d4 ce3d 1aef ed3d
00000160: aff8 b73d 86f6 103d 831f da3d bf58 fe3d
00000170: fead cfbc 84a3 de3d edbb 863d 79c3 863d
00000180: cf08 dbbc 1a7d cabd 15aa 1e3d bbf3 303d
00000190: 84d0 aebd 85f3 c8bd 3487 753d 5f6d 25bd
000001a0: f5e0 a8bc 197a ff3c b5f4 d2bd 3a8f da3d
000001b0: ebc3 0cbd 711e b73d a22a 78bd c9ae febb
000001c0: fd30 86bd 2c75 c03d 454d a4bd e66a 943d
000001d0: eca6 c4bc 4ce7 ee3d f381 b03d 96ee c1bc
000001e0: fa74 913d 9f1a 723d 2007 703d b268 4a3c
000001f0: 713b 88bd 6c99 b8bd 6a39 eebd 3c1c f9bc
00000200: 9bc9 b6bc 5d3a 9ebc e124 f63d e587 f83d
00000210: 1059 203d 3007 e73d 816e 613d 99ed 783d
00000220: ee89 7f3d fcb8 eabd d0c5 e93d c0a6 d13c
00000230: 8584 78bc ee90 6e3d 5e4a a23c 03b8 8bbd
00000240: a09f 0fbd 5547 1cbb 9f44 2abc 7086 f7bc
00000250: fb33 e6bd 53fe b63c f493 06bd c92b 6fbc
00000260: b3e9 27bc d7ec 13bd 09e0 573d 5f4f b33d
00000270: f281 503d 8a49 953d d2bb 8c3d db8f f63d
00000280: cc06 c23d 689c bcbd 20c2 c3bd 3807 9b3d
00000290: 751e a9bc 5123 9f3d 6247 8dbc a41a 4dba
000002a0: 9e44 4e3d 4f53 92bd dc5e 023d 24a6 8d3d
000002b0: 811f e7bd aa8f b6bc 8009 a1bd 45ab 883d
000002c0: 17da ccbd 59e8 90bb 5c6e 7f3d 386e 093d
000002d0: 855f c23d 70a0 d4bc 5a20 e0bc f7d1 01bd
000002e0: e533 e83d a05f a03d ccec cc3d edc5 f73c
000002f0: f33f 113d c108 c1bc 0eef 07bc 6c89 26bd
00000300: f40e d1bd 9238 443d f9df b23b 1bcf cebc
00000310: 8814 4e3d 8923 1f3d f09c bb3c 3854 a03d
00000320: b7dc b9bd 808e 693d 8caa ce3a fbdd 88bd
00000330: 7107 ba3d 7d61 703d fcb2 d83c bfb8 87bd
00000340: 824f 5fbb fead 8a3d f389 f8bd b4de b8bd
00000350: fe36 85bd 7df7 f1bd 2024 653d cb38 debd
00000360: f220 8dbd 6d3a 6bbc ee76 673d 3b32 363d
00000370: 4763 123d 1f0d 93bd 112d 0abc ef4c a23d
00000380: e197 d7bd c632 033d 1807 aabc 5680 e83d
00000390: c20b bb3d 9453 b13d f249 e5bd 5101 ca3d
000003a0: 4623 aebd 405f cd3d 05d3 763d a68e 87bd
000003b0: fe67 dd3d ab6d a23d d983 20bb 49ea bd3d
000003c0: 7b4c cd3d 9d72 f03d 85a4 f0bd 988b 1a3b
000003d0: 72a7 aebd a9e7 44bd b7c5 a3bd 7c47 a4bd
000003e0: ae78 a03d 35bb e3bc 5e7e 793d 6a8e e93d
000003f0: 4f52 8ebc 1927 ec3d 7f94 9f3d 237f cf3d
0.055864904 0.048006505 -0.033275142 -0.03358213 -0.03507608 0.1077239 -0.06551499 0.042941496
-0.05529309 -0.081531085 0.0020818922 -0.044994663 -0.021275364 -0.03258721 0.030396922 -0.0978376
0.07840609 0.037435945 0.03914153 -0.015303607 -0.102771625 0.08653681 -0.106885396 0.12311139
-0.006897497 0.0965478 -0.022264529 -0.087080956 -0.10310771 -0.10841375 -0.10617693 -0.03178733
0.052759077 0.08868938 0.09750416 0.107841305 -0.04766072 -0.09585262 -0.114059694 -0.026177844
-0.026493032 -0.08350248 0.053982828 -0.082000405 -0.0061597596 0.10795794 -0.031086352 -0.10774738
-0.02830473 -0.011024484 -0.06165206 0.056385696 -0.08018968 -0.10276099 -0.07665058 0.08541969
0.046889476 0.039703857 -0.08255644 -0.072687544 0.040722694 0.082195036 -0.024827708 0.088814594
-0.0026454558 -0.09518474 0.01549445 -1.6681557e-05 0.015055095 -0.024585515 -0.049153607 -0.048372433
0.040617503 -0.015596627 -0.07968697 0.09460612 -0.07122591 0.1049478 0.11311203 -0.050362147
-0.0560426 -0.020449266 0.053395003 -0.030366698 0.0580748 0.10172333 0.10099153 0.11617871
0.089829795 0.035391353 0.10650542 0.12419271 -0.02535152 0.10871032 0.06578813 0.06580252
-0.026737599 -0.098871425 0.03873642 0.04320119 -0.08535865 -0.09812073 0.059943393 -0.040387508
-0.02061508 0.03118615 -0.103005804 0.106718495 -0.03436653 0.08941353 -0.060587533 -0.007772301
-0.065523125 0.09397349 -0.080225505 0.07246952 -0.024005376 0.1166521 0.08618536 -0.023673337
0.0710239 0.05910742 0.058600545 0.012354063 -0.066519625 -0.09013638 -0.116320446 -0.030408971
-0.02231293 -0.01931494 0.12018753 0.12135295 0.039147437 0.11280668 0.055037025 0.060773466
0.0623874 -0.11461064 0.11414683 0.025592208 -0.015168314 0.058243684 0.019810852 -0.06822207
-0.03506434 -0.0023846228 -0.010392337 -0.030215472 -0.11240383 0.022338068 -0.032855943 -0.014597842
-0.010248589 -0.03611454 0.05270389 0.08755373 0.050905176 0.07289417 0.068717614 0.12039157
0.09473953 -0.092095196 -0.09558511 0.07569736 -0.020644406 0.07770408 -0.017245952 -0.0007824099
0.050358407 -0.07144796 0.031828746 0.069164544 -0.11285306 -0.022285301 -0.0786314 0.06673292
-0.10002535 -0.0044222292 0.062361106 0.03355238 0.09490875 -0.025955409 -0.027359176 -0.03169438
0.11338023 0.07830739 0.10006103 0.030245746 0.035461377 -0.023563745 -0.008296741 -0.0406584
-0.1020793 0.047905512 0.0054588285 -0.02524524 0.05031255 0.03885225 0.022901982 0.078285635
-0.09075301 0.057020664 0.001576738 -0.066829644 0.090834506 0.058686722 0.026452534 -0.066270344
-0.003407449 0.067714676 -0.12135687 -0.09026852 -0.065046296 -0.11814783 0.055942655 -0.10850676
-0.068910494 -0.0143571915 0.056509905 0.044481497 0.03573921 -0.07180237 -0.008433596 0.0792483
-0.105270155 0.032030843 -0.020755336 0.11352603 0.09133102 0.086585194 -0.111957446 0.09863532
-0.085028216 0.10027933 0.060259838 -0.06619005 0.108108506 0.07931074 -0.002449265 0.09273202
0.10024353 0.11740611 -0.117501296 0.002358174 -0.085280314 -0.04807249 -0.079966955 -0.08021447
0.07835518 -0.027799228 0.06091153 0.114041165 -0.017373232 0.11530895 0.07791995 0.10131671

features.10.bias f4 [64]
00000000: 854c e23c 2658 c13d b656 d33d 47a3 483d
00000010: f146 0bbd 9ac4 ca3d 5a03 5cbd d5fe 65bd
00000020: 45a8 823d 6f10 a23c b628 8bbd 2251 c9bb
00000030: 9ea8 fb3d aa2e 5fbc 8ca6 85bd edd5 923c
00000040: 4691 583d 8a19 283d 8ddc a5bd 7af6 2c3d
00000050: 553a 0fbd 98a3 1e3d 5000 003d f8ab 603d
00000060: 728c ecbd 7731 b93b 880f d53d 7461 fabd
00000070: 02c3 c0bd a468 0c3d 6b6c e23d 8a20 9fbd
00000080: ff63 c73d a68b 71bc 292d 373d e8e6 2dbb
00000090: b65a 3f3d cd96 d93d 962b 3abd 6053 bcbd
000000a0: d38f 9dbd 39a6 973d 7ca5 953a fce6 3f3c
000000b0: 585c 353c 8afc b73d a180 9b3c b153 c83c
000000c0: e1a2 ebbd a96b 873d 30c6 e83d c466 4c3d
000000d0: 46f8 c8bd 6612 49bd e616 783b 28ae 6e3d
000000e0: 4325 923d cc06 ffbc 64b5 2bbb 209e d13d
000000f0: 587a 7f3d a0c8 2ebc 4277 b83d 4a79 9abd
0.027624378 0.09440641 0.10319273 0.04898384 -0.034003202 0.0990078 -0.053714134 -0.05615123
0.06379751 0.019783227 -0.06794874 -0.006143705 0.122880206 -0.013621965 -0.06525907 0.017924273
0.05287292 0.04103998 -0.08098707 0.042227246 -0.03496774 0.038730234 0.031250298 0.054851502
-0.11550225 0.0056516486 0.10403353 -0.12225619 -0.09412195 0.03427948 0.11055835 -0.07769878
0.097358696 -0.014742767 0.044720802 -0.0026535336 0.046717368 0.10624466 -0.045451723 -0.0919559
-0.07693448 0.07404751 0.0011417116 0.011712786 0.01106938 0.08983715 0.018982233 0.02445397
-0.11505676 0.066123314 0.11365926 0.049902692 -0.098129794 -0.04908981 0.0037855445 0.058271557
0.07136013 -0.03113117 -0.0026200647 0.10235238 0.062372535 -0.01066795 0.090071216 -0.07542665

classifier.0.weight f4 [3, 64]
00000000: d5f4 9f3d 2000 163d 0cc7 ef3c 57c1 8fbd
00000010: 1bde b6bd e607 e93d dd89 ccbd 320e 863d
00000020: 392b eabc a3bb d13d 2315 d83d 7a48 513d
00000030: 30b5 e73d 4379 90bd 268c 013d a7f1 fe3d
00000040: ba57 ac3c f93c 15bd 8dae e53d 99e7 30bc
00000050: 3e8b b13c 4495 acbd f7a4 903d 6419 76bc
00000060: b669 5fbd 3fc5 a73b 9774 e8bc 6cdc 2f3d
00000070: accf a53d fd68 f53d a9a9 b2bd f5c4 b1bd
00000080: 8700 94bd 840f 7c3d 0bc0 d03d 5ab0 b3bc
00000090: 79e8 cebd d91d aa3d c4ee 4bbd f935 b9bd
000000a0: d451 553d d6c1 e63d 25d3 823d 3a76 cfbc
000000b0: 8283 4b3d 7c4d ab3d e787 38bc c3ca 1f3d
000000c0: 2bf1 01bd f439 9e3d 0a4a fa3d f2b8 b93d
000000d0: e604 39bd dea7 07bd 642f 98bd 050e 00be
000000e0: 4231 c23d d5aa dc3d 00b7 a4bd a909 b3bd
000000f0: 508f b1bd 388e 753c b0bb 163d ec9d a5bd
00000100: d7d0 993d eed3 9ebd 849e 76bd ea03 a93d
00000110: 3a62 013d 9522 e63d b92c 23bd bfb0 ce3d
00000120: 1802 98bd da76 9b3d 369f 0abd 73d6 ec3d
00000130: e7a0 d5bd 2708 003d 6997 f13d 3f64 6abc
00000140: fb1d 833d a118 a63d a865 263a 53a3 b4bd
00000150: 8796 093c b2e7 99bd cb43 d5bd 2b5b 8e3d
00000160: 2822 b3bc 9907 223c 6573 c8bd 07c3 92bd
00000170: 9311 ed3d da41 c9bb a0a6 21bd b891 d1bc
00000180: dc47 95bb faa8 843c 2d67 dcbd 9452 84bd
00000190: 25d9 c33d 6feb b63c c660 debd b546 1bbd
000001a0: c1c1 893b 3efb 8abd f6d0 d8bd 2ad6 5bbd
000001b0: aece dd3d 6fc4 babd 188a 6cbd c7a7 adbd
000001c0: de3b 85bd 5e97 a3ba 94f5 64bd 64c2 c73d
000001d0: 739d e83d d259 843d e960 cb3d b861 ddbd
000001e0: d985 e73d 8310 b23d f993 0f3c 53fa 1e3d
000001f0: d7c5 af3d cf78 db3d 5aa3 933d 9d6b fb3d
00000200: 0eb7 c23d cb16 d93d f9bb aabd 151f f63c
00000210: 6535 b336 f19b a4bd 3b72 d8bd eb47 9d3d
00000220: ede8 c4bb bf3e e7bd 040b f83d 0f79 82bc
00000230: d6e7 bcbc a629 a63c 6936 803d 38e9 8d3d
00000240: bc00 e9bc 2c14 c83b 45c3 b83c 03ac 2abc
00000250: 1eee 9f3b 12ef 9f3d 7c1b 8f3d 2c00 3cbc
00000260: 86f1 be3d 3b34 00be 4243 f4bd 6369 b73c
00000270: 8453 ad3d 02a8 4fbd 2c59 7fbc f678 95bd
00000280: 1fb0 c0bd 00f9 fb3d 59a6 fa3c 5cee f6bd
00000290: f701 583d c28a 8b3d 72f6 89bd 24fd 503d
000002a0: b0ec cabd c0bd 1dbc 1d9b f93b 42a2 833d
000002b0: 6d1e 913c 6e79 a93c 7a88 103c 7c11 fbbd
000002c0: 6916 9cbc f423 9e3d 48bc 71bd 7389 c1bd
000002d0: 5598 f0bd 674a c2bd f8cd 85bc d8fd 62bc
000002e0: 27a5 04bd e829 97bd b008 093d 829d 89bc
000002f0: a4b9 d0bd 9a8d 683d e852 cc3d 7b9c 0cbb
0.0781037 0.036621213 0.029269718 -0.070192985 -0.08929082 0.1137846 -0.09987233 0.06545676
-0.028585063 0.10240867 0.105509065 0.05109451 0.11313856 -0.07054379 0.031627797 0.12448435
0.021037925 -0.0364351 0.112149335 -0.010797405 0.021672841 -0.08426908 0.070627145 -0.015020702
-0.054544173 0.005119949 -0.028375907 0.04293482 0.08096251 0.119829156 -0.08723766 -0.08680145
-0.07226663 0.061538234 0.10192879 -0.021934677 -0.101029344 0.08306474 -0.04978825 -0.090434976
0.05207999 0.1126744 0.06387929 -0.02532493 0.049685962 0.08364388 -0.01126287 0.039011728
-0.031724136 0.077258974 0.12221153 0.09068479 -0.045170687 -0.033119075 -0.07430914 -0.12505348
0.094820514 0.10774771 -0.08042717 -0.08742077 -0.08669913 0.014987521 0.036800086 -0.08086762
0.07510536 -0.07755266 -0.060209766 0.082527 0.031587817 0.11237065 -0.039837573 0.100923054
-0.07422274 0.075910285 -0.03384324 0.115643404 -0.1043108 0.031257775 0.11796457 -0.014306127
0.06402203 0.08110166 0.00063475454 -0.08820214 0.008397705 -0.075148955 -0.10413321 0.06950983
-0.021866873 0.009889507 -0.09787635 -0.07166105 0.11575618 -0.0061418833 -0.039465547 -0.02558218
-0.0045556854 0.016193856 -0.10761867 -0.06461063 0.095629014 0.02232906 -0.10858302 -0.03790923
0.0042040055 -0.06786202 -0.10586731 -0.05367104 0.10830437 -0.09119498 -0.057748884 -0.084792666
-0.065055594 -0.0012481024 -0.055898264 0.09753874 0.11358156 0.06462444 0.099305935 -0.10809654
0.11304826 0.086945556 0.008763307 0.038812947 0.08582657 0.10716402 0.07208891 0.12276385
0.09507571 0.106000505 -0.08336634 0.030044118 5.3408316e-06 -0.08037556 -0.10568663 0.07679733
-0.006009212 -0.11291265 0.12111476 -0.015926866 -0.023059767 0.020283531 0.06260378 0.069292486
-0.028442733 0.0061059203 0.02255405 -0.010416987 0.0048806807 0.07809271 0.06987664 -0.01147465
0.09323411 -0.12519924 -0.11926891 0.02238912 0.08463195 -0.050697334 -0.015585225 -0.07298462
-0.094085924 0.12303352 0.030596899 -0.12057182 0.05273625 0.06813575 -0.06736459 0.051022664
-0.09908426 -0.009627759 0.007617368 0.064274326 0.017714703 0.020687785 0.008821601 -0.12259194
-0.019053655 0.07721701 -0.05901745 -0.094500445 -0.11747805 -0.09486847 -0.016333565 -0.013854466
-0.032384064 -0.0738104 0.03345555 -0.016798738 -0.10191658 0.056775667 0.099767506 -0.0021455574

classifier.0.bias f4 [3]
00000000: 1cf3 983c 9cd8 ba3d 44c0 fa3d
0.018670611 0.09123346 0.12243703

exp_avg f4 [32, 3, 3, 3]
00000000: 24ed 14b9 3f70 8ab9 b9c7 32ba a05f 65b9
00000010: eea8 bcb9 1287 49ba 1900 98b9 2557 f3b9
00000020: 2c03 50ba 2fcf f5b8 c533 66b9 3aa6 2fba
00000030: f56c 54b9 4ce9 b1b9 99a8 4eba 1fa4 8fb9
00000040: cc1a eab9 fc25 55ba 2ab3 463a 5e8e 463a
00000050: 9efc b839 44e1 3c3a e243 2c3a f519 7d39
00000060: f7e1 2b3a d3f7 0f3a d383 4539 d9ee 0f39
00000070: c566 50b8 3571 49b9 c915 9738 840f 03b9
00000080: 3f70 3bb9 9451 8238 e9d7 b7b8 7119 03b9
00000090: b9e4 d038 3632 c7b8 29c2 83b9 3281 d637
000000a0: 8d56 41b9 fff8 7db9 be10 ca37 79c7 15b9
000000b0: cc5f 34b9 7317 b7b9 0cd6 26ba 0759 4fba
000000c0: 63ae dab9 ee04 3aba 0137 47ba 6372 c7b9
000000d0: af52 21ba 26fa 2fba 596f fe39 d76d df39
000000e0: f74b db39 5c34 c039 b759 9639 f24f c239
000000f0: d8f0 9039 8fe0 4a39 6e99 ae39 008a f339
00000100: 70e3 cf39 6176 ce39 0390 b439 695b 8539
00000110: 9e12 ae39 bbb4 8b39 cc3d 3939 15aa 9d39
00000120: 176b 5f39 46a6 3e38 5695 8238 6b85 0839
00000130: faed 88b8 9127 c6b5 324c a738 ab9e 09b9
00000140: b8b1 44b7 c683 d937 8f0a 08b9 07eb 8fb9
00000150: f85a f2b7 b7f3 03b9 d681 90b9 f940 14b8
00000160: 9b48 bdb8 fa6e 8bb9 5810 b4b6 0dac 10b9
00000170: aed4 82b9 253e adb8 90ae 34b9 0cc4 96b9
00000180: 0f23 9eb8 0d8c 1fb9 5a41 a5b9 651a 6538
00000190: 6fda 7fb8 7157 27b9 217c 5f38 310b a2b7
000001a0: cca4 15b9 cf35 6d38 82f8 0c37 d9a7 30b9
000001b0: 6112 45b8 ad72 90b8 3cba 35b9 cb72 1cb8
000001c0: 6b26 e6b8 db45 52b9 3342 c4b7 00df e8b8
000001d0: 612f 4db9 835a 9438 0077 6338 8c04 91b8
000001e0: d9a1 aa38 8c7e 8437 7d00 c0b8 2da6 d738
000001f0: 8bed 3037 a544 c7b8 71be 2e39 01e4 4439
00000200: dae6 7738 0447 4d39 f30f 2839 341f 2c38
00000210: 254d 4a39 512b e138 c6c8 e0b5 8963 01b8
00000220: 8142 5cb8 bd18 9f38 2ee7 56b7 1109 94b7
00000230: 2e91 9138 abf5 2e38 a80e 8938 9efa 0139
00000240: 8952 14b8 cdee 3db7 697c 1b39 1789 20b7
00000250: de50 f736 8cdb ef38 75b8 4338 0334 a838
00000260: 4cd5 2f39 7bf6 9cb8 783a 1e38 a4a4 9439
00000270: 83c5 83b7 0e2f a438 4197 8639 d47f 9a37
00000280: af60 f438 bd3b 7639 7204 4b39 10f1 5539
00000290: 5b24 8939 a1b2 7d39 b5ea 7d39 9854 8939
000002a0: 5e5b 8a39 4ce5 9439 7ea7 9a39 e32b 4739
000002b0: d0ce 4939 3485 7e39 0283 7239 354f 6539
000002c0: 18bf 7639 6b28 8539 27a6 8839 70e7 8939
000002d0: 5f3b 6238 e7dd 3d38 132c b638 3487 2039
000002e0: caaa fb38 0c7d 0939 0f08 5b39 e899 4f39
000002f0: ecb6 3b39 dbf7 a0b8 50cd 6fb9 e252 b1b8
00000300: 77d5 34b9 19fb b4b9 23ad dbb8 24d7 abb9
00000310: 7ff9 f2b9 fe41 28b9 e3dd 22b8 9321 4bb9
00000320: 536e 8bb8 3b39 1eb9 fab3 b2b9 1cad 06b9
00000330: ff46 b4b9 2c25 04ba b12f 66b9 bc80 9638
00000340: 57e7 33b9 4a63 aab8 00a3 84b8 3c85 a6b9
00000350: c1d9 ceb8 446e 30b9 a257 ccb9 5347 d1b8
00000360: fb5b e8b9 eb1c 92b9 0139 56b8 3597 f8b9
00000370: 72fe 97b9 841b 84b8 91be 02ba ea70 a7b9
00000380: 81fc b6b8 8c27 00ba e786 a7b9 9657 b3b8
00000390: 74f0 05ba 3fef a4b9 347a a2b8 f086 0bba
000003a0: e035 b4b9 a532 cbb8 e240 beb9 9e89 36b9
000003b0: 5b80 26b8 99c7 ccb9 2584 3fb9 e388 2db8
000003c0: 12ec e1b9 43d8 62b9 ddbb 84b8 ccad 0eba
000003d0: 00d9 a9b9 e26b 64b9 2172 1cba 1863 b7b9
000003e0: adf7 62b9 f450 23ba 2b9c b6b9 309f 5eb9
000003f0: 8ae5 0cba e561 92b9 6c28 25b9 ff6f 18ba
-0.00014202722 -0.0002640504 -0.0006819922 -0.00021874765 -0.00035984017 -0.00076876685 -0.00028991772 -0.000464135
-0.0007935043 -0.00011721101 -0.00021953795 -0.000670049 -0.00020258485 -0.0003393389 -0.00078833994 -0.00027397365
-0.00044651923 -0.0008130965 0.0007579798 0.0007574315 0.0003528343 0.0007205198 0.00065713946 0.0002413763
0.0006556804 0.0005491946 0.00018836492 0.0001372652 -4.9686776e-05 -0.00019211027 7.204299e-05 -0.00012498914
-0.00017875525 6.214078e-05 -8.7663364e-05 -0.00012502611 9.960816e-05 -9.498412e-05 -0.00025130928 2.557095e-05
-0.00018438157 -0.00024220718 2.4088073e-05 -0.00014284057 -0.00017201825 -0.0003492195 -0.0006364293 -0.00079096894
-0.00041710128 -0.00070960715 -0.0007599444 -0.00038041463 -0.00061539834 -0.0006712995 0.00048529616 0.00042615712
0.00041827533 0.00036660105 0.00028677072 0.00037062127 0.00027645263 0.00019347876 0.0003330218 0.0004645139
0.0003965157 0.0003937958 0.00034439572 0.00025435843 0.00033201737 0.000266468 0.00017665996 0.00030072095
0.00021306831 4.5454384e-05 6.226699e-05 0.00013019673 -6.529312e-05 -1.4763665e-06 7.977373e-05 -0.00013124447
-1.1723889e-05 2.5929778e-05 -0.00012973904 -0.00027450194 -2.8891009e-05 -0.00012583924 -0.00027562556 -3.534646e-05
-9.025746e-05 -0.0002659483 -5.3663207e-06 -0.00013797004 -0.0002495399 -8.260858e-05 -0.00017231167 -0.00028756296
-7.540557e-05 -0.00015215595 -0.00031519943 5.4622436e-05 -6.100017e-05 -0.00015958936 5.3282947e-05 -1.9317116e-05
-0.00014271139 5.6555316e-05 8.4025105e-06 -0.00016847196 -4.6985577e-05 -6.887815e-05 -0.00017330883 -3.7300208e-05
-0.000109744105 -0.00020053184 -2.3395847e-05 -0.00011104159 -0.00019567974 7.074049e-05 5.4231845e-05 -6.914986e-05
8.136378e-05 1.5794554e-05 -9.1553644e-05 0.000102829516 1.0545725e-05 -9.5018455e-05 0.00016664878 0.00018776955
5.9104386e-05 0.00019576779 0.0001602767 4.1037056e-05 0.0001929296 0.000107369044 -1.6747733e-06 -3.0848696e-05
-5.2514024e-05 7.586319e-05 -1.280922e-05 -1.7647197e-05 6.9411806e-05 4.171363e-05 6.535399e-05 0.00012395761
-3.5362817e-05 -1.1320878e-05 0.00014828298 -9.568662e-06 7.370588e-06 0.00011437302 4.6663412e-05 8.020552e-05
0.0001676876 -7.48457e-05 3.772459e-05 0.00028351427 -1.570839e-05 7.828894e-05 0.00025671165 1.8417755e-05
0.000116528354 0.00023482642 0.00019361245 0.00020403066 0.00026157763 0.00024194505 0.00024215395 0.00026193704
0.00026389485 0.000283996 0.0002949796 0.00018994468 0.00019245897 0.0002427295 0.00023127723 0.00021868649
0.00023531576 0.0002539785 0.00026063735 0.0002630311 5.3937893e-05 4.5267774e-05 8.686646e-05 0.00015309156
0.000120004246 0.00013111922 0.0002088847 0.00019798393 0.00017901853 -7.675561e-05 -0.00022869301 -8.455456e-05
-0.0001724566 -0.00034519358 -0.00010474983 -0.00032775954 -0.00046343726 -0.00016046313 -3.8830458e-05 -0.00019372096
-6.648586e-05 -0.00015089374 -0.000340849 -0.00012843724 -0.00034385172 -0.00050409394 -0.00021952276 7.176536e-05
-0.00017156951 -8.124726e-05 -6.3246116e-05 -0.00031761255 -9.863405e-05 -0.00016825745 -0.00038975204 -9.979182e-05
-0.0004431902 -0.00027868836 -5.1074665e-05 -0.00047414904 -0.0002899054 -6.299376e-05 -0.0004987503 -0.0003193685
-8.725469e-05 -0.00048887054 -0.00031953232 -8.551699e-05 -0.00051093777 -0.0003145877 -7.747524e-05 -0.00053225365
-0.00034372415 -9.6892276e-05 -0.00036287965 -0.00017408139 -3.9697024e-05 -0.00039058624 -0.00018264407 -4.13739e-05
-0.0004309123 -0.00021633603 -6.329243e-05 -0.0005442768 -0.0003239587 -0.00021783964 -0.0005967934 -0.0003497831
-0.00021645306 -0.00062300195 -0.000348301 -0.00021230872 -0.000537478 -0.00027920227 -0.00015750685 -0.00058150286
