benchmark_model_data/10000_image_experiment_50_epochs/benchmark_experiment_increased_data/experience_1_2_3/model_experience_1_2_3.pth (torch, 854994 bytes, 36 tensors)

features.0.weight f4 [32, 3, 3, 3]
0.02380107 0.070970066 0.13628402 -0.12031856 0.06802684 -0.03465959 -0.0127003575 -0.04686879
-0.11422716 0.22237074 0.2115514 0.2423485 0.21775134 0.14504796 0.15827554 0.24071565
0.08696073 0.010971747 0.082932845 0.050912518 -0.06186857 0.079872936 0.14689389 -0.06775219
-0.18210357 -0.019672735 -0.13569753 0.21686982 -0.14402398 0.14038427 0.014472405 0.1777378
-0.12836742 0.01130151 -0.1065759 -0.02081839 -0.03648922 -0.2082783 -0.15169875 -0.15462407
-0.26614642 -0.19499405 -0.3023446 -0.3503036 -0.31707773 -0.2122401 -0.21394908 -0.14870885
-0.036723193 0.076800585 0.0087672 -0.008081299 0.03259404 0.021482794 0.20651166 0.007549117
0.11746585 0.18614128 -0.047764502 -0.16830094 0.04910898 -0.043101586 0.051496133 0.010942972
0.0639663 -0.05054649 -0.14545742 0.03176984 -0.12895687 0.092967056 -0.1001613 -0.20085546
0.12865795 -0.042014655 -0.068068534 -0.012097534 -0.12728651 0.11161177 0.0074745654 0.027701104
0.06161046 0.17494212 -0.0052957367 0.16581011 0.058229294 -0.0414295 -0.02059337 -0.15778011
-0.08456297 0.10066174 -0.0892363 0.024802621 0.044638433 0.053125072 -0.13151653 -0.10757249
0.0124232285 -0.14761099 0.055770475 0.06710658 -0.0136596 0.2386571 -0.043231085 0.09074907
0.15235658 0.19599725 0.2362857 0.03777997 0.18994886 0.078564994 -0.038574368 0.11077312
0.09901255 -0.19336906 0.018020581 -0.11178092 0.061485317 0.18999614 0.2674382 0.2294628
0.09432846 0.16948706 0.11731738 0.01174013 0.17313993 -0.09888151 0.07212167 0.23181559
-0.16471776 0.17791529 0.15026931 -0.049371343 0.09498268 0.1906619 -0.08154703 0.1143803
0.033975873 0.16787428 -0.0066007343 0.1861751 0.20443971 0.10570578 -0.05023918 -0.0760066
0.03730826 0.118407324 0.09365969 -0.13006932 0.17766486 0.040074073 0.15734206 0.08019458
-0.007218525 -0.017646326 -0.23063335 -0.1697928 -0.214388 -0.09834315 -0.23810734 0.10291499
0.14571808 -0.1835105 0.00848007 0.19161162 0.16755465 0.03578071 0.0052350243 -0.113848105
-0.1289036 0.104984224 -0.03285948 -0.046074923 0.004975856 -0.19212335 -0.18138607 -0.16459963
0.07156589 0.047948487 0.13708921 0.081222996 0.19505315 -0.055451408 -0.19247515 0.00936771
0.15215832 -0.16925204 0.1755526 -0.119795 -0.17933889 0.13794416 -0.024862124 0.18606333
-0.1442471 0.012910815 -0.11929665 0.052191906 0.06259627 -0.15307899 -0.0425891 -0.092329316
-0.10566816 0.04330721 0.045557234 -0.14820018 0.012822208 -0.0076421984 0.048048228 0.13713945
-0.122350186 -0.21963137 -0.12816624 -0.19116865 -0.16635191 -0.07180702 0.049654156 -0.026422232
0.18010679 0.19103661 -0.13467391 0.15463997 0.12882875 0.14837267 -0.15828976 0.2519309
0.18403009 -0.1417771 0.09703771 0.09707828 0.19720541 0.17108083 0.12089829 0.16098316
0.1768206 0.23446812 -0.21056655 -0.026892748 0.17092375 -0.006020595 0.09027197 0.09933767
-0.1995916 -0.07211166 0.106439635 -0.12573034 0.16687763 -0.10860269 0.0011805581 0.009255648
0.056355957 -0.18328135 -0.013415934 -0.026995232 0.13064218 0.20390338 -0.12676708 0.16865867
00000000: 76fa c23c c158 913d 0a8e 0b3e 9469 f6bd
00000010: a851 8b3d 37f7 0dbd 2915 50bc 7df9 3fbd
00000020: eeef e9bd 28b5 633e eea0 583e 352a 783e
00000030: 35fa 5e3e 7487 143e fc12 223e 2a7e 763e
00000040: 7818 b23d d8c2 333c b2d8 a93d a589 503d
00000050: e669 7dbd 6c94 a33d 5a6b 163e a9c1 8abd
00000060: 5c79 3abe b728 a1bc 4bf4 0abe 1f13 5e3e
00000070: 067b 13be e5c0 0f3e ab1d 6d3c e600 363e
00000080: c072 03be f829 393c 7744 dabd 548b aabc
00000090: b875 15bd e846 55be eb56 1bbe c655 1ebe
000000a0: 5844 88be 85ac 47be e9cc 9abe fe5a b3be
000000b0: 0358 a2be 7855 59be 7815 5bbe 2247 18be
000000c0: 0f6b 16bd a049 9d3d 4da4 0f3c 6d67 04bc
000000d0: 5481 053d affc af3c cb77 533e 955e f73b
000000e0: f091 f03d d29b 3e3e b6a4 43bd 1557 2cbe
000000f0: 7f26 493d 4a8b 30bd 9ced 523d 274a 333c
00000100: c300 833d d609 4fbd caf2 14be 1721 023d
00000110: 450d 04be 8365 be3d 5e21 cdbd 0ead 4dbe
00000120: e9be 033e 8f17 2cbd 8467 8bbd bc34 46bc
00000130: 6557 02be b694 e43d 33ed f43b 6ded e23c
00000140: 405b 7c3d 0724 333e dc87 adbb 20ca 293e
00000150: d781 6e3d fbb1 29bd 6db3 a8bc 1c91 21be
00000160: 5a2f adbd be27 ce3d 85c1 b6bd de2e cb3c
00000170: cad6 363d ad99 593d 45ac 06be f74e dcbd
00000180: cc8a 4b3c 5627 17be 956f 643d 2d6f 893d
00000190: 84cc 5fbc 8762 743e 1413 31bd a6da b93d
000001a0: 5d03 1c3e 81b3 483e e1f4 713e 2bbf 1a3d
000001b0: f481 423e afe6 a03d 2800 1ebd 04dd e23d
000001c0: 18c7 ca3d 8a02 46be e69f 933c 65ed e4bd
000001d0: 07d8 7b3d 598e 423e a9ed 883e 4cf8 6a3e
000001e0: 482f c13d 048e 2d3e 1844 f03d ad59 403c
000001f0: 984b 313e 6482 cabd 87b4 933d 1161 6d3e
00000200: c6ab 28be 6d2f 363e 33e0 193e 9b39 4abd
00000210: 4886 c23d e03c 433e 2102 a7bd 3840 ea3d
00000220: 492a 0b3d 3ce7 2b3e f94a d8bb afa4 3e3e
00000230: a558 513e 467c d83d 99c7 4dbd 59a9 9bbd
00000240: 8cd0 183d 8a7f f23d a7d0 bf3d e430 05be
00000250: c7ed 353e b624 243d 471e 213e 0e3d a43d
00000260: 6089 ecbb 078f 90bc 262b 6cbe 2ade 2dbe
00000270: 8788 5bbe 2268 c9bd 69d2 73be 18c5 d23d
00000280: 1f37 153e 2dea 3bbe feef 0a3c d635 443e
00000290: 7293 2b3e cb8e 123d 918a ab3b 3229 e9bd
000002a0: 4eff 03be f801 d73d a997 06bd 0fb9 3cbd
000002b0: 810c a33b fcbb 44be 45bd 39be ce8c 28be
000002c0: 2391 923d a265 443d 1d61 0c3e 3e58 a63d
000002d0: 03bc 473e 0421 63bd 3518 45be 067b 193c
000002e0: 64cf 1b3e 6850 2dbe 10c4 333e 1557 f5bd
000002f0: 9da4 37be 3c41 0d3e a7ab cbbc 6387 3e3e
00000300: 83b5 13be e287 533c cd51 f4bd 2ec7 553d
00000310: 7932 803d bdc0 1cbe e871 2ebd 2717 bdbd
00000320: 8c68 d8bd e762 313d 399a 3a3d cac1 17be
00000330: 3d14 523c 686b fabb 38ce 443d 496e 0c3e
00000340: bc92 fabd 0ce7 60be 033e 03be b7c1 43be
00000350: 2858 2abe 8f0f 93bd 2862 4b3d 7073 d8bc
00000360: ea6d 383e 1a9f 433e f5e7 09be f159 1e3e
00000370: afeb 033e 01ef 173e b616 22be 16fd 803e
00000380: 6272 3c3e 042e 11be b5bb c63d fad0 c63d
00000390: 37f0 493e d02f 2f3e 8699 f73d c5d8 243e
000003a0: 7610 353e 6918 703e c29e 57be 2e4e dcbc
000003b0: a306 2f3e 6948 c5bb 83e0 b83d 8c71 cb3d
000003c0: be61 4cbe 47af 93bd 06fd d93d 74bf 00be
000003d0: f8e1 2a3e 166b debd f5bc 9a3a 00a5 173c
000003e0: 81d5 663d 1bae 3bbe 81ce 5bbc 1b25 ddbc
000003f0: 10c7 053e 0ccc 503e 3bcf 01be dcb4 2c3e

features.0.bias f4 [32]
0.0005148051 -0.13126366 0.17107324 0.0042373175 0.06447216 0.07033913 0.043875348 -0.18192703
0.2073924 -0.0004184151 0.110529296 -0.0396702 -0.02853395 0.051008932 -0.038159706 -0.029500429
-0.099971615 -0.10503695 -0.11733634 -0.056365065 -0.12975474 0.07993139 0.12138025 -0.10285868
0.0016058527 0.1969146 0.013939462 -0.02295037 0.12923235 -0.12885262 0.08986133 0.21316324
00000000: fcf3 063a fb69 06be d32d 2f3e 32d9 8a3b
00000010: fb09 843d f60d 903d a3b6 333d 144b 3abe
00000020: ac5e 543e b95e dbb9 2f5d e23d 387d 22bd
00000030: 08c0 e9bc beee 503d 5a4d 1cbd e2aa f1bc
00000040: ebbd ccbd 9d1d d7bd 094e f0bd 0edf 66bd
00000050: 6dde 04be 12b3 a33d 3596 f83d 92a7 d2bd
00000060: 7a7b d23a fba3 493e 5762 643c 6a02 bcbc
00000070: 7c55 043e f1f1 03be 3809 b83d 7747 5a3e

features.2.weight f4 [32, 32, 3, 3]
0.028387139 0.037633203 -0.02856561 0.006927762 -0.021099357 -0.05500121 0.02125614 -0.061823912
-0.08852513 0.055573445 0.015075797 0.038548533 0.034351744 0.06788296 0.11671644 0.1244831
0.09393117 0.09446295 0.056643523 -0.006484625 0.019435506 0.07760233 0.020690383 0.16600311
0.06817724 0.08403466 0.18157215 -0.004368181 -0.0437667 -0.036664527 0.003350435 0.00057509885
-0.02573523 -0.0071564917 0.0201304 -0.016479192 -0.047499098 0.034555096 -0.00093929435 -0.018517213
-0.0058860956 0.033595618 -0.015682038 0.018650414 0.027791454 0.030777317 -0.030326536 0.07149236
0.065627225 -0.029704984 0.007771851 0.030294867 -0.0025247543 -0.013442345 -0.015074388 0.06460602
0.084832005 0.035120897 0.024026427 0.07848021 0.102442965 0.07770249 0.012408549 -0.011303222
0.035297837 0.0252005 -0.03823763 0.060843274 0.0011022653 -0.018712379 0.009873652 0.022617526
0.044364467 -0.010506261 -0.030938547 0.035858 -0.029047925 -0.051272895 -0.07077734 -0.033462696
-0.0492414 -0.030940749 -0.0153045645 -0.06457172 0.05023114 -0.048692107 0.00770997 -0.0027462589
0.018128317 0.030661464 -0.026108429 0.0627755 0.062385473 0.057229314 0.08642931 -0.010993909
0.022717988 0.04205801 0.005411489 -0.030340176 -0.02770949 0.04666581 -0.035358954 -0.012275638
-0.030074654 -0.028276438 -0.02954927 -0.008099274 0.039564982 -0.031044623 -0.045270883 -0.008708436
0.050965395 0.015264066 0.004831935 0.039824396 0.051505648 -0.051343694 -0.049646858 -0.084933355
-0.026267894 -0.049192082 -0.039717108 -0.00027214628 -0.022785934 -0.011643156 -0.08659047 -0.014715883
-0.03953708 -0.04824386 0.024113487 -0.027523592 -0.029105183 0.048978988 -0.029555304 0.0005840793
-0.057348058 -0.10878453 0.003589364 -0.03570207 -0.07285219 -0.02056691 -0.06712038 -0.0956391
0.008653349 -0.022287253 -0.01886508 -0.0408973 0.020510416 0.011281756 0.048874084 0.019504264
0.020743484 0.035677984 -0.010068036 0.08167813 0.007467103 -0.036593217 0.05691601 -0.052765105
-0.08987646 -0.08638973 0.011595164 -0.056109585 3.4523597e-05 -0.030228112 0.00085359835 -0.033617374
0.055292282 0.015747454 0.07522986 0.014788848 0.03450699 0.03889374 0.06310674 0.09850523
0.04821321 0.023055859 0.03815426 0.11057819 0.017024487 0.02902925 0.016352009 -0.01442322
0.018260557 0.017356321 -0.05081687 0.02151494 0.0033523869 -0.07747725 -0.013187823 0.059340205
0.051625725 0.031928904 0.025001492 -0.012135481 -0.022326475 0.019269146 -0.06799709 0.012535736
-0.039733805 -0.033400994 -0.04471528 0.030382633 -0.060783114 0.008755911 -0.017846739 0.028150333
0.03773245 0.037567716 0.009265669 -0.036634114 -0.0036584637 0.0012722068 0.055166908 0.049306717
-0.028518155 -0.010629494 0.053287905 0.00012895334 0.04746722 -0.004907721 0.020827696 0.00887879
0.10309234 0.018973233 -0.061468456 -0.017175691 -0.02523485 -0.012504939 -0.004824089 0.026116176
0.00079502625 -0.00094745593 0.029186137 0.008047449 -0.0487541 0.015645867 -0.0027129932 -0.025531258
-0.0032961236 -0.017466146 -0.07032592 -0.0031158521 0.097745426 0.032871734 0.018819623 0.09633935
0.107525885 0.060220312 0.12169477 0.0766145 0.0019229788 -0.069240294 -0.040860713 -0.012727844
00000000: 258c e83c 4625 1a3d 6d02 eabc 4802 e33b
00000010: 8fd8 acbc f348 61bd 5b21 ae3c 123b 7dbd
00000020: aa4c b5bd fba0 633d 7a00 773c 11e5 1d3d
00000030: 6ab4 0c3d 3906 8b3d 0709 ef3d fff0 fe3d
00000040: fc5e c03d cb75 c13d 0a03 683d fa7c d4bb
00000050: 3637 9f3c f8ed 9e3d e17e a93c b8fc 293e
00000060: 82a0 8b3d 5d1a ac3d 0dee 393e f522 8fbb
00000070: b644 33bd 8b2d 16bd f992 5b3b 3bc2 163a
00000080: b0d2 d2bc 0181 eabb 82e8 a43c 5fff 86bc
00000090: 6a8e 42bd a589 0d3d fa3a 76ba 69b1 97bc
000000a0: 26e0 c0bb 8f9b 093d 9e77 80bc c1c8 983c
000000b0: e7aa e33c b620 fc3c 5b6f f8bc 966a 923d
000000c0: 9167 863d de57 f3bc 03ab fe3b f12c f83c
000000d0: 5976 25bb 483d 5cbc 91fa 76bc 2950 843d
000000e0: 67bc ad3d eeda 0f3d 12d3 c43c 3bba a03d
000000f0: 9ecd d13d 7c22 9f3d 3a4d 4b3c 2631 39bc
00000100: 7794 103d 4771 ce3c 109f 1cbd cc36 793d
00000110: e379 903a b44a 99bc 19c5 213c 6448 b93c
00000120: 84b7 353d 7422 2cbc d672 fdbc d7df 123d
00000130: eaf5 edbc 8703 52bd b6f3 90bd 2e10 09bd
00000140: 5ab1 49bd 7477 fdbc ffbf 7abc 2e3e 84bd
00000150: 2bbf 4d3d 6071 47bd eba3 fc3b 94fa 33bb
00000160: d681 943c c02d fb3c 58e1 d5bc 7190 803d
00000170: e987 7f3d 4969 6a3d da01 b13d cc1f 34bc
00000180: 131b ba3c 0545 2c3d dc52 b13b f68b f8bc
00000190: 03ff e2bc a624 3f3d 8dd4 10bd c21f 49bc
000001a0: 1f5f f6bc fda3 e7bc 5011 f2bc d1b2 04bc
000001b0: e40e 223d 4b51 febc f66d 39bd d4ad 0ebc
000001c0: 17c1 503d 2216 7a3c 3555 9e3b e81e 233d
000001d0: 96f7 523d c44d 52bd 815a 4bbd 8af1 adbd
000001e0: c42f d7bc a37d 49bd 68ae 22bd dbae 8eb9
000001f0: 91a9 babc f0c2 3ebc 5856 b1bd e31a 71bc
00000200: a2f1 21bd 5b9b 45bd a689 c53c 2879 e1bc
00000210: fe6d eebc 319e 483d f71d f2bc e61c 193a
00000220: cce5 6abd 6cca debd 893b 6b3b 553c 12bd
00000230: 8733 95bd f07b a8bc 6976 89bd 6fde c3bd
00000240: c7c6 0d3c c293 b6bc f18a 9abc ed83 27bd
00000250: 7605 a83c 1dd7 383c 3130 483d 68c7 9f3c
00000260: 3dee a93c 1423 123d 67f4 24bc dd46 a73d
00000270: 9aae f43b c5e2 15bd c320 693d 3920 58bd
00000280: 2611 b8bd 19ed b0bd a5f9 3d3c 2ad3 65bd
00000290: 6ecd 1038 f2a0 f7bc 04c4 5f3a 5fb2 09bd
000002a0: 297a 623d ce00 813c 1d12 9a3d ed4c 723c
000002b0: 3457 0d3d 0b4f 1f3d 1b3e 813d 1cbd c93d
000002c0: 377b 453d a4df bc3c a447 1c3d d176 e23d
000002d0: f076 8b3c c0ce ed3c a6f4 853c 5f4f 6cbc
000002e0: 2a97 953c d82e 8e3c 5a25 50bd 1940 b03c
000002f0: b8b3 5b3b 64ac 9ebd bd11 58bc b70e 733d
00000300: 7f75 533d e2c7 023d eecf cc3c e6d3 46bc
00000310: 03e6 b6bc 54da 9d3c 0f42 8bbd b062 4d3c
00000320: eabf 22bd 7bcf 08bd 5f27 37bd 00e5 f83c
00000330: b7f7 78bd f474 0f3c 5333 92bc 879b e63c
00000340: 578d 1a3d 9be0 193d 08cf 173c a70d 16bd
00000350: d6c2 6fbb 2dc0 a63a b2f6 613d d7f5 493d
00000360: e89e e9bc 5427 2ebc 6b44 5a3d a637 0739
00000370: fd6c 423d f3d0 a0bb d89e aa3c 5878 113c
00000380: 1422 d33d c16d 9b3c 59c6 7bbd 09b4 8cbc
00000390: 51b9 cebc 84e1 4cbc 6413 9ebb 97f1 d53c
000003a0: 4f69 503a b15e 78ba c417 ef3c 73d9 033c
000003b0: 61b2 47bd c32b 803c 79cc 31bb ee26 d1bc
000003c0: c703 58bb 2a15 8fbc 0907 90bd 5333 4cbb
000003d0: c12e c83d 83a4 063d 9c2b 9a3c 914d c53d
000003e0: 8836 dc3d 93a9 763d 1c3b f93d 10e8 9c3d
000003f0: 760c fc3a dbcd 8dbd 905d 27bd 7288 50bc

features.2.bias f4 [32]
-0.048005804 0.0664365 0.02727713 0.057437986 0.020390373 0.076134145 0.05689001 -0.03898403
0.005229012 0.08540847 0.007591369 -0.03341159 -0.04089322 0.035928972 0.05819598 -0.0107710725
0.030663766 -0.016209485 0.024597034 -0.024971534 -0.022932261 0.011694646 -0.038105205 0.081366
0.05845299 0.033565417 -0.04880173 -0.029084802 -0.03811877 -0.030464536 0.025757523 0.043615505
00000000: bca1 44bd dc0f 883d 4a74 df3c 1844 6b3d
00000010: b609 a73c 38ec 9b3d 8005 693d b8ad 1fbd
00000020: 2258 ab3b a3ea ae3d 05c1 f83b 97da 08bd
00000030: a67f 27bd 422a 133d e85e 6e3d 2779 30bc
00000040: 9432 fb3c c1c9 84bc b87f c93c 1a91 ccbc
00000050: 70dc bbbc e79a 3f3c 3414 1cbd 38a3 a63d
00000060: 676c 6f3d e47b 093d 53e4 47bd 4043 eebc
00000070: 6d22 1cbd c390 f9bc 7101 d33c 2ca6 323d

features.5.weight f4 [64, 32, 3, 3]
0.014699325 0.00014589276 0.021388171 0.049606077 -0.024179308 0.04170579 0.024987439 -0.029139465
-0.016716817 0.06539923 0.09575033 0.036779568 0.030696385 0.09322398 0.07552526 0.06573018
0.009825006 -0.026854025 -0.035459723 0.031522002 -0.036970828 -0.060840603 -0.066739626 -0.0044565103
-0.070362985 0.02803191 0.03323852 -0.13488628 0.0025578886 0.003060886 -0.08521825 -0.009626345
0.036248013 -0.016332088 0.021696744 -0.018600885 -0.024249548 0.08888153 -0.0377713 0.050964635
-0.023897644 0.017291667 -0.034214873 0.03162246 0.04616717 0.039799426 0.041230097 -0.021402897
0.03621517 -0.0127993515 -0.0019937984 -0.05630293 -0.014341549 0.06162888 0.07641504 0.02828584
0.0062450804 0.036322966 0.039246596 -0.034876667 0.022572473 0.039513294 0.025833543 0.011399984
0.047104813 0.018693805 -0.05750947 -0.003550659 -0.06796558 0.028051972 -0.019239232 0.028915567
0.07091614 -0.0051320284 -0.026923 0.010143938 0.055026717 0.06946031 0.014908586 -0.036951963
-0.0415715 -0.040565744 -0.09566865 0.016993996 -0.03617198 0.004396388 -0.054016214 0.05437085
-0.042475738 -0.06317137 0.059886396 -0.0423297 0.034158245 -0.019558655 0.0027356462 -0.0021647662
-0.042425245 0.01426981 0.0020202224 -0.054982614 -0.123681486 -0.100818686 0.006008906 -0.11509932
-0.11144708 0.019210767 -0.04655999 -0.04501393 -0.055638433 -0.07858316 0.036508787 0.029364886
0.010119234 -0.0023460477 0.05512859 -0.040451817 0.02738489 -0.06522495 0.015383976 -0.04402538
-0.03647837 -0.041514736 0.003414693 -0.03508663 -0.013349952 -0.014434827 0.014337536 0.056256548
-0.006285011 -0.0035407126 0.0023785483 0.03452437 -0.0639219 -0.06336588 0.028648598 0.047743276
0.05479775 0.011581682 -0.0142829865 -0.028758856 0.032368395 0.027940277 0.014530039 0.059599545
0.0012705799 -0.05533264 -0.04417754 -0.03544759 0.001807475 -0.03972954 -0.014490133 0.010921097
-0.0645682 0.07476737 -0.011697196 0.0005193773 0.050950874 -0.06298387 -0.04592612 0.01717602
-0.015548643 0.07255066 0.043397076 0.078216344 0.0466653 0.016542312 0.0664444 0.0035625352
-0.045207597 0.019635083 0.04815903 -0.012922038 -0.050708473 0.03152413 0.03314071 -0.05384821
0.009944716 0.030211119 0.02933107 0.0037469666 -0.04458553 -0.0723457 -0.005082369 -0.046402108
-0.026589943 0.01962488 -0.03670391 -0.026406175 -0.04780531 -0.011222614 -0.011053837 -0.0057911393
0.032576144 -0.012509825 -0.08031666 0.040780813 0.048352484 -0.04383174 -0.06726171 0.018898083
0.06657874 -0.019682452 -0.00889791 -0.01559836 0.021729637 -0.036686722 0.013521866 0.0051298896
0.022340752 0.03450118 -0.0056323274 0.042379 0.030112535 -0.038587406 0.041353237 0.031236332
0.073945194 0.03320774 0.025826102 -0.0043238397 0.08600979 0.048248556 0.021766659 0.04761869
0.043400478 -0.05331766 -0.07722535 -0.05199589 -0.07953904 -0.0060602184 -0.08060409 0.025278741
-0.04469515 0.028422961 -0.060280308 -0.061402485 0.013674245 -0.022086019 -0.04672409 -0.015766066
0.014135731 0.026212424 0.028689492 0.08238113 -0.008593847 0.025226828 -0.027149385 0.07104798
-0.045154627 -0.019635903 0.018599886 -0.032747015 -0.06151106 -0.014484364 0.012742491 0.030967714
00000000: 70d5 703c cafa 1839 3f36 af3c be2f 4b3d
00000010: af13 c6bc b1d3 2a3d 75b2 cc3c e3b5 eebc
00000020: b5f1 88bc 08f0 853d c018 c43d 2ca6 163d
00000030: fc76 fb3c 37ec be3d fdac 9a3d 8b9d 863d
00000040: 10f9 203c f9fc dbbc 373e 11bd 371d 013d
00000050: b96e 17bd ff33 79bd c9ae 88bd eb07 92bb
00000060: 781a 90bd 2da3 e53c 1d25 083d a11f 0abe
00000070: 40a2 273b 2599 483b e886 aebd d1b7 1dbc
00000080: cc78 143d dfca 85bc 5fbd b13c e260 98bc
00000090: fda6 c6bc 8507 b63d 14b6 1abd 4bc0 503d
000000a0: fec4 c3bc 41a7 8d3c e524 0cbd 8d86 013d
000000b0: c919 3d3d b904 233d e4e0 283d 2155 afbc
000000c0: 5c56 143d 5fb4 51bc 63aa 02bb e79d 66bd
000000d0: d1f8 6abc 916e 7c3d 7d7f 9c3d b5b7 e73c
000000e0: 88a3 cc3b 64c7 143d 0ac1 203d d6da 0ebd
000000f0: e8e9 b83c b1d8 213d dea0 d33c 00c7 3a3c
00000100: faf0 403d c023 993c 0d8f 6bbd 2cb2 68bb
00000110: 8a31 8bbd 40cd e53c 989b 9dbc 57e0 ec3c
00000120: 7b3c 913d 932a a8bb a08d dcbc c232 263c
00000130: b263 613d 3541 8e3d 2443 743c f15a 17bd
00000140: e146 2abd 4428 26bd eded c3bd fe36 8b3c
00000150: 1229 14bd 930f 903b 1b40 5dbd f8b3 5e3d
00000160: 0afb 2dbd fe5f 81bd 704b 753d e861 2dbd
00000170: 84e9 0b3d 7939 a0bc 8748 333b c0de 0dbb
00000180: 18c6 2dbd eccb 693c b565 043b 7335 61bd
00000190: b84c fdbd 077a cebd 5be6 c43b 31b9 ebbd
000001a0: 5e3e e4bd e65f 9d3c b0b5 3ebd 8760 38bd
000001b0: 20e5 63bd 35f0 a0bd 3d8a 153d a18e f03c
000001c0: 25cb 253c 26c0 19bb 84ce 613d ceb0 25bd
000001d0: 4756 e03c a994 85bd 120d 7c3c f553 34bd
000001e0: 586a 15bd 5b0b 2abd 0bc9 5f3b 00b7 0fbd
000001f0: c2b9 5abc 0d80 6cbc fce7 6a3c 446d 663d
00000200: 7ef2 cdbb 4d0b 68bb 6be1 1b3b 6d69 0d3d
00000210: 7ce9 82bd f8c5 81bd 77b0 ea3c 748e 433d
00000220: 9b73 603d 18c1 3d3c 3003 6abc b197 ebbc
00000230: b994 043d 02e3 e43c 670f 6e3c a71e 743d
00000240: 9689 a63a 7aa4 62bd 82f3 34bd 7e31 11bd
00000250: cce8 ec3a 71bb 22bd 0668 6dbc 67ee 323c
00000260: 553c 84bd a31f 993d 99a5 3fbc d226 083a
00000270: ddb1 503d b0fd 80bd 071d 3cbd bab4 8c3c
00000280: bcbf 7ebc 7195 943d 22c1 313d e42f a03d
00000290: 1d24 3f3d be83 873c 0014 883d 6c79 693b
000002a0: 9a2b 39bd c1d9 a03c 6742 453d f5b6 53bc
000002b0: b0b3 4fbd 721f 013d 8ebe 073d f18f 5cbd
000002c0: 29ef 223c 4f7d f73c b647 f03c ab8f 753b
000002d0: 519f 36bd fb29 94bd 008a a6bb 2310 3ebd
000002e0: 27d3 d9bc 5bc4 a03c d756 16bd c351 d8bc
000002f0: 80cf 43bd 0edf 37bc 271b 35bc 99c3 bdbb
00000300: 906e 053d 02f6 4cbc 107d a4bd c809 273d
00000310: 410d 463d e988 33bd 82c0 89bd 27d0 9a3c
00000320: 6f5a 883d 183d a1bc 8ac8 11bc 4490 7fbc
00000330: 5a02 b23c d144 16bd d18a 5d3c a218 a83b
00000340: f403 b73c 1c51 0d3d 638f b8bb 9a95 2d3d
00000350: 90ae f63c d40d 1ebd 0362 293d 56e3 ff3c
00000360: 9470 973d d704 083d 4391 d33c ffae 8dbb
00000370: e725 b03d 47a0 453d fe4f b23c d10b 433d
00000380: b3c4 313d 9e63 5abd 5328 9ebd a4f9 54bd
00000390: 5de5 a2bd cc94 c6bb c213 a5bd 5d15 cf3c
000003a0: 4312 37bd 45d7 e83c 7ce8 76bd 2c81 7bbd
000003b0: f109 603c bded b4bc c261 3fbd d627 81bc
000003c0: 8e99 673c 70bb d63c 3a06 eb3c 70b7 a83d
000003d0: 35cd 0cbc 7ea8 ce3c 6368 debc 9a81 913d
000003e0: 0ff4 38bd 79db a0bc ca5e 983c bc21 06bd
000003f0: 05f3 7bbd d34f 6dbc e2c5 503c 01b0 fd3c

features.5.bias f4 [64]
-0.02141905 -0.039650336 0.04819313 0.09467 0.008120681 0.053587988 0.044096198 -0.03993639
4.90838e-40 -0.011985091 -0.024496384 0.03609975 -0.031200469 -0.05072962 -0.0014836655 0.00023900876
0.0005723224 0.05624593 0.059987195 -0.0475047 0.010059099 -0.0049979007 -0.005866754 0.042673495
0.028145144 0.06377365 -0.052995313 0.032460954 -0.0011525098 -0.04469304 -0.064540446 0.05306902
-0.03632817 -0.00736536 0.023892093 -0.042908844 0.048159618 -0.0028485383 -0.01901459 0.0032736594
-0.029960467 0.03879399 0.024662988 -0.04455815 0.015998911 0.06334664 -0.007852766 -0.0013869823
0.059092086 -0.037882466 0.06582953 -0.073962 0.037519608 -0.07027578 0.03525135 0.041460827
0.056702465 0.017161053 0.033730954 0.027164401 -0.03517701 0.060166556 -0.05161952 -0.030705405
00000000: 0177 afbc 6468 22bd 2966 453d 58e2 c13d
00000010: 9b0c 053c 147f 5b3d 379e 343d 5794 23bd
00000020: 4258 0500 1d5d 44bc a4ac c8bc 55dd 133d
00000030: 2098 ffbc ddc9 4fbd 8e77 c2ba 6d9e 7a39
00000040: e807 163a 2262 663d 22b5 753d 4a94 42bd
00000050: ebce 243c 6ec5 a3bb e63d c0bb 67ca 2e3d
00000060: a590 e63c c29b 823d 9d11 59bd c7f5 043d
00000070: d00f 97ba 0d10 37bd c82d 84bd e75e 593d
00000080: d9cc 14bd 1e59 f1bb 5ab9 c33c 2fc1 2fbd
00000090: 0543 453d 8bae 3abb 7cc4 9bbc e48a 563b
000000a0: a76f f5bc 72e6 1e3d 090a ca3c 9b82 36bd
000000b0: 2610 833c e2bb 813d e3a8 00bc 67cb b5ba
000000c0: 8b0a 723d a52a 1bbd a2d1 863d 6479 97bd
000000d0: 29ae 193d c0ec 8fbd b863 103d d4d2 293d
000000e0: d840 683d 5695 8c3c 7829 0a3d e187 de3c
000000f0: c515 10bd 3571 763d fd6e 53bd e789 fbbc

features.7.weight f4 [64, 64, 3, 3]
0.035096217 0.007626514 0.00829999 -0.009535855 0.036513854 0.015522609 0.03337635 0.06792712
-0.017176257 0.03235289 -0.069358185 -0.027662642 0.03190278 -0.04497844 -0.027321883 -0.054927774
-0.0074830605 0.010730258 0.031404022 0.036431726 0.010704357 0.037268125 0.0004740185 0.032037035
0.028495813 -0.03920138 -0.030470066 -0.01918967 -0.056565423 0.030833883 0.0016095386 -0.024877463
0.0030464907 -0.018342944 -0.03518275 0.022081144 4.5658762e-05 0.003745603 -0.04968501 0.015073884
-0.022556188 -0.08602097 -0.022351189 -0.043283667 -0.06608029 0.016800137 -0.03164264 -0.011740151
0.012289698 0.024873465 -0.055293735 0.015152926 -0.026797827 -0.08001854 0.0030632871 -0.027874464
-0.0051942705 0.020876313 -0.031480808 -0.030268172 0.034286123 -0.045894813 -0.05307297 -0.026133217
-0.026572593 0.050425034 -0.026442235 -0.023778858 0.07638917 -0.040541213 -0.019509094 0.061573014
-4.9046e-40 -4.90593e-40 -4.90473e-40 -4.9059e-40 4.9047e-40 4.90537e-40 -4.90578e-40 4.90485e-40
4.9057e-40 -0.003590401 -0.00839884 -0.0023349496 -0.008875405 -0.013091639 0.002184907 -0.0019415431
-0.03408415 -0.06751943 0.0066749556 0.0059429337 0.016591264 0.023755005 0.007881745 0.04309236
0.024705041 0.03478226 -0.020862266 0.052084446 0.014249803 0.00342812 -0.036604367 -0.047016148
0.012802061 -0.028442271 0.021634433 0.03757658 -0.0008300496 0.008820845 0.022880124 -0.022731502
-0.047932375 -0.059092343 -0.010446174 -0.058388192 -0.020082999 0.023201747 -0.031062154 -0.05100395
-0.015090755 -0.018893745 -0.013776611 0.018284079 0.0022699044 -0.068649545 0.039669402 0.0049778586
-0.083745204 0.02471222 -0.058697183 -0.05980515 -0.009768883 0.01023096 -0.073767684 -0.00087439053
-0.00056640676 -0.00058838446 -0.0006739805 -0.00042641757 -0.0005358509 -0.00044086657 -0.00039231803 -0.00047451747
-0.0005002304 -0.0007264504 -5.815109e-05 -0.0006292399 -0.0005476515 -0.00024245368 -0.00037977833 -0.00052677037
-4.054917e-05 -0.0054037943 0.062743835 0.030493172 0.038185973 0.034333136 -0.012555136 0.03364451
0.01355995 -0.02696545 -0.0074051623 0.007778558 0.033443015 0.018467527 -0.024241265 0.058585472
0.03882873 0.052675735 0.043251466 0.008861366 -0.0047889864 -0.053255484 0.023687607 -0.013304152
-0.012386288 0.032500766 0.03222913 -0.011274128 0.010266313 -0.024072856 -0.0012668355 -0.007574185
-0.027616112 -0.029755203 -0.028979504 -0.0019629342 -0.04760016 -0.008039565 0.0012921637 0.014309269
0.0049169646 0.0021820336 -0.01692527 0.018859474 0.026931789 -0.0031634348 0.01698582 0.04371532
-0.045416083 -0.034670494 -0.020532073 -0.06900221 0.02501972 0.009154131 -0.07424054 -0.028214568
0.0571243 -0.0121259 -0.05916596 0.011677507 -0.055930626 0.0052189766 -0.032744974 -0.02737091
0.047826707 0.040499587 0.009267708 0.056546092 0.05802892 -0.030588942 -0.01130886 -0.015142304
0.0054969313 -0.0056569143 0.012029915 -0.01152905 0.010787615 0.01207418 -0.03679036 -0.0014878468
-0.00799801 -0.023019036 0.007758239 0.0026824847 -0.007866083 0.030319601 -0.030103486 -0.041594237
0.004861795 -0.067788035 -0.09166431 -0.017814519 -0.035500627 -0.08629219 -0.013371634 0.010304357
-0.08736281 0.013598107 -0.039774433 -0.014020089 0.020673491 0.011660421 -0.044652387 0.0024960898
00000000: 0dc1 0f3d d6e7 f93b aefc 073c 463c 1cbc
00000010: 8d8f 153d 8b52 7e3c a4b5 083d 601d 8b3d
00000020: 39b5 8cbc 7784 043d aa0b 8ebd c49c e2bc
00000030: 7dac 023d 503b 38bd 24d2 dfbc f2fb 60bd
00000040: 7634 f5bb f7cd 2f3c 81a1 003d 6f39 153d
00000050: 5461 2f3c 76a6 183d b085 f839 4439 033d
00000060: 0d70 e93c a091 20bd 5c9c f9bc a833 9dbc
00000070: 25b1 67bd 5797 fc3c 27f7 d23a d2cb cbbc
00000080: a2a7 473b f143 96bc ca1b 10bd 84e3 b43c
00000090: b981 3f38 ca78 753b 8282 4bbd 74f8 763c
000000a0: c1c7 b8bc c32b b0bd d719 b7bc 374a 31bd
000000b0: 1a55 87bd 71a0 893c b69b 01bd c359 40bc
000000c0: bb5a 493c 70c3 cb3c af7b 62bd fa43 783c
000000d0: 1e87 dbbc c3e0 a3bd 6ec1 483b fd58 e4bc
000000e0: b334 aabb cd04 ab3c 05f2 00bd f5f4 f7bc
000000f0: 9b6f 0c3d 33fc 3bbd 0b63 59bd 5415 d6bc
00000100: c4ae d9bc 7b8a 4e3d 639d d8bc e1cb c2bc
00000110: ed71 9c3d 8b0e 26bd 89d1 9fbc fc33 7c3d
00000120: 3457 0580 9357 0580 3d57 0580 9157 0580
00000130: 3b57 0500 6b57 0500 8857 0580 4657 0500
00000140: 8257 0500 ef4c 6bbb 4a9b 09bc f405 19bb
00000150: 266a 11bc 507e 56bc a830 0f3b 607b feba
00000160: d29b 0bbd a047 8abd 96b9 da3b f1bc c23b
00000170: 67ea 873c db99 c23c 6f22 013c 9d81 303d
00000180: 3a62 ca3c d877 0e3d 58e7 aabc 8056 553d
00000190: 0178 693c 4faa 603b 76ee 15bd 0194 40bd
000001a0: bcbf 513c c4ff e8bc b23a b13c e6e9 193d
000001b0: b097 59ba 4e85 103c 196f bb3c 6a37 babc
000001c0: bd54 44bd d00a 72bd 6e26 2bbc 7528 6fbd
000001d0: 1a85 a4bc 9711 be3c 0f76 febc 85e9 50bd
000001e0: 373f 77bc 0ec7 9abc 4bb7 61bc 7ec8 953c
000001f0: adc2 143b 2298 8cbd 627c 223d 4e1d a33b
00000200: 9b82 abbd 4871 ca3c 756c 70bd 3ff6 74bd
00000210: aa0d 20bc c29f 273c 8313 97bd 5b37 65ba
00000220: ea7a 14ba d03d 1aba 11ae 30ba cc90 dfb9
00000230: 5878 0cba 1c24 e7b9 09b0 cdb9 a8c8 f8b9
00000240: e521 03ba 436f 3eba 42e7 73b8 93f3 24ba
00000250: 4590 0fba 2a3b 7eb9 fc1c c7b9 f616 0aba
00000260: 5713 2ab8 5012 b1bb d77f 803d d1cc f93c
00000270: e568 1c3d e7a0 0c3d 0fb4 4dbc d3ce 093d
00000280: 8d2a 5e3c a6e6 dcbc 01a7 f2bb 46e3 fe3b
00000290: 8bfb 083d 3649 973c 9e95 c6bc 52f7 6f3d
000002a0: e00a 1f3d 83c2 573d 7328 313d 432f 113c
000002b0: eeec 9cbb 6c22 5abd 830c c23c a8f9 59bc
000002c0: dbef 4abc 861f 053d b102 043d 1fb7 38bc
000002d0: 0a34 283c 7034 c5bc f20b a6ba de30 f8bb
000002e0: 2f3b e2bc 2fc1 f3bc 6d66 edbc 92a4 00bb
000002f0: 63f8 42bd 61b8 03bc d25d a93a 6d71 6a3c
00000300: 7d1e a13b 7300 0f3b dda6 8abc 2f7f 9a3c
00000310: 0ea0 dc3c a151 4fbb d925 8b3c d60e 333d
00000320: 3706 3abd a602 0ebd e132 a8bc 0851 8dbd
00000330: 28f6 cc3c 35fb 153c 6d0b 98bd 3d22 e7bc
00000340: 2cfb 693d b6ab 46bc 0158 72bd 0453 3f3c
00000350: 8317 65bd f303 ab3b 981f 06bd f538 e0bc
00000360: f0e5 433d e5e2 253d 96d7 173c e09c 673d
00000370: bcaf 6d3d a995 fabc cc48 39bc 6d17 78bc
00000380: 9a1f b43b a35d b9bb 1f19 453c 57e4 3cbc
00000390: 89be 303c c8d2 453c 7db1 16bd db03 c3ba
000003a0: 160a 03bc 6b92 bcbc d338 fe3b a0cc 2f3b
000003b0: bee0 00bc d060 f83c 969b f6bc b85e 2abd
000003c0: b14f 9f3b 74d4 8abd 7fba bbbd c1ef 91bc
000003d0: 1b69 11bd f6b9 b0bd b314 5bbc 9bd3 283c
000003e0: 46eb b2bd 98ca 5e3c 84ea 22bd 84b4 65bc
000003f0: 745b a93c 5a0b 3f3c 6ce5 36bd 7095 233b

features.7.bias f4 [64]
0.02433017 0.0005130386 0.03877087 -0.013925293 0.03177273 -0.03396128 -5.341392e-06 -0.017855728
0.00015269646 -4.8311527e-10 0.04061156 -2.3374664e-21 0.018634735 -0.023170268 -0.01340726 0.052839153
0.045430955 0.0016764688 0.013231554 -0.0014689579 -0.02774701 0.03524457 -0.003671684 -7.559995e-05
-0.01161576 1.4045255e-05 0.015882283 -0.0064008054 0.005458731 -1.3428103e-06 0.042845514 0.016514827
-0.019731775 0.0106098475 0.010754912 0.0223052 -0.017571814 0.033275254 -0.016486375 0.008338698
0.055228733 0.02901073 -0.021190356 -0.012195468 -0.038064074 0.014548042 -9.659326e-28 -0.014696467
0.05101689 -0.059934415 0.004960903 -1.1083167e-16 -0.0019205824 0.043165267 -0.011478767 -7.30331e-12
-0.016401738 -0.03973564 -0.021597283 -0.044027317 -3.0729753e-12 0.005894836 -0.04699716 0.056561753
00000000: 1150 c73c 707d 063a 34ce 1e3d ea26 64bc
00000010: 1f24 023d fc1a 0bbd 353a b3b6 2d46 92bc
00000020: 251d 2039 37cc 04b0 4f58 263d 2d9d 309d
00000030: dfa7 983c 93cf bdbc 20aa 5bbc de6d 583d
00000040: cf15 3a3d f5bc db3a 29c9 583c 0c8a c0ba
00000050: b34d e3bc 9c5c 103d a3a0 70bb 6a8b 9eb8
00000060: 0750 3ebc e9a3 6b37 901b 823c d9bd d1bb
00000070: 28df b23b 9c3a b4b5 c77e 2f3d 1a4a 873c
00000080: 88a4 a1bc edd4 2d3c 5f35 303c 65b9 b63c
00000090: c4f2 8fbc a24b 083d 6f0e 87bc 099f 083c
000000a0: 8637 623d e9a7 ed3c 6697 adbc 80cf 47bc
000000b0: 13e9 1bbd e95a 6e3c e20e 9992 73c9 70bc
000000c0: 16f7 503d ca7d 75bd 128f a23b 788f ffa4
000000d0: 0dbc fbba 10ce 303d 7011 3cbc 2f7b 00ad
000000e0: f05c 86bc d7c1 22bd c9ec b0bc fd55 34bd
000000f0: cd3d 58ac 7829 c13b 1880 40bd 4cad 673d

features.10.weight f4 [64, 64, 1, 1]
-0.031896424 0.036893234 0.028374638 -0.125493 0.05884056 0.008363226 -0.00020827474 -0.0011318988
0.00013543094 -6.8363425e-07 0.07011054 6.949416e-13 -0.0662632 0.06866644 0.037545763 0.06326287
-0.08556831 3.823506e-06 -0.0015252794 -0.017447108 -0.09183154 0.0777027 0.014523648 0.00026491273
0.100313 8.0397e-05 0.028461525 -0.02978326 0.032739766 -0.00016095059 -0.0075859297 0.0037758753
0.020824365 0.016606968 -0.038426645 -0.024957037 0.07543523 0.08126576 0.07417972 0.024044702
-0.06310945 0.061860908 0.06836644 -0.017267754 0.12132411 -0.19402 3.6431712e-11 0.037013832
-0.11394684 0.051328592 -0.08773855 -1.0974882e-07 0.005675665 -0.09282341 -0.13071823 5.161944e-06
0.10760935 0.057930887 0.12716936 -0.04216188 -5.198485e-07 -0.0036932332 -0.024960205 -0.06937798
-0.12646139 -0.054180525 -0.052147776 0.1306749 -0.1472498 0.03456443 -0.00023540077 0.008206683
3.0558484e-05 9.463339e-09 -0.07327612 -2.372667e-12 -0.021970784 -0.07819128 0.08485716 0.016889999
0.0030285749 2.599991e-10 0.09710728 -0.15401734 0.012695028 0.035290662 -0.075117595 -4.596607e-05
0.05504076 -2.2250355e-05 0.036881495 0.019637492 -0.03275069 -0.00010834249 -0.0019151823 0.0023259246
0.09283627 0.11627347 0.14567314 0.041723788 -0.06984603 -0.07625683 0.033170003 0.046172474
-0.07087203 0.09680427 -0.01451609 0.088133045 0.03494113 0.1130942 2.6743099e-09 -0.13508397
0.019478725 0.11427311 -0.09523492 -9.582957e-09 0.033986367 0.11121405 0.0987586 -2.1312408e-06
0.021512207 -0.111003906 0.023342561 0.11054499 -4.675943e-06 0.08990824 -0.1160648 -0.050068602
0.0077226097 -0.08489841 0.011706416 0.06850921 0.10061961 -0.10175383 0.00012045335 -0.0062330356
-8.810899e-05 6.2974046e-08 4.8124402e-17 6.31563e-14 0.09556816 -0.01000893 0.021891486 0.023441313
-0.041775644 -4.92611e-40 0.08809796 -0.10801033 0.052538384 0.011005293 0.07945166 2.2655618e-06
-0.097847074 4.388107e-05 0.009971293 -0.019075336 -0.046769816 7.538587e-05 -0.09771728 -0.1323221
0.078220055 -0.04226833 0.01966055 0.04699314 0.111962326 0.023844017 -0.084431164 -0.050056383
0.079550624 -0.09908857 -0.035219718 0.112385474 -0.02319326 0.117243074 9.560493e-11 0.032424614
0.09603983 -0.06599301 0.10420716 -1.8083169e-08 -0.022849971 0.07812004 -0.12432849 1.0549196e-06
-0.08965656 0.06341837 0.010127683 0.0709035 -2.705954e-07 0.13713409 -0.02551848 -0.045209125
0.035887923 -0.1430121 0.010315201 0.05392181 -0.1768283 -0.085651055 -0.00039558287 -0.00022990837
0.00031438988 -1.4993995e-07 -0.06663135 2.3052245e-09 0.13180216 0.05610698 0.11587747 0.0050995755
0.0131648 -4.94744e-40 -0.09699224 -0.078760125 0.053900804 0.0028445374 -0.0051939157 2.1641197e-06
0.06985897 1.7055323e-05 0.016403183 -0.05311084 0.006445804 8.285096e-06 -0.059588015 -0.09998691
0.026741415 0.08819954 -0.15239106 0.082750216 -0.02758657 0.054139912 0.08004743 -0.06387735
0.0721341 0.12191495 0.08070073 -0.08374481 -0.05255261 0.062192496 -5.1347737e-10 -0.13433112
-0.0001781399 -0.03244449 -0.0037728532 9.68943e-09 -0.1027531 -0.043789007 -0.103229344 3.3743336e-07
0.073078 0.08398998 0.02311075 -0.04559176 1.5963109e-06 -0.07396348 -0.0595245 -0.13854825
00000000: d3a5 02bd 5c1d 173d ee71 e83c 3d81 00be
00000010: cd02 713d ea05 093c 5364 5ab9 395c 94ba
00000020: 7702 0e39 fd82 37b5 1d96 8f3d d29b 432b
00000030: 00b5 87bd fea0 8c3d 96c9 193d f78f 813d
00000040: 703e afbd ab4b 8036 e2eb c7ba 3ded 8ebc
00000050: 2d12 bcbd 9822 9f3d 98f4 6d3c fce3 8a39
00000060: e770 cd3d d09a a838 2528 e93c 06fc f3bc
00000070: 221a 063d d8c4 28b9 6493 f8bb ad74 773b
00000080: dc97 aa3c 560b 883c 4265 1dbd b372 ccbc
00000090: c97d 9a3d aa6e a63d 89eb 973d 65f9 c43c
000000a0: 873f 81bd dd61 7d3d b403 8c3d 1b75 8dbc
000000b0: c678 f83d 2ead 46be 763a 202e d19b 173d
000000c0: f65c e9bd ee3d 523d 45b0 b3bd 0daf ebb3
000000d0: eefa b93b 331a bebd 00db 05be c334 ad36
000000e0: 4a62 dc3d f048 6d3d af38 023e efb1 2cbd
000000f0: b88b 0bb5 2c0a 72bb 5879 ccbc 0b16 8ebd
00000100: 187f 01be 66ec 5dbd e898 55bd a4cf 053e
00000110: a7c8 16be 6f93 0d3d ead5 76b9 5375 063c
00000120: ec2b 0038 3494 2232 ca11 96bd 2bf6 26ac
00000130: 13fc b3bc c022 a0bd 97c9 ad3d e55c 8a3c
00000140: 0e7b 463b 9fef 8e2f 2ee0 c63d b9b6 1dbe
00000150: cffe 4f3c f18c 103d 41d7 99bd b1cb 40b8
00000160: 6c72 613d 46a6 bab7 0d11 173d cede a03c
00000170: 9625 06bd ee35 e3b8 db06 fbba 8a6e 183b
00000180: f120 be3d c920 ee3d 572b 153e 90e6 2a3d
00000190: 6f0b 8fbd 8a2c 9cbd 45dd 073d 591f 3d3d
000001a0: 5b25 91bd 5141 c63d e5d4 6dbc 197f b43d
000001b0: 6e1e 0f3d ef9d e73d f5c6 3731 7453 0abe
000001c0: d991 9f3c 0508 ea3d 870a c3bd 4aa2 24b2
000001d0: 4a35 0b3d 31c4 e33d f341 ca3d 7006 0fb6
000001e0: 5e3a b03c 0456 e3bd e638 bf3c 6965 e23d
000001f0: 0be6 9cb6 d021 b83d 62b3 edbd bc14 4dbd
00000200: f20d fd3b 38df adbd 44cc 3f3c 8f4e 8c3d
00000210: a711 ce3d 5064 d0bd e69b fc38 7e3e ccbb
00000220: 27c7 b8b8 593c 8733 44ef 5d24 2137 8e29
00000230: 3db9 c33d 7ffc 23bc c655 b33c ff07 c03c
00000240: f01c 2bbd 335d 0580 b46c b43d 8534 ddbd
00000250: 7d32 573d 8b4f 343c 8db7 a23d 0e0a 1836
00000260: 0c64 c8bd f10c 3838 a25e 233c e143 9cbc
00000270: b591 3fbd 7b18 9e38 ff1f c8bd 727f 07be
00000280: d631 a03d 8e21 2dbd 290f a13c e17b 403d
00000290: 814c e53d 8754 c33c 3fea acbd ec07 4dbd
000002a0: 70eb a23d f3ee cabd 8d42 10bd 5b2a e63d
000002b0: cbff bdbc 231d f03d ca3c d22e accf 043d
000002c0: 88b0 c43d 5827 87bd 906a d53d 4f55 9bb2
000002d0: dd2f bbbc 66fd 9f3d ef9f febd c396 8d35
000002e0: dc9d b7bd 7ee1 813d 95ee 253c db35 913d
000002f0: 5946 91b4 e16c 0c3e 220c d1bc 342d 39bd
00000300: 37ff 123d c471 12be 1701 293c 1edd 5c3d
00000310: 7a12 35be d269 afbd 3c66 cfb9 8f13 71b9
00000320: b2d4 a439 2eff 20b4 0476 88bd f069 1e31
00000330: 25f7 063e 6fd0 653d 2b51 ed3d 571a a73b
00000340: 2cb1 573c 2563 0580 dea3 c6bd fd4c a1bd
00000350: 17c7 5c3d 6b6b 3a3b b931 aabb 4b3b 1136
00000360: 3812 8f3d 0712 8f37 f85f 863c c18a 59bd
00000370: 5337 d33b 3700 0b37 9012 74bd f0c5 ccbd
00000380: d010 db3c f6a1 b43d 670c 1cbe f278 a93d
00000390: 3bfd e1bc d0c1 5d3d e8ef a33d 21d2 82bd
000003a0: 0bbb 933d 8cae f93d 6d46 a53d 6682 abbd
000003b0: 6841 57bd 8fbd 7e3d c224 0db0 198e 09be
000003c0: 11cb 3ab9 83e4 04bd f941 77bb 9076 2632
000003d0: 3870 d2bd 1a5c 33bd e869 d3bd 7d28 b534
000003e0: eba9 953d f002 ac3d c152 bd3c 6dbe 3abd
000003f0: d340 d635 2a7a 97bd f6cf 73bd 98df 0dbe

features.10.bias f4 [64]
0.008928707 0.032352746 0.11072707 0.07277909 -0.016431045 -0.01961177 -0.064233094 -0.07005633
-0.044186387 0.04008239 0.0032047885 -0.08561213 0.01107282 0.08759485 0.045226593 0.1335684
0.14715818 -0.06357292 0.12578805 0.05589222 0.020449467 0.10943903 -0.03615166 -0.0023849478
-0.100309245 -0.08137612 0.03164267 0.07224645 0.01393268 0.08038034 0.027048672 -0.041639756
-0.061759047 -0.035485 0.013307032 -0.04578677 0.0731833 -0.00030943748 0.10260333 0.1212947
0.048987165 0.1019764 0.032351535 0.14074405 -0.07498279 0.090930365 0.076692395 0.15336452
-0.087746024 0.036111113 -0.10209244 0.034370475 -0.05874975 -0.04513119 0.0073020495 -0.061991982
-0.01872706 -0.036632787 0.07450346 0.062497493 0.06727146 4.90759e-40 -0.09757251 -0.07678047
00000000: b649 123c 5084 043d e0c4 e23d 340d 953d
00000010: 669a 86bc dda8 a0bc a48c 83bd b179 8fbd
00000020: c9fc 34bd 6f2d 243d 6e07 523b 6a55 afbd
00000030: c66a 353c ee64 b33d 853f 393d 28c6 083e
00000040: a2b0 163e 8532 82bd 95ce 003e 3eef 643d
00000050: a485 a73c 9221 e03d c313 14bd c94c 1cbb
00000060: ef6e cdbd 86a8 a6bd bf9b 013d f2f5 933d
00000070: e545 643c 739e a43d 2d95 dd3c 738e 2abd
00000080: 0ef7 7cbd b858 11bd bd05 5a3c e88a 3bbd
00000090: 20e1 953d ff3b a2b9 b221 d23d 5b69 f83d
000000a0: c4a6 483d 01d9 d03d 0b83 043d 351f 103e
000000b0: 9490 99bd b339 ba3d e710 9d3d 970b 1d3e
000000c0: 30b4 b3bd 3fe9 133d d715 d1bd 0ec8 0c3d
000000d0: 94a3 70bd 7cdb 38bd 0846 ef3b 4eeb 7dbd
000000e0: 7e69 99bc 430c 16bd 4595 983d 5ffd 7f3d
000000f0: 9fc5 893d 0958 0500 19d4 c7bd 143f 9dbd

classifier.0.weight f4 [3, 64]
-0.160014 -0.07931368 -0.093845665 0.14769529 0.09072274 -0.07681291 0.11348788 -0.12098602
-0.10221085 -0.0627766 0.03354072 0.027438078 -0.04753086 0.19245169 0.0874084 -0.08497747
0.04077162 0.17733344 -0.062977925 0.0729696 -0.1299628 0.1771713 0.07965382 0.04528214
0.0065779863 -0.055408593 -0.01750295 0.11104482 0.05242843 -0.0030256738 0.15188622 0.020500131
0.04605754 -0.09742423 0.0068548536 0.032112364 -0.15439521 -0.00017027199 -0.10653837 -0.17515805
6.0667455e-05 -0.07005152 -0.052346602 0.016981838 0.12046381 0.01886025 -0.14076683 -0.18076162
-0.115378544 0.07990896 0.11789303 0.016272677 -0.041228995 0.09509353 -0.24385792 0.07890471
0.03716612 -0.05178569 0.1640494 0.08853353 0.09337619 -1.9504185e-27 0.029307246 0.03086688
0.026333371 0.07507348 -0.01677556 0.02446673 -0.039349124 -0.09472585 0.04687365 0.10176845
0.0067781247 0.099349506 0.07332078 -0.09905408 -0.08278229 0.04106526 -0.10482504 -0.11616019
0.110589705 0.02817663 -0.117870085 -0.050420787 -0.03845721 -0.023591159 -0.031137252 0.14447977
-0.085635215 0.008448307 -0.124352075 0.13277039 -0.09662054 0.08219478 -0.1209711 -0.09625786
-0.07949532 -0.07363328 -0.08200579 0.1350595 0.11567758 0.0002264208 0.01193644 0.035396483
-0.0007435075 -0.117180444 0.12013351 0.088029176 0.026341826 0.036358614 -0.017338721 0.032776862
-0.049922608 -0.009608172 0.09061647 -0.0045531928 0.02627152 -0.053263765 0.08907348 0.076247625
0.08460949 0.0119745815 -0.12048588 0.13525875 -0.06123653 1.47095e-20 0.0014073576 -0.0607347
0.06397634 0.041306015 0.037743274 -0.106127776 0.090555675 -0.03495223 -0.09945366 -0.0103757605
0.09133436 0.019997623 -0.0034896403 -0.122579284 0.12012989 -0.09406523 -0.019461572 0.07186688
0.1424504 -0.13589258 0.10965753 0.10638956 -0.06966522 -0.22551718 -0.15949987 -0.010037495
0.14976425 0.12259527 -0.0123909125 -0.08183936 -0.016282525 -0.078169174 -0.20395806 0.024966395
-0.09923353 0.057173073 0.18527326 0.09202071 0.06684574 -0.00031367203 0.14650463 0.15368804
0.06813217 0.027195629 0.015374655 0.12225148 -0.036853366 0.074098505 0.11799295 0.2567597
0.041196845 -0.14665525 -0.07139189 -0.09265737 0.001380513 0.10248261 0.10010697 -0.15562682
-0.06960449 0.01893162 0.049352944 -0.08828605 -0.12964655 -7.550657e-22 -0.09396809 0.12113596
00000000: b6da 23be 366f a2bd 2832 c0bd 6f3d 173e
00000010: d8cc b93d 1650 9dbd 556c e83d 85c7 f7bd
00000020: ec53 d1bd 0591 80bd fe61 093d d2c5 e03c
00000030: b8af 42bd 0e12 453e 2d03 b33d ab08 aebd
00000040: 2400 273d e696 353e 92fa 80bd 1671 953d
00000050: f814 05be 656c 353e 8b21 a33d c479 393d
00000060: 268c d73b 1ff4 62bd 5962 8fbc 776b e33d
00000070: 32bf 563d 624a 46bb 1088 1b3e e4ef a73c
00000080: d5a6 3c3d 5b86 c7bd ae9e e03b 4188 033d
00000090: c719 1ebe 0a8b 32b9 ca30 dabd a25c 33be
000000a0: 2f75 7e38 2c77 8fbd 6469 56bd 7f1d 8b3c
000000b0: bbb5 f63d d080 9a3c 2e25 10be 9319 39be
000000c0: 964b ecbd 4fa7 a33d e771 f13d 474e 853c
000000d0: bcdf 28bd 66c0 c23d e4b5 79be cb98 a13d
000000e0: 803b 183d 3b1d 54bd 91fc 273e 1151 b53d
000000f0: 043c bf3d 3087 1a93 c015 f03c 8adc fc3c
00000100: 15b9 d73c 20c0 993d e66c 89bc 746e c83c
00000110: 8c2c 21bd a0ff c1bd 96fe 3f3d fa6b d03d
00000120: 081b de3b c177 cb3d 3529 963d dedc cabd
00000130: c389 a9bd 0c34 283d 83ae d6bd 65e5 edbd
00000140: db7c e23d add2 e63c df65 f1bd 0786 4ebd
00000150: 4f85 1dbd 3f42 c1bc 8d13 ffbc 81f2 133e
00000160: 8461 afbd c56a 0a3c 4dac febd f6f4 073e
00000170: fde0 c5bd bd55 a83d b2bf f7bd d722 c5bd
00000180: 71ce a2bd 0ccd 96bd a7f2 a7bd 0a4d 0a3e
00000190: 5ee8 ec3d 5f6b 6d39 0f91 433c e7fb 103d
000001a0: f2e7 42ba 4dfc efbd 8f08 f63d a448 b43d
000001b0: d0ca d73c c5ec 143d ef09 8ebc 0841 063d
000001c0: a67b 4cbd 986b 1dbc 2195 b93d f332 95bb
000001d0: 5f37 d73c 1b2b 5abd 286c b63d b727 9c3d
000001e0: be47 ad3d 0931 443c 4dc1 f6bd 4581 0a3e
000001f0: 28d3 7abd 64ed 8a1e 1677 b83a f3c4 78bd
00000200: 0706 833d 7f30 293d b198 1a3d 8559 d9bd
00000210: 4175 b93d 122a 0fbd 5cae cbbd 18ff 29bc
00000220: 820d bb3d 0ed2 a33c 73b2 64bb d90a fbbd
00000230: a906 f63d 45a5 c0bd e06d 9fbc f12e 933d
00000240: 85de 113e 6d27 0bbe 2194 e03d c5e2 d93d
00000250: a4ac 8ebd faed 66be ef53 23be 4e74 24bc
00000260: cd5b 193e 3b13 fb3d 4103 4bbc 659b a7bd
00000270: ee62 85bc 2917 a0bd 62da 50be 5386 cc3c
00000280: f33a cbbd 502e 6a3d 46b8 3d3e 5b75 bc3d
00000290: 6be6 883d 5974 a4b9 4f05 163e 6660 1d3e
000002a0: e188 8b3d 5ec9 de3c fae5 7b3c fc5e fa3d
000002b0: 8ef3 16bd f5c0 973d 4aa6 f13d 0276 833e
000002c0: 06be 283d cb2c 16be e935 92bd 26c3 bdbd
000002d0: 54f2 b43a 67e2 d13d e204 cd3d a35c 1fbe
000002e0: cd8c 8ebd 7c16 9b3c 5026 4a3d 51cf b4bd
000002f0: 11c2 04be 6134 649c 5872 c0bd 2116 f83d

classifier.0.bias f4 [3]
-0.14341985 0.01927209 0.09101325
00000000: a7dc 12be 81e0 9d3c 2865 ba3d

exp_avg f4 [32, 3, 3, 3]
-0.03482932 -0.022804314 -0.015926173 -0.023212181 -0.012877088 -0.006463134 -0.013366702 -0.0053095035
0.00039827725 -0.038528983 -0.02357758 -0.016489113 -0.03339008 -0.020029228 -0.013420731 -0.029453026
-0.018732522 -0.012586667 0.007832072 0.021946477 0.0387051 0.01723688 0.027685601 0.042110294
0.026538985 0.034011588 0.04523862 0.026088934 0.020959478 0.016745664 0.0060869246 0.004762005
0.0021149437 -0.006949237 -0.006920121 -0.007333681 0.015509298 0.0069096503 0.0021330516 0.0031561803
0.00036756377 -0.0014192744 -0.003660952 -0.0031640972 -0.0020331282 -0.0756927 -0.07535676 -0.07547898
-0.078658506 -0.07791985 -0.07798353 -0.07924821 -0.07884879 -0.078869596 0.03813208 0.035539538
0.031234957 0.010078789 0.008911938 0.0074149054 -0.01277789 -0.010787624 -0.009410217 0.023904761
0.01903708 0.01682301 0.0038175383 0.0031257388 0.005223704 -0.010928413 -0.0065406095 -0.0005354104
-0.05014868 -0.044333864 -0.037730437 -0.05979686 -0.050469592 -0.044251863 -0.06417072 -0.0535603
-0.049616247 0.014390277 0.019103408 0.025318408 0.013988705 0.018644134 0.025087232 0.012937315
0.016971834 0.023908941 0.02144732 0.026226446 0.032554314 0.020602224 0.025505697 0.032170326
0.018777333 0.023430455 0.030702071 0.014878127 0.017683832 0.027098924 0.012280811 0.015724286
0.027075564 0.009393069 0.013273386 0.025362844 -0.007824691 0.002822074 0.0069797123 -0.0044086026
0.0065178396 0.0117541645 0.00016203111 0.011490447 0.01723339 -0.022695458 -0.010627713 -0.0032665636
-0.02156187 -0.007873684 0.0010558915 -0.019338958 -0.004592966 0.0052724774 -0.022694528 0.0013797615
0.029140236 -0.012943468 0.008944074 0.03472755 -0.0027798829 0.015885044 0.037331097 -0.037926286
-0.03352698 -0.035829566 -0.04416171 -0.04088113 -0.043482672 -0.04639342 -0.04474609 -0.047496807
-0.034686077 -0.02599085 -0.026000163 -0.041547015 -0.033422418 -0.033001136 -0.045914005 -0.039148796
-0.038554635 -0.01892993 -0.010377773 -0.010739745 -0.018311739 -0.012739426 -0.014810528 -0.012326098
-0.009598461 -0.0133196665 -0.017359532 -0.019148061 -0.021549474 -0.02761765 -0.027700005 -0.028104495
-0.03347202 -0.031221822 -0.029548168 -0.023960687 -0.023127591 -0.01979646 -0.028981486 -0.025144123
-0.019553782 -0.03060586 -0.023706239 -0.01648334 -0.035944924 -0.022463275 -0.013355821 -0.034481745
-0.020064302 -0.0129491 -0.029942995 -0.016908037 -0.012559013 -0.04506446 -0.046331823 -0.045794457
-0.043495853 -0.04315581 -0.041120417 -0.03748773 -0.03594064 -0.0331967 -0.043148484 -0.03786448
-0.031971503 -0.040075246 -0.033137586 -0.02622429 -0.032990772 -0.025308955 -0.018590204 0.008222734
0.018990401 0.021258757 0.014782046 0.023510339 0.024986792 0.021310762 0.027119672 0.028114278
-0.0076216455 -0.006144768 -0.0033269378 -0.009096406 -0.010770669 -0.010038675 -0.014559583 -0.018599471
-0.018960254 -0.00290561 -0.003151354 -0.0049873143 -0.007567671 -0.010460855 -0.013187997 -0.01614082
-0.020956216 -0.023186825 -0.019973192 -0.029706044 -0.03031227 -0.025107937 -0.036885347 -0.037869234
-0.027374849 -0.03905012 -0.040366687 -0.07696316 -0.065346606 -0.06473323 -0.06212205 -0.049143083
-0.04685468 -0.040907443 -0.028102184 -0.026081277 -0.07595144 -0.051699832 -0.04258657 -0.06610422
00000000: 30a9 0ebd 1dd0 babc 9b77 82bc 7927 bebc
00000010: 6cfa 52bc b3c8 d3bb 0300 5bbc 58fb adbb
00000020: decf d039 91d0 1dbd c525 c1bc 2d14 87bc
00000030: 09c4 08bd 5614 a4bc a0e2 5bbc 7947 f1bc
00000040: f274 99bc 4f38 4ebc 1752 003c 19c9 b33c
00000050: 3d89 1e3d 5b34 8d3c eacc e23c d87b 2c3d
00000060: 4968 d93c bc4f 0b3d 224c 393d 76b8 d53c
00000070: 36b3 ab3c 342e 893c d374 c73b 980a 9c3b
00000080: de9a 0a3b 6db6 e3bb 2fc2 e2bb 604f f0bb
00000090: b61a 7e3c 596a e23b abca 0b3b ebd7 4e3b
000000a0: 93b5 c039 f206 baba 95ec 6fbb be5c 4fbb
000000b0: 3b3e 05bb c604 9bbd a554 9abd b994 9abd
000000c0: b617 a1bd 7194 9fbd d4b5 9fbd e34c a2bd
000000d0: 797b a1bd 6286 a1bd 6230 1c3d e891 113d
000000e0: 74e0 ff3c 8121 253c 6103 123c bcf8 f23b
000000f0: 5b5a 51bc 93be 30bc 502d 1abc ebd3 c33c
00000100: a7f3 9b3c 69d0 893c aa2f 7a3b 32d9 4c3b
00000110: 9b2b ab3b 160d 33bc 9c52 d6bb c95a 0cba
00000120: b468 4dbd 6d97 35bd 3b8b 1abd 8ded 74bd
00000130: 34b9 4ebd 7141 35bd f06b 83bd 0c62 5bbd
00000140: 683a 4bbd 32c5 6b3c c07e 9c3c 8d68 cf3c
00000150: e230 653c 95bb 983c bd83 cd3c 08f7 533c
00000160: 8408 8b3c afdc c33c 4ab2 af3c d8d8 d63c
00000170: ac57 053d ffc5 a83c 53f1 d03c 08c5 033d
00000180: ecd2 993c 3af1 bf3c e982 fb3c 63c3 733c
00000190: afdd 903c 90fe dd3c 7435 493c 38d0 803c
000001a0: 93cd dd3c 63e5 193c 9e78 593c bdc5 cf3c
000001b0: 2233 00bc 8cf2 383b 12b6 e43b 0a76 90bb
000001c0: 9a93 d53b 8a94 403c e5e6 2939 6e42 3c3c
000001d0: 0a2d 8d3c d3eb b9bc dc1f 2ebc d813 56bb
000001e0: 85a2 b0bc a000 01bc d765 8a3a bc6c 9ebc
000001f0: 9780 96bb bfc4 ac3b e0e9 b9bc 1dd9 b43a
00000200: 81b7 ee3c d710 54bc 2a8a 123c 7a3e 0e3d
00000210: b22e 36bb 5a21 823c 7ee8 183d 9858 1bbd
00000220: 9653 09bd 06c2 12bd e9e2 34bd f972 27bd
00000230: e31a 32bd 0707 3ebd ad47 37bd 038c 42bd
00000240: fd12 0ebd c3ea d4bc 4bfe d4bc 342d 2abd
00000250: f2e5 08bd 332c 07bd 5310 3cbd 7d5a 20bd
00000260: 77eb 1dbd f112 9bbc 8907 2abc c1f5 2fbc
00000270: 8002 96bc 07b9 50bc dba7 72bc 67f3 49bc
00000280: dd42 1dbc bb3a 5abc 9435 8ebc 65dc 9cbc
00000290: 8688 b0bc 693e e2bc 1feb e2bc 663b e6bc
000002a0: f519 09bd e8c4 ffbc 000f f2bc 3449 c4bc
000002b0: 1376 bdbc 302c a2bc 956a edbc 0cfb cdbc
000002c0: 412f a0bc 24b9 fabc 9633 c2bc 1208 87bc
000002d0: fc3a 13bd e704 b8bc 60d2 5abc bb3c 0dbd
000002e0: e45d a4bc 7628 54bc 034b f5bc b982 8abc
000002f0: 52c4 4dbc 8395 38bd 70c6 3dbd f892 3bbd
00000300: b528 32bd 26c4 30bd e26d 28bd bc8c 19bd
00000310: 7e36 13bd 43f9 07bd 77bc 30bd c917 1bbd
00000320: 8df4 02bd f125 24bd 47bb 07bd 52d4 d6bc
00000330: 5521 07bd ba54 cfbc 7c4a 98bc a5b8 063c
00000340: c291 9b3c d826 ae3c 6530 723c c198 c03c
00000350: 1ab1 cc3c e893 ae3c 132a de3c ea4f e63c
00000360: ffbe f9bb 0d5a c9bb c108 5abb 1809 15bc
00000370: 7677 30bc 4179 24bc 518b 6ebc eb5d 98bc
00000380: 8952 9bbc 0c6c 3ebb f286 4ebb a06c a3bb
00000390: 3afa f7bb 0264 2bbc 7812 58bc c139 84bc
000003a0: 5fac abbc 4cf2 bdbc d29e a3bc 175a f3bc
000003b0: 7051 f8bc 29af cdbc 1715 17bd c51c 1bbd
000003c0: 3841 e0bc 05f3 1fbd 8a57 25bd dc9e 9dbd
000003d0: 71d4 85bd db92 84bd b173 7ebd 424a 49bd
000003e0: b1ea 3fbd 908e 27bd 8d36 e6bc 67a8 d5bc
000003f0: 6e8c 9bbd 34c3 53bd 416f 2ebd a661 87bd
