best_model.pth (torch, 284322 bytes, 12 tensors)

features.0.weight f4 [32, 3, 3, 3]
0.18795258 0.018083379 0.11834043 0.14593247 -0.14477906 0.1217934 0.12116601 -0.18432975
0.056577858 0.10335617 0.073966086 -0.039949983 0.04367488 0.13984138 0.09065044 -0.1347813
-0.05334175 0.1933272 0.121073574 -0.09373711 -0.15156436 0.13569765 0.18092494 -0.11895728
-0.14957829 -0.038691826 -0.024735076 0.045527253 0.10321349 -0.06725514 0.11869424 -0.14407717
0.09813278 0.023254627 -0.092346005 0.019140974 0.04315403 0.08869915 -0.07209646 0.014059766
-0.1162499 -0.12028239 -0.14726637 0.060673602 -0.03023801 0.035681687 -0.0891646 0.07615034
-0.16616344 0.03694753 -0.14701907 -0.19397934 -0.15558615 0.17402813 0.17312348 0.09482832
0.049636148 0.18210262 -0.091272295 0.14075282 0.09396992 0.14968553 0.09616421 -0.01731341
-0.15562224 -0.080527 0.006359489 0.11695974 -0.052849088 0.16365969 0.0010906034 -0.15350015
-0.15104875 -0.012903848 0.11987477 -0.0360412 0.16455793 0.13606153 0.17811802 0.08476404
0.016885342 -0.0976562 -0.11499217 -0.15961796 -0.13216305 0.08848717 0.039611198 -0.15422544
0.04749617 0.1531955 -0.12861013 0.11461356 -0.039634947 -0.16619164 0.050516568 0.025793487
-0.14387429 0.13969034 -0.13496876 -0.044260245 -0.051845435 -0.1281601 0.04776015 0.07325612
-0.122093305 -0.053398155 0.12399398 -0.15070768 0.07705108 0.10526606 -0.13789815 -0.1280406
0.1294292 -0.019982496 0.12782063 0.07858092 -0.021427868 -0.02434131 -0.12179457 -0.015280109
-0.10942708 -0.16097195 -0.14240378 -0.010709113 -0.067499 -0.10054388 -0.08085392 -0.06776923
-0.12108762 -0.0755923 -0.0018854402 -0.15852924 -0.049638566 -0.06537949 -0.16464762 0.081517495
-0.05178235 0.14442018 -0.1460167 -0.09523004 0.1178343 0.05724161 0.14247699 -0.06522757
-0.18303674 0.08099859 -0.052556697 -0.0007251636 -0.12662238 0.09810113 -0.007227207 0.05479325
0.1733874 0.025239425 0.16104533 -0.07634703 0.008960702 -0.037296556 -0.1256161 0.042627435
-0.16080739 0.06266757 -0.100908965 0.10624173 -0.1747918 -0.09431477 -0.11715131 -0.002423051
0.20296505 0.1477106 0.19548814 0.028823888 0.028756509 -0.03510545 0.07350713 0.061037038
0.008162026 0.08996356 0.08537771 0.09153241 -0.050954312 -0.1508412 -0.010887829 -0.12812442
0.14034359 -0.10470542 0.06155277 -0.0870096 0.05591287 0.073725425 -0.17128095 0.055361938
0.012903534 -0.072212234 0.008812602 -0.083755285 -0.11922589 -0.045100383 0.05360063 -0.14827713
-0.016788173 -0.011444375 0.18060447 0.08785494 0.08377272 -0.16040282 -0.113539755 -0.13415417
0.17526942 -0.01729392 -0.047619276 0.107175164 0.01381898 0.17329028 0.045220297 -0.092525885
-0.06949469 0.15751578 -0.07115773 0.12115607 -0.1685885 0.036668472 -0.11375767 -0.14731391
0.0013237881 -0.056959156 -0.088668175 0.10242226 -0.029674513 -0.14163163 0.0026394841 -0.08667186
-0.030643621 -0.0824723 0.15529491 0.020727465 -0.17386204 -0.026873982 -0.022908356 0.042506084
-0.13454786 -0.13811399 0.094939716 -0.15744029 -0.12071018 -0.00024140574 -0.018024923 -0.09465849
-0.048650887 -0.16074903 -0.18804233 0.17128341 0.091844514 0.05827015 0.14965613 -0.0039566834
00000000: a476 403e 9823 943c 785c f23d 526f 153e
00000010: f640 14be d16e f93d e325 f83d f0c0 3cbe
00000020: 2fbe 673d 66ac d33d 887b 973d 98a2 23bd
00000030: 6ee4 323d 9432 0f3e f0a6 b93d 1c04 0abe
00000040: e17c 5abd 91f7 453e 6cf5 f73d 3ef9 bfbd
00000050: b033 1bbe 53f4 0a3e 6344 393e e09f f3bd
00000060: 0d2b 19be 527b 1ebd 37a1 cabc c97a 3a3d
00000070: 9861 d33d 10bd 89bd f715 f33d f788 13be
00000080: d7f9 c83d 7d80 be3c e71f bdbd 88cd 9c3c
00000090: 48c2 303d e6a7 b53d 4fa7 93bd ef5a 663c
000000a0: 6d14 eebd 9d56 f6bd ffcc 16be e284 783d
000000b0: b4b5 f7bc f626 123d ee9b b6bd b6f4 9b3d
000000c0: c026 2abe 4b56 173d 2b8c 16be 85a2 46be
000000d0: fa51 1fbe 6e34 323e 4847 313e 5a35 c23d
000000e0: 464f 4b3d 1c79 3a3e f8ec babd 8221 103e
000000f0: 4d73 c03d 2a47 193e bef1 c43d dad4 8dbc
00000100: 705b 1fbe 57eb a4bd 4363 d03b 9788 ef3d
00000110: 4978 58bd 6896 273e 94f2 8e3a 252f 1dbe
00000120: 86ac 1abe a96a 53bc e780 f53d f09f 13bd
00000130: e081 283e b753 0b3e 9264 363e c598 ad3d
00000140: 2153 8a3c f9ff c7bd 0481 ebbd e472 23be
00000150: c055 07be c338 b53d 5a3f 223d 46ed 1dbe
00000160: 588b 423d 48df 1c3e 60b2 03be 84ba ea3d
00000170: 4158 22bd 242e 2abe 76ea 4e3d dd4c d33c
00000180: c853 13be fc0a 0f3e 4035 0abe 3b4a 35bd
00000190: e15b 54bd 673c 03be 26a0 433d 4e07 963d
000001a0: 0e0c fabd 06b8 5abd 8ef0 fd3d 1d53 1abe
000001b0: f5cc 9d3d bb95 d73d 2c35 0dbe 131d 03be
000001c0: 1789 043e 55b2 a3bc 69e3 023e 09ef a03d
000001d0: 7f89 afbc 6d67 c7bc 6e6f f9bd 6c59 7abc
000001e0: 4e1b e0bd d5d5 24be 4cd2 11be 4775 2fbc
000001f0: ea3c 8abd f3e9 cdbd bd96 a5bd 98ca 8abd
00000200: c9fc f7bd 23d0 9abd e020 f7ba 7d55 22be
00000210: cf51 4bbd afe5 85bd 6399 28be a5f2 a63d
00000220: bb19 54bd e2e2 133e 6785 15be f807 c3bd
00000230: 1c53 f13d 2e76 6a3d 7de5 113e 0896 85bd
00000240: fc6d 3bbe 97e2 a53d b145 57bd e818 3eba
00000250: 4ca9 01be 3fe9 c83d 35d2 ecbb e36e 603d
00000260: 778c 313e e9c2 ce3c 11e9 243e d55b 9cbd
00000270: e9cf 123c 46c4 18bd 82a1 00be 1b9a 2e3d
00000280: b1aa 24be db57 803d 5ca9 cebd 4495 d93d
00000290: 9ffc 32be 1a28 c1bd 07ed efbd 0dcc 1ebb
000002a0: 12d6 4f3e 7341 173e 0b2e 483e 1320 ec3c
000002b0: c592 eb3c bbca 0fbd e88a 963d f901 7a3d
000002c0: 05ba 053c d13e b83d 82da ae3d 5875 bb3d
000002d0: 78b5 50bd 1e76 1abe dd62 32bc 0c33 03be
000002e0: 3bb6 0f3e cc6f d6bd c21e 7c3d 1732 b2bd
000002f0: e504 653d 5bfd 963d 4664 2fbe 33c3 623d
00000300: 5869 533c 02e4 93bd bb62 103c e487 abbd
00000310: b42c f4bd 2ebb 38bd 568c 5b3d f6d5 17be
00000320: 5a87 89bc 3081 3bbc 61f0 383e 4aed b33d
00000330: 0891 ab3d a340 24be 8887 e8bd b65f 09be
00000340: d479 333e fbab 8dbc 6e0c 43bd a77e db3d
00000350: 0169 623c 0273 313e eb38 393d 367e bdbd
00000360: 3b53 8ebd d14b 213e 25bb 91bd ac20 f83d
00000370: 77a2 2cbe ae31 163d c8f9 e8bd 75d9 16be
00000380: f582 ad3a 014e 69bd a997 b5bd c3c2 d13d
00000390: f717 f3bc e207 11be 32fb 2c3b 0481 b1bd
000003a0: 5508 fbbc 3de7 a8bd a105 1f3e a5cc a93c
000003b0: e408 32be d326 dcbc 4eaa bbbc dc1a 2e3d
000003c0: eac6 09be c16d 0dbe c16f c23d 0738 21be
000003d0: e636 f7bd dc21 7db9 01a9 93bc 4fdc c1bd
000003e0: 2746 47bd 659b 24be 2b8e 40be eb64 2f3e
000003f0: fa18 bc3d aeac 6e3d 753f 193e 11a7 81bb

features.0.bias f4 [32]
-0.05519311 0.057277933 0.18759342 -0.07830823 0.19510959 -0.07095547 0.14680594 -0.090738915
0.11493571 0.014622778 0.17537381 0.05139324 -0.12431216 0.17519438 -0.079277895 -0.15190825
0.118753776 0.0023474528 -0.08253784 -0.10830137 -0.06356268 -0.011282803 0.112391 0.049584255
0.0565765 0.18602271 0.055586316 -0.011918677 -0.1246991 0.01849147 -0.03599747 -0.066854805
00000000: 2c12 62bd 449c 6a3d 7d18 403e 1160 a0bd
00000010: cfca 473e 1a51 91bd 4c54 163e 53d5 b9bd
00000020: 6a63 eb3d 6094 6f3c 3195 333e b881 523d
00000030: 6097 febd 2866 333e 735c a2bd d68d 1bbe
00000040: 2e35 f33d b9d7 193b 9909 a9bd 1ccd ddbd
00000050: 262d 82bd 81db 38bc 412d e63d dc18 4b3d
00000060: c3bc 673d bd7c 3e3e 7aae 633d 8e46 43bc
00000070: 3e62 ffbd 6c7b 973c 1572 13bd 2ceb 88bd

features.2.weight f4 [32, 32, 3, 3]
0.022673085 -0.013143578 -0.014915045 0.040695075 -0.035379644 0.015711458 -0.030483294 0.027476048
-0.011005211 -0.051327143 -0.023919402 -0.039568227 0.04943357 -0.022645345 0.035132166 -0.046577845
0.05087837 -0.046900973 -0.054951478 -0.04983243 0.051947694 0.019331224 -0.036804155 0.04918629
-0.02932919 0.048009954 0.050431076 -0.021811081 0.016182533 -0.05329651 -0.0035807574 -0.025869891
-0.04425891 -0.04867476 -0.045224447 0.005508953 0.048126627 -0.04701026 -0.053055286 0.050403878
0.0012178653 -0.013327635 -0.0161153 -0.05700321 0.008826447 -0.0035863696 -0.045212675 0.016210834
-0.04427804 0.028063307 -0.045303844 0.03955831 -0.054626897 0.03430208 0.019737849 -0.020599531
-0.05542413 -0.046881374 0.04754104 -0.015251551 -0.05521924 0.030177062 0.056544065 -0.01916381
0.014456178 0.028586643 0.018937238 0.0124258455 -0.02828452 -0.04845153 0.05584952 0.0038464805
-0.055927403 0.027098425 0.013031282 0.044918474 -0.0076962425 -0.012485974 0.016670601 0.003692101
-0.015379938 -0.0072163525 0.04116561 -0.056417707 -0.021683998 -0.010471574 -0.012484086 0.019146565
0.049454402 -0.025144886 -0.041706387 0.015649462 0.020930896 0.052879784 -0.044211145 -0.047917567
-0.043191075 0.027957628 0.052321743 0.029690715 -0.04832283 -0.023193523 0.049218465 0.028783124
0.05259949 -0.035727628 0.042784967 0.017302815 0.036564622 0.047918823 -0.055370327 -0.019588204
-0.03924384 -0.030460035 0.05114259 0.0297008 -0.032171864 0.027511423 -0.031927332 -0.053057585
-0.009712726 0.02295554 0.024322908 -0.028462434 0.056666385 0.042403594 0.027839633 0.0514718
-0.008910906 -0.041555528 -0.0134018455 -0.0063957223 0.034953836 0.0016938078 0.010808627 -0.019866066
-0.05602761 -0.036113452 0.047636274 0.020074394 -0.0014859719 0.035410516 0.033203006 0.037403412
-0.0051178467 0.01803103 0.049077943 0.035831988 0.025142778 -0.013366697 0.024946524 0.03805879
-0.043413147 0.011624081 0.022957517 0.0564394 -0.04234518 0.042482868 -0.011707378 -0.033764027
0.003887922 -0.054029964 -0.051430468 -0.04978915 0.030833848 -0.053112898 -0.050786354 -0.020772766
-0.044154886 -0.013882945 -0.051142372 0.058839623 -0.007792022 -0.04790564 0.05079948 -0.055625197
-0.046559237 0.040996213 0.055339344 0.012414287 0.050258048 0.025626866 0.05949576 0.00013555131
-0.006944764 -0.01922092 -0.010147715 0.057702314 0.05661437 -0.036482047 -0.045938626 -0.020034
0.014149076 -0.012181669 0.014513508 -0.028130963 -0.056251843 -0.014870899 -0.061352752 -0.024461105
0.039362296 0.0070932745 0.013932643 0.0114564365 0.019498857 0.051431853 -0.05844806 -0.045440063
0.022579443 -0.00936791 0.05098591 0.022994092 0.024960317 0.03125923 -0.03168265 0.036751408
0.028469874 0.018885056 -0.0027697026 0.006864688 -0.04344731 -0.04304108 0.021210209 -0.0053527122
0.030476864 -0.0045615425 -0.006125596 0.049509034 -0.05125419 0.028637188 0.050355908 0.008871528
-0.05202923 0.0024296686 -0.027662866 -0.023844084 -0.01025602 -0.055917054 0.045846723 -0.04796247
0.005140141 0.03696665 0.028829006 -0.0037894384 0.051679723 0.02646086 0.047815602 -0.008274125
-0.0036620575 -0.018853324 -0.02838745 -0.0031767203 0.029205073 0.00665145 -0.027636843 0.0051017636
00000000: e8bc b93c 2958 57bc 3c5e 74bc e1af 263d
00000010: 3fea 10bd 51b5 803c 1ab8 f9bc 7315 e13c
00000020: 334f 34bc 693c 52bd 9ff2 c3bc 4b12 22bd
00000030: db7a 4a3d bb82 b9bc bfe6 0f3d 69c8 3ebd
00000040: d665 503d 3c1b 40bd cd14 61bd 171d 4cbd
00000050: 1bc7 543d 845c 9e3c f4bf 16bd 9077 493d
00000060: c543 f0bc 16a6 443d d190 4e3d 27ad b2bc
00000070: 3b91 843c 714d 5abd 24ab 6abb 18ed d3bc
00000080: d548 35bd 2f5f 47bd 453d 39bd 7284 b43b
00000090: 6d20 453d d58d 40bd 8050 59bd 4c74 4e3d
000000a0: c7a0 9f3a 275c 5abc 3c04 84bc 337c 69bd
000000b0: cd9c 103c 4c09 6bbb ed30 39bd 95cc 843c
000000c0: e45c 35bd 05e5 e53c 8690 39bd e507 223d
000000d0: 74c0 5fbd 5680 0c3d 45b1 a13c 59c0 a8bc
000000e0: 6a04 63bd af06 40bd 65ba 423d a4e1 79bc
000000f0: 922d 62bd e335 f73c c09a 673d 6cfd 9cbc
00000100: 9bd9 6c3c 892e ea3c 4422 9b3c c695 4b3c
00000110: f0b4 e7bc 1d75 46bd 77c2 643d 3c15 7c3b
00000120: 2214 65bd 84fd dd3c 2981 553c 6ffc 373d
00000130: c330 fcbb f891 4cbc c990 883c 2df7 713b
00000140: 23fc 7bbc 2777 ecbb 459d 283d 4116 67bd
00000150: a4a2 b1bc f790 2bbc 0d8a 4cbc 42d9 9c3c
00000160: b390 4a3d a6fc cdbc 51d4 2abd 4d33 803c
00000170: 4577 ab3c 7998 583d bf16 35bd 3645 44bd
00000180: 20e9 30bd 6507 e53c 534f 563d f139 f33c
00000190: 29ee 45bd 5800 bebc 4d99 493d 96ca eb3c
000001a0: 9072 573d 2257 12bd 4a3f 2f3d a2be 8d3c
000001b0: c9c4 153d 8746 443d ffcb 62bd 7177 a0bc
000001c0: 26be 20bd 5387 f9bc e47a 513d 184f f33c
000001d0: a5c6 03bd a35f e13c 3cc6 02bd e952 59bd
000001e0: 2022 1fbc 420d bc3c d640 c73c 0d2a e9bc
000001f0: 031b 683d 64af 2d3d f10f e43c 18d4 523d
00000200: 0cff 11bc 2136 2abd 6a93 5bbc 3593 d1bb
00000210: c12b 0f3d c202 de3a ab16 313c 29be a2bc
00000220: 357d 65bd b3eb 13bd 411e 433d 0e73 a43c
00000230: f1c4 c2ba 9e0a 113d e0ff 073d 5234 193d
00000240: 9cb3 a7bb d0b5 933c f405 493d 90c4 123d
00000250: 3af8 cd3c feff 5abc a75c cc3c 89e3 1b3d
00000260: fcd1 31bd ee72 3e3c 6711 bc3c 002d 673d
00000270: 2472 2dbd 8402 2e3d 4dd0 3fbc 264c 0abd
00000280: 82cc 7e3b 864e 5dbd c1a8 52bd b5ef 4bbd
00000290: 4497 fc3c e98c 59bd 5a05 50bd a62b aabc
000002a0: c1db 34bd 4b75 63bc aa7a 51bd d101 713d
000002b0: 3854 ffbb b438 44bd 1e13 503d 3fd7 63bd
000002c0: e6b4 3ebd a5eb 273d 82ab 623d 4b65 4b3c
000002d0: 62db 4d3d 6fef d13c d3b1 733d c722 0e39
000002e0: e790 e3bb 3175 9dbc 9a42 26bc 4359 6c3d
000002f0: 78e4 673d 336e 15bd 242a 3cbd 581e a4bc
00000300: 87d1 673c 9f95 47bc 11ca 6d3c e872 e6bc
00000310: 5568 66bd 12a5 73bc 064d 7bbd a862 c8bc
00000320: 5c3a 213d b36e e83b be45 643c c7b3 3b3c
00000330: 11bc 9f3c 35aa 523d 3c67 6fbd 5c1f 3abd
00000340: 86f8 b83c dd7b 19bc 9ad6 503d 1b5e bc3c
00000350: 9479 cc3c ae09 003d abc5 01bd a588 163d
00000360: a739 e93c d5b4 9a3c e683 35bb 2df1 e03b
00000370: cef5 31bd d84b 30bd 08c1 ad3c ce65 afbb
00000380: 9eaa f93c fe78 95bb 39b9 c8bb fcc9 4a3d
00000390: eaef 51bd 8998 ea3c ff41 4e3d e359 113c
000003a0: 9a1c 55bd 133b 1f3b 3c9d e2bc ab54 c3bc
000003b0: de08 28bc 4809 65bd c6c9 3b3d 4c74 44bd
000003c0: a16e a83b 586a 173d cf2a ec3c 3a58 78bb
000003d0: 1eae 533d 72c4 d83c 4bda 433d 3290 07bc
000003e0: 21ff 6fbb 4972 9abc cc8c e8bc 8630 50bb
000003f0: 7a3f ef3c 68f4 d93b a966 e2bc b22c a73b

features.2.bias f4 [32]
0.0255771 0.03861019 0.009750404 -0.0027075051 0.045238975 -0.029234333 -0.039548907 -0.05187727
-0.029559735 0.046609472 -0.023763211 -0.0039255936 0.030042555 -0.008895051 -0.023758244 -0.047191434
0.013195711 0.037052736 0.020685812 0.005298009 0.009521845 -0.043011572 -0.05041211 -0.05435929
0.0028472769 -0.04682009 0.06508725 -0.013584952 0.043105606 -0.053225726 -0.023840655 0.04059391
00000000: 1187 d13c b825 1e3d 29c0 1f3c 6670 31bb
00000010: 814c 393d d77c efbc 09fe 21bd 437d 54bd
00000020: 4227 f2bc 93e9 3e3d 11ab c2bc 44a2 80bb
00000030: ce1b f63c 8cbc 11bc a6a0 c2bc ce4b 41bd
00000040: d332 583c 9cc4 173d 4b75 a93c ec9a ad3b
00000050: 8301 1c3c e72c 30bd ee7c 4ebd d9a7 5ebd
00000060: 6199 3a3b 6cc6 3fbd 774c 853d 6b93 5ebc
00000070: 818f 303d 3803 5abd 7a4d c3bc cd45 263d

features.5.weight f4 [64, 32, 3, 3]
-0.028806701 -0.008048512 0.013263684 -0.05312382 -0.020325914 0.04187338 0.02981843 0.015340212
0.003760856 0.018711759 0.030445375 -0.025985938 0.023169672 0.05237545 0.025077831 -0.034242924
0.024347154 -0.0034954601 -0.04795541 -0.021244694 -0.0014046198 -0.053206287 0.0021949017 0.03896067
-0.031103231 0.028992416 -0.01380344 0.049978375 -0.033761423 -0.022214966 -0.037831377 -0.015577608
0.0012498114 0.028019674 -0.05580498 -0.0050905333 0.04416047 0.032362152 -0.033161487 -0.002720397
0.022631817 -0.014940811 0.04172659 -0.008769841 -0.04136718 -0.027872982 -0.015158816 0.0020902087
0.0222387 0.020064937 -0.009936813 -0.0012120968 0.049977824 0.023143461 0.013846126 0.012036119
0.007724281 0.043383628 -0.021338101 0.00029013952 0.022745896 -0.020942299 0.021542266 0.007484919
-0.022126602 -0.05539845 -0.007085893 -0.009163291 0.017385865 0.020391183 0.004224679 0.029233947
-0.0058741323 -0.044919174 -0.02806048 0.010318275 -0.032659788 0.0069412123 0.027646791 0.006633932
0.034103088 -0.047156613 -0.010570147 -0.010559007 0.016667286 -0.0084524695 -0.0054646176 -0.042891223
0.025492415 -0.0006585532 0.039356776 -0.036251362 0.020227173 0.043237302 0.024761662 -0.0051751654
0.052049913 0.00947342 -0.054746587 -0.058574174 0.029092418 0.021831285 -0.025331644 0.0032920965
-0.005769718 0.04012754 -0.026410833 -0.0024403485 0.0539745 -0.018928876 -0.047018338 0.01557497
-0.008382475 -0.051169973 0.01206034 -0.04509378 0.03519908 0.036137577 -0.020615201 0.015062293
-0.008701312 -0.024418637 0.0067599914 -0.05007838 -0.05841867 -0.019344134 -0.02278897 -0.0085233925
-0.058508053 0.029451793 0.036901884 0.05614402 0.03455652 0.019073976 -0.05015946 -0.024713166
0.042734314 0.021371102 -0.011419422 -0.025167476 0.03636141 0.022595096 -0.053252153 -0.016525468
-0.0107576465 -0.031076971 -0.05969162 0.003325188 0.034068443 0.0067084776 -0.01701876 -0.020503405
-0.05047501 -0.032666724 -0.02914744 0.046538316 -0.01863005 -0.05041926 0.044796817 0.029291682
0.053148925 0.054019246 0.057113785 0.032804526 -0.042528614 0.02638215 -0.012605189 -0.018121302
0.038866427 0.031412296 0.043704126 -0.0020575507 0.008623745 -0.039906997 0.022132909 0.058733724
0.02058321 0.017940802 -0.053883508 -0.04531074 0.029490495 -0.0008859792 0.010155057 -0.012343146
-0.039802007 -0.013966686 -0.025644137 0.054837756 -0.0465422 0.028927973 0.0107663125 0.03198327
0.023595907 -0.05601095 -0.03184062 -0.05052359 -0.0422096 0.053801287 0.0349262 -0.039574485
0.0013430229 -0.0058453334 -0.016305976 0.04332789 -0.02144697 -0.032687534 -0.011965371 0.015321557
0.038224455 -0.015142269 0.018602071 -0.059895996 -0.0123892585 0.044182457 0.011848911 -0.043730617
0.05372727 -0.03819821 -0.056803476 -0.033105996 0.000621153 -0.049103137 0.062431324 0.05575956
0.023962334 -0.02663723 0.043977108 -0.035335105 -0.01982795 0.055443402 0.056582835 0.04754337
0.056354195 0.06148014 -0.03473938 0.024330877 0.035589222 0.029002065 0.039830714 0.050917026
0.027096413 -0.03969323 0.054276913 -0.041154362 0.0009488494 0.02676868 -0.04879766 0.041286696
-0.05464635 -0.02387177 0.023360042 0.028816596 -0.0434371 0.06447405 0.059809983 0.025805714
00000000: 08fc ebbc e8dd 03bc ec4f 593c 5d98 59bd
00000010: 8882 a6bc 6c83 2b3d c845 f43c 8355 7b3c
00000020: b278 763b 6749 993c 9468 f93c 76e0 d4bc
00000030: 53ce bd3c a487 563d 0670 cd3c 4f42 0cbd
00000040: af73 c73c 1714 65bb e46c 44bd 5a09 aebc
00000050: 381b b8ba d6ee 59bd 57d8 0f3b 3995 1f3d
00000060: 34cc febc 8181 ed3c d327 62bc 20b6 4c3d
00000070: 6b49 0abd 29fc b5bc 13f5 1abd 3939 7fbc
00000080: b6d0 a33a 8489 e53c c393 64bd 7dce a6bb
00000090: 9ce1 343d 2d8e 043d 57d4 07bd b048 32bb
000000a0: 5c66 b93c 4eca 74bc 80e9 2a3d 61af 0fbc
000000b0: a270 29bd e155 e4bc af5c 78bc e2fb 083b
000000c0: ef2d b63c 395f a43c 04ce 22bc 38df 9eba
000000d0: 8cb5 4c3d 5b97 bd3c ddda 623c 2433 453c
000000e0: f71b fd3b 08b3 313d 3ecd aebc de1d 9839
000000f0: 9a55 ba3c 2f8f abbc 6879 b03c 0d44 f53b
00000100: d942 b5bc 7ce9 62bd c730 e8bb a121 16bc
00000110: cd6c 8e3c 690b a73c 2d6f 8a3b 087c ef3c
00000120: cb7b c0bb 2bfd 37bd 17df e5bc fb0d 293c
00000130: 45c6 05bd 1c73 e33b 867b e23c 7461 d93b
00000140: aeaf 0b3d 4b27 41bd 692e 2dbc afff 2cbc
00000150: d589 883c 3a7c 0abc 8910 b3bb b5ae 2fbd
00000160: 78d5 d03c c2a2 2cba 9234 213d 4f7c 14bd
00000170: 75b3 a53c 9919 313d f8d8 ca3c 6f94 a9bb
00000180: 4a32 553d 6736 1b3c f53d 60bd 79eb 6fbd
00000190: 3953 ee3c 86d7 b23c 4f84 cfbc 37c0 573b
000001a0: e70f bdbb c65c 243d 885b d8bc 41ee 1fbb
000001b0: 5e14 5d3d bb10 9bbc 4d96 40bd 292e 7f3c
000001c0: a656 09bc 9b97 51bd bb98 453c 41b4 38bd
000001d0: e92c 103d ff04 143d 36e1 a8bc d6c7 763c
000001e0: f38f 0ebc 9809 c8bc eb82 dd3b fd1e 4dbd
000001f0: 6a48 6fbd 9777 9ebc efaf babc b3a5 0bbc
00000200: 24a6 6fbd e344 f13c 6e26 173d 46f7 653d
00000210: 238b 0d3d 0741 9c3c 0274 4dbd 4473 cabc
00000220: 2d0a 2f3d 7312 af3c 8718 3bbc 062c cebc
00000230: b4ef 143d 5a19 b93c ee1e 5abd 6b60 87bc
00000240: d740 30bc 2295 febc 337f 74bd 66eb 593b
00000250: 5a8b 0b3d cad2 db3b ed6a 8bbc c2f6 a7bc
00000260: e2be 4ebd 8bcd 05bd 9dc6 eebc f69e 3e3d
00000270: 0c9e 98bc 6d84 4ebd de7c 373d 1cf5 ef3c
00000280: b0b2 593d 4943 5d3d 25f0 693d 0a5e 063d
00000290: 7c32 2ebd 611f d83c ff85 4ebc 2073 94bc
000002a0: 6732 1f3d 2eaa 003d 1903 333d f9d7 06bb
000002b0: 9c4a 0d3c 8575 23bd 1350 b53c c692 703d
000002c0: 1f9e a83c 97f8 923c f4b4 5cbd c197 39bd
000002d0: 0d96 f13c 0f41 68ba 6561 263c e83a 4abc
000002e0: 6e07 23bd 87d4 64bc a713 d2bc 8e9d 603d
000002f0: 09a3 3ebd 5bfa ec3c 3065 303c e400 033d
00000300: 344c c13c bd6b 65bd 4f6b 02bd d3f1 4ebd
00000310: f9e3 2cbd bd5e 5c3d c60e 0f3d db18 22bd
00000320: 5f08 b03a 368a bfbb 1c94 85bc 9678 313d
00000330: 8eb1 afbc 5de3 05bd 670a 44bc 4507 7b3c
00000340: 3f91 1c3d 4817 78bc 5f63 983c 8155 75bd
00000350: 51fc 4abc aaf8 343d ef21 423c e01e 33bd
00000360: 2011 5c3d ba75 1cbd c3aa 68bd 279a 07bd
00000370: dfd4 223a 5f20 49bd fdb7 7f3d 2364 643d
00000380: a84c c43c 5236 dabc 5721 343d 8bbb 10bd
00000390: 3a6e a2bc 9f18 633d 67c3 673d d6bc 423d
000003a0: a8d3 663d 99d2 7b3d e14a 0ebd 8c51 c73c
000003b0: 01c6 113d bd95 ed3c 8825 233d 5f8e 503d
000003c0: 4cf9 dd3c 5e95 22bd 7851 5e3d 7a91 28bd
000003d0: 35bc 783a fe49 db3c 0ee0 47bd 3d1c 293d
000003e0: dad4 5fbd bb8e c3bc 8f5d bf3c c810 ec3c
000003f0: 1aeb 31bd f90a 843d 50fb 743d 8166 d33c

features.5.bias f4 [64]
0.050581988 -0.0023697251 0.01294886 0.020762848 -0.052358184 -0.006194151 -0.03691333 -0.026417976
-0.010005676 -0.036244374 0.016597025 0.028135708 0.05243572 -0.02128043 -0.04297989 0.04200765
-0.035042588 0.03829822 0.04984928 -0.05029626 0.053188253 -0.034788392 0.00062370254 0.050029382
-0.052550282 -0.00830804 0.041346043 0.02561056 0.0015013729 -0.040152937 0.024229651 0.00984643
0.0062374016 0.055549722 -0.026886763 -0.02120962 0.05508329 0.057477955 -0.0011052485 -0.022123681
-0.0024990696 0.003066067 -0.00360245 0.062288105 -0.025329933 -0.020355338 -0.00542974 -0.05501123
-0.055611856 0.053778596 -0.04848413 -0.033045467 -0.029692577 -0.019645005 0.048643965 -0.026004504
-0.011179137 0.009057889 0.009647966 -0.039938197 0.021221746 0.023479939 -0.027426444 0.055777367
00000000: 0f2f 4f3d 644d 1bbb 7527 543c d916 aa3c
00000010: 8975 56bd 4ef8 cabb 6f32 17bd 836a d8bc
00000020: d9ee 23bc fb74 14bd 7cf6 873c db7c e63c
00000030: d6c6 563d 4c54 aebc ae0b 30bd 3710 2c3d
00000040: d188 0fbd 98de 1c3d c22e 4c3d 7303 4ebd
00000050: eddb 593d 467e 0ebd f87f 233a 9ceb 4c3d
00000060: f73e 57bd 721e 08bc 785a 293d 3dcd d13c
00000070: b7c9 c43a 6877 24bd 437d c63c ec52 213c
00000080: 1e63 cc3b 1b88 633d a141 dcbc ccbf adbc
00000090: 049f 613d 016e 6b3d fcdd 90ba b93c b5bc
000000a0: 6ec7 23bb 11f0 483b 1517 6cbb d021 7f3d
000000b0: b880 cfbc 3dc0 a6bc f6eb b1bb 7553 61bd
000000c0: 42c9 63bd f246 5c3d 4c97 46bd af5a 07bd
000000d0: d93d f3bc 90ee a0bc e53e 473d 6607 d5bc
000000e0: b328 37bc 8a67 143c 8112 1e3c 3c96 23bd
000000f0: 3ad9 ad3c 0059 c03c 6cad e0bc cf76 643d

features.7.weight f4 [64, 64, 3, 3]
-0.03637515 -0.006821712 -0.04308219 -0.012481928 -0.02925227 -0.043813612 -0.031445995 -0.036051
0.0148746185 -0.015527211 -0.019956775 0.02292101 0.016740978 -0.041956924 -0.03981888 -0.02596734
0.005541809 -0.012847824 0.013997564 -8.616209e-12 -0.011189106 -0.007928478 0.004464985 0.0123655945
0.00020260195 -0.0022225673 -0.00404035 0.0004786189 3.0811196e-05 -0.006159319 -0.004504054 0.014286886
0.00028215942 0.0013811616 0.0018324853 -0.020243846 0.0182571 0.01007514 -0.021355096 0.008777069
0.0037900887 0.007085136 -0.0008474148 -0.010085759 0.002662375 0.02256507 0.00025453977 -0.034976874
-0.02364471 -0.04277574 0.0010984464 0.03633204 -0.0022492507 -0.02398565 -0.019246908 0.015572983
-0.022419067 0.0049215914 0.028993228 0.008534237 0.008366682 0.033041216 0.0027596722 -0.039424628
0.031925857 0.0065038293 -0.002414519 -0.011715487 0.011622755 -0.020005058 0.01868403 -0.038128212
0.03064749 0.038436167 -0.03835542 -0.029986281 -0.044755977 0.020904833 0.014364819 0.011068449
0.01838979 0.026252354 0.02797929 -0.009648858 0.015875217 -0.004562173 0.029656334 0.027307393
0.024185527 0.013700857 0.0046640313 -0.013746899 0.008825746 0.02632039 0.034695685 0.015204597
0.024771674 -0.011595945 -0.0126803 -0.026099179 0.0293295 -0.015380087 0.03938286 0.02300387
0.005892746 0.01064456 0.0011804337 0.019567478 0.010111887 -0.020389816 0.025252914 -0.016082043
0.025319988 0.024880042 0.01441966 0.029767113 -0.022750039 0.0027189963 -0.023139315 -0.021893205
0.0146503905 0.021872077 -0.039792318 -0.03765755 0.01606788 -0.005893809 0.006102208 -0.012346958
-0.021980872 -0.036038272 0.014644783 -0.0045595383 -0.038910903 -0.029437019 -0.021466043 -0.03896046
-0.009084921 -0.017383754 -0.02105728 -0.01252039 0.034350824 -0.030384304 -0.03943778 0.0033123193
-0.005910041 -1.1940955e-11 -0.0024519768 -0.002380622 -2.5178411e-11 0.014689667 -0.0037384052 -0.0019576666
0.0066787214 -0.00068970944 -0.033701565 -0.019032791 -2.979796e-05 0.012959581 -0.015210426 0.02129145
0.037046835 0.004193601 0.012162087 -0.02512282 -0.024075806 0.008637068 -0.013442798 0.032977685
-0.0082212305 -0.020871403 0.013162465 -0.01659807 -0.03976696 -0.012856111 -0.038209382 -0.040741306
-0.0070418185 -0.021045668 -0.01710997 -0.029310847 0.003614289 -0.02445542 -0.02371651 -0.020216437
-0.0338116 -0.014753154 -0.026458835 -0.0274433 0.02311118 -0.011310917 -0.012972668 -0.029214684
-0.0033290759 -0.035045024 0.017066734 -0.0128030125 0.025104955 -0.017716808 -0.027288053 -0.019472828
-0.02778049 -0.034222398 0.008279685 -0.031356886 -0.0032550315 -0.014445002 0.022969026 0.02506355
-0.03256581 0.021999868 -0.031638287 -0.04142588 0.025361815 -0.003493887 -0.028318668 0.020182237
0.03259381 0.020604994 0.030222105 -0.014144223 0.003401123 -0.036357593 0.011649798 0.017300935
0.026775738 0.027759612 -0.021636795 0.017140957 0.01675332 0.002001943 -0.03297815 0.022372676
-0.028583141 0.031684075 -0.0032649597 0.010979732 -0.02151623 -0.01785878 -0.020061187 -0.014359874
0.0055887527 0.008445915 -0.010330064 0.009791018 0.01966254 -0.028444666 -0.035796583 0.019689783
0.014263788 0.0007724771 -0.015567096 -0.0385003 -0.0070273494 0.023457035 -0.035349533 0.030001268
00000000: 1cfe 14bd ab88 dfbb f376 30bd 0081 4cbc
00000010: 75a2 efbc e775 33bd 84cd 00bd 37aa 13bd
00000020: acb4 733c d865 7ebc 647c a3bc d8c4 bb3c
00000030: 6024 893c 06db 2bbd 1f19 23bd 76b9 d4bc
00000040: 1098 b53b ae7f 52bc 0a56 653c f593 17ad
00000050: 8352 37bc 72e6 01bc 024f 923b 1099 4a3c
00000060: 8c71 5439 7ea8 11bb ea64 84bb 24ef fa39
00000070: 453b 0138 1dd4 c9bb be96 93bb 8b13 6a3c
00000080: ccee 9339 1808 b53a 0130 f03a 6cd6 a5bc
00000090: ea8f 953c 3312 253c e2f0 aebc b2cd 0f3c
000000a0: 2363 783b 6e2a e83b 0b25 5eba bd3e 25bc
000000b0: 3e7b 2e3b 62da b83c c073 8539 e943 0fbd
000000c0: 8db2 c1bc 9d35 2fbd bff9 8f3a e8d0 143d
000000d0: 2a68 13bb 8e7d c4bc b1ab 9dbc d325 7f3c
000000e0: 31a8 b7bc 4d45 a13b 3583 ed3c 2fd3 0b3c
000000f0: 6814 093c 3a56 073d 9edb 343b b87b 21bd
00000100: b0c4 023d 131e d53b e83c 1ebb 50f2 3fbc
00000110: 5e6d 3e3c a6e1 a3bc 400f 993c 542c 1cbd
00000120: 7210 fb3c 3e6f 1d3d 931a 1dbd caa5 f5bc
00000130: 0b52 37bd 9d40 ab3c 6b5a 6b3c 7158 353c
00000140: 2fa6 963c 2d0f d73c d334 e53c 3e16 1ebc
00000150: be0c 823c 487e 95bb d7f1 f23c c1b3 df3c
00000160: ba20 c63c 8f79 603c bbd4 983b ac3a 61bc
00000170: dd99 103c dc9d d73c 101d 0e3d b41c 793c
00000180: f7ed ca3c ebfc 3dbc 08c1 4fbc f2cd d5bc
00000190: 6b44 f03c c3fc 7bbc ec4f 213d 9d72 bc3c
000001a0: f017 c13b 8566 2e3c c8b8 9a3a fa4b a03c
000001b0: 54ac 253c 8b08 a7bc 33df ce3c 7dbe 83bc
000001c0: dd6b cf3c 3bd1 cb3c 7040 6c3c 29da f33c
000001d0: 4a5e babc 3031 323b a98e bdbc 6159 b3bc
000001e0: 3108 703c 122d b33c 45fd 22bd ce3e 1abd
000001f0: c9a0 833c da20 c1bb 08f5 c73b e54a 4abc
00000200: 3b11 b4bc de9c 13bd acf0 6f3c 2e68 95bb
00000210: 0a61 1fbd e725 f1bc 8ed9 afbc 0195 1fbd
00000220: ecd8 14bc 6068 8ebc 5180 acbc 5222 4dbc
00000230: 73b3 0c3d 81e8 f8bc 8289 21bd 7f13 593b
00000240: 04a9 c1bb 4811 52ad 58b1 20bb 3604 1cbb
00000250: be78 ddad eeac 703c 0800 75bb 324c 00bb
00000260: 2dd9 da3b 9ecd 34ba a70a 0abd a8ea 9bbc
00000270: a2f6 f9b7 6c54 543c 2735 79bc 686b ae3c
00000280: 6cbe 173d 7a6a 893b 7d43 473c 5fce cdbc
00000290: a03a c5bc 7d82 0d3c 2e3f 5cbc 9c13 073d
000002a0: 57b2 06bc 81fa aabc 61a7 573c adf8 87bc
000002b0: aee2 22bd 70a2 52bc 7181 1cbd 5be0 26bd
000002c0: 0ebf e6bb f767 acbc 352a 8cbc 4d1d f0bc
000002d0: b5dd 6c3b bc56 c8bc 2049 c2bc f19c a5bc
000002e0: 087e 0abd 36b7 71bc 33c0 d8bc c5d0 e0bc
000002f0: a853 bd3c 6d51 39bc 508b 54bc a253 efbc
00000300: a02c 5abb 5f8b 0fbd 89cf 8b3c bac3 51bc
00000310: e8a8 cd3c d722 91bc 328b dfbc 7b85 9fbc
00000320: e993 e3bc c92c 0cbd 84a7 073c 1470 00bd
00000330: 5e52 55bb bbaa 6cbc 8a29 bc3c 1352 cd3c
00000340: ba63 05bd 1139 b43c 2697 01bd 2fae 29bd
00000350: 95c3 cf3c b2f9 64bb 8dfc e7bc 3855 a53c
00000360: 1681 053d cecb a83c 5994 f73c 2cbd 67bc
00000370: 60e5 5e3b b3eb 14bd cbde 3e3c b1ba 8d3c
00000380: cb58 db3c 2068 e33c a63f b1bc 316b 8c3c
00000390: 423e 893c 0833 033b 1914 07bd e746 b73c
000003a0: 3127 eabc 29c7 013d eff8 55bb 55e4 333c
000003b0: ce42 b0bc 944c 92bc 5c57 a4bc ad45 6bbc
000003c0: db21 b73b bc60 0a3c 6e3f 29bc 826a 203c
000003d0: 5613 a13c ca04 e9bc 709f 12bd 784c a13c
000003e0: aab2 693c 1080 4a3a 220d 7fbc 7eb2 1dbd
000003f0: ae45 e6bb f828 c03c acca 10bd 38c5 f53c

features.7.bias f4 [64]
-0.031529885 0.022270814 -0.031416465 0.019909732 0.01393642 0.046124607 -0.036164347 0.012741215
0.015709734 -0.022627316 -0.015111355 0.018853031 -0.0239842 0.0037460192 -0.033248615 -0.015202218
0.021868054 -0.03632992 -0.0345729 0.034892604 -0.002120145 -0.014432656 0.047745828 -0.017390365
-0.0006254189 0.030814795 0.032671355 0.03876488 -0.03969653 -0.040533293 -0.018593991 -0.019630028
0.03622802 0.002186294 0.0063969065 -0.034696646 -0.01472898 0.038120285 -0.007278522 0.032307792
-0.012734867 0.024112316 -0.024359468 0.01966502 -0.016131246 -0.0031162621 0.03527923 -0.034134056
-0.027046168 0.026767759 -0.01108729 0.03919958 -0.015502136 0.017192477 0.027180351 -0.008103352
0.014433822 0.021393208 -0.0181295 -0.0049137394 -0.02626183 0.043416444 0.009933535 -0.013540273
00000000: 7b25 01bd 4871 b63c 8dae 00bd bc19 a33c
00000010: 9555 643c 28ed 3c3d 1121 14bd 87c0 503c
00000020: b3b1 803c ec5c b9bc 9e95 77bc ac71 9a3c
00000030: 837a c4bc c67f 753b b32f 08bd b912 79bc
00000040: a224 b33c afce 14bd 509c 0dbd 8ceb 0e3d
00000050: 21f2 0abb f276 6cbc 2191 433d 3d76 8ebc
00000060: 27f3 23ba 4f6f fc3c 66d2 053d ecc7 1e3d
00000070: d498 22bd 3d06 26bd 6d52 98bc 27cf a0bc
00000080: d563 143d ed47 0f3b 249d d13b 121e 0ebd
00000090: d251 71bc 0424 1c3d ab80 eebb 2d55 043d
000000a0: e7a5 50bc 3187 c53c 828d c7bc 8918 a13c
000000b0: ad25 84bc 343a 4cbb f480 103d 27d0 0bbd
000000c0: ed8f ddbc 0f48 db3c 77a7 35bc bd8f 203d
000000d0: acfc 7dbc 3dd7 8c3c 54a9 de3c ecc3 04bc
000000e0: d67b 6c3c cf40 af3c 5184 94bc 6f03 a1bb
000000f0: 0d23 d7bc 71d5 313d 44c0 223c 05d8 5dbc

features.10.weight f4 [64, 64, 1, 1]
-0.057180297 0.09014961 0.09152155 0.04039371 -0.054274496 -0.0789997 0.09895567 -0.013798121
-0.07563001 -0.04000111 0.026134 0.12544103 0.09006552 -0.087176904 -0.03655571 0.001977754
0.010810086 0.055532068 -0.12444409 -0.0989195 -0.091101 0.09888762 0.00015388272 -0.004326888
-7.4810545e-05 0.09561687 -0.06829659 0.11858554 0.05576831 -0.07922736 0.07026956 0.12643927
-0.01663911 -0.040345155 0.07317137 0.020895487 0.099241 0.011849205 0.008158022 -0.08737827
-0.06482925 -0.06845766 0.048640992 0.0676786 -0.023907768 0.011767688 -0.10011065 0.0724456
-0.05205541 0.0084678875 0.051448584 -0.10349281 0.09154762 0.071348555 0.13607572 0.027285319
-0.06717569 -0.08857164 0.030258631 -0.10324666 -0.008666044 0.037682522 0.06117681 -0.058021326
0.0069433125 0.03752741 -0.00077062746 -0.06727669 -0.022596173 -0.04746183 -0.0005953399 -0.0038773762
-0.055856 0.047934376 -0.061189797 -0.011746061 0.024315909 -0.00036551128 -0.021076601 0.0047022467
0.027872508 0.0060882973 -0.09368592 -0.07869659 0.007335671 0.011047837 0.084822 0.03167375
-0.0018741712 0.0013431964 -0.0097328415 0.002831768 0.019836487 2.7457098e-10 -0.07233097 -0.096457966
0.099549 -0.002305989 -0.058829524 0.0048598284 -0.04783687 0.074560165 0.073357165 -0.020583881
-0.06446186 -0.0029215834 0.09650712 -0.08995889 0.0506035 0.061827146 -0.038868032 0.04380397
-0.018820371 -3.388199e-05 0.03682329 -0.033468932 0.000108351596 -0.0228885 0.06666499 0.08425202
-0.048939694 1.7739874e-11 -0.0057199006 0.009912025 0.023472097 -0.03208943 0.015902882 0.080662355
-0.0037099298 -0.04549265 -0.09022824 -0.007493557 -0.0142012965 0.056923423 0.023923637 0.04697062
0.08003061 -0.00032604608 -0.0006860157 -0.026497833 -0.092398316 -0.12818062 -0.041265883 0.0069275373
-0.047674164 -0.08325363 -0.039172146 -0.008069526 -0.024111854 0.046786707 0.110778235 0.047576852
-0.00057901203 0.059857402 0.09419912 0.044900924 0.10061592 0.0037542768 -0.06353908 0.05447174
0.08391283 -0.05761582 -0.012400738 -0.08099062 0.09352338 -0.0027927211 0.07190705 -0.023259308
0.055864505 -0.09728502 0.07515055 0.03373097 -0.096980736 -0.022086691 -0.048334677 0.057092037
0.109160006 -0.008489342 -0.0040896637 0.07493011 -0.010163407 0.026653312 0.06399312 -0.046310954
-0.12008584 0.0823027 0.05640448 0.0031176368 -0.02381437 0.061193533 -0.030268662 0.07692644
0.062390696 -0.092397615 0.0024883575 -0.08349118 0.033129137 -0.06662417 -0.07701439 -0.114594474
0.09423876 -0.070646785 0.07790753 0.056747336 0.11400071 0.1021858 0.017529326 -0.03024264
0.06261719 0.042771578 0.020800149 -0.0104646105 0.09205607 0.08115236 -0.07998384 -0.07244547
-0.020560447 -0.0009110322 -0.034055114 0.11318506 -0.069388084 -0.00923776 0.11106733 0.016281292
0.0034003924 -0.018844442 -0.013791713 -0.04041959 -0.040646646 0.10357608 0.009573798 0.09187353
-0.002712859 -0.111116834 0.071029566 0.042833894 0.12258616 0.08527073 0.06610438 0.054108858
0.041779324 0.05731577 -0.100705124 0.07038974 0.08161524 0.10705829 -0.033477016 -0.006114805
-0.08242746 0.106595434 0.007970378 0.063744605 0.027004387 0.11202639 0.030772697 0.090147294
00000000: e335 6abd 5ca0 b83d a76f bb3d e073 253d
00000010: ef4e 5ebd 98ca a1bd 45a9 ca3d 8411 62bc
00000020: e8e3 9abd 34d8 23bd f816 d63c 9d73 003e
00000030: 4574 b83d ce89 b2bd 71bb 15bd 359d 013b
00000040: c91c 313c 9875 633d 8bdc febd 4f96 cabd
00000050: 2993 babd 9885 ca3d 945b 2139 91c8 8dbb
00000060: 9be3 9cb8 c7d2 c33d 15df 8bbd fadc f23d
00000070: 506d 643d f441 a2bd 7de9 8f3d 4c79 013e
00000080: be4e 88bc f640 25bd dfda 953d 032d ab3c
00000090: de3e cb3d 2b23 423c 39a9 053c 61f3 b2bd
000000a0: 33c5 84bd 8833 8cbd c73b 473d 149b 8a3d
000000b0: 39da c3bc 43cd 403c d006 cdbd 5c5e 943d
000000c0: 0e38 55bd e5bc 0a3c c0bb 523d 0af4 d3bd
000000d0: 527d bb3d 311f 923d 6f57 0b3e 7685 df3c
000000e0: 6893 89bd 0c65 b5bd f3e0 f73c fc72 d3bd
000000f0: 06fc 0dbc fd58 1a3d 8994 7a3d c5a7 6dbd
00000100: ba84 e33b 57b6 193d ef03 4aba 5cc8 89bd
00000110: 9c1b b9bc 5667 42bd 9610 1cba 941b 7ebb
00000120: 43c9 64bd d656 443d 27a2 7abd 8d72 40bc
00000130: 2832 c73c 18a2 bfb9 d6a8 acbc 4e15 9a3b
00000140: e354 e43c 5780 c73b 67de bfbd ae2b a1bd
00000150: 1260 f03b fd01 353c 28b7 ad3d 56bc 013d
00000160: c0a6 f5ba 310e b03a 7f76 1fbc 2f95 393b
00000170: 2180 a23c 6ef2 962f 4222 94bd c18b c5bd
00000180: 59e0 cb3d 1320 17bb 3af7 70bd 323f 9f3b
00000190: 98f0 43bd 00b3 983d 483c 963d 879f a8bc
000001a0: 9404 84bd 0978 3fbb 86a5 c53d 5e3c b8bd
000001b0: 9e45 4f3d 763e 7d3d 1634 1fbd cb6b 333d
000001c0: 2e2d 9abc 821c 0eb8 05d4 163d b816 09bd
000001d0: d23a e338 aa80 bbbc a787 883d 538c ac3d
000001e0: fd74 48bd a50a 9c2d 016e bbbb 0c66 223c
000001f0: 8e48 c03c 3570 03bd c346 823c 4e32 a53d
00000200: 4b22 73bb 8056 3abd 95c9 b8bd 838c f5bb
00000210: 8eac 68bc 8928 693d 81fb c33c 4464 403d
00000220: 17e7 a33d 2af1 aab9 bcd5 33ba fc11 d9bc
00000230: 543b bdbd c841 03be 6a06 29bd 6500 e33b
00000240: fc45 43bd e180 aabd f972 20bd 0c36 04bc
00000250: 3986 c5bc 6ba3 3f3d b3df e23d f2df 423d
00000260: d7c8 17ba 092d 753d 78eb c03d 08ea 373d
00000270: b80f ce3d 500a 763b c720 82bd c21d 5f3d
00000280: 7dda ab3d 91fe 6bbd 772c 4bbc 69de a5bd
00000290: 3089 bf3d 1606 37bb 0144 933d 4e8a bebc
000002a0: 2ed2 643d 5e3d c7bd 88e8 993d 7c29 0a3d
000002b0: d69d c6bd 26ef b4bc 95fa 45bd 57d9 693d
000002c0: 488f df3d e216 0bbc 9602 86bb f574 993d
000002d0: 6b84 26bc 0c58 da3c d30e 833d 8eb0 3dbd
000002e0: 91ef f5bd 518e a83d 6208 673d 4451 4c3b
000002f0: 5b16 c3bc 12a6 7a3d fcf5 f7bc 9c8b 9d3d
00000300: 638d 7f3d f63a bdbd b613 233b 6cfd aabd
00000310: 6bb2 073d 4172 88bd b8b9 9dbd 82b0 eabd
00000320: 4000 c13d 43af 90bd fc8d 9f3d e56f 683d
00000330: 3479 e93d ca46 d13d a999 8f3c 6abf f7bc
00000340: 713d 803d 4031 2f3d 1365 aa3c c273 2bbc
00000350: e587 bc3d 3533 a63d 91ce a3bd 4a5e 94bd
00000360: 626e a8bc 56d2 6eba 607d 0bbd 92cd e73d
00000370: 571b 8ebd f959 17bc 4577 e33d 5860 853c
00000380: 1ed9 5e3b a95f 9abc a3f6 61bc 038f 25bd
00000390: 197d 26bd b21f d43d 6bdb 1c3c 3028 bc3d
000003a0: 39ca 31bb 3991 e3bd f377 913d 9872 2f3d
000003b0: 740e fb3d 6ca2 ae3d bc61 873d 40a1 5d3d
000003c0: cc20 2b3d f1c3 6a3d 7d3e cebd 7f28 903d
000003d0: e425 a73d 6041 db3d 321f 09bd b45e c8bb
000003e0: bacf a8bd b54e da3d 3096 023c 888c 823d
000003f0: 4e38 dd3c 186e e53d 0617 fc3c 259f b83d

features.10.bias f4 [64]
0.11628641 0.00058149017 0.0322503 0.007328669 0.12079651 0.043499604 0.050062712 0.116684005
0.029391931 -0.036118776 0.004801145 -0.059924543 -0.042068608 -0.067515865 -0.10545757 -0.018321369
-0.05668486 0.032881305 -0.061308455 0.014483507 0.09125393 -0.033910166 0.08918572 0.0077024247
-0.015523445 0.055336695 0.016180651 -0.055556927 -0.0514851 -0.0061853705 -8.783638e-11 0.0862226
0.0019149383 -0.025329195 -0.072826855 -0.025726888 0.0348193 0.028778257 0.10273883 0.12318018
0.09562591 -0.02900853 -0.017954592 0.01217096 0.08865011 0.006406491 -0.047579248 -0.02056823
-0.037345756 0.10362675 -0.03100468 -0.093341306 -0.05300416 0.11465828 -0.028572647 0.0034052196
-0.014905927 0.05100782 0.064070754 0.12338355 -0.049857944 0.0882995 0.07323659 -0.04584509
00000000: 9227 ee3d 256f 183a e418 043d 5525 f03b
00000010: 2964 f73d a42c 323d 8f0e 4d3d 06f8 ee3d
00000020: 59c7 f03c 48f1 13bd ec52 9d3b 7073 75bd
00000030: 2250 2cbd c245 8abd 23fa d7bd b216 96bc
00000040: 622e 68bd 8cae 063d 931e 7bbd 3b4c 6d3c
00000050: 57e3 ba3d 63e5 0abd 01a7 b63d 9f64 fc3b
00000060: 0c56 7ebc bba8 623d 498d 843c a98f 63bd
00000070: 0ae2 52bd a6ae cabb 7c27 c1ae 7995 b03d
00000080: abfe fa3a 2c7f cfbc 3f26 95bd 32c1 d2bc
00000090: af9e 0e3d 61c0 eb3c bc68 d23d e445 fc3d
000000a0: 84d7 c33d 4ca3 edbc 8215 93bc b568 473c
000000b0: 308e b53d 8bed d13b 75e2 42bd b47e a8bc
000000c0: ddf7 18bd 433a d43d 87fd fdbc ba29 bfbd
000000d0: e41a 59bd f6d1 ea3d 2f11 eabc 1b2a 5f3b
000000e0: fd37 74bc 93ed 503d 8737 833d 84b0 fc3d
000000f0: d837 4cbd 5ed6 b43d 11fd 953d 10c8 3bbd

classifier.0.weight f4 [3, 64]
-0.10601889 -0.07813183 -0.0052040634 -0.048522633 -0.08723375 -0.01802747 0.07990394 -0.06712984
-0.10603279 -0.11982986 0.051477913 -0.08742273 0.014237472 -0.053923935 0.11610434 0.045463856
-0.025767908 0.067144364 -0.057590414 -0.08267513 -0.08595365 0.086647876 0.1221756 -0.094063535
-0.07487594 -0.07866124 0.085369006 0.06582436 0.035095382 0.12822644 0.036735974 0.102739766
0.0011071214 -0.096904755 0.05240941 0.06547065 0.08521104 -0.00092279003 0.12578876 -0.0037503294
-0.103181824 0.07381632 -1.9043313e-05 -0.14876619 -0.1170603 -0.062846154 0.07415355 -0.034757126
-0.12421252 -0.051888846 -0.079944134 -0.08386773 -0.099154726 -0.10266979 -0.053674594 0.06812729
0.055189155 -0.088332295 0.023227485 0.08511919 -0.08312657 -0.016383551 0.031425264 -0.11342516
0.020979095 -0.07054118 0.02637666 0.036205944 0.12338154 0.10805511 -0.063994184 -0.080609314
0.058250662 -0.079591356 -0.010518108 0.022233183 0.0014551869 -0.05469482 6.169489e-05 -0.022651728
-0.0110869445 0.051396504 -0.054309234 -0.005677296 -0.0111659095 -0.002627146 0.12049284 -0.07017266
-0.01511619 0.08071938 -0.10778221 0.003259639 -0.072439715 0.070048705 0.014289128 0.003335675
0.032131393 0.12262159 0.039850075 -0.05270543 0.116661504 -0.057078965 -0.08879576 -0.10356723
-0.024521535 0.08601036 -0.049822144 0.004757108 0.09666337 -0.027398283 -0.071314014 -0.002199076
0.013861157 -0.069778614 -0.036347628 -0.009583006 0.015268067 0.08450736 0.01144822 -0.12397308
-0.070111126 0.08099322 0.061771706 -0.08922892 0.04850591 0.07406648 -0.074725814 -0.104466796
0.05413951 -0.00061523746 0.04066849 0.0032423416 0.056406457 -0.11381188 0.028992929 0.03141232
0.006354922 0.033598665 -0.14113003 0.07296119 -0.0015926557 5.585932e-11 -0.07746465 2.5371625e-12
-1.0804129e-07 -0.12727933 0.031464886 0.047786154 0.11072551 0.01623784 0.07689735 0.112555176
0.042453367 -0.004417323 0.08211985 -0.11141802 0.008353979 -0.09875324 -0.000408385 0.1328572
-0.12098073 0.08770718 -0.12315851 -0.023406023 -0.1302612 0.12306483 0.1057814 -0.12765704
-0.094175786 0.085829906 -0.0054563936 0.12511802 0.007995458 -0.12756 -0.07856066 -0.06544739
0.09534082 -0.036490194 0.046525612 0.0755464 -0.031863943 -0.0330431 -0.13428167 -0.032759834
-0.11923075 -0.058516826 0.021798115 -0.08324397 -0.07867975 -0.099210255 -0.024261713 0.004994519
00000000: 6f20 d9bd 9503 a0bd d986 aabb abbf 46bd
00000010: 9ca7 b2bd 58ae 93bc ada4 a33d 5f7b 89bd
00000020: b827 d9bd 5c69 f5bd 81da 523d b00a b3bd
00000030: 4944 693c 58df 5cbd 1dc8 ed3d 4f38 3a3d
00000040: 3817 d3bc fc82 893d ede3 6bbd 9451 a9bd
00000050: 7808 b0bd 7174 b13d 3337 fa3d 62a4 c0bd
00000060: 8f58 99bd 2519 a1bd f2d5 ae3d ecce 863d
00000070: 2dc0 0f3d cb4d 033e 7678 163d 3a69 d23d
00000080: d41c 913a 0076 c6bd 40ab 563d 7a15 863d
00000090: 2083 ae3d 64e7 71ba c5ce 003e 16c8 75bb
000000a0: fe50 d3bd 032d 973d 34bf 9fb7 2a56 18be
000000b0: 50bd efbd 7cb5 80bd d1dd 973d 7d5d 0ebd
000000c0: 2263 febd 6689 54bd c0b9 a3bd d8c2 abbd
000000d0: a211 cbbd 8a44 d2bd e4d9 5bbd 5286 8b3d
000000e0: 060e 623d 90e7 b4bd 9147 be3c f852 ae3d
000000f0: 433e aabd cc36 86bc c7b7 003d 734b e8bd
00000100: 5adc ab3c e577 90bd de13 d83c af4c 143d
00000110: 76af fc3d ff4b dd3d 620f 83bd 7f16 a5bd
00000120: 3f98 6e3d cb00 a3bd 2454 2cbc 5d22 b63c
00000130: f8bb be3a ad07 60bd 3162 8138 1e90 b9bc
00000140: 04a6 35bc 2485 523d 5c73 5ebd 9c08 babb
00000150: 38f1 36bc 322c 2cbb f3c4 f63d afb6 8fbd
00000160: e5a9 77bc 3450 a53d ebbc dcbd ab9f 553b
00000170: 465b 94bd b275 8f3d f21c 6a3c 579b 5a3b
00000180: 359c 033d 0721 fb3d d539 233d a6e1 57bd
00000190: 3aec ee3d a2cb 69bd 8dda b5bd 0e1b d4bd
000001a0: 63e1 c8bc 3326 b03d 4e12 4cbd 84e1 9b3b
000001b0: 72f7 c53d 5d72 e0bc 150d 92bd 601e 10bb
000001c0: e819 633c 17e8 8ebd 40e1 14bd 0a02 1dbc
000001d0: ea26 7a3c 3212 ad3d 5191 3b3c 99e5 fdbd
000001e0: 6c96 8fbd c6df a53d 5404 7d3d a7bd b6bd
000001f0: 22ae 463d 2bb0 973d d909 99bd b0f2 d5bd
00000200: 64c1 5d3d e347 21ba 0194 263d 777d 543b
00000210: 750a 673d 3416 e9bd 9482 ed3c 34aa 003d
00000220: f33c d03b c19e 093d 6484 10be ad6c 953d
00000230: a8c0 d0ba 01ac 752e c9a5 9ebd 7589 322c
00000240: 5404 e8b3 8355 02be 53e1 003d 6abb 433d
00000250: 0ec4 e23d 3805 853c 5c7c 9d3d 5483 e63d
00000260: 95e3 2d3d 31bf 90bb 742e a83d 222f e4bd
00000270: 21df 083c 243f cabd 821c d6b9 b80b 083e
00000280: bfc4 f7bd d29f b33d 873a fcbd fdbd bfbc
00000290: 3163 05be 6a09 fc3d eba3 d83d 87b8 02be
000002a0: 3cdf c0bd 97c7 af3d 8ccb b2bb f01e 003e
000002b0: 62ff 023c 179f 02be 69e4 a0bd 4809 86bd
000002c0: 0c42 c33d be76 15bd a491 3e3d 12b8 9a3d
000002d0: c483 02bd 3458 07bd 2281 09be 2d2f 06bd
000002e0: 402f f4bd 57af 6fbd f691 b23c d17b aabd
000002f0: d922 a1bd bf2e cbbd 80c0 c6bc 10a9 a33b

classifier.0.bias f4 [3]
-0.09758774 0.07807334 0.12135009
00000000: 15dc c7bd eae4 9f3d 6586 f83d
