best_model_experience_0.pth (torch, 854342 bytes, 36 tensors)

features.0.weight f4 [32, 3, 3, 3]
0	0x3e16b648	0.14717972
1	0x3e239dc6	0.15978155
2	0xbd38785e	-0.045036666
3	0x3e35139f	0.17683266
4	0xbd2c845c	-0.042118415
5	0x3d1f46ac	0.038885757
6	0xbdbfcae0	-0.09364867
7	0x3de791d5	0.11307112
8	0x3e2dc6e1	0.16970398
9	0xbe108784	-0.14114195
10	0x3e2b56e2	0.16732362
11	0x3d13bc49	0.036068235
12	0x3e11a4c0	0.14223003
13	0x3cd5e745	0.026111254
14	0x3dbe2702	0.09284784
15	0xbcde3603	-0.027125364
16	0x3e17f783	0.14840512
17	0x3ce97165	0.028496454
18	0xbdb7ede7	-0.08980923
19	0x3d4914e7	0.0490922
20	0xbdb583a0	-0.08862996
21	0xbcb89548	-0.02253212
22	0xbd9fff54	-0.07812372
23	0x3e02c649	0.12770952
24	0xbe1b84cc	-0.15187377
25	0xbdb59c78	-0.08867735
26	0xbd5e661b	-0.054296594
27	0xbdecd415	-0.11563889
28	0x3c956b6f	0.018239705
29	0xbe4290b9	-0.1900052
30	0x3e320db2	0.17388037
31	0xbe2752dc	-0.16340202
32	0x3e183827	0.1486517
33	0x3d03816c	0.03210585
34	0xbd7fa048	-0.062408715
35	0x3df3b74b	0.11900195
36	0x3cf63b3d	0.030057544
37	0x3e1f4a60	0.15555716
38	0x3cacdd86	0.021101724
39	0xbd785581	-0.060628418
40	0x3d541198	0.05177459
41	0xbd5580c1	-0.052124742
42	0x3da60306	0.081060454
43	0x3e300485	0.17189224
44	0x3de3f837	0.111313276
45	0xbdac096b	-0.08400234
46	0x3de3cb80	0.11122799
47	0x3d0d958c	0.034566447
48	0x3dc86fe3	0.09786966
49	0xbdeff25e	-0.1171615
50	0xbe42f156	-0.19037375
51	0xbd97fc0f	-0.07421123
52	0xbe170208	-0.14746869
53	0x3e21d904	0.15805441
54	0x3d62d3b7	0.05537769
55	0x3da324c6	0.07965998
56	0x3d79109b	0.06080685
57	0xbb5f1b12	-0.0034043235
58	0x3e1a2b1f	0.15055512
59	0xbe0c14a3	-0.13679747
60	0x3c458fe4	0.012058232
61	0xbe0691d3	-0.13141565
62	0x3d72d1d8	0.059282154
63	0xbd87d5aa	-0.0663255
64	0x3d715581	0.058919434
65	0xbd247396	-0.040149294
66	0x3e236552	0.1595662
67	0xbde9b724	-0.114118844
68	0xbdeb2dbf	-0.11483335
69	0xbdeb2f31	-0.114836104
70	0x3e3131fb	0.17304222
71	0x3d833ae0	0.06407714
72	0x3e3d9681	0.18514444
73	0xbe22af71	-0.15887238
74	0xbe438873	-0.1909502
75	0xbe1a3ad1	-0.15061499
76	0xbe049f3f	-0.12951373
77	0x3d9f81ae	0.07788406
78	0x3d8d0570	0.06885803
79	0x3e23aff2	0.15985087
80	0xbdcbad4b	-0.099451624
81	0xbe0626a4	-0.13100678
82	0x3dd18075	0.10229579
83	0xbd9eee31	-0.07760275
84	0x3def9a5c	0.116993636
85	0xbd3a493a	-0.04547999
86	0x3de1d9ba	0.11027856
87	0xbe18eb66	-0.14933547
88	0xbdc682ea	-0.096929386
89	0x3d711ad9	0.058863495
90	0x3d276c06	0.040874504
91	0xbd4835e2	-0.04887951
92	0x3deb5152	0.1149012
93	0x3e062a08	0.13101971
94	0xbe0eb725	-0.13937052
95	0xbdd20790	-0.10255349
96	0x3e34a4fe	0.17641065
97	0xbd849a4b	-0.064747415
98	0xbd8b55d5	-0.068034805
99	0xbe3ec163	-0.18628459
100	0xbde1dd8c	-0.11028585
101	0x3d449d21	0.048001412
102	0xbcd0b44b	-0.025476595
103	0xbe0f20d4	-0.13977367
104	0x3b9166ad	0.0044372887
105	0xbe06b1fc	-0.13153833
106	0xbe274546	-0.1633502
107	0xbdd93265	-0.10605315
108	0xbe2c5f04	-0.1683312
109	0xbdfac2ea	-0.12244208
110	0x3e451714	0.19247085
111	0x3d154bbf	0.03644919
112	0x3d734db4	0.059400275
113	0xbe37b4f9	-0.1794013
114	0xbe015552	-0.12630203
115	0xbd83025c	-0.063969344
116	0x3cf73f4e	0.030181553
117	0xbe2d4da4	-0.16924149
118	0xbda9a200	-0.08282852
119	0xbdebc5ae	-0.11512314
120	0x3a24cc20	0.00062865205
121	0xbd9279d1	-0.07152141
122	0xbc590bb1	-0.013247416
123	0xbe05730c	-0.13032168
124	0xbe072ec7	-0.13201438
125	0xbde5c5c5	-0.11219362
126	0xbd86b3d7	-0.065772705
127	0xbe1b6fcb	-0.15179364
128	0x3e255821	0.161469
129	0xbd1c068f	-0.038092192
130	0x3e29a9ae	0.16568634
131	0x3d760a65	0.060068507
132	0xbe26c65e	-0.16286609
133	0x3e087b93	0.1332839
134	0xbd587735	-0.05284806
135	0xbd96d536	-0.073648855
136	0xbe23777e	-0.15963551
137	0xbe43d4a1	-0.1912408
138	0x3d62071c	0.05518256
139	0xbd2bbdbc	-0.04192899
140	0x3d999da6	0.07500772
141	0xbe219f21	-0.15783359
142	0x3e12676e	0.14297268
143	0xbe109525	-0.14119394
144	0xbd079483	-0.033100616
145	0x3d2525c4	0.04031922
146	0x3dcbab71	0.09944809
147	0x3e1f3a32	0.15549543
148	0x3e33a511	0.17543437
149	0xbe1c2979	-0.15250196
150	0x3d46d847	0.048546102
151	0xbda950e0	-0.08267379
152	0xbcac0b2a	-0.021001417
153	0xbe135f57	-0.14391838
154	0x3e33a1f9	0.17542256
155	0xbe108810	-0.14114404
156	0x3dd2ea0d	0.10298548
157	0x3d8ac7bb	0.06776377
158	0x3d804a9f	0.06264233
159	0xbdd4da75	-0.1039323
160	0x3e333cf2	0.17503718
161	0x3d2d9aaf	0.042383846
162	0x3ccc1ca1	0.024915995
163	0xbe2d80e6	-0.16943702
164	0x3da5c80c	0.080947965
165	0xbceb332e	-0.028710928
166	0xbdb43b91	-0.08800424
167	0x3e296f6d	0.16546412
168	0x3d306a60	0.043070197
169	0xbdd9baa7	-0.10631304
170	0xbdc7277d	-0.09724329
171	0xbc13f9af	-0.009031697
172	0x3ddc65b6	0.10761587
173	0xbd48c821	-0.049018983
174	0xbde08eaf	-0.10964715
175	0xbd86a461	-0.065743215
176	0xbe131022	-0.14361623
177	0x3d8ce51f	0.06879639
178	0x3e18b4e6	0.14912757
179	0xbe395cf8	-0.18101871
180	0x3d37c029	0.044860993
181	0x3dcbf2d5	0.09958426
182	0x3d0f9d99	0.035062406
183	0xbd8c068b	-0.068371855
184	0x3dce0ece	0.100614175
185	0x3dcf768e	0.101300344
186	0x3d93b7ab	0.07212766
187	0xbd09d3f0	-0.033649385
188	0xbd500c19	-0.050792787
189	0x3caa18a6	0.020763706
190	0xbd0a71d3	-0.033799957
191	0xbd6a182b	-0.057151955
192	0x3dfc38f2	0.12315549
193	0x3e298bc2	0.1655722
194	0xbc9a77f4	-0.018856026
195	0xbd2ff574	-0.04295869
196	0x3b419242	0.002953664
197	0xbc396c64	-0.011317346
198	0x3d3e32cd	0.046435166
199	0x3d5db848	0.054130822
200	0xbe32c8d2	-0.1745942
201	0xbd913798	-0.07090682
202	0x3e2619c7	0.16220771
203	0x3d99f180	0.075167656
204	0xbc1b23e2	-0.009469004
205	0xbded7a02	-0.11595537
206	0xbdf0ebec	-0.117637485
207	0xbe3068fb	-0.17227547
208	0xbd804403	-0.06262972
209	0x3d85528b	0.065098844
210	0x3dfb8c6e	0.12282644
211	0x3db63146	0.08896117
212	0xbe2e164f	-0.17000698
213	0xbdecc49b	-0.11560937
214	0xbcf7d984	-0.030255087
215	0x3e3ec079	0.1862811
216	0x3ce2b6eb	0.027675113
217	0xbd4cbb7d	-0.04998349
218	0x3da2b7b5	0.079451956
219	0xbd9678bb	-0.07347246
220	0xbdff7479	-0.12473387
221	0x3e0fa84d	0.14029045
222	0xbdb39194	-0.08768001
223	0xbd1ec04b	-0.038757604
224	0xbe443a65	-0.19162901
225	0x3e03cc0c	0.12870806
226	0x3e153380	0.14570427
227	0x3d8f60e2	0.07000901
228	0xbe098838	-0.1343087
229	0xbe429ece	-0.19005892
230	0xbe203497	-0.15645061
231	0x3e12d0af	0.14337419
232	0x3dbce8f7	0.09224122
233	0x3e25aa28	0.1617819
234	0x3dce9347	0.10086685
235	0x3d47ac35	0.048748214
236	0xbaf202ff	-0.0018464028
237	0xbe15d1c2	-0.14630798
238	0xbe28cc66	-0.16484222
239	0xbe384aa5	-0.17997225
240	0x3da172e7	0.07883244
241	0xbdc16bb9	-0.094443746
242	0xbd1e7fcc	-0.038696095
243	0xbde33cec	-0.11095604
244	0xbd1075d6	-0.035268627
245	0xbe0ae8ac	-0.1356532
246	0xbe00f8ec	-0.12594956
247	0x3d82547c	0.0636377
248	0xbd6b1790	-0.057395518
249	0x3df2e946	0.118608996
250	0xbd7db3f2	-0.061939187
251	0xbe10c46a	-0.14137426
252	0xbd0be4f3	-0.03415389
253	0xbdbf7792	-0.09348978
254	0xbd71fbf2	-0.059078164
255	0xbe3bcf6e	-0.18340847

features.0.bias f4 [32]
0	0xbdba8821	-0.09107996
1	0x3e24b48d	0.160845
2	0x3e18c5d4	0.14919215
3	0x3d6e8bc5	0.058238763
4	0x3c445330	0.011982724
5	0xbe25904d	-0.16168328
6	0xbca4ed22	-0.020132605
7	0x3e3cec48	0.18449509
8	0x3d489b47	0.04897621
9	0x3c887d29	0.016661244
10	0xbd22e202	-0.03976632
11	0xbd89a421	-0.06720758
12	0x3deabc1a	0.11461659
13	0x3c44c31e	0.01200941
14	0x3e0015d1	0.12508322
15	0xbd0c576c	-0.03426306
16	0x3dabd9b1	0.08391131
17	0x3da2dc83	0.079522155
18	0x3cfc07a2	0.030765358
19	0x3df7ecc4	0.12105706
20	0x3df70cd5	0.120629944
21	0x3e367876	0.1781939
22	0x3e178c5f	0.14799641
23	0xbd49dadc	-0.049280986
24	0xbe270c25	-0.16313227
25	0x3d0f4c74	0.03498502
26	0xbac220c0	-0.0014810786
27	0xbd4e6bfd	-0.050395954
28	0xbd03e412	-0.032199927
29	0x3c178e8e	0.009250296
30	0x3e0f9b0f	0.14023994
31	0x3d766212	0.06015212

features.2.weight f4 [32, 32, 3, 3]
0	0xbcaa026e	-0.020753112
1	0xbcc525c5	-0.024065861
2	0xbc6c064d	-0.014405799
3	0xbcb8fb3a	-0.022580732
4	0x3d59d012	0.053176947
5	0x3d009ce8	0.031399637
6	0x3d5ac24a	0.053407945
7	0x39c739ac	0.00037999207
8	0x3c45ec2f	0.012080236
9	0x3ca8f906	0.020626556
10	0xbd63a9e5	-0.055581946
11	0x3bb2cc05	0.00545645
12	0xbb7538f9	-0.0037417992
13	0xbd068204	-0.032838836
14	0xbd3a7977	-0.045525994
15	0x3d567a0e	0.052362494
16	0x3d450a49	0.04810551
17	0x3ce15b8f	0.027509479
18	0x3d671bb0	0.05642289
19	0xbcc24316	-0.02371363
20	0xbc2379cf	-0.009977772
21	0x3cb84195	0.02249221
22	0xbc207050	-0.009792402
23	0xbc3ed09c	-0.011646416
24	0xbd46bdbf	-0.0485208
25	0x3c80baa2	0.015713993
26	0xbd1292ec	-0.035784647
27	0x3b16fef4	0.0023040147
28	0x3d6c1199	0.05763397
29	0xbc95efe7	-0.01830287
30	0xbc96aae9	-0.018392043
31	0x3d125bdc	0.035732135
32	0xbcb31b8a	-0.021863718
33	0xbb9feef6	-0.0048807813
34	0x3d621e1c	0.055204496
35	0xbcc7877c	-0.024356596
36	0xbd2bd9e1	-0.041955832
37	0xbd0643e9	-0.032779608
38	0xbc87240f	-0.016496686
39	0xbce3739a	-0.027765084
40	0xbcf8f76f	-0.030391423
41	0x3cc1a459	0.023637937
42	0x3c271df1	0.01020001
43	0xbc98e360	-0.018663108
44	0xbd3c348a	-0.045948543
45	0xbc99102d	-0.018684471
46	0xbcccebe5	-0.025014827
47	0xbc9d93ed	-0.019235576
48	0xbd590178	-0.052979916
49	0x3c532fff	0.012889861
50	0xbd308e80	-0.04310465
51	0xbd3bd25a	-0.045854904
52	0xbd45f471	-0.04832882
53	0x3ccaa710	0.024737865
54	0xbd11b36b	-0.035571497
55	0xbcc88be3	-0.024480766
56	0x3d3c69c3	0.0459993
57	0x3cffcc4b	0.031225344
58	0x3d09cbef	0.03364175
59	0xbd65d25d	-0.05610882
60	0xbd2d706c	-0.042343542
61	0xbcb6c08f	-0.022308616
62	0x3d46c52a	0.048527874
63	0x3bc45927	0.005992073
64	0xbd33b575	-0.043874223
65	0x3a114cc9	0.0005542753
66	0xbd3ab954	-0.0455869
67	0xbc5040c3	-0.012710753
68	0xbc831ec1	-0.016005876
69	0x3d51289d	0.051064122
70	0x3c95d856	0.018291634
71	0xbc251c0a	-0.010077486
72	0x3c25a5f0	0.010110363
73	0xbc89e27a	-0.016831625
74	0x3cbc58fc	0.02299165
75	0x3cc0586c	0.023479663
76	0x3c829d62	0.015944187
77	0xbcbdcab2	-0.023167942
78	0x3d4eb458	0.050464958
79	0xbc08233e	-0.008309184
80	0xbcbd83e8	-0.023134187
81	0x3d17fbed	0.03710549
82	0x3d443d41	0.04790998
83	0x3d6f7982	0.05846549
84	0x3c908323	0.017640656
85	0xbca62e8b	-0.020285865
86	0x3cf39a5f	0.029736696
87	0x3d4f9e05	0.05068781
88	0xbd6d8ba7	-0.05799451
89	0xbbf5bc15	-0.0074992278
90	0xbd23d152	-0.039994545
91	0x3c373281	0.011181475
92	0x3cc73f49	0.024322169
93	0xbc444b52	-0.011980848
94	0xbb9afec6	-0.0047300784
95	0x3cd86c7b	0.026418915
96	0xbc1f3fc5	-0.009719794
97	0xbd49e347	-0.049289014
98	0x3d4095e2	0.04701794
99	0xbcf38652	-0.029727135
100	0xbbcdac03	-0.006276609
101	0x3bbc764e	0.0057514077
102	0xbb5c2db5	-0.003359658
103	0xbd623952	-0.055230446
104	0x3cdf103e	0.027229425
105	0xbcd9aee7	-0.026572658
106	0xbcf8d23c	-0.030373685
107	0x3c69d38c	0.014271628
108	0xbcfa6c92	-0.030569348
109	0xbcdd76f5	-0.027034262
110	0xbca3deac	-0.02000364
111	0xbcb3fc56	-0.02197091
112	0xbcc81943	-0.024426108
113	0xbc83c259	-0.016083883
114	0x3c7d7eef	0.015472158
115	0xbd430b42	-0.04761816
116	0xbd12e8ca	-0.035866536
117	0x3a8966d8	0.001048292
118	0x3c097db1	0.008391784
119	0x3d061ec6	0.03274419
120	0xbd28dc0e	-0.041225486
121	0x3c9b9133	0.018990135
122	0x3d09fa40	0.033685923
123	0x3d06d16d	0.032914568
124	0xbd5fffcb	-0.054687303
125	0xbcb6933c	-0.022287004
126	0xbd4effc6	-0.050536893
127	0xbd1809fa	-0.03711889
128	0x3d073842	0.033012636
129	0xbc0ddbaa	-0.008658329
130	0x3cce8698	0.025210664
131	0xbd0ce4cd	-0.03439789
132	0x3c15fb08	0.009154089
133	0xbd112b92	-0.035441943
134	0x3cf2ea4f	0.029652743
135	0xbcd38328	-0.025819376
136	0xbc7424d4	-0.014901359
137	0xbd52071d	-0.051276315
138	0x3906eee5	0.00012868231
139	0x3d6480cf	0.055786904
140	0x3ce8c532	0.028414343
141	0xbd00107e	-0.03126573
142	0x3a2aea99	0.0006519943
143	0xbbd9b9cb	-0.0066444627
144	0xbd42a9d7	-0.047525253
145	0x3d3cb324	0.04606928
146	0x3a920150	0.0011139307
147	0x3c4a0a8f	0.012331619
148	0xbcc43acb	-0.023953816
149	0xbce37475	-0.027765492
150	0x3c1e3555	0.00965627
151	0x3cb11c99	0.021620082
152	0x3c5576e0	0.01302883
153	0xbce7967f	-0.028270004
154	0x3d6ab219	0.057298753
155	0xbc1149f3	-0.0088677285
156	0xbd131e53	-0.03591759
157	0xbce10120	-0.027466357
158	0x3d6cd108	0.057816535
159	0x39117b16	0.0001387413
160	0xbc01bef2	-0.00791906
161	0xbcca809b	-0.024719527
162	0xbc79d44d	-0.01524837
163	0xbd4a858b	-0.049443763
164	0xbd3f035d	-0.046634067
165	0x3d0e0bda	0.03467927
166	0x3d4f41d7	0.0505999
167	0x3d6720f9	0.05642793
168	0xbd2d7223	-0.042345177
169	0x3d03588d	0.03206687
170	0xbd1495c2	-0.036275633
171	0x3d10cafc	0.03534983
172	0x3d2ef542	0.042714365
173	0x3d3b9758	0.04579863
174	0x3d2e99ea	0.042627253
175	0x3d17c9d8	0.037057728
176	0x3ab0391a	0.0013444752
177	0x3cdf7017	0.027275128
178	0xbcab1aee	-0.020886865
179	0x3cd3d1f2	0.025856946
180	0xbc9b67da	-0.018970419
181	0xba4eef06	-0.00078938936
182	0xbd51412b	-0.05108754
183	0xbc7d2a42	-0.01545197
184	0xbcfc376f	-0.030788152
185	0xbca1316f	-0.019676892
186	0xbd1a4198	-0.03766021
187	0xbd58486b	-0.05280344
188	0x3b8439f3	0.0040352284
189	0x3d1d657f	0.038426872
190	0x3d5b8b2d	0.053599525
191	0x3d0c814c	0.034302995
192	0xbcf897ce	-0.030345824
193	0xbd6f3a86	-0.05840542
194	0x3cb5d4fa	0.022196282
195	0x3d07f4f1	0.03319258
196	0xbd4fcd36	-0.050732814
197	0x3cab8cff	0.020941256
198	0x3d4cdb46	0.050013803
199	0x3b680b47	0.0035407112
200	0xbd11bb8e	-0.035579257
201	0x3d468016	0.048461996
202	0x3ccfc38a	0.025361795
203	0x3d1f45e4	0.038885012
204	0xbd2271dd	-0.03965937
205	0x3d0c4701	0.034247402
206	0xbd25af5c	-0.04045044
207	0x3d6fa48c	0.058506534
208	0xbccd6661	-0.025073232
209	0x3d10b4b8	0.035328597
210	0x3c443762	0.011976095
211	0x3c7d81ce	0.015472842
212	0xbc1729bc	-0.009226259
213	0x3cc79b6f	0.024366109
214	0xbccad25d	-0.024758512
215	0xbd644c3a	-0.055736758
216	0xbcb7e3d9	-0.022447513
217	0x3d3dac7e	0.04630708
218	0xbc7b4cb0	-0.015338108
219	0x3c9934af	0.01870188
220	0xbcb0d674	-0.021586634
221	0x3d35da96	0.044397913
222	0x3d113b6a	0.035457052
223	0x3cac0a45	0.02100099
224	0xbcf52c3c	-0.02992832
225	0xbd45930a	-0.04823593
226	0x3b0c8d0a	0.002144637
227	0xbd0cc80a	-0.03437046
228	0x3d462b3c	0.048381075
229	0xbd682540	-0.05667615
230	0x3cd957b9	0.026531087
231	0x3d706a61	0.0586952
232	0x3cf167ac	0.02946838
233	0x3ca63b85	0.020292053
234	0xbd676cba	-0.056500174
235	0x3d675b7d	0.056483734
236	0xbc286879	-0.0102788145
237	0xbd60b575	-0.05486055
238	0x3d6d7647	0.057974126
239	0xbcc42533	-0.02394352
240	0xbb867c65	-0.0041041845
241	0x3d5c1bdc	0.053737506
242	0xbd28114d	-0.041032124
243	0xbd2afc9f	-0.041744824
244	0x3c1e6219	0.009666943
245	0xbbfc6e01	-0.007703543
246	0x3c5b454c	0.013383221
247	0xbd49e35c	-0.049289092
248	0x3afee62f	0.0019447262
249	0xbcd64573	-0.026156163
250	0xbcebbc1d	-0.028776223
251	0xbd5c35c8	-0.053762227
252	0x3cff6163	0.031174367
253	0x3c3730e3	0.011181089
254	0xbd4cdd0d	-0.050015498
255	0x3d3f5b14	0.04671772

features.2.bias f4 [32]
0	0xbd55c004	-0.052185073
1	0x3d6c721a	0.057726003
2	0x3d294ff0	0.041336
3	0xbd3bb50a	-0.04582695
4	0x3d3dedad	0.046369243
5	0xbd618681	-0.055059914
6	0x3d20eff9	0.039291356
7	0x3d2740f8	0.040833443
8	0x3d17df29	0.037078056
9	0x3cccea54	0.02501408
10	0xbd11c563	-0.035588633
11	0xbcd07566	-0.025446605
12	0x3c51c1e3	0.012802574
13	0x3cbcd35a	0.023049999
14	0x3d54396a	0.051812567
15	0x3b273113	0.0025511428
16	0x3cc606bd	0.024173135
17	0xbd358293	-0.04431398
18	0xbc472bcc	-0.012156438
19	0x3d0ffb02	0.03515149
20	0x3b97d97a	0.0046340795
21	0x3d3f8d56	0.046765648
22	0xbd427d84	-0.047482982
23	0xbd21873b	-0.039435606
24	0x3c96211f	0.01832634
25	0xbb1f06ab	-0.002426545
26	0xbd4dac81	-0.05021334
27	0x3ccf8fd9	0.025337147
28	0x3b122242	0.0022298251
29	0x3c68a133	0.014198589
30	0x3c562a5f	0.0130716255
31	0xbd25e0f2	-0.040497728

features.6.weight f4 [64, 32, 3, 3]
0	0xbd224d2f	-0.03962439
1	0xbd40634d	-0.0469697
2	0x3d2edf05	0.042693157
3	0xbd05205d	-0.032501567
4	0x3d5a053f	0.05322766
5	0xbc9b7f56	-0.018981617
6	0x3c5401e3	0.012939903
7	0x3d675495	0.056477148
8	0xbd0233ca	-0.03178767
9	0xbd641ac5	-0.055689592
10	0x3c0e6b95	0.008692642
11	0xbd2d644f	-0.04233199
12	0x3d05ce6e	0.03266757
13	0x3cc18c0e	0.023626354
14	0x3d2e6be2	0.042583354
15	0xbbc20bdf	-0.0059218253
16	0xbd1cebec	-0.03831093
17	0xbd5f277a	-0.054481007
18	0xbd1cb4e3	-0.038258445
19	0x3d57c8a7	0.05268159
20	0xbc4bed41	-0.012446702
21	0xba7813a0	-0.00094633736
22	0xbc4a89ca	-0.012361953
23	0xbcf57a17	-0.029965444
24	0x3d465458	0.04842028
25	0xbc77a87d	-0.015115854
26	0xbce9cf74	-0.028541304
27	0x3d5f8e10	0.05457884
28	0x3d0fdc4f	0.035122212
29	0x3d003beb	0.031307142
30	0x3d2c4152	0.04205448
31	0xbd19f0cf	-0.03758317
32	0x3c9c8cd8	0.019110128
33	0xbc87b3ba	-0.016565192
34	0x3b048530	0.0020220987
35	0x3ce1fe84	0.027587183
36	0xbca14f7c	-0.019691221
37	0x3d6c0c9f	0.057629224
38	0x38babbd9	8.9041605e-05
39	0x3d0a751e	0.033803098
40	0x3bb83e6f	0.005622677
41	0xbd695ce2	-0.056973346
42	0xbd10d4ba	-0.03535912
43	0xbd484ea0	-0.048903108
44	0x3be192cc	0.0068839546
45	0xbd224d4b	-0.039624494
46	0xbd3f5206	-0.046709083
47	0x3c4bd3ea	0.012440661
48	0xbd527435	-0.051380355
49	0xbd028530	-0.0318653
50	0xbd1bc9dd	-0.03803431
51	0x3ced4080	0.02896142
52	0x3d5df8a1	0.05419219
53	0x3caa7474	0.020807482
54	0xbd07e205	-0.033174533
55	0x3d35f048	0.044418603
56	0x3d5faaf2	0.054606386
57	0xbc843533	-0.016138649
58	0x3d31c99d	0.043405164
59	0x3c739435	0.014866878
60	0xbd28ad85	-0.041181106
61	0xbc791164	-0.0152019
62	0xbd40cc3d	-0.047069777
63	0x3c9011ec	0.01758667
64	0x3d04cba7	0.03242078
65	0xbd6e364f	-0.05815726
66	0xbcc66d74	-0.024222113
67	0x3a8dbb36	0.001081324
68	0x3d40a7fe	0.04703521
69	0xbd045525	-0.032307763
70	0xbb6fc0b3	-0.0036583364
71	0xbaf07d75	-0.0018347936
72	0xbcf1a665	-0.029498288
73	0xbcd9fa3d	-0.02660858
74	0xbc826611	-0.01591781
75	0xbc91ad57	-0.01778285
76	0xbc9cd9cf	-0.019146828
77	0x3bb4a570	0.0055128857
78	0xbba7608c	-0.005107945
79	0xbcec3948	-0.028835908
80	0x3d1179e8	0.03551665
81	0x3d2d4616	0.042303167
82	0xbc1495f1	-0.009068952
83	0xbc337e5a	-0.0109554175
84	0xbd6a6e22	-0.057233937
85	0xbd2fc0bb	-0.04290841
86	0xbb24f2e4	-0.0025169188
87	0xbc34f632	-0.011045026
88	0x3c8e9533	0.017405128
89	0xbceeb71a	-0.029140044
90	0xbc4953b9	-0.012288027
91	0x3c0d763b	0.008634145
92	0x3d6c5254	0.0576957
93	0x3d3d47ee	0.046211176
94	0xbd1e3a46	-0.038629793
95	0xbba74978	-0.0051051937
96	0xbc2140ea	-0.009842137
97	0xbb081937	-0.0020766982
98	0x3cc88c33	0.024480915
99	0xbcc3ce5b	-0.023902109
100	0xbc510cc8	-0.012759395
101	0xbd6e8370	-0.058230817
102	0xbca9d757	-0.020732565
103	0xbd6d8730	-0.057990253
104	0x3ca94582	0.020663027
105	0xbd398cea	-0.0453004
106	0xbced0271	-0.028931828
107	0xbd2fc427	-0.042911675
108	0x3d36bbfa	0.044612862
109	0xbc8c5347	-0.017129553
110	0x3d5267b0	0.051368415
111	0xbcf0a5bd	-0.029375905
112	0x3d376221	0.044771317
113	0xbc3b1366	-0.011418199
114	0xbd35ce16	-0.044385992
115	0x3d4a7b3d	0.049433935
116	0xbd237faa	-0.03991667
117	0xbd0d6568	-0.034520537
118	0x3d03fc3e	0.03222298
119	0xbbae1bc5	-0.005313369
120	0xba3636f7	-0.00069509394
121	0x3d702439	0.058628295
122	0xbd3f1dc4	-0.046659246
123	0xbcacc70c	-0.021091007
124	0x3cc60480	0.024172068
125	0xbc36d7fb	-0.011159892
126	0x3a9ad908	0.0011813948
127	0xbca38bf4	-0.019964196
128	0xbc13186c	-0.008977991
129	0x3d4108d5	0.047127564
130	0xbc303904	-0.010755781
131	0x3cc3c522	0.023897711
132	0x3d36e8b1	0.044655506
133	0x3d3b5911	0.045739237
134	0x3ce36933	0.027760124
135	0x3d255cb4	0.04037161
136	0xbc7db29a	-0.015484476
137	0x3b974527	0.004616398
138	0xbccfcdb1	-0.025366636
139	0xbd6956ff	-0.05696773
140	0x3d4acf00	0.049513817
141	0xbd66fb3e	-0.056391947
142	0xbd175ccc	-0.036953732
143	0xbcad1324	-0.021127291
144	0xbd5bf8bf	-0.05370402
145	0xbd3b78e7	-0.0457696
146	0xbcfbc319	-0.030732678
147	0x3beb036a	0.007172038
148	0xbd537170	-0.051621854
149	0xbd2df775	-0.04247232
150	0xbd0d3e2b	-0.034483116
151	0xbd34ad4d	-0.044110585
152	0x3c656623	0.014001402
153	0x3b0e9454	0.002175589
154	0x3c566ef5	0.013087978
155	0x3d5a8da7	0.053357746
156	0xbcd1b8a5	-0.02560074
157	0xbcb35e7e	-0.021895643
158	0x3c992c07	0.018697752
159	0x3d546a1c	0.051859006
160	0x3c997d11	0.018736394
161	0xbba67c09	-0.005080704
162	0x3c9c8be4	0.019109674
163	0xbd6ceecc	-0.057844922
164	0xbd244f43	-0.040114652
165	0xbcc9674d	-0.02458539
166	0xbd59c1e5	-0.053163428
167	0xbd3678ce	-0.044548802
168	0xbd38d2b9	-0.045122836
169	0x3c8c16c2	0.017100696
170	0x3c90f7c5	0.01769627
171	0xba9ffa88	-0.0012205401
172	0xbc5bfd0c	-0.01342703
173	0x3ae975e8	0.0017811628
174	0x3d12a15e	0.035798423
175	0xbd364b57	-0.044505443
176	0x3d2c4a46	0.04206302
177	0x3cd1180a	0.025524158
178	0xbca6e3dc	-0.020372324
179	0x3d29ed53	0.041486096
180	0x391cc322	0.00014950012
181	0xbcddea8b	-0.027089378
182	0x3d592f3a	0.053023554
183	0x3c8de9fb	0.017323485
184	0x3d359f36	0.04434129
185	0xbc834cda	-0.016027857
186	0xbd4f2d0d	-0.050580073
187	0x3d4135d0	0.04717046
188	0x3b5c3de7	0.0033606233
189	0x3ce3aa48	0.027791157
190	0xbc77744b	-0.01510341
191	0x3ce3a2a2	0.02778751
192	0xbd3de813	-0.0463639
193	0x3b0898d4	0.0020843046
194	0x3d367671	0.04454655
195	0xbc8014b3	-0.01563487
196	0x3d4f2df1	0.050580923
197	0x3cb3122c	0.021859251
198	0x3cec52b9	0.028848039
199	0x3d6ecf93	0.058303427
200	0xbc6e2da9	-0.014537253
201	0xbc5f3f6a	-0.013625959
202	0x3d16f497	0.036854353
203	0xbcf5d378	-0.030008063
204	0xbd31358c	-0.043263957
205	0x3d1c9514	0.03822811
206	0xbd52f0a1	-0.051499013
207	0xbce30564	-0.027712531
208	0x3c6ceae8	0.014460303
209	0x3c0c3a83	0.008558872
210	0xbd12bf6a	-0.035827078
211	0xbc70fe69	-0.014709094
212	0x3d1a9b68	0.037745863
213	0xbd1bba61	-0.03801954
214	0x3d0b4249	0.03399876
215	0xbbc8a784	-0.006123485
216	0xbcade230	-0.021226019
217	0xbd65b9bd	-0.056085337
218	0xbc7a1ba9	-0.015265384
219	0x3d45d872	0.04830212
220	0xbd04e497	-0.032444563
221	0xbd3ef436	-0.046619616
222	0xbb920ee4	-0.0044573415
223	0x3d2bd187	0.041947868
224	0xbc81c1b0	-0.015839428
225	0x3d6d6afd	0.05796336
226	0x3d694a40	0.056955576
227	0x3d5df2b9	0.054186556
228	0xbd0adefb	-0.033904057
229	0xbd2b0312	-0.041750975
230	0xbd616916	-0.05503186
231	0xbc389af1	-0.01126741
232	0xbd1cb6c2	-0.03826023
233	0x3ce0499b	0.027378848
234	0x3ba84635	0.0051353225
235	0x3d3ebce8	0.046566874
236	0xbd5f19c6	-0.05446794
237	0xbd4b7cff	-0.049679752
238	0xbc34b884	-0.01103032
239	0x3c7d110c	0.015445959
240	0x3d4a85e8	0.04944411
241	0xbba2691a	-0.0049563767
242	0x3d4d9b00	0.050196648
243	0xbc8394cd	-0.016062165
244	0xbc059203	-0.008152488
245	0xbcbb5cb1	-0.022871347
246	0xbccda839	-0.025104629
247	0xbcb7a943	-0.022419577
248	0xbd4fd210	-0.05073744
249	0xbbf10041	-0.0073547666
250	0xbca13421	-0.019678177
251	0xbd1cc43f	-0.038273092
252	0xbd3358b9	-0.043785784
253	0xbd681f3e	-0.05667042
254	0xbc5b82e3	-0.013397905
255	0xbd43af49	-0.047774587

features.6.bias f4 [64]
0	0xbd36b1af	-0.044603046
1	0xbd1840d4	-0.0371712
2	0x3d05e5b3	0.03268976
3	0x3d22dad4	0.039759472
4	0x3c619458	0.013768278
5	0xbcbd4edb	-0.02310889
6	0xbcffeb52	-0.03124014
7	0xbc467fda	-0.012115443
8	0x3c618cef	0.013766511
9	0x3d0a374f	0.033744153
10	0x3caab624	0.020838805
11	0x3cef08cc	0.029179
12	0x3ce77347	0.02825321
13	0x3c9afafd	0.018918509
14	0x3a26b108	0.0006358777
15	0x3c6cc3ef	0.014451011
16	0xbccb84a4	-0.024843521
17	0x3c58e716	0.013238689
18	0xbd29d138	-0.041459292
19	0xbd3c846c	-0.046024725
20	0xbcb3258a	-0.021868486
21	0xbd288325	-0.041140694
22	0xbbf53a29	-0.00748374
23	0x3d6c84d5	0.057743866
24	0x3d09196c	0.03347151
25	0x3bff5994	0.007792661
26	0xbc9325f1	-0.017962428
27	0xbcd014ef	-0.025400607
28	0x3b823f70	0.0039748475
29	0xbc5a2ace	-0.0133158695
30	0xbc1b029f	-0.009461074
31	0xbd4154cc	-0.04720001
32	0x3d138568	0.036015898
33	0x3ba8c443	0.0051503493
34	0xbcb67424	-0.022272177
35	0x3bf7d89d	0.007563664
36	0xbc968934	-0.01837597
37	0xbd3fb696	-0.046804987
38	0xbc1ca883	-0.009561661
39	0xbd719d1c	-0.05898772
40	0xbc9dbc1e	-0.01925474
41	0x3ca039e9	0.019558864
42	0xbd3d2a1f	-0.046182748
43	0x3cb7167f	0.022349594
44	0x3d6fbeb4	0.058531478
45	0x3c7429ff	0.014902591
46	0xbd24c757	-0.040229168
47	0xbca85005	-0.020545969
48	0xbc7df85c	-0.015501108
49	0xbba431e5	-0.0050108307
50	0xbd2ee4f9	-0.042698834
51	0xbc7e1a9e	-0.015509276
52	0x3c8f893c	0.017521493
53	0xbd5e97a2	-0.054343827
54	0xbd3121ea	-0.043245234
55	0x3ce30138	0.027710542
56	0xbc55d343	-0.013050857
57	0xbcfc981d	-0.030834252
58	0x395cfec2	0.0002107574
59	0x3d025311	0.0318175
60	0x3cf5ee29	0.03002079
61	0xbc1b229b	-0.0094687
62	0xbbfa1222	-0.007631556
63	0x3ce81956	0.028332394

features.8.weight f4 [64, 64, 3, 3]
0	0x3d218a48	0.039438516
1	0xbcaa5fe4	-0.020797677
2	0x3c5f88e5	0.013643478
3	0xbc02ab77	-0.007975451
4	0x3cf3327a	0.029687155
5	0x3cb14313	0.021638429
6	0xbd0c4564	-0.034245864
7	0xbc500936	-0.012697509
8	0x3c471e8a	0.012153277
9	0xbcf8751e	-0.030329283
10	0xbd176da4	-0.036969796
11	0x3baa7d86	0.005202952
12	0xbcdbb562	-0.026819889
13	0x3affefd3	0.0019526429
14	0xbd007511	-0.031361643
15	0xbd279d71	-0.040921632
16	0x3d290eb7	0.0412738
17	0x3cfd4bd8	0.030919954
18	0xbd25f750	-0.04051906
19	0x3d211a97	0.039332
20	0xbc4f9d0a	-0.012671718
21	0x3ca6b380	0.020349264
22	0x3cfa798d	0.030575538
23	0x3b9af6c2	0.004729123
24	0xbcc50134	-0.024048425
25	0x3cfb169d	0.030650431
26	0x3bc50b64	0.0060133208
27	0xbbf5e853	-0.007504502
28	0x3a50f7fb	0.0007971522
29	0xbcb893f2	-0.022531483
30	0xbce39f36	-0.027785879
31	0xbd145431	-0.036213104
32	0xbd0cd03a	-0.034378268
33	0xbc7e9520	-0.015538484
34	0x3cdc6ab7	0.026906354
35	0x3c20f676	0.009824386
36	0xbc4c6703	-0.012475732
37	0xbd23da27	-0.04000297
38	0xbcec0c4e	-0.028814461
39	0xbd29b972	-0.04143662
40	0xbd0bf3ac	-0.03416793
41	0x3cacaa29	0.021077232
42	0x3cd9aa3f	0.026570437
43	0x3b7b59d5	0.0038353105
44	0x3c4a1cf0	0.012336001
45	0x3cb633b3	0.022241449
46	0x3d1713d6	0.03688415
47	0x3c94ac61	0.018148603
48	0x3c25929b	0.010105754
49	0xbc457f5b	-0.01205429
50	0xb9e938e9	-0.00044483625
51	0xbc989074	-0.018623568
52	0xba46e934	-0.00075878506
53	0xba509609	-0.00079569273
54	0xbbda72e7	-0.0066665295
55	0xbd27b8dc	-0.04094778
56	0x3c893cf2	0.016752694
57	0xbc108f77	-0.008823267
58	0xbced828b	-0.028992912
59	0xbca21f00	-0.019790173
60	0xbd19a31c	-0.03750907
61	0xbba79f5b	-0.005115432
62	0x3cfbf8e0	0.030758321
63	0x3d016363	0.031588923
64	0x3b993db2	0.004676544
65	0x3bc55140	0.0060216486
66	0xbd0becbd	-0.034161318
67	0xbcad2a35	-0.02113829
68	0xbcf28e50	-0.029608876
69	0xbd182539	-0.037144873
70	0x3c0b5057	0.008503041
71	0xbc025a0c	-0.007956039
72	0x3c91a1f2	0.017777417
73	0x3d25099e	0.040292375
74	0xbcda6d5e	-0.026663478
75	0x3bf236c6	0.0073917834
76	0xbc37ee16	-0.011226198
77	0x3c4119f9	0.0117859775
78	0x3cf39799	0.029735373
79	0xbc814435	-0.015779594
80	0x3c9a5a92	0.018842015
81	0x3ca625f5	0.020281771
82	0xbc9f1221	-0.019417824
83	0x3bad3068	0.0052853115
84	0x3cf2b7a0	0.029628575
85	0xbd0795eb	-0.033101957
86	0xbc92adb4	-0.017905094
87	0x3cac6d87	0.02104832
88	0xbc39c5a2	-0.011338623
89	0xbc7ae67e	-0.015313743
90	0xbaab2c09	-0.0013059388
91	0xbd1c061d	-0.038091768
92	0xbcab63c2	-0.020921592
93	0x3c9b5a2f	0.018963901
94	0xbd24db0d	-0.040247966
95	0xbb4c7d2d	-0.003120254
96	0xbc8fa6f3	-0.017535662
97	0x3c54b2be	0.012982069
98	0x3be94284	0.007118525
99	0xbb8963c4	-0.004192801
100	0x3d211159	0.039323185
101	0xbcd2297f	-0.025654553
102	0x3cfceb76	0.030873995
103	0xbcdb1aae	-0.02674612
104	0x3c7fa4c6	0.01560325
105	0xbd034fbc	-0.032058463
106	0x3d1393ed	0.036029745
107	0x3d23513b	0.03987239
108	0x3c110640	0.008851588
109	0x3cd8f00f	0.026481656
110	0xbcc559f3	-0.024090743
111	0xbbae9d86	-0.005328837
112	0xbd1e1cea	-0.038601793
113	0x3d1c7ff4	0.038207963
114	0xbc8ec02e	-0.017425623
115	0xbc2c0f8d	-0.0105017545
116	0x3d21a398	0.039462656
117	0xbd1678b6	-0.036736213
118	0xbd016ff2	-0.0316009
119	0x3c8f8d3c	0.0175234
120	0x3b0b32e0	0.002124004
121	0xbcd29b45	-0.025708804
122	0xbd1b5b4c	-0.037928864
123	0xbd02eb5a	-0.03196273
124	0xbc726b13	-0.014796036
125	0x3d0acf1e	0.03388893
126	0xbcda41b5	-0.02664266
127	0xbd009670	-0.03139347
128	0xbc44fb62	-0.012022825
129	0x3ccf3032	0.025291536
130	0xbcf0622e	-0.02934369
131	0x3cb52ca8	0.02211602
132	0x3aa58ffe	0.0012631414
133	0x3c221ebb	0.009895022
134	0xbcf43660	-0.029811084
135	0x3c89add9	0.01680653
136	0x3c89fd5a	0.01684444
137	0xbc74b26d	-0.014935118
138	0x3ce8c1c4	0.028412707
139	0x3b3ff599	0.0029290675
140	0xbcd4a81e	-0.02595907
141	0xbd167d98	-0.03674087
142	0xbc063823	-0.008192095
143	0xbd02a181	-0.031892303
144	0xbc231cdf	-0.009955614
145	0x3c80c326	0.015718054
146	0xbb1d6d3e	-0.0024021412
147	0x3d26c322	0.040713437
148	0xbd1c4383	-0.03815032
149	0xbc919069	-0.017769055
150	0x3ce1d036	0.027565103
151	0x3d0e3aa6	0.0347239
152	0xbcb3cace	-0.02194729
153	0xbd1d8385	-0.038455505
154	0xbd0b696b	-0.03403608
155	0x3cc082e6	0.023499917
156	0x3d262578	0.040563077
157	0xbd0c7ef9	-0.034300778
158	0xbc6b17b5	-0.014348914
159	0xbc6c2cab	-0.014414947
160	0x3cb5724f	0.022149233
161	0x3c9f0e20	0.019415915
162	0xbd200482	-0.0390668
163	0xbd10c49c	-0.03534375
164	0xbcef2d14	-0.0291963
165	0x3d16fd47	0.036862638
166	0xbd22c558	-0.039738983
167	0xbd02dec6	-0.031950735
168	0x3bb55c00	0.005534649
169	0xbd07262e	-0.032995395
170	0xbbadf348	-0.0053085424
171	0x3c919445	0.017770896
172	0xbc3139b6	-0.010816982
173	0xbcadf448	-0.021234646
174	0x3cea10b1	0.028572412
175	0xbce99aa3	-0.02851612
176	0xbc360e00	-0.011111736
177	0xbd09331b	-0.033496004
178	0xbd0fb255	-0.03508218
179	0xbcb41039	-0.021980392
180	0x3d21026f	0.03930896
181	0x3d0ca75d	0.034339298
182	0x3cae89f6	0.02130602
183	0xbcded344	-0.027200349
184	0xbc904bf7	-0.017614348
185	0xbd003878	-0.031303853
186	0x3b4c37fb	0.0031161297
187	0xbaa1bfd7	-0.0012340498
188	0x3d16459f	0.03668749
189	0x3cecb09c	0.028892808
190	0x3ce6b23c	0.02816116
191	0xbb2e6e05	-0.002661587
192	0x3d13fe22	0.03613103
193	0xbcceaab3	-0.02522788
194	0x3d16e23a	0.03683684
195	0x3d06d960	0.03292215
196	0xbcff8a45	-0.031193862
197	0x3cbeed45	0.023306498
198	0x3a086f7a	0.00052045996
199	0x3bddfce7	0.006774533
200	0xbad1a95e	-0.001599591
201	0xbce222ba	-0.02760445
202	0x3cd7c6f8	0.026339993
203	0x3bf7999b	0.007556153
204	0xbd22ea24	-0.039774075
205	0xbcdbdd1e	-0.026838835
206	0xbb44825a	-0.0029984922
207	0xbd01e61b	-0.031713586
208	0xbbcae58c	-0.006191915
209	0x3d0b5e2a	0.03402535
210	0x3d1cd037	0.038284507
211	0xbc9e1abf	-0.019299863
212	0x3d20faa6	0.039301537
213	0xbca61ac5	-0.020276437
214	0xbc9a73f6	-0.018854123
215	0x3c1c7303	0.009548905
216	0x3d1247bc	0.035712942
217	0xbcc2d4db	-0.023783138
218	0x3c052f37	0.008128933
219	0x3d298b23	0.041392457
220	0x3d159904	0.03652288
221	0x3c533369	0.012890675
222	0x3c8e5f01	0.017379286
223	0x39e2be44	0.00043247838
224	0xbc0d9bad	-0.008643073
225	0x3d1a0362	0.037600882
226	0x3cd507fd	0.026004786
227	0x3d0407f6	0.032234155
228	0xbc2d6b43	-0.010584655
229	0x3d241de0	0.040067554
230	0x3a3d73f1	0.00072270544
231	0x3cab59ef	0.020916907
232	0xbcd22da8	-0.025656536
233	0x3cc064b2	0.023485515
234	0xbcdd02a5	-0.0269788
235	0xbcc30829	-0.023807602
236	0x3ca1e896	0.019764226
237	0xbca6fe90	-0.020385057
238	0xbd01ec06	-0.03171923
239	0x3cb4b693	0.022059714
240	0x3bc76586	0.0060851006
241	0x3d081bb0	0.03322953
242	0x3c55b520	0.013043672
243	0x3c57b517	0.013165734
244	0xbca10028	-0.019653395
245	0xbd023a0a	-0.03179363
246	0x3cb803cd	0.02246275
247	0xbb8959f9	-0.004191634
248	0xbca03b18	-0.019559428
249	0xbd0969a8	-0.033548027
250	0xbbae412f	-0.005317829
251	0xbc9982a9	-0.018739061
252	0x3d003755	0.03130277
253	0xbcee415d	-0.029083902
254	0xbcf734f9	-0.030176627
255	0x3b140d07	0.0022590773

features.8.bias f4 [64]
0	0x3c18bf59	0.009322965
1	0x3cf128bc	0.029438369
2	0x3c8c5dbf	0.017134545
3	0x3ce4ea41	0.027943732
4	0xbcc3adcd	-0.023886586
5	0x3d256af7	0.040385213
6	0xbd0e15db	-0.03468881
7	0x3c532e96	0.012889525
8	0x3babe83e	0.0052461913
9	0x3d1f2524	0.03885378
10	0x3cd97d58	0.026549026
11	0xbd05c57c	-0.03265904
12	0x3af13c08	0.0018404732
13	0xbd0490ec	-0.03236477
14	0xbcc1695b	-0.023609808
15	0x3cee8743	0.029117232
16	0x3c6f733a	0.0146148745
17	0xbc4c54b7	-0.0124713695
18	0xbd1a8a6b	-0.037729662
19	0xbbcf76d4	-0.006331304
20	0xbc94543d	-0.018106574
21	0xbba47971	-0.0050193598
22	0xbd05f995	-0.032708723
23	0x3d03a5d8	0.032140583
24	0x3c8bf538	0.017084703
25	0x3ca61eec	0.020278417
26	0x3ce8fd03	0.028440958
27	0xbb321a31	-0.0027176256
28	0x3c7b4098	0.015335225
29	0xbc2212cf	-0.00989218
30	0x3c7538ac	0.014967125
31	0xbc3d7012	-0.011562364
32	0x3ca7e336	0.020494085
33	0x3d0bb385	0.03410675
34	0x3d14b7ed	0.036308218
35	0x3c2d9fa9	0.010597148
36	0xbcef4297	-0.029206557
37	0x3b001341	0.0019542726
38	0x3c872a67	0.016499711
39	0xbd0cdfc8	-0.034393102
40	0xbce6e280	-0.028184175
41	0x3d1d24f2	0.038365312
42	0x3b69bbea	0.0035664984
43	0x3c04f78d	0.008115661
44	0x3bc00eea	0.005861153
45	0x3c44ece1	0.012019367
46	0xbb8db4ca	-0.0043245303
47	0xbcc387b7	-0.023868425
48	0xbc119bf3	-0.008887279
49	0x3b8d8a92	0.0043194974
50	0x3bed8880	0.007248938
51	0x3c8d4b84	0.017247923
52	0x3c06f32a	0.008236686
53	0xbc6358b9	-0.013876134
54	0x3cca96f4	0.024730183
55	0xbbe48ae8	-0.0069745667
56	0x3cd77b5f	0.026303945
57	0xbcec0797	-0.028812213
58	0xbcdc7cb0	-0.026914924
59	0xbd11aa43	-0.035562765
60	0x3915ccce	0.00014286043
61	0xbd15d18f	-0.036576804
62	0x3d088385	0.03332855
63	0x3c9f657f	0.019457577

features.12.weight f4 [64, 64, 1, 1]
0	0xbd1da4c7	-0.038487222
1	0x3d83d349	0.06436784
2	0x3dd2f048	0.10299736
3	0xbdeb1060	-0.11477733
4	0x3d6a3b8d	0.0571857
5	0xbde2628e	-0.11053954
6	0x3da876d4	0.0822579
7	0x3da19014	0.07888809
8	0x3da5c29d	0.0809376
9	0xbcb96874	-0.022632815
10	0x3c6ee427	0.014580763
11	0xbdc671e0	-0.09689689
12	0x3d89ce98	0.06728858
13	0xbdede93f	-0.11616754
14	0xbd5bfbfe	-0.053707115
15	0xbd0992a7	-0.033587124
16	0x3d26799e	0.040643327
17	0x3c841a1b	0.01612573
18	0xbd227531	-0.039662544
19	0xbd1a57e4	-0.037681475
20	0x3d268320	0.040652394
21	0x3d816ef1	0.063199885
22	0x3d2203a9	0.03955427
23	0xbdd31855	-0.10307375
24	0xbd99d7c7	-0.075118594
25	0x3df3bfaf	0.11901795
26	0xbd9827a2	-0.07429434
27	0xbd56fe33	-0.052488517
28	0x3dae31f6	0.08505623
29	0x3d39d81f	0.045372125
30	0xbd98dc8a	-0.074639395
31	0x3d9a6568	0.07538873
32	0x3cfca142	0.030838612
33	0xbcb88e93	-0.022528922
34	0xbd083856	-0.03325685
35	0xbad6dcbc	-0.0016392688
36	0xbcc2c578	-0.023775801
37	0xbda8c29d	-0.082402445
38	0xbde6721c	-0.112522334
39	0xbdaf076d	-0.08546338
40	0x3dfdbbce	0.123893365
41	0x3dcfe9cd	0.10152016
42	0x3d3d079d	0.04614984
43	0x3d144e29	0.03620735
44	0x3dc684e0	0.09693313
45	0x3dc9814a	0.09839113
46	0x3d7eac4d	0.062176038
47	0xbb70ce84	-0.0036744187
48	0x3d6157de	0.055015437
49	0xbd7c5dbf	-0.06161284
50	0x3d7683a7	0.060184147
51	0x3dc4a94b	0.096026026
52	0x3cf52ead	0.029929483
53	0xbd8e0ef2	-0.06936444
54	0x3cf189fd	0.029484743
55	0x3dd681fa	0.1047401
56	0xbba3a172	-0.004993611
57	0x3d6abeee	0.05731099
58	0x3c9285c6	0.017886054
59	0x3d83d59d	0.06437228
60	0x3d46e260	0.04855573
61	0x3c91b94c	0.017788552
62	0xbde2908d	-0.11062727
63	0x3dde23ba	0.10846658
64	0xbde17d7b	-0.110102616
65	0xbdcf43b1	-0.10120333
66	0x3de9cf7d	0.114165284
67	0xbcd9c6d8	-0.026584074
68	0xbde444db	-0.11145946
69	0x3dca0a5d	0.09865258
70	0xbd1dbc2d	-0.038509537
71	0x3dc06da1	0.0939591
72	0x3dcb6d97	0.09933012
73	0xbdec6d24	-0.115442544
74	0xbdf86300	-0.12128258
75	0x3b99745d	0.004683061
76	0xbd09c64b	-0.033636373
77	0xbdf2eb5d	-0.11861298
78	0xbd97dda3	-0.07415321
79	0x3db0c5b2	0.086314574
80	0x3d71be88	0.059019595
81	0x3d454fe7	0.048171904
82	0x3d78e644	0.060766473
83	0x3d779432	0.060444064
84	0x3daa9c78	0.08330625
85	0xbc4d3790	-0.012525454
86	0xbb8c8f1e	-0.004289522
87	0x3dfe1f48	0.1240831
88	0x3c5220b6	0.012825182
89	0xbc8a65d8	-0.016894266
90	0x3dc5e7b6	0.09663336
91	0x3d969af9	0.073537774
92	0x3c325b09	0.010885962
93	0x3d8cc77a	0.06873985
94	0x3decbe37	0.11559718
95	0xbb80603f	-0.0039177234
96	0xbd6f594d	-0.058434773
97	0x3cedff4a	0.029052395
98	0x3deaa5db	0.11457416
99	0xbd8e6b1b	-0.069540225
100	0xbde06296	-0.10956304
101	0xbd403aa0	-0.04693091
102	0x3c9d4f59	0.019202875
103	0xbdcaf349	-0.09909684
104	0xbd9d2230	-0.076725364
105	0x3c4c9cac	0.012488525
106	0x3dd4705d	0.10372994
107	0x3d7aff20	0.061278462
108	0x3da11a08	0.07866293
109	0x3d4a4888	0.049385577
110	0x3d101707	0.03517821
111	0x3deecbdd	0.116599776
112	0xbd229f95	-0.03970297
113	0xbc3608d3	-0.011110502
114	0x3ca37c5b	0.019956758
115	0x3c367996	0.011137387
116	0x3a852db8	0.001016072
117	0xbd51fb04	-0.051264778
118	0x3dda920b	0.10672387
119	0x3d9226c8	0.07136303
120	0xbdcb3d6c	-0.09923825
121	0x3cbf7893	0.023372924
122	0xbdef8b14	-0.11696449
123	0x3de39bb5	0.11113683
124	0x3d3de882	0.046364315
125	0x3d863a84	0.0655413
126	0x3dfde14e	0.12396489
127	0x3dd6a4d2	0.10480656
128	0x3d94bc6c	0.07262501
129	0xbd1feea7	-0.039045956
130	0xbc51a6e9	-0.012796142
131	0x3da2f6ed	0.079572536
132	0x3dc82857	0.09773319
133	0xbd12e2e4	-0.03586091
134	0x3ddcc0cf	0.10778963
135	0x3dab7f6c	0.08373913
136	0x3ddb936e	0.10721479
137	0xbc1b97e7	-0.009496666
138	0x3bd27813	0.0064230054
139	0xbd8b637b	-0.06806084
140	0xbdeb455e	-0.1148784
141	0xbc8760b2	-0.0165256
142	0x3cd610f1	0.026131125
143	0xbdb5a0f1	-0.08868588
144	0x3d12db69	0.035853777
145	0xbde278ce	-0.11058198
146	0xbde75248	-0.11294991
147	0x3dec5df9	0.11541361
148	0xbdbd660d	-0.0924798
149	0xbb2cc4f7	-0.0026362517
150	0xbd0e0a0c	-0.03467755
151	0x3d63b871	0.05559582
152	0x3c8f02a7	0.01745732
153	0xbd4dc1d5	-0.05023368
154	0xbd8bd4ce	-0.06827699
155	0xbdcb1053	-0.09915223
156	0xbcf2c661	-0.02963561
157	0x3d80cbd4	0.06288877
158	0xbcacccec	-0.021093808
159	0xbdc89103	-0.09793284
160	0x3d0b42e4	0.03399934
161	0xbdf6f8b1	-0.12059153
162	0xbddc39b8	-0.107531965
163	0x3d977cc2	0.073968425
164	0xbdef931b	-0.1169798
165	0xbb152832	-0.0022759554
166	0xbdb464ea	-0.0880831
167	0x3dbda5c9	0.09260137
168	0xbda30fab	-0.07961973
169	0xbdf4833e	-0.11939095
170	0x3dbd6da2	0.092494264
171	0x3c2502fd	0.010071513
172	0xbdc76126	-0.097353265
173	0x3d80b8f4	0.06285277
174	0xbddb7ee3	-0.10717561
175	0x3d259767	0.04042759
176	0xbd4bd1e8	-0.04976073
177	0x3d88daf4	0.06682387
178	0x3da6d386	0.08145814
179	0xbc890d97	-0.016730113
180	0x3dcf777b	0.10130211
181	0x3ca7bf2d	0.020476902
182	0xbbadc1ad	-0.005302629
183	0x3ddff04a	0.109345034
184	0x3d8f923b	0.07010313
185	0xbd720c01	-0.05909348
186	0x3d53c272	0.05169911
187	0xbd91a548	-0.07111603
188	0x3c038a2e	0.00802855
189	0xbdd05a04	-0.10173419
190	0x3da2981e	0.0793917
191	0xbdf17b57	-0.11791103
192	0xbcc77bef	-0.024351088
193	0x3d9204a7	0.071297936
194	0xbd320dd9	-0.043470237
195	0x3dfbf281	0.12302113
196	0x3d187781	0.037223343
197	0xbb310a74	-0.0027014287
198	0x3d748ed4	0.059706524
199	0xbdb38ba1	-0.087668665
200	0x3d8292d1	0.06375659
201	0xbdfa6daa	-0.12227948
202	0x3d1cc6cc	0.038275525
203	0xbc89ead6	-0.016835611
204	0x3dd5c9c7	0.104388766
205	0xbcca4167	-0.02468939
206	0x3c6a60c0	0.014305294
207	0xbde70c72	-0.11281671
208	0x3dab8dfd	0.083766915
209	0xbdf42582	-0.119212165
210	0x3d894b79	0.067038484
211	0x3d17c217	0.037050333
212	0x3dcde8e7	0.10054188
213	0x3deb1d98	0.11480254
214	0x3c31750e	0.010831131
215	0xbdce86dc	-0.10084316
216	0x3dde226a	0.10846408
217	0xbd89194f	-0.0669428
218	0xbdd5a837	-0.10432475
219	0x3d70ad52	0.05875904
220	0xbd6f89c2	-0.058480985
221	0x3db40914	0.08790794
222	0x3db695ce	0.08915292
223	0xbd213753	-0.039359402
224	0xbc0bf9e9	-0.00854347
225	0xbce9d3bc	-0.028543346
226	0xbd168acb	-0.036753457
227	0xbdc0db2c	-0.09416804
228	0xbcfd8f65	-0.030952165
229	0x3dfcdb1c	0.12346479
230	0x3d999e61	0.075009115
231	0x3d0e0b2d	0.034678627
232	0xbdb76c99	-0.0895626
233	0x3d4aff3c	0.049559817
234	0xbc499d61	-0.012305588
235	0xbd66c1e4	-0.056337252
236	0x3d4ea766	0.050452612
237	0xbd84a5dc	-0.06476948
238	0x3c596946	0.013269728
239	0xbd11fa69	-0.0356392
240	0xbdde0d06	-0.10842328
241	0x3d8b2cff	0.06795692
242	0x3c1452c5	0.009052937
243	0x3d9d35f3	0.076763056
244	0xbd175833	-0.036949348
245	0x3c1a4750	0.009416416
246	0xbd8db119	-0.06918544
247	0x3da3005d	0.07959054
248	0xbd7b5eb1	-0.0613696
249	0x3cafae35	0.021445373
250	0x3de967f6	0.11396782
251	0xbde24b3b	-0.11049505
252	0xbd78fb31	-0.06078643
253	0x3d7bbe57	0.06146082
254	0xbcafb673	-0.021449303
255	0xbd555096	-0.052078806

features.12.bias f4 [64]
0	0x3d961a7c	0.0732927
1	0x3cd2351c	0.02566009
2	0xbd143e17	-0.036192026
3	0xbddefdf3	-0.10888281
4	0xbc1d4cf5	-0.0096008675
5	0xbcf5fd2e	-0.030027952
6	0x3dd4eab3	0.10396328
7	0xbc48b1f6	-0.01224946
8	0xbdb062e1	-0.0861261
9	0xbc80360b	-0.01565077
10	0xbc3dc5ef	-0.011582836
11	0x3de8266e	0.11335455
12	0x3d80d384	0.062903434
13	0xbcae8d89	-0.021307724
14	0xbddbc13e	-0.107302174
15	0xbde805c6	-0.11329226
16	0x3de2c92f	0.11073529
17	0x3d0393fa	0.032123543
18	0xbd332e66	-0.04374542
19	0xbcd39402	-0.025827412
20	0x3dfa8ae8	0.122335255
21	0xbcae7502	-0.021296028
22	0x3dfe15ab	0.124064766
23	0x3d3baf3e	0.04582142
24	0xbb7bd3a3	-0.0038425706
25	0x3cdcd010	0.02695468
26	0xbd10a375	-0.035312135
27	0xbc438a81	-0.011934877
28	0x3d1dbd29	0.038510475
29	0xbdaf5656	-0.08561389
30	0xbd46e2d1	-0.048556153
31	0xbd95cd32	-0.073145285
32	0xbd97e515	-0.07416741
33	0x3de18d4a	0.11013277
34	0x3ddeb4e2	0.108743444
35	0x3dd4b35b	0.10385772
36	0x3d9751aa	0.07388623
37	0x3ceb6f90	0.02873972
38	0x3cc8c60c	0.024508499
39	0x3c97042c	0.018434606
40	0x3df8037f	0.12110042
41	0x3ddd1f1c	0.10796949
42	0xbc2f98d7	-0.010717592
43	0xbdc5947a	-0.0964746
44	0x3d491bfb	0.04909895
45	0x3d6c590f	0.05770212
46	0xbbcbb1d0	-0.0062162653
47	0x3db627d9	0.08894319
48	0x3d69948a	0.057026424
49	0xbda47ad0	-0.08031237
50	0x3df825bc	0.12116572
51	0xbdcec4c3	-0.10096123
52	0x3c166340	0.0091789365
53	0xbdb1791b	-0.08665677
54	0x3d8b49d4	0.06801191
55	0xbd32e453	-0.04367478
56	0x3d0968cc	0.033547208
57	0xbc76f8a2	-0.015073927
58	0xbd7f5aff	-0.06234264
59	0x3dbd5266	0.09244232
60	0xbd9af549	-0.07566316
61	0x3dcca359	0.099920936
62	0xbdd47fc6	-0.10375933
63	0xbdec5a0d	-0.11540613

classifier.0.weight f4 [3, 64]
0	0xbde4c267	-0.11169892
1	0x3d216301	0.039401058
2	0xbbcc21e4	-0.006229626
3	0xbd0eb745	-0.03484275
4	0x3c8e39eb	0.017361602
5	0xbdc1616a	-0.094424084
6	0xbdcc183a	-0.09965558
7	0x3caf1be6	0.021375608
8	0xbd9f8aab	-0.07790121
9	0xbdb13bd5	-0.0865399
10	0xbc2f3499	-0.010693693
11	0xbd5e5bc4	-0.054286733
12	0xbcdb5c74	-0.026777484
13	0x3d5fb7f9	0.05461881
14	0x3da2bc5d	0.07946084
15	0x3cf26f1a	0.029593993
16	0xbd8fdfb9	-0.070250936
17	0x3ca76a65	0.020436475
18	0x3d90d33e	0.07071541
19	0xbd6905f4	-0.056890443
20	0x3d948c43	0.07253315
21	0x3d2bdc43	0.041958105
22	0xbdf06445	-0.11737875
23	0x3cc560ea	0.024094064
24	0x3cb19ab9	0.021680223
25	0xbda0c304	-0.07849696
26	0xbd317460	-0.043323874
27	0x3d671bfc	0.056423172
28	0x3d2b966b	0.041891497
29	0x3ddc1462	0.10746075
30	0xbd3f5e63	-0.046720874
31	0x3df6a492	0.12043108
32	0x3d76c076	0.06024214
33	0x3d548411	0.05188376
34	0x3b0921c1	0.002092466
35	0xbd4128fb	-0.047158223
36	0xbddd34e2	-0.10801102
37	0x3d8383f1	0.0642165
38	0x3daecf85	0.08535675
39	0x3d08a23e	0.03335785
40	0x3d408cf2	0.047009416
41	0x3dfc0a77	0.123066835
42	0xbdce2c0c	-0.10066995
43	0xbda760c5	-0.08172754
44	0xbc7149af	-0.01472704
45	0x3d57661c	0.052587613
46	0x3de3d969	0.11125452
47	0x3dff6bae	0.1247171
48	0x3ca75358	0.020425484
49	0x3d7f1ce0	0.062283397
50	0x3de5a535	0.11213151
51	0x3d8c78b2	0.06858958
52	0xbc017d8c	-0.007903468
53	0xbd48236a	-0.0488619
54	0xbd06b30c	-0.032885596
55	0x3dedab8c	0.116049856
56	0xbdf3f7a4	-0.11912468
57	0x3c9cb753	0.019130385
58	0x3ca32d34	0.019919015
59	0xbcd4b4f4	-0.025965191
60	0xbda32a45	-0.07967047
61	0xbdc6eadb	-0.09712764
62	0xbb1632d2	-0.0022918475
63	0xbda26ce5	-0.07930926
64	0x3d52afcf	0.051437195
65	0xbdbe6f16	-0.09298532
66	0xbcfaf394	-0.030633725
67	0xbc845939	-0.016155826
68	0x3d50adad	0.05094688
69	0x3dbbe1f4	0.091739565
70	0x3de8d74f	0.11369192
71	0x3c16b606	0.009198671
72	0xbdfe3fb0	-0.12414491
73	0xbd0ad8fe	-0.033898346
74	0x3c9403ac	0.018068157
75	0x3d3807f2	0.044929452
76	0x3de0fd90	0.10985863
77	0xbdf27f36	-0.1184067
78	0xbd18f721	-0.037345055
79	0x3da478c9	0.080308504
80	0x3d8bb67e	0.06821917
81	0xbd3b9283	-0.04579402
82	0x3d11ca89	0.035593543
83	0x3da6129c	0.08109018
84	0xba47f5dc	-0.00076278835
85	0xbc488f23	-0.012241158
86	0x3c5e5c3b	0.013571794
87	0xbd5600cb	-0.05224685
88	0xbdfe0c84	-0.12404731
89	0x3d7f2f36	0.062300883
90	0x3d171e09	0.036893878
91	0xbdafc92c	-0.08583292
92	0x3caaa8bd	0.020832414
93	0xbd27310d	-0.040818263
94	0x3de1b5f3	0.11021032
95	0xbd7b3a75	-0.061335046
96	0x3de47879	0.11155791
97	0x3d55cfcd	0.052200127
98	0x3c6eda8e	0.014578475
99	0x3d0c89c4	0.03431107
100	0x3c99eb20	0.018788874
101	0x3d8cfe5d	0.068844534
102	0xbd698202	-0.05700875
103	0xbd0cde71	-0.034391824
104	0xbd73a83a	-0.059486605
105	0x3cbf5a2d	0.023358429
106	0xbd89292f	-0.06697308
107	0x3d878f17	0.06619089
108	0xbcca6c3e	-0.024709817
109	0x3df9a886	0.121903464
110	0x3d4008fc	0.04688357
111	0xbdeecca3	-0.11660125
112	0x3ca0d2bc	0.019631736
113	0x3d45d748	0.04830101
114	0xbda66214	-0.08124176
115	0x3c96dd58	0.018416092
116	0x3d33c339	0.04388735
117	0xbdf236a5	-0.11826829
118	0xbde22de2	-0.11043908
119	0xbbcb5823	-0.006205575
120	0x3d3ea197	0.046540823
121	0xbd8be6f2	-0.06831159
122	0xbd88a6fc	-0.06672475
123	0xbd81c001	-0.0633545
124	0x3ce1dce3	0.027571147
125	0xbd37e82d	-0.044899154
126	0xbd5fb0a9	-0.054611836
127	0x3c326430	0.010888144
128	0xbc718f82	-0.014743688
129	0xbc9447dd	-0.018100673
130	0x3da2b651	0.0794493
131	0xbdcc3b19	-0.099722095
132	0xbc5a5867	-0.013326741
133	0xbc5c2947	-0.013437576
134	0x3d437ffd	0.04772948
135	0xbd906d8a	-0.07052143
136	0x3c928768	0.017886832
137	0xbdeecca4	-0.11660126
138	0x3dcb4268	0.09924775
139	0x3cc0143b	0.023447147
140	0xbc81e9f2	-0.015858624
141	0xbddd1c29	-0.10796387
142	0x3dbdc2cb	0.092656694
143	0x3daed9c5	0.0853763
144	0x3db2270a	0.08698852
145	0xbda8845f	-0.08228373
146	0xba8f9683	-0.001095489
147	0xbd9c6d4a	-0.07638033
148	0xbd979f42	-0.07403423
149	0xbdc3ec48	-0.095665514
150	0x3da256bb	0.07926699
151	0xbcd3840f	-0.025819806
152	0x3d8345e1	0.06409813
153	0xbcbf8d97	-0.023382945
154	0xbc260f14	-0.010135431
155	0xbaae9784	-0.0013320302
156	0xbdc38e2f	-0.09548604
157	0xbde6e7fa	-0.11274715
158	0x3d4ad4d8	0.04951939
159	0xbb8372f7	-0.0040115076
160	0xbb3ea142	-0.0029087816
161	0x3ba7158c	0.005099004
162	0x3c0dd253	0.008656102
163	0x3d973e11	0.07384885
164	0xbcbe3004	-0.023216255
165	0xbd03d50f	-0.03218561
166	0xbdd51c6c	-0.10405812
167	0x3ca133cf	0.019678025
168	0x3da24201	0.079227455
169	0xbd87e014	-0.066345364
170	0xbd443b1f	-0.047907945
171	0xbd80b43f	-0.06284379
172	0x3df5d187	0.12002855
173	0xbdeae1af	-0.11468827
174	0x3d8a379d	0.06748889
175	0xbd921bce	-0.071342096
176	0xbdcd17b0	-0.10014284
177	0x3ddddaf7	0.1083278
178	0x3cd3713c	0.02581083
179	0x3d6d62f9	0.057955716
180	0xbd164768	-0.036689192
181	0xbde1e806	-0.11030583
182	0x3ca10227	0.019654347
183	0x3d46af32	0.048506923
184	0x3dde366c	0.10850224
185	0xbd8db2f3	-0.069188975
186	0x3df70767	0.12061959
187	0x3df97a88	0.12181574
188	0xbd9899ce	-0.07451211
189	0xbd2c6bfa	-0.042095162
190	0x3de2e148	0.11078125
191	0x3d417264	0.047228232

classifier.0.bias f4 [3]
0	0xbdd93c23	-0.10607173
1	0xbde3a8cd	-0.111161806
2	0xbdf60780	-0.12013149
