best_model.pth (torch, 284450 bytes, 12 tensors)

features.0.weight f4 [32, 3, 3, 3]
00000000: 5897 2fbe 3b5a b23d d5fb ed3d 4c22 16be
00000010: cbee 0fbe 4f2b f5bd e0af a43d 0a58 293e
00000020: cbf8 13be 29dc 023e 95ba 29be b89c 2cbe
00000030: 6684 b0bd c597 68bd af1a 85bd f293 da3d
00000040: 7c9f e9bd 715e 363e 3adb 403d c8f4 063e
00000050: f113 0cbe 1c9b fd3d f92f cfbb 511a 713d
00000060: 3eb4 18bb bca5 3e3e 5ca4 40be 98be d53d
00000070: edd4 ef3d 0f7a 36be d58d 0a3e 0809 1abe
00000080: 7f07 40bd 8a49 d2bd 789f b8bc 1361 b0bd
00000090: 911d 293e dee2 cabd 7c1f ee3d b4a3 0abd
000000a0: b877 c33d 5fb1 eebc 7f38 f8bd 75b9 26be
000000b0: c86a 6cbd 6039 373d 9680 cabd 1831 3cbe
000000c0: 1971 23bd 6150 eabd d78e b8bd 947b 1d3e
000000d0: eb91 983d f853 9dbd 2e28 2e3d 6740 9fbd
000000e0: ec7f eabd e1ee 37bc 7b96 1fbd 0768 a63d
000000f0: ddb1 4bbd 008f 453e deb6 e9bd cc2c 213e
00000100: 6030 133e 50ea 2dbe e833 303e d0c1 2bbc
00000110: fb72 4b3d 8b17 c83d 0d57 abbc 75d8 d0bd
00000120: 0e03 16be 6b19 073e d3f9 9c3c 16ba 88bd
00000130: ebb1 c43d b6e3 11bd 9f2a a3bd 4ad4 23be
00000140: 0076 e5bd d2f0 b7bc e452 1b3e 6cf4 9ebd
00000150: bad3 21be 3fca 483c 2035 9ebd 9807 6a3d
00000160: 3adf efbd 0f9d 81bd ac7d 1a3e d553 3d3e
00000170: 1c82 9fbd 003b cb3d 3157 1c3e 26e4 223e
00000180: ffa7 253e 2b54 06be d14e 2d3d f812 1c3e
00000190: 1fe5 163a 12d6 0f3e 31a4 ad3d 8129 fcba
000001a0: 2883 97bd 1a63 3b3d bccb 163e b481 1b3e
000001b0: af8d 00be c5b0 c8bc 4b69 8ebd b80b 24be
000001c0: 44bb 89bd 1486 d7bd d204 a5bd 633a c5bd
000001d0: 3d42 ae3c 4d82 c8bd 5f30 83bd 1f30 8dbd
000001e0: a0ad debc 0409 3ebe c238 febc b0a6 b33d
000001f0: 10aa 84bc 4aef 44bd 4dcf ed3d 812a f63d
00000200: c97f 0b3e 7b32 de3d 4305 eb3d ab19 b0bd
00000210: ba9e 663d 8498 263e 8868 9e3d 66b8 f6bd
00000220: 9e66 b13d 471d 2dbe eff0 16be 602d a2bc
00000230: 1b69 433d f83e 99ba 18a2 0a3e 594e 08be
00000240: f4fc c53c d8a9 f8bd ac43 9abb 38ef cf3d
00000250: 77df 05bc dca4 7e3d 1d5e fabc 35d6 cb3d
00000260: cd32 2c3d e048 a13d 5dfb 8d3d 227c eb3d
00000270: 3d82 af3d 95ad 193e 959c c73d a7cf efbd
00000280: 0113 75bd b074 ba3c e012 c3bc 39e4 bfbd
00000290: ed95 063e 028e febd 949c 28bd 7f8d a2bd
000002a0: 4085 4b3b f99a 313e 0cbc 15be 4cd1 9ebd
000002b0: f323 1a3e 94ae 1ebd a9f6 243e cff3 f1bd
000002c0: b06f 6abc e0b5 04bc 60a8 2f3c 7c88 5fbd
000002d0: 5bc7 3a3e 4e3a 1bbe c09c c2bc baa4 973d
000002e0: 3016 83bd 0828 02be 3c65 2fbe 08f4 623d
000002f0: 7ac6 82bd 0cc6 e23d 3757 113d bd23 153e
00000300: c3d7 3c3e a87d 763d a7ed 1d3e 793f 8d3d
00000310: 8f33 4cbd be09 b5bd 8683 d33d 3fb3 d13d
00000320: 9bf7 363e 679e 98bd eb8b 0cbe c9fb 303c
00000330: b367 97bd 98d8 d73c 32d1 3a3c 63f0 a5bc
00000340: efc2 97bc ac26 bbbb d890 31bd 05ee 7ebc
00000350: 335d 273e a6e2 743d 31a7 ffbd 7f73 1b3d
00000360: 2e99 20be ff33 1c3e 40f2 27be 7234 033e
00000370: 46a0 8d3d ed9b 953d 1a1c 6cbd 29cc cebd
00000380: 8124 12be bc2a 233e 6e5b 27be 07a1 403d
00000390: 2f83 0abe f37a 2d3e cf80 f5bd 3828 aebd
000003a0: 2259 033e 9525 0f3c d568 0cbd baa5 053e
000003b0: 45ab 2e3e 698a 603d 008c e6bd 4505 183e
000003c0: a890 75bd 461d f63c e6c1 99bc 4a99 2ebe
000003d0: f30e 43be 6a31 d9ba 83b5 c73d bc6b 11be
000003e0: c0da c6bd 2fb0 19bd b027 1c3e bb41 903d
000003f0: 1d2b fdbc 9266 0fbe 6736 45bd cd23 23be
-0.17147577 0.08708616 0.11620299 -0.1466152 -0.14055936 -0.11971151 0.08041358 0.1653749
-0.14450376 0.12779297 -0.16575082 -0.16856658 -0.08619003 -0.056785364 -0.0649923 0.106727496
-0.11407372 0.17809464 0.04708407 0.13179314 -0.13679482 0.123831004 -0.0063228575 0.058862988
-0.0023300792 0.1861791 -0.18812698 0.104367435 0.11710534 -0.17819999 0.13530667 -0.15042508
-0.04688215 -0.10267933 -0.022536978 -0.086122654 0.16515185 -0.09906553 0.11627099 -0.033847526
0.09544319 -0.029137312 -0.12120151 -0.16281684 -0.057719022 0.04473245 -0.09887807 -0.18378103
-0.03990278 -0.11441112 -0.090116195 0.15379173 0.07449707 -0.076820314 0.042518787 -0.07775956
-0.114501804 -0.011226387 -0.03896187 0.081253104 -0.04973017 0.19292831 -0.11411832 0.15739745
0.14373922 -0.16983914 0.172073 -0.01048322 0.0496702 0.097701155 -0.020915532 -0.10197536
-0.14649603 0.1319329 0.019162094 -0.06676118 0.09604248 -0.035617553 -0.07967114 -0.1599895
-0.11204147 -0.0224537 0.15168339 -0.077614635 -0.15803424 0.0122552505 -0.077249765 0.05713615
-0.11712499 -0.06328785 0.15087003 0.1848901 -0.07788488 0.09923363 0.15267636 0.15907344
0.16177367 -0.13118045 0.042311493 0.15241611 0.00057561876 0.14046505 0.08478583 -0.0019238443
-0.07398063 0.045748807 0.14726156 0.15186197 -0.12554048 -0.024498353 -0.06953677 -0.16020095
-0.06725171 -0.1052362 -0.0805756 -0.09630277 0.02127182 -0.09790478 -0.064057104 -0.06893944
-0.0271824 -0.18558127 -0.031032924 0.087720275 -0.016194373 -0.048079766 0.11611805 0.12019826
0.13622965 0.10849472 0.11475613 -0.08598646 0.056303717 0.16269118 0.077347815 -0.1204689
0.08662151 -0.169057 -0.14740346 -0.019797027 0.04770766 -0.001169174 0.13538396 -0.13311137
0.024168469 -0.1214177 -0.004707774 0.10153049 -0.008170954 0.06216894 -0.030562455 0.09952966
0.042040635 0.07875228 0.06932709 0.11498286 0.08569763 0.15007623 0.097466625 -0.117095284
-0.059832577 0.022760719 -0.023812711 -0.09369702 0.1314313 -0.124294296 -0.04116495 -0.079371445
0.0031054765 0.17344274 -0.14622515 -0.07754764 0.15052776 -0.03874071 0.16109718 -0.11814081
-0.014308855 -0.008100003 0.010721296 -0.05457352 0.1824011 -0.1515896 -0.023756385 0.07404466
-0.06400716 -0.12710583 -0.17128462 0.055408508 -0.06385513 0.11072931 0.035483565 0.14564414
0.18441682 0.06017843 0.15422688 0.06896872 -0.049853858 -0.08839749 0.103278205 0.102392666
0.17867891 -0.07452088 -0.1372525 0.010802218 -0.07392826 0.026348397 0.011402415 -0.020256227
-0.018525569 -0.005711397 -0.043351024 -0.015559678 0.16344146 0.05978646 -0.12483061 0.037951943
-0.15683433 0.1525421 -0.16401005 0.12812975 0.06915335 0.07305131 -0.057643987 -0.10097534
-0.14271738 0.1593427 -0.16343471 0.047028568 -0.13526605 0.16941433 -0.11987459 -0.08503765
0.1282697 0.008736988 -0.034279663 0.13051501 0.17057522 0.0548195 -0.11257172 0.1484576
-0.059952408 0.030043256 -0.018769216 -0.17050663 -0.19048671 -0.0016570513 0.097514175 -0.14201254
-0.09709692 -0.037521537 0.15249515 0.07043787 -0.030904347 -0.14003971 -0.048147585 -0.15931626

features.0.bias f4 [32]
00000000: a707 23bb cab1 ad3d b600 c83d e2f1 a03d
00000010: 7558 53bd 989e d83d 7df9 fcbd 6e82 0dbd
00000020: bc8f 20be 8085 233e e35b 043e cc1a d0bd
00000030: d4d2 9bbd 1c40 0d3e d027 d9bd dc17 21bd
00000040: 9b5f 463e b874 0cbd b212 0f3e 1377 023e
00000050: 1e23 da3d 2aa2 c3bd 8451 72bc 7d9d 1abc
00000060: 68c1 a2bd 4275 143e bc70 1b3e 00a3 36bb
00000070: 9e01 b53d e454 0f3e eb3d 243d e3da 3a3d
-0.0024876387 0.08481176 0.097657606 0.078586355 -0.05159803 0.10577124 -0.123522736 -0.034548216
-0.1567983 0.15968895 0.12925677 -0.10161361 -0.07608572 0.13793987 -0.10603297 -0.039329395
0.19372408 -0.034291 0.13971975 0.12740736 0.10651229 -0.09552415 -0.014789943 -0.009436962
-0.079470456 0.14497855 0.15179724 -0.0027868152 0.08838199 0.13997227 0.040098112 0.045618903

features.2.weight f4 [32, 32, 3, 3]
00000000: 5d01 6b3d 803e b1b9 f0d2 3a3b 89c7 233d
00000010: aa42 bb3c e417 3fbc 12c0 813c fcb6 87bc
00000020: a623 f53c a998 393d 340b dabc f606 acbc
00000030: ee9b 5dbd 45db 1d3d 49bf 65bd 2205 833c
00000040: ca41 0dbd 1874 16bd 7972 2c3d 8871 d33b
00000050: ae70 99bc b5c1 eebc 8b25 453d 90f5 b2bc
00000060: 8cec c6bc 299a 3dbd 447f 513c fa39 883c
00000070: 9516 393d 1d0e 0c3d fe5f 3cbd ac9f 323c
00000080: 288c ac3b 1cf7 573c 0e81 10bd 74be 233c
00000090: 3cff 4e3c b8b4 25bd 041b 8abc 59b2 6b3d
000000a0: 8c51 6dbc 7fc5 5ebd 90d1 4bbc 8655 d13c
000000b0: d69d 37bd 2254 893c 1a95 4bbd 9459 6e3c
000000c0: 2657 dc3c a02c b33a af7a 5fbd d83a fe3b
000000d0: b131 633d fb41 45bd 8011 4cba 4676 d33c
000000e0: 9437 92bc 505f 6cbd 575a 2c3d 6836 ea3b
000000f0: 86ae 3dbd da50 f03c 1d95 143d ce6a 09bd
00000100: 8da8 3dbd bd0d 5b3d 66df 813c 009f 3039
00000110: 3c13 21bd 9eba 4cbd dd08 4b3d c886 da3b
00000120: 7676 2dbd 5801 edbb 8f8b f0bc c4a7 343c
00000130: bca4 1dbc 0053 4dbb 87fa 013d 8663 a43c
00000140: 646b 85bc e0b5 26bb 4fdb 39bd 36f0 a43c
00000150: b2d5 c13c a904 0d3d 9590 6abd a066 db3a
00000160: 2d1e 6bbd 4f12 e4bc d593 513d 45bd 483d
00000170: 4d5f eebc f23b 903c f8b5 acbb 9bba 1b3d
00000180: 5ca0 81bc 9623 a3bc 651f 3e3d 4aa0 48bd
00000190: c211 ac3c ba56 e1bc 87d2 6c3d e028 05bc
000001a0: 2c1b 613c e88a 73bc daed 22bd 656c 523d
000001b0: c89d f1bc 8d2d 4a3d 027b c43c fc63 fcbc
000001c0: e75e 653d 112c 553d a4ec 763c e4f2 7abc
000001d0: 483f bf3b 6589 1c3d c2e7 953c 182a f33b
000001e0: ba74 f8bc f4b6 76bc 59a1 4c3d 80cc 0bbd
000001f0: 302b 97bb ed0c 4b3d f4d8 633c 3aa1 b33c
00000200: 4c10 4fbc 2c5d 0fbc 6942 0fbd 850d 52bd
00000210: c2f6 e1bc f452 e5bc 4a56 b03c 7809 d6bc
00000220: 32c4 893c 5279 c23c e670 8fbc 80d3 32bc
00000230: d8d7 16bd 00b5 acb9 524f 0ebd 2849 953b
00000240: e638 d5bc 002d 49bc c101 1c3d dc61 363c
00000250: 84f4 6c3c a112 433d 840f 443c 5936 043d
00000260: 36d7 4dbd 4c94 53bc 4e4c 5cbd 8ec3 943c
00000270: b9ef 70bd 279a 4f3d 4d50 073d 1489 183c
00000280: 5334 2f3d bddb 373d 5f84 f8bc 7628 853c
00000290: e8d1 5dbd eccf 793c 59a4 293d f50d 2b3d
000002a0: d6f9 fa3c 4446 723c 1dea 55bd 3f3d 20bd
000002b0: 7474 7c3c 86c2 9f3c 90b8 3dbb 6807 a03b
000002c0: 32b9 46bd 5a08 1fbd 231e 2e3d 14b3 0cbc
000002d0: 1889 8e3b f63b 843c 542d 513c cec6 d03c
000002e0: a177 f1bc 392f 16bd f863 46bd f1bf 473d
000002f0: b445 e1bc 1250 1ebd afb5 3d3d 7787 113d
00000300: b615 5dbd dc75 1cbc 59f0 403d f87f 13bc
00000310: f578 063d 5f1f 71bd cf2c 463d 1828 0bbc
00000320: 5af7 eabc fe6b 4ebd 5b16 54bd 0023 5339
00000330: 4b94 053d e86f f3bb 7afb 873c df2b 3b3d
00000340: df7f 4a3d e952 623d fe5c fe3c a27a 853c
00000350: ddcb 503d fa50 3abd 2803 06bd 3ccc 3fbd
00000360: 0805 69bd 8d1e 2e3d a2fb 95bc 1bcb 493d
00000370: c2fb a7bc a879 3bbd 0851 3dbd 02ed c83c
00000380: 0070 ae39 d975 263d 0330 423d c276 cfbc
00000390: 14dc 0c3c 7307 633d ea55 8d3c 0699 cfbc
000003a0: 20d4 19bd fc55 47bc f23f ebbc d340 5ebd
000003b0: b209 9abc 7805 92bc aaa8 52bd c0bc 273a
000003c0: c23e 56bd 1414 7d3c 24b9 0ebd 10cc 7d3b
000003d0: d0de 44bb 30a2 eabc c28f 863c 1420 4e3c
000003e0: ae32 5cbd aad5 c53c 1334 443d f4a8 3abc
000003f0: fc1e 5e3c 4e7d c43c 2d5b 44bd 5832 b0bc
0.057374347 -0.00033806637 0.0028507076 0.039985213 0.022858936 -0.011663411 0.015838657 -0.016566746
0.029924225 0.045311604 -0.02661667 -0.020999413 -0.054103784 0.03853919 -0.056090627 0.015993658
-0.03448657 -0.03673181 0.042101357 0.006452743 -0.018730488 -0.029145101 0.048131507 -0.021845609
-0.024282716 -0.046289597 0.01278669 0.016629208 0.04518755 0.034193147 -0.045989983 0.010902327
0.0052657314 0.013181474 -0.035279326 0.009994138 0.012634095 -0.04045555 -0.016858585 0.057543132
-0.014484774 -0.054387566 -0.0124401 0.025553476 -0.04482826 0.01676375 -0.04970274 0.014547724
0.026897024 0.0013669915 -0.05456036 0.0077584796 0.05546731 -0.048158627 -0.000778459 0.025813233
-0.017848767 -0.057708085 0.042078342 0.007147599 -0.046309017 0.029335428 0.036275018 -0.033549123
-0.04630332 0.0534799 0.015853595 0.000168439 -0.039324984 -0.04998266 0.049569 0.006668899
-0.0423493 -0.007232826 -0.029363422 0.011026327 -0.009621795 -0.003132999 0.031733062 0.020066988
-0.01628656 -0.0025437996 -0.045375165 0.020134073 0.023661468 0.034428272 -0.05726679 0.0016738959
-0.057401825 -0.027840761 0.051166374 0.049008626 -0.029098177 0.01760671 -0.005270716 0.038019758
-0.015823536 -0.01991443 0.04641666 -0.04898099 0.021004561 -0.027507175 0.057817962 -0.008127421
0.013739388 -0.014864661 -0.039777614 0.051372904 -0.029494181 0.049359847 0.023984436 -0.030809395
0.05599871 0.052043978 0.015071068 -0.015316699 0.005836401 0.038216967 0.018298987 0.0074207895
-0.030329097 -0.015058268 0.04995856 -0.034130573 -0.0046133026 0.049572874 0.013906706 0.021927465
-0.012638163 -0.008750241 -0.034975443 -0.051282424 -0.027583484 -0.027993657 0.02152552 -0.026127562
0.016817186 0.02373949 -0.017509889 -0.010914683 -0.03682694 -0.00032941252 -0.034743614 0.00455584
-0.026028108 -0.012278795 0.03808761 0.01113173 0.014462594 0.047625188 0.01196659 0.032278392
-0.05025407 -0.012913775 -0.053783707 0.018159654 -0.058822367 0.05068412 0.033035565 0.009310026
0.04277451 0.044887293 -0.030336557 0.016254645 -0.05415526 0.015247326 0.0414165 0.041761357
0.03063671 0.01478726 -0.05222522 -0.03912091 0.015408624 0.019501936 -0.002894912 0.0048836954
-0.04851646 -0.038826324 0.04250921 -0.008587617 0.004349839 0.016141873 0.012767155 0.025485422
-0.029475989 -0.03666613 -0.04843518 0.048767034 -0.027499057 -0.03865058 0.046315845 0.03552958
-0.053975783 -0.009549584 0.047104213 -0.009002678 0.032830197 -0.05886781 0.048382577 -0.008493446
-0.0286824 -0.050395958 -0.051779132 0.00020135567 0.032612126 -0.0074291117 0.016599406 0.045696136
0.049438354 0.05525485 0.031050202 0.016293827 0.05097567 -0.04548738 -0.032717854 -0.046825632
-0.056889564 0.042509604 -0.018308464 0.049265962 -0.02050579 -0.045770317 -0.046219856 0.024527077
0.00033271313 0.040639732 0.04740907 -0.025325183 0.008597393 0.055427026 0.017252881 -0.025341522
-0.037555814 -0.012166496 -0.028717015 -0.05426104 -0.018803451 -0.017824873 -0.05143038 0.00063986704
-0.052305944 0.0154466815 -0.034844533 0.0038726367 -0.0030040033 -0.02864179 0.016425971 0.01258089
-0.05375927 0.024149735 0.047901224 -0.011392821 0.013557192 0.023985531 -0.047938515 -0.02150838

features.2.bias f4 [32]
00000000: 3098 aebc 4e07 723d 4069 6ebd f1fb ac3c
00000010: f575 15bd 72e5 22bd dcb9 aabc 2c70 013d
00000020: bc0a 34bd 7a8e 1cbd 7fed 273d 3155 443d
00000030: bed7 2dbd 729d 263d 417c 033d c883 5b3d
00000040: a6ca afbc 59de e23c 4210 293d 223e 293d
00000050: 9c37 423d fe72 25bd 5e73 5ebd b843 a3bb
00000060: abd3 2a3d 9844 afbc e064 9b3a 4845 8e3c
00000070: 0b2f 6dbd e1bf 253d d5c0 50bd 9e49 48bc
-0.021312803 0.059088998 -0.058205843 0.021116229 -0.036489446 -0.039769597 -0.020840578 0.031601116
-0.04395555 -0.038221814 0.04099798 0.047932807 -0.042442076 0.040677495 0.03210092 0.053592473
-0.021458935 0.027693914 0.04127527 0.04131902 0.047416314 -0.04039287 -0.05430924 -0.004982438
0.04170577 -0.021395013 0.0011855625 0.01736702 -0.05790619 0.040466193 -0.05096515 -0.012224583

features.6.weight f4 [64, 32, 3, 3]
00000000: 1a66 b73c b814 e53b 6f37 503d 69c8 433d
00000010: ceca dcbc 183b cdbc 718f 033d 78c3 5bbd
00000020: 0234 c53c f279 febc 49a7 5bbd a0b0 53bd
00000030: 6dee 9c3c 2984 29bd dcd0 59bd e2b9 ff3b
00000040: 7da0 5cbd 78e7 123c 5178 62bd aeda b8bc
00000050: 3daf 7dbb 2d58 68bb 4743 39bd 1137 42bc
00000060: e7d2 923c e21b 2cbb 76e7 6c3c 25f5 5f3c
00000070: 5ef7 93bc beec 383d 6d9e 6b3c 6a9a acbc
00000080: d1af df3c b398 c2bc b3c0 5ebd 1c50 c6bc
00000090: cae7 a03b 2abd cdba a452 1bbd 922c 893b
000000a0: 214a 043d 4150 9ebc 68e5 7a3b 1a05 3e3c
000000b0: 13ac 27bd 400f e6bc b919 eebc 3a92 de3c
000000c0: 6d7d 41bd c0cd 59ba 323d fb3c b85a fbbb
000000d0: e3bd 50bd 0052 e1b8 a7a9 2b3d c00b 71ba
000000e0: 6419 8ebc 0758 fdbc 281b 863b c40b 7fbc
000000f0: 8054 62bd 2d21 3b3d 833c 1d3d 45b4 50bd
00000100: 2512 0e3c 82c3 2c3d 3518 313d 69a1 2a3d
00000110: d9b8 243d dd59 2abd cceb 0c3d 79c3 b7bb
00000120: 5b7b 47bd 05f4 21bd 4106 633d 6ad8 9f3c
00000130: c662 883c d135 bf3c ff93 7dbc 12ad 5a3d
00000140: f295 153c 18e6 ba3b e00c f3bb 741f b7bc
00000150: e6fe 31bd c000 743a 7481 133c 25a6 703d
00000160: a06f 17bc 7e67 b8bc 48af 19bd d419 4bbd
00000170: 0241 b2bc b125 583d 6ad5 b13c 16fc 563d
00000180: 9526 883c 660b 893b 29f9 07bc b511 45bd
00000190: 9318 8abc b882 5a3d 5428 643d 9877 5f3d
000001a0: ea4a 383d c9ca 4a3d 32e6 fabc f4bf c8bc
000001b0: 6725 fabc aa15 a83c 3db9 583d 3e98 0bbd
000001c0: 2a6f fa3c 9c17 74bc e35d 67bd 0048 62b9
000001d0: 0c37 563c 6615 0dbd f551 273d 986a 63bd
000001e0: 4b8a 3bbd 2d85 85bc e752 a7bb 7059 d0bc
000001f0: 7bc9 473d 74c2 77bc 5971 2a3d fc8d 58bd
00000200: 7203 f63c 29df c43c d7b3 dbbc 5169 51bd
00000210: 6fb0 30bd 8a1f 5e3d 3939 2e3c 40a2 6f3c
00000220: 284c 0b3d 6c59 5a3d 02b3 4dbc c4d7 f03c
00000230: 36ba 543d c46d d8bc ee64 c9bc 31a6 9039
00000240: 1af7 3abd 2094 05bb d3d6 2a3d 2034 49bd
00000250: 04d3 92bc ec67 57bd e6a4 64bd 089c 25bc
00000260: 3e4d d33c 2572 dabc 7b69 383c 3234 cebc
00000270: 0bce ca3b bba3 1a3d 9caa 66bd 17a8 61bd
00000280: 14f6 49bb 2eba 75bc f96d fdbc 9e3c dcbb
00000290: 41f6 0dbd d217 bfbc d4f1 6b3d d5e1 e6bc
000002a0: cfc2 52bc 10ee 38bd 243f d33c a49e 613c
000002b0: 4dd0 01bc 3fc9 84bc 42ae 5c3d 6db4 48bb
000002c0: 4574 153c eb9b 81bc 8ecd afbc 385f 4fbd
000002d0: 3847 1abd 104a 34bc 9259 37bb 8a0c 14bd
000002e0: 132e eabb 1104 2a3d c3d3 9dbc 1239 92bc
000002f0: 1cb3 f13c 0cda ae3b 3332 27bc 5de6 03bc
00000300: 603a 06bc 6927 e2bc 805d d4bb 933e c1bc
00000310: b8b5 8dbc 9edb 4dbd 6fc3 6c3d 5802 cdbb
00000320: 5756 5c3d 91d4 5e3d 66d9 fe3c 4154 5abd
00000330: 76eb 40bd 1d35 5a3d 489c bfbc 1a22 42bd
00000340: 6a0c 19bd 2696 c13c 7978 53bd 38c6 2fbc
00000350: 2f3b 123d ba16 e13c 6c46 213c c880 5ebd
00000360: dd00 693d 239d 413d 3d39 cc3b 2aa8 1bbd
00000370: 0f80 16bd 7a83 e13c c485 163d cb10 18bd
00000380: 1aea 223d 5a5d 09bd ffdc 4dbd f974 1d3c
00000390: c28e abba 3f28 333d bcbe 55bd 7476 903c
000003a0: 5825 fd3c 9e51 3b3d d418 3c3c 6709 423d
000003b0: cecf cb3c cf32 0b3d b7fe 653d 6244 c1bc
000003c0: e047 6abb dcac 19bd 22aa 65bd 7277 91bb
000003d0: 0043 643d 9423 f73c 5a80 b03c 0cd1 9abc
000003e0: eb27 cbbc 043f 053d e225 fbbb 34d1 27bc
000003f0: adc8 4b3d 64ca 60bd 3690 253d 8cd5 2abd
0.022387553 0.0069909953 0.050834116 0.047798548 -0.026952174 -0.025052592 0.03211922 -0.05365321
0.02407265 -0.031064007 -0.053626332 -0.051682115 0.019156659 -0.041385803 -0.0531777 0.0078041414
-0.05386399 0.008966319 -0.055290524 -0.022565212 -0.0038709186 -0.0035452947 -0.045230176 -0.011853949
0.017922832 -0.0026261737 0.014459481 0.013669287 -0.01806229 0.04514765 0.014381033 -0.021069724
0.027305515 -0.023754453 -0.05438299 -0.024208121 0.004910444 -0.0015696634 -0.03792061 0.0041862214
0.032297257 -0.019325377 0.003828371 0.011597896 -0.040935587 -0.028083444 -0.029065 0.027169336
-0.047238756 -0.0008308552 0.030668829 -0.0076707266 -0.05096234 -0.0001074411 0.04190984 -0.00091951713
-0.017346092 -0.030925764 0.0040925927 -0.01556677 -0.055256367 0.045685936 0.038387787 -0.05095317
0.008671318 0.04217864 0.043235976 0.04165784 0.040215347 -0.041589607 0.03440456 -0.005608019
-0.048701625 -0.039539356 0.055425886 0.019512374 0.016648661 0.023341091 -0.01547718 0.05338771
0.009129988 0.005703699 -0.0074173063 -0.022353865 -0.04345598 0.0009307973 0.009003032 0.058752198
-0.009242922 -0.022510286 -0.037520677 -0.04958518 -0.021759514 0.05277032 0.021708209 0.0524865
0.01661996 0.004182267 -0.0082991505 -0.04811259 -0.016857421 0.05334732 0.055702522 0.054557413
0.04499332 0.049509797 -0.030627344 -0.024505593 -0.030535413 0.020518143 0.052911032 -0.034080736
0.030570585 -0.014898207 -0.05648602 -0.00021579862 0.013074648 -0.034444235 0.040849645 -0.055521578
-0.045786183 -0.016298855 -0.0051063183 -0.025433272 0.04877613 -0.015122045 0.041612003 -0.05286978
0.03003094 0.024032192 -0.026819153 -0.05112583 -0.04313701 0.054229297 0.01063376 0.014626086
0.034008175 0.053307936 -0.012554886 0.02939976 0.051935397 -0.026419528 -0.02458426 0.00027589643
-0.04564581 -0.0020382479 0.04170878 -0.049121976 -0.017922886 -0.052589342 -0.055821322 -0.0101080015
0.025793668 -0.026665756 0.011255617 -0.025171373 0.006189113 0.0377538 -0.05631505 -0.055091944
-0.003081684 -0.014998002 -0.030936228 -0.0067210933 -0.034658674 -0.023326788 0.057603672 -0.028183857
-0.012863829 -0.04514891 0.025786944 0.013770733 -0.007923198 -0.016209243 0.053877123 -0.003062512
0.009121959 -0.015821418 -0.02146032 -0.050627917 -0.037665576 -0.011003986 -0.0027976972 -0.03614477
-0.0071466058 0.041507784 -0.019266015 -0.017849479 0.029504351 0.005336052 -0.0102048395 -0.008050528
-0.008192629 -0.027606683 -0.0064808726 -0.023589408 -0.017298564 -0.05025827 0.057803567 -0.006256383
0.053793278 0.054401938 0.031109523 -0.053303007 -0.047099553 0.05327331 -0.02338995 -0.047395803
-0.037365355 0.023631167 -0.051628564 -0.010728411 0.035700973 0.027476657 0.00984345 -0.054322034
0.05688559 0.047268998 0.0062324093 -0.03800217 -0.03674322 0.027528513 0.036748663 -0.03712539
0.039774038 -0.033536293 -0.050259586 0.009610408 -0.001308881 0.043739554 -0.05218385 0.017634608
0.030901596 0.045732133 0.011480529 0.047372248 0.024879362 0.033984 0.056151118 -0.023592178
-0.0035748407 -0.037518367 -0.056070454 -0.004439288 0.05572796 0.030168332 0.021545578 -0.01889851
-0.024799308 0.0325308 -0.007664428 -0.010242749 0.049751926 -0.054880515 0.040420733 -0.04170756

features.6.bias f4 [64]
00000000: 2805 e7bc 1795 ef3c 337f abbc 0583 623d
00000010: a8b0 173b 4ee8 913c d862 403c 4d2a b6bb
00000020: 208e 61bb f93a 043d fd60 a4bc b7a4 883b
00000030: 7743 423d 5750 573c 2311 45bd 8b87 23bd
00000040: 529b c9bb bbd7 35bd d56a 66bc 2975 fdbb
00000050: 95d8 afbc 0c07 083d e57a a3bc d46f 213d
00000060: 4002 943c 322d 9fbc 8722 483d 16b1 debc
00000070: e423 623d 9dff 483c 2fc9 52bd 5649 e43c
00000080: 936e 29bd ed07 243c e62a 1f3d 55fa 8f3c
00000090: 89c7 23bd ff1c 60bd 90c8 e8bc 140c bc3c
000000a0: 8fa1 24bd f254 54bc f501 61bd 321e 53bd
000000b0: 3b0f 22bd 4815 0abd 7613 58bd bd9a 53bb
000000c0: 38e8 6fbd f53b 0d3c 2b87 ab3c a3c8 3dbd
000000d0: 5c31 95bc 7bdb 4f3d 5efa 2abd 0cbc a23c
000000e0: 4a75 2f3d 9e37 1f3d 6f0b 5f3d 6ad8 95bc
000000f0: 823f 9239 6c39 c4bc a5b8 bdbc 0013 dc3c
-0.0282007 0.029245896 -0.020934677 0.05530073 0.0023146067 0.017810967 0.011742316 -0.005559242
-0.0034416988 0.032282803 -0.020065779 0.004170026 0.04742762 0.013141713 -0.048112046 -0.039924186
-0.006152549 -0.04439519 -0.014063557 -0.007734914 -0.021465579 0.033209845 -0.019956062 0.03941329
0.01806748 -0.01943073 0.048861053 -0.02718405 0.05521001 0.012267974 -0.051461395 0.027867
-0.041365217 0.010011655 0.03885927 0.017575422 -0.039985213 -0.054715153 -0.028415948 0.022954978
-0.040193137 -0.012959706 -0.054933507 -0.05154247 -0.039565306 -0.0337117 -0.052752934 -0.0032288276
-0.05857107 0.008620252 0.020938477 -0.04633392 -0.018212013 0.050746422 -0.041742675 0.019865058
0.042836465 0.0388714 0.054454263 -0.01829167 0.00027894607 -0.023953162 -0.023159334 0.026864529

features.8.weight f4 [64, 64, 3, 3]
00000000: 5617 213d dedf 5aba 357c bfbc 9b53 28bd
00000010: 31ff 25bd 997f 753c 0e5a 0c3d 4ea6 c03c
00000020: fc6e 083d 34a7 24bd ad35 b23a 51ae 053d
00000030: 79de 42bc 0494 db3c 856f 1ebd d60e 9d3c
00000040: 236c 67bc 53ce 96bc 139a 3fbc 648b ba3c
00000050: 74ae babc 9392 a3bc 9eef b1bc d6ba 9c3c
00000060: ee39 253c 6a5b 053d ceaf 13bc 7e7a fb3b
00000070: edf3 d1bc cd97 30bd 1ca6 123c 560f b3bc
00000080: 59e7 f83a b282 99bc eab1 cd3c 34c8 80bc
00000090: 0d93 b63c 39b9 e1bc 4f16 c7bc 8205 2fbd
000000a0: a7bc a93c bdab b3bc 7a04 dc3c 5c67 873c
000000b0: 97fc 243c d6e1 c9bb 1232 973c 00a3 113c
000000c0: 2418 143d 798a b43c 84af 2db9 3b0d 3dbb
000000d0: 6634 023d bf14 d63c 70be 1a3d a9fc b63c
000000e0: 0314 973c 2059 913b 4e60 693c be12 9f3c
000000f0: cad8 f63c e1f7 253c feb4 cbba 1ea6 a53c
00000100: 7469 753c cded d63c e9e4 143c b051 1abd
00000110: 7fa0 133d 3265 f7bc f301 0c3d 33f6 2a3c
00000120: f380 a2bc 91ab fe3c 8288 68bc 74c8 bd3b
00000130: 793e 26bd c93a 1d3d 9a2a 19bc 24ff 0b3d
00000140: 4848 8bbc 0c4e dfbc e5c6 8cbc de81 173b
00000150: 5777 8abc d772 0b3d ec85 133c d6fd 063d
00000160: 62b1 bb3c 9546 e53c 1f67 173d 222a 5bbc
00000170: f3fe 05bd e660 6a3b bee5 e03b 400a 143d
00000180: 7fc5 dfbc f8cc 143d 47fb 293d b8c1 a5bb
00000190: 7f30 94bb c00f 47bc 5da0 113d b487 d23c
000001a0: c7cb 97bc 11a9 153d 387f ad3c d710 d53c
000001b0: 9051 1d3d beca 8abc b45d 3a3c 292a ff3b
000001c0: 5123 07bd 2915 f9bc 1d17 f73c 7755 80bc
000001d0: be24 abbc 661b 01bd ebf2 f63c cf53 3b3c
000001e0: e476 15bb 574d 933c 4c53 093d 0c8c 143d
000001f0: 6434 9c3c dd4c e1bc a77d 97ba 944c 253d
00000200: 4b43 21bd 3731 e43c 1f0e ddbb 3f73 ce3c
00000210: 95d2 98bb 3e3c df3b d1fd a63c 3e66 d13c
00000220: 6644 cdbc ca0b fb3c b0e3 353b 13a9 b4bc
00000230: e339 093d f8d5 c6bb 744b 603c b5fd 133d
00000240: c935 f9bc 21b7 d3bc 5fc5 ecbc 2083 5f3c
00000250: 846e 84bc 2478 163d 106a f3bb 46e8 233b
00000260: a31f f73c 418c 1bbd a338 02bd 13b8 083d
00000270: 88f8 14bc 3e2f 94bc c5a7 0bbd 59b1 cfbc
00000280: 3842 1dbd 82c0 193b d556 273d 69a8 df3c
00000290: 0b31 ba3a 7bf5 81bc f86b 153d ed86 0e3d
000002a0: 0a3e 253d 917c 05bd 9f52 e73c 9a60 9abb
000002b0: 430c fcbc 085d 1dbd a765 093d ab0c c7bc
000002c0: 76d4 2cbc e435 433a 896f b53c 2de6 c7bc
000002d0: 25d5 4f3c 7930 613c 9b65 81bb 4fd1 c0bc
000002e0: 0197 6f3c 79d3 98bc 6034 babb 954c fbbc
000002f0: ffd3 1c3d dddd 393c c2e8 19bd f155 c4bc
00000300: ca1f a03a 76bc 293d 9d86 90bc 6696 0aba
00000310: bdcf 0fbd bc23 c8bc e700 b0bc 89b5 b9bc
00000320: 515b e33c f085 173d a899 d7bc abcd 8d3c
00000330: 6d9e 1a3b e706 1abd 0483 a93c 9d13 74bb
00000340: fed4 61bc f143 3e3b ed81 1a3d 674c 143d
00000350: 2e9c 05bd 889b a0bc 7ac6 f1bb 3f4a 1ebd
00000360: 313e 653c 191c d43c 6a74 513c 4e24 f8bb
00000370: 224f 133c 0aba bfbc 3665 d03b a64c 3abc
00000380: 90f9 613c 928c a9bc e81a 1a3d 30a4 b6bb
00000390: 9a51 283d 9f4d a1bc 41db 8abb 5f5f aa3b
000003a0: 28ae 4dbc 8630 52bc 50d2 0abd 82f6 be3c
000003b0: e84f b3bc 7bac 58bc cd6d 96bc 95ab ea3c
000003c0: cd6f d23c 0be2 babc d877 10bd c9a4 093d
000003d0: c442 2fbd 35e4 b2bb 69c8 a93b 28a2 82bc
000003e0: 9239 783c aac9 1e3d 077a 143c ec1f 093d
000003f0: 4847 94bb 7e51 10bd dbf1 d73b f171 47bc
0.039328896 -0.0008349399 -0.023374656 -0.041095357 -0.040526573 0.014984035 0.03426557 0.0235168
0.033308968 -0.04019852 0.0013596319 0.032636944 -0.011893862 0.026803978 -0.038680572 0.019172113
-0.014124903 -0.01840893 -0.011694449 0.022771545 -0.022788264 -0.019967353 -0.021720704 0.019132059
0.010084612 0.032557882 -0.009014083 0.0076745143 -0.025629008 -0.04311352 0.008950736 -0.021857899
0.0018989845 -0.018739078 0.02510925 -0.015720464 0.022286916 -0.027554141 -0.02430263 -0.042729862
0.02071984 -0.021932477 0.026857603 0.016528778 0.010069988 -0.006160955 0.018456493 0.00888896
0.036155835 0.022038685 -0.0001656395 -0.0028846997 0.031788252 0.02613294 0.03777927 0.022337275
0.01844216 0.0044356734 0.014244152 0.019418117 0.03013267 0.0101299 -0.0015541611 0.020220812
0.014978755 0.02623644 0.00908778 -0.03767556 0.036041733 -0.03019962 0.034181546 0.010434675
-0.019836878 0.031087669 -0.014192702 0.005791718 -0.040586922 0.03838614 -0.009348536 0.034178868
-0.01700224 -0.027258895 -0.017184684 0.0023118178 -0.016902609 0.034045067 0.009004097 0.03295692
0.022911731 0.027987758 0.03696358 -0.013376744 -0.03271384 0.0035763322 0.006863325 0.036142588
-0.027315853 0.036328286 0.041499402 -0.0050584935 -0.0045223827 -0.012149751 0.035553325 0.025699474
-0.018529786 0.036538187 0.021178827 0.026009006 0.038407862 -0.016942378 0.01137488 0.0077870083
-0.032992665 -0.030405598 0.030162388 -0.015665753 -0.020891543 -0.03152027 0.03014513 0.011433556
-0.002280646 0.017981214 0.033526704 0.03626637 0.01906795 -0.027502472 -0.0011557833 0.040356234
-0.039370816 0.027855499 -0.006746068 0.025201438 -0.004663775 0.0068126014 0.020384701 0.025561448
-0.025057029 0.03064527 0.002775412 -0.022053277 0.03350247 -0.0060679875 0.013689864 0.036130626
-0.030421155 -0.025844159 -0.028902708 0.0136421025 -0.01616598 0.03673567 -0.007428415 0.0025010272
0.030166453 -0.037975553 -0.031792294 0.03337867 -0.009092458 -0.018088933 -0.034095544 -0.02535312
-0.03839323 0.002346069 0.040854294 0.027301984 0.001420529 -0.015864125 0.03647992 0.034796644
0.04034237 -0.0325895 0.028237639 -0.004711223 -0.030767566 -0.0384188 0.03354421 -0.024298033
-0.0105487015 0.000744669 0.02214791 -0.024401749 0.012685095 0.013744467 -0.00394888 -0.023537306
0.0146234045 -0.018655526 -0.005682513 -0.030676166 0.038288113 0.0113444 -0.03757549 -0.023966761
0.0012216505 0.041439496 -0.017642314 -0.00052866933 -0.035110224 -0.024431102 -0.021484805 -0.02266957
0.027753504 0.036992967 -0.026318386 0.017309984 0.0023592964 -0.03760424 0.020692356 -0.0037243136
-0.013783691 0.0029032195 0.037721563 0.036205675 -0.032619648 -0.019605413 -0.0073783966 -0.038645025
0.013991878 0.025892304 0.012784103 -0.007572687 0.008991035 -0.02340414 0.0063597215 -0.0113708135
0.0137924105 -0.020696912 0.037623316 -0.005573772 0.041093446 -0.019690333 -0.004237563 0.0051993574
-0.012553729 -0.012828952 -0.033891976 0.023310903 -0.021888688 -0.013224716 -0.018362904 0.02864627
0.025688076 -0.022812864 -0.035270542 0.033604417 -0.042788282 -0.0054593333 0.0051813615 -0.015946463
0.015150445 0.03876654 0.009062297 0.03347771 -0.004525099 -0.035233967 0.0065901107 -0.012173162

features.8.bias f4 [64]
00000000: 2b90 71bb 02a6 bdbc 4fbc 073d 2d08 f03b
00000010: 5f9d ab3c 2661 fa3a 12cc 05bd 49d3 1d3d
00000020: d0d2 663c f487 dc3c 34f2 cebc 6ced 293d
00000030: 69f7 123d 996f a33c 418e 95bc 5c0c 90bc
00000040: 2a07 223d 519e 73bc ad86 1fbd b7aa 0dbd
00000050: d692 14bd feb8 763c 3296 95bb 1ddd 3cbb
00000060: 749f 2f3c 7a53 1cbb 35e2 083d 3e31 183d
00000070: 16dd 10bd a8ce 063d 2090 e73c 60ac 013d
00000080: f356 a8bc 8d30 e5bc f598 293c 13b2 883c
00000090: 8b4c 21bd 9bdb dd3c 2624 20bd 693f a5bc
000000a0: 1056 963c 86ff 163d 9ec6 9abc 7b5c 0a3d
000000b0: b652 4ebc 2f94 1a3c ce9b ac3c 4d49 58bc
000000c0: 4ff4 0abd 6467 ea3b 6dc4 4ebc 7116 1abd
000000d0: 8ab4 36bc 84eb b8bc 4fda 83bc c9a7 bc3c
000000e0: e33b 08bc dc1a 4dbb 6508 8d3c 6156 cb3c
000000f0: 31c3 b5bc b990 803c 7be2 e43b c262 f4bc
-0.0036859612 -0.023150448 0.03313857 0.0073251934 0.020949064 0.0019102439 -0.03266532 0.038531575
0.014088348 0.026920296 -0.025261976 0.04148619 0.03588048 0.019950675 -0.018256309 -0.017584018
0.039557613 -0.014869289 -0.038946796 -0.034586634 -0.036272846 0.015058754 -0.004565024 -0.0028818317
0.010719169 -0.0023853467 0.033418853 0.037156336 -0.035367094 0.032911927 0.028266966 0.03165853
-0.020549273 -0.027977252 0.010351409 0.016686475 -0.039379638 0.027082255 -0.039096974 -0.020171838
0.018351585 0.03686478 -0.018893536 0.033779602 -0.012592962 0.009434744 0.021070387 -0.01320107
-0.033924397 0.0071534384 -0.012620074 -0.037619058 -0.011151442 -0.02257324 -0.016095309 0.023029225
-0.008315059 -0.0031296527 0.017215917 0.024821462 -0.022187801 0.01569401 0.0069850064 -0.029832248

features.12.weight f4 [64, 64, 1, 1]
00000000: 1e94 b23a 30fc c3bd 3926 ad3d 37e7 1dbd
00000010: fb97 df3d 94f4 a93d c33f e53c dc7d 04bd
00000020: d42f 59bd 34c2 27bc 00e8 92bb 05a2 81bd
00000030: c2ce 4abd 8be9 c73d 20c5 9d3d 9ec8 d23d
00000040: 6be9 9bbd 1230 483d 1e0e bbbd 2ce4 3cbd
00000050: f0c0 7e3d e311 e43d 28fc 923c 7bd7 a0bc
00000060: 60bf cabd d2a3 bcbd cc64 5dbd 0c40 ad3d
00000070: 067e c0bd ae4a 73bd aedc 8ebd ed2e 0b3d
00000080: 6d01 5abd b2dd a2bd 517c e5bc e6c5 03bb
00000090: a0a3 a0bd a61e c1bc 0034 6839 3107 92bd
000000a0: b010 c43d 0102 4e3d 77e8 c7bd 7cc4 d4bd
000000b0: 608f f83b 4c4d 80bc 5bbd e13d fe71 b13d
000000c0: c066 e8bd 06ed 3ebc 6a59 a8bc cef0 0f3d
000000d0: 2092 96bd 7265 703d 4ef6 92bd 666c d23d
000000e0: 5959 a8bd 42d0 b1bd c1b5 46bd 80cf a63c
000000f0: 501c 06bd e05b f93d 6a17 c53b ecc2 eab9
00000100: ac7a 8e3d 3cf2 a93d 33d0 15bc 684c c93d
00000110: 0453 e83d 9f9d e23c e3df 8a3d 52a4 f8bd
00000120: 9508 d0bd e107 6fbd a488 96bd a6f7 92bd
00000130: 3eb9 b03d 618d adbd 4f04 993d c6aa d2bc
00000140: d135 69bc 9e13 37bd 982b 8abc eea9 d63d
00000150: 0825 f83d bd20 bcbc ea90 d43d c605 bc3c
00000160: d187 933d 4c5c a2bb 6b9e 9cbd 956a 7a3d
00000170: e31a 103d 683f d13d 0061 b53d c268 a7bd
00000180: b2b7 283d baed 2ebd cc3b 9bbd 2dee a1bd
00000190: 0654 f73d 5086 9dbd 3849 85bc 4e77 f7bd
000001a0: 2c51 3a3d 955d e43d cdf4 e93c 9c72 bf3c
000001b0: 00c1 39ba 7151 47bd 3d18 34bd 4c0d b53d
000001c0: 5e69 6a3d eaaf 5ebd 193f 92bd 978a 90bd
000001d0: 2ccc c3bd b960 9ebd 4e80 e93d 7616 afbc
000001e0: 95ce 98ba 3e18 c8bd 03f0 e9bc bfc3 203d
000001f0: 40ed aebb 7194 c4bd 6c95 e43d 8404 ac3d
00000200: 4781 8cbd 8e63 9bbd ab40 a9bd 2644 8e3d
00000210: fcc7 e23d e009 66bd 773c 09bd a7da c53c
00000220: 11d0 f1bd ba39 5ebc d609 a03d efb1 da3d
00000230: 5e2b a9bc 2f7e a23d 7071 c1bd 88ea 04bc
00000240: 3925 b83c f2dc 4fbc 5c5c 3d3d 28e8 113d
00000250: 907c 05bd bdcd ef3d a05d 4f3c 2376 9fbd
00000260: e86f 9c3d 0c7a 24bc bad8 dfbd 7fe4 d33d
00000270: ed9b fd3d d775 a63d c074 69bc 61fd d33d
00000280: 45fd 69bc 8815 ce3c 56a1 b53d 5f50 3ebd
00000290: f052 05bc fc7c b5bd 9a5c bebd 478e cd3c
000002a0: 4a9e b63d be69 aabc 1cca e4bd 2082 17bc
000002b0: c215 efbd ea47 303d befe dbbd 8c83 8cbb
000002c0: 706e 97bc 9659 e5bd 0a4d 94bd a5ef 953c
000002d0: 38a9 a73c c39c a73a cca8 5fbd a370 3d3d
000002e0: 4bd8 863d 7084 f2bc 60bc f538 1122 543d
000002f0: a6ba 83bd 6372 9cbc 90e9 eabd 5027 b03d
00000300: a806 6e3c 2bba f43d 638e 1d3d ccbe d13d
00000310: c2c5 b0bd d195 8a3d 0e5d 71bd 2560 86bd
00000320: 4c48 14bd f4f0 55bd 764e d7bd 8751 3d3d
00000330: f06f 48bd c0e8 96bb 30f0 06bd 74ac 3ebd
00000340: 4a8a d0bd 81fd 70bc 7f49 f03d 1cf2 77bd
00000350: b62e bf3d 8e58 54bb 3ad9 e03d 5c21 d53d
00000360: 03df 223c fe8d 2bbb 3262 553c 4645 f93d
00000370: 444d ca3d f394 23bd c25a a03d 0222 f53d
00000380: aaee bcbc 8075 b93a 2b4b f83d d5e1 86bc
00000390: 2eda 9c3d 0869 b5bd 3223 fa3d b0c4 ecbd
000003a0: 5c17 c13d acf5 213c a020 9ebd ee3b b9bd
000003b0: 9458 bdbd 275b d2bc 5840 203d 7af4 94bd
000003c0: 3b50 4f3b ba4a 23bd e066 e4bd e221 c13d
000003d0: 2a56 a4bd a89d 903c 70c8 e03d 79e5 b73d
000003e0: 6f12 4bbd 64c7 473d a566 9f3d 36b7 eabd
000003f0: 42a0 dd3c 57d8 64bd 365d f2bd f807 dcbd
0.0013624465 -0.09569585 0.08454556 -0.03855058 0.1091766 0.08298603 0.027984506 -0.03234659
-0.053024128 -0.010239173 -0.004483223 -0.06329731 -0.049513586 0.09761342 0.07703614 0.10292171
-0.0761288 0.04887397 -0.09133552 -0.04611604 0.06219572 0.11136224 0.017942503 -0.019634
-0.09899783 -0.09210934 -0.054051206 0.084594816 -0.09399037 -0.059397392 -0.06975685 0.0339803
-0.053224016 -0.07952441 -0.02801338 -0.002010697 -0.07843709 -0.023574185 0.00022144616 -0.07130278
0.095734954 0.05029488 -0.09761136 -0.10389039 0.007585451 -0.015661858 0.11022445 0.086643204
-0.11347723 -0.0116531905 -0.020550448 0.03514176 -0.0735209 0.058690496 -0.07175885 0.102745816
-0.08220167 -0.086823 -0.048513178 0.020362616 -0.032741845 0.12175727 0.006014754 -0.00044777186
0.069569916 0.08298156 -0.009143877 0.098290265 0.11343959 0.02766305 0.06780984 -0.121407166
-0.10157887 -0.058357123 -0.07350281 -0.071761414 0.08629082 -0.084742315 0.07471525 -0.025716197
-0.014234022 -0.044696443 -0.01686649 0.1048163 0.12116438 -0.02296483 0.10379203 0.022951972
0.07203639 -0.0049548503 -0.07647403 0.0611368 0.03518189 0.10217172 0.08856392 -0.08174278
0.04119081 -0.042707182 -0.07579765 -0.079067566 0.12076573 -0.07691634 -0.016270265 -0.120833024
0.045487568 0.11150662 0.028559113 0.02337008 -0.0007085949 -0.048661653 -0.043968428 0.08840427
0.057229392 -0.054366983 -0.07140941 -0.07057684 -0.09560427 -0.07733292 0.11401425 -0.021373015
-0.0011658246 -0.09770249 -0.02855683 0.039249178 -0.005338341 -0.095986255 0.111613125 0.08399299
-0.06860595 -0.07587348 -0.082642876 0.06946592 0.110733 -0.05616176 -0.03350493 0.024152113
-0.11807264 -0.013563568 0.07814376 0.106784694 -0.020650562 0.07934224 -0.094454646 -0.008112557
0.022478687 -0.012686955 0.04623066 0.035621792 -0.032589495 0.11709163 0.012656599 -0.07786205
0.07638532 -0.010038864 -0.10930009 0.103463165 0.12383256 0.08127945 -0.014249027 0.103510626
-0.014281576 0.025156751 0.08868663 -0.046463367 -0.00813745 -0.088617295 -0.09295006 0.025092257
0.0891691 -0.020802375 -0.11171362 -0.009247333 -0.11674072 0.043037333 -0.107419476 -0.0042881425
-0.018485278 -0.11198728 -0.072412565 0.018302748 0.020466432 0.0012787807 -0.054604337 0.046249997
0.06584223 -0.029604167 0.00011717598 0.0517903 -0.06432085 -0.019097513 -0.1147033 0.08601248
0.014527954 0.11949571 0.03846587 0.1024147 -0.08631469 0.067668565 -0.058926634 -0.06561307
-0.03620176 -0.052231744 -0.10513012 0.04622033 -0.048934877 -0.0046053827 -0.032943904 -0.046551183
-0.101826265 -0.014708878 0.11732768 -0.060533628 0.09335081 -0.0032401416 0.10978933 0.104067534
0.009940865 -0.0026177163 0.0130239 0.12171416 0.098780185 -0.03993697 0.07829811 0.11969377
-0.023063023 0.0014149398 0.12123712 -0.016465107 0.07658802 -0.08857924 0.12213744 -0.11560953
0.094282836 0.009885233 -0.077210665 -0.09044634 -0.092454106 -0.02567823 0.039123863 -0.07273193
0.0031633514 -0.039866187 -0.11152434 0.09430291 -0.08024247 0.017653301 0.109757304 0.08979315
-0.049578127 0.048774138 0.0778325 -0.11460726 0.027053956 -0.05587038 -0.11834185 -0.107437074

features.12.bias f4 [64]
00000000: bb7a cf3d 2e10 133d 7f2d 8ebd 845f 2f3c
00000010: c048 acbd 18f1 803a ccf3 9dbd 3eff bfbd
00000020: a5b9 42bd 31ff bebb f945 f53a 9c12 6cbd
00000030: 4686 f93d 880b fbbd d858 643d 0ff5 ae3d
00000040: 10e0 bdbc 17c2 4a3c 14fd 97bc a187 fc3d
00000050: aa56 8d3d 288c a7bd 468b c5bd 3ee3 203d
00000060: 7f1b d33d 93f8 873d 02e0 d63d 1c3b edbd
00000070: 48eb d0bd d04f eabd 3876 8b3c 63dd d53d
00000080: 4c0d 01bc 92e0 f5bd 6b73 65bd 5833 ebbd
00000090: e179 dabc ab9c 78bd 7c22 dabd 3772 fb3d
000000a0: 2778 7dba d59c adbc ec5a 01bd b1cf 9bbd
000000b0: c6dc fabd 1a7f 1cbd 3326 f73d fb9a fabd
000000c0: 8217 363d bc1f 9ebd b18d f93d 8db8 dbbd
000000d0: ebfb a43d bc68 4dbd fce0 a13c 0ff1 ec3d
000000e0: 1486 c4bd f2ad 583d f9c3 a43d aaf1 8abd
000000f0: 36b5 b8bd 480b ee3c 40c0 e3bd cfee a23d
0.10130831 0.035904102 -0.069422714 0.010703925 -0.084123135 0.0009837477 -0.07712516 -0.093748555
-0.047540326 -0.005828761 0.001871287 -0.057634935 0.12183814 -0.12258059 0.05574879 0.08542835
-0.02317813 0.012375376 -0.018553294 0.12330557 0.069012955 -0.081810296 -0.09645705 0.039279215
0.10307979 0.06639209 0.10491945 -0.1158354 -0.10201126 -0.11441004 0.017024145 0.10442617
-0.007876705 -0.12005724 -0.056018274 -0.114844024 -0.026669445 -0.060696285 -0.106511086 0.12277644
-0.0009669088 -0.021192947 -0.03158085 -0.07607973 -0.122491404 -0.03820715 0.12067833 -0.122365914
0.044456013 -0.077208966 0.121852286 -0.1072856 0.08055862 -0.05014871 0.019760601 0.11569416
-0.09595886 0.052900262 0.08045191 -0.06784375 -0.09018938 0.029058114 -0.11120653 0.079557054

classifier.0.weight f4 [3, 64]
00000000: aeb1 6c3d fc19 9a3d e753 a43d 30b5 c13c
00000010: bf1b d23d 1475 67bc 38f7 d0bd f29d bc3d
00000020: 7d42 803d af6f a83d fbd1 ecbd 635f ea3d
00000030: 2bee b2bd 52ff 9fbd f10f 8a3d 51c7 fdbd
00000040: d05e c13d 15c6 8ebd c985 333d 9156 7e3d
00000050: 9335 b63d 33d0 fdbd 8072 da3d 9918 00bd
00000060: 7629 1dbd 4b6b 953d 1ae9 0f3d f0d6 583c
00000070: 0873 3e3d 5c5b 00bb 0e06 ccbd eaee d4bd
00000080: 98ce d7bc c48a ad3d 6e99 d93d 3c8f df3d
00000090: 140c 86bd 42d8 7dbd fa4c d73d 978b c5bd
000000a0: 4d37 bbbc 9e82 cb3d 05bd fa3c 309d 1e3d
000000b0: f8d9 24bd e3c1 75bb 62b4 7c3d 3872 ed3d
000000c0: d953 123d 00f2 0b3c 74cf 2a3d e5b9 93bd
000000d0: 1c85 8abc 20b6 383d 7a31 edbd 6fa8 57bd
000000e0: 3203 b43d b7e1 d3bc db52 f2bd b9a4 4d3d
000000f0: 3811 863d a746 ed3d 18c0 bcbc b244 a5bd
00000100: f95c 9fbc b6b6 b33d cdd8 873d 59bd d3bd
00000110: 7092 6abc 0a84 febd 1c7f 39bd 0033 b9bd
00000120: 4ce0 653d d10d 323d ec4b 833d 5245 afba
00000130: 784e ef3d 0c11 1e3d 1cc9 f63d ba75 dabd
00000140: 1e16 023d 0d64 6b3d 3232 3abd 41bb 65bd
00000150: 0eed 86bd 0407 51bd ac22 a3bd 3213 6bbd
00000160: a3a8 2bbd 0b9d 8cbd cdc8 e93b 422d fc3d
00000170: 0010 76b8 9b92 3abd 54a5 f1bc 6ecd 753a
00000180: 0821 94bd e038 ff3b 5d13 003e 7c58 9f3d
00000190: a34f dfbd 137a bebc 9e95 a23d 0a5e 68bd
000001a0: 38b1 66bd 2e81 913d 035f a53d 391a 5fbc
000001b0: e88b 07bd 6640 253d 6bda e5bd 8cf5 e0bd
000001c0: a074 e3bd 6ac7 b43d 0cb7 cebd 8eff 4e3d
000001d0: c472 c13d b02d 0f3d 16ca debd 5bb3 d63b
000001e0: f0bc b5bd 4560 ccbd a624 48bd 5e44 733c
000001f0: 607a 0dbc 0a92 e6bc 6eb2 ef3d a032 ab3d
00000200: 10dd e93c c684 e83d 1e3b ef3c df13 95bd
00000210: d0b8 49b9 3129 3c3b a4c8 413d 00f8 dd39
00000220: 6990 bf3a 56a8 b23d 5bd1 ad3d 255f 8abc
00000230: 6856 54bd 70e8 05bc ed43 edbd ea53 cfbd
00000240: f780 483d 2eb1 18bd 7865 a1bd bc25 cbbb
00000250: ebe8 ddbd 422c 993d 5060 27bd 40f3 92bd
00000260: 9c65 2b3d c3f1 34bd ff8c b6bd 38cb ab3d
00000270: 8406 7dbd c74a da3c ef2b 453d 7736 8c3d
00000280: e537 ee3d 6c21 fcbd 9e2b 89bd 0066 10bc
00000290: 88ec e5bd 619d c23d c6eb cb3d 2dcb 1e3d
000002a0: 374c 823d 8d13 ecbd c438 8bbd 7ee7 6fbc
000002b0: a4ad 193d 51b2 e8bc 90fc 723d f1b4 a73c
000002c0: 815d debc 1c94 b73d d96e fcbd ed8b adbd
000002d0: 6fcc 363d 24b5 013d 24f2 bebd a717 8fbd
000002e0: a28c 90bd 84fb d8bc 54ac d4bd 8432 6ebd
000002f0: 1c27 63bd 1cc8 82bd 1e57 953d f75f 223d
0.057786636 0.075244874 0.080238156 0.023645967 0.102591984 -0.014127035 -0.10203403 0.09209813
0.06262682 0.08224427 -0.11563488 0.11443975 -0.08736833 -0.0781237 0.06741322 -0.12391532
0.09441912 -0.06971375 0.04382876 0.062094275 0.08896937 -0.123932265 0.106663704 -0.03127346
-0.03836962 0.07295855 0.035134412 0.013234839 0.04649642 -0.0019585704 -0.09962092 -0.10397132
-0.026343629 0.08473733 0.106249675 0.10915992 -0.065452725 -0.061973818 0.10512729 -0.09645765
-0.022853518 0.099370226 0.03060771 0.038724124 -0.040246934 -0.0037499599 0.061695464 0.11594051
0.035724495 0.008541584 0.04170175 -0.07213191 -0.016909175 0.045095563 -0.115817025 -0.052650865
0.08789672 -0.025864465 -0.1183221 0.05020592 0.06546253 0.115857415 -0.023040816 -0.08069743
-0.019453513 0.08775084 0.06633148 -0.103388496 -0.01431714 -0.12427528 -0.045287237 -0.090429306
0.05612211 0.043470208 0.06410965 -0.00133721 0.116848886 0.038590476 0.12050077 -0.10666986
0.031759374 0.057468463 -0.045458026 -0.056086782 -0.06588183 -0.05103208 -0.079655975 -0.057391353
-0.04190887 -0.06865891 0.007134533 0.1231332 -5.866587e-05 -0.04554997 -0.02949778 0.000937662
-0.07232863 0.0077887625 0.12507387 0.07780549 -0.109038614 -0.023251569 0.079386935 -0.056730308
-0.056321353 0.07104717 0.08074763 -0.013617092 -0.03309241 0.04034462 -0.112233005 -0.10984334
-0.11106229 0.08827098 -0.10093507 0.050536685 0.09445718 0.03495568 -0.108783886 0.0065521426
-0.088739276 -0.099792995 -0.048863076 0.014847843 -0.0086351335 -0.028145809 0.11703955 0.08359265
0.028547794 0.113534495 0.029202994 -0.07279181 -0.00019237702 0.0028711075 0.047310486 0.0004233718
0.0014615181 0.08723514 0.08487197 -0.016891072 -0.051840216 -0.008173093 -0.115852214 -0.10123427
0.048951115 -0.037278347 -0.07880682 -0.0061995666 -0.10835441 0.07479145 -0.040863335 -0.071753025
0.04184495 -0.044175874 -0.089136116 0.0838837 -0.061773792 0.026646985 0.0481376 0.06846326
0.11631755 -0.12311062 -0.066977724 -0.008813381 -0.112267554 0.09502674 0.099570796 0.038767982
0.06362193 -0.115271665 -0.067979366 -0.014642594 0.037519112 -0.02840534 0.059322894 0.020472022
-0.027144196 0.089637965 -0.1232583 -0.08473954 0.044628557 0.03166689 -0.093235284 -0.06986933
-0.070580736 -0.02648712 -0.103844315 -0.058153644 -0.05545722 -0.06385824 0.07292007 0.0396423

classifier.0.bias f4 [3]
00000000: f3a1 2ebc 820e 843d 60cd bcbd
-0.010658729 0.0644808 -0.0921886
