benchmark_experiment/experience_1_2_3_50_epochs/model_experience_1_2_3.pth (torch, 854482 bytes, 36 tensors)

features.0.weight f4 [32, 3, 3, 3]
000000 80 5b 36 3e 04 87 f9 bd 01 e2 f4 bd 3d 08 9a 3d
       0.17808342 -0.12183955 -0.11957169 0.075211026
000010 c8 98 80 bd e7 38 0b 3b f7 06 b4 bd f2 e5 d2 3c
       -0.06279141 0.0021243633 -0.08790391 0.025744412
000020 67 12 dd bd 27 16 73 3d 2e 9e 16 be 97 ab 39 be
       -0.107945256 0.059347298 -0.14708778 -0.18131863
000030 38 3b ab 3d 0b e4 e8 3d 6c 03 93 bd 28 b8 69 3a
       0.083609045 0.11371621 -0.07178387 0.0008915686
000040 cd a9 d2 bd 63 22 5e bd c4 03 95 bd 6f 87 7e bd
       -0.10286293 -0.054232012 -0.07276109 -0.06214088
000050 dd 2a 37 be cd 38 92 bd ff 1c 3a 3b 04 38 3d 3e
       -0.17887445 -0.0713974 0.002839863 0.184784
000060 da b4 49 3e 2b df 33 3e d0 9f 28 be 16 f2 24 bd
       0.19697896 0.175656 -0.16467214 -0.040269934
000070 1d e8 88 bd 23 b8 30 3e 25 48 10 bd 15 35 30 3e
       -0.06684897 0.17257743 -0.035225052 0.17207749
000080 20 9a 2f be 15 77 14 3d db a9 02 3e 81 f6 97 3d
       -0.17148638 0.036246378 0.12760107 0.07420064
000090 f9 89 ff bd 62 99 b5 3d 9d dd 0c be c2 15 f5 3b
       -0.12477488 0.08867146 -0.13756414 0.0074794004
0000a0 82 a3 21 be 4c 74 43 be 66 13 c5 bd 83 59 8a 3d
       -0.1578503 -0.19087332 -0.096228406 0.06755354
0000b0 1a c4 c5 bd 08 1d bf 3c c2 e3 9d 3b ff d4 0c 3e
       -0.09656544 0.023329273 0.0048184106 0.13753127
0000c0 04 94 3a 3e 53 e8 3b be 06 9f bb 3d d1 16 21 be
       0.18220526 -0.18350343 0.09161191 -0.1573136
0000d0 c2 99 9a bd c1 54 e1 bd 5d 95 08 3e e2 94 26 3e
       -0.07548858 -0.11002494 0.13338228 0.16267732
0000e0 f5 b7 03 3d 54 36 42 3e 10 2e 59 bd 6a fc 51 bc
       0.032157857 0.18966037 -0.053022444 -0.012816528
0000f0 8e 35 03 be 66 69 0f 3e 87 3e 32 3c df 12 e9 3d
       -0.12813398 0.1400505 0.0108791655 0.113805525
000100 6c 9e bb 3c 8b 82 a2 bd 51 e0 4b 3d 33 55 15 be
       0.02290269 -0.07935055 0.04977447 -0.14583282
000110 ef f6 cb 3c 68 c0 ce 3d 6d d5 53 3d dd f7 40 3e
       0.02489802 0.10095292 0.05171721 0.18844552
000120 b1 1a 90 3d 2d 02 25 3e bd 54 fd 3d d2 d7 06 be
       0.07036341 0.16114111 0.12369678 -0.13168266
000130 8b 1b 08 3e 8d ca 44 3e c0 89 3f 3c 06 bb d4 3d
       0.13291757 0.19217892 0.011690557 0.103872344
000140 f0 25 2c 3e 14 d3 11 3e 2b 93 06 bd 9d 26 3a be
       0.16811347 0.14240676 -0.032855194 -0.18178792
000150 d1 d3 0d be 26 2b 08 3e 04 33 02 be ed 2d 2d 3e
       -0.13850333 0.1329771 -0.12714773 0.1691205
000160 42 95 19 bc 51 79 52 bb 4e c7 a7 bd 71 35 c6 bd
       -0.009373965 -0.0032115767 -0.08192311 -0.09678162
000170 06 f7 fd 3d 1b 04 19 be 10 c7 32 3e 57 47 9c bd
       0.124006316 -0.14942972 0.17458749 -0.076307945
000180 e4 87 7f 3c b4 a3 1d be 15 f3 3b be e9 79 c3 bd
       0.015596364 -0.15394479 -0.18354447 -0.09544737
000190 bf 3b fc 3d 9e ec 76 3c eb 05 04 be 53 4f d4 bd
       0.12316083 0.015071062 -0.12892883 -0.103666924
0001a0 78 7e 99 bd 1a 7b 35 be 73 49 cb 3d 77 ba d6 3d
       -0.07494825 -0.17722741 0.09926119 0.10484784
0001b0 9e 7d 70 3c 9b 9e 5e bd 7a b4 b1 bc 4f cc d4 3d
       0.014678387 -0.054350477 -0.021692503 0.10390531
0001c0 47 42 77 bc ea 96 4c bc a0 11 1a 3b f9 17 71 bd
       -0.015091485 -0.012487153 0.002350904 -0.058860753
0001d0 ae bb 3b be 6c 01 09 be 70 89 2d 3e af 19 e3 bd
       -0.18333313 -0.13379449 0.1694696 -0.11088883
0001e0 5f e9 9e 3d 19 2d 31 3e 2a 10 9a bd 4f 1a b4 bd
       0.07759356 0.1730236 -0.07522614 -0.087940805
0001f0 a8 b7 9f bd 32 f3 5a bd 86 52 92 bd e6 48 0a be
       -0.077987015 -0.053454585 -0.07144646 -0.13504371
000200 19 b8 c5 bd 59 d5 1c bd 8c e6 89 3d 52 44 e7 bc
       -0.096542545 -0.0382894 0.067334265 -0.02823082
000210 a1 00 7b 3d ef a8 de 3d 49 6f a3 3d d4 c0 3c be
       0.061279897 0.10872065 0.0798021 -0.18432933
000220 01 17 f8 bc f2 f3 0b be a8 f7 5e 3d f4 1b 0d bd
       -0.030284407 -0.13667277 0.054435402 -0.034450486
000230 02 34 9a 3b 57 69 14 3e ac fa 3e 3d 41 07 22 be
       0.004705907 0.14493309 0.046625778 -0.1582308
000240 4f 08 4a bd 1b da 72 bd 48 de 57 3d d7 63 b6 3d
       -0.04932433 -0.059290033 0.05270222 0.08905762
000250 c6 46 00 3e 2e 45 09 3e 87 4b ab bd 43 76 99 3d
       0.12526998 0.13405296 -0.08364015 0.0749326
000260 5a 41 b9 3d 00 15 2a be 81 e5 bd 3d da 54 11 3c
       0.09045668 -0.16609573 0.0927229 0.008870328
000270 dc 26 42 3e a4 84 2b 3e e7 ee 2b 3e 7c 66 ec 3d
       0.18960136 0.16749817 0.16790353 0.11542985
000280 10 f5 01 3e 37 29 d2 bd 12 9a 78 bd c5 51 f6 3d
       0.1269114 -0.10261767 -0.060693808 0.12027315
000290 8e 74 2f 3d d1 3e 4c bd a0 44 1e be 68 87 fe 3d
       0.042835765 -0.049864594 -0.15455866 0.124281704
0002a0 45 85 28 3e f8 a0 ff bd 11 6e 6d 3d e2 ef 21 3e
       0.16457088 -0.12481874 0.057966296 0.15814164
0002b0 f4 f1 9f 3d 30 de 22 3e ca 9f 0c 3e 60 e3 dd bd
       0.07809821 0.1590507 0.1373283 -0.10834384
0002c0 04 ff 00 be 58 18 c8 3c b8 55 00 3e cf e7 84 3d
       -0.1259728 0.02442567 0.12532699 0.064895265
0002d0 6a 13 96 bd 95 f6 9b bd c6 5a e4 3d f3 4b 07 3e
       -0.07327922 -0.07615391 0.11150126 0.13212566
0002e0 57 26 02 3e 7b 2c 25 3e c5 44 7f bd e5 78 c9 bd
       0.12709938 0.16130249 -0.062321443 -0.09837512
0002f0 18 10 23 be 3d 9e d3 bd 6e 75 0f bd 55 98 a1 bd
       -0.15924108 -0.10332916 -0.0350241 -0.07890383
000300 6d 2d 11 be 42 e6 2b bc 02 ab 15 3e f0 81 46 3e
       -0.14177485 -0.010491909 0.14616016 0.19385505
000310 d1 e5 b3 bd 74 16 37 3e 70 bf a7 bd 76 c8 d2 bd
       -0.087840684 0.17879659 -0.08190811 -0.10292141
000320 0f 3f 8c 3d cf 84 05 be a9 28 de 3d 49 a6 88 3c
       0.06847965 -0.13038944 0.10847599 0.016680853
000330 08 c7 de 3d 4c 63 0e be ea 3f 30 be cc e8 3f 3e
       0.10877806 -0.13905066 -0.17211881 0.18741149
000340 cf 90 21 3d 7b 88 d2 3c 1c 38 e3 3d b2 5e 1a 3e
       0.03944474 0.025699845 0.110946864 0.15075186
000350 4e d7 da bd 57 e6 43 3e e0 24 36 be 69 09 31 be
       -0.10685597 0.19130836 -0.17787504 -0.17288746
000360 5d c2 9f bd fc ff 2e 3e 70 e0 3f be 52 e7 3a bd
       -0.07800744 0.17089838 -0.1873796 -0.04563076
000370 f2 53 4e 3a 04 6e 42 3e 16 c0 45 3d 78 e2 1c 3e
       0.0007870785 0.1898728 0.04827889 0.15320766
000380 2a 31 fa 3d c6 8e bc bd 4e 31 d1 bc eb 8b df 3d
       0.122164086 -0.09206919 -0.025536206 0.10915359
000390 ef 04 3f be 7e 87 04 3e 79 d8 e2 3d 82 3e 1f 3e
       -0.18654226 0.12942311 0.11076445 0.15551189
0003a0 64 cd 02 be 42 5a 39 be 53 a6 81 bb 58 52 44 be
       -0.12773663 -0.18100837 -0.003956595 -0.19172037
0003b0 9c 2d 2e 3e 07 5c 38 be 20 c8 3c be b5 52 16 3e
       0.17009586 -0.18003856 -0.18435717 0.14679988
0003c0 ac 79 2c 3e 70 4a bb 3d c2 3d 24 be 75 0b ff 3d
       0.16843289 0.09145057 -0.16039184 0.12453357
0003d0 b6 8e 0e be a8 f6 f5 bd 04 16 bc bd 45 57 29 be
       -0.13921627 -0.120099366 -0.09183887 -0.16537197
0003e0 d7 7a 17 bd fa 18 ec bd c4 4e 02 be a2 8a d8 3d
       -0.036982384 -0.115282014 -0.12725359 0.10573317
0003f0 5f 56 0c be 45 61 58 3d 11 e1 30 3e 11 9a b5 3d
       -0.13704823 0.05282714 0.17273356 0.088672765

features.0.bias f4 [32]
000000 d4 73 10 3e c4 62 56 bd 06 2b 3f 3d 44 f7 aa 3d
       0.14106685 -0.052340284 0.04667189 0.083479434
000010 0f bb af 3d d7 35 11 3d 46 4c 72 3c 90 e6 47 bd
       0.085806005 0.035451736 0.014788693 -0.048803866
000020 a6 10 35 3e 90 d7 3b bd 25 f5 67 3d 47 f6 a9 3b
       0.17682132 -0.045859873 0.056630272 0.0051868293
000030 5f dd 44 3e e3 97 dd 3d 51 4e 95 bc ba c1 29 bc
       0.19225071 0.10819986 -0.01822582 -0.010361129
000040 b0 50 3d 3e a3 97 21 3e da 03 c4 3a 81 a0 47 bd
       0.18487811 0.15780501 0.0014954761 -0.048737053
000050 be 6e 11 3e 75 22 bb bd c0 6e 6a bb ac db df 3c
       0.14202401 -0.091374315 -0.0035771579 0.027326427
000060 82 65 40 be fa ba 3c bd 16 bd 82 bd 71 e7 16 be
       -0.18788722 -0.046076752 -0.063837215 -0.14736725
000070 b5 80 28 3e 48 e7 07 be 6c f7 40 bd 14 cd 39 3e
       0.16455348 -0.1327182 -0.04711096 0.18144637

features.2.weight f4 [32, 32, 3, 3]
000000 56 b4 69 3d d6 6d 38 3b 85 be 36 bd 69 0e ef bc
       0.057056747 0.002814164 -0.044615287 -0.029181676
000010 4c 6d a6 bb 5f 90 5b 3d c7 46 5a 3c 87 ba 61 bd
       -0.005078947 0.05360448 0.013322539 -0.055109527
000020 29 6d 02 bc 09 28 4c bd a1 ce 34 3d 17 4d 69 bb
       -0.007960596 -0.049842868 0.04414237 -0.0035598928
000030 2b c7 47 bb bf a6 43 3d b8 b8 6b bc 9b 82 16 3c
       -0.0030483704 0.047766443 -0.014387302 0.009186412
000040 98 ed f6 bc 3c ed c3 bc 05 88 fb 3c 58 9b 4e 3d
       -0.03014259 -0.023916833 0.030704508 0.050441116
000050 7f a8 ed 3c 16 ee 07 bd 2c ec 09 3d 67 71 87 bc
       0.02901101 -0.03318604 0.033672497 -0.016533567
000060 20 ea 0f bd 52 62 64 3d 92 83 31 3d 2e 01 4c 3d
       -0.03513539 0.055757828 0.043338366 0.049805813
000070 42 a0 41 3d 2c c7 0c bd b5 f3 30 bc 8b 2e 5f bd
       0.047271974 -0.034369633 -0.010800292 -0.054487746
000080 06 58 d5 3c 90 49 49 bd bb b6 65 bc 95 1c 50 3d
       0.02604295 -0.04914242 -0.014020617 0.050808508
000090 c4 2e df 3c 7f b6 0e bd 3c d0 e8 39 d0 24 3c 3d
       0.02724398 -0.03484201 0.00044405635 0.045933545
0000a0 ee 4a db 3c 1f e0 55 bd 11 39 30 3d 86 6e be 3b
       0.026769128 -0.05221569 0.043023173 0.0058115153
0000b0 b8 b0 62 bc 14 0a ef 38 a5 6f 8d bc 75 f3 ee ba
       -0.013836078 0.00011398285 -0.01726515 -0.0018230515
0000c0 aa 89 60 bd c8 c3 1d 3d 31 1b 8a bc d9 62 55 3a
       -0.054818787 0.03851679 -0.016858669 0.00081400346
0000d0 08 1b 0c 3d d4 fd 3c 3d 9f e3 4a 3d b4 3e 84 3b
       0.034205467 0.046140507 0.049533483 0.004035795
0000e0 b3 d6 88 bb 54 2a 94 3c 92 b3 23 3c 03 69 e1 bc
       -0.0041759848 0.01808659 0.009991543 -0.027515894
0000f0 87 32 bd 3b 97 24 ed bc e5 73 58 3d 0d 30 4e bc
       0.0057738456 -0.028948111 0.0528449 -0.012584698
000100 cd 54 d5 3c 10 6c 26 3c ad c6 0c 3c 3c ca bf 3b
       0.026041413 0.0101576 0.00859229 0.0058529656
000110 fc dc ad 3c 5a 21 c8 bc 22 8e 81 bb e6 f1 23 3a
       0.021223538 -0.024429966 -0.003953711 0.0006254002
000120 83 31 c7 3b c2 71 d4 3c 46 18 0d 3d 15 36 33 3a
       0.0060789003 0.02593315 0.034446977 0.0006836367
000130 39 cb 47 bc 55 22 53 bd f1 74 43 3b dc 0e ae bb
       -0.012194448 -0.051546413 0.0029824341 -0.00531183
000140 6f b8 55 bd 3b fa 41 bd b3 ff 73 bc 5a 59 92 39
       -0.052177843 -0.04735778 -0.014892506 0.00027913862
000150 80 bd b8 bc d5 53 db bc fb 1b 56 bd 47 5b 56 bd
       -0.022551298 -0.026773373 -0.052272778 -0.052333143
000160 82 f1 55 3c fa e6 19 3d d2 90 1a 3d b8 8f a5 bc
       0.013058068 0.037573792 0.037735768 -0.020210132
000170 2c 89 49 bc 91 33 c8 bc ad a1 27 bd 49 f1 6a bd
       -0.012300771 -0.024438651 -0.04092567 -0.057359014
000180 fb 78 44 3d 00 26 3d bd 84 9a 63 bc 80 ed bb 3c
       0.04796694 -0.046178818 -0.01389182 0.022940397
000190 59 ec d7 3c f5 31 57 3d 54 b1 69 bd 5f 7f 00 3d
       0.026357817 0.052537877 -0.05705388 0.03137147
0001a0 6c b5 4e bd 0d c6 6b 3d 87 07 fb bc f2 a9 ac 3c
       -0.050465986 0.057561923 -0.030643238 0.02107713
0001b0 c9 8c fe 3c a7 f6 0e 3d ab 18 6d 3c 94 2a 8c 3c
       0.031072991 0.034903195 0.014471213 0.017110147
0001c0 c5 d3 9e bc 65 79 ac 3c 55 52 5d bd af 17 08 bd
       -0.019388089 0.02105398 -0.054033596 -0.03322571
0001d0 7b b6 47 3c a6 4b bd 3c ab 6c db ba ad 3d 41 bb
       0.012189503 0.023107361 -0.001674076 -0.0029486225
0001e0 62 d8 6b bd 3c 2a 27 3d a7 bd 10 3d 0f 1d e6 bc
       -0.057579406 0.040811762 0.035337117 -0.028090028
0001f0 21 46 1a bd a9 d9 6d 3d 68 91 01 bd d2 f0 37 bd
       -0.037664536 0.058068905 -0.03163281 -0.0449074
000200 1f 0e d2 bc 89 34 9d bb 94 f1 28 bd e5 00 c2 3c
       -0.0256415 -0.0047975224 -0.04124601 0.023682067
000210 c7 8f 63 bd 34 65 64 3d bd 1d db bc 6e f8 5e bd
       -0.05555704 0.055760577 -0.026747579 -0.05443614
000220 ea 9f f7 bb 6a 9a 2f 3d c2 1e 54 3d 1f e1 5b bd
       -0.007556905 0.04287187 0.051787145 -0.05368149
000230 50 b9 2f bd 0e 33 a7 3b d6 bb 1c bd be 6c 30 3d
       -0.042901337 0.0051025217 -0.03826507 0.043072455
000240 ae 29 0e 3d ac 14 46 3d 97 4e 94 bc b1 98 05 3b
       0.034707718 0.048359558 -0.01810388 0.00203852
000250 c4 0a ec bb 19 3c e7 bc 0f 46 0d 3d a4 65 77 3c
       -0.007203432 -0.028226899 0.03449064 0.015099917
000260 f9 f0 06 bd 76 b1 16 3d 12 47 fc 3c d1 74 c3 3c
       -0.032944653 0.036790334 0.030795608 0.023859413
000270 ec ff 6d 3d d4 52 8d bc 3b c2 b1 bc da 62 d5 3c
       0.058105394 -0.01725141 -0.021699062 0.026048113
000280 48 0b b3 bc 84 a2 7f 3c a4 b2 29 3d 90 6c 4f 3d
       -0.021855965 0.015602712 0.04143013 0.050640643
000290 d2 32 a4 bb 77 e9 00 bb 4c d3 ed bc 41 c9 d7 3c
       -0.005010941 -0.0019670406 -0.029031418 0.026341083
0002a0 3a 6f 8f 3b ee 45 5d bd 06 9b 41 3d 10 76 d0 b9
       0.004377273 -0.05402177 0.047266982 -0.00039760815
0002b0 ee 9d 2d 3c e5 00 2c 3c a2 dd 51 3d ff 20 08 bd
       0.010596735 0.01049826 0.051236756 -0.033234593
0002c0 d7 d1 e5 3c 2f 7b cb bc cf 84 c6 3c 6e 15 b7 bb
       0.028054161 -0.024839012 0.02423325 -0.0055872714
0002d0 3a fd 47 3d a2 11 c9 3a 70 86 4a bc f6 c9 14 3d
       0.04882548 0.0015340338 -0.012361154 0.036325417
0002e0 1c 8e 70 bd 7d 99 93 3c 47 cf 96 bb 81 d6 31 3c
       -0.058729276 0.018017525 -0.004602346 0.010854364
0002f0 29 59 c7 3c e5 8e f7 bc d1 08 2a bd a3 10 d9 3b
       0.024334507 -0.030219505 -0.041512314 0.0066242977
000300 cb b9 f5 3b ce a0 96 3a 0d 43 25 bc 20 14 5d 3d
       0.007498955 0.0011492015 -0.010086787 0.05397427
000310 0b cf 4a 3d 78 db af bc cd 4a 38 3d a1 2c b8 bc
       0.049513858 -0.021466956 0.04499321 -0.022482218
000320 0c 03 13 3d ac 28 8b bc 68 5c 6a 3b 6a 74 d8 bc
       0.035891578 -0.016987167 0.0035760645 -0.026422698
000330 b7 9a 24 bd a2 82 47 3c 99 fd 77 3d 5b 54 11 bc
       -0.04018661 0.012177141 0.060544584 -0.00887021
000340 39 2a 10 bd a5 a1 7c bc 42 df 41 3d 18 f5 35 3a
       -0.035196517 -0.015419398 0.047332056 0.0006941124
000350 dc 76 2b 3c 7e 38 42 3d 38 a5 41 bd 7f e0 27 3d
       0.01046535 0.047417156 -0.047276706 0.04098558
000360 5c 4f 1e 3d 15 3e 4f 3d 8d 3e d9 bc b3 08 68 3d
       0.0386499 0.050596315 -0.026519084 0.05664892
000370 f2 91 0a bd 5f 68 5b 3d 4e 2c 61 3d 57 53 30 3d
       -0.03383059 0.053566333 0.054973893 0.04304823
000380 da f5 51 3c 61 02 0b 3d 37 34 cd bc bc f6 61 bd
       0.012814963 0.033937816 -0.025049312 -0.055166945
000390 9d 37 d2 3c ba 06 20 bd 6e f7 8d 3b da b7 03 3c
       0.025661284 -0.039068915 0.0043324744 0.008039439
0003a0 cc 55 c2 3c b9 8f 5e 3b 2f 6a ff bc 02 51 53 bb
       0.023722552 0.0033960177 -0.031178562 -0.003224433
0003b0 2e 5d 9e 3c ae d9 56 3d d2 aa 7c 3c ab 43 2f 3d
       0.01933154 0.05245369 0.015421586 0.042789143
0003c0 3f 69 d0 bc d7 7d 0a bd 2d cd 50 bd bd 3f ed 3c
       -0.02544081 -0.033811416 -0.05097692 0.028961057
0003d0 35 74 4a 3d 4f 4e 0c 3d df 20 30 bd 81 d8 6a bc
       0.04942723 0.03425437 -0.0430001 -0.014333845
0003e0 4d d0 c3 bc cc bc 6e 3d 0d 6a 73 3d 23 b4 b7 3c
       -0.023903036 0.05828552 0.05942731 0.022424763
0003f0 f0 53 42 bd 01 9b a2 bc cc f8 dd bc 83 cc 1f bc
       -0.04744333 -0.019849302 -0.027096175 -0.009753349

features.2.bias f4 [32]
000000 b6 81 26 3d a4 ec d0 bc d0 4f 83 bc c9 a9 20 bd
       0.040651046 -0.025503464 -0.016029269 -0.03922442
000010 5a a5 0c 3d 65 6c 2c 3d 46 27 26 3a e8 f0 69 bc
       0.03433738 0.04209556 0.00063382497 -0.014278628
000020 16 9b 79 3d 59 7c 0e bd c5 a2 a0 3c 2d 95 dd bc
       0.060938917 -0.034786556 0.019608865 -0.027048672
000030 0b f3 34 3d a6 b3 ff 3c 0b 9e 7e bc 3c 27 86 3c
       0.044177096 0.031213593 -0.01554061 0.01637613
000040 7b 8e 1d ba e6 a6 2c bc fc 3b 3b bd 13 1d 2c 3c
       -0.0006010306 -0.010537839 -0.045711502 0.010504979
000050 8a 39 81 3c 8b e1 3f 3d 35 f8 65 3d 35 5e 81 3c
       0.015774507 0.046845954 0.05614491 0.015791992
000060 71 b7 26 bd 91 aa 63 3d 88 d8 6f bc a4 8a ad 3c
       -0.040702287 0.055582587 -0.014639027 0.021184273
000070 f1 57 fd bc 7f ce 2e 3d 6f 5e 6e bc 72 26 31 bc
       -0.030925723 0.0426774 -0.014548882 -0.010812389

features.5.weight f4 [64, 32, 3, 3]
000000 e8 c2 0f 3c be 3c a7 bc 68 a1 12 bd 2e cf 42 bd
       0.008774497 -0.020414706 -0.03579846 -0.047560863
000010 04 63 8b 3c 8d 44 15 3d 46 2a 37 bb 5a 39 28 bc
       0.017014988 0.03644233 -0.002794878 -0.01026758
000020 f6 2e 8d bc c4 94 36 3c 26 d3 a1 3c cc 7b 93 3c
       -0.017234307 0.011143867 0.019754004 0.018003367
000030 a2 d7 3a bd ad 61 33 3c fb 61 8f 3b c4 ec 87 3c
       -0.0456158 0.010948581 0.004375694 0.01659239
000040 37 ee 6b bd ac fb 4e 3c a5 e0 62 3d 5c 79 5d 3d
       -0.057600226 0.012633245 0.05539002 0.054070815
000050 7e 78 b7 bc 98 4d b2 bb c8 53 c1 3c 79 13 bc bc
       -0.022396322 -0.005441379 0.02359952 -0.022958504
000060 24 bb 72 3d 19 b4 4b bd cb 96 6c 3c ac 55 19 bb
       0.059260502 -0.0497323 0.014440249 -0.0023397012
000070 cc ad 65 38 23 dc e0 bc ba 66 59 3d 4f e5 cf 3c
       5.4759716e-05 -0.02744872 0.053076483 0.025377898
000080 07 3c f4 3c 75 9a 1f 3c b1 c9 05 bd 17 1c 62 3d
       0.02981378 0.009741415 -0.03266305 0.05520257
000090 eb 1c 1a bd 8a 5c 9b 3c 3f 35 7d 3c f2 8b 81 3d
       -0.037625235 0.018965025 0.015454589 0.063255206
0000a0 03 3b 9b 3c 80 d4 ea 3a 98 70 0a bd fc fc d0 39
       0.018949037 0.0017916113 -0.033798784 0.0003986134
0000b0 9f 00 10 3d 04 db 0f 3d 43 15 4d bd bb be 01 3d
       0.035156842 0.03512098 -0.050069105 0.031676035
0000c0 08 3a 2a 3d 3f 7b 94 bc 53 bb cf bc 6d 9d 03 bc
       0.04155925 -0.018125175 -0.025357878 -0.008033139
0000d0 52 2f fa 3b 05 f5 61 bb 08 b2 a2 bc 03 14 4f 3d
       0.0076350356 -0.0034478318 -0.019860283 0.050556194
0000e0 31 24 df 3c 30 16 59 bd 19 3f 05 bd 82 c6 bd ba
       0.027238937 -0.052999675 -0.032530878 -0.0014478716
0000f0 45 ce 27 bd a7 ff 0d 3d ec 5c 4f 3d 5f e4 4c 3c
       -0.0409682 0.034667637 0.050625727 0.01250562
000100 56 42 81 bc b7 ab da bc 16 2f 70 bc d2 cb 6f 3a
       -0.015778702 -0.026693208 -0.014659664 0.0009147498
000110 6c ea ef 3c 88 ae 61 3c 07 97 b0 3c 2b e0 ca bc
       0.029286586 0.013774522 0.02155639 -0.024765095
000120 fd ca 6d 3d ca 02 34 3d ef c7 ac 3c 99 a4 1d 3c
       0.058054913 0.043947972 0.02109143 0.009621763
000130 a6 d8 16 3d 7c aa 6d bb 51 65 1c bd ad 5c 48 3c
       0.036827706 -0.0036264947 -0.03818256 0.012229127
000140 af e9 3f 3d 9b fb 8a bc fc 36 4d 3d 16 1f 2f 3c
       0.046853717 -0.016965678 0.050101265 0.010688564
000150 b7 ec 6d 3d 79 fa 2b bd 35 83 36 bc 10 43 ea 3c
       0.058087077 -0.041986916 -0.011139681 0.028596431
000160 9f 06 ef bb 22 b4 46 3d 13 da 75 3a c0 23 4e bd
       -0.0072944905 0.04851163 0.0009378504 -0.050327063
000170 27 e7 86 bc 89 a2 6c bd 37 97 2f 3d cf 61 04 3d
       -0.016467644 -0.057772193 0.04286882 0.03231984
000180 49 ee 29 bd e2 66 07 3d d9 03 1f 3c 37 b6 3b bd
       -0.041487012 0.0330571 0.009705507 -0.04582807
000190 ce 20 d6 39 60 75 1a bd 4f 70 30 bd fe 41 d7 3b
       0.00040841702 -0.037709594 -0.043075856 0.006569146
0001a0 7f 0f 83 bc 9d 4b 21 3a ce 48 44 3c 3a 2a 87 ba
       -0.0159986 0.000615293 0.011980249 -0.0010312267
0001b0 67 e3 4b 3a 0a 3e a3 bc 51 3a 6a 3d cd c0 36 bc
       0.0007777721 -0.019927043 0.05718452 -0.011154366
0001c0 83 f7 ee 3c 19 81 da 3c 6d c3 d3 bc ee 2d 74 bd
       0.029170757 0.026672887 -0.025850022 -0.059614114
0001d0 8c 7b d4 3b b8 a6 33 3c ca 18 0d bc 3b 2e 8c bc
       0.0064844545 0.010965042 -0.008611867 -0.017111888
0001e0 7c a3 c1 bc 40 7f d1 3c c9 d3 53 bd 86 9f 1f bd
       -0.023637526 0.025573373 -0.051715646 -0.038970493
0001f0 f9 e4 60 bd 1f bd ac 3c 9b f8 68 3d 3f 85 dc bc
       -0.054905865 0.021086274 0.056877714 -0.026919005
000200 d5 65 74 bc b4 17 97 3b 66 c5 d5 bc fa 4b 54 bd
       -0.014916857 0.00461098 -0.026095103 -0.05183027
000210 d8 22 d2 bc 75 41 e8 ba 3c 2c 1f 3d 84 ee b1 bb
       -0.02565138 -0.0017719703 0.038860545 -0.0054300446
000220 c2 68 05 bc 00 df cf bc 31 0b 5a bd 48 8c b6 bc
       -0.008142652 -0.02537489 -0.05323333 -0.022283688
000230 de 21 a8 bc cd 11 c9 3c c8 66 69 3d 28 28 46 bd
       -0.020523962 0.02454462 0.056982785 -0.04837814
000240 1d 40 dd bc fb 18 82 3c 64 fb 15 3d 80 fb 49 3c
       -0.02700811 0.015881052 0.036616698 0.012328029
000250 b2 1c 3c 3d 55 bb eb 3c 83 57 f4 3c bf 7a 0c bd
       0.045925803 0.02877585 0.029826885 -0.034296747
000260 27 6c b3 bc 60 ff ea bc 77 83 f9 bc ae 84 1f 3d
       -0.021902157 -0.028686225 -0.030458195 0.038944893
000270 da e6 35 3d d0 0d 08 bd 14 8b 19 bd 26 f8 4d 3d
       0.04440961 -0.033216298 -0.03748615 0.05028548
000280 83 78 47 3d 31 d5 32 bc 4f 0e 69 bd 8d b1 09 3d
       0.048698913 -0.010915087 -0.05689841 0.03361659
000290 77 ae 07 ba a9 de a2 bc 3c 9d ec bc b6 58 ed 3c
       -0.00051758386 -0.019881563 -0.028883569 0.028972965
0002a0 14 a1 2e 3b 0c 34 fc 3b c8 9f 12 3d 06 cb 0b bd
       0.0026646303 0.007696634 0.03579691 -0.034129165
0002b0 ab 02 15 3d 01 09 f7 3c 07 b1 ff 3b b9 ee b5 bb
       0.036379497 0.03015566 0.0078030857 -0.0055521396
0002c0 c4 56 d0 bc 17 06 35 bc c0 37 1b bd ee 6b 1c bd
       -0.025431998 -0.011048815 -0.037894964 -0.038188867
0002d0 49 f3 b8 bb ea 1c f9 bc 4e 18 55 bd 17 18 25 bd
       -0.005644236 -0.030409295 -0.052025132 -0.040306177
0002e0 33 93 6e bc 1c 0a 53 bd dc ff 42 3d d0 a4 09 bc
       -0.014561462 -0.051523313 0.047607288 -0.008401111
0002f0 9f 4a 4b 3c 9e d3 1c bd 6b 42 01 bc 94 f7 58 3d
       0.012407928 -0.03828775 -0.00788937 0.052970484
000300 d9 b3 f8 bc 66 b7 c4 bc 38 16 6f bc e6 ce f1 bb
       -0.030359196 -0.024013232 -0.0145927 -0.0073794005
000310 dd f8 1b 3c e3 c4 f5 bc 3b 11 4e 3c bf 1d 37 3d
       0.009519783 -0.03000111 0.01257735 0.044706102
000320 d9 6e 34 bd 69 0f 35 3b 02 1f 3c 3d ba 98 bc 3c
       -0.044051025 0.0027627593 0.04592801 0.023022044
000330 2e 6a 40 3b 86 a3 3e bd ef 02 63 bd 18 60 c1 3c
       0.0029360163 -0.046542667 -0.05542272 0.023605391
000340 f5 05 da 3c 24 87 3a bd 52 67 2e 3d b6 bc dc 3b
       0.026614169 -0.045539036 0.042579003 0.0067363633
000350 84 38 b0 3b dd 4e 85 bc 7d 16 2a bd c6 8d fa bc
       0.005377831 -0.016272957 -0.041525353 -0.030585181
000360 a5 ab 61 bd a1 f3 53 3c 13 10 3d 3d bd 59 a0 bb
       -0.055095334 0.012936504 0.046157908 -0.00489351
000370 99 d9 0c bc 1c e4 bc 3b b7 d5 66 bd 3e 0c c1 bc
       -0.008596801 0.0057644974 -0.056356158 -0.023565408
000380 07 80 39 bc cc 80 96 3c b1 d2 d4 3c e2 9d 11 3c
       -0.011322028 0.018371962 0.025979372 0.00888774
000390 85 42 61 3c a5 b8 ba bc 93 7e 2e bd 3c ea 45 3d
       0.01374877 -0.022793123 -0.04260118 0.048319086
0003a0 db ca 42 3d ce 42 c0 3b b0 46 0d bd 14 19 8a 3c
       0.04755674 0.0058673387 -0.03449124 0.016857661
0003b0 73 79 58 bd fd 09 27 3d d1 03 9f bc 24 84 90 bc
       -0.052850198 0.04078101 -0.019411 -0.017641135
0003c0 52 47 28 3c 8c 7b 4a bd e0 e6 7f bb 20 03 68 ba
       0.01027091 -0.04943423 -0.0039047524 -0.00088505633
0003d0 d4 7c 4a bc 21 5b 68 bd 5b ca 98 3c 2e f2 23 bd
       -0.012358863 -0.056727532 0.018651178 -0.040025882
0003e0 26 31 0c bd 82 0f 10 bd 6e 9f 68 bc e3 87 24 3c
       -0.03422656 -0.03517104 -0.014198167 0.010042164
0003f0 e7 8a 2d bd 17 22 1a bb 38 aa 4b 3d 16 1b d1 3c
       -0.042368796 -0.0023518854 0.04972288 0.02552561

features.5.bias f4 [64]
000000 30 28 70 bc ee e6 4c 3c 1c 8d 5c 3c cf 2d b6 bc
       -0.014658019 0.01250623 0.0134613775 -0.02223864
000010 82 43 ab bc 5d 2c 51 bd bf 47 1e bd 72 58 77 3d
       -0.020906214 -0.0510677 -0.03864264 0.060387082
000020 80 f2 50 bd 26 f5 09 3d ad 04 50 3b 8e 1c 16 3d
       -0.051012516 0.033681057 0.0031741068 0.036648326
000030 b3 ce 8b bc ac c1 ca b9 65 25 95 3c e5 c4 1e bd
       -0.017066335 -0.0003867274 0.018206308 -0.038761992
000040 8f cc 14 bb 13 d6 d6 bc ea e8 ed bc de b8 29 bd
       -0.0022704934 -0.026225125 -0.029041726 -0.04143607
000050 b4 22 a2 bc d0 99 2e 3d 53 04 73 3d 58 3d 66 bd
       -0.019791938 0.042627156 0.059330296 -0.056210846
000060 6b 24 d4 bc 36 57 19 3a 0c 11 59 3d 32 ee 55 bd
       -0.025896272 0.0005849482 0.052994773 -0.052229114
000070 ef ad 3b bb c7 7a 17 3d 39 ab 34 bd b5 15 13 bd
       -0.0028637608 0.036982324 -0.044108603 -0.035909373
000080 91 4c 65 bd 7e 2d 3c 3c 9c 8e 3f 3d 13 8d 55 bc
       -0.055981223 0.011485456 0.046766862 -0.013034123
000090 27 d7 8a 3c c4 3f 79 3d 9d 2d 7f 3c 2f 54 49 3a
       0.016948296 0.060851827 0.01557484 0.0007680086
0000a0 0a 54 c5 bc cc 82 b5 3b 48 bb 47 bc 38 6d c0 3c
       -0.024087925 0.005539274 -0.012190647 0.02348958
0000b0 64 19 26 bd 30 87 59 3d 34 3f b7 bc 5e 38 b4 3c
       -0.040551558 0.05310744 -0.022369005 0.021999534
0000c0 43 67 79 3c 1a 9a 4a 3a 5e ab 84 3c a7 de 3f 3d
       0.015222373 0.00077286514 0.016194995 0.046843197
0000d0 a5 b8 6e 3d dd 61 b1 bc 52 25 25 bb 77 79 14 bc
       0.05828156 -0.02165311 -0.0025199247 -0.009062163
0000e0 39 ed 62 3d 74 91 e2 bc 74 99 ba 3c a2 15 80 bc
       0.055402014 -0.027657248 0.02277825 -0.015635315
0000f0 1f 84 aa bc fe 6e 27 3d b0 da d6 3c c8 6e 96 3c
       -0.020814953 0.040877335 0.026227325 0.018363371

features.7.weight f4 [64, 64, 3, 3]
000000 41 32 67 bc 01 c5 ba bc ed a9 9d bc a1 7d e2 bc
       -0.014111103 -0.022799017 -0.019246066 -0.027647795
000010 a5 94 09 bd 3c bc 12 3d a3 41 f8 3c 01 f7 9f bc
       -0.033589024 0.035824046 0.030304736 -0.01952696
000020 9e e4 13 bd 82 fb 06 bd 5f da 16 3d 0f 8e 08 bd
       -0.0361067 -0.0329547 0.03682935 -0.033338603
000030 db 9f c6 3c 23 8f 57 bc ea 4b a8 bc 3b ca f3 bc
       0.024246147 -0.013156685 -0.020544011 -0.029759517
000040 54 9e b0 bc c2 dd b8 bc 05 56 89 bc 9d 5c c2 3b
       -0.021559872 -0.02256668 -0.01676465 0.0059314505
000050 75 47 a1 3c aa a3 ef 3b 95 6b 2d bc 1c 5d 10 3b
       0.019687394 0.0073132114 -0.010584732 0.0022028154
000060 c5 f9 e3 3c 70 ba fe bb a1 b4 68 3c 3a 15 fa bc
       0.02782906 -0.00777369 0.014203222 -0.0305277
000070 23 ed bb 3c 9a 34 05 bd 5e 4c 0f bd 48 6f 09 3d
       0.022940224 -0.032520868 -0.03498494 0.03355339
000080 76 9c 98 3c b6 91 cc 3c a1 0a 63 3c fa c4 d1 bb
       0.018629294 0.024971824 0.013857515 -0.0064016553
000090 c8 45 54 3c 88 a5 0a 3d da 7a 25 3b ff 84 18 3c
       0.01295609 0.03384927 0.0025250227 0.0093090525
0000a0 b6 d3 a5 3b fa ba 91 3c a3 55 0c 3d 36 6d 9d bc
       0.0050606383 0.017789353 0.034261357 -0.019217115
0000b0 93 fc 62 bc 47 30 a3 bb 96 2a 73 b8 33 d7 af 3a
       -0.013854164 -0.0049801203 -5.7975376e-05 0.0013415575
0000c0 66 1f 75 3a 43 9e cc 32 c0 3c 31 31 ae 91 d6 b6
       0.0009350687 2.3820695e-08 2.5791422e-09 -6.3946563e-06
0000d0 15 fc f9 bb 1e 5b d2 3b be fa 8f bb 05 41 bc 3b
       -0.0076289275 0.0064195534 -0.0043939045 0.0057450556
0000e0 80 e0 20 3c 5b f9 8b bc 84 99 9b bc c9 b2 69 bb
       0.00981915 -0.017086675 -0.0189941 -0.0035659543
0000f0 44 23 d5 bc d9 66 9c 3c f7 fe 45 bc b2 ce 29 bc
       -0.026017793 0.01909201 -0.012084714 -0.010364221
000100 2f 7b a9 bc 67 72 ba bc e2 2d 22 3d 43 96 19 bd
       -0.020688621 -0.02275963 0.03959454 -0.037496816
000110 ee d3 11 bd ab 0b 27 3d 7e 36 aa 3c 2b cf 28 bb
       -0.035602503 0.04078261 0.020777937 -0.0025758247
000120 38 3f 0e bd 34 9c aa 3c 50 99 0a bd 55 d7 26 bd
       -0.03472826 0.020826437 -0.033837616 -0.0407327
000130 14 7d ca 3c 5e b4 6f 3c 6e 92 02 3d 8c fb f9 3c
       0.024717845 0.014630405 0.031877927 0.030515455
000140 63 26 c1 3c b9 9a cb 3c 12 98 32 3d ca 45 0c 3d
       0.023577875 0.024854051 0.043602057 0.034246244
000150 de 6b ed bc 7c 17 bf bc 51 48 be bc 17 ba 1a bd
       -0.0289821 -0.023326628 -0.023227843 -0.037775125
000160 a2 91 4a bc 5a aa 34 3c e1 54 ee 3c f1 ba 0d bc
       -0.012363823 0.011026943 0.029093208 -0.008650527
000170 a4 63 ce 3c eb 45 b8 3c 70 84 5a bb 5f ae d2 bb
       0.025193997 0.022494277 -0.00333431 -0.006429478
000180 68 96 97 3c 8c 8c 33 3d 6a a8 08 3d 65 a6 aa bc
       0.018504336 0.043835208 0.033363737 -0.020831296
000190 f5 32 7f bc 5e eb 24 3d 26 ee 23 bd bf 36 08 3c
       -0.015576114 0.040263526 -0.040022038 0.008313834
0001a0 d3 94 97 3c be 66 fa 3c 20 52 30 3b af f9 97 bc
       0.018503582 0.03056657 0.002690442 -0.018551676
0001b0 72 81 11 bb 3f 8e 07 bd 76 e4 e4 bb 09 97 11 3c
       -0.00222024 -0.03309464 -0.0069852425 0.008886107
0001c0 03 df ba bc c8 08 6d 3c 2b 42 8c 3c 2e cf e0 bb
       -0.022811418 0.014467426 0.017121395 -0.0068606352
0001d0 b0 f5 06 3d 40 c0 e1 3c dd 46 f9 bb d0 6f 08 bd
       0.03294915 0.027557492 -0.0076073245 -0.033309758
0001e0 db de bd bc 6f 37 13 3d 65 76 5e bc 13 9d 11 bd
       -0.023177555 0.035941537 -0.013578032 -0.03555019
0001f0 33 c3 e0 3c 5c b8 29 3d 6e ed f9 bc 13 a7 f9 bc
       0.027436828 0.041435584 -0.030508723 -0.030475175
000200 5c 7e 01 3d 68 03 04 3d 5b 15 65 bc ef c3 21 3d
       0.031614646 0.03222981 -0.013982142 0.039493497
000210 bd 91 19 3d 92 ec 06 bd ea 33 e7 3b 59 7c 65 ba
       0.037492502 -0.032940455 0.007055749 -0.0008754186
000220 ed f6 30 3c af 60 11 3b 49 fa 09 3d 54 92 18 bd
       0.010801059 0.0022182872 0.033685956 -0.037248924
000230 e6 d5 24 bd cb 3c 6e bc e6 66 d0 3c f4 d8 9a bc
       -0.040243052 -0.014540861 0.02543969 -0.01890228
000240 c6 e4 11 bd 6a 11 de 3c 14 9d 00 3d 79 a0 9f 3c
       -0.035618566 0.027107913 0.0313998 0.019485699
000250 47 75 49 3b 00 03 db 3c 57 d1 28 bd 1f ef 89 3c
       0.0030740069 0.026734829 -0.041215267 0.016837655
000260 b9 19 c4 bc 7c 20 08 bb 6f a1 9d 3c f4 c0 ef 3c
       -0.023938047 -0.0020771315 0.019242017 0.029266812
000270 e2 61 1d bd 3d 9a f8 39 a7 2b a7 bc d8 a0 86 3c
       -0.038423426 0.00047417163 -0.020406557 0.016434118
000280 7b 79 9a bc b8 1e ea bb 96 44 df 3c 3d c5 84 3c
       -0.018856755 -0.0071447752 0.027254384 0.016207332
000290 1b a4 4f 3b 5c 25 1d 3d d8 97 b0 3c d1 22 e0 3c
       0.0031683508 0.038365707 0.02155678 0.027360352
0002a0 ab c0 19 bd fe 2e e3 bc 56 01 23 3d 15 a2 e4 bc
       -0.037537258 -0.027732369 0.039796196 -0.027909318
0002b0 01 73 0c 3d 2c 9a c4 bc 34 d5 2a bc 94 a6 38 3d
       0.034289364 -0.023999296 -0.010426808 0.045080736
0002c0 ec 07 65 bc 4f 77 af bb b3 81 8b bb f9 cc d3 bc
       -0.0139789395 -0.005354799 -0.0042574047 -0.025854575
0002d0 97 56 76 bc 3b 02 3d 3a 78 76 1c bd 4e 19 f3 bc
       -0.015035293 0.000721011 -0.038198918 -0.029675152
0002e0 3d 23 3b bc 56 88 9b bc 73 c6 2a ba 2b 92 b8 3a
       -0.011421976 -0.018985908 -0.00065145566 0.0014081647
0002f0 80 d3 09 bc bb c2 dc 3c a8 66 34 3d 68 32 0f 3c
       -0.008412242 0.026948323 0.044043213 0.008740045
000300 b8 98 67 bc 16 21 0e bc 96 33 65 bc 22 ce 92 3a
       -0.014135532 -0.0086748805 -0.01398935 0.0011200348
000310 e4 b2 10 37 38 d1 91 bc 25 81 f6 bb fd 72 ff bc
       8.62472e-06 -0.017799959 -0.0075227194 -0.03118276
000320 f7 82 c3 3b 5b 4f 72 3c e5 67 03 bb f7 e7 83 3c
       0.00596654 0.014789428 -0.002005094 0.01610182
000330 d7 05 eb bc c9 ee 72 3b 77 82 12 3d 94 d5 8f bc
       -0.028689308 0.0037068597 0.035768952 -0.017557897
000340 92 52 0e bc bd 7c 9c bc 28 e6 f8 b9 ce cd 14 3d
       -0.0086866785 -0.019102449 -0.00047473726 0.036329083
000350 8f 77 64 3b c3 d4 ad bc 20 7b 9f bb 68 a6 f6 3c
       0.0034861302 -0.021219617 -0.0048669726 0.030108646
000360 1f ed 22 3a 8c 15 df bc 8f bf 96 bc c2 ce f9 3c
       0.00062151434 -0.027231954 -0.01840189 0.030494098
000370 ce 84 18 bd b6 18 1c 3c bc 3b 73 3c 64 67 85 3b
       -0.037236027 0.009527376 0.014845785 0.004071163
000380 20 68 ed bb bf 21 fc 3b eb 6b 0f bc 59 24 7d bc
       -0.0072450787 0.0076944525 -0.008753757 -0.0154505605
000390 e5 e3 22 bd c9 aa a9 bc 7e 67 0d 3d 54 b1 b3 3c
       -0.03976812 -0.02071132 0.034522526 0.021935143
0003a0 f2 4b 18 bd 5d d3 6b 3c 1e 14 cf bc e8 4b 18 3c
       -0.037181802 0.014393655 -0.025278147 0.009295441
0003b0 0e 82 0e 3d a0 e8 29 3d 4c 2f 90 3c e7 a7 0f bd
       0.034792 0.041481614 0.017600678 -0.035072234
0003c0 20 de 35 3c 8f f3 c4 bc 0d 81 ae bc 34 bd 83 bc
       0.011100322 -0.024041919 -0.02130177 -0.01608143
0003d0 f5 af 16 bd c0 ae e4 bc 8e 0a 16 3b ba b6 ff bc
       -0.0367889 -0.027915359 0.0022894475 -0.03121506
0003e0 32 aa ca 3c 92 e3 75 bc 4a 43 60 3c 98 91 e3 bb
       0.024739359 -0.01500787 0.013687918 -0.0069448464
0003f0 a6 97 96 3c 08 55 ca 3c d0 8a 59 b6 c1 94 04 3c
       0.018382858 0.02469875 -3.241632e-06 0.008092106

features.7.bias f4 [64]
000000 f3 24 22 3d 8e 6e 59 3c 53 37 9f bc e4 f7 1e bc
       0.03958602 0.013270987 -0.01943556 -0.009702656
000010 d0 1c 80 bc 48 b9 4b bb 88 48 42 ba ce 0a 23 bd
       -0.015638739 -0.0031085778 -0.00074113207 -0.039805226
000020 d3 95 2b 3d b7 fc bb 3c 18 bc d4 bc a4 74 82 bc
       0.04189093 0.022947652 -0.025968596 -0.01592476
000030 b5 a6 00 bc 25 37 28 ba 76 6f 25 3d 58 94 a9 bc
       -0.007852246 -0.00064169086 0.0403895 -0.020700619
000040 d5 fd 26 3c 8f 73 db 3c 24 7a 0a 3d 91 e6 06 bc
       0.010192354 0.026788501 0.03380789 -0.008233682
000050 be c8 3a 3c 0c d4 cd 3b 53 92 27 bd 1d e6 b6 bc
       0.0114004 0.0062813815 -0.04091103 -0.022326523
000060 e4 6b 08 3d 22 19 25 ba 66 88 22 3c 10 43 8f bc
       0.033306018 -0.00062979956 0.009920215 -0.017488033
000070 f0 34 a1 bc 7f 01 80 bc 1f ee 24 bb 81 87 a0 bb
       -0.019678563 -0.015625713 -0.0025166345 -0.004898966
000080 28 73 d6 bc 1d 1d 42 3c 90 de 36 3b 0a d2 15 3d
       -0.026177958 0.011847761 0.0027903654 0.036577262
000090 8e e1 85 bb a4 e8 9e 3c 0c 95 aa 3c ed cc 2f 3c
       -0.004085726 0.019398041 0.020823024 0.01073001
0000a0 aa d6 f3 bc ed 7b fe bb 12 53 df bb f1 ef ef bb
       -0.029765446 -0.007766238 -0.0068153227 -0.0073223044
0000b0 5b 84 d7 3c 9b 30 c5 3b fd 6e 3b bc c1 42 14 bd
       0.02630823 0.006017757 -0.011440036 -0.036196474
0000c0 bb 83 01 3d 2a 37 03 3d e8 e8 6b bc 20 f5 1b 3d
       0.03161977 0.03203503 -0.014398791 0.038075566
0000d0 92 7c 30 3d 8a 6f 4e 3c f0 51 00 bd 19 8b df 3a
       0.04308755 0.012599835 -0.03132814 0.0017055004
0000e0 4d 32 e0 bb 20 4d 0e bd d2 55 f0 bb 07 80 07 bd
       -0.006841934 -0.03474152 -0.0073344493 -0.03308108
0000f0 f6 6b 3c 3c fe 65 9d 3b 00 59 81 3a c5 f3 c5 bc
       0.011500349 0.004803418 0.0009868443 -0.02416409

features.10.weight f4 [64, 64, 1, 1]
000000 ac f9 23 bd 39 9a 9c bd 93 37 c3 3c 5c 4d f0 bc
       -0.040033028 -0.07646603 0.02383021 -0.029333763
000010 ef f2 cf 3d f3 fb 57 bd fa c3 df 3a 80 b9 b7 3a
       0.10153758 -0.052730512 0.0017071955 0.0014017075
000020 97 7d 8c bb 31 88 47 3d ac 3d 38 bd 5b c2 16 bc
       -0.0042874324 0.048713867 -0.04498069 -0.009201611
000030 49 d2 0d bc ed 0c b5 3d 5e be 0b bb 5e 78 c7 3a
       -0.008656093 0.08840356 -0.0021323184 0.0015218367
000040 ca 79 a4 bb 1c 33 2d bd e0 e3 3a 3d a0 d0 a5 3d
       -0.005019401 -0.04228507 0.045627475 0.08096433
000050 f1 f7 3e 3c 54 bb c7 3a c5 8a 29 3d f4 93 b4 bc
       0.0116557935 0.0015238323 0.041392107 -0.022043206
000060 fe 67 04 3d 82 b2 bd 3b 88 eb be 3a 53 f6 91 bd
       0.032325737 0.005789102 0.0014566043 -0.07127061
000070 4f 86 bb bd 83 b1 82 38 cd 10 cc 3d 2e b5 8d 3c
       -0.09156477 6.231947e-05 0.09964142 0.017298307
000080 6d 24 bc b9 8d ce 2a bd 11 f4 c1 3a 6b e4 a1 3a
       -0.00035885294 -0.04170089 0.0014797469 0.0012351399
000090 2b ed 13 bd e5 69 c3 3a d4 bc c5 bc 3f 39 fa bc
       -0.036114853 0.0014908878 -0.024137892 -0.030544875
0000a0 fa ca c2 bd 70 1d 4b bd 07 17 b8 3d 15 0a cd bc
       -0.09511371 -0.04958862 0.08988767 -0.025029222
0000b0 ba af ca bd a1 9b 73 3d a0 28 1d 34 cf ae d6 3c
       -0.098967984 0.05947459 1.4636544e-07 0.026206402
0000c0 49 77 97 3d 28 13 89 bd 6b 02 23 3d 2d 55 bd 3d
       0.07395799 -0.06693107 0.039797228 0.092447616
0000d0 c1 5d 5c 3d 57 f4 c5 3a 1b f3 8a 3c 1e db 46 bc
       0.05380035 0.0015102726 0.016961625 -0.012137203
0000e0 fb 02 2c bd ef 86 a2 b7 34 46 9e 3d 94 86 9c bb
       -0.04199503 -1.9374738e-05 0.07728234 -0.004776785
0000f0 e6 c7 87 3c f5 ae 96 3d 87 5b 2e 3c 28 ca 98 3a
       0.016574811 0.07357589 0.010641939 0.0011656927
000100 3a 1e 27 bd 01 c3 94 3d 2a af 91 bd fb 90 46 3c
       -0.04080031 0.072637565 -0.07113488 0.012119527
000110 db 9f 7b 3d 73 7a 8d 3d ba 02 04 3d f0 7f c1 3d
       0.061431747 0.06908121 0.032229163 0.0944823
000120 22 de c4 bd d8 97 ff bc 2b 75 bb 3d cd a0 a2 3d
       -0.09612681 -0.031200334 0.091532074 0.079408266
000130 d5 53 e8 3d 64 3d 39 bd 48 b3 3e bd c0 07 d8 bb
       0.11344115 -0.045224562 -0.046557695 -0.0065927207
000140 0a cf c2 3d 23 3f 9c bd 52 11 03 3e 7c 54 ec bd
       0.09512146 -0.0762923 0.12799576 -0.115395516
000150 b5 fa 01 3b 4b 3c 4a 3d c4 86 ff 3d 3d 65 cb bd
       0.001983327 0.049373906 0.124768764 -0.09931419
000160 09 8d a2 bc c1 91 d5 bd 2e 32 71 bd de aa f5 3d
       -0.019842641 -0.10428191 -0.058885746 0.11995481
000170 f9 2f eb 3d b7 a6 22 3c 28 03 f8 3d b5 8c be bc
       0.114837594 0.009927443 0.12109977 -0.023260454
000180 e5 15 f6 ba ad 10 ee 3d 15 4d be 3d 5b 83 96 bd
       -0.0018774836 0.116242744 0.09292046 -0.07349273
000190 5d da ed 3d 6c 32 b8 bd 5a 09 d2 3d 63 96 57 3b
       0.11613915 -0.08993992 0.1025569 0.0032896034
0001a0 d6 c5 0d bc a8 14 f4 bd b8 82 be bd f0 4a 06 be
       -0.008653125 -0.11918002 -0.093022764 -0.13114524
0001b0 f8 c0 e7 bb 71 27 cd 3d 1e 28 ef bc 31 8f a4 3d
       -0.007072564 0.100172885 -0.029193934 0.08035124
0001c0 b0 a4 97 bd 37 73 59 3d fd a4 8c 3a 87 3c 39 3c
       -0.074044585 0.053088393 0.0010730323 0.011305935
0001d0 c7 12 d5 bd 29 b9 d2 3d 23 42 9e ba b8 bf b8 bd
       -0.10403972 0.10289223 -0.0012074154 -0.090209424
0001e0 d1 d0 b8 3d e7 45 c0 3d 48 bc 90 bd 9b 1d fd 3d
       0.090242036 0.09388333 -0.07067162 0.123591624
0001f0 28 42 f0 bd 98 d6 88 3d 4d 69 f5 3d ac d8 cf bd
       -0.11731368 0.066815555 0.11982975 -0.10148749
000200 4b 66 08 3d 41 bc cf 3c 7e e5 2d 3d 57 d0 48 bc
       0.03330068 0.025358321 0.04245519 -0.012256703
000210 bb c5 10 bc 56 a6 73 3b d5 80 38 bd 7a a1 a2 bb
       -0.008836205 0.0037178001 -0.04504474 -0.004963097
000220 ad e5 a0 bd 6c 4e e0 bc fe 49 29 bc 54 68 e7 3d
       -0.07856307 -0.027381144 -0.0103325825 0.11299196
000230 94 27 c0 3d 8e c1 13 bd c4 d3 9d bd 44 0a a9 bb
       0.09382549 -0.03607326 -0.07706407 -0.0051586945
000240 89 14 4f bd 6b 12 02 bd 2e b9 f2 3d 55 24 4e 3d
       -0.050556693 -0.031755846 0.118517265 0.050327618
000250 50 47 e9 bd cb 27 d6 bd 9e 69 b9 bb b4 ba 4a 3d
       -0.11390555 -0.10456809 -0.0056583425 0.04949446
000260 43 55 34 3d 82 7a c8 bd 28 ca d0 3d 74 44 bc 3d
       0.044026624 -0.097889915 0.10194808 0.09192744
000270 ea 62 8b 3d c7 1b 61 bb 31 77 15 bd 99 3a 8c bd
       0.06805976 -0.0034348832 -0.036490623 -0.06847114
000280 ee a0 c0 bd 49 92 37 bb 43 e3 65 bd d0 5c a3 bd
       -0.09405695 -0.0028010777 -0.056124937 -0.07976687
000290 81 7f bb bd 36 80 51 bd 87 df d8 ba 72 25 c6 bd
       -0.09155179 -0.051147662 -0.0016546109 -0.09675111
0002a0 fa 37 58 bd 44 5e bd bc f8 90 e0 bd 24 2c 10 bd
       -0.05278776 -0.023116238 -0.109651506 -0.035198346
0002b0 99 5f 61 bd 0a e9 78 bc b5 da bd bd 74 0a a6 3c
       -0.05502281 -0.01519228 -0.09270231 0.020268656
0002c0 d8 bd c6 bd 37 cc f2 bd d2 e7 03 3d 84 d1 ed bd
       -0.097041786 -0.11855357 0.032203503 -0.116122276
0002d0 2b 96 bb 3c e1 5a 86 bd 1b e1 5c 3c d9 94 ad 3d
       0.022898754 -0.065603025 0.013481404 0.08475656
0002e0 a2 86 1d 3c b7 2b e0 3a 01 a9 38 bd c3 84 f0 3c
       0.0096146185 0.0017102872 -0.04508305 0.02936018
0002f0 79 8f 77 bc ca b6 ef 3d 68 29 e2 3b 9a ce 90 bd
       -0.01510989 0.11704786 0.0069019087 -0.07070656
000300 c2 37 31 bd 6b 65 be bd 73 aa b6 bc 6a 1b f1 bd
       -0.043266065 -0.09296688 -0.022298073 -0.11772807
000310 80 a6 87 bd 0d fb 85 3d 00 8c 90 bd a2 d1 a9 3d
       -0.06623554 0.06542025 -0.07057953 0.082919374
000320 a0 04 01 bd 15 d1 27 bd 15 2a 8f 3d 53 16 e8 bd
       -0.03149855 -0.04097088 0.069904484 -0.11332383
000330 ee ff 8a bc d2 79 73 3d b2 c0 11 3d f7 64 91 3d
       -0.01696774 0.05944235 0.03558416 0.07099336
000340 29 f8 89 bc 47 b9 87 3d 44 a8 67 bd cd c5 15 3d
       -0.016841965 0.06627136 -0.056556955 0.03656559
000350 54 44 da bc 22 2d ec 3c 0d e1 11 ba aa c5 a9 bd
       -0.02664391 0.028830115 -0.0005564846 -0.082896546
000360 72 86 8c bc d5 f6 b3 bd ea cf a0 bd b7 86 db bd
       -0.017153952 -0.08787314 -0.078521565 -0.10719054
000370 63 d7 cf bc 1c 67 04 3b d5 f4 96 3d e3 80 d6 3d
       -0.02537126 0.002020306 0.07370917 0.10473802
000380 05 e5 f3 3d 59 8f d2 3d b2 43 68 3d 2d 2e 85 3b
       0.119089164 0.10281248 0.056705184 0.0040643425
000390 ca d6 e2 bd 46 3b 54 3d 25 ae a5 bd 1d 3e 81 bc
       -0.11076124 0.05181434 -0.08089856 -0.015776688
0003a0 57 c8 49 3b 6d fe 8b bd 75 92 90 3d d3 5b 6e bd
       0.0030789578 -0.06835637 0.070591845 -0.05819304
0003b0 1f af bf 3d e8 11 7f 3d 5e a2 ec bd 2a d6 fb 3d
       0.093595736 0.062272936 -0.115544066 0.12296708
0003c0 90 98 80 bd 12 4b 15 3d b0 96 74 3d 52 4e 78 bc
       -0.06279099 0.036448546 0.05971402 -0.015155392
0003d0 d5 4c 14 3d 9f 94 f9 bd d9 8c 11 3d 49 03 a9 3a
       0.036206085 -0.1218655 0.035534713 0.0012894656
0003e0 a4 9c 1b bd f6 f8 86 3d 34 14 aa 3d 89 2e bb bd
       -0.03799118 0.06590454 0.08304635 -0.09139735
0003f0 93 1b 26 3d 78 d6 4b 3d b7 db 82 bd 23 51 4e 3d
       0.04055364 0.04976508 -0.063895635 0.050370347

features.10.bias f4 [64]
000000 31 8c 70 bd af 1f e2 3d c3 cc 30 3d 03 05 f7 3c
       -0.058727447 0.110411994 0.043164026 0.030153757
000010 2d 8b 18 bd 76 bf f0 bc b7 92 88 3d 60 28 c1 3d
       -0.037242103 -0.02938817 0.06668609 0.09431529
000020 67 6f 13 3d 1d 24 a9 3b 49 44 dc 3d f2 51 d1 bd
       0.035994913 0.0051617757 0.10755212 -0.10220708
000030 a9 50 bd 3d b4 9b 71 3d 72 d0 9f 3d bb 0e b9 3d
       0.092439 0.05898638 0.0780343 0.09036013
000040 6f 0c fc 3d 5c b2 97 bd b6 8b 15 bd 88 72 be 3d
       0.12307059 -0.07407066 -0.03651019 0.09299189
000050 bc 62 81 bd aa 3a b9 3d 1e a7 af 3c 7e 08 98 bc
       -0.0631766 0.090443924 0.021441992 -0.018558737
000060 87 17 85 bd b0 3c c2 bd de 5f a3 bd 65 ce 1e bc
       -0.06498628 -0.094842315 -0.079772696 -0.009692763
000070 f8 83 b1 3d 15 43 e4 3c 9c 7b c4 bd 03 e8 59 bc
       0.08667749 0.027864018 -0.09593889 -0.013299945
000080 f8 87 f4 3b 17 f2 19 3d d8 84 93 bd c8 be 1d bd
       0.007462498 0.03758439 -0.07203072 -0.03851202
000090 11 96 ea 3d 41 b9 52 3c 21 77 31 bd 46 c6 68 3c
       0.11454404 0.012861551 -0.0433265 0.014207428
0000a0 e9 30 0d 3c 87 4f 52 3d ce e1 a0 3d 80 2d b9 bc
       0.008617618 0.051345374 0.07855569 -0.022604704
0000b0 81 b9 a0 3d c5 29 0f 3a 9f 92 ca 3c e2 a1 53 3d
       0.07847882 0.0005461241 0.024728118 0.051668055
0000c0 ee 98 ab bd d7 d1 e1 bc 0c c8 7e bd 4f 2b ae bd
       -0.083787784 -0.02756588 -0.0622025 -0.08504354
0000d0 ff 87 8d bc 63 4b 01 3d d1 68 a9 bd 59 6f 3f bc
       -0.017276762 0.031566035 -0.08271945 -0.011684262
0000e0 c2 e9 b0 bd 6d f9 8a bd 9c 6c b0 bd d2 40 9f bd
       -0.08638336 -0.067858554 -0.086144656 -0.07776035
0000f0 7a bf 84 3d 04 70 d2 3d 0f 8a d2 3d 45 0e 90 3d
       0.06481834 0.102752715 0.10280239 0.07033972

classifier.0.weight f4 [3, 64]
000000 82 01 3c 3d 69 57 8e 3d aa 14 df 3c f2 4e 81 bd
       0.045899875 0.06950266 0.027231533 -0.06313886
000010 c3 38 c3 bd 41 55 f4 bd bc 71 97 bd fc 2b a8 bd
       -0.09532311 -0.119303234 -0.0739474 -0.08211514
000020 0e 16 44 3d 1d f4 c9 3a 49 30 16 3c 34 6c 88 bd
       0.047872595 0.0015407834 0.0091667855 -0.06661263
000030 df bc fb 3c eb 28 fb 3c f0 e9 df 3d bd 8c 8b bd
       0.03072971 0.03065916 0.10933292 -0.06813953
000040 bf 96 7c 3c 6a 09 3d bd bd f9 48 3d a3 3d 97 bc
       0.0154168 -0.046151556 0.049066294 -0.018462008
000050 71 4b 5f 3d 9a 35 f6 3d 95 9c b7 3d 64 79 84 bc
       0.054515306 0.120219424 0.089654125 -0.016171165
000060 ec 70 04 bd 23 a8 ae ba f0 bc d0 bd 0d a0 0d bd
       -0.032334253 -0.0013325255 -0.10192287 -0.034576464
000070 8b 8b c1 3d 89 91 e1 bb 0d 06 b2 b1 de 6a de 3d
       0.09450444 -0.006883804 -5.1811697e-09 0.10860227
000080 1b 97 89 3d c4 83 e4 bd 97 a3 9f bd 8c 69 3f bd
       0.06718274 -0.11157945 -0.07794874 -0.046731517
000090 5b f1 73 bd 02 5d e2 3d 7b 2b ba 3d ee 07 ef 3d
       -0.059556346 0.11052896 0.090903245 0.11671434
0000a0 78 4e be bd c6 56 f2 3c 0b 03 ba 3d 9a 49 39 bd
       -0.092923105 0.029582392 0.09082612 -0.045236208
0000b0 04 42 90 3d 02 9b ce bd 04 79 e3 bd 6c 81 89 bd
       0.070438415 -0.10088159 -0.11107066 -0.067141384
0000c0 2d de 10 3c c4 d0 ae 3a 30 0d 9d 3d 2a 9d e1 3c
       0.008842033 0.0013337363 0.07668531 0.027540762
0000d0 5c c1 37 3d 64 94 d4 3c 85 88 db 3c 6e ec a1 3d
       0.044862136 0.025949664 0.026798496 0.079064235
0000e0 64 7f 06 bd 95 8b 82 bd d8 09 48 3d 4e 47 57 3d
       -0.032836333 -0.063742794 0.048837513 0.052558236
0000f0 dd 52 a2 bb 4e 77 b3 bd 61 a5 43 bd 1c 91 bd bc
       -0.0049537257 -0.0876299 -0.04776514 -0.023140483
000100 a0 e7 6a 3d c4 58 4d 3c b9 dd 8b 3b 7d eb b0 3c
       0.0573498 0.01253337 0.0042683748 0.021596665
000110 56 32 aa bd fa 5b 0f bd 7b 91 f3 bd e3 f8 2f 3d
       -0.08310382 -0.034999825 -0.118929826 0.042961966
000120 2a df f0 bd 63 eb 08 3d 03 af 9d bd 01 84 b1 3c
       -0.11761315 0.033427607 -0.076993965 0.02166939
000130 20 b7 89 3d 2b 4c e7 3d 82 cd 58 3d a5 0f d1 3c
       0.067243814 0.11293825 0.052930363 0.025520155
000140 e4 02 b7 bd 5f fb a5 bd 36 ac a1 bc 40 e2 00 3e
       -0.08936098 -0.08104586 -0.019735437 0.12586308
000150 cf 2c 57 3d a6 19 0f bc 7d ac 91 3b 1f d0 d6 3b
       0.052532967 -0.008734142 0.004445611 0.0065555717
000160 14 4f aa 3d b5 ed 2d 3b 49 a2 c3 bd aa c8 9f bd
       0.08315864 0.002653939 -0.09552438 -0.078019455
000170 87 5b cb bd 85 a3 ed 3d 16 2a 79 bd 2a cc e2 bd
       -0.09929567 0.116034545 -0.060831152 -0.110740975
000180 73 59 76 bd 0b 28 85 3c fa ce b7 bc 05 98 ab bc
       -0.0601439 0.016254446 -0.022437561 -0.020946512
000190 3a a7 ed bd 82 ac b9 3d 9c f4 6a bd 90 cf 91 bd
       -0.116041616 0.090661064 -0.057362184 -0.071196675
0001a0 e8 e9 2b bd 4c 16 a5 bc a9 bd e7 bd eb ef c2 3d
       -0.041971117 -0.020152234 -0.11315472 0.09518417
0001b0 a0 03 96 3d 75 0c c2 bd 17 b7 81 bd e7 8a da bd
       0.0732491 -0.09475032 -0.0633375 -0.10671025
0001c0 92 77 49 bd c2 a1 f5 bc a6 9d a1 bd f6 f4 1c 3c
       -0.049186297 -0.029984359 -0.07891397 0.009579888
0001d0 0e ac 50 3d c3 88 92 bd 09 f6 14 3d 6e 28 30 3d
       0.050945334 -0.071549915 0.03636745 0.043007307
0001e0 33 6c 01 3d 27 40 9a 3c f1 b6 84 bd cd 97 e8 bb
       0.031597327 0.018829418 -0.06480206 -0.007098174
0001f0 fe 88 cb 3d 75 69 04 3d e9 73 e8 bd 64 7c bb bd
       0.099382386 0.032327134 -0.11350233 -0.09154585
000200 27 90 bc 3d 93 01 e7 3d 5f 0a 88 3d eb d4 de bd
       0.092071824 0.11279597 0.06642603 -0.10880455
000210 30 c1 78 3d 43 64 97 bd 68 de 8a bd ed 91 20 bd
       0.060731113 -0.0739217 -0.06780702 -0.039201666
000220 2b 23 d3 3d 27 55 51 bd bb e4 a8 bc 65 d8 17 3c
       0.10309442 -0.0511066 -0.02061688 0.009267901
000230 81 3a 7e bd 64 9a 4e bd 71 ce 2a 3d 2c 02 a3 3c
       -0.062067512 -0.050440207 0.041700784 0.019898497
000240 6e 6d 62 bc dc 93 2a 3d 27 53 29 bb 9d a6 d7 bd
       -0.013820035 0.041644916 -0.0025836916 -0.10529826
000250 8a 85 d1 bd 50 92 da 3d b8 3d 74 bb 62 0f ca bd
       -0.10230549 0.10672438 -0.0037268233 -0.09866215
000260 38 2f 96 bd 6f df ce bd 0a ad 99 bd 0a a3 d2 3b
       -0.07333225 -0.1010121 -0.07503708 0.006428127
000270 7c ee 08 bc 4a b4 b7 bd da 93 c1 bd c2 89 50 3c
       -0.00835764 -0.08969934 -0.094520286 0.0127281565
000280 c8 81 8f 3d 21 17 3d bd 29 28 a1 bd 0c aa 0c 3d
       0.07007176 -0.046164636 -0.07868988 0.034341857
000290 d5 73 81 3c 52 8e f2 bd 10 70 bc 3d 3d f6 17 bd
       0.015802303 -0.11843552 0.09201062 -0.037100065
0002a0 a0 5a 04 bd 97 ef 73 bd 62 99 d2 bd 04 31 9b 3d
       -0.03231299 -0.059554663 -0.10283162 0.07577708
0002b0 0a 08 f6 bd 33 49 98 bd 90 c5 88 bd f4 6a 63 bd
       -0.12013252 -0.07435837 -0.06678307 -0.05552192
0002c0 e1 3e 67 bd 28 86 87 3d 32 8d d8 bd 45 46 27 3d
       -0.05645645 0.06617385 -0.10573806 0.0408385
0002d0 82 14 fe 3d f6 27 7e bd b2 dc aa bd e1 dd b2 bb
       0.12406255 -0.06204983 -0.083428755 -0.005458579
0002e0 2c 32 82 3c 12 93 bf 3d 21 c0 40 bb 16 a3 dd ba
       0.015893064 0.09354223 -0.0029411393 -0.0016909565
0002f0 86 31 93 bd 71 3d 8b 3d ff d8 d1 bd fc 09 62 bc
       -0.0718718 0.067988284 -0.10246467 -0.013796326

classifier.0.bias f4 [3]
000000 7d a0 b2 bc 97 1d 0c bd e3 41 8f bd
       -0.021805042 -0.034207907 -0.06994989
