benchmark_model_data/10000_image_experiment_30_epochs/benchmark_experiment_increased_data/experience_1_2/model_experience_1_2.pth (torch, 854826 bytes, 36 tensors)

features.0.weight f4 [32, 3, 3, 3]
0	0x3d136638	0.035986155
1	0x3dbebd69	0.09313471
2	0x3dbc3da0	0.091914415
3	0xbe08dfb9	-0.13366593
4	0xbe3bfb99	-0.18357696
5	0x3dbf6485	0.093453445
6	0x3d5b0f83	0.05348159
7	0xbe1325a6	-0.1436983
8	0xbe1e5181	-0.15460779
9	0xbdbdce47	-0.0926786
10	0xbc008cbb	-0.007846053
11	0xbb34da05	-0.002759577
12	0xbcb65fd5	-0.022262493
13	0x3d424f8b	0.04743914
14	0xbd95f72c	-0.07322535
15	0xbdfc2a6d	-0.123127796
16	0x3e28ba50	0.16477323
17	0xbd665cb3	-0.05624075
18	0xbd97a60b	-0.07404717
19	0x3e3a0ce4	0.1816898
20	0x3e260199	0.16211547
21	0x3e038f14	0.12847549
22	0x3e1582de	0.14600703
23	0x3de57d99	0.112055965
24	0x3e642484	0.22279555
25	0x3e4ef529	0.20210709
26	0xbde214b6	-0.110391065
27	0xbdd1263b	-0.1021237
28	0x3d8be195	0.06830136
29	0x3dc71e71	0.09722603
30	0x3b1b8d66	0.0023735403
31	0xbd4b339e	-0.049609773
32	0x3cd61c8d	0.026136661
33	0x3d18bc64	0.03728904
34	0x3d927e0f	0.0715295
35	0xbdf7298b	-0.120684706
36	0xbd2d79bf	-0.042352434
37	0xbd677e82	-0.05651713
38	0x3df783b9	0.12085671
39	0xbe25ea21	-0.16202594
40	0xbdab027c	-0.08350083
41	0xbdef5a73	-0.11687174
42	0x3d4f395b	0.050591808
43	0xbe38a28b	-0.18030755
44	0xbd2ec1b8	-0.042665213
45	0xbe2e42ef	-0.1701772
46	0xbe2df969	-0.16989674
47	0xbd77bbb4	-0.060481742
48	0x3e1f6ef2	0.15569666
49	0x3daa7496	0.08323018
50	0xbc159db5	-0.009131839
51	0x3dbb6e98	0.091519535
52	0x3dde3389	0.10849673
53	0xbd9d62f2	-0.07684888
54	0xbccc17a0	-0.024913609
55	0x3bac1a8a	0.005252187
56	0xbe280cee	-0.16411182
57	0x3dce564f	0.10075056
58	0x3dd456e7	0.10368138
59	0x3dbf14fa	0.09330173
60	0xbdb63901	-0.088975914
61	0xbe0b5b92	-0.1360915
62	0xbe23a70f	-0.15981697
63	0x3d148910	0.036263525
64	0x3c1006b5	0.008790662
65	0xbe23b82f	-0.15988229
66	0x3c4fa0d6	0.012672624
67	0x3def6ff6	0.11691277
68	0xbdd7fb1b	-0.105459414
69	0x3dbfe5f1	0.0937003
70	0xbd842f75	-0.06454364
71	0x3de7ff8b	0.11328038
72	0xbe275a31	-0.16342999
73	0x3def9684	0.116986305
74	0xbde9ea1f	-0.11421608
75	0x3ca15518	0.019693896
76	0xbe208a0e	-0.15677664
77	0xbe29c9fa	-0.16580954
78	0x3dfb3070	0.12265098
79	0x3e11218c	0.14172953
80	0x3cfbde2e	0.030745592
81	0xbddd210e	-0.1079732
82	0xbae0c87f	-0.0017149596
83	0xbdb23994	-0.087023884
84	0xbdb1e73d	-0.08686683
85	0xbdb17514	-0.08664909
86	0x3e40508b	0.18780725
87	0x3bcb77a2	0.0062093297
88	0xbe07a5af	-0.13246797
89	0x3d85f708	0.06541258
90	0x3c9677c2	0.018367652
91	0x3e1355f4	0.14388257
92	0xbb8bfa60	-0.0042717904
93	0x3d1e93f8	0.038715333
94	0xbc7c59f9	-0.0154023105
95	0x3e181b8e	0.14854261
96	0x3ce87950	0.028378159
97	0xbd7ef23a	-0.062242724
98	0x3e202c91	0.15642
99	0x3d7daca5	0.061932225
100	0x3dd23691	0.10264314
101	0x3e2685ab	0.16261928
102	0x3dbac83d	0.09120224
103	0xbe3b2961	-0.18277504
104	0xbe3b5efa	-0.1829795
105	0xbd8a66af	-0.067578666
106	0xbc8e2d7f	-0.017355679
107	0x3d548840	0.05188775
108	0x3dd5f930	0.10447919
109	0x3db9a4f4	0.090646654
110	0x3dcdfdb4	0.10058156
111	0xba64377b	-0.0008705777
112	0x3e19b364	0.15009838
113	0x3bb3ef30	0.00549116
114	0x3df5a29d	0.11993907
115	0x3e131b4d	0.14365883
116	0xbc8af500	-0.016962528
117	0x3e225307	0.15851985
118	0x3de59d22	0.11211611
119	0x3d0a1a43	0.03371645
120	0xbe06e683	-0.1317387
121	0x3ded0d0f	0.11574756
122	0x3d9e66ab	0.07734426
123	0xbda7e074	-0.08197108
124	0xbdd53978	-0.10411352
125	0xbd6ecd16	-0.058301054
126	0xbe22da75	-0.15903647
127	0xbdc7c209	-0.09753806
128	0x3d74a206	0.05972483
129	0x3df98059	0.121826835
130	0x3de8c50a	0.11365707
131	0x3d1a1a17	0.037622537
132	0x3d5aae48	0.053388864
133	0x3d8778f4	0.06614867
134	0x3e151e74	0.14562398
135	0xbcde6a37	-0.027150257
136	0x3ce1c29a	0.027558614
137	0x3d01cdfa	0.031690575
138	0x3e25f149	0.16205324
139	0x3c81adcd	0.015829945
140	0xbdfae853	-0.122513436
141	0xbe389e94	-0.18029243
142	0x3d8b7f72	0.06811418
143	0x3d2fb222	0.04289449
144	0x3c451b66	0.012030458
145	0x3cb1cfca	0.021705527
146	0xbd81dd33	-0.063410185
147	0xbcca19d3	-0.024670517
148	0xbd12898d	-0.03577571
149	0xbd82384a	-0.063583925
150	0xbd001034	-0.031265453
151	0x3e1d71ea	0.15375486
152	0x3d4479cd	0.04796772
153	0x3db9516f	0.09048735
154	0x3d43c1bb	0.047792178
155	0xbe607216	-0.2191852
156	0xbe0b104e	-0.13580438
157	0xbd9f5750	-0.077803254
158	0xbe623df8	-0.22093952
159	0x3dd45c0e	0.103691205
160	0x3de65add	0.112477995
161	0x3cc365fc	0.02385234
162	0x3e27f843	0.16403298
163	0xbd819fff	-0.06329345
164	0x3e22532e	0.15852043
165	0x3e14bc24	0.14524895
166	0xbdb038bd	-0.08604572
167	0x3e341cbe	0.1758909
168	0xbe25c048	-0.1618663
169	0xbe102717	-0.14077412
170	0xbdea664a	-0.11445291
171	0xbd8fa184	-0.070132285
172	0x3d606c3d	0.054790724
173	0x3dca2da1	0.09871984
174	0x3e363b66	0.17796096
175	0x3d614650	0.054998696
176	0xbe214896	-0.15750346
177	0x3e3331b4	0.17499429
178	0x3cea4e78	0.02860187
179	0x3c4d3dc5	0.012526934
180	0xbe3ffca8	-0.18748724
181	0xbdae5f8c	-0.08514318
182	0xbe51cbd3	-0.20487909
183	0x3e2f4d11	0.17119242
184	0x3e2be2d9	0.16785754
185	0x3ce2793d	0.027645702
186	0x3be2ce56	0.00692157
187	0xbdcb779f	-0.09934925
188	0xbd6c2f50	-0.05766231
189	0xbdda3392	-0.106543675
190	0x3e2195db	0.15779822
191	0x3e0ad7a6	0.13558826
192	0xbe3f7610	-0.18697381
193	0x3d94c2df	0.07263731
194	0xbda4236f	-0.08014571
195	0xbe240baa	-0.16020074
196	0xbd172b3b	-0.036906462
197	0xbe4795f2	-0.19490793
198	0xbc2e17b4	-0.010625768
199	0x3cce6ae6	0.025197458
200	0x3da7037d	0.08154962
201	0xbd48922a	-0.048967518
202	0x3d4fdf98	0.050750345
203	0xbe07a595	-0.13246758
204	0xbdd50ff3	-0.10403433
205	0xbe3e0da9	-0.18559898
206	0xbda3567b	-0.07975479
207	0x3d6e7839	0.058220122
208	0xbc422ce9	-0.011851528
209	0xbe53d37b	-0.20686142
210	0xbd8c5da7	-0.068538
211	0xbb936490	-0.004498072
212	0xbda1d057	-0.07901066
213	0xbe05cf57	-0.13067375
214	0xbe134645	-0.14382274
215	0xbcd0dda0	-0.025496304
216	0x3e1b10ee	0.15143177
217	0x3df4b114	0.119478375
218	0xbdbe2e1e	-0.0928614
219	0x3d3f440a	0.046695746
220	0xbd7473d3	-0.05968077
221	0x3de605c3	0.11231568
222	0x3dad386a	0.08458026
223	0x3db10d2a	0.08645089
224	0xbe385a68	-0.18003237
225	0xbd2fc8c1	-0.042916063
226	0xbe13c961	-0.14432289
227	0x3d8a3782	0.067488685
228	0xbe1b4d3a	-0.15166178
229	0xbe39f612	-0.18160275
230	0x3e33f2fd	0.17573161
231	0x3c0ff76c	0.008787017
232	0x3e123233	0.14276962
233	0xbe33aa04	-0.17545325
234	0xbc037f50	-0.008025959
235	0xbd66db1a	-0.056361295
236	0xbc405a83	-0.01174033
237	0xbe2d065c	-0.16896957
238	0x3e308a37	0.17240225
239	0x3d6c79e8	0.057733446
240	0x3d454277	0.04815909
241	0xbdca7f9d	-0.098876216
242	0xbcc24883	-0.023716217
243	0x3d273689	0.040823493
244	0xbe25d2d0	-0.161937
245	0x3e299f3a	0.16564646
246	0x3de079da	0.10960741
247	0x3e34e610	0.17665887
248	0x3e1fda15	0.15610535
249	0xbe2663f1	-0.16249062
250	0x3dbe75ee	0.09299837
251	0xbdc88e28	-0.09792739
252	0xbe0fcd0d	-0.14043064
253	0x3e0b8cef	0.1362798
254	0xbe334dc8	-0.1751014
255	0xbdb4bf7c	-0.08825585

features.0.bias f4 [32]
0	0x3e00ae98	0.12566602
1	0xbe0572e3	-0.13032107
2	0xbd87cce9	-0.066308804
3	0xbe09a4f2	-0.13441828
4	0x3e15f4fc	0.14644235
5	0xbac4222c	-0.0014963797
6	0x3d5472bf	0.051867243
7	0x3e3020bf	0.17199992
8	0xbd28086a	-0.04102365
9	0xbd687ec8	-0.056761533
10	0x3dc78964	0.09743002
11	0xbe487423	-0.19575553
12	0x3dacf5bd	0.08445308
13	0xbe1d5eef	-0.15368246
14	0xbe0eb7bc	-0.13937277
15	0xbd11e7a6	-0.035621308
16	0x3e174a96	0.14774546
17	0xbde43d8b	-0.11144551
18	0x3dc58197	0.09643858
19	0x3dfbb29f	0.12289929
20	0xbe08d2e1	-0.13361694
21	0x3e3c511b	0.18390314
22	0xbd31ad40	-0.043378115
23	0xbe457e7c	-0.19286531
24	0xbdaccf6a	-0.084379986
25	0x3e55d459	0.20881785
26	0xbe0a14b8	-0.13484466
27	0x3c8c8073	0.017151093
28	0x3e2eacdf	0.17058133
29	0x3d965854	0.07341066
30	0x3e49b476	0.19697747
31	0x3e1fee95	0.15618356

features.2.weight f4 [32, 32, 3, 3]
0	0x3b779d2d	0.0037782893
1	0x3c86208d	0.016372943
2	0x3c9dfe76	0.019286375
3	0xbd460262	-0.048342116
4	0x3bb4f62f	0.0055225114
5	0xbd0f74cb	-0.03502349
6	0x3ce865ff	0.028368948
7	0x3d7718d1	0.0603264
8	0xbd85bddb	-0.06530353
9	0x3c2ef909	0.010679492
10	0x3c950d0d	0.0181947
11	0x3c0b3b30	0.008497998
12	0x3cd8ab92	0.026448999
13	0xbcc8de30	-0.02452001
14	0xbd14e8fa	-0.036354996
15	0xbcb441b5	-0.022003988
16	0x3d563cfd	0.052304257
17	0x3ce56bad	0.028005445
18	0x3d7a6694	0.061132982
19	0x3c232038	0.009956412
20	0x3cf50ed8	0.029914305
21	0xbb49990d	-0.0030761391
22	0x3d8f5597	0.06998747
23	0xbce10c59	-0.027471708
24	0x3d6ee3a9	0.058322582
25	0xbc03829e	-0.008026747
26	0x3d02c649	0.03192738
27	0xbd34c8e8	-0.04413691
28	0x3d2ebb06	0.04265883
29	0x3cea2f72	0.028587077
30	0xbcaec872	-0.021335814
31	0x3c1b6511	0.009484545
32	0x3a9d22b7	0.0011988495
33	0x3c6eb988	0.014570601
34	0x3c708fa5	0.014682685
35	0xbcc726bb	-0.02431046
36	0xbc8247bc	-0.015903346
37	0xbba3862b	-0.0049903593
38	0xbd5a5cfe	-0.05331134
39	0x3d11b7fd	0.035575856
40	0x3cf946f6	0.030429345
41	0xbd9913a2	-0.07474448
42	0x3d0ee74a	0.034888543
43	0xbd6d85c5	-0.0579889
44	0xbc8f33a8	-0.017480686
45	0xb7a84219	-2.005794e-05
46	0x3d1ade47	0.037809636
47	0xbbc9141e	-0.0061364314
48	0x3dbaf5a6	0.09128885
49	0x3db0f8fe	0.086412415
50	0x3c4a59fa	0.012350554
51	0xbc81013b	-0.015747657
52	0xbc75ba5b	-0.014998044
53	0x3d84f535	0.06492082
54	0x3d5571ae	0.052110367
55	0xbb1e49f8	-0.0024152976
56	0x3d53c4d7	0.051701393
57	0xbd17c477	-0.037052598
58	0x3d420538	0.04736826
59	0x3d21462e	0.03937357
60	0x3d2eba7b	0.04265831
61	0xbd3a1422	-0.045429356
62	0xbc41b24b	-0.0118222935
63	0xbc9a46e4	-0.018832631
64	0x3d13eab8	0.036112517
65	0x3d94a356	0.07257716
66	0xbb8972aa	-0.004194577
67	0x3d7e4bdc	0.062084064
68	0xbcf37935	-0.029720882
69	0x3d1c08d1	0.038094345
70	0x3d869275	0.06570903
71	0x3d9df710	0.07713139
72	0x3d021906	0.031762145
73	0x3c0fa9e7	0.008768535
74	0xbc8300b0	-0.015991539
75	0x3d7d9a9f	0.061915036
76	0xbc41395d	-0.011793462
77	0xbc79180b	-0.015203486
78	0xbd28c79d	-0.04120599
79	0x3b32c096	0.0027275435
80	0x3d12cd47	0.0358403
81	0x3d3c2582	0.045934208
82	0x3d516385	0.0511203
83	0x3d0c3a19	0.034235094
84	0x3c659831	0.014013336
85	0x3c40671d	0.011743334
86	0xbbaf84c3	-0.0053564026
87	0x3c942ea5	0.018088648
88	0xbc8d38c0	-0.017238975
89	0x3d8f7310	0.07004368
90	0x3d40d142	0.047074564
91	0xbccea836	-0.025226694
92	0x3d3c5fc2	0.04598976
93	0xbc92be44	-0.017912991
94	0xbd022f8f	-0.031783637
95	0xbdb24a76	-0.087056085
96	0xbc0c96d9	-0.008580887
97	0xbc94e9ad	-0.018177832
98	0xbc84219a	-0.016129304
99	0x3c15ade6	0.009135699
100	0x3d6604f7	0.05615708
101	0x3d9896ab	0.07450613
102	0x3d82ae4a	0.06380899
103	0x3d4c8b89	0.04993776
104	0x3d127400	0.035755157
105	0xbc94b0ac	-0.01815065
106	0x3d9676c5	0.07346872
107	0x3cf0dfb4	0.029403545
108	0x3d44e8d6	0.048073612
109	0xbbeb5bd2	-0.0071825767
110	0x3c5baa2b	0.01340727
111	0xbd81d047	-0.06338554
112	0xbc100648	-0.00879056
113	0xbd32caf3	-0.04365058
114	0x3d133415	0.03593834
115	0xbc7f5367	-0.0155838495
116	0xbd421b95	-0.047389586
117	0x3c988bfa	0.018621434
118	0x3db9b17b	0.09067055
119	0x3dc88810	0.09791577
120	0x3d694126	0.056946896
121	0x3dbebe03	0.093135856
122	0x3b666ea5	0.0035161164
123	0x3d979a26	0.07402448
124	0x3cd87176	0.02642129
125	0x39ee2cad	0.00045428184
126	0x3dc6cdc0	0.097072124
127	0xbb11dae3	-0.002225571
128	0x3db5a9a3	0.08870246
129	0x3dc6cc09	0.09706885
130	0x3d889362	0.06668736
131	0x3d5a8daa	0.053357758
132	0x3ac41de6	0.0014962524
133	0x3dcc9135	0.099886335
134	0x3dcf6a77	0.101277284
135	0x3d6b8589	0.057500396
136	0x3d2c60d9	0.04208455
137	0xbcf17679	-0.029475437
138	0x3d576376	0.052585088
139	0xbd0a4886	-0.03376057
140	0xbd4af233	-0.049547385
141	0x3d295b47	0.041346814
142	0xbba851a3	-0.005136685
143	0xbd8e0dbd	-0.06936214
144	0x3ca50af9	0.020146834
145	0xbc21b7cc	-0.009870481
146	0xbcbb5953	-0.022869742
147	0x3d66c344	0.056338564
148	0xbd1d34d0	-0.038380444
149	0x3a75ed09	0.00093813293
150	0x3cfdb629	0.03097065
151	0xbbe4e429	-0.0069852066
152	0x3bc59eac	0.006030878
153	0xbc46f14b	-0.01214249
154	0xbcb393ff	-0.021921156
155	0xbd2ea502	-0.042637832
156	0xbc5a8eea	-0.013339737
157	0x3cc7ee75	0.024405697
158	0x3cb24617	0.021761937
159	0xbd82c4cc	-0.06385192
160	0xbc92d734	-0.017924882
161	0xbc8e9af6	-0.017407876
162	0xbce78f63	-0.028266614
163	0xbcdc63f4	-0.02690313
164	0x3bce2add	0.006291731
165	0x3c9677c8	0.018367663
166	0x3d23370e	0.039847426
167	0x3d0967e6	0.03354635
168	0x3d74a986	0.059731983
169	0xbcf357f0	-0.029705018
170	0xbc8bdff8	-0.01707457
171	0xbceb7cc3	-0.028746014
172	0x3c5633f6	0.013073912
173	0xbc9d4e66	-0.019202422
174	0x3c74c17a	0.0149387065
175	0x3d715f3f	0.058928724
176	0x3b2032cd	0.0024444342
177	0x3d213555	0.039357502
178	0xbca4c60d	-0.02011397
179	0x3d632495	0.05545481
180	0xbd5c88f8	-0.05384156
181	0xbd258627	-0.04041114
182	0x3d002206	0.031282447
183	0xbb9c5b79	-0.0047716466
184	0xbd6fd952	-0.058556862
185	0x3c8a9c44	0.016920216
186	0x3a0619e8	0.00051155547
187	0x3d24f6d2	0.04027445
188	0xbbef925a	-0.0073111476
189	0x3d80c5b6	0.0628771
190	0x3d03b8d6	0.032158695
191	0xbd21b64c	-0.039480492
192	0x3c025b0a	0.007956276
193	0xbc0538bc	-0.008131202
194	0x3cbd8235	0.023133377
195	0xbc6c68eb	-0.014429311
196	0x3d5a7396	0.053332888
197	0xbca54e04	-0.020178802
198	0xbcbfef1f	-0.023429452
199	0xbcab8afa	-0.020940293
200	0x3cc63a4e	0.024197724
201	0x3cc142b5	0.023591379
202	0x3d403c63	0.04693259
203	0x3ce78e1d	0.028266007
204	0xbc3e5f86	-0.011619454
205	0x3d2f8719	0.04285345
206	0x3d3e66e2	0.046484835
207	0xbbdae642	-0.006680281
208	0xbcf46bf4	-0.029836632
209	0x3d0bb998	0.034112543
210	0xbd2fe433	-0.042942237
211	0xbb162d9c	-0.002291537
212	0x3c9375d0	0.018000513
213	0xbce51213	-0.02796272
214	0xbb85a8e2	-0.0040789703
215	0xbcc9fb8f	-0.024656085
216	0xbd0131d3	-0.031541657
217	0xbc32251f	-0.010873108
218	0xbd094bf7	-0.03351971
219	0x3d1a14e5	0.037617583
220	0x3d8d8729	0.069105454
221	0xbc498de9	-0.0123019
222	0xbc4603db	-0.01208588
223	0x3d90cf94	0.070708424
224	0x3d56c88c	0.05243735
225	0xbb71489a	-0.0036816956
226	0x3cede327	0.029038979
227	0xbd619ecb	-0.055083077
228	0x3c63fa18	0.013914607
229	0x3d5e5d84	0.054288402
230	0xbd56ddca	-0.05245761
231	0x3d2e44f9	0.042546246
232	0xba35a109	-0.0006928598
233	0x3bc70166	0.0060731648
234	0xbcb0b85b	-0.021572283
235	0x3d278822	0.04090131
236	0xbc63de1d	-0.013907936
237	0x3d32364b	0.04350881
238	0x3ce555c3	0.027994996
239	0xbc82b0ee	-0.015953507
240	0xbd15bde4	-0.036558047
241	0x3cfaae43	0.030600673
242	0x3cda709d	0.026665026
243	0xbd63b77e	-0.055594914
244	0xbd059f42	-0.032622583
245	0xbd83cbf0	-0.06435382
246	0x3d6c6d2d	0.057721306
247	0xbc91eed9	-0.017814087
248	0xbd589ebf	-0.052885767
249	0xbd00423b	-0.031313162
250	0x3b9c8b2b	0.0047773323
251	0xbd5d2ab2	-0.053995796
252	0x3d00cbb0	0.03144425
253	0x3cfe75a3	0.031061953
254	0xbca7a64d	-0.02046504
255	0x3c2c2964	0.010507915

features.2.bias f4 [32]
0	0xbb53801e	-0.0032272409
1	0xbcd67871	-0.026180478
2	0xbb83cdb2	-0.0040223235
3	0xbbf04ed3	-0.0073336153
4	0xbbaffeb3	-0.0053709387
5	0x3c660d34	0.014041234
6	0x3c6d927a	0.014500255
7	0xbd39b404	-0.045337692
8	0xbc0bf2c1	-0.008541764
9	0x3d36838b	0.044559043
10	0x3d44c22d	0.048036743
11	0x3c608025	0.013702427
12	0xbd36222b	-0.04446618
13	0x3d593733	0.053031158
14	0x3b9df17d	0.0048200474
15	0xbcbaeb5f	-0.022817312
16	0x3cf4a08d	0.029861713
17	0x3cf1c8ff	0.029514788
18	0xbbd2ad16	-0.006429325
19	0x3c8dee68	0.017325595
20	0x3cc89757	0.024486227
21	0x3d3ea83f	0.04654717
22	0x3d488451	0.04895431
23	0x3bdf9261	0.0068228696
24	0xbbb871a9	-0.0056287837
25	0x3d847eb3	0.064694785
26	0x3d40c71c	0.047064885
27	0x3d30b67e	0.043142788
28	0x3dd1bf03	0.10241511
29	0x3d0ec825	0.03485884
30	0x3c3e3a6b	0.011610608
31	0xbc292a0f	-0.010324969

features.5.weight f4 [64, 32, 3, 3]
0	0x3bbcf1b8	0.00576612
1	0xbaf64336	-0.0018788341
2	0x3d8ca614	0.068676144
3	0xbce2893d	-0.027653331
4	0x3d5acf2d	0.053420234
5	0xbd04cc88	-0.03242162
6	0x3d8d0e90	0.06887543
7	0xbd076037	-0.033050742
8	0x3c8251be	0.015908118
9	0x3d1ea385	0.038730163
10	0xbc8c24a7	-0.017107321
11	0xbcff9a08	-0.031201378
12	0xbd11403b	-0.035461646
13	0x3d753ab6	0.059870444
14	0xbd3360f0	-0.04379362
15	0xbd40be86	-0.047056697
16	0x3d11931f	0.035540696
17	0xbd447c51	-0.04797012
18	0xbd07b97c	-0.033135876
19	0xbc24fd91	-0.010070221
20	0xbd8c871e	-0.06861709
21	0x3be07bba	0.006850687
22	0x3ce538f9	0.027981268
23	0xbcaab23e	-0.020836946
24	0xbca2fcb5	-0.01989589
25	0xbd238d06	-0.039929412
26	0x3cd1d6dd	0.02561515
27	0x3d765bab	0.060146015
28	0x3cb904c1	0.022585275
29	0xbb2dbc26	-0.002650985
30	0x3d890bd7	0.066917114
31	0x3c9fdebb	0.019515386
32	0x3d9944ee	0.074838504
33	0x3cfc8671	0.030825825
34	0x3cd2400d	0.025665307
35	0x3cfbc7c8	0.030734912
36	0x3d087b36	0.033320628
37	0xbd12f9e6	-0.035882853
38	0xbccb7c3a	-0.02483951
39	0xbc3b59e5	-0.011435007
40	0x3d8608e2	0.06544663
41	0x3d19eea5	0.037581105
42	0xbc149e39	-0.009070926
43	0xbd0b177a	-0.033957936
44	0xbd1bbd50	-0.03802234
45	0x3d1df59f	0.03856432
46	0xbd047c81	-0.0323453
47	0x3c3b6e30	0.011439845
48	0x3c66d30f	0.014088406
49	0x3d4bc148	0.049744874
50	0x3c8ec663	0.017428583
51	0xbd3728d4	-0.04471667
52	0xbca87d16	-0.020567458
53	0xbcd041b4	-0.025421955
54	0x3d0ea535	0.034825522
55	0x3c5d9512	0.013524311
56	0xbc241efc	-0.010017153
57	0xbd43703e	-0.047714464
58	0x3d221919	0.039574716
59	0x3b453b55	0.003009518
60	0xbce2d0b9	-0.027687417
61	0xb7412002	-1.1511149e-05
62	0x3d8c4027	0.068481736
63	0x3d08cf15	0.033400614
64	0x3d9bffb2	0.076171294
65	0xbcca17a0	-0.024669468
66	0x3c092f1a	0.008373046
67	0x3d518462	0.05115164
68	0xbc2d08bb	-0.010561164
69	0x3d7d3639	0.06181929
70	0x3cd8882d	0.026432121
71	0x3d19d022	0.037552007
72	0xbd4578f8	-0.048211068
73	0x3b320d4e	0.0027168575
74	0x3cb766e7	0.022387935
75	0xbd0ad766	-0.033896826
76	0x3d33e44d	0.043918896
77	0x3d8842a2	0.06653334
78	0xbce5d8e5	-0.028057525
79	0x3cbb1a45	0.022839675
80	0xbbf480ab	-0.0074616275
81	0xbcd943c7	-0.026521577
82	0xbd41a36a	-0.047274984
83	0xbd4e3583	-0.050344
84	0xbdd55da5	-0.10418252
85	0x3b0b014d	0.0021210492
86	0xbd4a5727	-0.04939952
87	0x3cf30573	0.029665684
88	0xbdb02eb4	-0.08602658
89	0xbcdef1ae	-0.027214851
90	0x3d7c9152	0.061662026
91	0x3c544c0a	0.012957582
92	0xbd0e3ba7	-0.034724858
93	0xbd4bbfcd	-0.049743462
94	0xbd82dafe	-0.06389426
95	0x3d107fbb	0.035278063
96	0xbd96003f	-0.07324266
97	0x3d1e443e	0.0386393
98	0x3ca5823e	0.020203706
99	0xbd50d6b5	-0.05098601
100	0x3d06c926	0.032906674
101	0xbd303041	-0.04301477
102	0xbd3aec1a	-0.04563532
103	0xbd1fd97d	-0.039025772
104	0xbd5dfb25	-0.05419459
105	0xbce97d6f	-0.028502194
106	0x3c53f012	0.012935655
107	0xbd52f570	-0.0515036
108	0xbca45a2b	-0.020062527
109	0xbcac7e2b	-0.021056255
110	0x3d4ab787	0.04949143
111	0x3d88289c	0.066483706
112	0xbbdb7f9b	-0.0066985614
113	0x3cdf4fc3	0.027259713
114	0x3ca095d9	0.019602703
115	0x3d4f039c	0.05054055
116	0xbd29eaa3	-0.041483533
117	0x3cec5b98	0.028852269
118	0xbd30bbf5	-0.043148
119	0xbd0fc895	-0.0351034
120	0xbc4b74d7	-0.0124179935
121	0x3d5a93a5	0.05336346
122	0x3c40637c	0.011742469
123	0xbbec576e	-0.007212571
124	0x3d17b763	0.037040126
125	0xbca7f899	-0.020504283
126	0xbcaaf712	-0.020869765
127	0xbd2ba68a	-0.04190687
128	0xbc2789ea	-0.010225752
129	0xbc8a8088	-0.016906992
130	0x3cbe617f	0.02323985
131	0xbd01b198	-0.031663507
132	0x3d8c3b18	0.06847209
133	0xbd4aaf03	-0.04948331
134	0xbbfc3ad6	-0.0076974435
135	0x3d0bf43d	0.03416847
136	0x3d51dc20	0.05123532
137	0x3d49bf96	0.049254976
138	0xbd080321	-0.03320611
139	0xbd236289	-0.039888892
140	0x3d5a4edb	0.05329786
141	0x3c3fe6c6	0.0117127355
142	0x3cecd72d	0.028911198
143	0xbc79bd88	-0.015242942
144	0xbbc95d53	-0.0061451583
145	0x3d3d73ff	0.0462532
146	0xbcbad8dd	-0.022808487
147	0xbd0a238d	-0.03372531
148	0x3da0fd04	0.07860759
149	0x3d8ea717	0.069654636
150	0x3cda150d	0.026621366
151	0x3d21e83d	0.03952812
152	0x3c2fffe3	0.0107421605
153	0x3d00010f	0.03125101
154	0xbd41c692	-0.047308512
155	0x3d03e71c	0.032202825
156	0xbd37244b	-0.044712346
157	0x3d54ebaa	0.05198256
158	0xbd30b8b7	-0.043144908
159	0xbd50dd07	-0.050992038
160	0xbb25baf9	-0.0025288446
161	0xbd1b1d31	-0.037869636
162	0x3d702125	0.05862536
163	0x3c250394	0.010071654
164	0xbd2b45b6	-0.04181453
165	0xbc773e02	-0.015090467
166	0xbd2281af	-0.039674457
167	0x3d8cb0a1	0.06869627
168	0x3d162a4e	0.03666144
169	0xbc9f833a	-0.019471753
170	0x3d5cbf46	0.05389335
171	0x3d9cea73	0.07661905
172	0x3d98d4f4	0.074624926
173	0xbc5ccfcb	-0.013477276
174	0x3be10d5c	0.0068680476
175	0xbb971b06	-0.0046113757
176	0x3d6dd1a3	0.058061253
177	0xbcf024b0	-0.029314369
178	0x3cb89d4f	0.022535948
179	0x3d4fe04e	0.050751023
180	0x3c0d591c	0.008627202
181	0x3bb7a5e8	0.0056044944
182	0x3c59dd3f	0.013297378
183	0x3d131fbe	0.035918944
184	0xbd9467f8	-0.07246393
185	0xbc834aa6	-0.016026806
186	0x3c73b08a	0.014873633
187	0xbb966821	-0.00459005
188	0xbd659902	-0.056054123
189	0x3ce83815	0.028347054
190	0xbc1a3dd6	-0.009414157
191	0x3d6b294e	0.057412438
192	0x3c357347	0.011074848
193	0x3d214734	0.039374545
194	0xbc7755e3	-0.015096161
195	0x3d12e566	0.035863303
196	0xbcc6fc78	-0.024290308
197	0xbd15de95	-0.036589224
198	0x3cbfcd8d	0.023413444
199	0x3d081020	0.033218503
200	0xbd70c635	-0.058782775
201	0xba3fa62c	-0.00073108333
202	0x3cd80b5e	0.026372608
203	0x3c9d500d	0.01920321
204	0xbd45c6db	-0.048285346
205	0xbcde360b	-0.02712538
206	0x3c0a5940	0.00844413
207	0x3d23c64a	0.039984025
208	0xbbeb2844	-0.007176431
209	0x3d1cf1ea	0.038316645
210	0xbbf7e556	-0.007565181
211	0xbcbad47b	-0.022806397
212	0xbcd367df	-0.025806366
213	0x3c76b1c7	0.015057034
214	0xbd70f479	-0.058826897
215	0xbcc9d691	-0.024638446
216	0x3d62f01e	0.055404775
217	0xbce0df5b	-0.027450254
218	0x3d1869c0	0.037210226
219	0x3c18dcd1	0.0093299905
220	0xbcb5b38a	-0.022180337
221	0x3d1c3015	0.038131792
222	0x3d3f04f1	0.046635572
223	0xbd4ef690	-0.05052811
224	0xbcae9779	-0.021312462
225	0xbc6fffb7	-0.0146483695
226	0x3c7f9fae	0.015602035
227	0xbd65ad1d	-0.056073297
228	0x3d30731d	0.04307853
229	0x3be63310	0.00702513
230	0x3d0bbb70	0.0341143
231	0xbd00c686	-0.031439327
232	0xbd80e1a4	-0.062930375
233	0xbd863b2b	-0.06554254
234	0x3d983f75	0.074339785
235	0xbc15fc76	-0.00915443
236	0x39bab92c	0.00035614648
237	0x3d025afd	0.031825054
238	0x3cf194cd	0.029489899
239	0x3cdc9717	0.026927514
240	0x3a18b0d0	0.0005824687
241	0x3cba196c	0.0227172
242	0x3c55e5f3	0.013055312
243	0xbc916c0c	-0.017751716
244	0xbcd39401	-0.02582741
245	0xbd231013	-0.03981025
246	0xbd22ff0d	-0.039794017
247	0xbd2d4a6e	-0.04230731
248	0x3b4399d9	0.002984634
249	0xbd8215f3	-0.06351843
250	0xbc0013a1	-0.00781718
251	0x3cc5c26b	0.024140557
252	0x3b9af405	0.0047287964
253	0x3ccc2373	0.024919247
254	0x3c1341c9	0.008987852
255	0x3d334cbe	0.04377436

features.5.bias f4 [64]
0	0xbd3d4769	-0.04621068
1	0xbd40ffb1	-0.047118846
2	0x3d5ea974	0.05436082
3	0x3d13cb23	0.0360824
4	0x3d67f55e	0.056630485
5	0xbd3ace5c	-0.045606956
6	0x391392e5	0.00014073735
7	0x3c3788d0	0.011202052
8	0x3d5c9994	0.0538574
9	0xbc663ef0	-0.014053091
10	0x3cac6f8f	0.021049289
11	0xbd0613d5	-0.032733757
12	0xbd3403b6	-0.04394885
13	0xbc896afa	-0.016774643
14	0x3d0404cf	0.03223115
15	0x3d26880f	0.0406571
16	0x3bc532dd	0.0060180263
17	0x3d9039bb	0.07042261
18	0xbcdcfdeb	-0.026976546
19	0x3d5cf0cf	0.05394059
20	0x3d346987	0.04404595
21	0xbd24176f	-0.04006141
22	0x3c403802	0.011732103
23	0xbceb242b	-0.02870377
24	0x3ce19cd6	0.027540606
25	0x3d6a8123	0.05725206
26	0x3cfe2bcd	0.031026745
27	0x3d398046	0.045288347
28	0xb8b5c5c3	-8.6675886e-05
29	0x3d7003e9	0.05859748
30	0x3d2bfaa1	0.041987065
31	0x3cd9a935	0.026569942
32	0x3cb715ee	0.022349324
33	0xbc7c4d7f	-0.015399336
34	0xbcc3613b	-0.023850074
35	0xbc1c3a16	-0.009535333
36	0xbceffca7	-0.029295279
37	0xb9a9864a	-0.00032334245
38	0x3d0d555b	0.03450523
39	0x3d13f715	0.036124308
40	0x3cb80914	0.022465266
41	0xbca07077	-0.019584877
42	0x3c047e3d	0.008086738
43	0xbb8fdbbb	-0.0043902076
44	0x3d18ab5d	0.0372728
45	0x3d1b40e8	0.037903696
46	0xbccff731	-0.025386425
47	0x3d604b31	0.054759208
48	0x3b80aa70	0.0039265677
49	0xbcaa48c2	-0.020786647
50	0x3d4f1f80	0.05056715
51	0xbc9b46d0	-0.018954664
52	0x3cf9f1dd	0.030510837
53	0x3d7c4e2c	0.061597988
54	0xbce555f3	-0.027995085
55	0x3b977aee	0.0046228087
56	0xbc1344fd	-0.008988616
57	0xaa08d5a5	-1.215335e-13
58	0xbd480168	-0.048829466
59	0xbc272687	-0.010202057
60	0x3d071d3c	0.032986864
61	0xbc9cc4f7	-0.019136889
62	0xbcd8cf84	-0.026466139
63	0xba8175bf	-0.000987701

features.7.weight f4 [64, 64, 3, 3]
0	0xbd15491d	-0.03644668
1	0xbd1be77d	-0.03806256
2	0xbd55f3de	-0.052234523
3	0xbca251df	-0.01981443
4	0xbcfc3569	-0.030787187
5	0xbd216d9a	-0.039411165
6	0xbcf7b8a3	-0.030239409
7	0x3b3b552f	0.002858471
8	0x3c9552d3	0.01822797
9	0x3d2bbbcb	0.04192714
10	0x3ba52162	0.00503938
11	0x3d51f05a	0.051254608
12	0x3d0fdc9b	0.035122495
13	0x3baa339c	0.0051941406
14	0xb98d5e62	-0.00026963936
15	0xbc016c3c	-0.00789934
16	0x3cf32f0b	0.029685518
17	0x3d178f41	0.037001852
18	0xbb308b3e	-0.0026938464
19	0x3c5f8b5b	0.013644065
20	0xbcc916f3	-0.024547076
21	0xbc20fe0b	-0.009826194
22	0x3c572290	0.013130799
23	0x3d993693	0.07481112
24	0xbc92d0f7	-0.017921908
25	0x3d6b8661	0.0575012
26	0x3d600116	0.054688536
27	0x3d420cf7	0.047375645
28	0x3d29dd0b	0.04147057
29	0x3d5931ba	0.05302594
30	0x3cb9f50c	0.022699855
31	0xbcad8ff6	-0.02118681
32	0x3d97c115	0.07409874
33	0x3ba05c5f	0.004893824
34	0xbc009f8d	-0.00785054
35	0x3cbfe64a	0.02342524
36	0xbd3fca09	-0.046823535
37	0xbd0d1c06	-0.034450553
38	0x3ca8a125	0.020584652
39	0x3d421446	0.047382616
40	0xb8c58916	-9.419226e-05
41	0x3bef7ed3	0.00730882
42	0x3d446d66	0.047955893
43	0xba8a7aba	-0.001056514
44	0xbc08c6e8	-0.008348204
45	0xbccd5ae7	-0.02506776
46	0xbcbccd12	-0.023047004
47	0xbcfb8a1b	-0.030705502
48	0xbbbf85f7	-0.0058448273
49	0x3d2e64ca	0.04257659
50	0x3ccf1530	0.025278658
51	0xbca34029	-0.019928055
52	0x3c6dec2c	0.01452164
53	0x3d2b7072	0.041855283
54	0x3c9f38c1	0.019436242
55	0xbc1805ac	-0.009278696
56	0xbd3bd625	-0.04585852
57	0xbcb4e061	-0.022079648
58	0xbc217357	-0.009854159
59	0xbc155c45	-0.009116237
60	0x3b7d2b1f	0.0038630439
61	0x3b1afdd7	0.0023649835
62	0xbc87c8b2	-0.016575191
63	0xbd7beae8	-0.06150332
64	0xbd1aa381	-0.037753586
65	0xbc103d17	-0.008803627
66	0xbbd50e9a	-0.006501985
67	0xbbadd226	-0.0053045927
68	0xbd75c407	-0.0600014
69	0x3b8695f6	0.004107232
70	0x3d20fa0c	0.039300963
71	0xbd23d220	-0.039995313
72	0x3ba6e08e	0.005092687
73	0xbd092a21	-0.033487443
74	0xbca934bc	-0.020655029
75	0x399f42fd	0.00030376753
76	0xbcc94279	-0.02456783
77	0x3b8f59a8	0.0043747015
78	0xbcc72a42	-0.024312142
79	0x3ca83a7b	0.020535698
80	0xbb0d7578	-0.002158491
81	0xbca2c7c5	-0.019870648
82	0xbc3bb7f6	-0.011457434
83	0xbc2e6efc	-0.010646578
84	0x3cbfadde	0.023398336
85	0x3d24b28c	0.040209338
86	0x3cc52741	0.02406657
87	0x3d0e4699	0.034735296
88	0x3d4aa6cb	0.049475472
89	0x3cd9ca36	0.02658568
90	0x3b41a285	0.0029546332
91	0xbc3b24ab	-0.011422317
92	0x3c04abd5	0.008097609
93	0x3d5a5584	0.05330421
94	0xbb486132	-0.003057551
95	0xbd44acd6	-0.04801639
96	0x3c98b1c9	0.018639462
97	0x3d449647	0.04799488
98	0x3c7a685b	0.015283669
99	0xbd313153	-0.04325993
100	0x3c7ab62f	0.015302225
101	0xbd5237cc	-0.051322743
102	0x3c06bac2	0.0082232375
103	0xbc8a08e5	-0.016849944
104	0xbd34e2eb	-0.04416172
105	0xbd43d583	-0.047811043
106	0xbd3914f9	-0.045186017
107	0xba822355	-0.0009928743
108	0xb9a80e09	-0.00032053914
109	0xba068a77	-0.0005132327
110	0xb7dad719	-2.6087788e-05
111	0x3aafe36e	0.001341922
112	0xb9eca416	-0.0004513568
113	0xbb176e5f	-0.0023106558
114	0x3b17637b	0.0023100066
115	0xba7fe676	-0.00097618194
116	0x3a847840	0.0010106638
117	0x3bf03791	0.007330843
118	0x3d385771	0.045005266
119	0x3cae21d9	0.021256374
120	0x3cbe3ddd	0.023222858
121	0x3c5afe2c	0.013366263
122	0xbbf3bd91	-0.0074383696
123	0xbc76dfcf	-0.015068009
124	0x3d14f226	0.036363743
125	0x3cd21bf3	0.025648093
126	0xbb6fa286	-0.0036565377
127	0xbc5daf0b	-0.013530503
128	0x3cfbd3ac	0.030740581
129	0x3c6ec483	0.014573219
130	0xbab4d8cf	-0.0013797524
131	0x3d290449	0.041263852
132	0x3c3cc60a	0.011521826
133	0x3cf25933	0.02958355
134	0x3c524a66	0.012835121
135	0xbc55498d	-0.013018024
136	0x3ce761ac	0.028244816
137	0xbd0ba38e	-0.034091525
138	0x3d1dbbf7	0.038509335
139	0x3ca4052d	0.020022
140	0x39e10104	0.000429161
141	0x3c91a7ab	0.017780146
142	0x3c5db57d	0.01353204
143	0x3d39e00e	0.04537969
144	0xbce8a1f0	-0.02839753
145	0xbbd71b53	-0.0065645366
146	0x3bc50589	0.0060126227
147	0x3cba09e6	0.022709798
148	0x3d61055b	0.054936748
149	0xbb5c4bf3	-0.0033614605
150	0xbc876998	-0.016529843
151	0xba33c6b0	-0.0006857915
152	0x3cc83ced	0.024443114
153	0xbd343a3b	-0.044000845
154	0xbd15932f	-0.03651732
155	0xbd316c12	-0.043315955
156	0xbc4d50ec	-0.0125315
157	0x3c6463bc	0.013939794
158	0xbd0b4710	-0.034003317
159	0x3d2d2dfa	0.042280175
160	0x3bee9968	0.007281471
161	0x3ccd171f	0.025035439
162	0xbc8bee00	-0.01708126
163	0x3d0022f4	0.031283334
164	0x3d13ce03	0.03608514
165	0xbd1e7e6f	-0.038694795
166	0x3c04bd02	0.008101704
167	0x3cc9079b	0.02453976
168	0x3d4443a4	0.04791607
169	0x3cdf13ea	0.027231175
170	0x3d5454c2	0.051838644
171	0xbbf5ec9c	-0.0075050127
172	0xbcf2a63b	-0.02962028
173	0xbbb2eddb	-0.0054604835
174	0xbc9d8442	-0.019228105
175	0xbc84a825	-0.016193459
176	0xbb52eb31	-0.0032183642
177	0xbc84302c	-0.016136251
178	0x3c2d84a9	0.010590711
179	0xbce91a53	-0.028454935
180	0xbc896c68	-0.016775325
181	0xbd01a61a	-0.031652547
182	0xb8cd5960	-9.791809e-05
183	0xbcef4b44	-0.029210694
184	0xbaae4be1	-0.001329776
185	0xbd500952	-0.05079014
186	0x3c864651	0.016390951
187	0xbcebf51f	-0.028803406
188	0xbca46ec9	-0.020072358
189	0x3d4e0ba5	0.050304074
190	0xbc53f9dd	-0.01293799
191	0xbd099499	-0.03358898
192	0xbb655b40	-0.0034997016
193	0x3d063984	0.032769695
194	0xbcf143c4	-0.029451258
195	0xbc67d43f	-0.0141497245
196	0x3d649f81	0.055816177
197	0x3be0b31a	0.006857288
198	0x3d1448db	0.036202293
199	0x3d158952	0.036507912
200	0xbb427d13	-0.00296766
201	0x3d0a1295	0.033709127
202	0x3c5b8f88	0.01340092
203	0x3d88e32e	0.06683956
204	0xbd0c5782	-0.03426314
205	0xbca3ce19	-0.019995736
206	0x3be0ca14	0.006860027
207	0xbcba7435	-0.02276049
208	0x3d18b177	0.03727862
209	0xbd0729e6	-0.03299894
210	0x3cf6300e	0.030052211
211	0x3d2c15dc	0.042013034
212	0x3c288c9e	0.010287432
213	0xbcc79f12	-0.024367843
214	0x3c38599f	0.011251836
215	0x3ca8215b	0.020523718
216	0x3cb05a30	0.02152738
217	0xbd0bf8a4	-0.03417267
218	0xbd02f69d	-0.03197347
219	0x3c4f5763	0.012655112
220	0x3ccc975c	0.024974518
221	0x3c14ecfc	0.009089705
222	0x3c326a15	0.01088955
223	0x3d3b1d16	0.045682035
224	0x3b140ceb	0.0022590708
225	0xbd10a735	-0.03531571
226	0xbd11f759	-0.03563628
227	0xbd106a8d	-0.035257865
228	0xbc9a3441	-0.018823745
229	0x3b9a66b2	0.0047119493
230	0xbd02b59e	-0.031911485
231	0x3ce38ee6	0.0277781
232	0x3d01ef3f	0.031722303
233	0x3bac1a06	0.0052521257
234	0xbd223bc8	-0.039607793
235	0xbd7544d8	-0.059880108
236	0xbd364e55	-0.044508297
237	0x3d692b43	0.056926023
238	0x3ce3b0a6	0.027794193
239	0xbd5624b0	-0.05228108
240	0x3c398dfb	0.011325355
241	0xbc36a4f7	-0.011147729
242	0xbd3daf2d	-0.04630964
243	0xbb999ad2	-0.0046876455
244	0xbd4af8cb	-0.049553674
245	0xbb9f42fc	-0.00486028
246	0x3b922c92	0.0044608796
247	0x3c53976f	0.012914523
248	0xbd5afe1c	-0.053464994
249	0xbc704356	-0.014664492
250	0xbcdb06e5	-0.026736686
251	0x3c5b2ff8	0.013378136
252	0xb9c8468e	-0.0003819954
253	0xb9982e83	-0.00029026353
254	0xba11529b	-0.000554362
255	0xb846aa22	-4.7365327e-05

features.7.bias f4 [64]
0	0x3acc0bb6	0.0015567455
1	0x3c6f7c92	0.014617102
2	0xbc64bca7	-0.013960994
3	0x3d147835	0.03624745
4	0xbc8715fe	-0.016489979
5	0x3b88c576	0.00417393
6	0xbc2af4dd	-0.0104343565
7	0xbd4336c1	-0.04765964
8	0xbcc5a1d2	-0.024125014
9	0x3d60654f	0.054784115
10	0x3c4ae9d9	0.012384855
11	0xbb6636e7	-0.003512794
12	0x3c4fb6cb	0.012677859
13	0xbd1c5d27	-0.038174774
14	0xafe532a5	-4.1690842e-10
15	0x3d434a49	0.047678266
16	0xbc943d0a	-0.018095512
17	0xbd20cba6	-0.039256714
18	0xb81da3dc	-3.7584323e-05
19	0x3d1c67ef	0.038185056
20	0xb77ab081	-1.4942257e-05
21	0xbbd8c86d	-0.0066156895
22	0xad95bb44	-1.7022501e-11
23	0x3aa1279f	0.0012295133
24	0xbc54a2b6	-0.012978246
25	0xbc05e26c	-0.008171659
26	0x3c4a6478	0.012353055
27	0xbd45d4e1	-0.04829872
28	0x3d4c6985	0.04990532
29	0x3bb51452	0.005526104
30	0x3b90bd2f	0.0044170837
31	0x3c2ff819	0.010740303
32	0x3cc96019	0.024581956
33	0x3bdf35bc	0.0068118256
34	0xbba76d66	-0.005109477
35	0xbc0ca653	-0.008584577
36	0xb7c18dc3	-2.3073406e-05
37	0xb0300d03	-6.404692e-10
38	0xbd1735cb	-0.036916535
39	0x388e6f0d	6.7917725e-05
40	0xbd29b40e	-0.04143148
41	0x3ce082d9	0.027406143
42	0xb963c48f	-0.00021721631
43	0xbc235e09	-0.00997115
44	0xb6627b70	-3.3748474e-06
45	0xbc2a6952	-0.010401087
46	0x3d5b428b	0.053530257
47	0x95a1cf64	-6.5354587e-26
48	0xb88ece89	-6.809558e-05
49	0x3d4143e5	0.04718389
50	0xbd4387e4	-0.047737017
51	0x39edac6a	0.0004533262
52	0x3ccd9e72	0.025099967
53	0xbc82c700	-0.015964031
54	0xbc6fed1b	-0.014643933
55	0x3616d701	2.247689e-06
56	0xbc48cd8b	-0.0122560365
57	0xbd08f5f3	-0.03343768
58	0x3ba8c425	0.0051503354
59	0xbd06c736	-0.032904826
60	0x3d1ddb7f	0.038539406
61	0x3c4bbfbe	0.012435852
62	0x89332b04	-2.1566567e-33
63	0x3a54bbc3	0.0008115137

features.10.weight f4 [64, 64, 1, 1]
0	0xbdd2db9c	-0.102957934
1	0x3ce77595	0.02825431
2	0xbde270b3	-0.11056652
3	0x3c0ae674	0.008477796
4	0xbd30b7b9	-0.04314396
5	0x3ddc014f	0.10742437
6	0xbd833fc0	-0.06408644
7	0xbc2d37e2	-0.0105724055
8	0x3dc854ae	0.09781776
9	0xbd974d9d	-0.073878504
10	0x3c5b4d35	0.013385107
11	0xbb14282d	-0.0022606954
12	0xbcd559b3	-0.026043748
13	0x3d59e45b	0.053196292
14	0x800557f3	-4.90728e-40
15	0x3d85ac16	0.065269634
16	0x3d967640	0.07346773
17	0xbc914cb1	-0.017736765
18	0xb917e2d6	-0.00014484985
19	0x3bb78c4d	0.005601442
20	0x3969e86c	0.00022307195
21	0xbd970130	-0.073732734
22	0xb700d390	-7.678653e-06
23	0x3ca50c88	0.020147577
24	0x3dca6207	0.098819785
25	0x3d0a4af2	0.03376288
26	0x3ba5e45b	0.0050626225
27	0x3bef6f2f	0.0073069553
28	0xbd3048cd	-0.04303818
29	0x3dae34d0	0.08506167
30	0xbb6bdde4	-0.0035990411
31	0x3c965ba2	0.01835424
32	0xbc8f6a62	-0.017506782
33	0xbd6b8653	-0.05750115
34	0xba83b7da	-0.0010049299
35	0x3dd6b4d4	0.10483709
36	0x338499f7	6.174735e-08
37	0x3b414f43	0.0029496707
38	0xbaf05b90	-0.0018337835
39	0xb86ea8d6	-5.6900863e-05
40	0xbba2df0e	-0.004970438
41	0x3ca10d6b	0.019659718
42	0xbaee3386	-0.0018173314
43	0xbb143a56	-0.0022617779
44	0xb3625223	-5.269443e-08
45	0x3cc577fb	0.024105063
46	0xbd190b7d	-0.03736447
47	0x00055772	4.90547e-40
48	0x39ef7dcc	0.00045679358
49	0x3d63f720	0.0556556
50	0x3db18bab	0.08669218
51	0x3d9321ec	0.071842045
52	0x3991c7a7	0.00027805308
53	0xbc9464d1	-0.01811448
54	0xba87f9de	-0.0010374149
55	0x37b8daab	2.2036334e-05
56	0x3b99dbe4	0.0046954025
57	0xbd08c9d6	-0.03339561
58	0x3d1825f6	0.037145577
59	0xbd4165cc	-0.04721622
60	0xbd286400	-0.041110992
61	0xbd967682	-0.07346822
62	0x00056ca3	4.98149e-40
63	0xbd02f1bf	-0.03196883
64	0x3d9c668c	0.07636747
65	0x3d4faa16	0.050699316
66	0x3da3cbff	0.079978935
67	0x3d8788ac	0.06617865
68	0xbd616f81	-0.05503798
69	0xbd8253f9	-0.06363673
70	0xbd7afc23	-0.061275613
71	0xbd990366	-0.07471351
72	0xbdcc741f	-0.09983086
73	0xbcf8026a	-0.030274589
74	0xb9417bb1	-0.00018451993
75	0xba6c1ee3	-0.0009007288
76	0xbd9e3e28	-0.07726699
77	0x3c39d3a8	0.011341967
78	0x8005578a	-4.9058e-40
79	0x3d8ba445	0.06818441
80	0x3b793e18	0.0038031396
81	0xbd1f8e88	-0.038954288
82	0x39817bee	0.00024697132
83	0xbdb7ede8	-0.08980924
84	0x37f037ae	2.8636157e-05
85	0x3d742a38	0.059610575
86	0x8574b5a1	-1.1506185e-35
87	0xbd9f1d6f	-0.07769286
88	0x3d559ea0	0.05215323
89	0x3d1baecd	0.0380085
90	0x3a019d20	0.0004944373
91	0xbdb689bb	-0.08912989
92	0xbc646433	-0.013939905
93	0xbd840c15	-0.06447617
94	0x3b23d1c5	0.0024996859
95	0x3d9c99e6	0.07646541
96	0x3db8606d	0.09002767
97	0xbda22733	-0.07917633
98	0x3a14e499	0.00056798157
99	0x3dddec20	0.10836053
100	0xa3649e31	-1.2393403e-17
101	0x38a12190	7.68333e-05
102	0x38a7dfc9	8.004864e-05
103	0x390db170	0.00013512908
104	0xb51d8083	-5.8674067e-07
105	0x9c90562a	-9.551394e-22
106	0x3aef5993	0.0018260948
107	0xbb95f84b	-0.004576718
108	0x37e0f776	2.6818114e-05
109	0x3d6cdcef	0.057827886
110	0x3ce55562	0.027994815
111	0x000559fe	4.9146e-40
112	0x397f8da4	0.0002437146
113	0xbdc9d2e9	-0.09854681
114	0x3e007631	0.12545086
115	0x3cfced1d	0.030874783
116	0xbcecc4ca	-0.02890243
117	0x3dea49a2	0.114398256
118	0xbd57f002	-0.052719124
119	0x39015c08	0.00012336683
120	0xba1b56a2	-0.000592569
121	0xbda65ebd	-0.08123539
122	0x3dd5d3d5	0.104407944
123	0x3df3f07a	0.11911102
124	0x3e09c290	0.13453126
125	0x3defea5c	0.117146224
126	0x800558cd	-4.91033e-40
127	0x3d177a50	0.03698188
128	0x3d0c13fb	0.034198742
129	0xb8536646	-5.040157e-05
130	0xbc70f733	-0.014707374
131	0xbc8e4f22	-0.017371718
132	0x3b6a9db6	0.003579957
133	0xbb9787df	-0.0046243514
134	0xb15d9dcf	-3.2249436e-09
135	0xbcb4cf2d	-0.022071445
136	0x3c73ee85	0.01488841
137	0xbbab9d06	-0.0052372245
138	0x3d09000e	0.033447318
139	0x39289251	0.00016076236
140	0xbaee4625	-0.0018178864
141	0xbc790676	-0.015199294
142	0x80055f08	-4.93268e-40
143	0x3d768504	0.060185447
144	0x3c19c384	0.009384993
145	0xba702c18	-0.0009161844
146	0x80055db2	-4.92789e-40
147	0x3ce8f799	0.028438376
148	0x00055749	4.9049e-40
149	0xbd670ced	-0.05640881
150	0x80055da7	-4.92774e-40
151	0x3bb3e4fa	0.0054899426
152	0x3ce955c5	0.02848328
153	0xbbd9b841	-0.006644279
154	0x39219a94	0.00015411741
155	0x3c02db77	0.007986895
156	0xbbe6fcbc	-0.0070491713
157	0xbc0bc884	-0.008531693
158	0x3a5388e7	0.0008069411
159	0xbce9e546	-0.028551709
160	0x3d5d862f	0.054083046
161	0x3d6237fd	0.055229176
162	0x39aac071	0.00032568307
163	0xbb84b8b8	-0.0040503405
164	0x00055bf2	4.92161e-40
165	0x97f74c9a	-1.5981338e-24
166	0x3b870ceb	0.004121413
167	0x00055962	4.91242e-40
168	0x800558dd	-4.91056e-40
169	0x3d96c8af	0.07362496
170	0x3992c170	0.00027991412
171	0x3a981367	0.0011602462
172	0x32a7ab0a	1.9519138e-08
173	0xbc59baa4	-0.0132891275
174	0xbc975969	-0.018475251
175	0x000563de	4.95003e-40
176	0x862cf0b6	-3.252645e-35
177	0xbd5cdd40	-0.053921938
178	0xbcdae464	-0.026720233
179	0xbccde4d6	-0.025133532
180	0xbcc651ca	-0.024208922
181	0xbbabc93a	-0.005242494
182	0xbcb3cca6	-0.02194817
183	0xb222b330	-9.470384e-09
184	0xbcb85d56	-0.022505444
185	0xbcce5ab1	-0.02518973
186	0xbd466332	-0.048434444
187	0xbd18414f	-0.037171658
188	0x3d5bf27c	0.053698048
189	0xbce9f0da	-0.02855723
190	0x00055974	4.91267e-40
191	0xbd13e2bf	-0.036104914
192	0x3d4ea313	0.05044849
193	0xbcff82fa	-0.031190384
194	0xbc2f1ae6	-0.010687565
195	0xbcb3be14	-0.021941222
196	0x3c27fd19	0.010253214
197	0xbd574fd4	-0.052566364
198	0x3c39dc4d	0.011344028
199	0xbd0fb9c5	-0.035089273
200	0x3cf3c969	0.029759126
201	0x3d217ebe	0.03942751
202	0xbc6869e8	-0.014185406
203	0xba8511c0	-0.0010152385
204	0x3d843676	0.064557
205	0xbc6f2f18	-0.01459863
206	0x00055d51	4.92653e-40
207	0x3b29836a	0.0025865682
208	0xbcef9744	-0.029246934
209	0x3c4c7199	0.012478256
210	0xb8f1c17b	-0.00011527814
211	0xbbea0999	-0.0071422574
212	0x37e179e8	2.6878857e-05
213	0xbbaebc0b	-0.005332475
214	0xa44608c5	-4.2941834e-17
215	0xbbf92608	-0.0076034106
216	0x3ca8e913	0.020618951
217	0xbd60e27b	-0.05490349
218	0x391d76f5	0.00015017002
219	0x3d3946f6	0.04523369
220	0xbcf730bf	-0.030174611
221	0xbc6ee9cf	-0.0145821115
222	0xba855946	-0.00101737
223	0xbd79fe5d	-0.061033595
224	0xbcb82be2	-0.022481862
225	0x3c867002	0.016410831
226	0x3aa1cdd1	0.0012344663
227	0xbcd401dd	-0.025879795
228	0x00055ac3	4.91737e-40
229	0x9d1b19ff	-2.0527519e-21
230	0x3d89af30	0.067228675
231	0xb8db4552	-0.00010455646
232	0xb05d6032	-8.0536033e-10
233	0x3c5dd13f	0.013538658
234	0x3aa445b1	0.0012532977
235	0xbb9d91cc	-0.00480864
236	0xa9bca9ac	-8.3783105e-14
237	0x3b0e37d8	0.0021700766
238	0xbaa454d6	-0.001253749
239	0x8e346228	-2.2233973e-30
240	0xb934c8a1	-0.00017240878
241	0xbc9a62f6	-0.018846016
242	0xbd65d37f	-0.0561099
243	0x3b5dca29	0.003384242
244	0xbc081b74	-0.008307327
245	0x3ad4c28d	0.0016232297
246	0x3ce8a1d3	0.028397476
247	0x389753b6	7.2158335e-05
248	0xbcb7cc33	-0.022436237
249	0x3c9b33ac	0.018945538
250	0x3bd9cd44	0.006646784
251	0xbbd2ce99	-0.0064333198
252	0xbc2ec9ac	-0.0106681995
253	0x3bd8fa10	0.0066216066
254	0x00055ae5	4.91784e-40
255	0x3d85a0da	0.065248206

features.10.bias f4 [64]
0	0xbdd98e69	-0.10622866
1	0xbd83cb15	-0.06435219
2	0xbd0bb967	-0.03411236
3	0xbd85f2fc	-0.06540486
4	0xbb262c27	-0.0025355907
5	0x8a0a94c4	-6.672438e-33
6	0x3c88ebf8	0.016714081
7	0x3de22295	0.11041752
8	0x3dd21fca	0.102599695
9	0x3d7535ea	0.05986587
10	0xbcc4a483	-0.024004227
11	0x00055744	4.90482e-40
12	0x3c8e2fc9	0.01735677
13	0x3dcbf5b5	0.09958974
14	0xbc6e451e	-0.014542846
15	0xbd5d615d	-0.05404793
16	0x3bdccbbb	0.0067381538
17	0x3d26ce01	0.040723804
18	0x3d1db823	0.038505685
19	0x3d1184b9	0.035526965
20	0x3de52cb1	0.11190165
21	0x3dcfe55b	0.10151168
22	0xbd0a16a9	-0.033713017
23	0x3dbaa804	0.09114078
24	0xbc97d4f6	-0.018534165
25	0xbd730b09	-0.059336696
26	0xbd6227a3	-0.05521358
27	0x00055ae1	4.91779e-40
28	0x3df33cb0	0.118768096
29	0x3cbc7f27	0.02300985
30	0x3d430e27	0.04762092
31	0x3d0009ad	0.031259228
32	0x8060c2a8	-8.886037e-39
33	0x3d06d21c	0.03291522
34	0x3ccc6558	0.024950668
35	0x8015c4e4	-1.999176e-39
36	0x3ca9c84b	0.02072539
37	0x3ceaa90f	0.028645067
38	0xbde0b879	-0.10972685
39	0x3c7d7882	0.015470626
40	0x3def4556	0.11683147
41	0x3c5f747b	0.013638611
42	0xbca9a176	-0.020706873
43	0xbd9af86f	-0.07566916
44	0xbd86e56b	-0.06586727
45	0x3d2912a1	0.04127753
46	0xbc25dce0	-0.0101234615
47	0xbdb91f92	-0.09039225
48	0x3d25107f	0.040298935
49	0xbdcd7d54	-0.1003367
50	0x3da081c6	0.07837252
51	0x3dc0b4a1	0.09409452
52	0xbd420c8c	-0.047375247
53	0x3d64b829	0.05583969
54	0xbd380188	-0.044923335
55	0x3d5437fc	0.051811203
56	0x3d519986	0.051171802
57	0xbd02cbc2	-0.0319326
58	0x3dbb0d63	0.09133413
59	0xbdc0614b	-0.09393557
60	0x3db8e072	0.090271845
61	0x3d032810	0.03202063
62	0xb7514993	-1.2474501e-05
63	0x3d1ccf4b	0.038283627

classifier.0.weight f4 [3, 64]
0	0xbdd4d887	-0.10392862
1	0xbdf0d8eb	-0.11760124
2	0x3c073675	0.00825273
3	0x3d5a9a31	0.053369705
4	0x3a8274b3	0.0009952992
5	0x0e7f89fb	3.1497612e-30
6	0x3db64ef9	0.089017816
7	0x3dd4c552	0.10389198
8	0x3de399fa	0.11113353
9	0xbde15b0e	-0.110036954
10	0x3dfc71a7	0.12326365
11	0x2ccd7cba	5.840298e-12
12	0x3e063656	0.13106665
13	0x3e0c1f9a	0.1368393
14	0x3cfd96db	0.030955723
15	0xbe0995ed	-0.13436098
16	0xbcffe01c	-0.031234793
17	0xbdbe9754	-0.09306207
18	0xbd435ab5	-0.047693927
19	0xbd063b31	-0.032771293
20	0xbd960884	-0.07325843
21	0xbcb333de	-0.021875318
22	0x3d862669	0.06550295
23	0xbd0ab7f3	-0.033866834
24	0xbc80288f	-0.01564434
25	0x3ddd44ac	0.10804114
26	0x3df5da03	0.12004473
27	0x9bdec24e	-3.6852386e-22
28	0xbad1cce6	-0.0016006499
29	0xbc94834d	-0.018129015
30	0xbd7775e8	-0.06041518
31	0x3c4617d6	0.012090644
32	0x81b2f4d9	-6.573821e-38
33	0x3df3c0bb	0.11901995
34	0xbdb06315	-0.086126484
35	0x04108f13	1.6992815e-36
36	0x3dec6124	0.115419656
37	0x3d8bb03d	0.06820724
38	0x3d5c9142	0.053849466
39	0xbdd806a1	-0.10548139
40	0x3e235a8f	0.15952514
41	0x3df0f262	0.11764981
42	0xbdda7ab6	-0.106679365
43	0x3dd646e5	0.10462741
44	0x3dcb9f80	0.099425316
45	0x3d9da5fd	0.076976754
46	0xbc947dc9	-0.018126385
47	0x3d3a2374	0.045443967
48	0x3df883ec	0.12134537
49	0x3cf06b4c	0.029348038
50	0x3d5cda0b	0.05391888
51	0xbdc8535e	-0.09781526
52	0xbceb727e	-0.028741118
53	0xbd68d95d	-0.05684792
54	0xbd020c8d	-0.03175025
55	0x3d9fc8c8	0.07801968
56	0xbca1c567	-0.01974745
57	0xbdca296b	-0.09871181
58	0x3de761d2	0.112979546
59	0x3d8a7d94	0.067622334
60	0xbd84c8ef	-0.064836375
61	0xbc969152	-0.018379841
62	0xbc5f2275	-0.013619055
63	0x3e1b4fd9	0.15167178
64	0xbd1bb55b	-0.03801475
65	0x3c8245d9	0.015902447
66	0xbcacacb6	-0.021078449
67	0x3d13ec02	0.036113746
68	0xba16473b	-0.000573266
69	0x8e7f8a49	-3.1497759e-30
70	0xbd7e92e9	-0.062151823
71	0xbdabafb0	-0.08383119
72	0xbce36a21	-0.027760567
73	0x3c936e40	0.017996907
74	0x3dff0137	0.124514036
75	0xaccdbf00	-5.8476557e-12
76	0x3d280da8	0.04102865
77	0xbd672e6b	-0.056440752
78	0x3c8c02b3	0.01709113
79	0xbd49da6a	-0.04928056
80	0x3dc27fce	0.09497033
81	0xbe0053cd	-0.12531967
82	0x3d6ad3d0	0.057330906
83	0x3d2192dd	0.0394467
84	0xbd7f3666	-0.062307738
85	0xbd197ee8	-0.037474543
86	0x3dc04c31	0.09389532
87	0x3ce2c776	0.027683001
88	0xbd9a8ff4	-0.07546988
89	0x3db1e252	0.08685745
90	0x3dc3e310	0.09564793
91	0x1bdecfdd	3.6861148e-22
92	0x3df13354	0.11777368
93	0x3d3cfdfd	0.04614066
94	0xbc574f1e	-0.013141422
95	0x3dca04c3	0.098641895
96	0x01b2f4d8	6.5738207e-38
97	0x3df86eda	0.12130518
98	0x3d9dd4c9	0.07706601
99	0x84108f18	-1.6992824e-36
100	0xbd51389b	-0.051079374
101	0x3da8a5df	0.082347624
102	0xbce0df35	-0.027450183
103	0x3e078d53	0.13237505
104	0xbddd936b	-0.10819133
105	0x3d8cca30	0.06874502
106	0x3d92d7d5	0.07170073
107	0x3dddc7bc	0.10829112
108	0x3c9e43be	0.019319411
109	0xbd51e29f	-0.051241513
110	0xbde94735	-0.11390535
111	0x3df3b857	0.119003944
112	0x3df2a214	0.1184732
113	0xbd75e11d	-0.060029138
114	0xbd6e5add	-0.058192123
115	0x3dd0449a	0.10169335
116	0xbd81e1c9	-0.06341893
117	0x3d062c27	0.03275695
118	0xbcfe97ff	-0.031078337
119	0xbb084edb	-0.0020798955
120	0x3d75fed8	0.06005749
121	0xbcc719ed	-0.024304355
122	0xbdb68619	-0.08912296
123	0xbdcdd1df	-0.10049795
124	0x3cffebc0	0.031240344
125	0xbe12f018	-0.14349401
126	0xb5be3fa3	-1.4174624e-06
127	0xbdc55bbc	-0.096366376
128	0xbb7f815b	-0.0038987014
129	0xbc378c6b	-0.011202912
130	0xb27ae01a	-1.460287e-08
131	0xbab1b8e9	-0.0013559136
132	0xb50c0174	-5.215618e-07
133	0x840c0366	-1.6458481e-36
134	0xbc308f71	-0.010776387
135	0xbbc04eda	-0.005868775
136	0xbbf9c5e8	-0.007622469
137	0xbc65eb19	-0.014033102
138	0xbc37a064	-0.011207674
139	0x80057314	-5.0046e-40
140	0xbd10ce59	-0.03535304
141	0xb9dbac2c	-0.00041899213
142	0xbab4714e	-0.0013766678
143	0xbbfd3347	-0.00772706
144	0xbbbf40d0	-0.0058365837
145	0xbb96bf54	-0.004600445
146	0xbc8785e1	-0.01654333
147	0xb4c5b3e1	-3.6824989e-07
148	0xbd1addb8	-0.037809104
149	0xb030b7b8	-6.4289507e-10
150	0xbc037939	-0.008024507
151	0xb8ec80e3	-0.00011277364
152	0xb9da57c8	-0.00041645602
153	0xbc5e2cde	-0.013560502
154	0xbc0b23d5	-0.00849243
155	0x000559a1	4.9133e-40
156	0xbbecd9fb	-0.0072281337
157	0xbba48555	-0.005020777
158	0xba5d8cd3	-0.00084514654
159	0xbc653484	-0.0139895715
160	0x0005574a	4.90491e-40
161	0xbc005cc1	-0.007834614
162	0xbbf9e514	-0.007626185
163	0x8005574e	-4.90497e-40
164	0xbb84fec9	-0.004058693
165	0xbc7cac0b	-0.015421878
166	0xbc1523b5	-0.0091027515
167	0xbc3da7d1	-0.011575655
168	0xba5a766b	-0.00083336857
169	0xbc261c84	-0.010138635
170	0xbc65ea0b	-0.014032851
171	0xbbd201c3	-0.0064089014
172	0xbd277189	-0.04087976
173	0xb0baed79	-1.3600775e-09
174	0xbb4f51c3	-0.0031634427
175	0xbc72ef0d	-0.014827502
176	0xbb6ad1a3	-0.003583052
177	0xbb822a94	-0.003972361
178	0xbc2b6c4a	-0.01046283
179	0xbc44701c	-0.01198962
180	0xbb924fb6	-0.0044650687
181	0x2f4b31b9	1.8480407e-10
182	0xb55a0632	-8.1220344e-07
183	0xbcac5c72	-0.021040175
184	0xba9a13af	-0.0011755134
185	0xbbaef7bf	-0.005339592
186	0xbca7c32a	-0.020478804
187	0xbb6b96a9	-0.0035947955
188	0xbc880810	-0.016605407
189	0xbb68b244	-0.0035506645
190	0x12532694	6.662741e-28
191	0xbc008861	-0.007845015

classifier.0.bias f4 [3]
0	0x3ca42ac3	0.020039922
1	0xbb322c8d	-0.00271872
2	0xbabc2a25	-0.0014355822
