run_5/benchmark_experiment_increased_data/experience_1_2/model_experience_1_2.pth (torch, 849657 bytes, 36 tensors)

features.0.weight f4 [32, 3, 3, 3]
000000 d7 03 db bd fb 5a 1e be e7 59 46 3e eb ef 21 be
       -0.10694092 -0.15464394 0.19370233 -0.15814178
000010 a7 52 1e be 95 44 9f 3c 7d 24 0e 3e e3 9b 4a bc
       -0.15461217 0.019441882 0.13881107 -0.012366268
000020 03 6a 43 3e 15 8b 32 be 93 af e6 3d 01 4b b9 3c
       0.19083409 -0.17435868 0.11263957 0.022618772
000030 17 af 15 be 08 67 86 bd dd 1a ac bd ad 9b 3d be
       -0.14617573 -0.065626204 -0.08403561 -0.18516417
000040 03 83 9e bd e3 a3 3d 3e 6c ba 2d be 14 d3 87 3d
       -0.07739832 0.18519549 -0.16965646 0.06632057
000050 ef 60 cd 3d 57 44 18 3e b2 6d 81 bd 5c 2f d7 3d
       0.10028254 0.1486982 -0.06319751 0.1050708
000060 3d ad 39 3e 00 02 23 be 70 2e 76 3d 24 1d 85 3d
       0.18132491 -0.15918732 0.06010288 0.06499699
000070 d1 c8 12 be 6f 0c cc bd 7a 0e e6 bd fb 9a 42 3e
       -0.14334418 -0.09963309 -0.1123323 0.19004433
000080 e7 bb 13 be 48 6e ca bd 53 1c 9b 3d 31 2d a6 3d
       -0.14427148 -0.09884316 0.07573762 0.08114088
000090 59 48 97 3d 76 2d f7 bc f1 1d a9 bd 48 5f fb 3d
       0.07386846 -0.030173045 -0.08257664 0.12274033
0000a0 2c d8 8d 3d 5f be dc 3d af df 26 be 5e 6d 13 3c
       0.06925997 0.10778498 -0.16296266 0.008998243
0000b0 95 cb 53 bc c4 15 ea 3d 64 90 85 3d cb 93 14 3e
       -0.012926956 0.11429933 0.06521681 0.14509504
0000c0 05 44 07 3e 73 23 d2 bd 18 87 8c 3d 10 be 37 3e
       0.13209541 -0.10260668 0.068617046 0.17943597
0000d0 3c 2d b5 3d 5d 7f 88 bd b2 e6 71 3c f0 7c 34 3e
       0.088465184 -0.066649176 0.014764475 0.17625785
0000e0 27 5a a9 bd b1 72 b9 3d ad 50 ee 3d e7 54 14 3e
       -0.08269148 0.09055079 0.116364814 0.14485513
0000f0 a2 18 46 3e 7e a6 13 bd 35 89 19 be fe 2b 31 be
       0.19345334 -0.03604745 -0.14993747 -0.17301938
000100 be 93 d2 3d 75 67 ca bd 37 0f 5b 3d 56 71 2f 3e
       0.10282086 -0.09883014 0.053481307 0.17133078
000110 a0 09 ff 3d d4 17 0b bc 13 f7 d7 3d b0 0d 26 be
       0.12453008 -0.008489568 0.105451725 -0.16216159
000120 49 07 fd bd 7c 9e 3f bd 9f 2c 32 3e 6b cd e5 3d
       -0.12354905 -0.046782 0.17399834 0.11220821
000130 db 29 01 3e 26 11 16 3e 27 76 35 bd 93 b0 15 3e
       0.12613623 0.14654979 -0.044302132 0.14618139
000140 9b 4f 20 bd d8 07 cf bd 2a 52 ea bd 0f 87 1b bd
       -0.039138418 -0.10108918 -0.11441453 -0.0379706
000150 fa e3 46 3e 28 a0 a2 3d e9 c9 4a 3c 66 c4 28 3e
       0.19422904 0.07940704 0.012377241 0.1648117
000160 22 4f be bd 37 e6 19 3c 1a 6b 2c be f5 91 2d be
       -0.09292437 0.009393266 -0.16837731 -0.1695021
000170 ad 36 0b be ed 40 3a be d3 b1 5d be d7 59 32 be
       -0.13595076 -0.1818883 -0.21649866 -0.17417084
000180 df ab 6b 3c 19 2f fe 3d 22 f7 40 be dc a2 ac b9
       0.014384239 0.12411327 -0.18844274 -0.00032927736
000190 a3 51 42 be 60 96 04 be e5 3a 5e 3d 61 b3 52 bd
       -0.18976454 -0.12947989 0.054255385 -0.0514406
0001a0 cc 9a 8c bc 8a 89 47 be 74 19 c7 3d 84 43 9b bd
       -0.017163657 -0.1948606 0.09721652 -0.07581237
0001b0 b8 39 76 3d 64 b2 3a 3e f8 73 3f bc df a1 2e 3e
       0.06011364 0.18232113 -0.011685364 0.17053936
0001c0 8d 7c ef 3b 7d f8 2c be 00 f0 df bd e7 9c a4 bd
       0.007308549 -0.16891666 -0.10934448 -0.08037739
0001d0 8f 2d 27 bc a6 a4 59 bd ec db 14 be 07 eb 10 3e
       -0.010203733 -0.053135537 -0.14537019 0.14152156
0001e0 55 e8 80 bc 73 87 87 bc 94 7b bb bd 33 f0 19 3e
       -0.015735785 -0.01654408 -0.0915443 0.15033035
0001f0 9d da 3f be 72 8e 54 3d aa 94 4b be d3 5b 14 be
       -0.18735738 0.05189366 -0.1988093 -0.14488153
000200 22 80 f2 3d ab c1 9e 3a 8b 88 3e be 71 1d d1 bd
       0.11840846 0.0012112161 -0.18606775 -0.10210694
000210 b4 46 ba bd 13 3b f7 3a 3e 33 1d bd 45 7a 4e 3e
       -0.09095517 0.001886221 -0.038378946 0.2016383
000220 ec 15 d1 3d b3 4b 22 be 91 b2 0b be 6a 31 44 3e
       0.102092594 -0.1584919 -0.13642336 0.19159475
000230 e4 c8 83 3d f7 83 0e 3d 3d f9 ff bd 70 1d 9e 3d
       0.06434801 0.03479382 -0.1249871 0.077204585
000240 bc d1 57 3d 68 de 7a 3b f1 74 64 3d d5 45 a9 3b
       0.052690253 0.0038279537 0.055775587 0.0051657953
000250 49 8b b4 bc 59 c4 8a 3d 4d 5e 62 bd 0c 43 f9 3c
       -0.022039073 0.067757316 -0.055265713 0.030427478
000260 e5 e6 26 3e b5 20 bc 3d 78 23 8d bd c9 10 8e bd
       0.16299017 0.09185926 -0.06891531 -0.06936795
000270 51 74 4b 3d 66 a0 c7 3d 4f bc ab 3c d4 ad 0f 3e
       0.049671475 0.097473904 0.020963816 0.14031154
000280 8c 88 e9 bc ce 47 8e 3c b6 30 0f be b8 8e 71 bd
       -0.028507493 0.017368224 -0.13983425 -0.058973998
000290 a3 05 80 3d f3 0e 0e be 4c 8d ef bd 71 cd 36 3e
       0.06251075 -0.1387289 -0.11696872 0.17851807
0002a0 52 97 c7 bd 38 0c 2d 3d 9d cb 18 be d5 e7 cc bc
       -0.09745659 0.04224798 -0.14921422 -0.02501289
0002b0 a2 97 b7 3d 73 35 b7 3b 71 59 b4 3d 7d e6 fa 3c
       0.089644685 0.0055910884 0.08806122 0.030627484
0002c0 d6 f3 94 3d 87 8c 1b be 05 49 3e 3d 94 a0 f5 3c
       0.072730705 -0.15190326 0.046456356 0.029983796
0002d0 74 e9 31 bd e5 28 26 3d 76 ba 96 bd 40 78 0c be
       -0.04343553 0.040566344 -0.07359783 -0.13717747
0002e0 da cc 2d be b3 18 29 bd cf 80 af 3d 26 7a 39 3e
       -0.16972676 -0.04128332 0.0856949 0.18113002
0002f0 01 7e 13 3e dc 23 08 be 27 a2 19 3e a7 47 43 3d
       0.14403535 -0.1329493 0.15003262 0.047675755
000300 58 94 0e 3e 32 8d be bb 7c be c1 bd ee 89 14 be
       0.13923776 -0.0058151716 -0.0946016 -0.14505741
000310 01 c2 26 bd 27 d5 24 3e c3 af e0 bd 78 cd fb 3d
       -0.04071236 0.16096936 -0.10971024 0.122950494
000320 63 8a 00 3e bc b3 80 bd 39 04 f7 3d 88 e0 98 bc
       0.1255279 -0.062842816 0.12061352 -0.018661752
000330 ca 5c 4c 3b b4 64 c3 bd 2b 23 3f be 8f bf 1a 3e
       0.0031183236 -0.09540692 -0.1866576 0.15112136
000340 85 83 a1 3d d4 36 b7 bd c1 55 07 be f2 62 16 3e
       0.078864135 -0.089460045 -0.13216306 0.14686182
000350 19 ed 0c be 32 dc 43 3d ce 92 45 3e ae 58 17 3e
       -0.1376232 0.047817416 0.19294283 0.14779922
000360 e8 74 64 bd 39 da f8 3d 05 3d 4d 3c 2b 7a bc bc
       -0.055775553 0.12150998 0.012526755 -0.023007473
000370 7e f2 d0 3d 40 af c1 bd ce 89 10 3e 94 11 eb 3d
       0.10202502 -0.094572544 0.14115068 0.11477962
000380 1c 18 a7 3c dd d2 31 3e 1e 3d 99 bd 86 a6 2d 3d
       0.020397238 0.17365594 -0.0748236 0.042395137
000390 b4 ac 31 be 1a 17 d6 bd 4d d0 8d bd 26 7f ea 3c
       -0.17351037 -0.10453625 -0.06924496 0.028625082
0003a0 43 67 1b be 75 a4 e1 bc e3 30 47 3d 64 90 50 3d
       -0.1517611 -0.02754424 0.048630606 0.05091895
0003b0 be 9f 13 be 88 2d 12 3e d1 00 72 3d b9 cc 8a 3d
       -0.14416406 0.14275181 0.05908281 0.06777329
0003c0 7f 48 2a 3e a9 25 78 3a 99 99 de bd 23 37 42 be
       0.16629218 0.0009466061 -0.1086914 -0.18966345
0003d0 fe 29 58 bd a0 50 e5 3d f1 34 1a be 41 50 3f be
       -0.052774422 0.111970186 -0.15059258 -0.18682958
0003e0 96 ef 2c bc fe 7e 06 be aa 69 21 be ce 95 04 bd
       -0.010555169 -0.13134381 -0.15762964 -0.032369427
0003f0 0c af d0 bd 11 18 ed bc 0e 3f dc 3d 7e d2 8e bc
       -0.101896375 -0.02894214 0.10754214 -0.017434355

features.0.bias f4 [32]
000000 00 fb 14 be 2f 3d 5c bd f2 32 d7 bd 67 c4 89 bd
       -0.14548874 -0.053769287 -0.10507764 -0.06726914
000010 d3 7e a4 3c c0 aa fb 3d 4a ea a3 bd 42 5a b1 bd
       0.020080006 0.12288427 -0.080036715 -0.086597934
000020 bb 0b 1b 3d 90 02 e7 bd 2b bb 24 3c 1b ff e5 bd
       0.037852984 -0.11279786 0.01005439 -0.11230298
000030 3c 0f 83 bd 85 c0 94 bd 17 de 1a be b5 87 b2 bd
       -0.0639939 -0.07263283 -0.15123783 -0.0871729
000040 38 81 ea bd 68 4e 9f 3d ff 83 cc bd 78 32 39 3e
       -0.11450428 0.07778627 -0.09986114 0.18085659
000050 aa 78 f2 3d 39 03 28 be 99 ed 3e 3d 57 b5 45 3d
       0.11839421 -0.1640748 0.04661331 0.048268642
000060 51 cd 24 be 31 5e 1c 3e 3b 0e db 3d ea 43 4d bd
       -0.16093947 0.15270306 0.106960736 -0.050113596
000070 8d 73 0c be c8 8f 44 bd da 1c bb 3d e1 1b 26 bd
       -0.13715954 -0.047988683 0.091363624 -0.04055393

features.2.weight f4 [32, 32, 3, 3]
000000 30 2a 95 3b 9f 3b a9 3c 1c 11 83 3d c9 8a de 3c
       0.0045521483 0.020658312 0.06399748 0.027165787
000010 0d f4 90 39 9b 52 b7 3c 9f 4c e6 3b ed ee 50 3c
       0.00027647652 0.022378257 0.007028177 0.012752277
000020 da d8 fa bc c2 88 f7 3c a2 92 f7 3c e5 f9 94 3d
       -0.030620981 0.030216578 0.030221287 0.07274226
000030 9c 54 06 bd 4f ea 76 bc 66 d4 1d 3d ab db 24 3c
       -0.032795534 -0.015070512 0.038532637 0.010062139
000040 a2 4b fd 3c 70 46 8f 3d a4 d6 35 3d b9 16 97 bc
       0.030919854 0.06995857 0.04439415 -0.018443452
000050 49 55 7c 3d 66 3b 52 3d 7e b4 a8 3c 75 85 95 3c
       0.06160477 0.051326178 0.020593878 0.018252114
000060 34 fa dc 3c 2b 5f 93 b9 63 d3 b9 3c 30 c9 4a 3d
       0.026974775 -0.0002810893 0.022683805 0.049508274
000070 d7 d8 79 bb 6f 3e 50 3d 35 8d 52 3d f4 9d 98 3d
       -0.0038123631 0.05084079 0.051404197 0.07452002
000080 94 5e 31 3d 2d 1e 8f 3d 48 c7 8b 3d 05 63 68 3b
       0.043303087 0.069881774 0.06825119 0.003545941
000090 2f de 44 bd 87 7c 0c bd 06 e6 1d bd b3 c7 9d bc
       -0.048063453 -0.034298446 -0.038549446 -0.019260263
0000a0 56 8e 57 3d dd 33 2f 3d 05 84 0e bb 2f 78 5e 3d
       0.052625977 0.04277407 -0.002174617 0.054313835
0000b0 ce ee 27 bd 82 92 2b 3d ab 35 e1 bc 34 9c 89 3c
       -0.040999226 0.041887768 -0.027491411 0.016798116
0000c0 6f b9 45 bd 5b 78 37 bd 2e 54 c3 bc cc b4 a7 3c
       -0.048272546 -0.044792514 -0.023843851 0.020471953
0000d0 e8 ee 46 bd ce 24 83 3d be 29 42 bd bb 2a 7b 3c
       -0.048567683 0.06403504 -0.04740309 0.015330012
0000e0 89 97 62 3c 19 73 85 bd 84 00 00 3c b1 12 26 bd
       0.013830074 -0.06516094 0.007812623 -0.04054517
0000f0 2a f0 68 3c a5 79 8b 3c 5b 56 42 3d 0b 82 88 3d
       0.014217416 0.017025778 0.047445636 0.06665429
000100 4b 83 53 3d a6 dd 63 3d c6 10 b1 3a 09 2a 6c 3d
       0.051638883 0.055631302 0.0013509027 0.057657275
000110 41 51 86 3d da f6 ba bc 73 4f c3 3c db fb 9d bb
       0.06558467 -0.022822786 0.023841595 -0.0048212833
000120 28 e1 07 3d 8e 77 f6 3b 6a d6 d0 bc c6 3e ad bb
       0.03317371 0.0075215762 -0.025492866 -0.005287024
000130 6a 71 4e 3b 05 82 3e bd 92 40 bb bc 0e 5e 11 bd
       0.0031500706 -0.046510715 -0.022857938 -0.03549009
000140 26 6f 73 3d e3 94 89 bc 6d 80 3e bd d0 b6 18 3c
       0.05943217 -0.016794628 -0.046509195 0.00932093
000150 53 92 64 3c fe b3 6f bc 3c 9e 35 bd 03 ba 60 3d
       0.013950902 -0.014630316 -0.044340357 0.054864895
000160 09 ae 13 bd 89 56 e0 3a 6d 06 87 3d 08 4c 9d 3c
       -0.036054645 0.0017115633 0.065930225 0.019201294
000170 7d 67 cd bb 54 ea 02 bd ee 04 e4 bc 3a 72 57 3d
       -0.0062684403 -0.031961754 -0.027834382 0.05259917
000180 35 e1 b8 3c 45 66 89 bc c5 c1 2a bb 73 e1 8a 3d
       0.022568325 -0.016772399 -0.0026055437 0.06781282
000190 c6 1b 03 bd 20 43 ff bc 87 2e af bc 18 6b f5 bc
       -0.03200891 -0.031159937 -0.02138449 -0.029958293
0001a0 e6 5a 04 bd 93 5f 11 3d 72 2e 86 3d c0 78 7d 3d
       -0.03231325 0.035491537 0.065518275 0.061882734
0001b0 04 3b 46 3d 76 7d 8e bc 1a 68 21 3d 29 2a e5 3c
       0.048396125 -0.017393809 0.03940592 0.027974205
0001c0 43 17 1e 3d 38 62 65 3c 07 b7 e4 bc 4e c8 33 3d
       0.038596403 0.014000468 -0.027919305 0.043892197
0001d0 d5 8f 3b 3d 97 2f 14 3c 71 34 21 bd 9d b9 83 3d
       0.045791466 0.009044549 -0.039356653 0.06431887
0001e0 b6 ec 42 3d 7f 4d 9c 3c 0d 24 55 3d 75 c3 6b 3d
       0.047589026 0.019079922 0.052036334 0.05755945
0001f0 27 73 7c 3d de 84 a4 3a 04 9c ff 3c b6 9c f1 3c
       0.061633255 0.0012551805 0.031202324 0.02949367
000200 39 7d 35 3d cd 98 5b 3d 55 c0 08 bd db 11 4b 3c
       0.044308875 0.05361252 -0.033386547 0.012394394
000210 48 52 52 bc a0 cc 91 bc d0 55 16 bd 0e ec 78 3d
       -0.012837 -0.017797768 -0.03670293 0.060771994
000220 b4 eb 67 3d 4e 22 b5 bc e3 26 ae 3c 00 db 09 3c
       0.05662127 -0.022111084 0.021258777 0.00841403
000230 dc fe 6b 3d 2c d7 88 3d 67 14 c8 bc 3a d1 b7 bc
       0.0576161 0.06681666 -0.024423791 -0.022438634
000240 a5 69 dc bc 50 18 53 3d 17 83 28 3d 7a 65 af 3c
       -0.026905844 0.051536858 0.041140642 0.021410692
000250 6f 7e 78 bc 91 72 2d bd 46 cd d3 bc 35 ca 3d 3d
       -0.015166863 -0.042345587 -0.025854718 0.046335418
000260 9b 71 ad 3b 9c 97 14 3d 14 c8 3e bd e2 ab 2f 3d
       0.005293084 0.0362774 -0.046577528 0.04288853
000270 05 c9 6b 3c 22 93 59 3d da 07 11 3a 85 71 16 3d
       0.0143911885 0.053118832 0.0005532481 0.036729354
000280 f5 f0 ba bc 4b df f2 3c 20 0c 46 3d 7c 1c df bc
       -0.022819975 0.02964749 0.048351407 -0.027235262
000290 2f 1a 64 3d 35 b4 12 bd 96 10 80 3d f2 5a 16 3d
       0.055689033 -0.03581639 0.062531635 0.036707826
0002a0 34 dd 2c 3d 2e e6 88 3d ac ba 55 bc f2 85 24 3d
       0.042203143 0.06684528 -0.013044994 0.040166803
0002b0 d9 6c a7 bc fb 91 6d 3d d4 de 30 3c a2 7c f7 bc
       -0.020437645 0.058000546 0.010795314 -0.030210797
0002c0 36 4d 18 3d b4 8e 1b 3d b3 20 7f bc af 86 aa bb
       0.03718301 0.03797789 -0.015571761 -0.005204044
0002d0 aa 06 8e 3c 91 ed d5 bb 0a 97 8f 3c 37 49 40 3b
       0.017337162 -0.0065285643 0.017528076 0.0029340514
0002e0 91 c7 6a 3d 5e bc a2 bc 74 e7 5a 3c f0 65 65 3d
       0.057319228 -0.019865211 0.013360847 0.05600542
0002f0 43 3d 17 b8 23 c5 62 3c 3a 0e e2 3c 72 f9 6d 3d
       -3.605826e-05 0.013840946 0.027594674 0.058099218
000300 fd f5 c1 ba c1 7d 02 bd a6 4e 87 3b 13 ed aa bc
       -0.0014798042 -0.03185821 0.0041292487 -0.020864999
000310 e4 c2 8d 3d 1c 3f 28 3d 4f 25 98 3c 27 b8 25 3c
       0.06921938 0.04107581 0.018572478 0.010114706
000320 1b 17 09 bd 57 c4 09 3b 3c ca 37 3d 24 ac 3f 3d
       -0.0334693 0.0021021569 0.0448706 0.046795025
000330 7c b4 2a 3d 41 04 74 3d 76 61 36 bd 10 26 44 3b
       0.04167603 0.05957437 -0.04452654 0.0029929914
000340 3a 90 43 3b 93 db 6a bc 4c 2e a0 3c 00 30 6e 3c
       0.0029840604 -0.014334577 0.019553326 0.014537811
000350 d9 65 20 3d 37 15 36 bd 97 36 98 bc c7 03 2c bd
       0.03915963 -0.044453826 -0.018580718 -0.04199579
000360 72 30 63 bc d9 64 14 3d f2 c0 c8 bc 5e fd 34 3d
       -0.013866531 0.03622899 -0.024506066 0.044186942
000370 af 2c ca 3a 0c 62 3f 39 50 a6 80 3d 23 c0 de 3c
       0.0015424694 0.00018251705 0.062817216 0.027191227
000380 74 7b 8f 3c f9 8d d1 bc 92 a1 09 bc ef 28 57 3c
       0.017514922 -0.025580393 -0.008400338 0.013132318
000390 ca de 4a 3d dd 86 82 3d fe 1c f1 bc 78 e1 87 bb
       0.049528874 0.063733794 -0.02943277 -0.004146751
0003a0 bc 42 12 bd 0c 63 80 3d f6 ac 38 3d d4 19 72 3b
       -0.035708174 0.06268892 0.045086823 0.0036941664
0003b0 4d 54 99 3d 23 8a 77 3d 7e 80 11 3c 16 10 3b bb
       0.07486782 0.06043447 0.008880733 -0.0028543524
0003c0 a9 b8 d1 3c 3d 69 25 bc 27 1d 11 bd c0 39 3a bd
       0.025600748 -0.010095892 -0.035428192 -0.04546523
0003d0 5c b1 b3 bc b6 51 3c bd 9b dd 75 3d 7e 58 09 3d
       -0.021935157 -0.045976363 0.060025793 0.03353166
0003e0 57 da b3 3c e8 0a 63 3d 36 53 d3 bb d9 73 f9 3c
       0.021954698 0.055430323 -0.0064491285 0.030450748
0003f0 d7 b4 6a 3c 90 6f c2 bc d8 f0 1b bd ec 89 0e 3d
       0.014325342 -0.023734838 -0.038071483 0.0347995

features.2.bias f4 [32]
000000 3f 8b 8d bc 9c 92 7e 3d 11 11 1c bc 88 da 19 3c
       -0.017278312 0.062151536 -0.009525553 0.009390481
000010 f8 6d 08 3c 30 ec c7 bc f7 aa 34 3d 94 1b 95 bc
       0.008327 -0.024404615 0.044108357 -0.018201627
000020 3e d3 13 3d 14 63 5b bd 8e 62 1f bd fd 5e 4f bd
       0.036090128 -0.053561285 -0.03891235 -0.050627697
000030 54 5d 60 3d 02 4c 10 3d d6 fc 05 3d a4 29 19 bd
       0.054776505 0.035228737 0.032711826 -0.037393227
000040 7b b3 be 3b 8e f9 a5 ba e9 3c 59 3d 64 d6 b7 3c
       0.0058197356 -0.0012662874 0.053036604 0.022441097
000050 a9 29 16 bc 18 25 89 3c 57 69 8d 3c c4 ed 3e 3d
       -0.009165206 0.01674132 0.017262144 0.04661347
000060 1a 04 21 bc 6d 16 e1 3a 46 8c 1b bd 84 13 40 3d
       -0.009827638 0.0017172821 -0.037975572 0.04689361
000070 5b 5f 4d bc 48 8c 45 3d e4 fe 5b 3c c7 29 60 3d
       -0.012534942 0.048229486 0.01342747 0.054727342

features.5.weight f4 [64, 32, 3, 3]
000000 2a d9 0a 3d 34 89 ab 3b 13 58 41 3d e6 0f 8d 3c
       0.03389851 0.0052348617 0.047203135 0.017219495
000010 9e b4 bd bb 4f 78 b6 bc 2d a2 d1 3b 1c 9e 85 3b
       -0.0057893535 -0.022274164 0.0063975067 0.004077686
000020 a5 45 97 3b 73 3c 01 bb fd ae 19 3d 84 bc 64 3d
       0.0046164566 -0.0019719868 0.037520397 0.055843845
000030 cf 73 47 3d 33 0d 5f 3d 38 4b df bc 60 95 a7 bc
       0.048694428 0.054455947 -0.027257547 -0.02045697
000040 94 a6 3b bc 62 bd bd bc a3 bb 62 3d 0a 34 a6 bc
       -0.01145329 -0.023161594 0.055354726 -0.020288486
000050 b5 06 02 bd 0f c1 09 bb 05 b6 e1 3c b4 79 7c 3d
       -0.031744678 -0.0021019613 0.027552614 0.061639503
000060 de 85 07 bd 03 f2 41 3d 5a 50 e2 3b 3f ed a1 bc
       -0.03308665 0.04734994 0.0069065513 -0.019766448
000070 f2 f2 84 bc 5d fe bf 3c 3c 7e c7 3c c0 c5 7e 3d
       -0.016229127 0.02343672 0.024352185 0.062200308
000080 b1 09 07 bd 6a b8 35 3d 08 4c d9 bc 77 dc 2a bd
       -0.032968227 0.044365324 -0.026525512 -0.041714158
000090 4d 85 09 3d 99 50 cc bb 2b 15 78 bc e8 66 25 3d
       0.03357439 -0.006235194 -0.015141766 0.040381342
0000a0 cd d5 2b 3c 14 45 fd 3c a7 df 12 bd 74 83 fc 38
       0.010487986 0.030916728 -0.035857823 0.000120407814
0000b0 bd 59 fd 3c 4c f2 e7 bc 21 d7 4d bd 7c b4 a5 bc
       0.03092658 -0.028313778 -0.05025399 -0.020227663
0000c0 2a 5a 86 3b e3 ba cc 3b ab 9f 70 3c c8 29 b7 bc
       0.004100104 0.0062478646 0.014686505 -0.02235879
0000d0 9c bc 0a 3d e2 a1 83 3a f1 02 78 3c d8 4a 23 3d
       0.03387128 0.0010042752 0.01513742 0.0398663
0000e0 fd db 51 3c d8 d7 67 3d 87 82 05 3d 70 4f f3 3c
       0.012808797 0.05660233 0.032595184 0.029700965
0000f0 7b 1a d2 3c 96 c7 64 3d 0a 27 3f bd f2 58 26 bd
       0.025647392 0.055854402 -0.04666809 -0.04061217
000100 5f b6 45 3d 4f bf ce 3b 09 f4 b6 bc b9 cb 74 bc
       0.048269626 0.006309427 -0.022333162 -0.014941149
000110 c0 f8 3e 3d ed 21 00 3d 8a 43 76 3d b4 39 6e 3d
       0.046623945 0.031282354 0.060123004 0.0581605
000120 ab 46 2b bd 39 6b 72 3b ba a0 17 bd 83 79 06 3c
       -0.04181544 0.003699018 -0.037018515 0.008207682
000130 dc c7 e7 3c 29 56 7a 3c 9d ab 5f 3c 38 6a 7d 3d
       0.028293543 0.015279331 0.013651756 0.061868876
000140 e9 50 69 3d 60 b4 ed b9 30 60 81 3c 45 f5 3e bd
       0.056961928 -0.00045338552 0.015792936 -0.046620626
000150 4c a6 3e 3c c3 53 96 3c ff c2 47 bb 45 f4 83 bc
       0.011636328 0.018350488 -0.0030481217 -0.016107688
000160 b5 d3 21 3d 4e ae 4e bd b3 9d 77 3d b5 d3 71 3c
       0.03950854 -0.0504592 0.060453128 0.014759948
000170 0b b9 8e bd cb 55 1f bd 37 1b 21 bb e4 70 29 bd
       -0.06968888 -0.038900178 -0.0024582872 -0.041367427
000180 ed 7f e8 3c af 50 47 bd a7 f8 6b bd 0e 49 8e 39
       0.028381312 -0.04866093 -0.05761018 0.0002713878
000190 fc ef 4b 3d ed c9 23 3c 21 98 8d 3b 8c a3 2c 3d
       0.049789414 0.009996873 0.0043211137 0.042148158
0001a0 cd 72 cc 3c 2d 40 02 bd 0c 3b e8 bc c9 51 3f bc
       0.024957085 -0.031799484 -0.028348468 -0.011677214
0001b0 fd 15 44 bd 4f 04 62 3d 18 98 16 bd 0c 35 af bc
       -0.047872532 0.05517989 -0.03676614 -0.0213876
0001c0 b9 39 5f bd f6 f2 11 bd fa 7f 76 bd a2 9f 5a 3c
       -0.054498408 -0.035632096 -0.06018064 0.0133437235
0001d0 9b 0b 07 bd 05 8b 82 3d 3c 84 6f 3d ee 46 77 bc
       -0.032970052 0.06374172 0.058475718 -0.015092595
0001e0 99 28 3f bd ff c7 a9 3c d8 96 62 bc 68 02 64 bb
       -0.046669576 0.020725248 -0.013829909 -0.0034791473
0001f0 f6 0f 0a 3d a2 33 37 3d 96 3c ac bc d8 ac 51 3d
       0.033706628 0.044726975 -0.021024983 0.051190227
000200 14 e7 ba bc 95 53 15 3d 16 9e f5 bc 02 b1 5b 3d
       -0.022815265 0.036456663 -0.029982608 0.053635605
000210 95 27 1d 3d d2 56 de 3c de ed 13 3d 92 56 be bc
       0.038367826 0.027141009 0.03611552 -0.02323464
000220 46 44 4f 3d df 10 6e 3d a9 62 27 bd 6c de ba bc
       0.05060222 0.05812156 -0.040865574 -0.022811137
000230 61 9f 69 b9 a8 19 6a 3d 65 a2 ff 3c 93 db 21 bc
       -0.00022279985 0.057153374 0.031205365 -0.009879011
000240 eb d3 43 3d 43 23 42 bd 63 43 d1 3c 2f 3c 4e bd
       0.047809523 -0.04739691 0.025544828 -0.050350364
000250 52 af f4 bb 35 10 81 bd 4a 53 5f bd 91 99 2e bd
       -0.007467189 -0.06301919 -0.05452279 -0.04262692
000260 d6 dc 5d bd 64 bd 86 3d 8c d1 c6 bc 02 ea b2 3a
       -0.054165684 0.06579092 -0.024269842 0.0013650062
000270 51 c7 d8 3c d1 fe 03 bd 31 91 53 3c c1 aa af 3b
       0.026462229 -0.032225434 0.012913034 0.0053609316
000280 96 94 ca bc 39 43 1b 3d 16 3b 12 3d 9f bf c5 3c
       -0.024729054 0.037905905 0.03570088 0.024139224
000290 88 2a 7d bd 17 54 02 3c 5d 41 47 bb 0c 41 0c b9
       -0.06180814 0.007954619 -0.003040395 -0.00013375672
0002a0 f0 4a 21 3a 9c ab 5f bc d9 58 3e 3d 4d d7 c6 bc
       0.0006152829 -0.013651755 0.04647145 -0.024272585
0002b0 0e f0 4c bd e3 33 9f 3c 22 d3 1f 3d 55 25 86 bc
       -0.05003362 0.019433921 0.03901971 -0.016375223
0002c0 f7 ef 02 3d d6 8c 54 bd 31 46 50 bd 61 95 39 3d
       0.03196713 -0.051892124 -0.05084819 0.045308474
0002d0 0e 3d af 3c 21 aa 0d bc f8 89 32 bc 3e c2 5a 3c
       0.021391418 -0.008646519 -0.010897152 0.013351975
0002e0 67 60 3c 3d a3 d4 3d 3d e6 9a 74 bc 4e 24 c7 bc
       0.045990374 0.046345364 -0.014929509 -0.024309304
0002f0 4e 3d 1b 3d ff ee 9a 3c ce d4 09 3c 45 3e 22 3d
       0.03790026 0.01891279 0.008412553 0.039610166
000300 d3 07 d4 3c 31 c9 31 bd be 95 c7 3c 5e c1 8c bc
       0.025882637 -0.04340476 0.024363395 -0.017182048
000310 38 ea fa 3a 2c 3d 53 3d 80 44 f3 3c fa e0 55 3d
       0.0019143289 0.05157201 0.02969575 0.052216507
000320 54 8d 88 bc 1f 81 f8 3c 01 d6 40 3d 2c c0 84 3d
       -0.016668953 0.030335007 0.04707909 0.064819664
000330 63 18 5f 3d d6 26 cc bb f7 f6 b9 3b 9a bd aa 3c
       0.054466616 -0.0062302155 0.0056751925 0.020842362
000340 59 58 f9 bc 24 07 ab 3c 88 e0 4a 3d 16 25 39 3c
       -0.030437635 0.020877428 0.049530536 0.011300346
000350 dd 9d 95 3c 5e e2 fd 3c 99 6d 4e 3c c2 87 ac 3b
       0.018263752 0.03099173 0.012599372 0.005265207
000360 d3 1f 82 3c 94 c7 12 bd 26 89 93 39 46 8d 36 bd
       0.015884316 -0.035834864 0.00028140208 -0.044568323
000370 8d 87 24 3d 54 fa 65 3d 4f 89 7e bc 68 73 1f 3b
       0.040168334 0.056146935 -0.015535667 0.0024330262
000380 35 c2 02 bd 6a 53 e2 bc 7e e9 2f bc 05 77 22 b9
       -0.03192349 -0.027627666 -0.010736821 -0.00015493862
000390 1c 95 39 3d 81 80 b7 3c ca c9 83 3d 92 c8 4e bd
       0.045308217 0.022400143 0.064349726 -0.050484248
0003a0 de 2c 48 bc b6 7a b4 3b a2 55 1f bd f4 3d 62 bd
       -0.012217728 0.0055077923 -0.038900025 -0.055234864
0003b0 62 31 dd 3c 53 4c 23 bd 97 63 37 bd cc 15 06 3d
       0.027001087 -0.03986771 -0.04477271 0.03273563
0003c0 fb 14 66 bd e3 a9 10 bd fe f1 47 bd 0c 87 ca bb
       -0.056172352 -0.035318267 -0.048814766 -0.0061806496
0003d0 52 a4 08 bc c1 84 32 3c cc 08 a4 bc 79 ba 44 bd
       -0.008339958 0.010895909 -0.020023726 -0.048029397
0003e0 6c 8f 9d bc 7a 01 4a bd 8e 7a 60 3c a1 61 40 3d
       -0.019233428 -0.049317814 0.013701094 0.046968106
0003f0 02 7c c7 bc 51 f9 12 bd c8 56 89 bd dc 38 30 bc
       -0.024351124 -0.035882298 -0.06706005 -0.010755744

features.5.bias f4 [64]
000000 43 0b 44 3d ee 19 ea 3c 70 35 3e bb f3 fd ab bc
       0.047862303 0.028576817 -0.002902355 -0.020995116
000010 89 84 3b bc 90 89 4e 3d 3b eb 89 bc 4f e5 2e 3d
       -0.011445173 0.05042416 -0.0168358 0.042699154
000020 42 c1 4e 38 ae 40 fe bc f3 76 4d 3b 16 70 d5 bc
       4.9294213e-05 -0.031036701 0.0031351417 -0.026054423
000030 d8 b6 00 3d c6 74 e2 bc 3a 20 0c bd 3f 50 08 bd
       0.031424373 -0.027643573 -0.03421042 -0.033279654
000040 2b e2 cb bc b6 28 0b 3d a1 21 ce 3c 4a d9 e1 bc
       -0.024888119 0.03397437 0.02516252 -0.027569432
000050 26 c9 7d 3d fc 41 76 3d 10 11 2e bd a3 24 34 bd
       0.06195941 0.06012152 -0.04249674 -0.043980252
000060 24 5f 35 3d 5e 7a bf bc c7 aa 02 bd 39 b6 5b bc
       0.044280186 -0.023373779 -0.031901147 -0.0134101445
000070 52 1e 7b bd d1 7b e2 bc cc bb e7 bb 95 23 05 3d
       -0.061308213 -0.02764693 -0.0070719477 0.032504637
000080 d3 aa 41 bd 13 50 c8 3c a8 b1 99 bc 78 7c 4c bd
       -0.04728205 0.024452245 -0.01876147 -0.04992339
000090 65 d1 4b ba 30 47 af 3b 08 81 71 3d 39 5f 46 bd
       -0.00077750377 0.0053490624 0.058960944 -0.048430655
0000a0 99 bf c1 bc b1 4d 58 3d ac be 50 3d 62 a0 87 3d
       -0.023650931 0.052808467 0.05096309 0.066223875
0000b0 3c a8 d0 bc 18 a6 08 3c fa 1c 80 ba 33 3e 91 3c
       -0.025470845 0.008340381 -0.0009774261 0.017729854
0000c0 51 d6 4c 3c b5 dd eb bb 92 42 78 3c d5 65 28 bd
       0.012502269 -0.0071980604 0.01515259 -0.04111274
0000d0 7a 03 ba ba 87 52 25 3d 98 00 6f bc 49 99 60 3d
       -0.001419171 0.040361907 -0.014587544 0.054833684
0000e0 26 a4 05 3d be fe 5d 3d f2 e6 13 3d b8 7e 87 3c
       0.032627247 0.05419802 0.03610892 0.016539916
0000f0 ed a4 96 bb 64 df 07 bd 9c 28 0f 3c a1 fb a3 3c
       -0.0045972974 -0.033172026 0.008737709 0.020017447

features.7.weight f4 [64, 64, 3, 3]
000000 7d 5f d3 bc 91 bc 9c 3b 27 5b 8a bc 39 68 2f bc
       -0.025802368 0.004783221 -0.016889168 -0.010706001
000010 4b 39 31 3c 7a 49 42 3c 07 ec 0e bd 7b ba cd bc
       0.010816882 0.0118583385 -0.034893062 -0.025113335
000020 22 4e 8b 3c e6 42 cb bb 19 e4 72 3c 2c bf 57 3c
       0.01700503 -0.0062030433 0.0148248905 0.0131681375
000030 6b ea d2 bc cd 84 fe 3c 3d 84 00 bd 21 c7 fd 3c
       -0.025746545 0.031069184 -0.031376112 0.030978741
000040 e2 50 08 bd 2b 57 cc bc 6a 56 9f 3c 57 2e cf bb
       -0.03328026 -0.024943909 0.019450385 -0.006322663
000050 f4 09 dd bc a7 19 ad 3c b5 e6 d9 3b 27 6c 49 3a
       -0.026982285 0.021130396 0.006649817 0.00076836575
000060 1a e1 bf bc a5 bb 91 3b e8 42 9c bb f5 49 0b 3c
       -0.023422766 0.004447418 -0.004768718 0.008501519
000070 77 14 ee 3b 0a c2 0b bd bb 5a a8 3c 01 0f 08 bd
       0.007265623 -0.034120597 0.020551076 -0.033217434
000080 e4 cc 15 bc 0b 2d 17 3d 46 af a6 3c 05 1e 81 bb
       -0.009143088 0.03690819 0.020347249 -0.003940346
000090 c0 00 c8 3c 43 14 84 3c d4 b6 1d 3d 71 93 87 3c
       0.02441442 0.016122943 0.038504437 0.016549798
0000a0 38 76 80 bb 02 e2 e6 3c 9c a9 1a bd 45 84 1f 3d
       -0.003920343 0.02818394 -0.03775941 0.0389445
0000b0 31 b5 62 3c 1b 10 bc 3c 0d 9f 1f bd bb 04 25 bd
       0.013837145 0.022956898 -0.038970042 -0.040287714
0000c0 88 14 0c bc 10 aa 91 3c 6d fc e9 3b a6 de 09 3d
       -0.008549817 0.017781287 0.007140687 0.0336596
0000d0 d6 61 15 3d d3 c4 1e bd 71 eb 03 3d 90 01 65 3b
       0.036470257 -0.038761925 0.032206956 0.0034943558
0000e0 bd 43 36 bc ee 64 11 3d 58 b0 11 3b 3c d8 9a bb
       -0.0111245485 0.035496645 0.0022230353 -0.004725484
0000f0 05 ab 06 3d b2 b0 30 3c a2 57 ba 3c 6c 2c 4f bc
       0.03287794 0.010784315 0.022746865 -0.012644868
000100 55 e6 f5 3b ee c8 48 bc eb 6b b0 3b 08 78 9a bb
       0.0075042644 -0.012254937 0.0053839586 -0.004714016
000110 4b 9a 11 3b e9 aa 00 bd 53 ff c8 bc 64 8e 06 3d
       0.002221721 -0.031412993 -0.02453581 0.032850638
000120 42 ae 1c 3d 84 3d 87 bc 31 be 08 bc f6 36 8e bc
       0.038252123 -0.016508825 -0.008346126 -0.017360192
000130 92 f7 f7 3c 71 31 cd bc 30 c2 05 bd 29 fd d4 bb
       0.030269418 -0.02504799 -0.032655895 -0.0064999056
000140 01 0f a8 3c 9a a9 eb 3c 0d d4 98 3a c5 3d 2e bc
       0.020514967 0.028767396 0.0011659876 -0.010634844
000150 0d ba e0 bc 98 1d ef 3c d7 2c bb 3c da 88 90 bc
       -0.027432466 0.029188916 0.02284853 -0.01764338
000160 71 cf 32 3c 6c a4 59 3c 94 80 95 b9 ee 0c d5 bc
       0.010913716 0.01328383 -0.00028515293 -0.026007142
000170 b4 15 a6 ba 99 71 e4 3c 60 2c a1 3c e4 72 22 3d
       -0.0012671263 0.027886199 0.01967448 0.03966035
000180 6b b2 b3 3b 84 7d 01 bd 39 a7 aa bc 20 fc 6b 3c
       0.0054839156 -0.03161384 -0.020831691 0.014403373
000190 63 b0 1e 3d a3 39 f6 3b c6 f4 f6 bc 87 19 05 3d
       0.038742434 0.007514195 -0.030146014 0.032495048
0001a0 4b 8b 02 bd 6a 73 38 bc 2b de 04 bd 49 33 42 3c
       -0.03187112 -0.011257986 -0.03243844 0.011853048
0001b0 3e 33 58 3c 19 e8 22 3a 4b ad 99 bc 1e 94 67 3c
       0.013195811 0.0006214395 -0.01875939 0.014134435
0001c0 b5 2d fd 3b 3a dd fd bc 32 7c ae bc 7b ba ac bc
       0.007726396 -0.030989278 -0.021299455 -0.021085015
0001d0 a8 4e 27 bd 3d d8 c3 3c d0 53 59 bb 2c 3c fe bc
       -0.040846497 0.023906821 -0.0033161528 -0.031034552
0001e0 26 c2 72 3c 6a 0b 92 bc a0 6b 4c bc 47 49 00 3d
       0.014816796 -0.017827708 -0.012476832 0.031319883
0001f0 56 f4 e2 3c 8c c2 f5 bb b1 05 17 bd 2d 8e 9e bc
       0.0277044 -0.0074999984 -0.036870662 -0.019354904
000200 e9 34 c3 3c 76 70 ee 3c b7 8f 7a 3c 4a a0 26 bd
       0.02382894 0.02910636 0.015293053 -0.040680207
000210 47 dc 1c bd ab 71 19 bc e7 db 6d bc 53 57 f7 b8
       -0.03829601 -0.009365479 -0.014517761 -0.00011794143
000220 bb c6 6c 3c ea ec 18 3c 5b f3 de ba e1 88 22 3c
       0.014451678 0.009333828 -0.0017009781 0.00992033
000230 5a 65 5d 3b ab 91 56 bb e9 95 c2 3c de 7d c8 3b
       0.0033782334 -0.0032740633 0.023753123 0.00611852
000240 5f 36 be bc 15 ad 09 3c 29 70 00 3c e9 42 11 3c
       -0.023219286 0.008403082 0.007839241 0.00886605
000250 7f de d1 3c a0 e7 22 bd 5d d2 fd bc 7e 83 02 3d
       0.02561879 -0.039771676 -0.030984098 0.031863682
000260 a3 ee da b9 09 f3 0c 3b ef 27 ee 3b b2 d7 e5 3c
       -0.00041757998 0.0021507165 0.007267944 0.028056953
000270 90 d9 cf 3b 70 c3 b5 bb 36 45 06 bc 93 ec e7 bc
       0.006343074 -0.0055469796 -0.008195212 -0.02831105
000280 17 56 17 3d c3 ba a2 bc b4 66 f4 ba 54 ac cc 3c
       0.036947336 -0.019864446 -0.001864633 0.024984516
000290 d5 7a ca 3a bf 13 8d 3c 4e fb 41 3c b0 c5 1a 3d
       0.0015447984 0.01722133 0.011839701 0.037786186
0002a0 f5 7d e4 3b 44 f8 da 3c fb b9 60 3c 82 27 82 3c
       0.006973023 0.02672971 0.013716216 0.01588798
0002b0 ff 93 b1 bc b1 5f 43 3b 2d 4c c0 bc 8b 8f 0e 3c
       -0.021677015 0.0029811675 -0.023473823 0.0087012155
0002c0 c7 35 37 bb 7a d9 00 bd e5 86 1a 3d e4 da 80 3b
       -0.0027955638 -0.0314574 0.0377263 0.003932344
0002d0 d6 af 94 bc 9e 9e b2 bb 46 05 a5 3c 79 cc c7 3b
       -0.018150251 -0.0054510375 0.020144116 0.006097373
0002e0 e8 f5 45 bc 3a 40 ac bc 68 38 00 3c e6 46 85 bc
       -0.012082554 -0.02102672 0.007825948 -0.016269159
0002f0 b4 0c 09 bc 9d ae 03 3d 2d 16 11 3d 91 0a ca 3b
       -0.008364845 0.032148946 0.03542154 0.0061658104
000300 cb a1 15 3c 00 78 de bc e1 99 a5 3c 41 3c e1 3c
       0.009132813 -0.02715683 0.020214977 0.027494552
000310 87 83 25 bd 86 78 4e 3c 2b f4 dc 3c 99 c4 c6 bc
       -0.040408637 0.012601977 0.026971897 -0.024263667
000320 fe a2 6f 3c d7 ad 08 3d 06 3b 14 bd a0 9a 90 bc
       0.014626263 0.03336891 -0.0361891 -0.017651856
000330 ff d5 bb bb 14 2e 6d bc cb ab 9e bb 7c 21 03 bd
       -0.0057322974 -0.014476318 -0.0048422567 -0.032014355
000340 9b 4a d5 bc 35 17 71 3b b2 3f df 3c 3b bf 95 3c
       -0.026036551 0.0036787514 0.027252052 0.018279662
000350 30 02 63 3b 57 f1 55 bc 6a 15 7b bc a4 52 1c 3b
       0.0034638755 -0.013058028 -0.01532493 0.0023852969
000360 34 1a 79 bc 99 ed 01 3d 81 90 57 ba bc cb b5 bc
       -0.015204001 0.03172073 -0.0008223132 -0.022191875
000370 60 d5 b5 3b 04 ae 01 bd 92 2d a3 3c 9c 65 f4 3c
       0.005549118 -0.031660095 0.01991919 0.029833607
000380 9b 37 16 bc a2 08 3d 3c c5 4c d6 ba b8 b2 5f bc
       -0.009168531 0.011537703 -0.0016349783 -0.01365345
000390 56 fb fb 3c 98 12 19 3d 20 eb bb bc 44 74 bd bc
       0.030759495 0.037371248 -0.022939265 -0.023126729
0003a0 c5 c9 f5 3b af b9 03 bd cb 37 27 bd be 85 cc bc
       0.0075008594 -0.032159504 -0.040824693 -0.024966117
0003b0 cd 1b bb 3c 4a d9 a2 3c cc d0 81 3c 06 5e 20 3d
       0.022840405 0.019879002 0.015846632 0.039152168
0003c0 db 5f b8 3c ec 77 c8 bc 4d 57 93 bc fb 3d be 3c
       0.022506645 -0.024471246 -0.017985964 0.023222914
0003d0 a3 be e0 39 8e d8 03 3d a7 c1 83 3c 12 0a f2 bc
       0.00042866645 0.032188945 0.016083552 -0.029545818
0003e0 d7 6a c6 3c dc c1 1d bd ca 15 b0 bc 68 b7 a5 bc
       0.024220867 -0.038514957 -0.021494765 -0.020229056
0003f0 ca a8 c7 bb dd d2 89 3c 6e 7f 6d 3c 04 93 e1 3b
       -0.0060931193 0.01682418 0.014495714 0.0068839807

features.7.bias f4 [64]
000000 ef 85 65 bc 59 e9 b2 bc 7e 40 29 bc 4d 39 0c bd
       -0.014008983 -0.021839784 -0.010330318 -0.034234334
000010 29 1c a9 3c e9 31 82 3c 57 b5 8c 3c c5 e8 53 3d
       0.02064331 0.01589294 0.017176313 0.05173566
000020 f3 32 6a 3c 4d ce 2f bb 61 e4 bd bb d4 cc 21 3c
       0.014294374 -0.0026825846 -0.005795047 0.009875495
000030 56 4e 95 bc 54 83 e3 bc 9c f7 84 bb d6 bd 4d 3d
       -0.01822583 -0.027772583 -0.0040578377 0.05022987
000040 a4 1c 30 3c 59 bf 8c bc 9b b4 ba bc 6f 61 1b bd
       0.010749016 -0.017181085 -0.022791198 -0.037934717
000050 9b ff d8 bb b6 cc 2e 3d 34 14 cf 3b e6 69 1b bb
       -0.0066222674 0.042675696 0.006319547 -0.0023714243
000060 e6 1a fb bc 11 f7 b6 3c a0 b5 f3 bc 11 7c c1 bc
       -0.030652475 0.022334607 -0.029749691 -0.02361873
000070 a3 54 fa 3c 80 2d 15 bd 1b 3e a0 bb e0 f8 0b bc
       0.030557936 -0.036420345 -0.004890216 -0.008543223
000080 63 a3 c0 3c b0 c8 0c bb ed 5b cd 3c 52 56 dc 3b
       0.023515409 -0.0021481924 0.025068248 0.0067241574
000090 07 98 ef 3c 6b b4 06 bd 6e f9 6d bc a9 85 10 3d
       0.029247297 -0.032886904 -0.014524801 0.03528372
0000a0 a1 3a 0d 3d f2 44 12 bc 9f 03 6d ba 66 86 81 bc
       0.03447974 -0.008927571 -0.0009041372 -0.015811156
0000b0 2b 51 1f 3d 52 f0 28 bd 5b e8 36 bc 54 79 d9 bc
       0.038895767 -0.041244812 -0.011163796 -0.026547112
0000c0 73 f9 03 3d e9 8d 25 3d 0c d1 00 bc 60 60 d8 3c
       0.032220315 0.04041854 -0.007862341 0.026413143
0000d0 58 8e 36 bd aa e4 1f bc 12 54 26 3c 27 1d 14 3b
       -0.044569343 -0.009759108 0.01015188 0.0022600384
0000e0 b0 b3 48 3d 6c ad 12 bd 90 d8 07 bd 1f e8 15 bd
       0.04899949 -0.03580992 -0.033165514 -0.03659832
0000f0 de 68 e7 3c e5 76 f4 3c df 18 2e 3b 37 b5 19 3d
       0.028248247 0.02984185 0.0026565117 0.037526336

features.10.weight f4 [64, 64, 1, 1]
000000 fa 32 29 3d 43 c6 07 bd 55 09 cd 3c 8e e0 c1 bd
       0.04130838 -0.03314806 0.025028864 -0.094666585
000010 e8 fa d8 3a 57 b0 88 bc 93 95 31 3d 91 4e e8 bd
       0.0016554268 -0.016685648 0.043355536 -0.1134311
000020 40 0f 5e 3d 25 7d b1 bb b6 44 07 3e c2 4a c4 bd
       0.054213762 -0.0054165297 0.13209805 -0.095845714
000030 d6 f5 0e bb 38 e7 c6 bc 8d 16 f8 3d d4 a0 aa 3c
       -0.002181401 -0.024280176 0.12113676 0.020828642
000040 0c b0 e8 3d b9 d6 83 3d 4e bf eb bc 9a 89 92 bd
       0.11361703 0.064374395 -0.028777745 -0.07155152
000050 51 34 ac 3d 7d 0c dc bd bf 57 9c 3a e6 5f f6 3d
       0.08408416 -0.107445695 0.0011928006 0.1203001
000060 57 15 57 bc 25 51 39 3d 6d d0 6a 3d 0d 3e 67 3c
       -0.013127646 0.0452434 0.057327677 0.014113915
000070 f4 a2 f4 3c 35 10 99 3c 28 59 a5 bd 76 28 c5 3d
       0.029862858 0.018684486 -0.08073646 0.09626858
000080 3f ed 00 3d 73 d9 ab bd f7 6a 87 3d 07 e2 c9 bc
       0.031476256 -0.083910845 0.06612199 -0.024643911
000090 db 13 e4 bc 1e 23 b0 34 d1 94 ac bd bb ab 9e 3b
       -0.0278415 3.2808106e-07 -0.08426822 0.004842249
0000a0 28 7b 41 3d 56 13 52 3c d1 e8 0a ba b4 c5 48 bc
       0.04723659 0.012821993 -0.00052989746 -0.012254167
0000b0 17 7b 6b 3d 4e 10 96 3d 1d 85 30 bd 22 b5 35 3c
       0.057490434 0.073273286 -0.043095697 0.011090549
0000c0 57 4b ce 3d 41 1c 01 3e 22 c8 94 3c 71 88 68 bd
       0.10072964 0.12608434 0.018161837 -0.056770746
0000d0 c2 0a a1 3d 32 55 a2 3c 64 01 05 3e 8f d5 78 bc
       0.0786338 0.019816015 0.12988812 -0.015187635
0000e0 fe 1d b7 3d ab 18 8d bc 9a b7 ba bc 56 94 c9 3b
       0.089412674 -0.017223677 -0.022792626 0.006151716
0000f0 96 ce 98 3d a0 eb 00 3d f0 7d e7 bd 98 79 ec 3c
       0.07461278 0.03147471 -0.113033175 0.028866574
000100 38 45 54 3c bd ad a1 bd 2c 06 15 bc 7e c5 80 bd
       0.012955956 -0.07894466 -0.00909571 -0.06287669
000110 47 fe 3d 3d fc 22 a4 3c 57 56 87 96 a4 7e 46 bc
       0.046385076 0.020036213 -2.1864914e-25 -0.012115154
000120 96 4e 32 3d e9 e4 3e 3c 2b 1f a1 3d f4 c5 02 be
       0.043531977 0.011651256 0.07867273 -0.12770826
000130 f7 dc 17 a5 dd 56 f8 bd 02 4d e8 bd ff 34 d1 3d
       -1.3172028e-16 -0.12125943 -0.11342813 0.10215186
000140 df 4a d2 3d 98 8b b4 bc 17 1d 62 bd 20 3a 3f 3d
       0.10268187 -0.02203922 -0.055203523 0.04668629
000150 e8 90 2a bd dd 6c 12 3d 82 22 6c bc f8 66 db bd
       -0.0416421 0.03574835 -0.014412524 -0.10712999
000160 09 0b 35 3d 3a 55 b7 bd 59 56 00 bd 10 89 b3 bd
       0.044199977 -0.089518026 -0.031332348 -0.08766377
000170 6f 79 b9 3d 94 f3 67 bc 20 8d 0d bd 41 27 9b bd
       0.09056365 -0.014157195 -0.034558415 -0.075758465
000180 e6 10 b7 3c a3 6d 58 3d 38 d1 79 3c 2b d8 86 3d
       0.022346925 0.052838933 0.015247636 0.065841995
000190 49 2e 6b 3b fd a4 c6 bb c0 9c 76 bd 4f 2b b4 3d
       0.0035885742 -0.0060621486 -0.060208082 0.08797323
0001a0 bc 51 8a 3d 37 43 5b 31 cf c9 4d 3d 12 d2 3e 3c
       0.06753871 3.1906902e-09 0.050241288 0.011646764
0001b0 4b a7 b9 bd 5b 72 1d bd 0b 49 58 3c 9a 7e 55 bd
       -0.09065112 -0.038439136 0.013201009 -0.05212269
0001c0 46 62 dd bd 75 df 29 3d 1e c3 84 b9 24 33 a5 bc
       -0.1080976 0.04147287 -0.00025322376 -0.020165987
0001d0 1f 05 51 3c 52 10 08 3a ff 6c 01 bd fb 2a cc 3d
       0.012757569 0.000519042 -0.031598087 0.099691354
0001e0 3c 95 5c bd f3 03 b1 ba a4 26 ac 3d b1 cd 0c 3c
       -0.05385326 -0.0013505205 0.084058076 0.0085939625
0001f0 32 d2 4b bb d4 7a aa bd 29 70 30 3d 6b 29 66 3d
       -0.0031100628 -0.08324209 0.043075714 0.056191843
000200 48 d4 cb 3c 05 96 80 3d f9 5c 9c bb cc 9a a3 bd
       0.024881497 0.06278614 -0.0047718254 -0.079885095
000210 26 c8 7c bd 23 d5 c2 3b 91 6a a2 3b 66 92 c3 bd
       -0.061714314 0.005945818 0.0049565514 -0.09549408
000220 7e fe 0a 3d c0 a0 23 3a ab 8a 94 bc d4 95 d4 3d
       0.03393411 0.000624191 -0.018132528 0.1038014
000230 87 a2 ef 3d 9c 4a eb ba 42 7e 6b 3b db 9b e7 3d
       0.117009215 -0.0017951312 0.003593341 0.11309024
000240 c9 11 90 bd 3c 12 bb bd e0 fc da bd 33 79 8f bc
       -0.07034642 -0.09134337 -0.10692763 -0.017513847
000250 fb 18 c0 3c 60 9d 2a bd 06 17 49 3b 5c 64 66 3d
       0.023449412 -0.04165399 0.003068389 0.056248054
000260 db aa 5d bd 54 2a 34 3b 7a c5 fa 3c 91 8e c6 bd
       -0.05411802 0.002749105 0.030611742 -0.09695161
000270 32 cf d7 3c 35 16 b2 3d 13 6d 35 3d bd 99 d4 3d
       0.026343916 0.08695642 0.044293474 0.10380886
000280 70 90 19 bd 0e 91 e1 bd c9 e5 89 3d 77 89 be bd
       -0.037491262 -0.11013995 0.06733281 -0.09303563
000290 bf 16 a3 3c 41 96 fe 84 14 fc 16 bd 94 12 f7 3d
       0.019908307 -5.98531e-36 -0.036861494 0.1206409
0002a0 d4 7f d3 bd 27 0e 1d 3b 47 25 51 bc 9e e6 55 bd
       -0.10327116 0.0023964734 -0.012765235 -0.052221887
0002b0 5f 0a fd 3c 7d 87 76 bc c3 8f 32 3c 3d 9c 9f bd
       0.030888734 -0.015046951 0.010898533 -0.07793472
0002c0 28 8e 13 3c 31 d0 00 be 45 86 ac bc d8 63 49 bd
       0.009006061 -0.12579419 -0.021060118 -0.049167484
0002d0 02 b4 d8 3d 0b 51 ab 3c 7d 39 a6 3c 8f 5b d5 3d
       0.10581209 0.020912668 0.020291084 0.10417854
0002e0 b2 2f 9a 3d b5 5f a2 bb a9 64 9e bd 97 0a b9 3d
       0.075286284 -0.004955257 -0.07734043 0.09035223
0002f0 01 37 d5 3d 2e 3b ae 3d 66 c6 7a bd 58 76 e2 bd
       0.10410882 0.085073814 -0.061224364 -0.110577285
000300 eb ac 19 3d 39 ff 16 bd 2c f2 7b bc 96 14 37 bc
       0.037518423 -0.036864493 -0.0153775625 -0.011174342
000310 fe 42 b6 3d 49 e3 6c bd f1 ac 8a 3b f4 7f 1c 3d
       0.088994965 -0.057833944 0.004232042 0.038207963
000320 9f 9a ce bd 91 8b 29 b5 70 cc ee 3d 08 44 f2 3b
       -0.100880854 -6.31605e-07 0.11660087 0.007393364
000330 97 52 3a 3d 0b 86 cb bd 18 bd 5e 3d af 22 28 3d
       0.04548892 -0.09937676 0.054379553 0.0410487
000340 d3 e9 a6 bc 9a 26 ff 3c 0b e6 d6 3c 1b 3c dc 3d
       -0.020375168 0.031146336 0.02623274 0.10753652
000350 34 f2 eb 3c b8 41 b4 bd 64 72 19 b8 2f 87 d1 3d
       0.028802015 -0.08801597 -3.6584577e-05 0.10230862
000360 71 75 b0 bd 70 71 ca 3d 4d 35 d6 bd 05 1c cf bd
       -0.0861615 0.09884918 -0.10459385 -0.10112766
000370 ec 09 6a bd 9b a8 3f bd ee ca 59 3d 99 3c 87 bd
       -0.05713837 -0.046791654 0.053172044 -0.06603355
000380 89 0c a9 bd 73 9a b8 bd 5d 41 a1 ba e8 50 da bd
       -0.08254344 -0.09013834 -0.0012302805 -0.10659963
000390 9b d0 3b 3c d1 a5 d1 33 fd dd e2 bd d2 68 9d 3d
       0.01146331 9.762483e-08 -0.11077497 0.076860085
0003a0 3c 34 ae bd c9 16 33 39 16 1e 1e bd 37 c1 df 3c
       -0.08506057 0.00017079258 -0.03860291 0.027313812
0003b0 fa f0 a9 3d d1 fc a2 3d 29 5d ab bd 0b 28 1d 3c
       0.08297916 0.07958377 -0.08367378 0.0095920665
0003c0 9b e9 d8 3c 14 9d d9 bd 32 70 b3 3d f9 18 c9 3d
       0.02647858 -0.106256634 0.08761634 0.09819216
0003d0 15 94 5d 3d 0f 25 00 3b 5c 6c 58 3c 31 4c b9 3c
       0.0540963 0.0019553339 0.013209429 0.022619339
0003e0 20 fe cf 3c 60 47 01 33 0d 6f 39 bc 41 ed 45 39
       0.02538973 3.0100068e-08 -0.0113179805 0.00018875768
0003f0 75 56 8a bd d8 2e a6 3d 8c 49 d2 3c 40 84 b3 bd
       -0.067547716 0.081144035 0.025669836 -0.08765459

features.10.bias f4 [64]
000000 e7 ff ea bd 56 2e af bd 24 57 3d 3d dd 13 a8 3d
       -0.11474591 -0.0855376 0.046225682 0.082069136
000010 e1 98 fb 3d 25 52 44 99 79 07 c4 3d 82 0e b0 3d
       0.12285019 -1.01495515e-23 0.09571738 0.08596517
000020 4d b1 20 3d 42 f7 4c bd f9 16 fb bd 81 d8 fa 84
       0.039231587 -0.05004049 -0.12260241 -5.8973545e-36
000030 35 4c ad bd 14 ac eb 3d fa 25 fe 3d 90 42 e5 bb
       -0.08461801 0.11507431 0.12409587 -0.0069964603
000040 31 32 6c bc fb 45 45 bd 16 7a e2 3d 9f 2d 99 bd
       -0.014416263 -0.04816244 0.11058442 -0.07479405
000050 65 31 99 3d aa e9 93 bd c2 af a6 3c dc 4e ac 3d
       0.074801244 -0.07222302 0.02034748 0.08413479
000060 fa 88 87 3d 0c 1f b1 3d e5 e0 a9 bc f8 8d 6e 3d
       0.06617923 0.086485 -0.02073712 0.05824086
000070 73 6c bd 3c a5 30 81 3d 88 62 db bd c2 39 75 3d
       0.023123002 0.06308106 -0.10712153 0.059869535
000080 14 bb bb 3d 71 8b 3d bc af 74 38 bc ff 31 02 3d
       0.09166542 -0.01156889 -0.011258288 0.03178596
000090 a6 74 44 3d 4c 3b 2c 3d 70 74 e3 3d 5e 2c f4 bd
       0.047962807 0.042048737 0.11106193 -0.11922525
0000a0 7b c5 86 bd 4e 59 7c 3d de 60 5d 3d 9c da 9a bc
       -0.06580635 0.061608605 0.054047458 -0.01890307
0000b0 ed 1e af bd 94 b8 9a bd e0 82 1a bc 1c 9a cb 3d
       -0.085508205 -0.07554737 -0.009430617 0.099415034
0000c0 07 6d 64 bd fa 63 b0 bb 72 52 c1 3d 39 ce 9e 3d
       -0.05576804 -0.005383012 0.09439553 0.077541776
0000d0 8c 2e 89 3d 62 cd 5e bd ad a8 75 bd 70 70 9a bd
       0.06698331 -0.054395087 -0.059975315 -0.07540977
0000e0 93 6b b6 3d eb ba d6 3d 01 3f 1f 3d 06 0b 1a bd
       0.08907237 0.104848705 0.038878445 -0.03760817
0000f0 a7 15 01 3e 64 a2 d4 3d c5 e3 4f 3d d8 7f de 3d
       0.12605916 0.10382536 0.050754327 0.10864228

classifier.0.weight f4 [3, 64]
000000 d0 a3 38 3d 51 64 d1 bc af 86 04 bd fd 11 3a 3d
       0.0450781 -0.02556053 -0.032355007 0.04542731
000010 f8 34 68 3a 37 30 d1 2b 0c 25 5e bd f5 d4 fb bd
       0.00088579906 1.4863725e-12 -0.05423455 -0.12296478
000020 f5 8c 26 3c 52 5b 2c bc e7 5f a6 bd c1 4f b5 2f
       0.010165443 -0.010519819 -0.08123761 3.2980377e-10
000030 5a f3 1c 3d be 59 a1 bd 84 ff 89 3d 4f ac 26 bd
       0.038318016 -0.07878445 0.06738189 -0.04069167
000040 1a ce 33 3d 42 ad e4 3d c3 3e eb 3d 3c a2 48 bb
       0.043897726 0.11165859 0.1148658 -0.0030614277
000050 ba 6f e9 bd 6a 14 b9 bd 22 02 a7 bc c8 a4 78 bd
       -0.11398263 -0.09037097 -0.02038676 -0.060704023
000060 48 95 d3 bd 09 ff 04 3e bb 7a 97 3b bf 6d aa 3c
       -0.103312075 0.12987913 0.004622785 0.020804284
000070 cf 16 93 3d db bf 90 bd 79 3e 23 bd a2 14 ae bc
       0.07182085 -0.070678435 -0.0398545 -0.021250073
000080 1b 6e 54 3d 0e bd d5 b4 92 2c 98 3c 32 51 08 3e
       0.051862817 -3.9811897e-07 0.01857594 0.13312224
000090 24 08 e4 3d 86 44 41 bd 5a 80 59 3d 0a 5d 08 bd
       0.11134365 -0.04718449 0.05310092 -0.033291854
0000a0 e9 6f fc 3d 10 43 1f 3d 9a 12 86 3d c7 d7 ef 36
       0.12326033 0.038882315 0.06546517 7.147875e-06
0000b0 7e de 77 3b d4 49 a0 bd 79 26 44 b8 f0 92 fa 3d
       0.0037821825 -0.078265816 -4.6765872e-05 0.12235057
0000c0 a6 60 d5 bb de d1 d6 20 af 1c 8f 3d 88 9f a5 bd
       -0.0065117655 3.6391889e-19 0.06987893 -0.08087069
0000d0 61 b2 4d bc 6a fc ad bb 13 3b c9 bd 62 f1 ea 3c
       -0.012554736 -0.005309631 -0.09825721 0.028679553
0000e0 fd 46 80 3d 74 f1 03 3d 6b d4 8c 3d b5 45 c4 3d
       0.0626354 0.03221269 0.06876453 0.09583608
0000f0 e6 e5 b9 bd 39 d8 a4 bc 10 60 08 3c 4b a4 75 bc
       -0.09077053 -0.020122634 0.008323684 -0.014992784
000100 92 9d 02 3d a8 e7 de bc 07 7e e9 3d ae f4 61 3d
       0.031888552 -0.027210072 0.11400991 0.055164985
000110 25 7b 8a 3d f1 7e c3 bb fd 2c ec bb 31 a2 af bd
       0.06761769 -0.0059660603 -0.0072075115 -0.085758574
000120 81 8c 1c bd 58 ac 68 bd f7 ef d6 bd 3e 7f dc 3a
       -0.038219932 -0.056804985 -0.104949884 0.0016822589
000130 c2 1a 90 bd 08 e6 00 3e cc 17 e4 bd fc d0 fb 3d
       -0.07036354 0.1258775 -0.111373514 0.1229572
000140 02 16 a9 bc d4 6a 3d bc 4b f3 44 bd 64 18 b6 bb
       -0.020640377 -0.011561114 -0.048083585 -0.005557107
000150 f1 6b 9d bd c9 ee 5f 3b ac b4 63 bc 03 a8 13 bd
       -0.07686604 0.0034169427 -0.013898056 -0.0360489
000160 8a c8 56 bd 27 fe 38 3d f7 52 f9 39 aa aa cb bc
       -0.052437343 0.045164254 0.00047554795 -0.024861652
000170 83 9b 42 3d b8 20 fc bd 92 b8 b8 3d bf 40 87 3d
       0.04751159 -0.12310928 0.09019579 0.06604146
000180 d3 67 e7 3d 11 d6 32 3b fe b7 26 b3 47 36 9c bc
       0.112991 0.0027288238 -3.8817227e-08 -0.01906885
000190 67 2e 9a 3c c5 a4 f7 3d 0f 62 0e 3e 8e 0a 5c bc
       0.018820954 0.12091974 0.13904594 -0.013430251
0001a0 e4 5b 56 bd be 5f e0 3d 39 ed df bd e1 41 fa 04
       -0.052333727 0.109557614 -0.109339185 5.8835218e-36
0001b0 1c 25 7a bd 5c 67 ec 3d 7f 84 1a b8 42 90 93 3c
       -0.061070547 0.11543152 -3.6839858e-05 0.018013123
0001c0 ba 61 eb 3d 71 f8 7d 3c 59 f1 71 bc 7f 21 91 3d
       0.11493249 0.015501128 -0.014767014 0.07086467
0001d0 45 11 b7 bd 1c c5 b7 bc 22 01 ec 3d 94 d3 9b 3d
       -0.08938841 -0.022432856 0.115236536 0.07608715
0001e0 11 9c 5a bd 30 f9 ac bd ba f0 c6 3c 56 a2 20 bc
       -0.053371493 -0.08445966 0.02428471 -0.009804329
0001f0 a0 1f 1d 3d fa 11 a1 3d 6b e6 42 bd f5 3f dd bc
       0.038360238 0.07864757 -0.047583025 -0.027008036
000200 e0 e9 c7 bb 1d f1 13 bd 8b ff f2 3d e2 55 57 bb
       -0.006100878 -0.036118615 0.11865147 -0.0032857587
000210 2b 2b 7a bd 82 cb c2 3b 64 d0 5a 3d 6f 95 a4 ba
       -0.061076324 0.00594467 0.053421393 -0.0012556742
000220 52 7b ab bd 8b 0c 13 bd df 32 55 3d e3 ed 11 3c
       -0.08373131 -0.035900634 0.052050468 0.008906814
000230 9d 6c b5 3d b0 bc 3b bd 37 7e e0 3d 32 01 ab bd
       0.08858607 -0.045834243 0.109615736 -0.08349837
000240 3f 86 8f bc b7 89 3d bd b9 2f bf bc bc 45 55 bd
       -0.017520068 -0.046273913 -0.023338186 -0.052068457
000250 6e 66 56 3d 67 76 d1 bc 6d 79 b0 bd 90 f4 c8 3c
       0.05234378 -0.025569154 -0.0861691 0.024530679
000260 78 e2 26 3d 1c 1f 65 bd f0 0d c3 39 26 ea 48 3d
       0.04074332 -0.05593787 0.00037203683 0.049051426
000270 1b 82 a1 bd 43 8a 0b bd 24 38 36 3d 86 4c c7 bd
       -0.07886144 -0.034067404 0.044487134 -0.097313926
000280 64 73 a5 bd 81 00 a8 a1 d2 8a 62 bb 56 ea bd bd
       -0.0807865 -1.1384256e-18 -0.0034567607 -0.09273212
000290 d5 d5 c0 bd 10 56 43 3d 67 94 da 3d ea 19 c2 3d
       -0.09415785 0.047689497 0.10672837 0.09477599
0002a0 7e db 5c 3c dd 10 f4 3d 5f 17 03 3d e4 8f 30 3b
       0.013480065 0.11917279 0.03200471 0.0026941234
0002b0 01 bc 10 bd 00 df a8 bd 38 70 99 bb 17 b0 f8 3d
       -0.035335544 -0.08245659 -0.004682567 0.121429615
0002c0 56 bc f8 bb ea 2a 9d 3c 29 42 e2 bd cd 16 02 be
       -0.007590811 0.019185502 -0.11047775 -0.1270401
0002d0 96 53 d2 bd c9 b0 2d bb b2 88 57 bd 44 97 56 bd
       -0.10269849 -0.0026503077 -0.052620597 -0.052390352
0002e0 10 bf 41 bd b7 07 9d 3d 7d 4f 4a 3d 84 02 e4 bd
       -0.047301352 0.07667487 0.049392212 -0.11133292
0002f0 84 0f b6 bd a1 4f ec bd 6b 1b a0 3d e1 3e df bd
       -0.08889678 -0.115386255 0.078177296 -0.10900665

classifier.0.bias f4 [3]
000000 d1 8b ed 3d e8 61 2f 3d 02 44 a7 3d
       0.115989335 0.04281798 0.08167268
