benchmark_experiment/experience_1_30_epochs/model_experience_1.pth (torch, 854210 bytes, 36 tensors)

features.0.weight f4 [32, 3, 3, 3]
0	0xbd914da1	-0.07094885
1	0x3e1cf76b	0.15328757
2	0x3dfa7bda	0.12230654
3	0x3e247d97	0.16063534
4	0xbe0020e6	-0.1251255
5	0x3c60d347	0.013722247
6	0xbd1f93e3	-0.038959395
7	0x3d876652	0.06611313
8	0x3e2c510a	0.16827789
9	0x3d9113c5	0.07083849
10	0xbe3b23e3	-0.18275408
11	0x3d4ed2b4	0.05049391
12	0x3e14b327	0.14521466
13	0xbd29bbee	-0.04143899
14	0xbdf9d5c1	-0.121989734
15	0xbc6699c9	-0.014074751
16	0xbcc87408	-0.02446939
17	0xbe081454	-0.13289005
18	0x3da0922d	0.07840381
19	0x3c6583f5	0.014008512
20	0xbdd3ec6f	-0.103478305
21	0xbe00667b	-0.12539093
22	0x3d1285d2	0.035772152
23	0xbdc2f943	-0.09520199
24	0xbd604813	-0.054756235
25	0xbdc17d83	-0.094477676
26	0xbe2985bd	-0.16554923
27	0x3e1c1f9d	0.15246435
28	0xbcc07378	-0.02349256
29	0xbcb3416d	-0.021881783
30	0xbdeab23c	-0.11459777
31	0x3dd6f16a	0.10495265
32	0xbe0badc0	-0.13640499
33	0x3e3c44a3	0.18385558
34	0xbe3be25a	-0.18348065
35	0xbde7466e	-0.1129273
36	0xbdc20cf6	-0.09475128
37	0x3d2a998e	0.041650347
38	0xbe334f05	-0.17510612
39	0x3d953a40	0.07286501
40	0xbe05df5f	-0.1307349
41	0x3dc83cc9	0.09777219
42	0x3e0138dc	0.12619346
43	0x3d9357c7	0.071944766
44	0xbde8f1ce	-0.113742456
45	0x3de8f731	0.11375273
46	0xbe321942	-0.17392448
47	0xbe4034f8	-0.18770206
48	0x3d788d16	0.060681425
49	0x3dd45128	0.10367042
50	0xbe233aaf	-0.15940355
51	0x3d10aee0	0.035323024
52	0xbda7220b	-0.0816079
53	0xbd2d5991	-0.042321745
54	0xbd3db448	-0.046314508
55	0x3e317faf	0.17333864
56	0xbd669da5	-0.056302685
57	0xbd47f16d	-0.048814226
58	0xbe24a631	-0.16079022
59	0xbda9d3d0	-0.08292353
60	0xbde8c892	-0.11366381
61	0x3e0d51ea	0.13800779
62	0x3c90a5a7	0.017657114
63	0x3d2b0971	0.04175705
64	0x3d09eca3	0.03367294
65	0x3dcf3004	0.1011658
66	0xbd3938e3	-0.045220267
67	0x3c8b7cfa	0.017027367
68	0x3e442866	0.19156036
69	0xbe0ecb64	-0.13944775
70	0x3d93eb9f	0.072226755
71	0x3cf63e9c	0.030059151
72	0xbd3b9a26	-0.045801304
73	0x3d27d6d9	0.04097638
74	0x3c51efa2	0.012813481
75	0x3df5a429	0.11994202
76	0xbe306490	-0.17225862
77	0xbccefdef	-0.02526757
78	0x3de81ffc	0.113342255
79	0x3df4e709	0.11958129
80	0xbe3a1fb4	-0.18176156
81	0x3d75bc56	0.059994064
82	0x3e361789	0.17782415
83	0xbe0a04c5	-0.13478382
84	0x3ddcc1cd	0.10779152
85	0xbe3245fe	-0.17409512
86	0x3e209021	0.15679981
87	0xbe0cc2b8	-0.13746154
88	0xbe15080d	-0.14553852
89	0xbe149fe1	-0.14514114
90	0xbd4cd0ac	-0.050003693
91	0x3a275f47	0.0006384742
92	0x3e09123c	0.13385862
93	0x3d0abd97	0.033872213
94	0xbd7b5bb0	-0.061366737
95	0xbe1887b1	-0.14895512
96	0x3b13af71	0.002253499
97	0xbe3e4319	-0.18580283
98	0xbe0f1005	-0.13970955
99	0x3dd2979c	0.102828234
100	0xbe32a2df	-0.17444943
101	0xbce34031	-0.02774057
102	0x3c0d356e	0.008618696
103	0xb9987d9e	-0.0002908529
104	0xbdd3b3c9	-0.10337026
105	0x3d00d616	0.03145417
106	0x3dcd792d	0.10032878
107	0x3d0cb700	0.03435421
108	0xbe424c8a	-0.1897451
109	0xbd8fa06f	-0.07013022
110	0x3e44ebc8	0.19230568
111	0x3c0aab62	0.008463712
112	0x3b018743	0.001976446
113	0xbc90c1f5	-0.01767061
114	0x3d4a3089	0.049362693
115	0x3e31f6c5	0.17379291
116	0x3dc985bc	0.09839961
117	0x3dfddb09	0.12395293
118	0x3e0ac268	0.13550723
119	0x3d59bbfb	0.053157788
120	0xbe03c6f4	-0.12868863
121	0x3e1298bf	0.1431608
122	0x3dc1be0b	0.09460076
123	0x3d47e777	0.048804726
124	0xbe324298	-0.17408216
125	0x3d6fc38b	0.058536094
126	0xbdd69088	-0.10476786
127	0xbd8a185a	-0.06742926
128	0x3e31bf24	0.1735807
129	0x3d27c029	0.040954743
130	0xbd85a48b	-0.06525525
131	0x3e146c7c	0.14494509
132	0xbd8ac5f9	-0.067760415
133	0xbdf470e9	-0.119355984
134	0xbdcf4e36	-0.101223394
135	0x3d6edcc9	0.058316026
136	0x3d9d496f	0.07680022
137	0x3d384de2	0.04499615
138	0xbe16cd54	-0.14726764
139	0xbe1c6732	-0.15273741
140	0xbe23ed78	-0.16008556
141	0x3d00e66a	0.03146974
142	0x3e20e2a0	0.1571145
143	0x3e2d918a	0.1695005
144	0x3e2c521a	0.16828194
145	0x3e2ab0a0	0.1666894
146	0xbe3f526d	-0.18683787
147	0x3d99b6f9	0.075056024
148	0xbd8e154d	-0.069376566
149	0xbd24e8ab	-0.040260952
150	0x3e062450	0.1309979
151	0x3e34f185	0.17670257
152	0x3cd8ef56	0.026481312
153	0xbc85fd1a	-0.01635604
154	0xbcf5c93d	-0.030003184
155	0x3db95e7a	0.09051223
156	0xbe09a9e7	-0.13443719
157	0x3d74fdb4	0.059812263
158	0x3e43cc2a	0.19120851
159	0x3dde54c4	0.108560115
160	0xbdfa5e68	-0.12225038
161	0x3de739d8	0.1129033
162	0xb7cf3e80	-2.4705427e-05
163	0x3db201c1	0.08691741
164	0x3cdc9b6d	0.026929582
165	0xbe006172	-0.12537172
166	0x3d24cf75	0.04023691
167	0x3def9ef6	0.11700241
168	0x3d955226	0.07291059
169	0xbd3e7ebe	-0.04650759
170	0xbcf3b922	-0.029751364
171	0xbb986fe0	-0.0046520084
172	0x3e1b8915	0.15189011
173	0xbe3f108f	-0.1865866
174	0x3e28b1d5	0.16474088
175	0x3e29003b	0.16503994
176	0xbe3f67dd	-0.18691964
177	0xbdd1fa84	-0.1025286
178	0xbcf185ad	-0.029482687
179	0x3d81cd82	0.06338026
180	0x3cd7a3dc	0.026323251
181	0xbdaaa132	-0.08331527
182	0xbbbdde69	-0.0057943356
183	0xbc9d25ee	-0.019183125
184	0x3e047a1a	0.12937203
185	0x3dcc5ff9	0.09979243
186	0xbd854475	-0.06507198
187	0xbb2dece0	-0.0026538894
188	0x3e3ff4a3	0.18745665
189	0x3d665bc4	0.05623986
190	0x3e0315ca	0.1280128
191	0xbe0b011a	-0.13574639
192	0x3c7ca0a1	0.015419156
193	0xbce08aeb	-0.027409991
194	0x3dfb7454	0.12278047
195	0x3d3d436b	0.046206873
196	0xbd99e767	-0.075148396
197	0xbab8b974	-0.0014093355
198	0x3e2c7919	0.1684307
199	0xbd04e5a5	-0.03244557
200	0x3e17653d	0.14784713
201	0x3d6c7cdf	0.057736274
202	0xbdd0330c	-0.101659864
203	0x3d79e0c7	0.06100538
204	0x3d9a33f8	0.075294435
205	0x3e2e7cae	0.17039749
206	0x3e1f5422	0.15559438
207	0xbe084331	-0.13306881
208	0x3ccaa5d0	0.024737269
209	0x3dd99d09	0.10625655
210	0x3e048dd8	0.12944734
211	0x3cb7a5a9	0.02241786
212	0x3dac6020	0.08416772
213	0xbcb7c828	-0.02243431
214	0xbc9167b2	-0.017749641
215	0xbd39af4b	-0.045333188
216	0xbda8a85b	-0.08235236
217	0xbe39ba31	-0.18137433
218	0xbbec06ef	-0.007202975
219	0xbe0e884d	-0.13919182
220	0xbdb7f2f0	-0.089818835
221	0xbd5bc9cf	-0.053659257
222	0x3e06a536	0.1314896
223	0xbce16096	-0.027511876
224	0x3e213a67	0.15744935
225	0x3dfcbd53	0.12340798
226	0x3c9200b3	0.017822599
227	0x3de4f98a	0.11180408
228	0xbba74856	-0.0051050587
229	0x3ddd75b0	0.10813463
230	0x3d652550	0.055943787
231	0x3da6fc16	0.0815355
232	0xbc5410b4	-0.012943435
233	0x3de93fcd	0.11389122
234	0xbdbae9d9	-0.09126634
235	0xbccf86fd	-0.025332922
236	0xbe29ded2	-0.16588905
237	0xbe1fc110	-0.15600991
238	0xbe1adcf4	-0.1512335
239	0xbe17b080	-0.14813423
240	0xbc800b4d	-0.015630389
241	0xbe0e96cb	-0.1392471
242	0xbd363322	-0.044482358
243	0xbd26b423	-0.040699136
244	0xbd9978c9	-0.07493741
245	0xbd81c43a	-0.06336255
246	0xbcece53c	-0.028917901
247	0x3de016ed	0.10941873
248	0xbdf6ff75	-0.12060443
249	0x3de9c1cd	0.11413918
250	0x3dfa85c2	0.122325435
251	0x3d40a794	0.047034815
252	0x3e3b9cbc	0.18321508
253	0x3e4411cb	0.19147412
254	0xbdb7e0dd	-0.08978436
255	0x3e098df5	0.13433059

features.0.bias f4 [32]
0	0x3d388ecd	0.04505806
1	0xbd5c1fd3	-0.053741287
2	0x3ddca402	0.107734695
3	0x3db5fe09	0.08886344
4	0xbe3f85a9	-0.18703331
5	0x3e2b8446	0.16749677
6	0x3e242863	0.16031031
7	0x3e408776	0.18801674
8	0x3d6977a5	0.056998868
9	0xbdc46da4	-0.09591225
10	0xbd07c963	-0.03315104
11	0xbd417cb4	-0.047238067
12	0x3e324201	0.17407991
13	0x3deafba9	0.114737816
14	0x3e3442de	0.17603633
15	0xbe009cfe	-0.12559888
16	0xbd29987c	-0.041405186
17	0xbd815d9b	-0.06316682
18	0xbcbeca82	-0.023289923
19	0xbda494b6	-0.08036177
20	0x3d47f70e	0.048819594
21	0xbd3102d0	-0.043215573
22	0x3e455aea	0.19272962
23	0x3e3691aa	0.17829004
24	0x3ca435aa	0.02004512
25	0x3c0ecdfa	0.008716101
26	0xbd5f80bf	-0.05456614
27	0xbe33544f	-0.1751263
28	0x3d242624	0.040075436
29	0x3d420a82	0.047373302
30	0x3e3fb917	0.1872295
31	0xbdbc07db	-0.09181186

features.2.weight f4 [32, 32, 3, 3]
0	0xbcbc657c	-0.02299761
1	0x3d6b84bc	0.057499632
2	0xbd41a918	-0.0472804
3	0xbc7ed17e	-0.0155528765
4	0x3d2b6e26	0.041853093
5	0xbd2dd7f1	-0.042442266
6	0xbc2a6f12	-0.010402458
7	0x3d60d95e	0.054894798
8	0xbd52e364	-0.051486388
9	0x3c8c1e61	0.01710433
10	0xbd16b81e	-0.03679668
11	0x3d284034	0.041076854
12	0x3d12b376	0.03581568
13	0xbd5401c8	-0.05175951
14	0xbc422814	-0.011850376
15	0x3d412623	0.04715551
16	0xbd23b006	-0.03996279
17	0xbc888a60	-0.016667545
18	0x3a815796	0.0009868022
19	0x3c89904f	0.016792445
20	0x3c9750d6	0.018471163
21	0x3d6b57f0	0.05745691
22	0xbcbb9ec6	-0.022902858
23	0x3d31d4ba	0.043415762
24	0x39d29f96	0.00040173222
25	0x3d58dd59	0.05294547
26	0x3d39ae23	0.045332085
27	0xbd55e2f3	-0.05221839
28	0x3bd66054	0.006542245
29	0xbc204602	-0.009782316
30	0x3d340857	0.043953266
31	0xbc8866a2	-0.016650502
32	0xbcd8118c	-0.026375555
33	0x3d654e7f	0.055983063
34	0xbd6c0e3d	-0.057630766
35	0x3d406db4	0.04697962
36	0xbd378b20	-0.044810414
37	0x3cc673a4	0.024225064
38	0xbbd46c10	-0.0064826086
39	0x3c104bc6	0.008807128
40	0xbd17746f	-0.036976274
41	0xbbbf6e0e	-0.005841977
42	0x3d5524ee	0.052037172
43	0x3d208079	0.03918502
44	0x3cb3057d	0.021853203
45	0x3ce73dd4	0.028227724
46	0x3c146625	0.009057556
47	0x3bfef747	0.0077809426
48	0x3c46551a	0.012105251
49	0xbd495eb6	-0.04916259
50	0xbd70164c	-0.058615014
51	0x3c94e17c	0.018173926
52	0xbd0e2d8c	-0.034711406
53	0x398e4b6e	0.0002714055
54	0x3d26752a	0.04063908
55	0x3cb4fa08	0.02209188
56	0xbd27afa0	-0.040938973
57	0xbaee8e5b	-0.0018200384
58	0x3c80accf	0.015707402
59	0xbccebf32	-0.025237653
60	0xbd2db468	-0.042408377
61	0x3c61ebe4	0.013789151
62	0xbd71bace	-0.05901604
63	0xbb939bee	-0.0045046723
64	0x3cc85e57	0.024459047
65	0xbd053e4e	-0.03253012
66	0x3d4a77a5	0.04943051
67	0xbd2b4e61	-0.041822795
68	0xbd3759d4	-0.0447634
69	0x3cdaf505	0.026728163
70	0x3bcc426d	0.0062335045
71	0x3d3ab9ed	0.04558747
72	0xbd58ac8c	-0.05289893
73	0x3cf516cc	0.029918097
74	0xbd421224	-0.04738058
75	0x3d52f2df	0.05150115
76	0xbcbab4fb	-0.022791376
77	0xbcdc1fa6	-0.02687056
78	0xbd49012a	-0.049073376
79	0x3b3da489	0.0028937182
80	0x3c9f59fa	0.019452084
81	0xbd0ef075	-0.034897286
82	0xbca9de98	-0.020736024
83	0xbc6e76b5	-0.014554669
84	0xbd354382	-0.044253834
85	0xbce55fce	-0.027999785
86	0x3d10aaa5	0.03531899
87	0x3cc69344	0.024240144
88	0x3b8de7c2	0.004330606
89	0xbd52f321	-0.051501397
90	0x3d6ba595	0.05753096
91	0x3d3d7bf2	0.04626078
92	0x3cdbef04	0.02684737
93	0x3d678c98	0.056530565
94	0xbbb73f68	-0.0055922754
95	0xbc55c976	-0.01304852
96	0x3cdd9d75	0.02705262
97	0x3ca856c0	0.020549178
98	0x3d1c472c	0.038153812
99	0x3cdbe299	0.026841449
100	0x3b6bf470	0.003600385
101	0xbce0052f	-0.027346222
102	0xbcd9ebbb	-0.026601663
103	0x3d2d4376	0.042300664
104	0xbd10c2c0	-0.035341978
105	0x3d036ecf	0.032088097
106	0xbba9466a	-0.0051658647
107	0x3d32d7aa	0.043662705
108	0xbd0dc31e	-0.034609906
109	0x3c872822	0.016498629
110	0x3d631824	0.055442944
111	0x3ce1b890	0.027553827
112	0xbd590ada	-0.052988864
113	0x3d41afd3	0.04728682
114	0x3d59aa1e	0.053140752
115	0x3c8c9976	0.01716302
116	0x3c717be2	0.014739009
117	0x3c5494a6	0.012974894
118	0x3a4004aa	0.0007324914
119	0xbc9d27e0	-0.019184053
120	0xbd5c283e	-0.053749315
121	0xbca4da57	-0.020123644
122	0x3b56c398	0.0032770392
123	0xbbf68bf0	-0.007524006
124	0x3c35f86a	0.01110659
125	0xbc34b080	-0.011028409
126	0x3c88355d	0.016627008
127	0x3cdbcf74	0.02683232
128	0x3bf9cd87	0.0076233777
129	0xbd1605c6	-0.0366266
130	0xbd70f58c	-0.05882792
131	0x3d3afb02	0.045649536
132	0x3d146e4b	0.036237996
133	0x3bfdc90d	0.0077449144
134	0x3d199997	0.03749999
135	0xbd105bdf	-0.035243865
136	0xbcafd224	-0.021462508
137	0xbd441b97	-0.047877874
138	0x3bcd442d	0.0062642307
139	0x3cf63ee0	0.030059278
140	0xbd3f6d3e	-0.04673504
141	0x3b944aab	0.0045255027
142	0xbaada528	-0.0013248073
143	0x3cbc04ce	0.02295151
144	0x3d341895	0.043968756
145	0xbd3d019a	-0.046144105
146	0xbb429bfa	-0.002969502
147	0x3d7054f4	0.058674768
148	0xbc01cf9c	-0.007923033
149	0xbd4f0452	-0.05054123
150	0x3cf41e73	0.029799676
151	0xbd12b6f6	-0.035819016
152	0xbd6b127e	-0.057390682
153	0xbd147490	-0.036243975
154	0xbcdb03d0	-0.026735216
155	0xbd3bf37c	-0.0458865
156	0xbc431097	-0.011905811
157	0xbd2c5812	-0.042076178
158	0xbd23b77e	-0.039969914
159	0x3c7d869f	0.015473991
160	0x3bf5e1ce	0.0075037247
161	0x3d14981b	0.03627787
162	0x3d6ad193	0.05732877
163	0x3cdfd53a	0.027323354
164	0x3d70414f	0.058656033
165	0x3b699771	0.0035643245
166	0xbb48aca2	-0.0030620475
167	0x3b412bae	0.0029475498
168	0x3bc11a50	0.0058930293
169	0x3d5bb15e	0.053635947
170	0xbd26010e	-0.04052835
171	0xbd30399a	-0.043023683
172	0xbd37b549	-0.04485062
173	0xbcb2338a	-0.021753091
174	0x3d015735	0.031577308
175	0xbcbd3120	-0.023094714
176	0xba522c63	-0.00080174784
177	0x3b336a24	0.0027376497
178	0x3d3189ae	0.043344192
179	0x3a58b574	0.0008266785
180	0xbcc0d851	-0.023540648
181	0x3b21e30c	0.002470198
182	0xbd3a0116	-0.045411192
183	0xbc89f387	-0.016839756
184	0x3c50d3d5	0.012745817
185	0xbac49f80	-0.0015001148
186	0xbd368e83	-0.044569504
187	0xbaa48b92	-0.0012553802
188	0xbc32bcd2	-0.010909276
189	0x3c152b2d	0.009104532
190	0xbc98e0fc	-0.018661968
191	0xbc24f583	-0.0100683
192	0x3ca27def	0.01983544
193	0xbccadcb3	-0.02476344
194	0xbcc018a2	-0.023449246
195	0xbd12a347	-0.035800245
196	0x3caa641a	0.020799685
197	0x3c9eb5e8	0.019373849
198	0x3d231fe6	0.039825343
199	0xbce8e40d	-0.028429056
200	0xbc835914	-0.016033687
201	0x3c0f2b68	0.008738376
202	0xbcbaa24c	-0.022782467
203	0x3c360bf7	0.011111251
204	0x3d484e6d	0.048902918
205	0x3cda9489	0.026682155
206	0xbc8a641e	-0.016893443
207	0xbce4f60a	-0.027949352
208	0x3cf53e10	0.02993682
209	0xbd22f300	-0.039782524
210	0xbc90933e	-0.017648336
211	0x3d5eadd8	0.05436501
212	0x3d428c08	0.047496825
213	0x3c29b216	0.0103574
214	0x3d6e0f2c	0.058119938
215	0xbd5ef255	-0.054430325
216	0x3c87318f	0.016503124
217	0x3c60d3de	0.013722388
218	0xbcbc0d69	-0.022955613
219	0xbd4cc437	-0.049991813
220	0x3c6716a9	0.014104524
221	0x3ad0612d	0.0015898101
222	0x3d46c3f3	0.048526715
223	0x3d1c6450	0.038181603
224	0xbd465544	-0.04842116
225	0x3c80dd35	0.01573048
226	0xbc69c6b7	-0.014268569
227	0x3d560e10	0.052259505
228	0xbd160023	-0.036621224
229	0x3abd58e7	0.0014446051
230	0x3d252849	0.040321622
231	0x3d0e845f	0.034794208
232	0xbd6bd933	-0.057580184
233	0x39f1a95a	0.0004609328
234	0x3b5d3a86	0.0033756807
235	0xbd556ad3	-0.05210383
236	0xbd31237b	-0.043246727
237	0xbd5697c7	-0.05239084
238	0x3d6f1b85	0.058375854
239	0x3b523874	0.0032077106
240	0xbd11de07	-0.035612132
241	0xbcd9c43c	-0.02658283
242	0xbc87533b	-0.01651918
243	0x3d2377e0	0.039909244
244	0xbcbd0df8	-0.02307795
245	0xbc4efb54	-0.0126331635
246	0xbd1b7f04	-0.03796293
247	0x3ce33d80	0.027739286
248	0xbd4cb26a	-0.049974836
249	0xbce8b1c2	-0.028405074
250	0xbd0af874	-0.03392835
251	0x3a990195	0.0011673445
252	0x3d2c93f1	0.042133275
253	0xbcb9d461	-0.022684278
254	0xbc0e5d6b	-0.008689265
255	0x3ccc4f7a	0.024940241

features.2.bias f4 [32]
0	0xbcc31715	-0.023814717
1	0xbca39590	-0.019968778
2	0x3c0ab24f	0.008465364
3	0x3c94f76c	0.018184386
4	0x3d093b7d	0.033503998
5	0xbc98b6bc	-0.018641822
6	0x3cbd6f6c	0.02312442
7	0xbd01e8a7	-0.031716015
8	0xbc95af96	-0.018272202
9	0xbb44f7e2	-0.0030054976
10	0x3d6261e3	0.055269133
11	0xbd6e046a	-0.05810968
12	0x3b223259	0.0024749248
13	0x3ca739c5	0.020413289
14	0x3ce51d13	0.027967965
15	0x3d6fb858	0.058525413
16	0xbd67f9f9	-0.056634877
17	0x3ca09e10	0.01960662
18	0x3c884dbd	0.016638631
19	0xbd525c0e	-0.05135732
20	0x3c91bbb3	0.017789697
21	0x3ac121f3	0.0014734849
22	0xbc1d9902	-0.009618999
23	0x3c0e499c	0.008684542
24	0x3c7f5be6	0.015585875
25	0x3c6b2067	0.014350987
26	0xbb9c743b	-0.004774598
27	0xbd5262fa	-0.051363923
28	0x3caa7787	0.020808948
29	0x3d0cf662	0.034414656
30	0xbcac819e	-0.0210579
31	0xbd4242da	-0.047427036

features.5.weight f4 [64, 32, 3, 3]
0	0xbc20864f	-0.009797647
1	0x3c0acc18	0.008471511
2	0xbca2cdbc	-0.019873492
3	0xbcd5daf8	-0.026105389
4	0x3d38c6e7	0.045111563
5	0xb9ae7157	-0.0003327231
6	0xbcd08524	-0.025454111
7	0x3d51a47f	0.051182266
8	0x3c4a4c19	0.012347245
9	0xbd570822	-0.05249799
10	0x3d4d3d1e	0.050107114
11	0x3d13611a	0.035981275
12	0x3c5a379c	0.013318922
13	0xbce303c9	-0.027711766
14	0x3d0da928	0.034585148
15	0x3b17e204	0.0023175487
16	0xbba69d90	-0.005084701
17	0x3b9dae97	0.0048120725
18	0xbb6b6a70	-0.0035921596
19	0x3d007997	0.031365957
20	0x3d627a51	0.05529243
21	0x3c4056a2	0.011739405
22	0x3cbd456d	0.023104394
23	0x3cca5e4d	0.02470317
24	0x3cbbf9d1	0.02294627
25	0xba8160a8	-0.0009870725
26	0x3cd8a495	0.026445666
27	0xbd1ab27c	-0.037767872
28	0x3d541020	0.05177319
29	0x3d1f2971	0.03885788
30	0xba8aa12e	-0.00105766
31	0x3d690791	0.05689198
32	0xbd40a72a	-0.04703442
33	0x3d5b706f	0.053574022
34	0x3d0f653e	0.03500866
35	0x3d4a636f	0.049411234
36	0xbd6556f6	-0.055991136
37	0x3cbdc907	0.023167146
38	0xbc476392	-0.0121697355
39	0xbb124ab0	-0.002232235
40	0xbcadb08b	-0.021202346
41	0xbd54b44e	-0.051929764
42	0x3a41ff0d	0.0007400371
43	0x3ce38df8	0.027777657
44	0x3cc9451a	0.024569083
45	0xbcaf1c07	-0.02137567
46	0x3d6f228b	0.058382552
47	0xbcfa0ac1	-0.030522706
48	0xbd07c7d7	-0.033149567
49	0xbd4286da	-0.047491886
50	0x3ce6540a	0.028116245
51	0xbd3e01f4	-0.04638858
52	0xbc5018ae	-0.012701197
53	0x3c8df2de	0.017327722
54	0xbcd85f31	-0.026412578
55	0xbd0fdc43	-0.035122167
56	0x3ad055b1	0.0015894679
57	0xbd005eee	-0.031340532
58	0x3cc957cf	0.024578003
59	0xbd296b71	-0.04136223
60	0x3b999d59	0.0046879468
61	0x3d633e0c	0.055479094
62	0x3cfcd9ae	0.030865517
63	0xba81573d	-0.0009867918
64	0x3d35aa4d	0.044351865
65	0xbce270d6	-0.027641695
66	0xbd6afa5f	-0.05736768
67	0x3cab50fd	0.020912642
68	0xbd0a9b4b	-0.033839505
69	0xbcfd90cf	-0.03095284
70	0x3d613b3f	0.054988142
71	0x3c9a2a7c	0.018819086
72	0xbba3805f	-0.0049896683
73	0xbd599e34	-0.05312939
74	0x3c6ce7f2	0.014459597
75	0xbd53b96e	-0.05169051
76	0x3d2e935d	0.042621005
77	0xbc4b7cf1	-0.012419925
78	0x3a7bfa98	0.00096122315
79	0xbd3cd532	-0.046101756
80	0xbd35ea35	-0.04441281
81	0x3d287dd4	0.041135624
82	0xbc58e10e	-0.013237251
83	0xbd1ead2a	-0.03873936
84	0x3d3c892a	0.046029247
85	0x3bb90c3b	0.00564721
86	0xbb0218ec	-0.001985128
87	0xbd2a126f	-0.041521486
88	0xbd64318e	-0.05571132
89	0xbcb8b927	-0.022549225
90	0x3ba51a79	0.005038556
91	0x3c88151a	0.016611625
92	0xbd34fe0d	-0.044187594
93	0xbd37b528	-0.0448505
94	0xbd1a01dc	-0.03759943
95	0xba6b729f	-0.00089816184
96	0x3cab2b42	0.02089465
97	0xbc83c9a6	-0.016087364
98	0xbbb9fe77	-0.0056760865
99	0xbc03863f	-0.008027612
100	0x3d1d6e47	0.038435247
101	0xbcdd360c	-0.02700331
102	0x3c1c74f5	0.009549369
103	0xbcb406ad	-0.02197584
104	0xbd2bcd22	-0.041943677
105	0x3d6d7209	0.05797008
106	0x3bf4b6b3	0.0074680685
107	0x3d3be5a4	0.0458733
108	0x3ce550ef	0.027992694
109	0xbb9cbb88	-0.0047830977
110	0x3ce8f8ae	0.028438892
111	0xbd35e7f8	-0.044410676
112	0xbd2f22d8	-0.04275784
113	0x3be57382	0.007002295
114	0x3d68a902	0.056801803
115	0xbb96705e	-0.004591032
116	0x3cc7fbb4	0.024412014
117	0x3cc95636	0.024577241
118	0x3d44b425	0.04802336
119	0x3d307a7c	0.04308556
120	0x3c81dc75	0.015852192
121	0xbd0f1a2c	-0.03493707
122	0x3d6b3916	0.05742749
123	0x3d2ab638	0.041677684
124	0x3c73b526	0.014874732
125	0x3d25a5d8	0.040441364
126	0x3d4f605a	0.050628997
127	0xbcd3372a	-0.02578314
128	0x3bbbe45a	0.0057340087
129	0xbd60c9b9	-0.054879878
130	0xbcbc6e92	-0.023001943
131	0xbd523d7e	-0.051328175
132	0xbc53ea2e	-0.012934251
133	0x3d5b649c	0.053562745
134	0x3b2054b5	0.0024464552
135	0xbd1e5658	-0.038656563
136	0xbd0eda0b	-0.03487591
137	0xbc09242c	-0.00837044
138	0xbc1b77fb	-0.009489055
139	0xbbca6c7c	-0.006177483
140	0xbd62cf82	-0.055373676
141	0xbcbd8269	-0.023133473
142	0x3cd651ed	0.026162112
143	0x3d5e5249	0.054277692
144	0xbbf2ce89	-0.007409875
145	0x3d019dab	0.031644505
146	0x3c9905bd	0.018679494
147	0x3a69da5b	0.0008920782
148	0x3c629802	0.013830187
149	0x3c00394b	0.00782616
150	0xbd564f7c	-0.052321896
151	0x3d5f7a29	0.05455986
152	0x3d45adcb	0.048261445
153	0xbc8c12ad	-0.017098749
154	0xbc95a9e4	-0.018269487
155	0xbd0d31a4	-0.03447117
156	0xbc911790	-0.01771143
157	0xbbaa06a8	-0.005188782
158	0x3d6c1a77	0.057642426
159	0x3d3f550c	0.046711966
160	0x3d55193d	0.052026022
161	0x3d57a2ad	0.052645374
162	0xbc504686	-0.012712127
163	0xbc3503e6	-0.011048293
164	0x3bc5efbe	0.0060405424
165	0x3ccd9a9d	0.02509814
166	0xbcaea6a6	-0.021319699
167	0xbb70d389	-0.0036747179
168	0xbd1e9c9a	-0.038723566
169	0x3d4420f4	0.04788299
170	0xbd1838f9	-0.03716371
171	0x3cf47953	0.029843008
172	0xbd45f7d5	-0.048332054
173	0xbc99120b	-0.018685361
174	0x3c0c83c5	0.008576338
175	0x3d53fc87	0.0517545
176	0xbd2082af	-0.03918713
177	0xbd3471ae	-0.044053726
178	0x3d5252b8	0.051348418
179	0xbc18be6e	-0.009322746
180	0xbd34d2a1	-0.044146184
181	0xbc5098c0	-0.012731731
182	0xbd0e9a6f	-0.034815248
183	0x3d2c1e43	0.042021047
184	0x3c478b3e	0.012179194
185	0x3cdedca8	0.027204826
186	0xbc7a7c4e	-0.015288426
187	0x3cffc7be	0.031223174
188	0x3d22e234	0.039766505
189	0x3c8a30d6	0.01686899
190	0xbb6de3ca	-0.0036299103
191	0xbc3d7b94	-0.011565108
192	0x3d28cec9	0.04121283
193	0x3c9c6048	0.01908888
194	0x3d34561f	0.044027444
195	0xbcbf1650	-0.02332607
196	0xbba38018	-0.004989635
197	0xbcf53f50	-0.029937416
198	0xbd20adcf	-0.039228257
199	0x3d1c9aa0	0.0382334
200	0xbc2e08dc	-0.010622229
201	0xbd2a30a8	-0.04155031
202	0xbc24cf1d	-0.010059145
203	0x3cb8f3a5	0.022577116
204	0xbcdcc85d	-0.02695101
205	0x3d4c74e0	0.04991615
206	0x3d5ee90c	0.05442147
207	0xbb87f7c4	-0.004149409
208	0xbcd13a71	-0.025540562
209	0x3d5a4519	0.053288553
210	0xbc60a004	-0.013710026
211	0x3aa02f33	0.0012221098
212	0x3ce38e2b	0.027777752
213	0xbd168d19	-0.036755655
214	0xbd64ac1c	-0.0558282
215	0x3b6fd5f1	0.0036596025
216	0xbc976704	-0.018481739
217	0xbb6c23c3	-0.0036032058
218	0xbacb0627	-0.0015489504
219	0xbd4a191e	-0.04934036
220	0x3c955d14	0.01823286
221	0xbd3e3e28	-0.046445996
222	0x3ccd6ca5	0.02507622
223	0x3d68f794	0.056876734
224	0xbd56a246	-0.05240085
225	0xbc16588b	-0.009176384
226	0xbcd60e90	-0.02612999
227	0xbce634b4	-0.028101303
228	0x3d2b2dc6	0.0417917
229	0xb9f7d4b4	-0.00047269987
230	0x3c901671	0.017588826
231	0x3cd056d4	0.025432028
232	0x3c918d92	0.017767701
233	0xbd4c8dc9	-0.049939904
234	0xbd72af09	-0.059248958
235	0x3c818512	0.015810523
236	0xbd12ade5	-0.03581037
237	0x3cd6ad66	0.02620573
238	0xbd5a78fb	-0.053338032
239	0xbca63e86	-0.020293485
240	0x3d08794e	0.03331881
241	0xbcf42403	-0.029802328
242	0x3d21d1ad	0.039506603
243	0xbc048d57	-0.008090339
244	0x3c24b3be	0.0100526195
245	0xbc762277	-0.0150228655
246	0x3cfad2c7	0.030618085
247	0x3c81819c	0.015808873
248	0xbcfcf339	-0.030877696
249	0x3c3868d0	0.011255458
250	0xbcf15ad9	-0.029462265
251	0xbc20dfd3	-0.009818989
252	0x3d1ed3a5	0.03877606
253	0x3d026fd3	0.031844925
254	0xbd0be041	-0.034149412
255	0x3bfe15b9	0.0077540544

features.5.bias f4 [64]
0	0x3bbdaadf	0.0057881917
1	0xbd4db9ce	-0.050226025
2	0xbc7015d2	-0.01465364
3	0x3d20e448	0.039280206
4	0x3b8979ac	0.0041954126
5	0x3d009d01	0.03139973
6	0xbcdfa473	-0.027300095
7	0xbce9d842	-0.028545503
8	0xbca27665	-0.019831846
9	0x3c895197	0.016762538
10	0xbd09029c	-0.033449754
11	0xbc6e5dd4	-0.014548738
12	0x3d540e1e	0.051771276
13	0xbcd02c82	-0.025411848
14	0x3d1387bb	0.036018115
15	0x3d5f07d8	0.05445084
16	0x3b2be9e2	0.0026231934
17	0xbd275858	-0.040855736
18	0xbcd6355c	-0.02614849
19	0xbd24c545	-0.040227193
20	0xbc7b790f	-0.015348687
21	0xbd5e1ce7	-0.054226782
22	0xbcfec056	-0.031097572
23	0xbbab2503	-0.005222918
24	0xbceab7d3	-0.028652107
25	0x3d468a59	0.048471782
26	0xbcb5dd01	-0.02220011
27	0xbcd707e1	-0.026248874
28	0xbd01af4a	-0.03166131
29	0xbcb53309	-0.022119062
30	0xbc97b28d	-0.018517757
31	0xbd534b5e	-0.051585548
32	0x3c154afe	0.009112118
33	0x3d26f96d	0.040765215
34	0xbd022370	-0.031772077
35	0xbc9c919b	-0.019112399
36	0xbc90914a	-0.017647404
37	0xbd670f0e	-0.05641084
38	0x3c47310d	0.012157691
39	0xbd2403bd	-0.040042628
40	0xbd058609	-0.03259853
41	0xbd0e677c	-0.03476666
42	0xbc520f2b	-0.012820999
43	0x3d1df7c8	0.03856638
44	0x3d6d0864	0.05786933
45	0xbc333084	-0.01093686
46	0x3d305ae3	0.043055426
47	0x3c875db8	0.01652418
48	0x3d10a0ca	0.03530959
49	0x3d34f271	0.044176523
50	0x3d66d878	0.056358784
51	0x3b89b91f	0.0042029764
52	0x3ca6865b	0.020327738
53	0xbd696750	-0.056983292
54	0x3cfbb03f	0.03072369
55	0xbc04c4da	-0.008103574
56	0xbd0fe0ca	-0.035126485
57	0x3d4cffb7	0.050048556
58	0x3cf86a7d	0.030324215
59	0xbc66eeb5	-0.014094998
60	0xbd01856f	-0.031621393
61	0x3d43fcfa	0.04784868
62	0x3af0d558	0.0018374128
63	0xbcef2049	-0.0291902

features.7.weight f4 [64, 64, 3, 3]
0	0x3cd0a13a	0.025467504
1	0xbbeaf98f	-0.007170863
2	0xbd018458	-0.031620353
3	0x3c6cafd0	0.014446214
4	0xbc6a4607	-0.014298922
5	0xbd16bc4b	-0.036800664
6	0x37ae6e92	2.0793905e-05
7	0xbbbf1235	-0.005831028
8	0xbb0dff5e	-0.0021667103
9	0x3c8dfaeb	0.017331561
10	0x3c5c7608	0.013455875
11	0xbc024da9	-0.007953086
12	0xbcfbab35	-0.030721286
13	0xbd11b1ac	-0.03556983
14	0x3cb3bfc1	0.021942021
15	0xbcf14f1e	-0.029456671
16	0xbd18c7ce	-0.037299924
17	0xbd08b816	-0.033378683
18	0xbc0fcfa6	-0.008777535
19	0x3cfd2d60	0.030905426
20	0x3cbf93ce	0.023385908
21	0xbd199de1	-0.03750408
22	0x3c85450c	0.016268276
23	0xbb41294a	-0.0029474073
24	0xbcde1cd9	-0.027113365
25	0xbb9c960b	-0.0047786287
26	0xbd08702f	-0.03331011
27	0x3ca40130	0.020020097
28	0x3c7a7edf	0.0152890375
29	0xbc09ffc3	-0.008422795
30	0x3d1f2a13	0.038858484
31	0xbcfc3e6e	-0.030791488
32	0xbca14e63	-0.019690698
33	0x3c92b43f	0.017908214
34	0x3c1d9993	0.0096191345
35	0xbd0b50f2	-0.034012742
36	0x3c8175d8	0.015803263
37	0x3d0bf7ad	0.03417175
38	0x3c482583	0.012215975
39	0xbccadd4a	-0.024763722
40	0x3cb157b8	0.021648273
41	0xbc2a580e	-0.01039697
42	0x3d037eb7	0.032103267
43	0x3cfcd24b	0.030861994
44	0x3d1ae4ba	0.037815787
45	0xbc639871	-0.013891325
46	0x3cff9562	0.031199161
47	0x3cc3d352	0.023904476
48	0xbd15c52f	-0.036565002
49	0xbd277fd6	-0.0408934
50	0x3d206f88	0.039168864
51	0x3c33f628	0.010983981
52	0xbc7662c1	-0.015038193
53	0xbae5f8c2	-0.0017545449
54	0xbc27cb73	-0.010241377
55	0xbc847d00	-0.016172886
56	0x3cdd0cc3	0.026983624
57	0xbab0c953	-0.0013487734
58	0x3b39a30e	0.0028325948
59	0xbcd89694	-0.026438989
60	0x3c139955	0.009008725
61	0xbd10f8d4	-0.03539355
62	0xbcaf2d8b	-0.021384021
63	0x3ce17fc5	0.027526746
64	0x3cabb4d7	0.020960255
65	0xbd08c964	-0.033395186
66	0xbc2c0312	-0.010498779
67	0x3cfb3c73	0.030668473
68	0x3ce4f1ea	0.027947385
69	0x3d25ce82	0.040480144
70	0x3c99a886	0.018757116
71	0xbc789bed	-0.015173894
72	0xbc95a380	-0.01826644
73	0x3d248cd8	0.04017338
74	0x3d1f18d1	0.038842026
75	0xbd122af4	-0.035685495
76	0x3bffd0a7	0.0078068557
77	0x3d25d445	0.04048564
78	0xbcfed707	-0.031108392
79	0x3d23e78c	0.040015742
80	0x3d23ac4e	0.039959244
81	0xbd0e4306	-0.034731887
82	0xbcf4f294	-0.029900827
83	0xbd2a36d7	-0.041556206
84	0xbcb66f75	-0.022269944
85	0xbca1094d	-0.019657755
86	0x3d15cb08	0.03657058
87	0x3ce93237	0.028466327
88	0xbc0c5c4b	-0.008566926
89	0xbcc1e550	-0.023668915
90	0x3c498838	0.0123005435
91	0x3cb779d5	0.022396961
92	0x3c4bfcef	0.012450441
93	0xbc85cc62	-0.016332809
94	0xbcf323a0	-0.029680073
95	0xbc81c770	-0.01584217
96	0xbce3925e	-0.027779754
97	0xbba8af2b	-0.005147835
98	0xbd028a2a	-0.031870045
99	0xbc3d39e2	-0.011549445
100	0x3c897522	0.016779486
101	0xbcda9703	-0.026683336
102	0xbd0ee923	-0.034890305
103	0x3b4d0bb7	0.00312875
104	0x3cda7e25	0.026671479
105	0xbae7cd22	-0.0017685036
106	0xbbed28c7	-0.007237527
107	0x3c596f1d	0.01327112
108	0xbba91c4d	-0.0051608444
109	0x3cb9baba	0.022672046
110	0xbce090f9	-0.027412878
111	0x3cd2ee25	0.025748322
112	0xbd1f0463	-0.038822543
113	0x3c3b1b1b	0.011420037
114	0xbc965ffb	-0.018356314
115	0x3b8daaa5	0.004323321
116	0xbc884646	-0.016635071
117	0xbbb3ccbf	-0.005487054
118	0x3d147843	0.036247503
119	0x3d0ffaf6	0.035151444
120	0xbafcff9d	-0.0019302253
121	0xbd22c5ad	-0.0397393
122	0xbc94fc98	-0.018186852
123	0x3d130970	0.035897672
124	0x3c911cb7	0.017713888
125	0xbd1dc1ee	-0.038515024
126	0x3c9886e6	0.018619012
127	0x3c047f55	0.008086999
128	0x3c3f358f	0.011670484
129	0xbca425f7	-0.020037634
130	0x3ca70387	0.020387424
131	0x3d10f0aa	0.035385765
132	0x3c14b917	0.009077332
133	0xbd222fe3	-0.03959645
134	0x3b990d48	0.0046707727
135	0xbc9ed7e8	-0.019390061
136	0xbbaaa984	-0.005208196
137	0xbaa983ba	-0.0012932934
138	0xbd1c00cd	-0.0380867
139	0xbd1ac27e	-0.03778314
140	0x3a2480ee	0.00062753155
141	0xbc317c92	-0.0108329225
142	0xba9b7a83	-0.0011862073
143	0x3bfd912f	0.0077382545
144	0xbd0bc118	-0.034119695
145	0x3bb28c78	0.005448874
146	0x3ca54ba5	0.020177672
147	0x3d04a40b	0.032383006
148	0x3c051ad5	0.008124073
149	0xbd04c0a1	-0.032410268
150	0xbc0fdbfd	-0.008780477
151	0xbcac7cef	-0.021055667
152	0x3cdd8b64	0.027044006
153	0xbcba880a	-0.022769947
154	0xbb74648d	-0.0037291378
155	0x3cb161de	0.021653112
156	0xbd2435ab	-0.040090244
157	0xbc87d410	-0.016580611
158	0x3c5412f8	0.012943976
159	0x3c47cece	0.012195302
160	0x3c112a25	0.008860146
161	0xbcd5ab49	-0.026082652
162	0xbc730221	-0.014832051
163	0xbcfdbc42	-0.030973557
164	0xbd069539	-0.032857154
165	0x3cf3c2a0	0.02975589
166	0xbce368e9	-0.027759986
167	0xbc91c1dc	-0.017792635
168	0xbd2383d1	-0.03992063
169	0x3ca7fba2	0.02050573
170	0x3c45cd64	0.012072895
171	0xbc85ac55	-0.016317526
172	0xbc4f189d	-0.012640146
173	0x3d21603f	0.039398428
174	0x3d020e5b	0.03175197
175	0xbbe8d5c5	-0.0071055614
176	0x3d1c95b1	0.038228694
177	0x3d070cb6	0.032971106
178	0x3c3637ca	0.0111217
179	0xb9fee246	-0.00048615242
180	0xbccc7328	-0.024957255
181	0xbccdd101	-0.025124075
182	0xbd0dc02c	-0.034607098
183	0xbd18efa1	-0.037337903
184	0xbc56527c	-0.013081189
185	0xbd024ad7	-0.031809654
186	0x3c63a290	0.013893738
187	0x3cc246b6	0.023715358
188	0x3c98d7cf	0.018657593
189	0xbca60388	-0.020265356
190	0x3c4532fd	0.012036082
191	0x3c0c3d08	0.008559473
192	0xbd087151	-0.033311192
193	0xbd00df9e	-0.031463258
194	0x3d091909	0.03347114
195	0x3c92e11e	0.01792961
196	0x3cb6dc13	0.022321736
197	0xbad6714a	-0.0016360667
198	0x3d24c8e0	0.04023063
199	0xbc6ac79b	-0.014329816
200	0xbcacdb04	-0.021100529
201	0xbcefdca5	-0.029280016
202	0x3b5b4456	0.003345748
203	0x3d0c0af6	0.03419014
204	0x3ce6fdff	0.028197287
205	0x3d0ed826	0.034874104
206	0x3c3d1c83	0.011542442
207	0x3d276a0d	0.040872622
208	0x3d20b5da	0.039235927
209	0x3cd2dee5	0.02574105
210	0x3c8d63c9	0.017259495
211	0x3ba24ac7	0.004952762
212	0x3d24a178	0.04019305
213	0xbca726a6	-0.020404171
214	0x3b46a67e	0.003031164
215	0xbd212547	-0.03934219
216	0xbd1294d7	-0.035786476
217	0xbc161c7d	-0.009162066
218	0xbccbbee1	-0.024871292
219	0xbd0a4102	-0.033753403
220	0xbd1e0922	-0.03858293
221	0xbbf667ac	-0.007519683
222	0xbd12c5c6	-0.035833143
223	0x3cc6626c	0.024216853
224	0x3a22e548	0.0006213975
225	0x39285478	0.00016053196
226	0xbd27ecaa	-0.040997185
227	0x3cc147e6	0.023593854
228	0xbd0ab9a2	-0.03386844
229	0xbc59162e	-0.013249917
230	0xbc6645a3	-0.014054689
231	0x3bd4d8b7	0.006495561
232	0x3c0a024b	0.008423398
233	0xbc829bec	-0.01594349
234	0xbc22bf1f	-0.009933262
235	0xbd0108d0	-0.031502545
236	0x3c840f06	0.016120445
237	0xbc2afec4	-0.010436717
238	0x3cf404b1	0.029787393
239	0x3c77be40	0.015121043
240	0x3d110d56	0.03541311
241	0xbd1c218d	-0.038117934
242	0x3d14bbf5	0.036312062
243	0xba82f42d	-0.0009990983
244	0x3ca2b168	0.019859985
245	0xbd174ff4	-0.036941484
246	0xbd1e3528	-0.038624913
247	0x3d27b620	0.040945172
248	0x3cb0edfd	0.021597857
249	0x3ccf8c66	0.025335502
250	0xbc405771	-0.011739598
251	0x3cd4e996	0.025990289
252	0x3cb94cc2	0.022619609
253	0xbb9433a0	-0.0045227557
254	0xbd04d5eb	-0.03243057
255	0xbcf47213	-0.029839551

features.7.bias f4 [64]
0	0x3b8b171c	0.004244698
1	0xbcc3cc8a	-0.023901243
2	0x3c9c6bef	0.019094435
3	0x3d26f79a	0.040763475
4	0xbc341557	-0.010991416
5	0xbc8ad471	-0.016947003
6	0x3c917523	0.01775605
7	0xbce040c5	-0.027374635
8	0xbb008693	-0.0019611462
9	0x3c368b5c	0.011141624
10	0x3d05077b	0.032477837
11	0x3b49596a	0.003072346
12	0xbce54d35	-0.027990917
13	0xbcc8977e	-0.0244863
14	0xbd08f1d4	-0.03343375
15	0xbccaf3f2	-0.024774525
16	0x3c2f3fbf	0.010696351
17	0x3d26d617	0.040731516
18	0x3d107df2	0.03527636
19	0x396f1830	0.00022801827
20	0xbc0bc086	-0.008529788
21	0xbd13fae7	-0.03612795
22	0xbbb7c6f1	-0.0056084325
23	0x3cd4a55a	0.025957752
24	0xbd0fc3c3	-0.035098802
25	0x3c81279b	0.015765956
26	0x3cdcebba	0.026967872
27	0x3cf31e8d	0.029677654
28	0x3cef9ef3	0.029250598
29	0x3c535819	0.012899422
30	0x3c0e582a	0.008688012
31	0x3a805253	0.000979016
32	0xbccd066d	-0.025027478
33	0x3c498123	0.012298855
34	0xbccc068c	-0.024905466
35	0x3cd0286e	0.025409903
36	0xb8e53e6d	-0.000109311986
37	0xbd1b7881	-0.03795672
38	0x3cf1882b	0.029483875
39	0x3d2086f1	0.03919119
40	0x3abcdab8	0.0014408445
41	0xbd1be218	-0.038057417
42	0x3ca15b81	0.019696953
43	0x3d20a8fc	0.039223656
44	0xbcabe7aa	-0.02098449
45	0xbb017258	-0.0019751992
46	0x3cc05974	0.023480155
47	0x3bff8c42	0.0077987025
48	0x3bd759fd	0.0065720067
49	0x3ba59eb0	0.0050543174
50	0xbc593893	-0.013258117
51	0xbb14f727	-0.0022730322
52	0xbc820c85	-0.01587511
53	0xbc23eb00	-0.010004759
54	0xbd0f80ef	-0.03503507
55	0xbce08e93	-0.027411735
56	0xbac55c62	-0.001505744
57	0x3ccd2298	0.02504091
58	0x3d0a06e4	0.033697978
59	0x3d259b31	0.040431205
60	0xbce6874b	-0.028140685
61	0x3cb253ba	0.02176844
62	0x3c6d93e2	0.01450059
63	0x3cc45290	0.02396515

features.10.weight f4 [64, 64, 1, 1]
0	0xbd9f403b	-0.07775923
1	0xbd5ca47c	-0.053867802
2	0x3cca9bcb	0.024732491
3	0xbbb367c2	-0.0054750154
4	0xbdb64211	-0.0889932
5	0x3dd33075	0.10311977
6	0x3bdfb229	0.0068266583
7	0x3d672cbb	0.056439143
8	0x395c869a	0.00021030978
9	0xbd1f67d1	-0.038917366
10	0xbd8e337e	-0.06943415
11	0xba3341b3	-0.0006838098
12	0xbd802434	-0.06256905
13	0x3db3543f	0.08756303
14	0xbd0726c2	-0.032995947
15	0x3dbf9439	0.09354443
16	0xbdfb4e4b	-0.122707926
17	0x3cba06a3	0.022708243
18	0xbdfe94c5	-0.12430719
19	0xbdd97077	-0.10617154
20	0xbc10e76d	-0.008844239
21	0x3dec9458	0.11551732
22	0x3d224f6e	0.03962653
23	0x3d5fc626	0.05463233
24	0xbdebe21e	-0.11517738
25	0xbd9551be	-0.07290982
26	0x3d03f25f	0.032213565
27	0xbd220c5b	-0.039562564
28	0xbdcdf044	-0.10055593
29	0x3df95c5b	0.121758185
30	0xbd40374d	-0.04692774
31	0x3d86abaf	0.06575715
32	0x3cff1ddf	0.031142173
33	0x3dba6d6f	0.09102904
34	0xbdee905e	-0.116486296
35	0x3bff3486	0.0077882437
36	0x3df5259c	0.11970064
37	0xbdf71954	-0.12065378
38	0x3c0b507f	0.0085030785
39	0xbd19a255	-0.037508328
40	0xbdfc18c4	-0.12309411
41	0x3db87735	0.09007112
42	0xbdd8ffc2	-0.10595657
43	0x3d936bd5	0.07198302
44	0x3a1c505c	0.0005962902
45	0xbd75942d	-0.059955765
46	0x3df1f2f3	0.11813917
47	0xbd1c1722	-0.038108
48	0xbd966906	-0.073442504
49	0x3cd15030	0.025550932
50	0xbcd41672	-0.025889609
51	0x3d737321	0.059435967
52	0x3d8dd466	0.069252774
53	0xbdf99458	-0.121864974
54	0xbdb4a602	-0.08820726
55	0xbd8c8ba4	-0.06862572
56	0x3db22624	0.08698681
57	0x3b5ac3ee	0.0033380943
58	0xbde300a8	-0.110841095
59	0xbcc8ced1	-0.02451268
60	0xbddc96a8	-0.10770923
61	0xbd6ce784	-0.057837978
62	0x3ddf10e2	0.10891892
63	0xbd586603	-0.05283166
64	0x3d84f8c7	0.06492763
65	0xbdce4416	-0.1007158
66	0xbdd1765f	-0.102276556
67	0xbcc9e952	-0.024647389
68	0xbd904702	-0.07044794
69	0xbc317553	-0.010831195
70	0xbce9180c	-0.02845385
71	0xbd18ebd3	-0.037334275
72	0x3d490512	0.0490771
73	0xbb95554c	-0.0045572873
74	0xbd147d8e	-0.03625255
75	0x3aa26d4b	0.0012392191
76	0xbcc7071b	-0.02429538
77	0xbdca6b1d	-0.098837115
78	0x3d8ae780	0.06782436
79	0xbd9d09fb	-0.07667919
80	0x3d2c9f17	0.042143907
81	0x3b8b76f9	0.004256126
82	0xbd91235b	-0.07086822
83	0xbd28c0d0	-0.041199505
84	0x3d2ab818	0.04167947
85	0x3daf0101	0.08545113
86	0xbd93b463	-0.072121404
87	0x3d8640a3	0.06555297
88	0xbde4f099	-0.11178703
89	0x3d858a8b	0.065205656
90	0x3d811310	0.06302464
91	0xbbe75704	-0.0070599336
92	0xbc9a23f4	-0.018815972
93	0x3d0493f9	0.03236768
94	0x3cc86da1	0.024466338
95	0x3dc407d0	0.095718026
96	0xbd94a9bf	-0.07258939
97	0x3d53308e	0.051559977
98	0x3d8015bb	0.06254145
99	0x3db8971b	0.09013196
100	0x3ddb90cf	0.107209794
101	0x3da507a3	0.08058097
102	0xbd80c3a0	-0.062873125
103	0x3c9d8e8d	0.019233013
104	0x3d61ca77	0.055124726
105	0xbdd133d6	-0.10214965
106	0x3d80d00c	0.06289682
107	0xbd83cbba	-0.06435342
108	0x3dafb930	0.085802436
109	0x3d62a142	0.05532957
110	0x3c488e44	0.01224095
111	0xbb3aa09f	-0.0028477085
112	0xbd47968c	-0.048727557
113	0xbdc6a541	-0.096994884
114	0x3de527b0	0.111892104
115	0x3d2839d5	0.041070778
116	0xbdfe1ff5	-0.12408439
117	0xbdbf3ad9	-0.09337396
118	0x3d9a0718	0.07520884
119	0x3cb0b341	0.02156985
120	0xbd945db0	-0.07244432
121	0x3dbd610c	0.09247026
122	0xbaada4ec	-0.0013248003
123	0xbd9513c9	-0.07279164
124	0x3ddb8cfe	0.107202515
125	0x3dbb72c7	0.091527514
126	0x3d948bba	0.07253213
127	0xbcd24148	-0.025665894
128	0x3dad7fba	0.084716275
129	0x3d79e7a3	0.06101192
130	0xbdade4ee	-0.084909305
131	0x3dc46dd2	0.09591259
132	0xbccb4f90	-0.024818212
133	0x3dbe292e	0.09285198
134	0x3d61d911	0.05513865
135	0xbd82623b	-0.06366392
136	0x3d5ce869	0.05393258
137	0xbd4cea1b	-0.050027948
138	0xba1033cf	-0.0005500884
139	0x3d49faa9	0.049311314
140	0xbdd93443	-0.10605671
141	0x3dbe6fe4	0.09298685
142	0xbd3c5a58	-0.045984596
143	0xbc4b55cb	-0.012410591
144	0xbc34e851	-0.011041717
145	0x3d3ccda7	0.046094563
146	0x3d37adfa	0.04484365
147	0x3da488f6	0.08033936
148	0x3c986c4d	0.01860633
149	0x3cd8a7db	0.026447227
150	0x3d90775a	0.070540145
151	0x3ac9b214	0.0015388154
152	0xbcc6397b	-0.02419733
153	0x3dad5bfa	0.08464809
154	0x3ccb1a42	0.024792794
155	0x3dce0286	0.10059075
156	0x3d934451	0.07190765
157	0xbd8beca3	-0.06832244
158	0x3b1262f4	0.0022336813
159	0x3d1641c5	0.036683816
160	0xbd94ffe6	-0.07275371
161	0x3d89f3f8	0.067359865
162	0x3da1f9c4	0.07908967
163	0x3dded212	0.108799115
164	0xbcca8696	-0.024722379
165	0xbc8c3493	-0.017114913
166	0xbdbe5328	-0.092932045
167	0x3d4a27d5	0.049354393
168	0x3d6e60fa	0.058197953
169	0x3dc2cf40	0.09512186
170	0x3db76994	0.08955684
171	0xbde2c95c	-0.110735625
172	0x3d952e6e	0.072842464
173	0x3bd72372	0.0065655047
174	0xbdb4869e	-0.08814739
175	0x3c93af52	0.018027935
176	0xbce072c2	-0.02739847
177	0xbda52926	-0.08064489
178	0xbd7f99b7	-0.062402453
179	0xbd48485a	-0.048897125
180	0xbcbb4294	-0.022858895
181	0xbd16dfd5	-0.036834557
182	0xbdb58fed	-0.08865342
183	0x3d0d6928	0.034524113
184	0x3dbc76b2	0.09202327
185	0x3d29a18c	0.04141383
186	0xbdde2d8f	-0.10848533
187	0x3d78a6fa	0.060706116
188	0xbc971933	-0.018444633
189	0xbd7fb8c2	-0.06243206
190	0x3d706d5a	0.058698036
191	0xbd364e7b	-0.04450844
192	0x3cf8d9d7	0.030377312
193	0x3c282b2f	0.010264202
194	0xbdf25cf3	-0.11834135
195	0x3dba779c	0.09104845
196	0xbb59b3aa	-0.003321866
197	0xbdda5552	-0.10660805
198	0xbda8bc9e	-0.08239101
199	0xbd20e342	-0.03927923
200	0xbdec97f2	-0.11552419
201	0x3d52d7d6	0.05147537
202	0x3d2582d9	0.04040799
203	0xbdefeeac	-0.11715445
204	0xb999c112	-0.00029326283
205	0x3d887df6	0.0666465
206	0x3ce7bfe7	0.028289748
207	0x3cebaade	0.028768
208	0xbdcffc25	-0.10155515
209	0xbd8b6271	-0.068058856
210	0x3dc5db13	0.09660926
211	0xbdaa533a	-0.083166555
212	0xbc3e3846	-0.011610096
213	0xbc976eb1	-0.018485399
214	0x3d331530	0.043721378
215	0x3d595ca0	0.05306685
216	0x3cc3000a	0.02380373
217	0xbd6f307a	-0.05839584
218	0x3d75d3f9	0.060016606
219	0x3d9ccaf8	0.07655901
220	0x3ca9f879	0.020748364
221	0xbd05aaaf	-0.03263348
222	0xbcffcdde	-0.031226095
223	0x3df8ccfb	0.12148472
224	0x3db09887	0.08622842
225	0xbd545ec8	-0.051848203
226	0xbdcc98f7	-0.09990113
227	0x3ddc384f	0.107529275
228	0x3d9cdc59	0.076592155
229	0xbd603422	-0.054737218
230	0xbda74347	-0.08167129
231	0x3d2bff1d	0.04199134
232	0xbbcf2eae	-0.0063227033
233	0xbd8e0dbe	-0.06936215
234	0xbd7c7f3f	-0.06164479
235	0xbb830974	-0.0039989296
236	0x3ce19cd7	0.027540607
237	0x3d825765	0.063643254
238	0x3df2584c	0.118332475
239	0x3dcf6d10	0.10128224
240	0xbd913feb	-0.070922695
241	0xbc95c738	-0.018283471
242	0x3dd8b58a	0.10581501
243	0xbd4d8968	-0.05017987
244	0x3d0d4288	0.034487277
245	0xbd85f7c9	-0.06541402
246	0x3d850f1c	0.064970225
247	0x3dfe9973	0.12431612
248	0xbc3704cf	-0.01117058
249	0x3dcfe5eb	0.10151275
250	0xbde49654	-0.11161485
251	0x3df480b2	0.11938609
252	0xbd950866	-0.072769925
253	0xbda85d6c	-0.08220944
254	0xbdc946b1	-0.098279364
255	0x3be44cff	0.0069671865

features.10.bias f4 [64]
0	0xbdef3266	-0.116795346
1	0x3d0e504d	0.03474455
2	0xbdb2483c	-0.08705184
3	0x3d7f9e10	0.0624066
4	0x3d9ce244	0.07660344
5	0xbc25a9aa	-0.010111252
6	0x3d86b56c	0.06577572
7	0x3d92b889	0.071641035
8	0xbdcc0565	-0.099619664
9	0xbd6c7d80	-0.057736874
10	0x3de5b53c	0.11216208
11	0x3dcf1ea7	0.10113268
12	0x3c4b4872	0.012407409
13	0x3ddbb02f	0.10726964
14	0xbdb01cf1	-0.0859927
15	0xba3249ae	-0.000680114
16	0xbcfa280c	-0.030536674
17	0xbd26a257	-0.040682163
18	0x3c8b86f4	0.017032124
19	0xbdeda907	-0.11604505
20	0x3ddac2b8	0.10681671
21	0x3d73b99e	0.05950319
22	0xbc60aebb	-0.013713534
23	0xbdf7e5de	-0.121043906
24	0xbb9706af	-0.004608951
25	0x3cf95a6b	0.030438622
26	0xbde390c0	-0.11111593
27	0xbdca00ed	-0.09863458
28	0xbc9d45e7	-0.019198371
29	0xbdb0ce49	-0.08633096
30	0x3d2f98d1	0.042870346
31	0x3d26884e	0.040657334
32	0xbddeceb0	-0.10879266
33	0x3de1ca7d	0.1102495
34	0xbd0bc5ed	-0.034124304
35	0xbd1b2ef2	-0.037886567
36	0xbcb9c8fc	-0.022678845
37	0x3d97ec60	0.07418132
38	0xbcd241c4	-0.025666125
39	0xbd210817	-0.039314356
40	0x3dbbe99c	0.09175417
41	0xbb845bc7	-0.004039261
42	0x3d940382	0.072272316
43	0xbdda0baf	-0.1064676
44	0xbd449d05	-0.048001308
45	0x3d67ca26	0.05658927
46	0x3daff90a	0.08592422
47	0xbc21d487	-0.009877331
48	0x3db945cf	0.09046518
49	0x3da248fd	0.07924078
50	0xbdf92822	-0.12165858
51	0x3c843573	0.016138768
52	0xbc8393f7	-0.016061766
53	0x3d67420a	0.056459464
54	0x3d90b1c4	0.07065156
55	0xbc845c26	-0.016157221
56	0xbd13075c	-0.03589569
57	0x3d6b390a	0.057427444
58	0x3d9f04bc	0.07764575
59	0xbd1d2322	-0.038363583
60	0xbda8b4e2	-0.08237626
61	0x3dda37f1	0.10655201
62	0xbca867da	-0.020557333
63	0x3d8e3a1c	0.06944677

classifier.0.weight f4 [3, 64]
0	0xbd0d99df	-0.03457057
1	0x3de7975c	0.113081664
2	0xbb8a8bfa	-0.0042281123
3	0x3cf724d9	0.030168938
4	0x3deccb90	0.11562264
5	0xbd91891f	-0.07106232
6	0x3cced198	0.025246426
7	0x3d643d5d	0.055722583
8	0x3d3f5bff	0.046718594
9	0xbdff79fc	-0.124744385
10	0x3dd8fe48	0.10595375
11	0x3bac6ff9	0.0052623716
12	0xbdc41b1f	-0.095754854
13	0x3d5a7aa1	0.053339604
14	0xbdc86ae8	-0.09786016
15	0x3d60f40e	0.05492025
16	0xbda22a62	-0.0791824
17	0x3d4d452a	0.050114788
18	0x3de5a800	0.11213684
19	0x3cf79be9	0.030225711
20	0xbdd4a6bd	-0.10383365
21	0xbd29f108	-0.04148963
22	0x3d20763c	0.039175257
23	0x3c17fd8a	0.009276757
24	0x3cf3c890	0.029758722
25	0x3b824810	0.0039758757
26	0xbd684391	-0.05670506
27	0xbd432c03	-0.047649395
28	0xbd58ccae	-0.052929573
29	0xbdbabe84	-0.09118369
30	0x3de4b2ac	0.111668915
31	0x3df24fe5	0.11831645
32	0xbdf78a0c	-0.12086877
33	0x3b11057e	0.0022128518
34	0xbdc3b099	-0.09555168
35	0x3da260f0	0.079286456
36	0x3dd3da51	0.10344375
37	0x3d8ceeaf	0.06881463
38	0xbda7b15b	-0.08188125
39	0xbdc7769e	-0.09739421
40	0xbda3fc4d	-0.08007107
41	0x3d201da7	0.03909078
42	0x3d29ec12	0.0414849
43	0x3c77c509	0.01512266
44	0x3d665b71	0.05623955
45	0xbd95df74	-0.07318011
46	0x3c86248c	0.016374849
47	0x3bfcd8cd	0.0077162744
48	0x3d60d896	0.054894052
49	0xbdd47b7e	-0.10375117
50	0xbcc3ca00	-0.023900032
51	0x3ca8734b	0.020562788
52	0x3d07f8f5	0.03319641
53	0xbdaf4245	-0.08557562
54	0xbdeaed92	-0.11471094
55	0x3d1cdde9	0.038297568
56	0xbc3386e2	-0.010957452
57	0x3d2a0dac	0.041516945
58	0x3c89a9ed	0.01680466
59	0xbdaab81d	-0.08335898
60	0x3d9bc113	0.07605185
61	0xbdcf9b56	-0.1013705
62	0xbd1677ee	-0.036735468
63	0x3ddd81f9	0.10815806
64	0x3d5fb777	0.054618325
65	0xbdf6be57	-0.12048023
66	0x3cee3c8a	0.029081602
67	0x3da633a0	0.081153154
68	0xbdcc2e7c	-0.09969804
69	0x3da26237	0.07928889
70	0xbd845528	-0.06461555
71	0x3daea365	0.08527259
72	0x3dfd84dc	0.123788565
73	0x3d940cfb	0.07229038
74	0x3dbc936b	0.09207805
75	0x3db168af	0.08662545
76	0xbdb87f32	-0.090086356
77	0x3d81868f	0.06324493
78	0xba80791c	-0.0009801718
79	0xbdb953f6	-0.090492174
80	0xbce40f03	-0.02783919
81	0xbcee8cf7	-0.029119952
82	0x3da02602	0.078197494
83	0x3db8bbdb	0.090202056
84	0x3dc62c96	0.09676473
85	0x3d5edc2f	0.054409202
86	0xbd9b41ca	-0.07580908
87	0xbab18315	-0.0013543094
88	0x3b9fced8	0.0048769526
89	0x3ddc720c	0.1076394
90	0x3dba2f03	0.09090998
91	0x3cc1927c	0.02362942
92	0xbcfab1cc	-0.030602358
93	0x3dde1ca1	0.10845304
94	0x3dd77190	0.10519707
95	0xbdd18bf3	-0.10231771
96	0x3d2de75a	0.042456962
97	0x3d5512fc	0.052020058
98	0x3d9efbfd	0.07762907
99	0x3bcf44e5	0.0063253515
100	0xbdcb8465	-0.09937362
101	0x3d495d83	0.049161445
102	0x3ce5893b	0.028019538
103	0x3d549842	0.051903017
104	0xbd5df360	-0.05418718
105	0x3daf057c	0.08545968
106	0x3ade8921	0.0016978123
107	0x3db7456e	0.089487895
108	0xbccbf3a2	-0.024896447
109	0x3d1a81da	0.037721492
110	0xbdbfebc7	-0.09371143
111	0xbc895617	-0.016764684
112	0xbb5f8a83	-0.003410966
113	0xbda25c7d	-0.07927797
114	0xbd1556a4	-0.03645958
115	0xbd6830e9	-0.05668727
116	0xbc70fc86	-0.014708644
117	0xbd9c230b	-0.076238714
118	0x3d288ddf	0.041150924
119	0x3df85a88	0.121266425
120	0x3dfb6f80	0.12277126
121	0xbaae4c56	-0.0013297896
122	0xbd964751	-0.07337821
123	0xbd747e28	-0.059690624
124	0xbdf97749	-0.12180955
125	0x3d43d9a3	0.047814976
126	0x3de1ab1d	0.110189654
127	0xbd465e7b	-0.048429947
128	0xbd66597f	-0.056237694
129	0x3dc4c95d	0.096087195
130	0xbdf86ddf	-0.12130331
131	0x3c85246a	0.016252715
132	0xbd01fc7f	-0.03173494
133	0x3c2404b9	0.010010892
134	0xbd113984	-0.03545524
135	0xbd9ca90a	-0.07649429
136	0x3d95a928	0.073076546
137	0xbde122d2	-0.109929696
138	0x3d7ed178	0.062211484
139	0xbdeb4f2d	-0.11489711
140	0xbdb28a87	-0.08717828
141	0x3d664679	0.05621955
142	0xbda1debb	-0.079038106
143	0x3cbc5541	0.022989871
144	0xbcba6e71	-0.02275774
145	0xbd24564f	-0.040121373
146	0x3c33cd99	0.010974311
147	0x3dc7ae62	0.09750058
148	0xbc40ed82	-0.011775376
149	0xbc616735	-0.013757517
150	0xbdfe3480	-0.12412357
151	0xbcddcded	-0.027075732
152	0xbd56047c	-0.05225037
153	0xbd2a0799	-0.041511152
154	0x3cbb56c0	0.022868514
155	0x3df0b58f	0.117533796
156	0xbd538bc3	-0.05164696
157	0xbdb76db0	-0.08956468
158	0xbd19858f	-0.037480887
159	0x3d48fe12	0.049070425
160	0xbda50fe7	-0.08059674
161	0xbd5d6cb6	-0.054058753
162	0xbdc09a23	-0.09404399
163	0xbde1e255	-0.110294975
164	0x3cb0b2e2	0.021569673
165	0x3cd623b3	0.02614007
166	0x3d8f09ab	0.06984266
167	0xbdbcf178	-0.09225744
168	0x3dcbd1f6	0.09952156
169	0xbc88d9b3	-0.01670537
170	0x3de4fd05	0.11181072
171	0x3d9f2f3b	0.0777268
172	0x3dfeac4f	0.12435209
173	0xbdce3f86	-0.1007071
174	0x3b845151	0.004038014
175	0x3d082a91	0.03324372
176	0x3908fd5e	0.00013064357
177	0x3b8a183e	0.0042143157
178	0xbdd9f233	-0.10641899
179	0x3dc6cfbf	0.09707593
180	0xbdb56ddd	-0.088588454
181	0xbdf07c85	-0.117425
182	0xbdc4275f	-0.09577822
183	0x3d8023b8	0.06256813
184	0x3df271dd	0.11838124
185	0xbdf12bc5	-0.117759265
186	0x39521270	0.00020034029
187	0xbdcdc204	-0.10046771
188	0x3d2691dd	0.04066645
189	0xbdfe670f	-0.124220006
190	0x3d421ea4	0.047392502
191	0x3d74f5cb	0.05980472

classifier.0.bias f4 [3]
0	0x3d7b439f	0.061343785
1	0xbdf165ad	-0.11786971
2	0xbd8f0165	-0.06982688
