benchmark_model_data/18000_image_experiment_50_epochs/benchmark_experiment_increased_data/experience_1_2/model_experience_1_2.pth (torch, 854826 bytes, 36 tensors)

features.0.weight f4 [32, 3, 3, 3]
000000 99 26 47 3d d8 96 19 3c 48 ff e6 3d f8 e9 16 be
       0.048620794 0.009374343 0.1127916 -0.1473769
000010 de 60 12 3e 87 88 5f 3e 0c a1 83 ba 21 66 65 bd
       0.14294764 0.21829425 -0.0010042503 -0.0560056
000020 87 33 8b bd 52 70 7c bd d0 3e 7a 3d cd d1 35 3e
       -0.067969374 -0.061630554 0.06109506 0.17755814
000030 eb 5d d7 3c 35 48 43 3d bd 78 06 be 82 06 2d bd
       0.0262899 0.047676284 -0.13131995 -0.042242534
000040 14 9c c2 bd 7f af 2b be e8 9d f3 bd aa b2 5a be
       -0.09502426 -0.16766165 -0.118953526 -0.21357217
000050 21 ee bc 3d 84 9c b9 3d 8b 46 95 bb 9e 1d 87 bd
       0.09225107 0.09063056 -0.0045555285 -0.06597446
000060 fa da 42 be bb 6e 1f ba b3 3c a8 3d 40 2e fc bd
       -0.19028845 -0.0006081869 0.082147025 -0.12313509
000070 b8 43 17 bc bf a0 41 3e e5 bd 3e be 31 81 48 be
       -0.009232454 0.18908976 -0.18627127 -0.19580533
000080 42 6d 80 bb 34 7b 8a 3c 7d 24 db bd b1 38 dc bd
       -0.0039192745 0.016904451 -0.10700319 -0.107530005
000090 7f ae d9 3d 34 09 d6 3d 46 e0 aa 3d 18 e1 0a be
       0.106289856 0.10450974 0.08343558 -0.13562429
0000a0 66 7b b1 bc da 3b 97 3d 5e b8 a1 3d 9b 9d 97 bd
       -0.021665286 0.07384463 0.078964934 -0.07403108
0000b0 19 07 a1 3d b3 8a 5e 3d 25 da 71 bd 77 0a 5b bb
       0.07862682 0.054331493 -0.05904593 -0.0033422986
0000c0 c8 1e 53 be a6 74 1a be 0c 1e ad bc 0e 9b 58 be
       -0.20617211 -0.1508356 -0.021132492 -0.21152899
0000d0 0e 1a 6d bc a1 fb 24 bd 26 e1 f7 bd f0 6b 53 3e
       -0.014471544 -0.040279035 -0.121034905 0.20646644
0000e0 a3 20 e2 bc 9e 09 06 be 62 cd b9 bc 99 60 10 3e
       -0.027603453 -0.13089606 -0.022680942 0.14099349
0000f0 86 c5 0c bd ec c8 82 be 06 cd 5e be e6 4b 33 3e
       -0.03436806 -0.25543916 -0.21757898 0.17509422
000100 5c 8d 43 3e 21 52 38 3e 22 91 41 3e 9c 30 42 be
       0.19096893 0.1800008 0.1890302 -0.18963856
000110 0b 50 41 be 63 be 98 bd 9f 95 bb bd c6 c7 46 be
       -0.1887819 -0.074581884 -0.09159397 -0.19412145
000120 13 a9 95 bd 20 a1 3a 3d 9b 73 66 be ea 38 e3 bd
       -0.07307639 0.045563817 -0.22505037 -0.1109484
000130 e2 7d 39 3d a6 b1 e0 bd 68 0f 5a bd b2 94 67 be
       0.045286067 -0.10971384 -0.05323735 -0.22615317
000140 50 71 c3 3c 31 79 5b 3d bc 26 a1 3d 36 39 21 be
       0.023857743 0.053582374 0.07868716 -0.1574448
000150 3d 4d 70 be 7e 77 6b be a0 8e 36 bd 96 3c 74 be
       -0.23466964 -0.22994801 -0.04456961 -0.23851237
000160 02 13 6c bd 13 44 a7 bd fd 3a 6f 3d 2e 7b 77 bd
       -0.057635315 -0.08167281 0.058405865 -0.060420208
000170 83 ec 3d bd fb 26 19 be 25 5d 37 3e 7b 5b 43 3e
       -0.046368133 -0.14956276 0.17906626 0.19077866
000180 3c 9f 31 3e df 4a f9 bc 69 07 c3 bd 4c 70 34 be
       0.173459 -0.03043121 -0.09522898 -0.17620963
000190 6a 30 1e 3e 7e 72 1d 3e a3 0d 12 be 52 9c ac bc
       0.15448156 0.15375707 -0.14263014 -0.021070633
0001a0 fc 13 91 3d 4a 09 15 be fb 30 a4 bd df e0 70 3d
       0.0708389 -0.14554325 -0.08017155 0.058808204
0001b0 64 84 a7 bd 20 3d 7f 3d 8a 8f bb bc a3 f5 ea 3d
       -0.081795484 0.062314153 -0.022895593 0.11472633
0001c0 38 b0 96 bd cc 20 30 bc 8f 0a ed bd 76 85 f8 3c
       -0.0735783 -0.010750007 -0.115742795 0.030337077
0001d0 27 be ec 3d cf 75 8c 3c 6e 03 3b be 2f 5c 27 be
       0.11559706 0.01714602 -0.18263027 -0.16343759
0001e0 7d 2d 27 be 5d 79 b4 3c 6f 85 51 3e 8f d5 15 3e
       -0.16325946 0.022030527 0.20461057 0.14632247
0001f0 2d eb 4d 3e 70 7c 71 3e ac a5 65 bb aa 1b ce bd
       0.20109244 0.23582625 -0.0035041375 -0.1006387
000200 2c 35 43 3e 42 21 11 bd c9 68 ec 3d 6f 68 84 3d
       0.19063252 -0.035432108 0.11543424 0.064652316
000210 a2 32 42 be b6 7f b8 bd 2d 8b ee bb c5 7b 45 3d
       -0.18964627 -0.09008734 -0.0072797746 0.04821374
000220 a3 9c f3 bd 42 74 d5 bd e9 fc 48 3e 5c 96 13 3e
       -0.118951105 -0.10422565 0.19627728 0.14412826
000230 68 2e 15 3e fd 30 bc bd 69 95 d4 3d c0 ce c8 bd
       0.14568484 -0.09189031 0.1038006 -0.098050594
000240 44 04 50 3d 1a c5 f5 bd c2 fe 6f 3d b3 4f 6d 3e
       0.050785318 -0.12000485 0.058592565 0.23174934
000250 23 fe 8e 3d 8a 95 f0 3d dc a4 78 3e a4 89 87 3e
       0.069820665 0.11747272 0.24281639 0.264722
000260 34 e8 dc bd ef 0f 9a 3d 4b 11 eb 3d e8 8a 48 be
       -0.10786477 0.0752257 0.11477908 -0.19584239
000270 0d 61 24 be 76 27 83 3b 65 eb 13 3d 13 88 07 bb
       -0.16052647 0.004002507 0.03611316 -0.0020680472
000280 0d 1b 3d 3e 26 0d b5 bd 76 5b 31 bd 7d 85 eb bd
       0.1846735 -0.088403985 -0.043300115 -0.1150007
000290 42 86 34 be e3 36 f2 bd bc 2d 06 3e 0e fc 26 3e
       -0.1762934 -0.11826875 0.13103384 0.16307089
0002a0 e6 73 2c 3e 84 29 32 3e 49 34 f6 ba 0e 23 a0 3d
       0.16841087 0.1739865 -0.0018783893 0.07819186
0002b0 44 95 3f be 2c e6 52 3d 3f da 8b 3d 94 9c e3 3d
       -0.18709284 0.05148904 0.068287365 0.11113849
0002c0 b4 0c f4 bc 72 1a 15 be cb 97 1c 3e be 5c ee bd
       -0.029791214 -0.1456087 0.1529228 -0.11638783
0002d0 a7 05 eb 3c b1 af 38 be 25 58 0e be cd 46 1a 3e
       0.028689219 -0.18035771 -0.13900812 0.15066071
0002e0 88 ac 2c be 9e 21 d0 bc ae 27 21 3e af 6a 63 3e
       -0.1686269 -0.025406655 0.15737793 0.22208665
0002f0 d6 3b 15 3c ea 41 62 bd 3c d1 dd bd bc e3 4c be
       0.009108504 -0.05523864 -0.10830924 -0.20008749
000300 e1 32 4d be 04 e6 b1 3d 72 b6 42 3e 75 c8 25 3e
       -0.2003894 0.0868645 0.1901491 0.1618975
000310 c8 fa 50 bd 75 44 de 3d 19 4f 68 bd 22 21 47 3e
       -0.051020414 0.10852901 -0.05671606 0.19446233
000320 1c ea 0c 3e 69 af 60 bd 7e b5 13 bc 52 d9 4e bb
       0.1376118 -0.054854784 -0.009015439 -0.0031562638
000330 1f 66 2b be 5e 9a 5c 3c 2c 27 43 bc 7d b4 05 be
       -0.16738175 0.013464538 -0.011911195 -0.13057132
000340 49 3b 66 be 11 8f 18 3d 1b 42 28 be a6 a8 39 be
       -0.22483553 0.037245814 -0.16431467 -0.1813074
000350 1a 37 14 be 09 d2 da bc 7c 5c 4a 3c 02 59 a3 3d
       -0.14474145 -0.02671148 0.012351152 0.07975961
000360 f3 68 f9 3d d8 86 9e bd c2 73 46 bd 4b 69 45 3d
       0.121782206 -0.07740563 -0.04845024 0.04819612
000370 eb 51 fc bd 45 6f 35 be 19 c2 73 bd a9 2e 1e be
       -0.12320312 -0.17718227 -0.059511278 -0.15447487
000380 7a 1a b9 bc 95 e7 1d be 29 d4 08 be 69 0c cd bd
       -0.022595633 -0.15420373 -0.13362183 -0.10012133
000390 9c 01 b0 bd 71 f7 91 3d 07 05 47 be 6a 9c 23 3e
       -0.08594057 0.07127274 -0.19435512 0.15977636
0003a0 4e c0 75 bd 69 52 50 3e 70 a8 a4 bb 15 de 2a be
       -0.05999785 0.20343937 -0.005024962 -0.1668628
0003b0 47 f8 6f 3d 90 a2 96 3d 00 9e 50 be 6e 88 85 be
       0.058586385 0.07355225 -0.20372772 -0.2608065
0003c0 f6 19 cc 3d cd 38 3e 3c 85 07 10 3d 42 9f 05 be
       0.09965889 0.011610222 0.03516342 -0.13049033
0003d0 b4 b9 51 bd b3 d6 61 3d 74 25 76 bb 25 9d 14 be
       -0.05120249 0.055136394 -0.0037558945 -0.14513071
0003e0 f5 59 17 3e 1b 4b fa bd 4c 2d 41 3e 1c 2b 4e bd
       0.1478041 -0.122213565 0.18864936 -0.05033408
0003f0 b2 44 16 3e 7b 84 49 3e 72 dc 05 be 4d a6 15 be
       0.14674643 0.19679444 -0.13072374 -0.1461422

features.0.bias f4 [32]
000000 ff 14 11 be 41 47 04 bd da 23 e3 bd 83 70 1a be
       -0.14168166 -0.032294516 -0.110908225 -0.15081982
000010 a0 c9 61 3e ca 36 14 be 43 6c 8b bd 1a 9e 18 be
       0.2204957 -0.14474025 -0.06807759 -0.14904061
000020 96 6c da bd 0e 71 26 3d 78 76 6c bd 30 a3 dc bd
       -0.106652424 0.04063516 -0.057730168 -0.10773313
000030 b5 c2 ae bd ed 50 a3 bd 47 d2 1f be e3 55 0d 3e
       -0.08533231 -0.0797442 -0.15607558 0.13802294
000040 eb 58 9f 3d 02 49 b0 3c 33 0d 6e be 44 68 a3 bc
       0.07780632 0.021519188 -0.23247223 -0.019947179
000050 f1 71 06 3e f5 2d 47 3e e1 4f 05 be 36 66 dd 3d
       0.13129403 0.19451125 -0.13018753 0.10810511
000060 1c 65 4b bd 89 43 2f 3d b9 5f bf bd d9 40 11 be
       -0.049656972 0.042789016 -0.093444295 -0.14184894
000070 e2 d2 2e 3e 39 da ed bd b9 02 63 bd b3 69 00 be
       0.17072633 -0.11613888 -0.05542252 -0.12540321

features.2.weight f4 [32, 32, 3, 3]
000000 fc fd 52 bd 03 d5 d2 bc 8d 69 a1 bc 17 90 dc 3c
       -0.05151175 -0.025736338 -0.01970365 0.026924176
000010 51 bc 80 bd 09 88 96 bd 33 1c 23 bc e7 25 cf bc
       -0.062859185 -0.073501654 -0.009955454 -0.025286628
000020 56 0b 7c bd 99 e0 ae 3d ae 9d c5 3d b9 52 41 3d
       -0.06153425 0.08538932 0.09649216 0.04719803
000030 b0 7c 81 3d 7d 04 6d 3d 5e f0 74 3d 07 d0 46 3c
       0.063226104 0.05786561 0.059799545 0.0121345585
000040 14 76 92 3d 7f 94 87 3d 51 7b 40 3b d1 e7 89 bc
       0.07151428 0.0662012 0.0029370377 -0.016834171
000050 b7 d2 91 3d d3 52 04 3d fb 79 c2 bc 61 a4 63 bc
       0.07120269 0.03230555 -0.023739805 -0.013894171
000060 5c 92 06 3c aa 8a a1 bd 6c 6f b9 bd df ca ad 3d
       0.008213606 -0.07887776 -0.09054455 0.0848596
000070 35 b1 a1 3d 61 cc b6 3d af e2 64 bb 62 1c cf 3d
       0.07895128 0.08925701 -0.0034925153 0.101128355
000080 be ef 9c 3d f8 73 dc bc 35 8d a8 3c c8 24 24 bc
       0.07662915 -0.026910767 0.020575145 -0.010018535
000090 b1 92 a6 3c 6b c3 1d 3e 61 9a ab 3d 23 00 50 3d
       0.02033362 0.15406577 0.08379055 0.05078138
0000a0 9b 71 fd 3d 4b 58 41 3d 93 f6 33 3b a3 ac ec 3d
       0.12375184 0.047203343 0.0027460202 0.11556365
0000b0 64 36 b0 3b 24 7a bd bc f2 64 ef 3c 1c 26 0a 3c
       0.0053775776 -0.02312953 0.02922294 0.008431938
0000c0 50 b1 47 3d 54 6a 6d 3d 9a f9 0e 3d fd ac b2 bc
       0.048753083 0.05796273 0.034906007 -0.021811003
0000d0 14 10 04 3d 49 b9 b4 3c 52 e7 2f bd ec 60 2f bd
       0.032241896 0.022061007 -0.042945214 -0.04281704
0000e0 ff b4 7c bd e0 a2 c5 3c 9b 86 b6 bd 38 02 89 bd
       -0.06169605 0.024125516 -0.08912393 -0.06689876
0000f0 27 d0 8a ba b6 c7 6e bd 05 80 32 bd 56 c1 87 bc
       -0.0010590599 -0.058295928 -0.04357912 -0.016571682
000100 95 6e 8b 3d 48 dc 27 3d 8a f1 de 3c 5d 28 09 bc
       0.06808201 0.04098156 0.027214784 -0.00837144
000110 4f 24 3e 3c bc ff 5f 3c 76 d8 b0 3d 81 cc c3 3d
       0.011605336 0.013671812 0.08635037 0.095604904
000120 96 cc 71 3d e4 78 b3 bc 09 38 24 3d 86 a5 92 3d
       0.059033 -0.021908231 0.0400925 0.07160477
000130 18 d4 c5 3d a4 c8 b8 3c df 13 1f bb 66 bd b9 3b
       0.09659594 0.02255661 -0.0024273319 0.00566833
000140 06 7c a4 3c a5 2d 88 bc ff f3 12 3c c9 1f f3 3c
       0.02007867 -0.016623328 0.008969306 0.029678242
000150 a6 77 ad 3d 5c 67 8b 3b f1 bf bb 3d 3c f4 41 3d
       0.08470087 0.0042542648 0.09167469 0.04735206
000160 85 e6 9d 3c 15 71 80 3d 87 49 53 bd 56 3b bd bd
       0.01927496 0.06271569 -0.051583793 -0.09239833
000170 3c 59 32 bc 3d 15 e5 bb 13 ef bb bc 54 63 d4 3c
       -0.010885533 -0.006991057 -0.022941148 0.02592627
000180 76 53 d9 bc a4 97 da bd 11 32 1f 3d 3a 42 9a 3d
       -0.026529055 -0.106734544 0.038866106 0.07532163
000190 62 a8 5c 3d 8c 9d 46 3d db 06 94 3c 30 e1 24 3d
       0.05387152 0.048490092 0.018069675 0.040253818
0001a0 03 d1 e5 3c 8f 50 93 3d 82 c9 8a 3d 05 53 ef 3d
       0.028053766 0.071931 0.06776716 0.116857566
0001b0 f1 0b 87 3d 12 2c 98 3c 21 13 58 3d 9e c2 46 bb
       0.065940745 0.018575702 0.052752618 -0.0030328403
0001c0 a2 a1 a3 3d ba ea eb 3c e5 d6 fe bc 8c b8 52 3b
       0.079898134 0.02879845 -0.03110833 0.0032153456
0001d0 e6 4d df 3b ce 68 02 bc 2e 0d d3 3c 18 91 dc 3c
       0.006814706 -0.007959558 0.02576312 0.026924655
0001e0 08 0b 14 bd 40 13 64 3d 34 81 6e bd 41 09 34 3d
       -0.036143333 0.05568242 -0.058228686 0.043954138
0001f0 62 68 6b 3d a7 3d ea bc a2 5f e5 bd ca 06 90 bd
       0.057472594 -0.028593851 -0.11199881 -0.07032545
000200 72 90 8e bd 59 b4 8f bc cd e9 e0 bb ea 6e 04 3d
       -0.069611445 -0.017542051 -0.0068638087 0.03233234
000210 e1 0f 8f 3d d6 09 9a 3d b8 f7 c6 3d 2d 6c 52 3d
       0.069854505 0.07521407 0.09715217 0.051372696
000220 05 57 d5 3d 44 bc 85 bd a0 6c a1 3d ec 66 f0 3b
       0.10416988 -0.065300494 0.07882047 0.007336488
000230 3f 16 e8 3c f2 6a 41 bd 99 72 00 bd 9a 8c e6 bc
       0.02833092 -0.04722113 -0.03135929 -0.028143216
000240 2c 26 8d 3c 4b fe 6b 3d 33 2b f5 3c 80 90 46 3b
       0.017230116 0.05761556 0.029927826 0.003029853
000250 e8 77 db bb 21 35 37 3c c2 7e 31 3c 69 b6 c2 3d
       -0.0066976435 0.0111821005 0.010833444 0.09507448
000260 10 47 e4 3c e4 bc af 3c 90 c0 27 bd 9c e8 80 bb
       0.027865916 0.021452375 -0.040955126 -0.003933979
000270 65 39 5e 3d ee 6c 4d 3d ae f7 9b 3d db b9 22 3b
       0.054253954 0.05015271 0.076156005 0.0024830017
000280 46 91 5c 3b 35 5f 99 3d 2d cb e9 3c d2 1f 0b 3d
       0.0033655926 0.074888624 0.028539265 0.033965893
000290 94 44 83 3d 82 8c 22 3c f9 a0 94 3d 6f 36 6b 3d
       0.064095646 0.009921195 0.072572656 0.05742496
0002a0 fb 9e b6 bc fc 8d 22 3d ee a5 40 bd 71 d4 30 3d
       -0.022292605 0.039686188 -0.047033243 0.04317135
0002b0 7f 29 2b 3b 20 81 10 bd c1 b4 a6 3d be f0 cc 3d
       0.0026117263 -0.035279393 0.08139945 0.100068554
0002c0 f8 4d 99 bd 54 f2 8d 3d c7 2a bc 3d 38 bf 69 bd
       -0.074855745 0.06930986 0.09187847 -0.057067126
0002d0 4b fb 9a 3b d2 73 f2 ba 5a d0 5c 3d 12 e1 8c 3d
       0.0047296635 -0.0018497652 0.053909637 0.06878866
0002e0 e2 05 28 3d b1 95 43 bd 11 17 63 bd a9 fe b2 bd
       0.041021235 -0.04775018 -0.05544192 -0.08739979
0002f0 a3 51 92 3c 71 fe 22 3d 34 9c 8e bb 71 6e 5a bd
       0.017861193 0.039793435 -0.004352117 -0.05332798
000300 87 1c 54 3d 65 07 b7 3c 21 d2 45 bd 67 29 3a 3d
       0.05178502 0.022342393 -0.048296098 0.04544964
000310 ef d6 b0 bc a1 37 43 3d e0 e1 8d 3d aa d6 81 3d
       -0.021586863 0.047660474 0.06927848 0.06339772
000320 98 93 c3 3c ae 0b 6a 3d 6d a8 5e 3d 4d b9 b4 3d
       0.02387409 0.057140045 0.054359842 0.08824406
000330 28 24 c0 3d d7 3e 60 3d fd b0 e2 3c 35 2a 95 3c
       0.09381896 0.05474743 0.027672285 0.018208602
000340 89 d0 5f 3d b1 03 1a bc ee 90 9d bc 33 64 21 3d
       0.054642234 -0.009400294 -0.019234147 0.039402198
000350 89 c9 6e 3d ee e8 33 bd cc d0 d3 ba fd fd 39 3d
       0.058297668 -0.04392331 -0.0016160249 0.045408238
000360 f7 1b 63 3b 7f 3f f5 3a 42 c3 2c bd 7a e1 f5 bb
       0.003465412 0.001871094 -0.0421784 -0.0075036855
000370 3a 5c 15 bd 20 23 6d ba 69 5b 3e 3c fc 78 06 bc
       -0.036464907 -0.00090460666 0.011618474 -0.008207556
000380 55 65 2c 3c e2 f1 65 3d 3b 4b cd bc 01 bc 94 3c
       0.010522206 0.05613888 -0.025060287 0.018156053
000390 e2 8f d4 3c e4 11 0e 3b 8d 9c 2f bd 4a 28 6d bc
       0.025947515 0.0021678144 -0.042873908 -0.014474938
0003a0 6c bf 0a 3d 7d 39 ef bc 8f ea 90 3d 7a 70 a3 3c
       0.03387396 -0.029202217 0.070759885 0.019951094
0003b0 b3 94 48 bc 01 8b 42 3c 3b ab 3f bc df a6 16 3c
       -0.012242484 0.011873961 -0.011698539 0.009195059
0003c0 4b 99 14 3d 49 1d 88 bc 9b a3 20 3d 1d 2f ff 3c
       0.036279004 -0.016615527 0.039218526 0.031150395
0003d0 94 da 25 3d 5c 4d e2 b9 93 15 00 bd 05 de 48 bd
       0.040491655 -0.00043163716 -0.031270575 -0.04903986
0003e0 93 f7 33 3d 7a ee 82 bd f6 08 02 bd b9 ae e2 3c
       0.043937277 -0.06393142 -0.031746827 0.027671205
0003f0 54 d9 a0 bc 6c 61 44 3b c1 50 e6 bc b5 0c 7a bd
       -0.01963488 0.0029965295 -0.028114678 -0.061047275

features.2.bias f4 [32]
000000 da 70 10 bd 63 ee 04 3d 38 1a ca 3d 9a 02 78 bd
       -0.035263874 0.032453906 0.09868282 -0.060549356
000010 2e e9 62 3d 07 7f 9b 3d 50 8a cc 3b 20 3a ea 3c
       0.05539816 0.07592588 0.006242074 0.02859217
000020 3d 23 52 3d e0 e6 d6 3c 4c 58 78 3c 24 26 f3 3c
       0.051303137 0.026233137 0.01515777 0.029681273
000030 20 bc ce bc 96 3e 90 3d 82 12 d9 bc ab 80 70 3d
       -0.02523619 0.07043187 -0.026498083 0.058716457
000040 af 8e 68 bd 64 45 45 3d 5d 3c ba ba 42 19 8d ba
       -0.0567767 0.04816188 -0.0014208663 -0.0010764974
000050 6b 94 cf 3b 0c 1e d7 3c eb 9d 08 3d 15 51 cf bc
       0.0063348315 0.026259445 0.033353727 -0.025307218
000060 37 b9 71 bc 3d 23 13 bd 12 9e 09 3c ee 9f 01 bd
       -0.014753631 -0.035922278 0.008399503 -0.03164666
000070 d5 e0 f2 bc 88 4d a0 3c f3 5a cb 3c 06 72 93 bb
       -0.029648224 0.01956822 0.024823641 -0.0044996766

features.5.weight f4 [64, 32, 3, 3]
000000 82 e6 24 3d e9 a5 ce bc 5a d1 b4 3c 8f 05 9b 3c
       0.040258892 -0.025225597 0.022072483 0.018923549
000010 82 a8 21 3d d0 94 34 3d bd 22 7c 3d 4b e4 6e 3d
       0.039467342 0.04408723 0.061556567 0.058323186
000020 dd 48 f7 3b db 92 5c bd c5 fd 21 bd e4 1f 95 bd
       0.007546528 -0.05385099 -0.039548654 -0.07281473
000030 d3 49 27 bd 5b f0 46 3d c6 c2 82 3c b0 81 8d 3d
       -0.04084189 0.048569065 0.015962016 0.069095016
000040 0d b4 c7 3c 69 59 56 bc ab 79 59 bd 7b 8d 1c 3d
       0.024377847 -0.0130828405 -0.053094547 0.038220864
000050 01 1d 7e 3d bf a7 3a 3d 61 c1 31 bd db 7e 50 3d
       0.06203938 0.04557013 -0.04339731 0.05090223
000060 11 da 8e bd e6 bb 14 bd 59 a8 92 bc 99 ce 08 3d
       -0.069751866 -0.036312006 -0.01790254 0.033400152
000070 be 17 71 3b 0a 8b e1 bd 3c a6 16 3d 44 ed 7e 3d
       0.0036787833 -0.11012848 0.036779627 0.062237993
000080 d0 c2 7e bd b4 b7 3a 3d c8 80 f8 3c 6d df 32 3d
       -0.062197506 0.04558535 0.030334845 0.043670107
000090 a4 e3 3f 3d 34 e5 1a 3b f1 a7 4f bd a8 f5 80 3c
       0.046847954 0.002363515 -0.05069727 0.015742138
0000a0 d4 5d b0 bb f9 f4 c1 3d 18 0a 06 3d 00 b0 c5 bc
       -0.005382279 0.09470553 0.03272447 -0.024131775
0000b0 92 e7 a8 3d 89 6e 24 bd 08 cf 2f 3d 01 34 59 3d
       0.082472935 -0.040144477 0.04292205 0.05302811
0000c0 08 81 22 3c 02 ce 1a bc d0 80 69 bd 31 68 3b 3d
       0.009918459 -0.00944853 -0.05700761 0.04575366
0000d0 59 11 79 bc f3 44 3d bb 6a 7c f0 bc 7c 0c 1d ba
       -0.01520189 -0.0028880208 -0.0293562 -0.0005990935
0000e0 1a 7d 97 bc ce 94 6e bc 50 7f e8 3b 8f eb 3b 3d
       -0.01849227 -0.014561845 0.007095255 0.045878943
0000f0 60 fb 1f 3c 0c 72 ee bc e2 53 62 3c 97 9c 7c 3d
       0.009764522 -0.029107116 0.0138139445 0.061672773
000100 da a3 90 bd 52 b8 b9 bd 36 42 7a 38 e7 a9 88 3c
       -0.07062502 -0.090683594 5.966631e-05 0.016682578
000110 d9 e8 2e bd 37 f3 e5 bc 0b 20 63 3d cc 78 01 3d
       -0.04270253 -0.028070075 0.05545048 0.03160934
000120 f1 44 62 bb 7a 75 e7 3c d0 b1 11 bd ad fd db 3c
       -0.0034525956 0.02825426 -0.035569966 0.02685436
000130 db 72 4a bd 1d e1 27 bd 71 30 46 3d 60 3b 53 bc
       -0.04942594 -0.04098617 0.04838604 -0.012892574
000140 4d f9 56 bd 5d d6 ef bc 0b de 68 bd f9 b8 8d bc
       -0.052483846 -0.029277021 -0.05685238 -0.017300116
000150 34 4e 7b bd e0 a7 bc 3c 36 55 94 bd a3 c6 24 bc
       -0.061353877 0.023029268 -0.07242815 -0.010057124
000160 b4 5f 9a bd e2 86 40 bc 61 b8 8d 3c 2f a9 a9 bc
       -0.07537785 -0.011750909 0.017299833 -0.020710556
000170 32 4d e8 ba 1e 28 86 bb ce 6c 89 3d d8 9a 28 bd
       -0.0017723201 -0.004094138 0.06710206 -0.041163296
000180 02 e9 14 3d e5 19 2e 3d 0f 1b 8a bb 62 9c 0c bb
       0.036355026 0.042505164 -0.0042146514 -0.0021455516
000190 40 62 5a 3d 7c 68 2f 3d e5 a1 19 3c a0 b5 e9 3c
       0.053316355 0.042824253 0.009376978 0.028528988
0001a0 93 9d 46 bd 76 e8 2a 3c e9 04 4c 3d 8a 94 43 bc
       -0.04849012 0.0104314 0.04980937 -0.01193727
0001b0 24 13 db bc b1 3c 1f bc af 04 89 3d 1e f4 ab bc
       -0.026742525 -0.00971906 0.066903464 -0.020990428
0001c0 09 2c 88 3c 46 0a 89 3d 4f 6e 9c bc 12 d1 0a 3d
       0.01662256 0.06691413 -0.019095568 0.03389079
0001d0 76 4a 1a 3a 77 1b 9e bc 3b 66 58 bd 37 97 54 bd
       0.00058857293 -0.019300206 -0.05283187 -0.051902022
0001e0 01 56 96 3c f1 92 59 bd 25 6d 65 bc 70 9c 95 3d
       0.018351557 -0.05311865 -0.014003073 0.07305229
0001f0 66 f0 80 3c 72 6b 33 3d 5f 1e 7d 3d a4 ac ad 3d
       0.01573963 0.04380364 0.061796542 0.08480194
000200 34 27 54 3d 1c af 12 3c 34 da 87 bc e4 10 0d 3d
       0.0517952 0.008952882 -0.01658354 0.034439936
000210 0c 19 ff bd 62 d0 e9 bc 68 64 af bd 90 83 60 3c
       -0.12455949 -0.028541747 -0.08564073 0.013703242
000220 20 12 08 3c c1 8e 0c 3d 9f 12 5a 3d d4 2a 32 bd
       0.008305103 0.03431583 0.053240415 -0.043497875
000230 19 41 88 bc 50 ea d0 bb 4e 84 66 bd dd 8b dc bb
       -0.016632603 -0.0063755885 -0.05627852 -0.00673054
000240 41 be ad 3c b6 1e 0f bd 1b a7 9b bd 3c be 8e 3c
       0.021208884 -0.034941398 -0.07600232 0.017424695
000250 be 4e 07 3d 6a e5 03 bd de da 69 3c 80 85 80 3d
       0.03303408 -0.03220121 0.014273373 0.06275463
000260 bc a5 b3 ba 3d 5d b4 3c 74 53 45 3d 2f 1b 3f 3d
       -0.0013706009 0.022017116 0.04817529 0.046656784
000270 0c 2b bb 3c ce 23 53 bd 81 c5 2e bd bc 71 8b bc
       0.022847675 -0.051547818 -0.042668823 -0.017022006
000280 2f 72 6e 3d 21 a2 3c bc 2c de 53 bb c7 b9 65 bd
       0.058214363 -0.011513264 -0.003232847 -0.056085374
000290 ee f9 52 bd 90 96 af 3d 00 be 50 3d df 7e db bc
       -0.051507883 0.085736394 0.050962448 -0.026793895
0002a0 98 76 35 3d 5b 7e ec bc 3d f8 39 3d 0f 3a 46 bd
       0.044302553 -0.028868845 0.045402754 -0.048395213
0002b0 7d 49 70 bd 08 1d e4 3c cd a7 25 3b 03 3f f4 3c
       -0.058663834 0.027845874 0.002527702 0.029815203
0002c0 eb 8c c9 bc f0 aa 8b 3b 18 a2 34 3d d3 c9 ed 3c
       -0.024603328 0.0042623207 0.044099897 0.029026901
0002d0 dc 38 97 bd 09 32 0d bd c3 b4 69 3d 1e e9 27 3d
       -0.07383892 -0.034471545 0.057057153 0.040993802
0002e0 5c c6 5e bd 17 20 38 3c dc 04 72 3d 47 19 9b bc
       -0.05438839 0.01123812 0.059086666 -0.018932952
0002f0 22 70 80 3b 88 96 74 bd 23 8e a8 bc ca 92 37 3d
       0.0039196173 -0.05971387 -0.020575589 0.044817723
000300 5c a1 72 3c 59 38 30 3d 67 9b 6a 3d ac 78 7d 3d
       0.014808979 0.043022487 0.05727711 0.06188266
000310 bd 77 15 bc 69 46 fd bc 1e 0a 7d ba 54 19 67 3d
       -0.009122786 -0.030917363 -0.00096526917 0.05642064
000320 d5 e6 c4 3a 8c 86 83 3d 40 2b b0 3b 0b f3 3d 3b
       0.0015022407 0.06422147 0.0053762496 0.0028983976
000330 4a 56 35 bd e0 98 0f 3d 69 b7 da 3c b0 a5 62 3c
       -0.044271745 0.035057902 0.026698785 0.013833448
000340 ba 3c ee 3c e2 26 f6 3c 7a a2 82 3b 72 71 81 3d
       0.029081691 0.030047838 0.003986654 0.06320466
000350 04 34 22 bd e7 66 e0 3c 6d 1a c0 3c a8 f9 d0 3c
       -0.039600387 0.027392818 0.0234501 0.02550967
000360 be d2 a8 3c bc 72 84 3d a4 d5 9d 3c 92 bc 29 3c
       0.020608302 0.06467196 0.01926691 0.0103599
000370 5f 65 a8 bb 82 ee 3d bd 63 d4 79 3d c6 4b 56 3d
       -0.0051390375 -0.046370037 0.060993563 0.052318357
000380 0e 8e 1e bd c5 a3 c6 bc a9 2a 1c bb be 1e 70 bd
       -0.038709693 -0.024248013 -0.0023829138 -0.058623068
000390 50 f2 5c 3d de dd 63 3d 68 5c a9 ba e9 f7 a4 3d
       0.053942025 0.05563151 -0.0012921216 0.080550976
0003a0 e3 9b fa 3c ce cb 0e bd 6d 72 7b bd 6b 2f 84 bd
       0.03059191 -0.034862332 -0.06138842 -0.06454357
0003b0 c8 93 67 3d 9c 6a a2 3d de 9e 45 3d 40 f4 34 3b
       0.05653742 0.079304904 0.04824721 0.0027611405
0003c0 c9 15 95 39 a1 6b 42 3d b8 e9 a1 bc e4 ee 9a bc
       0.00028435726 0.047465924 -0.019764766 -0.01891274
0003d0 2d 65 ad bc ef 2a eb bc ab 7a a8 3c 0b a2 12 bc
       -0.021166408 -0.028706996 0.020566305 -0.008949767
0003e0 6f 1e 46 bd 9f 2d 89 3d 1d c3 f5 bb d8 cd 84 3d
       -0.048368867 0.06698155 -0.007500066 0.06484574
0003f0 c1 33 c7 3b c9 0e 2d 3c 49 e3 57 3d d0 85 ba 3c
       0.0060791676 0.010562607 0.05270699 0.022768885

features.5.bias f4 [64]
000000 47 40 b4 bc 78 8e 0b 3d d0 40 fe bc 70 fb 10 3d
       -0.022003306 0.034071416 -0.031036764 0.03539604
000010 bc 49 26 bc 9d 59 64 3d 40 56 06 bd a5 61 a0 3c
       -0.010149416 0.055749524 -0.0327971 0.01957781
000020 e1 0f d4 3c 23 a0 1c bd 50 3b ad bb 83 df 35 bc
       0.025886478 -0.038238656 -0.0052866116 -0.011100653
000030 be a2 87 3c 89 01 1b 3d f0 a2 35 3c 07 27 d2 89
       0.016557094 0.03784326 0.011086211 -5.0592362e-33
000040 a7 d5 a0 bb eb de 9c bc 00 a7 99 3d 12 fa cf 3c
       -0.004908282 -0.019149264 0.07502556 0.025387798
000050 59 28 6d bd 33 7d 7b 3d 63 4c 11 bb bd 5f 16 3d
       -0.057899807 0.061398696 -0.0022170774 0.036712397
000060 97 c2 91 3c 67 5b 05 00 0a ab 08 3d 76 a0 94 bc
       0.017792983 4.91966e-40 0.03336624 -0.01814292
000070 da bf 51 bd 67 6a 7b 3d e2 46 43 3d ee 8d 9a 3b
       -0.051208355 0.06138077 0.04767502 0.0047166264
000080 38 03 0e bb a0 2d df 3c 0d 3d 08 3d a6 39 3f bd
       -0.00216694 0.027243435 0.033261348 -0.046685837
000090 03 d1 28 3d 35 57 05 80 33 0c 3d 3d 3b 2c 33 bd
       0.041214954 -4.90461e-40 0.046154212 -0.043743353
0000a0 78 69 bd 80 a5 27 08 96 32 c0 85 bc f7 79 b7 bc
       -1.7394744e-38 -1.0998502e-25 -0.016326997 -0.022397025
0000b0 7c 9e fa bc 9f 5c 05 80 87 ca 1a bc 8e d0 f0 81
       -0.03059315 -4.92404e-40 -0.0094477 -8.846134e-38
0000c0 45 59 71 3b 53 d8 a6 bc a0 ee 0b bd fa 8f c0 bd
       0.003682689 -0.020366823 -0.034163117 -0.09402461
0000d0 09 5e f6 3b 28 99 40 3d f2 42 dd 3c b1 77 88 3c
       0.007518534 0.04702106 0.027009461 0.016658636
0000e0 cf f5 25 bd 74 c5 f5 bb 3e a3 8d bc 7f 3b 83 bd
       -0.040517624 -0.007500345 -0.017289754 -0.06407832
0000f0 74 5b 7b bc c8 e8 a6 bc 03 86 90 bc 51 00 8a 3c
       -0.015341628 -0.02037467 -0.017642027 0.016845854

features.7.weight f4 [64, 64, 3, 3]
000000 70 4b d4 90 53 1e a2 90 b4 d5 c4 8f 14 05 c6 91
       -8.3735486e-29 -6.3944455e-29 -1.9409408e-29 -3.1242021e-28
000010 94 5b cb 91 93 26 49 91 09 8c d8 91 21 2e 03 92
       -3.2084192e-28 -1.5867991e-28 -3.4165094e-28 -4.139317e-28
000020 96 ff c1 91 d9 48 07 8e f0 53 d5 8d bb dc 06 8c
       -3.0607548e-28 -1.667511e-30 -1.3147346e-30 -1.0389408e-31
000030 b0 10 5f 8f e1 91 57 8f 6c c9 54 8f f0 e6 1b 90
       -1.0997963e-29 -1.0628414e-29 -1.04911994e-29 -3.0746268e-29
000040 9f 8f 3b 90 5f e7 6f 90 91 b2 ab 09 78 4f 8f 81
       -3.698989e-29 -4.731268e-29 4.1334676e-33 -5.2643936e-38
000050 d2 33 8a 07 44 c8 1a 8f fd f7 12 8f 3f 02 11 8f
       2.079439e-34 -7.631356e-30 -7.2461166e-30 -7.1494845e-30
000060 d0 44 f2 8f 88 f9 15 90 14 cc 28 90 ec ea c0 8d
       -2.3889548e-29 -2.95773e-29 -3.3289374e-29 -1.1889469e-30
000070 43 91 2e 8d 9c 64 22 8d f5 47 44 8e 3a 83 a3 8d
       -5.379274e-31 -5.004121e-31 -2.4193511e-30 -1.0077242e-30
000080 78 70 8b 8d 9b 1f d3 8d 15 ab 32 8d 81 5b b0 8c
       -8.593612e-31 -1.3011488e-30 -5.5056417e-31 -2.7172166e-31
000090 c5 26 0e 90 de 59 85 90 b7 48 5e 90 70 73 83 91
       -2.803443e-29 -5.259771e-29 -4.3837798e-29 -2.07393e-28
0000a0 16 a2 92 91 15 56 35 91 33 b7 75 92 f0 7c 6f 92
       -2.3134632e-28 -1.4304908e-28 -7.753418e-28 -7.55691e-28
0000b0 1c 01 ed 91 74 62 b0 0a a1 39 69 8e c3 c6 1f 8f
       -3.739269e-28 1.6985217e-32 -2.8747215e-30 -7.877585e-30
0000c0 bc 6a df 0c bb 34 0f 0b 13 e5 05 86 d7 49 c3 90
       3.4422829e-31 2.7580468e-32 -2.5182817e-35 -7.7027707e-29
0000d0 9d d0 a7 8f 1b 43 59 85 d6 a7 44 09 66 23 bf 87
       -1.6547826e-29 -1.0215616e-35 2.3671558e-33 -2.8759291e-34
0000e0 7c 5f 0e 87 b2 1c 07 05 23 5c a0 85 be 49 14 86
       -1.0710953e-34 6.35294e-36 -1.5080173e-35 -2.7889883e-35
0000f0 ed 6e 6f 8f 79 f9 cc 8d 63 b3 c1 82 29 b5 1c 91
       -1.1804973e-29 -1.2632529e-30 -2.8461764e-37 -1.2362054e-28
000100 04 74 fb 90 59 2b ae 90 15 58 c5 91 7c a5 9f 91
       -9.9180794e-29 -6.8697686e-29 -3.1135404e-28 -2.5187764e-28
000110 a0 3d 0a 92 ee c8 17 91 5b 17 b1 90 c0 83 2f 91
       -4.362108e-28 -1.1973716e-28 -6.9850175e-29 -1.3845664e-28
000120 1d 8a 88 14 b0 1b 33 12 12 a3 86 90 4b 8d f1 13
       1.3786967e-26 5.651657e-28 -5.310493e-29 6.097628e-27
000130 6b df 49 0f b2 d5 86 8f 8f 8e 57 13 f1 d4 10 8e
       9.953094e-30 -1.3295733e-29 2.7207102e-27 -1.7851898e-30
000140 d9 f1 54 8e 9a cc 26 91 4a 04 1d 91 39 ab 03 91
       -2.6247463e-30 -1.3158139e-28 -1.2386438e-28 -1.038684e-28
000150 86 00 5f 92 56 6a 2f 92 3b 29 d0 91 17 6a 87 92
       -7.036704e-28 -5.5351333e-28 -3.2842024e-28 -8.545851e-28
000160 aa 74 46 92 f9 e9 d7 91 4e b6 53 8f 7c f2 dd 8f
       -6.2621583e-28 -3.4065216e-28 -1.0438214e-29 -2.1885684e-29
000170 cf c0 16 90 21 09 a4 90 d1 76 b6 90 11 f7 cc 90
       -2.9730818e-29 -6.470066e-29 -7.196941e-29 -8.084448e-29
000180 14 2d 1c 91 b1 42 1e 91 a1 dd 54 91 f0 ec 6e 90
       -1.2320121e-28 -1.2484553e-28 -1.6792146e-28 -4.7119754e-29
000190 73 bd 79 8f 7d 73 82 0a 3a 1a 30 90 b6 22 96 8f
       -1.23131344e-29 1.2561987e-32 -3.4730084e-29 -1.4804512e-29
0001a0 f4 4f a9 8e b3 87 07 90 aa 42 a3 8f 9d 6f 1b 8f
       -4.173871e-30 -2.6728594e-29 -1.6098719e-29 -7.663586e-30
0001b0 75 17 8b 8d fb b9 c3 8c 42 78 35 0a 8f aa 18 8f
       -8.572183e-31 -3.015644e-31 8.737451e-33 -7.527027e-30
0001c0 1c 79 c8 8e c0 4e 80 8e 54 42 b3 8f 0a 26 a6 8f
       -4.942043e-30 -3.163027e-30 -1.7676311e-29 -1.6383516e-29
0001d0 43 57 a3 8f bd 9d 60 91 fc d4 83 0e 74 ee 3e 0b
       -1.6106653e-29 -1.7719091e-28 3.249909e-30 3.677206e-32
0001e0 0d fe 1f 92 8d 4f d8 91 a5 47 e4 90 db 87 e7 91
       -5.0484695e-28 -3.4127818e-28 -9.004053e-29 -3.6529101e-28
0001f0 5d 51 89 91 65 d0 fb 90 c0 88 e8 8f f6 46 14 90
       -2.1664933e-28 -9.9323126e-29 -2.292964e-29 -2.924252e-29
000200 7d 6d 2a 90 3a de 94 91 39 62 a8 91 ed ca a4 91
       -3.3610935e-29 -2.348724e-28 -2.656626e-28 -2.59997e-28
000210 11 49 96 92 4d 11 e5 92 70 40 18 93 01 5b 05 00
       -9.484343e-28 -1.4456197e-27 -1.9216867e-27 4.91824e-40
000220 ab 5d 05 80 3f 1e 06 80 d2 59 05 00 40 59 05 00
       -4.92779e-40 -5.61863e-40 4.91399e-40 4.91194e-40
000230 c8 5e 05 80 33 57 05 00 c0 5c 05 00 f6 5e 05 00
       -4.93179e-40 4.90459e-40 4.9245e-40 4.93243e-40
000240 2d d2 c1 90 79 1a 92 90 10 87 49 90 87 44 8c 91
       -7.6448904e-29 -5.7627634e-29 -3.974431e-29 -2.2130339e-28
000250 42 56 26 91 05 03 86 90 67 bc 8c 92 6e 7d 23 92
       -1.3121671e-28 -5.285833e-29 -8.881687e-28 -5.1588335e-28
000260 e8 93 6a 91 0a 18 19 14 2b 0b 26 96 86 11 a2 94
       -1.8504922e-28 7.729267e-27 -1.3412897e-25 -1.6364732e-26
000270 cd 1d 8b 94 d9 14 8d 94 1b 7a 19 17 9c e9 ad 94
       -1.4047168e-26 -1.4245585e-26 4.9591085e-25 -1.7560679e-26
000280 30 2d 86 94 4b 19 d1 94 11 d6 9e 03 21 ba 23 85
       -1.3548366e-26 -2.1113583e-26 9.335553e-37 -7.69841e-36
000290 fa f8 b3 88 5c 2d 22 84 08 f3 8b 84 f8 74 1e 87
       -1.0831705e-33 -1.9063836e-36 -3.2901932e-36 -1.1920973e-34
0002a0 fa 4c 48 84 5e 07 91 83 d7 f2 12 85 b1 2f 81 14
       -2.3545233e-36 -8.5240255e-37 -6.90949e-36 1.3044482e-26
0002b0 5e f0 23 95 e6 a6 bd 15 1c d4 58 15 5a 4d ed 14
       -3.3107204e-26 7.659981e-26 4.3788177e-26 2.3961394e-26
0002c0 7c e0 45 15 59 e4 a6 94 34 79 f5 94 b5 fd 77 92
       3.996092e-26 -1.6851784e-26 -2.4786484e-26 -7.8252175e-28
0002d0 17 43 a7 97 16 27 09 17 e3 74 eb 16 98 68 84 17
       -1.0809058e-24 4.431642e-25 3.8040064e-25 8.556703e-25
0002e0 0f 6f 4e 98 e6 ad 06 99 83 f9 04 97 24 41 e1 16
       -2.6680946e-24 -6.962756e-24 -4.296643e-25 3.639182e-25
0002f0 59 25 d7 97 83 7d b7 8d b1 49 26 01 a2 11 53 85
       -1.3903477e-24 -1.1308462e-30 3.0542256e-38 -9.924411e-36
000300 8d 0f 88 8f e4 24 b0 8f e4 9c eb 8d a3 08 b9 8f
       -1.3416625e-29 -1.736915e-29 -1.4520763e-30 -1.8245735e-29
000310 24 3e 35 90 15 14 d1 90 4c ef e6 8f e1 32 2f 90
       -3.5743827e-29 -8.2466906e-29 -2.2771925e-29 -3.455186e-29
000320 4f cb 4b 90 62 ab cf 91 68 dc 0b 92 23 96 93 91
       -4.0191314e-29 -3.2764464e-28 -4.413234e-28 -2.328504e-28
000330 3c d6 5f 92 78 fc ab 92 2e ae 20 92 9b 03 3b 92
       -7.0630457e-28 -1.0853856e-27 -5.070179e-28 -5.901124e-28
000340 61 f8 00 92 f2 54 31 91 5b e9 e5 92 ed d6 c7 92
       -4.069583e-28 -1.3989014e-28 -1.4509458e-27 -1.2611649e-27
000350 fb 5e 95 92 22 68 69 92 bf 8c 1d 92 e6 a5 12 92
       -9.4266365e-28 -7.365019e-28 -4.971395e-28 -4.6273962e-28
000360 69 b1 42 87 ae 0d 51 88 5f a5 8a 8b ce fc 7b 0c
       -1.4647074e-34 -6.290973e-34 -5.340449e-32 1.9412412e-31
000370 04 07 30 87 74 69 40 0b 22 47 8c 0b cc c1 71 0b
       -1.324283e-34 3.705719e-32 5.403307e-32 4.6560708e-32
000380 93 02 81 06 0e 5b 05 80 d6 c5 04 80 12 5b 05 80
       4.852819e-35 -4.91842e-40 -4.38312e-40 -4.91847e-40
000390 ac 59 05 80 47 59 05 80 a3 3f 05 80 14 5b 05 80
       -4.91346e-40 -4.91204e-40 -4.82006e-40 -4.9185e-40
0003a0 91 5a 05 80 91 3e 05 80 c3 c2 93 91 5c 4d 63 91
       -4.91667e-40 -4.81622e-40 -2.3312542e-28 -1.7930981e-28
0003b0 ca 37 ec 12 08 a9 3a 93 58 7a e8 92 93 ab ff 92
       1.4907447e-27 -2.355984e-27 -1.4671418e-27 -1.6135059e-27
0003c0 69 b9 4f 93 68 fb ca 92 b0 85 98 92 40 39 8f 91
       -2.6218487e-27 -1.2809969e-27 -9.625505e-28 -2.2596705e-28
0003d0 76 7e 56 91 cb 47 7a 91 fc b5 21 92 e7 4d d7 91
       -1.6920592e-28 -1.9743646e-28 -5.1026955e-28 -3.396903e-28
0003e0 b9 10 b3 91 b3 d2 90 92 5e 66 51 92 47 d8 12 92
       -2.8251527e-28 -9.139619e-28 -6.607495e-28 -4.633606e-28
0003f0 46 fc 4a 90 61 66 df 8f ca 68 06 0c 86 0d 15 92
       -4.003182e-29 -2.2028933e-29 1.0354518e-31 -4.703278e-28

features.7.bias f4 [64]
000000 8f 4e 32 8f 98 ee 90 bd 44 38 5b bc 9b f1 f0 3c
       -8.7912074e-30 -0.07076758 -0.013380114 0.029412081
000010 d8 c0 01 00 0e 27 05 80 46 d1 04 80 45 d3 c1 bc
       1.61015e-40 -4.73188e-40 -4.42415e-40 -0.023660311
000020 d6 9f 0d 3d 71 04 6d bc c8 8e 01 00 91 a4 30 bd
       0.03457626 -0.014466391 1.43056e-40 -0.043125693
000030 f0 c8 a1 3c cf 08 3b 3d 37 f6 b4 3c 7b 33 85 95
       0.019749135 0.045662697 0.02209006 -5.3799494e-26
000040 55 86 97 85 ef 33 18 3d cb a8 ab 83 db e0 09 bd
       -1.4249318e-35 0.037158903 -1.008923e-36 -0.033661705
000050 60 6f f0 3c 8e 53 ba 81 13 3b 40 bd 32 56 69 3d
       0.029349983 -6.8445504e-38 -0.046931338 0.056966968
000060 c3 63 e6 bc 09 12 50 bd 89 b3 14 bc 59 d7 01 3c
       -0.028123742 -0.05079845 -0.009076008 0.007924878
000070 9d 6d e2 3a 7c 21 45 85 93 e9 1f 3c b8 a9 20 3c
       0.0017275099 -9.2690456e-36 0.009760278 0.009806089
000080 b6 25 bb 82 46 07 e7 3c 15 f1 8e 85 b0 d4 ca 3c
       -2.7498825e-37 0.02820171 -1.3442175e-35 0.02475962
000090 26 4f 17 80 61 df ec 3b c1 44 d2 bc b9 c7 51 8a
       -2.14061e-39 0.0072287773 -0.02566755 -1.01005476e-32
0000a0 94 85 bb bb 1e ec ec 3b e8 f0 dd 3b 9b 66 1f bd
       -0.005722711 0.007230296 0.006773103 -0.03891621
0000b0 c0 0b d2 3a 90 fe ea 3d 33 71 c9 bc 6e 80 2a 3b
       0.001602523 0.11474335 -0.02459011 0.0026016491
0000c0 b9 a0 df 3c 95 f6 a5 3c fe c0 0c 3b 28 93 ce bc
       0.027298318 0.020259181 0.0021477337 -0.025216654
0000d0 bb d0 71 83 6c e1 2b 3d 79 57 05 00 b9 f2 e2 3c
       -7.1063145e-37 0.041963026 4.90557e-40 0.02770363
0000e0 98 4b 90 bb 01 91 77 3b 6d 43 b2 bc b7 60 b4 bc
       -0.0044035427 0.0037775638 -0.021760667 -0.022018773
0000f0 25 af e9 97 2f 56 02 3d 36 e6 f7 3a 02 dc 97 83
       -1.5101485e-24 0.031820472 0.0018913213 -8.925494e-37

features.10.weight f4 [64, 64, 1, 1]
000000 9c 26 b6 24 63 fe fd 3d 9d 78 c5 bd 15 40 6a 3d
       7.8995325e-17 0.12402036 -0.09642146 0.05719002
000010 d6 4f 05 00 90 57 05 80 ce 71 11 00 c8 9f a2 bd
       4.87817e-40 -4.90589e-40 1.602029e-39 -0.07940632
000020 50 ba 4c 3a f9 b3 b8 3d dc 1d 67 00 29 18 e3 3d
       0.0007809745 0.09018702 9.469768e-39 0.110885926
000030 28 99 fc bd b1 46 51 bb 3f a4 f0 3c 04 eb bf 0f
       -0.123339 -0.0031933005 0.029375194 1.8924579e-29
000040 65 40 14 05 31 36 18 be 94 14 a5 07 90 23 a2 3c
       6.970754e-36 -0.14864422 2.4838535e-34 0.019792348
000050 ea 50 28 bd 38 51 6a 85 d9 42 5f bd ea cc bf bd
       -0.04109279 -1.1017545e-35 -0.05450711 -0.09365256
000060 39 94 29 be e0 d6 0d bc 0a dc dd 3d b5 a2 14 3e
       -0.16560449 -0.008657187 0.10832985 0.14515193
000070 56 7c 21 3e ab be da 07 fd 9a b0 bd 38 0e 9c 3b
       0.15770087 3.291306e-34 -0.08623312 0.004762437
000080 12 6e 46 85 77 75 ee bd 98 28 55 09 f1 de 43 bd
       -9.330132e-36 -0.116434984 2.565803e-33 -0.047820035
000090 68 fb e0 80 f9 11 0f be 1a e9 37 3d f7 9b cc 0a
       -2.0661339e-38 -0.139717 0.044900037 1.9703153e-32
0000a0 56 45 cb bd 17 ca fa b9 57 bd 29 3e 5b 28 ff 3d
       -0.09925334 -0.00047834284 0.16576134 0.12458869
0000b0 a3 f9 b6 3d 7d 68 a5 3d be 60 91 3d bb bf 26 01
       0.08934333 0.0807657 0.0709853 3.0626945e-38
0000c0 54 49 be bd aa 07 d5 3d 7b 1a df 3b 60 b3 90 bd
       -0.0929133 0.104018524 0.0068085766 -0.07065463
0000d0 38 df 0b 85 45 5a 05 80 f2 f5 ec a2 07 fa d7 3d
       -6.5767474e-36 -4.9156e-40 -6.4228333e-18 0.10545736
0000e0 4b ef 02 3e 6c ff df 3d 63 61 2d be 5e 25 8c 3d
       0.12786596 0.1093739 -0.16931681 0.06843065
0000f0 0d 99 cd aa de f3 c4 3d eb 4d 8d bd cc cc 51 05
       -3.6521516e-13 0.096168265 -0.06899627 9.864748e-36
000100 5f 7e 5f 23 63 0c 95 bc 3a 47 f4 3c 81 d3 9c bd
       1.2115614e-17 -0.018194383 0.02981912 -0.07657529
000110 70 e8 03 80 3c 57 05 00 d0 b5 01 00 35 b6 2a 3d
       -3.5889e-40 4.90471e-40 1.57058e-40 0.041677672
000120 84 a0 b2 3c b8 0b a3 3d f0 e7 02 00 d6 ec 8d bd
       0.021805055 0.079612195 2.66874e-40 -0.069299385
000130 1d 64 86 3d d9 4e 76 bd 1e ce df 3d d2 7f 50 8c
       0.06562064 -0.06013379 0.109279856 -1.6062202e-31
000140 ef 7d 82 05 0a 90 28 bd f1 e0 8b 07 62 a1 9f 3d
       1.2271402e-35 -0.04115299 2.1046604e-34 0.07794453
000150 f2 96 70 3c be 13 9c 85 65 f7 ce 3d 7c b5 7b 3c
       0.014684426 -1.4677422e-35 0.101057805 0.015363093
000160 54 66 f3 3c a4 74 9c bd 00 25 3d bd 02 6e 5a bc
       0.02971188 -0.07639435 -0.046177864 -0.013331892
000170 ef e0 cc 3c 30 3f 3d 08 34 02 f8 bc c8 57 05 80
       0.0250096 5.6949395e-34 -0.030274488 -4.90667e-40
000180 42 7a ff 84 34 cf 90 3d 6f 4b 9a 09 14 94 c7 3d
       -6.0062488e-36 0.07070771 3.714509e-33 0.097450405
000190 a2 15 21 81 b4 07 d5 3d 80 fa e9 bd 3d df af 8a
       -2.958655e-38 0.1040186 -0.11424732 -1.693586e-32
0001a0 0a 4e 7e bd e4 ea d7 bd 12 5a 05 00 64 07 f2 3d
       -0.062086143 -0.10542849 4.91489e-40 0.11817816
0001b0 c0 96 17 3d 5b 0f c5 3b 87 38 43 3d 28 c0 fb 3c
       0.037009 0.0060137934 0.04766133 0.030731276
0001c0 70 d6 00 bd 4a 44 bf bd 7a 3f 80 bd e0 dc 8d bd
       -0.031454504 -0.09339197 -0.06262107 -0.06926894
0001d0 da 9a 52 05 b0 57 df 3d 6e 21 0c 8e cf 5d d5 3d
       9.902594e-36 0.10905397 -1.7272428e-30 0.10418283
0001e0 7b 6b dc bd 7e cb 11 3d 94 8f 33 bd 33 e1 af bd
       -0.10762688 0.035594456 -0.0438381 -0.08587875
0001f0 30 2c 2d 26 5a f0 0e bb 3a ff ca 3d d1 55 f4 85
       6.008132e-16 -0.002181074 0.09911962 -2.2977174e-35
000200 5e 98 92 9a 7f be 61 bc 18 3c 99 3d 06 1e af 3d
       -6.063035e-23 -0.013778328 0.07482165 0.085506484
000210 34 57 05 80 58 57 05 00 1c 85 02 80 59 48 00 3e
       -4.9046e-40 4.9051e-40 -2.31422e-40 0.12527598
000220 ec 7d 36 3c 4a 4e 82 bd 60 97 03 80 f3 f5 71 3b
       0.011138421 -0.06362589 -3.2981e-40 0.0036920279
000230 93 5c 01 3d cf 75 70 bd 98 d9 f7 3d 43 57 05 00
       0.031582426 -0.0587061 0.121020496 4.90481e-40
000240 bb 3e a7 04 b0 ab cb bd 8a ca cb 05 2f 25 77 3d
       3.931912e-36 -0.09944856 1.916443e-35 0.060338195
000250 ca e2 9a bc 61 b0 66 84 25 fd 19 bd 19 d4 10 bd
       -0.01890697 -2.711736e-36 -0.037594933 -0.035358522
000260 e0 0a 99 3d 90 74 0e be f7 b3 87 3d 6c c8 16 be
       0.07472777 -0.13911653 0.066261224 -0.14724892
000270 f1 63 95 3c ad fb 81 07 ed 6c 1f bd ea 32 60 3a
       0.018236132 1.9557684e-34 -0.03892224 0.00085525087
000280 4b 29 56 84 f5 81 97 3c 25 54 dc 08 36 09 21 be
       -2.517454e-36 0.018494586 1.3260551e-33 -0.1572617
000290 02 e3 40 80 9d 48 1c bd b2 bb fa bc ba a5 a3 89
       -5.958907e-39 -0.038155187 -0.030607078 -3.939667e-33
0002a0 4e eb 52 3d 8c 55 08 be 9f 57 05 00 8f 67 0e bc
       0.051493935 -0.13313884 4.9061e-40 -0.0086916825
0002b0 6b 32 1b 3d 7b 1c 24 3d 38 30 0e bc 7a 8d 65 bd
       0.03788988 0.040066224 -0.008678488 -0.056043126
0002c0 0c 9e ba 3d 93 41 85 bc d6 b5 9c 3c 95 d0 99 3d
       0.09112176 -0.01626662 0.019129675 0.07510487
0002d0 5c 77 42 05 d5 88 46 3d 8e 21 02 80 64 4e 88 3d
       9.143759e-36 0.048470337 -1.95708e-40 0.06655577
0002e0 99 97 da bd b1 4f 69 3d 9a c1 e2 3d 9e 42 96 bc
       -0.10673446 0.056960765 0.11072083 -0.018342312
0002f0 a8 98 5b a2 76 eb d1 bc e8 ab d8 bd 69 22 26 85
       -2.976085e-18 -0.025624972 -0.105796635 -7.8116026e-36
000300 a1 75 0a 20 f7 cf a7 bd f1 3b c2 bc 77 0e b1 bd
       1.1727975e-19 -0.08193963 -0.023710223 -0.08645337
000310 36 57 05 80 90 57 05 80 c0 e4 00 00 8e 6a 8b bd
       -4.90463e-40 -4.90589e-40 8.206e-41 -0.06807433
000320 11 39 e9 3c da 0d c4 3d ae e2 18 00 1f 0d 93 3d
       0.028469594 0.095729545 2.285369e-39 0.07180237
000330 a5 21 4b bd 24 46 ca 3d 2e 5d a7 bc 01 5d 2f 82
       -0.049592633 0.098766595 -0.020430174 -1.288366e-37
000340 c2 66 ce 04 d1 b7 0a bc f1 0c 15 07 a9 20 c3 3d
       4.8524735e-36 -0.008466677 1.1213317e-34 0.09527714
000350 e3 5f 72 bd 02 e1 8d 84 d6 64 cc 3d 2d 6b 17 3d
       -0.059173476 -3.3355578e-36 0.099801704 0.036967445
000360 18 6f 5a bd 5f 39 12 3d b6 e9 b6 3d a1 9e c6 3b
       -0.053328604 0.035699245 0.089312956 0.0060613905
000370 fe be ea 3d b9 b6 3d 07 e1 28 75 3c 16 a2 0b 3e
       0.1146221 1.4272477e-34 0.01496336 0.1363605
000380 3c 32 65 84 a0 be 56 bd f5 5b d4 08 b8 38 f9 3d
       -2.6941887e-36 -0.052427888 1.2780905e-33 0.12169021
000390 d2 bd 6c 80 c4 e2 bb bd 21 43 e2 3d 3c 5e 30 0a
       -9.986328e-39 -0.091741115 0.1104796 8.491815e-33
0003a0 5b f9 0a 3e 50 17 42 3d e1 ff 6a 3d a6 24 e0 bb
       0.13571684 0.047385514 0.05737293 -0.0068403063
0003b0 3e e0 00 3e 4c a3 fa bc 5b 82 33 bd 8e 59 05 00
       0.12585542 -0.030595444 -0.04382549 4.91304e-40
0003c0 fb b4 c2 bd a9 43 03 3e 57 86 c4 3d fa cb fe 3c
       -0.095071755 0.12818779 0.09595936 0.031103123
0003d0 81 5c 31 84 a3 54 aa 3b 5d da 08 9d aa f3 92 3d
       -2.0848726e-36 0.0051980778 -1.8112341e-21 0.071753815
0003e0 fe bc cf bc 6b d4 cd bd 67 7b 96 3d 07 ca 64 3d
       -0.025358673 -0.10050281 0.07347756 0.05585673
0003f0 4b 1c ce a8 ec e5 d5 3c d1 37 7c bd 62 ee 08 05
       -2.2882864e-14 0.026110612 -0.06157667 6.438473e-36

features.10.bias f4 [64]
000000 b8 0b d3 bd fb 90 c0 bd 3d f5 50 bd 45 64 05 bd
       -0.103049695 -0.09402653 -0.051015127 -0.032566328
000010 c2 ac 8f 3d 09 d2 0b bd e5 ad a5 3d 51 6a ce 81
       0.07015373 -0.034135852 0.080898084 -7.5825005e-38
000020 79 6c 03 3a 01 b8 a7 b6 e9 5a 70 3c 8a af ed 38
       0.0005013417 -4.9984087e-06 0.014670112 0.00011333737
000030 d0 a5 36 bc 56 af a9 8a 3b 0a d9 81 16 a0 54 3d
       -0.011147931 -1.6340062e-32 -7.972789e-38 0.051910482
000040 54 8a 68 bd a1 c0 44 3d bc 22 45 bc 37 c2 23 88
       -0.056772545 0.048035268 -0.012032207 -4.9279327e-34
000050 89 72 2c bd f0 15 66 bd 0d 8e bc 87 8d 99 05 3e
       -0.042101417 -0.056173265 -2.8370586e-34 0.13046856
000060 db 67 d8 bd 13 74 b2 87 c0 5e 19 3d b5 8a fc bd
       -0.10566684 -2.6850686e-34 0.037443876 -0.12331144
000070 77 36 7b bd f6 34 ba 3d 2b e7 af 3d a5 5b 05 80
       -0.06133124 0.09092133 0.08589014 -4.92053e-40
000080 4e 6b 48 3d c5 71 b2 3c 1f 74 05 bd da 17 f2 3c
       0.04893046 0.021782765 -0.032581445 0.029552389
000090 ae f2 dc bd 4e e5 fe bd a7 e2 cd bd 37 79 0e 90
       -0.10788475 -0.1244608 -0.10052996 -2.8097943e-29
0000a0 a2 6c 89 3c e1 ea 2c 3b 62 c6 cc 3d 40 36 cf ba
       0.016775433 0.0026385116 0.09998776 -0.0015809014
0000b0 02 61 73 bd 9c 47 01 bd df e0 bf bd c9 2b bb 3d
       -0.059418686 -0.031562433 -0.09369063 0.09139211
0000c0 0e f7 05 3e 54 11 05 bd a2 5f 05 3d 1d e8 36 bc
       0.13082525 -0.03248723 0.032561906 -0.011163739
0000d0 48 b6 9d bd bf 2f 7a b6 3a 57 05 00 23 f0 3a 3d
       -0.07700783 -3.7280695e-06 4.90468e-40 0.04563917
0000e0 dd ee 83 3d 7d cf 2a 3d 4a de bb bd fd bb 30 3d
       0.06442044 0.041701782 -0.09173258 0.04314803
0000f0 7c 8a 93 86 db d6 4d 3d 08 8f 6a 3d 7c 1a 54 ba
       -5.549874e-35 0.05025373 0.05726531 -0.00080911047

classifier.0.weight f4 [3, 64]
000000 4a 8f 16 3e 8d 5b 8f 3d bd a5 c5 3d f5 e8 03 bd
       0.14703098 0.06999884 0.09650753 -0.032204587
000010 3d a2 b8 3d 0f ca ec 3d 3a 9a e6 3d 32 bb 86 81
       0.090153195 0.11561977 0.11259885 -4.949244e-38
000020 9c a6 0d bb aa 7b 95 b5 62 30 98 38 db 3e 1f 3a
       -0.00216142 -1.1137356e-06 7.256937e-05 0.0006074735
000030 41 90 a9 bc 6d a0 70 88 4a d0 59 80 8b a9 e2 bd
       -0.020698668 -7.2410953e-34 -8.248079e-39 -0.11067494
000040 1e 1b 35 bd be a9 ac 3d a7 92 19 3c ce 21 68 8c
       -0.044215314 0.08430813 0.009373344 -1.7882803e-31
000050 44 1b fa 3d 7b e7 e9 3d 44 61 49 8f 93 b6 12 3e
       0.12212232 0.114211045 -9.928798e-30 0.14327459
000060 e5 64 4a 3c 23 57 34 89 ab 06 cc 3d be df bc bd
       0.012353157 -2.1707683e-33 0.09962209 -0.09222363
000070 75 57 8e 3d 46 73 03 bc bd 78 1a bd 89 61 05 00
       0.06950275 -0.008023089 -0.0377128 4.94167e-40
000080 64 e2 a3 3b 9c 60 95 3c 32 ef 86 bd bf 68 84 bd
       0.005001353 0.018234544 -0.06588592 -0.06465291
000090 2e 0a 28 3d 45 e4 09 bd 55 7c 4b bd 3a 47 e2 13
       0.041025333 -0.03366496 -0.04967912 5.7120655e-27
0000a0 16 46 9a bd 26 7b 2d bc 06 62 70 3d aa 61 7e bd
       -0.07532899 -0.010588443 0.058687232 -0.06210486
0000b0 2c b4 05 bc 5e 38 76 3c 9a 79 a8 3d c3 86 a1 3d
       -0.008160632 0.015028087 0.08226319 0.07887032
0000c0 06 ee ab 3d 8e 32 98 bd c8 cb 18 3c ef 53 cb 3d
       0.08395009 -0.074315175 0.009325929 0.099281184
0000d0 5e e5 a7 bd 27 da 2f 37 48 77 04 80 84 24 da 3a
       -0.08198045 1.0481605e-05 -4.10132e-40 0.0016642963
0000e0 aa 46 0a 3d 03 08 33 3d ea f4 cf 3d 97 54 41 3d
       0.033758797 0.043708812 0.101541355 0.04719981
0000f0 2d 8d 05 08 97 20 24 ba 2d 25 44 3e d4 ae 84 bd
       4.0189183e-34 -0.000626096 0.19154806 -0.06478658
000100 e5 e4 c5 bd 9b a4 d4 bd 5c e5 11 3d 25 bc ef bd
       -0.09662799 -0.103829585 0.035619125 -0.117058076
000110 01 ef e1 bd b8 2a cf 3d df b5 aa 3b 03 bb 86 01
       -0.110319145 0.1011557 0.005209669 4.9492175e-38
000120 6e 82 42 3a 26 94 95 35 b0 e9 23 ba 7e 3b 1f ba
       0.0007419948 1.1144482e-06 -0.00062527787 -0.00060742337
000130 31 6e 64 3b 6d a0 70 08 4a d0 59 00 44 37 e6 3d
       0.0034855718 7.2410953e-34 8.248079e-39 0.1124101
000140 14 ec 0c 3c 4b 04 ae bd 5f 31 77 39 c6 21 68 0c
       0.008601207 -0.084969126 0.00023574148 1.7882793e-31
000150 07 65 03 3e 95 dd da 3d 44 61 49 0f 9f 4d ca bc
       0.12831508 0.10686795 9.928798e-30 -0.024695216
000160 4e 8d a1 bd 3b 57 34 09 25 d2 ec 3b bc 04 3f 3c
       -0.0788828 2.1707727e-33 0.0072271996 0.011658844
000170 da 57 00 bd ec 74 c2 3c 39 6e f3 3d 2e 58 05 80
       -0.03133378 0.023737393 0.11886258 -4.9081e-40
000180 f5 1c 96 bd fd 60 a1 bd 4a f3 67 3d d6 87 bd 3d
       -0.07329742 -0.07879827 0.056628503 0.09254424
000190 96 56 1d 3c c4 f5 f0 3d c7 08 dc 3c 3a 47 e2 93
       0.009603163 0.11765626 0.026859654 -5.7120655e-27
0001a0 1f 10 7d 3d 04 81 1e 3c 24 6a bd bd 18 fa 46 3d
       0.061782952 0.009674314 -0.0924876 0.04857835
0001b0 fd b7 98 3d 3b 38 76 bc f9 30 28 3d 10 98 11 3c
       0.07456968 -0.015028055 0.04106233 0.008886352
0001c0 94 9e d0 bd a5 b3 0f 3e cf ae 06 3e d0 87 41 3c
       -0.101864964 0.14033373 0.13152622 0.011812165
0001d0 4a d5 ed 3b 78 c6 39 b6 2e 77 04 00 05 da 7c 3b
       0.007258092 -2.7682672e-06 4.10096e-40 0.0038582098
0001e0 b2 63 62 3d a7 3b 7a 3d 66 f3 f8 bd 1a e2 cb bc
       0.055270858 0.061092045 -0.121557996 -0.024888087
0001f0 29 8d 05 88 7f 0c bb b9 38 ae 18 bc 87 22 14 3e
       -4.0189165e-34 -0.0003567673 -0.009318881 0.14466296
000200 52 c3 bd bb 97 69 92 bb e2 56 ce ba d9 4a bc bb
       -0.0057911063 -0.0044681537 -0.0015742446 -0.005746227
000210 d0 7a 28 b9 1f 8c 8a bb b1 b2 9b bb 77 57 05 80
       -0.0001606748 -0.0042281295 -0.0047515263 -4.90554e-40
000220 8d e8 38 b7 f5 dd b9 ab 11 ec 2e b2 55 85 b9 b6
       -1.10214e-05 -1.3206646e-12 -1.0181808e-08 -5.5289515e-06
000230 23 ac 1a bb e0 69 05 80 8a 57 05 80 dc 35 f3 ba
       -0.0023601137 -4.97158e-40 -4.9058e-40 -0.001855548
000240 d8 28 bc bb 2e a3 36 bb 07 ec 39 ae ce 6a d1 80
       -0.0057421736 -0.0027868259 -4.2273764e-11 -1.9231933e-38
000250 1d 5b 01 bc 22 11 01 bc 86 c8 49 83 c9 6d d8 bb
       -0.007895258 -0.00787762 -5.929878e-37 -0.0066048843
000260 00 65 8e bb c4 61 15 80 85 f1 45 bc dc e1 b9 bb
       -0.004345536 -1.963617e-39 -0.0120815085 -0.0056726765
000270 07 d7 cc bb 3b 7b 07 bc 3c 92 e7 bb 0b 62 05 00
       -0.006251219 -0.0082691265 -0.007066993 4.94349e-40
000280 ae 50 05 bb 0c ae ac bb b9 7b 98 bb fc 49 47 bb
       -0.0020342278 -0.0052697714 -0.0046534208 -0.0030409088
000290 cc d5 03 ba e0 df 5b bb 2c c1 99 bb b7 99 28 87
       -0.00050291116 -0.0033550188 -0.0046922173 -1.2684088e-34
0002a0 84 87 ee bb 48 b4 fa bb de 44 00 bc 2c cc 04 bc
       -0.0072793383 -0.0076508857 -0.007828919 -0.008105319
0002b0 2e 1c 7e ba 11 59 ef b9 e6 19 c0 bb a9 b9 fa bb
       -0.000969353 -0.00045651992 -0.0058624623 -0.007651527
0002c0 ca 80 81 ba 04 76 d2 bb f7 f6 0f bc 79 1c 65 bb
       -0.0009880301 -0.00642276 -0.008786908 -0.0034959598
0002d0 6a 4e e0 bb 56 16 a8 b3 74 57 05 00 14 69 f0 b0
       -0.006845285 -7.8271725e-08 4.9055e-40 -1.7492163e-09
0002e0 3c 6d dc bb 02 8d b2 bb 9b 99 9c bb e7 72 38 bb
       -0.006726889 -0.0054489383 -0.0047790534 -0.002814466
0002f0 37 57 05 80 20 b4 8e b4 55 d7 07 ba fd d2 e7 bb
       -4.90464e-40 -2.658062e-07 -0.0005181928 -0.0070747123

classifier.0.bias f4 [3]
000000 0c 27 81 bc d4 33 04 bd 39 52 d2 b9
       -0.01576569 -0.03227599 -0.00040115582
