benchmark_model_data/15000_image_experiment_50_epochs/benchmark_experiment_increased_data/experience_1/model_experience_1.pth (torch, 854722 bytes, 36 tensors)

features.0.weight f4 [32, 3, 3, 3]
-0.03642486 0.12632093 0.006174376 -0.15419582 0.059331443 0.08179502 -0.041861802 -0.042980082
0.0105840955 -0.046362396 -0.12606902 -0.13363774 0.16614142 -0.0060400874 0.1608313 0.081706524
0.117136404 0.1905249 -0.15375437 0.10560478 0.15197814 0.027372293 -0.17804085 -0.06272146
0.049920745 0.06783793 0.18680885 0.060147483 0.024895715 -0.004292884 0.09560486 -0.12310549
0.066889584 -0.032862645 0.17159663 0.06434711 -0.022825819 -0.10509379 0.11191533 -0.10002868
0.19620417 -0.028016247 0.06606943 0.14286223 -0.030972596 0.15262294 -0.01615895 0.0066773384
-0.09804297 0.073946536 -0.024379717 -0.04134799 0.17861807 -0.002958701 0.061804872 0.1662631
-0.04276905 0.15305157 -0.013728836 -0.1259695 0.12183863 0.11862208 0.078671694 -0.18036659
-0.13993247 -0.17800912 -0.16766419 0.03965422 0.15342852 -0.102974564 0.06731549 -0.021800144
0.023595365 0.17120372 -0.05522044 -0.045315556 -0.13790418 0.109657325 -0.00054726284 0.025124818
0.044575423 0.040397786 -0.11330812 -0.051517077 0.098168254 -0.17740123 0.14513038 0.17148656
-0.12212668 -0.088094115 -0.19046137 0.12767893 -0.19932707 -0.013064008 0.0480061 -0.1246871
0.12480105 -0.013767192 -0.052517705 -0.15424842 -0.025416201 -0.0520516 -0.099221855 0.037762713
0.062398203 0.15172228 -0.12668891 0.10157042 -0.10406862 0.17094529 -0.089808516 0.12090347
0.104484335 0.045268133 0.019873433 0.133038 0.14001606 -0.07695967 0.09085384 -0.07843868
0.19060639 0.06668643 0.1751127 0.17684856 -0.02105362 0.1652194 0.13188013 0.18884784
-0.12626165 -0.0016836831 0.045499902 0.013420622 -0.13884735 -0.16204916 -0.14568758 -0.07630081
0.15099834 -0.16599785 0.1354477 0.06606422 0.018263737 0.0351471 0.054952823 0.09864261
0.07636943 -0.08060126 -0.11299984 -0.007121278 -0.19258775 -0.07337156 -0.12803225 0.024816751
-0.091433674 -0.053669453 0.052437723 0.12576646 -0.18399215 -0.18049343 -0.18922326 -0.12280865
-0.026725173 0.1563595 -0.15087578 -0.06541459 -0.054565486 -0.20069987 -0.08261732 -0.10247166
-0.027536826 0.021386065 0.114438035 -0.061575383 -0.048699364 -0.07024593 -0.045827914 0.022626454
-0.07552376 0.17437203 0.09231761 0.12637186 -0.036512006 0.09774682 -0.15606673 0.031065986
0.0195444 -0.18903509 -0.015571939 -0.020036394 -0.026768383 0.091059245 -0.094054736 0.005947936
-0.02833155 -0.17481214 -0.030504305 0.13846302 -0.009289151 -0.11815188 -0.18215367 0.03344119
-0.07483756 -0.17882304 0.17804654 0.08797146 -0.17182049 -0.033892453 -0.18590337 0.0950602
-0.08679713 -0.06668979 -0.1888179 -0.07944827 0.14328377 0.1024295 0.17337473 -0.1856576
0.07508829 0.15670305 -0.061943963 -0.15036492 0.038027134 0.17690827 0.0726832 0.020153727
-0.14782085 0.19510072 0.030887462 0.11325836 -0.025647124 0.073852114 -0.010768411 0.00268687
-0.091388166 0.07636774 -0.018464023 -0.105889395 0.10884778 -0.11255249 0.016850837 0.17530705
0.1325888 -0.1652449 -0.047494926 -0.13119447 -0.09246687 0.11196067 -0.07508386 0.055405907
-0.14854999 -0.05589023 -0.1588998 0.021068772 0.1648816 0.06427571 -0.10751353 -0.12613325
00000000: 3c32 15bd 465a 013e 6b52 ca3b 82e5 1dbe
00000010: 8705 733d 2684 a73d 4877 2bbd e20b 30bd
00000020: ea68 2d3c 7fe6 3dbd 3d18 01be 55d8 08be
00000030: fa20 2a3e edeb c5bb f6b0 243e c055 a73d
00000040: 36e5 ef3d f618 433e c971 1dbe 5247 d83d
00000050: 28a0 1b3e dc3b e03c 5750 36be 1c74 80bd
00000060: b279 4c3d 9dee 8a3d d24a 3f3e 355d 763d
00000070: 19f2 cb3c 52ab 8cbb 7bcc c33d bb1e fcbd
00000080: 68fd 883d fb9a 06bd 07b7 2f3e 6bc8 833d
00000090: 36fd babc 6a3b d7bd dd33 e53d d6db ccbd
000000a0: bfe9 483e 5482 e5bc 694f 873d 7a4a 123e
000000b0: 3eba fdbc 3049 1c3e c65f 84bc 93cd da3b
000000c0: c1ca c8bd 4871 973d f9b7 c7bc 835c 29bd
000000d0: a8e7 363e c4e6 41bb 1b27 7d3d e040 2a3e
000000e0: 992e 2fbd 8db9 1c3e e9ee 60bc 26fe 00be
000000f0: 8886 f93d 22f0 f23d a01e a13d 05b2 38be
00000100: 754a 0fbe 0648 36be 29b0 2bbe 776c 223d
00000110: 5e1c 1d3e 54e4 d2bd b4dc 893d 3796 b2bc
00000120: 114b c13c 0750 2f3e d42e 62bd ce9c 39bd
00000130: c136 0dbe 0594 e03d 3076 0fba 90d2 cd3c
00000140: b894 363d 2678 253d 160e e8bd 9203 53bd
00000150: 700c c93d aba8 35be 0f9d 143e 2c9a 2f3e
00000160: 8e1d fabd b06a b4bd 4e08 43be 44be 023e
00000170: 651c 4cbe 6c0a 56bc 0ba2 443d f35b ffbd
00000180: b197 ff3d ca8f 61bc ce1c 57bd 4cf3 1dbe
00000190: a335 d0bc 0f34 55bd d434 cbbd 13ad 1a3d
000001a0: 4295 7f3d 165d 1b3e bdba 01be 2704 d03d
000001b0: ee21 d5bd 480c 2f3e 87ed b7bd 3d9c f73d
000001c0: e2fb d53d 146b 393d 9ccd a23c 1d3b 083e
000001d0: 5f60 0f3e 089d 9dbd 9411 ba3d 75a4 a0bd
000001e0: 522e 433e e592 883d be50 333e ca17 353e
000001f0: a478 acbc 462f 293e 960b 073e 5461 413e
00000200: bc4a 01be 08af dcba 1b5e 3a3d 2be2 5b3c
00000210: 002e 0ebe 37f0 25be 202f 15be 9943 9cbd
00000220: 4f9f 1a3e 57fb 29be cdb2 0a3e ae4c 873d
00000230: d59d 953c 68f6 0f3d 3616 613d 2305 ca3d
00000240: 9367 9c3d 4612 a5bd 766c e7bd 9c59 e9bb
00000250: b935 45be d443 96bd e31a 03be 804c cb3c
00000260: 9441 bbbd 80d4 5bbd f0c8 563d ecc8 003e
00000270: 7068 3cbe 45d3 38be bec3 41be 1a83 fbbd
00000280: c0ee dabc b41c 203e 2e7f 1abe 16f8 85bd
00000290: 0f80 5fbd 4484 4dbe 4533 a9bd a9dc d1bd
000002a0: e994 e1bc d431 af3c 7d5e ea3d 7836 7cbd
000002b0: fc78 47bd 19dd 8fbd 0db6 3bbd 1d5b b93c
000002c0: 33ac 9abd 958e 323e 0411 bd3d a067 013e
000002d0: 9d8d 15bd 7c2f c83d f5cf 1fbe 187e fe3c
000002e0: 941b a03c 6a92 41be 7221 7fbc 5d23 a4bc
000002f0: 5e49 dbbc 457d ba3d c59f c0bd e7e6 c23b
00000300: 9117 e8bc f401 33be 2ae4 f9bc 40c9 0d3e
00000310: 8631 18bc 9df9 f1bd 7e86 3abe a1f9 083d
00000320: 6f44 99bd 631d 37be d551 363e 612a b43d
00000330: b6f1 2fbe d0d2 0abd 745d 3ebe ecae c23d
00000340: b2c2 b1bd a894 88bd 7b59 41be c6b5 a2bd
00000350: fbb8 123e 8fc6 d13d 2589 313e 071d 3ebe
00000360: e4c7 993d c476 203e f4b8 7dbd 43f9 19be
00000370: 57c2 1b3d 7127 353e eeda 943d 6e19 a53c
00000380: 595e 17be 7cc8 473e b407 fd3c 00f4 e73d
00000390: eb19 d2bc c73f 973d fd6d 30bc 3316 303b
000003a0: b829 bbbd b166 9c3d dd41 97bc 8adc d8bd
000003b0: 96eb de3d eb81 e6bd c40a 8a3c b183 333e
000003c0: 5cc5 073e f635 29be 0a8a 42bd d857 06be
000003d0: 455f bdbd a34b e53d 91c5 99bd 4ef1 623d
000003e0: 7d1d 18be 27ed 64bd a1b6 22be 6b98 ac3c
000003f0: b9d6 283e fca2 833d 0e30 dcbd 1329 01be

features.0.bias f4 [32]
-0.1217677 0.113901734 -0.18968531 -0.08358393 -0.008760141 -0.14152399 -0.129331 -0.14863981
0.17064932 -0.183158 0.15560073 0.05520446 -0.035074905 0.1315517 -0.15276101 -0.06747641
-0.07997708 -0.11962044 0.12345517 -0.14754182 -0.051176045 -0.023930233 0.110953644 0.12664267
0.14223811 -0.16562597 -0.13230108 0.16316073 0.028593568 0.03654668 -0.11858335 -0.057701595
00000000: 5861 f9bd 5045 e93d de3c 42be 0d2e abbd
00000010: b286 0fbc aaeb 10be 586f 04be 0935 18be
00000020: b2be 2e3e c58d 3bbe cc55 1f3e 121e 623d
00000030: b4aa 0fbd 7db5 063e 626d 1cbe 1231 8abd
00000040: 06cb a3bd 90fb f4bd 10d6 fc3d 3415 17be
00000050: f99d 51bd 5609 c4bc aa3b e33d 9eae 013e
00000060: dea6 113e db99 29be ef79 07be 9b13 273e
00000070: 0f3d ea3c f9b1 153d d4db f2bd 8258 6cbd

features.2.weight f4 [32, 32, 3, 3]
-0.043196984 -0.0059539312 0.02023915 0.043380983 0.010975837 0.0032419085 0.013358448 0.0021446382
0.062108684 0.025233677 -0.056641117 0.009855145 -0.023875197 -0.04213404 -0.029426718 -0.05614333
-0.023669036 -0.037678085 0.051581103 0.04737152 0.05151102 -0.013446607 -0.028111862 0.036596127
0.02481696 -0.027106917 0.015936766 0.04410699 0.05607618 -0.0005942105 0.014021012 0.0049935887
0.010097289 -0.0008518774 -0.0074036377 0.027361462 0.040529717 -0.062016863 0.0031660756 0.045144316
-0.039823852 -0.0018659768 0.02403026 0.008087567 0.0055948435 0.017745763 -0.037823115 -0.030334566
0.04719412 -0.029248439 0.002876742 -0.043402005 0.026578333 -0.014047134 -0.039579965 -0.005385828
-0.018577674 0.06343338 0.051029388 -0.023777273 -0.024780435 0.047489066 0.047449958 -0.031018492
-0.0037532973 -0.0056513455 0.0517604 0.03769966 -0.039424386 0.04016285 0.03304785 -0.042024445
-0.048251666 -0.010213881 0.016713832 0.0020281463 -0.0024973608 0.004219512 0.052350808 -0.05265271
-0.019819792 -0.0213111 -0.05045406 0.0038057154 0.021695817 0.03827823 -0.020196512 0.056650992
-0.024999578 0.01716628 0.055133354 -0.048533168 0.050373025 0.030281454 0.0633762 0.028007638
0.030119542 -0.038474675 0.026100341 -0.017512755 0.025670348 0.05819483 -0.008608532 0.012054316
-0.030580373 -0.030729506 0.023698678 0.015472468 -0.020600343 0.06402762 0.05649577 0.036804475
0.011047717 -0.017855499 0.050133478 -0.03307073 0.055903837 -0.01481463 -0.053415414 0.044548865
-0.00081065914 0.011669586 0.007983463 -0.004263896 0.013398176 0.040669236 0.033020686 -0.01897291
-0.033707973 -0.048703276 -0.0021525302 0.0015792057 -0.021082964 -0.00693946 0.030433208 0.02769769
-0.026180996 -0.04622087 -0.0051838052 0.00066264626 0.05125754 0.002680653 -0.032908637 -0.015011577
-0.03283992 -0.026903989 0.019139925 -0.043016028 0.021065688 0.01923611 0.01074996 0.0039751907
-0.009188677 -0.025132291 0.062071163 -0.03156717 0.013707028 0.016792623 0.036088914 0.039217796
0.036837075 -0.02479391 -0.03255497 0.044267878 -0.039943747 0.05186395 0.04121359 0.0071495343
0.017507473 0.020662028 -0.04539819 0.03596221 -0.016081948 0.04487193 -0.040420275 0.00081266003
0.04659951 0.03168395 0.057813853 -0.005489891 -0.008437037 0.036887985 -0.047109276 0.02106692
0.016700998 0.021215675 0.05414686 -0.055456094 -0.044091895 0.017735282 0.049166493 0.01129663
-0.01681363 0.045763392 0.0017624022 0.0008711779 -0.05123713 0.02285744 0.038047064 0.03205549
-0.049691226 0.048960097 -0.014176824 -0.046751667 0.05344619 -0.029905198 -0.0017097833 -0.003126117
0.046566222 -0.021856667 0.055170663 -0.04504398 -0.011045496 0.051099394 0.0047795326 -0.049564168
-0.029121047 3.6941725e-05 -0.02024843 -0.04102647 -0.048806462 0.042250585 0.03443154 -0.049214553
-0.017760437 0.038226876 -0.059003726 0.049277063 0.05053564 -0.009120017 0.053004976 -0.040748306
-0.04003312 -0.035733674 -0.003627409 0.051350582 0.0033695188 0.02175247 0.030041778 0.038604543
0.026492646 -0.024421785 -0.046120115 0.062292956 0.000767846 0.06380303 0.0034671205 -0.048979312
0.031286355 0.011931668 0.04943564 -0.0050525093 -0.05082641 -0.020158825 -0.041608784 -0.025562676
00000000: 52ef 30bd 3219 c3bb 93cc a53c 42b0 313d
00000010: ffd3 333c 3376 543b 64dd 5a3c 0f8d 0c3b
00000020: ad65 7e3d dbb6 ce3c 8400 68bd 7977 213c
00000030: eb95 c3bc be94 2cbd 4d10 f1bc 8cf6 65bd
00000040: 91e5 c1bc 5654 1abd b546 533d a408 423d
00000050: 38fd 523d 284f 5cbc d94a e6bc d2e5 153d
00000060: f04c cb3c 530f debc d28d 823c 88a9 343d
00000070: 23b0 653d cbc4 1bba 63b8 653c 42a1 a33b
00000080: 1a6f 253c 8650 5fba 379a f2bb 2525 e03c
00000090: 7d02 263d 6505 7ebd ef7d 4f3b 3fe9 383d
000000a0: 561e 23bd cb93 f4ba 1cdb c43c b781 043c
000000b0: f354 b73b 905f 913c 69ec 1abd 3280 f8bc
000000c0: 9f4e 413d 6c9a efbc b987 3c3b 4dc6 31bd
000000d0: ceba d93c f325 66bc 9a1e 22bd 9a7b b0bb
000000e0: 3530 98bc 5ce9 813d 3104 513d 8ec8 c2bc
000000f0: 5700 cbbc e583 423d e35a 423d 7e1a febc
00000100: e1f9 75bb ec2e b9bb b702 543d f56a 1a3d
00000110: 777b 21bd cd81 243d 2f5d 073d d321 2cbd
00000120: 8aa3 45bd 1f58 27bc 72eb 883c a6ea 043b
00000130: c3aa 23bb d543 8a3b cd6d 563d 5eaa 57bd
00000140: 1e5d a2bc 9e94 aebc eba8 4ebd 4f69 793b
00000150: 6dbb b13c a2c9 1c3d 2873 a5bc df0a 683d
00000160: eacb ccbc 4ca0 8c3c 83d3 613d b7ca 46bd
00000170: f253 4e3d d010 f83c 62cb 813d 4670 e53c
00000180: 42bd f63c 9f97 1dbd 62d0 d53c e976 8fbc
00000190: 9f4a d23c b45d 6e3d cd0a 0dbc 777f 453c
000001a0: b183 fabc 72bc fbbc bb23 c23c 3c80 7d3c
000001b0: 0dc2 a8bc ea20 833d 1c68 673d 4ac0 163d
000001c0: 7c01 353c b245 92bc c358 4d3d 2c75 07bd
000001d0: 6cfb 643d 10b9 72bc 1fca 5abd df78 363d
000001e0: 6a82 54ba cb31 3f3c 12cd 023c 27b8 8bbb
000001f0: 0684 5b3c c994 263d b340 073d 136d 9bbc
00000200: 5f11 0abd 167d 47bd 7711 0dbb 5afd ce3a
00000210: 2eb6 acbc 6964 e3bb 104f f93c 44e6 e23c
00000220: 8779 d6bc 1852 3dbd e9dc a9bb 70b5 2d3a
00000230: 6df3 513d e5ad 2f3b 35cb 06bd 1ef3 75bc
00000240: 2783 06bd c165 dcbc 55cb 9c3c 9331 30bd
00000250: f391 ac3c 0c95 9d3c 9a20 303c 5142 823b
00000260: 1b8c 16bc 3ce2 cdbc 553e 7e3d 944c 01bd
00000270: 7193 603c af90 893c f8d1 133d d7a2 203d
00000280: 79e2 163d 991c cbbc 5c58 05bd 3c52 353d
00000290: 0e9c 23bd 4b6f 543d 95cf 283d a446 ea3b
000002a0: d56b 8f3c 6a43 a93c 74f3 39bd 1c4d 133d
000002b0: 4abe 83bc a1cb 373d bb8f 25bd b108 553a
000002c0: 21df 3e3d 08c7 013d 38ce 6c3d 8be4 b3bb
000002d0: 7f3b 0abc db17 173d a8f5 40bd 8994 ac3c
000002e0: 88d0 883c 7fcc ad3c 19c9 5d3d ee25 63bd
000002f0: b499 34bd 9549 913c ce62 493d 8015 393c
00000300: bdbc 89bc 6572 3b3d 6800 e73a c25f 643a
00000310: 06de 51bd 873f bb3c 3dd7 1b3d 9e4c 033d
00000320: 0789 4bbd 628a 483d e945 68bc ad7e 3fbd
00000330: 64ea 5a3d bffb f4bc cf1a e0ba 8adf 4cbb
00000340: 39bc 3e3d c10c b3bc a2fa 613d 0980 38bd
00000350: 2bf8 34bc 994d 513d a09d 9c3b cc03 4bbd
00000360: 438f eebc e0f1 1a38 09e0 a5bc 5f0b 28bd
00000370: 49e9 47bd f30e 2d3d 1608 0d3d 3395 49bd
00000380: 567e 91bc c993 1c3d e4ad 71bd bfd6 493d
00000390: 76fe 4e3d 206c 15bc bf1b 593d b2e7 26bd
000003a0: c5f9 23bd 795d 12bd d3b9 6dbb fd54 523d
000003b0: 25d3 5c3b 3c32 b23c 2d1a f63c cc1f 1e3d
000003c0: 1b07 d93c 3210 c8bc 72e8 3cbd e626 7f3d
000003d0: 4649 493a 2aab 823d a138 633b 889e 48bd
000003e0: 1f26 003d 0b7d 433c 077d 4a3d 858f a5bb
000003f0: 5b2f 50bd 1f24 a5bc f96d 2abd d168 d1bc

features.2.bias f4 [32]
-0.02769151 -0.023841316 0.04599234 0.059147514 -0.02762512 0.012159404 0.026096875 -0.05128083
0.059675306 -0.0077456343 -0.003445207 0.066507526 -0.028343862 0.013801157 0.05249706 -0.03222102
-0.006360464 -0.011429643 0.060802463 0.04060554 -0.020290846 0.034716416 -0.031132262 0.0113821905
-0.030508457 -0.031617228 0.036944993 0.062016938 0.028447798 0.032579247 0.03158401 0.05410934
00000000: 4ed9 e2bc dd4e c3bc 7762 3c3d aa44 723d
00000010: 134e e2bc 3d38 473c 1dc9 d53c d90b 52bd
00000020: 186e 743d 17cf fdbb fbc8 61bb 1935 883d
00000030: 6331 e8bc 3f1e 623c 2807 573d 30fa 03bd
00000040: 706b d0bb 6643 3bbc 010c 793d ff51 263d
00000050: fd38 a6bc cd32 0e3d 1609 ffbc 5e7c 3a3c
00000060: dfec f9bc 1181 01bd a253 173d 7905 7e3d
00000070: 5b0b e93c d171 053d 3c5e 013d c1a1 5d3d

features.5.weight f4 [64, 32, 3, 3]
-0.04189274 0.055378813 -0.021626731 0.039991245 -0.01480321 -0.010024221 -0.025293665 0.03183446
-0.04042186 -0.024491202 -0.028591534 -0.0041833683 0.052535426 0.028563337 0.016903149 0.02399903
0.05837697 0.036533985 -0.04662494 -0.0059858942 0.05085764 -0.024054412 -0.0025482692 0.052785434
-0.023744589 -0.029101133 0.016924795 0.050287064 0.0146114435 0.029736133 0.0030392723 0.023412796
0.00895294 0.042078335 0.049632642 -0.008171093 -0.05130081 -0.036399007 0.026284054 -0.005260993
0.0097004045 0.05914065 -0.052788615 0.06399644 0.061897516 0.022211818 -0.016230594 0.04382961
-0.034201715 -0.04383081 0.01648207 -0.016734658 -0.01708141 0.012925596 -0.018067908 0.0044433074
-0.015658045 -0.017754734 0.0012077042 0.015238409 -0.01892284 -0.0027501546 0.023676895 -0.047000315
0.0051432215 -0.0015584626 0.030129462 -0.037626904 -0.025890293 -0.016013123 0.06041678 0.034173172
0.05048467 -0.038076103 0.0036483181 0.055221993 -0.04043618 -0.008771673 -0.039119393 0.041814588
-0.021143503 -0.019188572 0.030185252 -0.028295383 -0.008360964 0.020525753 0.03131193 -0.018247124
0.05382839 0.038511164 -0.03259493 0.01249078 -0.0021464287 0.047403365 0.06240427 0.047165234
-0.010987359 0.034557894 0.023776228 -0.04012445 0.048751704 -0.046196893 0.045501873 0.009618924
0.005093673 0.008584261 0.030455867 0.036330752 0.00028933908 0.019683592 0.03013572 0.010634703
-0.050396938 -0.030514963 0.04204614 -0.0050174887 0.03959934 -0.027333308 -0.048353896 0.0074101235
-0.028444933 0.032557726 0.015729632 0.020177715 0.00304058 0.014719554 0.04126151 0.038570825
-0.03741929 0.011193714 0.020519663 0.009513132 0.04694712 -0.007278485 0.023916293 0.0533517
-0.030092796 0.0020481697 0.007537966 0.046375714 -0.05037909 -0.004925172 0.052242834 -0.036003437
-0.05732824 -0.05830585 -0.021970319 -0.05026056 -0.050810568 -0.00070273236 -0.02574902 -0.002660755
0.04118031 0.0013759128 0.018825408 0.05742474 -0.0004644927 -0.032252505 -0.0047333157 -0.0059623574
-0.031235747 -0.05392468 -0.04000461 -0.039155867 -0.023227984 0.055440854 0.048175905 -0.0038810025
-0.012366596 0.053908564 -0.019509982 0.0572125 -0.0036100852 0.021336662 -0.011828514 -0.027606599
-0.036057934 0.022428725 0.028877795 -0.007012531 -0.0051305997 0.01895767 0.028415993 0.020881008
-0.044956245 -0.047063265 -0.0037184895 0.02910208 0.03941843 0.04021055 0.041938093 -0.043434534
-0.03552668 -0.016592847 0.036422145 0.049538486 0.046218857 -0.022845026 -0.040637087 0.023626532
-0.005488434 0.038865536 0.0048383656 0.01522852 0.027509404 0.008300342 0.029632298 -0.0017029447
0.00047407384 0.044071823 0.017953841 -0.03023497 -0.05292956 0.049369853 0.017677357 0.036972243
0.0395965 0.024972005 0.020009562 0.013867592 -0.020758865 -0.051201627 0.00806618 0.020244077
-0.037932467 0.054621544 0.043570433 -0.012220913 0.06290241 0.018803436 -0.029554853 -0.02051963
0.021359209 -0.024535317 0.052564554 0.042437315 0.0025252176 0.05236233 -0.020243825 0.03423481
0.048349604 0.03821895 0.026884282 0.06073961 0.015646115 -0.008001708 0.0048001846 0.05854814
0.004032167 0.03079409 0.056694515 -0.040774077 0.054010812 0.025854247 -0.02876931 -0.020290937
00000000: b997 2bbd e5d4 623d 8b2a b1bc dccd 233d
00000010: 2a89 72bc a13c 24bc a934 cfbc da64 023d
00000020: 6491 25bd c6a1 c8bc cb38 eabc a314 89bb
00000030: 632f 573d a9fd e93c 7978 8a3c 9d99 c43c
00000040: b11c 6f3d a9a4 153d cbf9 3ebd 5225 c4bb
00000050: 1a50 503d c20d c5bc dd00 27bb 8a35 583d
00000060: 0384 c2bc 8065 eebc dea5 8a3c cff9 4d3d
00000070: d664 6f3c 3199 f33c 872e 473b 31cc bf3c
00000080: 5aaf 123c 555a 2c3d 994b 4b3d 0ce0 05bc
00000090: cc20 52bd 2017 15bd a851 d73c 6864 acbb
000000a0: 72ee 1e3c 773d 723d e038 58bd 9110 833d
000000b0: 4088 7d3d 8ff5 b53c 06f6 84bc ad86 333d
000000c0: 1917 0cbd ef87 33bd 6805 873c 1f17 89bc
000000d0: 50ee 8bbc e1c5 533c 2603 94bc 2a99 913b
000000e0: 4d45 80bc 6072 91bc d44b 9e3a 85aa 793c
000000f0: 1204 9bbc f03b 34bb 0cf6 c13c 6783 40bd
00000100: 7888 a83b 5445 ccba 10d2 f63c ab1e 1abd
00000110: e117 d4bc f42d 83bc 9677 773d 2bf9 0b3d
00000120: 03c9 4e3d b0f5 1bbd 9f18 6f3b 7530 623d
00000130: 68a0 25bd 10b7 0fbc a83b 20bd c645 2b3d
00000140: 2435 adbc 5a31 9dbc 1047 f73c b8cb e7bc
00000150: 6dfc 08bc a025 a83c f040 003d fe7a 95bc
00000160: 287b 5c3d e2bd 1d3d 4382 05bd 21a6 4c3c
00000170: 19ab 0cbb 082a 423d 9f9b 7f3d 5530 413d
00000180: 5304 34bc 948c 0d3d 5dc6 c23c 8959 24bd
00000190: deaf 473d f438 3dbd 2c60 3a3d b198 1d3c
000001a0: d3e8 a63b 00a5 0c3c 957e f93c 8ecf 143d
000001b0: 6fb2 9739 7c3f a13c 2fdf f63c 2d3d 2e3c
000001c0: 056d 4ebd 84fa f9bc 9338 2c3d bf69 a4bb
000001d0: eb32 223d 1aea dfbc bc0e 46bd 9fd0 f23b
000001e0: 5905 e9bc 405b 053d 6edb 803c bc4b a53c
000001f0: 7844 473b 492a 713c d401 293d 71fc 1d3d
00000200: f844 19bd d765 373c da18 a83c f8dc 1b3c
00000210: a04b 403d 5c80 eebb 1aec c33c 5087 5a3d
00000220: 2b85 f6bc 963a 063b 0b01 f73b 76f4 3d3d
00000230: 4e5a 4ebd 5663 a1bb 95fc 553d 5778 13bd
00000240: 04d1 6abd 1dd2 6ebd 19fb b3bc 04de 4dbd
00000250: be1e 50bd 9237 38ba 9cef d2bc 1060 2ebb
00000260: afac 283d f957 b43a be37 9a3c 3436 6b3d
00000270: 2887 f3b9 341b 04bd ee19 9bbb e15f c3bb
00000280: 1ce2 ffbc 20e0 5cbd e0db 23bd e761 20bd
00000290: 9d48 bebc f315 633d 1954 453d 6b58 7ebb
000002a0: 439d 4abc 3acf 5c3d 66d3 9fbc a857 6a3d
000002b0: 2e97 6cbb 39ca ae3c 62cc 41bc 3c27 e2bc
000002c0: 7cb1 13bd 72bc b73c 2091 ec3c 60c9 e5bb
000002d0: 971e a8bb 1e4d 9b3c a8c8 e83c a60e ab3c
000002e0: 0a24 38bd 69c5 40bd e7b1 73bb 7c67 ee3c
000002f0: 3875 213d d1b3 243d 47c7 2b3d 69e8 31bd
00000300: 6d84 11bd b9ed 87bc 632f 153d dee8 4a3d
00000310: fc4f 3d3d 7e25 bbbc 1373 26bd 6e8c c13c
00000320: 52d8 b3bb 7831 1f3d 278b 9e3b 0b81 793c
00000330: 675b e13c 28fe 073c 6fbf f23c 5835 dfba
00000340: 1d8d f839 a884 343d ef13 933c 54af f7bc
00000350: abcc 58bd 0b38 4a3d 1bd0 903c 3570 173d
00000360: f12f 223d 1792 cc3c 18eb a33c e634 633c
00000370: 7f0e aabc ccb8 51bd 0328 043c e8d6 a53c
00000380: 135f 1bbd d7ba 5f3d e976 323d 393a 48bc
00000390: fbd2 803d aa09 9a3c 051d f2bc c818 a8bc
000003a0: 82f9 ae3c 4afe c8bc ee4d 573d c0d2 2d3d
000003b0: 1f7e 253b e279 563d 61d6 a5bc cd39 0c3d
000003c0: 3c0a 463d 798b 1c3d 6d3c dc3c 19ca 783d
000003d0: 482c 803c 9919 03bc de4a 9d3b 2dd0 6f3d
000003e0: 4520 843b e343 fc3c 8238 683d b802 27bd
000003f0: 713a 5d3d 49cc d33c 9ead ebbc 2e39 a6bc

features.5.bias f4 [64]
-0.046352293 0.02002994 0.01645392 0.043690868 0.05203959 0.062452994 0.0125363115 -0.020884147
0.015427302 -0.038254168 0.017762406 -0.006116741 0.058890264 0.04993567 -0.049654756 0.052689712
0.011326212 -0.030698938 0.031098137 0.035852846 -0.045228787 -0.040938597 -0.046490178 0.040371343
0.05963843 -0.048572376 -0.053904224 0.016359182 -0.011173285 0.017669084 -0.018205704 -0.004754867
-0.02336377 0.038412694 -0.048756868 0.05145012 -0.033286665 0.043523014 -0.026842522 -0.04355642
-0.029264983 0.053007297 0.007851181 0.048506208 -0.008197114 -0.0030088413 0.03554333 0.052462813
-0.010660737 0.037996218 -0.0015984122 0.029950233 0.022279775 -0.0500751 -0.03193175 -0.039496224
0.02724368 -0.0298372 -0.027127363 0.03387848 0.04732888 0.058283627 -0.028237304 0.036343016
00000000: e7db 3dbd d415 a43c 5fca 863c 32f5 323d
00000010: 7727 553d b6ce 7f3d 1a65 4d3c 3b15 abbc
00000020: cbc2 7c3c 67b0 1cbd 7782 913c f16e c8bb
00000030: eb36 713d 5889 4c3d c962 4bbd 2bd1 573d
00000040: 9491 393c 577c fbbc 85c1 fe3c 6fda 123d
00000050: d241 39bd 3baf 27bd 7c6c 3ebd 6c5c 253d
00000060: 6d47 743d d4f3 46bd adca 5cbd b103 863c
00000070: 2710 37bc c1be 903c 2124 95bc b7ce 9bbb
00000080: 6165 bfbc a156 1d3d 48b5 47bd 5cbd 523d
00000090: 9957 08bd 3045 323d d9e4 dbbc 3768 32bd
000000a0: 1ebd efbc 2e1e 593d 3da2 003c 72ae 463d
000000b0: 304d 06bc fb2f 45bb e295 113d 3fe3 563d
000000c0: 5faa 2ebc eca1 1b3d d081 d1ba 315a f53c
000000d0: 1384 b63c 8c1b 4dbd deca 02bd cbc6 21bd
000000e0: 232e df3c 256d f4bc 343a debc 29c4 0a3d
000000f0: eddb 413d d0ba 6e3d eb51 e7bc 6adc 143d

features.7.weight f4 [64, 64, 3, 3]
0.012978718 0.030467875 -0.022573963 0.036031812 -0.023499357 -0.029084992 -0.013472896 0.03264839
-0.02492616 0.043178428 -0.0164093 0.021946007 0.0025115164 -0.015430993 0.0043570288 0.021418044
0.012317557 0.029185189 -0.0054336507 0.033450723 0.01006722 -0.009885885 0.025559764 0.018939022
-0.020408124 -0.031456944 -0.003732514 -0.044120036 0.019717855 -0.0025392605 -0.0028125958 -0.03694878
-0.03684312 -0.020542052 -0.023590103 0.036896635 0.046540003 0.0026494667 -0.008088151 0.01505452
0.035589717 0.004621111 0.03859638 -0.02592409 0.02264505 0.035015307 0.011191351 0.047220353
-0.021405514 -0.009003597 -0.011702939 0.029066494 -0.011035968 0.015868643 0.03106667 -0.03175987
-0.013727744 0.028344823 0.03496146 0.025058711 -0.02162425 -0.004248003 0.0014470033 -0.011475131
0.0015450043 -0.0069478964 -0.0035597375 -0.018193558 0.027220925 -0.002673533 0.0012159516 -0.0022982918
-0.022014696 -0.0058991346 0.001210767 0.02394419 -0.033337343 0.02600491 0.03922467 -0.010069072
0.048437864 -0.032731444 0.0023257856 -0.0023459888 -0.02828042 0.041744556 -0.024349736 0.0048664985
0.02777668 0.029978307 -0.033436764 -0.0056936387 -0.031555362 0.037761822 0.016589468 -0.018115437
0.025702585 0.0036104445 -0.028437315 -0.019427791 -0.013554772 0.006027147 0.039385356 0.0024853405
0.04507092 0.02204813 0.026242252 0.03300869 -0.008670372 -0.005664071 0.007094771 -0.016460223
0.038671315 0.030649066 0.0049906904 -0.021089405 -0.015946707 -0.017488364 0.024355834 0.0421558
0.023474539 0.014845371 0.02862146 0.00997886 -0.024212252 -0.00026299348 0.006613424 0.010925641
0.016075859 -0.016096715 -0.0006414527 0.013226468 0.032905295 -0.04114722 0.009054776 -0.009728887
0.022953318 -0.013950584 0.00909819 -0.006341408 0.025006745 -0.026012376 0.029413613 0.032777272
-0.03144412 0.0031221788 -0.019730406 0.039713 -0.026927039 0.0013622204 -0.024441145 0.020632466
0.016853629 0.030520026 -0.02987848 0.026634008 0.032099884 0.015825657 -0.023853926 -0.036621623
0.012841149 0.0151895955 0.022723949 -0.0019851562 -0.007906473 -0.0039549037 0.02385627 -0.008397764
-0.017379228 -0.02424688 0.04718208 0.016590334 0.036273602 -0.018959058 -0.024444204 0.010364718
0.037210602 0.039400946 0.048440043 0.004925543 -0.033568077 -0.028653119 0.02857374 0.03892362
-0.0106570525 0.025861012 -0.033285152 0.04512678 0.0069572814 -0.017430406 0.027670143 0.00893449
0.0293117 -0.027654259 -0.024330808 0.02774577 -0.022871565 -0.011560621 -0.03456728 0.0050522056
-0.02080668 -0.005274145 -0.00900335 0.038975272 -0.034542408 -0.033754192 -0.009996855 0.03779761
0.006624204 -0.015152525 0.0054172464 -0.015331073 -0.01879582 0.029247794 0.010776052 -0.013348847
0.04353422 0.026650665 0.011238837 -0.020316036 0.036804277 -0.013394222 0.02515646 0.01737262
0.04258165 -0.026700059 -0.02635627 -0.028960412 0.029201886 0.00090929004 -0.0018737008 -0.010955581
-0.0061545777 0.039802752 -0.027504891 0.040420715 -0.0116600925 0.01123088 -0.021106403 0.029476674
-0.026980683 0.004945731 0.012442621 0.04490692 0.03337592 -0.017536987 0.04189578 -0.03200227
-0.023335988 0.017327672 0.01965368 0.030043088 0.012377445 0.006855702 -0.0073025557 0.04267922
00000000: b0a4 543c c497 f93c 08ed b8bc 1896 133d
00000010: b981 c0bc a643 eebc 6cbd 5cbc 51ba 053d
00000020: f231 ccbc dddb 303d cc6c 86bc 1dc8 b33c
00000030: 4198 243b 47d2 7cbc 68c5 8e3b e574 af3c
00000040: 94cf 493c c715 ef3c c40c b2bb a003 093d
00000050: fbf0 243c 68f8 21bc b662 d13c 0226 9b3c
00000060: f02e a7bc ffd8 00bd 329d 74bb 36b7 34bd
00000070: 5787 a13c b969 26bb 8753 38bb 9b57 17bd
00000080: d0e8 16bd ce47 a8bc 0840 c1bc ed20 173d
00000090: bba0 3e3d ada2 2d3b 2a84 04bc 3ca7 763c
000000a0: 86c6 113d b06c 973b 3d17 1e3d c25e d4bc
000000b0: 1d82 b93c 366c 0f3d ee5b 373c 216a 413d
000000c0: 9e5a afbc d383 13bc afbd 3fbc db1c ee3c
000000d0: 34d0 34bc f5fe 813c 877f fe3c a316 02bd
000000e0: 55ea 60bc 6733 e83c bf33 0f3d ed47 cd3c
000000f0: 5725 b1bc d532 8bbb 60a9 bd3a 3002 3cbc
00000100: be81 ca3a 2eab e3bb 7c4a 69bb a80a 95bc
00000110: 6bfe de3c 7136 2fbb 9160 9f3a f09e 16bb
00000120: 2a58 b4bc 874d c1bb 99b2 9e3a 9b26 c43c
00000130: bd8c 08bd 4008 d53c 0caa 203d c0f8 24bc
00000140: c866 463d 6811 06bd 356c 183b 29bf 19bb
00000150: 57ac e7bc 57fc 2a3d 1979 c7bc 2677 9f3b
00000160: ec8b e33c 1195 f53c fdf4 08bd b491 babb
00000170: 3240 01bd 24ac 1a3d a3e6 873c d366 94bc
00000180: 3a8e d23c 359d 6c3b 5ff5 e8bc 0827 9fbc
00000190: d614 5ebc 607f c53b 8a52 213d 18e1 223b
000001a0: 499c 383d 489e b43c fef9 d63c 1f34 073d
000001b0: 2d0e 0ebc ac99 b9bb 417b e83b 97d7 86bc
000001c0: d065 1e3d c013 fb3c f288 a33b b0c3 acbc
000001d0: aba2 82bc c243 8fbc e385 c73c 8fab 2c3d
000001e0: ad4d c03c 003a 733c 8d77 ea3c 5f7e 233c
000001f0: c658 c6bc 63e2 89b9 6cb5 d83b 7601 333c
00000200: 85b1 833c 42dd 83bc 2927 28ba d4b3 583c
00000210: b4c7 063d fd89 28bd 7c5a 143c e965 1fbc
00000220: 9908 bc3c fe90 64bc 9310 153c 96cb cfbb
00000230: f2da cc3c e817 d5bc d1f4 f03c 7641 063d
00000240: 8dcb 00bd 789d 4c3b a9a1 a1bc 19aa 223d
00000250: 1896 dcbc 888c b23a cc38 c8bc 6b05 a93c
00000260: 9f10 8a3c 2205 fa3c b7c3 f4bc 902f da3c
00000270: 2b7b 033d cfa4 813c 4f69 c3bc 8e00 16bd
00000280: af63 523c c8dd 783c 9327 ba3c 6519 02bb
00000290: 278a 01bc 2398 81bb 396e c33c c696 09bc
000002a0: e25e 8ebc 65a1 c6bc ff41 413d 74e8 873c
000002b0: a193 143d 0750 9bbc 363f c8bc c7d0 293c
000002c0: 256a 183d e362 213d 1169 463d 7366 a13b
000002d0: ae7e 09bd f2b9 eabc 7a13 ea3c 606e 1f3d
000002e0: eb9a 2ebc 79da d33c 0356 08bd dcd6 383d
000002f0: e8f9 e33b 36ca 8ebc 7fac e23c f861 123c
00000300: 171f f03c 2f8b e2bc 6751 c7bc 194b e33c
00000310: 265d bbbc c268 3dbc 6c96 0dbd f98c a53b
00000320: c572 aabc bcd2 acbb c982 13bc 89a4 1f3d
00000330: 577c 0dbd d641 0abd d9c9 23bc abd1 1a3d
00000340: da0f d93b 4c42 78bc 2883 b13b 2e2f 7bbc
00000350: b1f9 99bc 1299 ef3c 0a8e 303c 1fb5 5abc
00000360: f050 323d 7f52 da3c 1923 383c d16d a6bc
00000370: 15c0 163d 7073 5bbc ec14 ce3c 0651 8e3c
00000380: 196a 2e3d 15ba dabc 1be9 d7bc 633e edbc
00000390: cb38 ef3c 6c5d 6e3a f796 f5ba 0a7f 33bc
000003a0: 57ac c9bb 3608 233d f051 e1bc 3190 253d
000003b0: f909 3fbc ba01 383c 56e7 acbc 1179 f13c
000003c0: 9806 ddbc cc0f a23b 23dc 4b3c 52f0 373d
000003d0: 30b5 083d baa9 8fbc e99a 2b3d d014 03bd
000003e0: 1d2b bfbc c3f2 8d3c c100 a13c ec1c f63c
000003f0: c4ca 4a3c cca5 e03b 474a efbb 68d0 2e3d

features.7.bias f4 [64]
0.04384159 -0.03413803 -0.031375192 0.038363036 -0.00081569783 0.031279184 -0.010125125 -0.010747258
0.030356618 -0.009104999 -0.009577773 -0.0022949583 -0.030305482 -0.01587522 -2.8290535e-07 0.022960402
-0.011843528 0.021461716 0.008425412 -0.0029416897 -0.013178478 0.04553928 -0.03259292 0.013569849
-0.018724361 0.035401758 0.032287613 -0.0057724426 -0.011724105 0.022276009 0.02413343 -0.032397225
0.018552782 -0.036927488 -0.011669669 0.021966724 0.022728657 0.0058811726 0.0050621643 0.0014873354
-0.007621056 0.021749256 0.037099604 -0.01845791 -0.01620564 0.0023219914 0.03616158 0.035268713
0.0055161095 0.015605078 -0.019014869 0.011953037 -0.025553752 0.003883868 0.009070756 0.030298222
-0.023436034 0.004586326 0.0069364556 -0.03744327 0.029843723 -0.03085759 -0.002779769 0.0271084
00000000: 3d93 333d 52d4 0bbd 4683 00bd 8f22 1d3d
00000010: 8ed4 55ba 9a1e 003d dae3 25bc 4415 30bc
00000020: 71ae f83c 222d 15bc 17ec 1cbc 0367 16bb
00000030: 3443 f8bc c00c 82bc 37e2 97b4 7417 bc3c
00000040: 5b0b 42bc 7bd0 af3c bd0a 0a3c 5dc9 40bb
00000050: 8bea 57bc 6587 3a3d 2780 05bd 1254 5e3c
00000060: d563 99bc 6f01 113d 0440 043d c226 bdbb
00000070: 7616 40bc 2d7c b63c 79b3 c53c f4b2 04bd
00000080: 01fc 973c 4741 17bd 2432 3fbc 8ff3 b33c
00000090: 7331 ba3c dab6 c03b 83e0 a53b b2f2 c23a
000000a0: 0dba f9bb 7f2b b23c c1f5 173d 0b35 97bc
000000b0: b1c1 84bc 8d2c 183b 2a1e 143d ed75 103d
000000c0: 7bc0 b43b 71ac 7f3c 12c5 9bbc acd6 433c
000000d0: 1a56 d1bc 7e88 7e3b 829d 143c fa33 f83c
000000e0: edfc bfbc e448 963b 354b e33b 1d5e 19bd
000000f0: d37a f43c 0ec9 fcbc c92c 36bb 6f12 de3c

features.10.weight f4 [64, 64, 1, 1]
-0.10358467 0.10345343 -0.047441546 -0.010382339 -0.0051130396 -0.038941756 1.5637802e-19 0.068082206
-0.07067325 -0.09862959 -0.05297413 -0.023617607 0.10446434 -0.08016133 -0.010245903 -0.04368555
0.058317304 -0.03322886 -0.118231036 0.11164781 -0.08717281 -0.076753065 0.047681242 0.09020986
-0.08634829 0.03238355 -0.015404182 -0.124546036 -0.021310851 0.10647609 -0.110688224 0.10539511
0.11370016 0.009008369 -0.060993746 0.1062554 -0.072439 -0.013079076 -0.024948927 0.08645937
-0.004664649 0.093298055 -0.10871351 0.07082932 0.049650785 -0.07571653 0.11414236 -0.018032702
0.09378658 -0.0804787 -0.09610797 0.069759324 -0.055620544 0.07887147 0.10964058 -0.026686776
6.705565e-09 -0.01587472 -0.044433434 0.0125520695 -0.063090764 -0.026367165 0.1215004 0.058085777
0.048414372 0.0006774829 0.0006941236 -0.0068997857 0.0019594287 0.002186108 -0.028259542 -0.03970588
-0.048164 0.03653546 0.0059462697 5.408983e-18 0.06608649 0.024233554 -0.00070758833 0.04458833
-0.0003360648 0.126643 0.0876368 -0.05630624 -0.03024833 0.11424167 0.12017598 0.027664248
0.0003297582 0.1039239 -0.0049512833 -0.079338945 0.050345004 -0.0042824247 -0.033023614 -0.097342476
0.0018551301 0.11122468 0.016534459 0.109606065 -0.070314154 0.020536201 -6.66127e-06 -0.08827841
-0.10429624 0.00024849837 0.07014566 -0.0580643 -0.017430142 0.052687097 -0.04426565 -0.08261813
-0.09848815 0.0972137 -0.07429721 0.052794598 0.05330677 -0.112548135 -0.106961794 0.00101823
-0.00058679614 0.07466283 0.059545867 -0.0076069883 -0.032385107 0.024480334 0.02426848 0.07245761
0.03658524 0.0012484395 0.06830258 0.04026064 0.028686885 0.025873628 0.023709908 -0.022557115
0.050832134 0.033731148 0.09909221 0.053759474 0.028589116 0.055598687 -0.018032266 0.031739928
0.05649545 0.02592242 -0.06429674 -0.0076000826 -0.014050577 -0.0777853 -0.029112477 -0.1259083
0.027821671 0.09570243 0.016807113 0.080243066 -0.048536625 -0.055238638 -0.05276395 0.023041936
0.0016561642 -0.0058412263 -0.017622782 0.095867954 0.088094026 -0.05599675 0.055994228 0.094980955
-0.096534446 -0.04421957 0.04482874 -0.037056092 0.07453844 0.08615913 0.09377183 -0.04243429
-0.09493872 -0.09816694 -0.0034479445 0.021304365 -0.094286546 -0.121564604 0.018818535 0.1218623
-2.4239375e-06 0.011404081 -0.017001381 0.0035380335 -0.115084246 0.041869406 0.016265092 -0.060694963
0.017257672 3.5161507e-19 -0.0009944845 0.016856678 -0.008292084 -0.04049113 -0.0040897583 8.7665607e-16
0.04929666 -0.056936115 -6.9309064e-10 -2.725717e-15 0.021055503 -0.058853153 0.0037971998 -0.0061201286
7.737609e-13 -1.9190153e-17 -0.013995532 -6.7165594e-05 0.0030647842 0.0055184746 0.021476269 -0.013233737
0.03589231 -0.005096532 1.8977708e-07 -0.027413106 0.023786917 -3.0849107e-05 0.063994125 7.405173e-05
0.02489241 4.376032e-20 0.057931628 0.0041166465 -0.016579956 -0.0603868 -0.055118054 -0.026500572
0.0056444 -0.017909387 2.2491439e-14 -0.035033926 -3.543129e-20 -0.012927897 -0.024741372 -0.0077069583
0.017915206 0.037333094 -0.0017672951 0.0015777933 0.013980522 0.0321165 0.006417859 -0.04802632
0.01433071 0.0064985035 -0.032033037 0.016095756 0.0015214275 -0.04097497 0.011569595 0.056907587
00000000: 3324 d4bd 64df d33d 1152 42bd b01a 2abc
00000010: 498b a7bb 6481 1fbd 5b9e 3820 af6e 8b3d
00000020: 23bd 90bd 4ffe c9bd 67fb 58bd b679 c1bc
00000030: 66f1 d53d a02b a4bd 6fde 27bc 9fef 32bd
00000040: 20de 6e3d fc1a 08bd 1d23 f2bd 9ba7 e43d
00000050: a987 b2bd b630 9dbd 684d 433d f2bf b83d
00000060: 5fd7 b0bd 9da4 043d d261 7cbc fe11 ffbd
00000070: 1894 aebc 2310 da3d 82b0 e2bd 64d9 d73d
00000080: a1db e83d d797 133c 94d4 79bd 6e9c d93d
00000090: e65a 94bd 9f49 56bc b161 ccbc 9c11 b13d
000000a0: e9d9 98bb 0d13 bf3d 30a5 debd f60e 913d
000000b0: 9f5e 4b3d 4511 9bbd 78c3 e93d 51b9 93bc
000000c0: 2e13 c03d 04d2 a4bd 41d4 c4bd fadd 8e3d
000000d0: 5ed2 63bd 5e87 a13d 3e8b e03d 3a9e dabc
000000e0: c666 e631 b30b 82bc d5ff 35bd 32a7 4d3c
000000f0: bb35 81bd f4ff d7bc 34d5 f83d 5aeb 6d3d
00000100: 264e 463d 1c99 313a d9f5 353a 9917 e2bb
00000110: c269 003b ce44 0f3b 8e80 e7bc a2a2 22bd
00000120: 9d47 45bd 35a6 153d edd8 c23b 668e c722
00000130: 5b58 873d 7285 c63c 737d 39ba 41a2 363d
00000140: db31 b0b9 b4ae 013e ec7a b33d 5fa1 66bd
00000150: 59cb f7bc 89f7 e93d d31e f63d 22a0 e23c
00000160: 65e3 ac39 0ed6 d43d 603e a2bb 757c a2bd
00000170: 9036 4e3d 9553 8cbb c543 07bd 7e5b c7bd
00000180: d627 f33a c4c9 e33d 4673 873c 2579 e03d
00000190: de00 90bd 893b a83c e083 dfb6 50cb b4bd
000001a0: 4499 d5bd e348 8239 87a8 8f3d d5d4 6dbd
000001b0: a8c9 8ebc 6dce 573d e64f 35bd b233 a9bd
000001c0: 28b4 c9bd fa17 c73d 2329 98bd 263f 583d
000001d0: 3358 5a3d a37f e6bd c90e dbbd 2176 853a
000001e0: 39d3 19ba d3e8 983d 5ee6 733d 0b44 f9bb
000001f0: 3fa6 04bd fb8a c83c b1ce c63c a864 943d
00000200: 68da 153d aea2 a33a 39e2 8b3d 57e8 243d
00000210: c200 eb3c eef4 d33c 483b c23c b3c9 b8bc
00000220: 5b35 503d ac29 0a3d dbf0 ca3d e532 5c3d
00000230: b933 ea3c 73bb 633d 67b8 93bc ba01 023d
00000240: c667 673d 415b d43c 02ae 83bd 1d0a f9bb
00000250: 6434 66bc e64d 9fbd 4a7d eebc 1bee 00be
00000260: 46ea e33c a3ff c33d 12af 893c 7a56 a43d
00000270: 57ce 46bd e941 62bd 031f 58bd 71c2 bc3c
00000280: a613 d93a c267 bfbb a75d 90bc 6b56 c43d
00000290: a46a b43d d95c 65bd 345a 653d 6085 c23d
000002a0: dab3 c5bd 941f 35bd 579e 373d 21c8 17bd
000002b0: 9ca7 983d 3374 b03d 720b c03d 94cf 2dbd
000002c0: 3b6f c2bd c00b c9bd e9f6 61bb 7e86 ae3c
000002d0: 4e19 c1bd ddf6 f8bd 5429 9a3c f192 f93d
000002e0: eeaa 22b6 2fd8 3a3c 7b46 8bbc 5ade 673b
000002f0: 4ab1 ebbd 417f 2b3d 5f3e 853c 489b 78bd
00000300: f65f 8d3c 918e cf20 5d59 82ba 0417 8a3c
00000310: 85db 07bc 07da 25bd 6103 86bb cdad 7c26
00000320: 4beb 493d d835 69bd eb83 3eb0 9b68 44a7
00000330: 977c ac3c 0110 71bd 71da 783b 5c8b c8bb
00000340: 59cb 592b 78ff b0a3 844d 65bc 41db 8cb8
00000350: 8cda 483b 52d4 b43b 00ef af3c 51d2 58bc
00000360: d103 133d cf00 a7bb 87c5 4b34 7391 e0bc
00000370: c8dc c23c fa63 01b8 5a0f 833d 384c 9b38
00000380: 2beb cb3c fba6 4e1f b749 6d3d efe4 863b
00000390: b0d2 87bc 2658 77bd 78c3 61bd ba17 d9bc
000003a0: a9f4 b83b b5b6 92bc ba95 ca28 bc7f 0fbd
000003b0: cd51 279f 88cf 53bc 6bae cabc a78a fcbb
000003c0: e9c2 923c 96ea 183d 95a4 e7ba f5cd ce3a
000003d0: 8f0e 653c 978c 033d e74c d23b 3fb7 44bd
000003e0: 5bcb 6a3c 66f1 d43b 1335 03bd 3fdb 833c
000003f0: a36a c73a 5fd5 27bd 668e 3d3c ee17 693d

features.10.bias f4 [64]
0.013646361 -0.057810854 0.019063111 -0.048983283 0.046534214 0.014853199 0.11388007 0.016649134
0.050238613 -0.056435846 0.06540003 0.041933797 -0.012909067 -0.017774679 -0.05690727 -0.051771298
0.09942682 -0.05250055 0.048707873 -0.0049983882 0.05065586 -0.04917722 0.04937255 0.05697992
0.09838132 0.0108433645 0.008355548 -0.05512429 0.0697858 -0.006980174 -0.06307506 -0.057385962
0.055429235 -0.023639044 0.05761279 0.08485669 -0.050240774 0.120780185 -0.070943326 -0.09283136
-0.07807781 -0.0061259544 0.003913768 0.07128395 0.019409824 0.0070953844 0.1281501 0.012203135
0.03650615 -0.027041914 0.109665096 0.0916533 -0.010308912 -0.08073905 0.09082565 0.018207952
0.074274234 -0.0023519478 -0.11699023 -0.07534052 0.032542754 -0.100782886 0.10883023 0.07487529
00000000: fd94 5f3c 13cb 6cbd 3e2a 9c3c b2a2 48bd
00000010: a99a 3e3d d55a 733c f439 e93d c463 883c
00000020: 01c7 4d3d 4629 67bd 73f0 853d c6c2 2b3d
00000030: 8d80 53bc 349c 91bc 9917 69bd 240e 54bd
00000040: 4aa0 cb3d d10a 57bd e881 473d 85c9 a3bb
00000050: 857c 4f3d 0d6e 49bd df3a 4a3d c763 693d
00000060: 257c c93d 5ea8 313c b5e5 083c 02ca 61bd
00000070: dceb 8e3d f2b9 e4bb 7f2d 81bd 8b0d 6bbd
00000080: c409 633d aba6 c1bc 64fb 6b3d 58c9 ad3d
00000090: 45c9 4dbd 9a5b f73d bc4a 91bd 5e1e bebd
000000a0: 42e7 9fbd 3bbc c8bb 113f 803b 52fd 913d
000000b0: 5a01 9f3c 6680 e83b c839 033e a8ef 473c
000000c0: 7987 153d 0187 ddbc 1898 e03d bab4 bb3d
000000d0: b6e6 28bc 845a a5bd cc02 ba3d d828 953c
000000e0: 171d 983d 2323 1abb 9398 efbd 214c 9abd
000000f0: 8d4b 053d 4267 cebd 62e2 de3d 3758 993d

classifier.0.weight f4 [3, 64]
-0.12034281 0.03651615 -0.046960354 0.015116129 0.11588001 0.07346417 0.13296962 -0.021703847
0.073966846 0.02021136 -0.11808039 0.017797586 -0.05830804 0.085889556 0.12591015 0.04878334
0.10568373 0.0030490374 0.11481976 -0.025245564 0.06364593 0.05265246 -0.033824965 -0.04479511
0.07991563 -0.034826882 0.011010396 -1.0342277e-18 -0.05432764 0.0056611276 -0.11042787 -0.030346101
0.12038405 0.1549019 -0.0114833675 -0.037888274 0.0013571167 0.08917797 0.09430984 0.1210764
0.003381704 0.044416636 -0.08986937 0.06278266 0.13076413 -0.114306934 0.046642356 0.044142757
-0.09877225 -0.0022047535 0.08497156 0.08590053 -0.104807064 -0.11298053 -0.039203644 0.10160231
0.04805872 7.548924e-05 -0.08395247 -0.0322667 0.012740093 0.040215548 -0.08775302 0.10549219
0.089270115 -0.10246633 0.07798946 -0.009131672 -0.057841476 -0.06805575 0.060853526 -0.104927994
-0.046582233 0.0430839 0.09143379 0.037828397 0.05896928 0.038532734 -0.035137173 -0.053215664
0.093281455 0.039350823 0.04015339 -0.040362712 -0.008557526 -0.055689666 0.1032876 0.013902337
0.055484094 0.055677276 -0.054514397 -0.00035351698 -0.016268866 -0.12397092 -0.045257617 0.07680742
-0.088423125 0.04414124 -0.06359999 -0.01796357 0.04317227 -0.017600365 -0.019464988 0.04347768
-0.10810124 -0.09894806 0.06614357 -0.087257124 0.055795927 0.107187495 0.06372049 -0.00342066
-0.12114853 0.05184694 -0.04130648 0.114752464 -0.042766176 -0.11670924 0.010586911 0.042772837
-0.013433312 0.06374115 0.08174892 0.10006414 0.024805125 0.037665147 -0.053698752 -0.06958386
-0.00081965554 -0.11286915 0.111690335 2.5398524e-06 0.022026299 -0.03524955 -0.12818238 -0.103293985
-0.03928719 -0.014103948 -0.093535535 -0.10315802 0.025859816 0.07718909 -0.06434753 3.102686e-15
-0.006802123 -0.0017191613 0.054342452 0.06069097 -0.123747595 0.04526795 -0.074381195 0.04828283
0.02439919 0.11245715 0.005839273 -0.012831584 0.044283494 -0.116895966 0.066083565 -0.08211471
-0.008131973 0.007434557 -0.1088606 0.0015845888 -0.008013352 0.032560714 0.04992915 0.052659385
-0.10404843 -0.08333891 -0.011454085 -0.109443195 -0.078802474 -0.08740396 -0.016751226 0.028197136
0.08213436 -0.051208775 0.04842864 0.08241449 0.06369558 0.04553096 0.05792016 0.026051309
-0.12786779 0.0013795279 -0.088396244 -0.081374966 0.07240468 -0.053669274 -0.03184258 -0.12046475
00000000: 4b76 f6bd f591 153d 8059 40bd a4a9 773c
00000010: 8052 ed3d 6274 963d 3029 083e 44cc b1bc
00000020: ee7b 973d 4b92 a53c 22d4 f1bd 3ecc 913c
00000030: 69d4 6ebd dde6 af3d 97ee 003e 0ad1 473d
00000040: b670 d83d 5cd2 473b 9f26 eb3d c9cf cebc
00000050: cc58 823d 1baa 573d 0c8c 0abd 147b 37bd
00000060: ceaa a33d a2a6 0ebd f364 343c 05a0 98a1
00000070: a986 5ebd fb80 b93b 0228 e2bd 6398 f8bc
00000080: ea8b f63d 9b9e 1e3e bc24 3cbc bc30 1bbd
00000090: 48e1 b13a f1a2 b63d 8425 c13d e7f6 f73d
000000a0: 949f 5d3b 38ee 353d 6f0d b8bd 3294 803d
000000b0: 08e7 053e c119 eabd 0e0c 3f3d 09cf 343d
000000c0: 1b49 cabd a07d 10bb 9205 ae3d 9eec af3d
000000d0: 16a5 d6bd 5662 e7bd 0094 20bd df14 d03d
000000e0: 38d9 443d fa4f 9e38 46ef abbd 162a 04bd
000000f0: d3bb 503c 0fb9 243d dbb7 b3bd 4a0c d83d
00000100: 40d3 b63d ded9 d1bd f0b8 9f3d 029d 15bc
00000110: 2feb 6cbd d060 8bbd 8c41 793d 7de4 d6bd
00000120: 03cd 3ebd be78 303d a441 bb3d f3f1 1a3d
00000130: c689 713d 80d4 1d3d ffeb 0fbd abf8 59bd
00000140: 590a bf3d 542e 213d e277 243d 5f53 25bd
00000150: de34 0cbc d91a 64bd 7388 d33d a1c6 633c
00000160: 4a43 633d db0d 643d 7d4a 5fbd 3f58 b9b9
00000170: 4946 85bc 77e4 fdbd 0d60 39bd 354d 9d3d
00000180: 2f17 b5bd 72cd 343d b640 82bd 5628 93bc
00000190: 68d5 303d a42e 90bc 0a75 9fbc a715 323d
000001a0: 2f64 ddbd 48a5 cabd 4876 873d ddb3 b2bd
000001b0: 458a 643d 1e85 db3d e37f 823d 272d 60bb
000001c0: b81c f8bd 755d 543d fc30 29bd 5703 eb3d
000001d0: 962b 2fbd 4105 efbd b974 2d3c 9232 2f3d
000001e0: 6517 5cbc b88a 823d fa6b a73d 6eee cc3d
000001f0: 1e34 cb3c c546 1a3d 39f3 5bbd fc81 8ebd
00000200: 27de 56ba f127 e7bd e7bd e43d 5572 2a36
00000210: 7f70 b43c d561 10bd 3e42 03be cc8b d3bd
00000220: 9beb 20bd 3f14 67bc 8f8f bfbd 8344 d3bd
00000230: f7d7 d33c 5015 9e3d a3c8 83bd 7492 5f27
00000240: 58e4 debb 7b55 e1ba 3196 5e3d 1897 783d
00000250: 616f fdbd e36a 393d 2b55 98bd 37c4 453d
00000260: cfe0 c73c ef4f e63d 5f57 bf3b 903b 52bc
00000270: 9c62 353d 2767 efbd d256 873d c22b a8bd
00000280: f83b 05bc 969d f33b 4ef2 debd fab1 cf3a
00000290: 6f4a 03bc 625e 053d 8282 4c3d 5eb1 573d
000002a0: 5817 d5bd 97ad aabd eaa9 3bbc c123 e0bd
000002b0: 3163 a1bd d900 b3bd de39 89bc aefd e63c
000002c0: 0f36 a83d 4bc0 51bd 1c5d 463d eec8 a83d
000002d0: d472 823d ac7e 3a3d b13d 6d3d 8e69 d53c
000002e0: c6ef 02be 46d1 b43a 1709 b5bd eba7 a6bd
000002f0: e848 943d 50d4 5bbd 5d6d 02bd 39b6 f6bd

classifier.0.bias f4 [3]
-0.027959429 -0.05638524 -0.10577242
00000000: 2c0b e5bc 36f4 66bd 369f d8bd

exp_avg f4 [32, 3, 3, 3]
-5.779759e-07 1.0449323e-06 -1.5924826e-07 -1.7586412e-06 3.731853e-07 5.957651e-07 -6.363897e-07 -6.499859e-07
-1.1583382e-07 -7.0599214e-07 -1.5057087e-06 -1.5834756e-06 1.418392e-06 -3.0505626e-07 1.3623865e-06 5.748695e-07
9.28249e-07 1.6613538e-06 -1.8052646e-06 7.865868e-07 1.2488715e-06 6.012326e-09 -2.0491025e-06 -8.967737e-07
2.3250826e-07 4.1096447e-07 1.6001395e-06 -6.351017e-08 -4.2401211e-07 -7.181798e-07 2.834443e-07 -1.9096176e-06
-1.0767263e-08 -1.0059111e-06 1.0340535e-06 -3.8731514e-08 -9.619903e-07 -1.7876935e-06 3.8210902e-07 -1.7376127e-06
1.2231775e-06 -1.0186396e-06 -7.894071e-08 6.882515e-07 -1.0495976e-06 7.3538024e-07 -9.545164e-07 -7.255621e-07
-1.774178e-06 -5.5497626e-08 -1.0379902e-06 -1.2095842e-06 9.893706e-07 -8.257153e-07 6.114561e-07 1.6577053e-06
-4.3591214e-07 1.5246317e-06 -1.4141321e-07 -1.267173e-06 1.2179481e-06 1.1876925e-06 7.8451274e-07 -1.8182762e-06
-1.4114787e-06 -1.7950318e-06 -1.6912846e-06 3.8435627e-07 1.5192294e-06 -1.0401459e-06 6.652268e-07 -2.2896678e-07
2.2301998e-07 1.701611e-06 -5.654672e-07 -4.6657624e-07 -1.3897983e-06 1.0830265e-06 -1.4915894e-08 2.4452845e-07
4.3604075e-07 1.0167092e-05 8.653876e-06 9.247443e-06 1.078167e-05 8.068404e-06 1.127355e-05 1.1504424e-05
8.62456e-06 8.949851e-06 6.94218e-06 1.0151719e-05 6.8803806e-06 8.757019e-06 9.409695e-06 7.685989e-06
1.0132381e-05 8.7984945e-06 8.415473e-06 7.381965e-06 8.697875e-06 8.423416e-06 7.941029e-06 9.3487015e-06
9.582108e-06 1.0433033e-05 7.695879e-06 9.965755e-06 -1.7280819e-06 1.0148862e-06 -1.594344e-06 5.1749424e-07
3.4796687e-07 -2.4520654e-07 -4.941702e-07 6.332878e-07 7.0254373e-07 -1.5277967e-06 1.4765556e-07 -1.5448989e-06
1.1473652e-06 -9.319617e-08 9.91756e-07 1.0106064e-06 -9.690614e-07 8.9445217e-07 4.9143233e-07 1.060352e-06
-2.0880036e-06 -8.4365894e-07 -3.7211967e-07 -6.9033973e-07 -2.214024e-06 -2.4460578e-06 -2.280212e-06 6.987423e-06
9.260678e-06 6.05696e-06 9.108765e-06 8.424261e-06 7.913295e-06 8.040289e-06 8.247633e-06 8.654144e-06
7.798134e-06 6.242583e-06 5.9061854e-06 6.974358e-06 5.1412953e-06 6.320859e-06 5.7145817e-06 7.262239e-06
6.088164e-06 6.5391814e-06 7.5928074e-06 8.298158e-06 5.241034e-06 5.26885e-06 5.1493485e-06 5.812708e-06
6.7610554e-06 8.557147e-06 9.179177e-06 1.0041064e-05 1.010087e-05 8.692896e-06 9.894884e-06 9.654201e-06
1.0356061e-05 1.0869437e-05 1.1765747e-05 9.067334e-06 9.217154e-06 8.985797e-06 9.2434675e-06 9.959064e-06
8.966032e-06 1.1390203e-05 1.0602943e-05 1.0938395e-05 9.375108e-06 1.0739615e-05 8.1832795e-06 1.0047973e-05
9.958669e-06 7.853779e-06 9.5455225e-06 9.517853e-06 9.4300485e-06 9.795288e-06 7.95468e-06 8.915074e-06
8.615751e-06 7.163798e-06 8.573498e-06 1.0201308e-05 8.743718e-06 7.6332235e-06 6.2350086e-06 8.409018e-06
7.3118144e-06 6.2890463e-06 9.874576e-06 8.963904e-06 6.298898e-06 7.698599e-06 6.1739074e-06 9.051665e-06
7.251007e-06 7.425953e-06 6.2109684e-06 7.314958e-06 9.52117e-06 9.059352e-06 9.7774055e-06 6.187388e-06
1.8527744e-07 9.990338e-07 -1.1912231e-06 -2.0709174e-06 -1.884961e-07 1.1969047e-06 1.601963e-07 -3.6611917e-07
-2.0486343e-06 1.3215845e-06 -3.1914018e-07 5.0245706e-07 -8.848615e-07 1.1207271e-07 -7.3608595e-07 -5.9887134e-07
-1.5378434e-06 1.3806668e-07 -8.7247565e-07 -1.7449223e-06 4.0053402e-07 -1.8119904e-06 -5.1584516e-07 1.0668456e-06
6.422403e-07 -2.333811e-06 -1.157847e-06 5.8846026e-06 6.280666e-06 8.302801e-06 6.4433893e-06 7.769206e-06
5.7079587e-06 6.5843296e-06 5.580805e-06 7.3578676e-06 8.130623e-06 7.1411437e-06 5.416739e-06 5.227744e-06
00000000: 3426 1bb5 9a3f 8c35 d4fd 2ab4 740a ecb5
00000010: 325a c834 aaec 1f35 5ed4 2ab5 b17a 2eb5
00000020: 51c0 f8b3 6983 3db5 c217 cab5 cf87 d4b5
00000030: 945f be35 9dc6 a3b4 3edb b635 bb50 1a35
00000040: c92c 7935 affb de35 6b4c f2b5 d525 5335
00000050: e69e a735 fb94 ce31 5083 09b6 d2b9 70b5
00000060: 62a7 7934 87a2 dc34 60c4 d635 1663 88b3
00000070: c8a3 e3b4 f1c8 40b5 4a2c 9834 fb26 00b6
00000080: ecfa 38b2 d802 87b5 cfc9 8a35 c059 26b3
00000090: bc1d 81b5 aef0 efb5 aa24 cd34 eb37 e9b5
000000a0: 0f2c a435 31b8 88b5 1d86 a9b3 48c0 3835
000000b0: e6df 8cb5 f266 4535 ef1c 80b5 3fc4 42b5
000000c0: 4b20 eeb5 495c 6eb3 1251 8bb5 ff58 a2b5
000000d0: 84ca 8435 b9a6 5db5 f122 2435 527e de35
000000e0: 4f07 eab4 f2a1 cc35 5ed7 17b4 bc13 aab5
000000f0: 6178 a335 ce68 9f35 4e97 5235 7f0b f4b5
00000100: 0a72 bdb5 d3ec f0b5 1900 e3b5 8659 ce34
00000110: 53e8 cb35 249b 8bb5 0a92 3235 e9d9 75b4
00000120: 4477 6f34 e962 e435 9cca 17b5 c07d fab4
00000130: 1b89 bab5 825c 9135 6620 80b2 bc47 8334
00000140: fc18 ea34 5493 2a37 1d30 1137 7725 1b37
00000150: ece2 3437 885d 0737 8723 3d37 2003 4137
00000160: 34b2 1037 5127 1637 dff0 e836 4d51 2a37
00000170: 05de e636 1ceb 1237 55de 1d37 12f3 0037
00000180: 3ffe 2937 3f9d 1337 2e30 0d37 99b2 f736
00000190: 17ed 1137 4c52 0d37 763a 0537 5ed8 1c37
000001a0: d7c2 2037 8909 2f37 8c1d 0137 9832 2737
000001b0: 71f0 e7b5 3937 8835 3efd d5b5 efe9 0a35
000001c0: 34d0 ba34 eea4 83b4 1ea7 04b5 35ff 2935
000001d0: 7096 3c35 b20e cdb5 408b 1e34 525a cfb5
000001e0: 2bff 9935 2323 c8b3 7a1c 8535 2ca4 8735
000001f0: b210 82b5 491a 7035 f9ea 0335 6b51 8e35
00000200: a11f 0cb6 cd77 62b5 bdc7 c7b4 c94f 39b5
00000210: a594 14b6 f426 24b6 be05 19b6 8275 ea36
00000220: 4f5e 1b37 e43c cb36 d9d1 1837 ed55 0d37
00000230: 58c3 0437 c7e4 0637 505f 0a37 4431 1137
00000240: bbd4 0237 6177 d136 bf2d c636 4705 ea36
00000250: 6483 ac36 c417 d436 e2bf bf36 28ae f336
00000260: ee48 cc36 246b db36 b8c5 fe36 5138 0b37
00000270: 24dc af36 14cb b036 91c8 ac36 c80a c336
00000280: 06dd e236 ab90 0f37 4400 1a37 0b76 2837
00000290: e876 2937 b4d7 1137 3402 2637 7af8 2137
000002a0: f1be 2d37 e05b 3637 8065 4537 e71f 1837
000002b0: 60a3 1a37 b4c1 1637 6414 1b37 db15 2737
000002c0: d06c 1637 8d18 3f37 4be3 3137 0c84 3737
000002d0: c849 1d37 4c2e 3437 eb4a 0937 b793 2837
000002e0: 2814 2737 b9c3 0337 b525 2037 deae 1f37
000002f0: c035 1e37 7156 2437 1775 0537 f491 1537
00000300: 5e8c 1037 8e60 f036 e5d6 0f37 4926 2b37
00000310: fcb1 1237 7210 0037 5136 d136 7514 0d37
00000320: 0258 f536 7f06 d336 fbaa 2537 ad63 1637
00000330: 1f5b d336 3b29 0137 7629 cf36 9bdc 1737
00000340: ad4d f336 732c f936 d067 d036 0373 f536
00000350: 1dbd 1f37 9ffd 1737 a309 2437 429d cf36
00000360: adf0 4634 8a16 8635 1de2 9fb5 17fa 0ab6
00000370: 6a65 4ab4 55a5 a035 6c02 2c34 098f c4b4
00000380: 457b 09b6 4c61 b135 4b56 abb4 96e0 0635
00000390: 3887 6db5 a0ac f033 7197 45b5 20c2 20b5
000003a0: e667 ceb5 7b3f 1434 1234 6ab5 1333 eab5
000003b0: fa08 d734 8433 f3b5 9c78 0ab5 8930 8f35
000003c0: 6b66 2c35 919e 1cb6 5267 9bb5 5a74 c536
000003d0: 83be d236 424c 0b37 4b34 d836 7c58 0237
000003e0: fe86 bf36 f6ee dc36 c042 bb36 9ae3 f636
000003f0: c368 0837 f59d ef36 6fc1 b536 fb69 af36
