benchmark_experiment/experience_1_2_3_30_epochs/model_experience_1_2_3.pth (torch, 854482 bytes, 36 tensors)

features.0.weight f4 [32, 3, 3, 3]
00000000: e09f 01be 19b9 8a3c e571 06be 77dd 083e
00000010: 14a9 243e a62c d43d a2e2 edbd abe9 153e
00000020: 44b3 803d 6047 153e 6ffe 393c 99de df3c
00000030: 6b08 373d bb6d adbd 570f 123c 7308 4f3e
00000040: 6a3e 1bbd d571 103d 2fb3 fa3d a39f 6fbd
00000050: 68d0 debc e616 cabd e436 0abe 2900 093e
00000060: 2958 4d3d 16e5 8f3c 796f 0abe e0c5 123e
00000070: b2c8 16bd 87e9 b83d 208d 053d 350e 523d
00000080: fab3 fbbd c1e1 cb3d e8fe e5bd 0a1b 1cbe
00000090: f898 c13d 3026 083e fee3 d63d 2dfc a43d
000000a0: 0e66 34bd 6deb 323e c59f 02be b9a2 d8bd
000000b0: a256 be3d 7330 353e 89cb 30be d1db 1a3d
000000c0: 7698 8abd 5ed4 00be 608a 373e 6617 debc
000000d0: 1216 12bd 84d4 0c3e ed77 fcbd 7052 083d
000000e0: f817 50bd 084c 0f3e 5a59 fe3d f7ed 22be
000000f0: 077f cabc acd9 11be c7b6 bebd e17b b63d
00000100: 3050 a3bd d08d 913d 6c02 313e bcd7 583d
00000110: 67b8 4c3e 36f0 b73d 2708 903d d328 f1bd
00000120: c7c6 8fbd 1886 38be b7bd be3d 713f 1ebe
00000130: 732e 563d 58c3 0b3e ca4b 98bd 2b75 efbd
00000140: 2803 b43d 0999 1abe 6d57 3a3e b6ae 77bd
00000150: b735 373d 8dd2 ba3d 1c6e e0bc ff20 f03d
00000160: 9e4c 10bd ff7a 0dbe 192e c03d febd f73c
00000170: 7e71 12bc c616 b63d 579b 2fbe 0bcc 2abe
00000180: 67f5 a63c f96f c2b9 e8b7 7c3b 7e3d 7d3d
00000190: 6c04 d1bc 11f7 383e 6241 a6bd 3f06 263e
000001a0: 7390 b6bc 38d3 b7bd 0bff 243e 596b 463d
000001b0: a228 c2bd 92ec 40be ba25 e0bd 5b52 393e
000001c0: 36cf 63bd cb07 a8bd 1c07 f23d 5cf6 963d
000001d0: 864b 34bd 8caa 08be 0297 fdbd cc4f f43d
000001e0: ab90 8bbc 3c10 c0bc cf74 89bd 079e 763c
000001f0: b03f 97bd 3a57 97bd c7c2 8e3c 98bb 5cbd
00000200: 5217 073e 7ac7 2e3e 1739 303d 39a6 013e
00000210: e5d4 2f3e aab8 f9bd 1861 ee3d ad80 ebbc
00000220: fbab 7d3d 71e9 9dbc 3765 b63d 5464 463e
00000230: 2078 8b3d c184 0a3e fcf2 80bd f7d7 fdbd
00000240: 9266 8d3d d867 27be b2fb 08be 9619 193e
00000250: 5fce 4cbd 5294 f03d 7413 03bd f45b 1bbe
00000260: 669a 393e bf89 383e 8160 eabd 6558 41be
00000270: a41f 143e f459 41be 3846 1dbe 8b71 933d
00000280: cb1d eb3d b97d e73d b354 03be 6b1a 3abd
00000290: 05d1 1abd c840 893d 48bc 4bbe 160d 15be
000002a0: b8c5 28be 9097 0bbe cd74 863c 3133 efba
000002b0: 66c1 f8ba d2bc c3bd c73e 34bc 4dd1 773d
000002c0: c07e 743c 883a e43d 1bd5 ab3d fef7 ddbd
000002d0: 44d7 91bd 3a45 17be 95a8 d23d 7558 ce3d
000002e0: 4f77 94bc 80b6 b93d 8d50 23be 2f0f 4cbe
000002f0: 8df4 2fbe a156 123e cfe8 033e bb38 fc3d
00000300: f192 053d 2139 ba3d 0fb9 043d 63bc 1fbe
00000310: 2ce4 d5bd e51a 55bd 7827 363e 669c 07be
00000320: 1488 3cbe 207f 83bd d248 72bd aca4 2cbe
00000330: f155 27be b052 0b3e b0e9 e13c 8fc7 383e
00000340: 804b aabc 1cfb d7bd cb6e 553d 703a ed3d
00000350: 4b4d 00bd 38fa 9b3c 923e 053e 6ab2 293e
00000360: 29f0 abbd 2287 b6bd 41fb f93d b0aa eebd
00000370: 6ba2 bc3d c6fa e03d ad53 293e 5dc5 11be
00000380: 3ce7 02be 5eae be3b 7cd9 c1ba b86d 9bbd
00000390: 0374 733d 3b75 133e 754c 2ebe 33a6 633d
000003a0: ba8f bcbd 3ad2 f33d e65b 3ebd 92c3 ac3d
000003b0: 9e74 0f3e 0a17 e63c 445a 8cbd ba71 313e
000003c0: b2c9 d93a aec9 093e 5541 053e ea37 c7bc
000003d0: fd37 30be e5ba e23d 07ec 2dbe 1d55 03be
000003e0: 205c cdbc 001d 7c3d 0259 b13b 0240 26be
000003f0: cee5 003d f2f9 2e3d 6432 e0bb a651 3e3e
-0.12658644 0.016933965 -0.13129385 0.13365732 0.16080123 0.103600785 -0.116154924 0.14639919
0.06284192 0.14578009 0.011352166 0.027327823 0.044685762 -0.08468195 0.00891479 0.20218067
-0.03790132 0.03526481 0.12241208 -0.05850185 -0.027198985 -0.09867649 -0.13497502 0.13378967
0.050132904 0.017565291 -0.13519086 0.14333296 -0.03681249 0.09028917 0.03260529 0.05128308
-0.12290187 0.099551685 -0.1123026 -0.1524469 0.094530046 0.13295817 0.10492705 0.08055911
-0.04404264 0.1747262 -0.1275626 -0.10577912 0.09293868 0.17694263 -0.17265143 0.03780729
-0.06767361 -0.12581012 0.1792388 -0.027110767 -0.03566558 0.13752943 -0.123275615 0.033281744
-0.05080411 0.13993847 0.12419386 -0.15911089 -0.024718774 -0.14243191 -0.09312206 0.08910347
-0.07974279 0.07107127 0.1728608 0.052940115 0.19992219 0.089813635 0.07032805 -0.11775365
-0.07020336 -0.18019903 0.09313529 -0.15453888 0.05229039 0.13648736 -0.074363306 -0.1169227
0.087896645 -0.15097441 0.18197413 -0.06046935 0.04472896 0.091221906 -0.027396254 0.117250435
-0.035229318 -0.1381645 0.093837924 0.030241963 -0.008938191 0.088910624 -0.17149101 -0.16679399
0.020380689 -0.0003708599 0.0038561765 0.06182622 -0.025514804 0.18062998 -0.081179395 0.1621332
-0.022285676 -0.08975834 0.16112916 0.04844222 -0.09480406 -0.18840244 -0.10944696 0.18097822
-0.055617534 -0.082046114 0.11817762 0.07371208 -0.044017337 -0.13346308 -0.12382318 0.119292825
-0.017036757 -0.023445241 -0.067117326 0.015052325 -0.07385194 -0.07389684 0.017426861 -0.05388984
0.1319249 0.17068282 0.043023195 0.12661065 0.17171057 -0.12193425 0.11639613 -0.02874788
0.06193159 -0.019276353 0.08906024 0.1937421 0.068100214 0.13527204 -0.062963456 -0.12394708
0.06904329 -0.16348207 -0.13377264 0.14951167 -0.0500015 0.1174704 -0.032000974 -0.15171796
0.18125305 0.18021296 -0.11444188 -0.18881376 0.14465195 -0.1888197 -0.15358818 0.07199391
0.11480292 0.113032766 -0.12825279 -0.04543535 -0.037796993 0.06701809 -0.19896042 -0.14555773
-0.16481674 -0.13632035 0.016413117 -0.0018249509 -0.0018978536 -0.09557499 -0.011001295 0.06050234
0.014922798 0.111439764 0.08390256 -0.108383164 -0.07121137 -0.14772502 0.10286061 0.100754656
-0.018123297 0.09068012 -0.15948696 -0.19927667 -0.17183132 0.14290859 0.12881778 0.12315508
0.032610837 0.09092928 0.032403048 -0.15599208 -0.10443911 -0.0520276 0.17788494 -0.13243255
-0.18411285 -0.064207315 -0.059151478 -0.16859692 -0.16341378 0.13605762 0.027577251 0.18044876
-0.020787954 -0.10545942 0.052107614 0.11583412 -0.031323712 0.019040212 0.1301215 0.16571966
-0.08395416 -0.08912493 0.12206126 -0.1165365 0.09210666 0.10985331 0.16535826 -0.14235444
-0.12783521 0.005819126 -0.0014789547 -0.075892866 0.05943681 0.14400189 -0.17021354 0.05557842
-0.09207101 0.11905332 -0.04647436 0.084357396 0.1400933 0.028087158 -0.06853154 0.1732854
0.0016615896 0.13455841 0.13013203 -0.024318654 -0.17208858 0.110708036 -0.16984569 -0.12825437
-0.025068343 0.061551094 0.005412222 -0.16235355 0.03146916 0.042718835 -0.0068419445 0.18585834

features.0.bias f4 [32]
00000000: 3acc 7cbd e979 4b3d f5d3 513e e50b 2c3d
00000010: 2206 e3bd b465 873d 4370 103e 35b9 e93d
00000020: 6b00 ad3d 73a6 23be 822f 2fbe b82b 453e
00000030: 4a73 1b3d c980 b23c 302b 86b9 1a42 ff3d
00000040: 8d8f 3bbe e13a 0a3e bd53 28be 8981 b4bc
00000050: 60a1 3dbe 4261 2bbe 6621 9d3d d3ac d23d
00000060: c5e1 fcbc 54d1 21bd fcbb a6bd 2f63 153e
00000070: 5a08 fe3d 3024 353e d41c 18bd a07d 14be
-0.061718203 0.04967681 0.20491011 0.04200353 -0.11085154 0.06611195 0.14105324 0.114122786
0.08447345 -0.15981464 -0.17107967 0.19254959 0.037951745 0.021789925 -0.0002559065 0.1246378
-0.18316479 0.13499023 -0.16438194 -0.022034423 -0.18518591 -0.1673632 0.07672386 0.1028687
-0.030869374 -0.03950627 -0.08141324 0.14588617 0.12403937 0.17689586 -0.037136868 -0.14501047

features.2.weight f4 [32, 32, 3, 3]
00000000: 680b ff3c a525 893c c8bf a23c 5d4f 2fbd
00000010: 5c1f 343d 3eac 36bd be43 a03c 1a4d 62bd
00000020: e498 fb3c f4d4 bdbc de23 eabb efbc eb3c
00000030: 51bb 953b cb77 7a3c da4f 2bbd 82e4 20bd
00000040: 0251 02bd f1cc 953c 6ba6 4a3d 0752 5c3c
00000050: 0f23 25bd 556f 88bc 5aee 313d 9ba1 f1bc
00000060: 1001 e83c 4897 383c e893 173b c769 7f3d
00000070: d2c8 a8bb caf8 00bd 86fc 893d d1b5 203d
00000080: 5273 5f3d 4f1a c4bc 6909 53bc 74e5 193a
00000090: e25a c2bc 1a00 d63a 1cc8 ecbb 7aa0 733d
000000a0: e420 57bc bfa3 4b3c 9723 303d 53e8 313d
000000b0: 40d3 373d 687b 38bd 66b5 8f3c 2f02 223d
000000c0: 9f97 51bd 2bb0 45bd 380e 6a3d bd3a 78bd
000000d0: 85aa 8fbc a6ed f23c 33de 9a3c 493c 0f3d
000000e0: 5d3b 40bc b2ff e0b9 6ac3 01bd 70b8 64bb
000000f0: 4746 f8bc a38a 7dbc d1fa d0bb 3518 743d
00000100: 044e c13c bdef 5c3c 38e9 0a3c ca3d 4b3d
00000110: 76da 7d3d bb19 20bd b6e1 22bd 5a77 fdbc
00000120: 078e 683d 74d2 20bd 524f 3ebd f61d 293d
00000130: 6fc5 ac3b 44c5 993a 9bde d23c 52a4 6b3d
00000140: ca14 edbb c5ce 1c3c 19e0 6c3d a7c2 2a3c
00000150: 08ea 723c 2283 003d ea9b d63a 5b9e bcbc
00000160: b184 2dbd b9aa e7bb 136b 2cbd 1af7 00bd
00000170: 667b 3e3c 9c17 4d3d e36c 5d3d fa94 463c
00000180: 3c4d 603d 3699 f6bc bbc6 0c3d dd92 853d
00000190: f110 c3bc f815 4cbd 9c4c 6c3d c8b2 413d
000001a0: cdf6 e73c 7eb1 0fbc 5e5d 13bd 34bc 24bc
000001b0: ffd3 33bd d022 1e3c abc7 453d 538b 203d
000001c0: 4e1c 3fbd 0082 29bd 911b 843c 7105 c2bc
000001d0: b294 01bd 49c0 4f3d ca8b 1c3d 0bf5 1cbd
000001e0: 1641 11bd 9e73 23bd 7167 c2bc 4db5 34bd
000001f0: 7542 e43c e34e 84bd 4477 c4bc 3562 95bc
00000200: 9030 a03b 6802 50bd 29f7 24bd e812 1abd
00000210: 808a 583d 50c8 08bd ebf5 4bbd 7613 9dbc
00000220: a972 4b3d 2cf2 8a3c 105d d4bb 67d1 55bc
00000230: 2c86 813d 1399 483c 4691 a0bc dfff 03bd
00000240: 2ed7 083d 3c3f 4a3b b356 453d 5c09 23bd
00000250: 767c 2abd 1767 29bd 2c15 6d3d ce27 28bd
00000260: 9cae 63bd 6d1d f53b 7cf6 3d3c d969 57bd
00000270: fd54 aabc 69eb fb3c 1dab 453a 6288 753d
00000280: 924d 21bd a027 533d 1a29 04bd 0ddd 90bc
00000290: e674 67bd 37b7 a9bc 39c6 0abd b827 763c
000002a0: b122 a8bb 9551 f9bb 4090 913b 3ca1 663d
000002b0: 0998 543d 725a 803c 3c48 183d 7d89 a03c
000002c0: 2829 673b 4f07 213c 38c3 1abd 0759 563d
000002d0: c1f9 1e3d 210b 49bd dfc4 0b3d becc cf3c
000002e0: 8618 0abd ea13 e23c e99f 353d f9d0 933c
000002f0: 922a 00bd 890c 423d 24b6 993d 7a6f 683c
00000300: 1916 423d ae7c 703d ef48 503d 915a f83c
00000310: 89e1 883d 2c8c cfbc 7b73 273d 488f 7dbd
00000320: 701c 3abc 8158 e33c 2944 cebc 4c4c a2bc
00000330: 5dae c7bc 8aa7 30bd fd37 b3bc 8bf2 67bd
00000340: 63f7 48bd c5e3 313d e090 063d 099e 99bc
00000350: c7cc 633d 61b1 df3c c824 6bba 7312 173d
00000360: f862 4a3d 9fc2 f4bc e87a 43bd 16bf b93c
00000370: bb8c 6b3c c155 273c b73b 373d 99f1 cb3c
00000380: 14c9 0cbd d66d 2c39 ba7e 46bc 95fa e9bb
00000390: e8df 9b3c 69b5 b23c 5fad b93c a119 03bd
000003a0: 0ac7 5a3c bd41 813d 720a 35bb 1d6b 6a3d
000003b0: 5eab 523d 3176 a4bc 1e50 373d 24bc c93c
000003c0: 90b3 0bbd 584a 9a3c 5e0d 053d 6fe5 c33c
000003d0: 41ca 21bb 2371 e6bc 823d a9bc 6cd0 1fbd
000003e0: e556 44bd 3025 ac3c e6ce 05bb 4bee 06bd
000003f0: fa5c 38bd 58a7 e03b 89dd 823c 144b 473d
0.031133369 0.016741583 0.019866839 -0.042800296 0.04397522 -0.044597857 0.019563552 -0.05524931
0.030712552 -0.023172833 -0.007145389 0.028776614 0.004569449 0.01528735 -0.0418242 -0.039280422
-0.031815536 0.0182862 0.049475115 0.013447291 -0.040316638 -0.01665465 0.0434402 -0.029496005
0.02832082 0.011266537 0.002312893 0.062356737 -0.005150893 -0.031487264 0.06737618 0.039235894
0.054553337 -0.023938326 -0.0128806615 0.0005870678 -0.023724977 0.0016326935 -0.0072260033 0.059479214
-0.0131304 0.012429177 0.04300269 0.043434452 0.044879198 -0.045039564 0.017542552 0.039552864
-0.051169988 -0.04826371 0.057142466 -0.060602892 -0.017537365 0.029654335 0.018904781 0.0349696
-0.011732903 -0.00042915117 -0.031680502 -0.0034899972 -0.030306948 -0.015474948 -0.006377556 0.059593398
0.023596771 0.013484892 0.008478455 0.049619474 0.06197592 -0.03908704 -0.039766036 -0.0309407
0.056776073 -0.039263204 -0.046462364 0.04128834 0.0052725594 0.0011731763 0.025740912 0.057529755
-0.0072351443 0.009570782 0.057830904 0.010422385 0.014826305 0.031375058 0.001637337 -0.023024729
-0.042362873 -0.0070699123 -0.0420943 -0.031485654 0.0116261 0.050071344 0.05405892 0.01212048
0.054761156 -0.030102354 0.03436921 0.065221526 -0.02381179 -0.04982564 0.057690248 0.04728964
0.028315926 -0.008770345 -0.035977714 -0.010054637 -0.043903347 0.009651855 0.04828612 0.03919537
-0.046657853 -0.041383743 0.016126426 -0.023684235 -0.031635948 0.050720487 0.03821925 -0.03831963
-0.03546246 -0.039905183 -0.023730965 -0.044118214 0.02786372 -0.06460359 -0.023982652 -0.018235305
0.0048886016 -0.050783545 -0.040274773 -0.037615687 0.05286646 -0.033394158 -0.049795073 -0.019174319
0.049669895 0.01696118 -0.0064808205 -0.013050414 0.063244194 0.012243527 -0.019600522 -0.03222644
0.033408336 0.0030860445 0.048178386 -0.039803848 -0.0416226 -0.04135808 0.05788152 -0.041053586
-0.055586442 0.0074803145 0.011594411 -0.05259118 -0.020792479 0.0307519 0.00075404515 0.059944518
-0.039380617 0.05155146 -0.03226576 -0.01768353 -0.056507967 -0.020717246 -0.033880446 0.015024118
-0.0051310887 -0.0076086023 0.004442245 0.05630611 0.051902805 0.015668128 0.037178263 0.01959681
0.0035272334 0.009828403 -0.03778383 0.052330997 0.038812403 -0.04908288 0.034123298 0.025366183
-0.033714794 0.027597386 0.044341955 0.018043982 -0.0312906 0.047375236 0.07505444 0.014186734
0.047384355 0.058712654 0.050850805 0.030316623 0.066836424 -0.025335394 0.040881615 -0.06190422
-0.011359319 0.027752163 -0.025178986 -0.019811772 -0.024375135 -0.043128528 -0.021877283 -0.05662779
-0.04906405 0.04343011 0.032853007 -0.018752115 0.055615213 0.02730626 -0.00089700194 0.03688283
0.04941079 -0.029877959 -0.047724634 0.022674125 0.0143768145 0.010213316 0.044734683 0.024895476
-0.03437145 0.00016444115 -0.012115175 -0.0071404674 0.019027665 0.021815019 0.022665678 -0.032006864
0.013353119 0.06311367 -0.0027624634 0.057231057 0.05143296 -0.02007589 0.04475414 0.024625845
-0.03410679 0.018834278 0.03248345 0.023913113 -0.0024687203 -0.02813012 -0.020659212 -0.039017126
-0.04793443 0.021013826 -0.002041751 -0.032942098 -0.045010544 0.0068558864 0.015974777 0.048655584

features.2.bias f4 [32]
00000000: d12f a4ba fcbe 07bd 1866 18bd 4eb5 ff3c
00000010: 58d4 283d 419f fc3c 8c58 1ebd ecb6 8e3c
00000020: abfb d53b 10af 0cbb 405c 43bc 317f e9bb
00000030: 5c36 54ba 5fcd c0bc 8185 ccbc 776e 453d
00000040: 38d3 243c 5dc4 653d 79de 463d c0b5 30bd
00000050: 9b26 c83c 842c 2abd ffbe 50bb abdb 57bd
00000060: 4d3b c4bc 1674 3fbd 5c58 33bb a065 7b3d
00000070: ba10 1ebd cb52 d73c 8a2e 563c 3c06 973c
-0.0012526457 -0.03314112 -0.03720674 0.031214382 0.04121813 0.030837657 -0.038658664 0.017421208
0.0065302453 -0.002146665 -0.01192385 -0.007125758 -0.00080952584 -0.023535429 -0.024966003 0.04820105
0.010060124 0.05609547 0.04855201 -0.04314208 0.024432471 -0.04154636 -0.0031852124 -0.052699726
-0.023954058 -0.046741568 -0.0027365899 0.061376214 -0.03859017 0.026284596 0.013072619 0.01843559

features.5.weight f4 [64, 32, 3, 3]
00000000: 37b1 35bd b4b9 603c 2f7f 5c3d 59f8 203d
00000010: af58 533c 1a31 4abd c477 523c 061b c13c
00000020: 76d5 a13c 5c16 c13c f504 00bd b03b f1bc
00000030: 2430 bdbc 0699 593d d173 383d 5ede 0c3d
00000040: ad7b 813d cd9a 033d ed3a 27bd f19d 623d
00000050: 2dbf 573d 966b 393d 662e 6bbc 1f79 443a
00000060: e0cb 8cbb 7064 c5bc c38c 1f3d 4c26 69bc
00000070: f542 393c 9907 c4bb 5b23 8b3c 9787 483c
00000080: 85df 013c e98d b7bc 813d 65bd 9a21 a53c
00000090: caaf d93c 0346 bb3c 0a83 1c3d 7c45 8c3c
000000a0: 20ba 98bc 4c1e 9fbc 9de6 9fbc a5b1 2b3d
000000b0: 2ecf 0e3c 39cc 59bc c841 b93a 872d 66bd
000000c0: 81f6 fb3c 1e50 913c aa09 413d 4dd1 a43b
000000d0: b9c7 cd3c b5dd 18bd bc64 42bc 442c 1c3c
000000e0: 3fd8 843a 26ef 5bbd 3abb 7dbd b0a7 83bb
000000f0: a664 93bb 74fa 72bd 555f 75bd fa83 e53c
00000100: b1b3 2d3d e246 833d a132 5dbd 878e 23bd
00000110: 77ca 053d 2b47 de3c bcc3 5f3c f72b 4f3c
00000120: 51af 3b3d c0cd 703c 0e3c d63c 7c95 f5bc
00000130: 26b7 0dbd 3d04 7abd 36f3 57bd 9a0c 61bd
00000140: 2eaf 5ebd 4bbc 8d3d 170b 1ebd 0045 6bbc
00000150: d646 293d 6ff1 643d 1399 9c3b 1195 b4bb
00000160: a2ab 493d 388d 763d 2feb 36bd 1f0a 6abd
00000170: e8a7 0bbd 74f9 c3bc 7130 d33c 6ffb 273d
00000180: c959 2cbd 6734 ad39 cccb 23bb 767d 973c
00000190: 5f52 3bbd f03e 2cbd 3c09 653c 4cf7 453c
000001a0: 0092 f7bc a463 05bd dd11 353c 488d 8ebc
000001b0: d64b a8bc 63b8 613d d18c 8dbc d717 52bc
000001c0: 5f9c 91ba eb26 353d 1e68 3dbd 40f6 1a3d
000001d0: 0f6d 3c3d 3c11 31bd 5a4e 63bd 8c12 16bd
000001e0: 091e de3c 2048 3d3d a303 1cbd b92b 61bd
000001f0: aca5 093d 7a39 62bb e609 e73c ccc7 d4bc
00000200: 834a 353d 56a2 b93c ad17 7d3c 22ec 033d
00000210: 6dab 65bc 1206 6d3d 7df9 2bbd b3a0 16bd
00000220: 3676 15bd 790f 273d a9f8 583c 77e4 233d
00000230: aef2 063d a81c 153d 85ff 843d 8d60 e43c
00000240: 99a1 23bd 21ef 093d 4673 653b 4913 7b3d
00000250: 681a 32bd 7462 a73c 41ca 39bd 5c3e 083d
00000260: a4a7 86bc 8b81 69bb 1f27 5f3d e53b 823d
00000270: 13f0 7d3c 8a15 d239 6050 85bb f226 0cbc
00000280: abeb 5dbd b168 873d 8e51 ed3c bf24 98bc
00000290: 8111 61bd 9951 98bc ced6 9c3b d7ac af3c
000002a0: 0144 47bc 2f24 c4bc ae51 3abd 481a 113d
000002b0: df96 02bd fb1f 15bb 93f2 69bd 72a4 91bc
000002c0: 5ce2 563d 862b 1c3d c2a9 92bc c212 033d
000002d0: 1195 483d d035 eb3c 15f2 6a3d 3052 c83c
000002e0: e20a 19bd 26a5 eb3c be04 613d 3e6b e23c
000002f0: 858b a43b bf81 9a3c e8ec 6e3d abcc 283d
00000300: 99d2 a9bb 9f76 2fbd 7de0 8a3c 1a66 0e3d
00000310: 855a e43c db76 113c 4030 2b3d c686 2cbc
00000320: 3b7a db3a 1f84 973c 5670 cfba c223 1e3d
00000330: f475 72bd ebbf d7bc 7f27 063d 1e5d 0e3d
00000340: da83 fe3c d99d 813d 8f0d 753d 8ba6 833d
00000350: 204f 833d c964 f03b 6752 533c dfda c53c
00000360: 0b3c 04bd 6b66 3f3d b27b 19bb e701 1fbd
00000370: 42c4 493c 6c30 3a3c 6787 14bd c2cf 22bd
00000380: ce69 4a3d 7458 1cbd f80c cd3c 19d1 6c3d
00000390: d4de 02bc 83e0 cb3c 1c41 7e3c b318 433d
000003a0: 7d7e 543c c863 f7bc bdde 563d 099b 0f3d
000003b0: fb5a c5bc b9d8 2e3d 8f5a 883c ef2b 0cbd
000003c0: 646f 44bd 0be6 c63b 1421 6bbd 813b 303d
000003d0: f045 fdbb 3f9f 35bd d958 ac3a 401a 733d
000003e0: 7338 3ab9 6128 fd3b 7623 743d 45a1 483d
000003f0: cedf 30bd 6f83 123d 7b03 ccbc f85f fd3c
-0.04435846 0.01371615 0.05383223 0.039299343 0.012899562 -0.049363233 0.012845937 0.023572456
0.019755106 0.023570232 -0.031254727 -0.029447407 -0.023094244 0.05312445 0.045032326 0.034391753
0.063224174 0.03213005 -0.04082768 0.055326406 0.052672554 0.045268618 -0.014354324 0.0007494855
-0.0042967647 -0.024095744 0.0389526 -0.014230322 0.011307468 -0.005982351 0.016984632 0.012239358
0.007926826 -0.022406535 -0.055966858 0.020157624 0.02657308 0.022860533 0.038210906 0.017122976
-0.018643439 -0.019423626 -0.019519145 0.041917462 0.008716388 -0.013293319 0.0014133984 -0.056195762
0.03075719 0.017738398 0.047128357 0.0050298334 0.02511965 -0.03732081 -0.011864837 0.009532038
0.0010135247 -0.053694867 -0.06194613 -0.0040177926 -0.004498082 -0.059320882 -0.05990537 0.028017033
0.042407695 0.06410004 -0.05400336 -0.039930847 0.03266379 0.027133545 0.013657507 0.012644759
0.04582149 0.014697492 0.026151683 -0.029978506 -0.034598492 -0.0610392 -0.05272218 -0.05494366
-0.054366283 0.0692068 -0.038584795 -0.014359713 0.04132732 0.05589431 0.00477899 -0.005510934
0.049235947 0.06019327 -0.044657882 -0.05713856 -0.034095675 -0.02392266 0.025779935 0.04101127
-0.042077813 0.00033036174 -0.0024993299 0.018492442 -0.045732852 -0.04205221 0.013979252 0.012082886
-0.030220985 -0.032565728 0.011051622 -0.017401353 -0.020543974 0.055107486 -0.01727906 -0.012823067
-0.0011109224 0.04422657 -0.046241872 0.0378325 0.046002444 -0.043229327 -0.055494644 -0.03663878
0.027113931 0.046211362 -0.038089406 -0.054973338 0.033605263 -0.0034519122 0.028202962 -0.025974177
0.044260513 0.022660416 0.015447539 0.032207616 -0.014017922 0.057867117 -0.041985977 -0.03677435
-0.036489688 0.04078624 0.013242879 0.040012803 0.03294628 0.03640428 0.06494049 0.02787807
-0.039949033 0.033675317 0.0035011335 0.06129769 -0.043482214 0.020432688 -0.0453589 0.033262596
-0.01643736 -0.0035630192 0.05448067 0.0635908 0.015499133 0.0004007037 -0.0040684193 -0.008554207
-0.05417983 0.06611765 0.028969552 -0.01857221 -0.054948334 -0.018593596 0.004786349 0.021444721
-0.0121622095 -0.023943035 -0.045488052 0.035425454 -0.031882163 -0.0022754658 -0.057116102 -0.017778609
0.052461967 0.038127445 -0.017903212 0.03200031 0.048970286 0.028712183 0.057359774 0.024453253
-0.037363894 0.028765272 0.054936163 0.027639028 0.005021515 0.018860696 0.0583314 0.04121081
-0.005182576 -0.042837735 0.016952747 0.03476534 0.027875194 0.008878435 0.04179406 -0.010530179
0.0016744802 0.018495617 -0.0015826325 0.03860832 -0.05919452 -0.02633663 0.03275251 0.034756772
0.031068731 0.06328935 0.059827384 0.0642825 0.06411576 0.0073362333 0.012898064 0.024152217
-0.032283824 0.046728533 -0.0023419675 -0.038820174 0.012314858 0.011364084 -0.036261942 -0.039748915
0.04941731 -0.038170293 0.025030598 0.0578166 -0.007987697 0.024887329 0.015518453 0.047630977
0.01296961 -0.030198947 0.052458514 0.035059962 -0.024091234 0.04268715 0.016644744 -0.034221586
-0.047957793 0.0060699037 -0.057404593 0.043025497 -0.0077292845 -0.044341322 0.0013149037 0.059351206
-0.00017759371 0.007725761 0.05960413 0.048981924 -0.043182187 0.035769876 -0.024904003 0.03092955

features.5.bias f4 [64]
00000000: ae86 d7bc 89e4 4cbd 96ea 233d b9fb 2f3d
00000010: 007c 563d f0ee 603b b6db 93bc 2048 663d
00000020: d436 b3bb 2797 27bd 1b18 4f3d 676c 6b3c
00000030: 5f8b a6bc 35d2 313d 6884 3abd 9a7c 49bd
00000040: 8a5f e4bc fe7a 123d 3af0 da3c 0e34 f8bb
00000050: 67b6 d4bc 072d 23bd a7ed 143b bb47 51bd
00000060: 90dd 1e3d ffd6 673d d261 203c a0a0 dabc
00000070: 465e 4cbc 5bc1 3c3d 5521 c13b 885a 153d
00000080: 4f19 593d 3ce4 27bd ef7b 903c 0948 983c
00000090: 4d55 09bd 9080 323c 1a0b 0e3d 7b20 ccbc
000000a0: 9f37 32bd 6b2f 563d 272e 95bc e6dd 9abc
000000b0: d0eb b0bb 616f 13bd c08b a7bc 3f6e 1dbd
000000c0: fe58 10bd bd42 cb3b 54ff d5bc e909 eb3c
000000d0: 9a45 40bd 8c47 cd3c 12ac 3bbc 548f ccbc
000000e0: 3af8 2fba 0933 e2bc a0c2 863c 4ac4 273b
000000f0: d781 2bbd 85ee 163d b6b5 3ebd 288f 4a3d
-0.026309337 -0.050022636 0.04001864 0.04296467 0.05236435 0.0034322105 -0.018049102 0.056221128
-0.0054691825 -0.040915634 0.0505601 0.014369107 -0.02033013 0.04341336 -0.04553643 -0.049191095
-0.027877588 0.035761826 0.026725877 -0.007574565 -0.025965882 -0.039837863 0.002272466 -0.051093798
0.038785517 0.05660152 0.009788947 -0.02668792 -0.012473648 0.046082836 0.005893866 0.03646329
0.05300265 -0.040989146 0.017637221 0.018589037 -0.033528615 0.0108949095 0.034678556 -0.024917832
-0.043510076 0.052291315 -0.018210484 -0.018904638 -0.005399205 -0.03599489 -0.02045238 -0.038435217
-0.03524112 0.006203024 -0.026122727 0.028691249 -0.046941377 0.02505853 -0.011454599 -0.024970688
-0.0006712709 -0.027612226 0.016450226 0.0025599175 -0.04187187 0.036848564 -0.04656001 0.04945293

features.7.weight f4 [64, 64, 3, 3]
00000000: f5cf 313d b3ce 903c 20f3 2cbc ac66 363b
00000010: 813f 0b3d f617 08bc 8af0 1ebb 5f33 c8bb
00000020: d442 3f3d 6574 fd3c d7eb 403d 60eb 813c
00000030: 3dde e9bc 20a8 01bd f52b 8dbc e52a 01b8
00000040: b24a 1abc da72 94bc f52f 19bd e347 1fbd
00000050: fe15 bebc e02a b03c bca2 c0bc 2117 323d
00000060: 338c da3c 1c94 3fbc df87 b43c 6650 adbc
00000070: 2205 9abc 9e60 263d 3799 13bd 4208 193d
00000080: add7 16bd eb5c e0bc 5103 e0bc efe5 edbc
00000090: a3a7 963c 5f26 233d 2596 053d fe39 85bb
000000a0: 459b 1dbc 4e61 4ebc 13fc a8bc 32b7 3e3d
000000b0: ca89 073d f891 403d 2623 363d 13a5 2f3c
000000c0: 82b9 903c 010c b1bb 11c3 823c 50b1 203d
000000d0: c402 403d b2a0 b33b 1c26 033c 2292 d83c
000000e0: f599 b43c ff63 0c3d b851 a53c a89d a43c
000000f0: 2ba3 1f3d 3fdf 1d3d 3d02 f2bc 50d2 0e3d
00000100: 6528 11bd e7b4 c4bb 05e0 e53c b92b 253d
00000110: 7e9c 463c 1471 04bd a4d5 f6bc b4a3 b13b
00000120: dd26 cc3b 2c07 81bc c8af 1c3d 88a7 f0bc
00000130: 991b c33c 3459 66bc 7513 b23c d6a1 13bc
00000140: 3e0a b93b f7d4 c9bc 06d7 7c3c e271 20bb
00000150: 09e4 693a d093 a1bc 59a3 06bc e046 53bc
00000160: a86c fa3c 0076 e7bc ec17 be3c 85da 2cbd
00000170: e6a2 e13c 5bb0 f7bc cec4 3abd 9c9d b8bc
00000180: 20b8 73bc efe9 15bd 3cc1 10bd d2af 11bd
00000190: a09e ddbc 2563 9f3b 834d cbbc cb29 9d3c
000001a0: aa32 68bc dda7 193d 27c7 eebb 5e87 d53c
000001b0: 70ab e6bc 0088 7bbc 1fc5 9dbb 6397 543c
000001c0: 885d e9bb 47c1 f7bc 22df 923a 45b0 233d
000001d0: 1a52 5abc b697 c83c c796 fcbc c19c 09bd
000001e0: c38f a93c 8648 0abb b267 ae3c 8fd1 36ba
000001f0: 0131 7e3c 0602 8fbb 2269 b5bc 595d 833c
00000200: fdb7 8a3c d6ae cd3c 16cf b33c 39ac 893c
00000210: 490f c83c c202 933c b7fc 03bd 827d 28ba
00000220: 26cb 203d e34d 193d 8d0f 2b3c 8af3 fbbb
00000230: a7f4 db3c 75ca 293d 976b 363c bd6f a1bc
00000240: 101d 2e3d 3a24 e6bc 45fd 12bb f5da 32bc
00000250: 8455 103d 4d2c f13c c793 ee3b 725f c03c
00000260: 9fad 21bd 3e78 29bc 5cf6 3c3b c7ff 4cbc
00000270: 588a b4bc b745 d53c 930d af3c 25a9 6338
00000280: 2001 043d c452 91bc bf51 a5bc 29d0 de3c
00000290: 5815 99bb b053 ec3c 7b14 e1bc 4745 fb3b
000002a0: 9acb b0bc 5a2f ddbc 83c3 5d3c e84d d63b
000002b0: eeeb 023d 92f3 0f3d 0ba3 cebc 72e9 0a3b
000002c0: c78f 983c b1c0 363d 8359 e03c 2d88 8fbb
000002d0: e762 ec3c ff4b 963c 0085 fbbc 907b dbbc
000002e0: 5e4f 193c c7ee bc3b 5406 fdbc 2079 97bb
000002f0: f725 92bc 0624 d7bc 4ae5 eabc e62d c8bc
00000300: 2170 ed3c 015f a63c 244a 5f3c 9cef aa3c
00000310: fcd9 d7bc dcee ac3b 84c1 af3b 7054 b63c
00000320: 9e7c 363d 61c8 f83c 8459 103d addd bbbc
00000330: 408a 29bd 0821 103d b957 bd3c 560d 243b
00000340: 8889 983b 3822 f8b9 82b7 27b9 0f61 e538
00000350: 1a97 e3bb a0bf b13a 2cef 343b 7bc4 d73b
00000360: 4936 01bb 48c0 173d b253 a2bc fcee bdbc
00000370: 785d 1c3c b127 a23b bea0 d2bc c99b a53c
00000380: 8a80 163c f6fe 2aba 5024 a83c 5cbe 7c3c
00000390: 73a8 eabc 011a 693c ef7e d4bc 50c5 87bc
000003a0: 9fbc 22bd ba38 993c 31c1 f73c 195f 0bbd
000003b0: d8f4 573c 2c61 33bc 24bd 0c3c 93c1 d8bb
000003c0: e1ec 0dbd 9af5 c5bb 78fb 773c f992 bc3c
000003d0: 8d0f 813b 431b 61bb 73f3 463c 3015 8e3c
000003e0: fdd7 703c 721d 953c 2c22 283d 1176 893c
000003f0: af91 4b3d 6e6e db3c dfb6 3e3d 4944 15bd
0.043411214 0.017676687 -0.010556012 0.0027832193 0.03399611 -0.008306494 -0.002425226 -0.0061096395
0.04669459 0.03093929 0.047099914 0.015859306 -0.028548354 -0.031654477 -0.017232874 -3.0795945e-05
-0.009417223 -0.018121172 -0.03739925 -0.038886916 -0.023203846 0.02150482 -0.023515098 0.04347909
0.02667818 -0.011693027 0.022037445 -0.021156501 -0.018801276 0.040619485 -0.03603479 0.03736139
-0.03682678 -0.027388057 -0.027345331 -0.029040305 0.018390482 0.039831515 0.032613892 -0.004065751
-0.009619539 -0.012596441 -0.02062801 0.046561427 0.03309039 0.047014207 0.044467114 0.010720509
0.017666582 -0.0054030423 0.015962156 0.0392316 0.046877638 0.005481803 0.008004691 0.026436869
0.022046069 0.03427505 0.020180568 0.020094708 0.03897397 0.038542982 -0.029542083 0.03486854
-0.035438914 -0.0060030106 0.028060922 0.0403249 0.012122272 -0.032334402 -0.030131169 0.0054211263
0.006230219 -0.01575049 0.038253576 -0.02937676 0.02381687 -0.014059354 0.021737793 -0.009010753
0.005646973 -0.024637682 0.015432125 -0.0024481942 0.00089222245 -0.019723803 -0.008217656 -0.012895316
0.03056939 -0.028254509 0.023204766 -0.042200584 0.027543496 -0.03023546 -0.045597844 -0.022536092
-0.014875442 -0.03660005 -0.035340533 -0.035568066 -0.027053177 0.004864114 -0.024817234 0.019184968
-0.0141722355 0.037513603 -0.0072869244 0.026065525 -0.02815792 -0.015352249 -0.0048147584 0.0129755465
-0.0071217455 -0.030243529 0.0011205415 0.039963026 -0.013325239 0.024486404 -0.030833615 -0.033596758
0.020698434 -0.0021100356 0.02128968 -0.00069739757 0.015514613 -0.004364255 -0.022144858 0.016035723
0.016933436 0.025107782 0.021949332 0.016805755 0.024421351 0.017945651 -0.03222343 -0.00064273935
0.039256237 0.037427794 0.010440719 -0.007688944 0.026850058 0.041452844 0.01113405 -0.019706601
0.042508185 -0.028093446 -0.0022428792 -0.010916461 0.035237804 0.02944007 0.0072808 0.023483012
-0.03947222 -0.010343609 0.0028833365 -0.012512154 -0.022038624 0.02603422 0.021368777 5.4278546e-05
0.032227635 -0.017739661 -0.020180581 0.027198868 -0.004671734 0.028848499 -0.027475586 0.0076681706
-0.02158146 -0.027000118 0.013535383 0.006540049 0.03196328 0.035144396 -0.02522423 0.0021196273
0.018623246 0.04461736 0.027386433 -0.004380247 0.028855754 0.018346785 -0.030703068 -0.026792318
0.0093573015 0.005765769 -0.030886807 -0.0046225935 -0.017840369 -0.026262295 -0.028673787 -0.024435949
0.028984131 0.020308973 0.013628516 0.020866208 -0.02634906 0.0052774977 0.005363645 0.02225706
0.044552438 0.030368986 0.03524162 -0.022932852 -0.04139161 0.03518775 0.023113118 0.0025032363
0.004655067 -0.0004732774 -0.00015994723 0.000109376495 -0.006945503 0.0013561137 0.0027608378 0.0065847016
-0.0019716194 0.037048608 -0.0198153 -0.023185246 0.009543769 0.0049485792 -0.025711413 0.020215886
0.00918592 -0.00065229775 0.020525128 0.015426245 -0.028644776 0.014227391 -0.025939433 -0.016573578
-0.039730664 0.018703807 0.030243488 -0.03402624 0.013180934 -0.010948461 0.0085900165 -0.0066148727
-0.034649733 -0.006041241 0.015135638 0.0230193 0.0039386214 -0.0034348525 0.012143004 0.017344087
0.014699933 0.018202517 0.041048214 0.016779931 0.04969948 0.026786055 0.04656112 -0.036442075

features.7.bias f4 [64]
00000000: 6260 dbbc 0a2c 0abd 2cc8 b6bc 499f 88bb
00000010: db7f 923c c6a2 24bd 68f2 96bc 085d c0bb
00000020: 4f6c 12bd 1197 94bc bbe3 2c3d b751 833c
00000030: fa99 e13c 33c7 393c 9e77 a53c a446 363d
00000040: 8520 d1bc 5b41 7a3c 49a1 d93c 13a1 a83c
00000050: d411 52bc 0311 82bc f61e 4b3b 6787 d5bc
00000060: cfc6 65bb d9d0 07bc 64d9 de3a 9d95 00bd
00000070: 2d11 1ebd aa8d 1c3d e0c7 2dbd c1ed 3d3c
00000080: d588 27bd b04a 9ebc 6f7a a73b 9c30 253a
00000090: 7b7f 103d bb49 cb3c 9a8f fdbc af3a 22bd
000000a0: 6a16 083c 0aeb c6bb 99c4 c0bb 4e99 c6bc
000000b0: 5d24 23bd d701 9a3c 4afe 03bc 080a e3bc
000000c0: da34 ae3c d696 e1bb 91cf 3e3d d4b1 1dbd
000000d0: 0c77 c1bc fb57 c23c e1d3 0cbc c175 f8bc
000000e0: f308 093d 4fb1 e5bc 2ae1 26bd 54bb 313c
000000f0: 9602 f93c 7634 183c 8b00 81bc 025c abbc
-0.026779357 -0.033733405 -0.022312246 -0.004169379 0.017883232 -0.040194295 -0.018426135 -0.005870465
-0.035747822 -0.01813844 0.04220937 0.016030176 0.027539242 0.011338997 0.02019864 0.044500962
-0.025528202 0.015274371 0.026566165 0.020584619 -0.012821633 -0.015877252 0.0030993796 -0.026065541
-0.0035061126 -0.008289539 0.0017002043 -0.031392682 -0.0385906 0.03822104 -0.042426944 0.0115923295
-0.040901978 -0.019322723 0.005111031 0.0006301494 0.035277825 0.02481543 -0.030952264 -0.039606746
0.008306125 -0.0060704993 -0.0058828113 -0.024243023 -0.0398296 0.018799705 -0.008056233 -0.027714744
0.021265436 -0.006884436 0.04658467 -0.03849967 -0.023616336 0.023723593 -0.008595438 -0.030329587
0.0334558 -0.028038649 -0.040742077 0.010847885 0.03039674 0.009289851 -0.01574733 -0.020917896

features.10.weight f4 [64, 64, 1, 1]
00000000: 6b39 273d 4c0c 973c 2ac1 16bc da4b bd3d
00000010: 692d b23a 9396 1e3c ffff 893b 210e 053e
00000020: a9c3 e43d c73b f73c fbb5 ca3d 9738 593d
00000030: e364 e43d a515 78bd 5f71 abbd 8859 d2bd
00000040: a413 cf3d a973 523d 5c68 acbc 1e0f 403d
00000050: aff3 a23b c1c8 43bd 3697 a939 72a4 d9bd
00000060: 27d4 18bd b5f9 43bd 121f 7c3d 1073 42bd
00000070: c899 4dbd 98b8 d13d 8433 d43b 36a9 e2bd
00000080: 801e f5bd c1b3 003e 5995 bbbd 3a34 c1bc
00000090: cd80 0cbd 205a 253c 8440 89bd 291e 67bc
000000a0: da24 e53d ef6c 86bd 2758 6ebd 397c b3bd
000000b0: 2dda 6abd 4509 b5bd 280f c0bc 55d2 513d
000000c0: 6a24 f5bc 5dcf a4bc 62de b83d 2d10 f5bd
000000d0: c446 80bd 2825 003e f39a ce3d ac53 b2bc
000000e0: 5c5e a23d 40ca ebbd c988 b73b 2892 603d
000000f0: 5c4f 52bd b21a 16bc 4a24 e43b 9d8f e2bd
00000100: fa3c b13d b74f 4abd 0c56 6bbd 1404 c13d
00000110: 86e4 19bd e22d 7abc cec6 b13d b195 e43d
00000120: b186 d63d 002b 81bd a346 0a3d e06c d2bc
00000130: bc11 d73d b553 17bd f587 c53d 8846 af3d
00000140: d630 cfbd fe6b fa3d 0c75 fd3d ea7b 30bd
00000150: e7eb a3bc 77d6 033d 2540 80bb cd81 d53d
00000160: f211 b0bc 1d54 d6bd 223b c83c e0a2 a13c
00000170: 813f efbd 6473 923c 3dbe 95ba a637 5ebd
00000180: 7116 1b3d cb8a 7b3d 8a59 9c3c 6aaf bc3b
00000190: 5e07 273d a1b5 13bd e241 84bd cb28 9c3d
000001a0: d647 8f3d a514 733c 7825 53bd 1153 6abd
000001b0: 5432 b73d c438 ec3c 5b5c 9dbd ab39 c23d
000001c0: f2b0 d4bd 52e1 a53d 9e18 d23c d121 743c
000001d0: df74 edbd a8eb c93c 951f b43c 152d da3d
000001e0: 5589 c43d 09a3 8c3c 73f6 7abd 7750 efbd
000001f0: 0355 ca3d 3405 55bd 7e9c 013e 1480 91bd
00000200: 773b 083b ea84 a4bd 4bc6 d03d b03a 73bc
00000210: a275 9c3d c3ba cabd d4cb d53d b2b2 9d3d
00000220: d1aa 873d b53e aa3d 4c33 18bd e4ef 0e3b
00000230: 105f d6bc 4752 2dbd 6439 813d 2dc4 efbb
00000240: 2bec 993d c035 803d 18a6 ad3c d534 9abd
00000250: f515 612a 311a bb3d 24dd 803d 1509 a93c
00000260: 69ed c1bc e151 aebd cdd3 03bd 380c 6e3c
00000270: fc4f 50bd 6c15 be3d 17df a0bd 83e6 25bc
00000280: 2fac 71ba 3e7b 853a aa80 cd3d 4767 08bd
00000290: 2472 953a 7153 b7bd 6c33 523b 938b 933d
000002a0: a18b 19bd 92e6 e83d 7cd0 123d f5fa 3a3c
000002b0: 73e5 9fbc 0595 42bd 1efa 093d b2f0 d63d
000002c0: cea4 3c3c e5c5 77bc b573 7b3a 4a1f 5cbb
000002d0: f941 c3bd 0b8f 99bd ac44 2124 1223 d6bc
000002e0: e608 dd3d 7c5d afbd 8007 dd3c bfd1 4ebd
000002f0: 41b3 a7bd 03d6 cf3c 771f 2d3d 0cdd 963d
00000300: d49e b8bd af7f a83c 61c6 ebbd 4ae9 763c
00000310: 887f 8e39 b67f f33d b30c 413c 3b75 dfbd
00000320: dbe7 bfbd 2213 68bd ce4b b8bc 264f 813d
00000330: 3f10 883d cb3d a3bd 5876 d43d 7535 c23d
00000340: bb45 afbd 3714 5b3c 71d3 d03d 75b0 a4bd
00000350: b8e3 89bb 43cf ab3d cbf1 9339 2dfd 913d
00000360: fe4c 24ba 1703 1d3d 54f2 6dbd 5327 b53d
00000370: 21f5 773d b695 be3d fb17 1dbc 4e00 b4bd
00000380: 4b47 d03d 5f5a 963c 32bf 8fbd 9e75 bc3c
00000390: 4e4c ddbc f546 86bc df14 39ba ebba 103d
000003a0: cc01 8b3d c46f b73d e5ac fc3c 80f2 82bd
000003b0: 869c db3b 3e9c dfbd 37f1 cf3d 261d 8a3d
000003c0: 4734 b0bd c537 0d3d e3aa 193b c894 f9bd
000003d0: de9b c23d f78b 743d 432f 983d 8ec1 083b
000003e0: b33e 5abd 2893 733d 4ec4 01bd cffd 9bbd
000003f0: e88f e9bd 0e2d 343c 2da2 a0bd a642 993d
0.040826242 0.01843848 -0.009201327 0.09242983 0.0013593856 0.009679454 0.0042114253 0.12993671
0.11170132 0.030179871 0.09897991 0.053032484 0.11152055 -0.060567517 -0.08371233 -0.10270983
0.10111168 0.051379833 -0.021045856 0.046889417 0.004972897 -0.047798876 0.00032346853 -0.106270686
-0.0373117 -0.04784556 0.06155307 -0.047473013 -0.050195485 0.102402866 0.0064758677 -0.11067431
-0.11968708 0.1256857 -0.09159345 -0.023584474 -0.03430252 0.010092288 -0.067017585 -0.014106312
0.111886695 -0.06563746 -0.058189537 -0.08763928 -0.057336975 -0.08839659 -0.023444727 0.05122598
-0.02992459 -0.02011841 0.09026791 -0.11965976 -0.062634975 0.12514174 0.10088148 -0.021768413
0.07928154 -0.115131855 0.005601023 0.054826885 -0.051345214 -0.009161638 0.006962334 -0.11062548
0.086542085 -0.04939243 -0.057455108 0.09424606 -0.037571453 -0.015269728 0.08680497 0.11161364
0.10474909 -0.0630703 0.03375877 -0.025686681 0.105014294 -0.036945064 0.09645072 0.08558375
-0.101167366 0.12227629 0.123758405 -0.043086924 -0.020009948 0.03218695 -0.0039138966 0.10425148
-0.021492932 -0.10465262 0.02444226 0.019730985 -0.11682034 0.017877288 -0.0011424493 -0.05425229
0.0378632 0.06141166 0.019085664 0.0057582157 0.04077851 -0.036061887 -0.06457879 0.07624968
0.069961235 0.014836465 -0.051549405 -0.057208125 0.08945146 0.028835662 -0.07683631 0.094836555
-0.10385312 0.08099617 0.025646504 0.014900641 -0.11594557 0.024648502 0.021987716 0.1065313
0.095965065 0.017167585 -0.06127019 -0.11685269 0.09879496 -0.052006915 0.12657353 -0.07104507
0.0020787397 -0.08033164 0.101940714 -0.014845535 0.07639624 -0.09898903 0.10439268 0.07700099
0.066243775 0.08312742 -0.037158296 0.0021810466 -0.026168376 -0.042314794 0.063097745 -0.007317087
0.075157486 0.06260252 0.021197364 -0.07529608 1.9991632e-13 0.09135855 0.06292179 0.020634213
-0.023672776 -0.08511711 -0.03218441 0.01452928 -0.05085753 0.0928143 -0.07855051 -0.010125759
-0.0009219078 0.0010183824 0.10034306 -0.033301618 0.0011401814 -0.08951462 0.0032074107 0.07204356
-0.037486676 0.11372103 0.035843357 0.011412372 -0.01951859 -0.047505397 0.033685796 0.10495128
0.011513902 -0.015122865 0.0009592132 -0.0033587986 -0.09534068 -0.074979864 3.4969477e-17 -0.02613977
0.10792713 -0.085627526 0.026981115 -0.050493 -0.08188487 0.025370603 0.042266335 0.0736638
-0.09014669 0.020568697 -0.11512447 0.015070269 0.0002717937 0.11889593 0.011782813 -0.10911032
-0.09370395 -0.05665887 -0.022497084 0.063139245 0.06643724 -0.079707704 0.10374135 0.09482852
-0.08558222 0.013371519 0.10196579 -0.08041469 -0.0042080544 0.083891414 0.00028218175 0.071283676
-0.0006267576 0.038333025 -0.05809243 0.08845391 0.060536508 0.09305899 -0.009588237 -0.087891206
0.10169848 0.01835364 -0.070188895 0.023005303 -0.027013924 -0.016391257 -0.00070603 0.03533451
0.06787452 0.089568645 0.030844161 -0.063939095 0.0067020087 -0.10918473 0.1015343 0.06743841
-0.08603721 0.034477014 0.0023447804 -0.12186581 0.095023856 0.059703793 0.074308895 0.002086732
-0.05328245 0.05946651 -0.03168135 -0.076167695 -0.11404401 0.01099707 -0.078434326 0.07483415

features.10.bias f4 [64]
00000000: 5ecc d23d b08e 5f3d 94ab b6bd 8da6 29bd
00000010: d3bc 673d 3e42 c6bd bf58 b83d 2f76 0c3d
00000020: e557 18bd 0830 afbc 6063 4c3d 1e39 eabc
00000030: 0540 be3d 4286 ac3d 31d4 93bd b669 b33d
00000040: 204f 14bd ef97 8a3d e9c3 d13d 4828 6ebc
00000050: ac02 bf3d 48a4 e83d 8c95 88bd bf1c 6cbd
00000060: 5aef 823c 99a2 60bd 063a fa3d 2e69 9a3d
00000070: d112 893d 8de7 4ebd d442 dfbc 10f4 a1bd
00000080: df75 b8bd 478e 243d 4f2c 023e 7070 3d3d
00000090: c088 54bb 2723 e03d c37c 33bc 5c6a 343d
000000a0: e915 01bd 92a9 c13d d0c7 96bd e0d1 bbbc
000000b0: 603f 0e3d 4271 7dbc c850 003d 89d9 c23c
000000c0: d998 0fbd a786 96bd 5ae8 e33d 37e2 78bd
000000d0: ae19 bcbd 8e7e bdbd c6c2 c8bc e2c2 acbc
000000e0: 89f1 d8bc b95c ff3d 3001 c4bd cdd3 eabd
000000f0: 0237 91bc 562d b93d 9b59 963d 275d 913d
0.10292886 0.054579437 -0.08919445 -0.0414186 0.05657656 -0.096806034 0.09001302 0.034292396
-0.037193198 -0.021385208 0.04989946 -0.028591689 0.092895545 0.08424045 -0.07218207 0.08760397
-0.036208272 0.0676726 0.10242445 -0.014535971 0.093266815 0.11359459 -0.06669149 -0.057644602
0.015983272 -0.054842565 0.12218098 0.07539593 0.06693042 -0.050513793 -0.027253546 -0.07907879
-0.09006857 0.04017475 0.12712215 0.046249807 -0.0032430142 0.10944205 -0.0109550385 0.044046745
-0.031515036 0.09456171 -0.0736233 -0.022927225 0.034728408 -0.015468897 0.03132704 0.02378537
-0.035057876 -0.07349902 0.11128302 -0.06076261 -0.091845855 -0.09252654 -0.024506938 -0.021089021
-0.02648236 0.12468857 -0.09570539 -0.11466179 -0.017726425 0.0904185 0.0734131 0.070978455

classifier.0.weight f4 [3, 64]
00000000: 579f db3d f2df 9dbd d196 e6bd 42c4 303d
00000010: fd3f 9fbd 6fab 4f3d 52c0 9a3d e9ee 4fbd
00000020: a132 09be 886e 0fbd 3448 3fbc 5c15 bbbc
00000030: 39f4 c83b 5a4d 88bd 9316 03bd 5424 323d
00000040: 5b98 4cbc 7f84 153d 036b a5bd 5c88 e73d
00000050: 5133 32bc f30d b6bd 0f9e f73c 6908 b7bc
00000060: 4e86 5ebd 1494 16ba 02ef f13c e03e 97bd
00000070: ed0f 25bd 9d86 a6bd 5470 11bb 8633 92bd
00000080: 1b70 6cbd 6a75 dcbc d6f3 c03d 10c8 7e3c
00000090: 72a8 12bc 7b85 b33d 9001 7ebd 89fb f4bd
000000a0: 6184 69bd a6fb b23d 0020 c93d 0cf6 ccbd
000000b0: dfdd 443c bf00 debd f3f5 eb3d 1807 903c
000000c0: 0fd2 283d 8d27 b3bd 5994 e2bd 0f93 10bd
000000d0: 281f a13d 3856 c2bd ead9 e6bc 857a 82bd
000000e0: faa7 97bd 7655 953d b890 9d3d ce71 89bb
000000f0: 7f25 b4bd 7471 6abd 5f1d 6c3c 49e0 823d
00000100: f746 f9bd 857b e9bd a3d0 873d e482 943d
00000110: 9511 02bc 3c52 abbd 6c9b c63d 72f7 7ebd
00000120: b174 0a3e 3a82 223d 1b7d fa3d 6735 ad3d
00000130: 9745 88bd 2d88 fb3c 9eaa cdba 82a9 9f3d
00000140: 9db7 763d bf9a ce3d 8df6 e23b eb57 5cbc
00000150: 0d09 003d 9f06 da3c 5eb8 a2bc 1524 3b23
00000160: 7c0f 683c 8b5e 64bd 09b6 dcbd 9499 393c
00000170: 6b4d fdbd d19e 943d 8155 f239 6485 933b
00000180: cc80 b53b cfcc f5bd 7d36 24bd 99bc a83d
00000190: 70b9 033e c10f 4e3d 15e8 193d 0d99 b53d
000001a0: 009c dbbc 18d1 e9bd 506d 173c 93ce 79bd
000001b0: 0150 74bd 0f01 8bbc 6595 ac3d 9327 10bd
000001c0: 4549 6f3d 5bed 66bd 0316 3a3d 4bfa a03d
000001d0: dff1 eabd 9819 98bd dbee 86bd aa49 943d
000001e0: aa8a 6f3d f0bf 63bd fa1e 6c3c 12d8 89bc
000001f0: 49d7 a93c a99c 493d 68fe c53d 93bd febc
00000200: 2506 8bbd ffb5 77bd 0a0e 6b3d 6935 1abc
00000210: a6a0 a53c 639d fc3d dd79 80bc b70e 33bd
00000220: 33db 903b 3e37 7c3d 4182 d1bc a1c4 213d
00000230: 1ad2 423d 9843 473c 6bda 6c3d f803 f33d
00000240: 2847 7b3c 47fa 7d3d 8895 c3bd ded4 bc3d
00000250: f000 e93c cd58 01be f3a9 6a2d c2c5 0b2e
00000260: 49cf 153d 1002 68bd 6b99 063e d904 a03d
00000270: 77ad e9bd 686b bcb9 d7f2 80bd 9062 87bd
00000280: 288c e8ba 22e3 2ebc 5c64 b2bd 891d dfbd
00000290: 6d8a d23d 2626 a3bd c927 de3c 8a67 b73d
000002a0: 5d7a e53d a691 b63d 2a7e cdbd 8cb4 b9bd
000002b0: 5104 e7bd a3f2 a0bd d9c9 bb3c c960 87bb
000002c0: d473 003e d47c ffbd 2ab1 73bd e07a 763a
000002d0: 70f0 8d3d 7579 eb3d 5841 2cbd 8d63 47bd
000002e0: 2748 eabd 8476 613d fa9a 69bb 0202 333b
000002f0: 33b1 773d afab 753d 1479 34bd 3678 f9bd
0.10723751 -0.0770873 -0.11259235 0.043155916 -0.07775877 0.0507006 0.075562134 -0.05076495
-0.1339822 -0.03501752 -0.011674929 -0.022837333 0.0061326292 -0.06655379 -0.03200395 0.043491676
-0.012487496 0.03650331 -0.080770515 0.11305305 -0.010876493 -0.08889379 0.030226735 -0.022342877
-0.0543273 -0.0005744111 0.029532913 -0.07385039 -0.04029839 -0.08131144 -0.0022192197 -0.071387336
-0.0577241 -0.026911456 0.09421508 0.015550628 -0.008951293 0.08765694 -0.06201321 -0.11962039
-0.057011012 0.087394044 0.09820557 -0.10007867 0.012015789 -0.10839986 0.115215205 0.017581508
0.041215952 -0.08747778 -0.11063451 -0.035296496 0.07867271 -0.09489101 -0.028180081 -0.06371025
-0.07405086 0.07291691 0.076936185 -0.004194475 -0.08796214 -0.057237104 0.0144112995 0.06390435
-0.121717386 -0.114005126 0.06631591 0.07251528 -0.007938762 -0.08365294 0.09697613 -0.0622477
0.13521077 0.039674975 0.12230893 0.08457451 -0.06653898 0.030704582 -0.0015691107 0.07796003
0.0602337 0.10088109 0.006926364 -0.013448696 0.03125863 0.026614485 -0.019863304 1.0144931e-17
0.014163848 -0.055754226 -0.10776908 0.01132812 -0.12368282 0.07256854 0.00046221542 0.0045019854
0.0055390354 -0.12001955 -0.040091027 0.08239097 0.12863708 0.050307993 0.037574846 0.08867083
-0.026807785 -0.114168346 0.009242371 -0.06098802 -0.05964661 -0.016968278 0.08426932 -0.03519399
0.058419485 -0.056378704 0.04543115 0.078602396 -0.114719145 -0.074267566 -0.06588527 0.07240613
0.05848185 -0.055602968 0.014411682 -0.016826663 0.020732539 0.04922167 0.09667665 -0.031096255
-0.06788281 -0.0604763 0.057386436 -0.009412148 0.020218205 0.12334707 -0.015683109 -0.043715205
0.004420662 0.06157612 -0.025574805 0.03949416 0.04756365 0.012162112 0.057825487 0.11865991
0.015336789 0.06200626 -0.09550005 0.09220289 0.02844283 -0.12631531 1.3339096e-11 3.1780585e-11
0.036574636 -0.056642592 0.13144462 0.078134246 -0.11410039 -0.00035938178 -0.06296318 -0.06610596
-0.0017741965 -0.01067427 -0.08710548 -0.10894305 0.10280309 -0.079662606 0.02711858 0.089552954
0.112049796 0.08914499 -0.100338295 -0.0906764 -0.1128012 -0.07858779 0.022923397 -0.0041314107
0.12544185 -0.12474981 -0.05949513 0.0009402465 0.069306254 0.114977755 -0.042054504 -0.048678923
-0.11439543 0.055044666 -0.0035645352 0.002731443 0.060471725 0.059978183 -0.04406078 -0.121811315

classifier.0.bias f4 [3]
00000000: 83d0 12bd 4b1f 813d 30a8 11bb
-0.035843384 0.06304797 -0.0022225492

exp_avg f4 [32, 3, 3, 3]
00000000: 5372 0cbb d827 9eba ad6d 953a 7a38 38bb
00000010: beae efba 9416 ff39 f353 33bb ddd7 edba
00000020: a921 bf39 3618 27bb f9cf d6ba 00f5 473a
00000030: 3ee7 53bb f3d9 14bb d5e3 a038 3d21 58bb
00000040: f209 1dbb 8792 53b9 f587 a0ba e01c 8ab8
00000050: e88a 253b c48d 08bb 3bf9 70ba 42ed d43a
00000060: c377 11bb 633a 97ba d21f 9b3a 9c88 7fba
00000070: 5b78 cfba 741c 14bb be57 30ba a3a8 b1ba
00000080: 4be8 00bb a721 cab9 03c3 97ba 89f8 deba
00000090: caae 97ba 6033 e5ba 91e1 21bb d3fd 81ba
000000a0: 7aac d8ba bf94 16bb 12fa 2cba 349d bcba
000000b0: 1580 05bb 6124 1cba e46d caba cad5 33bb
000000c0: 17e4 a3b9 4841 aeba 6109 22bb ac9a 89b9
000000d0: c0a3 a8ba aaf8 1abb 4804 2a38 241b 28ba
000000e0: ecd8 99ba 8331 8fba 8771 e3ba 3bac 0abb
000000f0: c98e acba b9ff feba 8387 10bb 2c87 7fb9
00000100: 2ab1 7fba 1773 c7ba d829 c1ba d0ec 0ebb
00000110: 136d 28bb 4b51 f8ba 0f42 2abb f10f 3bbb
00000120: 0020 fa3a 8a10 af39 ad86 7bba 033a 4f3a
00000130: 39df 53ba 9417 06bb 5f09 8f39 93bd adba
00000140: b7f0 22bb 6419 58bb 824b 51bb b725 b2ba
00000150: c604 55bb 2c0a 45bb d2e3 9dba 8096 3fbb
00000160: c034 28bb f29e 48ba 8010 7abb 35f6 73bb
00000170: 3b28 f3ba 48e4 75bb 4cdf 66bb 9aa4 dcba
00000180: 77f0 60bb 4d67 49bb a4f6 a2ba 5b2b 8dbb
00000190: a5e1 91bb b2d2 27bb f217 88bb b2c4 89bb
000001a0: a1a1 21bb c9f0 7abb 8fe1 7abb 3e0e 0dbb
000001b0: f299 843a ab5c fc3a 59da 0f3b d596 2739
000001c0: b455 a83a 6270 ca3a eb76 a3b9 e29b 7b3a
000001d0: 0d34 ae3a 7758 453a 54d5 e73a 0a00 093b
000001e0: d7cf 64b8 55dd 963a 1b23 c13a 3384 0eba
000001f0: 7cbc 503a bf61 a33a 280f 213a f269 e63a
00000200: 82f2 0d3b 4486 7eb9 a031 8f3a 8aca c23a
00000210: fb0f 5bba 6647 153a d00a 8b3a 94bd 98ba
00000220: 85c1 053a 38c6 cc3a 8c39 08bb ec7b e2b9
00000230: 808a 513a 0a22 2bbb 3f7a 87ba d7cf ba39
00000240: 6a2d c6ba 3b83 4439 eaa0 a83a 86c8 20bb
00000250: bc9c 52ba 8882 f339 e6e4 48bb 3f68 c5ba
00000260: 2d2c adb8 418e 1bba 2828 a53a ee47 163b
00000270: b9db beba 3f75 ae39 4f9f c63a 4238 0ebb
00000280: ae9a 0fba a506 533a b81d 2d3a 5459 1a3a
00000290: 51ac 223a d38a 4e3a 13f9 493a eac8 513a
000002a0: 06b5 3f3a da13 583a 4a74 683a d9be 4339
000002b0: cbfd 0339 9ef2 1139 4b36 ce39 338c cf39
000002c0: 4d14 d539 1289 cc39 0fea 053a 2c84 143a
000002d0: 7c3a aa3a 0f64 a93a 63d0 b43a 1ab1 b43a
000002e0: bfd2 b63a 212c c23a 4bae a73a 400c b23a
000002f0: 3489 c03a cc0d 1bbb 71de a6ba 43c2 8838
00000300: 97cc fdba 0bc4 72ba 37ba b339 541f f4ba
00000310: 28bb 61ba ffc0 bd39 97b9 33bb 5557 d6ba
00000320: 9736 49b9 2043 16bb d0cb a6ba 6535 9f38
00000330: 3855 0cbb 8cbb 94ba 0229 2b39 9bf0 53bb
00000340: 0ad2 05bb b3ea 0aba 62a8 3ebb 5b3c f1ba
00000350: bc7e 00ba d4b8 31bb cbb9 e1ba 3c53 05ba
00000360: e448 ceba f079 1bbb 3424 2dbb 92fb c8ba
00000370: b203 1cbb ac1a 2cbb 8f64 9aba 2eae 06bb
00000380: e502 19bb ffb8 ddba 1dc1 23bb ba32 39bb
00000390: 806d d6ba 638f 24bb 9714 38bb d0e7 acba
000003a0: bd6a 10bb 9e3e 25bb 93f6 ceba 1bd2 3abb
000003b0: 3aad 4abb 4943 ccba 4c10 3dbb a7a2 4cbb
000003c0: 55e8 a3ba af0c 28bb c8e8 38bb d7b8 51ba
000003d0: 9884 64ba 400b 48ba 21f8 5bba 5ffe 5eba
000003e0: fcb4 37ba 226f 52ba e027 73ba e5d4 44ba
000003f0: 1bd3 87ba 0358 8fba 74c9 78ba 26e3 8dba
-0.0021430447 -0.0012066318 0.0011400484 -0.0028109835 -0.001828633 0.00048654212 -0.002736327 -0.0018145997
0.00036455438 -0.0025496609 -0.0016388885 0.00076277554 -0.0032333876 -0.0022712916 7.6718316e-05 -0.0032978796
-0.0023962227 -0.00020177114 -0.001224755 -6.585731e-05 0.0025259797 -0.0020836452 -0.00091924117 0.0016245025
-0.0022196628 -0.0011537786 0.0011835045 -0.00097478344 -0.0015828715 -0.0022599967 -0.0006726942 -0.0013554286
-0.0019669707 -0.00038553515 -0.0011578504 -0.0017011325 -0.0011572477 -0.0017486624 -0.0024701098 -0.0009917564
-0.0016530894 -0.0022976843 -0.00065985427 -0.0014390112 -0.0020370532 -0.00059563486 -0.0015444127 -0.002744066
-0.00031259723 -0.0013294602 -0.0024724829 -0.00026245916 -0.0012866184 -0.002364675 4.0535146e-05 -0.00064127357
-0.0011737621 -0.001092479 -0.0017352559 -0.0021159786 -0.0013165112 -0.0019454873 -0.0022053428 -0.0002436905
-0.00097538775 -0.0015216795 -0.0014737202 -0.0021808632 -0.002569978 -0.0018945126 -0.0025979315 -0.0028543437
0.0019083023 0.00033390924 -0.00095949584 0.0007905068 -0.0008082274 -0.002046083 0.00027282067 -0.001325535
-0.0024862716 -0.0032974118 -0.0031935875 -0.0013591562 -0.0032504066 -0.0030065877 -0.0012046045 -0.0029233992
-0.0025666207 -0.0007653079 -0.0038156807 -0.0037225608 -0.0018551418 -0.00375201 -0.003522831 -0.0016833723
-0.0034323016 -0.0030731738 -0.0012433124 -0.004308147 -0.0044519478 -0.0025607762 -0.004153245 -0.004204356
-0.0024662989 -0.0038290492 -0.0038281416 -0.0021523382 0.001011668 0.0019253691 0.0021950214 0.0001598255
0.0012842924 0.001544487 -0.00031178384 0.00095981185 0.0013290659 0.0007528136 0.0017687478 0.0020904564
-5.4553002e-05 0.0011510054 0.0014735194 -0.00054365693 0.00079626567 0.0012465044 0.0006143921 0.0017579182
0.0021659438 -0.00024273345 0.0010924824 0.0014861387 -0.0008356568 0.0005694538 0.0010608081 -0.0011653178
0.0005102384 0.0015623039 -0.0020786254 -0.00043198408 0.00079933554 -0.0026112818 -0.0010336115 0.00035631537
-0.0015119736 0.00018740904 0.0012865339 -0.0024533584 -0.00080342195 0.00046445825 -0.0030654012 -0.0015060975
-8.257511e-05 -0.0005933978 0.0012600468 0.0022931057 -0.0014561332 0.0003327522 0.0015153679 -0.0021701013
-0.0005478066 0.00080500013 0.00066038547 0.0005887945 0.0006205487 0.0007878963 0.00077046565 0.0008002656
0.00073130464 0.0008242704 0.0008867426 0.00018667745 0.00012587679 0.0001391866 0.00039331833 0.00039586573
0.0004064165 0.00039012037 0.0005108425 0.0005665447 0.00129874 0.0012923497 0.0013795014 0.001378569
0.0013948305 0.0014814177 0.0012793032 0.0013583973 0.0014689327 -0.0023659347 -0.0012731088 6.5211694e-05
-0.0019363341 -0.000926078 0.0003428028 -0.0018625059 -0.00086109573 0.00036192682 -0.0027423853 -0.0016352931
-0.0001918919 -0.0022928193 -0.0012725536 7.591656e-05 -0.00214131 -0.0011347397 0.00016323107 -0.0032339457
-0.0020419382 -0.0005299255 -0.0029092063 -0.0018404828 -0.00049016974 -0.0027118223 -0.0017221508 -0.000508595
-0.0015738276 -0.0023723803 -0.0026419284 -0.0015333763 -0.0023805914 -0.0026261015 -0.0011779236 -0.0020550597
-0.0023347673 -0.0016916095 -0.002498693 -0.0028258995 -0.0016359538 -0.002510988 -0.0028088444 -0.0013191644
-0.0022036277 -0.0025214325 -0.0015790038 -0.002850658 -0.0030926005 -0.0015584017 -0.0028848825 -0.0031224878
-0.0012505153 -0.0025642326 -0.002821492 -0.00080002606 -0.0008717268 -0.0007631071 -0.0008391161 -0.0008506532
-0.0007007865 -0.00080274243 -0.0009275656 -0.00075085304 -0.0010362597 -0.0010936264 -0.0009490468 -0.0010825142
