benchmark_experiment/experience_1_2_50_epochs_new/model_experience_1_2.pth (torch, 854314 bytes, 36 tensors)

features.0.weight f4 [32, 3, 3, 3]
-0.08864686 0.04727124 -0.124294564 -0.12821905 0.16217943 -0.03654581 -0.121897005 0.19018285
0.15867572 0.11496386 0.14679271 -0.1888872 0.1621307 0.15557024 0.046880245 0.069647506
0.17357093 0.032057103 0.12662694 0.085954614 -0.14477149 -0.16228926 0.14378694 0.11989197
0.13006145 0.16443434 -0.11059173 -0.14495508 -0.15579906 0.16178155 -0.17546906 -0.016321665
0.110168 -0.14281218 0.17115419 -0.14552572 0.17085707 -0.15909193 0.14138247 0.035545975
0.06898933 0.10629047 -0.08709824 0.15227658 0.039358057 -0.06544528 0.11439102 -0.09233838
-0.039409503 0.16963166 -0.13693969 0.06921411 0.11987463 -0.12234028 0.014371081 -0.12698755
-0.0833481 0.033068184 -0.0197003 -0.046634663 0.14457846 0.027800443 0.057035107 0.03464715
0.07408242 -0.04511204 0.09711412 -0.058295958 0.16092268 0.04176809 0.027640406 -0.0071730106
-0.0009017552 0.12660673 0.08234218 -0.03207749 -0.17648157 0.114022486 -0.16427869 0.013700393
0.17066549 -0.14421014 0.0391356 -0.14326519 0.04112392 -0.024821939 -0.050262216 0.03478729
0.09387851 0.1268458 0.1341903 0.12481735 -0.065804474 0.14440013 -0.1888247 -0.16621262
0.1876353 -0.13530749 0.16102064 0.109141044 0.12024382 0.14757094 0.014882839 -0.17578019
0.19236672 -0.17422901 -0.0029034424 0.053321816 0.0023118097 -0.16771087 -0.04358625 -0.19181268
0.15448432 -0.037378073 0.073305726 -0.15297787 -0.12133167 -0.19281168 -0.12199304 0.04143251
-0.05506169 0.18608841 -0.009974586 -0.0019926878 -0.14660737 -0.0045156516 -0.041243456 -0.05770225
0.08473225 -0.16321783 -0.16743246 -0.10666021 -0.14191127 0.03547153 -0.03524283 -0.025954975
0.008032344 -0.16789769 -0.06613751 0.13298094 -0.165402 0.18006124 -0.17003804 0.07491089
0.09369426 -0.056736764 -0.04911853 -0.15616022 -0.022412987 -0.10447082 0.053588446 0.0854498
-0.008876235 -0.116168275 0.02790428 -0.0022888195 -0.10223963 0.02796407 0.17169109 -0.09470746
-0.036646727 0.17643662 -0.09054071 -0.042490073 0.02786396 0.03704805 0.0040735356 0.003633157
0.1502778 0.18522331 -0.096657395 -0.16486527 -0.17124684 -0.06711685 -0.014104492 0.009871538
0.0031656444 -0.10089462 0.17147537 -0.036105234 -0.04826701 0.15270406 0.110873476 0.14630793
0.0029819373 -0.12734869 0.05371629 0.036829066 -0.179284 0.11800232 -0.04536993 -0.13789377
-0.1738317 -0.17440397 -0.0055388436 0.086545035 0.11408445 0.011068138 0.023294926 -0.03484656
-0.07315531 -0.049949244 0.08781164 0.13213699 -0.08052043 0.09534363 -0.1797915 0.11532305
0.033281744 -0.008835163 0.19564259 -0.03816052 -0.100622155 0.09098582 -0.1308841 0.059326984
0.03559454 -0.14013402 -0.040871922 0.14376393 0.031313807 -0.07989174 -0.028710797 -0.09487154
-0.16152981 0.17628403 -0.08063211 -0.1492564 -0.18359113 -0.1690067 0.032428812 -0.004816135
-0.12509683 -0.114597395 0.11906246 0.14692202 0.08261965 0.05862801 -0.011486244 -0.15654604
-0.11099842 -0.13465953 0.13335742 0.15904506 0.1891258 0.0758192 -0.017786168 -0.12773639
-0.14342049 0.13466771 0.103288725 0.0394962 0.076857366 -0.10352888 0.19319497 0.17605832
00000000: 7c8c b5bd 7d9f 413d 268e febd db4b 03be
00000010: 5d12 263e 0fb1 15bd 23a5 f9bd 4bbf 423e
00000020: e37b 223e 2c72 eb3d d450 163e a56b 41be
00000030: 9705 263e ce4d 1f3e 8005 403d 5aa3 8e3d
00000040: 94bc 313e 4f4e 033d 7eaa 013e f908 b03d
00000050: fa3e 14be 282f 26be e23c 133e ec89 f53d
00000060: d42e 053e 7a61 283e eb7d e2bd 1b6f 14be
00000070: ca89 1fbe 10aa 253e 29ae 33be 03b5 85bc
00000080: c39f e13d 5b3d 12be 0b43 2f3e b204 15be
00000090: 28f5 2e3e ffe8 22be 91c6 103e a898 113d
000000a0: 474a 8d3d d1ae d93d 9060 b2bd 64ee 1b3e
000000b0: ea35 213d 2d08 86bd d745 ea3d e81b bdbd
000000c0: dc6b 21bd ecb3 2d3e eb39 0cbe 21c0 8d3d
000000d0: d480 f53d 8a8d fabd af74 6b3c 0609 02be
000000e0: 69b2 aabd 8172 073d 8662 a1bc fd03 3fbd
000000f0: 600c 143e c1bd e33c a59d 693d 2cea 0d3d
00000100: 86b8 973d 67c7 38bd c5e3 c63d bec7 6ebd
00000110: eac8 243e 0415 2b3d 226e e23c 930b ebbb
00000120: c463 6cba 32a5 013e 04a3 a83d b063 03bd
00000130: 96b7 34be 9f84 e93d ac38 28be 9d77 603c
00000140: efc2 2e3e d3ab 13be a74c 203d 1cb4 12be
00000150: 8e71 283d 6157 cbbc c1df 4dbd 1e7d 0e3d
00000160: 6043 c03d dee3 013e 2f69 093e 3da0 ff3d
00000170: 7fc4 86bd a1dd 133e 435b 41be a433 2abe
00000180: 7823 403e 0c8e 0abe 98e2 243e 5785 df3d
00000190: 6442 f63d d61c 173e 27d7 733c b9ff 33be
000001a0: c8fb 443e 1769 32be ae47 3ebb fa67 5a3d
000001b0: bb81 173b 66bc 2bbe 7f87 32bd 8b6a 44be
000001c0: 2331 1e3e c019 19bd 5021 963d 3ba6 1cbe
000001d0: bd7c f8bd 6d70 45be 7dd7 f9bd 23b5 293d
000001e0: 5e88 61bd f68d 3e3e 726c 23bc c197 02bb
000001f0: 3e20 16be 08f8 93bb e6ee 28bd 3259 6cbd
00000200: 1a88 ad3d 9322 27be 6a73 2bbe ab70 dabd
00000210: 3051 11be 984a 113d c95a 10bd 879f d4bc
00000220: 189a 033c 5fed 2bbe 1a73 87bd 282c 083e
00000230: 245f 29be f961 383e 741e 2ebe e16a 993d
00000240: c7e2 bf3d cf64 68bd 8330 49bd 77e8 1fbe
00000250: 719b b7bc ccf4 d5bd 8f7f 5b3d 4e00 af3d
00000260: a16d 11bc a2e9 edbd 8497 e43c 0500 16bb
00000270: 0363 d1bd e814 e53c cacf 2f3e fcf5 c1bd
00000280: e11a 16bd cdab 343e 686d b9bd 120a 2ebd
00000290: f642 e43c b2bf 173d 4b7b 853b 421a 6e3b
000002a0: 6ce2 193e 2eab 3d3e 50f4 c5bd 71d2 28be
000002b0: 555b 2fbe 8f74 89bd 8716 67bc 3bbc 213c
000002c0: b376 4f3b d7a1 cebd 3d97 2f3e 15e3 13bd
000002d0: a1b3 45bd 745e 1c3e a211 e33d bfd1 153e
000002e0: 9b6c 433b b267 02be 9d05 5c3d 13da 163d
000002f0: 3a96 37be 33ab f13d d2d5 39bd 0634 0dbe
00000300: f000 32be f496 32be 307f b5bb 863e b13d
00000310: 1ca5 e93d 2357 353c 00d5 be3c 44bb 0ebd
00000320: 73d2 95bd 9497 4cbd 97d6 b33d eb4e 073e
00000330: e5e7 a4bd 8543 c33d 431b 38be 7e2e ec3d
00000340: 7052 083d 5cc1 10bc 8856 483e 354e 1cbd
00000350: fd12 cebd c656 ba3d 7b06 06be da00 733d
00000360: 95cb 113d 4b7f 0fbe 5169 27bd da36 133e
00000370: e842 003d 489e a3bd e832 ebbc 034c c2bd
00000380: 1268 25be cd83 343e 7322 a5bd abd6 18be
00000390: 50ff 3bbe 1810 2dbe 13d4 043d abd0 9dbb
000003a0: 6219 00be 0ab2 eabd 05d7 f33d ba72 163e
000003b0: 7e34 a93d ed23 703d cd30 3cbc 9b4d 20be
000003c0: 2453 e3bd 30e4 09be d98e 083e b5dc 223e
000003d0: 32aa 413e 1947 9b3d 4cb4 91bc 54cd 02be
000003e0: d2dc 12be 55e6 093e 0a89 d33d c4c6 213d
000003f0: 6567 9d3d f306 d4bd e7d4 453e a248 343e

features.0.bias f4 [32]
-0.08336784 0.09300878 -0.066245995 -0.18654072 -0.11955045 -0.025656981 0.035040405 -0.0058882227
0.013529959 -0.031512097 -0.05592985 -0.081582606 -0.026483553 -0.08325696 0.12133949 -0.16964287
-0.11293208 -0.008048396 -0.14150341 -0.13837175 0.060308855 0.18471597 -0.014142918 0.19502585
0.053706583 0.025433697 -0.04528261 -0.17482129 0.11746695 -0.0049128123 0.063730046 0.1271072
00000000: c2bc aabd 637b be3d fbab 87bd 8804 3fbe
00000010: ded6 f4bd 972e d2bc 8786 0f3d fef1 c0bb
00000020: c3ac 5d3c d412 01bd b316 65bd c814 a7bd
00000030: 09f4 d8bc a082 aabd d780 f83d dcb6 2dbe
00000040: ef48 e7bd 6bdd 03bc 45e6 10be 53b1 0dbe
00000050: 6b06 773d 2f26 3d3e b3b7 67bc dbb4 473e
00000060: 6ffb 5b3d 545a d03c 427a 39bd 5a04 33be
00000070: 8392 f03d a8fb a0bb e684 823d 6428 023e

features.2.weight f4 [32, 32, 3, 3]
-0.00085306127 -0.029889785 -0.053445026 -0.018825373 -0.04804438 0.05743488 -0.053748876 -0.02757163
0.024673076 0.0062271776 0.022841396 0.028701935 -0.03785533 -0.02664276 0.014329566 0.038811777
0.053825673 0.0032523784 -0.039048143 -0.005973658 0.004145227 -0.03598358 -0.014370799 -0.021233043
0.050946057 -0.047435608 -0.009708219 0.014862384 -0.013099954 0.05911731 -0.01950152 -0.0132644
-0.026884895 -0.029119706 0.015281044 -0.015767036 2.0723879e-05 -0.004075203 -0.054232348 0.044662647
0.00942198 -0.01742762 0.02862851 0.005286619 -0.011816882 0.04150719 0.01415479 0.03201093
0.04951421 0.009621149 0.0008821559 -0.026255924 -0.05299228 0.010642819 0.026110748 -0.019527035
-0.05036651 -0.0380502 0.033016343 0.011169558 0.009133785 -0.020915339 -0.050892603 0.021165753
-0.0071006445 -0.00047392637 -0.011034263 -0.05206558 -0.044358436 0.0035848166 0.033892304 0.011405872
-0.04320485 -0.017498199 0.022604857 -0.0060732337 -0.011033231 0.029607637 -0.010729937 0.045854986
-0.046727635 -0.01940453 0.03032286 -0.008888959 0.018108558 -0.059422806 0.010024489 -0.025622949
-0.040932767 -0.03131512 -0.041573137 0.042070244 -0.01729331 0.010473526 -0.036654 -0.0102969445
-0.036722597 0.012724664 -0.04678845 0.010386684 -0.010209926 0.00817962 -0.013003909 -0.03679507
0.014627455 0.009783214 0.035528302 0.006397729 0.051654536 0.023146376 -0.0014492108 0.012344513
0.02987384 0.023217738 0.034013722 0.03156796 -0.021306176 0.017367352 0.008860244 0.036136944
0.0038686139 0.055091374 0.046060286 0.03468386 -0.036887277 0.04405032 -0.04714845 0.04215015
-0.007661842 0.05777693 0.03984328 0.011978578 0.040754806 -0.021822836 0.034881882 -0.0093092555
-0.05927914 0.047487035 -0.02804651 -0.003354306 0.035401102 -0.05012689 -0.0055382475 -0.022656655
-0.026615348 -0.0039396356 -0.039138738 -0.016355492 -0.019022537 0.052095786 0.025802296 0.036411684
-0.031516735 -0.0036384235 -0.0024415036 -0.027469212 -0.042001225 -0.02710144 0.019482033 -0.038153205
0.04641284 0.023796195 0.054080304 0.012651256 -0.005015369 -0.03897004 -0.01682022 0.05047525
0.050387695 -0.026204225 -0.05773509 0.017163012 -0.03576386 0.054098822 0.0046877624 0.039142914
0.008491961 0.05041021 0.009630971 0.02027919 0.045662522 0.03233013 0.04636841 0.023720654
-0.043672185 -0.023443904 -0.013515006 0.0014608006 -0.035324123 -0.018425254 -0.053663515 0.030183341
0.023836128 -0.016865574 -0.052259594 -0.039124783 -0.05440942 0.03155632 0.032652237 -0.0060831495
0.058182023 -0.030979091 -0.055065893 -0.041647393 -0.053619962 -0.014246644 -0.031177694 -0.007892243
-0.047879383 0.035376456 -0.032206196 -0.029507063 -0.043485746 0.01562189 0.023310123 0.04672979
-0.049655456 0.036667645 0.035865642 -0.03493278 -0.033602137 -0.009650807 0.039510883 -0.003912589
-0.057623923 0.008226879 -0.0030472432 -0.057623405 -0.056550115 -0.015806591 0.009337263 0.043776475
0.042839948 0.0111382585 0.051731337 0.041407473 -0.042772282 -0.01587749 -0.032234676 -0.02184105
-0.005396812 -0.017196605 -0.056153554 -0.0142002795 0.051706307 -0.033718266 -0.05058918 0.048258193
-0.0075632758 -0.01716636 0.016608546 -0.025391366 0.0023103345 0.04129091 -0.019897034 0.019206539
00000000: f99f 5fba 6cdb f4bc 2ce9 5abd ab37 9abc
00000010: 2fca 44bd d640 6b3d c827 5cbd e6dd e1bc
00000020: 311f ca3c 5a0d cc3b e11d bb3c 5220 eb3c
00000030: 310e 1bbd eb41 dabc 8ec6 6a3c 19f9 1e3d
00000040: 4f78 5c3d db25 553b f2f0 1fbd adbe c3bb
00000050: afd4 873b 8563 13bd 8073 6bbc ebf0 adbc
00000060: d0ac 503d d74b 42bd 390f 1fbc 5b81 733c
00000070: 31a1 56bc fe24 723d a7c1 9fbc ed52 59bc
00000080: b63d dcbc 738c eebc 585d 7a3c df29 81bc
00000090: 31d8 ad37 4889 85bb bd22 5ebd 2ef0 363d
000000a0: a65e 1a3c 5ec4 8ebc 5686 ea3c 603b ad3b
000000b0: 989b 41bc 7103 2a3d 7ee9 673c e51d 033d
000000c0: 6acf 4a3d 06a2 1d3c 7b40 673a aa16 d7bc
000000d0: 6f0e 59bd 385f 2e3c 35e6 d53c 29f7 9fbc
000000e0: 1d4d 4ebd 87da 1bbd 253c 073d 8600 373c
000000f0: dfa5 153c a556 abbc c374 50bd cd63 ad3c
00000100: 86ac e8bb 5279 f8b9 0ec9 34bc b842 55bd
00000110: 31b1 35bd 3eef 6a3b a8d2 0a3d b2df 3a3c
00000120: 92f7 30bd 6258 8fbc d22d b93c fa01 c7bb
00000130: bac4 34bc b78b f23c 9ecc 2fbc 70d2 3b3d
00000140: 7a65 3fbd 40f6 9ebc a667 f83c ffa2 11bc
00000150: 6658 943c 5465 73bd c13d 243c 38e7 d1bc
00000160: 1ea9 27bd 4944 00bd 9848 2abd d951 2c3d
00000170: b3aa 8dbc 2799 2b3c 8122 16bd 84b4 28bc
00000180: 6f6a 16bd 1c7b 503c 3fa5 3fbd e92c 2a3c
00000190: 8947 27bc d003 063c 590e 55bc 6db6 16bd
000001a0: fea7 6f3c c649 203c 2086 113d 0aa4 d13b
000001b0: b593 533d 789d bd3c 72f3 bdba a440 4a3c
000001c0: fcb9 f43c 2033 be3c f951 0b3d 684d 013d
000001d0: 4a8a aebc fa45 8e3c 8f2a 113c 5504 143d
000001e0: 9288 7d3b 7ea7 613d b6a9 3c3d aa10 0e3d
000001f0: 1d17 17bd 1c6e 343d bc1e 41bd a3a5 2c3d
00000200: 3010 fbbb 81a7 6c3d b532 233d cc41 443c
00000210: 83ee 263d cec5 b2bc 4ee0 0e3d d985 18bc
00000220: afce 72bd c481 423d cbc1 e5bc ebd3 5bbb
00000230: bf00 113d db51 4dbd 307a b5bb 739a b9bc
00000240: 6e08 dabc 0f18 81bb f14f 20bd f4fb 85bc
00000250: 27d5 9bbc 6462 553d 565f d33c 6b24 153d
00000260: b117 01bd 9e72 6ebb a201 20bb 1d07 e1bc
00000270: 7a09 2cbd d703 debc c998 9f3c 8946 1cbd
00000280: 641b 3e3d 3df0 c23c 4f83 5d3d 3747 4f3c
00000290: f757 a4bb 0c9f 1fbd 8fca 89bc 23bf 4e3d
000002a0: 5463 4e3d 3eaa d6bc a17b 6cbd 7299 8c3c
000002b0: 207d 12bd ba96 5d3d cd9b 993b 5254 203d
000002c0: de21 0b3c f07a 4e3d 38cb 1d3c 8b20 a63c
000002d0: a008 3b3d 996c 043d cdec 3d3d d151 c23c
000002e0: 9be1 32bd 6e0d c0bc 0b6e 5dbc 5678 bf3a
000002f0: 07b0 10bd 8ff0 96bc 46ce 5bbd 0e43 f73c
00000300: fc43 c33c ac29 8abc 280e 56bd 4f41 20bd
00000310: 69dc 5ebd 3341 013d 5abe 053d 2855 c7bb
00000320: 4650 6e3d ddc7 fdbc c68c 61bd 7596 2abd
00000330: 9ba0 5bbd c26a 69bc 5d68 ffbc 774e 01bc
00000340: 2c1d 44bd e7e6 103d a5ea 03bd ccb8 f1bc
00000350: 1c1e 32bd f5f2 7f3c dff4 be3c bc67 3f3d
00000360: 8563 4bbd d030 163d dae7 123d ad15 0fbd
00000370: 65a2 09bd 6b1e 1ebc 2ad6 213d 2d35 80bb
00000380: 1007 6cbd 08ca 063c 42b4 47bb 8506 6cbd
00000390: 18a1 67bd d37c 81bc 52fb 183c f64e 333d
000003a0: f178 2f3d 3e7d 363c 3de4 533d e29a 293d
000003b0: fd31 2fbd 8311 82bc 8208 04bd 00ec b2bc
000003c0: bed7 b0bb e5df 8cbc 4501 66bd 4aa8 68bc
000003d0: fec9 533d 2a1c 0abd 9a36 4fbd 62aa 453d
000003e0: 5bd5 f7bb 77a0 8cbc a50e 883c 8e01 d0bc
000003f0: fb68 173b a820 293d 1bff a2bc 0857 9d3c

features.2.bias f4 [32]
0.0081189135 0.01550405 -0.042455062 0.03854274 0.01223174 -0.05357847 -0.010155346 -0.020031042
0.055223364 0.046031773 -0.051533576 0.0009330299 -0.03299782 0.049912725 0.00920108 -0.05587304
0.031799722 0.037211623 -0.040644463 0.03313771 -0.02236128 0.055358957 -0.00729911 -0.03291519
-0.0050950805 0.03699974 0.022417111 0.053040437 0.05371533 0.017672934 0.027235212 0.0025035758
00000000: 3105 053c b304 7e3c 5ce5 2dbd fede 1d3d
00000010: a367 483c 1975 5bbd 9c62 26bc 2418 a4bc
00000020: e531 623d d08b 3c3d df14 53bd 9496 743a
00000030: b928 07bd 4971 4c3d 20c0 163c 21db 64bd
00000040: 6d40 023d 376b 183d cf7a 26bd 68bb 073d
00000050: 012f b7bc 13c0 623d 5f2d efbb 14d2 06bd
00000060: a2f4 a6bb 0a8d 173d 17a4 b73c ee40 593d
00000070: 9b04 5c3d d4c6 903c 611c df3c 0813 243b

features.5.weight f4 [64, 32, 3, 3]
-0.028242262 -0.054982282 -0.042115998 -0.050727654 0.029722683 0.016095527 0.054686707 -0.045516264
0.013250678 0.055428024 0.047065504 -0.014124174 -0.03257117 -0.04791442 -0.030858615 -0.016118063
-0.046152666 -0.056397296 0.014776396 -0.022810703 -0.002203831 -0.021538138 0.026571654 -0.017664574
0.022997634 -0.018139608 -0.049595524 -0.008087061 -0.05062528 -0.0010843865 -0.039563168 -0.05867837
-0.012012039 0.030949175 0.02359033 0.023547059 0.046228264 -0.013083372 -0.0033394948 0.013915104
0.0420021 -0.04662034 0.0043016877 0.008671762 -0.048972394 -0.009126761 0.056482717 0.0066435025
-0.044790607 -0.024220923 0.05703507 0.038095247 -0.031923134 0.007124296 -0.052129984 -0.010241009
0.010212934 -0.031217448 -0.034295425 0.040956516 -0.05775333 -0.00494431 -0.04625532 0.057319336
-0.048933126 -0.05765016 -0.012171249 -0.047900315 0.026003962 0.048842866 0.052522458 -0.0020953221
0.0051321373 0.053489275 -0.00775891 0.0463722 0.0472819 -0.01368805 0.008634887 0.013043987
0.0077849897 -0.0024690777 -0.028845986 -0.048014093 -0.01808718 -0.007129919 -0.033681516 0.039713193
-0.014623931 -0.015612142 -0.019787323 0.010999067 -0.026236331 -0.03231706 0.061228756 0.018627504
0.0016145508 0.036283687 0.028556686 0.05871982 -0.04749122 -0.016002156 -0.043861263 -0.01452708
-0.020153714 -0.017316846 -0.03672336 0.044671644 -0.019286305 -0.057700098 -0.036507655 -0.024122916
-0.04764516 0.020785742 0.019761158 0.0010936982 -0.040190212 -0.024455288 -0.017534465 -0.013317819
-0.027099786 0.033852756 -0.036125913 -0.057728626 0.030647894 0.0025882034 -0.0052524027 -0.053526483
0.028227964 0.0007293108 0.052888054 -0.026773136 -0.015170947 -0.0021240702 -0.054961104 0.0030446805
-0.008913627 0.05248057 0.040171955 -0.0063400534 0.05016326 0.02770948 0.013958262 -0.054000787
-0.018715667 -0.023427904 0.01703563 0.00242045 0.035487093 -0.04068198 -0.04926312 -0.042923454
0.0073045683 -0.006597745 0.022291536 0.0014637485 -0.0015979743 -0.054153517 0.053680707 0.053463493
-0.05091967 0.024665797 0.024417304 0.031229481 0.021698033 0.04798161 -0.029329821 0.030784583
-0.045050863 -0.019043775 0.017921792 0.018641787 -0.020934485 0.027558396 0.04192966 0.048024494
0.045626838 -0.0048328587 -0.03363054 0.027780676 0.03215308 0.020807642 -0.02971173 -0.03353015
-0.014890623 -0.039302472 0.04551899 0.04425125 0.004282583 -0.019912459 0.036833394 0.054211415
0.05631014 -0.056856588 0.038188122 -0.0342796 -0.032467343 -0.0110246595 -0.019715367 0.03787145
0.010431351 -0.014125894 0.0378645 0.031967662 -0.0397474 0.04548371 -0.014599717 0.021114072
-0.026342768 0.04042983 0.032942735 -0.0495829 0.039905023 0.036122397 0.056777548 -0.051442456
0.05895376 -0.05523978 0.038745 0.030352889 -0.00053471554 -0.0073576635 -0.0099998135 0.04372259
0.048664752 -0.05569024 -0.040651873 -0.025311181 0.022394907 -0.02695607 -0.023879498 -0.0054863566
-0.048730727 -0.03476369 0.024319015 0.038515955 -0.0024963748 -0.03566683 0.04034608 0.037059452
0.04437014 -0.038495682 0.025495278 0.045703802 0.031571437 0.010503623 0.017228382 -0.044944316
0.030962843 -0.055369467 0.011505267 0.060111158 0.029475061 -0.008474949 -0.021584593 0.039625175
00000000: 515c e7bc 1a35 61bd d381 2cbd cdc7 4fbd
00000010: fc7c f33c c4da 833c 2bff 5f3d 436f 3abd
00000020: 5f19 593c 7f08 633d c2c7 403d 1469 67bc
00000030: 5969 05bd e941 44bd 35cb fcbc 070a 84bc
00000040: 940a 3dbd da00 67bd b218 723c 83dd babc
00000050: 266e 10bb c070 b0bc ccac d93c 4cb5 90bc
00000060: 8965 bc3c 8499 94bc ad24 4bbd 987f 04bc
00000070: 745c 4fbd f921 8eba fd0c 22bd bb58 70bd
00000080: 25ce 44bc 2089 fd3c 8240 c13c c3e5 c03c
00000090: d959 3d3d a45b 56bc 6ddb 5abb 2dfc 633c
000000a0: 650a 2c3d f8f4 3ebd 2cf5 8c3b 0214 0e3c
000000b0: 4797 48bd 6988 15bc 6c5a 673d bdb1 d93b
000000c0: 5b76 37bd f56a c6bc 9b9d 693d c309 1c3d
000000d0: d5c1 02bd ed72 e93b 4086 55bd e8c9 27bc
000000e0: 2654 273c bcbb ffbc 5c79 0cbd 05c2 273d
000000f0: c18e 6cbd e103 a2bb 3876 3dbd aec7 6a3d
00000100: 1a6e 48bd 9322 6cbd eb69 47bc 1f33 44bd
00000110: 4306 d53c 750f 483d ca21 573d ac51 09bb
00000120: 7d2b a83b 9217 5b3d 743e febb c7f0 3d3d
00000130: aaaa 413d d843 60bc 5779 0d3c 72b6 553c
00000140: 3a19 ff3b 40d0 21bb 6b4e ecbc 6daa 44bd
00000150: 912b 94bc 18a2 e9bb a1f5 09bd 4daa 223d
00000160: 3699 6fbc 12ca 7fbc 0619 a2bc 6e35 343c
00000170: 93ed d6bc e55e 04bd 01cb 7a3d b598 983c
00000180: 569f d33a 349e 143d b6ef e93c 3284 703d
00000190: 2786 42bd f416 83bc dea7 33bd fd02 6ebc
000001a0: 6719 a5bc 0fdc 8dbc 3c6b 16bd 9df9 363d
000001b0: 50fe 9dbc f056 6cbd 0d89 15bd 6c9d c5bc
000001c0: 9227 43bd dc46 aa3c 27e2 a13c 6c5a 8f3a
000001d0: 7e9e 24bd 7556 c8bc 70a4 8fbc fb32 5abc
000001e0: 5f00 debc 30a9 0a3d c4f8 13bd da74 6cbd
000001f0: 4b11 fb3c d99e 293b 591c acbb 963e 5bbd
00000200: 553e e73c 382f 3f3a 25a1 583d 5653 dbbc
00000210: 908f 78bc fc33 0bbb e51e 61bd 4389 473b
00000220: 760a 12bc def5 563d 598b 243d 39c0 cfbb
00000230: fe77 4d3d fefe e23c 32b1 643c ee2f 5dbd
00000240: 9951 99bc e0eb bfbc 4e8e 8b3c 6aa0 1e3b
00000250: ea5a 113d 26a2 26bd 20c8 49bd 81d0 2fbd
00000260: 295b ef3b e631 d8bb bd9c b63c 40db bf3a
00000270: 1f73 d1ba 14d0 5dbd 4de0 5b3d 89fc 5a3d
00000280: 2591 50bd ed0f ca3c cc06 c83c f8d4 ff3c
00000290: 13c0 b13c 5d88 443d 1845 f0bc f32f fc3c
000002a0: 4187 38bd b101 9cbc b9d0 923c a9b6 983c
000002b0: cc7e abbc 25c2 e13c 6fbe 2b3d 55b5 443d
000002c0: 35e3 3a3d f55c 9ebb 2dc0 09bd 4d94 e33c
000002d0: f3b2 033d ca74 aa3c 0466 f3bc e956 09bd
000002e0: cdf7 73bc a1fb 20bd 1f72 3a3d cc40 353d
000002f0: e954 8c3b 741f a3bc 9dde 163d ca0c 5e3d
00000300: 76a5 663d 74e2 68bd 266b 1c3d c468 0cbd
00000310: 7afc 04bd c6a0 34bc 1f82 a1bc 181f 1b3d
00000320: 42e8 2a3c 4b70 67bc ce17 1b3d 86f0 023d
00000330: 2bce 22bd 204d 3a3d a733 6fbc 6bf7 ac3c
00000340: cacc d7bc c099 253d f6ee 063d 7017 4bbd
00000350: 7373 233d 14f5 133d 938f 683d 53b5 52bd
00000360: 7f79 713d 1c43 62bd 14b3 1e3d 9fa6 f83c
00000370: 272c 0cba 8e18 f1bb 42d6 23bc 7516 333d
00000380: b154 473d 731b 64bd 9482 26bd 6559 cfbc
00000390: 8675 b73c fad2 dcbc f09e c3bc e5c6 b3bb
000003a0: df99 47bd 5f64 0ebd ac38 c73c e8c2 1d3d
000003b0: 389a 23bb 6217 12bd ee41 253d a7cb 173d
000003c0: 77bd 353d a6ad 1dbd 79db d03c e933 3b3d
000003d0: 0d51 013d 6317 2c3c 8922 8d3c 8817 38bd
000003e0: caa5 fd3c 18cb 62bd 9680 3c3c 1e37 763d
000003f0: af75 f13c 83da 0abc 2cd2 b0bc 024e 223d

features.5.bias f4 [64]
-0.03734424 0.051565614 0.012577357 -0.005796049 0.006316489 -0.013184919 -0.04451959 -0.024139741
-0.029322159 -0.005205263 0.02113543 0.0406169 0.0072973063 0.033696402 0.0010249387 0.04973342
-0.042703383 0.01474634 -0.030225677 0.020583574 -0.054008137 -0.035926763 0.055338565 0.016134968
-0.034988437 0.02540243 0.056243014 -0.029702773 -0.043112963 0.015083909 0.0028514236 0.03332055
-0.05171041 0.0024483518 -0.024992494 0.0046296692 0.00013199642 0.020852266 0.048523173 -0.014631035
-0.0021160804 0.046219625 -0.053620126 0.00442188 -0.03861063 0.026624875 -0.048364174 0.007264181
-0.026549919 0.054909907 -0.046653036 -0.0025566178 -0.034083843 -0.001946637 -0.040458072 -0.0069109714
0.011577128 0.026962949 -0.005100241 -0.01096719 0.022924913 0.015642446 0.0041705724 0.055988614
00000000: 46f6 18bd 7736 533d 4211 4e3c c8ec bdbb
00000010: 8dfa ce3b 8f05 58bc 2c5a 36bd b5c0 c5bc
00000020: 0635 f0bc e990 aabb 3624 ad3c e85d 263d
00000030: 3e1e ef3b 3d05 0a3d 3c57 863a 45b5 4b3d
00000040: bee9 2ebd a29a 713c d79b f7bc e29e a83c
00000050: a337 5dbd f127 13bd b1aa 623d 7b2d 843c
00000060: 0950 0fbd c218 d03c 135f 663d 3b53 f3bc
00000070: 3897 30bd 8022 773c f3de 3a3b 217b 083d
00000080: 4bce 53bd 8774 203b 0fbd ccbc 7bb4 973b
00000090: 8568 0a39 5fd2 aa3c 3cc0 463d 02b7 6fbc
000000a0: f0ad 0abb ca50 3d3d c7a0 5bbd 6be5 903b
000000b0: 2e26 1ebd 691c da3c 8319 46bd 5e08 ee3b
000000c0: 377f d9bc 36e9 603d 4117 3fbd ee8c 27bb
000000d0: 809b 0bbd 4d26 ffba 5db7 25bd 6e75 e2bb
000000e0: ffad 3d3c 67e1 dc3c ec1f a7bb bbaf 33bc
000000f0: 07cd bb3c 9624 803c 4ca9 883b 5154 653d

features.7.weight f4 [64, 64, 3, 3]
-0.029751362 -0.019862244 -0.010674795 0.013485883 -0.02201057 0.029195195 0.0023644518 0.031836454
0.0084224185 -0.0038881828 0.00045740424 0.028162254 0.039308336 -0.00849439 -0.002162056 0.0008365803
0.023179846 -0.030447492 -0.0037637064 0.024955258 -0.0055430355 0.028596634 0.00051443203 0.00034107015
0.0026724115 0.0015155878 -0.02535413 0.017725352 -0.013116118 -0.040262233 -0.024456544 -0.012737681
0.015639134 -0.040112138 -0.020656506 0.014651144 -0.028315792 -0.007894761 0.040346768 0.009532978
0.039819 0.034635182 0.02632518 -0.0047366247 0.033927158 -0.004621781 0.018572927 -0.017202118
0.033672195 0.0049974686 0.02146019 -0.00030373796 0.015575681 0.018259862 -0.031339128 0.035361774
-0.02323677 -0.032904617 -0.022004107 0.0012916059 0.0006565923 -0.010320891 0.00047673142 -0.026822623
0.01938618 -0.0024016006 -0.006118187 -0.009603896 0.027700236 0.00014829916 -0.03789456 0.01615307
-0.002110982 0.02483752 0.01419684 -0.035426985 -0.005480732 -0.017724173 -0.03471043 0.0058517656
-0.005391215 -0.01715519 -0.016128955 0.001504269 -0.0002996571 -0.008150902 -0.014723066 0.025013238
-0.027618952 -0.025380244 -0.00072698767 0.041580077 -0.03478934 0.010449181 -0.033526424 -0.030457621
-0.015340339 -0.0048748967 -0.0058314893 -0.038847826 -0.007411712 -0.0153765185 0.0056295455 0.023428947
-0.011841815 -0.031428926 -0.022757545 0.0171341 0.008538972 -0.036565244 -0.0060041826 -0.024136497
0.0008053486 -0.000620511 -0.0361261 -0.009593344 0.011613158 0.00464056 0.04121517 0.023286501
-0.0057289237 0.028257648 -0.012332862 0.0060325023 -0.0013416635 -0.019202197 0.04079516 -0.008614544
-0.002225173 -0.037490413 -0.037419744 0.035172816 -0.013506246 -0.01151194 0.005827443 -0.027502878
0.016961506 0.018617885 -0.00111987 -0.014322927 0.016553167 -0.031742394 -0.011620044 0.009338328
0.039905936 -0.005027721 -0.0052947626 0.040866565 -0.02345273 0.0031284045 0.022484843 -0.0017812202
0.034860935 -0.010599147 0.03135456 -0.040211897 0.0061707646 0.025177987 -0.01088351 0.028089076
0.0093842065 -0.0034826838 0.027941613 0.023834003 -0.019538667 -0.03736108 -0.017733898 0.01270284
-0.02697773 0.021818891 -0.033121996 0.015100815 0.0004368473 0.009184467 0.014770085 -0.0057860217
-0.018844757 -0.018000294 -0.03959273 -0.03138175 -0.019563334 -0.017007481 -0.02289094 0.032402154
0.030952325 -0.03956812 -0.007207107 0.014827617 -0.01843677 0.039858814 0.036874443 0.005004055
-0.010975122 0.030048767 -0.034182176 -0.041097123 0.0032651545 -0.0028515896 -0.010727991 0.039405648
-0.018806977 0.0041459585 0.040503234 0.023279293 0.027247854 -0.0345884 -0.022250451 -2.4490857e-05
0.0051728757 0.016739402 -0.02369657 0.03414937 -0.036060385 -0.010612919 -0.0010232462 -0.027805837
0.006713369 -0.009518866 0.03609042 -0.0072349543 0.032814622 -0.033962462 0.016322693 -0.009300391
0.011382895 9.243292e-05 -0.03598813 0.01298011 0.02397111 -0.0032195197 0.03832416 -0.0048904056
-0.0048952405 0.019325716 -0.0028261386 -0.018782761 -0.03822874 -0.007272067 0.006374268 -0.021866873
-0.025249707 0.033658803 -0.02741711 -0.038784605 0.031154301 -0.025466561 -0.014401189 -0.0018803177
0.025652513 0.015054848 -0.039653085 0.028112303 0.009285783 0.0078554945 0.03400088 -0.0011820723
00000000: 21b9 f3bc 25b6 a2bc 56e5 2ebc e5f3 5c3c
00000010: 834f b4bc c32a ef3c ebf4 1a3b f166 023d
00000020: 2ffe 093c e2d0 7ebb c2cf ef39 87b4 e63c
00000030: c701 213d 0e2c 0bbc 48b1 0dbb f44d 5b3a
00000040: a9e3 bd3c 056d f9bc 84a8 76bb f86e cc3c
00000050: 5aa2 b5bb 7d43 ea3c f3da 063a a9d1 b239
00000060: a023 2f3b b0a6 c63a 77b3 cfbc c234 913c
00000070: fce4 56bc 03ea 24bd 1759 c8bc b5b1 50bc
00000080: a41d 803c a04c 24bd d537 a9bc 5a0b 703c
00000090: 85f6 e7bc 0759 01bc a742 253d 3530 1c3c
000000a0: 3f19 233d 9fdd 0d3d e7a7 d73c b035 9bbb
000000b0: 34f7 0a3d 4f72 97bb 4026 983c 75eb 8cbc
000000c0: dbeb 093d cec1 a33b 48cd af3c 053f 9fb9
000000d0: 2431 7f3c b595 953c 755d 00bd 82d7 103d
000000e0: 0a5b bebc fec6 06bd f541 b4bc 1a4b a93a
000000f0: 2a1f 2c3a f418 29bc cff1 f939 1ebb dbbc
00000100: c4cf 9e3c 2c64 1dbb 137b c8bb a959 1dbc
00000110: 9beb e23c c180 1b39 5337 1bbd 7153 843c
00000120: 6758 0abb 0e78 cb3c dd99 683c e31b 11bd
00000130: b697 b3bb 4932 91bc 862c 0ebd 2bc0 bf3b
00000140: caa8 b0bb 0b89 8cbc df20 84bc e42a c53a
00000150: 4c1b 9db9 5c8b 05bc 0439 71bc 90e8 cc3c
00000160: 2441 e2bc 3bea cfbc 5193 3eba df4f 2a3d
00000170: 447f 0ebd 0b33 2b3c 0153 09bd 4382 f9bc
00000180: 0c56 7bbc 99bd 9fbb 1416 bfbb e61e 1fbd
00000190: f2dd f2bb cbed 7bbc 0d78 b83b 10ee bf3c
000001a0: 2c04 42bc 9ebb 00bd 086e babc d05c 8c3c
000001b0: 0be7 0b3c 70c5 15bd bcbe c4bb e7b9 c5bc
000001c0: 081e 533a caa9 22ba f6f8 13bd 672d 1dbc
000001d0: 1d45 3e3c d70f 983b 3dd1 283d 55c3 be3c
000001e0: b2b9 bbbb 957c e73c c60f 4abc 4cac c53b
000001f0: c2da afba ed4d 9dbc d318 273d 0424 0dbc
00000200: 35d4 11bb 8c8f 19bd 7245 19bd 5f11 103d
00000210: 4d49 5dbc 939c 3cbc 23f4 be3b b74d e1bc
00000220: dbf2 8a3c 8984 983c 9ac8 92ba b6aa 6abc
00000230: 829a 873c 5004 02bd ff61 3ebc c9ff 183c
00000240: 6874 233d 95bf a4bb b07f adbb b363 273d
00000250: f11f c0bc eb05 4d3b 2232 b83c d577 e9ba
00000260: 57ca 0e3d 0ba8 2dbc a46d 003d 3bb5 24bd
00000270: 2034 ca3b 1142 ce3c c050 32bc 101b e63c
00000280: 37c0 193c bd3d 64bb cfe5 e43c 873f c33c
00000290: 8e0f a0bc ef07 19bd ae46 91bc 931f 503c
000002a0: 6700 ddbc 88bd b23c eeaa 07bd 6969 773c
000002b0: a708 e539 727a 163c 3afe 713c ab98 bdbb
000002c0: 5260 9abc 5a75 93bc fd2b 22bd 268a 00bd
000002d0: 4943 a0bc 4653 8bbc c885 bbbc 1fb8 043d
000002e0: bb8f fd3c 2e12 22bd 9829 ecbb 89ef 723c
000002f0: b608 97bc ff42 233d a809 173d 0ef9 a33b
00000300: 00d1 33bc d528 f63c 9c02 0cbd 7555 28bd
00000310: 34fc 553b bce1 3abb 75c4 2fbc d167 213d
00000320: 1711 9abc d2da 873b b8e6 253d 37b4 be3c
00000330: e436 df3c 91ac 0dbd 9446 b6bc b771 cdb7
00000340: 3a81 a93b 1221 893c 4f1f c2bc 36e0 0b3d
00000350: 0eb4 13bd cfe1 2dbc 721e 86ba 11c9 e3bc
00000360: d2fb db3b 05f5 1bbc 8cd3 133d 3213 edbb
00000370: a068 063d 391c 0bbd 2bb7 853c ab60 18bc
00000380: 527f 3a3c 8cd8 c138 4a68 13bd 87aa 543c
00000390: 105f c43c 94fe 52bb cbf9 1c3d b23f a0bb
000003a0: 4168 a0bb f750 9e3c bd36 39bb 4ede 99bc
000003b0: bd95 1cbd 854a eebb 3cdf d03b 2822 b3bc
000003c0: 79d8 cebc d0dd 093d d999 e0bc 9bdc 1ebd
000003d0: 4e37 ff3c 409f d0bc f7f2 6bbc fe74 f6ba
000003e0: 3825 d23c 9ca8 763c 466b 22bd c64b e63c
000003f0: 6623 183c 55b4 003c 8244 0b3d c4ef 9aba

features.7.bias f4 [64]
-0.020362532 0.024312286 -0.033277288 0.00082598836 0.009967722 -0.0022284389 -0.033941697 0.00035004356
-0.021039318 0.020745425 0.0065001855 -0.027334342 -0.028649423 0.03662243 0.008371977 0.018267846
0.025847256 -0.038421474 0.02785093 -0.008498027 0.0063407817 0.0369019 0.022512553 0.035219263
-0.032926995 0.008323819 -0.029615635 -0.0072003193 -0.017891094 -0.013238435 0.0084471 -0.019435992
0.005745097 -0.030970242 0.014670499 -0.009667455 0.0057593663 0.015291592 0.00810739 0.0070713977
-0.030201258 -0.0084725 0.017509947 -0.0114055285 0.037621763 -0.039397288 0.025355607 -0.025341786
-0.0047525964 0.041377477 0.031556126 -0.033732284 0.007728969 -0.0053008106 0.016756302 0.029108772
-0.036312994 0.035902508 -0.014777103 -0.03808236 -0.003375413 0.0030701633 -0.0074506914 -0.007273952
00000000: 53cf a6bc 8f2a c73c c44d 08bd 2487 583a
00000010: a84f 233c 000b 12bb 7306 0bbd 0d86 b739
00000020: a65a acbc 4ff2 a93c 82ff d43b 45ec dfbc
00000030: 32b2 eabc 6701 163d 9e2a 093c 73a6 953c
00000040: a0bd d33c d65f 1dbd a227 e43c 4f3b 0bbc
00000050: 55c6 cf3b 7226 173d 3f6c b83c 1342 103d
00000060: 75de 06bd a160 083c 7d9c f2bc a8f0 ebbb
00000070: 5890 92bc 05e6 58bc b565 0a3c 3b38 9fbc
00000080: 5e41 bc3b 4eb5 fdbc 885c 703c 3f64 1ebc
00000090: 11b9 bc3b 9689 7a3c dcd4 043c 2fb7 e73b
000000a0: a168 f7bc 3ed0 0abc 0571 8f3c 41de 3abc
000000b0: 4719 1a3d 0d5f 21bd 90b6 cf3c 9499 cfbc
000000c0: abbb 9bbb 6e7b 293d ff40 013d dd2a 0abd
000000d0: 4b43 fd3b 6cb2 adbb 8344 893c 8575 ee3c
000000e0: efbc 14bd 820e 133d aa1b 72bc 40fc 1bbd
000000f0: 0836 5dbb cb34 493b ee24 f4bb 555a eebb

features.10.weight f4 [64, 64, 1, 1]
0.109731995 -0.007846002 -0.0077234274 0.02604879 0.00064404885 0.01249857 -0.013411237 -0.10164405
-0.05978864 0.09527323 -0.010798624 -0.08765255 -0.06197194 -0.09917672 -0.10072591 0.02265673
-0.08746594 -0.009433042 -0.09077284 0.011851207 0.101442344 -0.007897479 -0.058020663 0.049835008
-0.0021613946 -0.113220215 0.026376152 -0.07122801 -0.041720472 0.027027883 -0.074086264 -0.083846934
-0.0037208209 0.016884651 -0.017539471 -0.0108677745 -0.012004224 0.099401176 -0.07684431 -0.06283099
-0.11189159 0.067609064 0.05618799 -0.052625433 -0.029523881 -0.014607084 0.02656812 0.026068361
0.10937466 -0.06159531 -0.010983238 0.101723015 0.047621515 -0.014691206 0.06842405 -0.067943804
-0.024848336 -0.042209227 0.004943679 -0.037183315 0.004029596 0.05561795 -0.109172344 0.091989316
-0.0862722 -0.010454122 0.12091458 0.09919058 -0.0350999 -0.10359698 -0.09025947 -0.10457188
-0.04390656 -0.10397843 0.072541445 -0.0058270437 0.091946185 0.011920078 0.0132372035 0.06471039
0.07115355 -0.052285355 0.071249135 0.037432514 -0.02630907 -0.110601366 0.08244691 0.04126497
0.0019314584 -0.08412522 -0.021369826 0.033246655 0.025964223 0.11600221 -0.12229643 -0.071363755
-0.022516362 0.043258037 0.047989268 0.025330508 0.074809074 -0.060165588 -0.05436029 -0.01500725
-0.06345448 -0.021191994 -0.036726378 -0.018012209 -0.029999653 0.0046301167 -0.07320622 0.010924943
0.014656257 -0.08315481 -0.04145053 0.016893089 -0.09055268 0.09382492 0.07079242 -0.095940664
0.07066359 0.084683806 0.00426826 0.102710575 0.08294268 -0.10174046 0.011697609 -0.10370818
-0.11140433 0.054311052 0.003411291 0.03386825 -0.11136796 0.055146903 0.075992756 -0.085465945
-0.08096772 0.114843525 -0.11446792 -0.043944348 0.0699137 -0.0037172267 0.09168068 -0.09347674
0.042389046 -0.06624971 -0.09185105 0.030236091 -0.018241325 -0.073169 -0.10516412 -0.078383535
-0.07076826 -0.001182216 -2.0810921e-06 0.045817222 -0.00743261 0.04777918 -0.090040974 -0.00020718462
-0.10740656 0.014906076 0.040668078 -0.07934616 -0.091550104 -0.059000514 2.055682e-05 -0.09199788
0.07816894 0.098056346 -0.060588326 0.084396616 0.0020751064 0.08168801 0.10367238 0.102842614
-0.0015437689 -0.01557654 0.097539425 0.004389743 0.062071443 0.02128107 0.05943086 -0.0618567
-0.046367887 -0.013108361 -0.047862124 0.031753797 0.10650558 -2.4441068e-05 0.02382763 0.0997411
-0.047014106 -0.024747653 -0.0058795386 0.11566962 0.11783999 0.11794644 0.044539373 -0.070442125
0.002069127 -0.050726485 -0.056940965 0.03300998 -0.0021926153 0.04705629 -0.06279599 0.08748831
-0.08532046 0.10918186 -0.07002689 0.08700216 -0.08391052 -0.057415526 0.10222275 0.062608294
0.06971204 0.053400043 -0.056864467 -0.10601591 0.041988425 -0.03022075 0.082175985 -0.043623112
-0.031309966 0.05148324 0.07517628 0.023980401 -0.07650999 -0.110328995 0.12366285 0.053684507
0.035481736 0.080087304 0.017804088 0.09657827 -0.05555925 -0.04708268 -0.117004655 0.038056266
0.09260965 0.027575042 0.08420068 -0.038068406 -0.06614913 -0.012194088 0.08818385 -0.020991143
-0.006792715 -0.0127344 -0.043448545 0.0239777 0.05621596 0.09148322 0.047985144 -0.075609766
00000000: 2bbb e03d 848c 00bc ce14 fdbb 4664 d53c
00000010: 63d5 283a cdc6 4c3c ceba 5bbc c12a d0bd
00000020: efe4 74bd 9c1e c33d b6ec 30bc 2e83 b3bd
00000030: 4ad6 7dbd 2a1d cbbd 6349 cebd 9b9a b93c
00000040: 5821 b3bd 0c8d 1abc 1ce7 b9bd 912b 423c
00000050: 01c1 cf3d 6e64 01bc 13a7 6dbd cb1f 4c3d
00000060: 2fa6 0dbb 00e0 e7bd cd12 d83c fedf 91bd
00000070: 16e3 2abd 9469 dd3c 8aba 97bd f1b7 abbd
00000080: 04d9 73bb ae51 8a3c f0ae 8fbc c00e 32bc
00000090: 5dad 44bc d892 cb3d 8d60 9dbd 89ad 80bd
000000a0: 6b27 e5bd 9f76 8a3d 6125 663d c48d 57bd
000000b0: 11dc f1bc 8d52 6fbc 63a5 d93c 518d d53c
000000c0: d2ff df3d 5d4b 7cbd 0af3 33bc 2854 d03d
000000d0: c70e 433d 62b3 70bc e921 8c3d 1f26 8bbd
000000e0: bd8e cbbc 95e3 2cbd 96fe a13b 884d 18bd
000000f0: b40a 843b a6cf 633d c095 dfbd e564 bc3d
00000100: 7baf b0bd c447 2bbc 10a2 f73d 6e24 cb3d
00000110: eac4 0fbd a72a d4bd f5d9 b8bd c829 d6bd
00000120: 5dd7 33bd a5f2 d4bd 9c90 943d c9f0 bebb
00000130: 484e bc3d 6e4c 433c dbe0 583c e286 843d
00000140: f4b8 913d 2b29 56bd 11eb 913d d652 193d
00000150: 1e86 d7bc f882 e2bd edd9 a83d 7505 293d
00000160: fd28 fd3a d849 acbd c60f afbc a52d 083d
00000170: ecb2 d43c 9192 ed3d 8d76 fabd 2927 92bd
00000180: 3c74 b8bc 572f 313d 6590 443d ed81 cf3c
00000190: 8035 993d 3170 76bd e5a8 5ebd f8e0 75bc
000001a0: 6cf4 81bd d59a adbc 666e 16bd 578e 93bc
000001b0: d5c1 f5bc 3cb8 973b 25ed 95bd 88fe 323c
000001c0: cc20 703c 124d aabd 08c8 29bd 6063 8a3c
000001d0: af73 b9bd 4827 c03d 9efb 903d 8a7c c4bd
000001e0: 13b8 903d b46e ad3d c3dc 8b3b ec59 d23d
000001f0: dadd a93d 4d5d d0bd 54a7 3f3c f464 d4bd
00000200: f427 e4bd 4475 5e3d f78f 5f3b 6fb9 0a3d
00000210: e314 e4bd b8e1 613d 17a2 9b3d c508 afbd
00000220: 67d2 a5bd 1533 eb3d 286e eabd fdfe 33bd
00000230: ea2e 8f3d b79c 73bb 15c3 bb3d bc70 bfbd
00000240: 23a0 2d3d eead 87bd 671c bcbd aeb1 f73c
00000250: d56e 95bc a1d9 95bd 4960 d7bd 8c87 a0bd
00000260: f3ee 90bd 96f4 9aba e4a8 0bb6 d7aa 3b3d
00000270: 408d f3bb 1ab4 433d 6767 b8bd b33f 59b9
00000280: f8f7 dbbd 9d38 743c 9293 263d 3d80 a2bd
00000290: 9f7e bbbd 86aa 71bd 6f71 ac37 6269 bcbd
000002a0: 0a17 a03d c4d1 c83d 772b 78bd 22d8 ac3d
000002b0: 82fe 073b 0b4c a73d 2f52 d43d 269f d23d
000002c0: 4a58 caba be34 7fbc c0c2 c73d d5d7 8f3b
000002d0: a03e 7e3d a355 ae3c c66d 733d 735d 7dbd
000002e0: 41ec 3dbd 73c4 56bc 130b 44bd 4510 023d
000002f0: 991f da3d cb06 cdb7 2932 c33c 1045 cc3d
00000300: dd91 40bd 97bb cabc 25a9 c0bb 32e4 ec3d
00000310: 1856 f13d e78d f13d eb6e 363d f643 90bd
00000320: 319a 073b 93c6 4fbd ee3a 69bd 7935 073d
00000330: fbb1 0fbb 19be 403d 2f9b 80bd 122d b33d
00000340: 7ebc aebd bd9a df3d 426a 8fbd 302e b23d
00000350: 47d9 abbd 8b2c 6bbd 295a d13d c738 803d
00000360: 30c5 8e3d 01ba 5a3d b7ea 68bd df1e d9bd
00000370: 0efc 2b3d 8291 f7bc e24b a83d 26ae 32bd
00000380: e13e 00bd 17e0 523d 06f6 993d 8c72 c43c
00000390: 45b1 9cbd 2bf4 e1bd f342 fd3d 49e4 5b3d
000003a0: 4c55 113d d004 a43d e1d9 913c d4ca c53d
000003b0: 1992 63bd c5d9 40bd 23a0 efbd e3e0 1b3d
000003c0: 21aa bd3d 0ee5 e13c 6871 ac3d 9eed 1bbd
000003d0: 3279 87bd b6c9 47bc bc99 b43d 9ef5 abbc
000003e0: 6c95 debb f2a3 50bc 1af7 31bd e26c c43c
000003f0: b542 663d 8e5b bb3d 128c 443d 4bd9 9abd

features.10.bias f4 [64]
0.0006894941 -0.026926411 -0.057596803 -0.00023321412 0.120791204 0.1208538 0.050074615 0.055547737
-0.04557858 0.06928241 0.016099147 0.018787302 -0.021286601 -0.013196091 -0.043284375 0.07583835
0.045279957 0.09580058 0.028850092 0.05614333 -0.010708264 0.019601349 0.068080485 -0.021869186
0.07738488 0.012560546 -0.022561684 0.10476939 -0.07680616 0.11672259 -0.08098354 -0.0329741
-0.09963365 0.023867736 0.032938745 -0.017975643 0.046538014 0.06961412 -0.11000665 0.095548466
0.064273424 0.003666684 0.010347181 0.015197419 0.01954008 0.10967444 0.050578192 -0.036396135
-0.11202303 0.012848595 -0.020449596 0.0047177244 -0.05960683 -0.094724104 -0.053488865 0.06319604
0.046385475 -0.028848922 0.021656055 0.039925415 0.042018738 0.03463428 -0.032548957 0.11606693
00000000: 2abf 343a c794 dcbc a0ea 6bbd f08a 74b9
00000010: 6161 f73d 3282 f73d 0a1b 4d3d 0686 633d
00000020: 9bb0 3abd f0e3 8d3d 5ce2 833c d4e7 993c
00000030: 3d61 aebc 6b34 58bc f54a 31bd 2351 9b3d
00000040: 7a77 393d 1833 c43d 0757 ec3c 8cf6 653d
00000050: b771 2fbc 0293 a03c c86d 8b3d 0227 b3bc
00000060: f77b 9e3d c0ca 4d3c 48d3 b8bc 5591 d63d
00000070: 8c4c 9dbd 410c ef3d b3da a5bd da0f 07bd
00000080: ba0c ccbd 4586 c33c c7ea 063d a841 93bc
00000090: a59e 3e3d d991 8e3d 2b4b e1bd eaae c33d
000000a0: c9a1 833d c04c 703b 3987 293c 98fe 783c
000000b0: 8512 a03c fe9c e03d 142b 4f3d 1d14 15bd
000000c0: 556c e5bd ea82 523c e985 a7bc 2497 9a3b
000000d0: 4b26 74bd b6fe c1bd 2417 5bbd ed6c 813d
000000e0: b2fe 3d3d 9354 ecbc 0a68 b13c d588 233d
000000f0: d71b 2c3d addc 0d3d 0e52 05bd 80b4 ed3d

classifier.0.weight f4 [3, 64]
4.6116247e-07 0.03850417 0.10623959 -0.0238113 -0.086306065 -0.07984745 -0.11798153 -0.029758615
-0.0915228 0.09945732 0.02932923 0.10659863 -0.12170202 0.109269954 -0.026041605 0.010141899
-0.063207425 -0.11497545 -0.062577754 0.06378515 -0.04454569 0.00039864716 0.030463513 -0.08389448
0.077295974 0.09795553 0.11234235 -0.025106193 -0.01279063 0.090825096 -0.021816874 2.7499627e-07
0.04518838 -0.022684284 0.10793301 -0.02391006 0.08132924 0.0012065797 0.111059844 -0.03121978
0.09047026 0.07373217 -0.09230409 -0.096657924 0.032744184 -0.12293968 0.007829986 -0.12634045
0.05456059 0.042246353 0.07290003 -0.07041797 0.035924006 -0.0017736177 0.068033956 -0.021677986
-0.08298679 0.094307676 0.09526575 0.04907867 0.10459043 -0.08203179 -0.038590178 0.11644335
0.057766132 0.07332213 -0.0910052 -0.01677211 0.05956462 -0.09002086 -0.0010926729 -0.011760472
-0.08300224 0.00296011 -0.052626 -0.09838541 -0.09525131 0.024616012 -0.06642738 0.008902453
-0.032104757 0.0496883 -0.04819222 0.074254446 0.015139186 0.0364065 -0.06534057 0.033205178
0.013510333 -0.00023272217 0.019054046 -0.06511835 0.019368997 -0.022123829 -0.003048665 -0.058737226
-0.11501894 -0.06527537 0.06754973 -0.09839439 -0.0383464 -0.019273346 -0.112844266 -0.101422966
-0.015906459 -0.11714924 -0.07150875 -0.0074139694 -0.106288634 0.048031196 -0.021202719 0.119654335
-0.0010991804 0.014236703 0.017658887 0.07025834 0.085673526 0.036004134 -0.06493624 -0.013681223
-0.113313824 -0.06271509 0.11191734 0.12196272 -0.12301455 -0.05370423 -0.015136818 0.10434349
0.06625771 0.07609392 0.016316175 0.03895242 -0.009193832 -0.056109417 0.0060639177 0.10715973
0.03097487 0.02893065 0.07030526 -0.020541431 0.020446397 -0.108707376 -0.052722037 0.03285374
0.039414637 -0.11322005 -0.012831258 -0.079742506 -0.08836624 -0.026003847 -0.0030119426 -0.045283165
0.006915553 -0.0037828474 0.054270864 0.03723893 -0.10605975 -0.038344458 0.027658584 -0.07975392
0.040099982 0.025031107 -0.033009395 -0.092091374 -0.085236 -0.04690936 0.11302218 -0.06430137
0.090297654 0.0041935495 -0.029431814 -0.004259741 0.07983092 0.052172344 0.115675874 0.11893243
-0.021632392 0.034228943 -0.007059093 -0.088773586 0.11053305 0.115148015 -0.1201179 0.110930435
-0.058753207 -0.056869365 0.010773381 -0.027344834 0.099669546 0.039394848 0.081372604 -0.028773632
00000000: b095 f734 8cb6 1d3d 2494 d93d ea0f c3bc
00000010: 3cc1 b0bd 0f87 a3bd 4da0 f1bd 57c8 f3bc
00000020: 4e70 bbbd 48b0 cb3d da43 f03c 6250 da3d
00000030: e93e f9bd edc8 df3d 3455 d5bc 352a 263c
00000040: e572 81bd 4078 ebbd c428 80bd caa1 823d
00000050: 8b75 36bd 8401 d139 9e8e f93c ded0 abbd
00000060: 5a4d 9e3d e99c c83d bf13 e63d 81ab cdbc
00000070: ca8f 51bc 8202 ba3d 4db9 b2bc 33a3 9334
00000080: 7317 393d 64d4 b9bc fb0b dd3d 08df c3bc
00000090: f28f a63d 1926 9e3a 5873 e33d a0c0 ffbc
000000a0: 7948 b93d e400 973d ed09 bdbd 97f4 c5bd
000000b0: c41e 063d cdc7 fbbd 5749 003c 645f 01be
000000c0: ed7a 5f3d 830a 2d3d 9c4c 953d 4c37 90bd
000000d0: 0d25 133d bc78 e8ba 6355 8b3d 0896 b1bc
000000e0: faf4 a9bd 6224 c13d b11a c33d b706 493d
000000f0: 8233 d63d 4800 a8bd bc10 1ebd da79 ee3d
00000100: 2e9c 6c3d ea29 963d ef60 babd aa65 89bc
00000110: 08fa 733d db5c b8bd 0538 8fba ffae 40bc
00000120: 14fd a9bd 68fe 413b 5c8e 57bd 4a7e c9bd
00000130: 1e13 c3bd 85a7 c93c 140b 88bd 98db 113c
00000140: 4780 03bd f585 4b3d 3565 45bd b712 983d
00000150: 590a 783c fb1e 153d 47d1 85bd 2702 083d
00000160: 725a 5d3c e206 74b9 3b17 9c3c c55c 85bd
00000170: bbab 9e3c 083d b5bc 1ccc 47bb 7296 70bd
00000180: 0d8f ebbd 18af 85bd 8357 8a3d ff82 c9bd
00000190: 1d11 1dbd 23e3 9dbc e51a e7bd d8b6 cfbd
000001a0: 434e 82bc f1eb efbd 2e73 92bd e2f0 f2bb
000001b0: dbad d9bd 5cbc 443d 53b1 adbc 550d f53d
000001c0: 6012 90ba 0f41 693c 5fa9 903c 9be3 8f3d
000001d0: 9a75 af3d 1279 133d 4bfd 84bd 3527 60bc
000001e0: 1411 e8bd c570 80bd eb34 e53d 97c7 f93d
000001f0: 0def fbbd f7f8 5bbd 6b00 78bc 0ab2 d53d
00000200: 1fb2 873d 21d7 9b3d 80a9 853c 938c 1f3d
00000210: baa1 16bc fdd2 65bd d4b3 c63b 8f76 db3d
00000220: 03bf fd3c f8ff ec3c 34fc 8f3d 8146 a8bc
00000230: 347f a73c f9a1 debd 10f3 57bd a591 063d
00000240: 3e71 213d eadf e7bd 323a 52bc 0a50 a3bd
00000250: 5cf9 b4bd 0506 d5bc 0364 45bb d77a 39bd
00000260: dd9b e23b a6e9 77bb 204b 5e3d d987 183d
00000270: db35 d9bd 140f 1dbd 4194 e23c 0656 a3bd
00000280: e13f 243d 090e cd3c dc34 07bd 679a bcbd
00000290: 3690 aebd 0724 40bd 2c78 e73d 70b0 83bd
000002a0: faed b83d 0b6a 893b fd1a f1bc 4c95 8bbb
000002b0: 657e a33d abb2 553d 79e7 ec3d d992 f33d
000002c0: 6a36 b1bc a633 0c3d f74f e7bb edce b5bd
000002d0: 275f e23d b9d2 eb3d 6000 f6bd 7f2f e33d
000002e0: 34a7 70bd daef 68bd d682 303c 4602 e0bc
000002f0: 8c1f cc3d 7e5c 213d aea6 a63d aeb6 ebbc

classifier.0.bias f4 [3]
-0.04189339 0.09751099 0.065123014
00000000: 6798 2bbd d8b3 c73d 375f 853d

exp_avg f4 [32, 3, 3, 3]
0.00033089804 -6.3534186e-05 0.00026588672 0.00029438344 -0.00013081903 0.00019555575 0.0002082533 -0.00015800209
3.3592543e-05 0.00040617745 -5.7722147e-05 0.00023385933 0.00039627234 -9.7463155e-05 0.00017757391 0.00032271398
-9.944544e-05 4.0092524e-05 0.0005393699 7.181887e-05 0.00041660262 0.0004114399 -0.00013904525 0.00015046471
0.00034771068 -0.00013003222 -3.5846308e-05 0.00037623078 0.00022907274 0.0001541056 0.00038208236 0.0003322852
0.00024674644 0.00041108255 0.0004221822 0.00041028424 0.0003951862 0.00026275386 0.00019370137 0.00037411024
0.0003439895 0.0002819815 0.00040290097 0.00043847685 0.00045937873 0.0005388715 0.00032598132 0.00022248468
0.0005616699 0.00052989577 0.00043121394 0.0005374329 0.0005941551 0.0005801587 -0.0005381139 -0.0006077319
-0.00026025847 -0.0004920859 -0.0005909072 -0.00031330294 -0.0005347918 -0.0006008457 -0.00043075293 -0.00065181
-0.0007305176 -0.00038049993 -0.0005745787 -0.0006965683 -0.00041190826 -0.00060979207 -0.0006920345 -0.00051291235
-0.00076950574 -0.0009153171 -0.00066065986 -0.0007346697 -0.0009296585 -0.0007542424 -0.00073059456 -0.000896669
-0.00079908664 -3.6307447e-05 0.00012841594 3.071304e-05 -4.0021812e-05 6.311251e-05 -1.2635707e-05 -6.918869e-06
0.00010720972 -5.389323e-05 -0.00013732683 2.5865249e-05 -3.802899e-05 -0.00013003888 -3.2038744e-05 -7.3828814e-05
-8.8933e-05 1.4564199e-05 -0.000111466434 -0.0003595518 -0.00015540874 -0.00018834024 -0.0003577778 -0.0002222176
-0.00023231035 -0.00028118867 -0.00016973552 -0.0003025012 0.0001626806 0.00023726096 0.0001888707 0.000111004
0.00023455876 0.00017436019 0.00010393189 0.0002583296 0.00019798147 0.00012447084 0.00023126637 0.00019857951
9.571681e-05 0.0002551717 0.00020777206 8.91977e-05 0.000287964 0.0002398044 0.00035394024 0.00042485507
0.00035962125 0.0003001533 0.00039077914 0.00031575302 0.00024674757 0.00037176535 0.0002911758 0.00026994682
0.0002304195 0.00011453763 0.00022406963 0.00017823854 5.7998906e-05 0.0001068182 1.9253617e-05 -0.00011893374
0.00027221514 0.00023496628 0.0001387015 0.00020486621 0.00016109395 5.311825e-05 7.832033e-05 -3.38499e-07
-0.00013749399 7.8538236e-05 0.00016726619 0.0001578082 3.848119e-05 0.00010295377 8.900584e-05 -1.9425268e-05
-2.8341241e-05 -8.3466904e-05 -0.0005114406 -0.00018434167 0.00026868496 -0.0005861078 -0.00032129246 0.00014900047
-0.000627963 -0.0003684934 9.588826e-05 -0.00054594275 -0.00021384367 0.00027477727 -0.00063033047 -0.0003697166
0.00013305011 -0.0006717659 -0.00041771223 7.307643e-05 -0.0005669461 -0.00019248841 0.0003755013 -0.0007031947
-0.00037948237 0.00021135401 -0.0007501606 -0.00045287822 0.00015984703 -0.00065275823 -0.0001473299 0.0004597271
-0.00061031233 -0.00014779564 0.00046493343 -0.000513047 -5.900529e-05 0.0005137176 -0.00073685165 -0.00023643237
0.00043137505 -0.00069105654 -0.00023381437 0.00043293615 -0.0006072412 -0.00015355236 0.00046918585 -0.00096365006
-0.00043801498 0.00026703472 -0.00093332457 -0.00043601217 0.00030198166 -0.0008744048 -0.0003886905 0.00034972903
-0.0002436112 5.909372e-05 5.6611436e-05 -0.0002378724 6.819799e-05 5.7227233e-05 -0.00023541528 7.829367e-05
9.096866e-05 -0.00025536172 8.3863415e-05 0.00010824874 -0.0002624492 8.154946e-05 0.000109251625 -0.00026217883
8.6843036e-05 0.00014476015 -0.0004266036 -6.1872786e-05 3.210977e-05 -0.0004185276 -4.9863476e-05 1.8092533e-05
-0.00043499898 -7.1634124e-05 3.9849114e-05 -0.0005128488 -0.000601045 -0.000728409 -0.00026634583 -0.00037231794
-0.0005882079 -0.00014803206 -0.00027937983 -0.00054905115 -0.0005293987 -0.00057306513 -0.000753831 -0.00025325644
00000000: 627c ad39 a83d 85b8 b666 8b39 7a57 9a39
00000010: 772c 09b9 190e 4d39 925e 5a39 5dad 25b9
00000020: b8e5 0c38 37f4 d439 af1a 72b8 2338 7539
00000030: c6c2 cf39 2265 ccb8 2233 3a39 f031 a939
00000040: 5d8d d0b8 0529 2838 8064 0d3a 769d 9638
00000050: 756b da39 87b6 d739 adcc 11b9 10c6 1d39
00000060: f04c b639 4259 08b9 ae59 16b8 d740 c539
00000070: 3f33 7039 6897 2139 3a52 c839 9136 ae39
00000080: bf5d 8139 9186 d739 5658 dd39 6b1b d739
00000090: fe30 cf39 3ac2 8939 511c 4b39 3a24 c439
000000a0: 7d59 b439 ebd6 9339 743c d339 5ee3 e539
000000b0: c5d8 f039 0e43 0d3a 79e8 aa39 c74a 6939
000000c0: 073d 133a b4e8 0a3a 8e14 e239 83e2 0c3a
000000d0: 13c1 1b3a cb15 183a 3610 0dba 3350 1fba
000000e0: 4d73 88b9 53ff 00ba 1ce7 1aba cf42 a4b9
000000f0: 4531 0cba 1382 1dba aed6 e1b9 3bde 2aba
00000100: 3580 3fba d67d c7b9 539f 16ba e899 36ba
00000110: 64f5 d7b9 74da 1fba a669 35ba f774 06ba
00000120: a8b8 49ba e4f1 6fba 2230 2dba d996 40ba
00000130: 53b4 73ba 5ab8 45ba 5f85 3fba 700e 6bba
00000140: cc79 51ba d348 18b8 64a7 0639 e0d1 0038
00000150: 18dd 27b8 455b 8438 f3fd 53b7 a228 e8b6
00000160: c8d5 e038 6a0b 62b8 64ff 0fb9 33f9 d837
00000170: 5181 1fb8 0c5b 08b9 5761 06b8 8bd4 9ab8
00000180: 8a81 bab8 c258 7437 16c3 e9b8 3a82 bcb9
00000190: 37f5 22b9 337d 45b9 2094 bbb9 1503 69b9
000001a0: 5698 73b9 816c 93b9 08fb 31b9 0699 9eb9
000001b0: 3e95 2a39 41c9 7839 980b 4639 d2ca e838
000001c0: e3f3 7539 75d4 3639 02f6 d938 6970 8739
000001d0: 3f99 4f39 6384 0239 1880 7239 c839 5039
000001e0: 92bb c838 91c8 8539 63dd 5939 a70f bb38
000001f0: e0f9 9639 0174 7b39 0e91 b939 15bf de39
00000200: 8c8b bc39 e55d 9d39 7de1 cc39 a78b a539
00000210: e65d 8139 80e9 c239 f4a8 9839 a687 8d39
00000220: c39c 7139 ec33 f038 3cf4 6a39 8be5 3a39
00000230: da43 7338 9603 e038 d482 a137 116c f9b8
00000240: 19b8 8e39 4861 7639 6770 1139 5bd1 5639
00000250: 54eb 2839 49cb 5e38 e83f a438 f3ba b5b4
00000260: 432c 10b9 e5b4 a438 2d64 2f39 5179 2539
00000270: dd66 2138 e2e8 d738 a6a8 ba38 72f3 a2b7
00000280: 5abe edb7 f40a afb8 3312 06ba d74b 41b9
00000290: 49de 8c39 07a5 19ba 2573 a8b9 023d 1c39
000002a0: e29d 24ba 5932 c1b9 9e17 c938 991d 0fba
000002b0: 393b 60b9 fb0f 9039 c33c 25ba 86d6 c1b9
000002c0: 5e83 0b39 7219 30ba 6300 dbb9 9c40 9938
000002d0: 1c9f 14ba b7d6 49b9 eede c439 9956 38ba
000002e0: 43f5 c6b9 e99e 5d39 6da6 44ba 4970 edb9
000002f0: 9c9c 2739 dd1d 2bba 927c 1ab9 8707 f139
00000300: 5efd 1fba 97f9 1ab9 4fc2 f339 007e 06ba
00000310: 737c 77b8 01ab 063a 4729 41ba d5ea 77b9
00000320: 2e2a e239 0528 35ba 112c 75b9 b5fb e239
00000330: 442f 1fba e602 21b9 0ffd f539 769d 7cba
00000340: 60a5 e5b9 cb00 8c39 5aaa 74ba 9098 e4b9
00000350: 4b53 9e39 5038 65ba 28c9 cbb9 d65b b739
00000360: e271 7fb9 66db 7738 1172 6d38 636d 79b9
00000370: 8405 8f38 4607 7038 cfd9 76b9 9831 a438
00000380: 6dc6 be38 12e2 85b9 d4df af38 9a03 e338
00000390: 5699 89b9 8805 ab38 051e e538 0c75 89b9
000003a0: 801f b638 c2ca 1739 c4a9 dfb9 b3c1 81b8
000003b0: 9aad 0638 d36d dbb9 8024 51b8 6bc5 9737
000003c0: 9310 e4b9 473a 96b8 a923 2738 b370 06ba
000003d0: 728f 1dba b3f2 3eba 55a4 8bb9 ab33 c3b9
000003e0: f731 1aba 0e39 1bb9 ba79 92b9 33ee 0fba
000003f0: 58c7 0aba c039 16ba be9c 45ba 81c7 84b9
