run_1/benchmark_experiment_increased_data/experience_1_2_3/model_experience_1_2_3.pth (torch, 849657 bytes, 36 tensors)

features.0.weight f4 [32, 3, 3, 3]
0.1341596 -0.12040427 -0.1759145 -0.07962855 0.13702622 -0.034741655 -0.12811641 -0.19445775
0.10307506 0.16095759 -0.15541345 0.06061637 0.16531967 0.16186523 -0.069561034 0.09720688
-0.14841288 -0.18382883 -0.12146664 0.1515421 0.041113365 -0.16463806 -0.044475004 -0.1847089
-0.18441337 0.04908309 0.02512053 -0.16567221 -0.10345552 -0.1349511 0.12259745 0.028416993
0.032263324 -0.17852762 -0.07403809 -0.1425655 0.0338188 -0.17155921 0.007605642 0.10962439
-0.07124655 0.17106578 -0.07594616 -0.17945273 0.1765833 -0.17622453 0.025438959 -0.14091302
0.01052965 0.070999034 -0.13396668 -0.12074434 0.02500084 0.054627046 -0.14007516 -0.063513026
0.05466723 -0.041235145 0.015658734 -0.12136795 0.17078303 0.044073712 0.16918413 -0.18955895
0.1731123 0.13088189 0.0026972473 -0.16305071 -0.146107 -0.14190874 0.020481104 -0.16184875
-0.012036074 0.14613587 -0.036147617 0.16087012 0.2004224 0.020696022 0.18243971 0.10073646
0.11325581 -0.025690781 0.165331 -0.050334737 -0.051875718 0.06435677 0.065578945 -0.11644383
-0.14891349 0.19408359 0.069538586 -0.04442185 -0.018521897 0.16105802 0.13822968 0.08085822
-0.050153602 0.17311864 0.10100228 -0.15644453 0.14484753 -0.07548893 0.07223732 0.05404085
-0.12169273 0.16603057 0.20259997 -0.11144115 -0.041947186 0.16102804 0.09704121 0.07162273
0.18712245 0.17782408 -0.07881497 0.11590211 -0.036017805 -0.15028976 0.103586696 0.031138558
-0.042061985 0.17318861 0.1948793 -0.066250265 -0.17528278 -0.09357878 -0.04158602 -0.19514813
0.022175604 -0.18177032 -0.033753105 0.023010595 -0.07667004 -0.088331595 0.110552296 -0.07673596
-0.18420275 0.14543353 -0.15580294 -0.10275404 0.11292585 0.18189579 -0.094354376 0.05708288
-0.08027416 -0.006041796 0.046200078 0.14162715 -0.10605832 0.13709219 0.16748765 0.16135429
-0.036083262 0.1731881 -0.14822052 0.13753907 0.07745064 0.041058015 -0.021214068 -0.1338361
-0.117443085 0.08091479 -0.11013827 -0.09552316 -0.091786936 -0.010735259 -0.15192002 0.06587131
0.19398385 0.03773389 -0.10040252 -0.17453827 -0.06249368 -0.14687742 0.13103649 -0.1194891
-0.058668397 0.005550364 -0.16179962 -0.015071595 0.16837917 0.15912363 -0.06936232 0.18416092
-0.16968773 0.124724 0.20013711 0.17747377 0.06599233 -2.4849503e-05 -0.0050632358 0.09890022
-0.022900358 -0.09126109 0.15437944 0.17339848 -0.1703674 -0.004158439 0.15006036 -0.16957696
-0.17613126 -0.06176992 -0.12696436 0.14066377 -0.070545115 0.07717985 0.05358168 0.112568475
0.1460603 0.03677369 -0.06516786 -0.04376612 -0.18489282 0.13757299 0.1905527 -0.13451347
0.09835 -0.017235972 0.13723452 0.15991879 0.087570116 -0.042040404 0.18600217 -0.040357832
-0.05178975 -0.18071546 0.03240855 -0.17297067 -0.17741215 0.17373034 -0.08832556 0.06304317
-0.10583851 0.12294086 -0.13451123 0.0935491 0.017561771 -0.07801394 0.11216351 -0.07882735
0.084417135 -0.16410318 -0.17384623 0.18872869 0.104911864 -0.18609977 0.2038019 0.20308708
-0.08875906 -0.1616244 0.14799869 0.18640348 0.15264706 -0.030579636 -0.07863164 0.0040783286
00000000: 2261 093e 8496 f6bd ee22 34be 4b14 a3bd
00000010: 9a50 0c3e 444d 0ebd f330 03be ef1f 47be
00000020: 0419 d33d 11d2 243e b424 1fbe df48 783d
00000030: 8f49 293e 00c0 253e 0476 8ebd 6714 c73d
00000040: 8cf9 17be a03d 3cbe 80c3 f8bd da2d 1b3e
00000050: 7d66 283d e196 28be 6c2b 36bd 5424 3dbe
00000060: dcd6 3cbe 5a0b 493d 92c9 cd3c faa5 29be
00000070: 7de0 d3bd 9f30 0abe 5f14 fb3d c1ca e83c
00000080: 8c26 043d f2cf 36be 48a1 97bd b1fc 11be
00000090: 9585 0a3d 38ad 2fbe c038 f93b c182 e03d
000000a0: b6e9 91bd de2b 2f3e a989 9bbd 75c2 37be
000000b0: 41d2 343e 3474 34be 5d65 d03c 814b 10be
000000c0: 8e84 2c3c f167 913d 902e 09be cf48 f7bd
000000d0: 90ce cc3c 9cc0 5f3d dd6f 0fbe 1e13 82bd
000000e0: bfea 5f3d 2fe6 28bd bf46 803c c38f f8bd
000000f0: bfe1 2e3e a386 343d 9b3e 2d3e be1b 42be
00000100: 5a44 313e e705 063e 4dc4 303b c4f6 26be
00000110: 139d 15be 8650 11be fdc7 a73c aebb 25be
00000120: f432 45bc a4a4 153e 860f 14bd 23bb 243e
00000130: 883b 4d3e b48a a93c 7ad1 3a3e eb4e ce3d
00000140: aaf2 e73d 7975 d2bc 884c 293e cc2b 4ebd
00000150: a27b 54bd 7bcd 833d 414e 863d 1a7a eebd
00000160: c77c 18be d9bd 463e 3f6a 8e3d b0f3 35bd
00000170: 3cbb 97bc 65ec 243e 158c 0d3e ff98 a53d
00000180: dd6d 4dbd 0346 313e 49da ce3d ff32 20be
00000190: e952 143e f199 9abd 29f1 933d f059 5d3d
000001a0: 0a3a f9bd eb03 2a3e 5e76 4f3e 423b e4bd
000001b0: d0d0 2bbd 89e4 243e 8bbd c63d f0ae 923d
000001c0: 079d 3f3e 8417 363e be69 a1bd 165e ed3d
000001d0: 6887 13bd 8fe5 19be 4325 d43d 4a16 ff3c
000001e0: 3049 2cbd 5b58 313e 708e 473e 38ae 87bd
000001f0: 547d 33be 3ba6 bfbd 1a56 2abd e9d4 47be
00000200: 9da9 b53c 0022 3abe b240 0abd b780 bc3c
00000210: 2f05 9dbd 32e7 b4bd 3e69 e23d be27 9dbd
00000220: a59f 3cbe 87ec 143e ce8a 1fbe b670 d2bd
00000230: ab45 e73d e442 3a3e de3c c1bd bdcf 693d
00000240: c766 a4bd 42fa c5bb 4b3c 3d3d b506 113e
00000250: 1b35 d9bd e561 0c3e e281 2b3e 0f3a 253e
00000260: 0bcc 13bd 3958 313e 1fc7 17be 0bd7 0c3e
00000270: 719e 9e3d 732c 283d 20c9 adbc 550c 09be
00000280: 0086 f0bd a7b6 a53d 2c90 e1bd a6a1 c3bd
00000290: cafa bbbd f1e2 2fbc ec90 1bbe 8ae7 863d
000002a0: b4a3 463e da8e 1a3d d69f cdbd 29ba 32be
000002b0: 5ff9 7fbd 0967 16be 6e2e 063e b4b6 f4bd
000002c0: 464e 70bd d4df b53b cdae 25be daee 76bc
000002d0: 976b 2c3e 4ef1 223e d50d 8ebd ae94 3c3e
000002e0: 9fc2 2dbe 4c6f ff3d bef0 4c3e afbb 353e
000002f0: fd26 873d e773 d0b7 80e9 a5bb 338c ca3d
00000300: 8899 bbbc 18e7 babd a515 1e3e 5f8f 313e
00000310: cb74 2ebe 8443 88bb 6ca9 193e 95a5 2dbe
00000320: c15b 34be 7502 7dbd f202 02be 2a0a 103e
00000330: f579 90bd 7810 9e3d 7778 5b3d 4d8a e63d
00000340: d590 153e 02a0 163d ba76 85bd 1a44 33bd
00000350: 8b54 3dbe efdf 0c3e 3f20 433e e6bd 09be
00000360: ba6b c93d 7432 8dbc 3587 0c3e c0c1 233e
00000370: f657 b33d 8f32 2cbd 5a77 3e3e 414e 25bd
00000380: 7d21 54bd 790d 39be d4be 043d 391f 31be
00000390: 88ab 35be 5ee6 313e 08e4 b4bd c71c 813d
000003a0: dcc1 d8bd 6bc8 fb3d 50bd 09be ac96 bf3d
000003b0: b4dd 8f3c c6c5 9fbd fbb5 e53d 3c70 a1bd
000003c0: e4e2 ac3d aa0a 28be bf04 32be 1842 413e
000003d0: 08dc d63d f090 3ebe 72b1 503e 0ff6 4f3e
000003e0: 4fc7 b5bd de80 25be f88c 173e 8ee0 3e3e
000003f0: 834f 1c3e 2582 fabc a009 a1bd 80a3 853b

features.0.bias f4 [32]
-0.10667102 -0.12618165 -0.11454105 -0.020262867 -0.09949752 0.036934614 -0.14649905 -0.11874403
0.0011607292 -0.13248987 -0.10269583 -0.034226593 -0.016231574 0.15682244 -0.05309698 0.1238781
-0.13275409 -0.1425981 0.13605438 0.03961857 0.038198885 0.07859989 -0.02911432 0.12952344
0.06505523 -0.1568637 0.03512024 -0.06107426 0.077737875 -0.058092497 -0.1663118 0.019570896
00000000: 5676 dabd c335 01be 7f94 eabd 50fe a5bc
00000010: 5bc5 cbbd c048 173d d903 16be 1230 f3bd
00000020: 9c23 983a 6dab 07be 3152 d2bd 2f31 0cbd
00000030: 14f8 84bc 1096 203e 387c 59bd cdb3 fd3d
00000040: b0f0 07be 3c05 12be d751 0b3e 1547 223d
00000050: 6f76 1c3d fbf8 a03d 2881 eebc cba1 043e
00000060: ad3b 853d e1a0 20be 3eda 0f3d 0129 7abd
00000070: 0935 9f3d 66f2 6dbd a44d 2abe 2553 a03c

features.2.weight f4 [32, 32, 3, 3]
0.043416843 0.027081048 0.015935296 0.03744729 -0.016774919 0.03983293 0.05660531 -0.006291594
0.07883405 0.053488106 0.043200288 0.059535373 -0.005962287 0.059682313 0.059632793 0.072884984
0.033153977 0.06747222 0.044555206 -0.008063988 -0.03148078 -0.0004207991 0.037819497 -0.05464574
-0.04186343 -0.046782847 0.035719015 0.042741884 0.018230734 -0.05949311 -0.029967388 -0.05336559
-0.057461686 -0.07444717 -0.028772432 -0.016850173 -0.06418057 -0.06210371 0.006054224 0.047819372
0.02080861 -0.034437675 0.034253217 -0.010198355 0.020417202 -0.030958507 0.011838034 0.037323743
-5.5335426e-05 -0.0430905 0.014183928 -0.03445517 -0.03870302 0.00041276414 -0.013562834 -0.053438775
-0.034746353 0.016574029 -0.05664468 -0.05867741 -0.022931147 -0.06968823 0.0008325304 0.048744824
-0.0067232167 0.03064367 -0.026430514 0.008052499 -0.0341906 0.016320672 -0.0067321137 -0.033960517
0.03340495 -0.0037953241 -0.0636345 0.018254692 -0.025145812 -0.045323532 0.029504757 0.029868936
0.011564346 0.039909855 0.04688356 -0.007496292 -0.0071633947 -0.00084284507 -0.05046194 -0.04902246
-0.056707434 -0.0146809835 0.027808908 0.06591006 0.031206297 0.025692435 0.022871755 0.04407587
-0.030910669 -0.021788975 -0.013709313 -0.059790894 -0.038668826 0.0038599349 0.04598083 -0.051874135
0.024472041 0.020790223 0.04801717 -0.03550035 -0.06720571 0.028352687 0.030915048 0.019814348
0.0048066597 -0.033006627 -0.008636521 0.02361789 -0.016841212 0.008932806 -0.033546135 -0.051274534
-0.019638093 0.03316283 -0.033425782 0.015654452 0.0012535885 -0.04185082 0.04925829 -0.0031598725
0.0770644 0.061538734 -0.020022776 0.067382604 0.07137263 0.0766644 -0.01730642 -0.054963958
-0.051963873 -0.029026615 0.057984196 -0.03229087 -0.036698144 -0.012023094 0.038817037 -0.004417592
-0.06363392 -0.059083767 -0.055175863 -0.043323934 -0.06145725 -0.060845073 -0.028500175 0.020977316
-0.05371426 0.037447963 -0.04854389 0.030622559 -0.019036185 0.018635988 0.014445326 -0.0229961
-0.055688236 0.012156633 3.6661684e-05 0.013243415 -0.056427624 0.037100706 0.033048235 0.029204069
-0.0013899797 -0.063460566 0.043950744 -0.031468995 0.0014851528 -0.0155951325 0.049267273 0.031646103
0.047574192 0.045561783 -0.056501083 -0.017698804 -0.0070438622 -0.039050434 -0.014985493 -0.052288752
0.009260854 0.0047755237 -0.03120901 -0.047214955 -0.026450856 0.030216126 0.046186022 -0.021136876
0.0023420027 0.00799904 0.012350309 -0.026297988 0.06085491 0.048711695 -0.013831967 -0.0632828
-0.010521915 -0.00951032 -0.009884511 -0.028198224 -0.06848109 0.007769933 -0.033838756 0.029679824
0.046509627 -0.03970294 -0.022508714 0.008139621 0.059732605 0.056166496 -0.016530003 0.070838645
-0.058245424 0.04139489 -0.017066984 0.033027034 0.03878586 -0.051331095 0.014181007 -0.06368123
0.037951253 0.03109401 0.04953673 0.0045388364 -0.014762985 0.030493265 -0.031321805 0.045405213
-0.042179324 -0.021269286 0.063862756 -0.006915162 0.036507435 -0.0130320145 -0.04765253 0.06007299
-0.0027879903 0.003070351 -0.01835075 0.013576961 0.018556714 0.048049487 -0.06432262 0.003246705
-0.034005854 0.00664102 -0.016601585 0.030880356 -0.020600261 0.046783306 0.05573226 -0.007018468
00000000: dcd5 313d 13d9 dd3c bd8a 823c 5462 193d
00000010: 8e6b 89bc db27 233d f8da 673d b729 cebb
00000020: bf73 a13d 5816 5b3d c9f2 303d 5ddb 733d
00000030: 4a5f c3bb 7175 743d 8441 743d b944 953d
00000040: 77cc 073d e02e 8a3d 857f 363d d11e 04bc
00000050: fef1 00bd b39e dcb9 9ee8 1a3d 36d4 5fbd
00000060: fd78 2bbd 5f9f 3fbd 1a4e 123d 1d12 2f3d
00000070: 9f58 953c 0caf 73bd 2b7e f5bc e095 5abd
00000080: f25c 6bbd c277 98bd 2ab4 ebbc 6009 8abc
00000090: 1a71 83bd 7660 7ebd 8362 c63b 3fde 433d
000000a0: d176 aa3c 850e 0dbd 1a4d 0c3d 0017 27bc
000000b0: fa41 a73c b29c fdbc 50f4 413c c8e0 183d
000000c0: f617 68b8 aa7f 30bd b563 683c dd20 0dbd
000000d0: 0f87 1ebd 4468 d839 a636 5ebc 9ee2 5abd
000000e0: 3152 0ebd 42c6 873c 4104 68bd b957 70bd
000000f0: 1ada bbbc b4b8 8ebd 2b3e 5a3a a7a8 473d
00000100: 6e4e dcbb 6f08 fb3c ce84 d8bc a1ee 033c
00000110: 710b 0cbd eeb2 853c 1099 dcbb 2f1a 0bbd
00000120: a1d3 083d f9ba 78bb ce52 82bd dd8a 953c
00000130: 97fe cdbc 2ba5 39bd f6b3 f13c b3af f43c
00000140: 6278 3d3c 8478 233d fa08 403d 74a3 f5bb
00000150: e9ba eabb 60f2 5cba 2eb1 4ebd c6cb 48bd
00000160: 0e46 68bd 8288 70bc 82cf e33c dbfb 863d
00000170: 59a4 ff3c f178 d23c 8c5d bb3c e688 343d
00000180: 5f38 fdbc cb7e b2bc 079d 60bc 4ce7 74bd
00000190: 3463 1ebd f6f6 7c3b 6556 3c3d f979 54bd
000001a0: 9779 c83c 4250 aa3c a7ad 443d d168 11bd
000001b0: 26a3 89bd e543 e83c 8e41 fd3c b351 a23c
000001c0: 2f81 9d3b f531 07bd 3280 0dbc 4e7a c13c
000001d0: 95f6 89bc e75a 123c ac67 09bd 3f05 52bd
000001e0: 11e0 a0bc bfd5 073d 79e9 08bd c43d 803c
000001f0: 734f a43a c46b 2bbd 10c3 493d dd15 4fbb
00000200: f1d3 9d3d 0a10 7c3d ce06 a4bc e4ff 893d
00000210: d02b 923d 3a02 9d3d 31c6 8dbc e321 61bd
00000220: 12d8 54bd 39c9 edbc d680 6d3d 6e43 04bd
00000230: cb50 16bd 83fc 44bc 9dfe 1e3d 73c1 90bb
00000240: 8052 82bd d201 72bd 1600 62bd 7074 31bd
00000250: 99ba 7bbd af38 79bd 3379 e9bc 9fd8 ab3c
00000260: 7c03 5cbd 0963 193d f5d5 46bd 29dc fa3c
00000270: c6f1 9bbc 80aa 983c 17ac 6c3c 5162 bcbc
00000280: 5919 64bd 9d2c 473c 2fc5 1938 e9fa 583c
00000290: a720 67bd e9f6 173d 965d 073d 5f3d ef3c
000002a0: fb2f b6ba 9df7 81bd b205 343d a2e5 00bd
000002b0: 75a9 c23a ba82 7fbc 7bcc 493d 589f 013d
000002c0: 28dd 423d fe9e 3a3d ae6d 67bd 15fd 90bc
000002d0: 33d0 e6bb 59f3 1fbd b785 75bc bb2c 56bd
000002e0: d6ba 173c ff7b 9c3b 0aaa ffbc 7864 41bd
000002f0: 77af d8bc cf87 f73c 8e2d 3d3d 3e27 adbc
00000300: 497c 193b 680e 033c f358 4a3c e16e d7bc
00000310: 0043 793d ea85 473d 799f 62bc 6a9a 81bd
00000320: 1c64 2cbc 2cd1 1bbc a5f2 21bc f6ff e6bc
00000330: d03f 8cbd ec9a fe3b 829a 0abd 1a23 f33c
00000340: e180 3e3d 8d9f 22bd 3264 b8bc 0b5c 053c
00000350: 2daa 743d d70e 663d ee69 87bc da13 913d
00000360: c192 6ebd b08d 293d 0fd0 8bbc 5b47 073d
00000370: ecdd 1e3d 8e40 52bd 7457 683c 4e6b 82bd
00000380: c672 1b3d deb8 fe3c 07e7 4a3d 85ba 943b
00000390: 72e0 71bc 03cd f93c 4b4b 00bd d1fa 393d
000003a0: 3ac4 2cbd ed3c aebc 7aca 823d 9598 e2bb
000003b0: d288 153d 3b84 55bc 4d2f 43bd 180f 763d
000003c0: b7b6 36bb f137 493b 5054 96bc e771 5e3c
000003d0: 4004 983c 8acf 443d 94bb 83bd acc6 543b
000003e0: b949 0bbd ea9c d93b 0c00 88bc cdf8 fc3c
000003f0: e1c1 a8bc da9f 3f3d 8347 643d 2dfb e5bb

features.2.bias f4 [32]
-0.014521373 0.058144927 -0.016422711 -0.039659716 0.017327176 -0.0105710365 0.008103501 0.015188259
0.014422459 -0.009121883 -0.006638394 -0.029019313 -0.0051517477 -0.034675747 0.005641361 -0.009533501
0.044538014 -0.0030922866 0.029580936 0.054464925 -0.035270263 -0.0059050336 -0.012513225 -0.009238174
-0.008533713 -0.029914632 0.009967267 -0.010020614 -0.039904952 -0.042187218 0.047346536 0.012113988
00000000: 0eeb 6dbc 6029 6e3d ec88 86bc 3a72 22bd
00000010: b9f1 8d3c 2432 2dbc 8cc4 043c 2dd8 783c
00000020: 2d4c 6c3c f373 15bc e386 d9bb e9b9 edbc
00000030: fecf a8bb 2808 0ebd 2adb b83b 6732 1cbc
00000040: 7e6d 363d f6a7 4abb b853 f23c 9d16 5f3d
00000050: 8d77 10bd 037f c1bb 4504 4dbc b65b 17bc
00000060: fdd0 0bbc 880f f5bc bf4d 233c 802d 24bc
00000070: 6073 23bd 81cc 2cbd 71ee 413d c079 463c

features.5.weight f4 [64, 32, 3, 3]
0.0115875695 0.027994849 0.036793754 0.03305561 -0.012037688 0.044850964 -0.024785854 -0.010990816
-0.03276676 0.033114735 0.0064598196 0.01783551 0.031478494 0.022492608 0.024150236 -0.023848502
-0.045222506 -0.0493959 -0.02054746 0.004232242 -0.010419446 0.016622294 0.008337397 0.049763624
0.054522615 -0.008594978 -0.023910692 0.031008648 0.00096323236 0.014673295 0.0043838606 -0.053310413
-0.028664334 -0.049831472 -0.07038729 0.009288788 0.04277829 -0.04860539 0.019594187 0.03629288
-0.009283429 0.034253664 -0.047865506 -0.046629786 -0.031823166 0.02312801 -0.020767502 -0.029036753
0.03841678 0.03738071 -0.036112156 -0.044090174 0.043712646 0.021627808 -0.011305098 -0.01863948
-0.007213554 -0.0402808 0.045589224 0.0026188088 -0.016502604 0.0039979382 0.041786637 -0.056951076
-0.046389397 -0.0013307773 -0.03667258 0.028974686 0.031684317 0.02774798 0.042360988 -0.039218545
0.007000832 0.005334444 0.0290668 0.04002144 -0.028346136 -0.013738494 -0.02501728 -0.017629497
-0.037957888 0.027964987 -0.023007648 -0.023920657 0.019928604 -0.0055628344 -0.0026323244 -0.049971063
0.031704307 0.029987507 -0.062170938 -0.022352966 0.030676095 0.038620677 -0.039920162 -0.066366926
-0.024422029 0.0023990078 -0.06845847 0.06566751 0.023115586 -0.042164564 0.034266256 -0.023283008
-0.04593464 -0.013827864 -0.01644698 -0.004047676 -0.052951425 0.038464848 -0.04004301 -0.04316304
-0.07877138 -0.053070113 0.0034417608 -0.056108255 -0.016351948 0.014983766 -0.014840435 -0.020193418
-0.043352038 0.052104704 -0.0016321397 0.030688878 -0.051071703 -0.016629737 -0.0013432403 -0.006450298
0.0004773777 -0.0060774274 0.00040600207 0.0016825947 0.0019106852 0.011143038 0.0068875556 -0.026735082
-0.03623542 -0.023096541 -0.06451525 0.042210136 -0.0023934052 -0.040774923 -0.053668268 -0.015265839
-0.026979698 -0.046200752 -0.017726662 -0.023219308 0.032473613 0.018212132 0.014247512 0.022854792
0.034616083 -0.014261971 0.011371093 -0.05282044 0.03913214 -0.011162951 0.003343157 0.024601864
0.017775498 -0.0066754124 -0.040546555 0.051532254 -0.036988426 0.02219508 -0.012804282 0.04176742
0.04327173 0.048011485 0.006205272 0.052592337 -0.016775731 0.040197097 -0.0096001 -0.027559195
0.050568875 -7.528314e-05 -0.00666102 0.059203 0.048977494 -0.023832753 -0.0015183397 0.047076818
-0.009169298 -0.04086781 -0.039032422 -0.042526394 0.010137563 0.009811942 -0.009754389 0.045295727
0.045048963 0.06353033 0.053338766 0.052066706 0.028588872 -0.022159616 0.04062826 -0.0023463126
-0.017512208 -0.013990151 0.007845259 -0.080560185 -0.042621013 0.004499353 -0.06742349 -0.034049813
-0.022432022 0.045402948 -0.02367176 -0.03961251 -0.04047585 -0.023173176 0.02843923 0.04492158
0.0016304471 -0.043526005 0.006915404 -0.014324615 0.017836671 0.046796106 -0.05521322 0.013021883
-0.031709686 0.004345725 0.024935331 0.016419046 -0.044346794 -0.03413076 -0.040613897 -0.06520191
-0.020764446 0.020822842 0.055597045 0.056703694 -0.017536193 0.041750982 -0.005734613 -0.052604586
0.0066055884 0.022922507 -0.028748494 -0.026083924 0.038933598 -0.033813655 -0.022841834 -0.009471914
-0.01206062 0.059937805 0.0031255053 -0.044241592 0.05418112 -0.05370305 -0.0141810505 -0.024391834
00000000: cad9 3d3c 7455 e53c 0cb5 163d 5265 073d
00000010: b939 45bc a5b5 373d b40b cbbc d312 34bc
00000020: 7036 06bd 51a3 073d e5ac d33b c71b 923c
00000030: 98ef 003d 6b42 b83c b7d6 c53c ef5d c3bc
00000040: 3c3b 39bd 5b53 4abd 2653 a8bc 9eae 8a3b
00000050: 53b6 2abc 7a2b 883c 9499 083c f1d4 4b3d
00000060: 1b53 5f3d f3d1 0cbc 5be0 c3bc d905 fe3c
00000070: 6e81 7c3a 4368 703c 7da6 8f3b 055c 5abd
00000080: 77d1 eabc 161c 4cbd 3627 90bd 0030 183c
00000090: 4a38 2f3d 7216 47bd fd83 a03c d8a7 143d
000000a0: 8619 18bc 924d 0c3d 9f0e 44bd e0fe 3ebd
000000b0: 0259 02bd f476 bd3c 9c20 aabc 7cde edbc
000000c0: ea5a 1d3d 841c 193d 57ea 13bd e697 34bd
000000d0: 080c 333d cd2c b13c 0539 39bc d3b1 98bc
000000e0: ad5f ecbb 7bfd 24bd c4bb 3a3d 52a0 2b3b
000000f0: 7830 87bc 2301 833b 7728 2b3d 8845 69bd
00000100: cf02 3ebd 7a6d aeba fd35 16bd 525c ed3c
00000110: 6ac7 013d bb4f e33c b782 2d3d a0a3 20bd
00000120: 3c67 e53b 8fcc ae3b 7f1d ee3c 85ed 233d
00000130: 2836 e8bc 6c17 61bc 0af1 ccbc bc6b 90bc
00000140: bb79 1bbd d416 e53c 897a bcbc 41f5 c3bc
00000150: 5041 a33c 7048 b6bb 1383 2cbb 75ae 4cbd
00000160: 60dc 013d 5ca8 f53c f4a6 7ebd 911d b7bc
00000170: 6f4c fb3c b730 1e3d 5383 23bd 62eb 87bd
00000180: b510 c8bc ac38 1d3b f433 8cbd b07c 863d
00000190: e65c bd3c c0b4 2cbd c65a 0c3d 02bc bebc
000001a0: f625 3cbd 448e 62bc d1bb 86bc 5ea2 84bb
000001b0: 98e3 58bd 518d 1d3d 2404 24bd bacb 30bd
000001c0: e452 a1bd 0c60 59bd 2a8f 613b c5d1 65bd
000001d0: 85f4 85bc 787e 753c 4c25 73bc ab6c a5bc
000001e0: e891 31bd be6b 553d 85ed d5ba 3e67 fb3c
000001f0: 9030 51bd 163b 88bc aa0f b0ba 055d d3bb
00000200: 8d48 fa39 2825 c7bb addc d439 828a dc3a
00000210: f56f fa3a 4a91 363c 01b1 e13b 8803 dbbc
00000220: 976b 14bd f534 bdbc 9220 84bd 89e4 2c3d
00000230: adda 1cbb 9b03 27bd 42d3 5bbd 921d 7abc
00000240: 8704 ddbc 003d 3dbd 8137 91bc 6b36 bebc
00000250: 0d03 053d 9c31 953c 666e 693c f939 bb3c
00000260: 98c9 0d3d 0bab 69bc d24d 3a3c 3f5a 58bd
00000270: 0649 203d cfe4 36bc de18 5b3b d989 c93c
00000280: ec9d 913c 6bbd dabb 2514 26bd 7c13 533d
00000290: 2d81 17bd 75d2 b53c 0dc9 51bc 5014 2b3d
000002a0: b33d 313d b1a7 443d 9855 cb3b 106b 573d
000002b0: 426d 89bc b6a5 243d bd49 1dbc d2c3 e1bc
000002c0: 4f21 4f3d 54e1 9db8 b044 dabb d87e 723d
000002d0: a09c 483d e83c c3bc 0703 c7ba 9fd3 403d
000002e0: d33a 16bc 0165 27bd 76e0 1fbd 2830 2ebd
000002f0: 0518 263c 45c2 203c dfd0 1fbc 0388 393d
00000300: 4385 383d 311c 823d c079 5a3d e643 553d
00000310: 3633 ea3c 1588 b5bc d169 263d 98c4 19bb
00000320: c375 8fbc f236 65bc 6789 003c bdfc a4bd
00000330: 5f93 2ebd 4f6f 933b 5415 8abd d177 0bbd
00000340: 5cc3 b7bc 71f8 393d 47eb c1bc ba40 22bd
00000350: 01ca 25bd acd5 bdbc 63f9 e83c b1ff 373d
00000360: bab4 d53a 5348 32bd 9d9a e23b cab1 6abc
00000370: 361e 923c 46ad 3f3d 4227 62bd bc59 553c
00000380: 04e2 01bd 9566 8e3b 2e45 cc3c 3c81 863c
00000390: fca4 35bd b2cc 0bbd c25a 26bd 9488 85bd
000003a0: 331a aabc aa94 aa3c bab9 633d 2242 683d
000003b0: 10a8 8fbc 1403 2b3d 6ce9 bbbb e877 57bd
000003c0: b173 d83b fbc7 bb3c f681 ebbc f4ad d5bc
000003d0: d678 1f3d 3080 0abd cc1e bbbc 1630 1bbc
000003e0: e899 45bc 5881 753d 47d5 4c3b ac36 35bd
000003f0: 06ed 5d3d bbf7 5bbd a357 68bc 62d1 c7bc

features.5.bias f4 [64]
-0.044427752 -0.020910082 0.020253452 -0.026534095 0.020994533 -0.03051281 -0.001530216 -0.040756803
0.03463975 0.043613885 -0.035128996 -0.0050267214 0.051133916 -0.0055180187 -0.042205025 -0.027335534
0.0014379803 -0.014699803 -0.017996904 0.032567233 -0.016051551 0.034953833 -0.0095427465 0.03893519
0.00038543408 -0.03818522 0.05117907 0.053752333 -0.038852546 -0.02833799 -0.03266734 -0.011589525
0.0609764 0.0078493375 -0.007542628 0.039969135 0.055841807 0.030857926 -0.0035416628 -0.022854006
0.0007030399 -0.012502878 -0.007734891 -0.039792933 -0.03755657 -0.0117713995 0.024309324 0.030427156
-0.024097782 0.020323614 0.065184735 -0.038578246 0.031855904 -0.024150684 -0.009123868 0.041134927
0.0046020155 0.0070021376 -0.015836757 0.029918473 0.06841267 -0.043138225 -0.027673246 0.05037686
00000000: e0f9 35bd 9f4b abbc 91ea a53c 085e d9bc
00000010: bafc ab3c 00f6 f9bc 8791 c8ba 9bf0 26bd
00000020: 69e2 0d3d 79a4 323d 6ce3 0fbd 32b7 a4bb
00000030: cc71 513d 7fd0 b4bb 2ddf 2cbd c5ee dfbc
00000040: 9d7a bc3a 71d7 70bc 3e6e 93bc 3865 053d
00000050: 8b7e 83bc c02b 0f3d 2e59 1cbc 817a 1f3d
00000060: 1614 ca39 1b68 1cbd 25a1 513d 682b 5c3d
00000070: d923 1fbd 1325 e8bc 30ce 05bd fee1 3dbc
00000080: 64c2 793d 829a 003c 2628 f7bb adb6 233d
00000090: 61ba 643d c3c9 fc3c 3e1b 68bb 5338 bbbc
000000a0: 364c 383a dfd8 4cbc f874 fdbb eafd 22bd
000000b0: ebd4 19bd d4dc 40bc 5924 c73c 5f42 f93c
000000c0: b668 c5bc b57d a63c 937f 853d 3904 1ebd
000000d0: 567b 023d a8d7 c5bc 477c 15bc 197d 283d
000000e0: 81cc 963b 3072 e53b 16bc 81bc 9617 f53c
000000f0: f11b 8c3d b5b1 30bd 01b3 e2bc f757 4e3d

features.7.weight f4 [64, 64, 3, 3]
0.023136236 -0.008553303 0.020946344 -0.028983578 -0.0042437236 -0.01767405 -0.0016751958 0.01784797
-0.036579974 0.03443742 -0.007296813 -0.022048173 0.0080638295 -0.028060362 -0.036929876 0.009166764
0.0005217675 -0.02868049 -0.033548594 -0.029393842 -0.008302109 -0.022140577 0.031984974 0.008267713
0.017072462 -0.028116161 0.043081515 0.03456963 0.006989358 -0.0067299576 -0.013459404 3.4025197e-05
-0.027040204 -0.01848184 0.036322407 -0.021527268 0.030205183 -0.016646428 0.017518897 -0.019074058
-0.014875143 0.002749204 -0.02673376 -0.039712295 0.0052806223 0.025403205 0.012096212 -0.029123534
0.036922645 0.0035921207 -0.015087321 -0.00056182896 0.029560536 -0.032240562 -0.00023213145 -0.00016946995
-0.00021300782 -0.0002661714 -0.00020339295 -0.0002723455 -0.0002617023 -0.00021142268 -0.0002619025 0.021109428
0.010341618 0.034536574 -0.019034866 -0.013696806 -0.0036537307 0.03182428 0.008364245 -0.016977046
0.033117007 -0.0064158584 -0.01944257 0.017397698 -0.024778562 -0.021078302 0.029397264 -0.010198315
0.011295756 -0.029653175 0.017831746 0.0093905 -0.041166484 -0.026487777 0.014335812 0.0029539661
-0.0002520675 -0.002218014 0.019836288 0.032505523 -0.0072605587 0.0045468565 -0.016818099 -0.005946472
0.0049374723 -0.0076054563 -0.02678668 -0.011039647 0.03480589 -0.007907512 0.018112058 0.03844923
0.0040026796 -0.012156802 0.022865774 -0.045278944 -0.05171146 -0.01190611 0.0011069927 -0.041346375
-0.011888588 0.014347087 -0.010379887 -0.01397341 -0.013762972 -0.04954278 -0.03233829 0.00577655
-0.02784457 0.02428183 0.040381003 0.01564995 0.007341654 -0.026178136 -0.025720056 0.038247544
0.0012522894 0.043607607 -0.030970987 0.043198366 0.025724616 0.01720934 0.030991476 0.034508865
-0.031283204 -0.030753938 -0.030583993 0.0034135343 0.024252638 -0.024968255 -0.027242938 -0.023307279
-0.019885758 -0.007048657 -0.0058188895 0.012072272 0.020056384 -0.0020956625 -0.02014449 -0.044642676
-0.04310975 0.020304224 -0.023701863 -0.03132487 -0.0056202603 0.039011773 -0.020188276 0.0501625
-0.0027552727 -0.014076365 0.025935007 -0.030594103 0.016783098 0.034544546 0.012020655 0.033792663
-0.0066683427 -0.03824244 0.00084397005 -0.020461014 -0.035173036 -0.030985905 -0.040063623 -0.0022893245
0.03022106 -0.005056846 0.025190355 0.0031350176 -0.035901476 -0.003959933 -0.015149412 0.022038521
-0.03952135 -0.0317537 -0.047070753 -0.037811078 -0.044888962 0.0135425385 0.022207342 0.017075563
0.023412071 0.028357651 -0.032412577 0.02828485 0.0002689657 0.0003284323 -0.028869454 -0.003811892
-0.007944425 0.004871997 -0.016502937 0.018626342 -0.036065858 -0.0019678064 0.007810644 0.024008103
0.0502351 0.0126559865 0.030158244 0.0115504805 -0.013105996 0.009932083 -0.023486892 -0.0037842796
-0.033162113 0.00066639483 0.016025133 -0.017494652 -0.021641705 -0.017140498 -0.0028687133 -0.00545494
-0.006984936 0.030606555 -0.013566715 0.0136287995 -0.013950739 0.04689368 0.022671985 -0.020820245
-0.020153277 -0.030205885 -0.0021996377 0.020404967 0.03676976 0.03177728 0.00542029 0.0041326117
0.010892088 0.009248187 0.023564182 -0.010852167 0.0021209333 -0.04652876 0.023886722 -0.019817922
-0.036719684 -0.03105865 -0.03750474 -0.015010938 -0.015850125 0.0009019577 0.015520107 0.02915121
00000000: 3488 bd3c 2723 0cbc ab97 ab3c f86e edbc
00000010: ef0e 8bbb 2bc9 90bc 3e92 dbba e835 923c
00000020: e2d4 15bd 410e 0d3d 1b1a efbb 5f9e b4bc
00000030: 271e 043c d8de e5bc c843 17bd 3230 163c
00000040: 39c7 083a 59f3 eabc 406a 09bd 5bcb f0bc
00000050: 9205 08bc 2860 b5bc ad02 033d 4d75 073c
00000060: 8cdb 8b3c dd53 e6bc 3e76 303d e298 0d3d
00000070: fc06 e53b fa86 dcbb d584 5cbc 47b6 0e38
00000080: 6b83 ddbc 3a67 97bc cec6 143d f459 b0bc
00000090: dc70 f73c 175e 88bc ca83 8f3c 3341 9cbc
000000a0: dfb6 73bc fd2b 343b c200 dbbc 5ca9 22bd
000000b0: 1209 ad3b 621a d03c 312f 463c 7a94 eebc
000000c0: 333c 173d c969 6b3b d030 77bc b447 13ba
000000d0: f028 f23c ae0e 04bd 5068 73b9 beb3 31b9
000000e0: da5a 5fb9 ec8c 8bb9 e145 55b9 98c9 8eb9
000000f0: 1735 89b9 58b1 5db9 f54f 89b9 aeed ac3c
00000100: e46f 293c 3976 0d3d 02ef 9bbc 9168 60bc
00000110: 6e73 6fbb 2d5a 023d 300a 093c 7213 8bbc
00000120: b3a5 073d 1f3c d2bb 0646 9fbc 9e85 8e3c
00000130: 69fc cabc 67ac acbc 88d2 f03c d516 27bc
00000140: d611 393c 37eb f2bc e213 923c 9dda 193c
00000150: 309e 28bd e5fc d8bc c1e0 6a3c 5497 413b
00000160: ed27 84b9 1a5c 11bb b67f a23c 8324 053d
00000170: fbe9 edbb ccfd 943b 1cc6 89bc 9fda c2bb
00000180: 85ca a13b 3137 f9bb bd6f dbbc a3df 34bc
00000190: 9f90 0e3d 828e 01bc bd5f 943c f17c 1d3d
000001a0: e928 833b 532d 47bc 0151 bb3c 6a76 39bd
000001b0: 65cf 53bd d811 43bc 8318 913a d15a 29bd
000001c0: 5ac8 42bc 0b10 6b3c 6710 2abc bbf0 64bc
000001d0: 177e 61bc 5fed 4abd 2875 04bd 3749 bd3b
000001e0: 4c1a e4bc b0ea c63c 8d66 253d 5334 803c
000001f0: 4292 f03b 8873 d6bc deb2 d2bc 75a9 1c3d
00000200: dc23 a43a e49d 323d deb6 fdbc c5f0 303d
00000210: 6ebc d23c 9afa 8c3c d6e1 fd3c 2b59 0d3d
00000220: d122 00bd afef fbbc 488b fabc 9ab5 5f3b
00000230: 78ad c63c 3a8a ccbc 952c dfbc e8ee bebc
00000240: 75e7 a2bc 6cf8 e6bb 62ac bebb c7ca 453c
00000250: 494d a43c 6257 09bb 0f06 a5bc 3ddb 36bd
00000260: d993 30bd 0b55 a63c 692a c2bc 824e 00bd
00000270: 292a b8bb cfca 1f3d e261 a5bc 3277 4d3d
00000280: ce91 34bb 8ea0 66bc a775 d43c 7ca0 fabc
00000290: b57c 893c 957e 0d3d 48f2 443c 2d6a 0a3d
000002a0: 1d82 dabb 1ba4 1cbd df3d 5d3a db9d a7bc
000002b0: 9a11 10bd 27d6 fdbc c119 24bd 7e08 16bb
000002c0: 2892 f73c e6b3 a5bb 015c ce3c de74 4d3b
000002d0: 6d0d 13bd 53c2 81bb 3d35 78bc 218a b43c
000002e0: 24e1 21bd 2b10 02bd 43cd 40bd cadf 1abd
000002f0: 7ddd 37bd 86e1 5d3c 2cec b53c 0de2 8b3c
00000300: acca bf3c 4e4e e83c 0dc3 04bd a1b5 e73c
00000310: f703 8d39 7031 ac39 a27f ecbc efd0 79bb
00000320: 5529 02bc 46a5 9f3b 2b31 87bc 4596 983c
00000330: cbb9 13bd 50f6 00bb 6ef0 ff3b a4ac c43c
00000340: 52c3 4d3d 0e5b 4f3c 6c0e f73c 3a3e 3d3c
00000350: 88ba 56bc 2dba 223c 9567 c0bc ad01 78bb
00000360: ffd4 07bd 00b1 2e3a 2447 833c f250 8fbc
00000370: f249 b1bc 3b6a 8cbc 0601 3cbb 5abf b2bb
00000380: e4e1 e4bb 99ba fa3c ed46 5ebc 544b 5f3c
00000390: a491 64bc 9613 403d 99ba b93c 388f aabc
000003a0: 7c18 a5bc 5572 f7bc cc27 10bb 5128 a73c
000003b0: e39b 163d e528 023d b09c b13b dc6a 873b
000003c0: ba74 323c b585 173c ac09 c13c 4acd 31bc
000003d0: 5bff 0a3b f194 3ebd 16ae c33c 3259 a2bc
000003e0: 6167 16bd b66e febc 929e 19bd 70f0 75bc
000003f0: 1fd8 81bc 5b71 6c3a 0c48 7e3c 85ce ee3c

features.7.bias f4 [64]
-0.017636474 -0.0020781374 0.04499511 0.022925358 -0.0030230451 -0.00800758 0.039768096 0.020492895
0.028967492 -0.037428305 0.035870425 0.015010467 0.00783672 -0.027405992 -0.015208804 0.022934565
0.048811685 0.02838038 -0.008718323 -0.039412323 0.0336781 0.009311453 -0.0120401615 0.009673481
-0.022674218 0.025300538 -0.032253373 -0.012703274 0.022420999 0.03321229 -0.016846228 -0.02842
0.031132646 0.023753013 -0.02464075 0.03617897 -0.012659898 0.015595841 -0.024677936 -0.001196492
-0.01564312 -0.037003558 -0.018774388 0.040879577 -0.032322034 0.036599938 0.052464534 -0.03745195
-0.025241343 -0.037560426 -0.016500724 0.0321146 0.04430851 0.016847204 0.037706386 0.01825106
0.026642928 0.023203311 0.013107612 0.01803083 -0.009007177 -0.008229809 0.0010184504 -0.0070266174
00000000: 5e7a 90bc 5c31 08bb cb4c 383d f6cd bb3c
00000010: 481e 46bb 3a32 03bc dfe3 223d b7e0 a73c
00000020: 3c4d ed3c 6c4e 19bd deec 123d 76ee 753c
00000030: 9665 003c 8882 e0bc 592e 79bc 45e1 bb3c
00000040: c3ee 473d f87d e83c 4cd7 0ebc d16e 21bd
00000050: 0cf2 093d 118f 183c 1944 45bc 857d 1e3c
00000060: 48bf b9bc 1343 cf3c 1d1c 04bd 6521 50bc
00000070: 3eac b73c 9c09 083d 1a01 8abc 0fd1 e8bc
00000080: e409 ff3c ae95 c23c 66db c9bc 6630 143d
00000090: 766b 4fbc b385 7f3c 6229 cabc 9cd3 9cba
000000a0: 0026 80bc 0b91 17bd bfcc 99bc 5871 273d
000000b0: 1c64 04bd d1e9 153d 0de5 563d 3767 19bd
000000c0: efc6 cebc f6d8 19bd 872c 87bc 998a 033d
000000d0: d77c 353d 2603 8a3c 0372 1a3d 3f83 953c
000000e0: 4542 da3c df14 be3c 4fc1 563c 64b5 933c
000000f0: d792 13bc 52d6 06bc 867d 853a 8a3f e6bb

features.10.weight f4 [64, 64, 1, 1]
-0.096579984 0.09851464 0.021340704 0.029252889 -0.044623807 0.0596644 -0.094844975 0.06369474
0.04444027 0.022431388 -0.06818878 -0.08591763 -0.059031542 -0.075563915 0.03164581 0.1176522
-0.105422586 -0.07145704 -0.039770227 0.007915932 0.030532258 -0.047051806 0.08271021 0.10857418
-0.0020203323 -0.008510655 0.09448614 0.0026191322 -0.043791134 0.10294782 -0.12214621 -0.043889478
-0.07135616 -0.10189674 0.025122965 -0.066911854 0.06762167 0.0028569493 -0.03728215 -0.12535116
0.014378891 -0.10648631 -0.08095032 -0.08884307 -0.061632194 0.080252275 0.09100673 1.58949e-05
0.09749757 0.05663745 -0.068917915 -0.011658004 0.09828892 0.012678554 -0.09558558 -0.00312721
0.09061053 0.0022638459 0.015497889 -0.060682688 -0.068273544 -0.09657648 0.014725163 -1.4339607e-33
-0.032824457 -0.09403809 -0.0518915 -0.07612255 0.009881504 0.034335885 0.0012153239 0.009775668
0.010149792 0.102003574 0.05237623 -0.053848475 0.104692824 -0.020616127 -0.0040816367 -0.05858569
-0.010895186 0.0872307 0.111636415 0.09559383 -0.10700636 0.022800209 -0.010064225 0.041446418
-0.09826221 -0.011892732 -0.08725999 -0.004228687 -0.10266943 0.036530063 0.0014511901 0.034735817
0.037955377 -0.021714488 0.0994614 -0.11922723 0.058502093 -0.1058227 0.030261543 -0.03603913
-0.027437866 0.057913136 -0.017290905 -0.10304165 0.028136684 -0.026408793 0.0805208 0.095168225
0.0015171374 -0.04203377 -0.11449775 0.06418881 0.07293281 0.07247754 0.035957936 0.08644905
-0.12371837 -0.102102414 -0.031542785 0.015336139 -0.083109014 0.09190225 -0.025203481 -0.02398568
-0.04973259 0.089578584 0.023377445 0.09100657 -0.065341175 0.031324677 0.07654304 -0.022804612
0.08825516 -0.07985542 -0.05067343 0.10288265 0.026057145 -0.05816139 0.020253403 0.05188507
0.06532671 0.049631756 0.0029109044 -0.078642905 0.021184774 -0.025388576 -0.059722714 -0.04645499
-0.011401495 0.029501695 -0.09655926 1.071235e-19 0.03238361 0.09294705 -0.019765573 0.071019165
-0.056583796 0.03649392 -0.046310496 -0.082643576 0.008521937 -0.038346462 -0.10022197 -0.019245924
0.00079861283 0.0048370697 -0.042941693 -0.0023928296 0.06344148 0.038223714 -0.027132299 -0.002728864
-0.025859533 -0.0068627563 0.08884889 0.052337483 0.041390616 -0.0020225095 -0.109727286 0.0277579
-0.07306848 0.033670466 -0.040001456 0.005450195 -0.018121667 -0.0925419 -0.051935125 3.9422994e-06
-0.08402523 0.032745853 -0.10092449 0.047338106 -0.060222764 0.06455804 0.07833013 -0.11676932
0.06573298 -0.04062227 -0.08136389 0.09752676 0.09717625 0.07081395 -0.004007728 0.0063143778
-0.09397402 -0.07503673 0.0927868 0.09908992 -0.03300041 -0.010500189 0.06398896 -0.11058476
0.08322001 -0.10209319 -0.057000406 -2.2254162e-37 0.042777058 -0.06255863 -0.124071024 -0.049674522
0.054048814 0.06209625 -0.010198225 -0.0125704 -0.038398467 0.09922042 0.12522253 -0.012367374
-0.018788025 0.0014373857 -0.04021199 -0.064216256 -0.04475394 -0.12567273 0.052495364 0.00020658968
-0.060816865 -0.06214886 -0.024434518 -0.10060975 -0.0030743806 -0.051250413 -0.08906511 -0.04904666
0.0024080314 0.09138075 -0.01676128 0.008059555 0.031606413 0.07721781 0.10894481 0.017466497
00000000: bacb c5bd 0bc2 c93d b3d2 ae3c c1a3 ef3c
00000010: 74c7 36bd a862 743d 153e c2bd 6372 823d
00000020: 0007 363d 08c2 b73c 8fa6 8bbd 95f5 afbd
00000030: 0fcb 71bd 41c1 9abd 099f 013d a3f3 f03d
00000040: cce7 d7bd 1258 92bd 1be6 22bd d3b1 013c
00000050: c91e fa3c 65b9 40bd f863 a93d 245c de3d
00000060: 8d67 04bb 4670 0bbc f381 c13d bfa5 2b3b
00000070: 555e 33bd 4fd6 d23d cb27 fabd 74c5 33bd
00000080: 2e23 92bd 3daf d0bd adce cd3c 1509 89bd
00000090: 3b7d 8a3d a83b 3b3b 2bb5 18bd 0e5c 00be
000000a0: 7195 6b3c 7f15 dabd 48c9 a5bd 5bf3 b5bd
000000b0: 0a72 7cbd 4e5b a43d bd61 ba3d 0a56 8537
000000c0: ceac c73d acfc 673d d624 8dbd 3601 3fbc
000000d0: b44b c93d b6b9 4f3c 5fc2 c3bd e1f1 4cbb
000000e0: 0392 b93d 085d 143b dcea 7d3c 698e 78bd
000000f0: 00d3 8bbd e4c9 c5bd cf41 713c f141 ee88
00000100: f072 06bd 0b97 c0bd 2e8c 54bd 24e6 9bbd
00000110: 08e6 213c c9a3 0c3d 814b 9f3a 202a 203c
00000120: 504b 263c 40e7 d03d 7588 563d 3890 5cbd
00000130: 3169 d63d 27e3 a8bc 40bf 85bb 8cf7 6fbd
00000140: b981 32bc 02a6 b23d a2a1 e43d b3c6 c33d
00000150: 2726 dbbd 81c7 ba3c 6be4 24bc b8c3 293d
00000160: b33d c9bd bcd9 42bc 5eb5 b2bd cc90 8abb
00000170: 5a44 d2bd 8ca0 153d dc35 be3a 2547 0e3d
00000180: 1977 1b3d 95e2 b1bc 6bb2 cb3d 682d f4bd
00000190: e49f 6f3d 92b9 d8bd 0ee7 f73c c49d 13bd
000001a0: 60c5 e0bc 5336 6d3d a8a5 8dbc 8007 d3bd
000001b0: e77e e63c 4157 d8bc 17e8 a43d 8fe7 c23d
000001c0: afda c63a 9a2b 2cbd cc7d eabd 6c75 833d
000001d0: cc5d 953d 1b6f 943d a148 133d 330c b13d
000001e0: 0f60 fdbd 121b d1bd 0233 01bd 6e44 7b3c
000001f0: 0f35 aabd 3f37 bc3d 8877 cebc 9e7d c4bc
00000200: 66b4 4bbd fa74 b73d 0e82 bf3c a761 ba3d
00000210: 98d1 85bd 4e4e 003d 99c2 9c3d bdd0 babc
00000220: 1fbf b43d 3d8b a3bd f18e 4fbd 24b4 d23d
00000230: cb75 d53c a33a 6ebd 77ea a53c 7085 543d
00000240: 03ca 853d ab4a 4b3d dfc4 3e3b 880f a1bd
00000250: b18b ad3c b4fb cfbc ce9f 74bd 9647 3ebd
00000260: 56cd 3abc 8aad f13c dcc0 c5bd 2ff0 fc1f
00000270: ada4 043d 065b be3d 69eb a1bc 7f72 913d
00000280: 69c4 67bd a67a 153d 13b0 3dbd 0941 a9bd
00000290: 989f 0b3c 2e11 1dbd 2d41 cdbd a1a9 9dbc
000002a0: 005a 513a 4880 9e3b a1e3 2fbd 05d1 1cbb
000002b0: 9bed 813d 7890 1c3d 8e44 debc bed6 32bb
000002c0: 5fd7 d3bc f9e0 e0bb 68f6 b53d d45f 563d
000002d0: 3589 293d 148c 04bb b3b8 e0bd 8964 e33c
000002e0: eda4 95bd 0bea 093d 91d8 23bd 8d97 b23b
000002f0: e473 94bc 9c86 bdbd edb9 54bd 1848 8436
00000300: 6b15 acbd 8420 063d 80b1 cebd 9ae5 413d
00000310: 25ac 76bd 0137 843d 8c6b a03d c124 efbd
00000320: 039f 863d 8a63 26bd 1ca2 a6bd 1cbc c73d
00000330: 5704 c73d e706 913d 4253 83bb d7e8 ce3b
00000340: 7375 c0bd dbac 99bd 0107 be3d a8ef ca3d
00000350: 702b 07bd fc08 2cbc a50c 833d 437a e2bd
00000360: 416f aa3d 3c16 d1bd 4279 69bd 3874 9782
00000370: ff36 2f3d bd1e 80bd f318 febd 8377 4bbd
00000380: 4a62 5d3d a358 7e3d 7516 27bc 14f4 4dbc
00000390: b647 1dbd 1334 cb3d 563a 003e 87a0 4abc
000003a0: 58e9 99bc a966 bc3a 54b5 24bd d083 83bd
000003b0: e84f 37bd 5ab0 00be 6105 573d ff9f 5839
000003c0: 1b1b 79bd ce8f 7ebd e62a c8bc 7c0c cebd
000003d0: 8c7b 49bb f4eb 51bd c567 b6bd 27e5 48bd
000003e0: 10d0 1d3b d525 bb3d f44e 89bc 390c 043c
000003f0: ba75 013d 5f24 9e3d 751e df3d e615 8f3c

features.10.bias f4 [64]
0.13358821 0.09378676 -0.02757287 -0.03147836 0.07511594 -0.009764563 -0.03846729 0.08147856
0.016162563 -0.015454816 -0.032542445 -0.042873412 -0.009413091 6.234781e-37 -0.090131626 -0.007856364
-0.072295114 -0.03634497 -0.008311798 0.038219 -0.006977942 -0.118985265 0.08969524 -0.1017055
0.018480895 -0.06461336 -0.018571338 -0.050769977 0.031725667 0.028324023 -0.08602194 -0.03205797
0.11283485 -0.06816796 0.080569245 -0.053622484 0.084262505 0.038128547 0.007018383 -0.010515841
-0.052669577 0.054246034 0.13698468 0.073523864 0.09774356 0.10386828 -0.027142312 -2.5311217e-06
-0.04419292 0.058334887 -0.0757174 -0.03430188 -0.0067612072 0.011053345 -0.04962174 0.07590356
-0.10126389 0.030384922 0.1237964 -0.054686755 0.10290663 -0.023237914 0.10837406 0.13694125
00000000: 59cb 083e 4613 c03d 80e0 e1bc 74ef 00bd
00000010: 63d6 993d 8cfb 1fbc e18f 1dbd 3bde a63d
00000020: 5a67 843c 3236 7dbc 3a4b 05bd 089c 2fbd
00000030: 5d39 1abc 9a28 5403 ee96 b8bd fbb7 00bc
00000040: 760f 94bd 77de 14bd 352e 08bc 878b 1c3d
00000050: 38a7 e4bb 8cae f3bd 23b2 b73d f94a d0bd
00000060: 3f65 973c 0254 84bd eb22 98bc 2ef4 4fbd
00000070: c6f2 013d c807 e83c 452c b0bd 384f 03bd
00000080: f515 e73d a59b 8bbd 7d01 a53d 40a3 5bbd
00000090: d291 ac3d ae2c 1c3d 77fa e53b a24a 2cbc
000000a0: 0ebc 57bd 1731 5e3d b645 0c3e ae93 963d
000000b0: c72d c83d e5b8 d43d 8e59 debc 57dc 29b6
000000c0: a303 35bd 90f0 6e3d b911 9bbd 2180 0cbd
000000d0: 1e8d ddbb 1719 353c 2a40 4bbd 5373 9b3d
000000e0: 7163 cfbd cde9 f83c f888 fd3d 38ff 5fbd
000000f0: b6c0 d23d 705d bebc 38f3 dd3d 543a 0c3e

classifier.0.weight f4 [3, 64]
0.103275776 0.08115989 0.09032614 0.013510823 -0.117762856 0.046982173 -0.1389274 0.0065382076
0.06060331 -0.07143301 -0.00030854202 -0.009102037 0.0029765791 -0.0007164694 -0.07969625 -0.07834013
0.00673354 0.0008436344 1.40252645e-08 0.08950036 2.440619e-37 0.04439631 0.069186546 -0.03338029
0.058303714 0.003588189 -0.04048965 -0.024182884 -0.050850373 -0.1084892 0.082939826 -0.0011449805
0.13213089 0.017231142 0.12975563 0.062448807 0.054271255 -0.07747252 0.04157603 -0.11034333
-0.13263664 0.038937252 0.028923877 0.12457235 -0.014331044 -0.076000884 -0.0008286812 1.901748e-06
0.12708275 -0.14591414 -0.061296675 0.030808376 0.04205545 -0.064781465 0.0470542 0.13713758
0.086416826 -0.12119071 0.07704474 -0.030705325 -0.12694812 -0.035789166 -0.09210221 0.058784217
0.039506674 -0.07824276 -0.007494193 -0.110271096 0.05368447 0.020638365 0.06937168 0.0412285
-0.0739446 -0.022318324 -0.019135363 -0.11408217 -0.11689396 0.00010248981 -0.03748571 0.031301178
-0.06894713 0.0036787356 -0.0011099983 0.084983006 0.00018857131 0.0063448898 -0.11885835 0.08435925
-0.11481238 0.09467587 -0.06606468 0.037991427 0.071243934 -0.10263144 -0.1055284 0.03001063
0.04985328 0.044241372 -0.053034272 -0.018871725 0.004488862 -0.07597893 -0.014408898 -0.08048995
0.031603005 0.048923552 0.12622185 -0.06378777 0.01282 -0.01681086 0.016978202 8.017448e-05
-0.10389381 -0.09166537 0.042946618 0.0043742163 -0.006042283 0.030088952 0.075489104 0.050940122
-0.0029468127 -0.03222259 0.045900367 -0.0694275 0.070736565 -0.016966974 0.08241928 0.09891678
-0.05288852 -0.08635887 -0.098924726 0.0844614 0.09882679 0.016693903 0.061099827 0.10391199
0.080409 -0.062025726 -0.014955242 -0.0106878225 0.094450794 1.7719278e-06 0.019332675 -0.00048259637
-0.08088651 0.059325244 4.4816924e-37 0.070959106 -0.008123253 0.12718868 0.09520167 -0.04333091
-0.12115681 -0.0892727 0.07186563 -0.015183581 0.014691973 -0.03473484 0.0026454683 -0.08558012
-0.004653358 -0.055271212 0.022182863 -0.14190184 -0.052549314 0.05780056 0.04903715 -0.045582566
0.02304746 -0.100923665 -0.039141115 0.01829027 -0.094588675 -0.055913348 0.04820119 0.0024925377
0.062883236 0.012931226 -0.06029078 -0.025538221 -0.034844194 -0.11979985 0.09378027 -0.058456816
0.017373867 0.13919675 -0.026437733 0.04340015 0.12035937 0.024958065 0.056512732 0.035660025
00000000: 4082 d33d 2837 a63d e9fc b83d 805c 5d3c
00000010: a72d f1bd 6170 403d fc42 0ebe 763e d63b
00000020: 2d3b 783d 784b 92bd cfc3 a1b9 b620 15bc
00000030: b612 433b 73d1 3bba ca37 a3bd ca70 a0bd
00000040: 07a5 dc3b 5927 5d3a c4f3 7032 f74b b73d
00000050: 9419 a602 e8d8 353d adb1 8d3d c5b9 08bd
00000060: e0cf 6e3d d227 6b3b 7ad8 25bd 2f1b c6bc
00000070: 7b48 50bd 962f debd 5bdc a93d 2c13 96ba
00000080: 524d 073e 5328 8d3c a9de 043e 52ca 7f3d
00000090: 894b 5e3d eaa9 9ebd a14b 2a3d affb e1bd
000000a0: e6d1 07be ab7c 1f3d c4f1 ec3c ca1f ff3d
000000b0: c1cc 6abc 5aa6 9bbd db3b 59ba 903f ff35
000000c0: fb21 023e 846a 15be 3912 7bbd d961 fc3c
000000d0: 5642 2c3d 25ac 84bd e8bb 403d cb6d 0c3e
000000e0: 4efb b03d d632 f8bd a2c9 9d3d bc89 fbbc
000000f0: b0fe 01be a997 12bd 15a0 bcbd b8c7 703d
00000100: c0d1 213d bd3d a0bd d991 f5bb d0d5 e1bd
00000110: 3fe4 5b3d ca11 a93c bd12 8e3d 37df 283d
00000120: 4470 97bd ebd4 b6bc c4c1 9cbc eaa3 e9bd
00000130: 1a66 efbd ccef d638 9e8a 19bd aa35 003d
00000140: 2734 8dbd f116 713b 5d7d 91ba 920b ae3d
00000150: 3abb 4539 cbe8 cf3b 026c f3bd 8bc4 ac3d
00000160: c122 ebbd 6ce5 c13d eb4c 87bd e69c 1b3d
00000170: 57e8 913d 6f30 d2bd 461f d8bd dad8 f53c
00000180: f432 4c3d 7136 353d 773a 59bd e098 9abc
00000190: 4e17 933b d79a 9bbd 4c13 6cbc ead7 a4bd
000001a0: 2772 013d 1064 483d 4d40 013e 2aa3 82bd
000001b0: fa0a 523c eeb6 89bc df15 8b3c 5923 a838
000001c0: 47c6 d4bd 0ebb bbbd cbe8 2f3d 9655 8f3b
000001d0: 58fe c5bb 1b7d f63c 089a 9a3d 97a6 503d
000001e0: 501f 41bb d6fb 03bd 0602 3c3d 0130 8ebd
000001f0: 55de 903d 53fe 8abc 71cb a83d e194 ca3d
00000200: a2a1 58bd ebdc b0bd 0c99 cabd 19fa ac3d
00000210: b365 ca3d a7c1 883c d043 7a3d cfcf d43d
00000220: 79ad a43d b00e 7ebd d506 75bc fa1b 2fbc
00000230: 6b6f c13d fad2 ed35 8f5f 9e3c fd04 fdb9
00000240: d4a7 a5bd 07ff 723d 0c81 1803 0253 913d
00000250: 6417 05bc c03d 023e 18f9 c23d c17b 31bd
00000260: 1021 f8bd 9bd4 b6bd 4a2e 933d 8ec4 78bc
00000270: 9ab6 703c 1f46 0ebd 985f 2d3b a144 afbd
00000280: 327b 98bb 1164 62bd d6b8 b53c b74e 11be
00000290: f33d 57bd 48c0 6c3d 2edb 483d c9b4 3abd
000002a0: 07ce bc3c 11b1 cebd 6f52 20bd 7ad5 953c
000002b0: b5b7 c1bd 6505 65bd 9c6e 453d d859 233b
000002c0: edc8 803d 7edd 533c 77f3 76bd 8835 d1bc
000002d0: c9b8 0ebd a059 f5bd df0f c03d 6a70 6fbd
000002e0: a453 8e3c 9889 0e3e f293 d8bc 5bc4 313d
000002f0: f97e f63d db74 cc3c e579 673d 3f10 123d

classifier.0.bias f4 [3]
0.06398082 0.10354853 0.033768855
00000000: 6008 833d 4011 d43d 3651 0a3d

exp_avg f4 [32, 3, 3, 3]
-0.0026742592 -0.0030272 -0.0036684175 -0.002527647 -0.0026513634 -0.0030779399 -0.0023356625 -0.0022832253
-0.0024698281 0.001113855 0.0010248274 0.0006253533 0.0012255082 0.0013921317 0.0012622065 0.001257075
0.0016484653 0.001810732 -0.0034648704 -0.0037263457 -0.00390926 -0.0029736648 -0.003134583 -0.0032405746
-0.0025018023 -0.002527809 -0.0025632698 -0.001905871 -0.0021470038 -0.003050133 -0.0016601457 -0.0017052928
-0.0023980846 -0.0014798109 -0.0012934994 -0.0016382779 0.00093972427 0.0007517688 -0.00021055182 0.0012444474
0.0012607982 0.0005509455 0.0013738868 0.0016348171 0.001337853 -0.0041985475 -0.0041555953 -0.004501221
-0.0038069577 -0.0036711704 -0.0038379417 -0.0034567472 -0.003192556 -0.0031338998 -0.0028679927 -0.0030043363
-0.002716824 -0.0030244698 -0.0031587793 -0.0028372328 -0.0031448852 -0.0032567768 -0.0029406294 -0.004530585
-0.004500408 -0.004024816 -0.004828226 -0.0048729056 -0.0043664365 -0.0050382726 -0.0050996607 -0.0045979484
-0.004108156 -0.003942821 -0.0032094438 -0.0044723963 -0.004415347 -0.0036631287 -0.0047420543 -0.004745471
-0.004021073 -0.00037377398 -0.00087413745 -0.0016166081 -0.0004902834 -0.0011076841 -0.0015869583 -0.0006958803
-0.0012526351 -0.0014540098 -0.00031633515 -0.0004499437 -0.0010520867 -0.00028922048 -0.0005985113 -0.0010070197
-0.00036316548 -0.000710959 -0.0008638362 -0.0014696615 -0.0018467351 -0.0021807496 -0.0013402783 -0.0018834373
-0.0020116568 -0.0011440781 -0.0017190616 -0.0016724633 -0.003171774 -0.0034731836 -0.0032102158 -0.0028304763
-0.0031567288 -0.003239116 -0.0024528662 -0.0029648568 -0.0034768959 -0.0038102004 -0.0045099426 -0.0043440666
-0.003447864 -0.004051116 -0.0041463445 -0.0028960556 -0.00357935 -0.0041196407 0.0028349906 0.0021372505
0.0014490776 0.00320753 0.0026527466 0.0017567637 0.003647233 0.003124946 0.0019283855 0.0007058507
-0.0003895711 -0.0011171318 0.00098884 -3.9748385e-05 -0.00083488354 0.0012423296 0.0002871409 -0.00047092533
0.002457662 0.0013094658 0.00036038327 0.0028584457 0.0017928305 0.0008390836 0.0032233181 0.002268345
0.001361301 0.0015961969 0.00018794915 -0.0015154954 0.0021927517 0.00081171305 -0.0009043251 0.0027848703
0.0014530483 -0.0002330016 -0.0018136775 -0.0013398122 -0.00055607234 -0.0019904857 -0.0015515301 -0.0008010703
-0.0021393932 -0.0017556774 -0.001079308 -0.0030865106 -0.0025310467 -0.0014628042 -0.0033189396 -0.0028121842
-0.0017991067 -0.0035274522 -0.0030841744 -0.0021720594 -0.0027885088 -0.0019829525 -0.0005509457 -0.0030140749
-0.002264548 -0.00088614173 -0.003169154 -0.0024857472 -0.0012172201 -0.0020044271 -0.0017002498 -0.0012628188
-0.00224247 -0.0019369875 -0.0015151203 -0.0024902096 -0.0021867137 -0.0017693877 -0.0037282463 -0.0035553465
-0.0030469627 -0.0040078266 -0.003845042 -0.0033451486 -0.004281645 -0.0040983353 -0.003627173 -0.002869333
-0.0023869635 -0.0014139498 -0.0032089008 -0.0026868011 -0.0017337257 -0.0035349403 -0.0029890304 -0.0020846494
0.001939455 0.0030118332 0.0040731276 0.0016465267 0.0024166869 0.0031179544 0.0012354675 0.0017099432
0.0021201675 -0.002088736 -0.0013909882 -0.00063248514 -0.002514813 -0.0021215566 -0.001796572 -0.0029068044
-0.002874066 -0.0029153568 0.004906379 0.005633504 0.006247536 0.004581232 0.0052296603 0.0056920554
0.004243937 0.0047243005 0.0049822596 -0.0028430512 -0.0026813592 -0.0023118493 -0.003134706 -0.0029736934
-0.0024516068 -0.0035021575 -0.003307135 -0.0026125745 -0.004696302 -0.004738232 -0.0044808174 -0.0050063645
00000000: a042 2fbb fd63 46bb d569 70bb e1a6 25bb
00000010: 7fc2 2dbb 43b7 49bb ea11 19bb 2aa2 15bb
00000020: d7dc 21bb c6fe 913a 8053 863a c0ee 233a
00000030: 3ba1 a03a 3078 b63a 9f70 a53a 70c4 a43a
00000040: 5111 d83a 1556 ed3a e112 63bb b535 74bb
00000050: 4019 80bb d1e1 42bb 936d 4dbb d25f 54bb
00000060: 47f5 23bb 99a9 25bb 88fc 27bb 6bce f9ba
00000070: bfb4 0cbb bde4 47bb 3f99 d9ba 2284 dfba
00000080: 2f29 1dbb 37f6 c1ba a38a a9ba 7cbb d6ba
00000090: d457 763a 5a12 453a 93c7 5cb9 ba1c a33a
000000a0: 5e41 a53a 546d 103a fe13 b43a 5c47 d63a
000000b0: e65a af3a f893 89bb a92b 88bb fa7e 93bb
000000c0: 277e 79bb 0598 70bb fa85 7bbb 988a 62bb
000000d0: 343a 51bb 1d62 4dbb eff4 3bbb 66e4 44bb
000000e0: be0c 32bb 2f36 46bb 8603 4fbb def0 39bb
000000f0: 6b1a 4ebb a66f 55bb 93b7 40bb 4d75 94bb
00000100: 2978 93bb 9be2 83bb 1836 9ebb e5ac 9fbb
00000110: 5314 8fbb 1818 a5bb 0e1b a7bb 63aa 96bb
00000120: b69d 86bb c832 81bb 8855 52bb 2e8d 92bb
00000130: 9dae 90bb 1a11 70bb 3c63 9bbb e57f 9bbb
00000140: 35c3 83bb 18f7 c3b9 5f26 65ba 5ee4 d3ba
00000150: 5d86 00ba b62f 91ba 7c01 d0ba bd6b 36ba
00000160: 762f a4ba 7994 beba c9d9 a5b9 6ce6 ebb9
00000170: 2ce6 89ba 84a2 97b9 6ae5 1cba f9fd 83ba
00000180: 3f67 beb9 a75f 3aba 1173 62ba a8a1 c0ba
00000190: 260e f2ba e8ea 0ebb 47ac afba abdd f6ba
000001a0: 00d6 03bb e4f4 95ba 2352 e1ba 8e36 dbba
000001b0: 8add 4fbb 5a9e 63bb 7c62 52bb 837f 39bb
000001c0: 1fe1 4ebb 5947 54bb 44c0 20bb 0b4e 42bb
000001d0: a2dc 63bb 8eb4 79bb 24c8 93bb ac58 8ebb
000001e0: 8ff5 61bb 39bf 84bb 0fde 87bb c0cb 3dbb
000001f0: 8793 6abb 0dfe 86bb 40cb 393b 1d11 0c3b
00000200: faee bd3a 6c35 523b b4d9 2d3b 3543 e63a
00000210: 6a06 6f3b e5cb 4c3b e1c1 fc3a d708 393a
00000220: 593f ccb9 b96c 92ba f79b 813a 81b7 26b8
00000230: 16dc 5aba aad5 a23a 668b 9639 87e6 f6b9
00000240: ba10 213b 62a2 ab3a d3f1 bc39 c354 3b3b
00000250: 69fd ea3a f2f5 5b3a 4e3e 533b 84a8 143b
00000260: af6d b23a 7b37 d13a 3714 4539 96a3 c6ba
00000270: 45b4 0f3b 24c9 543a 3b10 6dba 5f82 363b
00000280: 3674 be3a e451 74b9 ebb8 edba a39c afba
00000290: 62c5 11ba cf72 02bb b65c cbba ebfe 51ba
000002a0: 1035 0cbb c21e e6ba 9177 8dba 0e47 4abb
000002b0: ebdf 25bb 90bb bfba 9182 59bb 9f4c 38bb
000002c0: 01d0 ebba d42c 67bb dc1f 4abb 1c59 0ebb
000002d0: 6abf 36bb 6cf4 01bb 576d 10ba c987 45bb
000002e0: d068 14bb f74b 68ba 95b1 4fbb ebe7 22bb
000002f0: 218b 9fba b55c 03bb ebda deba 2b85 a5ba
00000300: 67f6 12bb 84e2 fdba 0097 c6ba c932 23bb
00000310: f84e 0fbb cdea e7ba 9855 74bb d100 69bb
00000320: 8daf 47bb 1654 83bb 1afd 7bbb 483a 5bbb
00000330: 0b4d 8cbb 544b 86bb ddb5 6dbb 6b0b 3cbb
00000340: 9a6e 1cbb 4854 b9ba 6c4c 52bb 0b15 30bb
00000350: 2e3e e3ba 75aa 67bb 9ce3 43bb 9d9e 08bb
00000360: 5035 fe3a 2d62 453b df77 853b 45d0 d73a
00000370: 4761 1e3b 9856 4c3b 69ef a13a 2c20 e03a
00000380: 82f2 0a3b 2de3 08bb d251 b6ba 5ccd 25ba
00000390: 90cf 24bb d009 0bbb f47a ebba 1680 3ebb
000003a0: d35a 3cbb 920f 3fbb b1c5 a03b 4299 b83b
000003b0: 21b8 cc3b 291e 963b 925d ab3b 6c84 ba3b
000003c0: b910 8b3b 4ece 9a3b 3942 a33b 7c52 3abb
000003d0: beb9 2fbb 6582 17bb a46f 4dbb 4ce2 42bb
000003e0: 23ab 20bb 7484 65bb 85bc 58bb ba37 2bbb
000003f0: 70e3 99bb 2c43 9bbb d2d3 92bb 6e0c a4bb
