increased_data/benchmark_experiment_increased_data/experiment_2_experience_1_2_3/model_experience_1_2_3.pth (torch, 854482 bytes, 36 tensors)

features.0.weight f4 [32, 3, 3, 3]
000000 7a b9 7c bd da e3 bf 3c e4 a0 df 3d 83 6a 16 3e
       -0.06170032 0.023424078 0.10919359 0.14689068
000010 a5 20 58 bd d4 9e e6 3c da 85 38 3e 6f 63 28 be
       -0.052765507 0.028151907 0.1801981 -0.16444181
000020 a4 40 0b be ea f3 e5 3d 55 a7 23 bd 59 ad 43 be
       -0.13598877 0.112281635 -0.039954502 -0.19109096
000030 d3 fd e4 3c 22 41 d6 3d 85 fa 32 3e 13 dc 71 bd
       0.027953064 0.10461642 0.17478378 -0.05904777
000040 f1 46 1a 3e 4f e4 2c 3e 31 3a 80 3d 74 a8 0e be
       0.15066124 0.16883968 0.06261099 -0.13931447
000050 32 8a be bd c6 44 ce 3d d4 1e 18 be bf a0 c7 3d
       -0.093037024 0.10071711 -0.1485551 0.09747457
000060 86 e8 6e bd 85 d8 21 be 6f b6 18 bc 7a 2e 3b be
       -0.05832722 -0.15805252 -0.009320839 -0.18279448
000070 d5 e9 3b 3e e4 b1 2c be d9 d4 80 bb bc db 68 3d
       0.18350919 -0.16864735 -0.0039316234 0.05685018
000080 26 a4 2f be 6a 86 36 be f7 11 06 be 4e d5 9d bd
       -0.17152461 -0.17824712 -0.1309279 -0.077067
000090 f9 85 ce bd bb f5 8e bb ff e7 7e 3c 8a fb a5 3c
       -0.10084147 -0.0043627894 0.015558242 0.020261545
0000a0 70 e6 fd bd 2c 77 49 be 45 75 91 3d 61 54 ab bd
       -0.12397468 -0.19674367 0.071024455 -0.083657034
0000b0 3c 73 42 be 9d 2d 9e 3d ea 73 e7 3d a4 0f ef 3d
       -0.18989271 0.07723544 0.11301406 0.11672905
0000c0 1f 6f 18 bd 2d da dc 3d c1 c0 d6 3d d5 79 fc bd
       -0.03721535 0.10783801 0.10485984 -0.12327925
0000d0 e2 a8 0d be 18 fd c7 3b ea 69 97 bb 2c 8c eb 3d
       -0.13833955 0.006103169 -0.0046207802 0.11501345
0000e0 5a 86 08 3e 1f 67 0e be a6 84 8a 3d 00 e9 95 bd
       0.13332501 -0.13906525 0.06763582 -0.07319832
0000f0 69 d6 87 bd 88 f6 1c be 38 ba 24 3e 62 5b 11 3d
       -0.06632692 -0.15328419 0.16086662 0.03548754
000100 65 44 e1 bd 93 25 b8 bd ec 8b 27 be a5 3c 23 be
       -0.10999373 -0.08991542 -0.1636197 -0.15941103
000110 f4 71 d8 3d 55 92 29 3e 9a 1d df 3d af 32 aa bd
       0.1056861 0.16559727 0.10894318 -0.083104484
000120 8d 8e ab bb 83 94 ce 3d a0 1d 49 3d 51 b3 41 be
       -0.0052354992 0.1008692 0.04910052 -0.1891606
000130 55 01 40 3d 07 3a 90 bc f0 93 c9 bd ee ec df 3d
       0.04687627 -0.017605795 -0.0984267 0.109338626
000140 c6 fb 0f 3e fb 0a 19 be a9 4d 61 3d 13 dd d6 3d
       0.14060888 -0.14945595 0.055005703 0.10491385
000150 52 93 e7 bd 22 46 c9 bd 7c 2d 10 3e 0a 72 39 3e
       -0.11307396 -0.0982783 0.14079851 0.18109909
000160 03 d0 c4 3d 1c 56 2f be 0d c9 bc 3c f8 3f 10 bc
       0.096099876 -0.17122692 0.023045087 -0.008804314
000170 91 b3 ec bc 3b bd 0d be 49 78 c3 bd 7e d0 e4 bc
       -0.028894218 -0.13841717 -0.09544427 -0.027931448
000180 2d a3 01 be 03 ca 52 3d fd a4 63 bd de ac 20 3e
       -0.12659903 0.051462185 -0.055577267 0.15690944
000190 e6 33 4b be f4 ca 37 be 48 49 e9 bd 98 11 ca bc
       -0.19844016 -0.17948514 -0.113909304 -0.024666592
0001a0 51 3d 47 3d 53 b5 20 3d ad e8 10 be 86 1a 2a be
       0.04864246 0.039235424 -0.14151259 -0.1661168
0001b0 81 bf 44 be c9 c2 33 3b a6 d6 2e bd d4 9f 60 3d
       -0.19213678 0.0027429333 -0.042685173 0.054839924
0001c0 fb be 83 bd 29 93 a2 bd 97 36 ef 3d c4 fd 34 3d
       -0.06432911 -0.07938225 0.11680334 0.044187322
0001d0 3d 15 d3 bd 80 03 83 3c d4 17 5e be b1 a5 10 3e
       -0.10306785 0.01599288 -0.21688777 0.14125706
0001e0 9f c9 c6 bd 1e 32 53 be 13 aa 68 3d d8 5e 45 be
       -0.09706425 -0.20624587 0.05680282 -0.19274461
0001f0 27 ba 8a bd 33 b9 40 bd b3 31 32 be 7a e8 9c bd
       -0.06773787 -0.04705162 -0.17401771 -0.07661529
000200 01 b4 3a be e9 5c 65 3d 44 35 1e 3c 52 14 8b 3d
       -0.18232729 0.05599681 0.009656254 0.06790985
000210 53 c8 d5 3d 4d af 06 3e b4 10 b4 bd ea 7d 80 bd
       0.104385994 0.1315281 -0.08792248 -0.06274016
000220 c0 97 f6 bd 23 2f 7c bd b5 34 ec 3d 8a 50 0d be
       -0.12040663 -0.06156839 0.115334906 -0.13800254
000230 b3 d6 b3 3d 71 05 0c be 78 37 8d bd ce cd 27 3e
       0.08781185 -0.1367395 -0.068953454 0.16387102
000240 f9 f7 3e 3e 36 85 fc bd 38 90 6d bd 20 db aa 3d
       0.18649282 -0.123300955 -0.057998866 0.08342576
000250 1e dc e3 3d d4 0a 14 bd b8 da 8e bd ef 37 4c bd
       0.111259684 -0.03614314 -0.06975311 -0.04985803
000260 5b f5 c6 3d 0d b7 67 bd 09 a9 46 be ac 32 53 bd
       0.097147666 -0.056571055 -0.1940042 -0.051561996
000270 b6 2b c9 bc d6 0c 53 be 5d 9b f5 bd 84 49 fd bc
       -0.024556976 -0.20610365 -0.11992524 -0.030918844
000280 2e 15 34 be 4e 56 2c bc 4a 27 76 bd 5e 4f d9 bd
       -0.17586204 -0.0105186235 -0.060096063 -0.10610841
000290 b5 f5 25 bd 2e 65 39 3e 77 71 b3 bc dc 08 24 be
       -0.040517528 0.18105003 -0.02190469 -0.16019005
0002a0 0f 84 f5 3d 5c f5 2c be b2 34 06 3e ac 9f ad bd
       0.11988079 -0.16890472 0.13106039 -0.084777206
0002b0 80 2c b1 3d 2e a4 f7 bd d6 05 da bd d5 9a 2a be
       0.08651066 -0.12091862 -0.10645644 -0.16660626
0002c0 d6 b9 3f be be d4 19 3d 7b 54 69 bd 8b 9f e0 bd
       -0.18723235 0.037556402 -0.056965332 -0.109679304
0002d0 c8 30 57 bb bc 5c 29 3e 6f b3 08 be 9b 52 67 bc
       -0.0032835472 0.16539282 -0.13349698 -0.014118816
0002e0 08 0f 10 3e 09 00 fb 3d 81 96 0d be d4 7c b2 3d
       0.14068234 0.12255866 -0.13826944 0.08715215
0002f0 31 68 8f bd 5e 11 99 bd f1 1c 95 3b 95 86 86 3d
       -0.07002295 -0.07474016 0.004550569 0.06568638
000300 e1 f0 1c 3e b5 10 28 3d 7c a7 e1 bd e5 22 7f 3c
       0.15326263 0.041031558 -0.11018273 0.015572284
000310 fb 1f 06 bb 96 8c e4 bd 2f f1 85 3d f0 84 10 3e
       -0.002046584 -0.11159627 0.06540143 0.14113212
000320 3a 9d 16 3e 25 0b 3d 3e 9c f7 a4 bc 65 16 bd 3d
       0.14708415 0.18461283 -0.0201376 0.09232787
000330 52 20 24 3e 2c a4 03 be 44 41 ea 3d 93 85 36 be
       0.16027954 -0.12855595 0.1143823 -0.17824392
000340 c0 ad 33 3e 69 e3 03 bd 42 1e b1 bd 4b 20 2a be
       0.17546749 -0.032199297 -0.08648349 -0.16613881
000350 68 e2 3d 3e 8a bf 6d bd 43 cc 86 bc 4d 39 2b be
       0.18543398 -0.058043994 -0.016454821 -0.16721077
000360 c2 22 40 bd 67 ea 0d be 9e a6 3e 3e 75 c4 dd ba
       -0.046908148 -0.13858949 0.18618247 -0.0016919511
000370 f4 f3 f1 bd 80 f6 9d 3b 2e d0 fc bd 86 29 f4 bb
       -0.118141085 0.004820645 -0.123443946 -0.007451239
000380 76 ac 39 3d 62 22 ed bd 56 d7 d3 3d 5a fd ab 3b
       0.045330487 -0.115788236 0.103438064 0.0052487077
000390 d3 24 42 be 8b f3 c2 bd 66 d7 af 3d f1 c6 1b 3e
       -0.1895936 -0.095191084 0.08586006 0.15212609
0003a0 81 94 10 be 12 72 c7 bb 18 13 5b bd 76 8f d3 bd
       -0.1411915 -0.0060865963 -0.053485006 -0.103300974
0003b0 df 2f 99 3d 33 ca e1 3d 91 74 39 be 28 f7 92 3d
       0.07479834 0.110248946 -0.18110873 0.071760476
0003c0 8e 53 a2 3c d0 35 68 3c 7c 5a 4e 3d f4 9f 0d bc
       0.019815233 0.014172986 0.05037926 -0.008644093
0003d0 b0 6b ad 3d af 50 04 be 52 57 93 bd e7 5d 7c 3d
       0.084678054 -0.12921403 -0.071943894 0.06161299
0003e0 c8 7f 48 3e 3f 68 83 bd 2c d0 5f bd cf f6 27 3d
       0.19579995 -0.06416368 -0.054641888 0.04100686
0003f0 4d 8d 3d 3e 07 ef 16 bd db 83 aa bd 32 64 4d bd
       0.18510933 -0.036849048 -0.08325931 -0.05014438

features.0.bias f4 [32]
000000 4d 57 6b 3d cf 22 3f be 47 bb 79 3d 83 aa 4d 3d
       0.057456303 -0.18665622 0.060969617 0.05021144
000010 49 d9 89 bd 86 7d 07 3d 01 f1 26 3e a2 af 21 be
       -0.06730897 0.033078693 0.16302873 -0.15789655
000020 cf 37 d3 bb 28 0b 8c bd 5a 1a 58 bc b2 9c ce bd
       -0.006445862 -0.068380654 -0.013189876 -0.10088481
000030 f9 3d 45 bd cf 0f 9d bd 3a 38 40 3e 22 b1 07 bd
       -0.048154805 -0.07669031 0.18771449 -0.03312791
000040 12 20 e3 bd b9 c7 ac 3c f2 13 23 3e 5b fd 1a 3e
       -0.11090101 0.021091329 0.15925577 0.1513571
000050 2b 14 44 be ac 8b 21 3e f8 19 d0 bd 48 e1 b1 bd
       -0.19148318 0.15775937 -0.10161203 -0.08685547
000060 35 a9 47 bd 5c 85 c7 bd f2 23 e2 bd db 7e 2b 3c
       -0.048745353 -0.09742233 -0.11042012 0.010467256
000070 fc 8d 2a be 7b 8e 6f bd f7 98 e9 3d f8 b7 fd 3d
       -0.16655725 -0.05848549 0.11406129 0.12388605

features.2.weight f4 [32, 32, 3, 3]
000000 59 f3 64 3c 07 f4 9b 3c d2 44 5e bd 6d d2 12 3b
       0.013974034 0.01903726 -0.05426485 0.0022403256
000010 b3 7d 00 bd f0 d5 2a bd 3e 5a 4c 3d f5 a5 5c bd
       -0.031369876 -0.041707933 0.04989075 -0.053869206
000020 dc 8b a9 bb f5 44 64 3d 2e 22 85 3d 67 7c f1 bc
       -0.0051741432 0.055729825 0.0650066 -0.029478265
000030 49 a0 7a 3d d5 5f 45 3d d4 49 fc 3c 8c c0 0e bd
       0.061188016 0.048187096 0.030796923 -0.034851596
000040 71 31 3d 3d 58 7b 99 3c 69 5c 41 bc d9 55 27 3c
       0.04618973 0.018735573 -0.011801817 0.010213339
000050 f8 0c f8 bc 72 38 73 3c 22 12 6e 3c 43 82 91 3d
       -0.030279621 0.014845001 0.01453069 0.071049236
000060 12 5c af bc d0 fe 6c bb f7 58 f7 bc a0 aa b3 bc
       -0.021406207 -0.0036162622 -0.030193789 -0.021931946
000070 37 7c 64 bc 19 91 56 bd f5 50 1c bd 1e ba 55 bd
       -0.013945631 -0.05238447 -0.038163144 -0.05217945
000080 6e 78 58 3c ce 66 69 bc 5a 07 e9 ba a7 ae 7b 3b
       0.013212306 -0.014245702 -0.001777868 0.0038403661
000090 0f c1 a6 3c d0 9f d1 bc f5 2a ab 3c 8d 46 db bb
       0.02035573 -0.0255889 0.020894507 -0.00669176
0000a0 ef 9e 79 3d 4c 24 15 bc ae 57 58 3d bb 33 33 3d
       0.060942587 -0.009102892 0.052817993 0.043750506
0000b0 e6 fd 83 3b f2 f8 87 3c 46 08 85 3b 11 2a 19 3d
       0.00402807 0.016598199 0.004059824 0.037393633
0000c0 c6 97 35 bd 57 ae a6 3c 4f 59 55 bd 41 6a 15 3c
       -0.044334196 0.020346804 -0.052087124 0.009119571
0000d0 3c 82 83 bc 2d 64 2a 3d 64 ef 2e bd 0f e5 d3 3c
       -0.016053312 0.04159944 -0.04270877 0.02586606
0000e0 df 7a 0c 3d 58 f0 e4 bc f0 b8 70 3d 3e bc 36 3d
       0.034296867 -0.027946636 0.05877012 0.044613115
0000f0 fa 27 11 3b 2b 45 40 3d 5f 6e bb bb 98 86 2f bd
       0.0022149072 0.046940964 -0.0057199444 -0.042852968
000100 ee 61 37 bd 6e 8c 10 3b 42 88 00 bd 69 6f 1e 3d
       -0.044771127 0.002205636 -0.031379946 0.038680468
000110 a1 4f 4c bc 74 0c 9f 3c 51 5e 80 bb 3b 99 90 bc
       -0.012470157 0.019415118 -0.0039174934 -0.017651191
000120 23 31 1f bd 04 bd 66 3d 25 d6 8a 3d 81 79 1f bd
       -0.03886522 0.056332603 0.06779126 -0.038934235
000130 36 bb 50 3d 3b c8 b7 3c 7c e8 25 bd a7 aa ce bb
       0.05095979 0.022434345 -0.040504918 -0.0063069644
000140 43 c5 7f 3d 84 e5 d0 bc 17 b9 3c 3d 48 b7 33 bd
       0.062443983 -0.025500067 0.046074953 -0.043875962
000150 43 ef 28 bd ac 73 1f 3d 4f 65 98 bc 90 28 2f bd
       -0.041243803 0.038928673 -0.018602995 -0.042763293
000160 95 ea a7 bc d7 4c 6c 3d 51 c5 a8 3c 74 a6 e9 bc
       -0.0204976 0.057690468 0.0206019 -0.028521754
000170 6f f4 9b ba 64 73 85 3d eb 6c c7 bc 59 c4 2d bd
       -0.0011898408 0.0651615 -0.024343928 -0.04242358
000180 5d ac bb bb 81 40 85 3d f1 64 06 bd e9 71 36 3d
       -0.0057273344 0.06506444 -0.03281111 0.044542227
000190 09 7a c4 bb cc 8e 46 3c 64 3d 74 bd e9 c5 9e bc
       -0.005995993 0.012119006 -0.05962886 -0.01938148
0001a0 61 41 2b bd 15 f6 4a 3d 3b d6 25 bd 3f 6f 78 3b
       -0.041810397 0.04955109 -0.04048751 0.0037908105
0001b0 04 cc 37 bd 96 2d 9a 3d 74 dc 40 3a ff 9d 28 bd
       -0.0448723 0.07528226 0.0007357069 -0.0411663
0001c0 0e 71 6f 3d 2d fd 17 bc c4 55 89 3d 98 ff 92 3c
       0.058457427 -0.00927667 0.067058116 0.017944142
0001d0 4d 19 8a bc de a1 60 bd 0d 02 37 bd b7 78 58 bd
       -0.016857767 -0.05484187 -0.04467969 -0.052849498
0001e0 a4 92 20 bd 13 ce 3e bd 90 60 9e bc ee 41 3c 3c
       -0.039202347 -0.046583246 -0.019333154 0.011490328
0001f0 f0 cb 81 bc d7 e8 6a bb 74 0f bc bc fd 99 f9 bc
       -0.015844315 -0.003584435 -0.022956587 -0.030468935
000200 5b f2 fa bc 7e 25 a4 bc 22 43 79 bd a8 cc c6 bb
       -0.030633142 -0.020037409 -0.06085504 -0.0060668774
000210 39 e5 b9 3c 68 fc 7d bd 63 fd 13 bd 51 4f f8 3c
       0.02269231 -0.06200829 -0.03613032 0.030311259
000220 74 e4 4e 3c 40 a5 ae bc 67 b3 c7 bc 15 d7 03 bd
       0.01262771 -0.021319032 -0.024377538 -0.03218754
000230 c4 fd 24 3d 4e 4c 6d 3d e7 a7 2b 3d de 3f 1b bc
       0.040281072 0.057934098 0.04190817 -0.009475676
000240 30 02 af 3c 1b c9 72 bc 1f 0e ea bc 3e 84 c8 3c
       0.021363348 -0.014818455 -0.028571187 0.02447712
000250 2d e1 32 3c ed 5f 4d bc 1b b2 45 3d 90 7f d2 3c
       0.010917944 -0.0125350775 0.048265558 0.025695592
000260 a0 33 f8 3c 39 ae 89 3b 8c 79 51 3d 4e ff b1 3c
       0.030298054 0.004201677 0.051141307 0.021728184
000270 07 8b 23 3d 2d 55 64 bd 7c af 2b bd 6f 46 5e bd
       0.03992751 -0.055745292 -0.0419154 -0.05426639
000280 3a be 3b bd aa d9 3b bd b3 06 da 3b b0 dc 01 3d
       -0.04583571 -0.045861878 0.0066536306 0.031704605
000290 ff 16 2a bc 4c eb 54 bd ed c7 68 3d 30 ff 3c bc
       -0.010381459 -0.05198221 0.05683129 -0.011535451
0002a0 4a e2 af bc 59 58 0d bd 22 70 82 bc 70 29 2f bc
       -0.021470208 -0.034508083 -0.01592261 -0.010691032
0002b0 c6 f1 36 bd 9d be 26 3d 03 1c 12 bd c3 8a d2 bc
       -0.044664167 0.040709127 -0.035671245 -0.025700932
0002c0 cf 53 4a bd 1f 8f 64 3c 52 67 22 bb f8 d8 21 bd
       -0.049396332 0.013950138 -0.0024780822 -0.03951356
0002d0 b0 96 64 bd 08 02 74 3c 3d 7b 0c bc 04 33 9a bc
       -0.05580777 0.014893062 -0.008574304 -0.018823154
0002e0 74 b1 d6 bc bc fb 2d 3d 62 d0 09 bc 2a 52 8b 3c
       -0.026207663 0.0424764 -0.008411499 0.017006952
0002f0 4f b6 dc bc 92 e6 d7 bc 6e 83 9d bc 36 f6 ca bc
       -0.0269424 -0.026355062 -0.01922771 -0.024775606
000300 8d 2d 13 bd e2 c1 5e bc 44 0b d1 bc e6 04 80 3c
       -0.035932112 -0.01359603 -0.025518067 0.015627336
000310 8d 68 82 3c 33 8e 2c 3b 1d e5 0a bd 71 cf 60 3d
       0.015918994 0.0026329875 -0.033909906 0.05488533
000320 8c 04 2c 3b 3e a3 f7 bc ae a7 f6 bc 15 b0 56 bd
       0.0026247827 -0.030229207 -0.030109253 -0.05241402
000330 ff a5 0d 3d c2 f1 8e bc 81 37 7f 3d 10 07 2a 3c
       0.034582134 -0.017449263 0.062308792 0.01037766
000340 d5 ea 22 3d b4 49 34 3d f7 dd 25 3d 96 0a 7d 3d
       0.039774735 0.0440156 0.040494885 0.061777674
000350 48 64 89 3d 2e 44 57 bd 11 da 0c 3c c0 13 2a 3d
       0.0670858 -0.052555256 0.008596913 0.04152274
000360 01 8c d3 3c ea e7 38 bc 62 36 30 3d 49 82 79 3d
       0.025823595 -0.011285761 0.043020613 0.060915265
000370 26 8a c2 3c 68 ce 11 3d cf c8 22 bb 93 68 0a 3c
       0.023747515 0.035597235 -0.002483893 0.008447784
000380 c1 7b dd b9 a8 7e 4c bc 41 31 c7 bc 1e 90 ed bc
       -0.0004224461 -0.012481369 -0.024315478 -0.028999384
000390 62 d0 29 3d 7a ea 34 3d c5 32 8f 3b 36 8a 02 3d
       0.041458495 0.044168927 0.004370066 0.03187009
0003a0 72 a1 90 3d 1f 0d 1c bd 83 71 ba bc b7 e2 39 bd
       0.07062043 -0.03809845 -0.022759205 -0.045382228
0003b0 37 a9 f4 3a 55 11 a2 3c 3a 37 0e bc 32 0d 0c 3d
       0.0018666153 0.019783655 -0.008680159 0.03419227
0003c0 32 36 72 bd 12 1d 19 3d 66 41 0e bd 49 a9 87 bc
       -0.059133716 0.03738124 -0.034730338 -0.016560214
0003d0 82 80 07 bc 0e 95 40 3d 9b a8 1a 3c af ff 24 bc
       -0.008270385 0.04701715 0.009439613 -0.010070725
0003e0 21 c5 3c 3c 70 cc db bc b9 b9 37 3d 53 f0 43 3d
       0.011521609 -0.026830882 0.044854853 0.047836613
0003f0 93 29 85 bc 85 6d 5c 3c 35 53 c0 3d 4c 74 24 bc
       -0.016255176 0.013453846 0.093908705 -0.010037493

features.2.bias f4 [32]
000000 31 a2 c6 3b 0d 5d 1c bd 91 6d 00 bc 63 cb 11 3a
       0.006061815 -0.038174678 -0.007838623 0.0005561618
000010 a8 ce 65 3d f2 9c ee 3c 04 c2 d0 3c a6 a6 44 bd
       0.056105286 0.029127572 0.025483139 -0.04801049
000020 f7 90 b8 bb f6 9c cc bb 40 8e 41 3c ba ab b3 bc
       -0.0056325155 -0.006244297 0.0118137 -0.021932472
000030 55 e8 22 bb ad 72 c3 bc d6 ac 91 bc b1 84 2e bc
       -0.002485772 -0.023858393 -0.01778261 -0.010651753
000040 ee 95 4a 3d 43 9d 5a 3d 44 e4 59 3d 33 67 1f bc
       0.04945939 0.053372633 0.053196207 -0.009729194
000050 01 26 9f bc 50 23 0e 3c 4f 0b 8b bc 1a ce 53 3c
       -0.019427301 0.008675411 -0.016973166 0.012927556
000060 f3 c2 5c 3d 96 57 36 3d cf 69 18 bd f7 af 6d 3d
       0.053896856 0.044517122 -0.037210282 0.05802914
000070 9f a2 58 bd f8 76 a2 bc b5 4d 3b 3d 2f 5a 60 bd
       -0.052889463 -0.01983212 0.045728404 -0.054773506

features.5.weight f4 [64, 32, 3, 3]
000000 ef 2c 2b bd 78 57 54 3d 3f 41 13 bd d3 23 49 3d
       -0.0417909 0.05184123 -0.035950895 0.04910643
000010 c8 19 5e bc 8c 04 2e 3c 5a 21 3c bc be 48 56 bd
       -0.013555951 0.010621201 -0.011482561 -0.052315466
000020 5d c4 23 3c ed ca fa 3c c4 87 e6 bc d5 67 6e 3d
       0.009995547 0.03061434 -0.02814091 0.05820449
000030 b6 33 b3 3c 99 1c 2b bc 88 37 85 3c 2d 8f 34 3d
       0.021875244 -0.01044383 0.01626183 0.044081856
000040 ff 70 32 bc e1 03 3d 3d 17 e5 80 3d 6d 94 2d bc
       -0.010891198 0.046146277 0.062936954 -0.0105944695
000050 d4 8b 90 bb 07 b3 63 3c 6c cf 66 3c 17 78 83 3d
       -0.0044112 0.013897664 0.014087539 0.0641939
000060 2d 34 77 bc 3a 36 50 3d b0 34 87 3d 77 89 ba bc
       -0.015088123 0.050832964 0.06601846 -0.022770626
000070 ca 0f 3b 3d e1 38 80 3d 57 12 e4 bc 3c c2 33 bc
       0.045669354 0.06260849 -0.027840776 -0.010971602
000080 8d 1c 9f bc 9b 33 4b bb a0 23 f3 3c 16 c4 e8 3c
       -0.019422794 -0.00310061 0.029680073 0.028413814
000090 04 59 fc 3c fd e9 44 bd a8 50 2f bd 20 d7 09 3d
       0.030804165 -0.04807471 -0.04280153 0.033652425
0000a0 f8 6e 32 3d 3b 93 0e 3d 17 67 2d 3c 1e 88 62 ba
       0.04356286 0.03480838 0.010583661 -0.0008641499
0000b0 d8 50 06 bd 12 49 de 3c 21 a6 92 bc d2 eb 9b 3c
       -0.032791942 0.027134452 -0.017901482 0.019033346
0000c0 2b 1d 86 3b ea d6 96 3d df 6d 8c 3d ef 02 36 3d
       0.0040928326 0.0736521 0.06856894 0.04443639
0000d0 54 70 52 3d c7 89 c6 3b 38 c3 00 3d 29 fb 84 bb
       0.051376656 0.006058905 0.031436175 -0.004058261
0000e0 07 d2 13 3b 9b aa 3c 3c 9d 84 64 bd 1f ba 46 bc
       0.0022555606 0.011515285 -0.055790532 -0.012129336
0000f0 42 95 33 bd 9b 8d 2f 3d 59 c4 12 bd 1e 0b 3d bd
       -0.043843515 0.042859655 -0.035831783 -0.04615318
000100 95 93 76 bc ae ee 4e 3b 6c 7e 3e 3d 83 0d 16 bd
       -0.015049835 0.003157537 0.046507284 -0.03663398
000110 19 87 bd 3c b6 fc 45 3d 06 50 2c ba 6c be 3f bd
       0.023135709 0.048336707 -0.0006573204 -0.04681246
000120 35 cb 8b 3b 29 8d 3d bd a2 03 c8 bb d7 7d 12 3d
       0.0042661675 -0.0462772 -0.0061039487 0.03576454
000130 e2 8d 56 3d 95 b2 dc 3c 47 f5 84 bc 61 98 57 3d
       0.052381404 0.026940623 -0.016230239 0.052635554
000140 e2 b8 92 bc e9 73 fe bc 23 93 a3 bc 63 76 a8 3c
       -0.017910425 -0.03106113 -0.019967621 0.020564264
000150 3b 4d 04 3d 25 56 22 bd f3 8d 19 bd c0 99 b5 3b
       0.032300215 -0.039632935 -0.03748889 0.00554201
000160 84 da 83 3d a0 d1 06 bd 8a 0b 9b bb cf de ec bb
       0.06438163 -0.032914758 -0.0047316 -0.0072287093
000170 20 0e 9d 3c be a2 11 bd 36 d6 72 3d 61 cd d1 bb
       0.019171774 -0.035555594 0.05928632 -0.006402657
000180 cc 9b 9c 3c 0d 92 ee 3a e3 81 07 3d da 57 c5 3c
       0.019117258 0.0018201486 0.033082854 0.024089742
000190 fb b9 b6 3c 8c 3a 2c 3d 12 9a f5 bc e4 c1 84 3d
       0.02230548 0.042048022 -0.029980693 0.06482294
0001a0 c2 f3 d8 3c 8d 07 94 3c bb 74 4c bd 4e 6f 5f 3d
       0.02648342 0.018070007 -0.04991601 0.054549508
0001b0 5f b1 de bc 26 5d 83 3c 2b 84 6a bb 70 36 4e bd
       -0.027184187 0.016035628 -0.0035784345 -0.050344884
0001c0 c7 01 44 3c 38 d2 92 bc 82 80 7d bd 7f ae 83 ba
       0.011963314 -0.017922506 -0.061890133 -0.0010046511
0001d0 5d 90 cd bb c0 d7 d3 3b d7 d5 21 3a 03 40 a7 3c
       -0.006273313 0.0064649284 0.0006173527 0.020416265
0001e0 7c 45 37 3d 1a a9 3f bd fd fc af bc c9 56 30 3d
       0.044744 -0.046792127 -0.021482939 0.043051515
0001f0 4f 71 7e 3d 21 6f 8c bc b2 f3 7e 3c 0e 10 02 3d
       0.06211978 -0.017142834 0.015561031 0.031753592
000200 0e 90 6e 3d fe 54 c0 3c 96 23 60 3d 59 9c 21 3d
       0.05824285 0.023478027 0.054721437 0.039455745
000210 27 a2 8e 3d 23 2b d5 bb 44 ed 37 3d 44 69 25 bd
       0.06964522 -0.0065053864 0.04490401 -0.040383592
000220 af bc 70 3d 4c a6 55 3d 53 c6 71 3d a5 38 a9 3c
       0.058773693 0.052160546 0.059027027 0.020656893
000230 9d a4 bc bc d9 7a 18 bc 0c ab 76 3d 39 2c c9 bb
       -0.023027712 -0.009306633 0.060221717 -0.006139305
000240 7e de ee bb d3 aa 5a bd 3b 45 ff 3c be 56 08 3d
       -0.0072897067 -0.053385567 0.031160941 0.03328585
000250 be 76 00 3d 2c 70 64 bd 6b 94 95 3c bb e3 88 bd
       0.03136324 -0.055771038 0.018259248 -0.06684061
000260 8c d7 53 bd f2 d0 7a bd ce d2 16 bd bd 22 66 3d
       -0.051719233 -0.061234422 -0.036822133 0.056185473
000270 7e b0 95 3c 60 57 05 bd d7 42 72 bd c5 69 6d bc
       0.018272635 -0.03255403 -0.059145775 -0.014490549
000280 1a 0f 57 3d 76 e5 d2 bc da 3c f0 bc 69 c8 3d bd
       0.052504636 -0.025744181 -0.029325891 -0.046333704
000290 15 6e 4e 3d e7 cf aa bb 8b a8 88 bc 84 26 a5 3c
       0.05039795 -0.005212772 -0.01668193 0.020159967
0002a0 8f 2b c5 bc 73 3f 02 3d f0 4e 0f 3d 2c 7e 3d 3d
       -0.024068622 0.03179879 0.03498739 0.046262905
0002b0 ad 34 a7 bc 52 4c c4 bb 7c d3 fe 3a b3 a6 84 bc
       -0.02041086 -0.0059905434 0.0019441689 -0.01619277
0002c0 98 d6 8a 3b 99 3e 86 3c c5 eb ce 3c c8 f3 00 3d
       0.0042370073 0.01638727 0.025258908 0.031482488
0002d0 57 06 f9 3c b9 1d 8e 3d 0b 26 14 3c fd 32 6e 3d
       0.03039853 0.06939263 0.009042273 0.058154095
0002e0 3c 04 90 3c e5 6e 35 3d 65 08 8a bc b1 3f 35 3d
       0.017580144 0.04429521 -0.016849706 0.044250194
0002f0 43 e7 83 3d f6 ee 38 3d 2b 4b 42 ba f6 0f f1 bb
       0.06440594 0.045149766 -0.00074117136 -0.007356639
000300 bf b7 50 bd 2c 2d 02 bd fb 16 f1 bc b0 2d b7 3c
       -0.050956484 -0.03178136 -0.029429903 0.022360653
000310 98 7a 75 3a 6d d6 1d 3d a5 12 1e bc 07 97 77 bd
       0.0009364276 0.03853457 -0.009648 -0.060446765
000320 fc c6 22 3d 75 9c dc 3c 2f df 8a bd 87 0b 92 bc
       0.039740548 0.026930073 -0.0678085 -0.017827762
000330 38 0b 85 bd 6f 2b 35 3c 26 51 fb bc 8c 52 d8 bc
       -0.064962804 0.011057719 -0.030678343 -0.026406549
000340 32 d1 88 3c 4c 39 fe 3c 0d 7d 3a bb 0d b3 e3 bc
       0.016701315 0.03103318 -0.0028455884 -0.027795339
000350 0a 98 83 bd c1 53 0d bd d8 2f 85 b8 38 aa ed bc
       -0.064254835 -0.034503702 -6.350846e-05 -0.02901183
000360 dc ac f3 bc 40 3d c4 3b 4a be 42 3d 5e c5 54 bd
       -0.029745512 0.005988747 0.047544755 -0.051946037
000370 9b fa 1e bd 7f 41 3e bd d6 db 83 3c dc 08 b1 3b
       -0.038813215 -0.04644918 0.016096037 0.0054026674
000380 f3 c6 48 3d 3b d2 f2 3c 94 e6 6d bd d6 d9 ae bb
       0.049017858 0.029641261 -0.058081225 -0.0053360267
000390 3f 53 37 bd c7 13 07 3c dc 66 b8 3c 15 d0 16 bd
       -0.044757124 0.008244461 0.022509985 -0.036819536
0003a0 29 dd 8f bc ec 5e 4d bd 7f b2 dc bc 7d 24 59 3d
       -0.017561512 -0.050139353 -0.026940582 0.053013314
0003b0 62 3d 60 3c e6 47 1e bd a7 aa 91 3d 2d 3b b0 3b
       0.01368651 -0.038642786 0.071126275 0.005378148
0003c0 cd 0a 52 3c 7b be 22 3d 05 aa 65 3b 64 cf 2e bd
       0.012819958 0.039732438 0.0035043966 -0.04267825
0003d0 7d cc 91 3c 85 88 3f 3c ef 09 1a 3d f5 7d 22 bc
       0.017797703 0.011690264 0.03760713 -0.009917726
0003e0 fb 06 95 3c bb 9c 90 3b eb df c4 bc f2 92 88 3c
       0.018191805 0.004413215 -0.024032554 0.016671631
0003f0 59 64 aa b9 15 39 43 3d 5b 08 f1 bc 23 30 04 bd
       -0.00032499692 0.04766186 -0.02942293 -0.03227247

features.5.bias f4 [64]
000000 f2 c0 7d bc 08 d3 2b bd 03 50 eb bb 43 3f 60 3b
       -0.015487896 -0.041949302 -0.007181169 0.0034217394
000010 af 4a c4 bb dd 32 1a 3d e3 70 97 3d 38 c3 39 3c
       -0.0059903483 0.037646163 0.07394578 0.011338048
000020 fa de d2 3c 6e 2f 8e bc 33 47 fa 3c 1f a5 1b 3c
       0.02574109 -0.0173566 0.030551529 0.009499817
000030 da c7 57 3d fb db 43 bd 4d 17 83 bb be f5 73 3d
       0.052680828 -0.04781721 -0.0040005804 0.05956053
000040 12 3d 9d bc 45 7a 3d 3d ae 16 0f bd 81 1a 97 3c
       -0.01919416 0.046259183 -0.03493374 0.018445255
000050 2b dc 30 3c bf f3 cd 3c bd 26 1a bd 35 fc a7 bc
       0.01079468 0.025140641 -0.0376346 -0.020506004
000060 af a6 85 3b e1 99 8a 39 d1 2e ed 3a 54 6c 90 3c
       0.004078708 0.0002643606 0.0018095617 0.01762978
000070 13 4c e5 3b 92 ce 43 3d 87 42 42 3d 4c 2f 17 bb
       0.006997594 0.047804423 0.047426727 -0.0023068963
000080 29 ee 65 3d 11 34 07 bc af e0 60 3d 1c e8 58 3d
       0.05613533 -0.00825216 0.054901775 0.05295573
000090 1f 92 58 3d 44 59 cf 3b b2 1d c9 bb ca 30 c6 bc
       0.052873727 0.00632778 -0.006137573 -0.024193186
0000a0 f3 a5 8a 3c 16 eb 2a bc 6f 0f d9 bc 5a 11 bf bc
       0.016924834 -0.010432025 -0.026496617 -0.023323704
0000b0 1f 65 c5 bc de 62 da bc be 02 12 bc 9e 46 2a bd
       -0.02409607 -0.026658472 -0.008911787 -0.041571252
0000c0 12 82 4e bd 85 84 56 3d da 1d 57 3d c9 42 33 bd
       -0.050417013 0.052372474 0.052518703 -0.043764863
0000d0 89 d1 be bb f6 6b 04 3c 34 1d 9e 3b 75 34 52 3d
       -0.0058233184 0.0080823805 0.0048252586 0.05131956
0000e0 93 ca 61 3d 66 6e 44 3d 25 be 00 bd 03 e4 1f bd
       0.05512483 0.047956847 -0.031431336 -0.03903581
0000f0 00 a1 07 bd 6c 90 18 bc 1a 89 30 3d 89 28 d8 3c
       -0.033112526 -0.009311777 0.0430995 0.026386516

features.7.weight f4 [64, 64, 3, 3]
000000 fd a5 54 3c 0b af 11 bd 5b 13 4e 3c 72 1c 1f bd
       0.012979028 -0.035567325 0.012577857 -0.038845487
000010 0b 4a de 3c d5 91 82 bb d1 12 6d bc d1 62 03 bd
       0.027134916 -0.0039846697 -0.014469818 -0.03207666
000020 48 f7 2a bd f1 52 36 bd a5 7a 8b 3c c3 d1 db 3c
       -0.041739732 -0.044512693 0.017026255 0.02683342
000030 76 04 d4 3b 73 73 6f bc 7c 0f 33 bb 99 48 ec 3c
       0.0064702583 -0.014614928 -0.0027322462 0.028843211
000040 17 8a bb bc b7 6b 46 bd be 82 13 3d 6b 10 18 3d
       -0.022892995 -0.04844257 0.036013357 0.037125032
000050 e9 e5 b9 3c 87 6b c7 3c bd 2f 08 bd 9d d6 df 3c
       0.022692638 0.024343265 -0.03324865 0.027324015
000060 cd 4f 1e 3d cf 4a c0 3b 64 b0 b9 3b ef 3f 06 bb
       0.038650323 0.005868293 0.0056667794 -0.0020484885
000070 d4 a6 58 39 87 3d b8 b7 73 5b 00 ba 11 f0 a6 b8
       0.00020661514 -2.196316e-05 -0.00048964395 -7.960213e-05
000080 f2 61 07 3a 95 fb 51 3b aa 0a ae 3a 24 aa 81 3b
       0.00051644363 0.0032040824 0.0013278325 0.00395705
000090 05 f9 9a 3c fe 98 fa 3c c1 13 04 bd 19 91 38 3a
       0.01891757 0.03059053 -0.0322454 0.0007040664
0000a0 d9 31 ba 3c 13 16 6d 3c cc 0a 98 bc 2e 1a b1 3c
       0.022728847 0.014470595 -0.018559836 0.021618929
0000b0 e0 fb 18 3d 63 3c b7 3c f8 a7 0a 3d 7e 5c 69 bc
       0.03734958 0.022367662 0.033851594 -0.014243243
0000c0 bc b0 a4 3c 81 6a bd bc e6 b1 31 bc 44 22 ba 3c
       0.020103805 -0.023122074 -0.010845637 0.022721417
0000d0 c1 16 31 3d 3d e7 85 bb 31 e9 1e 3d b1 51 08 3d
       0.04323459 -0.0040864036 0.038796607 0.033281032
0000e0 41 fa bb 3c 7c 44 1e 3d d8 4e 14 3c 9b 5b 2b 3c
       0.022946479 0.03863953 0.009052001 0.010458852
0000f0 76 a1 0b bd 78 45 bb 3c 1c 43 58 bb 21 7a 05 bd
       -0.034089528 0.022860274 -0.0032998985 -0.032587174
000100 84 4a 3d bc bd 70 12 bc 53 40 bd bb 3d 57 17 bd
       -0.01155341 -0.008938012 -0.0057754903 -0.03694843
000110 7a 12 1f bd f3 40 2a bc 8b 59 82 bc ba 32 2a bc
       -0.03883598 -0.010391462 -0.015911838 -0.010388071
000120 c2 07 22 3c e6 ff 2e 3c 36 1b 60 3c 92 ad 10 3c
       0.009889545 0.010681128 0.013678363 0.008830445
000130 2b 35 df bc 5d d4 d6 bc 87 54 2c bd c0 0d 30 3b
       -0.027247032 -0.02622431 -0.0420728 0.0026863664
000140 71 fb 0a bb 3f df 99 bc b7 ee cf bc 54 53 61 bd
       -0.0021207 -0.01878321 -0.025382383 -0.05501111
000150 54 a0 f1 3a 2d 30 30 bd 92 64 0d bd 9b db 01 bd
       0.0018434622 -0.043014694 -0.03451974 -0.031703573
000160 cd ad cf bb 72 35 be 3b ec b2 2a 3d c9 6e f2 3c
       -0.0063378573 0.005804711 0.04167454 0.029593842
000170 06 6c a7 bc cc 15 58 3d c6 37 62 3d aa 99 e2 3c
       -0.020437252 0.052755162 0.05522897 0.027661163
000180 8a 9e 1a 3d 66 b2 bf 3b 24 c3 f7 bb f8 40 c9 3c
       0.03774885 0.005850124 -0.0075611044 0.024567112
000190 88 83 36 3c f3 f7 2f bd 9f a0 12 3d 2a 46 a5 3c
       0.011139758 -0.042961072 0.03579771 0.020175058
0001a0 fe f0 43 bb 68 b4 e7 bc c2 c5 8d bc 64 2e 4b bc
       -0.0029898281 -0.028284267 -0.017306212 -0.012401197
0001b0 a7 0b 3a bc 5d 53 11 3d 54 3a 3e 3c 44 23 0a bc
       -0.011355317 0.035479892 0.011610586 -0.00843126
0001c0 1e d4 70 3d 08 95 73 3c 05 b3 23 3d db b9 c8 3b
       0.05879604 0.014867075 0.03996565 0.0061256713
0001d0 ae f9 28 3d 8c 0d 22 bd e9 be c9 bb 77 bc 97 3c
       0.041253738 -0.0395637 -0.0061567915 0.018522484
0001e0 7a fc 3b bb 59 d6 be 3c db de 88 3b 7d a3 2b 3d
       -0.0028684423 0.023295568 0.004176957 0.04190396
0001f0 74 1e cd 3b f3 32 8c bb 53 48 c3 3a 22 bb 89 b9
       0.006259734 -0.0042785346 0.0014898874 -0.000262701
000200 61 f2 6b bb 47 c0 27 3a 3c 39 32 3a 0e a0 da 36
       -0.0036002623 0.0006399196 0.000679869 6.515539e-06
000210 58 10 e7 3a 5d a1 bd 3a 2f 08 1f 3a 76 38 f9 bc
       0.0017628772 0.0014467646 0.0006066588 -0.03042243
000220 5c 0a f9 bc d0 07 08 3d 05 32 8d bb 54 5c 3c bc
       -0.030400448 0.033210576 -0.0043089413 -0.011496622
000230 0a 61 df bc 77 59 33 bc 2f db 68 bc 8c 15 4b bd
       -0.027267952 -0.010946623 -0.014212414 -0.049581096
000240 e3 2c 72 3d 44 91 e5 b9 52 6a 00 3d 65 5b 2e 3d
       0.05912484 -0.00043786515 0.031351395 0.04256763
000250 0c 37 bf 3c c3 e7 ba bb ce 18 9e bc a6 0c 0e bc
       0.023341678 -0.0057038977 -0.019298937 -0.008670008
000260 8b 61 a0 bc 1b 78 95 3c 51 2b ce bc 7e 5f 53 3b
       -0.019577762 0.018245747 -0.02516714 0.0032252963
000270 31 b4 0a 3d 9c 46 ad bc a9 9e 70 3b 94 8b 46 3d
       0.03386325 -0.021151833 0.0036715663 0.048472956
000280 d3 bf 42 3d e4 e2 e9 bc 13 04 05 bb 22 72 1c bb
       0.04754622 -0.028550573 -0.0020296618 -0.002387174
000290 f0 c5 09 bd ce f9 00 3c 05 b7 f1 3c af 82 9e bc
       -0.033636034 0.007872058 0.029506216 -0.019349424
0002a0 b6 53 36 bc 90 6b a2 ba 0e c0 21 bd af f0 98 bc
       -0.011128357 -0.0012391675 -0.0394898 -0.018669454
0002b0 67 a6 27 bb 90 e7 67 bd c4 9f cf 3c a7 26 d8 3c
       -0.0025581361 -0.05661732 0.025344737 0.026385618
0002c0 7b 4f 98 bc 6b 7f 08 3d 8a 02 88 ba 19 43 05 bd
       -0.018592587 0.03332464 -0.0010376733 -0.032534692
0002d0 f7 2a 01 bd 02 75 91 3c 24 ce 0a bd 6b 75 50 bd
       -0.031535115 0.017755989 -0.033887997 -0.05089323
0002e0 a7 b0 e6 ba eb ed 84 3c 1f 58 ae bc dc 54 ba bc
       -0.0017600254 0.01622673 -0.021282254 -0.022745542
0002f0 40 39 8a 3c bf 8f 5c bc 8b c1 07 bd 8b 73 ff bc
       0.016873002 -0.013462006 -0.03314356 -0.031183025
000300 50 fc 25 bd c1 75 19 bd d2 ae c3 3c 87 2e 0c bd
       -0.040523827 -0.037465815 0.023887072 -0.03422406
000310 1a 0e 7d 3c fd a2 c0 bc a1 fe e2 bb b5 0a 30 bc
       0.015445257 -0.023515219 -0.006927327 -0.01074474
000320 64 19 0f bc 14 ab 07 bc 67 fb 1c bc 89 f4 b8 bb
       -0.008734081 -0.008280534 -0.009581423 -0.0056443852
000330 93 37 f8 bb d6 2c f2 bb bf 2f e5 bb be 95 82 3c
       -0.0075749843 -0.0073905988 -0.006994217 0.015940543
000340 f5 35 7a bc dc 04 9a ba 0d b8 27 bc 10 bc c8 3c
       -0.015271653 -0.0011750716 -0.010236752 0.024503738
000350 50 d0 f2 bb 82 5e 11 3d cc 61 81 bc 05 6b e3 bc
       -0.0074100867 0.03549052 -0.015793703 -0.027760992
000360 49 3c b8 bc d2 b2 0f 3d 74 c2 55 bb b5 38 27 3c
       -0.022489684 0.035082646 -0.0032617124 0.010206391
000370 d6 8c 2a 3a 86 64 da bb bf c2 3f 3c e9 01 60 3b
       0.00065059715 -0.0066648154 0.011704146 0.0034180826
000380 1f 23 81 bc 0b 1a 74 bc 92 da 4c bc 96 7c 87 bc
       -0.015763817 -0.014898787 -0.012503283 -0.0165389
000390 be 3c c5 bb 8b e9 d4 bb 5d 47 ce bb 3c 53 56 bc
       -0.006019204 -0.006497567 -0.0062951283 -0.013081368
0003a0 fa 28 01 bc d8 65 13 ba 71 31 52 bd b0 54 c8 bc
       -0.007883305 -0.0005622781 -0.051316682 -0.024454445
0003b0 80 c5 9c bc bc ce fd bb a4 66 46 bd e1 c8 c4 bc
       -0.019137144 -0.007745592 -0.04843773 -0.024021568
0003c0 52 43 21 3c b8 49 68 bc 8d c1 f2 bc 53 c8 e8 bb
       0.009842711 -0.014177732 -0.029633308 -0.0071039586
0003d0 b4 93 9c bc 51 a0 20 3c 37 b4 6c bc 12 e6 a1 3c
       -0.0191134 0.009803847 -0.014447263 0.019763026
0003e0 ed 35 d9 3b 1f 83 1c bb 1c 96 c5 bc 7a fd 70 ba
       0.006628743 -0.0023881865 -0.02411943 -0.00091930444
0003f0 60 f9 ec 3c 56 66 2f 3d 78 af 15 3d 1d 52 c6 bc
       0.028927505 0.042822205 0.036544293 -0.024209077

features.7.bias f4 [64]
000000 a9 0e 9f 3c ff 5b 13 3d fd 71 e8 3c 4c f0 3a bc
       0.01941617 0.035976406 0.028374666 -0.01140983
000010 11 83 11 3d bf ba 28 3c a0 34 28 3c 5c 47 02 3d
       0.035525385 0.01029843 0.010266453 0.031806335
000020 8b 8e 2f 3c e3 b7 c1 3c d7 5a 57 3b c3 cf 7f 3c
       0.010715137 0.023647254 0.0032860541 0.015613499
000030 bf e6 1c bc c6 73 19 3d 8c 54 c6 bc 5f e8 fe bc
       -0.0095764985 0.037463926 -0.024210237 -0.031116663
000040 ce ec 2b 3d de f2 99 3c 14 0f fb bc 80 be 0a 3d
       0.04197388 0.018792566 -0.030646838 0.03387308
000050 16 7b 02 3d 34 9d b1 bb fc 12 45 bc 83 e7 1e 3d
       0.031855665 -0.0054203514 -0.012028452 0.038795006
000060 56 8d 9c bc 13 90 81 3b 46 f0 aa b9 4e 2c 1d 3c
       -0.019110363 0.0039539426 -0.00032603944 0.009593083
000070 23 ac 30 3c 52 dc 86 3c c7 cc 10 bc 5a 17 1e 3d
       0.010783228 0.016462479 -0.008837885 0.03859649
000080 68 7e 75 bc 95 d9 6b 3c e8 fd 94 3c 61 c3 31 3d
       -0.014983751 0.014395137 0.018187478 0.04339922
000090 9b b2 74 bc 01 ec bf bb 4b cb 2f bc 0e 60 30 bd
       -0.014935161 -0.0058569913 -0.010729621 -0.043060355
0000a0 1d b5 c3 3b 8a c1 30 bd 07 33 be 39 85 ef f1 3c
       0.005972518 -0.043153323 0.00036277642 0.029533157
0000b0 35 fe a4 bc ff 73 15 bc 9d 21 27 3d 71 05 87 3b
       -0.020140747 -0.009121894 0.04080354 0.0041205217
0000c0 f8 bd dc bb 81 74 7b bc b1 99 8c 3c 29 27 cb 3c
       -0.006736513 -0.015347601 0.01716313 0.024798946
0000d0 3d 6e e2 bc 1a 70 d6 3c 1a 32 5d bc 3d e1 e5 3c
       -0.027640456 0.026176501 -0.013500715 0.028061504
0000e0 1a fc 52 3c 76 3a b1 bc a6 e3 eb 3b 5f 6b 13 bd
       0.0128774885 -0.021634322 0.0071987687 -0.03599107
0000f0 12 1d ea 3c ad a6 dc 3b 37 91 ad 3c 28 30 32 ba
       0.028578315 0.0067337365 0.021187408 -0.0006797337

features.10.weight f4 [64, 64, 1, 1]
000000 95 55 b7 3d 43 2a c1 bb eb 6e 48 3d 58 08 9f bd
       0.0895187 -0.0058949306 0.048933905 -0.07765263
000010 6c b2 0a 3d 50 14 55 bd 7d 64 2d bd 10 cd 0f bd
       0.033861563 -0.052021325 -0.04233216 -0.035107672
000020 b0 60 c4 bc 11 c4 8b 3d aa 4d b1 bd 6a 1f eb bd
       -0.023971885 0.06824506 -0.08657391 -0.11480601
000030 e7 2c cd bb ef 93 f0 3d 86 2c af 3d 7a 18 99 bd
       -0.0062614563 0.11746966 0.08553414 -0.07475372
000040 9d 94 91 bd e3 98 58 bd 23 0f e5 b8 00 83 dc bd
       -0.07108424 -0.05288018 -0.0001092239 -0.10767174
000050 5c 56 8e 3d f2 ad c9 b9 10 f9 bc bd 74 40 6e bd
       0.069500655 -0.00038467307 -0.092271924 -0.058166936
000060 77 e8 ba bb 00 d0 c8 bd 76 29 3c bb be 5d 1d bd
       -0.0057039815 -0.09805298 -0.0028711236 -0.038419478
000070 5d 08 98 bc 28 e1 68 3d d9 83 46 bd ea 80 e7 bd
       -0.018558675 0.05685535 -0.048465583 -0.11303885
000080 0f 8f ae bd 84 9b eb bc 7f 7c 46 3d eb c9 62 3d
       -0.0852338 -0.028760679 0.048458572 0.055368345
000090 0b 05 2c bd db 4a 54 3d a7 d8 c5 bd ff d2 12 3b
       -0.041996997 0.0518292 -0.09660464 0.0022403596
0000a0 6c 25 95 bb 6a 31 c7 bb 59 fd 83 3d db 10 a0 bd
       -0.00455158 -0.0060788887 0.064448066 -0.07815715
0000b0 f3 ea e1 3d 66 82 7d 3a 14 e1 a6 3d a9 cd 92 3d
       0.11031141 0.0009670615 0.08148399 0.07168133
0000c0 09 2e 77 3d 6f cb 9c 3b 7a 69 cf bd 69 33 b0 bd
       0.060346637 0.0047849934 -0.1012754 -0.08603556
0000d0 f7 0b a1 bd 7a 59 ce 3d 70 f4 d4 3c cd 04 82 3d
       -0.0786361 0.1007566 0.025995463 0.06348572
0000e0 e6 e0 5d 3d bc 14 59 3d 20 b6 ac b9 54 3f cb 3d
       0.054169558 0.05299829 -0.0003294209 0.09924188
0000f0 4a 5b 29 3b b0 b9 d5 3d 0d 6a b8 bd c6 3f 08 bd
       0.0025841766 0.10435808 -0.090046026 -0.033263944
000100 5c 42 6a bd 49 36 76 36 5b e9 3c 3d fc 58 ce 3d
       -0.05719219 3.6688455e-06 0.046120983 0.10075566
000110 c0 04 78 3b 40 a2 c3 bc 87 bc aa 3b 60 1f 46 3b
       0.0037844628 -0.023881078 0.0052104625 0.0030231103
000120 07 85 ba bd 83 1c a1 3d 5c 63 26 3c d1 c2 77 bd
       -0.09107404 0.07866766 0.010155525 -0.060488526
000130 9d 71 e1 3d 99 47 9a 3d 6c d3 96 bd 6c f0 90 3d
       0.11007998 0.075331874 -0.07364544 0.07077107
000140 78 58 9c bd 23 e4 03 bd 42 be 8d 2f d2 9d 9c 3d
       -0.076340616 -0.03219999 2.5782937e-10 0.07647289
000150 c1 fe 54 3d 68 34 ec 39 ba be 3e bd 76 fd d5 bc
       0.052000765 0.00045052473 -0.04656861 -0.026121836
000160 88 c6 7d bd 58 63 82 3d 58 7a ef ab 9a 9e ae 3d
       -0.061956912 0.063666046 -1.7015929e-12 0.085263446
000170 64 02 b3 b9 61 37 d9 bc f9 3e 90 bd 46 30 d4 3c
       -0.00034143322 -0.026515665 -0.07043261 0.025901925
000180 99 1a 33 38 6c 50 3e 3b 14 9b 5c bd e8 d0 93 bd
       4.2701697e-05 0.0029039634 -0.05385883 -0.0721758
000190 ca e5 67 3d 0b 26 94 bd 8d 18 cc bc 5e b1 cc b4
       0.05661563 -0.072338186 -0.02491405 -3.8127013e-07
0001a0 a6 10 12 02 80 64 b1 bd 70 cf 18 3c 62 59 93 3d
       1.0731164e-37 -0.08661747 0.009326801 0.07194783
0001b0 fc 5f e3 3c 7b 12 57 2e 30 bc 9c 3a 0d 1d b5 3d
       0.02775573 4.8901754e-11 0.001195794 0.088434316
0001c0 4b 3e dc 35 91 d5 69 3b 85 98 80 81 34 65 b4 3d
       1.6409407e-06 0.0035680274 -4.723863e-38 0.088083655
0001d0 20 57 b1 3c de c0 a3 bd 4f f8 eb bc 59 04 37 3d
       0.02164799 -0.07995771 -0.028804926 0.04468188
0001e0 6e 72 b4 3d 3a c7 fc 3b 91 21 40 02 89 00 9a 3d
       0.08810888 0.0077141793 1.4115565e-37 0.07519633
0001f0 84 6c e1 bc 72 aa cd bc 7e 1e d9 bc 15 b5 09 bd
       -0.027517565 -0.025105689 -0.026503798 -0.03361996
000200 40 66 db 3d 40 b9 5d 83 c8 6a c9 bd 0f dd 90 3d
       0.10712862 -6.515872e-37 -0.0983482 0.070734136
000210 56 b4 ac bb dd d6 6e bb b6 58 84 bb 95 0f bf b1
       -0.005270521 -0.0036443986 -0.0040388955 -5.560603e-09
000220 cd 44 0d bb f5 af 64 3c 20 74 ae 3b 01 08 b5 3d
       -0.00215559 0.013957967 0.005323902 0.08839417
000230 62 14 53 3d 90 3b b6 3b 86 fd f5 3c 4b de 2b 3d
       0.05153311 0.0055612996 0.030028116 0.041960042
000240 d5 cd a8 3d f6 53 6e 3c 74 b1 6f 38 60 bd b9 3d
       0.08242384 0.014546385 5.7147307e-05 0.090693235
000250 46 02 a5 3d 32 0d ad b6 8c 70 72 bd e2 6c d0 3d
       0.08057074 -5.157338e-06 -0.059189364 0.10177018
000260 fc f6 8c bd ab d3 ae 3b 52 d4 89 38 22 5c ef bc
       -0.06883046 0.0053352914 6.572217e-05 -0.029218737
000270 82 b9 38 01 73 0f 96 3d 68 d7 d0 bc 2c fd 90 bd
       3.3928558e-38 0.073271655 -0.025493339 -0.07079539
000280 ec 86 3e b9 11 57 9c bd 9b a3 96 bd ca 60 b0 bc
       -0.00018170074 -0.07633794 -0.07355424 -0.021530528
000290 a7 67 c5 3d 36 5e 68 3b cc fa 5e bd b2 71 e2 3c
       0.09638911 0.0035456545 -0.054438397 0.027642105
0002a0 b5 84 dd 28 c2 22 03 3d 7d 88 00 3e f6 15 0b 3e
       2.4593481e-14 0.03201557 0.12552066 0.13582596
0002b0 7e 1f a9 3d fa f4 82 82 80 99 40 ba 42 b5 fa 3d
       0.0825796 -1.9242393e-37 -0.0007347092 0.122416034
0002c0 65 70 10 25 38 c4 17 bd c1 84 21 bd 55 5e 93 3d
       1.252809e-16 -0.037052363 -0.039433245 0.07195727
0002d0 6d a8 5c 3d 57 93 d0 bd 00 05 2a 3d d2 37 23 bc
       0.05387156 -0.10184353 0.041508675 -0.009962039
0002e0 4c 9b c0 bd 96 dd 65 bd c9 3b 90 36 48 71 79 3d
       -0.094046205 -0.056119524 4.2984943e-06 0.06089905
0002f0 dc 08 e7 3d e8 7a 5e bd 4c 9c d6 bb 67 de ef 3c
       0.11280987 -0.05431643 -0.0065493938 0.029280854
000300 25 27 94 bd f3 2a 7b 3d 9e eb 68 3c 90 38 ab 3d
       -0.07234029 0.061320256 0.014216332 0.08360398
000310 37 d5 77 bd 41 5f 50 3d 2a 33 19 3c 09 a2 0e bd
       -0.060506072 0.05087209 0.009350577 -0.034822498
000320 bc 2b d2 bd 52 69 a7 3d 30 54 66 bd 7e 5f 0b 3d
       -0.10262248 0.08174385 -0.05623263 0.034026615
000330 e5 80 bc 3c 11 be f1 bd a4 1b 05 bd 9b 03 a2 3d
       0.02301068 -0.118038304 -0.032497063 0.07910844
000340 a7 1f e2 3d 41 05 b8 bd 9c 6e 1d 83 d5 6f 15 bd
       0.110411935 -0.08985377 -4.6265127e-37 -0.036483604
000350 53 1a 4d 3d 84 8c d4 01 d4 18 bc bd 82 51 e2 3d
       0.050073933 7.807813e-38 -0.09184423 0.11050703
000360 fe c1 03 bd c6 f3 a3 bd 43 f0 fd b9 e9 f8 66 bd
       -0.032167427 -0.080054805 -0.0004843493 -0.056389723
000370 8e 04 90 3d 66 f4 8d 3d 53 45 cf bd c0 1d d0 bd
       0.07032119 0.06931381 -0.101206444 -0.10161924
000380 8c 69 23 bc f2 02 f4 bc 0f 23 75 3a cb ee 4a 3d
       -0.009973895 -0.02978656 0.00093512324 0.049544137
000390 fe bc f3 bd 94 0e 07 3d c5 d5 29 3b bf 93 62 3d
       -0.11901282 0.032972887 0.002591477 0.055316683
0003a0 85 39 a0 bb 2b fc e1 bd e7 7a 00 bd c7 bd 39 bd
       -0.0048896694 -0.11034425 -0.03136721 -0.045347
0003b0 9c 5b 96 bc c8 fc 5e b8 db 3a 05 3d 5e a5 3f 3c
       -0.01835423 -5.3164345e-05 0.032526832 0.011697141
0003c0 3d f0 a7 3c 6d 36 e6 3c ec 50 be 3d bd 23 a5 bd
       0.020500297 0.028102124 0.092927784 -0.08063457
0003d0 25 58 03 3c bc ac 91 bd 4a ba b4 3d c7 eb 09 be
       0.008016621 -0.071130246 0.08824594 -0.13468848
0003e0 23 b1 c2 3d e3 37 98 bd f8 cb 67 bb be b4 d8 bd
       0.095064424 -0.074325345 -0.0035369378 -0.10581349
0003f0 6c c8 6c bd 32 d2 8d 3d 6f fa ba bd e1 42 94 bd
       -0.057808325 0.06924857 -0.09129798 -0.07239319

features.10.bias f4 [64]
000000 4e 0a 3b 3d cf 47 c8 bd 6c 05 d7 bd 05 6f b1 3d
       0.045664124 -0.097793214 -0.10499081 0.086637534
000010 e9 20 83 ba 60 65 5a 3d d5 34 4f 3c 8e fb cb bc
       -0.0010004315 0.053319335 0.0126468735 -0.024900224
000020 68 39 0e 3d ae 80 72 3c ae e4 4f bd e3 be 1f bc
       0.034722716 0.014801187 -0.050755195 -0.009750101
000030 02 6a e8 3d d6 01 92 bd 26 fb ee 3b 9b 6c 42 3d
       0.113483444 -0.071292564 0.007293123 0.047466855
000040 95 98 9d bd 19 d5 82 bc d1 23 23 3d 55 0e e8 3d
       -0.07695118 -0.015970754 0.03982908 0.113308586
000050 8e 32 8b bd 7e bb 9a bb 1c fc 90 bd 39 38 06 bc
       -0.06796752 -0.004722058 -0.07079336 -0.008192115
000060 c7 37 e5 3d 7e 22 de 3c d1 c3 91 3d c4 f3 48 3d
       0.11192279 0.027116057 0.07117427 0.049060598
000070 1b 84 27 bd bd c4 b1 3d 0e c2 e6 3d e0 6a 73 bd
       -0.04089747 0.08680103 0.11267482 -0.059428096
000080 59 16 7f bd 04 b7 c2 bd 98 d8 3e ba 49 24 6a 3d
       -0.06227717 -0.09507564 -0.00072802 0.05716351
000090 f9 9f 30 3d 63 8d 91 3c 83 1c 3f bd 01 c8 44 3d
       0.04312131 0.017767614 -0.04665805 0.0480423
0000a0 7f a1 65 bd e6 07 1b bc 19 f2 e6 3d c5 5f d8 bd
       -0.056062218 -0.009462332 0.11276645 -0.105651416
0000b0 11 bf 37 bd 98 0e 50 3c 97 fe fc 3d 29 9b 8d 3b
       -0.04485995 0.012698792 0.12353247 0.004321475
0000c0 32 96 cf 3d cc 56 8f 3d a0 b2 bf bb c0 44 02 bd
       0.10136069 0.06998977 -0.005850151 -0.031803846
0000d0 56 cf 94 bd 6f 8a 14 3d e4 1e ab 3a 47 51 c0 3b
       -0.07266109 0.036264833 0.0013055471 0.005869064
0000e0 16 f4 7f bc f9 2e b4 bc c6 eb 06 3d 41 ef f8 3c
       -0.0156221595 -0.021995055 0.032939695 0.030387523
0000f0 91 67 a7 bb f9 b6 8c 3d 93 d1 ed 3d db 60 5b bd
       -0.0051087816 0.06870837 0.11612239 -0.053559165

classifier.0.weight f4 [3, 64]
000000 9b 48 b3 3d 22 a7 8d bb be e3 e1 3d 07 66 55 3b
       0.08754083 -0.0043229023 0.110297665 0.0032562034
000010 d4 10 42 b7 a9 b5 0a 3e 0a b8 ee bd a0 7b cf bd
       -1.1567219e-05 0.1354586 -0.116561964 -0.101310015
000020 b3 8e ec bd 3c 17 c3 bd 1f ad b2 3d 8a c2 d6 bd
       -0.11550655 -0.09525916 0.087244265 -0.10486324
000030 e8 da 99 3d 19 bd 2d bd 2d 2f 05 3b e4 7e f8 bd
       0.07512456 -0.042416666 0.0020322308 -0.121335775
000040 53 4e c1 3d e7 50 78 bd 89 79 84 bd 9d 82 c3 bd
       0.09438767 -0.06062403 -0.064684935 -0.09546397
000050 cc 93 d5 3d 41 5e 17 bd 9a db 2f bd 88 7a 00 3c
       0.10428581 -0.036955122 -0.042934038 0.007841714
000060 73 29 32 bd e2 aa 50 bd 71 c1 df 3d 10 dc 2f 3d
       -0.04349656 -0.050944217 0.10925568 0.042934477
000070 9c 21 04 3e 58 a9 6f 3d 03 aa 78 bd 8c ba 7c bd
       0.12903446 0.05851111 -0.06070901 -0.061701342
000080 20 d7 4c bd dd 2f c2 3d c2 f6 37 b5 f8 2a cc bd
       -0.050009847 0.094817854 -6.853189e-07 -0.09969133
000090 42 b1 81 bb 1e c1 e4 bd 56 da bd 3d 63 2d e8 bb
       -0.0039578984 -0.11169647 0.0927016 -0.0070854886
0000a0 16 41 1e bd 3d d9 f4 bc 98 9c 20 3e 6c f7 5a bd
       -0.03863629 -0.029888744 0.15684736 -0.053458616
0000b0 ff b0 a0 3d b5 99 9d bd 06 75 c1 3d 65 8c 22 bd
       0.07846259 -0.07695333 0.094461486 -0.039684672
0000c0 dd 91 4a bd 7d 07 c6 bd 2b 68 0b bd 59 91 3a bd
       -0.049455512 -0.09669397 -0.03403489 -0.04554877
0000d0 25 96 a4 bd e5 36 ad bd fa b0 93 b9 79 2f 22 39
       -0.0803645 -0.08457736 -0.00028169883 0.00015467209
0000e0 39 53 18 bc 9b 14 14 3e cf 23 ae 3b 45 34 56 3d
       -0.009297186 0.14460985 0.0053143273 0.05229594
0000f0 96 e9 40 bd 50 f9 e3 3d 3a 03 9b bd 36 90 31 3d
       -0.047097765 0.11131537 -0.07568975 0.04335042
000100 d5 f4 da 3c 67 94 85 bd 1c 9c a0 3d 54 04 42 3d
       0.026728073 -0.06522446 0.078422755 0.04736741
000110 7a ca 1f b7 5a cd ec bd 32 70 aa bd 94 a3 a1 3d
       -9.524281e-06 -0.11562605 -0.08322181 0.07892528
000120 01 ba 81 bd 9b 70 c8 3d c5 71 55 3d d1 31 82 bd
       -0.063343056 0.09787103 0.052110452 -0.06357158
000130 44 f8 83 3d 67 17 af 3d ab 38 22 bb dd bf 93 3d
       0.06443837 0.085493855 -0.0024753015 0.072143294
000140 a6 a9 7e bc 31 22 ed bd e9 ae 8b 3d e0 11 a5 3d
       -0.015543377 -0.11578787 0.06820471 0.0806005
000150 6a 2a d7 3d c8 86 3e 3b 80 61 f1 3c c3 e8 d9 bc
       0.10506137 0.0029072035 0.029465437 -0.026600247
000160 7d a3 ab 3d cc b2 1c bd 51 1e f5 3d fb 43 c3 bc
       0.08380792 -0.03825645 0.11968673 -0.023836127
000170 48 5f dd bd 69 10 12 be 05 63 a1 bb 86 3a 65 3c
       -0.10809189 -0.14264072 -0.004925134 0.013991004
000180 ac 9a 97 3a 03 b4 95 3b 67 c3 46 35 11 89 f9 3d
       0.0011566482 0.004568578 7.4045096e-07 0.121843465
000190 a6 e0 f8 3d 0d 4c e6 bd 53 e2 e8 3d cb ec 9f bd
       0.12152223 -0.11244974 0.11371293 -0.078088365
0001a0 f4 17 92 3d 3d 4c 74 bc 30 09 15 be a7 67 8a bc
       0.07133475 -0.014910755 -0.14554286 -0.016895128
0001b0 5c 9c 88 3d c7 1b df 3d e3 32 ec bd e2 5b cf 3c
       0.06670448 0.1089397 -0.11533143 0.025312368
0001c0 41 a7 29 bc 3d c5 41 bd e6 be 3c bc d6 1c f6 bc
       -0.010354818 -0.04730724 -0.011520123 -0.030043047
0001d0 12 a5 00 bd 45 6f e4 3d 93 c0 1a 3b ac 38 bb bd
       -0.031407423 0.111540355 0.0023613318 -0.09141669
0001e0 a8 ff 07 3e 33 cf eb bd 0f e6 5e 3d 5d 6d c0 3d
       0.13281119 -0.115141295 0.05441862 0.093958594
0001f0 58 f6 3c 3c 0d 21 15 3c bf 3d cc bd 5b 25 fc 3c
       0.011533342 0.009102118 -0.09972715 0.030779531
000200 c5 8d 27 3d 14 04 b2 ba da 63 61 3c 71 5a f6 bd
       0.040906686 -0.0013581538 0.013756717 -0.12028969
000210 a4 33 14 39 c5 14 14 bd 11 6a 19 3d 71 a8 ab 3d
       0.00014133618 -0.03615262 0.03745467 0.08381737
000220 b3 fb f4 3d b8 65 c4 bd 9b 87 82 bc 99 91 fd 3d
       0.1196207 -0.09589714 -0.015933802 0.12381286
000230 62 9e 3e bd 16 2c f6 3d 6e 99 3f bd e0 8e d8 bd
       -0.046537764 0.120201275 -0.04677718 -0.10574126
000240 84 dd 28 3d 1e e2 fb bd cd f5 e9 bd b2 fd ba bd
       0.04122688 -0.12298988 -0.11423836 -0.0913042
000250 b3 01 71 bb 7d cd f2 3b 30 73 78 bd 1c 99 cb bb
       -0.0036774694 0.00740975 -0.060656726 -0.0062133204
000260 90 aa 2d bb 2f f9 02 3e 4b c1 81 bc b7 69 b4 3d
       -0.0026499368 0.12790368 -0.01583924 0.08809226
000270 d1 fe fe 3c d4 ad 2d bd 50 46 d3 3c 9f db a3 3d
       0.031127365 -0.042402104 0.025790364 0.08000874
000280 aa 80 63 bd a1 ae c6 3c 7e a8 35 34 d1 49 a2 3c
       -0.055542625 0.024253191 1.6918236e-07 0.019810589
000290 84 ad cf 3c 36 68 d9 3d 95 5b d8 bd 0f e7 ae 3d
       0.025351293 0.1061558 -0.10564343 0.08540165
0002a0 87 c1 d8 bb c6 22 4a bc d0 af ad bc 6a 1e a9 bc
       -0.006614867 -0.012337392 -0.021201998 -0.020644385
0002b0 bc eb 9a ba 00 85 cf 3d 76 a5 06 be 36 af 4e bd
       -0.0011819522 0.101327896 -0.13149056 -0.050460063
0002c0 91 d1 57 bc b3 b7 93 3d 19 2d 54 3d 2f ee 25 bd
       -0.013172523 0.07212772 0.05180082 -0.040510353
0002d0 4f 5e d9 3d 0c f9 71 3c 40 86 1f bb 81 14 1c 3d
       0.10613691 0.01476885 -0.0024341494 0.03810549
0002e0 a2 68 0f bc 9c 63 22 3c 93 ed 81 3b 7a 34 45 bd
       -0.008752974 0.009911444 0.0039650886 -0.04814575
0002f0 b2 6d 37 bd 4e a2 7f 3c a2 f6 36 bd 41 aa dc bd
       -0.044782348 0.015602661 -0.0446688 -0.10774661

classifier.0.bias f4 [3]
000000 79 1d c6 bd ed b3 dc 3d fc ec eb bd
       -0.0967359 0.107765056 -0.115198106
