benchmark_experiment/experience_1_2_3_50_epochs_new/model_experience_1_2_3.pth (torch, 854482 bytes, 36 tensors)

features.0.weight f4 [32, 3, 3, 3]
-0.13261722 -0.04200873 -0.12256192 -0.16163774 0.09905236 -0.122470975 0.16454077 0.043260634
0.062750354 -0.07330243 -0.1407405 -0.12939541 0.06451133 -0.16710827 0.009849065 0.11933001
-0.02549697 0.04605062 -0.19638957 -0.14569357 -0.08276799 -0.114104755 0.01639547 -0.03380402
-0.039378125 -0.18235369 -0.048450712 -0.11282402 0.1152959 -0.183036 -0.08503406 0.09338233
-0.060408443 0.12434372 0.106334075 0.103549644 -0.07897394 0.03136095 -0.15009725 -0.054625954
-0.07990942 -0.017735122 0.014110037 0.15308155 -0.043370105 -0.058762126 -0.18126412 -0.1595157
0.0029580847 -0.110160805 0.16001312 0.15115921 0.043063685 0.024445498 0.114778675 0.12092071
0.019259078 0.045691617 -0.026558414 -0.103878655 0.10976521 0.1511255 -0.08245907 0.054111756
0.056669474 0.073767066 0.021209488 -0.18204154 -0.12996873 0.12915526 -0.032090805 0.14702457
0.0754908 -0.15190975 0.17642544 0.13560016 -0.17114638 -0.02050281 0.14231579 -0.15692002
0.1556195 -0.08288804 0.04008328 0.2009967 -0.10505365 -0.056940176 0.12903507 -0.17896976
0.07798512 0.040410988 -0.06175233 -0.11949169 0.0075921356 -0.17996153 0.14593421 0.15773267
-0.14348467 0.05622571 0.09522726 -0.06020636 -0.010324707 -0.14574215 0.05654912 0.14453842
0.1957882 0.13174643 -0.024231134 0.008160848 0.07793048 -0.09233183 -0.17003706 0.1687023
-0.10962619 -0.10826919 -0.025614036 -0.19611098 -0.06538906 0.1554965 0.1866711 -0.12379862
0.1796447 -0.0026969335 -0.1497336 0.13699748 0.06599118 -0.102973394 0.11350998 0.18092538
0.09601279 0.09366373 0.0048449873 -0.16102885 -0.058934063 -0.072658144 0.097857736 -0.045699526
0.015441917 0.028585926 -0.063600935 0.11151036 -0.0814515 0.18710652 0.15257247 -0.029611142
-0.08759057 0.19389383 0.009988638 0.03563534 -0.0057777897 0.02387255 -0.18455711 -0.037752707
0.055167034 0.15603216 -0.017831009 0.09870294 0.1748493 0.1573641 0.09729745 -0.005310438
-0.1432344 -0.12259399 0.08645751 -0.036051396 0.02213462 0.06595844 0.18095686 -0.12456472
0.03708446 -0.10321924 0.0667561 -0.11649527 -0.10232472 0.017688058 -0.04518637 0.05537931
0.14976309 0.045476604 0.032305554 0.17606401 0.022672322 -0.191026 -0.09506584 0.114325255
0.067714274 -0.116674 -0.07477135 0.15665974 -0.15133488 0.10442311 0.14650306 -0.033710074
-0.043238748 -0.060271043 -0.10732555 -0.16426794 0.02622669 0.089690216 0.079201624 -0.026067551
0.1285288 -0.029625295 -0.09278541 -0.19036911 -0.10527384 -0.029842068 0.18744156 -0.09434811
0.104464516 -0.097461544 -0.00763675 0.10772309 -0.17841984 0.14586183 0.15742911 0.0030921847
-0.17768785 -0.028733522 -0.18247725 0.19579253 0.083557926 0.17533273 -0.17738746 0.092639
-0.19968398 0.08372269 -0.008719283 -0.07798885 0.1922997 -0.107211895 -0.009150931 -0.13815737
0.046359275 0.041699868 0.047456022 -0.15295796 -0.104536414 -0.1573453 -0.17340751 0.13797292
0.10710605 0.025145037 -0.1146106 0.016314805 -0.088103674 -0.18534788 -0.15579495 0.1855476
0.10217242 -0.040632978 0.13982135 0.14879327 0.042064954 -0.07890322 0.09970042 0.030769587
00000000: cfcc 07be 5911 2cbd be01 fbbd 5d84 25be
00000010: f7db ca3d 10d2 fabd 607d 283e 1032 313d
00000020: 4283 803d 961f 96bd 471e 10be 3b80 04be
00000030: 841e 843d 6e1e 2bbe f95d 213c 4b63 f43d
00000040: 06df d0bc 939f 3c3d 591a 49be b230 15be
00000050: 4482 a9bd c1af e9bd cb4f 863c 1676 0abd
00000060: f54a 21bd edba 3abe 4174 46bd 4810 e7bd
00000070: 4220 ec3d ca6d 3bbe 5626 aebd 3c3f bf3d
00000080: d86e 77bd eca7 fe3d aec5 d93d d611 d43d
00000090: 17bd a1bd 5774 003d 18b3 19be 77bf 5fbd
000000a0: 8da7 a3bd 3f49 91bc c92d 673c 69c1 1c3e
000000b0: daa4 31bd 8eb0 70bd 4d9d 39be 1558 23be
000000c0: 6ddc 413b fd9b e1bd 7bda 233e 7bc9 1a3e
000000d0: 8c63 303d ed41 c83c 1511 eb3d 47a5 f73d
000000e0: 37c5 9d3c 2227 3b3d 0891 d9bc 55be d4bd
000000f0: 95cc e03d a5c0 1a3e 4de0 a8bd 4aa4 5d3d
00000100: 401e 683d 3013 973d 85bf ad3c 1969 3abe
00000110: 8616 05be 4741 043e a671 03bd 9c8d 163e
00000120: ec9a 9a3d 3b8e 1bbe dfa8 343e c5da 0a3e
00000130: ff40 2fbe 82f5 a7bc 3bbb 113e a4af 20be
00000140: b85a 1f3e 34c1 a9bd 5e2e 243d 14d2 4d3e
00000150: 5e26 d7bd 1a3a 69bd c521 043e d943 37be
00000160: aab6 9f3d fe85 253d 03f0 7cbd 0fb8 f4bd
00000170: 73c7 f83b d647 38be c76f 153e ac84 213e
00000180: a5ed 12be ee4c 663d 8206 c33d f29a 76bd
00000190: f628 29bc 6e3d 15be 0da0 673d e101 143e
000001a0: b47c 483e 89e8 063e 5f80 c6bc 14b5 053c
000001b0: 049a 9f3d 7818 bdbd 321e 2ebe 4cc0 2c3e
000001c0: b283 e0bd 3dbc ddbd 87d4 d1bc 51d1 48be
000001d0: b3ea 85bd 793a 1f3e b526 3f3e 228a fdbd
000001e0: c8f4 373e 09bf 30bb c453 19be 1149 0c3e
000001f0: 6226 873d b7e3 d2bd ec77 e83d 8144 393e
00000200: 5ba2 c43d c5d2 bf3d b3c2 9e3b bfe4 24be
00000210: d864 71bd cbcd 94bd a369 c83d 6d2f 3bbd
00000220: 1800 7d3c 082d ea3c 3541 82bd 8b5f e43d
00000230: 0bd0 a6bd da98 3f3e f53b 1c3e 1193 f2bc
00000240: af62 b3bd 1b8c 463e 62a7 233c 5df6 113d
00000250: 9d53 bdbb 5e90 c33c 8afc 3cbe 95a2 1abd
00000260: d4f6 613d e5c6 1f3e 5612 92bc c424 ca3d
00000270: b20b 333e 0e24 213e e343 c73d 2f03 aebb
00000280: 0aac 12be 8f12 fbbd a310 b13d a1aa 13bd
00000290: aa53 b53c 3815 873d c14c 393e ca1b ffbd
000002a0: e0e5 173d 9c64 d3bd 6cb7 883d 1295 eebd
000002b0: 9f8f d1bd 8ce6 903c 5815 39bd 6ad5 623d
000002c0: 7f5b 193e ad45 3a3d d452 043d 204a 343e
000002d0: 4ebb b93c 529c 43be e1b1 c2bd 5c23 ea3d
000002e0: c8ad 8a3d c7f2 eebd b921 99bd 696b 203e
000002f0: 88f7 1abe c9db d53d e604 163e 9313 0abd
00000300: 1d1b 31bd c5de 76bd 7fcd dbbd db35 28be
00000310: 5bd9 d63c 81af b73d 7634 a23d 9e8b d5bc
00000320: 0e9d 033e bfb0 f2bc 4706 bebd 1ff0 42be
00000330: d099 d7bd 5a77 f4bc aef0 3f3e 9539 c1bd
00000340: 7ef1 d53d eb99 c7bd b43d fabb ec9d dc3d
00000350: b1b3 36be ce5c 153e 1935 213e 40a6 4a3b
00000360: cef3 35be 9062 ebbc 51db 3abe d67d 483e
00000370: 6b20 ab3d 6c8a 333e 0fa5 35be 84b9 bd3d
00000380: f579 4cbe cd76 ab3d 53db 0ebc 9eb8 9fbd
00000390: 36ea 443e e991 dbbd c9ed 15bc 2079 0dbe
000003a0: 39e3 3d3d 7bcd 2a3d 3f61 423d 03a1 1cbe
000003b0: 3017 d6bd 201f 21be bd91 31be c648 0d3e
000003c0: 6b5a db3d f7fc cd3c f6b8 eabd a0a6 853c
000003d0: b36f b4bd d6cb 3dbe b688 1fbe 3100 3e3e
000003e0: c63f d13d c46e 26bd 542d 0f3e 435d 183e
000003f0: 4d4c 2c3d 0398 a1bd bc2f cc3d 8010 fc3c

features.0.bias f4 [32]
0.05583202 0.09760041 -0.13780554 0.09638972 0.1994352 0.10687605 -0.15218799 -0.023831613
0.1866727 0.062141795 -0.062389962 -0.1340135 -0.16977732 0.13406771 0.19083624 0.12315774
-0.12216224 0.17260689 0.022953024 0.165649 0.0637287 -0.06287213 -0.028890401 -0.04104684
0.08307904 -0.134314 -0.08855223 0.07874019 0.14003341 -0.10562808 0.026759181 -0.023937315
00000000: 1eb0 643d b9e2 c73d e51c 0dbe f967 c53d
00000010: be38 4c3e d5e1 da3d 2bd7 1bbe 843a c3bc
00000020: 2127 3f3e 6588 7e3d 9e8c 7fbd d63a 09be
00000030: 1bda 2dbe 0c49 093e 936a 433e 203a fc3d
00000040: 3230 fabd dcbf 303e fb07 bc3c e49f 293e
00000050: 3184 823d 1ac3 80bd 90ab ecbc bb20 28bd
00000060: 5825 aa3d 9c89 09be df5a b5bd 8942 a13d
00000070: eb64 0f3e 8953 d8bd 1236 db3c 3018 c4bc

features.2.weight f4 [32, 32, 3, 3]
-0.05438568 0.0042517697 0.035654422 -0.02154708 -0.008899235 0.04712681 -0.03638977 -0.04433288
0.05383889 -0.06137518 0.01199575 -0.02292303 0.01005113 -0.01226467 -0.008052018 -0.049252197
0.05569395 -0.024368126 0.0354739 -0.0055305096 0.04337229 -0.037303355 -0.04854851 0.040370848
0.019889161 0.047926113 -0.041213002 0.06080797 -0.03190334 -0.011998718 0.008073827 -1.2808738e-05
-0.04084211 -0.01898268 0.061359335 0.064423904 0.024251005 -0.00794441 -0.026718987 -0.020165375
-0.016067447 0.01781023 0.03513056 0.036446318 -0.061133977 0.00061710906 0.06515186 -0.020222098
-0.019173842 0.025065377 -0.002862783 -0.018511804 0.054915607 -0.0461255 0.009380869 0.03673855
-0.060674068 -0.03543731 -0.05294938 0.017501796 0.023643272 0.031698927 -0.049736463 0.026461937
-0.053123236 0.019172274 0.04816521 0.014371645 0.01094322 -0.040790334 0.0024271526 0.03536183
-0.01261277 -0.023202969 0.05479334 -0.029612327 -0.026414143 0.02380691 0.013835062 -0.041281965
-0.001563985 -0.01591756 0.041470822 -0.011917085 -0.045971017 0.04243775 0.03153523 -0.035994034
-0.019650456 0.0519713 -0.0126113305 0.004504304 0.06582777 -0.019853864 0.004205444 0.0518994
0.032728557 -0.00017488615 0.03546692 0.067889616 0.048314445 0.052430395 0.028558398 0.019577485
0.020400995 0.023824539 0.056645546 0.0476618 -0.02902252 0.0361078 0.008130173 0.06409434
-0.004962085 -0.01355635 0.05789326 0.055908635 0.057812613 0.026933685 -0.0028789465 0.03075217
0.03992119 -0.03138883 0.00616225 0.051000033 0.014498536 -0.044153553 -0.03972113 0.00740291
0.010433662 0.057493597 -0.042144693 -0.04982717 0.0050473656 0.027768984 0.049738966 -0.04581297
0.05450505 -0.03835342 -0.037809007 -0.026349703 0.008750864 -0.062005248 0.033337984 -0.053789876
0.05251709 0.024920898 -0.021698868 0.029348845 -0.034720514 0.046283484 0.019471707 -0.0072556236
0.03812173 -0.0016274878 -0.01492157 -0.04620954 -0.03256884 -0.00933109 -0.035672415 -0.01308247
-0.04309297 -0.0029184332 0.00957714 -0.026956841 -0.039633084 0.00721339 0.011490276 0.034368195
0.014726164 0.014789615 -0.027057063 0.044099435 -0.042631947 -0.03096999 -0.011547431 -0.017026255
0.028850842 -0.023741307 0.008719901 0.02731061 0.02768968 0.05204177 0.045866508 0.021111408
-0.04650262 0.039266847 -0.025443058 0.009229978 0.010617457 0.029163962 -0.05211271 -0.045285262
0.045426533 -0.00078865915 0.007640722 0.04353269 -0.061811734 -0.0025296342 -0.023893924 -0.018374627
0.0307516 0.0070764804 0.021853546 0.057127684 0.03206329 -0.030796964 0.018965455 -0.046534758
-0.028391112 -0.015241056 -0.06404001 0.04230577 0.04912044 -0.054889064 0.00095420354 -0.022824224
-0.01731632 -0.055335872 -0.042020146 -0.044724643 -0.030185314 -0.016610352 0.014260252 -0.00047947236
0.0017823568 0.0063292487 -0.015047889 0.023250611 -0.010373382 -0.038142696 -0.03119969 0.0066839345
-0.014064717 0.030611727 -0.026542759 -0.00069340144 0.05858482 0.046632208 -0.024826758 0.0066018486
0.0012422955 0.02374747 0.050157577 -0.023472259 -0.02517119 0.06449684 0.015310631 0.015573405
0.03349013 0.021576522 -0.054229394 -0.04998172 0.012474896 0.045872502 0.013694663 0.012925404
00000000: 85c3 5ebd 6e52 8b3b 5f0a 123d 8083 b0bc
00000010: 19ce 11bc 0b08 413d 710d 15bd 6596 35bd
00000020: 2b86 5c3d 8a64 7bbd d289 443c 14c9 bbbc
00000030: 7fad 243c c1f1 48bc 9cec 03bc acbc 49bd
00000040: 571f 643d aa9f c7bc 154d 113d 4739 b5bb
00000050: 24a7 313d 67cb 18bd cdda 46bd e75b 253d
00000060: 98ee a23c 2c4e 443d f7ce 28bd c711 793d
00000070: 14ad 02bd 4596 44bc 1648 043c 1ce5 56b7
00000080: 0e4a 27bd 9181 9bbc ed53 7b3d aef0 833d
00000090: 0baa c63c 4529 02bc c7e1 dabc db31 a5bc
000000a0: e19f 83bc c2e6 913c 10e5 0f3d bc48 153d
000000b0: 9f67 7abd 7dc5 213a 576e 853d d0a8 a5bc
000000c0: 7612 9dbc e855 cd3c 879d 3bbb 11a6 97bc
000000d0: 30ef 603d 18ee 3cbd 37b2 193c 297b 163d
000000e0: 5f85 78bd b626 11bd 73e1 58bd ed5f 8f3c
000000f0: 89af c13c bcd6 013d 76b8 4bbd b4c6 d83c
00000100: c097 59bd 2c0f 9d3c e248 453d 0c77 6b3c
00000110: 314b 333c c413 27bd dd10 1f3b 91d7 103d
00000120: cba5 4ebc 2714 bebc fb6e 603d 8d95 f2bc
00000130: 7962 d8bc b506 c33c 75ac 623c 4717 29bd
00000140: a1fe ccba 8b65 82bc 4fdd 293d e13f 43bc
00000150: 1b4c 3cbd 35d3 2d3d 162b 013d 7b6e 13bd
00000160: fef9 a0bc dcdf 543d c19f 4ebc d798 933b
00000170: b6d0 863d 92a4 a2bc d2cd 893b 7794 543d
00000180: 610e 063d a561 37b9 c345 113d b609 8b3d
00000190: 5ee5 453d 41c1 563d 4df3 e93c f660 a03c
000001a0: fd1f a73c ae2b c33c 2905 683d 0539 433d
000001b0: a3c0 edbc c6e5 133d 6b34 053c e543 833d
000001c0: fc98 a2bb 741b 5ebc 7c21 6d3d 7400 653d
000001d0: ebcc 6c3d 08a4 dc3c b5ac 3cbb faeb fb3c
000001e0: 6784 233d 9391 00bd b3ec c93b 69e5 503d
000001f0: 448b 6d3c 5bda 34bd a0b2 22bd 1c94 f23b
00000200: f3f1 2a3c 687e 6b3d ea9f 2cbd 9317 4cbd
00000210: 5f64 a53b c87b e33c 16bb 4b3d 61a6 3bbd
00000220: b040 5f3d 7a18 1dbd 9edd 1abd 55db d7bc
00000230: c95f 0f3c 37f9 7dbd 698d 083d c652 5cbd
00000240: 291c 573d e926 cc3c d3c1 b1bc fd6c f03c
00000250: 1937 0ebd c093 3d3d 2183 9f3c 95c0 edbb
00000260: 8825 1c3d 6e51 d5ba 9a79 74bc 3746 3dbd
00000270: e766 05bd 6ee1 18bc 3d1d 12bd db57 56bc
00000280: 4182 30bd 2f43 3fbb 70e9 1c3c 98d4 dcbc
00000290: 4d56 22bd 4d5e ec3b b641 3c3c aac5 0c3d
000002a0: 0246 713c 2450 723c c6a6 ddbc 9ca1 343d
000002b0: d69e 2ebd c7b4 fdbc 7031 3dbc a57a 8bbc
000002c0: 9a58 ec3c 217d c2bc eadd 0e3c 80ba df3c
000002d0: 78d5 e23c c029 553d 85de 3b3d d5f1 ac3c
000002e0: 8879 3ebd 46d6 203d f66d d0bc 5539 173c
000002f0: d8f4 2d3c 43e9 ee3c 2374 55bd 0a7d 39bd
00000300: 2c11 3a3d 05be 4eba 065f fa3b 554f 323d
00000310: 4d2e 7dbd 38c8 25bb 31bd c3bc 6386 96bc
00000320: c8ea fb3c d2e1 e73b 3506 b33c b8fe 693d
00000330: cc54 033d ea49 fcbc 715d 9b3c 3b9b 3ebd
00000340: 7a94 e8bc 9fb5 79bc 6927 83bd d148 2d3d
00000350: 8432 493d 5bd3 60bd 8423 7a3a def9 babc
00000360: f5da 8dbc dea7 62bd 511d 2cbd 3031 37bd
00000370: 3147 f7bc 6f12 88bc d5a3 693c b161 fbb9
00000380: f89d e93a 9665 cf3b 6c8b 76bc 1178 be3c
00000390: 1ef5 29bc 843b 1cbd 7e96 ffbc e804 db3b
000003a0: b36f 66bc 72c5 fa3c 3370 d9bc 62c5 35ba
000003b0: a3f6 6f3d 6a01 3f3d 7c61 cbbc 5254 d83b
000003c0: 85d4 a23a 0e8a c23c 0872 4d3d e548 c0bc
000003d0: d033 cebc eb16 843d 71d9 7a3c 9827 7f3c
000003e0: f22c 093d 3fc1 b03c a41f 5ebd a2b9 4cbd
000003f0: 8263 4c3c cee4 3b3d 945f 603c 13c5 533c

features.2.bias f4 [32]
0.03386752 -0.021564566 -0.017539324 0.037119903 -0.020742834 0.027242068 -0.0017081804 0.04257752
0.0122470055 -0.04669965 0.030178124 0.03267528 -0.058118306 -0.04457578 -0.018868035 0.06001954
-0.050987016 -0.04662256 0.03864077 0.02352345 -0.019553678 -0.055065017 0.053991623 -0.012470054
0.01395012 0.054572448 0.0008138082 0.004552461 0.017193515 -0.0069669243 0.030339092 -0.04232263
00000000: abb8 0a3d 2ca8 b0bc a1ae 8fbc 0a0b 183d
00000010: e0ec a9bc c22a df3c 06e5 dfba c465 2e3d
00000020: aaa7 483c 2248 3fbd 1d38 f73c 84d6 053d
00000030: 760d 6ebd 1895 36bd 2391 9abc 0dd7 753d
00000040: c3d7 50bd 4cf7 3ebd c945 1e3d 40b4 c03c
00000050: 092f a0bc db8b 61bd 5226 5d3d 334f 4cbc
00000060: 0b8f 643c 5c87 5f3d be55 553a d02c 953b
00000070: 6ad9 8c3c cc4a e4bb b089 f83c 7e5a 2dbd

features.5.weight f4 [64, 32, 3, 3]
-0.053092282 -0.04392221 0.017218234 -0.012320527 0.011233444 0.029436687 -0.018565578 -0.025131272
-0.027388804 -0.028396301 0.04180852 0.06407194 -0.04057178 -0.0053289384 -0.03616188 0.05011052
0.049773782 0.020851554 0.0009768403 -0.003512871 0.010797918 0.015983265 -0.01830731 0.002869559
0.028088013 -0.03316937 -0.023719314 -0.061526235 0.02861778 -0.012262212 -0.049040116 0.011497284
0.057396647 0.040866505 -0.029598525 0.030681284 -0.023486048 -0.038411304 0.0068227453 0.047636323
0.06351653 -0.034570254 0.0035924027 0.03461202 -0.014574858 -0.0069699893 -0.005949749 0.03285651
0.0019696117 0.031879563 -0.030930929 -0.04055154 0.037463132 -0.052105132 -0.052383482 -0.031996794
-0.009650706 0.04780043 -0.046719246 0.056315266 -0.0489811 -0.0028783272 0.038241323 -0.042290602
-0.00020445284 -0.061375964 0.052980233 0.035055943 -0.045243386 0.009424976 -0.022332069 -0.031401005
0.040892765 -0.047309406 0.016172636 -0.011283681 0.058588136 -0.039664373 0.07252154 0.052565914
-0.023681147 0.046727855 -0.031744346 0.01963568 -0.0065485258 -0.051769476 0.025112325 0.05267518
-0.006429099 0.0042619864 0.05609409 -0.014308444 -0.057850536 -0.0071401657 -0.033695772 -0.042022783
-0.027284807 0.04764523 -0.012846482 0.012743564 -0.029216848 -0.028597958 0.039427716 0.051915992
0.052311786 -0.01199639 0.045251604 -0.012784058 -0.039208606 0.021266947 -0.0032365404 0.03389373
-0.06774626 0.029612912 0.03603421 -0.035667755 0.0058838697 -0.0024911228 -0.012010071 -0.037954837
-0.016485907 -0.022418438 0.009396671 -0.01769257 0.010187684 0.02375402 -0.013132243 0.0042347456
0.013127874 0.0028368025 0.009302921 -0.049820386 -0.024111148 -0.026267283 0.045344062 0.021633212
0.0018608993 -0.024491739 0.055620108 -0.017096141 -0.0017609672 0.023860032 -0.032264277 0.022061154
-0.05015105 -0.023170153 0.020390952 0.025791848 0.021955326 0.003231721 -0.015786214 -0.0076770554
0.0005307827 0.016731232 0.022591906 -0.021888513 -0.0392145 0.011257359 0.04019313 -0.046622474
0.002570998 -0.013878469 0.05618808 0.051637657 -0.008837216 0.0050139 0.058648456 0.011729767
0.015870064 -0.0048939986 0.03878706 -0.032351166 -0.0018279551 -0.04503274 -0.027001157 0.063763164
-0.0059100315 0.047332637 0.045201223 -0.046950523 0.030962119 -0.018674634 -0.04669377 -0.015208213
-0.022406919 -0.018356744 0.019513657 -0.058707967 -0.048963226 0.019961478 -0.020185243 0.017374707
-0.0005459805 -0.013750597 -0.056390896 -0.0038191313 -0.02373179 0.03607541 -0.0007347969 0.025767712
-0.04467076 0.05034991 -0.050440207 0.018260514 0.020264965 0.013313098 0.051927578 -0.0398281
-0.047471806 0.032647897 0.050134435 -0.029233424 -0.025442757 0.019263126 0.0462929 0.05562758
-0.009258203 -0.03385352 -0.018409343 0.011222171 0.0116627 0.038239844 -0.0028702845 -0.0108359475
-0.020931486 0.050570063 0.061958905 0.0016563599 0.015304528 0.052901115 0.028291406 -0.03711748
0.06182468 -0.04740538 0.059503626 0.041516725 0.042445432 0.019042192 0.055067193 0.01710074
-0.0059399433 0.044170413 -0.0023746758 0.029453693 0.0422635 -0.03029321 0.02052294 -0.038790673
-0.061070953 0.051681314 0.024142811 0.03577577 -0.010291049 -0.001027519 0.023893656 -0.022228759
00000000: 4b77 59bd c6e7 33bd 410d 8d3c 09dc 49bc
00000010: 7b0c 383c 3525 f13c d716 98bc 19e0 cdbc
00000020: 7c5e e0bc 5c9f e8bc 693f 2b3d 2638 833d
00000030: 982e 26bd 609e aebb 7b1e 14bd b040 4d3d
00000040: 98df 4b3d e1d0 aa3c 5209 803a 3238 66bb
00000050: c0e9 303c 56ef 823c 36f9 95bc 360f 3c3b
00000060: d518 e63c 9bdc 07bd 024f c2bc ef02 7cbd
00000070: d66f ea3c 72e7 48bc 4ade 48bd 1b5f 3c3c
00000080: bf18 6b3d a363 273d 9b78 f2bc 5157 fb3c
00000090: d065 c0bc 2c55 1dbd 5691 df3b 4e1e 433d
000000a0: f414 823d 8a99 0dbd 846e 6b3b 55c5 0d3d
000000b0: 63cb 6ebc 8264 e4bb 1df6 c2bb 8c94 063d
000000c0: 9a14 013b 2594 023d dc62 fdbc 5f19 26bd
000000d0: f172 193d 316c 55bd 1090 56bd 120f 03bd
000000e0: ff1d 1ebc 62ca 433d ae5c 3fbd d6aa 663d
000000f0: 68a0 48bd 51a2 3cbb efa2 1c3d e938 2dbd
00000100: 6462 56b9 5d65 7bbd cd01 593d d296 0f3d
00000110: 2151 39bd 376b 1a3c bef1 b6bc 579e 00bd
00000120: 2c7f 273d 82c7 41bd 7a7c 843c 30df 38bc
00000130: 1dfa 6f3d 1c77 22bd 2c86 943d 5b4f 573d
00000140: f7fe c1bc b565 3f3d 5c06 02bd 01db a03c
00000150: 0495 d6bb 3b0c 54bd 5db8 cd3c eec1 573d
00000160: 31ab d2bb 22a8 8b3b ebc2 653d f76d 6abc
00000170: aff4 6cbd 0df8 e9bb 9404 0abd 1520 2cbd
00000180: 6384 dfbc a527 433d 0d7a 52bc 62ca 503c
00000190: 2c58 efbc 4446 eabc f57e 213d dda5 543d
000001a0: e244 563d 828c 44bc bf59 393d 3a74 51bc
000001b0: 3499 20bd 0538 ae3c 231c 54bb 27d4 0a3d
000001c0: 8dbe 8abd c796 f23c 9c98 133d 5a18 12bd
000001d0: 7acd c03b 1b42 23bb e4c5 44bc 8876 1bbd
000001e0: 740d 87bc dfa6 b7bc 7ff4 193c 02f0 90bc
000001f0: 3eea 263c ca97 c23c 9f28 57bc 9fc3 8a3b
00000200: 4b16 573c a6e9 393b 476b 183c 7610 4cbd
00000210: be84 c5bc 7c2e d7bc b2ba 393d 2238 b13c
00000220: 6be9 f33a e6a2 c8bc e9d1 633d 350d 8cbc
00000230: 41d0 e6ba 1d76 c33c 8c27 04bd 98b9 b43c
00000240: 306b 4dbd 55cf bdbc ed0a a73c 6d49 d33c
00000250: a8db b33c 48cb 533b 1752 81bc cf8f fbbb
00000260: 3924 0b3a f00f 893c a912 b93c 8a4f b3bc
00000270: 629f 20bd c970 383c 8da1 243d 35f7 3ebd
00000280: 307e 283b 8562 63bc 7925 663d 0282 533d
00000290: f8c9 10bc a44b a43b 5d39 703d 352e 403c
000002a0: f001 823c d65d a0bb 2edf 1e3d a882 04bd
000002b0: ff97 efba 4074 38bd 8831 ddbc 4396 823d
000002c0: f0a8 c1bb dedf 413d eb24 393d 314f 40bd
000002d0: 45a4 fd3c 8cfb 98bc f741 3fbd de2b 79bc
000002e0: b78e b7bc e260 96bc 1bdb 9f3c c477 70bd
000002f0: aa8d 48bd 4186 a33c 865b a5bc 6755 8e3c
00000300: 2220 0fba 2f4a 61bc 24fa 66bd 644a 7abb
00000310: 2c69 c2bc cfc3 133d 639f 40ba cf16 d33c
00000320: b0f8 36bd b53b 4e3d 649a 4ebd 1397 953c
00000330: b602 a63c 2e1f 5a3c 03b2 543d ca22 23bd
00000340: cc71 42bd cdb9 053d c459 4d3d ef7a efbc
00000350: 546d d0bc b4cd 9d3c a09d 3d3d bfd9 633d
00000360: b8af 17bc fda9 0abd 31cf 96bc 32dd 373c
00000370: e914 3f3c 62a1 1c3d 621b 3cbb 4289 31bc
00000380: 8278 abbc 8e22 4f3d 9fc8 7d3d 371a d93a
00000390: d8bf 7a3c d7ae 583d 61c3 e73c 8008 18bd
000003a0: e03b 7d3d 252c 42bd 13ba 733d 710d 2a3d
000003b0: 43db 2d3d 5ffe 9b3c 238e 613d da16 8c3c
000003c0: dba3 c2bb 09ec 343d 73a0 1bbb df48 f13c
000003d0: 7e1c 2d3d 7729 f8bc ba1f a83c f8e2 1ebd
000003e0: 8925 7abd c9af 533d 25c7 c53c 9d89 123d
000003f0: ca9b 28bc d1ad 86ba a1bc c33c 1619 b6bc

features.5.bias f4 [64]
0.012146852 -0.032270998 -0.048912957 0.012533915 -0.027356524 0.020677434 0.054408427 0.029415634
0.03862473 -0.04361568 0.013851046 -0.023742352 0.03496301 -0.05305425 0.036454707 0.02282512
-0.0035755974 -0.01854405 0.057373185 0.002219861 -0.05873546 0.04865259 -0.029187828 0.03298287
0.04464255 0.0024460005 0.051972926 -0.025590707 -0.0027995475 -0.011902725 -0.010888485 -0.052491736
-0.020093963 -0.01785312 0.014794567 -0.043619126 -0.0427273 -0.027477346 0.04461846 -0.005545121
-0.04679349 0.014399192 0.0126592005 -0.051005907 0.037514806 -0.027949808 -0.031813845 -0.0011809303
-0.05145404 0.011782556 0.013092563 0.055351976 -0.026482541 0.04479575 0.036506385 0.045865335
0.019881899 -0.051690213 0.027894404 0.0010233682 -0.0035529844 -0.037591837 0.009398145 0.023703642
00000000: 9703 473c 982e 04bd f458 48bd 0d5b 4d3c
00000010: ca1a e0bc b963 a93c 5fdb 5e3d 0ef9 f03c
00000020: f734 1e3d 5ba6 32bd 7fef 623c 527f c2bc
00000030: 6035 0f3d 6a4f 59bd 8851 153d bffb ba3c
00000040: 9254 6abb b1e9 97bc 2500 6b3d 167b 113b
00000050: 9894 70bd f047 473d 501b efbc 0c19 073d
00000060: 1bdb 363d 144d 203b 90e1 543d 9aa3 d1bc
00000070: 9d78 37bb a603 43bc 9e65 32bc 9301 57bd
00000080: 189c a4bc b540 92bc e964 723c f8a9 32bd
00000090: d202 2fbd 2c18 e1bc d9c1 363d d9b3 b5bb
000000a0: 88aa 3fbd 97ea 6b3c 8968 4f3c 92eb 50bd
000000b0: 20a9 193d fff6 e4bc 3c4f 02bd 72c9 9aba
000000c0: 79c1 52bd 9f0b 413c 3082 563c c1b8 623d
000000d0: eaf1 d8bc c07b 373d b887 153d 4add 3b3d
000000e0: 5ddf a23c 1eb9 53bd ce82 e43c 8a22 863a
000000f0: 30d9 68bb e6f9 19bd adfa 193c 242e c23c

features.7.weight f4 [64, 64, 3, 3]
-0.03601631 -0.043532483 -0.00578343 0.038203105 -0.022385674 -0.029727375 0.007310967 -0.03721317
0.010639029 0.0066699455 -0.014005538 -0.008348062 0.016396252 0.03867285 0.0038973084 0.009075803
0.017946517 0.025660992 0.005589099 -0.0044434266 -0.028073726 0.015105918 -0.013703032 0.027614508
-0.013975054 -0.030014526 0.013014019 0.033064734 0.036488667 0.014659861 -0.0045553804 0.026802301
-0.019067146 0.0020562487 0.013336784 0.042358886 -0.010627946 0.03981532 0.0055263387 0.00695378
0.0029857457 0.009218077 0.026972886 0.01876384 0.017255764 -0.01360125 -0.034603495 -0.03889993
-0.018183934 0.019527573 0.017810961 -0.007911727 -0.005118031 -0.025301054 0.029233888 -0.022035327
0.012314681 -0.0034859374 -0.013425287 -0.02456246 0.02772845 0.011123873 0.038821083 0.026223745
-0.008648928 0.030609468 -0.036925815 -0.026491052 0.00045053 0.0065856576 0.0022772597 0.007199186
-0.014307337 0.0021761097 -0.015730519 -0.011015453 0.010886543 0.008286282 -0.014194758 0.03020414
0.011368383 0.028197285 0.022584835 -0.013431038 -0.008142458 -0.019595623 -0.015760869 -0.00052230025
0.034822755 0.045923475 0.030283969 0.038443487 0.04144316 -0.036906846 0.007626341 0.0140350815
-0.012293251 -0.031670354 0.011384224 -0.0069106105 0.009449779 0.038377438 0.018256687 0.032172102
-0.013519734 0.030444589 0.014776886 0.005584959 0.04218472 -0.023457386 -0.028681407 -0.009233055
-0.009992241 0.027659662 0.029515171 -0.007413535 -0.021414652 0.01674955 0.03056083 -0.04967721
-0.0001449161 -0.015086046 -0.0060212226 -0.012644521 0.027984273 0.0051669995 -0.03543688 -0.037169278
0.02295684 -0.00017938363 -0.012588322 -0.04318857 -0.011384245 0.018520832 -0.007958508 0.04189055
-0.02248967 -0.028538955 -0.0021798767 0.04404249 0.015253068 0.035827775 -0.016110426 -0.013638381
-0.009666318 0.00033018453 0.0036059616 0.041843977 -0.025518795 -0.0068621305 0.031458948 0.00876667
-0.023881523 0.015067578 0.02172528 0.02530057 -0.01882819 0.046784908 0.029454801 0.045412462
-0.012822084 -0.012871292 -0.010615193 -0.017116029 -0.026456531 0.0068863747 -0.018084545 0.010474896
-0.01701119 -0.04072023 -0.011752315 -0.00733884 0.03611245 0.020057052 -0.0107465545 -0.011870161
0.021413215 -0.031148618 0.030397689 0.02360772 -0.028274449 -0.0023726427 -0.007309891 -0.0015668528
-0.016910447 0.019061252 -0.033542 -0.040986415 0.030500444 0.032616507 -0.008186806 -0.00043487016
-0.0050513567 -0.012395883 -0.026752 0.028336203 0.007154922 -0.003931242 0.036288477 0.019456858
-0.008462723 -0.038680766 -0.027121687 0.03348036 0.04286627 0.03798509 0.0040669814 0.028852582
0.002871097 0.024112614 0.02134341 -0.011979011 -0.042109158 0.026973635 -0.014069498 -0.025603337
-0.014660651 -0.028193861 0.002357582 0.031064648 -0.0135511225 -0.001034595 -0.02319559 0.0049784104
0.006494713 0.03454298 -0.008159926 0.031937804 0.039721623 0.04498715 -0.01174522 0.022601584
-0.014359012 -0.004834673 0.023099987 0.047201145 0.0077201705 -0.0025812679 -0.00483999 0.006205437
-0.007105363 0.025271082 0.021966424 -0.005371782 0.027883941 0.02412377 0.022354819 0.029897487
0.009054321 0.015860705 -0.010740414 0.008987171 0.02297715 0.0068716267 -0.02617913 0.018843358
00000000: d785 13bd 1e4f 32bd ed82 bdbb dc7a 1c3d
00000010: 2962 b7bc d386 f3bc d690 ef3b d66c 18bd
00000020: 524f 2e3c 8f8f da3b 7c77 65bc 4fc6 08bc
00000030: 6f51 863c 6c67 1e3d fc69 7f3b adb2 143c
00000040: 9304 933c 0037 d23c c324 b73b 2a9a 91bb
00000050: dffa e5bc d07e 773c af82 60bc d237 e23c
00000060: a0f7 64bc 06e1 f5bc c038 553c e36e 073d
00000070: 2475 153d ea2f 703c 4d45 95bb 8090 db3c
00000080: b432 9cbc 21c2 063b 8782 5a3c 8380 2d3d
00000090: d620 2ebc 6415 233d 4a16 b53b 89dc e33b
000000a0: 80ac 433b 6b07 173c 3ef6 dc3c a0b6 993c
000000b0: f65b 8d3c c7d7 5ebc 65bc 0dbd 8855 1fbd
000000c0: 79f6 94bc 4af8 9f3c 4be8 913c 30a0 01bc
000000d0: 28b5 a7bb 2844 cfbc e87b ef3c 6e83 b4bc
000000e0: 84c3 493c 5374 64bb bcf5 5bbc 3637 c9bc
000000f0: c626 e33c e840 363c db02 1f3d 2ed3 d63c
00000100: 3cb4 0dbc b5c0 fa3c 863f 17bd c303 d9bc
00000110: 1d35 ec39 80cc d73b 143e 153b 26e7 eb3b
00000120: 5269 6abc 109d 0e3b 4add 80bc 297a 34bc
00000130: 795d 323c 30c3 073c 2191 68bc ac6e f73c
00000140: 7442 3a3c fefd e63c d503 b93c db0d 5cbc
00000150: f267 05bc 0087 a0bc f01c 81bc faea 08ba
00000160: 4ea2 0e3d 411a 3c3d 1616 f83c eb76 1d3d
00000170: 4ec0 293d a22b 17bd 63e6 f93b 66f3 653c
00000180: a269 49bc c6b8 01bd e584 3a3c 6772 e2bb
00000190: 3fd3 1a3c a931 1d3d 0c8f 953c e5c6 033d
000001a0: e081 5dbc ee66 f93c c11a 723c 0802 b73b
000001b0: e3c9 2c3d b429 c0bc 45f5 eabc 3d46 17bc
000001c0: 7fb6 23bc 8496 e23c cdc9 f13c 3ded f2bb
000001d0: c86d afbc 5a36 893c b55a fa3c 557a 4bbd
000001e0: 9ff4 17b9 772b 77bc ad4d c5bb f72a 4fbc
000001f0: 463f e53c ef4f a93b 4326 11bd d03e 18bd
00000200: fc0f bc3c ed18 3cb9 403f 4ebc 7fe6 30bd
00000210: fc84 3abc 00b9 973c 6764 02bc 6d95 2b3d
00000220: 423c b8bc 87ca e9bc 43dc 0ebb e665 343d
00000230: 01e8 793c 25c0 123d 03fa 83bc 8473 5fbc
00000240: 7a5f 1ebc 9e1c ad39 ff51 6c3b 9764 2b3d
00000250: cb0c d1bc b9db e0bb 19db 003d 14a2 0f3c
00000260: 2fa3 c3bc 01de 763c 37f9 b13c 2443 cf3c
00000270: 943d 9abc 88a1 3f3d 324b f13c 6b02 3a3d
00000280: b813 52bc 1de2 52bc 59eb 2dbc ea36 8cbc
00000290: 5ebb d8bc 19a7 e13b 0a26 94bc e69e 2b3c
000002a0: 0d5b 8bbc 42ca 26bd c88c 40bc a77a f0bb
000002b0: a6ea 133d b04e a43c 5112 30bc 107b 42bc
000002c0: c46a af3c 632b ffbc 9304 f93c fa64 c13c
000002d0: d19f e7bc 577e 1bbb cf87 efbb db5e cdba
000002e0: c787 8abc 5826 9c3c 5663 09bd 5fe1 27bd
000002f0: 11dc f93c e398 053d f421 06bc 49ff e3b9
00000300: da85 a5bb 1a18 4bbc 0327 dbbc 5321 e83c
00000310: d673 ea3b a6d1 80bb 3aa3 143d fd63 9f3c
00000320: 3ca7 0abc b96f 1ebd 4d2e debc b422 093d
00000330: 8b94 2f3d 4196 1b3d 5044 853b 405c ec3c
00000340: 0429 3c3b d187 c53c 60d8 ae3c 9d43 44bc
00000350: a77a 2cbd d0f7 dc3c c083 66bc 17be d1bc
00000360: 3a33 70bc d0f6 e6bc aa81 1a3b 4a7b fe3c
00000370: 8705 5ebc 3f9b 87ba ae04 bebc ef21 a33b
00000380: 9ad1 d43b f17c 0d3d 36b1 05bc 37d1 023d
00000390: 24b3 223d 7244 383d 066f 40bc f526 b93c
000003a0: 1042 6bbc 2d6c 9ebb 2f3c bd3c fd55 413d
000003b0: 7cf9 fc3b 7d2a 29bb c798 9ebb fa56 cb3b
000003c0: 1bd4 e8bb 4d05 cf3c eef2 b33c c605 b0bb
000003d0: dd6c e43c 369f c53c 7421 b73c 93eb f43c
000003e0: 9358 143c 4fee 813c 90f8 2fbc ed3e 133c
000003f0: 933a bc3c 622b e13b 9d75 d6bc 635d 9a3c

features.7.bias f4 [64]
0.038875803 -0.006658579 0.02438628 -0.012828857 -0.02458879 -0.0075330804 0.03585919 -0.017633395
0.017034225 0.006976567 -0.018949874 0.025729053 -0.009125632 0.004298617 0.036114845 0.043077357
0.014875215 -0.020615673 -0.011045172 -0.03562294 0.02384434 -0.0008905971 -0.013359968 0.022807363
0.009214619 0.013255596 -0.03338618 0.04309685 -0.01814559 -0.0365014 -0.027819494 0.030663617
0.016659878 -0.0118921725 0.03942937 -0.041007 0.013815972 0.01974559 0.0047129425 -0.017119836
-0.014258126 0.0060122153 -0.034248248 0.011535373 -0.012081706 -0.0276672 -0.040290717 -0.02669695
0.036833152 -0.023164468 -0.035233777 0.010694824 0.03930576 -0.00034936538 -0.024223123 -0.009295673
-0.037311252 -0.02611881 0.01908002 -0.009114519 -0.004239385 -0.03156185 -0.043332737 -0.016007166
00000000: 3c3c 1f3d 3630 dabb bcc5 c73c 2030 52bc
00000010: 6e6e c9bc 0fd8 f6bb 16e1 123d e973 90bc
00000020: 5c8b 8b3c b09b e43b c43c 9bbc bcc5 d23c
00000030: ad83 15bc 6adb 8c3b 29ed 133d e271 303d
00000040: 2cb7 733c 33e2 a8bc cff6 34bc 5ce9 11bd
00000050: 3555 c33c f676 69ba c4e3 5abc 82d6 ba3c
00000060: eaf8 163c 002e 593c f2bf 08bd 5386 303d
00000070: 0fa6 94bc 7e82 15bd b5e5 e3bc 4432 fb3c
00000080: 4c7a 883c 63d7 42bc b180 213d f5f6 27bd
00000090: 635c 623c 81c1 a13c 076f 9a3b e63e 8cbc
000000a0: ea9a 69bc 1e02 c53b e447 0cbd dcfe 3c3c
000000b0: 59f2 45bc 53a6 e2bc e107 25bd 90b3 dabc
000000c0: 5cde 163d 69c3 bdbc 4b51 10bd 5839 2f3c
000000d0: 14ff 203d 072b b7b9 926f c6bc e14c 18bc
000000e0: afd3 18bd 1df7 d5bc b44d 9c3c 1055 15bc
000000f0: 8aea 8abb 0047 01bd ab7d 31bd 7621 83bc

features.10.weight f4 [64, 64, 1, 1]
-0.048865862 0.024045046 0.07014622 -0.104793645 -0.034803916 0.072027445 0.060420778 0.020659553
0.07041139 0.09735891 0.07799209 -0.011631485 -0.012349171 -0.014016579 -0.04513534 -0.014684339
-0.040064145 0.008709015 0.010885238 -0.009190331 0.08119344 0.035294726 -0.018091565 0.07859872
0.085581794 0.0035114328 -0.025458885 -0.13021065 -0.11337853 0.027668023 0.1160445 -0.021252463
0.045455005 -0.092432946 -0.09376116 -0.089054495 0.037867304 0.12869695 -0.07142763 0.109834984
-0.050009556 0.060717627 0.062512755 -0.030191654 0.0003625758 -0.12628639 0.07616748 0.07927378
0.07651625 -0.079430014 -0.090445116 -0.0126138525 -0.07417651 0.10915211 0.015375541 0.08837976
-0.11103063 -0.060919203 0.10856845 -0.023693597 0.09813988 0.1048288 0.029063214 0.11819172
0.077605575 -0.032834694 -0.10473178 0.054004047 0.032097843 0.0770609 -0.04429487 -0.05544979
0.029202698 -0.0026011737 -0.00094882806 -0.029726982 -0.014750076 0.078532904 0.06661891 0.003047126
0.022834208 -0.07327813 -0.08981144 0.072035566 -0.10934245 0.01437215 -0.08709605 -0.13548964
-0.012812801 -0.05886614 0.058707226 -0.060656473 0.10081494 -0.081995204 -0.010846698 0.062139243
0.11610776 -0.07804955 -0.009053279 -0.06946313 0.12150984 0.06357946 0.017295392 -0.005525078
0.07272523 -0.09553205 -0.04906053 0.10832697 -0.0652872 -0.059653904 0.039320722 -0.055144865
0.1055665 0.11634119 0.034510307 -0.111361176 -0.07132131 -0.11893464 -0.09007196 0.03146337
0.08135036 -0.111802764 -0.104537115 0.07161598 0.068434365 0.06932717 -0.08186065 0.09495829
0.12460159 -0.039120782 -0.009580861 0.116749175 0.11631906 0.07615349 -0.07759222 -0.017818898
0.03099577 -0.047813617 -0.10220419 0.12961587 -0.11406956 0.043425694 -0.06340292 0.07981329
-0.05662713 -0.007222428 0.056891114 -0.12235474 -0.008796511 -0.10076766 0.07768813 0.09241281
-0.024215145 -0.027263124 -0.09724311 -0.005247564 -0.083456144 0.008588859 -0.09553706 0.030838259
0.06689539 0.07105353 0.008911798 -0.109876394 -0.074990615 0.12740473 0.07910108 0.04366784
0.12412648 -0.06457803 -0.10819797 -0.07412711 -0.019743035 0.1015227 -0.08965801 -0.00025223845
-0.06846819 0.049438264 -0.018897964 0.0929407 0.07849626 0.10489214 0.1034465 -0.09786307
-0.00086956535 -0.08723558 0.04629247 0.0081489505 -0.07239615 0.008384217 -0.105599605 0.0076620155
-0.029520867 -0.0539193 -0.01429753 0.019672649 -0.018328728 0.112665415 -0.08484082 0.10432272
0.107452236 0.066308394 0.023840653 -0.09617309 0.004837699 -0.08199988 -0.028940517 0.0682972
0.079043046 0.11208484 0.07714695 0.009686958 0.059513506 0.027174875 0.12000423 -0.045360386
-0.030077316 -0.03714581 -0.0066280514 0.033642795 -0.001491247 0.11944109 0.10615182 -0.022363227
-0.10843464 -0.022979207 0.045213066 -0.027831702 0.122219026 0.07885361 0.015494096 0.024409473
-0.06519959 -0.029027423 0.11474137 -0.11317645 0.027360864 -0.06403926 0.026392732 -0.059218977
0.032786805 0.024445318 -0.06440213 -0.06549677 -0.021858806 -0.052334458 -0.040086433 0.0013853236
0.076442875 0.00806264 -0.015400263 -0.0012268053 0.06087375 -0.07006624 -0.0054277405 0.046546575
00000000: 9227 48bd 1efa c43c d2a8 8f3d 0d9e d6bd
00000010: 8d8e 0ebd 2083 933d c77b 773d 393e a93c
00000020: d933 903d 1c64 c73d 51ba 9f3d fc91 3ebc
00000030: 2d54 4abc cba5 65bc d6df 38bd 9596 70bc
00000040: 4d1a 24bd 42b0 0e3c ff57 323c 0b93 16bc
00000050: bf48 a63d 3491 103d c334 94bc 5ef8 a03d
00000060: 8245 af3d 1120 663b 278f d0bc f155 05be
00000070: 0133 e8bd 0da8 e23c bda8 ed3d a519 aebc
00000080: 072f 3a3d 7c4d bdbd da05 c0bd 3462 b6bd
00000090: bf1a 1b3d 22c9 033e a648 92bd 2af1 e03d
000000a0: d2d6 4cbd 0cb3 783d b006 803d 7d54 f7bc
000000b0: 1a18 be39 3851 01be b2fd 9b3d 4b5a a23d
000000c0: 8db4 9c3d 34ac a2bd 4a3b b9bd 55aa 4ebc
000000d0: dbe9 97bd 248b df3d b1e9 7b3c 7300 b53d
000000e0: 0764 e3bd 6a86 79bd 2359 de3d 1319 c2bc
000000f0: 90fd c83d 7bb0 d63d fa15 ee3c 800e f23d
00000100: acef 9e3d ac7d 06bd 9e7d d6bd 5933 5d3d
00000110: 0779 033d 1bd2 9d3d 8a6e 35bd 521f 63bd
00000120: 7f3a ef3c 7478 2abb c6ba 78ba 0086 f3bc
00000130: 4eaa 71bc dcd5 a03d 7f6f 883d 4bb2 473b
00000140: ce0e bb3c d812 96bd 0fef b7bd 6287 933d
00000150: efee dfbd 2b79 6b3c 6a5f b2bd ccbd 0abe
00000160: c8ec 51bc 9f1d 71bd fd76 703d ec72 78bd
00000170: 1078 ce3d 1aed a7bd 59b6 31bc b885 7e3d
00000180: e8c9 ed3d 71d8 9fbd 3454 14bc af42 8ebd
00000190: 27da f83d f335 823d 11af 8d3c b70b b5bb
000001a0: f7f0 943d 4fa6 c3bd b2f3 48bd 88da dd3d
000001b0: 4cb5 85bd a757 74bd c40e 213d 95df 61bd
000001c0: 4033 d83d 4a44 ee3d ae5a 0d3d 5411 e4bd
000001d0: e810 92bd 0194 f3bd a677 b8bd bcdf 003d
000001e0: 049b a63d d9f8 e4bd 8e17 d6bd 66ab 923d
000001f0: 5127 8c3d 67fb 8d3d 8ea6 a7bd 7e79 c23d
00000200: 1e2f ff3d 1d3d 20bd 0bf9 1cbc 311a ef3d
00000210: b038 ee3d 5cf6 9b3d abe8 9ebd f0f8 91bc
00000220: d7ea fd3c 36d8 43bd 6e50 d1bd 06ba 043e
00000230: 4d9d e9bd 24df 313d 64d9 81bd 2675 a33d
00000240: d9f1 67bd 1eaa ecbb a806 693d 1f95 fabd
00000250: 3e1f 10bc 465f cebd f41a 9f3d ed42 bd3d
00000260: d75e c6bc ea56 dfbc 6527 c7bd c2f3 abbb
00000270: 0eeb aabd 49b8 0c3c efa8 c3bd 84a0 fc3c
00000280: 7300 893d 8384 913d ca02 123c e006 e1bd
00000290: ae94 99bd 6376 023e bfff a13d 0ddd 323d
000002a0: 0636 fe3d 7c41 84bd e696 ddbd f4cf 97bd
000002b0: 25bc a1bc 22eb cf3d 9e9e b7bd df3e 84b9
000002c0: 0d39 8cbd c77f 4a3d e7cf 9abc b257 be3d
000002d0: a6c2 a03d b1d1 d63d c2db d33d 6f6c c8bd
000002e0: 8bf3 63ba 91a8 b2bd 2c9d 3d3d 2d83 053c
000002f0: 6f44 94bd f45d 093c 9b44 d8bd a511 fb3b
00000300: bfd5 f1bc 7cda 5cbd 3040 6abc 8928 a13c
00000310: 2126 96bc 20bd e63d 06c1 adbd 26a7 d53d
00000320: eb0f dc3d b2cc 873d 794d c33c 66f6 c4bd
00000330: 8f85 9e3b 8eef a7bd aa14 edbc 67df 8b3d
00000340: 52e1 a13d bd8c e53d 38ff 9d3d 0cb6 1e3c
00000350: 6fc4 733d d89d de3c c7c4 f53d d0cb 39bd
00000360: b464 f6bc 3426 18bd 2030 d9bb 07cd 093d
00000370: f275 c3ba 889d f43d 2066 d93d 1633 b7bc
00000380: fb12 debd e43e bcbc 5631 393d 4fff e3bc
00000390: f84d fa3d 007e a13d f3da 7d3c 60f6 c73c
000003a0: 5d87 85bd ebca edbc 86fd ea3d 0ec9 e7bd
000003b0: e423 e03c 0427 83bd 9235 d83c 998f 72bd
000003c0: 754b 063d 8c41 c83c 44e5 83bd 2c23 86bd
000003d0: 3d11 b3bc a85c 56bd ac31 24bd bf93 b53a
000003e0: 158e 9c3d 2a19 043c 6251 7cbc c1cc a0ba
000003f0: c156 793d e47e 8fbd 30db b1bb 9fa7 3e3d

features.10.bias f4 [64]
-0.02861293 0.009339008 -0.011067109 0.062836155 0.09805584 -0.027851608 0.022274893 0.08639631
-0.092350915 0.11146085 0.023759985 -0.04704457 -0.06739355 -0.0936867 0.014189142 0.10395614
0.009038638 0.10740505 0.10144819 -0.037078936 -0.11431722 0.017806448 0.101166844 0.059748456
-0.013653465 0.039697193 0.04101219 0.07049108 -0.0925197 -0.10134527 0.07613949 -0.016179668
0.08779732 0.09327054 -0.09481156 -0.0021689655 0.05562988 -0.064998075 -0.015933508 -0.1021234
0.06422837 0.049378626 0.049562432 -0.07897734 -0.0045709936 0.015210375 0.020657752 0.04438096
-0.05288552 -0.07014306 0.012222043 0.047432605 0.016640961 -0.07715434 0.038106386 -0.02327674
0.08415265 0.11893817 -0.069354385 -0.079786316 -0.025956634 0.088835604 -0.12403535 0.03786085
00000000: aa65 eabc a302 193c d252 35bc 3eb0 803d
00000010: 80d1 c83d 0e29 e4bc d679 b63c 8cf0 b03d
00000020: 7a22 bdbd 9645 e43d 4da4 c23c cfb1 40bd
00000030: a105 8abd d0de bfbd 9379 683c f5e6 d43d
00000040: cc16 143c 2ef7 db3d 12c4 cf3d 15e0 17bd
00000050: 261f eabd d4de 913c 9030 cf3d ccba 743d
00000060: c8b2 5fbc 8699 223d 66fc 273d a15d 903d
00000070: f87a bdbd 1c8e cfbd 05ef 9b3d 398b 84bc
00000080: 15cf b33d a004 bf3d 902c c2bd 3425 0ebb
00000090: 28dc 633d b61d 85bd fd86 82bc 1326 d1bd
000000a0: 2a8a 833d 3e41 4a3d fa01 4b3d dfbe a1bd
000000b0: 46c8 95bb f034 793c 723a a93c cfc8 353d
000000c0: 7d9e 58bd 2aa7 8fbd f73e 483c b148 423d
000000d0: a052 883c 1803 9ebd 7115 1c3d ddae bebc
000000e0: 3958 ac3d db95 f33d ac09 8ebd 0267 a3bd
000000f0: 02a3 d4bc 71ef b53d 3f06 febd fb13 1b3d

classifier.0.weight f4 [3, 64]
0.12874623 0.12964673 -0.03842226 0.11828362 0.051187977 -0.04200983 0.0013216436 -0.11584446
-0.010903576 0.056345437 -0.05654437 0.06634729 -0.06541367 -0.012852331 -0.00030280047 -0.0764801
-0.11919295 -3.695701e-05 -0.007069932 -0.04392769 0.09907277 0.033152755 -0.015370775 0.0017048905
-0.048040252 0.09291725 0.07322362 0.06534593 0.075765744 -0.03942407 -0.049731534 -0.03840378
-0.08361516 -0.03247409 -0.0372426 0.027251408 -0.11941816 0.000770659 -0.09972056 -0.10029434
-0.086390525 -0.019895688 0.007505245 0.04071169 0.0065682665 0.008182934 -0.0808938 -0.03188343
0.03930357 0.10464042 -0.020328896 -0.021470891 -0.035254143 0.022257295 -0.039203208 -0.07680598
0.08686418 0.099304356 -0.045474797 0.10080721 -1.2683013e-13 -0.11971811 0.06806547 -0.11090796
-0.06927754 -0.06886819 0.09742611 -0.099603824 0.08984116 0.0002844709 0.039212022 0.0591709
-0.016539326 0.020420402 -0.09186883 -0.018281832 -0.0022505322 -0.088410765 0.055631157 -0.08181283
0.050761364 0.112754196 0.11395305 0.12372341 -0.0826479 -0.08985466 0.013884316 0.11416171
-0.0018922715 -0.03685669 -0.086425304 -0.09716581 -0.0031992649 -0.00032628144 0.049648706 0.10133708
-0.07647229 -0.0349693 -0.05137758 -0.04326942 0.0073033683 -0.028361525 -0.05291501 0.055203643
-0.058796026 0.09338045 0.057317052 0.0555577 0.072619334 0.08173442 0.032343067 0.04290744
-0.0883681 -0.06451578 -0.032956038 -0.068510406 0.050926372 0.033116225 -0.0210358 0.043801017
-0.061659455 0.09573279 -0.007825802 0.0024366851 -0.031251095 0.079236545 -0.0016117772 -0.021250827
0.07697499 -0.054368343 -0.0772506 -0.108880475 0.015812162 3.0195664e-09 0.10681735 -0.069770455
0.09224293 -0.043949503 -0.12951474 -0.027594283 -0.093044855 -0.0519869 0.09554749 0.04145788
0.0055432776 -0.11239315 -0.104548395 0.021897685 0.034172483 0.031744387 0.021485366 -0.107496776
0.007012447 0.049903795 -0.072147995 -0.11040628 -0.05285107 -0.03171512 -0.05058641 0.003586824
0.040916756 -0.12598363 -0.080717556 0.060311362 0.029265903 -0.0037565553 0.1255363 0.051230393
-0.009643634 0.059839323 0.07764479 -0.025411032 0.07751239 -0.01630326 0.12774315 0.10428849
0.015062581 -0.053378563 -0.004626207 0.06363802 -0.11161553 -0.008763159 -0.07261668 -0.06361264
0.09149648 -0.0043623233 0.02263466 -0.014924471 -0.024643071 0.07885121 -0.096417956 0.0033154096
00000000: 0dd6 033e 1dc2 043e a960 1dbd af3e f23d
00000010: 7caa 513d 8012 2cbd 003b ad3a dc3f edbd
00000020: eaa4 32bc 79ca 663d 129b 67bd 17e1 873d
00000030: 9af7 85bd 9592 52bc 31c1 9eb9 99a1 9cbd
00000040: 6f1b f4bd 4a02 1bb8 e3aa e7bb 85ed 33bd
00000050: aae6 ca3d 2fcb 073d b4d5 7bbc a276 df3a
00000060: dbc5 44bd 664b be3d 44f6 953d 16d4 853d
00000070: 122b 9b3d 227b 21bd 4bb3 4bbd 484d 1dbd
00000080: 6d3e abbd 8d03 05bd b28b 18bd 583e df3c
00000090: 8291 f4bd 0d06 4a3a 4b3a ccbd 1e67 cdbd
000000a0: 84ed b0bd 48fc a2bc 8fee f53b 4dc1 263d
000000b0: 9d3a d73b b611 063c a6ab a5bd 3398 02bd
000000c0: c8fc 203d b74d d63d c988 a6bc b9e3 afbc
000000d0: a666 10bd ee54 b63c 8b93 20bd 744c 9dbd
000000e0: d9e5 b13d 1560 cb3d c843 3abd 0374 ce3d
000000f0: 4ccc 0eaa c52e f5bd e965 8b3d b623 e3bd
00000100: 62e1 8dbd c40a 8dbd 5787 c73d 17fd cbbd
00000110: a4fe b73d 0a25 9539 c99c 203d 305d 723d
00000120: 7b7d 87bc b048 a73c ba25 bcbd c8c3 95bc
00000130: aa7d 13bb b410 b5bd 7fdd 633d 7c8d a7bd
00000140: 26eb 4f3d aceb e63d 3760 e93d b362 fd3d
00000150: 4d43 a9bd b805 b8bd 0b7b 633c 9dcd e93d
00000160: 1806 f8ba 0af7 16bd c0ff b0bd defe c6bd
00000170: c2aa 51bb c110 abb9 715c 4b3d d189 cf3d
00000180: 819d 9cbd f83b 0fbd 4c71 52bd 463b 31bd
00000190: 1851 ef3b 6e56 e8bc 69bd 58bd 371d 623d
000001a0: 1ad4 70bd 403e bf3d 49c5 6a3d 7990 633d
000001b0: 72b9 943d 6064 a73d 2a7a 043d b6bf 2f3d
000001c0: 56fa b4bd d920 84bd e9fc 06bd 2f4f 8cbd
000001d0: 2c98 503d e1a4 073d 4553 acbc b268 333d
000001e0: a08e 7cbd 8e0f c43d cb37 00bc cbb0 1f3b
000001f0: 2601 00bd c546 a23d 4542 d3ba 3716 aebc
00000200: 10a5 9d3d 57b1 5ebd 9035 9ebd bafc debd
00000210: 8288 813c c680 4f31 0ec3 da3d d0e3 8ebd
00000220: dce9 bc3d 6504 34bd 839f 04be 680d e2bc
00000230: 4d8e bebd 37f0 54bd 67ae c33d bdcf 293d
00000240: 62a4 b53b 612e e6bd 781d d6bd c662 b33c
00000250: 72f8 0b3d 6706 023d 1402 b03c 4527 dcbd
00000260: abc8 e53b ec67 4c3d 54c2 93bd b01c e2bd
00000270: 5d7a 58bd b7e7 01bd b233 4fbd ec10 6b3b
00000280: 5498 273d da01 01be 3f4f a5bd 0c09 773d
00000290: 0cbf ef3c 8a30 76bb 968c 003e f6d6 513d
000002a0: 5500 1ebc 141a 753d 3b04 9f3d cc2a d0bc
000002b0: d1be 9e3d 6a8e 85bc 1acf 023e 3495 d53d
000002c0: 0bc9 763c 7ba3 5abd 7097 97bb a654 823d
000002d0: af96 e4bd 5a93 0fbc 0eb8 94bd 5847 82bd
000002e0: 8262 bb3d d2f1 8ebb 536c b93c c585 74bc
000002f0: 44e0 c9bc be7c a13d c776 c5bd 5847 593b

classifier.0.bias f4 [3]
0.12528594 0.11923226 0.044146027
00000000: f54a 003e 0b30 f43d 77d2 343d

exp_avg f4 [32, 3, 3, 3]
0.00015013148 0.0009828529 0.0008178591 0.0001285287 0.0010316792 0.0009528123 3.4449415e-05 0.0008755164
0.00094077544 -5.665244e-05 0.0008587987 0.0007594115 -9.786066e-05 0.00087769533 0.00085174915 -0.00022242224
0.0006700756 0.00078264065 -0.0006280932 0.00034812008 0.00065946946 -0.00047373484 0.00048581365 0.00082409265
-0.00043682382 0.00042752948 0.00083039206 -0.00032800803 -0.00039807893 -0.00017570492 -0.00096956233 -0.0010346812
-0.0007108681 -0.0017026613 -0.0017862897 -0.0013998054 -0.0006410737 -0.0006824605 -0.0004885905 -0.0013102723
-0.0013566458 -0.0010900422 -0.00205112 -0.0021328486 -0.0018091629 0.000936182 0.0013288697 0.0015202473
0.00026587464 0.0005810229 0.00089690037 -0.00037513117 -0.00018950383 0.00019523651 -0.0034152188 -0.0021587482
-0.0015999611 -0.0035455197 -0.002267985 -0.0016190689 -0.003531406 -0.0022127558 -0.0017421695 -0.0035318672
-0.0023618178 -0.0018264124 -0.0036594793 -0.002470071 -0.001864981 -0.003654087 -0.002412151 -0.0019878296
-0.0016238403 -0.0005516077 -0.00024096871 -0.0017918661 -0.00060245156 -0.0001313419 -0.0016885095 -0.00025227407
8.8217595e-05 0.0036017203 0.0018927518 -0.00055869826 0.0030519483 0.0012557799 -0.0009855161 0.0026047367
0.0009057514 -0.0009913287 0.0036332153 0.0018098844 -0.00086846104 0.002992103 0.0010852884 -0.0013586471
0.0024725688 0.000660969 -0.0013916544 0.0046918797 0.002977361 0.00076825556 0.003850464 0.0021302307
0.00026951227 0.0032794308 0.0016524388 0.0002670661 -0.0047794823 -0.0023729368 0.0009599154 -0.0046826624
-0.0020472137 0.0012196017 -0.004405998 -0.0016660965 0.0014254517 -0.0050122235 -0.0028830112 0.0003273623
-0.004873702 -0.0025372473 0.00058089994 -0.0045564035 -0.0021242218 0.0008170368 -0.0052212738 -0.0038946392
-0.0005046976 -0.004959353 -0.003168052 9.644319e-05 -0.004435122 -0.0022240672 0.00083407765 -0.0029619886
-0.0037915425 -0.0033018573 -0.0031002176 -0.003766654 -0.003166793 -0.0030528659 -0.0036505025 -0.0029842437
-0.0029766944 -0.0038299193 -0.0034011188 -0.0030735482 -0.0037676124 -0.0032442007 -0.003011819 -0.0036350528
-0.003059056 -0.002603534 -0.0035162084 -0.0032798338 -0.0027602108 -0.0034464994 -0.0030289139 -0.0027549458
-0.003327151 -0.0027804428 0.00071503856 -0.00025096702 -0.0009365935 0.00042033338 -0.0007618263 -0.0012698954
0.00029888927 -0.00096611964 -0.0013260155 0.00075711816 -0.00025022778 -0.00095814985 0.0004765268 -0.00074428547
-0.0012880857 0.00039865015 -0.00087788317 -0.0012846837 0.0033340545 0.0025371262 0.0018503501 0.00303548
0.0020075988 0.0015121475 0.0028487872 0.0017910015 0.001464964 0.00026944905 -0.00017151047 0.0008372363
0.00031990354 -0.00012726372 0.0007259804 9.1582755e-05 -0.00034785914 0.0003602872 -2.4011673e-05 -0.0005035562
0.0005660395 -2.6739144e-06 -0.00049234874 0.00041418587 -0.00024292278 -0.00074102124 3.662328e-05 0.00012235057
-0.0005116599 0.0006721894 7.8443656e-05 -0.00054429955 0.0005114558 -0.00024293677 -0.0008484136 9.282908e-05
-0.0013315089 0.0010550205 0.0012965947 -0.0014773877 0.0010145385 0.0013265901 -0.0016499648 0.00083415984
0.0010622229 -0.0016650722 0.0007328684 0.0010327388 -0.001792354 0.0007118688 0.0010507199 -0.0019662653
0.00053614954 0.0007723377 -0.0011588224 0.0011122354 0.001506095 -0.001149241 0.0011143138 0.0014683671
-0.0010731532 0.0011055603 0.0012882445 0.0007478837 0.00066862494 -3.7784823e-05 0.00041224164 8.1271064e-05
-0.0005553542 -0.00012213057 -0.0005706687 -0.0010292558 0.0006586567 0.0005967484 -0.00016136466 0.00029706588
00000000: 9d6c 1d39 12d3 803a 9865 563a a9c5 0639
00000010: 6939 873a 27c6 793a c77d 1038 e982 653a
00000020: 5f9e 763a 189e 6db8 0121 613a 3e13 473a
00000030: 8b3a cdb8 2315 663a eb47 5f3a 043a 69b9
00000040: 03a8 2f3a 202a 4d3a 9fa6 24ba e383 b639
00000050: 3fe0 2c3a 9d5f f8b9 ceb4 fe39 ec07 583a
00000060: 8005 e5b9 0926 e039 abae 593a 7ef8 abb9
00000070: 40b5 d0b9 6e3d 38b9 3a2a 7eba 249e 87ba
00000080: 8d59 3aba d52b dfba f021 eaba ad79 b7ba
00000090: ba0d 28ba 26e7 32ba c114 00ba 71bd abba
000000a0: 7bd1 b1ba bfdf 8eba 156c 06bb 43c7 0bbb
000000b0: 6f21 edba 1c6a 753a 782d ae3a 0943 c73a
000000c0: 1765 8b39 c94f 183a f71d 6b3a 41ad c4b9
000000d0: 8cb5 46b9 67b8 4c39 ddd1 5fbb c979 0dbb
000000e0: c9b5 d1ba f35b 68bb 79a2 14bb f036 d4ba
000000f0: 296f 67bb e203 11bb 8259 e4ba e676 67bb
00000100: bac8 1abb 3b64 efba e0d3 6fbb eae0 21bb
00000110: 6172 f4ba 6879 6fbb 2e15 1ebb 3f46 02bb
00000120: 0ad7 d4ba c499 10ba 8cac 7cb9 0ddd eaba
00000130: d7ed 1dba d3b8 09b9 fa50 ddba a743 84b9
00000140: 7601 b938 d70a 6c3b 3616 f83a 9b75 12ba
00000150: 3203 483b fb98 a43a 6f2c 81ba 3bb4 2a3b
00000160: f36f 6d3a 79ef 81ba 3d1b 6e3b a539 ed3a
00000170: 6fa9 63ba 2917 443b 3c40 8e3a a214 b2ba
00000180: d20a 223b e144 2d3a 2c68 b6ba 57be 993b
00000190: d41f 433b c264 493a 1158 7c3b 579b 0b3b
000001a0: 534d 8d39 b8eb 563b a596 d83a 0105 8c39
000001b0: 349d 9cbb 4683 1bbb d5a2 7b3a 0571 99bb
000001c0: 8c2a 06bb 0bdb 9f3a 3160 90bb ec60 daba
000001d0: 39d6 ba3a 943d a4bb e7f0 3cbb d3a1 ab39
000001e0: 93b3 9fbb f247 26bb 8947 183a e24d 95bb
000001f0: 8736 0bbb 692e 563a 3817 abbb 343d 7fbb
00000200: af4d 04ba 1182 a2bb 189f 4fbb 8b41 ca38
00000210: 8054 91bb a8c1 11bb 01a6 5a3a ec1d 42bb
00000220: 877b 78bb f963 58bb 052d 4bbb f8d9 76bb
00000230: f889 4fbb 9712 48bb 453d 6fbb 4d93 43bb
00000240: a514 43bb 62ff 7abb 4ee5 5ebb 956d 49bb
00000250: 0cea 76bb a89c 54bb f061 45bb 113a 6ebb
00000260: 717a 48bb 0da0 2abb 3070 66bb 7bf2 56bb
00000270: a7e4 34bb aade 61bb be80 46bb 528c 34bb
00000280: 550c 5abb 1738 36bb 6d71 3b3a 3994 83b9
00000290: ba85 75ba 3160 dc39 4cb5 47ba 9e72 a6ba
000002a0: 3db4 9c39 3143 7dba b2cd adba 5779 463a
000002b0: 0131 83b9 592c 7bba 58d6 f939 271c 43ba
000002c0: fcd4 a8ba eb01 d139 be21 66ba d562 a8ba
000002d0: 2780 5a3b ea45 263b 7287 f23a e7ee 463b
000002e0: eb91 033b 4033 c63a b8b2 3a3b 0ac0 ea3a
000002f0: 0904 c03a d744 8d39 7ed7 33b9 fa79 5b3a
00000300: bab8 a739 1872 05b9 b84f 3e3a 1e10 c038
00000310: dd60 b6b9 eee4 bc39 ad6c c9b7 1601 04ba
00000320: 4562 143a 8071 33b6 f710 01ba 1627 d939
00000330: 16b9 7eb9 1841 42ba f39b 1938 3b4b 0039
00000340: ea20 06ba de35 303a 1e82 a438 53af 0eba
00000350: 3813 063a d8bc 7eb9 1368 5eba 3cad c238
00000360: 0686 aeba 9d48 8a3a 80f2 a93a e8a4 c1ba
00000370: 43fa 843a fae0 ad3a a243 d8ba 85ab 5a3a
00000380: 493a 8b3a 8d3e daba f71d 403a f75c 873a
00000390: 6ced eaba b59c 3a3a 4fb8 893a 75dc 00bb
000003a0: 638c 0c3a b576 4a3a a1e3 97ba 6dc8 913a
000003b0: 2a68 c53a 21a2 96ba 2b0e 923a 3976 c03a
000003c0: 0ca9 8cba 73e8 903a 50da a83a a00d 443a
000003d0: a946 2f3a 257b 1eb8 2322 d839 1270 aa38
000003e0: 3195 11ba 2d10 00b9 ee98 15ba 18e8 86ba
000003f0: b4a9 2c3a 1b6f 1c3a ff33 29b9 82bf 9b39
