run_2/benchmark_experiment_increased_data/experience_1_2/model_experience_1_2.pth (torch, 849657 bytes, 36 tensors)

features.0.weight f4 [32, 3, 3, 3]
00000000: 31c4 a13b 710c adbc 1cfb 113e 6c22 173d
00000010: 7530 453d 215d 3bbd c479 a33c 4477 333e
00000020: 3db8 36bb 4e8c 56bd ce2b 253e 7701 ec3c
00000030: c5ac 2d3e 2e33 25be d1e8 993d fa63 9f3d
00000040: 8eaf f4bd e9fe f7bd 100e dabd d906 4a3c
00000050: 8131 413e cf93 2dbe ea46 0fbe 3815 7fbd
00000060: f22f ab3d 5855 f93d c305 83bd 1afd a4bc
00000070: 1389 82bd 9052 88bd 3fbd c73d ed37 f2bd
00000080: 482f 02be 5102 07bd 11de 88bb 7b0c e53c
00000090: a131 aabd b3e8 d6bd ab58 703c 3970 4cbe
000000a0: de64 b1bc 3164 4dbd 4b59 37be 86ee 08be
000000b0: 065d c9bd 98e1 89bb 3013 653d d69f 04bd
000000c0: ac87 77bd ef02 2abe e373 97bd 3f86 44bd
000000d0: ae22 213e 70bb 143e f084 c3bd 95aa e8bd
000000e0: c892 c23d d10a 373e 7d98 66bb e2f2 25bd
000000f0: ef11 e6bc 4885 9e3d 6854 813d 396e 1f3e
00000100: bef7 003e d094 2ebe 9ef2 43be f984 2fbd
00000110: 31ef dcbd 934b d13d 4c1b 35be b20e 2c3e
00000120: f364 c2bd 9e37 4dbe d024 64bd 2eab 083e
00000130: 201d 2c3e 0a09 d8bd 7c7c 4ebd 0c31 923d
00000140: 2a03 af3c 7f2b 7cbd eda4 88bc 486b 39be
00000150: db07 a7bd 4254 00be e251 1e3d c923 f2bd
00000160: 8236 00be 9df0 1cbc 73ec 683d b3b9 083e
00000170: 9034 a7bd 3616 dd3d 5f79 8cbc 8d18 f3bd
00000180: f8d0 943c 0330 583d 1301 64bd e04c fdbd
00000190: 60dc 4bbe cae6 b33d 30da 933d 133e 2bbe
000001a0: abb5 2dbd f114 0bbe e89e ffbd 8d15 27be
000001b0: 2d29 d3bd 6b0e eebd 3c02 37be fbee 223e
000001c0: bb74 02be 2ac8 f03d 1bda 213e 3407 abbc
000001d0: f7a5 e3bc 02cb f33c ed06 073e 0306 1f3e
000001e0: 8097 0a3d 556e 8f3d f2cc 8cbd 661f bfbd
000001f0: 73e9 e7bc de4b ae3d 6d3b 273e e73f 17be
00000200: 472d 313e 6f6f 893d df80 f83d d98c 6fbd
00000210: d1ba bb3d 8f04 263e 1963 33be f431 75bd
00000220: 2599 35be 95c9 8b3d e03f 0d3e d9e1 3f3e
00000230: a20e 943d ac34 1d3e 64d7 373e a030 05be
00000240: 331b 06be fe56 bc3d 7cb6 eb3d e31c 34bd
00000250: d0ed 5b3e 80cf d6bd f4cd 2c3e 94d6 9e3d
00000260: 23d9 043c d5ec f93d 25e6 4d3e 4a41 093e
00000270: 0dd5 2d3e 79e6 b0bd 2216 e23d abc7 34bd
00000280: 77c3 ddbd 7e19 26bb 56c6 123d 61f9 423e
00000290: c154 d23d d6e4 ab3d de8f 28be da68 1b3e
000002a0: e192 13bd e922 c83b ef9c 473e 5797 7e3d
000002b0: d26e 073d daae 9cbd d5c9 00be 91e7 07be
000002c0: 2cef 853d 69ca 063e 38de 03be e594 bc3d
000002d0: a770 323e 6649 32be 0153 e33d 1e67 27be
000002e0: 0c21 673d 9eb7 c5bd 6cbc ec3d 9cc8 c3bd
000002f0: 956f 1abe 13a4 8bbd 78b6 f3bd dc02 c5bd
00000300: a683 19be 13d4 463d 4770 153d e4d2 92bd
00000310: fc03 0a3d eaee 37be 1ef2 dd3d c1ca 96bd
00000320: 0f20 3fbe 87b9 17be 401d 063e ebc0 2abe
00000330: 3682 e6bd d150 41be ce2b 25be ed45 53bd
00000340: 118e 35be c2c0 2ebe a3ad 0a3d a583 893d
00000350: 3e02 65bc e8d7 25bd 65dd 4cbe 5d56 803b
00000360: c669 0dbe a4c7 61bd 1554 973d 21fa 01be
00000370: 34d7 b2bd adca c2bd 0592 1fbe 1980 a9bd
00000380: 22fd 05be a8c4 6e3b 425e ed3d 69e1 11be
00000390: ae1d 38be 9590 4dbe 8927 94bc 90f4 c9bd
000003a0: eabb f43c 3dc8 5bbd dd98 50be dd58 3bbe
000003b0: 0002 283e fae4 44be f1d1 aabc 2c89 b1bd
000003c0: fdf2 973c b77d a63c eedd 44be ff39 a33d
000003d0: a59f 493e eb44 15be 8b39 1e3e 562c b03d
000003e0: bd4f 0abe f112 05be 269d f33d 1848 723d
000003f0: 2449 003e 3360 0a3e c273 e4bd 440e 013e
0.004936718 -0.021124097 0.14255947 0.03689806 0.048141915 -0.04574311 0.019955523 0.17525965
-0.002788081 -0.0523799 0.16129991 0.028809292 0.16960438 -0.16132805 0.07515109 0.07782741
-0.11947547 -0.12109167 -0.106472135 0.012330734 0.1886654 -0.16950916 -0.13991895 -0.062276095
0.08358754 0.12174481 -0.06397583 -0.02014022 -0.06373801 -0.066563725 0.09752893 -0.11827073
-0.12713349 -0.032961193 -0.004176863 0.027960053 -0.08310247 -0.104936026 0.014669578 -0.19964685
-0.021654543 -0.050144378 -0.17905156 -0.1337224 -0.09832196 -0.004207801 0.0559265 -0.032378994
-0.06043212 -0.16602682 -0.073951505 -0.04797959 0.15735886 0.14524627 -0.0954684 -0.11360661
0.095006526 0.1787522 -0.0035186105 -0.040514834 -0.028084723 0.07740265 0.06314927 0.1556939
0.12594506 -0.17048955 -0.1913552 -0.042851422 -0.1078781 0.10219493 -0.17686194 0.16802481
-0.09491911 -0.20040748 -0.05569917 0.1334655 0.16807985 -0.10548599 -0.050411686 0.07138261
0.021363813 -0.06156492 -0.016680205 -0.18107331 -0.08155795 -0.12532142 0.03865231 -0.11823232
-0.12520793 -0.009578851 0.05686612 0.13352089 -0.081643224 0.10795252 -0.017147718 -0.11869917
0.01816605 0.052780163 -0.055665087 -0.12368178 -0.19908285 0.08784254 0.0721935 -0.16722898
-0.04240958 -0.13582207 -0.12481481 -0.16316815 -0.10310588 -0.11623844 -0.17871946 0.15911476
-0.12739842 0.11756928 0.15805857 -0.020877458 -0.0277891 0.029759888 0.13186236 0.15529637
0.033835888 0.07003466 -0.06875028 -0.09332161 -0.02830956 0.08510564 0.16331263 -0.1477047
0.17302428 0.067107074 0.12133955 -0.058483932 0.09166492 0.16212676 -0.17518272 -0.059862092
-0.17734201 0.06825558 0.13793898 0.18738498 0.072293535 0.15352124 0.17953259 -0.1300683
-0.13096313 0.0919628 0.115094155 -0.04397286 0.21477437 -0.10488796 0.1687544 0.07755771
0.00810841 0.12203375 0.20107324 0.13403812 0.16975804 -0.08637709 0.11039378 -0.04413573
-0.108282976 -0.0025344784 0.03583368 0.19040443 0.10270072 0.08393256 -0.16461131 0.15176716
-0.036028747 0.0061076772 0.19493459 0.062156048 0.03306467 -0.07650538 -0.12576993 -0.1327193
0.06539759 0.13163151 -0.12877738 0.09208087 0.17425786 -0.17410812 0.11099816 -0.1634793
0.056428 -0.09654163 0.11559376 -0.095597476 -0.15081628 -0.06818404 -0.119000375 -0.09619686
-0.14991626 0.048542093 0.03648403 -0.071691304 0.033695206 -0.17962232 0.10837196 -0.07362891
-0.18664573 -0.14816867 0.13097095 -0.16675155 -0.112553045 -0.18878485 -0.16129991 -0.05158036
-0.17729975 -0.17065719 0.033857 0.06714562 -0.013977585 -0.040489107 -0.2000633 0.0039165453
-0.1380988 -0.055122033 0.07389084 -0.12693073 -0.08732453 -0.095113136 -0.15583046 -0.08276386
-0.13084844 0.0036433134 0.11590244 -0.14246143 -0.17980072 -0.20074685 -0.018085258 -0.098611
0.02987476 -0.05365776 -0.20370813 -0.18295617 0.16407013 -0.19227973 -0.020852061 -0.086687416
0.018548483 0.020323617 -0.19225284 0.07970046 0.19689806 -0.14577071 0.15451638 0.086022064
-0.1350698 -0.12995507 0.11895208 0.059150785 0.12527901 0.1351326 -0.111548916 0.12603098

features.0.bias f4 [32]
00000000: b397 83bd 0fed ffbd 3da7 2a3e f223 b7bb
00000010: cc9c 4f3e 78d4 033d 114d 953d 3036 033e
00000020: 6c77 58bd f012 14be fe98 3cbe 0ce0 083e
00000030: 950f 313d f960 c8bd 9093 dd3d 8d27 dbbb
00000040: d6b3 1f3e 9564 5c3d ca2d 9cbd d336 e2ba
00000050: 11c5 3a3e 8bc7 923c 393f 2bbe 1ccc ae3d
00000060: 92cf 39bc bcc3 f73d 354c 433e 0a96 21be
00000070: 333a b5bd 1a1b 633d 3d37 993d bfc1 543d
-0.06425419 -0.12496387 0.16665359 -0.005589002 0.20274657 0.032185048 0.0729009 0.1281364
-0.052848265 -0.14460349 -0.18417737 0.13366717 0.04322775 -0.09784121 0.10819161 -0.0066880644
0.15595946 0.05380686 -0.07625921 -0.001725877 0.18239237 0.017917415 -0.16723336 0.085350245
-0.0113409925 0.1209788 0.1907204 -0.15779892 -0.08848991 0.055445768 0.07481239 0.051942583

features.2.weight f4 [32, 32, 3, 3]
00000000: fe6c 703d cc8b 43bd 595e 09bd 1e4d abbc
00000010: 0b75 88bb 717c 3a3c beb3 3f3d 2caa 5ebd
00000020: ff70 0a3d a689 e53c a066 ba3c 7082 64bc
00000030: f567 973c a845 38bd 3a60 e63c 15e7 48bd
00000040: cfbc 39bd f028 c2bb 8245 b2bc b748 3a3d
00000050: dd38 06bd b348 803d 608b a2bc fb7c f83c
00000060: 8d60 143c cbc8 7dbb df88 9c3d 4baa bd3c
00000070: eb1f 863d 5b20 483d e337 273d 46e7 2bbd
00000080: f5ab 883d 4485 783d 36a9 8b3d 3035 bd3c
00000090: 8bde 023d d628 e5bc 5ebd 28bd 22d2 97bc
000000a0: 2cb6 08bd 8319 a43c 1184 3a3d ba8c 9e3c
000000b0: 6e4c 00bc 3a51 473c 78fe 54bc d9ef 85bc
000000c0: 97ed c43c 2784 463d ffac b63c c143 e23c
000000d0: e1a1 13bc 1f6d 5fbc 9e96 2b3d 9737 303d
000000e0: 30bd 043d 0cb7 223c 53bc 823c 272f dfbc
000000f0: f747 f53c fdd2 353d 74dc 1b3d 70d7 8d3c
00000100: 8cd4 583d 428d f73c fbd2 423d 422d f23c
00000110: c90b 9a3c ac20 083d aca1 383c 6df7 9e3b
00000120: e3fe b7bc 0db8 cebc 05fa a93c c987 1a3b
00000130: a497 723d a9db 8e3d 661d bfbc 5ae8 5d3c
00000140: 0c62 b93c 71a6 ecbb 918a 22bc 231f 333d
00000150: 9339 4c3c 8476 553d a258 463d 70e1 413d
00000160: 3cf8 823d 120b f33c 9e51 8fbc 4d80 a3bd
00000170: 35eb 28bd 1309 a13c 6e28 16bd e181 62bd
00000180: e7b6 aeba a9e4 73bd 3868 88bc 6e3b 45bd
00000190: 3ada 1d3d 1e68 423d 5e8a a8bc 4bca 1abc
000001a0: b570 0e3d 0eb4 fd3c bdd9 8abc d383 043d
000001b0: 0488 773d 0b07 7c3d f075 35bc 1ec6 0ebd
000001c0: 78b4 4f3d 8a2d c73b 8d72 043d 5f6d 8a3d
000001d0: d679 6c3d 351d 06bd 6834 01bd 6b66 65bc
000001e0: 2a63 023c c3de 643d 62a2 d63c 92f8 88bc
000001f0: 28ab 6a3d 72e6 38bd 8820 0dbc 5094 74bc
00000200: 61b1 153c a537 1c3d bbf0 20bd 15db 953b
00000210: 67d4 8b3b a42d 603c 4709 b1bb 90b8 5bbd
00000220: ede3 4bbd 8b07 83bd d614 cbbc 3a7c 89bd
00000230: 55ca 9abc 7be8 08bd 63d0 a6bd f7bc 8fbc
00000240: 05ff 33bb 50ed 853c 286c 12bc f154 62bc
00000250: e701 babc b911 3e3d 2372 283d 461e eabb
00000260: 4c63 15bd a7a8 55bd f47f c33c 5f26 463c
00000270: 9121 80bb 73c2 0c3d df94 183d 1eb3 383d
00000280: c7f8 4ebd 1cc6 7a3c 3b47 0b3c e93d b63c
00000290: 593a 7c3d 2067 18bc 1e75 483c 9df9 3d3d
000002a0: 4471 083d 915a 7a3d aa99 2d3d 6828 14bb
000002b0: b573 703d accb 553d 8fc1 48bd daf3 0cbd
000002c0: 0d08 49bd b937 46bc cb0d 313d 01f3 44bd
000002d0: 7000 d2bc 15a3 1c3c 936f 483d 0908 c2bc
000002e0: 09a5 59bd 8b4a 473d 7d07 333c bba9 00bd
000002f0: 6015 063d e53c ff3b 33fc d5bc c6e6 513d
00000300: 9af7 273d d427 a1bc 26e3 343d 37e8 3bbd
00000310: 496e c2bb 41ed 07bd 6025 443d 9d43 c03c
00000320: 1c37 8ebc 56c0 13bd ba38 5c3d 6536 1cbc
00000330: 5b30 bd3c 6aa7 ab3c b932 173d 1af3 1bbd
00000340: 1f58 b2bc ad86 07bd f855 1abd 80a7 f33c
00000350: 5db5 acbc d45d 523d 5a16 263d 1958 573d
00000360: 2f1a c1bc e29e 87bd 8ef7 0dbd c6a6 16bd
00000370: 4da3 8fbd 6a50 2e3d dcb2 293c 1095 d4bc
00000380: acb2 e23c c026 c6bc be21 40bd 77a8 363c
00000390: 693d 3b3a 0d62 26bd ac16 ab3c 5cfe 6b3c
000003a0: fe16 243c 4b8f 4d3d ca0f c8bc 84fd 7a3d
000003b0: 0420 c43b b6a3 43bc 739a 7a3d 989a 283c
000003c0: 7d9c 07bd 685b 423d 91ca 44bd 1888 0ebd
000003d0: 4f4b 393d 312d 193d 88ad 183c ea61 27bb
000003e0: a606 eebc 2b81 cdbc be11 52bd 77fa 2fbd
000003f0: d872 103c 4cad 6dbd 799d 953d 927e b23c
0.058697693 -0.047740743 -0.033537243 -0.020910796 -0.0041643432 0.011382208 0.046802275 -0.054361507
0.033799168 0.028019737 0.022754014 -0.013947114 0.018482188 -0.044988304 0.028122056 -0.049048502
-0.045346078 -0.0059252903 -0.02176166 0.045479503 -0.032769073 0.06263866 -0.01984185 0.030333033
0.009056223 -0.0038724418 0.076432936 0.023152491 0.065490566 0.04885898 0.040824782 -0.041968606
0.06673423 0.060673967 0.06819384 0.02309665 0.031950515 -0.027973574 -0.04119622 -0.018532816
-0.033376858 0.020031696 0.045536105 0.019354213 -0.007830722 0.012165362 -0.013000123 -0.01634972
0.024039073 0.048465874 0.022299288 0.027620198 -0.009010763 -0.013636856 0.041891687 0.043021765
0.032406986 0.009931337 0.01595894 -0.027244164 0.029941542 0.044390667 0.038052037 0.017314643
0.052937075 0.030218724 0.047564488 0.029562596 0.018804448 0.033234283 0.011269014 0.004851273
-0.022460407 -0.025234247 0.020749101 0.002357947 0.059226647 0.069754906 -0.023329448 0.013544166
0.02262976 -0.00722199 -0.009920732 0.043730866 0.012464899 0.05211498 0.04842437 0.047334135
0.06395003 0.029668365 -0.017494973 -0.07983456 -0.041239936 0.019657647 -0.03665965 -0.055299643
-0.0013329656 -0.05954424 -0.016651258 -0.04815238 0.038538195 0.047462575 -0.020573791 -0.009447644
0.034775455 0.030969646 -0.016949529 0.03235228 0.06043245 0.061530154 -0.011075482 -0.034856908
0.050709218 0.0060784267 0.032335807 0.06759142 0.05773338 -0.032742698 -0.03154412 -0.014001469
0.007958213 0.055876505 0.026200477 -0.01672009 0.057292134 -0.045141645 -0.008613713 -0.014927939
0.009136529 0.038139004 -0.03929208 0.0045732358 0.0042672637 0.013682757 -0.0054027173 -0.05364281
-0.049777914 -0.06397923 -0.024790209 -0.067131475 -0.018895308 -0.033424836 -0.08145215 -0.01754616
-0.0027465236 0.016348511 -0.008936919 -0.013814197 -0.022705985 0.04640362 0.041124474 -0.007144722
-0.03647165 -0.052162793 0.023864724 0.012094109 -0.0039102514 0.03436513 0.03725135 0.045092694
-0.05053022 0.015306022 0.008500869 0.022246318 0.061579082 -0.009301931 0.012234954 0.046380628
0.033311144 0.061121527 0.042382874 -0.0022607092 0.058704097 0.05219619 -0.049012717 -0.034412242
-0.049079943 -0.012098246 0.043226045 -0.04808331 -0.025634974 0.009560366 0.04893453 -0.023685472
-0.053135905 0.048655074 0.010927078 -0.031411868 0.03273523 0.0077892416 -0.026121235 0.051245473
0.041007616 -0.019672312 0.044161938 -0.045875754 -0.005933557 -0.033185247 0.047887206 0.02346974
-0.017360263 -0.036072098 0.053765036 -0.009534453 0.023094347 0.020953853 0.036913607 -0.038073637
-0.021770535 -0.03308742 -0.037679642 0.029742956 -0.021082575 0.051359013 0.04054866 0.05257425
-0.023572056 -0.06622101 -0.034659915 -0.03678014 -0.07013569 0.042557158 0.010357585 -0.025949985
0.027673088 -0.0241884 -0.04690718 0.011148564 0.0007142635 -0.040620852 0.020884834 0.014403906
0.010015247 0.050185483 -0.024421591 0.061276928 0.005985262 -0.011940887 0.06118245 0.010290764
-0.033108223 0.047450453 -0.048044745 -0.034797758 0.045237835 0.037396614 0.009318717 -0.002554054
-0.029055905 -0.025086006 -0.05128645 -0.04296347 0.008816443 -0.058026597 0.07305426 0.021788869

features.2.bias f4 [32]
00000000: e293 cbbc 594b c33c 8515 2cbd a07e 50bb
00000010: 9ccb 013d dc2f 4f3d a52b f43c 8d42 623d
00000020: 5692 55bc 7ea8 1a3d 6a83 f3bc 693d ffbc
00000030: 947a 513c 22f1 fdbc 8495 143d be20 5a3c
00000040: f137 b6bc ae11 3dbc 73a5 66bd f196 8dbc
00000050: df64 73bc 9b94 ac3a 45ef 4fbb 8a5d 3fbb
00000060: a628 843d e100 1dbd c6d2 0bbd ffa2 61bd
00000070: f0ab 263d f659 033d 5b51 383c 1925 99bb
-0.02485079 0.02383964 -0.04201271 -0.0031813756 0.031688318 0.05058275 0.029805968 0.05523925
-0.0130353775 0.037758343 -0.029725749 -0.031157212 0.012785573 -0.03099877 0.0362754 0.01331347
-0.022243472 -0.01153986 -0.05631013 -0.017283889 -0.0148555925 0.0013166846 -0.003172831 -0.002920004
0.064530656 -0.038330916 -0.034136556 -0.055087086 0.040691316 0.032068215 0.011249865 -0.004673612

features.5.weight f4 [64, 32, 3, 3]
00000000: 226e c0bc 1aa7 3b3b fcf2 02bd 88a0 703d
00000010: ed40 d7bc dcb2 043c 96da 073d 4acf 0ebd
00000020: bc90 c2bc fd10 943c 76e2 6a3b 350d f33c
00000030: a33b cdbc 297a b3bc d12d 5e3c 945f 433c
00000040: 73ed 8a3c 07d1 9dbb b145 91b9 9a82 643a
00000050: 5d9b 353a c300 993b dc0b 0d3b 6a72 8d39
00000060: 2b1e 023c e039 293a 08f9 1a3b 754f d93c
00000070: 32e9 aebb 38da 71bd b805 613c 7f19 76bd
00000080: 25c4 a23c 3482 503c 0aae fa3c 49b3 873c
00000090: a1bb 253d 29e5 63bd b6ff e43c e936 30bd
000000a0: 3455 1abd de1b 7bbd 675c 593c f01e 85bc
000000b0: dea5 5dbd e3a8 e23c 2bd6 853d a025 8a3d
000000c0: 45e8 813c f8b1 fe3a 93e2 b8bb 3527 1dbc
000000d0: 5288 d5bc 54a8 7c3d 6da3 56bc 6baa 13bb
000000e0: 3c7b 07bd 7edf 0abd 466c 4abd d931 fcbb
000000f0: c778 f73c 0618 34bd b666 853d 3a54 d7bb
00000100: 6bb3 133d e659 d73c c8f5 c7bc c042 0ebc
00000110: 0875 2ebd 2d72 a13c 8657 b13c 8f73 b43b
00000120: c67f 763c fe90 3bbd 05e2 aebc f34a 20bd
00000130: eca9 83bd 3a9c 6e3d 0206 66bd 951f 51bd
00000140: f7e6 0b3d 54d5 0fbc cff4 a6bd fa45 c13c
00000150: 81fc 93bc 8940 abbd 79e9 a6bc 87dc b0bc
00000160: ff39 4537 87bd 0abc 3c27 28bd 37ea 32bd
00000170: f433 2ebd 2f0c 37bd 5128 a8bd 0c90 35bd
00000180: 5033 2cbd 8641 e93a 15d1 0b3c 711d ab3a
00000190: da18 60ba 5e87 aaba 2b01 01bb 0a3a 703a
000001a0: accf e3b9 fd35 2c3b 33f7 353a 1b8f 133a
000001b0: 6f10 1ebd 7ae7 193d 36f6 c7bc 731a 8b3d
000001c0: 8e74 c23c 356d 343d 7738 683c 4a7a 7b3d
000001d0: bb64 afbb 4d8c 3fbd 5a60 e9bb 17f9 81bd
000001e0: 64cc c5bc 63b7 7f3c e818 6cbd db19 ed3c
000001f0: ad49 553d f67a 64bc 474f 373d 5774 00bd
00000200: 9507 fb3c 7c33 69bd 57d8 463c aa77 9e3b
00000210: 151e 1abd 9fc6 b8bc b274 d03c bc06 7e3d
00000220: e754 b03b 71f3 b4bb 6721 5d3d 0457 25bd
00000230: d7f7 303d a1e5 4fbd aca7 cfbc 83a3 c73c
00000240: b757 2ebd 9085 d9bc 003d 56bd cffd 10bd
00000250: 9eaf 723c c692 203d 0166 18bd df7e d2bb
00000260: eaff 12bc ac53 4bbd 4e4c f4bc 8c14 6b3d
00000270: d319 5ebc 5607 27bc e4e3 193d 57c8 72bc
00000280: 8e7e 3d3d 3aae bd3c 3766 7f3c fdf0 533d
00000290: 0900 1f3d 008b 1dbd f67a d7bc 4d04 a2bc
000002a0: 96fc 573d 167e 193d 9ec2 2e3d 6b79 483d
000002b0: bf8c 043d 870c fb3c 0f7c a83c 528d 4fbc
000002c0: 7334 ffbc f964 4fbd 3cbc 533d 4f29 23bd
000002d0: 6071 0ebd 8589 c0bb b2e5 f5ba bae7 47bc
000002e0: a2a3 29bd b1ab 5cbc 686c f23b 912c 4ebd
000002f0: 477d 15bd 2138 ca3c a6f2 193a 8b25 d0bc
00000300: fe04 70bd a103 92bd 7f16 43bd 6022 1d3d
00000310: 6851 0ebc 814d a3bc bacb 223d 1dd8 0dbd
00000320: 57cb d4ba 3faf 083d 431d 4fbd 5f8f bf3b
00000330: 4195 bdbc 7259 1f3d f937 8a3c 35a1 f3bb
00000340: b70c 013d b217 183d ac67 863c 1820 8e3d
00000350: 6ce9 643d b39a a23c 94ab ea3c 3572 133c
00000360: a469 943d f8b9 803d b6f7 93bc e08c d6bc
00000370: 5350 083c 9c0a 2cbd 1770 5d3c 7b0a 363c
00000380: 3d9c 22bd 799c 093d 6210 493c fba0 0cbd
00000390: 7d10 903c 5727 133d 9e05 293d 6fa7 3ebc
000003a0: 5202 633d d8eb 4d3d 7ad7 03bd adca 1c3c
000003b0: 633d 50bd 6185 97bb 9a44 a03c 0109 513b
000003c0: 76fb 56bd 2846 fabc 9a9a 98bc 27ac 453d
000003d0: 75c9 663d c840 813c ef7e e33c 8aab 9cbc
000003e0: 8f64 3f3d 2db3 0ebd f76e e3bc 99ff bd3c
000003f0: 21d8 edbb 6a7d 4f3d 0ab3 283d 6c10 283d
-0.023490015 0.0028633536 -0.03197001 0.058746845 -0.026276076 0.008099284 0.033167444 -0.034865655
-0.023750655 0.018074507 0.0035840548 0.029669384 -0.025052851 -0.021908836 0.013560728 0.011924643
0.016958928 -0.0048161778 -0.0002770848 0.0008716971 0.0006927753 0.0046692803 0.0021521961 0.0002697886
0.007941763 0.00064554624 0.002364697 0.026527146 -0.0053378576 -0.059046 0.013734274 -0.06008291
0.01986892 0.012726355 0.030600566 0.016564982 0.04046214 -0.055638466 0.027953964 -0.043021116
-0.037678912 -0.061305873 0.013266659 -0.016250104 -0.05411326 0.027668422 0.0653499 0.06745458
0.015857825 0.0019431701 -0.005642244 -0.009591867 -0.02606598 0.061683968 -0.013100487 -0.0022531997
-0.03307651 -0.033904545 -0.049419664 -0.007696372 0.030208958 -0.043968223 0.06513731 -0.00657132
0.03605978 0.026287984 -0.02440919 -0.008682907 -0.04259208 0.019707764 0.02164818 0.0055069397
0.015045112 -0.045792572 -0.021348009 -0.039133977 -0.064288944 0.058254458 -0.056158073 -0.05105551
0.034155812 -0.008778889 -0.08152162 0.023592938 -0.01806474 -0.083619185 -0.020375 -0.02158953
1.1755618e-05 -0.008468038 -0.04105304 -0.043680396 -0.042530015 -0.044689354 -0.08210815 -0.044326827
-0.042041123 0.0017796017 0.008533736 0.0013055039 -0.0008548625 -0.0013010313 -0.0019684534 0.0009163922
-0.00043451542 0.0026277297 0.00069414376 0.00056289294 -0.03858989 0.03757427 -0.024409395 0.06792154
0.023737218 0.04404946 0.0141736185 0.06139592 -0.005352584 -0.04676466 -0.0071220817 -0.06346338
-0.024145313 0.015607688 -0.05764094 0.028942993 0.052072216 -0.013945332 0.04475334 -0.03136095
0.030643264 -0.056933865 0.01213654 0.0048360424 -0.037626345 -0.022555647 0.02544627 0.06201814
0.005381215 -0.0055221845 0.053986933 -0.040366188 0.04320511 -0.0507561 -0.025348507 0.02436996
-0.04256412 -0.026552945 -0.052304268 -0.0353983 0.014812378 0.039202474 -0.037206654 -0.0064238156
-0.0089721475 -0.049640343 -0.029821541 0.057392642 -0.013555962 -0.01019462 0.03757085 -0.014818273
0.04626327 0.023154367 0.015588335 0.051743496 0.038818393 -0.03846264 -0.02630375 -0.019777441
0.05273112 0.03747376 0.04266607 0.04894392 0.03236079 0.030645622 0.020566968 -0.012667971
-0.03115294 -0.050633404 0.051693186 -0.039834317 -0.03477609 -0.0058757686 -0.0018760471 -0.012201244
-0.041415818 -0.013468669 0.007398177 -0.05033547 -0.036496427 0.024684967 0.0005872644 -0.025408527
-0.05859851 -0.071295984 -0.047628876 0.03836286 -0.008686401 -0.019934418 0.03974507 -0.03462993
-0.0016234916 0.033370253 -0.050565016 0.0058459486 -0.023142459 0.03890366 0.016872393 -0.007434989
0.031506266 0.037131973 0.016406856 0.06939715 0.05588667 0.019849157 0.028646268 0.008999397
0.07246712 0.06285471 -0.018062454 -0.026190221 0.008319932 -0.042002305 0.013515494 0.011110897
-0.03969978 0.03359649 0.012271972 -0.03433321 0.017585987 0.03592619 0.041265123 -0.011636599
0.055422135 0.050273746 -0.032187916 0.009569806 -0.050839793 -0.0046240543 0.019563962 0.0031896236
-0.052485906 -0.030551031 -0.018628407 0.04825988 0.05634447 0.01577796 0.027770488 -0.019124765
0.04672676 -0.034838844 -0.027762873 0.023193168 -0.0072584306 0.050656714 0.04118637 0.041031286

features.5.bias f4 [64]
00000000: f95b 813c be36 b73b 0ce0 51bd e208 5e3d
00000010: 5c59 e4bc b659 9c3c 30f8 4cbd 33af f13b
00000020: 3324 703b ee39 49bd e04a 143d 1ef6 583d
00000030: 2d38 7bbd 720f 22bb 1d30 24bd 1f1f 7a3d
00000040: b140 28bb 90f8 4fbd 6190 df3c 095e b3bc
00000050: be32 71bc a7bb f63c b1db 293d 58ab db3c
00000060: 9ff8 cbbc 89fb 24bd b16b 3dbd fec2 193c
00000070: 5e07 d6bb 5ab8 7c3c 2332 4ebd ceda 04bd
00000080: 2eeb c1ba 19ad 51bd dc78 55bd 9c25 4dbd
00000090: fcae 33bd ce86 5c3c 2368 08bd 4dea cebb
000000a0: 03b0 dcbc b0fb 793c 2bb4 133d 64e3 853d
000000b0: fee7 29bc 621d 533b 1e62 ddbb 9917 823d
000000c0: e274 45bd 346b 6b3d e7b6 ef3c 5b7b b1bc
000000d0: 49bc 3ebd 841c 0c3d 842e 133d af60 3cbd
000000e0: 4091 ccbc c9d4 533c ffe5 463d 38ce 40bc
000000f0: 7d91 76bc 75f6 39bc 9b20 eabc 9e61 2f3d
0.015790926 0.0055912426 -0.05123906 0.05420769 -0.027874641 0.019085746 -0.050041378 0.0073756217
0.003664267 -0.04912751 0.03620422 0.05296909 -0.06133287 -0.0024728444 -0.040084947 0.061064836
-0.0025673325 -0.050774157 0.027290525 -0.021895425 -0.014721571 0.030118776 0.04146928 0.026815102
-0.024898825 -0.040278945 -0.04624528 0.009384869 -0.00653164 0.015424812 -0.050340783 -0.03243523
-0.001479482 -0.05119047 -0.052117214 -0.050084695 -0.04386805 0.013459874 -0.033302438 -0.006314552
-0.026939398 0.015257761 0.036060493 0.06537512 -0.010370253 0.0032213558 -0.0067560812 0.06352157
-0.04820717 0.057475284 0.02926202 -0.021665266 -0.04656628 0.034206882 0.035933033 -0.045990642
-0.024971604 0.01292915 0.048559185 -0.011767916 -0.015049336 -0.011350264 -0.02858 0.042817704

features.7.weight f4 [64, 64, 3, 3]
00000000: 2750 273c 457a adbc 95b1 003c ba83 20bc
00000010: 1b03 133d 1f81 a8bc d132 98bc 6703 afbc
00000020: 6cea 053d e880 793c 0752 a23c 2b19 833a
00000030: 849b 1cbd 5c3f cdbc e012 4fba 9069 74ba
00000040: d478 e2bc 2db4 0d3d fe50 d53b b72b 0f3d
00000050: 8964 c13c 8c10 903c 99f3 123d 77f7 20bc
00000060: fd49 07bd c453 1d3d 510c 3abc a14c 2b3b
00000070: e07d 4ebc 456b 08b9 30da 903c b38e 023c
00000080: 6771 dabc d4e9 cd3c 3968 cdbc 8e1e 4fbc
00000090: 8b7f 08bd a235 25bd 4876 02bd 0540 b23c
000000a0: 9eeb 19bd c308 febc 473f a8bc d096 d83b
000000b0: 0cdf 41bd 8036 e53c f21a 853c 4edd 573c
000000c0: 288e 7c3c e726 98bc 092c 0bbd 97a7 4b3c
000000d0: ee16 94bc 03ff 263d 4855 f5bc d3bf 103c
000000e0: a96c c63b 4a84 1cbd c34c 133c 9d77 893c
000000f0: be77 33bd 3eec e9ba 21bf 853c d4aa 47bc
00000100: 4a34 d43c 95a9 89bc 2402 a1bb 11b1 9f3b
00000110: ed79 c5bb 81b8 4abc 39b5 c2bc 9da9 3fbb
00000120: fa10 423c 65e8 f3bc 30da f1bc 2355 f73c
00000130: eaf4 623c 8bd0 063d d034 253d ca1d b7bc
00000140: 0131 21bc 9dc5 1c3b ab04 dbbc 2f6b 243c
00000150: f4cd f03c dd62 323c 3ffe 433b e4f4 28bd
00000160: a9c8 e33b 6877 a63c 7d8f 113d b689 37bc
00000170: f06c 2d3d 46dd 3cbc b2df dabc a73d 68ba
00000180: 289b bfbc 7019 3e3c 65e4 9fbc a804 b3ba
00000190: f0a4 753c 9024 7f3c 002a 5abc a991 973b
000001a0: 774c 9b3c 76be 35bc d61d 8c3a 4f07 a339
000001b0: 8293 013d e35d dcbc 759e c237 9fec 143c
000001c0: a79b 0f3d 77b2 73bc 7b92 2cbd 352a 0f3c
000001d0: 69b3 3f3c bcff 5d3d 450a 1f3d 8bd8 163d
000001e0: 973b 48ba 520f 043d 76f3 783c e8db eabc
000001f0: 17a3 62bb acd8 14bc 52f4 1a3a 2f1e 9ab9
00000200: 518a 1ebb 8013 7d39 3ea5 3c3a 0183 89ba
00000210: c6b3 913a e66e d2b9 1d7a 9bba 0f02 b1bc
00000220: aedc 1bbc 3a50 d43c b830 fbbc 169e 643c
00000230: c684 ddbc 7a84 823b b098 e8bc dfa1 e83c
00000240: 71fe 2abd 4f87 be3c c674 27bd d30a 6dbc
00000250: 6c77 c63c 2d06 053d 2c6d 12bd 5db6 063d
00000260: 8924 273d 4606 7bbb 5ddb b43c 1cdb 99bc
00000270: 5b89 30bc 3999 243d 6c7c 33bc 8718 013d
00000280: cb95 0ebd 6d1d 09bd bc91 a8bc 325e eebb
00000290: d9cf aebc eebe 50bc 379f b9b8 fe83 fc3b
000002a0: 478f 06bd b491 b3bb 99d3 183d 9dce 363d
000002b0: 374c 53bc 3aad ca3c be46 503c 8bc9 fbbc
000002c0: 11c1 90bc b734 0f3d 9581 a5bc f763 cb3c
000002d0: a325 9d3c d570 7a3c 4423 1bbd f230 1bbd
000002e0: 40ec 0e3d b31e e0bb adce b63b 9fe8 6d3c
000002f0: 6901 81bc f48f ccbc 44b5 873c 96f5 e33c
00000300: c5b7 25bb ce42 a8bc e9fb c53c 5fd5 5bbc
00000310: 7d78 d4b9 7645 743c be12 1b3c ecf3 2d3d
00000320: 6953 023d 3bb3 16bc 7185 e6bc 22c7 fd3a
00000330: 06c5 c63c 833e cc3c a073 253d 395d 4fbc
00000340: 89a8 073d b3b9 72bc fde4 123d 940d c1bc
00000350: 6b0a 9c3c 4dbd d53c c0f8 0dbd 2de3 91bc
00000360: dded 5c3c eb1c f9bc beb9 80bb dbaa 41bc
00000370: b9a4 ba3c dfa4 18bd 8c24 933b d96c dfbc
00000380: ce49 c13c aa80 083d 19ee 3f3c dee1 41bd
00000390: 732e 153d 73fd 0abd 7346 6dbd ced2 933c
000003a0: 62e8 9b3c 7222 1dbd e531 5a3a 7176 173d
000003b0: 133c 073d 9637 af3c df1f 853c 080c 1c3d
000003c0: b7fb 033d 9986 d7bb be5f 19bd ba82 cabc
000003d0: 9098 1cbc fa2d 04bd 965e d43c 22f2 f53c
000003e0: e847 0d3d b3d4 da3c 85ec 003c 0626 ad3b
000003f0: 21ae ecbc 2e63 c03c 239f 28bb 3ac6 f43c
0.010211981 -0.021176467 0.007854839 -0.009797031 0.035891633 -0.020569382 -0.018578919 -0.021363927
0.032694265 0.015228488 0.019814504 0.0010002007 -0.03823425 -0.025054626 -0.0007899236 -0.00093235914
-0.027645506 0.034595657 0.006509899 0.0349538 0.02360751 0.017586015 0.035876844 -0.009824625
-0.033029545 0.038409963 -0.0113554755 0.0026138204 -0.012603253 -0.00013009932 0.017682165 0.007968592
-0.026665403 0.025135912 -0.025074111 -0.012641562 -0.03332476 -0.04033435 -0.031851083 0.021759043
-0.037578218 -0.031010037 -0.020537985 0.006609775 -0.047331855 0.02798009 0.0162482 0.013175322
0.015414752 -0.018573238 -0.033977542 0.012430093 -0.01807734 0.040770542 -0.029947892 0.008834797
0.006055434 -0.0382121 0.008990469 0.016780669 -0.043815367 -0.0017846895 0.016326489 -0.012186725
0.02590384 -0.016804496 -0.0049135853 0.004873403 -0.0060264976 -0.012373091 -0.023768054 -0.0029245385
0.011844868 -0.0297739 -0.029522985 0.030191964 0.013852337 0.032913726 0.04033357 -0.022353072
-0.009838344 0.0023921498 -0.026735624 0.01003532 0.029395081 0.010887829 0.002990618 -0.04124917
0.006951411 0.02032061 0.03553723 -0.011202266 0.04234022 -0.011527365 -0.026717994 -0.00088592846
-0.023389414 0.011602744 -0.019518087 -0.0013658004 0.014992937 0.015572682 -0.013315678 0.0046255183
0.01895736 -0.011092773 0.0010690044 0.00031095228 0.031634815 -0.026900237 2.320039e-05 0.009089618
0.03506055 -0.014874092 -0.042131882 0.00873809 0.01170049 0.054198965 0.038828153 0.036827605
-0.0007638274 0.032241173 0.015194764 -0.028669313 -0.0034582072 -0.009084862 0.00059110404 -0.00029395657
-0.002419133 0.00024135225 0.0007196254 -0.0010491313 0.0011116199 -0.00040136947 -0.0011861954 -0.021607427
-0.009513063 0.025917161 -0.03066288 0.013953706 -0.02704085 0.0039830776 -0.02839312 0.028397499
-0.04174656 0.02325788 -0.04088285 -0.014467913 0.024226867 0.032476593 -0.035748646 0.03288876
0.040806327 -0.00383033 0.022077257 -0.018781237 -0.010774936 0.040185187 -0.010954957 0.03151753
-0.034810822 -0.03347533 -0.020577304 -0.0072744126 -0.021339344 -0.012740834 -8.8511435e-05 0.0077061644
-0.032851484 -0.0054800157 0.03731117 0.044630636 -0.012896589 0.024740804 0.012712179 -0.030735752
-0.017670186 0.034962382 -0.020203391 0.02482794 0.019182986 0.01528569 -0.03787543 -0.037888475
0.034893274 -0.006839597 0.005578837 0.014520793 -0.015747743 -0.024970986 0.016565926 0.027827065
-0.0025286537 -0.020539667 0.024167972 -0.013417571 -0.00040525562 0.014909139 0.009464918 0.04246895
0.031817827 -0.009198005 -0.028139802 0.0019361714 0.02426387 0.024932152 0.04039347 -0.012656503
0.033119712 -0.014814782 0.03586291 -0.023566045 0.019047936 0.026091242 -0.034661055 -0.017808521
0.013484445 -0.030409297 -0.003928392 -0.01182052 0.022783624 -0.03726661 0.0044904407 -0.027273582
0.023594763 0.03332583 0.011714482 -0.047334544 0.03642125 -0.033933114 -0.057928514 0.018044855
0.019031707 -0.038362928 0.0008323475 0.03697819 0.033016276 0.02138881 0.016250549 0.03809741
0.032222476 -0.0065773246 -0.037444822 -0.024720538 -0.009557858 -0.03227041 0.025924008 0.030022684
0.034492403 0.026712751 0.007868891 0.0052840738 -0.028891625 0.023484793 -0.0025729619 0.029879678

features.7.bias f4 [64]
00000000: d6a1 9fbc b32f ab3c 70a4 eb39 f99c f2bb
00000010: d5c5 c03c 81ce 67bc 9157 a2bc a84a d53c
00000020: de73 493a 7732 203d 1e58 ab3c e4a4 9a3a
00000030: 5633 ce3c 05df 393c 2af2 11bd d628 f93b
00000040: f00a df3c 0596 193d 6b74 75ba 86b0 373c
00000050: 50fc b83b d824 f1bc 9019 9cbc db0c c4bc
00000060: 9c08 c4bc 2cf6 153d 5e26 203d e5e9 56bb
00000070: ace4 ec3c 0358 493d 8ff7 dd3c 5787 983b
00000080: 6896 fabc b62e e2bc 2f3d 123d 5391 073c
00000090: 58f6 9bbb 9f43 093d fbd6 893c 7710 b1bc
000000a0: 1a54 2ebc 3264 b33b 75fc c63c dfff 7abb
000000b0: 2875 793c 560c b53c bd5e 7c3c cde6 433d
000000c0: 1069 24bd 937f 163d 075b e93b a759 a2ba
000000d0: 6fec 7abc 6e82 c13c 4a63 dfbc 3b6f d3ba
000000e0: 49fb 183d dcc6 93bb e309 f4bb 4e81 063d
000000f0: 51e8 0ebd eb68 a63c 4d7f 46bc 7db5 e9bc
-0.01948635 0.020896768 0.00044945208 -0.0074039665 0.023531834 -0.014148355 -0.019817146 0.026036575
0.0007684807 0.039110627 0.020916041 0.0011798409 0.025170963 0.011344676 -0.035631336 0.007603745
0.027226895 0.037496585 -0.0009363356 0.01121152 0.0056453124 -0.029436514 -0.019055158 -0.023931911
-0.023929887 0.03661172 0.03909909 -0.003279322 0.028917633 0.0491562 0.027095584 0.0046548056
-0.030589297 -0.027610164 0.03570288 0.008274394 -0.004759591 0.033511754 0.016826143 -0.021614296
-0.010640169 0.0054745907 0.024290303 -0.0038299484 0.015225686 0.022100609 0.015403447 0.04782753
-0.040139258 0.036742758 0.007121447 -0.0012386338 -0.015315159 0.023621764 -0.027269024 -0.0016131172
0.03734902 -0.00450979 -0.0074474677 0.03283816 -0.034889523 0.0203137 -0.012115312 -0.028528923

features.10.weight f4 [64, 64, 1, 1]
00000000: af2c 92bd 47d1 a0bd 2b91 35bd aefc 9fbd
00000010: 88cc d83d 8457 3ebd 82ad e1bb 71d4 4fbb
00000020: fcba 483c a018 283d 6633 a33d e333 243c
00000030: 54a6 8b3d bdd8 a73c 6fbf b59c 7c7f b9bd
00000040: ca2f 34bd 016e 37bd 7de5 8c3d 7da3 fbbc
00000050: 9399 9bbd 0ea8 a63c 28f0 733c 00fa 273d
00000060: 9086 7ebd d45c 04bd 7602 b93d d36e 263d
00000070: dc88 a1bc 6b6d c23d fe98 6e3d 933b e13d
00000080: 9fdc a63d 84b8 e6bd 4680 c73d 0d35 d2bd
00000090: 1cda 553d 0b68 a4bd 4e79 c33d 000a fd3c
000000a0: edd8 91bd 5593 3cbc 3078 153d 8e62 d4bd
000000b0: e54a 28bd d561 153c caa6 20bd 9363 d03d
000000c0: a5ad 02bd 9517 353b a7fe c63d 5aca 883b
000000d0: fe15 043d 399f 913d 1764 803d 92cb 3fbc
000000e0: 8eeb 86bd b97b ac3d 0859 713d fb62 cd3d
000000f0: 5e42 aa3d e6c5 4639 8739 db3d cea3 09be
00000100: 5657 fabc 72f1 b9bd fa59 6d3c a34e 52bd
00000110: e3a2 a43b 727b fcbd 72ce e7bd d407 a53c
00000120: 9eb5 553c a286 953d fbd8 673c 67f4 473d
00000130: 7ce5 01bd 40ce 813d 156e c5ba d31a 9c3d
00000140: 753e a93d 17dc 4f3d 8ed4 82bd ca32 3cbc
00000150: d606 123c 1ea6 2d3d ff30 8bbd e0a5 09bb
00000160: c613 e0bb 0c04 173c 578b 07bd 8103 ec3d
00000170: 63f8 cfbd ccb2 ae3c 91d1 3cbd 4c75 803d
00000180: f71a edbc e99c 25bd 300a 173b eaeb c33b
00000190: 5897 dfbd 0ce6 833c fa87 fe3c eeee a5bd
000001a0: 238a 8d3d 56de a039 a82c 3b3c 0b6d 663c
000001b0: a012 f83d 6548 d83c c6a1 943d 8f61 c93d
000001c0: f834 96bd 1b2b 933c b9ff 813d 8585 be38
000001d0: a262 08bd ac27 cabd c4aa 55a8 1016 a4bc
000001e0: 1949 52bc 63dd a5bd 36e9 e8bb 2195 c7bd
000001f0: 16fe 793d 8af0 8ebd 9c43 ff3c 2e19 8c3d
00000200: 0238 c2bb 76f2 fe3d 9623 d7ba c4ca b1bd
00000210: eaad f83d d2ad 79bc 98bd 22bd 3502 b6bb
00000220: f167 32bd ee86 acbd a2f1 da3d 9aed 603c
00000230: 0c61 8dbd bba1 0ebe b08d 513d 520b 8a3d
00000240: 6af9 b5bc 78dd c63d fdf7 343d b39a b33d
00000250: 6da8 ad3d ef34 d9bd a4b4 0f3e f888 a13d
00000260: 1063 babc 959c 033e 1115 34bd 57e1 193d
00000270: 7457 b6bd 8a8a 29be 5795 49bc dd8a 81bd
00000280: 3f93 a0bd 6ca6 e33c e5fa 5ebd 6c76 92bd
00000290: a9f7 863c 41de 5ebd 5ef0 f33d 9ff2 823d
000002a0: 5ec5 c9bd ee1f 563d 0d2a 7bbd 035b 6e3d
000002b0: bd67 04be e37c 7a3c 43d7 69bd 1cfd b03d
000002c0: 013b e6bd 23b6 7c3d 0140 55bd 2a9b a23a
000002d0: e595 86bc e148 0c3d ccda 01bc fe25 dc3d
000002e0: d32f 01be 67bb bbba ac78 803d 5548 1e3d
000002f0: 6a50 22bd 2de7 f33c 9fc7 48bd 19a8 cb3d
00000300: 232f fcbc 1305 643d 54fe 9d3c c852 133d
00000310: e898 c9bc de5e 51bd 6a20 22bd ed55 f3bd
00000320: ba55 dfbd fbc6 e63d 7f38 db3c 5256 c7bb
00000330: 76bd 6fbd 91c9 7a3b 45f3 378b f92e 57bd
00000340: 27e8 cf3d 9dd1 6a3d aa87 59bd 795c ee3d
00000350: 7ecf b2bb d4fa 823d d9fe 083c 951d 7bba
00000360: f785 74bd 2fbb bbbc 3f8a d1bd 5faf b4bd
00000370: 476e 113d dedd b53d 0895 0fbb eb07 c5bd
00000380: 2e20 ea3c 66ce b73d 835e 823d 75bd 51b9
00000390: d224 173d 7003 973d 70f3 fdbc d554 103d
000003a0: 1dc9 92bd bebb d3bc 2eb2 943d 0dbf fdbc
000003b0: 28d5 ce3d f39a 2c3b 98d6 0abd 1614 843d
000003c0: 9a7f db3d af3c 68bd 88f5 ba3d 6ee2 cc23
000003d0: 87cb 85bd a4a4 2ebd 0b92 513b a1de 073d
000003e0: c837 6a3d e275 73bc 0249 e6bd b9ff ebbd
000003f0: 73ae b5bd f991 92bd 68db 5e3d 013c c1bd
-0.07137429 -0.078524165 -0.044327896 -0.07811867 0.10585886 -0.04647018 -0.006887139 -0.0031712318
0.012251612 0.04103911 0.07968788 0.010022136 0.06818834 0.020489091 -1.202706e-21 -0.09057519
-0.043990888 -0.044782642 0.06879709 -0.030717606 -0.07597651 0.020343807 0.014888801 0.041009903
-0.062140048 -0.03231509 0.090336725 0.040633034 -0.01971858 0.09493526 0.058251373 0.10997691
0.08147549 -0.11265662 0.09741263 -0.10264025 0.05220996 -0.08027657 0.095446214 0.030888557
-0.071214534 -0.011509736 0.036491573 -0.1037036 -0.04108705 0.009117563 -0.039221562 0.10175242
-0.03190388 0.0027632464 0.0971654 0.004174513 0.032247536 0.071104474 0.062690906 -0.01170625
-0.06587897 0.08422036 0.058922797 0.10028645 0.0831344 0.00018956474 0.10704332 -0.13441393
-0.030559223 -0.09079255 0.014486784 -0.051344525 0.0050243004 -0.12328233 -0.11318673 0.020145334
0.013043789 0.0730107 0.014150853 0.048817065 -0.031712994 0.06338167 -0.0015062714 0.07622304
0.08263866 0.050747003 -0.06388198 -0.011486718 0.008912763 0.04239475 -0.06796455 -0.002100341
-0.0068382947 0.009217273 -0.03309187 0.11524106 -0.10154798 0.021325491 -0.046098296 0.062723726
-0.028943522 -0.040432844 0.0023046844 0.005979051 -0.109175384 0.016100906 0.031070698 -0.08102213
0.06911113 0.0003068323 0.011424221 0.014064084 0.121129274 0.026401708 0.07257418 0.09833061
-0.07334322 0.01796489 0.06347603 9.084776e-05 -0.03329719 -0.09870848 -1.1860904e-14 -0.020030051
-0.012834811 -0.08098867 -0.007107879 -0.09745241 0.06103333 -0.06979473 0.031160168 0.0684074
-0.005927087 0.124485895 -0.0016413804 -0.086812526 0.121425465 -0.015239196 -0.039731592 -0.0055544623
-0.043556157 -0.08424173 0.10690619 0.013728524 -0.06903276 -0.13928883 0.051160514 0.067404404
-0.022213656 0.097102106 0.044181813 0.08769741 0.0847939 -0.106057994 0.14033753 0.07887453
-0.022752315 0.128527 -0.043965403 0.037568416 -0.08903399 -0.16556755 -0.012303672 -0.06325314
-0.07840585 0.027789317 -0.05443849 -0.071514934 0.016475515 -0.054411177 0.11911081 0.063939326
-0.09852098 0.052276544 -0.0613194 0.058192264 -0.12930198 0.015288564 -0.057090055 0.08642027
-0.11241723 0.061697137 -0.052062992 0.0012405862 -0.016428897 0.03424919 -0.0079257 0.10749434
-0.126159 -0.0014322818 0.06273016 0.0386432 -0.03962747 0.02977332 -0.0490185 0.099441715
-0.030784195 0.0556689 0.019286312 0.03596762 -0.024609044 -0.051115863 -0.039581694 -0.118816234
-0.10905023 0.11268421 0.026760338 -0.006083288 -0.058530293 0.0038267116 -3.5427534e-32 -0.05253503
0.101517014 0.05732881 -0.053107895 0.116387315 -0.005456864 0.06395498 0.008361542 -0.0009579298
-0.05969807 -0.022916405 -0.102314465 -0.08822512 0.03550556 0.088802084 -0.0021908898 -0.09620651
0.028579798 0.08974914 0.06365683 -0.00020002371 0.03690035 0.073737025 -0.03099987 0.035237152
-0.071672656 -0.025846358 0.072605476 -0.03097489 0.1009925 0.0026337474 -0.03389606 0.064491436
0.107176974 -0.056698497 0.091288626 2.2213621e-17 -0.065329604 -0.042637482 0.0031977918 0.0331713
0.057182103 -0.014859648 -0.11244394 -0.115233846 -0.08871164 -0.07156748 0.05440846 -0.09435273

features.10.bias f4 [64]
00000000: 44d4 04bd af79 c3bd ce62 72bb 4e3f 1ebd
00000010: 3947 32bd bb0b abbd 3f0d 453d dae9 c1bd
00000020: 6188 283d 4954 02bd 57c2 cc3d ebce dd3a
00000030: 1589 9b3d a101 e1bd 3898 eabc 00c2 d7bd
00000040: 0bbc a9bd 9911 5bbd 3e89 923d 364f 493d
00000050: 3674 95bd 50d2 4f3d c1ac 3fbc 919c c2bd
00000060: 2c08 38bd ac24 b6bd 9497 2c3d 76e9 9c3c
00000070: 9b03 aabd d121 d9bd 7bd2 0ebd 0ff2 d4bc
00000080: 6280 d13d 3e68 7a3d 7243 ac3d 6d11 0dbd
00000090: 18b6 873d 816d e03c c15a 963d 7105 053e
000000a0: 3827 033d 98b2 a33d ca04 6fbc 25ae 883d
000000b0: d50a c53d 2168 a53d 30ee c63d 63a6 ce3d
000000c0: 6381 12bd 5dd0 20bc 1733 fabc 9fae 9abc
000000d0: 9a64 bdbb e2fa b03c 7c95 c43d a4ab a6bc
000000e0: 4ace 823b eedc 883d 1bc4 bc3c 78de b7bb
000000f0: 4ba6 cb3d 7b9f 233d fcfc 303d cadb b73c
-0.032428995 -0.09544694 -0.0036985162 -0.03863459 -0.043524954 -0.08351847 0.048108336 -0.09468432
0.041145686 -0.03181866 0.09998005 0.0016922628 0.07594506 -0.10986639 -0.028637037 -0.105350494
-0.082878195 -0.05348358 0.07155083 0.049147807 -0.07297556 0.05073768 -0.011698903 -0.09502519
-0.04492967 -0.08893713 0.042136744 0.019154292 -0.08301469 -0.10602153 -0.0348687 -0.025994329
0.10229565 0.06113457 0.08411302 -0.034440447 0.066265285 0.027395966 0.07341529 0.12990357
0.032019824 0.079930484 -0.014588544 0.066738404 0.09621207 0.08076502 0.097133994 0.100903295
-0.035767924 -0.009815303 -0.03054194 -0.018882094 -0.005779815 0.021604005 0.095988244 -0.020345517
0.0039918767 0.06682764 0.02304273 -0.005611237 0.09943827 0.039947014 0.043210015 0.02244367

classifier.0.weight f4 [3, 64]
00000000: 6564 cb3d 398a 6a3d 2983 593d 6cad 30bc
00000010: 9559 94bd cbef a9bd 2e51 f83d 5ef5 dd3d
00000020: edfe d4bc 6b93 58bd 6a42 f7bd 5f11 13be
00000030: 55b4 c13d 84ff db3c 2df8 013a 061b c63d
00000040: 4178 493d 4205 f6bc e158 103d 3655 f3bd
00000050: 4ab2 8d3d 9f70 a33d 7413 aebd 2195 32bc
00000060: 89ea 983d a3c9 1c3d 2384 a6bc 806d dc3d
00000070: 372c a83d 9565 d1bd 5f36 c9bc 0fdd a7bd
00000080: 890c 0bbd bce1 5d3d bc31 de3d 8661 4ebd
00000090: 3d3c 10bd e5ec 6d3c 38d0 febc 7bd7 d73d
000000a0: 84ff cbbd 0e2f 093e 0770 f43c 7a8d 963d
000000b0: e8ff e73d afb8 a7bd 0e21 ef3d 8f34 b63d
000000c0: df80 f4bb 9584 58bd 65aa c0bd 5efe 823d
000000d0: 7012 003d 636e 99bd 11f1 1abe f371 8a3d
000000e0: e011 cabd f630 bcbd c1ec 2a3d 349f afbd
000000f0: 50b3 bdbd 056c d6bd 6945 05bd 0c58 0ebd
00000100: 3732 963d 27b0 ef3d 51ed 993d 9165 2c3d
00000110: f1cc b13b 4055 783c 27c6 9e3c 68b7 a93d
00000120: 376f 16bd d268 723d aba5 983d 65e8 1fbd
00000130: 9a9e 78bd 1ea4 f5bd 4ba7 aa3d d61a dd3d
00000140: 4ebc 34bd 78d3 96bd 3300 d2bd 516e 83bd
00000150: 9f9e df3d f26f 81bd f96a a4bc f7a2 33bd
00000160: 3823 983d fe6b 23bc 4cc1 d9bd 2515 03be
00000170: 1986 863d 16d7 8cbb ba09 ddbd 3587 12bd
00000180: 1257 46bb 7bbd 5b3c bc41 e23d 92d6 ccbb
00000190: f0a4 e83d c106 58bd 3817 473d 2dc1 c9bd
000001a0: 06c4 af3d 2a79 4abd 44d6 3a3d 63ff cebd
000001b0: 61f9 75bd f7ac 9e3d 1956 123d 4455 863d
000001c0: 22b7 eebd d26f d43d 2599 e1bd 4a73 78bd
000001d0: be42 133d bad8 cabd 30af fe3d 5cb8 c23d
000001e0: 3aa2 0bbe 2db2 2e3d b4cb b53c 3c05 ce3c
000001f0: b58f e9bd f27f 033d 2233 97bc e8a2 033e
00000200: 159e 8f3d 05b5 53bc 44cf 06be 02af 62bd
00000210: 4b41 9e3c fd1e 6d3d 5571 63bd 4c6e 59bc
00000220: f2b6 383d bcfd b5bd 72d0 58bc 1f3a 28bd
00000230: 5bc2 acbd ee47 da3d d776 27bc 01f8 b0bd
00000240: e2bd aebb 754b d1bd 4e99 113d 7f52 b6bd
00000250: 9632 0cbd 3bd7 94bd a197 cc3d f3e3 7fbd
00000260: a5b4 a5bd 9f56 13bc 1c1e 353d b1d5 bb3d
00000270: 01b0 5abd 7660 0a3d e43c e7bd c5ff 9bbc
00000280: 74c7 cebd 5dfa 31bd 7edd f6bc a23e 16bd
00000290: a6f2 e2bd 10fb 993d 45a7 a8bd 77bc 5dbb
000002a0: 4ada 91bd 2598 98bd a089 d83d bfa1 88bd
000002b0: 48b6 b03c a996 dd3d 0c80 cdbc d71c 623d
000002c0: 44c7 8e3d e203 7b3d 3771 a2bd f9ef 54bc
000002d0: 8177 083e 4432 1e3d b0fd db3d 85bd 673d
000002e0: b10a ad3c 2950 18be f962 df3d 1131 683d
000002f0: bee8 b43d bcfb 6abd c338 b43d 281e 02be
0.09931258 0.057260726 0.0531036 -0.0107835345 -0.07243649 -0.0829769 0.12124859 0.10837816
-0.026000464 -0.052874964 -0.12073214 -0.14362095 0.09458224 0.026855238 0.00049579405 0.09673123
0.04918695 -0.030031804 0.03524101 -0.11881487 0.069187716 0.07980465 -0.08499804 -0.010899813
0.07466609 0.038278233 -0.02032668 0.10763073 0.08211558 -0.10224453 -0.024562059 -0.081964605
-0.0339475 0.054170355 0.1084933 -0.050385974 -0.035213698 0.014521812 -0.031105146 0.105391465
-0.09960845 0.13396856 0.029838575 0.07351203 0.11328107 -0.081895225 0.116762266 0.088967435
-0.0074616517 -0.052860815 -0.094075 0.06396173 0.031267583 -0.07491758 -0.15131022 0.06760015
-0.09866691 -0.09189026 0.041729692 -0.085752875 -0.09262717 -0.10469822 -0.032536898 -0.034751937
0.073337965 0.1170352 0.07515968 0.04208905 0.0054260422 0.015157044 0.019381596 0.08286935
-0.036727156 0.059181996 0.07453474 -0.039039988 -0.06069813 -0.119941935 0.0833269 0.10796134
-0.044124894 -0.07364553 -0.10253944 -0.064175256 0.109189264 -0.0632018 -0.02007054 -0.043856587
0.074285924 -0.009974478 -0.106325716 -0.12801035 0.06568546 -0.004298101 -0.10792871 -0.035773475
-0.00302643 0.013411875 0.11047694 -0.0062511647 0.11359584 -0.052740816 0.048606128 -0.098512985
0.085823104 -0.049431957 0.045614496 -0.10107305 -0.06005228 0.07747834 0.03572664 0.06559232
-0.116560236 0.103728905 -0.11015538 -0.060656823 0.035952322 -0.099046186 0.12435758 0.0950782
-0.13636103 0.04265039 0.02219186 0.02514898 -0.11404363 0.03210444 -0.018457 0.12855113
0.07012574 -0.012921576 -0.13165003 -0.05534268 0.019318243 0.05789088 -0.055528004 -0.013270926
0.045096345 -0.088862866 -0.013233291 -0.041071054 -0.08435508 0.10658251 -0.010221205 -0.08641053
-0.0053326944 -0.102194704 0.035546593 -0.08902454 -0.03422793 -0.072676145 0.099898584 -0.06247325
-0.08091096 -0.00899282 0.044218168 0.09171618 -0.053390507 0.0337834 -0.11290911 -0.019042859
-0.100966364 -0.043451656 -0.030134913 -0.036680825 -0.11081438 0.075185895 -0.08235029 -0.0033834258
-0.071217135 -0.07450894 0.10573125 -0.066714756 0.021571293 0.10819752 -0.025085472 0.055203285
0.06971601 0.061283 -0.0793175 -0.012996667 0.13326837 0.038622156 0.107417464 0.056577224
0.021123262 -0.14874329 0.109075494 0.05668742 0.088334545 -0.05736898 0.08799889 -0.12706816

classifier.0.bias f4 [3]
00000000: bcdb c4bd 5e1a a83d ceb3 9cbd
-0.096122235 0.08208154 -0.076514825

exp_avg f4 [32, 3, 3, 3]
00000000: 8d2e 7637 9072 3eb8 1f6a a1b7 e376 66ba
00000010: 157d 95ba fea0 8bba d6dd 14bb 369c 24bb
00000020: 3d8e 13bb f4dc 09ba a36f 60ba 3ea1 74ba
00000030: dd3c a3ba edd7 eaba 6883 e9ba c921 14bb
00000040: 1175 36bb e293 2ebb 5c01 92bb 6266 c7bb
00000050: bd0c d6bb f39f a4bb 267d d5bb 6e19 e0bb
00000060: bff1 bfbb fc70 e5bb dff4 e7bb ada1 98ba
00000070: 6067 ccba bc7d c4ba 46cb 88ba 55d9 c6ba
00000080: 1475 b9ba ab1b 82ba f530 c5ba d846 bbba
00000090: 4b65 e9ba 551f 0abb fb82 fcba f3ca dfba
000000a0: b606 0abb a812 f7ba 3693 d4ba fb39 0abb
000000b0: ab59 f8ba 4d64 9fbb a946 a8bb e7c1 a1bb
000000c0: 128c a0bb 99d8 aabb f1f1 a2bb 4d9e 9fbb
000000d0: b67e abbb 7ca0 a5bb 9e48 7e3a 956d 88ba
000000e0: 451c 1cbb 3a68 be3a 1b8d 2aba 0437 05bb
000000f0: 4ac9 df3a 37b2 edb9 dda3 efba 3b5c 013a
00000100: f760 bdba b257 35bb c50b 5c3a f8a6 a2ba
00000110: 927d 2ebb 4161 893a 9289 9bba 0483 2bbb
00000120: 5e5a f4bb 9f1d 31bc 93e0 49bc d951 f5bb
00000130: 646e 32bc 54b2 4abc 5989 f8bb 5c35 33bc
00000140: 974b 4abc 1cde c4bb 447b d6bb 8525 e5bb
00000150: 8660 8ebb c965 9abb d6e9 abbb 106d 32bb
00000160: b319 48bb d96e 6fbb 5385 dfbb 2a40 debb
00000170: 20ef d0bb fb5e b0bb 9186 a9bb fac2 a2bb
00000180: 7c6e 81bb 4596 72bb b489 75bb 118d 51b7
00000190: c5e9 d539 ac59 63b8 9024 8c3a cf21 803a
000001a0: 8ee9 e739 ea7d db3a 88b1 a53a 908b 543a
000001b0: e4d6 c33a e9ec 363b e6e2 613b 6aab c63a
000001c0: eb0e 3b3b 817d 6b3b 015c d83a 9e69 403b
000001d0: 0fdd 713b c830 fe3a 8c8b 4c3b 1b72 623b
000001e0: 6ae7 eb3a 514d 443b e461 613b 8089 de3a
000001f0: beb0 3d3b eb9c 5f3b 6247 893a 2791 6d3b
00000200: b51f aa3b ff6f 583a 595f 6b3b c1c0 ae3b
00000210: 8bf6 153a 1bf4 683b df12 af3b 46d7 21bb
00000220: cf7c bcb9 515f b53a 9f26 35bb 6d5d 12ba
00000230: d800 a23a 6f20 56bb a624 88ba dd07 843a
00000240: e101 c1ba 457b 1b3a 6f18 e53a 8ca9 fdba
00000250: aa3e 6839 ba02 bd3a 4577 2fbb ec99 ddb9
00000260: 4c8e 953a 382d 3ebb e405 9f39 cfad 803b
00000270: 7ac6 81bb f15d d0b9 74d2 613b 03c7 a0bb
00000280: 3c9a 87ba 8b51 423b 5d03 14bb 38e8 80bb
00000290: 785c aebb 7caa 06bb 383e 78bb b11d aebb
000002a0: 9e66 0bbb f667 76bb 92c8 a9bb b531 15bb
000002b0: 5d79 8bbb 2ff4 b8bb 6578 0dbb 3e20 8abb
000002c0: b3fb babb 36ba 13bb 54cc 8abb 0301 b9bb
000002d0: fb3c 34bb ffc1 93bb 1b0d b1bb af43 2bbb
000002e0: 377f 88bb d288 a8bb 791d 0abb a473 61bb
000002f0: 9469 94bb e8fe f7ba e595 45bb 50a0 81bb
00000300: 2b90 7bba 9293 14bb b5e8 4bbb 0811 9eb9
00000310: e208 efba 4763 2abb 6c3f 40bb 673d 81bb
00000320: 0e80 98bb f47f 11bb e696 5bbb 6db9 82bb
00000330: 5ca6 e6ba 2a08 48bb db53 6bbb dbc0 1cbc
00000340: c4d1 2ebc f4d3 35bc 1a37 1abc 293f 2ebc
00000350: 5e4d 32bc b5f5 19bc c6bf 2fbc 55f9 30bc
00000360: 4f7f 33bb 5033 40bb c6e9 3bbb 93a1 d8ba
00000370: 7ac3 e6ba e3dc e7ba 9cf3 7bba ea6f 96ba
00000380: 5e2a 8eba 7d1f 88bb 0ffa 88bb c5b2 77bb
00000390: 2b60 53bb 4a3f 50bb 3c50 3fbb a25a 28bb
000003a0: 4fb7 2abb 2db4 1bbb e0c0 bbbb d4da b8bb
000003b0: ccca b8bb 8359 b5bb 5a06 b0bb aad3 a8bb
000003c0: 1d1e b4bb 570b afbb befc a1bb 7672 263a
000003d0: 304b 1b3b 49ba 323b 6f7c 183a 2783 233b
000003e0: c0f7 473b 49ff 143a 5673 2f3b 11a9 5e3b
000003f0: 5c0f e53a a30d 553b bd56 473b 2dba c93a
1.4673581e-05 -4.5406225e-05 -1.9242112e-05 -0.0008791519 -0.0011405075 -0.0010652838 -0.0022715232 -0.0025117523
-0.00225152 -0.000525906 -0.0008561557 -0.0009331888 -0.0012454052 -0.0017917134 -0.0017815651 -0.0022603145
-0.0027840773 -0.0026638438 -0.0044557285 -0.006085203 -0.0065322802 -0.0050239502 -0.006515163 -0.006838969
-0.005857676 -0.007001994 -0.0070787515 -0.0011644863 -0.0015594773 -0.0014991085 -0.0010436557 -0.0015170971
-0.0014149272 -0.0009926459 -0.0015044498 -0.0014288081 -0.0017806677 -0.0021075804 -0.001926511 -0.0017074033
-0.002106113 -0.0018850164 -0.0016218189 -0.0021091688 -0.0018947622 -0.0048642517 -0.0051353765 -0.004936445
-0.00489951 -0.0052138087 -0.0049726893 -0.004871166 -0.005233611 -0.0050545316 0.0009700152 -0.0010408635
-0.002382056 0.0014526912 -0.00065060117 -0.0020326981 0.0017073539 -0.00045336943 -0.0018283088 0.0004934703
-0.0014448453 -0.0027670679 0.0008394088 -0.001240938 -0.0026625139 0.0010481254 -0.0011866561 -0.002617062
-0.0074570617 -0.010810285 -0.012321609 -0.0074865636 -0.010890577 -0.012371618 -0.0075847325 -0.010938015
-0.012347124 -0.006007923 -0.006545456 -0.006992998 -0.0043450026 -0.004711841 -0.0052463813 -0.002722565
-0.0030532896 -0.0036534576 -0.0068213134 -0.0067825513 -0.006376162 -0.0053824163 -0.0051735123 -0.0049670907
-0.0039499383 -0.0037015837 -0.003746611 -1.2490215e-05 0.00040800698 -5.420453e-05 0.0010692049 0.0009775701
0.00044233765 0.0016745899 0.0012641409 0.00081079546 0.0014941362 0.0027912206 0.0034467517 0.0015157287
0.0028542827 0.003593296 0.0016506911 0.0029359828 0.0036905443 0.00193932 0.0031211106 0.0034552875
0.0017998044 0.002995331 0.0034390623 0.0016978234 0.0028944458 0.003412063 0.0010473544 0.0036249848
0.005191768 0.0008256435 0.0035914986 0.0053330366 0.00057206367 0.0035545889 0.005342826 -0.0024694963
-0.00035951144 0.0013837611 -0.0027641428 -0.00055833795 0.0012359871 -0.003267314 -0.0010386899 0.0010073144
-0.0014725291 0.00059311494 0.0017478595 -0.0019352897 0.00022148588 0.0014420368 -0.002677397 -0.00042267086
0.0011410206 -0.0029018652 0.00030331232 0.0039269696 -0.003960428 -0.00039742843 0.0034457715 -0.0049065365
-0.0010345648 0.0029650654 -0.0022585012 -0.0039339326 -0.0053210817 -0.0020548394 -0.0037878882 -0.005313598
-0.0021270881 -0.0037598587 -0.0051813805 -0.0022765223 -0.004256411 -0.0056443433 -0.0021586653 -0.0042152693
-0.0057062744 -0.002254141 -0.0042357836 -0.0056458726 -0.0027502168 -0.00450921 -0.0054031736 -0.0026132872
-0.004165556 -0.0051432634 -0.0021074696 -0.0034401203 -0.0045291875 -0.0018920572 -0.0030149159 -0.0039558783
-0.0009596373 -0.0022670967 -0.0031114046 -0.00030148798 -0.00182369 -0.0025999115 -0.0029334677 -0.0039440873
-0.004653937 -0.002220151 -0.003350669 -0.0039893896 -0.0017597186 -0.0030522444 -0.0035908136 -0.009567465
-0.010670129 -0.011097897 -0.009412551 -0.010635176 -0.010882704 -0.00939696 -0.010726875 -0.010801633
-0.0027389114 -0.002932746 -0.0028673275 -0.0016527645 -0.0017605864 -0.0017689731 -0.0009611191 -0.0011477445
-0.0010846367 -0.0041541443 -0.0041802 -0.0037795764 -0.0032253365 -0.0031776004 -0.002919211 -0.0025688787
-0.0026049202 -0.0023758516 -0.0057297796 -0.0056413207 -0.0056394096 -0.0055343523 -0.005371851 -0.0051521854
-0.005496754 -0.005341928 -0.0049434593 0.00063494535 0.0023695938 0.002727168 0.0005816882 0.002495
0.003051266 0.00056837924 0.0026771626 0.0033975283 0.0017475891 0.0032509349 0.003041669 0.0015390568
