run_5/benchmark_experiment_increased_data/experience_1_2_3/model_experience_1_2_3.pth (torch, 849657 bytes, 36 tensors)

features.0.weight f4 [32, 3, 3, 3]
0	0xbcf788b5	-0.030216554
1	0x3e2d70bd	0.16937537
2	0x3cc195aa	0.023630936
3	0xbe2e8841	-0.17044164
4	0xbcbbbe46	-0.022917878
5	0x3e0fe968	0.14053881
6	0x3e01d1f2	0.12677744
7	0x3deef984	0.11668685
8	0xbe2e6b2b	-0.17033069
9	0xbd3600eb	-0.04443447
10	0x3d58ddd2	0.05294592
11	0xbdc653eb	-0.09683975
12	0x3a3bb9e8	0.0007161186
13	0xbd8cc572	-0.06873597
14	0x3e419ebe	0.18908212
15	0x3d69dfb8	0.05709812
16	0x3e345668	0.17611086
17	0xbd8f276c	-0.06989941
18	0x3e2772d7	0.16352402
19	0x3e28f74e	0.16500589
20	0xbdb65bff	-0.089042656
21	0xbdb15be1	-0.08660103
22	0x3d5de310	0.05417162
23	0x3c2bb4ad	0.010480088
24	0xbd2e46fa	-0.042548157
25	0x3e03283b	0.12808315
26	0x3b3137bc	0.0027041277
27	0x3e381e99	0.17980422
28	0x3d344c16	0.044017874
29	0x3e0327e2	0.12808183
30	0xbd224c54	-0.039623573
31	0xbe40b78e	-0.1882002
32	0xb9e74331	-0.00044109815
33	0xbe40e2b8	-0.18836486
34	0xbe32d107	-0.1746255
35	0x3dcc1e97	0.09966772
36	0x3d1a354e	0.03764849
37	0xbe449df6	-0.19200882
38	0xbd30d19b	-0.043168645
39	0xbd89140a	-0.06693275
40	0x3e16b4eb	0.14717452
41	0xbe265b95	-0.16245873
42	0xbe09f7a9	-0.13473381
43	0xbdd0b567	-0.1019085
44	0xbe0cf164	-0.13763958
45	0x3c8e0b05	0.017339239
46	0xbdb937be	-0.09043835
47	0x3dce211c	0.10064909
48	0x3e3df64a	0.18550983
49	0x3e344865	0.17605741
50	0x3e17180b	0.14755265
51	0xbe1bb633	-0.15206222
52	0xbe0e1836	-0.13876423
53	0x3de2d875	0.11076442
54	0xbc67e5e7	-0.014153934
55	0x3d9afea6	0.075681016
56	0xbe3d67ad	-0.1849658
57	0xbc0f0e40	-0.008731425
58	0x3db0f5af	0.086406104
59	0x3c73acaa	0.014872709
60	0x3e17bbd0	0.14817739
61	0xbe090d30	-0.13383937
62	0xbe0734cc	-0.13203734
63	0x3d38cefa	0.045119263
64	0x3dc45274	0.09586039
65	0xbd23a350	-0.03995067
66	0xbd610960	-0.05494058
67	0x3e1ba2d3	0.15198831
68	0x3c847ddb	0.016173294
69	0x3d8c0cc1	0.0683837
70	0x3d86a3d2	0.06574215
71	0xbe405707	-0.18783198
72	0x3d9b521b	0.0758402
73	0xbd8abb99	-0.06774063
74	0x3ce67364	0.028131194
75	0x3e412848	0.18863022
76	0x3db04317	0.08606546
77	0xbd82b5a2	-0.063823
78	0x3d06a734	0.0328743
79	0x3dd26bb7	0.10274451
80	0x3a541e80	0.0008091703
81	0xbd23e659	-0.0400146
82	0x3dec38ab	0.11534246
83	0x3d960b17	0.07326334
84	0x3da7a826	0.08186369
85	0xbde0960a	-0.10966118
86	0xbdf3077d	-0.11866663
87	0x3e287830	0.16452098
88	0xbe4617c9	-0.19345011
89	0x3e3dfa79	0.18552579
90	0x3daabcea	0.08336814
91	0x3e3dde28	0.18541777
92	0x3c0ed142	0.008716883
93	0xbd8a98f3	-0.06767454
94	0xbdf57da9	-0.119868584
95	0xbe32fbd8	-0.17478883
96	0xbdb7bb24	-0.08971241
97	0x3dc7d8b9	0.097581334
98	0xbd9cc26a	-0.07654269
99	0x3dc74891	0.09730638
100	0x3c32de61	0.010917277
101	0x3e2b33f2	0.16719034
102	0x3e313349	0.1730472
103	0x3e45bb59	0.19309749
104	0x3d0f78a6	0.03502717
105	0x3d7f4c62	0.062328704
106	0x3de15377	0.11002248
107	0xbc8966f9	-0.016772734
108	0xbe1e01db	-0.15430395
109	0x3d69ab6d	0.05704825
110	0xbd8b8ce0	-0.06813979
111	0xbd5e6c7b	-0.054302674
112	0x3e0657b3	0.13119392
113	0x3dbb67de	0.091506705
114	0xbe125cf2	-0.14293268
115	0xbe1d5f93	-0.1536849
116	0xbca62e0c	-0.020285629
117	0xbe194e86	-0.1497136
118	0xbc91109b	-0.017708113
119	0x3e1ee151	0.15515639
120	0xbd8220f7	-0.06353944
121	0x3e09065d	0.13381334
122	0xbbd868df	-0.0066042985
123	0x3d84bbbb	0.06481119
124	0x3daad218	0.083408535
125	0x3de17453	0.11008515
126	0x3d150322	0.03637994
127	0x3b014326	0.0019723861
128	0x3dfa46ed	0.12220559
129	0xbe2fd219	-0.1716999
130	0xbca87d47	-0.02056755
131	0x3da54ad5	0.08070914
132	0xbddf2f13	-0.108976506
133	0xbe1fa47c	-0.1559009
134	0xbe0bd656	-0.13655981
135	0xbdace152	-0.08441414
136	0xbc4bd6cd	-0.012441349
137	0x3d4f60ef	0.050629552
138	0x3d8e6766	0.069533154
139	0xbe318382	-0.17335322
140	0xbe25374f	-0.1613438
141	0xbdab6855	-0.08369509
142	0xbe18c19b	-0.14917605
143	0x3d641828	0.0556871
144	0xbe07e525	-0.13271005
145	0x3c99cbf1	0.018774005
146	0x3e1c2d18	0.15251577
147	0x3dc7f690	0.09763825
148	0xbd8c958b	-0.068644606
149	0xbd4e77bf	-0.050407168
150	0x3de7b41f	0.11313652
151	0xbd3de8c8	-0.046364576
152	0x3d1301f1	0.035890523
153	0xbe1324dc	-0.1436953
154	0xbd53bace	-0.051691823
155	0x3c329678	0.010900132
156	0x3dab1104	0.08352855
157	0xbe16efa7	-0.14739858
158	0x3d8d0cd3	0.06887212
159	0x3e327259	0.17426433
160	0x3e065df1	0.13121773
161	0x3e19e94a	0.15030399
162	0xbd3f78c3	-0.046746027
163	0x3dd2eed5	0.1029946
164	0x37ffecc4	3.0508621e-05
165	0xbe3ec8ad	-0.18631239
166	0xbdc65019	-0.09683246
167	0xbcf42e48	-0.029807225
168	0xbd126979	-0.035745118
169	0xbc7afd06	-0.015319115
170	0x3e38b961	0.18039466
171	0x3d18c467	0.03729668
172	0xbc40e64b	-0.011773656
173	0xbd832e22	-0.064052835
174	0xbd331dc6	-0.043729566
175	0x3d62f2f7	0.05540749
176	0x3dad2481	0.08454228
177	0x3e249914	0.1607402
178	0x3dc963dd	0.098335005
179	0xbd03ff89	-0.03222612
180	0xbe143da4	-0.14476639
181	0xbc694e64	-0.014239881
182	0x3d635644	0.05550219
183	0x3ca04a8e	0.0195668
184	0xbd87b279	-0.06625838
185	0xbe22c669	-0.15896
186	0x3d38cc2c	0.04511659
187	0xbe16fbc0	-0.14744473
188	0xbc33fac3	-0.010985079
189	0x3ccb5ad3	0.024823582
190	0x3e0c4188	0.13696873
191	0xbdd1e2f4	-0.10248366
192	0x3e2fcfcc	0.17169112
193	0x3dfa5176	0.12222569
194	0x3e2130bf	0.15741251
195	0xbd7a8a18	-0.061166853
196	0x3da1c6d4	0.078992516
197	0x3e260b07	0.16215144
198	0xbc0aebb1	-0.008479045
199	0x3d01fb0e	0.031733565
200	0xbe10a84c	-0.141267
201	0x3c0aee7c	0.008479711
202	0xbdb8df01	-0.090269096
203	0x3c1c52fd	0.00954127
204	0x3bab082d	0.0052194805
205	0x3cdf46f3	0.02725551
206	0x3de307cf	0.11085474
207	0x3d08d896	0.033409677
208	0xbdce2051	-0.100647576
209	0xbde95962	-0.113940015
210	0xbd4ef33b	-0.05052493
211	0x3e0099ff	0.12558745
212	0xbd8550e2	-0.06509568
213	0x3dab2daf	0.08358323
214	0xbe2d8fcf	-0.1694939
215	0x3d8217ee	0.063522205
216	0xbd4fb3db	-0.050708633
217	0xbd849bc5	-0.06475023
218	0xbb80cd13	-0.0039306968
219	0x3d545e3f	0.051847693
220	0xbdb98798	-0.090590656
221	0x3d5149d1	0.051095787
222	0xbdbcf445	-0.09226278
223	0xbd220b24	-0.039561406
224	0xbd8e1509	-0.06937606
225	0x3c5a8e31	0.013339565
226	0x3de640d6	0.11242835
227	0x3e3d59e2	0.18491319
228	0xbdc13483	-0.09433844
229	0x3e0879dd	0.13327737
230	0xbe092397	-0.13392483
231	0xbe3f7d09	-0.18700041
232	0x3d8fe23b	0.07025572
233	0xbc4ce221	-0.012505085
234	0x3d913ade	0.07091306
235	0x3dc54406	0.09632115
236	0x3e28618a	0.16443458
237	0xbe2d354a	-0.1691486
238	0xbe160fc7	-0.14654456
239	0xbd98f0b6	-0.07467787
240	0xbc5df9cf	-0.013548329
241	0x3e327e6e	0.17431042
242	0xbe252294	-0.16126472
243	0xbd4b7c8d	-0.049679328
244	0xbd8065ce	-0.06269418
245	0x3df8197c	0.12114236
246	0x3d143d65	0.036191363
247	0x3c92832d	0.017884815
248	0x3cc99316	0.024606269
249	0xbe06c03a	-0.13159266
250	0xbe03a4be	-0.12855813
251	0xbdc55eb2	-0.09637202
252	0xbd2bf6b5	-0.041983325
253	0x3d245af0	0.040125787
254	0x3dfc1d0e	0.12310229
255	0xbe2e212e	-0.17004845

features.0.bias f4 [32]
0	0xbe2c664d	-0.168359
1	0xbdc03c31	-0.093864806
2	0x3c4dc393	0.012558836
3	0x3e43c390	0.1911757
4	0xbe3889f4	-0.18021375
5	0x3e31462e	0.17311928
6	0xbc54ba8b	-0.012983928
7	0xbd78f6f3	-0.060782384
8	0xbd5e9d82	-0.05434943
9	0xbe147f2f	-0.14501642
10	0x3b746bc9	0.003729569
11	0x3d7b2fbb	0.061324816
12	0x3e1f9cb8	0.15587127
13	0x3d48e457	0.049045887
14	0x3e3c9409	0.18415846
15	0xbd67390b	-0.056450885
16	0xbc7ceaad	-0.01543681
17	0xbd7bf6cf	-0.061514672
18	0x3c32b427	0.0109072095
19	0xbd8e51e1	-0.06949211
20	0x3d7be1d8	0.06149468
21	0xbcaa1b1e	-0.020764884
22	0xbd61d233	-0.055132102
23	0x3e1a7e80	0.15087318
24	0x3e0a22a7	0.13489781
25	0x3dfcbeae	0.12341057
26	0x3d9b963b	0.075970136
27	0x3e12a5f0	0.14321113
28	0xbd85ae01	-0.06527329
29	0x3c085d42	0.008323016
30	0xbd61f385	-0.05516388
31	0x3e0db169	0.13837208

features.2.weight f4 [32, 32, 3, 3]
0	0xbac47e41	-0.001499124
1	0xbc58619c	-0.013206866
2	0x3d321be1	0.04348362
3	0xbd527ab2	-0.051386543
4	0x3b6b4a70	0.0035902523
5	0x3cfe7507	0.031061662
6	0xbc534476	-0.01289474
7	0xbd1fbc88	-0.038998157
8	0x3d55864d	0.052130032
9	0xbbce175e	-0.0062894067
10	0x3d5a5b3a	0.053309657
11	0x3c000630	0.007813975
12	0x39c325a7	0.00037221352
13	0xbc8c84ed	-0.017153228
14	0xbc8c0707	-0.017093195
15	0x3beda497	0.0072522867
16	0xbca85a1a	-0.020550776
17	0xbc711d15	-0.014716406
18	0x3d29d548	0.041463166
19	0xbd6aa09f	-0.057282086
20	0x3d38ff46	0.045165323
21	0xbbd3af54	-0.0064601097
22	0x39d548c3	0.00040680738
23	0x3c921187	0.017830623
24	0x3d71044b	0.058841985
25	0xbd1aef5e	-0.037825935
26	0xbd0e1644	-0.034689203
27	0xbc02c6e4	-0.0079819895
28	0x3d297ecb	0.041380685
29	0xbd046260	-0.03232038
30	0xbd03c0ed	-0.03216641
31	0x3d458285	0.048220176
32	0xbcf82492	-0.030290876
33	0x3d5ec921	0.05439103
34	0xbc14c07a	-0.009079093
35	0xbd3cdfb6	-0.046111785
36	0x3b98627f	0.0046504135
37	0x3c4d38b6	0.012525728
38	0x3d805355	0.06265894
39	0x3d0723a2	0.032992966
40	0x3cfb7f39	0.030700313
41	0x3c159496	0.009129664
42	0xbd2e8edd	-0.042616714
43	0x3d79ec4e	0.061016373
44	0xb8bdd18f	-9.0512556e-05
45	0x3cc15441	0.023599746
46	0xbcae1a4b	-0.021252772
47	0xbcdceec7	-0.026969327
48	0x3d1f1dc3	0.038846742
49	0x3ba6580a	0.005076413
50	0x3b4ec104	0.0031548152
51	0xbbd6cefd	-0.0065554366
52	0xbcaf7d23	-0.021421975
53	0x3ce7705e	0.028251823
54	0x3d7343be	0.059390776
55	0xbcccc937	-0.02499829
56	0x3c89e530	0.016832918
57	0xbd2244ff	-0.03961658
58	0x3d4e1559	0.050313327
59	0xbc04400a	-0.008071909
60	0xbb8c7e63	-0.0042875274
61	0xbb95001f	-0.0045471336
62	0xbbee447a	-0.0072713466
63	0xbd534ef2	-0.05158896
64	0xbcb016a5	-0.021495173
65	0x3d6c128c	0.057634875
66	0x3d6291ae	0.055314712
67	0x3d803c09	0.06261451
68	0x3ca7f8b5	0.020504335
69	0xbd2643a3	-0.040591847
70	0x3b3e6bbb	0.0029055912
71	0xbce413fc	-0.02784156
72	0x3c978b82	0.01849914
73	0xbcd7786f	-0.026302544
74	0xbd241ba5	-0.040065426
75	0x3d6ae5d2	0.05734808
76	0x3b32028a	0.0027162158
77	0xbc389150	-0.011265114
78	0xbcf3a039	-0.029739486
79	0x3a2ae7af	0.0006519509
80	0xbcfb3e59	-0.030669378
81	0xbd1640e8	-0.036682993
82	0x3d03dabb	0.03219102
83	0x3d2a843f	0.041630026
84	0xbca14cb6	-0.019689899
85	0x3d5f3f85	0.054503936
86	0xbd06c6e5	-0.032904524
87	0x3d7eaf99	0.06217918
88	0x3d35a788	0.044349223
89	0xbc73b793	-0.0148753105
90	0x3d19bc80	0.037533283
91	0x3d2e29d3	0.042520355
92	0x3ca394b9	0.019968377
93	0x3cd2dd34	0.025740243
94	0xbbf0cb5d	-0.0073484615
95	0x3bcf2584	0.006321611
96	0xbad536e9	-0.0016266975
97	0xbc817bbd	-0.015806073
98	0xbd0aabde	-0.03385531
99	0xbb02ae6e	-0.0019940394
100	0x3d25985b	0.0404285
101	0xbd429829	-0.047508392
102	0xbd23b7cd	-0.039970208
103	0xbc812b1d	-0.015767628
104	0xbd7cf806	-0.06175997
105	0x3c859448	0.016306058
106	0x3b60d41b	0.0034306112
107	0x3c28a722	0.010293754
108	0xbb6aaa8b	-0.0035807218
109	0x3ccb422c	0.024811827
110	0x3bc48c78	0.0059981905
111	0xbc91a02a	-0.017776567
112	0x3d3dfba5	0.046382565
113	0xbd6f60f8	-0.058442086
114	0xbbed8816	-0.0072488887
115	0xbc841e60	-0.016127765
116	0xbc9291f7	-0.017891867
117	0xbd1ea126	-0.038727902
118	0x3d63e4af	0.05563801
119	0x3d04affc	0.032394394
120	0xbcb7e725	-0.022449085
121	0xba3b4c9c	-0.00071448996
122	0x3d1f3667	0.03887024
123	0x3cff93b5	0.031198362
124	0xbb5dd726	-0.0033850162
125	0xbcac8a64	-0.021062084
126	0x3d73cea5	0.059523243
127	0x3d07e068	0.033172995
128	0xbd5b22af	-0.053499874
129	0xbc877bc3	-0.016538506
130	0x3d3a8e6e	0.045545988
131	0x3c0824be	0.008309541
132	0xbd224226	-0.039613865
133	0x3bf04c50	0.007333316
134	0x3d48548a	0.048908748
135	0xbca936a1	-0.020655932
136	0x3d81adc5	0.06331972
137	0x3d56f567	0.052480128
138	0xba934e5e	-0.0011238565
139	0x3cc969ac	0.024586521
140	0x3d365210	0.044511855
141	0x3c23af29	0.009990492
142	0x3d2f5afe	0.042811386
143	0x3ca991b5	0.020699361
144	0x3c6fb509	0.0146305645
145	0x3cf27a23	0.029599255
146	0xbc80c77f	-0.015720127
147	0xbcf96f16	-0.030448478
148	0x3d5facc9	0.05460814
149	0x3c4bd162	0.0124400575
150	0x3cf703c9	0.030153172
151	0xbbdf5236	-0.00681522
152	0xbd400f3b	-0.046889525
153	0xbd03135e	-0.032000892
154	0xbd67bf08	-0.056578666
155	0xbd45775b	-0.04820953
156	0x3b588e98	0.0033043977
157	0x3c34b390	0.011029139
158	0x3d5c8d33	0.053845596
159	0x3c028806	0.007967001
160	0xbcfc98cb	-0.030834576
161	0x3d5301ce	0.051515393
162	0xbc87f631	-0.016596885
163	0xbc0757fb	-0.008260722
164	0xbd6e7554	-0.05821736
165	0xbc8d58e0	-0.017254293
166	0xbd4ab35e	-0.049487464
167	0x3d0c3557	0.034230556
168	0xbca1e04e	-0.019760277
169	0xbd302a76	-0.043009244
170	0xbcdf66fb	-0.027270785
171	0xbcd71299	-0.026253985
172	0x3c6390dd	0.013889519
173	0x3d21c087	0.03949025
174	0x3d5e564d	0.05428152
175	0x3d0edd9b	0.03487931
176	0xba08a98a	-0.00052132516
177	0x3d18fff9	0.03735349
178	0xbd11fb94	-0.035640314
179	0xbc22d8ee	-0.009939415
180	0xbbb72cb4	-0.005590046
181	0xbbbc19cd	-0.0057403804
182	0x3a182bec	0.0005804885
183	0x3d6a205d	0.05715977
184	0x3cab05e8	0.02087684
185	0xbc05dd2b	-0.008170406
186	0xbd18ad59	-0.037274692
187	0x3d6f3a70	0.05840534
188	0xbbcd9014	-0.006273279
189	0x3cecbcda	0.028898645
190	0x3cf6feef	0.030150859
191	0xbcb671e1	-0.022271099
192	0x3d00e653	0.031469654
193	0x3d61a838	0.055092067
194	0x3ce5f011	0.028068574
195	0xbc996900	-0.018726826
196	0xbd3594b7	-0.04433128
197	0x3d732cda	0.059368946
198	0x3cbf430e	0.023347404
199	0x3c0c39d2	0.008558707
200	0xbd10aaaf	-0.035319027
201	0xba4c734d	-0.00077991636
202	0xbd071c99	-0.032986257
203	0xbd15ec33	-0.03660221
204	0x3ba20ef6	0.004945631
205	0x3cf8edf2	0.030386899
206	0x3d8219d1	0.0635258
207	0x3c12ef44	0.008968178
208	0x3d29c451	0.041446988
209	0x3d49ea29	0.04929558
210	0xbb897492	-0.0041948045
211	0x3d4505d8	0.048101276
212	0x3d65f62e	0.05614298
213	0xbccc3d5b	-0.0249316
214	0x3d71c473	0.05902524
215	0xbd31792d	-0.043328453
216	0x3d32feb2	0.043699928
217	0xbd661a70	-0.056177557
218	0xbcc95d9c	-0.02458077
219	0x3ccd12df	0.025033413
220	0x3d35d676	0.04439398
221	0x3d53525c	0.051592216
222	0xbd1c27f2	-0.038124032
223	0xbb83d942	-0.004023702
224	0x3d0793eb	0.03310005
225	0x3cdc6ad2	0.026906405
226	0xbd212e66	-0.03935089
227	0x3c5b524d	0.013386321
228	0x3b420e9c	0.0029610759
229	0x3d1fb741	0.038993124
230	0xbd23d3ea	-0.03999702
231	0x3cfb37cc	0.030666254
232	0x3bf36a8f	0.0074284743
233	0x3d42b5d2	0.04753668
234	0x3c73344b	0.014844011
235	0x3d1510e2	0.036393054
236	0x3d6c5d66	0.05770626
237	0x3d19c7fa	0.037544228
238	0xbd0ab5e6	-0.033864878
239	0xbd3aac88	-0.045574695
240	0xbb50333d	-0.0031768822
241	0x3c8a46d9	0.016879486
242	0x3b233dd9	0.002490869
243	0xbd214bcb	-0.039378922
244	0x3d0dfcd2	0.034664936
245	0x3b3fdc10	0.0029275455
246	0xbba454da	-0.005014998
247	0x3cecd53c	0.028910272
248	0x3d2a8b40	0.041636705
249	0xbd37e12f	-0.044892486
250	0x3ced7508	0.028986469
251	0xbd4ede4b	-0.050504964
252	0x3caf1e3d	0.021376723
253	0x3d14ad98	0.036298364
254	0x3d6092b0	0.054827392
255	0x3b9a1012	0.0047016228

features.2.bias f4 [32]
0	0x3b850b5d	0.0040601925
1	0x3d54db50	0.051966965
2	0x3c09fe11	0.008422391
3	0xbbad3bdb	-0.0052866763
4	0x3d444b51	0.04792339
5	0xbbd7cff8	-0.006586071
6	0xbd455b95	-0.048183043
7	0x3d730d87	0.059339073
8	0x3d26218f	0.040559348
9	0xbc81aa7c	-0.015828364
10	0x3d1607f3	0.036628675
11	0x3d48cf7c	0.049025998
12	0x3b637f53	0.0034713342
13	0x3d01ecb7	0.03171989
14	0xbd3206eb	-0.04346363
15	0x3cecae3c	0.028891675
16	0x3d22dc23	0.03976072
17	0xbca084b1	-0.019594522
18	0x3d1df4b2	0.038563438
19	0x3cd152b1	0.025552126
20	0x3d6e9028	0.058242947
21	0xbcff3bb3	-0.031156396
22	0x3cb99525	0.022654125
23	0x3c8c33f3	0.017114615
24	0x3d5c2f4d	0.053756047
25	0x3cad1c5b	0.021131685
26	0xbc8aa747	-0.016925467
27	0xbd2e4be5	-0.042552847
28	0x3c5c1427	0.013432539
29	0xbcba9145	-0.022774348
30	0xbd4ab037	-0.049484458
31	0xbd5f03ab	-0.054446857

features.5.weight f4 [64, 32, 3, 3]
0	0xbd64c9d9	-0.05585656
1	0x3ccdf408	0.025140777
2	0x3c831697	0.016001983
3	0x39d89bac	0.00041314715
4	0xbd568340	-0.052371264
5	0x3c8fae82	0.017539266
6	0x3ca02e2d	0.019553268
7	0xbd648d1c	-0.055798635
8	0x3d4c5b73	0.0498919
9	0xbd408581	-0.04700232
10	0xbd584782	-0.05280257
11	0xbccb14bd	-0.024790162
12	0xbd63c364	-0.05560626
13	0xbcf0655f	-0.029345213
14	0x3bbe7b4f	0.0058130394
15	0x3c5d8f00	0.013522863
16	0xbcca98b4	-0.024731018
17	0x3c5da9a6	0.013529217
18	0xbd4cfb3d	-0.050044287
19	0x3ca8be34	0.020598508
20	0x3d3516e7	0.044211295
21	0xbd41bbca	-0.04729823
22	0xbc938e48	-0.01801218
23	0x3b9b1bce	0.004733539
24	0xbd6a70dd	-0.05723654
25	0xbcbdfb14	-0.023191012
26	0xba7fc2b7	-0.0009756493
27	0xb985e1e5	-0.0002553604
28	0xbc5bbb94	-0.013411421
29	0x3a7231aa	0.0009238968
30	0x3cd85391	0.026407035
31	0xbc6fe121	-0.014641077
32	0xbac50c44	-0.0015033563
33	0xbc242eb8	-0.010020904
34	0x3c152c0a	0.009104738
35	0x3b2cab42	0.0026347195
36	0x3c914dfb	0.01773738
37	0xbd0ee879	-0.034889672
38	0x3d61f23e	0.05516266
39	0xbcd922d0	-0.026505858
40	0x3d3204ee	0.043461733
41	0x3a35f81d	0.0006941574
42	0xbcbc76fa	-0.023005951
43	0x3d10323e	0.035204165
44	0x3ce8695e	0.028370555
45	0xbd54534a	-0.051837243
46	0xbc72b01c	-0.014812496
47	0x3c15ce71	0.009143458
48	0xbd42c0f5	-0.0475473
49	0x3cd69976	0.026196223
50	0x3d412d65	0.047162432
51	0xbba11e70	-0.0049169585
52	0x3d005d62	0.031339057
53	0x3c768a95	0.015047689
54	0xbbf5300d	-0.0074825347
55	0x3b57b9be	0.0032917107
56	0xbcaac0f8	-0.020843968
57	0xbd287600	-0.04112816
58	0xbccaa215	-0.02473549
59	0xbd4a70d0	-0.049423993
60	0xbb4e3476	-0.0031464375
61	0xbcd4a760	-0.025958717
62	0xbc46d36d	-0.012135369
63	0xbcb988ec	-0.022648297
64	0xba98fe91	-0.0011672546
65	0xbd082b95	-0.033244688
66	0x3d67b487	0.05656865
67	0x3d047610	0.032339156
68	0xbd4c9f6b	-0.04995672
69	0xba9c02e6	-0.0011902719
70	0x3d55a7b5	0.05216189
71	0x3cc50a0d	0.024052644
72	0xbcdd4f65	-0.027015397
73	0xbcf4f1e9	-0.029900508
74	0xbd623abe	-0.055231802
75	0xbd25322a	-0.040331043
76	0x3ca15bd4	0.019697107
77	0xbbcb4bd6	-0.0062041087
78	0x3d4527e4	0.048133746
79	0xbc86b9aa	-0.016445953
80	0x3c0e7453	0.008694726
81	0xbc97201e	-0.018447932
82	0xbd3d3405	-0.046192188
83	0x3bd3f4f6	0.0064684106
84	0x3cb07cae	0.021543827
85	0xbc95c51a	-0.018282462
86	0x3d29f65c	0.041494712
87	0x3c9a08e0	0.01880306
88	0x3d70cc78	0.058788747
89	0xbd4b35a1	-0.04961169
90	0x3d62703e	0.055282824
91	0x3cd53e28	0.026030615
92	0x3cb27227	0.021782948
93	0xbd07ce33	-0.03315563
94	0xbc8c0e51	-0.01709667
95	0x3bde6a5c	0.0067875814
96	0xbd474cd4	-0.048657253
97	0xbad385ec	-0.0016137934
98	0x3cee1e48	0.029067174
99	0xbd025d4b	-0.031827252
100	0x3c8119be	0.015759345
101	0xbcad0251	-0.021119269
102	0x3cc3e5a2	0.023913208
103	0x3cdf6e2f	0.02727422
104	0x3ce6113c	0.02808439
105	0xbcebcc24	-0.028783865
106	0xbd517311	-0.051135127
107	0xbd24ebda	-0.040263988
108	0x3d3f0e18	0.0466443
109	0xbcbf8e47	-0.023383273
110	0xbc9fb3ab	-0.019494852
111	0xbd46df02	-0.04855252
112	0x3ca61f5e	0.020278629
113	0x3bcf91f8	0.0063345395
114	0xbd24fe77	-0.04028174
115	0xbd004534	-0.031315997
116	0xbd45805a	-0.04821811
117	0x3bbbc0af	0.005729757
118	0x3d6708c7	0.056404855
119	0x3d4c9afb	0.04995249
120	0xbd00fa5c	-0.03148876
121	0xbd100011	-0.035156313
122	0x3d17ec5b	0.03709064
123	0x3d374824	0.044746533
124	0xbd272086	-0.0408025
125	0x3cc1a462	0.023637954
126	0x3cd009b7	0.025395257
127	0xbcc85ef9	-0.024459349
128	0xbc160af7	-0.009157888
129	0xbcf3f258	-0.029778644
130	0x3d6556a7	0.05599084
131	0xbd254878	-0.040352315
132	0x3d68a687	0.056799438
133	0xbcfdb0c7	-0.030968083
134	0xbd1388b9	-0.03601906
135	0x3c155b12	0.009115951
136	0xbce6ac79	-0.028158413
137	0x3d19ed9c	0.037580118
138	0xbd5a8e1c	-0.053358182
139	0x3d0e5d6d	0.034757067
140	0x3cabe562	0.020983402
141	0x3bf2e126	0.0074120937
142	0xbd462a5b	-0.048380237
143	0xbc2ba4c5	-0.010476296
144	0xbccb3934	-0.02480755
145	0xbd1add6c	-0.03780882
146	0x3d378343	0.044802915
147	0x3d22cbb8	0.039745063
148	0xbd71a1a1	-0.058992032
149	0xbc86eff2	-0.016471837
150	0xbb0b98b3	-0.0021300733
151	0xbd5bdc09	-0.05367664
152	0x3cd6c245	0.026215682
153	0x3cecf82b	0.02892693
154	0x3ce5656f	0.028002469
155	0x3d5b1de6	0.05349531
156	0x3ca711a7	0.02039416
157	0x3c8a0084	0.016845949
158	0xbd486471	-0.048923913
159	0x3d1ac2d9	0.037783477
160	0x3c3d9ec2	0.011573495
161	0x3c322842	0.010873856
162	0x3c2b4cf7	0.010455362
163	0x3d5a47d4	0.053291157
164	0xbd510e22	-0.05103887
165	0xbcd17d3e	-0.025572415
166	0xbcdb106e	-0.026741233
167	0x3bc75786	0.0060834317
168	0x3cd38486	0.025820028
169	0xbcd3f8bb	-0.02587544
170	0xbd4386a6	-0.047735833
171	0xbc9dc1c6	-0.019257437
172	0xbd4eddab	-0.050504368
173	0xbd157951	-0.03649265
174	0x3d0921d7	0.033479538
175	0xbbb95561	-0.00565593
176	0x3c85810d	0.016296888
177	0xba7a541e	-0.00095492776
178	0x3ce8bd44	0.028410561
179	0x3d6b0316	0.05737599
180	0xbc4c7c5e	-0.012480823
181	0x3ccc5e28	0.024947241
182	0xbd0b14dd	-0.033955444
183	0x3d14bdec	0.036313936
184	0x3b879166	0.004137206
185	0xbd69a914	-0.05704601
186	0xbc23677c	-0.009973403
187	0xbd2869b5	-0.041116435
188	0x3baed3b2	0.0053352946
189	0x3c8be897	0.01707868
190	0xbc2619dc	-0.010138001
191	0xbd350466	-0.044193648
192	0x3d0114d1	0.031513993
193	0x3c156ff5	0.009120931
194	0xbd62f82b	-0.055412453
195	0x3ccf64ee	0.025316682
196	0xbd4a82a2	-0.049440987
197	0x3d3398b2	0.043846793
198	0xbc26d96c	-0.010183673
199	0xbd374e1d	-0.04475223
200	0xbd6e7e24	-0.058225766
201	0xbcfcfd43	-0.030882483
202	0x3d5f2a5a	0.05448375
203	0x3d5f2b43	0.054484617
204	0x3c49fc83	0.01232827
205	0xbc4fb67f	-0.012677788
206	0xbd078ceb	-0.033093374
207	0xbc5465a4	-0.012963686
208	0xbc9b4f4c	-0.01895871
209	0xbc09620a	-0.008385191
210	0xba91a28b	-0.0011111064
211	0x3c29bd86	0.010360127
212	0xbcef796f	-0.029232709
213	0x3b709f55	0.0036716063
214	0xbd615e35	-0.055021483
215	0xbcc807a6	-0.02441771
216	0x3d0df0a9	0.03465334
217	0x3c55ce79	0.013049715
218	0xbc27679e	-0.010217575
219	0xbd2877d5	-0.041129906
220	0x3cd73d1f	0.026274262
221	0x3d0790a7	0.033096936
222	0xbd39d84b	-0.04537229
223	0x3d0f7c26	0.035030507
224	0xbd0642b4	-0.032778457
225	0x3c875929	0.016522007
226	0x3d28c822	0.041206487
227	0xbd56acd7	-0.052410927
228	0xbd33fa03	-0.0439396
229	0xbcf42518	-0.029802844
230	0x3aace13b	0.0013189683
231	0x3c61260d	0.013741982
232	0x3d34d753	0.04415066
233	0x3d7345be	0.059392683
234	0x3d3e1a50	0.046411812
235	0x3afad05a	0.001913558
236	0xbce5888a	-0.028019208
237	0x3b963ee3	0.0045851334
238	0x3d272338	0.04080507
239	0xbc88a213	-0.016678846
240	0x3c3f6ff6	0.011684408
241	0x3d66cba4	0.05634655
242	0x3b6ebaaa	0.0036427178
243	0x3b36b96c	0.0027881516
244	0x3d1c53fd	0.038166035
245	0x3c60e0c5	0.013725464
246	0xbd324ee2	-0.04353226
247	0xb9c292fa	-0.0003711207
248	0xbd193991	-0.037408415
249	0xbcb2f5b2	-0.021845672
250	0x3d557a39	0.052118514
251	0xbc920688	-0.01782538
252	0xbc951556	-0.01819865
253	0xbd3adcd3	-0.04562075
254	0xbccb80ef	-0.024841754
255	0x3cb57d36	0.022154432

features.5.bias f4 [64]
0	0xbccd8587	-0.025088085
1	0xba0795ae	-0.00051721453
2	0xbd628437	-0.05530187
3	0xbb1619c4	-0.002290354
4	0x3b426950	0.0029664822
5	0x3c61ea5f	0.013788789
6	0xbcec4f13	-0.0288463
7	0x3d2b258d	0.041783858
8	0xba90e8b8	-0.0011055684
9	0x3d5f1e9b	0.054472547
10	0x3d51d3bf	0.051227327
11	0x3cff51cc	0.031166933
12	0xbd02bcc1	-0.03191829
13	0xbcf54784	-0.029941328
14	0xbaea1e76	-0.0017861861
15	0xbd1fe989	-0.039041076
16	0xbd0df3a5	-0.034656186
17	0x3d7e1743	0.062033903
18	0x3d490ee0	0.04908645
19	0x3d2ba2b1	0.0419032
20	0xbc2306aa	-0.009950319
21	0xbd10140d	-0.035175372
22	0x3d700201	0.05859566
23	0x3d4b2fae	0.049606018
24	0xbc30992b	-0.010778706
25	0xbc9059e9	-0.017620998
26	0x3cc9e784	0.024646528
27	0xbd0b97ed	-0.034080435
28	0x3d5969b9	0.05307934
29	0x3cc5db9e	0.024152573
30	0xbd47c695	-0.048773367
31	0xbc772b73	-0.015086043
32	0x3d3f1f2f	0.0466606
33	0xbd4ad576	-0.04951998
34	0xba5c5e63	-0.00084063987
35	0x3c522b2c	0.012827676
36	0x39c6883d	0.00037867008
37	0xbd0d9b38	-0.034571856
38	0x3caa3abd	0.020779962
39	0x3d31c9cc	0.04340534
40	0x3a34b197	0.0006892918
41	0xbc857c34	-0.016294576
42	0x3d24cfcf	0.040237244
43	0xbd4eb38f	-0.05046421
44	0x3d46198b	0.048364203
45	0x3d4ddd32	0.050259776
46	0x3c125c75	0.008933176
47	0xbcbea9ca	-0.023274321
48	0x3c87e236	0.016587358
49	0xba153e09	-0.0005693143
50	0x3c76dd91	0.015067474
51	0x3d2ae1e7	0.041719344
52	0xbd149bc8	-0.036281377
53	0x3cc39dc6	0.023878943
54	0xbba5e518	-0.0050627105
55	0x3c64b80c	0.013959896
56	0xbd35fd43	-0.044430982
57	0x3d33989b	0.043846708
58	0x3d58ae52	0.05290062
59	0xbc9f2293	-0.019425666
60	0x3cbc1814	0.0229607
61	0x3d0c6596	0.034276567
62	0xbaf684ca	-0.0018807885
63	0x3d3a3058	0.04545626

features.7.weight f4 [64, 64, 3, 3]
0	0x3d141121	0.036149148
1	0xbc6b6910	-0.014368311
2	0x3ca5f218	0.02025704
3	0xbca8d6de	-0.02061027
4	0x3d128dce	0.035779767
5	0x3c7dd141	0.015491785
6	0xbcec57a9	-0.028850393
7	0xbc91ae49	-0.017783301
8	0x3c1936bd	0.0093514295
9	0x3c689b8a	0.01419724
10	0xba8bb4c0	-0.0010658726
11	0xbb9f3ab5	-0.0048592933
12	0x3cb642d4	0.022248663
13	0xbc806811	-0.015674623
14	0xbceefe19	-0.029173898
15	0xbca4b7b3	-0.020107126
16	0x3bbb5b22	0.005717651
17	0x3d1d1d25	0.038357873
18	0xbce55a24	-0.027997084
19	0x3d11a2fc	0.035555825
20	0xbcac4e60	-0.021033466
21	0x3bf30a69	0.0074170125
22	0x3c322164	0.010872219
23	0x3d1c6eee	0.03819173
24	0x3d09e5f7	0.033666577
25	0xbbea6562	-0.007153199
26	0x3b27bf24	0.0025596106
27	0xb9618671	-0.00021507755
28	0x3d142970	0.03617233
29	0x3d329fb1	0.043609325
30	0xbc732197	-0.014839551
31	0xbba202a7	-0.004944164
32	0xbcd2de10	-0.025740653
33	0xbcde420c	-0.027131103
34	0x3d08e1a2	0.033418305
35	0x3c6a98bc	0.014318641
36	0x3ccfc288	0.025361314
37	0x3cb1b7bd	0.021694059
38	0x3bd52ff3	0.00650596
39	0x3d0750ad	0.033035923
40	0x3b6e744e	0.003638524
41	0xbc9cb2c7	-0.019128216
42	0x3c438750	0.0119341165
43	0xbcf42d2b	-0.029806694
44	0x3d2e1063	0.042496096
45	0xbb5e2cca	-0.0033901208
46	0x3ca9934f	0.020700125
47	0x3c60be85	0.013717298
48	0x3c9c7964	0.019100852
49	0xbb41c99b	-0.002956963
50	0xbc9ad591	-0.018900665
51	0x3d2c4649	0.042059217
52	0x3d309665	0.043112177
53	0x3c36dc64	0.011160944
54	0x3d1a74ea	0.037709154
55	0x3c517567	0.012784339
56	0x3c2f741e	0.010708837
57	0xbc2a2cff	-0.0103867045
58	0xbd07f9d3	-0.033197235
59	0xbc819f1e	-0.015822943
60	0x3b5608e6	0.0032659112
61	0x3d2f0f82	0.0427394
62	0x3caacd01	0.020849707
63	0xbcf2e26c	-0.029648982
64	0xbd0c86be	-0.034308188
65	0xbca57795	-0.020198623
66	0x3c8ef258	0.017449543
67	0x3c7ae89d	0.015314248
68	0x3d0fbf12	0.03509433
69	0xbcd4b147	-0.025963439
70	0x3d0abdcf	0.03387242
71	0xbd149089	-0.036270652
72	0xbd011962	-0.031518348
73	0xbb96d4c0	-0.0046029985
74	0xbc8b07d2	-0.016971502
75	0x3c9612ff	0.018319605
76	0xbb8aa531	-0.004231118
77	0x3c8efc24	0.017454214
78	0x3c8a1db5	0.016859869
79	0xbc44433e	-0.011978922
80	0x3d1013f7	0.03517529
81	0xbd2292e3	-0.039690863
82	0xbd1d4769	-0.03839818
83	0x3cc9a23c	0.024613492
84	0xbbd451fd	-0.0064795003
85	0xbcd05c20	-0.025434554
86	0xb9a1b64b	-0.00030844132
87	0xbd036757	-0.032080974
88	0xbd1b8c40	-0.03797555
89	0x3c461a60	0.012091249
90	0x3b84d7d1	0.0040540476
91	0x3d1e0eef	0.03858846
92	0x3d3a2893	0.04544885
93	0x3d168e60	0.036756873
94	0x3c96b955	0.01839892
95	0x3c0d1e9d	0.008613256
96	0x3c23c7a1	0.009996326
97	0xbce73685	-0.02822424
98	0xbc2eaf31	-0.010661886
99	0x3b0e8873	0.002174881
100	0xbc1820d8	-0.009285174
101	0x3c379d87	0.011206991
102	0x3cdad6f8	0.026713833
103	0x3ab1e328	0.0013571726
104	0x3cd0c02f	0.025482265
105	0x3d32d014	0.04365547
106	0xbcc36873	-0.023853516
107	0xbb05ab9c	-0.0020396477
108	0x3cdac34d	0.026704455
109	0x3b8ac304	0.0042346735
110	0x3cc0a9a4	0.023518391
111	0x3cfdb3f5	0.0309696
112	0x3c541f5b	0.012946929
113	0xbc951bbe	-0.018201705
114	0xbcf86688	-0.030322328
115	0x3c2f9306	0.010716205
116	0xbc560f7a	-0.013065213
117	0xba9ef701	-0.0012128056
118	0xbcfba767	-0.030719472
119	0xbb1747c1	-0.002308354
120	0xbb0e3150	-0.0021696873
121	0x3ccc126e	0.024911132
122	0x3cf83302	0.03029776
123	0x3d292ead	0.04130428
124	0xbd248da9	-0.04017416
125	0x3cd9856e	0.026552882
126	0xbcd05716	-0.02543215
127	0xbd1158e8	-0.03548518
128	0xbcadadc7	-0.021201028
129	0xbbdd0417	-0.0067448723
130	0xbc42586b	-0.011861901
131	0x3cea6ebd	0.028617257
132	0x3c5d5ec6	0.013511365
133	0xbc388c0f	-0.011263861
134	0x3d0ca19a	0.034333803
135	0x3d25215f	0.04031503
136	0x3c533f3d	0.012893495
137	0x3ccd8e76	0.025092345
138	0xbcf2210e	-0.029556777
139	0xbcac81c2	-0.021057967
140	0x3c9a8bab	0.018865427
141	0xbc76aa5b	-0.015055264
142	0x3ab432c1	0.0013748036
143	0x3cdc9059	0.0269243
144	0xbd1c26b3	-0.038122844
145	0xbb8cbb1d	-0.0042947666
146	0xbc526151	-0.012840585
147	0x3d047f94	0.03234823
148	0xbba26278	-0.004955586
149	0x3cd69412	0.026193652
150	0xbbdb911f	-0.0067006494
151	0x3d1f030d	0.03882127
152	0x3bdcfd31	0.00674405
153	0x3cf3f11e	0.02977806
154	0x3cd06978	0.025440916
155	0xbbbd53fc	-0.005777834
156	0xbccbc3cb	-0.024873635
157	0xbcf36db3	-0.029715395
158	0x3d128d1e	0.03577911
159	0xbc4ab0da	-0.012371266
160	0x3c2ade7a	0.010429019
161	0xbd1122b7	-0.035433497
162	0xbd0cd275	-0.034380395
163	0xbd1e08ab	-0.038582485
164	0x3d268b6b	0.040660303
165	0xba01770a	-0.00049386977
166	0x3ad0f9a5	0.001594354
167	0xbcc1da44	-0.023663647
168	0xbc987a93	-0.018613135
169	0xbc193620	-0.009351283
170	0x3ca91563	0.02064008
171	0xbd225984	-0.03963615
172	0xbcf92e30	-0.030417532
173	0xbbeb6368	-0.007183481
174	0x3ca17041	0.019706847
175	0xbc4c40cb	-0.01246662
176	0x3c261caf	0.010138675
177	0x3be2274c	0.006901657
178	0xbc6f2315	-0.014595767
179	0x3ceec1b5	0.029145101
180	0xbca421f4	-0.020035721
181	0xbcf17bd2	-0.029477987
182	0xbccc3698	-0.024928376
183	0x3d169676	0.036764584
184	0xbd19d839	-0.03755972
185	0x3d110b43	0.03541113
186	0x3cc4b081	0.024009945
187	0xbc959435	-0.018259147
188	0x3c66fdbb	0.01409858
189	0x3cd134ee	0.025537934
190	0xbd23d427	-0.039997246
191	0x3c08bf92	0.008346455
192	0xbd1b3114	-0.0378886
193	0xbd110e22	-0.03541387
194	0x3cf95043	0.03043378
195	0xbcc12ae2	-0.023580018
196	0xbc024cbe	-0.007952867
197	0xbd1666c0	-0.036719084
198	0xbd228d23	-0.03968538
199	0xbce8d7e4	-0.028423257
200	0x3d228c87	0.0396848
201	0x3d1923f0	0.03738779
202	0xbd192fd1	-0.037399117
203	0xbcb07fdf	-0.021545349
204	0xbcb6e809	-0.02232744
205	0xbc0e48d4	-0.008684356
206	0x3d19a2d1	0.03750879
207	0x3c647f64	0.013946388
208	0x3c320de8	0.010867573
209	0xbcfd724c	-0.03093829
210	0x3cc05fd8	0.023483202
211	0xbc42edf5	-0.011897554
212	0xbc5af734	-0.013364602
213	0xbbe6ce35	-0.0070436248
214	0xbb859973	-0.0040771305
215	0x3cc5a4c1	0.024126412
216	0x3a82fdde	0.0009993871
217	0xbca6579a	-0.020305444
218	0xbd0aef2c	-0.0339195
219	0xbcabc8fd	-0.020969862
220	0xbc83d9cd	-0.016095066
221	0xbcb314fc	-0.021860592
222	0x3d08d389	0.03340486
223	0x3c55d72d	0.01305179
224	0x3c68a79f	0.01420012
225	0x3c3fca59	0.011705958
226	0x3cc5cbd3	0.024145043
227	0x3d1ba1a3	0.037995946
228	0xbc4a8aa1	-0.012362153
229	0xbd2e22a1	-0.042513493
230	0xbcdb1d4d	-0.02674737
231	0xbc8229e5	-0.015889117
232	0xbcec88d9	-0.028873848
233	0xbc92c0f4	-0.017914273
234	0x3a8cdad3	0.0010746367
235	0x3c79406b	0.015213112
236	0xbb90cd6d	-0.00441902
237	0x3c22709a	0.009914542
238	0xbcdf95eb	-0.027293166
239	0x3ca49531	0.020090671
240	0xbcec85e0	-0.02887243
241	0xbbe3d4b6	-0.0069528474
242	0x3d1a1d7d	0.03762578
243	0xbd2a123f	-0.041521307
244	0xbd1d0502	-0.038334854
245	0xbc3fd9f3	-0.011709678
246	0x3c860cd9	0.016363548
247	0x3bda91c0	0.006670207
248	0x3bf674e2	0.0075212577
249	0xbbaa3020	-0.005193725
250	0xbd306d61	-0.04307306
251	0xbc2139a5	-0.009840404
252	0x3c75382b	0.014967005
253	0xbd24020f	-0.040041026
254	0x3d1fc866	0.039009474
255	0x3ce21be4	0.02760119

features.7.bias f4 [64]
0	0xbc9d9f6a	-0.019241054
1	0x3c14a390	0.009072199
2	0x3cb90118	0.02258353
3	0xbc8351de	-0.016030248
4	0xbd017a53	-0.031610798
5	0xbcd54797	-0.026035113
6	0x3b8cd1dd	0.0042974786
7	0xbbe674b4	-0.007032955
8	0x3d0aad80	0.03385687
9	0x3d0d7d0e	0.03454309
10	0xbd29ee47	-0.041487005
11	0x3d210261	0.03930891
12	0x3d21b240	0.039476633
13	0x3d263f84	0.040587917
14	0x3c368a5f	0.011141389
15	0xbcbfada9	-0.023398237
16	0xbc56833f	-0.013092815
17	0xbb18b0a4	-0.0023298645
18	0x3c607212	0.0136990715
19	0x3ccd7d25	0.025084088
20	0x3cfd0a3d	0.030888671
21	0x3b9411e7	0.0045187357
22	0xbcba76a8	-0.022761658
23	0x3d21b678	0.039480656
24	0xbcfa4683	-0.0305512
25	0xbcd8ae26	-0.026450228
26	0x3b8bfc5c	0.004272027
27	0xbd1a502f	-0.037674125
28	0xbc7700ff	-0.015075921
29	0x3bdd0d20	0.0067459494
30	0xba98fe04	-0.0011672382
31	0x3ccf0a65	0.025273511
32	0x3cf7ec71	0.030264111
33	0x3d1e3a98	0.038630098
34	0x3ca89335	0.020578006
35	0x3ce707d0	0.028201967
36	0x3cf7918d	0.030220771
37	0xbcdb4ef3	-0.026771044
38	0xbb9d5922	-0.004801885
39	0xbd141a5c	-0.03615795
40	0xbc98d0e7	-0.0186543
41	0xbc54a188	-0.012977965
42	0xbb82248f	-0.0039716433
43	0x3ac86c6c	0.0015291101
44	0xbcd716ab	-0.026255926
45	0x3cd692a2	0.026192967
46	0xbd08f05a	-0.033432342
47	0x3c7d010f	0.015442147
48	0xbc3a4aa4	-0.011370335
49	0xbb3514cc	-0.0027630804
50	0xbd2ca10d	-0.042145777
51	0xbcef3412	-0.029199634
52	0x3c88f0a5	0.01671631
53	0x3cb01709	0.021495359
54	0xbb6214e8	-0.0034497324
55	0x3d1ba7e6	0.038001917
56	0x3c15b276	0.009136787
57	0xbce4e7c8	-0.027942553
58	0x3d1982ac	0.037478134
59	0xbcb28629	-0.021792488
60	0x3d33f2c7	0.043932702
61	0xbcc0dec9	-0.023543732
62	0xbb2867f7	-0.0025696734
63	0xbd27da96	-0.040979944

features.10.weight f4 [64, 64, 1, 1]
0	0x3dc74853	0.097305916
1	0x3c44c97b	0.012010927
2	0x3c1e3748	0.009656735
3	0xbdfdaf41	-0.12386943
4	0x3dc18b09	0.09450347
5	0xbdf9759f	-0.121806376
6	0x3d923815	0.07139603
7	0xbdc5bd88	-0.09655291
8	0x3d489643	0.048971426
9	0xbde536c8	-0.11192089
10	0x3d9f714d	0.07785282
11	0x3cb418a2	0.021984402
12	0xbcf4a519	-0.029863881
13	0xbdff055c	-0.12452194
14	0xbcabec3c	-0.020986669
15	0x3c058a76	0.008150687
16	0xbdc9977d	-0.09843347
17	0x3da8f664	0.0825012
18	0x3de71438	0.11283153
19	0xbddc68c1	-0.10762168
20	0xbdc52ced	-0.096277095
21	0x3d8eb7be	0.0696864
22	0xaf2eb6e5	-1.5890185e-10
23	0x3b903072	0.0044003064
24	0x3d9db66d	0.077008106
25	0x3da3557e	0.07975291
26	0x3dea76a6	0.11448412
27	0xbdf8a9f1	-0.12141789
28	0xbdee742d	-0.116432525
29	0xbdbd7877	-0.092514925
30	0xbdc1f69e	-0.094708666
31	0xbb930576	-0.004486735
32	0xbcd710f7	-0.026253207
33	0xbb9eff88	-0.004852239
34	0x3d2a2c6e	0.041546278
35	0x3de6d1f2	0.11270513
36	0x3da3384d	0.07969723
37	0x3de6e6d4	0.11274496
38	0x3d3aba0d	0.045587588
39	0x3d271133	0.040787887
40	0x3dd5e546	0.10444121
41	0xbd0b3f0e	-0.03399568
42	0x3c986900	0.018604755
43	0x3dd5fee1	0.10449005
44	0x3dab3d3a	0.083612874
45	0xbc223fbe	-0.009902893
46	0xbc72a8fb	-0.014810796
47	0x3dba3414	0.09091964
48	0x3d9cf386	0.07663636
49	0x3b833296	0.004003833
50	0xbd09c15a	-0.03363166
51	0x3c2f1d99	0.010688209
52	0x3dae01b9	0.08496422
53	0xbdde19af	-0.108447425
54	0x3d8d93d9	0.06912965
55	0xbd20b110	-0.03923136
56	0x3b810701	0.0039376025
57	0xbd932493	-0.0718471
58	0x3d58c477	0.05292174
59	0xbd0aa768	-0.033851057
60	0xbd603973	-0.054742288
61	0xbc4d687a	-0.012537116
62	0x3d30eb1b	0.043192964
63	0xbd842020	-0.0645144
64	0x3d35e8b4	0.044411376
65	0xbdc1ff23	-0.094724916
66	0xbd6d9dd2	-0.058011837
67	0xbc95f9ce	-0.018307593
68	0xbd87a4fb	-0.066232644
69	0xbc77403a	-0.015090996
70	0xbcfc5525	-0.030802319
71	0x3db87459	0.090065666
72	0x3df4c326	0.11951284
73	0xbc07c1e4	-0.008285973
74	0x3cf44860	0.029819667
75	0x3dbf1a56	0.09331195
76	0xbc965128	-0.018349245
77	0x3e021f4a	0.12707248
78	0x3c2b1115	0.010441084
79	0xbcfd925a	-0.030953575
80	0xbd29866d	-0.041387964
81	0x3d83ac58	0.06429356
82	0x3df1144c	0.117714494
83	0x3cafbfa7	0.021453692
84	0x3c37b21f	0.011211901
85	0xbc1aaa9f	-0.009440093
86	0x3c2a335c	0.010388222
87	0x3d96921e	0.073520884
88	0x3d8272a1	0.0636952
89	0xbcf91d7c	-0.030409567
90	0x3dc30c25	0.09523801
91	0xbdb01ea7	-0.085995965
92	0x3dbed44c	0.09317836
93	0xbaf08214	-0.0018349313
94	0x3cb8442a	0.02249344
95	0x3da71e68	0.081600964
96	0xbde8cb47	-0.11366897
97	0xbd7eaa5e	-0.062174194
98	0x3cf83ca0	0.030302346
99	0x3c2ce61e	0.010552911
100	0x3c79c98b	0.0152458055
101	0xba980366	-0.0011597693
102	0x3dc41778	0.09574789
103	0xbdc884d6	-0.097909614
104	0x3d7c5953	0.061608624
105	0x33a60c92	7.732264e-08
106	0xbd4cc707	-0.049994495
107	0x3dd30322	0.10303332
108	0x3c03ce1e	0.008044748
109	0x3dd7e761	0.10542179
110	0x3dca01f1	0.098636515
111	0x3df66aa9	0.120320626
112	0xbdfec3cd	-0.1243969
113	0xbc84e6a9	-0.016223269
114	0x3dd91bb6	0.106009886
115	0xbd9bb68e	-0.07603179
116	0x3dddd937	0.10832446
117	0xbbd71c1f	-0.0065646316
118	0x3dbe98b6	0.09306471
119	0x3d2530ea	0.04032985
120	0x3db5beab	0.08874258
121	0xbd85d5a0	-0.06534886
122	0x3e0379be	0.1283941
123	0x3d940e73	0.072293185
124	0x3d0b406c	0.033996984
125	0x3d355556	0.044270836
126	0x3d9239c0	0.07139921
127	0xbda72280	-0.08160877
128	0xbd47bfae	-0.048766784
129	0xbd193faa	-0.03741423
130	0xbbffc5ae	-0.0078055477
131	0x3de4c578	0.11170477
132	0xbdb81e53	-0.08990159
133	0xbcceff90	-0.025268346
134	0x3ba8f8a6	0.0051565943
135	0x3dc93645	0.09824804
136	0xbddfc2a1	-0.109257944
137	0xbd212438	-0.03934118
138	0xbd3648da	-0.04450307
139	0xbc234c43	-0.009966913
140	0xbdb3caf8	-0.087789476
141	0x3da02e3d	0.07821319
142	0x3caf96e7	0.02143426
143	0xbc1493b2	-0.009068416
144	0x3d8fdb96	0.070243046
145	0xbc6fd860	-0.01463899
146	0x3b9a355c	0.004706068
147	0xbd997f12	-0.0749494
148	0x3d29008d	0.04126029
149	0x3bc4605b	0.005992932
150	0xbcd2d969	-0.025738435
151	0xbd8289c8	-0.06373936
152	0xbcb90984	-0.022587545
153	0xbdc436f4	-0.09580794
154	0xbde0f80d	-0.10984812
155	0xbdd14a71	-0.10219277
156	0xbd7aa0d7	-0.061188545
157	0x3c2f5a5b	0.010702695
158	0xbdc5ce4d	-0.096584894
159	0xbc7674ca	-0.015042493
160	0xbd4d5b79	-0.050136063
161	0xbd8c05eb	-0.06837066
162	0x3d63f757	0.055655804
163	0xbdc75edd	-0.097348906
164	0x3d8f2e6d	0.06991277
165	0xbdba6ea5	-0.09103135
166	0x3d151ae3	0.036402594
167	0xbcfb6b6a	-0.030690867
168	0xbc6c261c	-0.014413383
169	0xbb700f8d	-0.0036630363
170	0xbd818575	-0.06324283
171	0xbdecb03f	-0.11557054
172	0xbd6829cf	-0.056680497
173	0xbdfe137e	-0.124060616
174	0x3dd1ada2	0.10238196
175	0x3c886fa0	0.01665479
176	0xbc066201	-0.008202077
177	0x3d28663b	0.04111312
178	0xbcb9e918	-0.022694156
179	0x3dc2ef90	0.09518349
180	0xbde7ec0d	-0.1132432
181	0xbe0070cd	-0.1254303
182	0x3c765536	0.015034964
183	0xbd0f767d	-0.03502511
184	0xbdc90af2	-0.09816541
185	0xbdb17ed6	-0.0866677
186	0x3d98628f	0.074406736
187	0xbaee50bf	-0.0018182023
188	0xbd947ce3	-0.07250383
189	0xbb93578d	-0.004496521
190	0x3c614a00	0.013750553
191	0xbdb69966	-0.08915977
192	0xbd4dff44	-0.05029227
193	0x3dcbb162	0.099459425
194	0x3c9bdc9a	0.01902609
195	0x3d094da5	0.033521313
196	0x3ce31cd8	0.027723715
197	0xbdd5f72a	-0.104475334
198	0xbcfc8080	-0.030822992
199	0x3cf5dc98	0.030012414
200	0xbcf9c0d5	-0.030487457
201	0xbd3054bf	-0.04304957
202	0x3e0034c3	0.12520127
203	0x3d2f0aa1	0.042734746
204	0xbd8665bc	-0.06562373
205	0xbdcf7adc	-0.101308554
206	0xbdd6e127	-0.10492163
207	0xbd69a085	-0.05703785
208	0xbdeb4045	-0.11486868
209	0xbda153e7	-0.07877331
210	0x3dd620f0	0.10455501
211	0xbdcaf022	-0.09909083
212	0xbb31388a	-0.0027041757
213	0x3df5e07d	0.12005708
214	0xbdbc1d23	-0.09185245
215	0x3d9c6e25	0.07638196
216	0xbd254667	-0.040350344
217	0xbc869dc7	-0.016432656
218	0xbd5fa6ab	-0.054602306
219	0xbdaa1acb	-0.083058916
220	0x3d64f622	0.055898793
221	0x3c30d166	0.010792112
222	0xbd11a295	-0.03555544
223	0x3d94211e	0.07232879
224	0xbd54dec0	-0.051970243
225	0x3daa1da2	0.08306433
226	0xbd65f716	-0.056143843
227	0x3bc47124	0.0059949327
228	0x3d9bc409	0.0760575
229	0xb8fad22f	-0.00011960079
230	0x3d406ec1	0.046980623
231	0xbadfaf8d	-0.0017065868
232	0x3dea845e	0.11451028
233	0x3dbbfd9f	0.09179234
234	0xbd4e29bf	-0.05033278
235	0xbc2ac17f	-0.01042211
236	0x3dd13460	0.10215068
237	0xbdd723ac	-0.10504851
238	0xba815eaf	-0.0009870137
239	0xbd866c26	-0.065635964
240	0xbc6cf41d	-0.014462498
241	0x3dd124b4	0.10212079
242	0xbde3b055	-0.11117617
243	0x3dd17241	0.1022687
244	0xbd993b4b	-0.07482012
245	0x3ddfa6ba	0.109204724
246	0x3c815b57	0.015790625
247	0x3d31ef93	0.043441366
248	0x3d6cf71e	0.057852857
249	0xbd303986	-0.04302361
250	0xbdd4f2ef	-0.103978984
251	0x3caee069	0.021347241
252	0xbd82cad6	-0.06386344
253	0xbd9f86d4	-0.07789388
254	0x3da603f5	0.081062235
255	0xbd717f36	-0.05895921

features.10.bias f4 [64]
0	0x3de30280	0.11084461
1	0xbd4aab99	-0.049480055
2	0x3dee0f40	0.116240025
3	0x3dce15bc	0.10062739
4	0x3dbe59e2	0.092944875
5	0xbde488e3	-0.111589216
6	0xbd9c91e0	-0.07645011
7	0x3db9c90d	0.090715505
8	0xbc4f35cd	-0.012647104
9	0x3d6fa7ac	0.058509514
10	0xbd381e78	-0.044950932
11	0x3d0d32bb	0.03447221
12	0xbd917175	-0.07101718
13	0x3d1c4998	0.038156122
14	0xbcb65e64	-0.022261806
15	0xbd2f8096	-0.04284724
16	0xbcbe6c73	-0.023245072
17	0xbd5b5639	-0.053549025
18	0xbd809b28	-0.06279594
19	0xbdabd923	-0.08391025
20	0xbbad9062	-0.005296753
21	0x3d76460c	0.060125396
22	0xbd273b40	-0.04082799
23	0x3dc02e3b	0.09383818
24	0xbca8db57	-0.020612402
25	0x3e07edf4	0.13274366
26	0x3dbbe508	0.091745436
27	0x3d8530ef	0.06503474
28	0x3d89eaa3	0.067342065
29	0xbdba4ff2	-0.090972796
30	0x3d67f64a	0.056631364
31	0xbd107c83	-0.035274994
32	0x3c305104	0.010761503
33	0xbd936521	-0.07197023
34	0xbd3ec716	-0.046576582
35	0x3d73104f	0.059341725
36	0x3b9b46d5	0.0047386684
37	0xbcbd8333	-0.02313385
38	0xbd09a2e7	-0.03360262
39	0xbcc038db	-0.02346461
40	0xbc4c8fb3	-0.012485432
41	0x3ddbef03	0.10738947
42	0x3e0251fa	0.12726584
43	0x3c939d3b	0.01801931
44	0xbde65819	-0.11247272
45	0xbd66207b	-0.05618332
46	0xbdbd5ab1	-0.09245814
47	0xbd9a42fe	-0.07532309
48	0x3d254922	0.040352948
49	0x389a71c9	7.3644864e-05
50	0xbd516a2a	-0.051126637
51	0xbd62548b	-0.055256408
52	0x3d25c937	0.040475097
53	0x3ddf442c	0.10901675
54	0xbdb3f032	-0.08786048
55	0x3ddad327	0.10684805
56	0x3de6c9d3	0.11268964
57	0xbdd61877	-0.10453885
58	0xbd7f01d3	-0.0622576
59	0xbd1ad7c3	-0.037803423
60	0xbd219d37	-0.039456572
61	0xbdaf27e8	-0.085525334
62	0x3d20a1a2	0.039216645
63	0x3dfd12cc	0.12357101

classifier.0.weight f4 [3, 64]
0	0x3dff5816	0.12467973
1	0x3b211129	0.0024576879
2	0xbd68f390	-0.056872904
3	0xbbf4620a	-0.007457976
4	0x3dc47023	0.09591701
5	0xbb890fcb	-0.004182791
6	0xbc898ef3	-0.016791796
7	0xbdd80cfb	-0.10549351
8	0x3d6d8c85	0.057995338
9	0xbd1d2e5c	-0.03837429
10	0xbdede23a	-0.11615415
11	0x3dc467d2	0.09590115
12	0x3bdf57ba	0.0068158777
13	0x3da4345b	0.080177985
14	0xbd105d25	-0.03524508
15	0xbdc56787	-0.09638887
16	0x3d823724	0.063581735
17	0x3dc08db4	0.09402028
18	0xbdc7159a	-0.09720917
19	0x3d16b407	0.03679278
20	0x3c3d24e3	0.011544439
21	0x3ae1815c	0.001720469
22	0xbd5d2745	-0.05399253
23	0x3d904c2c	0.07045779
24	0x3c04e9e3	0.008112404
25	0x3dd38e15	0.10329834
26	0xbd4489f6	-0.047983132
27	0x3d54686a	0.05185739
28	0x3bce690e	0.0062991446
29	0xbd9df550	-0.07712805
30	0xbbe0a0a3	-0.006855087
31	0xbb977e3a	-0.0046232017
32	0x3ca4b7de	0.020107206
33	0xbe003cb2	-0.12523153
34	0xbdf9a00a	-0.12188728
35	0x3d99cbd1	0.07509578
36	0x3c658bea	0.014010409
37	0x3d3ca40d	0.04605489
38	0xb9d8ceff	-0.00041352955
39	0xbdf4df31	-0.11956633
40	0xbdb0eba6	-0.08638696
41	0xbcb5595d	-0.022137338
42	0xbd7241b4	-0.05914469
43	0xbdcf9c49	-0.10137231
44	0x3db6949f	0.08915066
45	0x3da97fca	0.08276327
46	0x3d7ac5f2	0.06122393
47	0x3d00daab	0.031458538
48	0xbd2816d7	-0.041037407
49	0x3b4c3588	0.0031159837
50	0x3d829901	0.063768394
51	0x3d652aba	0.05594895
52	0x3dbe1996	0.09282224
53	0x3d9b6b71	0.07588852
54	0xbdbe01f6	-0.09277718
55	0xbd32c9fd	-0.043649662
56	0x3a7c6595	0.0009628174
57	0x3da09484	0.07840827
58	0x3b998af3	0.0046857535
59	0x319f460a	4.6354716e-09
60	0x3ca478dd	0.020077163
61	0xbc7ee93e	-0.015558539
62	0x3da48fb4	0.08035222
63	0xbd9f7d90	-0.07787621
64	0xbcc69082	-0.024238829
65	0xbd59dca3	-0.05318893
66	0x3df43972	0.11925019
67	0xbd632ef4	-0.0554647
68	0x3c685ee8	0.014182784
69	0xbca1c7c1	-0.01974857
70	0x3be93732	0.0071171755
71	0xbda46c15	-0.080284275
72	0x3ddaaaaf	0.106770866
73	0xbddddf5f	-0.1083362
74	0x3c2a2598	0.01038494
75	0x3c72563f	0.0147910705
76	0xbd91cc1b	-0.07119008
77	0xbdcfc887	-0.101456694
78	0x3d29ad88	0.041425258
79	0x3d7bc499	0.061466787
80	0xbbc025d7	-0.005863886
81	0xbdaa626d	-0.083195545
82	0xbd34cccc	-0.044140622
83	0x398051ef	0.00024475108
84	0x3d0dd2e0	0.034624934
85	0xbdcaa27b	-0.09894272
86	0x3d836070	0.06414878
87	0x3c9c1b7e	0.019056078
88	0x3d31df7e	0.04342603
89	0xbca98a5d	-0.02069586
90	0x3dfb122b	0.12259325
91	0x3df82b14	0.121175915
92	0x3d346928	0.044045597
93	0x3d1c67b0	0.03818482
94	0xbdaf5314	-0.08560768
95	0x3dd75244	0.10513738
96	0xbe096885	-0.13418777
97	0xbdce31e3	-0.10068109
98	0x3e0363eb	0.12831084
99	0xbdac9dd3	-0.0842854
100	0x3dd61d8c	0.10454854
101	0xbae05675	-0.001711561
102	0xbd2f5e25	-0.042814393
103	0x3d422d97	0.04740676
104	0x3c8d4e9b	0.017249396
105	0xbcb18c2a	-0.02167328
106	0xbd949206	-0.07254414
107	0xbdf3949d	-0.1189358
108	0xbcfc99fb	-0.030835142
109	0x3cf4ec03	0.029897695
110	0x3db41205	0.087924995
111	0x3d94f7b2	0.07273807
112	0x3cf2b1a8	0.029625729
113	0xbc9ed414	-0.019388236
114	0xbd1c898f	-0.038217124
115	0xbcac4140	-0.021027207
116	0x3d682b4e	0.056681924
117	0x3cab1779	0.020885216
118	0x3ca6475c	0.020297699
119	0xbdb48679	-0.08814711
120	0xbdf875de	-0.121318564
121	0x3dcecfb3	0.10098209
122	0xbd2a1a7f	-0.041529175
123	0xbba040e9	-0.0048905504
124	0x3ab5df09	0.0013875674
125	0xbd39b624	-0.04533972
126	0x3ce66b0f	0.028127221
127	0xbdbf7343	-0.09348156
128	0xbd2c8474	-0.042118505
129	0xbe0a6d35	-0.13518222
130	0xba918a27	-0.0011103795
131	0xbdde3cc0	-0.10851431
132	0x3b8d20da	0.0043068947
133	0xbdcfe6f8	-0.10151476
134	0xbcdb2f16	-0.02675585
135	0xbdb3a183	-0.0877104
136	0xbc40bcc3	-0.011763754
137	0x3df2f04a	0.11862238
138	0x3d87c401	0.06629182
139	0x3da46a93	0.0802814
140	0x3dee3186	0.116305396
141	0x3d3e1057	0.0464023
142	0xbd904546	-0.07044463
143	0xbc99f5ca	-0.01879396
144	0xbd9813bf	-0.07425641
145	0xbcbe36c4	-0.023219474
146	0xbda3bb6b	-0.079947315
147	0xbd3f3255	-0.04667886
148	0xbd68906b	-0.056778353
149	0xbbfdeed8	-0.0077494197
150	0xbd496482	-0.049168117
151	0x3dc6007f	0.09668063
152	0xbdf5865c	-0.11988518
153	0x3d8876ec	0.066633075
154	0xbd737d84	-0.059445873
155	0x3cdd33e6	0.027002286
156	0xbd9838f2	-0.074327365
157	0xbd563b03	-0.05230237
158	0x3c9d63d7	0.019212646
159	0xbde7ac86	-0.11312203
160	0x3dc71cb7	0.09722274
161	0xbccb13c3	-0.024789697
162	0xbddb4fad	-0.10708556
163	0x3df5ad6a	0.11995967
164	0xbd12176e	-0.035666876
165	0x3aa6212f	0.0012674684
166	0x35acea27	1.2883146e-06
167	0xbcb5543e	-0.022134896
168	0xbce8705a	-0.028373886
169	0x3d78b68a	0.060720958
170	0x3d2213f2	0.039569803
171	0x3b0f33aa	0.0021850863
172	0xbdec4f25	-0.11538533
173	0x3d613875	0.054985482
174	0xbbed6d02	-0.0072456608
175	0xbca43c26	-0.020048212
176	0x3dbe1dd7	0.09283035
177	0xbdb21d26	-0.08696966
178	0xbd96a784	-0.0735617
179	0x3da61464	0.08109358
180	0x3b3d0a36	0.0028845198
181	0xbdfac536	-0.12244646
182	0x3d12a62c	0.035803005
183	0x3d0becea	0.034161486
184	0x3d1aed4b	0.037823956
185	0x3dcbc39d	0.0994942
186	0xbc9bb89f	-0.019008933
187	0x2f36c2c9	1.6622005e-10
188	0x3d064767	0.03278294
189	0xbdc2743f	-0.094948284
190	0x3da55415	0.08072678
191	0x3d4d7414	0.05015953

classifier.0.bias f4 [3]
0	0xbdf05139	-0.11734242
1	0xbb9f8528	-0.0048681684
2	0xbd8f0555	-0.06983439
