benchmark_model_data/10000_image_experiment_50_epochs/benchmark_experiment_increased_data/experience_1_2/model_experience_1_2.pth (torch, 854826 bytes, 36 tensors)

features.0.weight f4 [32, 3, 3, 3]
00000000: 39e8 5f3d 8298 413e e6aa 8fbd a05c 273e
00000010: ed53 90bd dea0 f2bb 128a 1fbc 5fac 263e
00000020: 9d22 81bd 3cb0 193e 99d3 36bd d852 98bd
00000030: db7f 893d 1088 053e 5762 26be f134 0abd
00000040: cf8f 0fbd a735 82bd 17bb 0d3e 0e2c dc3d
00000050: a8e2 e3bd 0824 0a3e a155 e63d 2609 4abe
00000060: 03c6 543d 2152 0b3e 82e7 ba3d e485 d53c
00000070: c1f4 89bd 051f 383d c743 dbbd c8cf 853d
00000080: ef3e 153d b0ba 66bc f1ce 383d d6fa 053d
00000090: ac41 a5bd 289d bbbd cfac a73d 16c5 abbc
000000a0: 798b f0bd 19cb 53bc 567e 333e d2ed ae3d
000000b0: 308f e0bd 7e39 353e e4b3 183e 36aa d13c
000000c0: 5d87 cf3c 8af4 d63d bfcb ca3d 951b 0dbe
000000d0: f87e 103e c18e 953d 3ae8 f23d 9396 d9bd
000000e0: 1cff 1f3d b892 febd 8e50 203e 17b4 ae3d
000000f0: 2e40 ecbd 1dd1 cd3b b05f d8bd 48d7 1abe
00000100: d701 10be f490 8abe 058c 35bd 951c e7bd
00000110: 704e 4abe 239e 60be 2e55 b4bd 89a1 aa3d
00000120: 25dd 4bbd b153 95bd e4e0 07bd 3e7d 133e
00000130: a371 2cbe dec0 2f3d dcc2 27bd 3e5a aa3d
00000140: 0058 41be 8d93 333c bb00 31bd ec6f f13d
00000150: 4d5f d3bc 7199 bbbc 076c 303e 3d01 fc3d
00000160: c508 c03d c396 523c 492a cf3d 92c3 5cbd
00000170: dff3 b03d 150a 91bd dbbf 14bd 759b 9abb
00000180: 8255 283c 15e5 493e 55f8 8e3d a6f6 f7bd
00000190: 3d16 62bd fab9 e1bc 87b9 483e f568 ecbc
000001a0: 1f42 e3bd 0d62 e7bd ebd3 f83c 4a7a ec3d
000001b0: 43e7 bd3d 9610 b63d 250e 7bbc 8ba2 313e
000001c0: 4a7f 103e f3f0 4fbd 4ac5 8fbc b4e7 903d
000001d0: 5b04 b1bd d528 543e a8a8 063e aa72 eebd
000001e0: 25d8 6e3d 7122 1e3e fa39 d3bd 34e6 0bbe
000001f0: 8d4a 653e 1117 583e cfb4 be3d 3d46 1abe
00000200: 269d 1c3d c444 01be be9e ae3c ce08 323e
00000210: 7a78 bc3c eb67 203e b452 403c 4b93 b53d
00000220: 4d47 323e 741f cd3c 73e7 39bd b98e 09be
00000230: 989f a73c 556d cbbb 11ae 9f3d 4fdd e23d
00000240: 6aff 513e 6115 6c3e d51a 41bd 09fe 123e
00000250: f518 d1bd ba03 c43c ff5e 56bd 366b 203e
00000260: 16a5 b7bd 3d0f a3bd 0a44 cdbd 5060 433e
00000270: 0dc9 153e c8fe cc3c 9211 bc3d c7b7 8f3d
00000280: 4129 bdbc 81f7 26be 799d a5bc 064a 0ebe
00000290: 0f2b 15be ca6c 23be 702e 1b3e 9469 86bd
000002a0: 9123 c93c 1c3e c3bd bd89 1c3d 21f2 0d3e
000002b0: 04f9 ab3d 1b50 2b3d d26a 113d 6721 ee3d
000002c0: a827 29bd 4ee6 f0bd 1ab9 8a3c 1b62 093d
000002d0: db11 353d 1687 803e b042 d03d 6539 98bd
000002e0: babb 5f3e 9d71 4d3d e393 023d aa5c 0c3e
000002f0: 2959 d8bd 9cdf e23d c416 57bd 4767 ddbd
00000300: e797 3b3d 5e30 fbbc df42 573c ee39 e33d
00000310: 0c10 38be e8d2 603d 581f 063d f0f2 2c3e
00000320: aaa8 b2bd fd1e 3bbd ee41 1f3d 26cc 313e
00000330: e705 4c3e ac8f 103d f24e 16be 2f13 ddbd
00000340: 2030 953d d8d7 01bd a782 1a3e f279 bfbd
00000350: f9ea 23be bb68 0fbd 5e3c 29bc c6ab 5bbe
00000360: 1ebf f03c 617b 093e 2817 12be b49c 31be
00000370: ddbd 813a e8d5 c3bd 87b6 50bd edc9 c5bd
00000380: 2e1d 14ba cb5f 9e3c 8e0c 1a3e 4a1e b83d
00000390: 02f8 573e ae14 82bd 7e6f d83d 61fb 08be
000003a0: ce0f 78bd 58ac dd3d 0afd 4a3d 57f2 573e
000003b0: 9643 80bd fb12 443e 8991 863e 8ec2 ba3d
000003c0: 56dd 9fbd b80c 543e d044 16be 2853 42be
000003d0: 5dcc 56be a8a7 08be d135 b83d e4a4 26be
000003e0: 1b2a 183e 7caf 51bc ee74 503d 52da b93b
000003f0: 1c8a 2bbe 07e8 0c3d ebba 17be ac3f 0a3e
0.054664824 0.18905833 -0.07015018 0.16343927 -0.070472576 -0.007404431 -0.009737508 0.16276692
-0.0630543 0.15008634 -0.04463539 -0.07437676 0.067138396 0.13040185 -0.16248451 -0.033741895
-0.035049256 -0.063578896 0.138409 0.1075059 -0.111272156 0.13490307 0.11246801 -0.19730052
0.05194665 0.13605548 0.09126188 0.02606482 -0.06736136 0.044951458 -0.10706287 0.06533772
0.03643697 -0.014082596 0.04511923 0.03270992 -0.080691665 -0.091608346 0.081872575 -0.020968001
-0.11745352 -0.01292684 0.17528662 0.085414544 -0.10964811 0.17697713 0.14912373 0.025593858
0.0253331 0.10495861 0.09902143 -0.13780053 0.14110935 0.07302619 0.118607 -0.10624423
0.03906165 -0.12430328 0.15655729 0.08530443 -0.11535679 0.0062810318 -0.10565126 -0.15121186
-0.14063202 -0.27063715 -0.044322986 -0.112847485 -0.19756484 -0.21935324 -0.08805309 0.08331592
-0.049771447 -0.072913535 -0.033173457 0.14403245 -0.16840224 0.04290854 -0.040957317 0.083179936
-0.18881226 0.010960472 -0.043213587 0.117889255 -0.025802279 -0.022900315 0.17228709 0.12304924
0.09376673 0.012853327 0.10115487 -0.053897448 0.08640265 -0.07082001 -0.03631578 -0.004718239
0.010274293 0.19716294 0.06980959 -0.12107591 -0.05519699 -0.0275545 0.19602023 -0.028858641
-0.11096596 -0.112979986 0.030374488 0.11546762 0.09272625 0.08889882 -0.015323197 0.17347161
0.14111057 -0.050766896 -0.01755013 0.07075444 -0.08643409 0.20718701 0.13150275 -0.11642964
0.0583116 0.15442826 -0.103137925 -0.13662034 0.2239172 0.21102549 0.0931183 -0.15065856
0.038235806 -0.12623888 0.021315929 0.17386171 0.023006666 0.15664642 0.011738468 0.088659845
0.17410012 0.025039412 -0.045386743 -0.1343335 0.020461842 -0.0062081018 0.077968724 0.110773675
0.20507589 0.2305503 -0.04714473 0.14354719 -0.10209838 0.023927558 -0.05233669 0.15665898
-0.089670345 -0.07961891 -0.10022743 0.19079709 0.14627476 0.025023833 0.09183039 0.070174746
-0.02309096 -0.16305353 -0.02021669 -0.13895425 -0.14567207 -0.15959468 0.15154433 -0.06563106
0.024553092 -0.09533331 0.038217295 0.13861896 0.08397105 0.04182444 0.035502262 0.11627465
-0.041297585 -0.11762677 0.016933966 0.033540826 0.04420648 0.25103062 0.1016897 -0.07432822
0.21848956 0.05015718 0.031879317 0.13707224 -0.10563881 0.11077806 -0.052511945 -0.10810714
0.045799162 -0.030662712 0.013138502 0.110950336 -0.17974871 0.054888636 0.032744735 0.16889548
-0.08723576 -0.04568385 0.038881235 0.17363033 0.19924127 0.035293266 -0.14678553 -0.107946746
0.0728457 -0.031699985 0.15088902 -0.09349431 -0.16007604 -0.035011988 -0.010329334 -0.21452245
0.029388007 0.13425972 -0.14266646 -0.17344934 0.0009898503 -0.09562284 -0.05095532 -0.09657655
-0.00056501 0.019332787 0.15043852 0.08990152 0.21090701 -0.063516006 0.105681404 -0.13377143
-0.060561948 0.108238876 0.049557723 0.21088539 -0.06262891 0.19147865 0.2628291 0.091191396
-0.07805888 0.20707977 -0.14674687 -0.18977034 -0.20976396 -0.13345206 0.0899464 -0.16273838
0.14859812 -0.012798186 0.050892763 0.0056717778 -0.16751903 0.034400966 -0.14817397 0.13500851

features.0.bias f4 [32]
00000000: 1acd 303e 5fca 3e3e 5dc7 313e 1285 90bd
00000010: 59de 0c3d 6485 03be 7702 68bd 53de c53d
00000020: 01bb ecbd 3924 c5bd e55c 2cbe f5d5 d73d
00000030: a652 2f3e 27a9 b83d a0de 1bbd 4087 3d3d
00000040: 388e 96bd 4628 7c3d c7ce 5e3c 27d0 1dbe
00000050: a4b6 463e 9f36 bf3c 888e 483e 1763 96bd
00000060: a93d 313e 71fb 023d 2e76 10be eb83 123e
00000070: 41b2 18be d48e a33d e029 3a3e 757c c8bd
0.1726574 0.18631886 0.17361207 -0.07056631 0.034391735 -0.12843853 -0.056642976 0.096615456
-0.11559106 -0.096260495 -0.16832311 0.10538856 0.17121372 0.09016638 -0.03805411 0.046271563
-0.07351345 0.061561845 0.013599104 -0.15411435 0.1940561 0.023341475 0.19585621 -0.07343119
0.17308678 0.031978074 -0.14107582 0.14308135 -0.14911748 0.07986227 0.18180037 -0.09789363

features.2.weight f4 [32, 32, 3, 3]
00000000: 7dae 4a3d 8a32 463d 8f64 a8bd 85c4 c2bc
00000010: 2cbe 533d 4ab3 7dbc 5823 8c3d 47c6 473d
00000020: 8b2e 4cbd b7aa 113c 7e19 2dbd 08c4 54bd
00000030: cd57 cbbc 20c1 ccbb f997 1d3d f621 fa3b
00000040: 2434 44bc f55c 603c 2d15 12bd cd06 e6bc
00000050: 279e ab3c 667b 5c3d d997 9d3d 8cdd 893d
00000060: 68a7 1e3d f853 843d b5e7 6bbc 3488 a5bb
00000070: d8ac 47bd 554b 973a 3d42 823d 56da 8c3d
00000080: 257e c73c 2fdd c03c 9ce3 9d3c 7c0b 30bb
00000090: 95d5 a3bb b01f 03bd 3916 5bbd 57a1 4a3d
000000a0: 83c3 03bc db2f 2a3d 53e1 dcbc d262 c63c
000000b0: 95df 0abd a910 6dbc 6268 dabb e765 063d
000000c0: c71d febc 5897 72bd 3998 083d 26e3 aabc
000000d0: 7b24 49bc 066f 8cbc 4e61 f53c 6e0a 323d
000000e0: ade1 7ebd 01d3 a63d 4021 fdbc 2ea0 013b
000000f0: 4a9d 8bbc e04a 203d 4ead 6bbd 6c6e b63b
00000100: 17dc 283d 6cdb a43d 807c bdbb 66e2 853d
00000110: c6d4 8d3d cf5a 3fbd 7a35 023d e299 dfbc
00000120: 7b5c c83c 4f81 853d f660 0fbd c00c 2e3d
00000130: 6895 0e3d 34e1 6fbc 809a 623d 128f 27bb
00000140: f1e6 93bd 9ce0 d93c cf24 323d 1b3f 3cbd
00000150: 1656 543c 22b5 91bb 17b6 01bc 4380 91bc
00000160: bf9f 63bc a9d1 f8bc f5ff 243d 3185 6b3d
00000170: ef52 2f3d 5674 e53d 9bf3 503d 3266 ae3d
00000180: 0965 2d3d 7731 443d ba35 4ebd 26a0 d3bb
00000190: 8a2b bebc b101 93bb d2e8 aebc 97b0 6abd
000001a0: 2278 2e3d 9986 a5bc b9e4 a33c da99 26bd
000001b0: 7fae 153d 6ebb d13d 732e 953d 6518 9f3c
000001c0: eca9 8d3d ebda 67bc 3830 34bd edab 5f3c
000001d0: a6a8 1dbd 8977 1fbd 081e 1f3d b9e1 cf3d
000001e0: 9ec3 91bc c39e 2b3d e7ad 433d 890a 85bc
000001f0: 7686 b7bc 12d5 663d 7ef2 d53d 3395 c03c
00000200: 30f2 8a3d 90b9 9d3d 0bc8 123d 3d87 793d
00000210: 2715 873d 2f2c 583d 4d90 cbba bd6c 78bc
00000220: 7ffd 4abd 473b 68bd f2ce fe3c 4563 ff3c
00000230: 9b77 8cbc bf0c 353d 850f 54bc 8c75 4c3d
00000240: e18d 743d 2d9d 97bb 3f43 45bd 4c5a 3dbc
00000250: 6841 78bd aaf7 5bbd 803c bdbc e37c 193d
00000260: a16f e0bc 7178 5c3d e47b 81bb d5df a43b
00000270: 4cdb 71bd 4aef 433d 6ebf 65bd b7d4 fd39
00000280: 153b 983d d296 4bbd 9cec 3c3d bd22 073d
00000290: 4c17 133c cb99 173d af9f 663c 6dc3 24bc
000002a0: 7c43 2c3d 1a85 c4bc b8a7 3d3d 45f6 28bd
000002b0: c1fb b7bc c8b6 2b3d 47a2 8d3d 4476 26bd
000002c0: 71eb 4a3d eeec 923d b58d 3bbd 8c8d 4e3d
000002d0: e90f e43d 900a 613d 3f31 7d3d ea5b 943d
000002e0: 6cf2 763c f0f8 02bd 938c 3dba 5ff2 303b
000002f0: befb 81bd 05d4 2abc 61f8 67bc b4d0 cc3c
00000300: c4f4 733c 8aa3 93bc 0fb2 aabc 203d 173d
00000310: 5697 c0bc 9d71 ff3c f538 6ebd 9472 e13c
00000320: cb03 d53c e7bf 68bd cc08 bcbc f7c1 2f3d
00000330: 6d08 ba3c 4132 903d 597c c4bc a0b3 d9bc
00000340: cf2f abbb ce23 083d 0427 82bd 7d85 97ba
00000350: 6e2d 233d 9024 51bd 6b1e 6e3c b8b7 403d
00000360: 51dd 993d 8e98 a83d 0be1 503b 2fdd 6fbc
00000370: dc2e 03bc b65e 113d 553f 693c 23f7 3c3d
00000380: 3679 213d b21e 823d 544b 35ba f24f 7d3d
00000390: ba6a 08bd dd0d a9bc 8e9f 773d 08ec 913b
000003a0: f37e a03d 38c9 0c3c 0b9b 5d3d d825 ba3b
000003b0: 83fc f83c 3f17 1dbd bb32 23bb fad2 7bbd
000003c0: 15f6 cbbc 0565 46bd 630d 3dbd 0f4a fe3c
000003d0: 7812 bebc b4f5 b23d f487 0abc 90f1 42bd
000003e0: f23e eebc 5ab6 8d3c e79a 90bd 0970 cbbc
000003f0: acf7 ab3b ff1f 403d 3e38 8abd c67d 31bd
0.04948281 0.04838804 -0.08222305 -0.023775348 0.051695034 -0.01548464 0.06842679 0.048773076
-0.049849074 0.008890799 -0.04226064 -0.051944762 -0.02482214 -0.006248608 0.03847501 0.007633443
-0.011975322 0.013694038 -0.035664726 -0.028079415 0.020949436 0.05382862 0.07694978 0.0673171
0.03873387 0.06461328 -0.014398505 -0.005051637 -0.04874882 0.0011542836 0.0636029 0.06877582
0.024352143 0.023542969 0.019273572 -0.0026862314 -0.004999826 -0.03201264 -0.05348799 0.049470272
-0.008042219 0.041549545 -0.026962912 0.024217043 -0.03390463 -0.014469304 -0.0066652754 0.032812025
-0.031020058 -0.059226364 0.033348296 -0.020860266 -0.012276764 -0.017142784 0.029953625 0.043466978
-0.06222694 0.081457146 -0.030899644 0.0019779312 -0.017042775 0.039133906 -0.057538323 0.0055673625
0.04122552 0.08049664 -0.005782664 0.06537323 0.06925349 -0.04671746 0.03178928 -0.027295057
0.02445816 0.06518804 -0.03500458 0.042492628 0.034810454 -0.014641095 0.055323124 -0.0025567454
-0.07221783 0.02659636 0.043492135 -0.04595862 0.012959978 -0.0044466415 -0.007916949 -0.017761355
-0.013893067 -0.030373411 0.040283162 0.057500068 0.0428037 0.1120383 0.05101357 0.08515586
0.042332683 0.047898736 -0.050344206 -0.0064583 -0.02321412 -0.0044862856 -0.021351252 -0.057297315
0.042595036 -0.020205783 0.020006524 -0.040674068 0.036543366 0.102408275 0.0728425 0.019420812
0.06917176 -0.014151315 -0.043991297 0.01365183 -0.038490914 -0.038932357 0.038847 0.10150475
-0.017793473 0.041899454 0.047773268 -0.016240375 -0.022402983 0.056355543 0.10446642 0.023508644
0.06784475 0.07701409 0.035835307 0.06091999 0.06595831 0.05277651 -0.0015530676 -0.015162644
-0.04955816 -0.056697156 0.031104539 0.031175265 -0.017146876 0.04420161 -0.012943153 0.04991679
0.05970562 -0.004626891 -0.048159834 -0.011557173 -0.06060925 -0.053702988 -0.023100138 0.037472617
-0.027396979 0.0538258 -0.0039515365 0.0050315657 -0.05904703 0.047835626 -0.056090765 0.00048414405
0.07433144 -0.04970438 0.046124086 0.032992113 0.008977722 0.037011903 0.0140761575 -0.010056359
0.042056546 -0.023989249 0.046302527 -0.041250486 -0.022458913 0.04192236 0.069157176 -0.04064013
0.04954094 0.07174097 -0.04578944 0.05042796 0.11135847 0.054941714 0.061814543 0.07244094
0.015072446 -0.031975687 -0.0007230725 0.0026999933 -0.06346844 -0.010426526 -0.014158339 0.025001861
0.0148899 -0.018022317 -0.020836858 0.036923528 -0.023509663 0.031182105 -0.058159787 0.027520455
0.026002785 -0.056823637 -0.022953413 0.04290959 0.022709096 0.07040835 -0.023985075 -0.02657491
-0.005224205 0.03323727 -0.06355098 -0.0011560168 0.039838247 -0.05106026 0.014533619 0.047050208
0.07512916 0.082322225 0.0031872417 -0.014640137 -0.008006778 0.035490714 0.014236291 0.046134125
0.039422236 0.06353511 -0.0006915827 0.06184382 -0.033304907 -0.020636493 0.060454898 0.004453186
0.07836714 0.008592896 0.05410294 0.005680781 0.030393844 -0.038352247 -0.0024902064 -0.0614805
-0.024897614 -0.048436183 -0.046155345 0.031041173 -0.023202166 0.087382704 -0.008455265 -0.047593653
-0.029082749 0.017298866 -0.07060795 -0.024833696 0.0052480306 0.046905514 -0.067490086 -0.043332838

features.2.bias f4 [32]
00000000: 3eb5 d1bb a6ca 663d c2fb 4a3d 591a 513d
00000010: 4d7f 523d b647 453d 4c6a f3bc d291 6abb
00000020: 35b4 aeba bfa8 1c3d 082d 003d bd52 283d
00000030: f414 433d 7069 353d 95df 86bd 18ad f9bb
00000040: 6aec 0b3d d3fc 75bc 2ad7 4dbd 0427 d0bc
00000050: 5253 0c3d 7995 4ebd f3d1 3a3d c270 153d
00000060: df0a 6fb6 5bd9 8b3d 6572 f43a c6b3 abbc
00000070: 286a 6dbc 7ca4 463d 09e8 2cbd e19f 603d
-0.0063997796 0.056345604 0.0495565 0.051050518 0.051390935 0.048164092 -0.029713772 -0.0035792482
-0.0013328852 0.038246866 0.031292945 0.04109453 0.047627404 0.044290006 -0.06585614 -0.0076195113
0.03416101 -0.015013891 -0.050254025 -0.02540923 0.034259148 -0.050435517 0.04561038 0.036484487
-3.5620103e-06 0.06828567 0.0018649815 -0.020959746 -0.014490642 0.04849671 -0.042213473 0.054839972

features.5.weight f4 [64, 32, 3, 3]
00000000: 15f7 e53c c7ce 87bd a28c 0cbd 7d29 cdbc
00000010: c270 0c3c 849e e63c 0b77 72bd 74a9 613b
00000020: f9b5 19bb f163 83bd 31ef a4bc ec49 64bd
00000030: 1f63 583c eaa1 903d 40bb 153c fd12 00bc
00000040: 6a07 843d 7e87 103d 6d00 ce3b 03b5 65bd
00000050: 2a1d 5dbd ca6b 00bd ec27 8a3d f6c3 46bc
00000060: 7a91 223d 600c 683c 0c69 4dbc 0293 87bc
00000070: 402f 5b3c 411b 023d 9717 99bb 6263 debc
00000080: 2c6b 253c 8905 d0bb 452c e23c 69ce 913c
00000090: 3ee3 f9bb abef 473d c040 a13d a13a f1bc
000000a0: e730 e6bb e78a 21bd 7c4f 6a3c e31a 49bd
000000b0: 2f18 873c fd87 0d3c 1d81 0ebc 7653 a53d
000000c0: 2b84 373d a0a4 4c3c 9c7a 4339 b64b 343c
000000d0: d02d 923b 3002 643d 0ba0 9ebc 0789 483c
000000e0: 2904 883d a0dd 6b3b 1d72 05bd 0def d1bc
000000f0: 21ce 9ebd 4232 fcbc 91fc bc3c e678 e7bb
00000100: 54cb a73d 9386 993d ff56 3a3d a536 183d
00000110: 1195 743c fee4 ffbc 8749 e13c 465a 683c
00000120: 9d24 38bd 773a 033d f610 5a3d 3c07 9abc
00000130: 3aae 42bd c382 a03d 8527 fb3a 3e2f 04bd
00000140: ab87 6f3d 824f 693d 67d9 ab3d 8801 2a3c
00000150: 01da 2c3d e55f ad3c a000 00bc 3ec9 22bd
00000160: f901 393d 282a c9bc 73a6 263d a561 003d
00000170: 6194 523d 3b3f 1bbd 0991 18bd 0722 ca3c
00000180: 0e12 11bd 5eb1 17bd 04a9 a2bc 1cdd c43c
00000190: b70f 913d 826d a13d b423 57bd 47dc e73a
000001a0: fc18 743d d398 823c efbe 593d 59e7 b93b
000001b0: cd9d d6bc 8043 31b9 ffd0 89bb 18e5 483b
000001c0: 8216 a0b9 3154 643d fec1 b9bc eaed 65bd
000001d0: 286f 8a3b 4430 b53b bac6 103d 906c 873d
000001e0: 7e0f 51bd e8c2 753d 6388 ae3d e829 87bc
000001f0: 1fc4 1b3b 11b3 1cbb 0f6a 2a3d 5e36 34bc
00000200: de05 5c3d 06a0 22bc 4083 b33c cd96 b53d
00000210: 7dc6 94bc 24c5 003d 8e94 eb3b 4a39 5a3d
00000220: b4c3 eb3c d235 ad3d 4e2a 55bd 64c2 53bb
00000230: 5f4e 96bc c833 abbc 80c3 ed3c d3d2 4f3d
00000240: 975c 333d e63a 603d 2ee9 d93d c0a5 573c
00000250: 826e 423d 1c55 253d 634d 793c 06fb 913b
00000260: 2397 97bb 34e6 82ba 48af a4bb 29af 973a
00000270: 6b61 c9bc 799a 0c3d ba8a 413d b9d8 a13d
00000280: 36de bb3c 53df 353d f72f 3f3d 086e 893d
00000290: 7dee 5bbb 2c5f f93c 6304 dfbc 7292 1cba
000002a0: 224b 053d 75b2 063d 3c17 9b3c 711b 1dbd
000002b0: d4b3 17bc 4477 b43d 29d6 9e3c 3e3f f83c
000002c0: 046b bebc f983 ce3a f6f1 64bd c6f5 acbb
000002d0: a1f2 13bc 4df0 28bb ead3 ca3c 6f34 c1bc
000002e0: 802f 753d 1c80 a8bc d9ac 87bd a12d d3bc
000002f0: b0c5 17bd 08f1 d0bc 84e5 cfbc 5ff3 da3c
00000300: 523f 363c ba7a 2ebd c5e6 993d 4531 49bd
00000310: 5569 cdba 9b00 713c 3723 32bd ec23 753c
00000320: fc8f 41bd 19f4 23bd a69f 133d 2ace 743d
00000330: 0261 333c 2ba6 4e3d b12e e436 1064 c3bc
00000340: 49b3 82bd e38e d43c a5fa 973d 4309 cb3c
00000350: f522 7c3c fabf 193d ba3d 0e3d 8f63 d23d
00000360: 2c20 19b3 576c e5b2 8707 28b4 bef6 89b4
00000370: ef5a 39b3 cee3 d2b3 63cc 5ab4 aeeb 38b3
00000380: a872 00b3 3a47 b0bc 9a5f 183c 3370 d63d
00000390: 1909 42bd ca38 c6bb f221 15bd f604 8ebd
000003a0: 87a4 0d3d a46e a43c 0ac3 923d 43e8 6a3d
000003b0: cff7 36bd f3b3 953a affa e53b f4c7 67bc
000003c0: 4ad5 fa3c 3010 193d 47e3 6d3d 7232 98bc
000003d0: 8451 92bd 3cc8 093d 806e 2dbd 572a 223d
000003e0: f62b 073c 5287 433b 0333 b1bc d7f0 ce3b
000003f0: 690b ffbb 4767 143c 7ef3 ae3d 051b a03c
0.02807192 -0.066312365 -0.034313805 -0.025044197 0.008571805 0.028151758 -0.05919556 0.0034433277
-0.0023454411 -0.06415547 -0.020133587 -0.05573456 0.013207226 0.07062133 0.009138882 -0.007817027
0.064467266 0.035285465 0.006286672 -0.05608083 -0.05398289 -0.031352796 0.06745896 -0.012131682
0.03968952 0.014163107 -0.012537252 -0.016549591 0.0133779645 0.031764273 -0.0046720016 -0.027146999
0.010096353 -0.006348316 0.027609 0.01779862 -0.0076259663 0.04881255 0.07873678 -0.029446902
-0.0070248726 -0.03943911 0.014301177 -0.049097907 0.016491024 0.008638379 -0.008697775 0.080725595
0.04480378 0.0124904215 0.00018642325 0.011004379 0.0044610277 0.05566615 -0.019363424 0.012239701
0.066414185 0.0035990253 -0.03257953 -0.025626684 -0.0775416 -0.030785684 0.023069652 -0.0070639728
0.08193079 0.07496371 0.045493122 0.037161488 0.014928118 -0.031237122 0.02750088 0.014181679
-0.044956792 0.03203818 0.05323883 -0.018802278 -0.047529437 0.07837441 0.0019161558 -0.032271616
0.058478992 0.05696059 0.083910756 0.010376342 0.042200092 0.02116389 -0.007812649 -0.0397427
0.045167897 -0.024556234 0.040686082 0.03134312 0.051411036 -0.0379021 -0.03724769 0.024674429
-0.03541761 -0.037034385 -0.019855984 0.024031214 0.070830755 0.07882215 -0.052524284 0.0017689549
0.05959414 0.015942013 0.053160604 0.0056733307 -0.026198292 -0.00016905181 -0.0042058225 0.0030654129
-0.00030534348 0.055744354 -0.02267551 -0.056135096 0.0042246766 0.0055294354 0.03534577 0.066125035
-0.051040165 0.06000033 0.085221075 -0.016499475 0.002376802 -0.0023910443 0.04160505 -0.01099929
0.053716533 -0.009925848 0.02191317 0.088666536 -0.018161053 0.031438008 0.00718934 0.05327729
0.028779842 0.08457531 -0.052042298 -0.003231191 -0.018347917 -0.020898715 0.029023886 0.050738167
0.043789472 0.05474367 0.106401786 0.0131620765 0.04746867 0.04036437 0.015216204 0.004454973
-0.004626171 -0.0009986819 -0.005025778 0.0011572588 -0.024582585 0.034327004 0.04725144 0.07902665
0.022933107 0.04440243 0.046676602 0.0671044 -0.0033558898 0.03044089 -0.027223771 -0.000597275
0.032542355 0.032885034 0.018931977 -0.03835625 -0.009259183 0.088118106 0.019389229 0.030303594
-0.023244388 0.0015755884 -0.055894814 -0.005278322 -0.009030015 -0.0025777996 0.024759252 -0.023584573
0.059859753 -0.0205689 -0.06624765 -0.025778593 -0.037053764 -0.025505558 -0.025377996 0.026727377
0.011123495 -0.04259751 0.07514719 -0.049119253 -0.001567165 0.014709617 -0.043490615 0.014962178
-0.047256455 -0.04002771 0.036040924 0.059766926 0.010948421 0.05045144 6.800365e-06 -0.023851424
-0.06381852 0.02594704 0.074208535 0.02478469 0.015389194 0.0375366 0.034726836 0.102728955
-3.565235e-08 -2.6708376e-08 -1.5648958e-07 -2.5697767e-07 -4.3156373e-08 -9.8203245e-08 -2.0377188e-07 -4.3055188e-08
-2.99066e-08 -0.021518338 0.009300137 0.10470619 -0.047371957 -0.0060492503 -0.036409326 -0.0693454
0.034580734 0.020072289 0.07166107 0.05735041 -0.044669922 0.0011421427 0.007018409 -0.014146794
0.030619282 0.037368953 0.058078077 -0.018578742 -0.07144454 0.033638224 -0.04234171 0.03959116
0.008250227 0.0029835296 -0.02163077 0.0063153314 -0.0077833426 0.009057826 0.08542536 0.019544134

features.5.bias f4 [64]
00000000: a014 ad3c 94f1 a73b b9cf eb3c cbec afbc
00000010: 5dd0 8fbd 8612 8c3c 1883 f5bc 097e aa8e
00000020: b621 773c cad4 d73a b6a0 8abb 59fd 35bc
00000030: c8c6 183b e489 ab3c 4c1c 35bd e2ba 37bc
00000040: 5db8 333d 4f12 c83c af29 acbc 3772 4a3d
00000050: 9feb 943c ea80 88bc c014 7c86 4e2a 013c
00000060: b91d 3dbd 96d3 d6bc e01e d93c 4a7c a7bb
00000070: 134d 87bc fcc3 19bd 46f3 ccbc 35c0 143d
00000080: d472 19bd 526b 413d 3e00 523c 27cb 63bc
00000090: 71e3 543d 6795 573d 51ef c8bc 4520 963c
000000a0: 174d eabc 2fa7 18bc 08a4 b3bc b32f 32bd
000000b0: 0ace 663c dab9 90bd b7f3 60bc b9ad 1bbc
000000c0: 9790 f13c 313a 3dbc 1dc6 77bd bdb2 dbbc
000000d0: 3a9d 1b3d 7ce3 87bb 18ab 83bd 899d f63c
000000e0: 98b0 153d b778 813c d741 7dbd 0bb9 46bd
000000f0: 7154 4bac 79df f3bb a33c e0bc 46b7 1338
0.021127999 0.005125234 0.028785573 -0.021475216 -0.07022164 0.017098676 -0.029969737 -4.2029603e-30
0.015083721 0.0016466614 -0.004230584 -0.011107766 0.0023311842 0.020939775 -0.04421644 -0.01121399
0.043876994 0.024422793 -0.02101597 0.04942533 0.01817876 -0.016663034 -4.7411177e-35 0.007883621
-0.046170924 -0.026223939 0.02650398 -0.005111252 -0.016516244 -0.03754042 -0.025018346 0.036316115
-0.037463024 0.04722149 0.012817441 -0.013903416 0.051974718 0.052632716 -0.024528177 0.018325934
-0.028601212 -0.009317203 -0.021928802 -0.04350252 0.0140872095 -0.07066698 -0.013729981 -0.009501868
0.029487891 -0.011549518 -0.06049167 -0.026818627 0.03799174 -0.0041469913 -0.06429118 0.030104415
0.036545366 0.015804632 -0.061830368 -0.048516314 -2.889491e-12 -0.0074424115 -0.027372664 3.5218218e-05

features.7.weight f4 [64, 64, 3, 3]
00000000: 03dc 943c d256 ff3c 5d77 003d d3c7 37bc
00000010: 0c07 23bc b5e9 00bc 0cad 6e3d 4eca 1f3c
00000020: e930 a9bc a8c6 423d ee7b e53c bf93 693c
00000030: 204f f53c 53e4 653d 5974 353d 4f3d 99bc
00000040: a038 0b3d 1e8f ee3b fd02 cabb b2ae 8ebb
00000050: 64c9 053d 4d18 353c a0f8 013d d84a b03b
00000060: 047d e3bb a5aa 0f3d 8ad0 583c 358e a6bc
00000070: 9963 35bd bdaf f63c 2503 52bd 7976 3bbd
00000080: 1f0d 81bd ef17 183d 724a 733c 7284 d23c
00000090: 6211 a7bb d5ac fd3b 98f1 25bb 47d6 d03b
000000a0: c32d babb d919 31bd 786c 013d 58c8 c0bc
000000b0: fa36 82bd 1486 243d f706 06bd c0a0 dcbc
000000c0: 27c1 cf3b 5547 c9ba b769 15bc e007 923b
000000d0: 0a5a 14bb 1c84 bdbc c1e3 e73c a5ac 923c
000000e0: e390 9c3d 2615 73bc d920 2a3c 1eb8 563d
000000f0: 399e 56bc 14ad 0bbc 053c 143d ab96 cf0c
00000100: a363 250c d774 7b0c 63db 5a8c 71fc 7c8c
00000110: 4336 950c 78cc 1d8d 3296 978c dc39 a30c
00000120: 9669 4f3d c5dc 63ba 960e 8c3c 38e5 663c
00000130: 5f63 4d3d 745a 2c3d 94aa 933d fba3 1fbc
00000140: 7722 b03c 02bd 603d 7365 403d a6bd 783d
00000150: f4b4 7c3b 59aa e93c fa79 f53c 1bc3 8abc
00000160: 441f 0d3d 4c1f ab3d d4da 3ebc 2a87 21bc
00000170: 85dd 0a3b 42de 79bc 867b 24bc b861 91bb
00000180: 7534 6dbc 9803 52bc c2da afbb 86fe b0bc
00000190: 7e43 fa3c ac38 253d e5bd e53c 4da7 9c3c
000001a0: 6a09 18bb f14f 423d ce5e 353d d74b 543c
000001b0: ded1 1abd dd06 4e3c d499 7abd 4a23 ecbc
000001c0: 04f6 1e3d 1046 67bc 3e7c 193d 66f2 e138
000001d0: 7aae 4abd 466b 123c 6352 553b 3945 2e3d
000001e0: aa30 ce3c 795f 07bd fc8d 8e3d 3e71 9dbb
000001f0: cdef 223d 2cc3 cc3c 664f c8bc 7d82 1dbd
00000200: 6647 67bc 1762 f0bc e7b3 8bbc 5a05 acbc
00000210: 6c55 79bc 26e4 253d 5da7 133d efba 2e3d
00000220: 73a5 c43a df57 c2bc 4778 61bd 17a1 f0bc
00000230: 472c bd3b bee7 2b3d 9c15 f93a e3bf 113d
00000240: 1296 9e3c 9299 ca3c 6dee 813d fff3 8e3d
00000250: bdca 733c f351 76bc fe81 cd3c dde4 5cbc
00000260: 8499 4e3d e59b 56bb c131 bfbc 70e7 293d
00000270: 4f84 ad3c b0b6 16bc 4dbe d1bc cba9 09bd
00000280: 2dac a53c ac31 04bc 0e52 433d 300a 923c
00000290: 6c27 e23b d815 bbbc d407 163d 04a6 4f3d
000002a0: 8fd4 583d d5ab 2f3d 3451 7c3c 7428 e1bb
000002b0: 9566 e8bc e3e8 e23c 6fae 1ebd 22d0 0bbd
000002c0: 0d94 9bbb 9720 703c 5b48 f0bc f754 0abd
000002d0: ac90 1ebd 90ac 0dbd 6e96 fe3c 72d8 b6bc
000002e0: d5ac 9bbc 0834 b3bc 1d69 803d d68a 9abc
000002f0: 43b4 42bc 7f55 e6bc d23d 4cbb e05d 1bbc
00000300: bd2e 0bbd c2d6 a33c a1de 93bc 08ee 353d
00000310: 1938 99bb 2b66 0f3d 9b83 1b85 0207 e385
00000320: 3cd0 4786 3219 fa05 6f8e 6003 9cc3 3e86
00000330: d29c 1806 f9b7 ad04 aa86 4786 a059 1cbb
00000340: 5d35 e2bb 3ddd 94bb 99f7 113b a136 633b
00000350: 3ec4 5bba 95f2 4d3b 2835 f13b f12e dd3a
00000360: 466d 3eba df86 233d 198c 9ebc 537d ee3b
00000370: 3a6e 7bbb 9172 9bbc 5ff9 b33c f7fa 453c
00000380: ed51 11bd fc80 25bd 51b9 07bd ca7b adbc
00000390: c104 febb 2bcc aa3c 2535 0e3d 3750 c33c
000003a0: d4cf 363b 35be aa3b 20e0 8bbc c566 213d
000003b0: 0cc2 6b3b e3f8 0f3c cde6 cd3b c69a b2bc
000003c0: 87be d839 7ba0 a33d d143 953c c0de 003c
000003d0: 5d45 153d c6fe 19ba 3787 0e3c aba6 5ebc
000003e0: dea3 283c cecb d53c 1e79 a8b9 fe8b d23c
000003f0: 4bc4 953c 928b 543d ef54 123d 79ac 6f3d
0.018171316 0.031169329 0.031363834 -0.011217075 -0.009950411 -0.00786822 0.0582705 0.009752823
-0.020653205 0.047552735 0.028013196 0.014256417 0.029944956 0.05612595 0.04430041 -0.018705992
0.03398955 0.0072802445 -0.006164907 -0.0043543214 0.032662764 0.011053157 0.031731248 0.005380016
-0.0069423933 0.03507485 0.013233313 -0.020331481 -0.044284437 0.030113095 -0.05127253 -0.04576728
-0.06301331 0.0371322 0.014849292 0.02569792 -0.0050985077 0.0077415504 -0.0025321003 0.0063732
-0.0056817248 -0.04323754 0.031597584 -0.023533031 -0.06358142 0.04016693 -0.032721486 -0.02693212
0.006340164 -0.0015356342 -0.009119443 0.004456505 -0.0022636675 -0.023134284 0.028306844 0.017904589
0.076448224 -0.014836585 0.010383808 0.05242168 -0.013099247 -0.008525152 0.03619005 3.198408e-31
1.2741121e-31 1.9371497e-31 -1.6860128e-31 -1.948934e-31 2.2989743e-31 -4.862548e-31 -2.335563e-31 2.514895e-31
0.050637804 -0.000869226 0.017096799 0.014092736 0.050143596 0.04207845 0.072102696 -0.009743686
0.02150081 0.054867752 0.04697175 0.060727738 0.0038560005 0.02852361 0.02996539 -0.016938737
0.034453645 0.08355579 -0.011648852 -0.009858886 0.0021189165 -0.015250744 -0.010039216 -0.004436698
-0.014477839 -0.01281824 -0.005366654 -0.021605741 0.03054976 0.04033725 0.02804465 0.019122744
-0.002319897 0.04743952 0.044279866 0.012957535 -0.0377978 0.0125748785 -0.06118186 -0.02882542
0.038808838 -0.014115825 0.037472002 0.00010773986 -0.0494828 0.008936709 0.0032550327 0.042546485
0.02516969 -0.033050034 0.06960675 -0.0048047593 0.039779473 0.024995409 -0.024451923 -0.03845452
-0.014116144 -0.029343648 -0.017053558 -0.020998646 -0.01521812 0.040500782 0.036048282 0.042658743
0.0015002921 -0.02372354 -0.055046346 -0.029373689 0.0057731005 0.041969053 0.0019003632 0.035583388
0.019358668 0.024731431 0.06344304 0.06980132 0.01487988 -0.015034187 0.0250864 -0.0134823
0.050439373 -0.003274673 -0.023339154 0.04148048 0.021181254 -0.0091988295 -0.025603438 -0.033609193
0.020223701 -0.008068483 0.047685675 0.017827123 0.006901672 -0.022837564 0.03662856 0.050695434
0.052937087 0.04288848 0.01540022 -0.0068712775 -0.028369227 0.02769894 -0.03874057 -0.034134038
-0.0047478736 0.0146562075 -0.029331377 -0.033772435 -0.03871219 -0.034588397 0.03107759 -0.022320006
-0.019003311 -0.021875396 0.06270049 -0.01886503 -0.011883798 -0.02811694 -0.0031164777 -0.009482831
-0.03398012 0.019999865 -0.018050494 0.044416457 -0.004675877 0.035009544 -7.312237e-36 -2.1349552e-35
-3.7580727e-35 2.3519142e-35 6.599119e-37 -3.587874e-35 2.8703236e-35 4.0841057e-36 -3.7526676e-35 -0.0023857132
-0.006903334 -0.004542975 0.0022272824 0.0034670013 -0.00083834294 0.0031425108 0.007361073 0.0016874952
-0.0007264208 0.039923545 -0.019353913 0.0072781234 -0.003836526 -0.018975528 0.021969495 0.01208376
-0.03547852 -0.040406212 -0.033135716 -0.021177191 -0.0077520316 0.020849308 0.03471865 0.02384196
0.0027894871 0.0052106627 -0.017074645 0.03940465 0.0035973815 0.008787367 0.006283617 -0.021802317
0.00041340684 0.079895936 0.018220814 0.007865608 0.036443103 -0.0005874451 0.00869923 -0.013589541
0.010292975 0.026098158 -0.00032133696 0.02570152 0.018282076 0.051890917 0.03572553 0.058514092

features.7.bias f4 [64]
00000000: c310 dc3c 1ed3 cb3c 787b 85b8 42ad 25b6
00000010: cdc5 2ab5 3bcc b53c 860e 3aa0 440d 4bb9
00000020: 8da4 7bba 99e6 d5af 816f 9739 9967 353d
00000030: 4820 9cb4 a483 6fbc 01c3 44a0 c02d b6a0
00000040: 2be5 f437 2098 563d 89dc dd3a 1fef 7b3b
00000050: 80de a1bb 57f0 163d 417c 07bd 2991 a9b4
00000060: 1660 88bc b65d 08b8 1846 3882 a1cc fcbb
00000070: eb7b 28bc e571 1c3c 9bd3 89bd f971 e4bb
00000080: 917b 69bc 3055 223d 20ee 99bb 81ef 47b6
00000090: 2875 3338 51d3 9fbc b548 123a 2cbf fcb5
000000a0: 096c a43b 8f4b 2bbc 8fde 8134 6b03 2599
000000b0: 5239 793c 93b0 2ea4 5907 633c 03de 3d3d
000000c0: 782b d9bc 9b55 63bc 2d7b 45bc 84bb 0400
000000d0: 620a 82a8 c139 84bc d39f 3abc 9d7f 8337
000000e0: 279b acbb 56da da3c 3611 8839 4cce 023d
000000f0: ccdd e4b7 6b7c 5abb 3975 a53c 14cd 87b5
0.026863461 0.024880942 -6.364932e-05 -2.4687765e-06 -6.3617773e-07 0.022192111 -1.5759618e-19 -0.0001936453
-0.000959941 -3.8908324e-10 0.0002888404 0.04428825 -2.9080752e-07 -0.014618788 -1.6666367e-19 -3.0862274e-19
2.9193781e-05 0.05239117 0.0016926687 0.0038442088 -0.004939854 0.0368503 -0.033077482 -3.158432e-07
-0.01664738 -3.2512202e-05 -1.3538301e-37 -0.0077148234 -0.010283451 0.009548639 -0.06729814 -0.0069715944
-0.014250652 0.039632022 -0.004697576 -2.979272e-06 4.2786036e-05 -0.019509943 0.0005580292 -1.8831101e-06
0.0050177616 -0.010455026 2.4190055e-07 -8.53099e-24 0.01521142 -3.78798e-17 0.013856732 0.046354305
-0.026509985 -0.01387539 -0.012053293 4.3461e-40 -1.4437402e-14 -0.01614082 -0.011390644 1.5675841e-05
-0.005267519 0.026715439 0.00025952765 0.03193502 -2.7283e-05 -0.003333832 0.020197498 -1.0117969e-06

features.10.weight f4 [64, 64, 1, 1]
00000000: 7760 d3bc c23f 073e a0c6 3fb9 355b 13b7
00000010: fe34 9daf c6fa 8cbd 2b45 c29b 2c5a 083c
00000020: 2bdd fcbd 864f 9e34 4690 b5b8 7825 823c
00000030: 61f3 4a37 07fe 663c 8a57 0500 a9a3 98b4
00000040: 6f0d 8a37 a31e e53c 13ad eeba 0995 dcbd
00000050: 0a23 98bc 798e 243d 296d c73d 7158 0580
00000060: ef00 8dbd 7c2d 203a 1ae3 3082 dbc8 d5bd
00000070: bc7b 1ebd 9420 fdba 04e8 0cbd 83e6 c63d
00000080: c5a7 1f3a 6e06 9e3b 2e77 6f3b b341 a635
00000090: 5390 1d37 0856 33a2 0554 4233 b25a 0500
000000a0: b67c 33ab 20c7 90ba f234 b8b8 4479 3096
000000b0: e57d 1abd 275e 0580 bac9 993a 89a3 073e
000000c0: 3534 1bbc 2ef9 9cbd ac69 ae3d 6359 0580
000000d0: de0f c1b2 37f7 ed3b 8f4a 18bd 47de 79b8
000000e0: 34e4 7cb9 b385 c03d ccb9 5bb9 65ae 03be
000000f0: 882e ec32 b1af 3f3a ac43 913d f351 4b36
00000100: 5ab2 6cbd 82ff 013e 8f01 e439 2085 9537
00000110: 3d4a e1b2 28d7 a8bd a483 9b1a a15a 793b
00000120: d60d b5bd 757f 7eb5 3d7f a1b3 2f65 81bd
00000130: 7719 adb5 178b c0bd 0261 b201 eb2f a133
00000140: 257b 9d38 e6a9 a63d 9b67 eeb9 e036 9bbd
00000150: b639 883d 771f 9bbd 71b8 763d 0522 6d30
00000160: 12b1 ae3d 9ab9 2bb8 06e7 4b02 c1b3 9cbd
00000170: 1d86 553c d24a a13d 3219 253d e7e4 8bba
00000180: ecca 443b c75d aebc 9f94 b9bc 065c d2b4
00000190: 4aa1 0a39 cbac ee3d 34c4 9da7 7b80 c79e
000001a0: 8c42 d73b af26 873d daea 08b8 365a 0580
000001b0: 52b3 4e3d 1b58 0500 c6ec d73d b657 94bb
000001c0: 0a30 9cbd 535f a73d b626 bd3d 3d57 0580
000001d0: 9379 31af ee52 51b4 ae3c c3bc 9296 1c33
000001e0: 3989 343d 9684 e63d d043 c639 8441 ab3c
000001f0: 3817 d8b3 acd2 72b5 6d19 24bc 6fc5 bcb3
00000200: 9b61 a13d c0c0 99bd f156 8339 6caa c636
00000210: edb0 75b4 e156 a73d a958 0500 a854 a4bb
00000220: c64d 983d 8a73 eeb3 6444 3ab5 32f5 62bc
00000230: 8be2 5b36 f8a2 e1bc 4059 0580 3c3f 9732
00000240: f585 ddb8 a7d7 08bd 2010 3838 4789 573b
00000250: 7bde 9abd 937a 583d ed7b 843c ca8d 242c
00000260: 97ee 073e 8c5a 15b7 3bca f401 ddde 843d
00000270: b674 9ebd 9639 9ebc 4c44 04bd b978 a23d
00000280: 4eff 603b f032 85bd 7ccf b63a fc1e 02b5
00000290: 541c 19b8 0758 0580 f55d 88ac 82d0 c492
000002a0: 9b58 0500 1070 bc3c 6d16 ffb8 da58 0500
000002b0: c99b 01bd 4957 0580 a88f b93d 8d4f dd3d
000002c0: c124 e8bd 37cf a5bc a0b9 eabd 135a 0580
000002d0: 92d8 4cae c36e 9b3d 52c0 99bd 55c3 56b7
000002e0: 8a93 673b e193 2a3d e111 0438 5359 6e3c
000002f0: 3938 7bb3 fb4c 03b4 6f8c 933d 9fc2 d3b4
00000300: 370b cfbc 66f8 dfbd 53a1 1bba c3ff f536
00000310: cd4f 331f 5618 3e3c 1484 c30e 2be5 8f3d
00000320: 2994 3e3d eb59 5b2b d299 4eba b1e2 ae3b
00000330: 5f60 7637 e4e9 84bd 0b4a 1492 52ca 16b4
00000340: 7d9c de39 b693 de3d c7ac 5439 382d fb3d
00000350: 124a 003d a469 7bbd df3b e0bd 2548 f8ae
00000360: 418f 66bd fcdc 0eb9 02ee 5580 3855 e8bd
00000370: fe24 91bd eeb4 733d b971 5c3c 6ccd a4bd
00000380: 9db1 78aa accf ee3d bf9d 9dba 59b6 bd33
00000390: a066 afb8 b183 9e3c 5a14 5098 f759 0580
000003a0: ab6e 92bb 77a7 3b3d 1216 3d38 8458 0580
000003b0: 927a aabc 2e58 0580 97bd b63d 1887 1f3d
000003c0: ec0e 463b 924c 2ebd 8e9a bcbd 1695 5485
000003d0: 9c07 d430 533e cebd 3cff d6bd 23d3 62b6
000003e0: fc4b 6433 616b b7bc 7ff5 9739 218b 81bc
000003f0: fd0c 1837 0d7d adbc 37cd c2bd 6b21 cd31
-0.025802834 0.13207915 -0.00018289173 -8.783119e-06 -2.8595787e-10 -0.06883769 -3.2139307e-22 0.00832228
-0.12346872 2.9487654e-07 -8.6576256e-05 0.015887007 1.2096804e-05 0.014098651 4.9058e-40 -2.8431285e-07
1.6457137e-05 0.02796871 -0.0018209539 -0.10770614 -0.018571395 0.040174935 0.097376175 -4.90904e-40
-0.06884944 0.00061102933 -1.2995613e-37 -0.10438701 -0.03869222 -0.0019312077 -0.034400955 0.09711935
0.0006090368 0.004822544 0.0036539542 1.2387085e-06 9.391532e-06 -2.4304568e-18 4.524556e-08 4.91713e-40
-6.3766646e-13 -0.0011045672 -8.7836655e-05 -1.4255431e-25 -0.03771772 -4.92953e-40 0.0011733093 0.13245977
-0.009472896 -0.07664715 0.08516249 -4.91243e-40 -2.2475373e-08 0.0072621363 -0.03718048 -5.9573238e-05
-0.00024117605 0.09400501 -0.00020954682 -0.12859495 2.7495176e-08 0.0007312252 0.070929855 3.0297058e-06
-0.057787277 0.12695125 0.0004348871 1.7824175e-05 -2.6227207e-08 -0.08244163 6.4319174e-23 0.0038048404
-0.088405296 -9.480785e-07 -7.520291e-08 -0.06318127 -1.2896916e-06 -0.09401529 6.552607e-38 7.505863e-08
7.509281e-05 0.08137874 -0.0004547209 -0.07578826 0.066516325 -0.07574361 0.06023449 8.626844e-10
0.08529867 -4.0942432e-05 1.4980385e-37 -0.07651473 0.013032463 0.07875599 0.04030723 -0.0010673077
0.0030028177 -0.02128495 -0.022653876 -3.9182504e-07 0.0001322079 0.116540514 -4.3788978e-15 -2.1123083e-20
0.0065692123 0.06599175 -3.264365e-05 -4.91539e-40 0.050463982 4.90784e-40 0.10543208 -0.0045270575
-0.0762635 0.081724785 0.09235899 -4.90473e-40 -1.6141248e-10 -1.9494811e-07 -0.023832645 3.6458523e-08
0.04407618 0.112557575 0.00037816027 0.020905264 -1.0062507e-07 -9.0458593e-07 -0.010015828 -8.790345e-08
0.07879945 -0.07507467 0.00025051043 5.9206996e-06 -2.2881768e-07 0.08170868 4.90983e-40 -0.0050149746
0.07436709 -1.1103755e-07 -6.938992e-07 -0.013852404 3.2765408e-06 -0.02754353 -4.91194e-40 1.760747e-08
-0.00010563053 -0.033408787 4.3884036e-05 0.003288822 -0.07561966 0.05285127 0.016172374 2.338451e-12
0.13274609 -8.902174e-06 8.992163e-38 0.0648782 -0.077371046 -0.019314568 -0.032291695 0.07933182
0.003433186 -0.06503856 0.0013947333 -4.847386e-07 -3.6504425e-05 -4.90756e-40 -3.875784e-12 -1.242074e-27
4.90963e-40 0.023002654 -0.00012163525 4.91051e-40 -0.03164271 -4.9049e-40 0.090606034 0.10806189
-0.11335135 -0.02024041 -0.114611864 -4.9149e-40 -4.6576583e-11 0.075894855 -0.07507385 -1.2800873e-05
0.0035335743 0.041644935 3.1487903e-05 0.014547664 -5.8491626e-08 -1.2228331e-07 0.0720452 -3.9443418e-07
-0.025273902 -0.1093605 -0.000593682 7.3313436e-06 3.7970734e-20 0.011602482 4.8198398e-30 0.07026132
0.046528015 7.7929216e-13 -0.00078811974 0.0053370823 1.4685181e-05 -0.064899236 -4.679183e-28 -1.4043442e-07
0.00042459733 0.108680174 0.0002028226 0.12264484 0.03132064 -0.061380044 -0.109489195 -1.129055e-10
-0.05628896 -0.00013624498 -7.891398e-39 -0.11344379 -0.07087134 0.05949872 0.013454848 -0.080469936
-2.2088447e-13 0.11660704 -0.0012025161 8.834167e-08 -8.363766e-05 0.019349905 -2.6893645e-24 -4.91451e-40
-0.004468759 0.045814004 4.5081666e-05 -4.90931e-40 -0.0208104 -4.9081e-40 0.0892288 0.038947195
0.0030221296 -0.042553492 -0.092091665 -9.995575e-36 1.5427193e-09 -0.10070481 -0.10497901 -3.3799522e-06
5.3154494e-08 -0.02239007 0.00028983873 -0.015813412 9.06293e-06 -0.021177793 -0.09511798 5.9700844e-09

features.10.bias f4 [64]
00000000: 42a1 9ebc 9ebe 9c3d 7915 d43d 2c5a 053e
00000010: 5963 463d 0809 afac 8899 b4bd feac 2d3d
00000020: 7d26 25bc 9e62 31bc 3111 443d e95b 8e3c
00000030: 242f a63c b16d abbd 444c 233d ef32 d13c
00000040: 466a ea3d 34d9 cdbd 7ccc dcbb 4155 333d
00000050: a3d0 1e3d 95e1 0ebc 3d8f 943b cd78 e8bc
00000060: 3f14 0dbd a81c e5bc bd60 4f3d 0772 aab7
00000070: 4a57 0500 2c2a 08bd aa21 cdbd 36e2 b239
00000080: 29a4 f9bc a32b 2b3c 026b c0bc 2b96 8bbd
00000090: b7c7 d33d b097 e7bd 6bc4 b2ac a17b 983d
000000a0: e0d1 1839 a484 cabd 7617 863a cabc 3fbd
000000b0: 51af 2098 8eff f03c 82f5 cd3d a8c0 8282
000000c0: ad00 903d 1db5 b1bd 1444 1286 0da6 d03b
000000d0: 234e abbb 96c4 76bd d1f5 bbbc e69d d23d
000000e0: ccba 07bd 5759 763d aa6b f2bd 6184 cebd
000000f0: 8772 cd3d f1ef 813d b853 38bc 5a9f 1ebd
-0.019364003 0.07653545 0.10355658 0.13022679 0.04843459 -4.974802e-12 -0.08818346 0.042401306
-0.010079977 -0.010826735 0.047867958 0.01737781 0.02028615 -0.08370531 0.039867654 0.025536982
0.11446051 -0.10051194 -0.0067382436 0.043782476 0.03877319 -0.008720775 0.004533677 -0.028377915
-0.034443136 -0.027967766 0.050629366 -2.0318677e-05 4.90491e-40 -0.033243343 -0.100161865 0.00034119346
-0.030473785 0.0104474155 -0.023488525 -0.06815752 0.10340827 -0.11308229 -5.080871e-12 0.07445455
0.00014574034 -0.098885804 0.001023038 -0.046810903 -2.0768027e-24 0.029418733 0.100565925 -1.9212362e-37
0.07031379 -0.08677123 -2.7509564e-35 0.006367451 -0.0052278205 -0.060246073 -0.022944363 0.10284023
-0.033137128 0.060143795 -0.118369415 -0.10083843 0.1003161 0.06344593 -0.011250429 -0.03872619

classifier.0.weight f4 [3, 64]
00000000: d698 3b3d 6373 bb3c 98a8 9c3c d128 0bbd
00000010: 05ac 303d 49c4 94b4 6860 e33c cef1 d33d
00000020: 18cd 6ebd 9ae6 493d 78aa 7d3d ecad 1b3b
00000030: 87b5 afbd 4640 f5bd 0874 e5bd a343 b3bd
00000040: e495 693d 882f ea3c 705e 643d e163 f5bc
00000050: 639e efbc 14e5 b539 c432 68bb 1f6c 97bd
00000060: 2707 e93c 16a6 b03d 56ba 113e d58b 9135
00000070: dfe9 56ae c6d3 e2bd be26 0a3e 2cf5 143d
00000080: 48e4 b43d ab43 d7bd e53b 2fbd 2924 d0bc
00000090: 559a 12bd 2c11 eebd 3cd8 0bb7 a84b d1bd
000000a0: 64ad 263c b785 c6bd aefc 0ebd f832 2e3d
000000b0: 1405 0716 f260 7a3c 1980 9b3c 89f8 cb08
000000c0: 6cfb 0d3e 9d3d 713c 6897 b686 6b9d 03bd
000000d0: 40e6 bf3c 9474 c23d 7002 a1bd 0925 3a3d
000000e0: 30a7 97bd 3e97 bc3d 00f0 a0bb 7355 6d3d
000000f0: 1a34 8e3d 5f02 b43d 9f15 da3c 2d40 ee3d
00000100: e101 15be 951c c63d feea 7d3d 2ce5 10be
00000110: 594a bdbd 215a 9334 6902 a93d 9ffd 763c
00000120: 1c37 ad3d bc67 253b 6482 4ebd 6663 35bb
00000130: 6dcc 8c3d 4cbd 523d 134b 42bc 2e12 84bd
00000140: deed a5b8 9b0a 89bd 7b4a 5abd 25b0 ca3b
00000150: 03fd 903d 496d 1a3c 83d9 e13a 210c ee3c
00000160: e6df 47bd c31f 153e e6ab 2cbe 34ed 20b5
00000170: ae08 572e e1ce 18bd f6f5 283b b5f3 89b8
00000180: 97da f13b 64fc f13d 535f 3c3c 1d3b 0c3d
00000190: 9293 ce3d 48d4 ab3d f9e1 0b37 a529 f63c
000001a0: cc23 0b3c 4d89 4fbd b386 7e3d 0d8e 01bd
000001b0: 5928 0796 e8aa c93d 8d3b ef3d 89f8 cb88
000001c0: 60cd 913d 7639 36bd 6897 b606 5ccc d7bb
000001d0: bd6f 82bd f504 32bd b72b 5e3d bdf2 e3bd
000001e0: e31d 223c 3f61 28bc 514b 0ebd 979e 8c3d
000001f0: 87aa ffbc c674 fc3d 83f3 e33d 15bb 6fbd
00000200: de1e a7ba 340c 8bbb 5518 91bb eed3 d0b9
00000210: abd6 50bc 8bdc 8486 d246 c9bb 7f54 eabc
00000220: 0e8a d9ba 7087 fcbb 52e8 05bc 937b f4b6
00000230: ac2d fbba 4aec 20bc 76a6 52bc 29ea 4cb6
00000240: b60a 25bb a392 e2bb 7079 feba 30f6 93bc
00000250: bec3 82bb b5e9 14af 1cb8 6fb4 3bbb bbbb
00000260: a5ce 09ba 5789 20bb 02bf c4bb bde9 a0ad
00000270: 3861 0500 796e 66bb 755a 97bc d5c0 2e2b
00000280: ba7a 48bc 68bb f8bb fec9 80bb 3308 bbba
00000290: 594d cbba 641b 3ebb 0d58 0580 3024 debb
000002a0: 50a1 9eaf ae2f 3bbc 5e75 6bba 552c adb9
000002b0: ba5a 0580 66b9 34bc ef91 81bb 3a57 0500
000002c0: 284d 26bb e9f2 1bba 5457 0580 c5c6 8420
000002d0: 9821 05ba 5429 d4bb 7410 97bb 4e5d a7ba
000002e0: abaa 99bb dc06 acbb e4af 4cbb 993b 40bb
000002f0: 85d4 25b9 db94 a8bc ad52 25bc 9a81 b7bb
0.045800053 0.02288217 0.01912336 -0.033974472 0.0431328 -2.7709964e-07 0.027755931 0.10348855
-0.05830106 0.049292184 0.06193015 0.0023754789 -0.085795455 -0.1197515 -0.11203772 -0.08753135
0.057027712 0.028587118 0.055754125 -0.029954853 -0.02925033 0.00034693687 -0.003543065 -0.07393669
0.028445793 0.086254284 0.14231238 1.0844038e-06 -4.8865686e-11 -0.11075549 0.13491341 0.036366627
0.08832604 -0.105109535 -0.04278173 -0.025407868 -0.035791714 -0.11624369 -8.335392e-06 -0.102195084
0.0101731755 -0.09693473 -0.034908943 0.042529076 1.0906816e-25 0.015281903 0.01898198 1.2276048e-33
0.13865441 0.014724162 -6.868326e-35 -0.032132547 0.023425221 0.09494892 -0.07861793 0.045445476
-0.07404935 0.09208535 -0.0049114227 0.05794282 0.06943531 0.08789515 0.026621638 0.11633334
-0.14551498 0.0967342 0.061991684 -0.14149922 -0.09242696 2.744646e-07 0.08252413 0.015075116
0.08457777 0.0025238832 -0.05041732 -0.0027677654 0.068749286 0.05145006 -0.011858719 -0.0644878
-7.912119e-05 -0.06691476 -0.053293686 0.006185549 0.07079508 0.00942547 0.0017230961 0.029058518
-0.04879751 0.14562897 -0.16862449 -5.994982e-07 4.889305e-11 -0.03730667 0.002578137 -6.578063e-05
0.0073807943 0.11815718 0.011497336 0.034236062 0.100867406 0.08390099 8.337659e-06 0.030049155
0.008492421 -0.05066805 0.062140178 -0.03162961 -1.0917945e-25 0.09847051 0.1168128 -1.2276048e-33
0.0711925 -0.044488393 6.868326e-35 -0.006585641 -0.06368969 -0.04346176 0.05424091 -0.11130283
0.009894821 -0.0102770915 -0.034739796 0.06866186 -0.031209243 0.1232696 0.111304305 -0.058528025
-0.0012750288 -0.004243398 -0.0044279494 -0.00039830751 -0.012746493 -4.997694e-35 -0.0061424756 -0.028604744
-0.001659693 -0.007706575 -0.008173065 -7.2861526e-06 -0.0019163392 -0.009821961 -0.01285707 -3.0534668e-06
-0.0025183386 -0.006914453 -0.0019414853 -0.018061727 -0.0039906194 -1.3543551e-10 -2.2325588e-07 -0.0057291067
-0.00052569277 -0.0024495923 -0.006004215 -1.8293695e-11 4.94053e-40 -0.0035161062 -0.01847575 6.2084826e-13
-0.012236292 -0.0075907 -0.0039303293 -0.0014269411 -0.0015510722 -0.0029008025 -4.90764e-40 -0.006779216
-2.8854652e-10 -0.011424942 -0.00089820276 -0.0003303016 -4.91724e-40 -0.011030531 -0.003954164 4.90468e-40
-0.0025375579 -0.0005948977 -4.90505e-40 2.2493204e-19 -0.0005078553 -0.0064746533 -0.0046101157 -0.0012768896
-0.0046895347 -0.005249841 -0.0031232769 -0.0029332398 -0.00015814796 -0.020578792 -0.010090512 -0.0056001665

classifier.0.bias f4 [3]
00000000: d487 f4bd dd6b f0bd f9fe 8d3b
-0.1193997 -0.11739323 0.0043333736

exp_avg f4 [32, 3, 3, 3]
00000000: 99e3 253c bc16 0a3c 4b71 183c e1bf 123c
00000010: c804 fd3b 33cf 0e3c 0fa0 0a3c ea18 f73b
00000020: c1b6 0d3c 7cb4 083c 89ea b03b f041 d93b
00000030: f487 033c ca04 b03b 45e2 d13b 9712 083c
00000040: 4b5a ba3b e21c da3b 1f54 f639 2454 92bb
00000050: a470 a7ba 3443 21ba c04a a7bb 62a7 b0ba
00000060: c744 a1ba 70fb a9bb 35a3 acba ec37 b7ba
00000070: 7b6c 30bb 1305 01bb 6d0a 15bb 3700 5ebb
00000080: 859b 2bbb 62f3 17bb bce6 61bb 5a54 34bb
00000090: d2b5 5339 10a4 b4ba 3d1b 30ba 28c7 c4b9
000000a0: 4c9f f1ba 9aba 96ba 8958 2bb9 4d0a e2ba
000000b0: a878 a8ba 7273 d83a d76a 92b9 6c88 3cba
000000c0: 9527 213a dd10 98ba 632a acba 2a18 d939
000000d0: a859 b7ba 7489 c5ba 68c3 b03b 92a0 613b
000000e0: 67ae 4b3b 2533 cb3b 5158 723b 534b 523b
000000f0: bf9a f33b 6496 913b f01a 673b 9ffa 3a3b
00000100: 57a7 713a 1127 373a e558 7b3b e12d a93a
00000110: 6d84 5c3a 95c3 ab3b e2e6 0c3b 0901 ab3a
00000120: f63b 073b e51c 093a 75ec 0e3a 8fac 3a3b
00000130: ea70 3d3a 9bf3 f839 089a 893b 09c3 c63a
00000140: 1d9c 613a fa0e 48bb 0122 59bb c31b abbb
00000150: edd9 25bb 4bea 38bb 9652 94bb 6aee 22bb
00000160: 46a4 35bb 8c74 7bbb 287b faba c5f8 10bb
00000170: 56ee 7bbb 082f a6ba 4843 d4ba a983 4abb
00000180: a606 8dba d904 b7ba 1f87 14bb 3b3c 513a
00000190: 630b e23a b2ec 613a f328 e93a 1c9f 1e3b
000001a0: 302a af3a ac78 273b a088 3f3b 7c74 0a3b
000001b0: 91cc 01bb e4da c7bb cf37 09bc 701d 10bb
000001c0: be4a c0bb 3766 02bc cd61 0dbb 7f97 aabb
000001d0: af16 ecbb f063 a33a e237 62bb 7c1b a4bb
000001e0: 4c3c 033b 475f 26bb e910 94bb 5afd 413b
000001f0: 30c3 bfba 3eff 7fbb 1df4 243c 82f7 7b3b
00000200: 7b81 353b d122 293c 5465 873b 2157 3f3b
00000210: a9a2 303c 7618 a33b e32f 633b 324e 44bb
00000220: e3c7 bbbb 436a d6bb 3d73 5dbb c80e babb
00000230: cf4b c8bb 959c 4fbb e68c a6bb bc2f b3bb
00000240: e1f0 d939 56aa 4dbb 51fb 8abb bf42 193a
00000250: 10f8 3dbb 571a 86bb 5c67 a53a aa50 12bb
00000260: a6f5 78bb 1fd9 b33b a4e3 ee39 19d8 9cb8
00000270: 8a9a 963b 6e28 0c3a 6d89 fb39 d210 8a3b
00000280: adfe 663a bec3 3f3a 927b 3dbb f778 e3bb
00000290: 9858 e7bb bc5c babb 7789 18bc 5fec 16bc
000002a0: 4028 e6bb 2f26 31bc 8bf2 2fbc b2f2 7a3b
000002b0: bb04 8db9 cef6 63b7 ffa2 d53a a501 15bb
000002c0: 68f6 0abb e614 4e3a 3927 73bb ddef 82bb
000002d0: ed43 163c c9ce 2b3b dc00 5a3b 8877 b13b
000002e0: d770 0d39 2ed6 e53a 6047 573b eed6 a1ba
000002f0: 2b18 c938 6143 37bc d1ae 75bc 752e 81bc
00000300: 44be 0abc 2ef0 4fbc ac83 5dbc e8c3 b4bb
00000310: 4208 1ebc 8891 32bc c43b 3abc 9dad 6fbc
00000320: bb37 77bc 6139 0abc 18c1 4cbc 6eff 5bbc
00000330: f64b a6bb 0e2c 1ebc e3db 3abc 3387 0dbb
00000340: c9d3 dabb 49b5 ccbb 709d 813a 29f0 8dbb
00000350: 4044 8ebb 8d37 8d3b 363c bcba 3f5a 20bb
00000360: 0cdc 9e3a c776 8abb 5330 c3bb bfe8 e2ba
00000370: f24e cdbb fe36 03bc 672c 32bb 8d32 e6bb
00000380: 0ecc 14bc 9ab6 093c 9d0c 453b d773 e23a
00000390: 70e8 ce3b 3ee7 d33a e699 4eb9 ba8a c03b
000003a0: 5d28 6b3a b4fa eaba ffd3 663c cbaf 813b
000003b0: 3135 623b 751a 2c3c c315 1a3b 7420 153b
000003c0: b311 143c 3c3b ea3a c7c0 473a f9e8 8eb8
000003d0: 93a7 91ba 4695 b2ba 9fcd ed3a f91c 043a
000003e0: 4eff b4b9 d0ca 3c3b 1e4b d63a 68fe 9c39
000003f0: 3a8f 423a a588 dbb9 b900 59ba 3e21 243b
0.010125064 0.008428272 0.009304355 0.00895688 0.0077215172 0.008716392 0.0084610125 0.007540812
0.008649529 0.008343812 0.0053990525 0.006630175 0.008028019 0.0053716647 0.0064051473 0.008305213
0.0056870333 0.006656275 0.00046983451 -0.0044655968 -0.0012774658 -0.00061516766 -0.0051053464 -0.0013477618
-0.0012303822 -0.0051874444 -0.0013171198 -0.0013978458 -0.0026920128 -0.0019686862 -0.002274181 -0.003387464
-0.0026185226 -0.002318584 -0.0034469804 -0.0027516098 0.00020190261 -0.0013781805 -0.0006717926 -0.00037532416
-0.0018434315 -0.0011499703 -0.00016340813 -0.0017245502 -0.0012853341 0.0016513898 -0.00027926892 -0.00071919593
0.0006147561 -0.0011601705 -0.0013135191 0.0004140747 -0.0013988512 -0.0015070871 0.005394388 0.0034427983
0.0031079294 0.0062011653 0.003697891 0.0032088354 0.0074342187 0.004442977 0.0035263859 0.002853073
0.0009218356 0.00069867173 0.0038352546 0.001290735 0.0008412067 0.005241821 0.0021499922 0.0013046573
0.0020635105 0.0005230441 0.0005452105 0.00284842 0.00072266033 0.00047483746 0.00419927 0.0015164326
0.00086063315 -0.0030526505 -0.003313184 -0.0052218153 -0.0025306896 -0.0028215821 -0.0045264466 -0.0024861344
-0.0027716323 -0.0038369028 -0.001911019 -0.0022120934 -0.003844162 -0.0012678811 -0.0016194368 -0.003090123
-0.0010759428 -0.0013963237 -0.0022663546 0.00079816923 0.0017245825 0.0008618339 0.0017788693 0.0024203723
0.0013364013 0.0025554104 0.0029225722 0.002112656 -0.001980577 -0.006099092 -0.008375122 -0.0021990202
-0.005868285 -0.00795894 -0.0021573186 -0.005206048 -0.0072048525 0.0012465697 -0.0034518172 -0.005008159
0.0020024953 -0.002538638 -0.0045186174 0.0029600472 -0.0014630314 -0.0039062048 0.010067967 0.0038447087
0.0027695585 0.010323242 0.0041319523 0.002919622 0.010780969 0.004977281 0.0034665994 -0.0029953835
-0.0057306155 -0.006543429 -0.0033790611 -0.0056780316 -0.0061125527 -0.0031679024 -0.0050827144 -0.005468337
0.00041568934 -0.0031382046 -0.004241385 0.0005846433 -0.0028986968 -0.0040924954 0.0012619304 -0.0022325912
-0.0037988215 0.0054885293 0.00045564503 -7.478911e-05 0.004596059 0.00053466007 0.0004797684 0.004213431
0.00088117534 0.00073152396 -0.0028912765 -0.0069419104 -0.0070601217 -0.0056873243 -0.009310118 -0.009211629
-0.007023841 -0.010812326 -0.010738979 0.003829163 -0.0002689714 -1.3587718e-05 0.0016299187 -0.0022736576
-0.0021203998 0.00078613905 -0.0037102236 -0.003995879 0.009171468 0.0026215783 0.0033264672 0.0054158606
0.00013488844 0.0017535144 0.003284894 -0.0012347379 9.5889285e-05 -0.011185498 -0.014995293 -0.015769223
-0.008468214 -0.012691541 -0.013520163 -0.005516518 -0.0096455235 -0.010898955 -0.011366788 -0.014628795
-0.015088971 -0.008436532 -0.012497209 -0.013427598 -0.005074973 -0.009654058 -0.011404964 -0.0021595478
-0.006678079 -0.006247197 0.0009888839 -0.004331608 -0.004341632 0.0043096007 -0.0014361206 -0.0024467853
0.0012120022 -0.004225585 -0.0059566884 -0.0017311795 -0.0062655145 -0.008008717 -0.002718711 -0.007025069
-0.009081854 0.008405352 0.0030067333 0.0017276955 0.00631433 0.0016166938 -0.00019703023 0.0058759125
0.0008970553 -0.0017927499 0.01408863 0.0039577237 0.0034516568 0.010504355 0.0023511506 0.002275494
0.009037423 0.0017870436 0.00076199736 -6.814482e-05 -0.0011112563 -0.0013624809 0.0018142945 0.00050397177
-0.00034522492 0.002880741 0.0016349291 0.00029944186 0.0007421855 -0.00041872743 -0.0008278001 0.0025044228
