benchmark_model_data/20000_image_experiment_50_epochs_incomplete/benchmark_experiment_increased_data/experience_1_2/model_experience_1_2.pth (torch, 854826 bytes, 36 tensors)

features.0.weight f4 [32, 3, 3, 3]
0	0xbddd49f3	-0.1080512
1	0xbe3479be	-0.17624566
2	0xbc019227	-0.007908381
3	0x3d4908ed	0.049080778
4	0xbdba5e62	-0.09100033
5	0xbe04280e	-0.12905905
6	0xbe1d0579	-0.15334119
7	0xbca69fbb	-0.020339837
8	0xbd50979b	-0.050925832
9	0x3e00c8b9	0.1257657
10	0x3e6d729b	0.2318825
11	0x3cb5db7f	0.02219939
12	0x3df60003	0.12011721
13	0x3da88456	0.08228366
14	0x3deb06cb	0.11475905
15	0x3e71951b	0.23592035
16	0x3e3750f6	0.17901978
17	0x3e5f7099	0.21820296
18	0x3e1db5db	0.15401404
19	0xbd5d1ea4	-0.0539843
20	0x3d9353ec	0.07193741
21	0x3d206916	0.039162718
22	0x3e42b32c	0.19013661
23	0xbdd388a0	-0.103287935
24	0x3d23015b	0.039796215
25	0x390d6165	0.0001348309
26	0xbe220394	-0.15821677
27	0xbdb5fd54	-0.08886209
28	0xbe01bc2d	-0.1266944
29	0xbdde7588	-0.10862261
30	0xbdd9bf47	-0.106321864
31	0x3dcb1773	0.09916582
32	0x3de098ca	0.10966642
33	0x3e018642	0.12648872
34	0x3e49bcb3	0.1970089
35	0x3e4517e6	0.19247398
36	0x3bb2d930	0.0054580197
37	0x3e3bd13f	0.1834154
38	0xbd801372	-0.06253709
39	0xbcd68808	-0.026187912
40	0x3caf779f	0.021419344
41	0xbd823161	-0.063570745
42	0x3d15adb1	0.0365426
43	0x3e42d7cf	0.19027637
44	0xbc31ab45	-0.0108440565
45	0xbe59df61	-0.21276619
46	0xbdbf024c	-0.0932661
47	0xbe1ca68d	-0.15297909
48	0x3e08f524	0.13374764
49	0x3e10a50f	0.14125465
50	0xbc545ff3	-0.012962329
51	0xbc9a12d9	-0.018807815
52	0x3e1bf031	0.15228345
53	0xbde2d0e1	-0.11074997
54	0x3c9f591c	0.01945167
55	0xbe0a26be	-0.13491341
56	0x3d52b402	0.0514412
57	0x3da7bcfd	0.081903435
58	0x3e21c443	0.15797524
59	0xbd2fe5af	-0.042943653
60	0xbe2ae674	-0.16689473
61	0xbe129a7c	-0.14316744
62	0x3e29f58f	0.1659758
63	0x3bc20160	0.005920574
64	0x3e1eb4c7	0.15498649
65	0xbd7863a1	-0.06064189
66	0x3db9f529	0.09079964
67	0xbe3e0bd4	-0.185592
68	0xbcd66a2b	-0.026173672
69	0xbd9f9b34	-0.077932745
70	0xbe963239	-0.29335192
71	0xbd40fc4b	-0.047115605
72	0xbdd9e72c	-0.10639796
73	0x3e243b06	0.1603814
74	0xbe735266	-0.23761901
75	0xbde6bf57	-0.11266964
76	0x3e1121ab	0.14173
77	0xbdfe077e	-0.12403773
78	0xbe154d82	-0.14580348
79	0x3df736e5	0.12071017
80	0xbe0db090	-0.13836884
81	0x3dfa620a	0.12225731
82	0x3e130627	0.14357816
83	0xbca7a230	-0.02046308
84	0x3cb6d0fd	0.02231645
85	0x3e495353	0.19660692
86	0x3e027e43	0.12743478
87	0x3dc53fac	0.09631285
88	0x3dd6b4e0	0.10483718
89	0x3c40687d	0.011743662
90	0xbe05be51	-0.13060881
91	0x3d43919f	0.047746297
92	0xbe42d912	-0.19028118
93	0x3e00ef32	0.12591246
94	0x3d276777	0.040870156
95	0xbd955220	-0.07291055
96	0x3cedcde7	0.029028846
97	0xbd9746fa	-0.073865846
98	0xbbb872b1	-0.0056289067
99	0x3da76b39	0.08174748
100	0x3d94137e	0.0723028
101	0xbe0bbc6f	-0.136461
102	0x3de311d3	0.11087384
103	0x3e7cfc5e	0.24705645
104	0x3df12310	0.11774266
105	0x3dcbfe9f	0.099606745
106	0x3e286085	0.1644307
107	0xbd7e9b89	-0.06216005
108	0x3d80c5e8	0.062877476
109	0xbe129d6d	-0.14317866
110	0xbe1ab7d0	-0.15109181
111	0x3d2ef514	0.042714193
112	0x3d81b54e	0.06333409
113	0xbe52f15e	-0.20599887
114	0xbcd121f6	-0.02552889
115	0x3d481f77	0.048858132
116	0x3e2a9cef	0.16661428
117	0xbde2c31d	-0.11072371
118	0x3bc92782	0.006138743
119	0xbdbec9d6	-0.09315841
120	0x3dde2558	0.108469665
121	0xbe70b3f1	-0.23506142
122	0xbe425f73	-0.18981723
123	0xbdcb4885	-0.099259414
124	0xbe43f7ed	-0.19137545
125	0x3ccf6906	0.025318634
126	0x3e08b41c	0.13349956
127	0x3d162276	0.03665396
128	0x3d81a31c	0.06329939
129	0x3cc6c62d	0.02426442
130	0x3c1f0989	0.009706863
131	0xbe541f2d	-0.20715018
132	0x3d851517	0.06498163
133	0xbdddc813	-0.10829177
134	0x3cae481d	0.02127462
135	0xbe377fd2	-0.17919853
136	0x3e013708	0.12618649
137	0x3e0d81fd	0.13819118
138	0xbda50500	-0.08057594
139	0xbe4d2fe6	-0.20037803
140	0xbe172fb7	-0.14764296
141	0x3e0e6c3b	0.13908474
142	0x3dcce513	0.1000463
143	0xbc17844f	-0.009247853
144	0xbe83a370	-0.2571063
145	0xbdf6d064	-0.12051466
146	0xbcd1049c	-0.025514893
147	0xbe738605	-0.23781593
148	0xbe7196a8	-0.23592627
149	0x3d1e2700	0.038611412
150	0xbdc58710	-0.09644902
151	0x3c2836bc	0.010266956
152	0xbe18d7e2	-0.14926103
153	0xbc7dd9a8	-0.015493788
154	0x3e02fa22	0.1279073
155	0xbe2dcf24	-0.16973549
156	0xbd5a880d	-0.053352404
157	0x3b47aa34	0.003046644
158	0x3d258c77	0.04041716
159	0xbdf107ce	-0.11769067
160	0x3e04b57f	0.1295986
161	0xbd7f95c7	-0.0623987
162	0xbdf20190	-0.11816704
163	0xbc3a4c8d	-0.01137079
164	0xbdec52b2	-0.115392104
165	0xbe572cd7	-0.21013199
166	0xbe395eb8	-0.18102539
167	0xbdc25b69	-0.09490091
168	0xbe3700bd	-0.17871375
169	0xbb7ddf6c	-0.0038737906
170	0xbe241ad5	-0.1602586
171	0x3ccd5c1b	0.025068333
172	0x3d4f321f	0.05058491
173	0x3e18b14f	0.14911388
174	0xbd8626e9	-0.0655039
175	0xbe0c9dd4	-0.13732082
176	0xbe087da0	-0.13329172
177	0x3e1e2f80	0.15447807
178	0x3e0c3ff7	0.13696276
179	0x3e511fd5	0.20422299
180	0xbd7a2a12	-0.061075278
181	0x3e2d6948	0.16934693
182	0x3c620252	0.0137944985
183	0x3e1a12fc	0.15046304
184	0xbd4af2ec	-0.049548075
185	0x3e2edefb	0.17077248
186	0x3df2d4f9	0.118570276
187	0xbe2ba51f	-0.16762207
188	0xbd1e7ba6	-0.03869214
189	0x3da13ba2	0.07872702
190	0xbd924700	-0.071424484
191	0xbe04a125	-0.12952097
192	0xbd9d7c59	-0.07689733
193	0xbe0525f8	-0.13002765
194	0x3da1708d	0.078827955
195	0xbbda05d4	-0.006653527
196	0x3cf21500	0.02955103
197	0x3d393a11	0.045221392
198	0xbb627097	-0.0034551972
199	0x3e5d3c40	0.21605015
200	0xbe0e1a3b	-0.13877194
201	0x3e21bfa5	0.15795763
202	0x3e007c09	0.12547316
203	0x3d82fcae	0.06395851
204	0xbd15dfda	-0.036590435
205	0x3e2e5743	0.17025475
206	0x3d41f0fe	0.04734897
207	0x3ccfd2f0	0.025369138
208	0x3e6136c1	0.21993543
209	0x3e49e377	0.19715677
210	0x3e47c9bb	0.19510548
211	0x3e63e91d	0.22256894
212	0x3e539481	0.20662118
213	0x3e27eba0	0.16398478
214	0x3cf2b57b	0.029627552
215	0xbd843f70	-0.06457412
216	0xbe18a513	-0.14906721
217	0xbcac0453	-0.020998156
218	0x3de431cf	0.11142313
219	0x3da806f7	0.082044534
220	0xbbbdfaf2	-0.0057977373
221	0x3e4f42c4	0.20240313
222	0x3cf81ea8	0.030288056
223	0x3dda7068	0.10665971
224	0xbe3a82ea	-0.18214002
225	0x3e4d8ce7	0.20073281
226	0x3ddb9322	0.10721423
227	0xbdc4c141	-0.09607173
228	0x3ba52a9b	0.0050404794
229	0x3dc9f43b	0.098610364
230	0x3d93c4b2	0.07215251
231	0x3da958d1	0.082688935
232	0x3dc46edd	0.09591458
233	0xbe068395	-0.13136132
234	0x3d5e4319	0.054263208
235	0x3ca69927	0.0203367
236	0xbdc961ef	-0.098331325
237	0x3d8bead1	0.06831897
238	0x3e2998df	0.16562222
239	0xbded7988	-0.11595446
240	0xbda18805	-0.07887272
241	0xbd977258	-0.07394856
242	0xbe7218ae	-0.23642227
243	0xbe2eba98	-0.17063367
244	0xbde488f4	-0.11158934
245	0xbd50a370	-0.050937116
246	0x3c83452e	0.016024198
247	0xbdf1ac3c	-0.11800429
248	0x3e144981	0.14481165
249	0x3de8ec19	0.11373157
250	0x3e0e8a26	0.13919887
251	0x3d5bf885	0.053703804
252	0xbb88a883	-0.004170479
253	0xbda9c6c7	-0.08289867
254	0xbdbd2185	-0.09234909
255	0x3cf1b9ec	0.0295076

features.0.bias f4 [32]
0	0x3c05c2b7	0.008164099
1	0xbd87b3ee	-0.06626116
2	0x3e025ac3	0.12729935
3	0x3ce28fc8	0.02765645
4	0x3e492d61	0.19646217
5	0x3e64e6c6	0.22353658
6	0xbcd9c415	-0.026582757
7	0x3e592443	0.21205239
8	0xbdddbed0	-0.1082741
9	0x3e422c7b	0.1896228
10	0xbdb5e43a	-0.088814214
11	0x3e0a1174	0.1348322
12	0x3e61389c	0.21994251
13	0x3e1de070	0.15417647
14	0xbdc6c171	-0.09704865
15	0x3b678c18	0.0035331305
16	0x3e5af97d	0.21384235
17	0xbda06326	-0.07831411
18	0x3df4a2c5	0.11945108
19	0xbce4da77	-0.027936203
20	0xbd79ec0c	-0.061016127
21	0xbe107402	-0.14106753
22	0x3e33e347	0.17567168
23	0x3e282ae4	0.16422611
24	0x3b324aa8	0.0027205143
25	0x3b907dca	0.0044095265
26	0xbd19bc46	-0.037533067
27	0x3d4b2045	0.04959132
28	0x3e3c104e	0.18365595
29	0x3e20816f	0.15674375
30	0xbe1ddb4d	-0.15415688
31	0xbd0d3d29	-0.034482155

features.2.weight f4 [32, 32, 3, 3]
0	0xbd0f2f11	-0.034956995
1	0x3c895620	0.0167647
2	0x3c3ab397	0.011395357
3	0xbc9c7b18	-0.019101664
4	0x3c7d25bb	0.01545089
5	0xbce84a52	-0.028355751
6	0xbba466d3	-0.0050171404
7	0xbc06d421	-0.008229286
8	0xbc2baabf	-0.010477721
9	0x3da958fe	0.08268927
10	0x3d665c90	0.05624062
11	0x3d812320	0.06305528
12	0xbd193ad5	-0.037409622
13	0x3d885c11	0.06658185
14	0x3d7077b4	0.058707908
15	0xbcd87eff	-0.026427744
16	0x3d67efb8	0.056625098
17	0x3d4d1a58	0.05007395
18	0x3d9ef0ff	0.0776081
19	0x3c7a9c70	0.015296087
20	0x3c677177	0.014126173
21	0x3d8da3c4	0.069160014
22	0x3dae5a9c	0.08513376
23	0x3cf4f165	0.029900262
24	0x3d5281fa	0.051393487
25	0x3d1b9f99	0.037994
26	0x3d189fdc	0.03726183
27	0xbc33be34	-0.010970641
28	0xbd96b2d9	-0.07358331
29	0xbd73b8cf	-0.05950242
30	0xbd0bb57a	-0.034108616
31	0xbcba1a23	-0.022717541
32	0xbd979c6a	-0.074028805
33	0xbc857c6c	-0.01629468
34	0x3c0593c6	0.008152908
35	0x3cdb8c8f	0.026800422
36	0x3d62c6b9	0.055365298
37	0x3d9f89aa	0.07789929
38	0x3d50dcb2	0.05099172
39	0x3da954f2	0.08268155
40	0x3d95b703	0.07310297
41	0x3d1ffd36	0.03905984
42	0x3d63cc6c	0.055614874
43	0x3da12392	0.078681126
44	0x3d635230	0.055498302
45	0x3d57077c	0.052497372
46	0xbca6abf3	-0.020345664
47	0x394aa96d	0.00019327337
48	0x3da6517b	0.0812101
49	0x3d536c83	0.051617157
50	0x3d7bd102	0.061478622
51	0x3c48f5d1	0.012265638
52	0x3c69f5da	0.014279807
53	0x3d872d11	0.066003926
54	0xbc9cafa2	-0.019126717
55	0x3cc47446	0.023981225
56	0x3ca6a284	0.020341165
57	0x3d0f6899	0.03501186
58	0x3cfb0bd2	0.030645285
59	0x3a83de99	0.0010060846
60	0x3c3effc2	0.011657657
61	0x3cc45f3e	0.023971196
62	0x3d0b84f4	0.03406234
63	0xbc863cf8	-0.016386494
64	0xbd5b36da	-0.053519107
65	0xbd43bf6d	-0.04778998
66	0xbc9cbe6b	-0.019133767
67	0x3ce068af	0.027393667
68	0xbd8fd7e1	-0.070235975
69	0xbc1e51ca	-0.009663055
70	0x3c7d263c	0.01545101
71	0x3ba04607	0.0048911604
72	0x3c82a2ee	0.015946832
73	0x3d0ded6a	0.034650244
74	0x3cebe0fc	0.028793804
75	0x3bc0f9b4	0.005889142
76	0x3cc17dd9	0.02361958
77	0x3d14b491	0.036305014
78	0x39eb8a36	0.00044925668
79	0x3bc95dae	0.0061452007
80	0x3cc0c524	0.023531504
81	0xbcaf6ae3	-0.021413272
82	0xbc0289ed	-0.007967454
83	0xbce6847a	-0.028139342
84	0xbc8ba7ee	-0.017047849
85	0xbd14533e	-0.0362122
86	0xbd848c9e	-0.06472133
87	0xbcdb2a91	-0.026753696
88	0x3d53b034	0.051681712
89	0xbd447a7a	-0.047968365
90	0xbc79b4ce	-0.015240861
91	0xbc8bd9c2	-0.017071608
92	0xbd6498cb	-0.055809777
93	0xba2e1f0f	-0.00066422013
94	0xbc0129c3	-0.007883492
95	0xbd10885b	-0.03528629
96	0x3c86edf6	0.01647089
97	0x3a9669c5	0.0011475614
98	0xbc4b75c8	-0.012418218
99	0x3cb8c878	0.022556528
100	0x3d63f06c	0.055649206
101	0x3d7ab827	0.061210778
102	0x3c6125de	0.013741938
103	0x3d77efb6	0.06053134
104	0x3cbf27dc	0.023334436
105	0x3ced8077	0.02899192
106	0x3d4bcfdb	0.049758773
107	0x3d82c51c	0.06385252
108	0x3c8162db	0.015794208
109	0xbd20c5cf	-0.039251145
110	0x3c8ecdf1	0.017432185
111	0x3d4d0fa6	0.05006375
112	0xbcb02898	-0.021503732
113	0xbd246a12	-0.04014022
114	0x3d239979	0.039941285
115	0x3d335628	0.043783337
116	0x3c995c7e	0.018720862
117	0xbccbe31e	-0.024888571
118	0xbd5bb88e	-0.053642802
119	0xbdbab17a	-0.09115882
120	0x3cb0ed90	0.021597654
121	0xbc939ca7	-0.018019034
122	0xbd211e52	-0.039335556
123	0xbbb73511	-0.005591043
124	0x3d0ba6cf	0.034094628
125	0xbd9c159b	-0.076213084
126	0x3c34aa19	0.011026883
127	0xbdb3338b	-0.087500654
128	0xbd28e0a9	-0.041229878
129	0xbcbb8b8b	-0.022893688
130	0x3ced969b	0.029002478
131	0xbdb29c11	-0.087211736
132	0x3cfa4cba	0.030554164
133	0x3c65d507	0.01402784
134	0x3d0d42fc	0.03448771
135	0x3d2062cf	0.03915673
136	0x3c5385d2	0.012910323
137	0x3d3e1029	0.04640213
138	0x3ca3e12c	0.020004831
139	0x3d14254f	0.036168393
140	0x3d6afc26	0.057369374
141	0x3d50d4b9	0.050984118
142	0x3d4cd1ed	0.05000489
143	0x3d97942c	0.074013084
144	0xbbab76c6	-0.0052326648
145	0x3d5cadce	0.05387669
146	0x3c743d4d	0.014907193
147	0xbbb68309	-0.00556982
148	0x3d25d2a4	0.040484086
149	0x3d63f683	0.055655014
150	0x3d79d8ca	0.06099776
151	0x3c952f45	0.018211016
152	0x3d278b6c	0.040904447
153	0x3c0bcc7f	0.008532642
154	0x3c98b233	0.01863966
155	0x3c28658f	0.01027812
156	0xbd366fcf	-0.044540223
157	0x3d398a4f	0.045297917
158	0x3d09eb3a	0.033671595
159	0xbcd95461	-0.026529493
160	0x3c7f2c18	0.015574478
161	0x3ca05dfd	0.019576067
162	0xbcf8aefa	-0.030356873
163	0xbd1ac00f	-0.037780818
164	0xbcf142dc	-0.029450826
165	0x3c2901b1	0.010315345
166	0xbd9a15e5	-0.07523707
167	0xbdddbcc5	-0.108270206
168	0x3c2a9bc7	0.010413117
169	0xbda83b9b	-0.08214494
170	0xbc3500a0	-0.011047512
171	0xbc1dadc0	-0.009623945
172	0x3b085106	0.0020800247
173	0xbcc19660	-0.023631275
174	0xbca5138d	-0.020150924
175	0xbbb8de26	-0.0056417165
176	0xbc63860d	-0.013886941
177	0xbca64ce9	-0.020300345
178	0xbbcc751b	-0.006239546
179	0xbbdcc980	-0.006737888
180	0x3d4f4781	0.0506053
181	0x3c988a99	0.018620776
182	0x3d92bd06	0.071649596
183	0x3d1a7b12	0.037715025
184	0x3d21f0f7	0.039536443
185	0x3d7e2861	0.062050227
186	0x3d30d906	0.04317572
187	0x3d3a2d4a	0.045453347
188	0x3d652df1	0.055952016
189	0xbbd87dbe	-0.0066067865
190	0xbc37b8ed	-0.011213523
191	0xbc542ef5	-0.012950649
192	0xbc858b92	-0.016301904
193	0x3c39695f	0.011316626
194	0x3ca9803a	0.020691026
195	0xbc8651ad	-0.016396368
196	0xbcf4c404	-0.029878624
197	0x3b8c13c6	0.004274818
198	0x3b87453b	0.004128126
199	0x3c47fc21	0.012206108
200	0x3aefccd4	0.0018295296
201	0x3c1f53c3	0.00972456
202	0xbc864708	-0.016391292
203	0xbcd04813	-0.025424993
204	0xba3aa8d7	-0.0007120496
205	0x3ca7a395	0.020463744
206	0x3b2eb6e4	0.0026659304
207	0xbcbbdd00	-0.02293253
208	0xbd3d0732	-0.04614944
209	0x3ca5e554	0.020250954
210	0xbd53ebb0	-0.05173844
211	0xbd03440d	-0.03204732
212	0xbcb9a9ec	-0.022664033
213	0xbd57b763	-0.052665126
214	0x3d0a9601	0.03383446
215	0xbd57ffb4	-0.052734092
216	0x3bf59e5f	0.007495686
217	0x3b0b94dc	0.0021298444
218	0x3ab411d4	0.0013738223
219	0xbc1c5e55	-0.009543975
220	0xbcb5abf7	-0.022176726
221	0x3ce29333	0.02765808
222	0x3cb54904	0.022129543
223	0xbcb87770	-0.02251789
224	0x3cf74544	0.030184396
225	0x3bcaffaf	0.0061950306
226	0x3d444a9b	0.04792271
227	0x3c3bc1a0	0.011459738
228	0x3d1ee5d7	0.03879341
229	0x3d293de2	0.04131878
230	0x3d1771b3	0.036973666
231	0x3d124ab2	0.035715766
232	0x3d49fbdd	0.04931246
233	0x3d770e92	0.06031663
234	0x3c7da0c9	0.015480229
235	0x3bba4902	0.0056849727
236	0xbd46df9e	-0.0485531
237	0x3cb1f450	0.021722943
238	0x3b1ddfcc	0.0024089692
239	0xbc082699	-0.008309984
240	0x3c060bf8	0.0081815645
241	0xbd17073b	-0.03687213
242	0xbd13e0c5	-0.03610303
243	0x3c620282	0.013794543
244	0x3b2f50eb	0.0026751112
245	0x3bb69710	0.0055722073
246	0x3c20860e	0.009797586
247	0x3d117ec5	0.035521287
248	0x3cdfd5d3	0.027323639
249	0xbcc96364	-0.024583526
250	0x3cb31eb0	0.021865219
251	0x3cee884b	0.029117724
252	0x3cd8bde6	0.026457738
253	0x3d5b97c6	0.05361154
254	0x3c5e22cd	0.013558102
255	0x3c8df9ea	0.017331082

features.2.bias f4 [32]
0	0x3d853c96	0.065056965
1	0x3c2b0349	0.010437795
2	0xbcc88afb	-0.024480334
3	0x3bf17bed	0.0073695094
4	0x3b503b3e	0.0031773592
5	0xbd0aede4	-0.033918276
6	0xbd4e6a76	-0.050394498
7	0xbd3690e8	-0.044571787
8	0xbd43cae5	-0.047800917
9	0x3d3c77d8	0.04601273
10	0xbd51e750	-0.051245987
11	0xbd2dead7	-0.04246029
12	0x3d024572	0.03180451
13	0x3d816b08	0.06319243
14	0xbd155f26	-0.036467694
15	0xbce9fc2b	-0.028562626
16	0xbcce111a	-0.025154639
17	0x3d112a63	0.035440814
18	0xbc96e4a1	-0.018419566
19	0xbd2fa2eb	-0.04287998
20	0xbc672de7	-0.014110065
21	0x3babaebe	0.0052393368
22	0x3d9827ad	0.074294426
23	0xbc488a60	-0.012240022
24	0x3bcd1dac	0.0062596407
25	0x3ba80e23	0.0051286384
26	0xbd0f53ee	-0.03499215
27	0x3b02184d	0.001985091
28	0xbda5b27a	-0.08090682
29	0x3be8854d	0.007095969
30	0xbce82362	-0.028337184
31	0x3cbdd37e	0.023172136

features.5.weight f4 [64, 32, 3, 3]
0	0x00056067	4.9376e-40
1	0x00055f0f	4.93278e-40
2	0x80055870	-4.90903e-40
3	0x00055ac7	4.91742e-40
4	0x000558e1	4.91061e-40
5	0x80055785	-4.90574e-40
6	0x00055af8	4.91811e-40
7	0x000557bd	4.90652e-40
8	0x80055858	-4.90869e-40
9	0x00055a61	4.916e-40
10	0x00056245	4.9443e-40
11	0x00055741	4.90478e-40
12	0x00055784	4.90572e-40
13	0x800558f8	-4.91093e-40
14	0x00055a85	4.9165e-40
15	0x0005625f	4.94466e-40
16	0x80055aa5	-4.91695e-40
17	0x80055954	-4.91222e-40
18	0x8005601d	-4.93656e-40
19	0x00056046	4.93714e-40
20	0x00055c20	4.92226e-40
21	0x00055a06	4.91472e-40
22	0x800558b6	-4.91001e-40
23	0x00055d8b	4.92734e-40
24	0x00055cd8	4.92484e-40
25	0x80055c4a	-4.92285e-40
26	0x80055ad6	-4.91763e-40
27	0x00056269	4.9448e-40
28	0x800561bf	-4.94242e-40
29	0x800561a4	-4.94204e-40
30	0x000559b3	4.91355e-40
31	0x8005592a	-4.91164e-40
32	0x8005604f	-4.93726e-40
33	0x0005622d	4.94396e-40
34	0x8005616a	-4.94123e-40
35	0x80055905	-4.91112e-40
36	0x80055d0e	-4.92559e-40
37	0x80055e7e	-4.93075e-40
38	0x00055749	4.9049e-40
39	0x80056153	-4.94091e-40
40	0x000559aa	4.91343e-40
41	0x80055dd1	-4.92832e-40
42	0x8005588a	-4.9094e-40
43	0x80055f72	-4.93417e-40
44	0x00055ee6	4.9322e-40
45	0x80055c5a	-4.92307e-40
46	0x80055b97	-4.92034e-40
47	0x000559e4	4.91424e-40
48	0x80055ae1	-4.91779e-40
49	0x80056294	-4.9454e-40
50	0x80055917	-4.91137e-40
51	0x80055829	-4.90803e-40
52	0x80055eca	-4.93181e-40
53	0x00055fce	4.93546e-40
54	0x80055c9a	-4.92397e-40
55	0x8005573c	-4.90471e-40
56	0x8005622b	-4.94394e-40
57	0x8005579b	-4.90604e-40
58	0x800561c2	-4.94246e-40
59	0x80056195	-4.94183e-40
60	0x80056255	-4.94452e-40
61	0x80055a63	-4.91602e-40
62	0x80056007	-4.93626e-40
63	0x80055f12	-4.93282e-40
64	0x80055b26	-4.91875e-40
65	0x80055872	-4.90906e-40
66	0x80055dec	-4.9287e-40
67	0x80056334	-4.94765e-40
68	0x800557fe	-4.90743e-40
69	0x8005595f	-4.91238e-40
70	0x800558c5	-4.91022e-40
71	0x8005627c	-4.94507e-40
72	0x000558f6	4.9109e-40
73	0x80055efa	-4.93249e-40
74	0x80055867	-4.9089e-40
75	0x00055aba	4.91724e-40
76	0x80055da2	-4.92767e-40
77	0x80055ae9	-4.9179e-40
78	0x80056263	-4.94472e-40
79	0x0005583f	4.90834e-40
80	0x80058b45	-5.09138e-40
81	0x00055d21	4.92586e-40
82	0x80055924	-4.91155e-40
83	0x800557bc	-4.9065e-40
84	0x00055a06	4.91472e-40
85	0x800561be	-4.94241e-40
86	0x80056048	-4.93717e-40
87	0x00055a26	4.91517e-40
88	0x80055b34	-4.91895e-40
89	0x800557f3	-4.90728e-40
90	0x8005594a	-4.91208e-40
91	0x8005576e	-4.90541e-40
92	0x0005608b	4.9381e-40
93	0x80056099	-4.9383e-40
94	0x80055a7b	-4.91636e-40
95	0x80055d74	-4.92702e-40
96	0x80055e0f	-4.9292e-40
97	0x80055b7e	-4.91999e-40
98	0x80055f62	-4.93394e-40
99	0x00056215	4.94363e-40
100	0x80055dfb	-4.92891e-40
101	0x00055cda	4.92486e-40
102	0x00055a86	4.91651e-40
103	0x8005638c	-4.94888e-40
104	0x800559b3	-4.91355e-40
105	0x00056534	4.95482e-40
106	0x80055f3f	-4.93345e-40
107	0x80055dbd	-4.92804e-40
108	0x8005601a	-4.93652e-40
109	0x0005611d	4.94015e-40
110	0x00055ea0	4.93123e-40
111	0x8005630f	-4.94713e-40
112	0x80055b14	-4.9185e-40
113	0x00055a85	4.9165e-40
114	0x0005592a	4.91164e-40
115	0x80055f2e	-4.93322e-40
116	0x8005e54e	-5.41437e-40
117	0x80055de0	-4.92853e-40
118	0x800557b7	-4.90644e-40
119	0x00055d80	4.92719e-40
120	0x80055c2d	-4.92244e-40
121	0x8005615e	-4.94106e-40
122	0x800562ad	-4.94576e-40
123	0x80055fa4	-4.93487e-40
124	0x80055d73	-4.92701e-40
125	0x80055bca	-4.92105e-40
126	0x80055f13	-4.93284e-40
127	0x80056194	-4.94182e-40
128	0x80055d3e	-4.92626e-40
129	0x80056025	-4.93668e-40
130	0x80056373	-4.94853e-40
131	0x80055823	-4.90795e-40
132	0x8005624f	-4.94444e-40
133	0x0005643d	4.95136e-40
134	0x00055a15	4.91493e-40
135	0x000560e3	4.93934e-40
136	0x80055843	-4.9084e-40
137	0x00056149	4.94077e-40
138	0x0005586a	4.90894e-40
139	0x80056063	-4.93755e-40
140	0x80056303	-4.94696e-40
141	0x000564e9	4.95377e-40
142	0x80055f8e	-4.93456e-40
143	0x0005590e	4.91124e-40
144	0x80055a72	-4.91623e-40
145	0x0005573f	4.90475e-40
146	0x00055a70	4.9162e-40
147	0x8005599d	-4.91325e-40
148	0x00055f69	4.93404e-40
149	0x00055cff	4.92538e-40
150	0x80056082	-4.93798e-40
151	0x00056129	4.94032e-40
152	0x00055815	4.90775e-40
153	0x800561f2	-4.94314e-40
154	0x80055ae1	-4.91779e-40
155	0x00055a38	4.91542e-40
156	0x80055da6	-4.92772e-40
157	0x00055a0e	4.91483e-40
158	0x80055bc6	-4.921e-40
159	0x80055c40	-4.9227e-40
160	0x00055b8c	4.92018e-40
161	0x80055def	-4.92875e-40
162	0x80055e02	-4.92901e-40
163	0x80055aa0	-4.91688e-40
164	0x800562ac	-4.94574e-40
165	0x8005598f	-4.91305e-40
166	0x80055ae9	-4.9179e-40
167	0x80056236	-4.94409e-40
168	0x800561f8	-4.94322e-40
169	0x80055b6d	-4.91975e-40
170	0x80055de2	-4.92856e-40
171	0x00055cee	4.92514e-40
172	0x800562fc	-4.94686e-40
173	0x80055d77	-4.92706e-40
174	0x000557e7	4.90711e-40
175	0x0005618f	4.94175e-40
176	0x80055a78	-4.91632e-40
177	0x80055e29	-4.92956e-40
178	0x00055a1c	4.91503e-40
179	0x80055950	-4.91217e-40
180	0x80056077	-4.93783e-40
181	0x800561f8	-4.94322e-40
182	0x800558b8	-4.91004e-40
183	0x80055873	-4.90907e-40
184	0x80055e6b	-4.93048e-40
185	0x8005584a	-4.9085e-40
186	0x80055dd1	-4.92832e-40
187	0x80055dca	-4.92823e-40
188	0x00055e51	4.93012e-40
189	0x8005607e	-4.93792e-40
190	0x800559bc	-4.91368e-40
191	0x80055e64	-4.93038e-40
192	0x80055b9e	-4.92044e-40
193	0x00055850	4.90858e-40
194	0x80055ca8	-4.92416e-40
195	0x80055b95	-4.92031e-40
196	0x00056024	4.93666e-40
197	0x00056346	4.9479e-40
198	0x80055efd	-4.93253e-40
199	0x00056142	4.94067e-40
200	0x00055740	4.90477e-40
201	0x80055ee6	-4.9322e-40
202	0x00055afb	4.91815e-40
203	0x000558e1	4.91061e-40
204	0x80055cec	-4.92512e-40
205	0x8005628d	-4.94531e-40
206	0x80055e8c	-4.93095e-40
207	0x80056285	-4.9452e-40
208	0x00055c5f	4.92314e-40
209	0x00056273	4.94494e-40
210	0x800557fb	-4.90739e-40
211	0x00055f7a	4.93428e-40
212	0x80056159	-4.94099e-40
213	0x0005613e	4.94061e-40
214	0x80055843	-4.9084e-40
215	0x8005573f	-4.90475e-40
216	0x80055d95	-4.92748e-40
217	0x80056107	-4.93984e-40
218	0x00055857	4.90868e-40
219	0x80055acb	-4.91748e-40
220	0x00055f58	4.9338e-40
221	0x80055fd0	-4.93549e-40
222	0x8005619a	-4.9419e-40
223	0x8005622f	-4.94399e-40
224	0x00055d7d	4.92715e-40
225	0x8005588d	-4.90944e-40
226	0x80055b48	-4.91923e-40
227	0x800559d2	-4.91399e-40
228	0x800559a7	-4.91339e-40
229	0x80055ea7	-4.93132e-40
230	0x80055c24	-4.92231e-40
231	0x00055bf9	4.92171e-40
232	0x800631f3	-5.68931e-40
233	0x00055f13	4.93284e-40
234	0x800558f5	-4.91089e-40
235	0x800561e4	-4.94294e-40
236	0x8005590c	-4.91121e-40
237	0x800557c0	-4.90656e-40
238	0x80056171	-4.94133e-40
239	0x80055c60	-4.92315e-40
240	0x80056100	-4.93975e-40
241	0x80055eef	-4.93233e-40
242	0x00055b14	4.9185e-40
243	0x80055b35	-4.91896e-40
244	0x80055dd9	-4.92844e-40
245	0x800558b8	-4.91004e-40
246	0x000560bd	4.9388e-40
247	0x80055b0f	-4.91843e-40
248	0x800560c1	-4.93886e-40
249	0x0005577a	4.90558e-40
250	0x80067ad0	-5.9507e-40
251	0x80055b44	-4.91917e-40
252	0x80055bc6	-4.921e-40
253	0x80055a6f	-4.91619e-40
254	0x00055b9c	4.92041e-40
255	0x0005608e	4.93815e-40

features.5.bias f4 [64]
0	0x80055809	-4.90759e-40
1	0xbd35aa9c	-0.04435216
2	0x81251e55	-3.0327476e-38
3	0xbd669fd3	-0.056304764
4	0x3c593645	0.013257568
5	0x3ba68988	0.005082313
6	0x929f4e0d	-1.0053552e-27
7	0x3ba5b1d1	0.0050565978
8	0xbd79581a	-0.060875036
9	0xbd9a44d8	-0.07532662
10	0xbcf87a9e	-0.030331906
11	0x3d132f63	0.035933863
12	0xbc8ae53f	-0.016955016
13	0x3d901c41	0.07036639
14	0x3d849617	0.0647394
15	0xbcce0f5d	-0.02515381
16	0xbcb62c37	-0.02223788
17	0x3d3356ce	0.043783955
18	0x3d867674	0.06565562
19	0xbc8dd40a	-0.017313022
20	0xbca42b0d	-0.02004006
21	0xbc5383de	-0.012909858
22	0xbd4db374	-0.050219968
23	0x3db12e22	0.08651377
24	0x3ca5e014	0.02024845
25	0x3d9f6c7a	0.07784362
26	0xbd13ea45	-0.03611209
27	0xbcd2ba74	-0.025723673
28	0x3d3561f4	0.04428287
29	0xbd47396a	-0.04863874
30	0x3d8bb86a	0.068222836
31	0xbb88e7f8	-0.0041780435
32	0x83899c04	-8.087956e-37
33	0xbdb5e874	-0.088822275
34	0xbdb9365a	-0.0904357
35	0x3d04a7f2	0.032386728
36	0x3bf41b6f	0.0074495594
37	0xbb168ad6	-0.0022970936
38	0x3db2192b	0.08696207
39	0x8e41050a	-2.3791513e-30
40	0x3d886fdb	0.0666196
41	0xbd4e34dc	-0.05034338
42	0x3b9bc207	0.0047533545
43	0x3d1a418d	0.03766017
44	0xbd95a0c3	-0.073060535
45	0xbd90d47d	-0.07071779
46	0x3d4973e6	0.049182795
47	0xbd4c64f9	-0.049900983
48	0xbd4841d7	-0.048890915
49	0x3dd5ff05	0.10449032
50	0x3d24f549	0.040272985
51	0x3d230b07	0.03980544
52	0x3d1aed61	0.03782404
53	0xbcd9aa99	-0.026570605
54	0xbcf901f2	-0.030396435
55	0x3d0376ab	0.032095592
56	0xbd4e4b7c	-0.050364956
57	0x3cd12bfe	0.025533672
58	0xbc40a024	-0.0117569305
59	0xbd8382bc	-0.0642142
60	0xbd86cdf7	-0.065822534
61	0x3ba96a29	0.005170126
62	0xbc8fc303	-0.017549044
63	0xbd53a75f	-0.05167329

features.7.weight f4 [64, 64, 3, 3]
0	0x00055c28	4.92237e-40
1	0x800558a4	-4.90976e-40
2	0x800559c8	-4.91385e-40
3	0x80055d68	-4.92685e-40
4	0x00055ed9	4.93202e-40
5	0x00055a81	4.91644e-40
6	0x80055a39	-4.91543e-40
7	0x8005617e	-4.94151e-40
8	0x00055bb6	4.92077e-40
9	0x8047d152	-6.59541e-39
10	0x804f472e	-7.280539e-39
11	0x8040f626	-5.965773e-39
12	0x80362764	-4.973247e-39
13	0x804745a6	-6.545305e-39
14	0x803e3b46	-5.715064e-39
15	0x802f348c	-4.335119e-39
16	0x80445d9e	-6.278397e-39
17	0x80413dc6	-5.991467e-39
18	0x000561bb	4.94237e-40
19	0x00055b01	4.91824e-40
20	0x80055e5f	-4.93031e-40
21	0x000564be	4.95317e-40
22	0x8005d605	-5.35953e-40
23	0x00055baf	4.92067e-40
24	0x000562db	4.9464e-40
25	0x00055b76	4.91987e-40
26	0x80055ac5	-4.9174e-40
27	0x803dda7c	-5.680343e-39
28	0x8041462e	-5.994483e-39
29	0x803d49d0	-5.628444e-39
30	0x80363048	-4.976437e-39
31	0x80386d70	-5.182047e-39
32	0x8039ece8	-5.319609e-39
33	0x802d71ac	-4.173375e-39
34	0x8037836c	-5.098098e-39
35	0x80387230	-5.18375e-39
36	0x802b461a	-3.974074e-39
37	0x803b6646	-5.454983e-39
38	0x80497852	-6.747154e-39
39	0x804acd7e	-6.869543e-39
40	0x80515426	-7.468862e-39
41	0x805b77ec	-8.40005e-39
42	0x805031f0	-7.364754e-39
43	0x804a5d7a	-6.82936e-39
44	0x80515f4e	-7.472864e-39
45	0x805cb052	-8.512117e-39
46	0x806eddf2	-1.0181524e-38
47	0x805dac70	-8.60256e-39
48	0x80754550	-1.0769618e-38
49	0x8087f234	-1.2484678e-38
50	0x806acaee	-9.80736e-39
51	0x807674fc	-1.0878555e-38
52	0x8080aaf4	-1.181627e-38
53	0x805d8ec8	-8.591921e-39
54	0x0005612f	4.9404e-40
55	0x00055ca8	4.92416e-40
56	0x80055f33	-4.93329e-40
57	0x00055e30	4.92966e-40
58	0x80055b1d	-4.91863e-40
59	0x80055f63	-4.93396e-40
60	0x00055868	4.90892e-40
61	0x80055783	-4.90571e-40
62	0x80055808	-4.90757e-40
63	0x801c09e0	-2.574936e-39
64	0x801c2522	-2.584715e-39
65	0x802a81f0	-3.903704e-39
66	0x8026ecb2	-3.574659e-39
67	0x801bef56	-2.565416e-39
68	0x802690ca	-3.54169e-39
69	0x802464b2	-3.3422e-39
70	0x8013a89e	-1.805363e-39
71	0x801b6180	-2.514535e-39
72	0x803414da	-4.782926e-39
73	0x803a120a	-5.33293e-39
74	0x8045f82c	-6.425677e-39
75	0x80259a30	-3.453225e-39
76	0x8020f9aa	-3.028298e-39
77	0x801b7dee	-2.524733e-39
78	0x80151ca8	-1.938825e-39
79	0x80108c14	-1.519619e-39
80	0x800941f0	-8.50173e-40
81	0x80945606	-1.3622513e-38
82	0x808ef46e	-1.3128325e-38
83	0x80737a24	-1.0604898e-38
84	0x808efa16	-1.3130354e-38
85	0x8089d7b8	-1.2658848e-38
86	0x80782fc4	-1.1037395e-38
87	0x8084867c	-1.217053e-38
88	0x808833f6	-1.2508268e-38
89	0x807a45da	-1.1228989e-38
90	0x802ccfa2	-4.115246e-39
91	0x802edeb6	-4.304326e-39
92	0x80497e0e	-6.749211e-39
93	0x801bdea0	-2.559421e-39
94	0x80102b72	-1.484953e-39
95	0x8024274c	-3.320175e-39
96	0x8006972e	-6.05246e-40
97	0x000415b2	3.75125e-40
98	0x801647a8	-2.046086e-39
99	0x0004cfee	4.41933e-40
100	0x00055734	4.9046e-40
101	0x8004e522	-4.4954e-40
102	0x80055734	-4.9046e-40
103	0x80055732	-4.90457e-40
104	0x800488f0	-4.16466e-40
105	0x0003adfc	3.3792e-40
106	0x00031d32	2.8598e-40
107	0x8004de0a	-4.46995e-40
108	0x8052cf80	-7.604948e-39
109	0x804bd390	-6.963557e-39
110	0x8064849c	-9.231121e-39
111	0x805ce5ce	-8.531304e-39
112	0x805610e0	-7.903906e-39
113	0x8070a500	-1.0344766e-38
114	0x805c35aa	-8.468117e-39
115	0x805027de	-7.361141e-39
116	0x8067a838	-9.519402e-39
117	0x00018974	1.41144e-40
118	0x80048c9c	-4.17783e-40
119	0x00042314	3.79926e-40
120	0x0001d710	1.68985e-40
121	0x00031ee2	2.86585e-40
122	0x0007aaee	7.04166e-40
123	0x000795d4	6.96597e-40
124	0x000b876e	1.058773e-39
125	0x0015125a	1.935129e-39
126	0x000b4142	1.0336e-39
127	0x0012e67a	1.735718e-39
128	0x000fec32	1.462263e-39
129	0x00054a24	4.85774e-40
130	0x0017d602	2.188988e-39
131	0x000bfc68	1.100737e-39
132	0x00080a36	7.38347e-40
133	0x001a486a	2.4137e-39
134	0x0015f964	2.01801e-39
135	0x8032e326	-4.67326e-39
136	0x803a7700	-5.369148e-39
137	0x8047d3ee	-6.596346e-39
138	0x8035ee2c	-4.952721e-39
139	0x8035347e	-4.886112e-39
140	0x80381720	-5.151083e-39
141	0x803ce0fe	-5.590842e-39
142	0x80338208	-4.730257e-39
143	0x8034d4be	-4.851763e-39
144	0x8082b9f8	-1.2005328e-38
145	0x80886c1c	-1.252841e-38
146	0x8082aa48	-1.19997e-38
147	0x8075e550	-1.0827015e-38
148	0x807015a4	-1.0293339e-38
149	0x8071bcce	-1.0445141e-38
150	0x8076b5c4	-1.0901794e-38
151	0x807159c2	-1.040961e-38
152	0x80740518	-1.0654745e-38
153	0x8003a7a6	-3.35647e-40
154	0x800011de	-6.41e-42
155	0x00055732	4.90457e-40
156	0x80002f58	-1.6984e-41
157	0x0004b382	4.31737e-40
158	0x00055732	4.90457e-40
159	0x80012954	-1.06661e-40
160	0x0004b5c4	4.32547e-40
161	0x800508b2	-4.62297e-40
162	0x80109ea4	-1.526277e-39
163	0x801328c0	-1.759493e-39
164	0x802fcdc8	-4.390089e-39
165	0x8019d854	-2.373491e-39
166	0x801be6b4	-2.562319e-39
167	0x802bd966	-4.026914e-39
168	0x802706f8	-3.584084e-39
169	0x8023159a	-3.221992e-39
170	0x80290d7a	-3.77009e-39
171	0x805cd15a	-8.523967e-39
172	0x8066894a	-9.41647e-39
173	0x80927e66	-1.3453326e-38
174	0x8067e8c4	-9.542557e-39
175	0x806e573a	-1.0133196e-38
176	0x809ed676	-1.4586942e-38
177	0x805a2d98	-8.28155e-39
178	0x805f3208	-8.74232e-39
179	0x808eb70c	-1.3106305e-38
180	0x8027d5e6	-3.658317e-39
181	0x802cf6ba	-4.12927e-39
182	0x803014e0	-4.415592e-39
183	0x803df6ac	-5.690454e-39
184	0x8049835a	-6.751111e-39
185	0x8044d8c0	-6.322569e-39
186	0x804c8582	-7.027391e-39
187	0x804e7f5c	-7.208857e-39
188	0x803f9368	-5.838516e-39
189	0x808c95be	-1.2910687e-38
190	0x807fc9a6	-1.1735446e-38
191	0x8053f5e2	-7.710552e-39
192	0x8074e32a	-1.0734409e-38
193	0x806bc1b2	-9.895883e-39
194	0x8045dccc	-6.415856e-39
195	0x8064ce80	-9.257628e-39
196	0x806a8078	-9.780648e-39
197	0x804818b6	-6.62102e-39
198	0x801924c2	-2.309074e-39
199	0x80178b46	-2.162178e-39
200	0x8027e1b4	-3.662551e-39
201	0x8030588e	-4.439871e-39
202	0x80331d2c	-4.694075e-39
203	0x803191fe	-4.552311e-39
204	0x80315dba	-4.533562e-39
205	0x80325dd6	-4.625437e-39
206	0x802c34f2	-4.059755e-39
207	0x000bcf6e	1.084602e-39
208	0x0004f142	4.53889e-40
209	0x000516ec	4.674e-40
210	0x000e63b2	1.321461e-39
211	0x000abf3c	9.86957e-40
212	0x00092d96	8.42873e-40
213	0x000ae49a	1.000362e-39
214	0x00085e6e	7.68559e-40
215	0x0009adea	8.88908e-40
216	0x802a78ac	-3.90038e-39
217	0x803c66d2	-5.547015e-39
218	0x803abedc	-5.394926e-39
219	0x8047af14	-6.583126e-39
220	0x80576808	-8.027008e-39
221	0x803fe562	-5.867923e-39
222	0x80476a32	-6.558416e-39
223	0x804a0204	-6.79655e-39
224	0x802c3f56	-4.063482e-39
225	0x000d7854	1.237027e-39
226	0x00094c1a	8.5382e-40
227	0x00041926	3.76364e-40
228	0x00086826	7.72045e-40
229	0x0008753a	7.76737e-40
230	0x0006e882	6.34421e-40
231	0x0004fa7a	4.57196e-40
232	0x00057e5a	5.04504e-40
233	0x00045988	3.9946e-40
234	0x000099ea	5.5214e-41
235	0x000298b6	2.38453e-40
236	0x800210d2	-1.89705e-40
237	0x0003f36c	3.6283e-40
238	0x00055732	4.90457e-40
239	0x0003379e	2.95458e-40
240	0x0005ac7e	5.21056e-40
241	0x800506b4	-4.61582e-40
242	0x8002246a	-1.96734e-40
243	0x806400d8	-9.183852e-39
244	0x8064def0	-9.263525e-39
245	0x80529282	-7.583068e-39
246	0x806644d0	-9.391906e-39
247	0x806c49cc	-9.944707e-39
248	0x805bda48	-8.435335e-39
249	0x805c40e2	-8.472141e-39
250	0x8066cf72	-9.441638e-39
251	0x8058eaae	-8.165711e-39
252	0x801a9470	-2.440972e-39
253	0x801c55e6	-2.602208e-39
254	0x802414dc	-3.313561e-39
255	0x8012c46c	-1.723502e-39

features.7.bias f4 [64]
0	0x80042502	-3.80618e-40
1	0x3a1fe5f0	0.0006099632
2	0x851cdf9a	-7.376154e-36
3	0xbcd1b115	-0.025597135
4	0x80055d6e	-4.92694e-40
5	0xbb9cf5e9	-0.004790057
6	0x8b11d7f7	-2.8088458e-32
7	0x8003018c	-2.76061e-40
8	0xbd19586e	-0.03743785
9	0x3d4919d8	0.049096912
10	0x80029982	-2.38739e-40
11	0x3dd6c440	0.104866505
12	0xa3a7776c	-1.8156753e-17
13	0x3be56298	0.0070002787
14	0x3d823bcb	0.06359061
15	0x3d1a891a	0.037728406
16	0x3d821aa9	0.06352741
17	0xba6c0840	-0.0009003915
18	0x3d911eca	0.07085951
19	0xbdbe27ef	-0.092849605
20	0x84b02da4	-4.1419315e-36
21	0xbcc5ba5c	-0.024136715
22	0xb8dbd8f6	-0.00010483146
23	0xbc42310d	-0.011852515
24	0x3d9bf10f	0.07614338
25	0x801761b0	-2.14726e-39
26	0x80027560	-2.25777e-40
27	0x8048ccfe	-6.685693e-39
28	0x910e8f87	-1.1246053e-28
29	0xbd71d427	-0.059040215
30	0x8005063c	-4.61414e-40
31	0x80012314	-1.04419e-40
32	0xbd217ff9	-0.039428685
33	0x805ec41c	-8.702887e-39
34	0x3bab8964	0.005234884
35	0xbdb05314	-0.08609596
36	0x3c4f01af	0.012634679
37	0xb47831ff	-2.3114988e-07
38	0x3c59c1cd	0.013290835
39	0xbc9fa18f	-0.019486217
40	0xbd50f2e5	-0.051012892
41	0x956fb294	-4.840654e-26
42	0x80288570	-3.721288e-39
43	0x3a32db51	0.0006822842
44	0x800232c6	-2.01885e-40
45	0xbce79016	-0.028266948
46	0x3cf1964b	0.02949061
47	0x3bdb3b0b	0.006690388
48	0x3c8b9fc0	0.017043948
49	0xbb0dfa6c	-0.0021664156
50	0x3d96d310	0.07364476
51	0xbd5b53da	-0.053546764
52	0x3cff1e17	0.031142278
53	0x3c8b7860	0.017025173
54	0x3de65f6c	0.11248669
55	0x86255960	-3.1098713e-35
56	0x800502b8	-4.60153e-40
57	0x8004eed6	-4.5302e-40
58	0xbcb72900	-0.022358418
59	0x3ce257a1	0.027629675
60	0x9d5232ad	-2.7819467e-21
61	0xbda01c9b	-0.07817956
62	0xbd69d3f2	-0.057086892
63	0x0003394c	2.96061e-40

features.10.weight f4 [64, 64, 1, 1]
0	0x02decb11	3.2736523e-37
1	0xbdf668c9	-0.12031705
2	0x0613fa8f	2.7831709e-35
3	0xbcddad7f	-0.027060268
4	0x8005582b	-4.90806e-40
5	0x3d812ec3	0.06307747
6	0x00212a50	3.04575e-39
7	0x80055789	-4.90579e-40
8	0xbda19e28	-0.07891494
9	0xbe173014	-0.14764434
10	0x80537f64	-7.668045e-39
11	0xbe1c3881	-0.1525593
12	0x239bb76c	1.6882816e-17
13	0xbdbc840a	-0.09204872
14	0x3e2aceda	0.1668047
15	0xbddba9bc	-0.10725734
16	0x3db63534	0.088968664
17	0xbcd488e7	-0.025944186
18	0x3dfc2b58	0.12312955
19	0x3c31c050	0.0108490735
20	0x881441b1	-4.461435e-34
21	0xbdcf6737	-0.101271085
22	0xbccb791b	-0.024838021
23	0xbdf0056b	-0.117197834
24	0x3d2cb11e	0.0421611
25	0x81359f38	-3.3358683e-38
26	0x0005573a	4.90468e-40
27	0x03ca1bbe	1.1878862e-36
28	0x92a52ea1	-1.0424459e-27
29	0xbdeb7efa	-0.11498828
30	0x8003bd8a	-3.435e-40
31	0x80055734	-4.9046e-40
32	0x3dad9e05	0.084774055
33	0x020b273e	1.0223369e-37
34	0x3dba7860	0.09104991
35	0x3dcf5dd8	0.10125321
36	0xbcfd0c4a	-0.030889649
37	0xb5e2f7c0	-1.6910417e-06
38	0x3dac057f	0.08399486
39	0x3df66b2f	0.120321624
40	0xbe0455ba	-0.12923327
41	0x97992377	-9.896346e-25
42	0x01ae9d21	6.4142974e-38
43	0xbdd0e8ff	-0.102006905
44	0x0005576c	4.90539e-40
45	0xbd6af1db	-0.057359558
46	0xbdc1b2d3	-0.09457936
47	0xbd357fd7	-0.04431137
48	0x3d20b6e9	0.039236937
49	0x3d42f861	0.047600154
50	0x3d4cb435	0.049976546
51	0xbd47c66d	-0.048773218
52	0x3cb43dd8	0.022002146
53	0xbdde57e9	-0.10856611
54	0x3e30f885	0.17282303
55	0x08019ba0	3.900246e-34
56	0x000319d8	2.84777e-40
57	0x00055760	4.90522e-40
58	0x3dca5fb5	0.09881536
59	0x3dd4cf05	0.10391048
60	0xa1222953	-5.4942427e-19
61	0xbc42ed35	-0.011897375
62	0x3e06dfff	0.13171385
63	0x802987ac	-3.813925e-39
64	0x80055bea	-4.9215e-40
65	0x3d8ebe42	0.069698825
66	0x8005606c	-4.93767e-40
67	0x3a6cce74	0.00090334495
68	0x00055e49	4.93e-40
69	0x38b8fc01	8.820743e-05
70	0x000564cc	4.95337e-40
71	0x0005622f	4.94399e-40
72	0xbc6b8137	-0.014374069
73	0x3bc49bdb	0.0060000247
74	0x80055865	-4.90887e-40
75	0xbcb11523	-0.021616524
76	0x80055a3c	-4.91547e-40
77	0xbbe258a7	-0.006907541
78	0xbc8ee5fd	-0.017443651
79	0x3cc8f744	0.024531968
80	0xbd48e341	-0.04904485
81	0x3b1d39f4	0.0023990842
82	0xbaf5bd13	-0.0018748365
83	0xbc6b1461	-0.01434812
84	0x00055c39	4.92261e-40
85	0x3b214171	0.0024605657
86	0xbb1fa7f5	-0.0024361585
87	0xbc2adbef	-0.010428413
88	0xbc204f98	-0.009784602
89	0x800560b3	-4.93867e-40
90	0x80055760	-4.90522e-40
91	0x80055e22	-4.92946e-40
92	0x000561a5	4.94206e-40
93	0x3ac1fc03	0.0014799837
94	0x00055bde	4.92133e-40
95	0x80055928	-4.91161e-40
96	0x3959ada7	0.00020759423
97	0x800559b2	-4.91354e-40
98	0x3b55cdad	0.0032623813
99	0xbc9b600c	-0.018966697
100	0xba56bdd7	-0.00081917405
101	0x303ced6c	6.87314e-10
102	0x3b0a6ea0	0.0021123067
103	0xbaf48596	-0.0018655534
104	0xbaf65c23	-0.001879577
105	0x9221f292	-5.1101633e-28
106	0x00055c08	4.92192e-40
107	0x3bd9ba5a	0.0066445293
108	0x80055850	-4.90858e-40
109	0xba3e8003	-0.0007267
110	0xbaeef24f	-0.0018230173
111	0xbd52e7d2	-0.051490612
112	0x3a47cf37	0.0007622125
113	0x3c39dd8d	0.011344326
114	0xbc908827	-0.017643047
115	0xbbda5551	-0.0066630025
116	0xbb9e8074	-0.00483709
117	0x3d4605d6	0.04834541
118	0xbc82b9c8	-0.015957728
119	0x8005578c	-4.90583e-40
120	0x80056291	-4.94536e-40
121	0x00055a20	4.91508e-40
122	0xbca7b86a	-0.020473678
123	0xbbbd8f08	-0.005784873
124	0x00055a06	4.91472e-40
125	0xbd226090	-0.03964287
126	0xb9f80b6f	-0.00047310765
127	0x80055d36	-4.92615e-40
128	0x00055ce2	4.92498e-40
129	0x8003ec62	-3.60305e-40
130	0x00055ee3	4.93216e-40
131	0x0000f87c	8.914e-41
132	0x80056016	-4.93647e-40
133	0x8001e48e	-1.73825e-40
134	0x800578d2	-5.0252e-40
135	0x00056224	4.94384e-40
136	0x8005a3b2	-5.179e-40
137	0x8002f100	-2.70126e-40
138	0x0005612d	4.94038e-40
139	0x80036562	-3.11876e-40
140	0x00055a4c	4.9157e-40
141	0x800213d6	-1.90787e-40
142	0x00020280	1.84568e-40
143	0x8000adbc	-6.2324e-41
144	0x00044592	3.92299e-40
145	0x80030f46	-2.80986e-40
146	0x00001520	7.578e-42
147	0x800868de	-7.72303e-40
148	0x00055eb3	4.93149e-40
149	0x00043d46	3.89323e-40
150	0x8003d8a2	-3.5322e-40
151	0x00004ef6	2.8326e-41
152	0x8005576c	-4.90539e-40
153	0x800561aa	-4.94213e-40
154	0x80055ce7	-4.92505e-40
155	0x80056190	-4.94176e-40
156	0x80055c2d	-4.92244e-40
157	0x8008238c	-7.47436e-40
158	0x800561d3	-4.9427e-40
159	0x00055fbe	4.93523e-40
160	0x0003e858	3.58856e-40
161	0x80056045	-4.93712e-40
162	0x800ae29c	-9.99647e-40
163	0x8002b0ba	-2.47069e-40
164	0x80055768	-4.90533e-40
165	0x80055bae	-4.92066e-40
166	0x00049cc6	4.23582e-40
167	0x8005575c	-4.90516e-40
168	0x00023fd6	2.06571e-40
169	0x00055dcf	4.9283e-40
170	0x00056537	4.95487e-40
171	0x80055774	-4.9055e-40
172	0x00055aee	4.91797e-40
173	0x80028e00	-2.34611e-40
174	0x80055764	-4.90527e-40
175	0x8003b230	-3.39428e-40
176	0x0001c324	1.61839e-40
177	0x8008284a	-7.49137e-40
178	0x80044606	-3.92462e-40
179	0x80005e6c	-3.3872e-41
180	0x80055794	-4.90595e-40
181	0x800586fe	-5.07604e-40
182	0x8005574c	-4.90494e-40
183	0x80055755	-4.90506e-40
184	0x00055c0a	4.92195e-40
185	0x00056179	4.94144e-40
186	0x8002d85a	-2.61283e-40
187	0x0002f550	2.71673e-40
188	0x80055f81	-4.93438e-40
189	0x80053c74	-4.80864e-40
190	0x0000d360	7.5827e-41
191	0x0005620d	4.94351e-40
192	0x00055940	4.91194e-40
193	0xbd39725c	-0.045275077
194	0x0005574e	4.90497e-40
195	0xbbca5360	-0.00617449
196	0x00055d8e	4.92739e-40
197	0xaa49f14a	-1.79361e-13
198	0x00055774	4.9055e-40
199	0x00055831	4.90815e-40
200	0xbcb16fe9	-0.021659808
201	0xbd0a533e	-0.033770792
202	0x8004666c	-4.04084e-40
203	0x3c59648c	0.013268601
204	0x80055a21	-4.9151e-40
205	0xbaeda9b3	-0.0018132239
206	0xbd0536c0	-0.032522917
207	0xbd44c2a6	-0.048037194
208	0xbac87ee6	-0.0015296608
209	0x3c0cc6a5	0.008592282
210	0xbd891027	-0.06692534
211	0xbbab99f0	-0.0052368566
212	0x80055850	-4.90858e-40
213	0xbab9666d	-0.0014144905
214	0xbb942954	-0.0045215283
215	0x3d79e36d	0.061007906
216	0xbbcd713e	-0.006269603
217	0x800560c6	-4.93893e-40
218	0x80055f19	-4.93292e-40
219	0x800573db	-5.00739e-40
220	0x8005577a	-4.90558e-40
221	0xbbfa4d50	-0.007638611
222	0x00055a35	4.91538e-40
223	0x000558d3	4.91042e-40
224	0x391fcedc	0.00015240483
225	0x800558c2	-4.91018e-40
226	0x3d94d50e	0.072671995
227	0xbd9b046e	-0.07569204
228	0x3c0db5df	0.0086493185
229	0xb41d8b02	-1.4672335e-07
230	0x3b0711be	0.002060994
231	0xbca4192f	-0.02003154
232	0xbc4f9d88	-0.012671836
233	0x800557f1	-4.90725e-40
234	0x00055a8e	4.91662e-40
235	0x3d5338b1	0.051567737
236	0x000559e9	4.91431e-40
237	0x3ca24aa6	0.019810986
238	0x3babe038	0.005245235
239	0xbcbf4047	-0.02334608
240	0xbb5fbfcf	-0.0034141426
241	0xbbf5a8a7	-0.0074969116
242	0xbcb8f7f6	-0.022579174
243	0x3d15b08d	0.036545325
244	0xbb1f621a	-0.0024319948
245	0x3c93ff05	0.018065939
246	0x3d93b4dd	0.07212231
247	0x80055787	-4.90576e-40
248	0x800558ff	-4.91103e-40
249	0x00055a90	4.91665e-40
250	0xbd88166a	-0.066449
251	0x3cfc8c39	0.030828582
252	0x00055740	4.90477e-40
253	0xbb96c970	-0.00460165
254	0xbc67b786	-0.0141428765
255	0x800557d0	-4.90679e-40

features.10.bias f4 [64]
0	0x3d2e2da9	0.042524014
1	0x3b2218fb	0.0024734128
2	0x00055736	4.90463e-40
3	0xbc6b57b9	-0.014364176
4	0xbdf18dfb	-0.11794659
5	0x81e60522	-8.449602e-38
6	0x3d65fac5	0.056147356
7	0x3dceb54a	0.10093172
8	0x80175ce2	-2.145536e-39
9	0x399a3400	0.00029411912
10	0xba14864b	-0.0005665763
11	0x80097bc2	-8.70915e-40
12	0x3d07548b	0.03303961
13	0x3ce612d2	0.028085146
14	0x3da609f3	0.081073664
15	0x3e02a580	0.12758446
16	0xbd14f67e	-0.036367886
17	0x829435c6	-2.177751e-37
18	0x96e6dd18	-3.7298034e-25
19	0x3d3f2a86	0.046671413
20	0x870b5e8e	-1.0484985e-34
21	0xbdcadc27	-0.09905272
22	0xbdb5eba2	-0.08882834
23	0xb8fedf61	-0.000121532714
24	0x3e3501d7	0.17676483
25	0xb7c3c8ce	-2.3339318e-05
26	0xbc643179	-0.013927811
27	0xbdee6ea9	-0.116422005
28	0x3dd8d6e2	0.10587861
29	0x3e0afa67	0.13572083
30	0x81c76154	-7.3240714e-38
31	0x3ca63a32	0.020291422
32	0xbba11d6a	-0.0049168365
33	0x3de681d5	0.11255232
34	0x3dafa27f	0.085759155
35	0x3dac28aa	0.084061936
36	0xbd9856e8	-0.07438451
37	0x8631e9a0	-3.346164e-35
38	0x3dc8c9ce	0.09804116
39	0x3e1afc93	0.15135412
40	0x3d9b74e7	0.07590657
41	0x3c7babd9	0.015360796
42	0x3a3c1602	0.000717491
43	0xbdbaf3c8	-0.09128529
44	0x3d239b5f	0.039943095
45	0xbcd08c41	-0.025457503
46	0x8e51e460	-2.5871197e-30
47	0xbda012f5	-0.07816116
48	0x3c1ba4dd	0.009499756
49	0x83908a9a	-8.495381e-37
50	0xbdada55f	-0.08478808
51	0x3a5f9ea1	0.00085304125
52	0xbc642931	-0.013925836
53	0x3b82b9fb	0.0039894558
54	0x3ddd74f7	0.10813325
55	0x3cb2c47c	0.021822207
56	0x3cafb57a	0.02144884
57	0x3be0ed99	0.0068642613
58	0x3dfb2504	0.122629195
59	0x3de5e1cc	0.11224708
60	0xbdde2872	-0.10847558
61	0x3e1c3bc1	0.1525717
62	0xbdcd0b62	-0.10011937
63	0xbd9cdd74	-0.07659426

classifier.0.weight f4 [3, 64]
0	0xbe1f2301	-0.15540697
1	0x390a097f	0.00013164243
2	0x0004c7dc	4.39038e-40
3	0xbd106494	-0.03525217
4	0xbdf2ebd1	-0.11861385
5	0x83b2b880	-1.0504259e-36
6	0xbd99f6ec	-0.075178
7	0x3d81265c	0.063061446
8	0x0004235e	3.8003e-40
9	0x3d07dd99	0.033170316
10	0x39fab8d1	0.00047821415
11	0x800499f8	-4.22576e-40
12	0xbe0c7668	-0.13717043
13	0x3bfeccd5	0.0077758827
14	0xbd81b9e1	-0.06334282
15	0x3e203b70	0.15647674
16	0x3bb65690	0.0055645183
17	0x80ef5098	-2.1977595e-38
18	0x29463f74	4.401987e-14
19	0x3dee08ea	0.11622794
20	0x8a350812	-8.716351e-33
21	0xbce2301c	-0.027610831
22	0x3d830047	0.06396537
23	0x3a01cd0a	0.00049515127
24	0xbe4c7887	-0.19967853
25	0x3bf0c4b3	0.007347667
26	0xbc6add99	-0.01433506
27	0xbd2be5e8	-0.041967303
28	0xbd430516	-0.047612272
29	0x3e19d95d	0.15024324
30	0x01757f08	4.5090534e-38
31	0x3d4a2978	0.049355954
32	0x3e11ab38	0.14225471
33	0xbe9a31d7	-0.3011615
34	0x3d6434d1	0.055714432
35	0x3d7e2fa2	0.062057145
36	0xbde43be5	-0.111442365
37	0x88bcb613	-1.1357644e-33
38	0xbdce4cf7	-0.10073274
39	0xbeac891a	-0.3369835
40	0x3c2ac86c	0.010423761
41	0xbd8faeb0	-0.07015741
42	0x3e13ba57	0.14426552
43	0xbd9d260c	-0.076732725
44	0xbd41fbee	-0.0473594
45	0xbd8939a1	-0.06700445
46	0x9306fb19	-1.7036979e-27
47	0x3d8dbabf	0.069203846
48	0x3d87e394	0.06635204
49	0x04e2cb48	5.331903e-36
50	0x3d89dc99	0.06731529
51	0xbb902207	-0.0043985876
52	0x3d75c2f7	0.060000386
53	0xbd9236d7	-0.07139366
54	0x3e10dfb3	0.14147834
55	0xba62c736	-0.00086509006
56	0x3da69cb6	0.08135359
57	0x3c54e01d	0.012992886
58	0x3dce09e2	0.10060479
59	0x3dbf9683	0.0935488
60	0xbe162c5d	-0.14665361
61	0xbea37d18	-0.31931376
62	0x3db2aedb	0.08724757
63	0x3def8cfc	0.116968125
64	0x3e356869	0.1771561
65	0xbb5cbe08	-0.0033682603
66	0x8004c7dc	-4.39038e-40
67	0xbb46da85	-0.003034265
68	0xbd874026	-0.06604032
69	0x03b2b880	1.0504259e-36
70	0x3dfa5f01	0.12225152
71	0xbb974b01	-0.0046170955
72	0x8004235e	-3.8003e-40
73	0x3d40a872	0.047035642
74	0xbaa74878	-0.0012762686
75	0x00049a02	4.2259e-40
76	0xbd16e5d5	-0.03684028
77	0x3e21b637	0.15792166
78	0x3ca76f60	0.02043885
79	0x3d81eacd	0.06343613
80	0xbde03279	-0.10947127
81	0x00ef510e	2.197776e-38
82	0x2927cf95	3.7261498e-14
83	0xbd80f193	-0.062960766
84	0x0a350814	8.716352e-33
85	0x3e002954	0.12515765
86	0x3da9cc6f	0.08290946
87	0xba01c17c	-0.0004949791
88	0x3e593ddb	0.21215002
89	0x3c0f27a8	0.008737482
90	0xbe14c290	-0.14527345
91	0xbbbe6d09	-0.005811338
92	0x3dbfbe72	0.093624964
93	0xbe966f13	-0.29381618
94	0x81757f0e	-4.509055e-38
95	0xbd97ccfe	-0.07412146
96	0xbe5cb92f	-0.21555017
97	0x3e2fd378	0.17170513
98	0xbe82e0ff	-0.25562283
99	0xbd16621f	-0.03671467
100	0xbd1a306e	-0.037643842
101	0x08bcb616	1.1357647e-33
102	0x3daa13df	0.08304571
103	0x3e5d387b	0.21603577
104	0xbdd9150c	-0.105997175
105	0xbce74a1e	-0.028233584
106	0x3c7a080b	0.015260707
107	0x3d4aa243	0.04947115
108	0x3c4911c0	0.012272298
109	0x3c179803	0.009252551
110	0x1306fb19	1.7036979e-27
111	0xbd732b11	-0.059367243
112	0xbdc767df	-0.09736609
113	0x84e2cb48	-5.331903e-36
114	0xbd3ea351	-0.04654247
115	0x3da3dde3	0.08001306
116	0xbd160dab	-0.03663413
117	0x3dcce481	0.10004521
118	0x3d02cb97	0.03193244
119	0x3da57967	0.08079796
120	0xbd245819	-0.04012308
121	0xbc7609e1	-0.015017004
122	0x3d975f66	0.07391243
123	0xbd8ffea8	-0.07030994
124	0x3ded1e44	0.11578038
125	0x3e51464f	0.20436977
126	0x3ddcf123	0.10788181
127	0xbddf94fb	-0.10917088
128	0xbadb5020	-0.0016732253
129	0xb202373c	-7.579555e-09
130	0x8005576c	-4.90539e-40
131	0xb43ee5c7	-1.7778721e-07
132	0xbb433f0f	-0.0029792225
133	0x00055790	4.90589e-40
134	0xbb7f4471	-0.0038950706
135	0xba8bdc02	-0.0010670426
136	0x0005585b	4.90873e-40
137	0xbbc95635	-0.00614431
138	0xb29cd585	-1.8257888e-08
139	0x00055788	4.90578e-40
140	0xb97968de	-0.00023785557
141	0xb94fd3be	-0.00019819938
142	0xbb1158fc	-0.0022178283
143	0xbacf24d8	-0.0015803827
144	0xbaae3866	-0.0013291955
145	0x00055788	4.90578e-40
146	0x000559a2	4.91332e-40
147	0xbc3a75dd	-0.01138064
148	0x80081ecc	-7.45732e-40
149	0xbbd45917	-0.006480347
150	0xbc42be9f	-0.011886268
151	0xb100e875	-1.8758588e-09
152	0xb97b4ceb	-0.0002396588
153	0xb0400d4e	-6.98681e-10
154	0xbad16e1a	-0.0015978247
155	0xba2db3d7	-0.00066262245
156	0xbc0f2cac	-0.008738678
157	0xbaa64be6	-0.0012687414
158	0x8005575c	-4.90516e-40
159	0xbbc890c0	-0.006120771
160	0xba514f9a	-0.0007984579
161	0xb925c1aa	-0.00015807772
162	0xba8e2b98	-0.0010846732
163	0xb9f2a50a	-0.000462808
164	0xbbd553a9	-0.006510217
165	0x0004a73a	4.27332e-40
166	0xbabd937d	-0.0014463511
167	0xb89dd77a	-7.526479e-05
168	0xbadffab5	-0.0017088266
169	0xbb8a4eae	-0.004220805
170	0xbba8fab5	-0.0051568397
171	0xbbda13b6	-0.0066551818
172	0xbbff8f28	-0.007799048
173	0xbb78d36c	-0.0037967814
174	0x00041b6c	3.77179e-40
175	0xbc4709b4	-0.0121483095
176	0xbb03befd	-0.0020102852
177	0x0005576c	4.90539e-40
178	0xbba4ba3f	-0.005027085
179	0xbc0ef557	-0.008725486
180	0xbc2c2a93	-0.010508197
181	0xbc29be80	-0.01036036
182	0xbbaa5cda	-0.005199057
183	0xbc87ab57	-0.016561193
184	0xb9ece71a	-0.00045185612
185	0xb80f84c1	-3.4217494e-05
186	0xbbe64f2b	-0.0070284805
187	0xbb47dbb0	-0.0030495934
188	0xbb0844b1	-0.0020792896
189	0xba3bd045	-0.00071645185
190	0xbb1fdd59	-0.0024393408
191	0xbbe58047	-0.0070038172

classifier.0.bias f4 [3]
0	0x3d8a0032	0.067383185
1	0xbd3466a0	-0.044043183
2	0xb98cf4f6	-0.0002688539
