benchmark_model_data/15000_image_experiment_50_epochs/benchmark_experiment_increased_data/experience_1_2/model_experience_1_2.pth (torch, 854826 bytes, 36 tensors)

features.0.weight f4 [32, 3, 3, 3]
000000 cb 35 22 be df 06 cb 3d b3 16 9c bc b2 12 2d be
       -0.15840833 0.0991342 -0.019053793 -0.16901663
000010 51 69 21 be 53 6d b3 bd e4 ec bc 3d d9 c3 27 3e
       -0.15762831 -0.08761086 0.09224871 0.16383304
000020 05 52 f5 bc 68 4f a4 3d b5 c5 56 3d fa f5 1b bd
       -0.029946337 0.08022958 0.052434642 -0.03807638
000030 8c e9 5b bd b8 a9 ea 3b fa a3 4c 3e 9c f3 bb bd
       -0.053689525 0.0071613453 0.19984427 -0.09177324
000040 35 ae 3f 3e 8e d1 14 be ca d5 13 be 6f a3 69 3e
       0.18718798 -0.14533064 -0.14437023 0.22816251
000050 be 52 c5 3d 8c a7 3f 3e c3 57 80 3e 9e 1e 39 bd
       0.096349224 0.18716258 0.25066957 -0.045195214
000060 36 db 14 3e 1f b1 5b bd 3e 2d a0 3d 13 80 a5 3d
       0.14536747 -0.053635713 0.07821129 0.08081069
000070 0b 64 4e be 72 af 67 bc 08 35 90 bd 4f 28 0e 3d
       -0.20155351 -0.0141409505 -0.07041365 0.03470641
000080 61 2f 9b bb f2 87 08 3e 9c b8 a2 3d 97 2f 01 3c
       -0.0047358726 0.13333109 0.07945368 0.007884881
000090 25 1c d3 3d d8 09 a7 3d 4d 39 c8 3d ea 83 e3 bd
       0.103081025 0.081561744 0.09776554 -0.11109145
0000a0 43 43 16 be 1c 90 5a 3e 5e bb 22 3e 92 c6 6b bc
       -0.14674096 0.21344036 0.15891787 -0.014390605
0000b0 63 87 16 bd 27 20 a7 3b 41 e2 d7 bd b2 5c 82 3e
       -0.03675021 0.0051002684 -0.105412014 0.25461346
0000c0 ae 3d 25 3e d3 0e ad 3b 55 6e 51 3e 2f 57 bd 3d
       0.1613681 0.005281308 0.20452245 0.092451446
0000d0 2f a5 69 3e f6 c6 6b 3e f0 f2 c9 3d 14 b8 0d 3e
       0.22816919 0.23025116 0.0986079 0.13839751
0000e0 85 30 38 3e ce 8e 44 3d 02 58 5b 3e bd 75 e7 3d
       0.17987259 0.04798775 0.21420291 0.11301754
0000f0 87 01 9d 3c 49 3b 11 be 72 13 0c bd c1 98 93 3d
       0.019165767 -0.14182772 -0.034198232 0.0720687
000100 85 d2 8f 3d c1 14 69 3e a2 0c d3 3d 65 52 5b 3e
       0.07022575 0.22761823 0.10305144 0.2141815
000110 2e db bf 3d 01 8e ff bd b3 0d b9 bd 8c b0 27 3e
       0.09367977 -0.12478257 -0.09035816 0.16375941
000120 33 b2 f0 bc 3e a1 28 3d 97 7b 8e 3d 78 f1 e4 3a
       -0.029381847 0.041169398 0.06957167 0.0017466983
000130 6e dc 10 bd 48 ad 59 3e 37 76 d0 bd 55 1a d5 3d
       -0.035366468 0.21257508 -0.10178798 0.10405413
000140 7a c2 2f bd 55 38 3c bd 79 1d 02 be 83 46 c4 bd
       -0.042910077 -0.04595216 -0.12706555 -0.095837615
000150 ab d9 ae 3d 34 d5 16 be b7 15 db bd 86 06 24 bc
       0.085376106 -0.14729768 -0.10697501 -0.010011321
000160 49 d1 4e 3e 8b 3c b6 3d 0e 85 bb bd 06 56 41 be
       0.20197023 0.088982664 -0.091562375 -0.18880472
000170 86 96 07 3e 95 16 fa 3d 57 a6 1e be fd f2 19 3e
       0.13241014 0.122113384 -0.15493141 0.15034099
000180 70 5a 5b 3d 27 51 c5 3d 59 0b ce bd 73 a6 e8 bd
       0.053553045 0.09634619 -0.10060758 -0.11359873
000190 a0 5f 06 bd f7 5e df bd a1 64 90 3d 01 08 1a be
       -0.03280604 -0.10906785 0.070504434 -0.15042116
0001a0 98 12 b7 bc 83 38 60 3e 1a 63 2f 3d fe 9f 26 3e
       -0.022347733 0.21896558 0.04281912 0.1627197
0001b0 7e 81 1c 3e d1 c6 39 ba e9 c9 81 3d a8 d1 0e be
       0.15283772 -0.0007086816 0.063373394 -0.13947165
0001c0 2a 22 70 3d 2e aa 36 3e 72 2a f2 bd d7 6f 37 be
       0.05862633 0.17838356 -0.11824502 -0.17913757
0001d0 92 52 09 3e 86 8c e3 bc 02 5f 83 3d 5d 52 93 3e
       0.13410404 -0.027776968 0.06414606 0.28773776
0001e0 f1 2f 5e bc 91 c3 60 3d e9 2e 75 3e 47 c1 09 3c
       -0.013561235 0.054874007 0.23943676 0.008407897
0001f0 69 58 28 3e 43 3e 23 3e 3c ab f4 3d d0 b5 3e 3e
       0.16439976 0.1594172 0.11946723 0.18624043
000200 63 c5 d0 bb 6d 08 a7 3c f7 be 69 3e ac 75 17 3d
       -0.0063711866 0.02038976 0.22826754 0.036977455
000210 89 85 31 3d 40 0a ef 3d 9b 09 b6 3d 8f a5 11 be
       0.04334024 0.11671877 0.08888551 -0.14223312
000220 31 90 12 3e 28 ec 89 3d 7b 10 2c 3d a0 59 35 3e
       0.14312817 0.06734496 0.042007904 0.1770997
000230 37 03 10 3e c0 e2 f3 bd 9f 8e cb 3d 3b 17 b1 bd
       0.14063726 -0.119084835 0.09939312 -0.08647009
000240 d7 07 44 3e aa ff 94 3e a9 1f 16 3d b3 ee e3 bc
       0.19143616 0.29101306 0.036651287 -0.027823782
000250 e2 b1 9d 3e 67 29 00 be 49 86 18 3e 11 80 bc bd
       0.30799776 -0.12515794 0.14894976 -0.09204114
000260 c5 38 49 3e db 52 1a bd 77 4c 68 3c 27 f9 1f be
       0.19650562 -0.037676673 0.014178387 -0.15622388
000270 fd c0 19 3e 51 b6 79 3d f0 56 3c 3c b9 b9 1d 3d
       0.15015025 0.060964886 0.011495337 0.038507197
000280 de e5 29 3a 4a 31 c5 3b 95 bc a9 b9 4c b8 c3 3b
       0.0006481091 0.0060178386 -0.00032374696 0.0059728976
000290 2f 13 48 bd 42 9b 32 be 00 b1 21 bd 24 43 08 bd
       -0.04884642 -0.17442039 -0.03947544 -0.033267155
0002a0 7f 53 06 3e 94 fb 70 bd f1 1d d2 bd fd 60 6d bd
       0.13117789 -0.058833674 -0.10259617 -0.057953823
0002b0 6e ab 37 bd 7c c1 94 bd 87 54 7b 3d 32 cd a1 bd
       -0.044841222 -0.07263467 0.06135991 -0.07900466
0002c0 20 68 8e bd 55 cb 57 bc 02 f1 2f 3e 47 4c 20 3e
       -0.06953454 -0.013171037 0.17181781 0.15654097
0002d0 66 c8 40 be a6 dc d3 bd 59 77 80 bd 8e 7a 00 bd
       -0.18826446 -0.1034482 -0.06272764 -0.031366877
0002e0 7e 21 3e 3d f7 4d 18 be a7 0a 2b be f0 b0 37 be
       0.04641866 -0.14873491 -0.16703282 -0.1793859
0002f0 2b 54 9a bd 03 77 ea bd a3 f9 46 3d 74 d7 76 bd
       -0.07535585 -0.11448481 0.048577916 -0.060264066
000300 e2 24 14 be 9c f0 26 3e e5 df 22 bc 71 5b 93 bc
       -0.14467195 0.16302723 -0.009941076 -0.017987939
000310 f9 fe 92 3d fa 67 50 3c d7 49 4a bd c2 c3 ed 3d
       0.071775384 0.012720102 -0.049386825 0.116096035
000320 fb 5c cd 3b 3e ba a8 bd 09 5f 55 bd 91 e7 b3 3d
       0.0062671877 -0.08238648 -0.052092586 0.08784402
000330 46 ee 2d be 7d 67 bd bd 02 4f 51 3d 41 66 de bb
       -0.16985425 -0.092482544 0.05110074 -0.006787092
000340 de 99 2b be 81 13 d3 bd f6 24 e4 bd 08 b9 35 be
       -0.16757914 -0.103064544 -0.11139862 -0.17746365
000350 44 42 68 bc f8 6f 84 3c 1e a4 c6 bd f8 a3 1d bc
       -0.014175955 0.016166672 -0.096992716 -0.009621613
000360 b9 c4 18 be 1c 05 11 be 10 3d 0c 3d 99 3e 84 3c
       -0.14918794 -0.14162105 0.03423792 0.01614313
000370 d2 e3 aa bb 61 f2 18 3e 0c 6c 2b be 29 6d 3b 3e
       -0.0052151466 0.1493621 -0.16740435 0.1830336
000380 7f b5 3a 3d 5e e6 31 3e ab b4 77 bd 67 fe 89 bb
       0.045583244 0.17373034 -0.060475033 -0.0042112353
000390 ff ee 33 3e 67 27 26 3e 03 a8 15 bd f2 86 dc bd
       0.17571639 0.16225968 -0.03653718 -0.10767926
0003a0 87 83 3a be f2 0c 15 3e 91 79 6d 3c 19 82 4e be
       -0.18214236 0.1455572 0.014494316 -0.20166816
0003b0 85 e7 05 be 2e 1c 4a bc 18 c7 f2 3d 1b 76 da bd
       -0.13076599 -0.01233582 0.1185438 -0.10667058
0003c0 15 55 96 bd a8 44 f9 3d c8 38 a3 bd 45 98 1a be
       -0.07340447 0.12171298 -0.079698145 -0.15097149
0003d0 0e 5b 6d bd 59 02 05 3e e9 ee e9 3d 32 ff c0 3c
       -0.057948165 0.12989177 0.114225216 0.023559187
0003e0 38 67 e1 bd ac 97 33 be 1e 0b 2e 3e ae f1 1d be
       -0.110060155 -0.17538327 0.16996428 -0.15424225
0003f0 3a ae 6f bc 01 70 50 be d5 0b 9b bd 4d 9c 24 3e
       -0.014628941 -0.20355226 -0.07570616 0.16075249

features.0.bias f4 [32]
000000 bd 24 f0 bc b4 92 81 bd a4 de 8e bd d6 55 ed bc
       -0.029314393 -0.063268095 -0.06976059 -0.028971594
000010 49 94 bc 3c 38 3b 1d 3e d6 29 bd bd 93 9d a7 bd
       0.023019927 0.15354621 -0.09236495 -0.08184352
000020 2d 1d 42 3d 78 20 51 be ff cb 3b bd 73 1e 25 3c
       0.047391105 -0.20422542 -0.045848843 0.01007806
000030 ff 04 0c 3e c0 c6 14 be 9f ef 14 be ab 25 a3 3d
       0.13673781 -0.14528942 -0.14544533 0.07966169
000040 3b 95 2a be f7 55 7c 3d 00 25 c3 3d 1f 81 a0 bd
       -0.1665849 0.06160542 0.095285416 -0.07837128
000050 59 40 9d 3d f3 98 d6 3d 99 ba 48 bd 90 5a 21 3e
       0.07678289 0.104783915 -0.04900608 0.15757203
000060 64 cf 0f bd ae e3 5e bc 01 14 c1 bd 0a b3 de bd
       -0.035109892 -0.013604088 -0.094276436 -0.10873993
000070 82 25 ff bd a4 d3 2c 3e ca 8c 28 bd ef ca 1b 3e
       -0.12458326 0.1687761 -0.041149892 0.15214132

features.2.weight f4 [32, 32, 3, 3]
000000 92 41 83 bd fb 50 9a bd fd 1e ac bd 1a 42 47 bd
       -0.06408991 -0.07534977 -0.08404348 -0.048647024
000010 c4 32 1b 3b a3 04 d3 bc 1c 1a 72 3d 75 17 12 3d
       0.0023681382 -0.025759047 0.05910693 0.0356669
000020 80 8d e7 3c 1c 69 25 bc 0f 80 5d bd 1f 06 44 bd
       0.028265715 -0.010095861 -0.054077204 -0.0478574
000030 4e ad 2e 3d a3 56 ea 3a 83 bf 75 3d 01 30 8b 3c
       0.042645745 0.0017878603 0.059997093 0.016990663
000040 27 1d 34 3d 82 df 12 bd aa a6 b9 bb 86 ad 00 3a
       0.043973114 -0.035857685 -0.00566562 0.00049086695
000050 11 88 8a 3d b1 cc 9f 3c 2f 27 b2 bc 23 1c f3 3c
       0.06764234 0.019506784 -0.0217472 0.029676503
000060 8f 93 97 bc fc 57 7a bc ae c3 a7 3d b3 04 df 3d
       -0.018502979 -0.015279766 0.0819162 0.10889568
000070 a9 ef 71 3c 31 ca 88 3d 35 74 fb 3c 8c bc ba 3d
       0.014766612 0.0667919 0.03069506 0.09117994
000080 33 62 1c 3d c1 6f 22 3b bb 1a d4 3d 39 a2 e9 3c
       0.038179588 0.0024785849 0.10356661 0.028519737
000090 2b c5 52 bd 1d 4b 49 bd 21 c9 98 bc c5 14 16 bd
       -0.051457565 -0.0491439 -0.018650593 -0.0366409
0000a0 76 5f 52 bd 47 92 5a 3d 07 2f a2 3c 94 ec ec bc
       -0.05136057 0.053362157 0.019797815 -0.028921403
0000b0 85 d7 9f 3d 97 b5 00 bd db d3 79 bd d6 46 c3 bb
       0.07804779 -0.031423178 -0.060993057 -0.005959372
0000c0 5c 31 27 3d d5 76 1a 3c bd c6 61 3d ed ae 16 bb
       0.040818557 0.009427746 0.055121172 -0.0022992447
0000d0 0b d1 8c 3b 37 0e 21 bd 4f c0 d8 3b 2c 9d 7b 3d
       0.004297381 -0.039320197 0.006614722 0.061429188
0000e0 31 96 0c 3d f9 b0 c9 3c 80 4d 1c bd ed f2 c7 bc
       0.03432292 0.02462052 -0.038159847 -0.024407828
0000f0 04 d2 a0 3c 0a 36 71 3c fb a7 68 3b 91 4c a6 b8
       0.019631393 0.014722357 0.0035500515 -7.9297584e-05
000100 2c 0a 64 3c f4 db 35 bd 23 59 81 bc f2 5d 4c 3c
       0.013918441 -0.044399217 -0.015789574 0.01247357
000110 09 15 28 3d 05 03 40 3d 8f 81 2d bc 8c 29 23 bd
       0.041035686 0.04687788 -0.010589971 -0.039834544
000120 8a 7e e2 bc c0 a9 d7 3c f0 3b 75 bd c1 d2 7d 3a
       -0.02764823 0.02632606 -0.059871614 0.0009682589
000130 7f d4 0d 3b a9 56 09 3d 06 93 db 3c ba ad 30 bb
       0.002164155 0.03352991 0.026803505 -0.0026959018
000140 24 ab a5 bc a4 de 62 3c 8a 6a 39 3d cc 62 cb 3c
       -0.020223208 0.013847027 0.04526762 0.024827383
000150 97 78 ab 3c fc 92 6e 3d ce 63 9a 3c 39 d9 69 3d
       0.020931525 0.058245644 0.018846419 0.057091925
000160 23 70 5e 3d 56 0b ad 3c 33 da a9 bb 71 4e a8 3c
       0.05430616 0.02112357 -0.005183482 0.020545216
000170 5b d1 99 3c 33 d8 3c bd 9d f2 f6 b9 82 9f b1 3b
       0.018776586 -0.04610462 -0.00047101537 0.005420626
000180 ec 00 d9 bc 90 8a 29 bd 6d 98 51 3c 7b da 06 bc
       -0.026489697 -0.04139191 0.012792689 -0.008230801
000190 48 f4 50 3c 93 a5 c2 3c 1c b5 84 3d 34 40 d5 3c
       0.012753554 0.023760593 0.06479856 0.026031591
0001a0 6c 0c 42 3d 76 63 8a 3d ef bd b0 3d 20 03 72 3d
       0.047375128 0.06757252 0.08629977 0.05908501
0001b0 07 ab 38 3d c8 ef 9b 3b 0b b6 0e bd 29 69 94 3d
       0.04508498 0.0047588088 -0.03484158 0.0724662
0001c0 94 b5 53 3d e8 a7 30 3c 75 3f 1f 3d 3c 34 ef 3c
       0.05168684 0.0107822195 0.038878877 0.029199712
0001d0 6b 88 30 3c d4 67 b0 bd dc d4 de bc ac bc 32 bd
       0.010774712 -0.08613554 -0.027201109 -0.043636963
0001e0 7a 5f ab bc 49 b8 64 3a 04 f3 4b bd 05 c6 e4 bc
       -0.02091955 0.00087249704 -0.049792305 -0.027926454
0001f0 aa de 3c 3d 53 e7 cf 3c 56 58 81 bc f8 98 98 3b
       0.046110786 0.025378859 -0.015789192 0.004656907
000200 12 ac 22 3c 11 90 24 3c 54 64 87 3c 52 19 08 bb
       0.00992872 0.010044114 0.016527332 -0.0020767045
000210 78 45 e1 ba 32 b0 8a 3d c5 ca 4f bd b1 99 af 3d
       -0.0017186841 0.06771888 -0.050730485 0.08574236
000220 ce 86 33 3d ff 63 2b 3d 4a 94 ab 3d 09 f0 2f 3d
       0.04382973 0.04184341 0.08377893 0.042953525
000230 34 40 09 3d 26 85 8b 3c af c7 4d 3d 68 c4 0d bc
       0.033508494 0.017031264 0.05023926 -0.008652784
000240 66 c9 34 bd 31 90 6d 3c 52 07 74 3d 9a db e1 3a
       -0.04413738 0.01449971 0.059577294 0.0017231584
000250 8c 7d e8 b8 15 77 fa 3c 1f 1d ed 3c 7e 6f e0 bc
       -0.00011086007 0.03057436 0.02894455 -0.027396914
000260 c2 5e db 3c f4 e5 79 3d 3f 20 6f 3a a7 22 23 3d
       0.026778582 0.061010316 0.00091219315 0.03982797
000270 09 f0 6c 3d 27 9c 42 bd d9 e8 00 bd a9 23 88 bc
       0.057846103 -0.0475122 -0.03147206 -0.016618567
000280 ed 5f 18 3d d9 1d 5f bd 24 c9 67 bd 24 87 24 3d
       0.037200857 -0.054471824 -0.056588307 0.040167943
000290 d8 d6 80 3d 43 34 99 bc 03 c6 0c bd f8 87 b9 bc
       0.06290978 -0.018701678 -0.034368526 -0.022647843
0002a0 9c 73 5f 3d 22 24 ad 3c 7f 2e ac 3b fe 68 10 bc
       0.054553613 0.021135394 0.005254566 -0.008814095
0002b0 4f 91 de bb b9 0d 8c 3d f1 a4 c4 3a b2 e4 d0 3c
       -0.0067922245 0.06838555 0.001500277 0.025499675
0002c0 d8 55 32 3d ad 78 09 3d 1e 03 21 3d 27 cd 05 3d
       0.0435389 0.03356235 0.039309613 0.03266635
0002d0 f7 9f e1 ba 8f cd 23 bd 4f 2b 89 bd 2e fd 3a bd
       -0.0017213811 -0.039990958 -0.066977136 -0.045651607
0002e0 45 b6 2b bc 54 be 3a bd 10 52 a0 3c 3a c6 01 3d
       -0.010480468 -0.045591667 0.01957038 0.031683184
0002f0 ca 58 25 3c 5c af 1d 3c 0a 16 cd 3c 61 0c ad 3c
       0.01009197 0.009624328 0.025034923 0.021124067
000300 e7 3a 9c bc ad af 8f bc 92 8b 43 3d b4 af cf 3c
       -0.019071056 -0.017539823 0.047740526 0.025352336
000310 34 a0 81 3c 00 6e ba 3d cb e6 d2 bb 60 59 57 3d
       0.015823461 0.09103012 -0.006436204 0.05257547
000320 c9 d8 43 3d a3 d6 58 bc 3f 3c b1 3c a5 52 b1 3d
       0.047814164 -0.013234767 0.021635173 0.08658341
000330 e0 9d 17 3c fe a0 8d bb af 71 9b 3d 9e 9e c2 3c
       0.009253949 -0.0043221703 0.07590043 0.023757275
000340 3a a4 64 bc 6a ec 96 3d 28 dc ba 3b 41 95 b9 3c
       -0.01395517 0.07369311 0.005702514 0.022654178
000350 82 e1 30 bc 92 51 b5 3c 8c f7 e6 3c ee 73 00 bd
       -0.010795953 0.022133622 0.028194211 -0.03136056
000360 aa a1 85 3d b2 cc 3c 3d 51 70 e2 3a bc 2f 1a 3d
       0.065249756 0.04609365 0.0017275905 0.03764318
000370 2f a5 87 3d be 71 65 bb b8 22 8b 3c 08 9e 8b 3d
       0.06623303 -0.0035010423 0.016984329 0.068172514
000380 c6 3b 82 3d 54 40 25 3d 38 d7 53 3d a1 47 4c 3d
       0.06359057 0.04034455 0.05171892 0.049873
000390 36 0d 99 3d d4 c5 0c 3c 54 69 4a 3d e2 5f 8b 3c
       0.07473223 0.008592088 0.049416855 0.017013494
0003a0 2e de ed bc ed 1c c2 3c 0c d1 01 3d f2 4b 6e bc
       -0.029036608 0.023695434 0.031693503 -0.014544474
0003b0 bc fc c4 3a be bb 9e 3d d2 5b 86 3d a4 1a 5a bc
       0.0015028934 0.07750653 0.06560482 -0.013312016
0003c0 f8 60 39 bb f3 44 53 3d e6 cf ab 3d 85 21 be 3d
       -0.0028286558 0.051579427 0.08389263 0.09283737
0003d0 fd 85 b9 bc 1f 3d d1 bc 37 6f c4 3d 18 42 9d 39
       -0.022646898 -0.02554184 0.09591525 0.00029994617
0003e0 29 22 52 3c c8 dc 87 3d 2d 79 18 bd 48 8c 49 3c
       0.012825527 0.066339076 -0.037224937 0.012301512
0003f0 7a 69 2b bd 98 ea 72 bc 61 31 a6 3c 87 d5 a3 3c
       -0.041848637 -0.014826439 0.020287218 0.019999279

features.2.bias f4 [32]
000000 bd 44 ff 3c ba 50 94 3c 0a 49 7a 3d 0a df 70 3d
       0.031160707 0.0181049 0.06110481 0.058806457
000010 b7 6b 4d 3d 8d 4a 05 3d d0 7a 75 bd 98 c6 01 bd
       0.050151553 0.0325418 -0.059931576 -0.031683534
000020 27 e2 59 3d e3 6c 98 bd 7e 2f d2 bb 98 f6 f6 3c
       0.05319419 -0.074426435 -0.006414353 0.030146882
000030 61 8f 5f bd 27 bf f8 3c 42 9c 1a bc ec d4 d5 bc
       -0.054580096 0.030364586 -0.009436669 -0.026102506
000040 21 5c f9 3c 3e 3b 85 3c 63 c8 7b bd 05 06 77 3d
       0.030439438 0.0162636 -0.0614704 0.060308475
000050 4c 15 28 bc a7 67 0a 3d 8b 9a 99 bb a5 12 c6 3d
       -0.010258984 0.033790257 -0.0046876124 0.09671525
000060 cb 8c 3d 3d fe 73 fc 3d 98 47 e0 3b 4f ca 6d bb
       0.04627685 0.12326811 0.006844472 -0.0036283915
000070 fb 78 9a 3d 3a 3c ae bb 6b 8b d2 3c 4f 43 ef 3c
       0.075426064 -0.005317238 0.025701245 0.0292069

features.5.weight f4 [64, 32, 3, 3]
000000 33 5e 4b 3d 3b d2 2c bd 2f 0b 79 3b 60 d3 28 3c
       0.049650382 -0.04219268 0.003800105 0.010304302
000010 07 c9 06 3d 0e e4 51 3d ca 48 c1 3d da e8 3b 3d
       0.03290656 0.05124288 0.094377115 0.04587636
000020 04 ce 32 3d dd c9 b2 bc 0b 05 53 3d 73 2c 1c bd
       0.043653503 -0.021824772 0.05151848 -0.038128328
000030 70 bf 8c 3d ae af 7f 3d ff 3a 9a 3c 17 cb 13 3d
       0.06872451 0.0624234 0.01882696 0.036082353
000040 02 e9 45 bc 9c fd 22 bd 2b 0a 84 bd 48 3d 8b bc
       -0.012079479 -0.039792642 -0.06447252 -0.016996995
000050 74 27 ff bc 3b e3 f9 bc 35 5a 60 3c 9f 73 32 3d
       -0.031146742 -0.03050386 0.013693382 0.043567296
000060 15 de 02 3a a9 10 a0 bc 4a 55 49 bc 89 3a 27 bd
       0.0004992199 -0.019539194 -0.012288401 -0.040827308
000070 19 4f 29 bc bc 1b 37 bd 08 dc f4 bc d9 ad 58 3d
       -0.0103338 -0.044704184 -0.029890075 0.05290017
000080 d7 10 78 bd 33 77 5a 3d 5f b3 28 3d cd 12 f1 bc
       -0.060562935 0.053336333 0.041186687 -0.02942791
000090 76 cc 13 bd 2e 9e 75 bd 8e 6a 39 bd 5c 10 ed 3c
       -0.03608366 -0.059965305 -0.045267634 0.028938465
0000a0 da 39 3d 3d cb 06 ce bc 4e f3 97 3c 4b 0d 94 bc
       0.04619775 -0.025149724 0.018548634 -0.018072745
0000b0 53 60 9e 3b e5 ca 4f 3c 4e 6d 07 3c 1e a4 d6 3c
       0.00483326 0.012682651 0.008265806 0.026201304
0000c0 48 9e 7f bc e9 db 11 3c 98 6c 4c 3d 0c 35 92 3c
       -0.015601702 0.008902528 0.04990825 0.01784756
0000d0 1f fc 4c bc de 8f d1 3c ac cb 37 bd 29 94 27 bd
       -0.012511282 0.025581297 -0.04487197 -0.04091278
0000e0 c3 e0 5e 3b 1a 91 36 bd 62 c0 1c 3c 99 f2 a4 3d
       0.003400848 -0.044571973 0.009567352 0.08054084
0000f0 72 76 1b 3b be a5 4d 3d 0c e8 35 3c de b7 41 3d
       0.0023721722 0.050206892 0.011102688 0.04729449
000100 9c d4 62 3d a9 72 e0 bb 3c ed 6a bd 1a f7 7e bb
       0.05537854 -0.006849606 -0.05735515 -0.0038904608
000110 c0 99 b4 bc f9 03 2d 3d a4 2e e1 bb 93 af 75 3d
       -0.02204597 0.042240117 -0.006872015 0.059981894
000120 be ec 24 3d ab ac 81 3c 8b 0e 27 bc dd 70 24 bd
       0.040264837 0.015829405 -0.010196338 -0.040146697
000130 9a f0 d7 3c 38 a6 90 bc 57 69 52 3d fe d7 21 3d
       0.026359845 -0.017657384 0.05136999 0.039512627
000140 5e 30 7f bd 3c 6d 24 3c c9 82 1e 3d 13 bd 4a 3d
       -0.062301986 0.010035809 0.038698945 0.04949672
000150 73 8a ad 3d 21 21 c1 3c d1 19 49 3d d6 82 3e 3d
       0.08473673 0.023575367 0.049096886 0.046511494
000160 40 02 59 3d 07 4e 21 3d 13 93 45 bd ff 08 e4 bc
       0.05298066 0.039381053 -0.048235964 -0.02783632
000170 74 8e 72 3d 2b bb b7 bc cc c4 6a 3d 5b 1e 6d 3c
       0.059217885 -0.022428116 0.057316586 0.014472569
000180 b8 80 37 3d 8a 05 3c 3d 33 fa 62 3d 7a cf 11 3d
       0.04480049 0.04590372 0.05541439 0.035598256
000190 da ba f5 3c 70 5d 10 3c 95 44 df bc 81 21 f7 39
       0.029996324 0.00881134 -0.027254382 0.00047136474
0001a0 9e d4 ad bc 8e a2 3a bd 18 03 84 3d 99 74 0c bd
       -0.021219548 -0.04556518 0.064459026 -0.034290884
0001b0 4c d1 40 3d bb 0e 44 bc ca 7c ac bb 46 08 01 bd
       0.0470746 -0.011966403 -0.0052638995 -0.03150203
0001c0 4d 1b 48 3d 1f 85 9d bc 42 2c 96 3a 30 03 8f bc
       0.04885416 -0.019228516 0.0011457282 -0.017457575
0001d0 1a 50 29 3d 97 69 3d 3c 36 c3 d4 bc a3 5d 18 bc
       0.041336156 0.011560819 -0.02597199 -0.0092996685
0001e0 ed 06 18 bd 94 ff 95 3d 33 cc 1b 3d c1 07 c7 3d
       -0.03711598 0.07324138 0.038036536 0.09718276
0001f0 fa 80 7c 3d e4 1f 18 bd d6 85 4f 3d cc 09 ae 3d
       0.06164644 -0.03713979 0.050664745 0.08497962
000200 04 d0 fe bc 20 7e 00 bd 29 5d 82 3d ab a2 b8 3d
       -0.031105049 -0.031370282 0.06365425 0.090154015
000210 d8 a1 ae b9 ca a7 93 3d f1 91 6d 3d 27 99 b3 bc
       -0.0003330845 0.072097376 0.05800051 -0.021923615
000220 b6 c4 5b 3c 1f cf 18 3d 5e e4 ae bc f7 c1 4e 3d
       0.013413599 0.0373069 -0.021349128 0.050477948
000230 de 92 0e bc 44 51 20 bd 38 49 dc bc 9a 5b 07 3d
       -0.008702008 -0.03914 -0.026890382 0.033046342
000240 3a 61 61 3c 4f 8a f7 bc e7 39 3b 3c c6 db d8 bc
       0.013756091 -0.030217318 0.011427379 -0.026471984
000250 c9 06 72 3d e4 f4 7a 3d f1 75 46 bd 7e f0 80 3d
       0.059088502 0.061268702 -0.04845232 0.0629587
000260 9d 1f 18 3d f2 65 b7 bc 3f 3a 37 3d 97 53 b8 3c
       0.037139524 -0.022387479 0.044733282 0.022500796
000270 83 af 41 3d 1c 22 46 3d 65 72 e1 bc 99 98 15 38
       0.04728652 0.048372373 -0.027520368 3.5666486e-05
000280 e7 72 81 3d 82 73 2b bd ba d9 21 bd 9f 78 50 bd
       0.06320744 -0.041858204 -0.03951428 -0.050896283
000290 aa 17 ab 3c b1 f6 2f 3d 4d 14 2e 3d 1a 2f 17 3c
       0.020885307 0.042959873 0.04249983 0.0092275385
0002a0 85 a3 d2 3c 4c 3e 84 bb a4 83 e5 3c 6d 0c 31 3d
       0.025712738 -0.0040357467 0.028016873 0.04322474
0002b0 ff f8 4d 39 2b 93 1d 3d 06 94 a5 bc bc 62 bb ba
       0.00019643082 0.03847043 -0.020212185 -0.0014296393
0002c0 b8 bc 1b 3d 8b a3 c6 3c 7d 81 8e bc 8e 27 f5 bc
       0.038021773 0.024247905 -0.01739573 -0.029926088
0002d0 74 c5 9d bd 18 91 36 3d ad 19 2b bd 3d 91 93 bd
       -0.07703677 0.044571966 -0.041772533 -0.072054364
0002e0 3a e1 1f bd 24 b0 b4 bc cc cb 81 3c 87 81 05 3d
       -0.039033152 -0.022056647 0.015844248 0.03259423
0002f0 f0 08 c0 bb 10 a0 73 bd 9d 91 84 3d 32 d2 92 3d
       -0.0058604404 -0.05947882 0.06473086 0.07168998
000300 4c 5e c4 3c ff d0 3e 3d a8 17 56 3d ea ac 04 bd
       0.023970746 0.046586033 0.052268654 -0.032391466
000310 fd 82 ce 3a 16 0d 51 bc 66 5f 12 bc 60 f5 88 bc
       0.001575559 -0.012759468 -0.008933878 -0.016718566
000320 d2 2f 43 3a ce ba f5 bc 1f 05 ab bc 6f a5 25 3c
       0.00074457854 -0.029996302 -0.020876465 0.010110243
000330 21 f5 39 3d c3 45 0f 3d e6 10 11 3d 88 0a 3d bd
       0.04539979 0.03497864 0.035416506 -0.04615262
000340 7d 5c 10 3d 14 0c 00 3d 08 2e de 3c 98 81 03 bd
       0.035244454 0.03126152 0.027121559 -0.032106012
000350 8f f8 a6 bc 46 49 8b 3c 4d 0e 4c bd b7 72 ff bb
       -0.020382194 0.017002713 -0.049818326 -0.0077956575
000360 8b 88 bd bc b3 42 2e bc d6 c8 5d 3d d7 7a 36 3d
       -0.023136398 -0.0106360195 0.05414661 0.044550743
000370 7e ca 19 3c 68 33 22 3c 81 73 b7 3c f3 55 30 bc
       0.009386657 0.0098999515 0.022393944 -0.010762679
000380 bb 61 98 3d 02 b6 9e 3c 73 71 64 bd 5c 39 2a bd
       0.074405156 0.019373897 -0.055772256 -0.04155861
000390 df e8 54 bd b6 e8 28 3d 84 66 5f 3b 27 c7 97 3c
       -0.051979896 0.041237555 0.0034088204 0.01852758
0003a0 5a 98 56 bd 14 10 5a bd c4 86 77 bd 59 17 0f bd
       -0.052391388 -0.05323799 -0.060431257 -0.034934375
0003b0 22 67 2b 3d df 60 22 3d 7f 5a 36 bd 48 ef fe bc
       0.041846402 0.039643165 -0.044519898 -0.031119958
0003c0 bf 82 9a 3c ca eb 8b 3d e7 76 77 bc 77 26 27 3d
       0.018861173 0.068320826 -0.015104032 0.040808167
0003d0 6e 7d 6e bc 50 ec 3a 3c af ed d6 bc b3 0b 0b 3d
       -0.014556272 0.01140888 -0.026236383 0.033946704
0003e0 5a 8f 97 bc d5 96 40 bd d0 f9 02 3d 22 12 f9 bc
       -0.018500973 -0.047018845 0.03197652 -0.030404154
0003f0 4f ad 1f bd 7f 35 20 3d 2c 4e e5 3c 11 6a 1f 3d
       -0.03898364 0.039113518 0.027991377 0.038919512

features.5.bias f4 [64]
000000 06 60 ab 3a 7b c3 57 bd af 41 27 bd 16 94 ff 3c
       0.0013074882 -0.05267666 -0.040834125 0.031198543
000010 17 74 b8 3d fa 28 d5 3c 39 df c8 bc df cb 52 3d
       0.090065174 0.026020516 -0.024520503 0.051463958
000020 9d 4f 15 8f a7 f0 de 3c 51 46 79 3c 25 2d ef 3c
       -7.3616e-30 0.027214361 0.015214519 0.029196331
000030 1f 5e d1 3c 7e 10 0f bd a2 31 36 bd 9f ec bb 3d
       0.025557576 -0.034927838 -0.044480927 0.09175991
000040 c8 48 33 3d 88 e0 11 bd 6e c6 a3 bc c6 0f 80 3b
       0.04377058 -0.03561452 -0.01999208 0.0039081303
000050 c1 17 04 3d 1d 45 bb bd eb 9d 9d bd 52 ee 33 3d
       0.032249216 -0.09144042 -0.07696136 0.04392845
000060 68 d6 b2 bc 55 ad 0b bb 11 32 16 bd 01 ea 4d bd
       -0.021830752 -0.002131303 -0.03666884 -0.05027199
000070 fd 60 10 bd a6 e7 2a bd a7 1c 80 bd ed b0 65 3d
       -0.035248745 -0.041724823 -0.06255465 0.056076933
000080 7e 0b 85 bc c5 85 ec 3d 82 70 84 bd f9 3f 52 bd
       -0.016240831 0.11548952 -0.06466772 -0.05133054
000090 97 e6 53 3b e8 5a 00 80 fb 1a 9b 3d 70 dd 2c bc
       0.0032333487 -3.2611e-41 0.075735055 -0.010550842
0000a0 91 a3 92 bb b3 35 90 bd 88 1f 8e 3b 96 2d b9 3c
       -0.004475065 -0.07041492 0.004337255 0.022604745
0000b0 8c 13 01 3d 02 5e 52 bd 3f 7b 5a bd eb f3 60 bd
       0.031512782 -0.051359184 -0.053340193 -0.05492012
0000c0 b8 92 82 bd d9 e3 c9 3d e9 f8 ba 3c 10 87 e1 3c
       -0.06375641 0.098579116 0.022823768 0.027530223
0000d0 3e 57 1b 3d b8 11 87 bd 6c d5 2e 3d f1 a1 ed 3c
       0.037924998 -0.065951765 0.042684004 0.029007884
0000e0 79 57 05 00 73 d8 e0 3d 9c db 0e 3d 4f f7 73 3c
       4.90557e-40 0.109787844 0.034877405 0.014890506
0000f0 7c de a1 3d 35 13 23 bc d7 23 95 3d 58 f2 b7 bc
       0.07903764 -0.00995331 0.072822265 -0.022454426

features.7.weight f4 [64, 64, 3, 3]
000000 e8 8f 07 3d 5d e0 6b 3a 09 87 ac 3c b6 06 c2 3c
       0.033096224 0.00089979713 0.021060484 0.02368484
000010 18 7f e4 3c 64 00 86 3c 51 72 a0 3b b2 ae 98 bb
       0.027892634 0.016357608 0.00489644 -0.004659497
000020 68 1d 4a 3b 00 cb 90 bc da 28 69 bc 6c 1e 87 3d
       0.0030840281 -0.017674923 -0.014230931 0.065975994
000030 39 5a c4 bb 12 5d c2 bc 11 7f a5 3c 4d f9 76 3b
       -0.0059922007 -0.02372602 0.020202192 0.0037685216
000040 c6 77 4b 3c b1 fe 99 3c 47 37 9b bc e7 19 23 bd
       0.012418693 0.018798204 -0.018947257 -0.039819624
000050 bb c2 8c bc a9 7b 3a bd d8 23 93 bc e4 d9 cf 3c
       -0.017182698 -0.045528088 -0.017961428 0.025372453
000060 af df 98 3c 7a a4 31 bd 60 9a a1 3c 9f 1e 5b 3d
       0.018661348 -0.043369748 0.019726932 0.053496
000070 10 a3 b0 3d 65 68 84 bc 47 fa cf bb d7 ba 25 3d
       0.08624852 -0.01616306 -0.006346974 0.040461387
000080 e7 37 30 bd a2 7f c0 bc a7 c2 41 3d a9 70 d2 3c
       -0.043022063 -0.02349836 0.047304776 0.025688486
000090 57 24 28 bb 76 65 23 bc 1c 67 95 3d 15 fc 73 3c
       -0.0025656426 -0.009972921 0.07295057 0.014891644
0000a0 db 8c 14 3d 1f 8b b4 3c ec 19 47 3d 5d d3 50 3d
       0.036267143 0.022038994 0.048608705 0.05098282
0000b0 fc 43 05 3d f1 49 08 3d 64 6f d0 3c e9 39 cd 3c
       0.032535538 0.03327364 0.02544374 0.025052028
0000c0 7d 5e 87 3b 5b f3 52 bc a1 a9 d7 3b 29 c4 d1 3a
       0.004131137 -0.012875403 0.0065815006 0.0016003895
0000d0 6d 40 a8 3c 3e 58 98 bc ca bd bf 3b a0 71 5c 3d
       0.020538533 -0.018596765 0.005851482 0.0538193
0000e0 ee cd 72 3c 09 b3 31 bd c3 60 c8 3b b9 cb bf 3c
       0.014819605 -0.04338363 0.0061150505 0.023412572
0000f0 1a 9a 7b bc 0c b3 d7 3b b4 92 8d bc 2c 57 44 bc
       -0.015356565 0.0065826233 -0.017281868 -0.011983674
000100 33 09 a1 bc f7 cd 44 3d 5f 69 4f ba 4d 8e 5c 3c
       -0.019657707 0.048047986 -0.0007912125 0.0134616615
000110 b1 31 47 3c 31 60 b0 3c 79 33 1e 3d 40 c7 81 3d
       0.012157843 0.021530243 0.038623307 0.06336832
000120 39 57 05 00 8b 57 05 80 b6 89 8f 85 31 57 05 00
       4.90467e-40 -4.90582e-40 -1.3498242e-35 4.90456e-40
000130 80 57 05 80 cc 53 05 80 5a 57 05 80 62 57 05 80
       -4.90567e-40 -4.89238e-40 -4.90513e-40 -4.90525e-40
000140 84 57 05 80 ff 18 c3 3c fb 7f 8a bc 1a 6d c2 bc
       -4.90572e-40 0.02381563 -0.016906729 -0.023733664
000150 21 00 c8 3b ae 1f 20 bb 19 97 3f bc 91 9a 43 3d
       0.006103531 -0.0024432945 -0.011693739 0.047754828
000160 b2 ba ec bc 1a 53 02 3d 5d 19 87 bc 56 06 65 3d
       -0.028897617 0.031817533 -0.016491586 0.055914246
000170 5e df 12 3d db 58 de 3c 93 e0 18 3d 9c 8e f4 3c
       0.03585755 0.027141979 0.037323546 0.029853158
000180 5f 2b ad bc 46 e2 9b 3c ec 1f 2d bc 1a f1 dd bc
       -0.021138845 0.019028794 -0.010566693 -0.027092505
000190 4e 70 08 bd 90 da 23 3d 16 a0 2d 3d 1b cc 17 3d
       -0.033310227 0.04000336 0.042388998 0.037059885
0001a0 a5 00 25 3d 82 99 f0 bc 33 d9 21 3d b7 65 c0 bc
       0.040283818 -0.029370073 0.039513778 -0.023486001
0001b0 0a 5b 47 3d 16 0c 63 3d 84 be 10 bc 11 9a 6c 3c
       0.048670806 0.055431448 -0.008834485 0.014441029
0001c0 fb 32 2c 3c 8d d0 41 3d f7 68 63 3d e7 04 18 3a
       0.010510202 0.04731803 0.055520024 0.00057990703
0001d0 ef fa bf 3b be 45 43 3d 88 66 88 bb e2 2f b3 3c
       0.005858771 0.047673933 -0.0041626133 0.021873418
0001e0 f3 71 05 3d d6 c3 eb bc 4a 72 7c 3c 0a 5f 53 3b
       0.032579374 -0.028779905 0.015408108 0.0032252693
0001f0 fd 7f e4 3b 9a 0e 91 3c af 05 20 bd b0 78 f7 bb
       0.006973265 0.017707158 -0.03906792 -0.007552229
000200 99 b7 02 3d 68 ef 13 bd 6e 5f fe 3c 74 b6 5b 3d
       0.031913374 -0.036116987 0.031051364 0.053640798
000210 7d e9 cc bb 6e 3c 0b 3c 39 1f 6f bc fd cc ea bc
       -0.00625342 0.008498294 -0.014594846 -0.0286622
000220 dd 04 1c 3c b0 0b 39 3d 13 dc 02 bd f5 e1 24 bb
       0.009522644 0.04517716 -0.03194816 -0.0025159095
000230 cb 63 94 3c ca ab a2 bc e5 43 de 3c 4c 63 8d 3d
       0.018113991 -0.019857306 0.027131984 0.06903705
000240 c3 cf b0 3b d6 8e a1 3c 8d ab a4 3b 22 6e 1f 3d
       0.005395861 0.01972143 0.0050253333 0.03892339
000250 98 49 dc 3c 33 53 d2 3c 3c 6a 47 3d 9a fa 84 3c
       0.026890561 0.025674438 0.048685297 0.016232777
000260 dd 63 f5 3c ce 30 e6 bc ef 19 89 bc 35 5b e1 bb
       0.029954845 -0.028099444 -0.016735999 -0.006877328
000270 00 e6 82 bc f6 c5 e0 bc 9d cd 22 bd 7c 52 02 bd
       -0.015978813 -0.027438145 -0.03974687 -0.031816944
000280 58 98 22 bd 1c 32 39 bd 60 68 de 3b 9a 60 1e bc
       -0.039696068 -0.045213804 0.006787345 -0.009666586
000290 59 f8 a7 3c b4 10 9a 3c e4 87 18 bd 60 bb fa 3b
       0.020504164 0.018806793 -0.03723897 0.0076517314
0002a0 d2 f1 d1 bc 4d fa c8 3b be 2f c1 bb 6c 35 59 bb
       -0.025628004 0.006133354 -0.005895584 -0.0033143414
0002b0 bd 46 69 bb f1 c3 8a 39 c0 cb 1a ba 64 9c a6 b9
       -0.0035595142 0.000264674 -0.0005904995 -0.00031778507
0002c0 98 6d 16 b8 39 e8 af 38 e9 80 15 3b a3 56 f6 3a
       -3.5864854e-05 8.387905e-05 0.0022812432 0.001879413
0002d0 8d ce b5 bc d4 9b fe 3a 6a db f1 bc 8d 7b a0 bc
       -0.022193218 0.0019425103 -0.02952357 -0.019590164
0002e0 2c e0 53 bc cf 16 51 bd 2f ff dc bb 7c a9 56 3d
       -0.012931865 -0.051047143 -0.0067442874 0.052407727
0002f0 87 08 1c bd 46 88 69 3d 7d 65 c3 3b 45 88 c4 3b
       -0.03809407 0.057014726 0.005963026 0.00599769
000300 a5 8b c4 bc 44 ba 00 bd 4c 22 55 bd 42 79 52 3d
       -0.023992369 -0.031427637 -0.05203466 0.05138517
000310 f8 b5 66 bc a7 75 e1 bb 3d b0 e5 3c e1 9f c3 bc
       -0.014081471 -0.0068804803 0.028038139 -0.023879947
000320 f3 18 46 bd ac 58 33 bd 33 b6 95 3b 10 75 e6 bb
       -0.048363637 -0.043785736 0.004568839 -0.007032998
000330 35 a2 af ba e4 da d5 bc ed c4 0f 3c 69 6a 29 bd
       -0.0013399782 -0.026105352 0.008774978 -0.041361246
000340 e4 51 df 3c 9f f9 83 ba 04 2e b6 bc b3 c6 fc bb
       0.027260728 -0.00100689 -0.022238739 -0.0077141165
000350 72 00 1c 3d 65 89 2f bd 13 18 cd bc ef 44 83 3c
       0.038086362 -0.04285564 -0.025035894 0.016024081
000360 3d dd c9 3c 02 e3 61 3d 8d 64 05 bc 2f a6 bc bc
       0.024641627 0.055148132 -0.008141649 -0.023028461
000370 85 42 19 3d 7d 11 53 3d 43 d4 cb 3c 40 04 c9 3c
       0.037416954 0.05153035 0.024881488 0.02453816
000380 68 66 86 3b d5 39 7c 3c b5 b4 33 3d 2f 69 57 bb
       0.0041015632 0.015394648 0.043873508 -0.003286909
000390 de 68 c1 bc 99 b9 79 3d 8b ff b0 3a a6 64 df 3c
       -0.023609575 0.060968015 0.0013503892 0.027269673
0003a0 09 fe 31 3d 5c 57 1c 3d 07 19 1d 3d e0 be 03 bc
       0.043455157 0.03816925 0.038353946 -0.008041114
0003b0 d3 75 5d 3d b4 4d 9f bc 43 05 1c bc 46 98 18 3b
       0.054067444 -0.019446231 -0.009522739 0.0023284121
0003c0 99 be c4 bc 8a b1 82 3b 93 95 3b 3c a6 bb 37 bc
       -0.024016665 0.0039884495 0.0114492355 -0.0112141725
0003d0 90 6b 31 3d ce c2 92 bd ae ce 11 bc da 6e 17 3d
       0.04331547 -0.07166062 -0.008899374 0.03697095
0003e0 db c8 45 bd 3b 68 0b bd 39 ff f6 3c 9d 6e da bc
       -0.048287254 -0.03403495 0.030150997 -0.026664073
0003f0 ac 66 cd 3b 1b a1 30 bc d3 51 4e 3c 9b fe ef 3c
       0.006268343 -0.010780598 0.012592751 0.02929621

features.7.bias f4 [64]
000000 d7 cd 7e 3d 8e dc 0b bd 4a 9a 9d 3b 08 b5 28 bc
       0.062208023 -0.034145884 0.0048096525 -0.010297067
000010 7d 07 8e 9f 90 88 2a 9c a0 74 34 bc 5b 28 07 bd
       -6.015173e-20 -5.6424785e-22 -0.011014134 -0.03299747
000020 c4 ad b3 3d af 4e 34 a6 73 98 55 3c e3 44 6b bd
       0.087733775 -6.255668e-16 0.013036835 -0.057438742
000030 58 d9 e6 3c 2e 08 45 bc 43 57 05 00 35 91 66 3c
       0.02817981 -0.012025876 4.90481e-40 0.014072706
000040 1d 15 01 87 16 90 ff 3c e0 60 66 80 1d 59 05 00
       -9.711086e-35 0.031196635 -9.401973e-39 4.91145e-40
000050 b6 26 8d 3c dd 76 d5 b3 ca fb b2 3d 78 b5 04 80
       0.017230373 -9.9402065e-08 0.08739431 -4.32441e-40
000060 8a ec bd 3a e4 3e 01 bd 7d 7d 5e bc 11 13 74 bc
       0.001449005 -0.031554118 -0.013579723 -0.014897124
000070 47 e8 2d bb 6b a4 89 3c b7 59 05 00 4e 5a 05 00
       -0.0026536153 0.016802033 4.91361e-40 4.91573e-40
000080 4b 13 26 3d 15 03 0b 3d 51 07 45 bd f6 46 e0 3c
       0.040545743 0.033938486 -0.04810268 0.027377587
000090 83 57 05 00 a8 b6 91 bc ec 00 de 3c b2 68 89 bd
       4.90571e-40 -0.017787293 0.027100049 -0.06709422
0000a0 61 b2 36 3d 69 60 28 3a b0 d3 20 bd b7 e2 45 bc
       0.04460371 0.00064230576 -0.03926438 -0.012077979
0000b0 07 52 8c 37 eb ba 2f bc bf 42 ee bb 04 72 a9 bc
       1.6727497e-05 -0.010725717 -0.0072711403 -0.02068425
0000c0 21 b6 82 ab f9 7c d1 a7 fc 80 88 ba a1 33 31 82
       -9.287606e-13 -5.814465e-15 -0.0010414417 -1.3018723e-37
0000d0 7e b7 67 bc 31 72 23 3c 78 b2 00 80 e0 ac bb a2
       -0.014142869 0.009975956 -6.4023e-41 -5.086949e-18
0000e0 8c 12 33 80 d4 f5 1f 3d 1b 92 a1 bc e7 90 01 3d
       -4.690264e-39 0.0390528 -0.019722989 0.03163233
0000f0 6a 07 31 9b 7c 7e d2 3c d0 ca 00 00 21 39 7a bd
       -1.4643492e-22 0.025695078 7.2755e-41 -0.06108964

features.10.weight f4 [64, 64, 1, 1]
000000 a9 97 64 bc 53 6d 08 bb 48 c5 e3 b8 bb 0f 83 b9
       -0.013952174 -0.0020817115 -0.0001086095 -0.00024997987
000010 2a 61 05 80 e4 5a 05 80 f8 66 1c bd b6 a3 c4 b9
       -4.94033e-40 -4.91783e-40 -0.038184136 -0.00037506007
000020 6a e3 4e bc 1b 5d 05 80 58 c2 c0 b9 5a b6 9c ba
       -0.012627462 -4.92577e-40 -0.0003676589 -0.00119562
000030 ed 92 c5 bb 49 0b 56 b9 aa 59 05 80 0a 4b df b9
       -0.006029478 -0.00020412834 -4.91343e-40 -0.00042589783
000040 d6 5c 05 80 85 c1 cc b9 b8 5c 05 80 4e 58 05 80
       -4.92481e-40 -0.00039054095 -4.92439e-40 -4.90855e-40
000050 59 3a 24 b9 cd 5a 05 80 71 83 8d 3b a2 59 05 00
       -0.00015661995 -4.9175e-40 0.0043186476 4.91332e-40
000060 be a5 06 00 c1 a1 21 39 4a 1f ca b9 b5 cd e3 bb
       6.1047e-40 0.00015414415 -0.00038551755 -0.0069520124
000070 72 df 1c 3c 88 57 05 00 7d 58 05 00 31 5d 05 00
       0.009574758 4.90578e-40 4.90921e-40 4.92608e-40
000080 b2 e9 03 39 a0 92 8e bb 03 25 cc b9 66 27 be bb
       0.00012580192 -0.004350975 -0.00038937488 -0.0058030365
000090 c0 5e 05 00 23 a2 07 3d a9 8d b7 3a c0 78 89 37
       4.93167e-40 0.03311361 0.001400401 1.6387901e-05
0000a0 8d d6 c0 3c 00 84 a6 3b e4 b8 47 b9 36 5a 05 80
       0.023539806 0.0050816536 -0.00019046996 -4.91539e-40
0000b0 f7 cf bb 3b bc 97 d4 b9 07 2a 96 bb 82 8d 84 bb
       0.0057315785 -0.00040548842 -0.004582647 -0.0040451894
0000c0 dd 58 05 80 c8 60 05 80 d8 84 e2 ba 05 61 05 00
       -4.91056e-40 -4.93896e-40 -0.0017282022 4.93982e-40
0000d0 fb 36 49 ba bf 60 05 80 ac 61 05 00 79 61 05 00
       -0.0007675734 -4.93883e-40 4.94216e-40 4.94144e-40
0000e0 41 5c 05 00 b7 d5 af b9 4b bc bb ba 53 6a 30 bc
       4.92272e-40 -0.0003353783 -0.0014323083 -0.010767537
0000f0 e0 5b 05 80 51 53 c9 b9 cd 60 05 00 7c 60 a3 ba
       -4.92136e-40 -0.00038399783 4.93903e-40 -0.0012464668
000100 b8 b0 d9 bd c5 f2 71 3d f5 d9 f4 3d 88 e1 bb 3d
       -0.106294096 0.059069414 0.119556345 0.09173876
000110 e4 7b 45 a1 8e 13 a2 2b ba d0 de bd 59 34 be bd
       -6.6910164e-19 1.151622e-12 -0.10879655 -0.09287328
000120 15 6e d8 3d de db 08 ad 15 0f 3c 89 73 58 42 bd
       0.105678715 -7.779525e-12 -2.2636768e-33 -0.047447633
000130 78 51 f5 bc 43 c8 dc bc cc 5a 05 00 e0 5f d8 3d
       -0.029946074 -0.026950961 4.91749e-40 0.10565162
000140 6f 5f 05 00 fd a5 bd 3d 10 03 c6 00 72 57 05 00
       4.93413e-40 0.092601754 1.8184527e-38 4.90547e-40
000150 7d 94 be bd fe 74 5d b5 5d 61 be 3d 64 9b 04 00
       -0.09305666 -8.249916e-07 0.09295914 4.23086e-40
000160 f3 59 05 80 35 5c 8c 3d 13 63 03 bd 9a 43 ca 3d
       -4.91445e-40 0.068535246 -0.032076906 0.09876175
000170 81 ef c0 3d e7 79 03 bc 32 98 3c a0 e6 2b 08 03
       0.09420682 -0.008024669 -1.5974577e-19 4.00172e-37
000180 30 8f 39 bd b2 19 63 bd cc 4b 61 3c 49 7b 89 3d
       -0.04530257 -0.055444427 0.013750982 0.06712968
000190 1f aa ed 22 cb c8 c2 bd 4b 77 85 3d 25 97 cb 3d
       6.44191e-18 -0.095109545 0.06516894 0.09940938
0001a0 16 30 4c bd 4b ff c1 3d 47 e6 ef bb 8f 8c a8 bc
       -0.049850546 0.094725214 -0.0073211524 -0.020574836
0001b0 b5 7a a8 bc 40 b3 7c bd 88 e0 df 3c 03 e3 af bd
       -0.020566324 -0.061694384 0.027328745 -0.08588221
0001c0 e3 d2 85 a9 90 cd ed 30 16 63 96 3c 65 1f f8 03
       -5.9429695e-14 1.7302444e-09 0.018357795 1.4583338e-36
0001d0 39 fc fb 3c 05 13 b1 3c c4 41 0c 80 c9 42 36 2e
       0.030759918 0.021615515 -1.125618e-39 4.1441326e-11
0001e0 b4 c3 65 80 04 f5 bb bd 95 53 d4 3b 9d 6e ff 3c
       -9.34559e-39 -0.091775924 0.0064796903 0.031180674
0001f0 b0 45 90 ae a9 45 cb bd e8 72 04 00 ac cc d4 bd
       -6.560741e-11 -0.09925396 4.08563e-40 -0.103906006
000200 28 5b 12 3d 39 8e 6f bd cf b1 bb 3d c4 6f 90 3d
       0.035731465 -0.058485243 0.09164774 0.070525676
000210 90 49 c9 9f 45 98 96 2b e4 f9 92 bd 6b 6a fe 3d
       -8.524851e-20 1.0700404e-12 -0.07176569 0.12422641
000220 8c a9 64 3d 17 f0 82 ac 98 aa 2d bd 38 b3 94 bd
       0.055825755 -3.7214776e-12 -0.04239902 -0.07260746
000230 a3 93 c5 3d 54 da 8c bd 55 57 05 80 23 32 23 bd
       0.096473 -0.0687758 -4.90506e-40 -0.039842736
000240 8b 57 05 80 a2 6f ac 3c d0 53 0f 81 38 5a 05 80
       -4.90582e-40 0.021049324 -2.6325084e-38 -4.91542e-40
000250 98 41 d1 3b ed f0 cf 34 64 2f 79 3d c4 ed 02 80
       0.006385993 3.873205e-07 0.06083621 -2.68965e-40
000260 6e 59 05 00 58 c0 2d 3d 49 6c 3a 3d 38 42 ac bc
       4.91259e-40 0.04241976 0.045513425 -0.02102767
000270 5e 06 0a be 24 25 d0 bb ab aa 89 21 82 57 05 80
       -0.13478991 -0.0063520838 9.328657e-19 -4.9057e-40
000280 3e 90 66 bc df 17 9f bd 1c bd a5 3d ff 94 cd bd
       -0.014072476 -0.07768225 0.080927104 -0.100381844
000290 8b 41 2e a6 e5 7d f7 bd c1 62 33 bd 9d 0e cc 3d
       -6.0457204e-16 -0.12084559 -0.04379535 0.09963725
0002a0 06 4f ad bd 29 a7 bf 3d 7a ec 54 bb 92 0d 32 3c
       -0.08462338 0.09358055 -0.0032489584 0.010867493
0002b0 88 92 67 bd b1 9c 88 3d 82 3d fa 3d 21 ad 25 bc
       -0.056536227 0.066705115 0.12218763 -0.010112078
0002c0 9c 2e 8e 9b 5f 42 1f 31 07 9f 30 3c 65 67 3d 87
       -2.352205e-22 2.3175273e-09 0.010780103 -1.4249165e-34
0002d0 13 04 32 3d aa 5a ea 3a 08 e8 03 80 45 be 45 2c
       0.043460917 0.0017879803 -3.58744e-40 2.8101005e-12
0002e0 38 5f 18 00 64 b3 1f bc a7 02 ed bd b6 43 85 bd
       2.23821e-39 -0.00974736 -0.115727715 -0.065070555
0002f0 a0 a7 98 2d 31 f3 81 bd 44 57 05 00 ec 29 9b 3c
       1.735484e-11 -0.06345213 4.90482e-40 0.018940888
000300 70 28 51 3d 5e 3e 02 be df f5 c4 bc b5 5a 09 bb
       0.051063955 -0.12719104 -0.024043022 -0.0020958607
000310 26 4b a1 1f 04 05 78 27 16 27 c9 3d 2b 8c a5 3d
       6.8310475e-20 3.4419633e-15 0.09821908 0.080833755
000320 5a 62 71 3c 36 3d be ad 4c 58 05 00 6b 5b 08 3c
       0.0147329215 -2.1627682e-11 4.90852e-40 0.008322577
000330 bc 16 55 3c 63 ac 64 3d 3e 57 05 00 bc 52 ff 3d
       0.013005909 0.055828463 4.90474e-40 0.12466952
000340 79 57 05 80 10 d6 b6 bc fa ff 69 81 6c 57 05 00
       -4.90557e-40 -0.02231887 -4.2978995e-38 4.90539e-40
000350 8b 52 11 be c8 89 80 b5 ea f9 83 3d 34 71 04 00
       -0.14191644 -9.576843e-07 0.06444152 4.07952e-40
000360 84 58 05 00 ec ea 58 3d 97 b1 79 bc 5f ee ac bd
       4.90931e-40 0.052958414 -0.015240095 -0.08443903
000370 01 d4 b5 bd b5 55 e9 3c a2 19 5a 9b 7c 57 05 00
       -0.08878327 0.028483251 -1.804082e-22 4.90561e-40
000380 73 7a aa 3d d8 15 73 bd dd 51 c2 3d ee a1 d8 3d
       0.083241366 -0.059347004 0.094882704 0.10577761
000390 a0 6a 10 20 6b ad 0f 3d e5 1b bd 3d 34 12 09 3e
       1.2232554e-19 0.035077494 0.09233836 0.1338585
0003a0 ee a4 b1 bb a2 4b 89 bc 71 5e dc 3c 83 b6 94 bd
       -0.0054212725 -0.016759697 0.026900502 -0.07261374
0003b0 bd 0d 39 3d 93 e7 d8 29 61 6d b0 bd bc 37 c2 3d
       0.045179117 9.6324987e-14 -0.08614612 0.09483287
0003c0 e8 64 0c a1 35 5c 35 30 1b f2 a0 3c 4e e7 f3 02
       -4.7567393e-19 6.597845e-10 0.019646695 3.5838403e-37
0003d0 15 a3 c1 3d d1 2f 97 0d 64 9a 03 80 64 b5 fb 2a
       0.094549336 9.317605e-31 -3.30891e-40 4.4712422e-13
0003e0 e8 96 3a 80 73 cf 87 3d 3c 10 42 3c db 4e 7c 3d
       -5.380594e-39 0.06631365 0.011844691 0.06159864
0003f0 d7 38 1e ac 13 40 b0 8f 4c 57 05 00 e8 b4 cc bd
       -2.2484703e-12 -1.737962e-29 4.90494e-40 -0.09995443

features.10.bias f4 [64]
000000 59 2a 5b 38 f8 5b a8 bc b1 a5 fe bd 40 fc d4 3d
       5.2253108e-05 -0.020551667 -0.12433947 0.10399675
000010 1e 88 d4 3d 3a cd 86 bd 0a e3 05 bc fd ac ca bc
       0.10377525 -0.065821126 -0.008171806 -0.02474069
000020 54 bb ce 3c 13 e4 cc 3d 58 a5 00 00 d5 bd de 3d
       0.02523581 0.10004439 5.9314e-41 0.10876051
000030 d1 1b 80 3c eb 52 bf bd d6 79 df 3d 2c 01 27 80
       0.015638264 -0.09341987 0.1091191 -3.582005e-39
000040 3c 34 8f 85 b7 d4 29 3e c0 25 9b bb 52 d0 82 bd
       -1.3466843e-35 0.1658505 -0.0047347248 -0.0638739
000050 b5 09 cd bc bb 9d 45 38 4a 1f 1f 98 4d d4 d9 3d
       -0.025029043 4.7115358e-05 -2.0566065e-24 0.10636196
000060 63 8a 77 bd 90 1c af 3a a0 23 a5 3c a0 22 d2 3d
       -0.06043471 0.0013359953 0.020158589 0.102605104
000070 cd 10 a6 81 cb 65 cc bb c1 79 56 3d dd 3d d1 3d
       -6.100288e-38 -0.0062377206 0.052362207 0.102168776
000080 d7 c1 1e 3d b2 37 d7 3d a6 30 94 92 59 73 9b bc
       0.03875908 0.1050867 -9.352106e-28 -0.0189759
000090 f8 65 a7 bc 5e 02 26 3d dc 57 05 00 7a e4 16 bd
       -0.020434365 0.0405296 4.90695e-40 -0.036838986
0000a0 19 ae 0c 3d 43 e2 7f 3d 57 6d 1d 3d 21 12 88 3d
       0.03434572 0.06247164 0.038434353 0.06644083
0000b0 87 3b 7b 39 b5 66 e8 3b 03 fd 91 3d 86 e5 f5 bc
       0.00023959401 0.0070923218 0.07128336 -0.030016672
0000c0 c3 92 3a bd 17 80 e0 3d a8 32 c9 bb 03 cf 66 3d
       -0.04555012 0.10961931 -0.006140072 0.056349766
0000d0 40 f3 b4 bd 6a a7 1a 3d 69 41 0d bd 3b 58 05 00
       -0.08835459 0.037757315 -0.034486208 4.90829e-40
0000e0 49 ba 46 bd 8f eb be 3d 74 53 12 38 f6 3a 2e 84
       -0.0485175 0.09322273 3.4886834e-05 -2.0480675e-36
0000f0 a0 12 bb 3c 36 9d b2 bc ec 96 19 3e ec 12 73 bd
       0.02283603 -0.02180348 0.14998978 -0.059344217

classifier.0.weight f4 [3, 64]
000000 8e bb 0c bc bf f1 ee bd 6a 8d 56 bb f6 3a 81 bd
       -0.008589638 -0.11667203 -0.0032738098 -0.06310074
000010 a4 38 0b 3d 50 ba c9 bd b0 bf 10 3e 7c af 49 bc
       0.033989564 -0.098499894 0.14135623 -0.012309905
000020 09 33 2a 3e 44 31 d5 3d 38 57 05 80 61 8a 0c 3e
       0.16621031 0.10409787 -4.90466e-40 0.13724662
000030 b5 b6 1d 3c ec c3 0b 3e cc 7b 38 3d a9 d6 92 01
       0.00962608 0.13648957 0.045039937 5.393995e-38
000040 c5 af 05 06 70 43 1e 3e 4b dc 01 3d 0d 2b 0e bb
       2.5143655e-35 0.15455413 0.03170423 -0.002169314
000050 ed e7 97 bd 57 74 e7 b8 dd 1e b1 1d 98 7c ad bd
       -0.07417283 -0.00011036608 4.688342e-21 -0.0847103
000060 a1 7f c3 bd 85 74 85 bc 15 b8 87 bb 10 13 ea bd
       -0.09545828 -0.016290912 -0.0041418173 -0.11429417
000070 d2 cf e8 05 2b 4d 75 3b fe d1 b6 3d 58 00 b8 3d
       2.1893516e-35 0.003743003 0.089267716 0.089844406
000080 f3 5f 92 3d 26 84 91 bd f9 14 f2 a6 c5 ff 34 3c
       0.07147207 -0.071052834 -1.6797808e-15 0.011047308
000090 a0 12 bd 3d fe 0f c1 bc 87 54 27 17 b9 73 89 3a
       0.09232068 -0.023567196 5.40673e-25 0.0010486759
0000a0 f8 25 11 bd a1 e3 9a 3d 90 08 f1 bc e6 d5 91 3c
       -0.0354366 0.07562948 -0.029423028 0.01780219
0000b0 f6 97 f0 bd 80 ae 20 3e 0f 68 cd bc c7 0f 13 3e
       -0.11747734 0.15691566 -0.025074033 0.14361487
0000c0 51 8e 97 3d 1a 40 4d bd ef b9 a9 3d fa 93 0d 3e
       0.074001916 -0.05010996 0.08287417 0.1382598
0000d0 4e 78 c7 bd b8 fc c7 3c d3 62 ec 3d e5 a7 c3 96
       -0.09739743 0.024412498 0.11542287 -3.1609905e-25
0000e0 ec 22 be 3c 9f 7b 0f 3d 7d ce 1c bc 03 0e a0 8c
       0.023210011 0.035030004 -0.009570715 -2.4660336e-31
0000f0 b3 d9 88 bb bc ad 9c 3d 57 0c 14 3e b6 0c 8f 3d
       -0.0041763424 0.07650325 0.14457832 0.06984846
000100 0b a9 f3 bb 7f c7 90 3d ad b4 07 be 49 e8 ae 3a
       -0.007435923 0.07069301 -0.13252516 0.0013344373
000110 ba d7 c7 bd e8 e5 03 3d 5f 15 b5 bd 15 f8 93 bd
       -0.097579435 0.032201678 -0.08841967 -0.07225052
000120 f3 2f 26 3d 67 24 9c bc 48 57 05 00 ac 1d b7 bd
       0.04057307 -0.019060327 4.90488e-40 -0.08941206
000130 44 22 09 bd 4b 65 cf 3d a3 04 09 3e a9 d6 92 81
       -0.033479944 0.10126742 0.13380675 -5.393995e-38
000140 d7 af 05 86 97 34 aa 3c a0 f0 92 bb 8a cc 35 3d
       -2.5143706e-35 0.02077703 -0.004484251 0.044384517
000150 76 8d 5a 3d a2 59 e3 38 dd 1e b1 9d 1b 3f 41 3c
       0.053357564 0.00010840899 -4.688342e-21 0.011794831
000160 e1 fb ec 3c e5 a8 80 3b dc d2 ad 3b 8b 07 b6 bd
       0.028928699 0.003926384 0.0053046774 -0.088881575
000170 d2 cf e8 85 21 e0 ac ba 52 18 8d 3d a7 13 aa bd
       -2.1893516e-35 -0.0013189354 0.06889404 -0.0830453
000180 28 ba 96 bd ef dd 0a be e9 3e 01 a7 ba fc ec 3d
       -0.07359725 -0.13561223 -1.793645e-15 0.11571641
000190 25 7b a5 3d a8 26 a7 bd 42 33 28 97 16 0c 04 ba
       0.080801286 -0.0816167 -5.4348424e-25 -0.00050372013
0001a0 bc 4c 68 bb da 4d 0b be 82 5c ac bb 13 c6 a9 bd
       -0.0035446128 -0.13603917 -0.005260051 -0.08289733
0001b0 64 1e ca bd 88 0b 27 ba 16 5d dc 3d e7 20 a6 bd
       -0.09869078 -0.0006372263 0.10759942 -0.081117444
0001c0 eb 69 a8 bc 9d 5a 2a 3d bb 2d a7 3d 75 e8 6e bc
       -0.020558318 0.04159032 0.08163019 -0.014581789
0001d0 3f 13 5c bd 7b fd 07 be 33 9b 21 3d e5 a7 c3 16
       -0.053729292 -0.13280289 0.03945465 3.1609905e-25
0001e0 71 cb df 3d 00 f7 42 3c b5 a4 c5 bb fc 0d a0 0c
       0.10927475 0.01189971 -0.0060315975 2.466032e-31
0001f0 db e5 d5 bb 5a 64 f0 3d 0a f8 56 bd 55 a0 c0 bc
       -0.006527645 0.117378905 -0.052482642 -0.023513952
000200 20 7f 15 b4 84 b8 f2 ba 74 75 52 bb 5b dd 5c bc
       -1.3922954e-07 -0.0018518125 -0.0032113465 -0.01348051
000210 52 3c 56 bc 83 08 5c bc f0 69 16 bb 4d 5d 8b b7
       -0.013075905 -0.013429764 -0.0022951327 -1.6613538e-05
000220 6d 26 a1 bb fb 5c 19 bc cc 59 05 00 bf 59 54 bb
       -0.004917911 -0.009360547 4.9139e-40 -0.0032402126
000230 b2 27 1e bb 6f d2 93 bb 8f 4d 83 bc 68 57 05 00
       -0.0024132547 -0.0045111696 -0.016028194 4.90533e-40
000240 94 57 05 00 7e 74 20 bb 50 1b 0d bb a9 c8 36 bc
       4.90595e-40 -0.0024483497 -0.0021531172 -0.01115624
000250 07 ec a9 bc 25 cf d4 b2 0a 95 da 91 dc 5b b4 bc
       -0.02074243 -2.4774247e-08 -3.4486188e-28 -0.022016458
000260 69 f2 7b bc db 01 05 b7 be f5 4a b9 67 05 ca bb
       -0.015377619 -7.92785e-06 -0.00019355767 -0.006165195
000270 60 57 05 00 9f c1 1a ad 77 43 60 bc 9c 36 a1 bc
       4.90522e-40 -8.796879e-12 -0.01368796 -0.01967936
000280 33 6c a5 bb 17 c4 2f bb af 58 05 00 61 78 69 bc
       -0.0050482987 -0.002681976 4.90991e-40 -0.014249892
000290 d6 64 8b bc 3b f9 af bb a5 6b 05 00 af 8c d8 b1
       -0.017015856 -0.0053702868 4.97793e-40 -6.3024213e-09
0002a0 78 3c 0b ba 0d 85 f3 bb 1c ad e0 b9 54 0e 73 bc
       -0.000531144 -0.0074316324 -0.00042853586 -0.014834959
0002b0 2c c3 03 bc 02 b4 1a bc 23 cf 99 bc 62 79 1b bb
       -0.008042138 -0.009442331 -0.018775528 -0.0023723473
0002c0 ba 52 8e bb 83 16 77 bc 11 ea 03 bc 0c 84 16 bc
       -0.004343358 -0.015081051 -0.008051411 -0.009186756
0002d0 5f 41 86 bc 90 c6 02 bb 6f a3 39 bb 13 59 05 00
       -0.016388593 -0.0019954778 -0.0028326174 4.91131e-40
0002e0 fe 28 a5 bc f7 e1 3b bc ce b9 1f b3 74 97 1e 80
       -0.020161148 -0.011467448 -3.718906e-08 -2.809396e-39
0002f0 59 6d 19 b4 57 fd b5 bc d6 58 da ba 2a e0 7b bc
       -1.4289016e-07 -0.022215528 -0.0016658555 -0.015373269

classifier.0.bias f4 [3]
000000 b5 a3 ce 3d 61 b4 b4 bd 6a 6b 42 ba
       0.100898184 -0.08823467 -0.00074165186
