benchmark_model_data/1000_image_experiment/benchmark_experiment_increased_data/experience_1_2/model_experience_1_2.pth (torch, 854826 bytes, 36 tensors)

features.0.weight f4 [32, 3, 3, 3]
000000 48 2f 0e 3e 93 11 31 3e b9 18 29 be 0e f5 95 bd
       0.13885224 0.1729186 -0.16513337 -0.07322131
000010 a9 83 48 3e f1 1f 96 3d 04 de c0 3d 9e 74 fc 3c
       0.19581474 0.07330311 0.09417346 0.030817326
000020 32 44 29 be 89 47 97 bd 16 5b 42 3e 26 5e 25 3e
       -0.1652992 -0.07386691 0.18980059 0.16149196
000030 58 31 7a bd 3a e7 89 3d a7 b2 1b bd d4 89 36 be
       -0.061082214 0.06733556 -0.038012173 -0.17826015
000040 13 3c a3 3d 28 6a 92 3d b1 74 48 3d f4 67 39 be
       0.079704426 0.07149154 0.04893941 -0.18106061
000050 89 af 9e bd 72 be 4a 3e 6c 3d 48 3d e0 c4 9b bd
       -0.077483244 0.19799212 0.0488867 -0.0760591
000060 59 1a 0b bd dc cb f4 bc 51 d4 88 bd 32 50 10 3e
       -0.033960674 -0.029882364 -0.06681121 0.14093092
000070 b0 0b d8 3d 3b 68 cf bd 17 4e 1e be d0 33 8c 3d
       0.10549104 -0.10127302 -0.15459476 0.0684582
000080 28 b0 d3 3d 59 6d 49 bd 1d 4d d8 3d 30 fc d7 3c
       0.103363335 -0.049176548 0.10561583 0.02636537
000090 c9 b3 2b be 0c c1 b3 bc e9 8c 69 3d f6 3b dd bd
       -0.16767801 -0.021942638 0.057019148 -0.10802452
0000a0 38 cc 02 be 73 d6 0c 3d fe 3f 14 bd cc 0d 9b 3d
       -0.12773216 0.034384202 -0.03619384 0.07570991
0000b0 dc 68 60 bc e0 fe 5f 3d f3 b9 4a 3e f6 a0 1d 3e
       -0.013696875 0.054686427 0.19797496 0.15393433
0000c0 db 73 14 3d 06 6d f5 3a 4d 3f 14 3e 6f 73 2f 3e
       0.0362433 0.0018724508 0.14477272 0.17133878
0000d0 0f 79 a7 3c 32 79 04 be d4 7c 12 be 6c 67 19 3e
       0.020443467 -0.12936857 -0.1430543 0.14980859
0000e0 66 39 b5 bd ea e7 1e 3e 61 46 72 3d 6a 01 1e 3e
       -0.088488385 0.15518156 0.05914915 0.15430227
0000f0 85 5d f7 3c c1 7c 50 bd fc 94 d7 bd a1 7e a4 bc
       0.03019596 -0.050900225 -0.105264634 -0.020079913
000100 78 68 f6 bc cc e6 ff bd 21 db 3c 3e 0f bd 29 be
       -0.030079111 -0.12495193 0.18442966 -0.16576026
000110 7c e2 8f 3d ab b9 c1 bc bf e1 2e be 57 2d ff 3d
       0.0702562 -0.023648104 -0.17078303 0.1245982
000120 87 3f f8 3c 04 94 f0 3d 46 c9 44 3d 90 e3 04 be
       0.03030373 0.11746982 0.04804351 -0.12977433
000130 f8 5e fd bd 8a 4e 33 be 3e 66 96 3b 99 0b 28 be
       -0.123716295 -0.17510429 0.004589825 -0.16410674
000140 27 6d 91 bd a6 f7 22 be 84 d5 9d bd 6b 94 83 bd
       -0.07100897 -0.15914783 -0.077067405 -0.06424793
000150 25 e9 8b bd 5d 77 a0 bd cb ad 2e bd 3a 72 84 3d
       -0.06831578 -0.07835267 -0.04264621 0.064670995
000160 18 c9 c3 bd e6 f9 04 3e 8c 0e 1c bd 16 9e 8a 3d
       -0.0955984 0.12985954 -0.03809981 0.06768434
000170 3f 5c 2d 3e a3 92 33 3e e0 66 9d 3c 44 6e 26 3e
       0.1692972 0.17536406 0.019214094 0.16253
000180 5b ca 15 3d c3 ad 42 be b5 4e 92 3c 63 98 fd bd
       0.036569934 -0.19011597 0.017859796 -0.12382581
000190 62 de 21 3e c4 36 36 be 1b 69 e7 bd 3a d1 37 be
       0.15807489 -0.17794329 -0.11299344 -0.17950907
0001a0 23 63 2a be 0c 6d d7 bb c1 c0 87 bd 16 f4 99 bd
       -0.1663938 -0.0065742787 -0.06628562 -0.07517259
0001b0 e7 19 ec bc 7c d9 ad 3d 85 9c 06 3e fc e4 86 bd
       -0.028820945 0.084887475 0.13145645 -0.06586644
0001c0 a8 1f 59 3d 9a 72 f4 bd 93 94 16 3e cf de 9c 3d
       0.053008705 -0.11935921 0.14705114 0.07659685
0001d0 26 83 01 3d ea f5 c6 bd ba 43 3c be e4 be f7 bd
       0.031619214 -0.09714873 -0.1838521 -0.12096956
0001e0 bf cc 24 3d c3 80 23 be ee 1f d4 3c 06 71 f8 3d
       0.040234324 -0.15967087 0.025894132 0.121309325
0001f0 38 27 a2 bd 09 97 66 bc 68 fd 2e be 3f b5 2c be
       -0.07917637 -0.0140740955 -0.17088854 -0.16866015
000200 ef 9b fb bd be 7c 67 bd 96 44 98 3c e3 5b 0b bd
       -0.12285601 -0.056515448 0.018587392 -0.034023177
000210 ce 92 11 3e db ab 1c 3e 5a bf 3e 3c 01 e5 2e bd
       0.14216158 0.15299933 0.011642301 -0.042698864
000220 1d 11 b7 bd 36 5d 1e be 21 91 16 3d 92 fa 11 bc
       -0.08938811 -0.15465245 0.0367595 -0.008909838
000230 2f 8f 02 3e 0c 61 2a 3e d7 24 06 3d df 2d 39 be
       0.12749933 0.16638583 0.032749977 -0.18083905
000240 b2 63 cb 3d 7f 47 0b bd 9c 25 18 be 6a 5d d0 3d
       0.09931125 -0.03400373 -0.14858097 0.10174067
000250 c5 20 02 be b3 f8 2b 3d 29 76 7a 3c ee d0 05 be
       -0.12707813 0.041985225 0.015286961 -0.13067982
000260 2a 6f 2d 3e eb 0f 1f 3e 90 10 2d be 1b 07 e9 bc
       0.16936937 0.15533416 -0.1690085 -0.028445771
000270 6c f4 a6 bd 25 cb d3 bd 60 7a 01 be 84 64 fd bd
       -0.081520885 -0.10341481 -0.12644339 -0.123726875
000280 af a1 93 ba d1 66 e2 3d 6f 02 d8 bc 32 08 45 3e
       -0.0011263395 0.11054767 -0.026368348 0.19241408
000290 03 be ea bc 7b b7 b3 bd bd 49 a2 bd 30 c8 11 3c
       -0.028655058 -0.087752305 -0.07924221 0.008897826
0002a0 6f 15 28 be 42 85 41 3e 73 2e 16 bc 47 97 42 be
       -0.16414426 0.1889849 -0.009166348 -0.1900302
0002b0 74 9e e6 bd 14 58 4d 3e 67 1d cc 3c 92 c7 12 be
       -0.11260691 0.2005313 0.024916364 -0.14333943
0002c0 e0 38 29 be ba 86 0f 3d cf 1d 2e 3e ef 19 c7 3d
       -0.16525602 0.035040595 0.17003559 0.09721743
0002d0 f8 7a 4a be a1 4d 29 3e 84 22 07 be 00 70 44 3d
       -0.19773471 0.1653352 -0.1319676 0.047958374
0002e0 99 fc 3c be 5f 10 aa 3d ad 7f 2f bd 25 5a 29 3c
       -0.18455733 0.08303904 -0.04284637 0.010336434
0002f0 e6 3c b7 3d bd b6 48 bd 05 f4 b1 bd 7a 78 30 be
       0.08947162 -0.049002398 -0.08689121 -0.17233458
000300 39 4d 3b be da 81 06 be a3 14 a0 bd 87 5d 37 be
       -0.18291177 -0.13135472 -0.07816436 -0.17906772
000310 d5 ab 9f 3d 5d 6c da bd c0 8f fc bd 86 df f2 bb
       0.07796446 -0.106652 -0.12332106 -0.0074119
000320 12 66 da bd 7f 06 0f 3e d2 93 41 be 95 3f 2c be
       -0.106639996 0.13967322 -0.18904045 -0.1682113
000330 8e bf 22 3b 97 ff b9 3d c6 50 33 be ac 48 c1 3d
       0.0024833414 0.09081953 -0.17511281 0.09437689
000340 fe cd 68 bd 67 d6 e1 bd 88 8d e6 bd 51 fa c7 bd
       -0.056837074 -0.11027222 -0.11257464 -0.09764541
000350 bc 9e 3e 3e df 44 d6 bd 65 52 f0 3d 2e 15 6f bd
       0.1861524 -0.10462355 0.117344655 -0.058369808
000360 0b 8e 4a be 16 8d ec 3d 9b 23 c6 3d 1f b3 1b be
       -0.19780748 0.115503475 0.0967476 -0.15205048
000370 76 4d 43 be a1 78 0d be e2 2f 11 bd 20 60 19 bd
       -0.19072518 -0.13815548 -0.035446055 -0.037445188
000380 ee e1 20 be db d2 f7 3d e2 e5 40 3d b7 4e ad 3c
       -0.15711185 0.12100764 0.047094233 0.021155698
000390 ad 48 96 bd 49 27 4b 3c 80 c0 2f be 05 ae 12 3e
       -0.073380806 0.012399503 -0.17163277 0.14324196
0003a0 90 06 63 bd 83 b8 02 be 65 2b eb 3d 5f 41 64 3d
       -0.05542618 -0.12765698 0.11482886 0.055726405
0003b0 ff e0 d5 bd cf 77 83 3d 18 91 8c bd 13 ba 02 be
       -0.10443305 0.06419336 -0.06863612 -0.12766294
0003c0 7b dc bb 3d a6 48 27 3e d5 ba 52 bc b6 94 f7 3d
       0.09172913 0.16336307 -0.012861927 0.12088911
0003d0 47 87 94 3c 8f db 61 3d 48 01 41 be 8b fe 36 bb
       0.018130912 0.055141028 -0.18848145 -0.0027922716
0003e0 ae e5 21 3e 4d b1 27 3e f1 9a 8d bd 15 64 fb 3c
       0.15810272 0.16376229 -0.06914318 0.030687371
0003f0 c4 aa 30 3e 8c 01 b1 bd 11 3f 13 3e 2c 8c 36 be
       0.17252642 -0.08642873 0.14379527 -0.17826909

features.0.bias f4 [32]
000000 26 c7 1b be 09 00 c5 bd 8a fa c3 3d be b3 bb bd
       -0.15212688 -0.09619147 0.09569271 -0.091651425
000010 d7 4c 47 3e 90 a1 a8 3b 0f 34 3c bc 84 fb 45 bd
       0.19462906 0.005146213 -0.011487021 -0.048335567
000020 5f a5 02 3e 12 13 ce 3c 90 8c 0b 3d e7 d4 e3 3d
       0.12758397 0.025155578 0.034069598 0.11124592
000030 dd 25 f8 3d 0c b3 3d 3e 70 87 f6 bc 88 9a 98 3c
       0.12116597 0.18525332 -0.030093879 0.018628374
000040 b9 92 62 bc 74 88 0d be 2c c3 13 be 8f 76 0f be
       -0.013828927 -0.13821584 -0.14429921 -0.1401007
000050 bb f0 b0 bd e9 0b 03 3e ec 93 30 3d e9 68 5a 3d
       -0.08639666 0.12797512 0.04310982 0.053322706
000060 56 5c 1e 3e 6d b9 4f bc 91 73 d3 3d bd f5 c6 bd
       0.15464911 -0.012678486 0.10324777 -0.097148396
000070 13 54 29 be 47 ba 16 be 31 54 b2 3d 50 c0 8d 3d
       -0.16535978 -0.14719497 0.087074645 0.06921446

features.2.weight f4 [32, 32, 3, 3]
000000 ee 30 60 bd 01 3d bf 3c 4c 73 da bc 30 60 81 3c
       -0.054734163 0.023344519 -0.026666306 0.015792936
000010 37 dc 7c 3d 36 9d 9c bc 23 3b a4 bc 5d 9d cd 3c
       0.06173345 -0.019117933 -0.02004773 0.02509945
000020 5b 24 5a 3c ac 00 bc bb a5 24 7e bb b9 cf 28 bd
       0.013314332 -0.005737385 -0.0038779166 -0.041213725
000030 47 7f 80 bc 64 70 0a 3d 30 1c aa 3c 8d 78 a5 bc
       -0.01568569 0.03379859 0.020765394 -0.020199085
000040 ea 51 b3 bc d4 4e 14 3d 83 ca 12 bd c7 90 80 3c
       -0.021889646 0.03620799 -0.03583766 0.015694035
000050 43 56 51 3d f3 3b d7 bc 77 d1 f6 bc 37 81 73 bd
       0.051107656 -0.026273703 -0.030129177 -0.0594494
000060 70 36 2b bc a7 3b e5 bc c6 b4 81 bb 1b 96 e1 3c
       -0.010449991 -0.027982546 -0.0039583175 0.027537396
000070 3a 51 c1 3c cb 55 97 bc 4d ad 0e bd 11 c0 61 3d
       0.023598302 -0.018473526 -0.03483324 0.05511481
000080 63 da 8b 3c 42 c8 3b 3d d8 dc 42 bd 9f 8b 43 3d
       0.017071908 0.045845278 -0.047573894 0.047740575
000090 57 1c 6c 3c 79 a0 ca 3c f9 eb 33 3d 6e 0d 83 3c
       0.014411054 0.024734722 0.043926213 0.015997615
0000a0 df 06 77 bc 52 ed 22 bc 26 d5 04 3d 20 03 aa 3c
       -0.015077322 -0.009944277 0.032429837 0.020753443
0000b0 bd ec c2 bc f4 ad f5 3c fd 21 f4 bc 6c 88 79 3d
       -0.023794526 0.029990174 -0.029801363 0.060921118
0000c0 14 15 fa 3a 74 8b 0c 3c 5f aa 59 bd e5 91 38 bd
       0.0019079768 0.00857817 -0.053140994 -0.04506101
0000d0 3a 83 59 3d 87 e9 d2 bc f9 f6 83 3d 2b f4 2c 3c
       0.053103663 -0.02574612 0.06443591 0.010556261
0000e0 5e f0 08 3c 89 21 9d 3c 9f d4 42 3d 0d 95 64 bd
       0.008358089 0.01918103 0.047566053 -0.05580621
0000f0 b3 9b 0a bb 9c 35 9d bc 66 d3 a3 bb 2e f8 15 3d
       -0.0021149933 -0.019190602 -0.004999566 0.036613636
000100 f2 a3 ec 3c ed c3 05 bd ca 35 16 bc d0 cc 6d bb
       0.028886769 -0.032657553 -0.009168098 -0.0036285408
000110 be ab eb bc 36 04 76 3d 7f 6b 20 bc 15 81 56 bd
       -0.028768416 0.06006261 -0.009791254 -0.052369196
000120 34 6e 56 bd fb 39 95 bc 97 e5 ae 3c 84 2c 3c bd
       -0.05235119 -0.018216124 0.021349711 -0.04594089
000130 97 09 c2 bc 8d 8f e3 b9 af 12 c1 bb b7 14 4e 3d
       -0.023686213 -0.00043403768 -0.00589212 0.050312724
000140 c1 a8 fe 3c 55 66 64 3c 31 c2 bd bc 7b fd 31 3c
       0.031086328 0.0139404135 -0.023163887 0.010863657
000150 4a 15 53 bc c4 67 e1 bc f0 a3 7b bd 78 b7 20 bd
       -0.012883494 -0.0275153 -0.06143564 -0.03923747
000160 57 4c 9c bc f4 e8 5f bd 91 cd 8e 3d 90 ae 4f bd
       -0.01907937 -0.05466552 0.069728024 -0.050703585
000170 1c 45 4c bc eb 8d ea bc 51 7a 2a bd 18 55 ef bc
       -0.012467649 -0.028632125 -0.041620556 -0.02921538
000180 9f 25 36 bb f5 65 ba 3c f3 a3 4a 3d bd 2f 99 ba
       -0.002779342 0.022753695 0.04947276 -0.0011687201
000190 5d 32 7c 3d de c5 3d bc 06 f8 58 bd 5f b0 12 3a
       0.061571468 -0.01158282 -0.05297091 0.00055957393
0001a0 b3 35 dc 3c 35 bd 62 bd 6b 3f 3f 3d 56 e8 af bc
       0.026881075 -0.055356223 0.04669134 -0.021473091
0001b0 3d 83 16 3d f4 0e ab 3c 83 3a 5f 3d d1 7a 2b 3c
       0.036746252 0.020881154 0.05449916 0.010466293
0001c0 e3 93 40 bd e3 9e 30 bd 39 64 c2 3c 2e 5f 3e 3d
       -0.047016036 -0.043120276 0.02372943 0.04647749
0001d0 fb be 17 bc 19 8f 5a bc 26 d9 05 3d e2 9d 3a bd
       -0.009261842 -0.013339781 0.032677792 -0.045560725
0001e0 3c da 0c 3d 33 dc 0d bd c6 a8 f2 3c 5d 4e 09 3d
       0.034387812 -0.034633826 0.029621493 0.033522
0001f0 35 99 28 3d 8e e4 ee bc e5 c6 81 3d b9 5d 51 3c
       0.041161735 -0.029161718 0.06336764 0.012778693
000200 5d 6f 01 bd 67 22 d0 3a af 4f fe bc 11 0b a2 bc
       -0.031600345 0.0015879393 -0.031043855 -0.019780667
000210 9a 8d 00 bd 2a 8f 47 3d 45 01 0b 3c 6f 95 19 3d
       -0.03138504 0.048720516 0.008484189 0.037496027
000220 d3 e2 16 3d 0c 21 d2 bc 6d 2b 95 bb 47 83 f9 bc
       0.03683741 -0.025650524 -0.004552296 -0.030458106
000230 d2 ff 36 bd 92 d9 e6 3a 7d b7 24 3d 62 43 8f bc
       -0.044677563 0.0017612448 0.04021405 -0.017488185
000240 36 63 e5 3c ff d6 9f 3c 37 4a d8 3b 5f ab 83 3d
       0.028001409 0.019511698 0.006600644 0.06429171
000250 6e 61 eb bb fb c1 27 bd 7d f2 e9 3c 32 29 3e 3b
       -0.0071832454 -0.04095648 0.02855801 0.0029016254
000260 d0 15 83 3d e1 87 1d bd 12 ab b0 3b d7 fa f7 3c
       0.06400645 -0.038459662 0.005391487 0.030270977
000270 ad ea 42 bd 8f 42 a3 bc 6b bf 1a bd 8d 90 d1 bb
       -0.047587086 -0.019929199 -0.037780207 -0.0063954056
000280 65 31 33 bd 85 d2 a3 bb dc b4 cc bc 55 0a 33 3c
       -0.04374828 -0.004999461 -0.024988584 0.010927756
000290 83 c3 6e 3d b3 66 78 bc a1 1f 12 3d ab 3b 32 3d
       0.058291923 -0.015161204 0.035674695 0.043513935
0002a0 6f 6a 08 bd 0a 4c 66 3d d6 0d 5a bc 74 13 7d 3d
       -0.033304628 0.05622486 -0.013308963 0.06178613
0002b0 83 cf 77 3d 74 7e d0 bc b3 f1 06 bd 78 49 07 bd
       0.060500633 -0.025450923 -0.032945346 -0.03302905
0002c0 5b f3 19 bd a4 e5 87 3d 99 ff 1e bc 88 0c 66 bd
       -0.037585597 0.06635597 -0.009704494 -0.056164294
0002d0 c3 1d 4b bd d4 63 37 3d 84 43 2c bd 97 5f 55 3d
       -0.04958893 0.044772938 -0.042056575 0.052093115
0002e0 2c fa 1d 3d 18 e2 4c bc 34 56 09 3d 2e 79 f7 ba
       0.03856866 -0.012505077 0.033529475 -0.0018880719
0002f0 58 6a 5b 3d e4 95 42 3d 78 72 5d 3d 6d 32 9b bc
       0.053568214 0.047506228 0.054064244 -0.018944943
000300 c2 91 06 bd 8a 80 6f 3d d1 8d 0b 3d c6 64 b6 3c
       -0.03285385 0.058472194 0.034070794 0.02226485
000310 3d 72 20 bd 37 df 61 bc 53 4a 56 3c a5 73 25 3a
       -0.039171446 -0.013786129 0.013079244 0.0006311483
000320 cd e9 4c bd 47 dd 63 3d 5f 4f 38 bb 75 b9 0d 3d
       -0.050027657 0.05563095 -0.002812348 0.034600694
000330 9d 8d a6 3c 03 a3 0c bb 03 05 44 3d e2 2a 45 bd
       0.020331198 -0.0021459467 0.047856342 -0.0481366
000340 6c 15 42 bc c8 98 25 3d 77 f4 3d 3d cb c8 4c bc
       -0.011845928 0.040428907 0.046375718 -0.012499045
000350 13 4b 1e bd 87 8f 0b bc cc 03 db bc eb ea f7 bc
       -0.038645815 -0.008518106 -0.026735209 -0.030263385
000360 f7 78 ff bc dc 99 de bb 59 56 0f bd 1b cc cd 3c
       -0.03118561 -0.006793244 -0.034994457 0.02512174
000370 41 ce 4e bd 05 2f 41 3d 73 11 6b 3c 08 47 1b 3d
       -0.050489668 0.047163982 0.014347422 0.037909538
000380 72 35 12 bd d8 c7 64 3d 44 25 3e bd e1 7f c8 bc
       -0.0356955 0.05585465 -0.046422258 -0.02447504
000390 65 dc 89 bc 20 9e 21 3d bc fd 31 bc 01 fc 2d 3d
       -0.016828725 0.03945744 -0.010863718 0.042476658
0003a0 96 12 16 3d 2f 16 25 bd c0 3c 82 3d a4 c5 48 3d
       0.03663882 -0.04030436 0.063592434 0.04901661
0003b0 75 3c 75 3d f7 5c c1 3b c7 70 04 bd bc 71 0f 3d
       0.05987211 0.005900975 -0.032334115 0.035020575
0003c0 9f c6 71 3d db 90 90 bc db 99 da bc 9e b1 1a bd
       0.05902731 -0.017647197 -0.026684692 -0.037767045
0003d0 86 bf 45 bd 16 91 aa 3b 65 72 0b 3c 99 89 61 bc
       -0.048278354 0.005205284 0.0085111605 -0.013765716
0003e0 31 52 d9 3c 9e d7 02 bc 57 6b 81 3c 67 fd 3b bd
       0.02652845 -0.007985977 0.015798254 -0.04589596
0003f0 e1 df 18 bc d6 b3 3e bd 00 46 d3 bc c5 6d 22 3d
       -0.009330721 -0.046558224 -0.025790215 0.039655466

features.2.bias f4 [32]
000000 71 6e 4f bd c4 72 21 bd cd 92 01 bd 3b f3 36 3d
       -0.050642435 -0.03941609 -0.03163414 0.044665556
000010 f9 08 21 bd 1f 19 11 bd d6 f6 0d bd 44 8b e7 bc
       -0.039315198 -0.035424348 -0.03465923 -0.02826465
000020 b5 b0 15 3d 24 ed 28 bc 63 95 8a bc 23 24 54 3d
       0.036545474 -0.010310445 -0.016916936 0.051792275
000030 84 1c 57 3d 0d 7b 2d bd 11 d2 c1 bb bf 71 d3 3b
       0.05251743 -0.04235368 -0.0059149344 0.0064527686
000040 3e e8 49 3d 95 19 47 bd 6f ce 00 3b 67 b1 9f 3b
       0.04929375 -0.04860838 0.0019654294 0.004873443
000050 5e 2e 90 bc 1e 83 b9 3c 34 b9 77 3d a4 82 0f 3c
       -0.017600235 0.02264553 0.060479358 0.0087591745
000060 0d a6 1a 3c 77 7a 61 ba 32 a4 67 3d af 41 d1 bc
       0.009439004 -0.00086013175 0.056553073 -0.025544016
000070 94 07 40 bd 48 9a 32 3d a8 3f 62 bd 1d 03 7f 3d
       -0.046882227 0.043604165 -0.05523649 0.06225883

features.5.weight f4 [64, 32, 3, 3]
000000 37 d9 35 bd f0 ed 22 3d 6c 5b 9a bc 9d ca 4c bd
       -0.044396605 0.039777696 -0.018842421 -0.049997915
000010 8d 14 d4 3b 7f bb 32 3d f4 f7 59 bd 61 6d 7c 3c
       0.0064721764 0.04363584 -0.053214982 0.015406937
000020 98 26 2e 3c a3 44 49 3b 11 b7 72 bc 7b 7d 94 3c
       0.010629319 0.0030711077 -0.014814154 0.01812624
000030 c6 2b 66 3c c3 de 98 3c 16 85 1e 3d ae a3 06 3d
       0.014048522 0.018660909 0.03870114 0.03287094
000040 7f 49 31 bd d3 22 3f 3c 76 76 12 bc 65 57 06 3d
       -0.043282982 0.011666018 -0.008939376 0.03279819
000050 bb 6d 1d bd 77 59 2c 3d 36 7e 64 3d d5 c2 52 bd
       -0.038434725 0.042077508 0.055784427 -0.051455338
000060 01 bf 31 bd 2a 63 cd 3c 34 ea db 3c 01 29 5f bd
       -0.043395046 0.0250717 0.026845075 -0.054482464
000070 7f b0 d0 3c 25 97 58 bd 3f 22 5a 3d 1a ba 6c 3c
       0.025474785 -0.052878518 0.053255316 0.014448667
000080 f3 80 81 bc 5d 2d aa 3c 23 d5 50 bd b0 28 5a bd
       -0.015808558 0.020773584 -0.050984513 -0.05326146
000090 5c d7 6c bc 1b 12 3a bd c3 9d 74 3d 72 0b 28 bd
       -0.014455643 -0.045427423 0.059720766 -0.04102654
0000a0 ab 30 49 bd 11 d3 1e 3d 8e b9 36 3d 92 8d 91 3c
       -0.04911868 0.038775507 0.044610552 0.017767701
0000b0 65 68 ef 3b f0 11 4b 3a 3b c0 12 bd 70 b3 af bc
       0.007306146 0.00077465083 -0.035827857 -0.021447867
0000c0 cc 7d 27 bc df ed f0 3b bf 5e db 3c f1 56 4a 3d
       -0.010222863 0.007352575 0.026778577 0.04939932
0000d0 2d ea fa 3b e3 5f 50 bd 1b 12 99 bc e1 5e 88 3c
       0.0076573105 -0.050872695 -0.018685391 0.016646804
0000e0 ed 8e 00 3d ed 9c 9f bc 12 b4 53 3d e8 79 11 bc
       0.031386305 -0.019484008 0.0516854 -0.008879162
0000f0 40 fc bf 3c 4f de 45 bd a6 f5 75 bd c3 17 56 3d
       0.023435712 -0.048307713 -0.06004872 0.052268755
000100 69 c3 e1 bc 36 f8 6a bc f9 11 98 bc 7c e1 35 3d
       -0.027559 -0.014341405 -0.018563258 0.04440449
000110 e5 dc b5 3c 44 7e 12 3a 71 f0 5a 3d 25 26 be bb
       0.022200057 0.0005588273 0.05345196 -0.005802887
000120 d8 6b 37 3c 4a 58 1d 3d 4c dd 35 3b 41 00 03 3d
       0.011195146 0.038414277 0.0027750311 0.031982664
000130 bc 85 c0 3c 3d a1 6f 3d d0 76 68 3c e5 8b 4f bb
       0.02350127 0.05850338 0.014188483 -0.0031669077
000140 b3 3b 2e bd ac a2 f1 bc 27 93 5e 3d 94 4b 65 bb
       -0.042537402 -0.029496513 0.054339554 -0.0034987675
000150 eb 27 4c 3d cd 3d 33 3d 5e d9 9b 3c 28 43 7b 3d
       0.049842756 0.04376011 0.019024547 0.061343342
000160 cb 6e 76 3d fb 16 2e bc 87 f1 73 bd 62 a3 0c 3d
       0.060164254 -0.010625596 -0.05955651 0.0343355
000170 41 19 16 bd 2e b2 88 3c 03 26 48 3d 62 a0 51 bd
       -0.036645178 0.016686525 0.048864376 -0.051178344
000180 31 99 a8 3c de f8 40 3c 67 80 2e bb dd f5 1c 3d
       0.02058086 0.011778085 -0.0026626827 0.03832041
000190 8b 63 33 bd 78 39 79 3d 2e 98 5e bd fb c8 26 3d
       -0.043796103 0.060845822 -0.05434435 0.040719014
0001a0 fe d8 d2 bb 8a 62 5d bd 51 1f fd bc 6f 78 49 bc
       -0.006434559 -0.054049052 -0.030898722 -0.01229678
0001b0 27 d5 f2 bc d1 2f 65 3d ad 8c 36 3d b2 5c 6c bd
       -0.029642655 0.055953804 0.044567753 -0.05770559
0001c0 af 93 9b 3b 4f 7b 84 3b e5 1c 3a 3d 28 cd e7 3c
       0.00474783 0.00404302 0.045437712 0.028296068
0001d0 d2 a1 b4 ba be 30 fc 3c 39 1a 21 3c f4 c1 1c bd
       -0.0013781136 0.03078496 0.009832912 -0.038270906
0001e0 52 6b fa 3c 48 7f 30 bd 86 00 b1 3c 8e c3 04 bb
       0.030568752 -0.043090135 0.021606695 -0.0020258161
0001f0 83 f9 22 bd b6 f5 43 bb 94 17 2b bc 25 c2 5c bd
       -0.039788734 -0.0029901094 -0.010442633 -0.05389609
000200 2f 61 93 3c 78 99 24 bd d2 f8 36 bd e9 3e 31 3d
       0.017990677 -0.04018542 -0.044670887 0.043272886
000210 a2 e2 04 3d 67 9f 64 bd 6a a4 46 3d b7 35 40 bd
       0.032442696 -0.05581608 0.04849664 -0.046926226
000220 e2 53 6d 3d 74 ce 15 bd 21 87 b6 3b 28 75 24 3c
       0.057941325 -0.036573842 0.005570308 0.010037698
000230 75 65 5d bd 6e 75 ed bb 20 a8 89 bc 2a 22 65 3a
       -0.054051835 -0.0072466647 -0.016803801 0.00087407476
000240 ba 7b 0a bd 7a 4d 66 3d ac 0c 6c 3d d6 ee 72 3c
       -0.0338094 0.05622623 0.057629272 0.014827451
000250 07 0e 89 3c f1 67 2e 3c ef 77 78 39 59 9e 39 bd
       0.016730322 0.010644899 0.00023695802 -0.045317028
000260 f1 64 e7 bb f7 af 6d 3d a1 61 ee bc 4e d0 53 3d
       -0.0070615937 0.05802914 -0.029099287 0.051712327
000270 51 d6 1f 3c 5e 07 2e bd 17 b6 7f b9 56 f0 21 bc
       0.009755687 -0.042487495 -0.00024386529 -0.009883961
000280 d6 cd 4e 3d c5 71 56 3d 4f f3 6f bd eb a7 0c 3d
       0.05048927 0.052354593 -0.058581647 0.034339827
000290 72 02 ef 3c 5a a8 43 3d d1 1f 62 3d 0a a4 5b 3c
       0.02917597 0.047767974 0.055206124 0.013405809
0002a0 68 72 1b 3d 88 e4 bd 3c ad 9b 72 3d b9 99 d7 3b
       0.037950903 0.023180261 0.059230495 0.0065796045
0002b0 dc a2 46 bc 1d a8 76 3d 24 da 22 bd f1 ef ef 3b
       -0.01212379 0.06021892 -0.039758816 0.0073223044
0002c0 a6 7d 5d 3d 81 92 b8 3c 2a b2 91 bc c5 61 76 3d
       0.054074906 0.022530796 -0.01778515 0.060151834
0002d0 b6 89 6f bd 16 73 36 bd d7 21 9c 3b 33 b9 2c 3d
       -0.05848094 -0.04454335 0.004764776 0.042168807
0002e0 33 46 7e 3b 0c 7b 58 3d b0 fd a3 3c 51 1d 07 bd
       0.0038799166 0.05285172 0.020018429 -0.032986943
0002f0 2b 9d 80 3d a4 48 f1 bc 5a 9e 55 bd 8d a0 eb 3c
       0.062799774 -0.029453583 -0.05215297 0.02876308
000300 ac 38 1e 3d ef 75 fb bb 4c 40 3f bd 77 3c 4c bd
       0.038628265 -0.007673971 -0.046692178 -0.04986235
000310 00 f6 2c bd 19 27 51 bd 45 41 42 3d 5b 19 f6 3c
       -0.04222679 -0.051062677 0.047425527 0.030041387
000320 1b 49 2f bd 85 e8 47 bd 88 79 06 bc c6 f8 e0 bb
       -0.04279433 -0.048805732 -0.008207686 -0.0068655936
000330 31 58 1c bd e1 d7 af 3c d7 15 29 3d 7d 7e a8 3c
       -0.038170043 0.021465244 0.041280594 0.020568127
000340 da 1e ec b9 c9 c6 ad 3c 3f 49 14 3d 69 8e 87 bc
       -0.00045036414 0.021212952 0.036202665 -0.016547399
000350 62 aa 50 bd a5 df 18 bd fa 5c 48 bd cd 70 da bc
       -0.05094374 -0.03732266 -0.048916794 -0.026665116
000360 9d 43 86 3c 23 3a 98 bc ea e6 9f 3c a6 6c 42 bc
       0.016389662 -0.01858241 0.019519288 -0.011866724
000370 24 d0 a5 3c 21 2c 3a 3c 58 30 4d 3d 44 ba 0b bd
       0.02024085 0.01136306 0.050094932 -0.034113184
000380 5f d3 4a 3d bc 3b 62 3d de 34 f6 bb 63 ef 14 bd
       0.049517985 0.05523275 -0.0075136265 -0.03636111
000390 98 a3 0d bb cf 75 12 bd a4 11 00 3d 59 fa 98 bc
       -0.0021612402 -0.035756882 0.031266823 -0.018674063
0003a0 d5 46 3d bd 65 a9 f9 bc 8b 68 09 3d 6d 64 6a 3c
       -0.04621013 -0.030476281 0.033546966 0.01430617
0003b0 5a 39 30 bd 8d a1 03 3c 01 0b f8 3c f4 d5 4c 3d
       -0.043023445 0.008034122 0.030278685 0.05000873
0003c0 f1 e2 3e bd e1 2d 83 3c e3 3a 50 bd 93 40 1e 3d
       -0.046603147 0.016013088 -0.05083741 0.0386358
0003d0 06 93 89 3c 8d ed e0 3c 52 23 05 bd 5f 0e 9e bb
       0.016793739 0.027457023 -0.032504387 -0.0048234905
0003e0 1f 0f 0d bd 31 25 10 bd 03 ca 96 bc 1b 79 cb bc
       -0.03443825 -0.03519172 -0.018406874 -0.024838021
0003f0 70 34 86 bb 75 ba 5c 3c 9d 13 0b bc d7 75 02 bd
       -0.0040956065 0.013472189 -0.008488563 -0.031850662

features.5.bias f4 [64]
000000 05 da 37 bd eb 3c 34 bc 1d 00 65 bc d1 d1 5a 3d
       -0.044885654 -0.011000852 -0.013977078 0.053422753
000010 41 ea 12 bc 64 78 03 3d 2d dc 82 3d a2 30 67 bc
       -0.008966983 0.032097235 0.063896514 -0.014110716
000020 43 09 04 bd 7c e4 06 bd 36 bf 05 ba 7b 37 a9 bc
       -0.032235395 -0.032932743 -0.000510204 -0.020656338
000030 35 80 03 3d 6b e9 4a bd 64 a5 02 bc e0 69 27 3b
       0.03210469 -0.04953901 -0.0079740025 0.0025545284
000040 07 dc 5a 3d 6a 83 8f bc c2 0c 2e bd 3e 1a 85 bb
       0.05343249 -0.017518718 -0.042492636 -0.004061966
000050 89 68 85 3d 24 51 e4 bc a8 65 4c bd ed 1a 9b bc
       0.06514079 -0.027870722 -0.049901634 -0.018933738
000060 c1 5c 34 bd bc 59 9b bc 58 30 30 bd 76 7a bc bc
       -0.04403377 -0.018963687 -0.043014854 -0.023007613
000070 f2 39 91 3c cb 6b 00 3d 73 ed de bc 8a e3 21 3b
       0.017727826 0.0313528 -0.027212834 0.0024702274
000080 e0 a1 03 3c d8 e3 84 bc 69 49 d2 3c 79 a0 05 bc
       0.0080341995 -0.016221926 0.02566977 -0.008155935
000090 b7 aa e5 39 3b 05 00 bd 8f cc 80 3d ac b4 26 bd
       0.00043805476 -0.03125499 0.062890165 -0.040699646
0000a0 7f 31 28 bc 07 53 53 3d 12 ce 35 3b a7 25 23 bd
       -0.010265707 0.051592853 0.0027741236 -0.03983083
0000b0 24 b8 c7 3c b2 56 5f bd b7 65 44 bd 6b 77 c7 3b
       0.024379797 -0.05452604 -0.047948565 0.006087234
0000c0 4c 6e d0 3c 2f b9 79 bc 79 b9 b6 3c 4b 2a 6b 3d
       0.025443219 -0.015241905 0.022305237 0.05741338
0000d0 99 bd 71 3d 70 0e 4b bd 4e 09 6e bb 0d 5c 68 bc
       0.059018705 -0.049574316 -0.0036321464 -0.014182103
0000e0 00 7b 19 bd 9d c2 44 bd f6 63 d6 3a a1 44 bb 3c
       -0.037470818 -0.04803716 0.0016356695 0.022859873
0000f0 3a c4 72 bc 4c a6 3b bc f1 cc 54 bd ac cc 54 bb
       -0.014817292 -0.0114532225 -0.05195326 -0.0032470627

features.7.weight f4 [64, 64, 3, 3]
000000 d9 df 0f 3d 88 13 c0 bc dc 3a 16 bd f7 88 6b 3b
       0.035125587 -0.023446813 -0.036677226 0.0035939792
000010 22 db 01 3d f5 4f ff bb d7 ca 9d bc 8b f4 f3 3c
       0.031703122 -0.007791514 -0.01926176 0.029779693
000020 a4 cb fc bc 48 42 c7 bc 84 26 ba bb 25 2a 56 bc
       -0.030858822 -0.024323598 -0.005680861 -0.0130715715
000030 b6 a0 80 bc aa 80 01 bd 7b 53 84 3c 26 a8 29 3d
       -0.015701633 -0.031616844 0.016153088 0.041420124
000040 8c 0b 0e 3d cb 90 5b bc d6 11 c9 bc 99 f5 2e 3d
       0.03467898 -0.013401221 -0.024544638 0.04271469
000050 4f 67 fa 3c 5f 55 09 bd 74 24 58 3c 44 bb 18 3d
       0.03056684 -0.03352868 0.013192285 0.037287965
000060 d0 0c 3c 3c 59 be 09 3d a0 84 a5 bc a9 0e fa 3c
       0.011477664 0.033628795 -0.020204842 0.030524569
000070 a5 72 2e bc ad 30 09 3d 38 f9 2e bb c8 c9 bf 3c
       -0.010647451 0.033493686 -0.002669884 0.023411646
000080 da 0b 03 3c 42 2e b1 bc e1 15 bd bc a1 32 19 3d
       0.007998431 -0.021628503 -0.023081722 0.0374018
000090 21 15 0a 3d 27 ef 87 3c 67 17 18 3c 4e 7f cc 3c
       0.033711556 0.016593529 0.009282923 0.024963047
0000a0 aa 9e c5 3c a1 fd fb 3b 84 44 84 3b 00 dc f9 bc
       0.024123508 0.007690147 0.004036488 -0.030500412
0000b0 7d 21 2b 3c 31 e7 42 3d 4f 46 ae bc 54 8e 0d bd
       0.010444996 0.047583763 -0.02127376 -0.034559563
0000c0 16 69 27 3c e0 fb 0c 3c 42 bc c9 bc 95 f4 97 ba
       0.0102179255 0.008604974 -0.024625901 -0.0011593277
0000d0 dc 51 2d bc c2 ea 55 bc 81 ed 02 3a 88 68 2f 3d
       -0.010578599 -0.013056459 0.0004994497 0.0428243
0000e0 20 c7 16 3d 5e a4 c2 bc 11 b8 27 3d a4 8e fc bc
       0.036810994 -0.023760017 0.040947024 -0.030829735
0000f0 a8 55 dc 3b e9 43 3e bc 01 b9 3c bb 11 8a d3 3b
       0.006724078 -0.011612871 -0.0028796794 0.006455668
000100 b3 74 ea bc 33 f4 47 3c 80 93 d2 bc 42 ca 0a bd
       -0.0286201 0.012204218 -0.0257051 -0.033884294
000110 86 de a0 3c 9d d8 9b bc 34 8e 15 bd 1e 9c 5c bc
       0.019637357 -0.019024188 -0.03651257 -0.013464956
000120 1f a8 25 bd 85 c2 4c bb 9e a1 be bc 2e d1 6a bc
       -0.040443536 -0.0031243872 -0.023270424 -0.014332099
000130 be e5 43 3b 30 d0 14 3d 67 79 0e bd 4c 47 e6 3b
       0.0029891576 0.036331356 -0.034783747 0.007027542
000140 cb e0 07 3d ee 31 23 3c c2 c3 ce 3a 19 3a 9a 39
       0.033173364 0.009960635 0.0015774893 0.00029416455
000150 dd fc 5f b2 5c cb d1 b6 07 41 e4 b6 35 ff 05 bb
       -1.3037803e-08 -6.2523595e-06 -6.8024997e-06 -0.0020446305
000160 65 90 6c b9 1e a1 38 1e 29 93 76 bc 05 05 10 bd
       -0.00022560505 9.774197e-21 -0.015049734 -0.035161037
000170 8f f1 36 bd 75 a7 34 3c 96 e3 00 bd b6 10 d9 3b
       -0.044663962 0.011026253 -0.031467043 0.0066243066
000180 2b 52 1e 3b e3 6c 19 3b 83 c5 ff 3c fe 99 ac bb
       0.0024157863 0.0023410849 0.03122211 -0.0052673807
000190 37 54 ef 3b d5 3b 8a bb 9e e1 41 3d fd 76 93 bc
       0.0073037404 -0.0042185583 0.047334306 -0.018001074
0001a0 4a 09 c9 bb b0 d3 dd bb 71 a5 55 b8 8c 04 c7 bc
       -0.0061351405 -0.00676962 -5.0937237e-05 -0.02429416
0001b0 a4 16 0b bc 5f 4f 09 3c 58 6d 1e 3d a8 68 a2 3c
       -0.008489285 0.00838074 0.038678497 0.019825295
0001c0 1f e2 87 bc e1 61 d8 3a 48 85 04 bd f0 4f 1d bc
       -0.016587315 0.0016508662 -0.03235367 -0.009601578
0001d0 9a 74 6b bc 6c 63 b6 bc b8 77 8e 3c d0 2d 1b bc
       -0.014371062 -0.022264205 0.01739107 -0.009471372
0001e0 5d e8 22 bb 55 27 08 bd c6 71 9e bb 0c 09 a4 3c
       -0.0024857738 -0.033240635 -0.00483534 0.020023845
0001f0 e6 5d 9f 3c 58 35 0a bc 5c 74 1e bb d3 5b 28 3c
       0.019453954 -0.00843557 -0.0024178242 0.010275799
000200 f8 9e 05 bd 50 c1 07 3d e4 8c 84 bc b8 c5 8a bb
       -0.032622308 0.03314334 -0.016180463 -0.0042349957
000210 95 1a 97 3b 8a d6 b4 bc 6e f3 7c bc 6e be af 3b
       0.004611323 -0.022074956 -0.015438898 0.005363277
000220 ef 79 60 3a 75 a9 1b 3d 90 91 35 bc 2d c9 02 bd
       0.00085630914 0.038003404 -0.011082068 -0.031930137
000230 87 91 ee 3c 54 de 14 bd 7c 17 9d 3c 94 77 27 3c
       0.029122127 -0.03634484 0.019176237 0.010221381
000240 47 1f de bc b5 a9 9c bc 57 58 16 3d 40 5e 7d 3b
       -0.027114524 -0.019123891 0.03670534 0.0038660914
000250 c8 e1 2e 3d 4a 3c a5 3c b0 d7 8a 3c 43 b1 40 3d
       0.04269579 0.02017035 0.016948551 0.04704405
000260 86 ac cd bc e7 1e 12 3a 37 e3 74 3c 0d d5 29 ba
       -0.02510668 0.0005574063 0.01494675 -0.00064785854
000270 ce cc 87 bb 4a 92 a1 3c 3a 7e ae bb b7 6d 75 3a
       -0.0041442877 0.019723076 -0.005325106 0.0009362357
000280 0b 68 1a bb de dc 16 3c d8 c2 91 3c de e0 f4 bc
       -0.002356055 0.009207932 0.017793104 -0.029892381
000290 ac 1c ac bc 96 2f 0c 3d 7a 02 44 3c 0b e6 35 3d
       -0.021009766 0.03422507 0.011963481 0.04440884
0002a0 1c 38 27 bd f3 47 05 3d b3 44 d5 bc 3e 77 d5 38
       -0.040824994 0.03253932 -0.026033735 0.00010178842
0002b0 31 39 01 bd 23 5e 21 3d 1c 7a 5c 3b b3 fd e2 3c
       -0.031548683 0.039396416 0.0033642119 0.027708864
0002c0 02 10 cd 3c bb a6 7c 3c b9 00 dd ba 64 02 91 3c
       0.025032047 0.015420611 -0.0016861177 0.017701335
0002d0 ff f6 8a bb 1a b1 1a 3d 89 64 fe 3c 0c 24 81 3a
       -0.00424087 0.037766553 0.031053798 0.0009852662
0002e0 6c fe c9 ba 87 55 8c 3a 71 da 02 bc 08 14 05 3c
       -0.0015410907 0.0010706641 -0.007986651 0.008122452
0002f0 36 9d bc 3c 27 7e cf bb f3 c1 10 3d 4e 9a 91 3c
       0.023024183 -0.006332177 0.035341214 0.017773774
000300 09 25 0d bc f5 74 de 3c 85 f9 08 bd 5d b2 95 bb
       -0.008614787 0.027155379 -0.033441085 -0.0045683817
000310 7e db 15 bd be 3a 13 bd 6b a4 b9 3c 07 fc bc ba
       -0.036586277 -0.035944693 0.022661408 -0.0014418372
000320 36 20 dc 3c 19 27 95 3c 94 d4 09 bd 62 3b bc bb
       0.026870828 0.01820712 -0.033649996 -0.0057443837
000330 64 8e 03 bd 71 be c0 3a 6a fd 40 3d de 1e 3c 3d
       -0.032118216 0.0014705193 0.047116674 0.045927875
000340 ac 03 93 bb fd bb 04 3d ee 9b e1 ba 9a 59 d2 bc
       -0.0044865217 0.032405842 -0.0017212608 -0.025677491
000350 aa 2b 7e 3c 5e 4e 9c 3b 9f c4 c3 3c a1 3c 8d bc
       0.01551334 0.0047700843 0.023897467 -0.017240824
000360 7f 94 8c 3c 10 3b bd bb 4f ac bb bb f8 80 95 bc
       0.017160652 -0.005774863 -0.005727328 -0.018249974
000370 a3 7c 0f bd cd ad 12 3d db e3 13 bd 93 80 07 bd
       -0.035030972 0.03581028 -0.03610597 -0.033081602
000380 c6 d8 ae 3c 2b fd 66 bc 33 2c cc 3c 84 57 9e b9
       0.0213436 -0.014098446 0.02492342 -0.00030201313
000390 62 28 2b 3d 48 97 22 3c 6b cf 19 3d 91 5c c6 3b
       0.04178656 0.009923764 0.037551325 0.0060535152
0003a0 0e a2 d2 3c 0c a1 8f bc 9a e9 06 bd 67 97 32 bc
       0.02571204 -0.017532848 -0.032937624 -0.010900355
0003b0 a0 d5 0f 3d 8d 59 9b bc 7a 1c 9e 3c ae f3 44 3c
       0.035115838 -0.0189636 0.019300688 0.012020988
0003c0 53 eb e8 3c f6 49 dc 3c 4e 6e 4c 3c 5e eb 10 3d
       0.028432524 0.026890736 0.012477471 0.035380714
0003d0 c1 1b 5c bc d9 df 08 bd 3b a2 2a 3d a1 1a c4 bc
       -0.013434351 -0.033416603 0.04165862 -0.023938479
0003e0 c8 f3 92 3a 27 8e 4f bb bc 50 df bc 36 2e 63 3c
       0.0011211568 -0.0031670423 -0.027260177 0.013865998
0003f0 1d 7c 28 bc f2 2b 47 bc f5 06 af 3b 17 6e 34 3c
       -0.010283497 -0.0121564735 0.0053414055 0.011012576

features.7.bias f4 [64]
000000 cb 61 a3 3c 34 c1 45 bc 57 66 be 3c ce b4 10 3d
       0.019944092 -0.012069989 0.023242159 0.03532868
000010 7f 07 5e b5 ac c7 7c bc 13 4c 3c bc e4 2a 0d bd
       -8.2712353e-07 -0.015428465 -0.011492747 -0.03446473
000020 35 7a 03 bc a0 18 ba 3c 76 e8 3f 3c 0f b6 d9 bc
       -0.008024742 0.02271682 0.011713138 -0.02657607
000030 f0 fb 02 3d 49 fe bc 3c 74 d3 da bb 31 6f 78 3b
       0.031978548 0.023070471 -0.006678039 0.0037908072
000040 8b 06 9f b9 29 b8 44 bc e6 c6 0f 3d a6 5d bc 3c
       -0.00030331718 -0.012006798 0.035101794 0.022993874
000050 e9 c5 f4 3c 33 ef ff 3c 01 0c 5e bb f3 51 12 bb
       0.029879527 0.031241989 -0.0033881667 -0.0022326678
000060 47 0e ff 3c 38 be d6 bc fb f9 f0 3b 77 90 eb 3c
       0.031134738 -0.02621375 0.0073540187 0.02875541
000070 e4 4c 89 3c 68 53 04 bc 3a da 8b 3c c4 b1 61 3c
       0.016760297 -0.008076526 0.017071832 0.013775293
000080 33 41 2a 3d 70 5c 56 bc 96 3a aa 3c 56 78 a2 3c
       0.041566085 -0.013083562 0.02077989 0.019832771
000090 f9 f5 88 bb 5a 06 d0 bc a2 67 02 bc 00 25 0d 3c
       -0.004179713 -0.025393654 -0.007959278 0.0086147785
0000a0 63 a2 97 3b 47 30 62 bb e1 ab 40 3d ee e4 23 3d
       0.0046275123 -0.0034513639 0.047038916 0.040013246
0000b0 2c 51 1a 3d d6 97 43 b7 ce e1 76 bb 48 15 ff 3c
       0.037675068 -1.1658258e-05 -0.0037671211 0.031138077
0000c0 66 f9 f6 3c 23 78 9f 3c b9 d0 92 3c 60 fb 4b 3c
       0.03014822 0.019466465 0.017921792 0.012450069
0000d0 cd 53 0b bd 7d e2 9f 3b 9f db c7 3b db d8 0a bd
       -0.034015466 0.0048792944 0.006099179 -0.033898216
0000e0 3e 8a fb bc 78 f7 ce 3c 06 cd 2e bb 31 c3 24 ba
       -0.030705567 0.025264487 -0.0026672496 -0.00062851893
0000f0 e7 68 5a 3c c5 d5 ac bc 53 2a 34 3c d4 dc cc bc
       0.013330675 -0.021098027 0.010996419 -0.025007643

features.10.weight f4 [64, 64, 1, 1]
000000 55 67 3e 3d a7 8c 4c a7 e0 61 2c bb a3 03 2c 37
       0.046485264 -2.8386935e-15 -0.0026303455 1.0252846e-05
000010 14 be c8 bc 01 b7 45 bc 95 91 5f bd a9 ac 0e 3d
       -0.024504699 -0.012067557 -0.054582197 0.03483263
000020 1d 5b 2d bd 91 6f a4 3c d3 0e e1 1c 28 32 95 b7
       -0.04232322 0.02007273 1.4893083e-21 -1.778554e-05
000030 fd d5 41 bc 08 3f 71 35 ed 9e ef 39 73 44 8c b9
       -0.011830804 8.987122e-07 0.0004570404 -0.0002675388
000040 1f f4 6a 3c 99 2f f1 bc 78 db 4e bd ad c4 a5 3c
       0.01434043 -0.029441642 -0.05050227 0.020235384
000050 95 61 58 3d 29 c2 4e ba 0e b7 e3 3b 24 88 a4 3c
       0.052827436 -0.00078872085 0.006949312 0.020084448
000060 87 13 1e 1d 6d f0 12 bc ae 4e af bb 6f ca 4b 20
       2.0921221e-21 -0.008968455 -0.0053499555 1.7261748e-19
000070 fe 16 23 bc 50 73 1a ba 23 43 76 33 51 3e 07 3d
       -0.009954212 -0.00058918167 5.73374e-08 0.033018414
000080 79 ef a5 3c 42 31 32 bd f7 7f 9e bb ff 6e 3b bc
       0.020255791 -0.043504007 -0.004837032 -0.011440038
000090 51 ff 2d bb 5d cb a6 3c 3b fb 88 b7 84 cf 12 3c
       -0.0026549886 0.020360643 -1.6329452e-05 0.008960608
0000a0 12 23 44 3c 55 de 14 bc 8c d8 fe 3b f3 7d e4 1c
       0.011971252 -0.009086211 0.0077772792 1.5120331e-21
0000b0 fc 5f a3 3c 1c cf 66 b8 63 c1 e6 b8 35 3d ec bc
       0.01994323 -5.502916e-05 -0.00011003276 -0.02883778
0000c0 ac d3 fc bc c5 3e 27 b9 a9 9e 37 3d ac 4f a4 3c
       -0.030862652 -0.00015949745 0.044829044 0.020057522
0000d0 b4 ef 3d 3d fa 01 e7 bc 84 2c c3 3c 0f ba d2 b8
       0.046371177 -0.028199185 0.023824938 -0.000100482364
0000e0 be 39 a4 3a d4 cf 12 a8 fe 58 c4 bc 96 da 0a bd
       0.0012529416 -8.149694e-15 -0.023968216 -0.033899866
0000f0 54 f8 61 bd f5 e4 a9 b4 09 98 1e 3d b6 ef 95 bc
       -0.055168465 -3.164529e-07 0.03871921 -0.01830278
000100 03 f3 59 3c 19 9f 7e bd 55 75 98 bd 40 36 94 bc
       0.013302567 -0.062163446 -0.07444254 -0.018092275
000110 11 69 cc 3c 7e 4d a1 3c ef 74 7a 3d 9f 54 11 bd
       0.024952443 0.019690271 0.061146673 -0.03548109
000120 f1 95 d3 3c 06 7e ed 3d 2b 2d ad 3c 55 83 f5 3c
       0.025828334 0.11596303 0.021139702 0.02996985
000130 67 07 a8 3d 38 58 6e bd 2f bb 2c bd 6b 83 8a bd
       0.08204537 -0.0581896 -0.0421707 -0.06763347
000140 bf 0b ca 3c e3 c1 cb bd 69 26 09 3d 8a 03 e0 bc
       0.024663804 -0.0994909 0.033483896 -0.027345438
000150 f0 3c 00 3e 9d be bd bd ac f6 2d 3d fd c9 ad 3a
       0.12523246 -0.09264872 0.042471573 0.001325905
000160 a9 a3 b7 3d 08 2b f1 bb 5d c6 fc 3d a4 af f8 3d
       0.089667626 -0.007359866 0.12342522 0.12142876
000170 2a a7 17 bd 71 b1 c0 3d 04 a4 1d 3d ac 5a a0 bd
       -0.037024654 0.09408844 0.038486496 -0.07829794
000180 b4 c0 26 3d d9 13 6b bd 2d 34 c3 bd 08 86 98 3d
       0.04071112 -0.057391975 -0.09531436 0.074474394
000190 6a be 88 bd 17 72 e6 bd 3e 73 8a bd 83 35 4a bd
       -0.066769436 -0.1125223 -0.06760262 -0.04936744
0001a0 8e 0b 2d bd 2a 2a a9 bd 7f e5 1c bc 48 20 df 3d
       -0.042247348 -0.08259995 -0.0095762005 0.10894829
0001b0 8a 02 1b 3d 80 8e 8e bd b9 9d 6d 3d f1 0f 92 3c
       0.03784422 -0.069607735 0.058011744 0.017829867
0001c0 f1 e7 07 3b 09 b9 e5 bd e7 fe de bd f2 b8 48 bd
       0.0020737613 -0.11216933 -0.108884625 -0.049004503
0001d0 60 91 ae 3d eb c4 68 bb 82 5c 45 3d b6 4a f6 bc
       0.08523822 -0.0035517763 0.048183925 -0.030064922
0001e0 54 ef bc 3d 89 5f 01 3e de 2b 2e 3a c2 c0 a1 3d
       0.09225336 0.126341 0.000664411 0.07898094
0001f0 6f c2 8a bd d8 85 c3 3d 67 b9 b1 bb bb f2 d4 bd
       -0.067753665 0.09547013 -0.005423713 -0.1039786
000200 95 00 a3 3b 79 bc 37 bd 45 a6 a6 3c 97 f9 22 bd
       0.0049744346 -0.044857476 0.020342955 -0.03978881
000210 0b 93 8c bc 09 ce 91 bc 65 b4 b7 bc 6d 15 5d 38
       -0.01715996 -0.01779844 -0.022424886 5.271046e-05
000220 d0 41 1c bd 15 e8 5c 2e 5d 92 8f 3c 91 9f 01 37
       -0.0381487 5.022834e-11 0.017525846 7.726151e-06
000230 84 92 0d 3d 74 97 f4 3b 36 e8 89 3c 8e 72 02 3d
       0.034563556 0.0074643437 0.01683436 0.03184753
000240 6f 42 4a 9e 83 ab ab 3a 51 22 5c bb 95 3b c5 bb
       -1.0707529e-20 0.0013097379 -0.003358979 -0.0060190656
000250 42 b5 14 bd 2d 55 21 ba 10 66 27 b7 07 85 03 bd
       -0.036305673 -0.0006154355 -9.977739e-06 -0.032109287
000260 3d e6 d4 bc 90 17 6e 3b c9 46 7f b7 b8 16 a6 b9
       -0.025988692 0.0036329962 -1.5215665e-05 -0.00031678914
000270 ea 05 c4 ad a5 b2 33 3b 8f 42 9a 3b 93 d9 4b 3b
       -2.2285247e-11 0.0027419713 0.0047076414 0.0031105026
000280 b9 30 8b ba fa 65 53 3c 0d 63 74 b6 94 30 2e bb
       -0.0010619379 0.012902731 -3.6416488e-06 -0.0026579248
000290 27 8c 07 3d df 78 4d 3b 8d 27 60 1e 76 fc 48 b2
       0.033092644 0.0031352562 1.186664e-20 -1.1698935e-08
0002a0 e7 7d 5b 3d 14 0a cf b7 c5 da 94 bb 58 13 d4 ab
       0.053586867 -2.4681016e-05 -0.004542681 -1.5068875e-12
0002b0 91 3e 6e 2e e3 a3 e5 bc 6f be 4b ae d8 bf 89 bc
       5.4170505e-11 -0.028032249 -4.6325995e-11 -0.016815111
0002c0 7a 30 a8 9c 16 c2 1c 3d ae f2 2b bb 2c 1c f2 ba
       -1.1129838e-21 0.038271032 -0.0026237178 -0.0018471531
0002d0 66 0b fc 3c aa 75 ad 3b 81 89 fa bb cd a8 56 bd
       0.030767154 0.0052935677 -0.0076457863 -0.052407075
0002e0 79 a7 54 3a c9 a9 0b bd e5 f9 21 bd 4a 19 94 bc
       0.00081121136 -0.034097467 -0.03954496 -0.018078465
0002f0 18 68 ca bc 0e ea be bc e1 db 38 aa 28 51 8e 3b
       -0.024707839 -0.023304965 -1.6418769e-13 0.0043431707
000300 c3 10 d9 3d 1b 81 22 bd 45 a0 60 3d 88 b2 83 bd
       0.105989 -0.039673906 0.054840345 -0.064305365
000310 50 b4 6e bb 46 10 8f bd de 81 dc 3d 2e ac 84 b9
       -0.0036423393 -0.06985526 0.10766958 -0.00025305286
000320 d5 d6 5f 3d a0 be 1a bd 03 8a 89 35 ea a4 61 1f
       0.05464824 -0.03777945 1.0247462e-06 4.7782017e-20
000330 e1 f4 64 bc 22 a5 32 3c 9c b9 3f 3d c3 0d d3 bd
       -0.013974399 0.010903629 0.04680787 -0.10305359
000340 0c 2b 21 bd 21 4c 3b 3d 13 d6 d7 3b 1e 0b 3c 3c
       -0.039347693 0.0457269 0.006586799 0.01147726
000350 73 bd 3a bd ad c7 de 3d ad 15 22 3d 48 31 18 b9
       -0.04559083 0.10877929 0.039571453 -0.00014514208
000360 bf e5 a7 bb 6b e7 85 3c 87 af 82 bd 8a c7 cf ba
       -0.0051238234 0.0163457 -0.063811354 -0.0015852314
000370 80 f2 fa bc 83 8c 76 3d f4 19 02 bd 9d 0d db 3d
       -0.030633211 0.060192596 -0.031763032 0.10695956
000380 75 11 ac bd fb 0e 5e bc fc cc e8 3d 74 28 05 3d
       -0.08401767 -0.013553376 0.11367223 0.032509282
000390 32 8d dd bd 21 cd 5e bd 13 3e c4 3c a4 dc da bd
       -0.108179465 -0.054394845 0.02395538 -0.10686615
0003a0 e3 a1 92 23 92 21 41 3d 1c 5f b5 bc 74 7c c6 3d
       1.5897913e-17 0.047151156 -0.022140078 0.09691706
0003b0 bc 4b e0 3d 0d 80 94 bc 0c 85 33 3d b7 8a b4 3a
       0.10951945 -0.018127466 0.043828055 0.001377425
0003c0 1e 22 8b 3b 04 3e 6b bd fd b4 85 bd f4 3d 95 bd
       0.0042460104 -0.05743219 -0.065286614 -0.07287207
0003d0 37 46 9e 3d ab 1e 2c 3d 50 20 82 bc f9 e6 85 3c
       0.07728236 0.042021435 -0.015884548 0.016345488
0003e0 26 b3 93 bb 4d 48 49 ba 8c d8 ac bd c6 b9 e1 bd
       -0.00450744 -0.0007678315 -0.084397405 -0.110217616
0003f0 17 4a b4 3d ae 0f 95 bc 80 ee b1 36 54 13 68 bc
       0.08803194 -0.018195953 5.302776e-06 -0.014164764

features.10.bias f4 [64]
000000 b5 6c 96 bc ba 98 e7 bb 98 84 75 9c 46 25 de bd
       -0.018362382 -0.007067767 -8.1235073e-22 -0.10846953
000010 91 6b 99 3d 78 ed 4f ba 31 85 8b 3d d5 15 46 3d
       0.0749122 -0.0007931809 0.068125136 0.048360664
000020 28 cf ba bd f2 96 37 bc 3f ce 75 bd 08 09 11 3c
       -0.09121543 -0.011205422 -0.060011145 0.008852251
000030 b3 fb b4 bd 44 d9 cf bb 42 f2 b8 bd 50 00 d5 3d
       -0.0883707 -0.0063430388 -0.09030582 0.1040045
000040 94 ce d7 3d 04 bc c5 3d 2e 26 cc 3c b6 84 a5 bc
       0.105374485 0.09655002 0.02492055 -0.020204883
000050 c1 e5 8b bc 84 0d 94 bd 40 7c b0 bd 22 df b2 b4
       -0.017077329 -0.072291404 -0.08617449 -3.3317434e-07
000060 0f af 05 bd 7a 8d bb 3d 2a 4b 0c bc ab e7 d4 3d
       -0.032637652 0.09157844 -0.008562842 0.1039575
000070 ab 18 6c 3c 3d 07 17 3c b3 0f 31 b2 bb d9 24 bc
       0.014410178 0.009218034 -1.0306326e-08 -0.010061677
000080 ad 50 8f 3c cf e3 7c 3d 1e 8a 67 3d 66 31 9f 3c
       0.017494524 0.061740693 0.056528203 0.019432735
000090 dd cb d5 bb 55 05 4e bd ee 2d 45 bc 35 f5 d2 3c
       -0.0065245465 -0.050298054 -0.012034876 0.02575169
0000a0 e4 ca e2 3c b6 6a ae 3c 32 6d 08 3e b8 66 8a 3d
       0.027684636 0.021291118 0.13322905 0.06757873
0000b0 57 7f 9e 3d c6 09 1b 3d aa 88 e4 bd a0 61 a3 bc
       0.07739132 0.037851118 -0.11158879 -0.019944012
0000c0 95 19 e8 3c 29 96 3f 3d ff a9 bf 3d 31 20 dd 3c
       0.028332511 0.046774063 0.09358596 0.02699289
0000d0 72 e4 83 bd a6 92 43 3d b9 1b 85 3d 14 2d f7 bc
       -0.06440057 0.047747277 0.06499428 -0.030172862
0000e0 7e 13 9a 3c 03 37 8c 3d 8e 12 77 bb d8 03 2b 3d
       0.018808123 0.0684643 -0.0037700268 0.041751713
0000f0 3a 94 31 bc ab 9a 96 3b 5a 1c c4 b2 22 6b f9 bd
       -0.010838563 0.0045960746 -2.2830296e-08 -0.12178637

classifier.0.weight f4 [3, 64]
000000 6c d8 9b b7 6b 98 cd bd 73 32 1a 3c e4 cc c1 3d
       -1.857822e-05 -0.10038837 0.009411442 0.09462908
000010 1d b1 ca 3d 62 08 dd 9a ea 11 f7 3c da 7c 8f 3d
       0.09897063 -9.1417e-23 0.03015991 0.070062354
000020 4f e5 b1 b8 59 4b 0f 3d c5 a8 8d bd c1 66 db bd
       -8.48273e-05 0.034983966 -0.06916956 -0.10712958
000030 23 16 ea 3d a8 13 c1 b9 b1 83 4e 3c 61 4d 71 bc
       0.114300035 -0.00036826474 0.01260464 -0.014727921
000040 e0 02 d9 bd e6 fe 80 3d 9b a0 a5 3c b7 d1 d1 3d
       -0.105962515 0.06298618 0.020218184 0.10245078
000050 b7 79 8f 9e 39 c5 3e 3c 32 72 c3 3d 64 bf 0b 30
       -1.5191054e-20 0.011643701 0.095432654 5.083989e-10
000060 75 c3 a9 3a 0c db a7 bc 9d 92 11 3b fa d9 ab 3d
       0.0012951927 -0.020490192 0.0022212632 0.08391185
000070 3e ba f7 3d 1c 9b df bd e3 45 4d bd 85 bb 19 bd
       0.1209607 -0.10918257 -0.050115477 -0.03753235
000080 a1 1c ef 3d ee 0f d1 bd 1c 95 ce 3c 29 a2 9a bd
       0.116753824 -0.102081165 0.025217585 -0.07550461
000090 07 0c a6 b7 89 0c 57 3d de 0b a2 bb 5c 14 c7 bd
       -1.9794343e-05 0.05250219 -0.0049452623 -0.0972068
0000a0 be eb b1 bc df 4d 98 3d 46 9b 6f 3d 97 7a 3b 3d
       -0.021718856 0.07436728 0.05849769 0.045771208
0000b0 79 e6 c3 3c 5c 66 b7 3d 78 77 d3 3b 54 40 c9 bd
       0.023913609 0.089550704 0.006453451 -0.09826723
0000c0 64 cf ab bd 45 77 04 3e e5 b9 aa 3d fc 08 92 3d
       -0.08389166 0.12936123 0.08336238 0.0713062
0000d0 53 47 80 3d 5a 93 cc bd 08 f2 36 3c 10 00 e2 3c
       0.06263604 -0.099890426 0.011166103 0.02758792
0000e0 47 dd 2d 3d 5c 21 93 3d 35 de 8a 3d 8e b6 9f bd
       0.042447355 0.07184097 0.06780664 -0.077984914
0000f0 67 c2 9a bd a4 c2 79 bd b7 17 c4 3c 31 90 52 bd
       -0.075566106 -0.06097664 0.02393709 -0.051407043
000100 c7 70 95 3b 09 e9 b8 3c 93 e0 08 ba 37 9f b7 bd
       0.0045605632 0.022572057 -0.00052214524 -0.08965915
000110 0a 08 f2 bd f0 8a 29 39 59 8e 6a 3d c9 66 dc 3b
       -0.118179396 0.00016168854 0.05726466 0.00672612
000120 4e b8 b3 3d b9 88 cf bc 18 d1 7c bd 60 71 7d bc
       0.08775388 -0.02533375 -0.061722845 -0.015468925
000130 91 48 ca bd dd cd 5c 3a 94 6e 4d 3d da a6 99 3d
       -0.09877122 0.000842301 0.050154284 0.075025275
000140 f1 d9 01 bd 94 63 95 3d d3 28 55 3d a5 44 2a bd
       -0.031701986 0.07294384 0.052040886 -0.04156937
000150 5a 61 21 1d c8 b5 57 3d d1 91 e3 3d 46 57 0e 3d
       2.1358502e-21 0.052663594 0.11111797 0.0347512
000160 32 7c 64 38 91 a5 09 bc 9d d1 90 bc 6b db 75 3d
       5.4475102e-05 -0.0084012905 -0.017678076 0.060023706
000170 e6 68 e6 3d 85 80 be bc af 2b 77 3c 7b 49 b7 bc
       0.112504765 -0.023254642 0.015086099 -0.022373905
000180 48 ce ae bd 5d 0d dd bd 33 17 ec bd 0f b6 fd 3d
       -0.08535439 -0.107935645 -0.115278624 0.123882405
000190 bf 31 a0 38 69 e5 c8 3c 96 5c 87 a9 c9 4a 8f 3c
       7.6386605e-05 0.024523454 -6.0112654e-14 0.017491715
0001a0 0b 3a 94 3d 2c fc b9 3c 42 cb d7 38 a8 ad 95 bd
       0.07237633 0.022703253 0.000102898586 -0.07308513
0001b0 5d d8 00 3e 54 3a be bd ad 2c cc bc 20 13 4c 3d
       0.12582536 -0.09288469 -0.024923647 0.049822927
0001c0 f6 82 2c 3d 79 c1 d4 bd db c5 fb 3d 57 5f 38 3c
       0.04211708 -0.103884645 0.12293597 0.0112532
0001d0 34 f9 e7 bc cd 52 ee 3d 8e 35 8f 3d 08 b0 8b 3d
       -0.028317071 0.11636887 0.069926366 0.06820685
0001e0 f4 c3 bb 3d 5f b3 bc bd b5 fd c6 3d 7e 4e 42 3d
       0.091682345 -0.092139 0.097163595 0.047438137
0001f0 ff 19 be bd 01 b8 4a 3d 3c 3d 0d 39 b2 65 40 bd
       -0.09282302 0.049491886 0.0001346962 -0.046971984
000200 0c e7 3f bc 3f 7c dc bd 29 56 11 bd a5 97 92 bd
       -0.011712801 -0.107658856 -0.03548256 -0.0715783
000210 d2 d8 03 be fb ef 58 bc d3 cd bc bc bf 11 b6 3d
       -0.12875679 -0.01324081 -0.023047363 0.088901035
000220 e2 86 8f bd d0 ab c7 37 af 1f 7c 3c ff 5a be 3d
       -0.07008149 2.3802655e-05 0.015388413 0.092947
000230 95 14 76 3a 02 58 f3 36 eb 0d 4b 3c 88 cf c8 bc
       0.0009387222 7.25221e-06 0.012393455 -0.024513021
000240 4f 13 a0 3d 8b ba a5 bc 8b 2b 02 bd 34 d0 fb bd
       0.07816183 -0.020230552 -0.031779807 -0.12295571
000250 7b 5c a7 a1 0b a4 80 3d 5b 85 59 3d 16 78 41 bd
       -1.134084e-18 0.06281289 0.053105693 -0.047233663
000260 d4 b0 40 3d a3 fb d0 3d f0 19 b1 b7 56 66 26 3d
       0.047043636 0.10204246 -2.1112122e-05 0.04062494
000270 9b aa df bd fb 53 8f bc 65 4b dd bc 8c cd f2 3d
       -0.10921212 -0.0174961 -0.02701349 0.11855611
000280 5f e5 9e 3d 26 26 b5 3d 05 ce db bd 18 04 ae 3d
       0.07758593 0.08845167 -0.107326545 0.084968746
000290 1a 67 8f bc 6d 3b 22 b7 26 6b dc bb 67 c7 a5 3a
       -0.017505217 -9.669789e-06 -0.0067266403 0.0012647928
0002a0 5e 95 c1 bd a0 1b a2 3d 5a 76 29 bd 15 a0 f5 3d
       -0.09452318 0.07915425 -0.041372634 0.11993424
0002b0 ac 78 f8 bd 5e 18 5a 3d 0e d7 db 3d 27 4a 93 bd
       -0.12132391 0.053245895 0.10734378 -0.07191878
0002c0 05 5f f2 bd f1 be 94 3c eb 50 a4 3d 97 fd 0c 3d
       -0.1183453 0.018157454 0.080232464 0.03442153
0002d0 4f b9 0d bc 11 e3 ad 3d 59 52 85 bd 95 cd 03 3d
       -0.008650138 0.08490575 -0.06509847 0.03217848
0002e0 91 3e 11 bd 0d f3 63 bd bc 12 c7 3d a7 bc 20 bd
       -0.03546006 -0.055651713 0.0972037 -0.039242413
0002f0 e2 c9 4e bd a9 bb b0 bd 5d fe 85 bc 33 7d 27 3c
       -0.0504855 -0.08629543 -0.016356641 0.010222721

classifier.0.bias f4 [3]
000000 00 8f 5e bd 3e 65 ca 3a 17 1c 05 bd
       -0.054335594 0.001544155 -0.03249749
