run_3/benchmark_experiment_increased_data/experience_1/model_experience_1.pth (torch, 849657 bytes, 36 tensors)

features.0.weight f4 [32, 3, 3, 3]
-0.09143164 0.08996899 0.17004447 -0.10830521 0.17804216 -0.0007189116 0.10849295 0.030892862
0.15053685 0.08519653 0.049648672 -0.05300959 0.0991865 -0.17480277 0.030868003 -0.11567331
-0.13507386 0.047908947 0.105483614 -0.020247348 0.17347394 0.052474566 0.14267191 -0.11467642
-0.15117283 -0.05089217 0.13279347 -0.04006422 -0.13956265 0.029374572 0.09894499 0.16007304
0.13509716 0.17597058 0.07298936 -0.057785083 -0.05387241 0.1415776 0.15162005 0.11811209
-0.019234175 -0.12513241 -0.14865953 -0.062549956 -0.10311125 0.10623 0.058878824 0.0056820814
0.026252804 -0.02159559 0.1357671 -0.019118259 0.14318754 -0.054197636 0.12087216 0.13955969
0.024540568 -0.008300328 0.21086131 0.0825209 0.13759558 -0.03634636 0.08913872 0.00209215
0.026509374 -0.100477666 0.03169465 -0.15595752 0.02051032 -0.11570081 0.1917868 0.022163266
0.0913364 -0.1957805 0.14983346 0.08824696 0.0833911 -0.106317006 -0.10843242 0.032631774
0.051161326 -0.17763318 -0.1073664 -0.10799383 0.09715795 -0.02193131 0.0011583079 0.1929775
-0.060098197 0.12956464 0.1883654 -0.041666303 0.1009153 0.04923036 -0.06779553 0.020121852
-0.09302878 0.08219713 -0.023553994 0.16566978 -0.07095061 -0.08576351 -0.08778622 -0.064966105
0.028288804 0.037777487 -0.075821325 -0.15642805 -0.087435365 0.13749073 0.042845957 -0.07590714
0.007322919 0.074882396 -0.15939415 0.080164514 0.019997153 0.02255567 0.10530278 -0.1849689
-0.016405016 -0.04763922 0.180815 0.046147674 -0.19011958 -0.1942587 -0.13453878 -0.07457224
0.003144004 0.08299624 -0.16445549 0.15855905 -0.0111235855 0.0762896 -0.01488127 -0.096212365
-0.09393225 -0.0015045538 0.0644653 0.09788558 0.20155817 0.06682123 0.10170939 0.07898445
-0.061807625 -0.026998378 -0.079486124 0.18211904 -0.043073744 -0.034635983 0.039393917 0.11593143
0.12836778 0.058633532 0.01269281 -0.1566412 0.12380079 -0.08447471 -0.11975417 0.10294453
0.16494672 0.18812132 0.0622601 0.10384165 0.07309562 -0.036794968 0.023870168 0.11242745
0.014924222 0.1095763 0.21082833 0.14214341 -0.016773362 0.12990476 0.09794596 0.16130342
0.0631599 0.17934328 0.19208926 -0.016050015 0.1189552 -0.027529502 0.06313223 -0.07924803
0.20921573 -0.021052366 -0.07697807 0.15095179 0.121049106 -0.06389005 -0.04755871 0.042538535
-0.099545434 -0.17561348 0.009585671 -0.05401384 -0.15392347 -0.18067847 0.07585972 -0.12064775
-0.16928823 -0.054452382 -0.13614222 0.091133505 -0.1961711 0.055502795 -0.118998036 -0.027685849
0.11153567 -0.106271364 -0.07619218 -0.046557363 0.005837122 0.18084286 -0.0841919 0.08240909
-0.117520556 -0.07187787 0.18373199 0.13087218 -0.13434573 0.04775997 0.12047336 -0.06110818
-0.15449771 -0.16344391 -0.04458887 0.07207786 0.035067957 -0.16577193 0.07792698 -0.028209088
0.1218791 -0.111591145 -0.12552239 0.2005456 -0.043402724 -4.2945616e-05 -0.06542975 0.1613423
0.03766203 0.114468545 0.14529778 0.04445405 -0.06983621 0.06176932 -0.12189876 0.065852456
-0.03476694 -0.18600352 0.11234542 -0.023202257 -0.06276323 0.13244753 0.17003824 -0.07853604
00000000: 8340 bbbd a941 b83d 2320 2e3e 1fcf ddbd
00000010: af50 363e 5775 3cba 8d31 de3d 0713 fd3c
00000020: 5526 1a3e 857b ae3d 685c 4b3d 9520 59bd
00000030: 4b22 cb3d 7fff 32be e5de fc3c 21e6 ecbd
00000040: cd50 0abe 2c3c 443d cb07 d83d c4dd a5bc
00000050: 27a3 313e 92ef 563d 9618 123e 79db eabd
00000060: 0dcd 1abe 4f74 50bd 03fb 073e 611a 24bd
00000070: 83e9 0ebe f1a2 f03c aca3 ca3d 30ea 233e
00000080: e956 0a3e a231 343e 727b 953d 0db0 6cbd
00000090: 51a9 5cbd b8f9 103e 4942 1b3e c0e4 f13d
000000a0: fd90 9dbc b622 00be 343a 18be 311a 80bd
000000b0: fe2b d3bd 1d8f d93d ec2a 713d c130 ba3b
000000c0: 1f10 d73c 3ce9 b0bc 8806 0b3e e59d 9cbc
000000d0: c19f 123e 57fe 5dbd d38b f73d bce8 0e3e
000000e0: 4d09 c93c 19fe 07bc 07ec 573e b800 a93d
000000f0: dbe5 0c3e ecdf 14bd 5c8e b63d 741c 093b
00000100: 302a d93c 3cc7 cdbd 40d2 013d 54b3 1fbe
00000110: 4205 a83c 8cf4 ecbd c263 443e bd8f b53c
00000120: 940e bb3d af7a 48be f16d 193e d2ba b43d
00000130: f4c8 aa3d bbbc d9bd d111 debd e5a8 053d
00000140: 8a8e 513d 79e5 35be eae2 dbbd df2b ddbd
00000150: bffa c63d 4aa9 b3bc 5dd2 973a e59b 453e
00000160: 8729 76bd 98ac 043e dce2 403e 49aa 2abd
00000170: aeac ce3d c6a5 493d 62d8 8abd 95d6 a43c
00000180: df85 bebd f856 a83d 4ef4 c0bc 57a5 293e
00000190: 8e4e 91bd c7a4 afbd 43c9 b3bd f30c 85bd
000001a0: ecbd e73c 91bc 1a3d 3648 9bbd ad2e 20be
000001b0: 5011 b3bd 5fca 0c3e 3e7f 2f3d 3475 9bbd
000001c0: 19f5 ef3b f15b 993d 3838 23be 4b2d a43d
000001d0: 12d1 a33c abc6 b83c fca8 d73d 7d68 3dbe
000001e0: d063 86bc 5821 43bd 9127 393e 5805 3d3d
000001f0: b5ae 42be c1eb 46be 89c4 09be 55b9 98bd
00000200: a20b 4e3b eff9 a93d 0567 28be 4e5d 223e
00000210: b33f 36bc b93d 9c3d 92d0 73bc fd0a c5bd
00000220: 8d5f c0bd 7334 c5ba 6206 843d 3c78 c83d
00000230: 4465 4e3e 92d9 883d 034d d03d 99c2 a13d
00000240: fe29 7dbd b42b ddbc 9fc9 a2bd 6a7d 3a3e
00000250: 186e 30bd 76de 0dbd 845b 213d 756d ed3d
00000260: d872 033e b729 703d 81f5 4f3c 8d66 20be
00000270: 458b fd3d 1401 adbd ad41 f5bd 95d4 d23d
00000280: cbe7 283e e0a2 403e 7204 7f3d eeaa d43d
00000290: 28b3 953d 52b6 16bd 5f8b c33c 5d40 e63d
000002a0: b984 743c 8a69 e03d 62e3 573e 0b8e 113e
000002b0: 4a68 89bc c105 053e e497 c83d b92c 253e
000002c0: fa59 813d c4a5 373e 0cb3 443e 527b 83bc
000002d0: c99e f33d 8d85 e1bc 784b 813d cb4c a2bd
000002e0: a63c 563e 0376 acbc aea6 9dbd 1b93 1a3e
000002f0: 98e8 f73d c9d8 82bd eccc 42bd e33c 2e3d
00000300: 7ade cbbd 05d4 33be 380d 1d3c 9e3d 5dbd
00000310: 1d9e 1dbe c703 39be 575c 9b3d 2b16 f7bd
00000320: e559 2dbe 7609 5fbd de68 0bbe 34a4 ba3d
00000330: 14e1 48be e656 633d 3eb5 f3bd 6fcd e2bc
00000340: d06c e43d cda4 d9bd a50a 9cbd efb2 3ebd
00000350: 5445 bf3b df2e 393e ce6c acbd 19c6 a83d
00000360: 9eae f0bd b434 93bd 3d24 3c3e 5b03 063e
00000370: ed91 09be f59f 433d bdba f63d 924c 7abd
00000380: a634 1ebe d75d 27be d2a2 36bd 8f9d 933d
00000390: 6ba3 0f3d 1ec0 29be 2e98 9f3d bf16 e7bc
000003a0: c09b f93d e689 e4bd f188 00be d35b 4d3e
000003b0: 0ec7 31bd 8120 34b8 0800 86bd ea36 253e
000003c0: 8043 1a3d 7c6e ea3d f1c8 143e 7315 363d
000003d0: 4906 8fbd d401 7d3d 0fa6 f9bd a7dd 863d
000003e0: c767 0ebd b577 3ebe 5b15 e63d a912 bebc
000003f0: 028a 80bd 53a0 073e 811e 2e3e 81d7 a0bd

features.0.bias f4 [32]
0.018915217 0.18629353 -0.13557653 -0.056824904 -0.15546377 -0.064236544 -0.049365122 -0.04795392
0.16441187 -0.13662767 0.069185674 -0.01355538 -0.07875913 0.1791391 0.15048277 0.20027503
0.19776505 0.14657633 0.08425441 -0.13967328 0.07699126 -0.08510934 -0.15094738 0.17929348
0.07071058 -0.13100442 0.011446853 -0.16176362 0.12791993 -0.048810236 0.13499 -0.008872624
00000000: 16f4 9a3c bbc3 3e3e 93d4 0abe 3bc1 68bd
00000010: e531 1fbe 738e 83bd 1533 4abd 546b 44bd
00000020: 965b 283e 20e8 0bbe 38b1 8d3d 6217 5ebc
00000030: 774c a1bd 3d70 373e 2818 1a3e e614 4d3e
00000040: ec82 4a3e 1b18 163e 938d ac3d 8306 0fbe
00000050: 98ad 9d3d ce4d aebd f391 1abe b698 373e
00000060: b5d0 903d 0626 06be 958b 3b3c 5da5 25be
00000070: 71fd 023e 3eed 47bd d23a 0a3e 7b5e 11bc

features.2.weight f4 [32, 32, 3, 3]
0.009064534 -0.05261682 0.028405875 0.0110477125 0.06028492 -0.049138542 -0.0415233 0.01482608
0.01636253 -0.026088418 0.009834974 -0.020922614 -0.010656499 0.052452944 0.036736373 0.06673572
0.002874846 0.010049449 0.035972953 -0.020042567 0.03867991 0.056991123 0.0006694724 -0.04882549
-0.048895396 0.045282472 -0.00066182076 -0.010812519 0.0009895315 -0.006418289 0.048085097 -0.011580496
-0.035604976 -0.059585046 0.00753101 0.0040492183 0.05065872 0.001095326 -0.01956327 0.061924838
0.030661378 0.052683737 0.054378685 -0.0393328 -0.023885075 -0.05074505 0.0015061754 0.025025986
-0.052852847 -0.04423134 0.023831418 -0.011239524 -0.05144935 0.02373153 -0.03816935 0.034549125
0.0154907415 0.018869115 -0.026124995 0.00075136445 0.022845183 -0.028833572 -0.031334627 -0.044172604
-0.030751832 -0.016543776 -0.016032532 -0.011774502 0.04738395 -0.021930913 0.017010149 -0.026757658
0.074620925 0.07413972 0.04069405 0.03283971 0.049287852 0.030776259 0.04027691 0.03168446
0.045962367 -0.04190845 -0.037366576 0.029755851 -0.021744372 -0.037073128 -0.051165372 0.052027553
0.018952074 0.05125404 -0.041571815 -0.0047109025 -0.045319103 0.03026038 -0.030298991 -0.04187869
0.04535802 0.04112336 -0.04441967 -0.05728731 -0.0006103441 -0.044237074 0.027055986 0.053242147
0.039624665 0.02725453 0.021392507 0.058298294 0.01743723 -0.052748498 -0.03549371 -0.028273303
0.013211295 -0.014713917 -0.0015333757 -0.05993134 -0.006227991 0.041692883 0.014771477 -0.007772596
0.03734397 0.011043862 0.04088159 -0.03374214 0.022748593 -0.0038418465 -0.009608384 0.010376921
0.053662322 0.022784932 0.03471391 -0.04780493 0.018998863 0.010496015 0.051577702 -0.019824538
-0.03983889 0.042432617 0.058565967 -0.026887635 0.03484588 0.0479011 0.046484888 0.008978821
0.024837589 -0.055592947 -0.024213195 0.01803188 -0.026451625 -0.046434376 -0.015148176 -0.03584051
-0.024264762 0.059660286 0.033560988 0.0067118593 -0.017022798 -0.027879855 -0.02459234 -0.013796377
0.005388654 0.050851014 -0.041481998 -0.00066804286 0.0035096775 -0.02936975 -0.0076273284 -0.02306567
0.015083601 -0.006140921 -0.056628693 0.04793814 -0.048249383 0.03262704 -0.0033545063 0.045919582
0.06711492 0.016227935 -0.0074858335 -0.029679071 -0.0010072293 0.016380958 0.0418923 0.014772872
-0.0394532 -0.04617039 -0.03218445 -0.0025705309 0.043436494 -0.012682045 0.036666825 -0.011505076
0.026788313 0.02418039 0.055115428 -0.046539642 0.033140216 -0.0047211177 0.044899378 0.0027375966
0.011985076 -0.017415373 -0.05798018 -0.03154362 0.03102841 -0.0680126 -0.012673861 0.048044655
-0.016669491 -0.0055999695 0.06472805 0.042738937 -0.0025485419 0.030494463 0.046748094 0.008506064
-0.036378704 -0.023822034 -0.012909508 0.035789322 0.0037629758 0.033129007 0.053817518 -0.037036054
-0.043035693 0.037603185 -0.04011569 -0.011609607 0.0065544164 -0.04401849 -0.051622342 0.055217046
-0.014092702 0.031227447 -0.050285306 -0.0018605816 0.035327695 -0.025267217 -0.012394028 0.0075916545
-9.919574e-05 -0.027638407 0.013955312 0.023229552 0.06455522 -0.0125122685 -0.009404125 0.0018540423
-0.048823304 -0.027377086 0.040347364 -0.026180353 0.0135233905 0.054254368 0.055141624 0.038206585
00000000: 6983 143c bc84 57bd 70b3 e83c 7701 353c
00000010: 52ed 763d 7f45 49bd 5614 2abd 16e9 723c
00000020: b60a 863c 61b7 d5bc df22 213c e765 abbc
00000030: 9998 2ebc e6d8 563d e178 163d bdac 883d
00000040: ea67 3c3b 72a6 243c 6058 133d 4f30 a4bc
00000050: d36e 1e3d 866f 693d 887f 2f3a 3dfd 47bd
00000060: 8a46 48bd 1d7a 393d 0a7e 2dba fe26 31bc
00000070: 2bb3 813a 8350 d2bb e1f4 443d 1fbc 3dbc
00000080: 86d6 11bd 730f 74bd b1c6 f63b 4eaf 843b
00000090: 857f 4f3d 0b91 8f3a 2743 a0bc e6a4 7d3d
000000a0: 922d fb3c e7ca 573d 2fbc 5e3d 6e1b 21bd
000000b0: a2aa c3bc 0bda 4fbd dc6a c53a 4c03 cd3c
000000c0: 3a7c 58bd ec2b 35bd 1b3a c33c fb25 38bc
000000d0: 8ebc 52bd a068 c23c 7757 1cbd 6283 0d3d
000000e0: e1cc 7d3c 6793 9a3c 1604 d6bc 37f7 443a
000000f0: d225 bb3c 6234 ecbc bd58 00bd 55ee 34bd
00000100: 44eb fbbc d086 87bc a856 83bc d7e9 40bc
00000110: ac15 423d 75a8 b3bc de58 8b3c e032 dbbc
00000120: dbd2 983d 91d6 973d ceae 263d ef82 063d
00000130: 0fe2 493d 7e1e fc3c 67f9 243d 90c7 013d
00000140: 0943 3c3d 32a8 2bbd b20d 19bd 8bc2 f33c
00000150: 4121 b2bc fed9 17bd c892 51bd d81a 553d
00000160: 6141 9b3c c2ef 513d 3547 2abd ea5d 9abb
00000170: 86a0 39bd 9ee4 f73c 9735 f8bc fd88 2bbd
00000180: 55c9 393d f870 283d 66f1 35bd 19a6 6abd
00000190: 80ff 1fba ef31 35bd 84a4 dd3c 7014 5a3d
000001a0: 794d 223d e444 df3c 573f af3c 31ca 6e3d
000001b0: 86d8 8e3c cf0e 58bd da61 11bd 6a9d e7bc
000001c0: 3074 583c a412 71bc 8dfb c8ba 917a 75bd
000001d0: 2d14 ccbb 28c6 2a3d 1104 723c 43b1 febb
000001e0: fef5 183d 51f1 343c 7473 273d 3335 0abd
000001f0: 425b ba3c 7dc7 7bbb 7c6c 1dbc f603 2a3c
00000200: 06cd 5b3d 77a7 ba3c 2c30 0e3d 1acf 43bd
00000210: 81a3 9b3c 7af7 2b3c 2443 533d 1267 a2bc
00000220: 1b2e 23bd d3cd 2d3d dee2 6f3d 7543 dcbc
00000230: 8eba 0e3d f233 443d f066 3e3d e81b 133c
00000240: 3378 cb3c 6eb5 63bd c05a c6bc 98b7 933c
00000250: 14b1 d8bc f931 3ebd 0e30 78bc 80cd 12bd
00000260: e5c6 c6bc 585e 743d 3f77 093d 28ef db3b
00000270: 6573 8bbc 4b64 e4bc e075 c9bc 330a 62bc
00000280: 4e93 b03b 2749 503d 07e9 29bd 991f 2fba
00000290: 9e02 663b d498 f0bc abee f9bb 37f4 bcbc
000002a0: 3521 773c c739 c9bb 7df3 67bd c85a 443d
000002b0: 25a1 45bd eea3 053d 47d7 5bbb 2c16 3c3d
000002c0: 8c73 893d 72f0 843c b94b f5bb 8621 f3bc
000002d0: 0205 84ba 5c31 863c 4397 2b3d eb09 723c
000002e0: ae99 21bd 2a1d 3dbd d8d3 03bd 5a76 28bb
000002f0: 77ea 313d 5ac8 4fbc f42f 163d c97f 3cbc
00000300: 2a73 db3c f415 c63c b7c0 613d 5aa0 3ebd
00000310: 09be 073d 9bb3 9abb 69e8 373d 4069 333b
00000320: 0d5d 443c afaa 8ebc a07c 6dbd e233 01bd
00000330: 4b2f fe3c 314a 8bbd 07a6 4fbc 79ca 443d
00000340: 758e 88bc f37f b7bb 2490 843d 060f 2f3d
00000350: 7005 27bb 86cf f93c ee7a 3f3d 055d 0b3c
00000360: d601 15bd 6d26 c3bc 6782 53bc d397 123d
00000370: 429c 763b 48b2 073d c26f 5c3d 1eb3 17bd
00000380: 3246 30bd cc05 1a3d 5a50 24bd 3936 3ebc
00000390: 6ec6 d63b bb4c 34bd f371 53bd 452b 623d
000003a0: 14e5 66bc b4d0 ff3c f7f7 4dbd c2de f3ba
000003b0: c6b3 103d 32fd cebc 5210 4bbc 6ac3 f83b
000003c0: 4f07 d0b8 f169 e2bc d2a4 643c e74b be3c
000003d0: 8735 843d 4200 4dbc c213 1abc 5603 f33a
000003e0: f2fa 47bd e945 e0bc 4743 253d 2e78 d6bc
000003f0: 3691 5d3c d439 5e3d 2fdc 613d 827e 1c3d

features.2.bias f4 [32]
0.035072453 0.007851258 0.014603539 0.038599566 0.055798408 0.040849272 -0.023398658 0.030666906
0.00045587067 0.057104398 -0.0052889884 -0.0067254547 0.068851 0.04948656 0.029303383 0.06381303
0.024010636 0.050482612 0.000271238 0.035265572 -0.015295139 0.0040894593 -0.0387807 -0.015356991
0.059471644 0.05064002 0.047776937 0.025639506 0.047807142 0.04419253 0.01580953 -0.030708872
00000000: 22a8 0f3d 90a2 003c af43 6f3c 941a 1e3d
00000010: df8c 643d 9151 273d 8bae bfbc 2a39 fb3c
00000020: ed01 ef39 4de6 693d 404f adbb 3461 dcbb
00000030: c101 8d3d 6bb2 4a3d a60d f03c 68b0 823d
00000040: f4b1 c43c dbc6 4e3d f334 8e39 a272 103d
00000050: 7698 7abc df00 863b 83d8 1ebd e49b 7bbc
00000060: 8a98 733d e96b 4f3d c0b1 433d f109 d23c
00000070: 6cd1 433d 3a03 353d fd82 813c 2c91 fbbc

features.5.weight f4 [64, 32, 3, 3]
0.011384858 -0.004463283 0.018143147 -0.05018357 0.036994666 -0.043274082 0.033337634 0.030544607
-0.017834207 -0.04536448 0.026892211 -0.05185789 0.04052186 0.0542837 0.04832893 0.025347188
0.01982531 0.038228367 -0.0107694315 0.017186562 0.0036819517 0.03089975 0.00072537846 0.011324141
-0.056012932 -0.010812794 0.04666189 0.0024516 0.023774114 0.05156158 0.024975885 0.05314118
0.007894068 0.045106657 0.051560704 -0.058925834 0.04686031 0.044496056 0.061967935 0.07058983
0.0333999 -0.015096286 0.021684408 0.020458225 0.055463057 -0.015907139 -0.050467256 -0.0097976625
-0.023053827 0.031185428 0.02622118 0.015366463 -0.023499092 -0.007442932 -0.023941746 0.0002844716
0.0041605844 0.033883188 -0.0069391592 0.014896811 -0.008998972 0.05673476 0.003525961 -0.043559223
-0.0023583134 -0.004752873 0.031916954 0.025235467 -0.046422575 -0.032421477 0.006906792 -0.036883716
0.05785656 -0.017166233 -0.0042794477 0.011552646 0.002397492 0.028447473 0.05182356 0.029451014
0.015393209 0.015425177 0.018741192 -0.020045338 0.052005272 -0.04660159 0.05654595 0.0067600417
0.010729303 0.022248892 -0.04209231 -0.02096198 -0.05082061 -0.0366272 -0.055712346 -0.058161773
0.0034740723 -0.015680784 -0.06842524 0.031005414 0.04013644 -0.0052717663 -0.035606943 0.0053929193
-0.06543739 0.00018643185 -0.009310778 0.003885644 0.031709716 0.028100451 0.018269297 -0.049851086
-0.023900865 -0.0067092697 -0.004215007 -0.021160893 0.030550895 -0.009629495 0.02010267 -0.014582644
-0.017484989 0.036314674 0.057922408 -0.016226973 -0.0029479559 -0.026443012 -0.06638417 -0.027580185
0.025211385 0.04822056 0.033844788 -0.0041787094 0.043332424 -0.03464328 -0.03942655 0.0018726357
0.024152255 0.059156332 -0.029739168 -0.014060808 0.027309818 0.06434828 0.056072105 0.053457577
-0.045495324 -0.010977084 -0.050778944 -0.03331404 0.025819078 -0.02051993 -0.02664911 -0.018162386
-0.022854077 0.01908733 -0.0008911346 0.03211175 0.044780873 0.018311016 0.00069962675 0.02075433
0.01890911 0.009629912 -0.05724186 -0.051562294 -0.04268616 -0.028505463 -0.04711109 -0.001918225
0.034808394 -0.0058954214 0.0077276416 0.033480935 -0.008731658 0.009841873 0.017055614 0.05988759
0.05518378 0.03854794 0.014288628 0.062437303 0.056273192 -0.032230314 -0.028892057 -0.030343842
0.0069433628 -0.056047317 0.0044343956 0.016545597 0.0053263395 -0.044738125 -0.010119345 -0.0050369026
-0.004910806 0.0127965575 -0.019955996 -0.001113367 -0.006172434 -0.029882483 0.042955905 -0.052589964
-0.015014149 -0.045525998 -0.034709483 0.031049956 0.0117794555 0.04765606 0.019044328 0.029078782
-0.029605184 -0.016188681 -0.052830152 -0.007790118 -0.029810615 0.023717608 0.028468668 -0.06344797
0.011389094 0.051015984 0.044538304 -0.024174474 0.01995831 -0.017114803 0.015820531 0.024126949
-0.052143592 -0.051458217 -0.020415252 0.020193914 0.03154762 -0.0048732734 0.037081815 0.024134807
0.02868017 0.05906916 -0.010151092 0.07352481 -0.023485746 -0.011413568 -0.028318567 -0.016352436
0.021931011 -0.008406388 0.029971825 0.060192965 0.028716004 0.046974134 -0.010694355 0.036908038
0.02876128 0.029498808 -0.027925458 0.012406075 0.07369385 0.018704949 0.012759033 0.046455234
00000000: 8e87 3a3c bb40 92bb f0a0 943c 498d 4dbd
00000010: b887 173d 2a40 31bd 0b8d 083d af38 fa3c
00000020: 0b19 92bc 1bd0 39bd 0e4d dc3c f068 54bd
00000030: 40fa 253d 9658 5e3d 8ef4 453d e8a4 cf3c
00000040: b068 a23c 5995 1c3d 4572 30bc d5ca 8c3c
00000050: e64c 713b 7921 fd3c 5327 3e3a e488 393c
00000060: d16d 65bd 2528 31bc 8a20 3f3d 06ab 203b
00000070: eec1 c23c 3c32 533d 3a9a cc3c 91aa 593d
00000080: 1f56 013c c2c1 383d 5131 533d 375c 71bd
00000090: 99f0 3f3d 7f41 363d 17d2 7d3d 6791 903d
000000a0: 55ce 083d 6a56 77bc 80a3 b13c 0298 a73c
000000b0: 3b2d 633d b04f 82bc c1b6 4ebd 6086 20bc
000000c0: 61db bcbc 9578 ff3c cdcd d63c 9ec3 7b3c
000000d0: 2b81 c0bc d7e3 f3bb 7b21 c4bc 2225 9539
000000e0: 8355 883b 19c9 0a3d e361 e3bb c111 743c
000000f0: 6d70 13bc b562 683d cf13 673b 286b 32bd
00000100: ef8d 1abb fdbd 9bbb 5abb 023d 9cba ce3c
00000110: 9925 3ebd 62cc 04bd 5f52 e23b 6113 17bd
00000120: 00fb 6c3d 33a0 8cbc 9c3a 8cbb 4f47 3d3c
00000130: 3e1f 1d3b ad0a e93c f144 543d 4143 f13c
00000140: cc33 7c3c e2b9 7c3c 2187 993c 1f36 a4bc
00000150: 7b03 553d 4fe1 3ebd ba9c 673d 5783 dd3b
00000160: f5c9 2f3c 4f43 b63c fc68 2cbd 75b8 abbc
00000170: 4629 50bd 6706 16bd a132 64bd 0a3b 6ebd
00000180: 43ad 633b fd74 80bc 8822 8cbd 11ff fd3c
00000190: 1c66 243d c8be acbb 96d8 11bd 16b7 b03b
000001a0: 0a04 86bd eb7c 4339 3c8c 18bc 4aa6 7e3b
000001b0: 0ce2 013d eb32 e63c 7ea9 953c a730 4cbd
000001c0: bfcb c3bc 6fd9 dbbb 0b1e 8abb 9c59 adbc
000001d0: df45 fa3c 08c5 1dbc 5bae a43c 0bec 6ebc
000001e0: ae3c 8fbc b2be 143d 0c40 6d3d 6eee 84bc
000001f0: 7e32 41bb 049f d8bc 6cf4 87bd d7ef e1bc
00000200: 1b88 ce3c ec82 453d d5a0 0a3d 8eed 88bb
00000210: 577d 313d 1de6 0dbd bc7d 21bd 3a73 f53a
00000220: f3da c53c e94d 723d 8e9f f3bc 4e5f 66bc
00000230: d7b8 df3c 08c9 833d ddab 653d 55f6 5a3d
00000240: 4e59 3abd 3ad9 33bc 95fd 4fbd 4e74 08bd
00000250: 8882 d33c 6a19 a8bc 3c4f dabc 49c9 94bc
00000260: 7938 bbbc 085d 9c3c 089b 69ba 9c87 033d
00000270: 266c 373d fc00 963c 2867 373a fc04 aa3c
00000280: 47e7 9a3c c7c6 1d3c 7176 6abd fc32 53bd
00000290: afd7 2ebd 4a84 e9bc 8ff7 40bd f36c fbba
000002a0: 3f93 0e3d 612e c1bb 2838 fd3b 4e23 093d
000002b0: 3a0f 0fbc cf3f 213c 37b8 8b3c b14c 753d
000002c0: 6308 623d 72e4 1d3d d91a 6a3c 42be 7f3d
000002d0: b87e 663d ef03 04bd 09af ecbc a693 f8bc
000002e0: 2685 e33b df91 65bd 684e 913b a28a 873c
000002f0: 9388 ae3b 533f 37bd 9ccb 25bc 9a0c a5bb
00000300: d4ea a0bb a7a8 513c c27a a3bc 66ee 91ba
00000310: 2142 cabb 1ccc f4bc 88f2 2f3d 9368 57bd
00000320: e8fd 75bc 7879 3abd 882b 0ebd 7a5c fe3c
00000330: 9efe 403c 0033 433d da02 9c3c a036 ee3c
00000340: 9286 f2bc 209e 84bc 6e64 58bd 3f44 ffbb
00000350: 6435 f4bc 6e4b c23c 2037 e93c 02f1 81bd
00000360: 5399 3a3c 23f6 503d cc6d 363d 8c09 c6bc
00000370: 9c7f a33c 5834 8cbc 0f9a 813c e1a5 c53c
00000380: 8594 55bd dac5 52bd e33d a7bc b56d a53c
00000390: 1438 013d fbaf 9fbb 1ae3 173d 5cb6 c53c
000003a0: adf2 ea3c 81f2 713d c450 26bc 2d94 963d
000003b0: 2e65 c0bc f9ff 3abc 57fc e7bc 8bf5 85bc
000003c0: aaa8 b33c f2ba 09bc 7987 f53c e68c 763d
000003d0: d33d eb3c f367 403d 6037 2fbc e22c 173d
000003e0: c79c eb3c 7ca7 f13c eec3 e4bc da42 4b3c
000003f0: cdec 963d 1f3b 993c 430b 513c d847 3e3d

features.5.bias f4 [64]
0.03277449 0.0076671657 -0.023438381 0.06202665 0.027289752 -0.024571924 0.04369583 0.0015783156
0.058860738 0.024662456 0.06537425 0.010099906 -0.048188813 0.06250759 0.008482948 0.0032351082
0.032364026 -0.04652962 -0.04866946 0.060234837 0.024194408 -0.018471967 -0.03384027 -0.053659365
0.035116635 0.006283936 0.032090355 -0.0012282932 -0.027158748 -0.05560516 0.010031653 0.058179602
0.01121786 -0.027934145 0.007084508 0.047555096 -0.0023194568 0.034460463 0.04889263 -0.029052733
0.040818334 -0.041962605 0.008612682 0.007550296 0.03030714 0.034657765 0.0224558 -0.017050572
0.002042728 -0.009599476 -0.021618638 0.025691394 0.049966533 -0.0013311675 0.025065746 -0.044821482
0.02123993 -0.034774717 -0.034699127 0.005228156 -0.015556094 0.06730115 0.029063795 0.018299552
00000000: 8b3e 063d d93c fb3b d901 c0bc a80f 7e3d
00000010: c28e df3c 0f4b c9bc 66fa 323d 7cdf ce3a
00000020: f517 713d eb08 ca3c efe2 853d 137a 253c
00000030: a261 45bd fb03 803d 10fc 0a3c 1c04 543b
00000040: 2490 043d d895 3ebd a159 47bd ceb8 763d
00000050: 5a33 c63c 8652 97bc 189c 0abd ecc9 5bbd
00000060: 76d6 0f3d 7ae9 cd3b 2d71 033d aefe a0ba
00000070: 067c debc 3cc2 63bd cd5b 243c bc4d 6e3d
00000080: 1dcb 373c 26d6 e4bc 2925 e83b 22c9 423d
00000090: 0702 18bb 6a26 0d3d a343 483d ffff edbc
000000a0: 2031 273d fbe0 2bbd 351c 0d3c 7968 f73b
000000b0: ae46 f83c 4df5 0d3d 3af5 b73c a4ad 8bbc
000000c0: 4adf 053b 1f47 1dbc 9219 b1bc c276 d23c
000000d0: b5a9 4c3d 927a aeba ae56 cd3c bb96 37bd
000000e0: 5dff ad3c ef6f 0ebd ac20 0ebd f450 ab3b
000000f0: fdde 7ebc 2fd5 893d 3217 ee3c f1e8 953c

features.7.weight f4 [64, 64, 3, 3]
-0.03211142 -0.00527796 0.03459917 0.014967455 0.0039493754 0.03405432 -0.031757515 -0.032289397
-0.027988605 -0.012363883 -0.015475509 -0.004365034 -0.02326351 -0.010188773 0.0079707485 -0.013914248
-0.0047503402 0.012603267 0.014064564 -0.0057971766 0.03682115 -0.023143163 -0.014527299 0.04411342
0.0025903743 0.028444171 0.015932184 0.027011944 -0.023739377 0.0049250457 -0.0017840423 0.038048167
0.006707814 -0.029636834 0.026402373 0.010278293 0.023295864 -0.026795927 -0.016596302 0.03942973
0.015742587 -0.025809942 -0.007038539 -0.03137897 0.010581882 0.0112418765 -0.028137375 -0.023351258
0.03280318 0.00754082 0.012981558 0.003450175 0.021367552 0.038771637 0.0021168778 0.04203742
-0.0044949497 0.034731053 0.0017027458 0.029890712 0.03014791 -0.008308213 -0.03568974 -0.03921811
0.025104994 0.023342341 -0.022630783 0.02196626 0.0021419278 -0.032504052 -0.020905081 -0.02426485
0.03125296 -0.037073754 -0.0052562314 0.015928205 -0.01435309 0.003923634 0.00700161 0.03557306
-0.0012223435 0.045300305 -0.03264919 0.041528016 -0.027442358 0.031896163 -0.031359036 -0.03281194
-0.023341626 0.023204077 -0.022573112 0.03912364 0.009991198 -0.03968014 0.019951552 0.036405943
-0.015828297 0.03254441 0.026965544 -0.035611838 0.03218064 0.03634672 -0.001680147 0.0340124
-0.025801655 0.037092924 -0.029637564 -0.01590777 0.0012065383 -0.009842179 0.005552513 -0.020888817
0.027265185 0.044723906 -0.012402485 0.017394204 -0.029402463 -0.027613947 -0.0070383577 0.04535527
0.001447987 -0.026108745 -0.0072650653 0.0048611052 0.020908432 -0.0028638674 -0.009225805 -0.0050700754
-0.019689268 -0.028878003 -0.048711225 0.01607226 0.02734916 0.03269323 -0.043625288 0.034636956
0.024201395 0.03680021 -0.03238319 -0.0027637654 0.004100796 -0.016230006 0.00647145 0.049953952
-0.03634948 -0.007735832 0.038780235 -0.054178957 -0.025097547 0.0063816523 -0.02883686 -0.0065260394
-0.04294065 0.022265352 0.032127045 -0.020448912 -0.034048 0.029647652 -0.011541967 -0.015458075
-0.030310636 0.034127593 -0.0035644646 -0.026622668 -0.036056112 0.010781812 -0.03177227 -0.031284567
0.026947055 0.034958277 -0.012046832 0.003675779 -0.03121828 -0.015827367 -0.032031614 -0.025848195
0.014358882 0.0073463856 0.006697538 0.0066807996 0.022526588 -0.030606879 -0.028401053 0.026239889
0.0388985 -0.035310756 -0.037108056 0.019473083 -0.015749067 -0.04536826 -0.033798806 -0.006482245
-0.027727133 0.0017611411 0.02197875 0.015844004 0.03760782 -0.004971625 -0.0012168624 -0.016567804
-0.0038423396 0.03613089 -0.012479116 0.0019498861 0.05633954 0.0170994 0.03538523 -0.01434285
-0.007406643 -0.0011032566 -0.012137853 -0.0029572314 0.0060223853 -0.00013365214 -0.0139444815 0.013411621
-0.005765521 0.022775685 -0.018873002 -0.03272625 -0.03476351 -0.035297826 0.030957669 -0.015747624
0.009734177 -0.017984618 0.011816538 -0.019574024 -0.024212217 -0.023914736 -0.011208907 0.028816523
-0.004103936 0.009026602 0.016936839 -0.027353147 0.026843084 0.038414832 -0.025659675 0.028209047
0.014386082 -0.03945186 -0.010342444 0.018481186 -0.030359255 0.027819153 0.009533584 0.014104099
0.038246535 -0.02060703 -0.03129545 -0.0010656501 0.029182777 -0.023736557 0.01172374 0.015043836
00000000: 4487 03bd bdf2 acbb dcb7 0d3d 0e3a 753c
00000010: c369 813b 8b7c 0b3d 2b14 02bd e341 04bd
00000020: 5c48 e5bc e291 4abc fd8c 7dbc 8f08 8fbb
00000030: 1e93 bebc d0ee 26bc be97 023c 96f8 63bc
00000040: bea8 9bbb ef7d 4e3c 0f6f 663c 3ef6 bdbb
00000050: c6d1 163d bb96 bdbc e903 6ebc 46b0 343d
00000060: 45c3 293b c003 e93c 3684 823c 2748 dd3c
00000070: 1579 c2bc 4762 a13b 87d6 e9ba 65d8 1b3d
00000080: 39cd db3b f2c8 f2bc ca49 d83c 4966 283c
00000090: f8d6 be3c 2283 dbbc f8f4 87bc 1281 213d
000000a0: 99f6 803c 5f6f d3bc 8ba3 e6bb 3c87 00bd
000000b0: a15f 2d3c d92f 383c 5a80 e6bc 234b bfbc
000000c0: a15c 063d fc18 f73b 9ab0 543c 551c 623b
000000d0: 010b af3c 02cf 1e3d 51bb 0a3b 6e2f 2c3d
000000e0: 5f4a 93bb 2642 0e3d ab2e df3a 5edd f43c
000000f0: c0f8 f63c 2c1f 08bc 682f 12bd 2ba3 20bd
00000100: fda8 cd3c 7038 bf3c 3164 b9bc 96f2 b33c
00000110: 965f 0c3b f822 05bd 2241 abbc 14c7 c6bc
00000120: 1b03 003d a6da 17bd 773c acbb de7b 823c
00000130: 3929 6bbc d491 803b c36d e53b 0fb5 113d
00000140: 0b37 a0ba d08c 393d 28bb 05bd 4819 2a3d
00000150: ccce e0bc 8da5 023d 5572 00bd d065 06bd
00000160: f036 bfbc 7a16 be3c 3feb b8bc 1c40 203d
00000170: 1fb2 233c a487 22bd 7071 a33c 661e 153d
00000180: 58aa 81bc 4a4d 053d d8e6 dc3c b8dd 11bd
00000190: d9cf 033d 4ce0 143d 6138 dcba 9650 0b3d
000001a0: fe5d d3bc c0ee 173d 7aca f2bc 0351 82bc
000001b0: b524 9e3a 1741 21bc dbf1 b53b 061f abbc
000001c0: 3d5b df3c 6a30 373d cb33 4bbc 4a7e 8e3c
000001d0: 6fdd f0bc a536 e2bc 06a2 e6bb 73c6 393d
000001e0: 62ca bd3a 02e2 d5bc c90f eebb e849 9f3b
000001f0: 2948 ab3c b9af 3bbb d527 17bc e022 a6bb
00000200: 634b a1bc 9091 ecbc 6c85 47bd f9a9 833c
00000210: 580b e03c 56e9 053d 6eb0 32bd 7bdf 0d3d
00000220: 0142 c63c d1bb 163d 3ca4 04bd 4a20 35bb
00000230: f85f 863b caf4 84bc 750e d43b 849c 4c3d
00000240: 31e3 14bd dd7c fdbb 06d8 1e3d c1ea 5dbd
00000250: 5f99 cdbc 2e1d d13b 473b ecbc 63d8 d5bb
00000260: 89e2 2fbd d465 b63c a697 033d 7a84 a7bc
00000270: ea75 0bbd a2df f23c 851a 3dbc de43 7dbc
00000280: 034e f8bc 60c9 0b3d cb99 69bb c817 dabc
00000290: 93af 13bd 32a6 303c a423 02bd 3f24 00bd
000002a0: 12c0 dc3c 6930 0f3d 1360 45bc 57e5 703b
000002b0: 7abd ffbc 65a8 81bc 9533 03bd 98bf d3bc
000002c0: 8441 6b3c f3b9 f03b 0577 db3b 9cea da3b
000002d0: ae89 b83c 47bb fabc 53a9 e8bc 09f5 d63c
000002e0: 0954 1f3d 03a2 10bd 9efe 17bd 0486 9f3c
000002f0: 3004 81bc 12d4 39bd 9e70 0abd 0369 d4bb
00000300: 0324 e3bc 17d6 e63a c80c b43c 49cb 813c
00000310: a80a 1a3d 03e9 a2bb 207f 9fba 34b9 87bc
00000320: c3cf 7bbb fcfd 133d 3575 4cbc 5293 ff3a
00000330: 4ac4 663d 0a14 8c3c 1af0 103d 46fe 6abc
00000340: 6db3 f2bb 269b 90ba d8dd 46bc 1cce 41bb
00000350: 6e57 c53b f924 0cb9 6577 64bc 6abc 5b3c
00000360: b2ec bcbb 1394 ba3c 8e9b 9abc f60b 06bd
00000370: 2f64 0ebd 7494 10bd f09a fd3c 2901 81bc
00000380: 197c 1f3c 7a54 93bc 279a 413c b459 a0bc
00000390: b358 c6bc d6e8 c3bc 90a5 37bc a110 ec3c
000003a0: 4f7a 86bb 50e4 133c 20bf 8a3c b513 e0bc
000003b0: 07e6 db3c df58 1d3d 3d34 d2bc a916 e73c
000003c0: 9ab3 6b3c 4698 21bd 5b73 29bc db65 973c
000003d0: f9b3 f8bc fee4 e33c c032 1c3c e114 673c
000003e0: 66a8 1c3d 13d0 a8bc a82f 00bd 49ad 8bba
000003f0: b810 ef3c 2b73 c2bc ee14 403c 6c7a 763c

features.7.bias f4 [64]
-0.008542764 0.04203545 -0.008141999 0.001540309 -0.012006456 0.043528434 0.008912178 0.003327588
0.036505103 0.008620941 -0.011401996 0.02285449 -0.011204465 0.048473895 -0.017116701 -0.021376494
0.02632239 0.045587737 0.011654769 0.0057638735 -0.030039478 -0.017876541 -0.020419883 -0.0048230346
-0.009440652 0.020241389 -0.018176034 -0.021689396 0.0036449167 0.002541281 -0.0049271593 0.023352232
0.041451845 0.04049526 -0.0099513205 0.038076695 0.0511263 -0.014865259 0.03791782 -0.027812175
-0.01665458 0.008913041 -0.031994883 -0.029725546 -0.028174376 0.0142957 -0.039786752 -0.042255472
0.007243939 0.025664255 -0.021405693 0.024992598 -0.01743261 0.016536616 0.03346133 -0.0064758267
0.0034750958 -0.037528086 0.0279059 0.03568576 0.00456064 0.008394211 -0.008504355 0.021265397
00000000: f3f6 0bbc 5d2d 2c3d 0566 05bc 32e4 c93a
00000010: bab6 44bc df4a 323d 6204 123c aa13 5a3b
00000020: 6086 153d d93e 0d3c 70cf 3abc 5739 bb3c
00000030: ef92 37bc 908c 463d 5338 8cbc c21d afbc
00000040: 0ea2 d73c 35ba 3a3d a5f3 3e3c e0de bc3b
00000050: 5a15 f6bc d371 92bc 9947 a7bc 8c0a 9ebb
00000060: f7ac 1abc 45d1 a53c e8e5 94bc f6ad b1bc
00000070: 8edf 6e3b 9f8b 263b 0274 a1bb 2e4d bf3c
00000080: 69c9 293d 5cde 253d dd0a 23bc 4ff6 1b3d
00000090: d069 513d 6a8d 73bc b74f 1b3d 5cd6 e3bc
000000a0: 306f 88bc 0108 123c 110d 03bd fd82 f3bc
000000b0: f3cd e6bc 8338 6a3c 6ff7 22bd 1314 2dbd
000000c0: 915e ed3b d83d d23c fe5a afbc 47bd cc3c
000000d0: d5ce 8ebc cc77 873c bf0e 093d 2c33 d4bb
000000e0: 6fbe 633b 0db7 19bd ea9a e43c 3b2b 123d
000000f0: 6c71 953b df87 093c da55 0bbc c534 ae3c

features.10.weight f4 [64, 64, 1, 1]
-0.035752222 -0.017076856 0.037828114 -0.086047895 -0.003685023 -0.11467039 -0.078748204 -0.07303812
0.12833582 -0.0059318123 -0.002402255 0.05136282 -0.10232508 0.056797154 -0.08677507 0.10567731
0.09698177 0.040722426 -0.09953504 0.014376165 -0.009485154 -0.098928094 1.1697676e-16 -0.055615596
-0.07773753 -0.0688478 0.06173761 -0.08212395 0.06730025 0.093742765 -0.042013958 -0.059634183
0.07234005 0.00447015 0.088151254 0.07853618 0.087146185 -0.021251135 -0.019626679 0.05281715
-0.03282216 -0.011450901 0.0029456704 0.026616184 -0.008048606 0.09704479 -0.10065257 0.0925597
-0.053127497 0.048407853 -0.067647345 -0.052577272 0.07711674 -0.055333126 -0.02908634 0.04794488
0.0036053522 -0.010649607 0.0734993 -0.07647197 -1.9886279e-10 0.028258536 0.06780506 -0.089043155
0.115871035 -0.0096558165 0.11324752 0.0053537916 0.07254508 -0.07923655 -0.035814516 -0.046740327
-0.13386974 -0.10524461 0.06179427 -0.10536773 0.10193749 -0.031751048 -0.0017761348 -0.082622625
-0.11326656 -0.018091228 0.06608431 0.020274458 -0.115773484 -0.07726381 -0.06195135 -0.0648651
-0.0693374 -0.04273751 -0.026650675 -0.0053744097 0.02139086 -0.12103973 0.051000774 0.031159345
-0.12731701 -0.05095694 -0.09449308 0.12370342 -0.08971314 0.019594252 -0.053911023 0.09061732
0.062333897 0.04836502 -0.112838335 -0.12549032 0.11240369 0.022678751 0.04638557 -0.11440119
0.016537983 0.04439695 0.010390325 0.0918355 0.10802283 0.10447394 -0.037088357 0.08475484
0.002022046 -0.04960495 0.0060456884 0.08434385 -0.005862494 -0.0771401 0.12725471 0.038563266
-0.10093182 0.11849883 -0.08449194 -0.046423633 0.08157315 -0.045996983 0.021667358 -0.10251309
-0.0888318 -0.007874948 0.06083317 -0.08977565 -0.028317675 -0.052270968 -0.033074275 0.021155508
-0.029847452 0.107202545 -0.08494612 0.0050158957 -0.021230783 -0.08362614 -0.0073607992 0.032252207
-0.074679695 -0.027139379 -0.08819621 -0.025250478 0.0022717305 0.072161876 0.008295977 0.04401186
0.027454432 0.056998022 0.019814426 0.022438494 -0.08300487 0.050284997 -0.0036560146 0.12509294
0.058997083 0.054764234 -0.0013346383 -0.062136613 -0.12025941 0.035253372 -0.12934515 -0.07602362
0.057893317 0.05065217 -0.08957586 0.11589932 0.07328424 0.12969348 -0.11807563 0.06161457
-0.0007802232 -0.018359391 0.10490911 -0.123416774 1.7183202e-30 -0.105610974 0.107740685 0.04925737
0.13092434 0.100626454 -0.024147524 -0.07607394 0.122024335 0.12260587 0.02994055 0.06614282
-0.112159975 -0.06632432 0.11954866 -0.07766682 -0.08000165 -0.07668267 0.1144731 -0.08053457
0.1288572 -0.0032171241 -0.06775393 -0.013985167 0.1103277 0.08011995 -0.028511373 -0.014678462
0.0853558 -0.04391579 0.038056076 0.067506656 0.04064164 -0.0844987 -0.103166796 -0.030959494
0.059247434 0.07678893 -0.06382769 -0.07777928 0.12240478 -0.083499596 -0.00045890582 0.08826908
0.069845505 -0.057308692 -0.021578176 0.04670791 0.037891556 -0.057726886 -0.06918426 -0.055482484
0.036109313 -0.0024463206 0.00895304 0.06208087 -0.06958171 0.039335236 0.035413913 -0.1354134
-0.029485049 0.051056936 0.11838366 0.05959443 -0.0014744463 -0.07533221 -0.047310162 -0.13112187
00000000: ec70 12bd c3e4 8bbc a7f1 1a3d e139 b0bd
00000010: 6d80 71bb 4fd8 eabd bd46 a1bd 0395 95bd
00000020: 776a 033e a65f c2bb 276f 1dbb d261 523d
00000030: d08f d1bd 22a4 683d 21b7 b1bd 586d d83d
00000040: 619e c63d 8fcc 263d 07d9 cbbd 028a 6b3c
00000050: 9f67 1bbc d09a cabd 72dd 0625 2ecd 63bd
00000060: db34 9fbd 1300 8dbd 93e0 7c3d 9a30 a8bd
00000070: b7d4 893d 35fc bf3d d416 2cbd f942 74bd
00000080: 0527 943d 567a 923b a588 b43d 94d7 a03d
00000090: b379 b23d dc16 aebc 21c8 a0bc cc56 583d
000000a0: 8770 06bd 8f9c 3bbc 260c 413b 2f0a da3c
000000b0: 4dde 03bc 6bbf c63d ef22 cebd f18f bd3d
000000c0: 389c 59bd 5047 463d b18a 8abd 445b 57bd
000000d0: 62ef 9d3d fda4 62bd 7a46 eebc da61 443d
000000e0: c647 6c3b b07b 2ebc cd86 963d 569d 9cbd
000000f0: e6a6 5aaf 727e e73c 61dd 8a3d 425c b6bd
00000100: cb4d ed3d 6e33 1ebc 51ee e73d dc6e af3b
00000110: 8492 943d c646 a2bd 3eb2 12bd c972 3fbd
00000120: 2615 09be 7c8a d7bd fd1b 7d3d 09cb d7bd
00000130: 9ac4 d03d 630d 02bd 32cd e8ba 0d36 a9bd
00000140: 4cf8 e7bd 0e34 94bc 3657 873d 9f16 a63c
00000150: a61a edbd 7d3c 9ebd b3c0 7dbd fed7 84bd
00000160: c400 8ebd 870d 2fbd 8452 dabc d11b b0bb
00000170: e33b af3c aee3 f7bd 30e6 503d e241 ff3c
00000180: 645f 02be 39b8 50bd 9785 c1bd 3858 fd3d
00000190: 86bb b7bd 2084 a03c ced1 5cbd 9395 b93d
000001a0: d451 7f3d 661a 463d c917 e7bd 8980 00be
000001b0: e833 e63d cac8 b93c ccfe 3d3d 2c4b eabd
000001c0: aa7a 873c 94d9 353d 2f3c 2a3c 4014 bc3d
000001d0: 133b dd3d 6ff6 d53d f6e9 17bd f293 ad3d
000001e0: 4d84 043b 8f2e 4bbd e91a c63b 78bc ac3d
000001f0: 2a1a c0bb a1fb 9dbd 0f4f 023e 84f4 1d3d
00000200: 58b5 cebd 84af f23d 1c0a adbd b526 3ebd
00000210: d30f a73d 5567 3cbd be7f b13c 62f2 d1bd
00000220: 72ed b5bd ed05 01bc 342c 793d 4cdc b7bd
00000230: 78fa e7bc 151a 56bd e478 07bd 514e ad3c
00000240: a582 f4bc 028d db3d 3bf8 adbd 625c a43b
00000250: 2eec adbc 2f44 abbd dc32 f1bb e41a 043d
00000260: abf1 98bd 6753 debc 37a0 b4bd 17da cebc
00000270: 50e1 143b 9bc9 933d d9eb 073c c845 343d
00000280: 1ee8 e03c c276 693d dd51 a23c efd0 b73c
00000290: 75fe a9bd a4f7 4d3d bf99 6fbb 5d18 003e
000002a0: eda6 713d 7650 603d 08ef aeba f682 7ebd
000002b0: 914a f6bd d765 103d 0e73 04be 46b2 9bbd
000002c0: 8b21 6d3d a678 4f3d 8c73 b7bd 9f5c ed3d
000002d0: 0c16 963d 5ece 043e a3d1 f1bd 8f5f 7c3d
000002e0: e587 4cba 6f66 96bc 96da d63d efc1 fcbd
000002f0: 1d68 0b0e 914a d8bd 26a7 dc3d 19c2 493d
00000300: 0811 063e 3e15 ce3d 07d1 c5bc a7cc 9bbd
00000310: e5e7 f93d c918 fb3d e245 f53c e375 873d
00000320: 21b4 e5bd 0cd5 87bd eed5 f43d c80f 9fbd
00000330: e8d7 a3bd ce0b 9dbd df70 ea3d 4fef a4bd
00000340: 24f3 033e 63d6 52bb 93c2 8abd 0b22 65bc
00000350: 7df3 e13d ee15 a43d af90 e9bc ef7d 70bc
00000360: 06cf ae3d 0be1 33bd b0e0 1b3d ee40 8a3d
00000370: d977 263d a80d adbd 1d49 d3bd c49e fdbc
00000380: 70ad 723d 8443 9d3d 18b8 82bd be4a 9fbd
00000390: 5baf fa3d d601 abbd 4c99 f0b9 6bc6 b43d
000003a0: 290b 8f3d 85bc 6abd b7c4 b0bc cb50 3f3d
000003b0: 2d34 1b3d 0773 6cbd 7ab0 8dbd 9a41 63bd
000003c0: 5ce7 133d 7352 20bb c5af 123c 8348 7e3d
000003d0: db80 8ebd fc1d 213d 2e0e 113d cfa9 0abe
000003e0: a18a f1bc 1421 513d 2273 f23d 4a19 743d
000003f0: 3542 c1ba c647 9abd 4dc8 41bd d044 06be

features.10.bias f4 [64]
-0.032190453 0.080177784 -0.06679312 -0.064797595 0.014207059 -0.030939601 -0.06728341 -0.1093395
0.099001706 -0.041005716 0.0076167905 0.07403517 0.112082876 0.10685098 0.06436089 -0.015246557
0.06498676 -0.015932227 -0.031198375 -0.011532068 0.07464104 -0.086763754 -0.07656963 -0.103655495
-0.06609247 -0.013895499 -0.008067574 0.06310585 -0.047682 -0.09296682 -0.06923306 -0.061721396
0.121023335 0.030632611 0.014231334 0.0958979 -0.09065157 0.038198072 0.020456586 0.018214218
-0.031296607 -0.048848674 0.05753036 -0.023100773 0.054679096 -0.10017422 0.053729516 -0.07419795
0.059309263 -0.033765 -0.008138043 0.025555635 0.08149617 -0.016908618 -0.06981146 0.044553462
-0.052191146 -0.035938427 0.029456021 0.10665794 -0.080992475 -0.024031484 -0.114932805 0.016682424
00000000: 23da 03bd 4034 a43d d5ca 88bd 9ab4 84bd
00000010: b9c4 683c 0c75 fdbc e2cb 89bd 63ed dfbd
00000020: 68c1 ca3d 9cf5 27bd 4596 f93b c09f 973d
00000030: b58b e53d b0d4 da3d a4cf 833d b2cc 79bc
00000040: c717 853d 4d84 82bc bc93 ffbc 00f1 3cbc
00000050: 67dd 983d 32b1 b1bd 8ad0 9cbd 5549 d4bd
00000060: 7d5b 87bd f2a9 63bc dc2d 04bc a43d 813d
00000070: 334e 43bd 6365 bebd 10ca 8dbd 93cf 7cbd
00000080: 15db f73d 3ef1 fa3c 8b2a 693c 1e66 c43d
00000090: 88a7 b9bd 9575 1c3d 9294 a73c fc35 953c
000000a0: df30 00bd 8c15 48bd f4a4 6b3d d53d bdbc
000000b0: 30f7 5f3d 2428 cdbd 7b13 5c3d 18f5 97bd
000000c0: 45ee 723d 2b4d 0abd 6d55 05bc 0d5a d13c
000000d0: 77e7 a63d f183 8abc 50f9 8ebd b17d 363d
000000e0: 62c6 55bd 2c34 13bd c14d f13c 7a6f da3d
000000f0: 62df a5bd addd c4bc e461 ebbd 94a9 883c

classifier.0.weight f4 [3, 64]
-0.008595352 0.13916276 -0.024955453 -0.070594005 0.106838234 0.027894074 -0.053240255 -0.03445533
0.01372899 -0.073660724 0.008199548 -0.0030363414 -0.050420403 0.06270483 0.054380942 0.05423123
0.035626814 0.009683695 -0.036361977 -0.14194742 0.048965443 -0.0041459417 0.088766456 0.00025186228
-0.083177775 -0.1115768 -0.108063444 -0.0730458 0.12378411 0.04743364 -0.01726891 -0.06281614
0.020705922 -0.06010465 -0.031159328 -0.05728031 -0.11092427 0.049913216 -0.072822146 0.104813814
-0.048732586 -0.031964593 0.07494966 0.061699968 -0.015407205 0.0495449 0.012224062 0.05708782
0.051124655 0.046226103 0.027912227 0.00523011 -0.08372571 -0.05404848 -0.102356635 0.108457714
-0.08961736 -0.12401669 -0.025685057 -0.11884099 0.01896053 -0.09073928 -0.014837173 0.085073024
0.107117765 -0.088193655 0.046744127 -0.027007695 0.04930567 -0.009787142 -0.046076033 -0.12055027
-0.014682175 0.12755993 -0.09872164 -0.07893447 -0.028016096 0.0019715359 0.02788392 -0.056094155
0.049550585 0.09054948 -0.08620397 0.024958003 -0.03435596 -0.092836425 -0.023796782 -0.07372597
0.019061742 0.09349385 0.038734227 -0.07440339 -0.06109427 -0.10644345 -0.006150572 0.0824133
-0.09809347 -0.023639552 0.060923193 0.009736911 -0.021959081 -0.118193544 -0.07250993 -0.10132385
-0.037062276 -0.10975392 -0.056042362 0.009172608 -0.0019594901 0.03302256 -0.058548216 0.03720808
0.12914824 -0.09350932 -1.8770232e-05 0.012016308 0.11397681 -0.06025512 -0.08218931 -0.04744687
0.04703935 0.03850362 0.096465416 -0.016647225 -0.0401501 0.10530531 -0.07918557 -0.013158871
-0.08209071 -0.12631592 -0.10205631 -0.082407035 -0.08274523 0.037893675 -0.10015672 0.022704938
0.105661124 0.040084414 -0.02864237 -0.06492191 -0.08336893 -0.04256268 0.032660257 0.060717586
-0.07520265 -0.047551423 0.10416521 0.092111126 0.053707637 0.089091815 -0.12196638 0.11240141
-0.02828945 0.010635184 -0.07023347 0.05861167 -0.017399695 0.035388704 0.069330744 0.12671971
0.027793897 0.12187642 0.11400529 0.034888618 0.038906563 -0.12087673 0.13481519 0.09706027
-0.005879322 -0.08013414 -0.10423312 0.12193199 0.018742908 0.06905503 -0.08493796 0.019656869
0.01411952 -0.03702685 0.03394709 -0.09283089 -0.023964051 -0.10559973 -0.08124231 -0.012196466
0.010045234 0.12298525 0.06723412 0.044087484 0.113506526 -0.12898907 -0.051914483 0.13558087
00000000: 85d3 0cbc af80 0e3e 616f ccbc 9793 90bd
00000010: 01ce da3d 1d82 e43c 7412 5abd 0821 0dbd
00000020: 8fef 603c 6fdb 96bd 6657 063c 5bfd 46bb
00000030: a085 4ebd 646b 803d 8dbe 5e3d 9121 5e3d
00000040: 6ced 113d 5ca8 1e3c 4cf0 14bd aa5a 11be
00000050: fd8f 483d aeda 87bb 30cb b53d 620c 8439
00000060: 1c59 aabd 6182 e4bd 5e50 ddbd 0999 95bd
00000070: 8682 fd3d c749 423d 8777 8dbc c0a5 80bd
00000080: 779f a93c 4b30 76bd d941 ffbc c29e 6abd
00000090: 432c e3bd cd71 4c3d c723 95bd a0a8 d63d
000000a0: d29b 47bd 4eed 02bd 357f 993d 1bb9 7c3d
000000b0: 806e 7cbc 98ef 4a3d 6f47 483c ebd4 693d
000000c0: 1668 513d 9557 3d3d 2fa8 e43c 5861 ab3b
000000d0: 6378 abbd f061 5dbd 5ba0 d1bd 141f de3d
000000e0: 4e89 b7bd 76fc fdbd 7869 d2bc e862 f3bd
000000f0: 1d53 9b3c 84d5 b9bd 9d17 73bc c43a ae3d
00000100: 8f60 db3d e09e b4bd c576 3f3d 3e3f ddbc
00000110: bef4 493d 405a 20bc 39ba 3cbd 0fe3 f6bd
00000120: 818d 70bc 129f 023e 922e cabd 65a8 a1bd
00000130: 0382 e5bc e234 013b d26c e43c fcc2 65bd
00000140: 8ef5 4a3d 0172 b93d b58b b0bd ba74 cc3c
00000150: d6b8 0cbd 0621 bebd 78f1 c2bc a4fd 96bd
00000160: 5f27 9c3c b479 bf3d c8a7 1e3d ce60 98bd
00000170: fc3d 7abd 06ff d9bd bd8a c9bb 4ec8 a83d
00000180: 3be5 c8bd bca7 c1bc 998a 793d 9187 1f3c
00000190: 88e3 b3bc 750f f2bd 1680 94bd e182 cfbd
000001a0: 9dce 17bd aac6 e0bd ad8c 65bd b548 163c
000001b0: ca6a 00bb aa42 073d 41d0 6fbd 8067 183d
000001c0: 703f 043e d081 bfbd c474 9db7 0ce0 443c
000001d0: ac6c e93d 13ce 76bd de52 a8bd a657 42bd
000001e0: 55ac 403d f9b5 1d3d a98f c53d c35f 88bc
000001f0: 6e74 24bd 4faa d73d 0b2c a2bd 4e98 57bc
00000200: 2d1f a8bd f658 01be e602 d1bd 05c5 a8bd
00000210: 5576 a9bd 6636 1b3d f71e cdbd b5ff b93c
00000220: dc64 d83d 8e2f 243d 67a3 eabc c7f5 84bd
00000230: 54bd aabd 3456 2ebd c3c6 053d 01b3 783d
00000240: d903 9abd 48c5 42bd 9254 d53d c2a4 bc3d
00000250: 8afc 5b3d c575 b63d 82c9 f9bd b632 e63d
00000260: 47bf e7bc 323f 2e3c 91d6 8fbd ca12 703d
00000270: ce89 8ebc bff3 103d 47fd 8d3d d0c2 013e
00000280: 07b0 e33c 589a f93d 9b7b e93d 5ee7 0e3d
00000290: 7d5c 1f3d 388e f7bd fe0c 0a3e 89c7 c63d
000002a0: 54a7 c0bb 5e1d a4bd 2d78 d5bd 7bb7 f93d
000002b0: ba8a 993c b96c 8d3d f4f3 adbd 7107 a13c
000002c0: 8f55 673c 77a9 17bd 1b0c 0b3d 1f1e bebd
000002d0: 4250 c4bc ac44 d8bd 5e62 a6bd b0d3 47bc
000002e0: c494 243c b1df fb3d 0bb2 893d 1495 343d
000002f0: 1c76 e83d b615 04be 48a4 54bd b6d5 0a3e

classifier.0.bias f4 [3]
0.10969811 0.112811536 -0.05885577
00000000: 67a9 e03d bc09 e73d bf12 71bd

exp_avg f4 [32, 3, 3, 3]
-0.00047726813 -8.984391e-05 0.000447945 -0.00069390686 -0.00033053136 0.0001983208 -0.00085470075 -0.00050328573
7.975989e-06 -0.0009885362 -0.0006029998 -5.8303976e-05 -0.0010725672 -0.0007041949 -0.00015491009 -0.0011377796
-0.00077545893 -0.0002462206 -0.0017972572 -0.0012232255 0.00024078993 -0.0018171548 -0.0014868351 -0.00025907636
-0.0017449742 -0.0016266651 -0.0007729065 -0.0021234488 -0.0012588667 -0.00043514246 -0.0024238287 -0.0016023503
-0.00079236453 -0.002628827 -0.0017258846 -0.00085266144 -0.0012591543 -0.00044476977 0.0006067706 -0.0013446107
-0.00063576247 0.00038319203 -0.0014390473 -0.00065712904 0.00040902468 -0.0014312281 0.00021677338 0.0019419767
-0.0015523441 -0.00016751663 0.0015337769 -0.001513456 -0.00050066115 0.0011784658 -0.00073603296 -0.00015252826
0.0009286738 -0.0010885664 -0.0005281269 0.00054904673 -0.0013763307 -0.0008733003 0.00016085214 -0.0011482609
-0.0006571625 0.00057817367 -0.0013168519 -0.00083967 0.00035669343 -0.001390561 -0.00095208874 0.00019037639
-0.00054684933 0.00065752974 0.0029627848 -0.00068716373 0.00022015286 0.002381548 -0.0006684485 -0.00018387027
0.00158205 -0.0015230987 -0.0010214089 -0.00058383355 -0.0009549064 -0.00044898453 6.0348073e-05 -0.0006412174
-0.00012804901 0.00039524937 0.0011389201 0.0017175523 0.0020066588 0.0018717012 0.0024645058 0.002830283
0.002332233 0.002886938 0.0032718962 0.0009651314 0.0010035385 0.0009266672 0.0012495234 0.0013183387
0.0011611874 0.0014965809 0.0014883471 0.0013568666 -0.00045114092 -0.0010920293 -0.0015235597 -0.00066082575
-0.0011472419 -0.001617333 -0.0006467731 -0.0009632994 -0.0013154454 0.00018284886 -0.0004901489 -0.0009918521
-0.00021554256 -0.0006484377 -0.0011059253 -0.00039608605 -0.00064128864 -0.00091389753 -0.003267224 -0.0035739352
-0.003979468 -0.0031814105 -0.0033572186 -0.0037319285 -0.0031441147 -0.0032600684 -0.0035797087 -0.00090437295
-0.00067169993 -0.00026905478 -0.0008770712 -0.000704696 -0.0003244773 -0.000925136 -0.0007510181 -0.00044801057
-0.0017888384 -0.0014968449 -0.0010142887 -0.0016335965 -0.0014279634 -0.0010061272 -0.0015349473 -0.0013798178
-0.00106629 -0.0005159931 2.0244303e-05 0.0008677859 -0.0007072201 -0.00023229455 0.0006586859 -0.0009141386
-0.0005756298 0.00037033774 -0.0027981063 -0.001743836 -7.852773e-05 -0.0027705694 -0.0019090455 -0.00019300445
-0.0026775803 -0.0019651083 -0.00026448775 -0.003977135 -0.0028581214 -0.0008705457 -0.003625264 -0.0027669354
-0.0007233493 -0.0031450798 -0.002567577 -0.00059765833 -0.0040782886 -0.0028011312 -0.00022500123 -0.0037172714
-0.0027647924 -0.00025729413 -0.0034299737 -0.002880569 -0.00056283904 -0.0014088249 -0.0018893636 -0.0024923952
-0.0018303054 -0.0022482935 -0.002815572 -0.0018034936 -0.0022701158 -0.002895477 0.0007673206 0.0003373737
-0.00026037614 0.00031342354 -1.637598e-05 -0.00051681814 0.00028980096 -1.0738463e-05 -0.0005199903 -0.00048116513
-0.00046407865 -0.0005931401 -0.00037349574 -0.00037746874 -0.00051060994 -9.210241e-06 -0.00012893164 -0.00035475628
-0.0012349908 -0.000506119 0.0014009918 -0.0018247968 -0.0012070915 0.0004225682 -0.0025571897 -0.0021490748
-0.0007704543 0.0009487087 0.0018205954 0.004097194 0.00045551624 0.0011852197 0.0032690181 -1.5523208e-05
0.00046333086 0.002258822 0.0004203476 0.0013989375 0.0035944507 0.00013192931 0.000758482 0.0027320627
-7.7833734e-05 5.67925e-05 0.0017231788 -0.0012585403 -0.0009226036 -0.00061125105 -0.0011146058 -0.00069199153
-0.00019402613 -0.00068259746 -0.00029346376 0.00022075628 -0.001625758 -0.0009138006 -0.00012949774 -0.0012985804
00000000: d839 fab9 956a bcb8 29da ea39 4de7 35ba
00000010: 2b4b adb9 56f4 4f39 ff0d 60ba efee 03ba
00000020: 9dd0 0537 c591 81ba a212 1eba 6b8b 74b8
00000030: 6295 8cba b899 38ba 5c6f 22b9 8c21 95ba
00000040: 2b48 4bba 2b17 81b9 f291 ebba a354 a0ba
00000050: 8e7c 7c39 992d eeba e8e1 c2ba a4d4 87b9
00000060: 9eb7 e4ba d335 d5ba e19c 4aba 8f29 0bbb
00000070: 8f00 a5ba d523 e4b9 19d9 1ebb f405 d2ba
00000080: afb6 4fba 6648 2cbb 1437 e2ba 2485 5fba
00000090: 350a a5ba fd2f e9b9 b00f 1f3a a63d b0ba
000000a0: 4ca9 26ba 2ae7 c839 6a9e bcba 2f43 2cba
000000b0: 5d72 d639 0c98 bbba a94d 6339 ed89 fe3a
000000c0: 0678 cbba 67a7 2fb9 0309 c93a 285f c6ba
000000d0: cd3e 03ba c076 9a3a 56f2 40ba feef 1fb9
000000e0: 3e72 733a 3aae 8eba ff71 0aba e7ed 0f3a
000000f0: ff65 b4ba 31ee 64ba 6baa 2839 3e81 96ba
00000100: 6e45 2cba 9490 173a 389a acba 4d1d 5cba
00000110: 9502 bb39 7c43 b6ba 9895 79ba c69f 4739
00000120: 705a 0fba 135e 2c3a 482b 423b c722 34ba
00000130: d5d8 6639 bf13 1c3b d23a 2fba 4dcd 40b9
00000140: ca5c cf3a b6a2 c7ba cce0 85ba 680c 19ba
00000150: af52 7aba af65 ebb9 401e 7d38 5f17 28ba
00000160: e544 06b9 7939 cf39 d147 953a 7e1f e13a
00000170: 2682 033b df53 f53a 8c83 213b 457c 393b
00000180: 60d8 183b c832 3d3b 4f6d 563b df00 7d3a
00000190: 2a89 833a 95eb 723a 0cc7 a33a 1bcc ac3a
000001a0: fc32 983a ec28 c43a a414 c33a e3d8 b13a
000001b0: 1c87 ecb9 6c22 8fba 2eb2 c7ba 443b 2dba
000001c0: 0d5f 96ba b1fc d3ba 358c 29ba ee85 7cba
000001d0: 066b acba 1ebb 3f39 567d 00ba 0901 82ba
000001e0: 4403 62b9 ebfb 29ba b2f4 90ba c5a9 cfb9
000001f0: 271c 28ba a092 6fba ec1e 56bb af38 6abb
00000200: 3266 82bb 367f 50bb c804 5cbb 5f93 74bb
00000210: 7e0d 4ebb dfa6 55bb 8c99 6abb 7113 6dba
00000220: 0515 30ba ec0f 8db9 40eb 65ba 59bb 38ba
00000230: 9b1e aab9 d384 72ba f9df 44ba f6e2 eab9
00000240: 7577 eaba c831 c4ba e2f1 84ba 671e d6ba
00000250: 802a bbba 07e0 83ba 4930 c9ba 01db b4ba
00000260: c1c2 8bba b643 07ba 4fd2 a937 207c 633a
00000270: bd64 39ba 1894 73b9 aaab 2c3a cea2 6fba
00000280: dde5 16ba e429 c239 6f60 37bb 6d91 e4ba
00000290: 41af a4b8 7192 35bb f038 faba 3d61 4ab9
000002a0: 587a 2fbb 0cc9 00bb f2aa 8ab9 a052 82bb
000002b0: 524f 3bbb 5535 64ba d695 6dbb 7955 35bb
000002c0: 269f 3dba af1d 4ebb cb44 28bb 2cac 1cba
000002d0: 2aa3 85bb 2f93 37bb 4fee 6bb9 779d 73bb
000002e0: 8531 35bb 6fe5 86b9 69c9 60bb eec7 3cbb
000002f0: 7d8b 13ba 52a8 b8ba 86a4 f7ba 7457 23bb
00000300: dce6 efba 1b58 13bb 7685 38bb 3463 ecba
00000310: 39c6 14bb 0bc2 3dbb 0426 493a 88e1 b039
00000320: 1883 88b9 ff52 a439 265f 89b7 147b 07ba
00000330: 6df0 9739 5929 34b7 f54f 08ba e444 fcb9
00000340: 954f f3b9 f57c 1bba c0d1 c3b9 ffe6 c5b9
00000350: 74da 05ba af85 1ab7 d331 07b9 95fe b9b9
00000360: 6adf a1ba 12ad 04ba 7ca1 b73a 052e efba
00000370: 4537 9eba 258c dd39 8696 27bb 7ed7 0cbb
00000380: 50f8 49ba c3b2 783a 0ba1 ee3a c141 863b
00000390: 5bd2 ee39 6059 9b3a 063d 563b d637 82b7
000003a0: 37eb f239 bf08 143b 1a62 dc39 8e5c b73a
000003b0: e090 6b3b 8156 0a39 ded4 463a 680c 333b
000003c0: ab3a a3b8 7c34 6e38 49dc e13a 9bf5 a4ba
000003d0: e1da 71ba 5d3c 20ba f717 92ba c466 35ba
000003e0: 7e73 4bb9 57f0 32ba 0adc 99b9 d07a 6739
000003f0: 6317 d5ba 1f8c 6fba c9c9 07b9 2135 aaba
