benchmark_experiment/run_1/benchmark_experiment_increased_data/experience_1_2/model_experience_1_2.pth (torch, 849657 bytes, 36 tensors)

features.0.weight f4 [32, 3, 3, 3]
0	0x3d9bd5c9	0.07609136
1	0x3e00d2df	0.12580441
2	0xbde5e0c3	-0.112245105
3	0xbd1a6116	-0.037690245
4	0x3d878f0a	0.066190794
5	0xbe50c905	-0.20389183
6	0xbcce8613	-0.025210416
7	0xbe27654f	-0.1634724
8	0xbe39ec0b	-0.1815645
9	0xbda1cb65	-0.079001226
10	0x3d10d9e9	0.035364065
11	0xbde02d66	-0.10946159
12	0xbe48e1c8	-0.19617379
13	0xbe1572bc	-0.14594549
14	0x3e053f66	0.13012466
15	0x3dcdcf87	0.10049348
16	0xbe4a6f11	-0.19768931
17	0xbd7d64df	-0.061863776
18	0xbe2048e7	-0.1565281
19	0x3e37390e	0.17892858
20	0x3de6cfd0	0.11270106
21	0xbd00b262	-0.03142012
22	0x3d8ac338	0.06775516
23	0x3e3e129f	0.18561791
24	0x3df171b8	0.11789268
25	0x3dfac790	0.12245095
26	0xbe22382c	-0.1584174
27	0x3e1a2eba	0.15056887
28	0x3e3d56e1	0.18490173
29	0xbd9ae0a8	-0.07562381
30	0x3e00cf32	0.12579039
31	0xbbcb6b58	-0.0062078647
32	0x3e44cd70	0.19218993
33	0xbd412f6c	-0.047164366
34	0xbc841a85	-0.016125927
35	0xbd02c765	-0.03192844
36	0xbc380cfc	-0.0112335645
37	0x3d8dd540	0.0692544
38	0x3d9ee271	0.07758034
39	0xbd34c634	-0.044134334
40	0x3d77568e	0.06038528
41	0xbe03103e	-0.12799165
42	0xbc423451	-0.0118532935
43	0x3e0f2937	0.13980566
44	0x3e36425c	0.17798752
45	0x3e14b418	0.14521825
46	0x3db94cf5	0.090478815
47	0xbcc84d71	-0.02445099
48	0xbb99fe3e	-0.0046994975
49	0x3b83fba9	0.004027803
50	0xbceb5547	-0.028727187
51	0x3d575165	0.05256786
52	0x3de7554e	0.112955675
53	0xbdc10dbd	-0.094264485
54	0xbe3b5fe5	-0.182983
55	0x3e214a93	0.15751104
56	0x3e369a67	0.17832337
57	0xbe2bde41	-0.16784002
58	0x3deda8cb	0.1160446
59	0xbc1e60b2	-0.009666609
60	0x3d2311cf	0.039811905
61	0xbd9baa8f	-0.07600891
62	0x3da857a2	0.0821984
63	0xbdd5e18c	-0.1044341
64	0xbe327480	-0.17427254
65	0xbdd3abe3	-0.10335519
66	0x3cb046c2	0.021518115
67	0xbc86a03d	-0.01643383
68	0x3d2bdaf4	0.041956857
69	0xbdfb2bb6	-0.122641966
70	0x3d0425ee	0.032262735
71	0x3b9877b3	0.004652941
72	0xbd5c8ece	-0.053847127
73	0x3e03b1b7	0.12860762
74	0x3e306358	0.17225397
75	0x3e288261	0.16455986
76	0xbd97ff0b	-0.074216925
77	0xbc5eafac	-0.013591688
78	0xbdeb8282	-0.11499502
79	0xbd58422e	-0.05279749
80	0xbddb5738	-0.10709995
81	0xbe41de4d	-0.18932457
82	0x3e3c58e6	0.18393287
83	0xbd58419c	-0.052796945
84	0x3d6f6db7	0.05845424
85	0x3e13c9db	0.1443247
86	0x3df04a98	0.11732978
87	0xbe25462f	-0.16140054
88	0x3d85b9d5	0.06529585
89	0xbce21fb9	-0.027603017
90	0x3dfff196	0.12497251
91	0xbda4ff69	-0.08056528
92	0xbdab656f	-0.08368956
93	0xbe157687	-0.14595996
94	0xbded5c36	-0.115898535
95	0x3d9b5166	0.07583885
96	0x3cec2798	0.028827474
97	0xbe3a3186	-0.18182954
98	0xbddfa7a0	-0.10920644
99	0xbd49d9a4	-0.049279824
100	0xbe3a06ec	-0.18166703
101	0xbe28c890	-0.16482759
102	0xbddc2570	-0.10749328
103	0xbe121f02	-0.14269641
104	0xbe06f2ac	-0.1317851
105	0x3d1cc339	0.038272116
106	0xbe07ebb4	-0.13273507
107	0xbe1e1839	-0.15438928
108	0xbe1d731c	-0.15375942
109	0xbd9bed14	-0.076135784
110	0x3d5ff0c0	0.054672956
111	0xbb8ea987	-0.0043537053
112	0x3e266d8f	0.16252731
113	0x3df06448	0.11737877
114	0xbe143563	-0.1447349
115	0xbc0aae42	-0.008464398
116	0xba629228	-0.0008642995
117	0x3d91dc84	0.07122138
118	0x3d517f44	0.05114676
119	0xbdfe3ee0	-0.12414336
120	0x3bb8d730	0.0056408867
121	0x3e060607	0.13088237
122	0xbde76e80	-0.11300373
123	0xbdb1e4fc	-0.086862534
124	0xbdaca67c	-0.08430192
125	0xbd86bd25	-0.06579045
126	0x3dfb3d2b	0.12267526
127	0x3e2bcfc1	0.1677847
128	0x3e47559a	0.19466248
129	0x3e42926c	0.19001168
130	0x3e12f690	0.14351869
131	0x3e13be6a	0.14428106
132	0xbd7089be	-0.05872511
133	0x3dd4ebbb	0.103965245
134	0x3daa7e84	0.08324912
135	0xbd8a955b	-0.067667685
136	0xbe26fd77	-0.16307627
137	0xbc276887	-0.010217792
138	0x3c7d370d	0.01545502
139	0xbe0ed490	-0.13948274
140	0xbd521d42	-0.051297434
141	0x3de4bf10	0.11169255
142	0xbe570a75	-0.21000083
143	0xbdaefbdd	-0.08544133
144	0xbda723ec	-0.081611484
145	0x3cc4276c	0.023944579
146	0x3dd7844c	0.105232805
147	0xbcb29235	-0.021798233
148	0x3df2d290	0.11856568
149	0x3d41d0b9	0.047318194
150	0x3e1f6847	0.15567122
151	0x3e0c5f08	0.13708127
152	0xbde46a45	-0.11153082
153	0x3c83a105	0.016067991
154	0x3df8b615	0.121441044
155	0x3de87b05	0.11351589
156	0xbd97b23f	-0.074070446
157	0xbe098587	-0.13429843
158	0xbddebdb6	-0.10876028
159	0xbdb12334	-0.086492926
160	0xbdb010ab	-0.08596929
161	0x3c063dee	0.008193476
162	0xbd4640d0	-0.048401654
163	0x3e0addc7	0.13561164
164	0xbde9aacc	-0.1140953
165	0xbd4e523b	-0.05037139
166	0x3a1965c0	0.0005851649
167	0xbe1cae4c	-0.15300864
168	0xbdec0321	-0.11524034
169	0x3de77b0b	0.113027655
170	0xbd83e5d0	-0.06440318
171	0x3dc59a34	0.096485525
172	0x3d1383cc	0.036014363
173	0xbdf84380	-0.121222496
174	0xbda30185	-0.07959274
175	0xbd2da935	-0.042397697
176	0xbd409f0b	-0.047026675
177	0xbe5a0de3	-0.2129436
178	0xbe398dfe	-0.18120572
179	0xbb87b52d	-0.004141471
180	0xbcd4134f	-0.025888113
181	0xbd759efc	-0.059966072
182	0xbe2891e4	-0.16461903
183	0xbd16df1e	-0.036833875
184	0x3d685c57	0.056728687
185	0x3d489d93	0.0489784
186	0x3d81a40e	0.06330119
187	0xbe0ec637	-0.139428
188	0x3de44579	0.11146063
189	0x3c204107	0.009781129
190	0x3e45ca1c	0.1931538
191	0xbcf0fcbc	-0.029417388
192	0xbdf31345	-0.1186891
193	0x3d03a1c5	0.032136697
194	0x3d89e206	0.06732564
195	0x3de257c6	0.11051898
196	0x3e48806a	0.19580236
197	0x3e3e7cf1	0.18602349
198	0xbbf00b92	-0.007325598
199	0xbe16f8cc	-0.14743346
200	0xbc8d8cd0	-0.017279059
201	0x3db46cca	0.08809812
202	0x3e00093d	0.12503524
203	0xbe17e24a	-0.14832416
204	0xbdb82a01	-0.089923866
205	0x3e1b5ee3	0.15172915
206	0xbc398cc5	-0.011325066
207	0xbe0c1ccc	-0.1368286
208	0xbd884a71	-0.066548236
209	0x3d2035b0	0.0391137
210	0x3e1eb754	0.15499622
211	0x3e04167a	0.12899199
212	0x3d4244f1	0.04742903
213	0x3e337056	0.17523322
214	0x3df086f5	0.11744491
215	0x3dbe350a	0.0928746
216	0xbd9c2efe	-0.076261505
217	0xbe329254	-0.17438632
218	0xbccf2fd7	-0.025291367
219	0x3dd8a458	0.10578221
220	0x3e22cd3b	0.15898602
221	0xbc1d770f	-0.009610905
222	0xbe2f14c1	-0.1709776
223	0x3de2e99f	0.11079716
224	0xbd617348	-0.05504158
225	0x3e195a20	0.14975786
226	0x3defa27a	0.11700912
227	0xbe07145b	-0.13191359
228	0xbd9154c5	-0.07096247
229	0x3dc62b6b	0.0967625
230	0xbe11d281	-0.14240457
231	0x3e1989ae	0.14993927
232	0xbd3631a7	-0.044480946
233	0x3e086df6	0.13323197
234	0xbd55c803	-0.0521927
235	0xbd795ddf	-0.060880538
236	0xbc564c74	-0.013079751
237	0xbde59431	-0.11209906
238	0xbde544fd	-0.11194799
239	0xbdc01b4e	-0.09380208
240	0xbc7c6948	-0.01540596
241	0xbd248506	-0.040165924
242	0xbe481aac	-0.19541425
243	0xbde01933	-0.10942306
244	0xbded9b8f	-0.11601936
245	0xbd39b75d	-0.045340884
246	0xbe472f04	-0.19451529
247	0x3e308393	0.17237692
248	0x3b2b6b85	0.0026156616
249	0xbe0cd992	-0.13754871
250	0x3d504dfc	0.05085562
251	0x3df1fad1	0.118154176
252	0x3d36e83d	0.044655073
253	0x3ba8c391	0.0051502665
254	0x3d60b4da	0.054859973
255	0xbe414ad3	-0.188762

features.0.bias f4 [32]
0	0x3c97aae3	0.018514102
1	0x3e2fd6e1	0.17171814
2	0xbc923c2e	-0.017850962
3	0xbd42c3e3	-0.047550093
4	0xba147463	-0.0005663095
5	0x3d175d47	0.03695419
6	0xbdc586a0	-0.09644818
7	0x3e14aad6	0.14518294
8	0xbe27d168	-0.16388476
9	0x3d0d5b44	0.034510866
10	0xbcf0d591	-0.029398711
11	0xbd9192ac	-0.071080536
12	0xbe0b1250	-0.13581204
13	0xbdb9a5ba	-0.09064813
14	0xbd9ef487	-0.07761484
15	0xbdb776fe	-0.08958243
16	0x3e4a90da	0.19781819
17	0x3e0755fe	0.13216397
18	0xbe0533a7	-0.13007985
19	0xbdd80f3d	-0.105497815
20	0x3e48d0ce	0.19610903
21	0x3cf4d0a3	0.029884642
22	0xbddbe1ab	-0.10736402
23	0xbe1f543c	-0.15559477
24	0x3e2dc3ee	0.16969272
25	0x3e13df49	0.14440645
26	0xbdfa4aaf	-0.12221276
27	0x3e3aecbd	0.18254371
28	0xbc2098e4	-0.009802077
29	0xbe0a1427	-0.1348425
30	0xbbfa24e7	-0.0076337936
31	0xbd00cbf0	-0.03144449

features.2.weight f4 [32, 32, 3, 3]
0	0xbd49e7b6	-0.049293242
1	0x3ca865e9	0.020556407
2	0xbd9170db	-0.071016036
3	0xbd2f9780	-0.04286909
4	0xbcab8149	-0.020935671
5	0xbc1d484e	-0.009599758
6	0xbd887d4a	-0.06664522
7	0x3cae83f2	0.02130315
8	0x3b56c9b3	0.003277403
9	0xbb9d1e3b	-0.0047948635
10	0xbc91f120	-0.017815173
11	0x3b984153	0.004646459
12	0x3bda2494	0.0066571925
13	0xbc3414f4	-0.010991324
14	0xbd149354	-0.036273316
15	0xbd047553	-0.03233845
16	0x3d17999b	0.037011724
17	0x3cc08842	0.023502473
18	0x3b6b1404	0.0035870085
19	0xbc21bb58	-0.009871326
20	0xbc155e45	-0.009116714
21	0xbca061d0	-0.01957789
22	0x3c1a3052	0.0094109345
23	0xbc3460a5	-0.01100937
24	0xbb01d448	-0.0019810367
25	0xbbeef3ca	-0.0072922455
26	0xbcb4ca49	-0.022069113
27	0x3d3bae0c	0.04582028
28	0xbce8699c	-0.028370671
29	0x3cb35fda	0.021896292
30	0x3c3352da	0.010945046
31	0x3d4886b3	0.048956584
32	0xbcec71e3	-0.0288629
33	0x3c782996	0.015146634
34	0x3cbfa785	0.02339531
35	0x3cb3c683	0.021945244
36	0x3c2b88e8	0.010469653
37	0xbd39025b	-0.045168262
38	0x3d64dde6	0.05587568
39	0x3d636daf	0.055524524
40	0xbb8dda91	-0.0043290337
41	0x3d723276	0.059130155
42	0xbd6b9da3	-0.05752338
43	0x3c4b462a	0.012406865
44	0xbbbd9e2d	-0.0057866783
45	0xbcd30633	-0.025759792
46	0xbcb77e85	-0.022399196
47	0x3d39793c	0.045281634
48	0x3d8a2973	0.06746187
49	0x3d1875c1	0.037221674
50	0x3d6ceb44	0.057841554
51	0x3d24c3ca	0.04022578
52	0x3ce84a39	0.028355705
53	0x3d6efbec	0.05834572
54	0x3cd65545	0.026163707
55	0x3ca17302	0.01970816
56	0x3c189a06	0.009314066
57	0xbd0518af	-0.032494243
58	0xbd2a78ca	-0.0416191
59	0xbcd48745	-0.025943408
60	0xbbf4c6f0	-0.0074700043
61	0xbb541c2d	-0.0032365427
62	0xbc8365f9	-0.016039835
63	0x3c408d80	0.011752486
64	0x3c566427	0.013085402
65	0x3d10950f	0.035298403
66	0xbd12be37	-0.035825934
67	0x3b9dd328	0.0048164316
68	0xbd112a0a	-0.035440482
69	0xbcace979	-0.021107422
70	0x3cb0f6f9	0.02160214
71	0x3ca89d1a	0.020582724
72	0xbce14923	-0.027500695
73	0x3d1fcb9a	0.03901253
74	0xbc7476f5	-0.01492094
75	0xbc7894be	-0.015172182
76	0xbccdbbd6	-0.025113981
77	0xbcbc92e9	-0.023019271
78	0x3d3c3973	0.045953225
79	0x3d6b5b97	0.057460394
80	0x3d344802	0.044013985
81	0xbcdac109	-0.026703374
82	0x3d53bcfd	0.051693905
83	0xbce21bf3	-0.027601218
84	0xbd32cdc8	-0.04365328
85	0x3b402cb5	0.0029323522
86	0xbd1900a8	-0.03735414
87	0x3d1d2238	0.03836271
88	0xbce2280b	-0.027606985
89	0x3cd78d9d	0.026312644
90	0x3d48070a	0.048834838
91	0xbd3eb253	-0.046556782
92	0xbcac34ce	-0.021021273
93	0x3d437597	0.047719564
94	0xbd3918bd	-0.045189608
95	0x3d043a64	0.03228225
96	0xbd726bcc	-0.059184834
97	0xbd022313	-0.03177173
98	0x3d3ab662	0.04558409
99	0x3d72c804	0.05927278
100	0x3c260c16	0.010134717
101	0xbccc34c1	-0.024927499
102	0x3d3deb29	0.046366844
103	0x3abae5e2	0.0014259184
104	0x3c7ae068	0.015312292
105	0x3d0467ce	0.03232556
106	0x3c237ac7	0.009978003
107	0xbd156518	-0.036473364
108	0x3d34d84b	0.044151586
109	0x3cf627e5	0.03004832
110	0xbcf68384	-0.030092008
111	0xbb8ee41b	-0.0043606884
112	0x3caa29cf	0.020771889
113	0xbd68f2ba	-0.056872107
114	0x3bf04145	0.0073319995
115	0xbd85a06c	-0.06524739
116	0xbd0c0e2c	-0.034193203
117	0x3d3d1d8d	0.04617076
118	0x3c8ee64d	0.0174438
119	0x3c84f61f	0.016230641
120	0xbd1dcd8a	-0.038526095
121	0xbd000b0b	-0.03126053
122	0xbc14c4ca	-0.009080121
123	0x3c90b932	0.017666433
124	0x3aafade1	0.001340326
125	0x3d46bdc8	0.048520833
126	0x3d5ba224	0.053621426
127	0x3d153ca7	0.036434796
128	0x3d0b81cc	0.03405933
129	0xbc56751f	-0.013089447
130	0xbb8c08d9	-0.0042735157
131	0xb9654f00	-0.00021868572
132	0x3d37da18	0.044885725
133	0x3cc0a5a3	0.023516482
134	0xbd58bd32	-0.052914806
135	0xbcde1110	-0.027107745
136	0xbccbea08	-0.024891868
137	0x3b636938	0.0034700166
138	0xbb1d3659	-0.0023988693
139	0xbd651b49	-0.055934224
140	0xbc976dd2	-0.018484984
141	0x3d2e3ad3	0.042536568
142	0xbb95d0ea	-0.0045720236
143	0xbd0177a6	-0.031608246
144	0x3d2f32c0	0.04277301
145	0xbd32ecb9	-0.043682788
146	0x3d316183	0.043305885
147	0x3d3ab6a0	0.04558432
148	0xbcd9f4ef	-0.026606051
149	0x39e744bc	0.00044110965
150	0x3baa8c6f	0.0052047293
151	0xbcc49a32	-0.023999307
152	0x3cc87440	0.024469495
153	0xbd61d07d	-0.05513047
154	0x3c88a702	0.016681198
155	0x3cc4c741	0.024020793
156	0xbd3b5b91	-0.04574162
157	0xbb743f8d	-0.0037269325
158	0xbd1654f7	-0.036702123
159	0x3cbbf512	0.022944007
160	0xba8b20a2	-0.0010614584
161	0xbd61b1aa	-0.055101074
162	0xbd54dbc9	-0.051967416
163	0xbd46c72b	-0.048529785
164	0x3ce4cb22	0.027928893
165	0xbaab25c5	-0.0013057521
166	0xbd469bdf	-0.048488494
167	0xbd624eda	-0.05525098
168	0xbc87e519	-0.016588734
169	0xbd565f1d	-0.0523368
170	0x3cc00ab1	0.023442598
171	0x3cf9ea2d	0.030507172
172	0xbb8a462a	-0.00421979
173	0xbc60309f	-0.013683467
174	0x3d4273bc	0.047473654
175	0x3c82f4fc	0.015985958
176	0xbba81d98	-0.005130481
177	0x3d1e752c	0.038685963
178	0xbd0453b4	-0.032306388
179	0xbb967b41	-0.0045923297
180	0x3c8a739f	0.016900836
181	0x3d1b18b6	0.037865363
182	0xbd4fe123	-0.050751816
183	0xbca5e06f	-0.02024862
184	0x3c88db5c	0.016706161
185	0xbc9a176e	-0.01881
186	0x3c9f3b33	0.019437408
187	0xbc98c0d4	-0.018646635
188	0x3d03d152	0.032182045
189	0x3d67b16b	0.056565683
190	0x3c82d562	0.01597089
191	0x3c9b2b7a	0.01894163
192	0xbca31973	-0.019909596
193	0xbc2afada	-0.010435784
194	0xbd3dafe2	-0.046310313
195	0x3c828942	0.01593459
196	0xbcc09e60	-0.02351302
197	0xbd3ea745	-0.04654624
198	0x3a7b3def	0.0009584119
199	0xbb816c97	-0.0039497125
200	0x3d0ca674	0.03433843
201	0x3d750b6d	0.05982535
202	0x3cc86039	0.024459945
203	0x3d46ac33	0.048504066
204	0x3c01846f	0.00790511
205	0xbd092306	-0.033480667
206	0xbd1a774e	-0.037711434
207	0x3ce2c409	0.027681367
208	0xbd1aebe8	-0.037822634
209	0x3c514a54	0.012774069
210	0x3d67276d	0.056434084
211	0xbba2888d	-0.004960126
212	0xbcc443c0	-0.023958087
213	0xbd09977c	-0.033591732
214	0xbd0ca099	-0.034332845
215	0x3bc79e49	0.006091867
216	0x3d59f517	0.05321225
217	0xbd4e8583	-0.050420295
218	0xbd2ccc2f	-0.042186912
219	0x3cbf4f8d	0.023353362
220	0xbd1907a0	-0.037360787
221	0x3c0d4fa1	0.008624942
222	0xbca73f52	-0.020415936
223	0x3d27a78a	0.040931262
224	0xbcc01741	-0.023448588
225	0x3b068f13	0.0020532056
226	0xbd118a69	-0.03553239
227	0x3d48532a	0.048907436
228	0xbc239677	-0.009984604
229	0xbd3fae44	-0.046797052
230	0x3d5aaddb	0.053388458
231	0x3cc9b974	0.024624564
232	0x3c12e3e3	0.008965465
233	0xbd44aecb	-0.048018258
234	0x3d1e7111	0.038682047
235	0xbcd48c90	-0.025945932
236	0x3c98292b	0.018574318
237	0xbaacd7e3	-0.0013186898
238	0xbd420871	-0.04737133
239	0x3cb7cb29	0.022435741
240	0x3c386740	0.0112550855
241	0x3d0010c4	0.03126599
242	0x3d67d91a	0.05660353
243	0xbc036825	-0.008020435
244	0xbd59a204	-0.053133026
245	0x3c6bbc32	0.014388131
246	0xbd1dc7dc	-0.03852068
247	0xbd125762	-0.035727866
248	0x3d3c30ba	0.045944907
249	0x3d625e8e	0.055265956
250	0xbcd4a8f6	-0.025959473
251	0x3ceb8226	0.028748583
252	0xbd4adff6	-0.049529992
253	0xbd198266	-0.037477873
254	0x3d5f532f	0.05452269
255	0xbbc52fe8	-0.0060176738

features.2.bias f4 [32]
0	0x3d02e3da	0.031955577
1	0x3c2cfed9	0.010558807
2	0xbcd80c64	-0.026373096
3	0x3d94c378	0.07263845
4	0x3d1e32bf	0.038622614
5	0x3cf3f180	0.029778242
6	0x3d80290e	0.062578306
7	0xbbb783fc	-0.0056004506
8	0xbd4f3652	-0.050588913
9	0xbca0ec5b	-0.019643953
10	0x3cc93f6d	0.024566377
11	0x3d63a928	0.05558124
12	0xbd038d73	-0.03211732
13	0xbd1d8282	-0.03845454
14	0xbcdf3cb4	-0.027250625
15	0xbc1e459d	-0.009660152
16	0x3d8c747c	0.06858155
17	0x3a34b6ac	0.00068936753
18	0xbb65757b	-0.003501265
19	0x3b1bf94a	0.002379971
20	0xbca22a40	-0.019795537
21	0x3d85d434	0.06534615
22	0x3d96201f	0.07330345
23	0x3d835971	0.06413544
24	0xbc94432f	-0.018098442
25	0xbcb9bdd4	-0.022673525
26	0x3ccba74f	0.024860052
27	0x3d2186bb	0.03943513
28	0xbd494272	-0.049135633
29	0x3cd16273	0.02555964
30	0xbd5892ba	-0.052874304
31	0x3d42398a	0.047418155

features.5.weight f4 [64, 32, 3, 3]
0	0x3caeffaf	0.021362154
1	0x3d46caf1	0.048533384
2	0xbd181aea	-0.037135042
3	0x3d2c5002	0.04206849
4	0x3c121390	0.008915797
5	0x3cf03a67	0.029324723
6	0x3d26f257	0.040758457
7	0x3d4517f3	0.048118543
8	0x3d695bfe	0.056972496
9	0x3d6b37f9	0.057426427
10	0x3d6f225c	0.058382377
11	0x3d61abb3	0.055095386
12	0xbb64b5cb	-0.0034898396
13	0xbcf369fe	-0.029713627
14	0x3c0f84c0	0.008759677
15	0x3d59019b	0.052980047
16	0x3d685dad	0.05672996
17	0xbd5d5969	-0.054040346
18	0x3d388c72	0.045055814
19	0x3c2458c8	0.010030933
20	0xbc76ce8a	-0.015063891
21	0xbc760449	-0.01501567
22	0x3d76a2fb	0.060214024
23	0x3d637500	0.0555315
24	0xbd2dfb75	-0.042476136
25	0xbcceeb48	-0.025258675
26	0xbba223ee	-0.004948131
27	0x3d5b5427	0.05354705
28	0x3cd061a0	0.025437176
29	0xbce3dc9e	-0.02781516
30	0xbd511a3c	-0.05105041
31	0xbcee3e2b	-0.029082378
32	0x3d0a8dd5	0.033826668
33	0x3d0cbc0a	0.034359016
34	0xbd33d486	-0.04390385
35	0x3c631bc9	0.013861605
36	0xbc8ff71d	-0.017573887
37	0x3d65a8fb	0.056069355
38	0xbd48354d	-0.048878957
39	0x3ca33795	0.019923965
40	0xbcb591c3	-0.022164231
41	0x3d0e9110	0.03480631
42	0xbcfc4dd4	-0.03079883
43	0xbd42ad13	-0.047528338
44	0xbd34e3ee	-0.044162683
45	0xbae4e0aa	-0.0017461975
46	0x3d057ce6	0.032589816
47	0x3ce2678c	0.027637266
48	0xbc8822d7	-0.016618175
49	0xbb2d2b89	-0.0026423654
50	0xbd276ebb	-0.040877085
51	0x3ca35581	0.019938232
52	0x3bdcb398	0.0067352764
53	0x3c44b8ad	0.012006921
54	0xbcbf5488	-0.023355737
55	0xbbfc37e8	-0.007697094
56	0x3c4edebd	0.012626347
57	0xbd701fde	-0.05862414
58	0xbd05c6af	-0.032660183
59	0x3d3f7488	0.046741992
60	0xbd1005d8	-0.035161823
61	0xbc5c75ee	-0.013455851
62	0xbcf0ceea	-0.02939554
63	0x3d4a22e2	0.049349673
64	0xbd580f84	-0.05274917
65	0xbbb864b4	-0.005627239
66	0xbd2f1f7a	-0.042754628
67	0x3d223043	0.039596807
68	0x3d10efa0	0.035384774
69	0x3cebf538	0.028803453
70	0x3d007660	0.03136289
71	0xbbcf8695	-0.006333182
72	0x3bf0bab2	0.0073464746
73	0xbc6264d9	-0.013817989
74	0xbc4c3a98	-0.012465142
75	0xbcd0156a	-0.025400836
76	0x3c1bda2c	0.009512465
77	0xbc17728e	-0.009243621
78	0xbd1a7aab	-0.03771464
79	0x3d0179f5	0.031610448
80	0xbd029486	-0.031879924
81	0x3c96b822	0.018398348
82	0x3c0b448a	0.008500228
83	0x3c7d3109	0.015453585
84	0x3d42713c	0.04747127
85	0x3c73ff70	0.014892444
86	0xbd186e49	-0.03721455
87	0xbd6922c3	-0.056917917
88	0xbcd2b131	-0.025719257
89	0x3b3fee4a	0.0029286318
90	0x3d079226	0.033098362
91	0x3d2bbc8b	0.041927855
92	0x3d5963e1	0.053073768
93	0xbccb42b2	-0.024812076
94	0x3c88ce99	0.016700076
95	0x3d03f116	0.03221234
96	0xbceccfdc	-0.028907709
97	0xbce20ed4	-0.027594961
98	0xbbd80fa5	-0.006593662
99	0x3d478d3f	0.048718687
100	0x3c1e81fe	0.009674547
101	0xbcb58453	-0.022157824
102	0x3d153220	0.036424756
103	0xbc0e0f55	-0.008670648
104	0xbc1ccd91	-0.009570495
105	0x3d447afe	0.047968857
106	0x3cadff50	0.021239907
107	0x3cf4984a	0.029857773
108	0x3c974d10	0.018469363
109	0x3d1e41cf	0.03863698
110	0x3cfcd3b1	0.030862661
111	0x3d4b15a4	0.049581185
112	0xbccf82bb	-0.025330892
113	0x3c3e1535	0.011601736
114	0x3ccf09a4	0.025273152
115	0x3d1b89a5	0.037973065
116	0x3c4432f5	0.01197504
117	0xbd026cd7	-0.03184208
118	0x3c16e3cf	0.009209587
119	0x3a8f55c7	0.0010935598
120	0xbc4df4b5	-0.01257055
121	0xbbd24d2a	-0.00641789
122	0x3d2b76c3	0.041861307
123	0xbbe3c362	-0.0069507817
124	0x3c83a563	0.016070073
125	0x3c671a06	0.014105326
126	0xbccbe1a2	-0.024887864
127	0x3ad61f80	0.0016336292
128	0x3d2e5ef5	0.042571027
129	0xbc7ed288	-0.015553124
130	0x3d6012fe	0.054705612
131	0x3d0c4ba6	0.03425183
132	0xbc8b9063	-0.017036622
133	0xbd2280bd	-0.039673556
134	0xbcfe0fd0	-0.0310134
135	0x3d5afe21	0.053465012
136	0x3c855c26	0.016279291
137	0x3cdfa528	0.027300432
138	0xbc63b1e3	-0.013897392
139	0x3d08f0ba	0.0334327
140	0xbc910006	-0.017700206
141	0x3d26dd72	0.04073853
142	0x3d788cc5	0.060681123
143	0x3cd8e025	0.026474068
144	0x3d35404b	0.044250768
145	0x3d60a491	0.054844443
146	0x3d829a95	0.063771404
147	0x3cf1de27	0.029524876
148	0xbd516740	-0.051123857
149	0x3d4a4165	0.04937877
150	0x3ca6f6a8	0.020381287
151	0x3d01451c	0.03156005
152	0x3d626147	0.055268552
153	0x3d0e9267	0.03480759
154	0xbd384358	-0.0449861
155	0xbd21cedb	-0.039503913
156	0xbbb8991a	-0.0056334855
157	0x3c99be2a	0.018767435
158	0xbcd44c62	-0.025915328
159	0xbd0bc71b	-0.03412543
160	0x3b36f69a	0.0027917982
161	0xbd00b5fe	-0.03142356
162	0x3c78f7f1	0.015195833
163	0x3c67ea22	0.014154943
164	0xbbe23868	-0.006903697
165	0x3d945639	0.07243008
166	0x3d09f4b0	0.033680618
167	0xbbdd5996	-0.0067550642
168	0xbd0f8841	-0.03504205
169	0x3d29a287	0.041414764
170	0x3ca755bc	0.020426624
171	0xbc23d352	-0.009999113
172	0xbc6528b4	-0.013986755
173	0xbd1d8bf9	-0.038463566
174	0xbc95cf05	-0.018287191
175	0xbca399be	-0.01997077
176	0xbcf8c69e	-0.030368146
177	0x3a370360	0.0006981399
178	0x3c85c738	0.016330346
179	0xbd013fc2	-0.031554945
180	0x3c34ea7c	0.011042234
181	0xbd39fb2d	-0.045405556
182	0x3b04b02f	0.0020246615
183	0x3d0d1785	0.034446258
184	0x3cbc2625	0.022967407
185	0x3c81dba5	0.015851805
186	0x3c4bfb12	0.012449997
187	0xbd383cd4	-0.044979885
188	0xbd0a7f8b	-0.03381304
189	0x3c269b62	0.010168882
190	0xbc2b69bc	-0.010462221
191	0x3cbc1363	0.022958463
192	0x3b3a52d1	0.002843071
193	0xbbdfa597	-0.00682516
194	0x3b8a8068	0.004226733
195	0xbd03d00b	-0.032180827
196	0x3c06b8b3	0.008222747
197	0xbc84e113	-0.016220605
198	0x3c5bad7f	0.013408064
199	0xbd46e185	-0.048554916
200	0x3c5afa6a	0.013365367
201	0x3ca1d083	0.019752746
202	0x3c8401ff	0.016114233
203	0x3d68ffda	0.056884624
204	0x3d3b9dcb	0.04580478
205	0x3c3c4abe	0.011492429
206	0x3d277c96	0.0408903
207	0x3d6f929a	0.05848942
208	0xbd2512d0	-0.040301144
209	0x3c247e20	0.010039836
210	0xbc3252f5	-0.010884036
211	0xbbd291e2	-0.006426082
212	0xbc95d686	-0.01829077
213	0x3d350507	0.044194248
214	0xbcc3a939	-0.023884403
215	0x3ce67acd	0.028134728
216	0xbd1a3875	-0.037651498
217	0x3c99b718	0.018764064
218	0xbcc54585	-0.024081001
219	0xbc9626ab	-0.018328985
220	0x3d5437d1	0.051811043
221	0x399b4d05	0.00029621288
222	0x3cfaf6ca	0.030635256
223	0xbd0d674c	-0.03452234
224	0x3d2b221e	0.041780584
225	0x3cf354ed	0.029703582
226	0x3cbbcfb3	0.022926187
227	0xbcf080c2	-0.029358272
228	0xbd145c9e	-0.03622114
229	0x3bf05f19	0.0073355553
230	0xbd15f013	-0.036605906
231	0x3d063b39	0.032771323
232	0x3b49a4d3	0.003076841
233	0x3b7b5ca2	0.0038354774
234	0xbbc464fe	-0.0059934845
235	0x3ccfee06	0.025382053
236	0x3d433a3f	0.04766297
237	0x3aeb34eb	0.0017944848
238	0xbd05dccd	-0.032681275
239	0xbc9720cc	-0.018448256
240	0xbc60c320	-0.013718396
241	0x3d453e79	0.04815528
242	0xbd534db1	-0.051587764
243	0x3d2df79a	0.04247246
244	0x3c15714a	0.0091212485
245	0x3cbf5d47	0.023359908
246	0x3d6018c3	0.054711115
247	0xbcf44ecb	-0.029822728
248	0x3d702707	0.05863097
249	0x3ce503e6	0.02795596
250	0x3d6b555b	0.05745445
251	0xbd3c3742	-0.045951135
252	0xbd54a8d5	-0.051918823
253	0x3cd6f5aa	0.026240189
254	0x3d2b7119	0.041855905
255	0xbb13ef57	-0.0022573078

features.5.bias f4 [64]
0	0x3c819b17	0.015821023
1	0xbd31ba36	-0.043390475
2	0xba626246	-0.00086358597
3	0x3c97e954	0.018543877
4	0x3c6442dd	0.013931957
5	0xbc93d6c2	-0.01804674
6	0x3cd5d283	0.026101356
7	0x3ba38d7a	0.0049912306
8	0xbc380010	-0.011230484
9	0x3cd964e6	0.02653737
10	0x3d83273c	0.06403968
11	0x3d796f62	0.06089724
12	0xbd577ebb	-0.052611094
13	0xbc9b4128	-0.018951967
14	0x3d058e0b	0.032606166
15	0x3d709cd1	0.0587433
16	0xbd07d16d	-0.03315871
17	0xbc8d3906	-0.017239105
18	0xbcc13c65	-0.023588369
19	0x3d19ece2	0.037579425
20	0x3d5193b5	0.051166255
21	0x3aab5c13	0.0013073705
22	0x3cda2525	0.02662904
23	0x3d764ac7	0.060129907
24	0x3cd7dd42	0.026350621
25	0x3c2a5968	0.010397293
26	0x3c447e2f	0.011992975
27	0x3d4af9db	0.049554687
28	0x3cc2aac8	0.023763075
29	0xbcf16b4f	-0.029470114
30	0xbba5a079	-0.00505453
31	0xbd111935	-0.03542443
32	0xbd19f6fe	-0.037589066
33	0x3d20c633	0.039251518
34	0x3d33e8cd	0.043923188
35	0x3cf1a585	0.029497871
36	0x3c1346e9	0.008989074
37	0x3d16ed0f	0.03684717
38	0xbc836f87	-0.016044391
39	0x3d1191e9	0.03553954
40	0xbcf68997	-0.030094905
41	0x3c812ac2	0.015767459
42	0x3ce70fc6	0.028205764
43	0xb5c7b864	-1.488032e-06
44	0xbd214737	-0.039374556
45	0x3d71176d	0.05886023
46	0xbd23622b	-0.039888542
47	0x3cc8ba3c	0.024502866
48	0x3d44412f	0.047913726
49	0x3d4739a3	0.04863895
50	0xbbcdb1be	-0.006277292
51	0xbcb047b3	-0.021518564
52	0x3d59b88d	0.053154517
53	0xbd62e7f9	-0.055397008
54	0x3d52bfc9	0.05145243
55	0xbd2742a1	-0.040835027
56	0x3c82b445	0.0159551
57	0x3d4bd3b1	0.04976243
58	0x39b4fa6b	0.0003451885
59	0x3cb67590	0.022272855
60	0x3d3da059	0.046295498
61	0xbc041d63	-0.008063647
62	0xbcc2134c	-0.023690842
63	0x3c854c26	0.016271662

features.7.weight f4 [64, 64, 3, 3]
0	0x3af28946	0.0018504045
1	0xbd166ddb	-0.03672586
2	0x3cbd90eb	0.023140391
3	0x3cd002e3	0.025392001
4	0xbd10eb3d	-0.03538059
5	0xbd2b5d8c	-0.04183726
6	0x3d0bcb8f	0.034129675
7	0x3c7be333	0.015373993
8	0x3cb1529f	0.021645842
9	0xbcab4a45	-0.020909438
10	0xbd1a250b	-0.037632983
11	0x3c67d4aa	0.014149824
12	0x3cf67d79	0.030089127
13	0x3d4372cb	0.047716897
14	0x3d2ce2fd	0.04220866
15	0x3c3550cd	0.011066628
16	0x3c67268b	0.01410831
17	0x3bc1bc27	0.005912322
18	0x3d129e35	0.03579541
19	0xbd17d1b8	-0.037065238
20	0x3b0008dc	0.001953653
21	0xbba9ab8f	-0.005177922
22	0xbce3ad1f	-0.027792512
23	0xbd2b4d31	-0.041821662
24	0xbcb91713	-0.02259401
25	0x3cb48ad8	0.022038862
26	0x3c8310c9	0.015999215
27	0x3d275b6a	0.040858664
28	0x3d082b90	0.03324467
29	0xb949542e	-0.00019200213
30	0xbcd4e80b	-0.025989553
31	0xbcc733ec	-0.02431675
32	0x3bbcd9f7	0.005763288
33	0x3cfed84b	0.031108996
34	0x3c61d0d3	0.013782698
35	0xbd188ff7	-0.03724667
36	0x3c39d21c	0.011341598
37	0xbc609492	-0.013707297
38	0xbcc89a9f	-0.024487792
39	0xbcc58508	-0.024111286
40	0x3d0d4e81	0.034498695
41	0xbcbad729	-0.022807674
42	0xbc1f07f1	-0.009706483
43	0x3cb5666c	0.022143565
44	0xbc6d05e2	-0.014466735
45	0xbd212a6a	-0.03934709
46	0xbd4d23f2	-0.05008311
47	0xbbea691e	-0.007153644
48	0xbce4d7b5	-0.027934888
49	0xbd1677c0	-0.036735296
50	0x3b29e6bb	0.002592488
51	0x3cb1b8f3	0.021694636
52	0x3c294e6e	0.0103336405
53	0xbd1d2598	-0.03836593
54	0x3bc85a65	0.0061142915
55	0xbd15fb52	-0.03661663
56	0x3ca84a98	0.020543382
57	0xbd07138d	-0.03297763
58	0x3ca2126d	0.019784177
59	0x3c75dd20	0.015006334
60	0xbba63bd4	-0.00507305
61	0x3c7fcb35	0.015612413
62	0x3b4ac0df	0.0030937714
63	0x3bc02331	0.00586357
64	0x3caaa9a8	0.020832852
65	0xbd32aff5	-0.043624837
66	0x3cc2c661	0.023776235
67	0x3d3c5eb3	0.04598875
68	0x3c85a011	0.016311677
69	0x3cf80ac7	0.030278577
70	0x3d371e6f	0.044706758
71	0x3d278796	0.04090079
72	0xbcbe0130	-0.023193926
73	0x3d37cfe8	0.04487601
74	0xbc97510c	-0.018471263
75	0x3cea4dd9	0.028601574
76	0x3b4066ba	0.0029358105
77	0x3d0aadd8	0.033857197
78	0x3d16e535	0.036839683
79	0x3ca89d41	0.020582797
80	0x3d1a192b	0.03762166
81	0xbcb5da2f	-0.022198765
82	0x3d11e5d7	0.035619583
83	0x3d210f71	0.039321367
84	0xbd0b0cae	-0.03394764
85	0x3d1d252f	0.03836554
86	0x3c4eb650	0.012616709
87	0x3cc2714c	0.023735665
88	0x3d1a2580	0.03763342
89	0x3d225ff4	0.03964229
90	0x3cf6e1a0	0.030136883
91	0x3d743b0a	0.059626617
92	0x3d1a9f92	0.037749834
93	0x3caff296	0.021477979
94	0xbc3cba07	-0.011518962
95	0x3b55a04a	0.003259676
96	0xbc62d12d	-0.013843817
97	0xbc72bd7d	-0.014815685
98	0xbbdd1dd1	-0.006747939
99	0x3d1fc8da	0.039009906
100	0xbbb67c0b	-0.0055689863
101	0xba01188d	-0.0004924618
102	0xbc790bb3	-0.015200543
103	0x3d0f4e41	0.034986738
104	0x3b2d13fe	0.0026409621
105	0x3c744a57	0.014910302
106	0xbce25bbe	-0.027631637
107	0x3d1c6b4b	0.03818826
108	0x3cedbacc	0.029019736
109	0xbc9102b8	-0.017701492
110	0x3cd76646	0.026293885
111	0xbcf53df1	-0.029936763
112	0x3d1e8a9f	0.038706418
113	0xbbf0875f	-0.0073403562
114	0x3cbee2b2	0.023301456
115	0x3d070c39	0.03297064
116	0x3c19e1ac	0.009392183
117	0x3d13e381	0.036105637
118	0x3c210a81	0.0098291645
119	0x3c8047ed	0.015659297
120	0x3a8f1e9d	0.0010919158
121	0xbc6ca21b	-0.014442946
122	0x3ca2223f	0.01979172
123	0xbcaa5c9c	-0.020796113
124	0x3d2e39cb	0.042535584
125	0x3d21e78c	0.03952746
126	0xbcd4f100	-0.025993824
127	0x3d39e582	0.04538489
128	0x3bc65180	0.006052196
129	0xbd2c542b	-0.042072456
130	0xbcc9870e	-0.024600532
131	0x3d0c8448	0.03430584
132	0x3ced65b5	0.028979162
133	0xbc1d7f19	-0.009612822
134	0xbb8d87e7	-0.0043191793
135	0xbd1d94da	-0.038472034
136	0x3c08de5f	0.008353799
137	0xbc5687b4	-0.013093878
138	0xbd0c284b	-0.034218114
139	0xbcd7a749	-0.026324885
140	0x39fbba8c	0.0004801344
141	0xbd096052	-0.033539124
142	0x3c88a00c	0.016677879
143	0xbcf727d5	-0.03017036
144	0x3bc4f5f5	0.0060107657
145	0xbcb0d8e9	-0.021587806
146	0x3a392cc3	0.000706386
147	0x3cc4c447	0.024019374
148	0x3c51f9d2	0.012815909
149	0x3cfedfac	0.031112514
150	0xbcb8e195	-0.022568503
151	0x3cc92c92	0.024557386
152	0x3d40dec1	0.047087435
153	0xbc31b71c	-0.010846879
154	0xbc44237e	-0.011971353
155	0xbd4c2e6f	-0.04984897
156	0xba97b036	-0.0011572901
157	0x3d0dccf7	0.034619298
158	0xbd0dc4e4	-0.034611598
159	0x3ce079ed	0.027401889
160	0xbc7a557e	-0.015279172
161	0xbcb2a0cd	-0.021805191
162	0xbcaa1e0c	-0.02076628
163	0x3cb68cdd	0.022283966
164	0x3d35ad9d	0.044355024
165	0xb9476528	-0.00019015803
166	0x3b760635	0.003754032
167	0x3b1bdf9c	0.0023784405
168	0xbc909d18	-0.017653033
169	0x3c9fb98e	0.019497659
170	0x3b8dec20	0.004331127
171	0x3be6b12e	0.0070401644
172	0x3c34cf18	0.011035703
173	0x3ccd9ca0	0.025099099
174	0xbb3aeab6	-0.0028521246
175	0xbc28e6ca	-0.010308931
176	0xbc4dbfb1	-0.01255791
177	0xb98e1f29	-0.00027107567
178	0xbb8a1d73	-0.0042149364
179	0x3c98f956	0.01867358
180	0xbd22e75b	-0.03977142
181	0x3cd625ef	0.026141135
182	0x3c1cb422	0.009564431
183	0x3c15fc97	0.00915446
184	0x3c6919a2	0.014227303
185	0xbcbe77e4	-0.023250528
186	0x3c735898	0.014852665
187	0xbb80bf61	-0.003929064
188	0x3cecd29b	0.028909018
189	0xbca8816c	-0.020569526
190	0xbd1e9e0a	-0.038724937
191	0x3c9f4299	0.019440936
192	0x3c14e67c	0.009088155
193	0xbc14ddea	-0.009086112
194	0xbb9e4be5	-0.0048308247
195	0xbb57728a	-0.0032874667
196	0x3cb88e39	0.022528755
197	0xbc1c1b46	-0.009527987
198	0xbcd70c43	-0.026250964
199	0xbc95a784	-0.018268354
200	0xbd5b6082	-0.053558834
201	0x3d1df60e	0.038564734
202	0xbc9fb241	-0.019494178
203	0xbb865e2c	-0.0041005816
204	0x3c8fcbdc	0.017553262
205	0x3c80c448	0.015718594
206	0xbc989101	-0.01862383
207	0x3d182614	0.03714569
208	0x3d23bf5d	0.03997742
209	0xbc193734	-0.00935154
210	0x3c11f85d	0.008909312
211	0x3d2fd57b	0.0429282
212	0xbc0c4cb2	-0.008563207
213	0xbc7e6c7e	-0.015528796
214	0x3c6b8bf7	0.014376632
215	0x3d185653	0.0371917
216	0x3c8ba58d	0.017046714
217	0xbc9f29d1	-0.01942912
218	0xbd0b2dca	-0.033979215
219	0xbc14e251	-0.009087161
220	0x3b02ce90	0.0019959547
221	0x3c6d5dd6	0.014487704
222	0xbc8488d9	-0.016178535
223	0xbc7c28fc	-0.015390631
224	0x3cdd4e6f	0.02701494
225	0xbd2c1ac1	-0.042017702
226	0x3cfa16ae	0.030528393
227	0xbc5413fc	-0.012944218
228	0x3d23b5ec	0.039968416
229	0xbd04c783	-0.03241683
230	0x3d1b4889	0.03791097
231	0x3cb01fe5	0.021499583
232	0x3d4419fe	0.04787635
233	0x3c841a5f	0.016125856
234	0x3d178c00	0.03699875
235	0x3ca108e3	0.019657558
236	0xbbc562d2	-0.006023743
237	0xbd190ea7	-0.03736749
238	0xbd16f9d2	-0.03685934
239	0xbcc4ac50	-0.024007946
240	0xbc22431c	-0.009903695
241	0xbca76bb3	-0.020437097
242	0x3ccb0b7e	0.024785753
243	0xbd042737	-0.03226396
244	0xbcb2c468	-0.02182217
245	0xbd56943f	-0.052387472
246	0xbcb1da0e	-0.021710422
247	0x3ce45115	0.027870694
248	0xbcd0e494	-0.02549962
249	0x3bf74b18	0.0075467937
250	0x3d01f2d5	0.031725723
251	0x3ce8a2cc	0.02839794
252	0xbd34c62b	-0.0441343
253	0x3ba91058	0.005159419
254	0x3cd551bb	0.026039949
255	0xbd492e82	-0.04911662

features.7.bias f4 [64]
0	0x3d1090de	0.035294406
1	0x3d1a1b25	0.037623543
2	0xbc2f550e	-0.010701431
3	0x3baa1f52	0.005191722
4	0x3c31344d	0.010815692
5	0xbcaa8ad3	-0.02081815
6	0x3af3e844	0.0018608649
7	0x3d1c9fd5	0.038238365
8	0xbb4dfb2c	-0.0031430228
9	0xbd21914e	-0.039445214
10	0xbce0a7e8	-0.027423814
11	0x3cfc919a	0.030831147
12	0xbd050f5c	-0.03248535
13	0x3c1d9ed9	0.009620392
14	0x3d18cb41	0.037303213
15	0xbcfd56a6	-0.030925106
16	0x3c069ea4	0.008216534
17	0xbb3bee4b	-0.002867597
18	0xbcf58ff1	-0.029975863
19	0xbd198844	-0.03748347
20	0x3cf2577b	0.02958273
21	0xbb1ecafa	-0.002422987
22	0x3cec12de	0.02881759
23	0xbc87e866	-0.016590308
24	0x3d263785	0.04058029
25	0x3d15cb24	0.036570683
26	0x3c4d5e42	0.01253468
27	0x3cb3a792	0.02193049
28	0x3bc3ef46	0.0059794514
29	0xbc7fcaea	-0.015612343
30	0xbd1a4ea7	-0.037672665
31	0xbcf18ea0	-0.029486954
32	0xbbf01867	-0.0073271277
33	0xbcf95be9	-0.030439334
34	0x3cecc3b5	0.028901914
35	0x3d0386b0	0.03211087
36	0xbc3fb8f0	-0.011701807
37	0xbca8dee8	-0.020614102
38	0x3c804e16	0.015662234
39	0x3d279eeb	0.04092304
40	0xbc6a99b0	-0.0143188685
41	0x3cb8c750	0.022555977
42	0x3caa4a0d	0.020787263
43	0xbb892536	-0.004185344
44	0xbce8831b	-0.028382828
45	0x3be3bf1f	0.0069502736
46	0x3cb1a19c	0.021683507
47	0xbbb9180b	-0.005648618
48	0xbc34f53c	-0.011044797
49	0x3c32bffc	0.01091003
50	0xbd0bd614	-0.034139708
51	0xbac5264a	-0.0015041318
52	0x3b86d158	0.004114311
53	0xbc8e9529	-0.01740511
54	0xbcd17de8	-0.025572732
55	0xbcd50b05	-0.026006231
56	0x3d0af1fe	0.033922188
57	0xbc86b2e2	-0.01644272
58	0x3d0860d6	0.033295475
59	0xbb56e056	-0.0032787523
60	0xbd1e9565	-0.038716692
61	0x3c8e2ac0	0.01735437
62	0x3cbbb59b	0.022913745
63	0xbc4a0343	-0.012329879

features.10.weight f4 [64, 64, 1, 1]
0	0x3c6f6943	0.014612499
1	0xbd6b69c2	-0.057473905
2	0x3cc2ac11	0.023763688
3	0x3db79880	0.08964634
4	0xbdcdb449	-0.10044152
5	0x3dc10e64	0.09426573
6	0xbd236490	-0.039890826
7	0xbdd35f2c	-0.10320887
8	0x3d792d74	0.060834363
9	0xbde98761	-0.114027746
10	0x3c07a21f	0.008278399
11	0xbde9de3b	-0.1141934
12	0x39b0068f	0.00033574222
13	0xbdcc23b7	-0.099677496
14	0x3c0e065d	0.008668509
15	0xbbb28e8a	-0.005449121
16	0xbd3aeef7	-0.04563805
17	0x25d1446e	3.630209e-16
18	0xbbc8b34a	-0.0061248885
19	0x338aaf9e	6.45807e-08
20	0x3d26114e	0.040543847
21	0xbd0b4358	-0.03399977
22	0x3cdee54e	0.02720895
23	0x3c5fdc35	0.013663341
24	0xbc9eba20	-0.01937586
25	0x3d96325f	0.07333826
26	0x3c349c5e	0.011023609
27	0x3aa4869b	0.0012552323
28	0x3db3b9d8	0.08775681
29	0xbd201460	-0.03908193
30	0x3c8a4d37	0.016882522
31	0x3d6312e3	0.055437934
32	0xb9ade9be	-0.00033171283
33	0x3c625ac6	0.013815587
34	0x3dafbca9	0.08580906
35	0x3d440761	0.0478586
36	0xbc84a7e8	-0.016193345
37	0xbdba4890	-0.090958714
38	0xbbeb09bf	-0.0071727927
39	0xbcf516b1	-0.029918047
40	0x3d018dbc	0.03162931
41	0xbd88b22a	-0.06674607
42	0xbdccc9c0	-0.09999418
43	0x3c14b079	0.0090752775
44	0xbd61a1ba	-0.055085875
45	0x3bb61197	0.005556296
46	0x85017866	-6.0876646e-36
47	0x3dc50140	0.09619379
48	0x344c3926	1.9019771e-07
49	0xbcd2ea20	-0.025746405
50	0xbd6a0de3	-0.05714215
51	0xbd1c9805	-0.038230915
52	0xbd97afa2	-0.07406546
53	0x3da6ec47	0.08150535
54	0x3c4315f3	0.011907089
55	0x3da9d3db	0.08292361
56	0x3d3a3cbb	0.045468073
57	0x3dd62d18	0.1045782
58	0xbdc81bbd	-0.09770916
59	0xbd4714df	-0.04860389
60	0x3d542a83	0.051798355
61	0xbdc2bbb1	-0.095084555
62	0x3d997cd2	0.07494511
63	0x3d16ad18	0.03678617
64	0xbd347961	-0.04406107
65	0xbc500269	-0.012695887
66	0xbd2612a0	-0.040545106
67	0xbd684fc2	-0.056716688
68	0x3d9e5667	0.07731324
69	0x3da7f96a	0.08201869
70	0x3ce7daa0	0.02830249
71	0x3d999aeb	0.075002514
72	0x3d1a3826	0.037651204
73	0xbcf120d7	-0.029434605
74	0x3cc7301f	0.024314938
75	0xbcdaff09	-0.026732938
76	0xbd9ec97a	-0.07753272
77	0xbd9f6929	-0.077837296
78	0xbcda66ed	-0.026660407
79	0x3baa9f08	0.0052069463
80	0x3d326384	0.043551937
81	0x3b11f236	0.0022269613
82	0x3dc426c4	0.095777065
83	0xbc5ee33f	-0.013603984
84	0x3d087973	0.033318948
85	0xbdab16e6	-0.08353977
86	0xbd8d9093	-0.06912341
87	0x3821cdb8	3.857698e-05
88	0xbdd32065	-0.10308913
89	0x3d83b577	0.06431096
90	0x3d8e1744	0.06938031
91	0x3d530412	0.051517554
92	0xbd560255	-0.052248318
93	0x3e0d15db	0.13777868
94	0x3bcf36dd	0.006323679
95	0xbd8cae98	-0.068692386
96	0xbc6b21c1	-0.014351309
97	0x0f014a17	6.37446e-30
98	0x3dc37bc7	0.09545093
99	0xbd7469c6	-0.059671186
100	0xbbd3b3b3	-0.006460631
101	0xbdd604aa	-0.10450108
102	0xbcefa99b	-0.029255679
103	0xbde948e8	-0.11390859
104	0xbd6c68fd	-0.057717312
105	0x3d63dd43	0.055630933
106	0xbdd8438f	-0.10559761
107	0xb7210d87	-9.599497e-06
108	0xbdcc58b6	-0.09977858
109	0x3d03ce0a	0.032178916
110	0x3cbb6fa6	0.022880387
111	0x3df7d72d	0.121015884
112	0x388e81a8	6.795238e-05
113	0xbd953e98	-0.072873294
114	0xbc0da660	-0.008645624
115	0xbdd827c3	-0.10554459
116	0xbcfb6c0a	-0.030691165
117	0x3e01ec62	0.12687829
118	0xbdd56b69	-0.104208775
119	0x3dcd8837	0.100357465
120	0x3e024961	0.12723304
121	0x3d430e80	0.04762125
122	0x3d8d9881	0.069138534
123	0x3c582a8b	0.013193737
124	0x3d8fe7ef	0.0702666
125	0xbd93d3ba	-0.07218118
126	0xbd961998	-0.073291
127	0xbd632f20	-0.055464864
128	0xbd0982ae	-0.03357189
129	0x3d1b28ae	0.037880592
130	0x3c11671a	0.008874679
131	0xbc95fb2e	-0.018308248
132	0x3d822a7c	0.063557595
133	0xbb51492b	-0.003193448
134	0x3ddd0f31	0.10793913
135	0xbcbf4261	-0.023347082
136	0xbd52b906	-0.051445983
137	0xbd1bbf7e	-0.038024418
138	0x3d0f9e02	0.035062797
139	0xbcacc48c	-0.021089815
140	0x3dc4fcb9	0.096185155
141	0x3d46c94a	0.048531808
142	0xbd3e2cc5	-0.046429414
143	0xbc958ea6	-0.018256497
144	0xbda13891	-0.07872117
145	0xbb51c6b1	-0.0032009298
146	0xbda974cb	-0.082742296
147	0x3d872b00	0.065999985
148	0xbdb8dc5f	-0.090264075
149	0x3dc8d553	0.09806313
150	0x3d62db17	0.05538472
151	0xbac57464	-0.0015064594
152	0x3e057bb1	0.13035466
153	0xbce212a7	-0.027596785
154	0xbde56fbc	-0.11202952
155	0x3d4f3d07	0.05059531
156	0xbd3dad3f	-0.0463078
157	0x3d8d4680	0.068982124
158	0x3c06aa50	0.008219317
159	0x3de6a644	0.112621814
160	0x3b9b27f9	0.0047349897
161	0x3a956faf	0.0011401082
162	0xbd46c67b	-0.04852913
163	0xbd1bd9c2	-0.038049467
164	0xbde7054e	-0.11280309
165	0xbd33e142	-0.043915994
166	0xbdad7742	-0.08470012
167	0x3d611471	0.054951135
168	0xbde40046	-0.11132865
169	0x3de926ac	0.11384329
170	0xbc5884bc	-0.01321524
171	0xbb5b8feb	-0.003350253
172	0xbdf58a14	-0.11989227
173	0xbd0f3f4e	-0.03497248
174	0x3d1395fa	0.0360317
175	0x3c68b1f7	0.014202586
176	0x3c5d5296	0.01350846
177	0x3da8fffe	0.08251952
178	0x3d0f633f	0.035006758
179	0xbd1afce9	-0.03783885
180	0x3d6f8ac4	0.058481947
181	0xbd779ec5	-0.06045415
182	0xbdf06860	-0.11738658
183	0xbdb4a179	-0.08819861
184	0x3ddce52d	0.10785899
185	0x3d873bba	0.06603189
186	0xbd687164	-0.056748763
187	0x2e2eded4	3.976093e-11
188	0xbd923b4e	-0.07140218
189	0x3dc2ad7b	0.09505745
190	0x3dd71a66	0.10503082
191	0xbda1290a	-0.07869156
192	0x3d89ea41	0.067341335
193	0x3ca62403	0.020280844
194	0xbce75c75	-0.02824233
195	0xbd91f795	-0.07127301
196	0xbb1636dc	-0.0022920882
197	0x3d4f3f30	0.05059737
198	0x3e03553b	0.12825482
199	0x3d6c16c4	0.0576389
200	0x3dbdb78b	0.09263524
201	0x3ca22cf0	0.019796818
202	0x3d71e8f0	0.059060037
203	0x3c8f3e94	0.017485894
204	0xbd2012c6	-0.039080404
205	0xbdd09d05	-0.10186199
206	0x3c8ac045	0.016937384
207	0xbb111209	-0.0022135994
208	0xbdb49cc9	-0.08818967
209	0xbb9bfa85	-0.004760089
210	0xbda01f76	-0.07818501
211	0x3c5b5a20	0.013388187
212	0xbd54e664	-0.05197753
213	0xbd93a475	-0.07209102
214	0x3daba810	0.08381665
215	0x0276324d	1.8087661e-37
216	0x3cf1e3ec	0.029527627
217	0x3c2759c3	0.010214272
218	0xbda0a6be	-0.078443035
219	0x3b309920	0.0026946738
220	0x3da60102	0.08105661
221	0xbcdfdce8	-0.027327016
222	0x2d88d324	1.5555175e-11
223	0xbd3c9b10	-0.046046317
224	0xa643b188	-6.7894815e-16
225	0xbc38dc3d	-0.011282978
226	0x3dd94dbc	0.1061053
227	0x3e0a9838	0.1353463
228	0x3d7d42a1	0.06183112
229	0xbdf5e6e6	-0.12006931
230	0xbdeb8296	-0.11499517
231	0x3db4d8e7	0.08830433
232	0xbd6da9d0	-0.058023274
233	0x3d00920f	0.031389292
234	0x3dccf75e	0.10008119
235	0x310ae905	2.02141e-09
236	0x3cce6998	0.025196835
237	0xbcfbf7e0	-0.030757844
238	0x3bf64dda	0.007516605
239	0xbdb0bd9d	-0.08629916
240	0x39d7a51f	0.0004113102
241	0x3d323f97	0.043517675
242	0x3dcd9c6a	0.10039599
243	0x3de48044	0.11157277
244	0x3c518743	0.012788597
245	0x3e006edf	0.12542294
246	0x3dbc7560	0.09202075
247	0xbe0c64ad	-0.1371028
248	0x3d78c4d1	0.060734574
249	0xbd79c116	-0.060975157
250	0x3db290a8	0.08718997
251	0x3d2b44bb	0.041813593
252	0x3cc92d2b	0.02455767
253	0xb994ac53	-0.0002835715
254	0xbda3de23	-0.080013536
255	0x3bf52493	0.0074811666

features.10.bias f4 [64]
0	0xbdaf17f0	-0.085494876
1	0x3d2a75a6	0.041616105
2	0xbbf63d10	-0.0075146034
3	0xbd688374	-0.05676599
4	0x3d8d629a	0.069035724
5	0x3d0bee85	0.034163017
6	0xbcb66e2e	-0.022269335
7	0xbd1970d8	-0.03746113
8	0x3cb3e341	0.021958949
9	0xbdbfd6ce	-0.093671426
10	0xbd10eb91	-0.035380904
11	0x3d3963c6	0.045261167
12	0x3da9943a	0.08280225
13	0x3db380e4	0.08764818
14	0xbd8d4343	-0.06897595
15	0xbdc51cf5	-0.09624664
16	0x3c4ffb04	0.012694124
17	0xbbed0237	-0.00723293
18	0xbd5ea939	-0.054360602
19	0x3df81532	0.12113418
20	0xbcebf8b7	-0.02880512
21	0x3d08a108	0.033356696
22	0xbd77e977	-0.060525384
23	0xbc2ced16	-0.010554573
24	0x3d87fbf1	0.06639851
25	0x3c7a338b	0.015271078
26	0xbd9de0a4	-0.077088624
27	0xbdb0a5e3	-0.086253904
28	0xbcf06731	-0.02934608
29	0x3db70d23	0.089380525
30	0x3c986a1b	0.018605283
31	0xbdbf2457	-0.09333103
32	0x3c5b787d	0.013395426
33	0x3cf82d36	0.030294996
34	0xbd143104	-0.036179557
35	0x3c7192c4	0.014744464
36	0x3ce3af47	0.02779354
37	0xbd58f103	-0.05296422
38	0xbd211970	-0.0393309
39	0x3d3ae9f5	0.045633275
40	0x3dbd67a5	0.09248284
41	0x3bec09d6	0.007203321
42	0x3dd37fd3	0.10327115
43	0xbdded115	-0.10879723
44	0x3dde4401	0.108528145
45	0xbdcac961	-0.09901691
46	0xbd54a560	-0.051915526
47	0x3d274f63	0.040847193
48	0x3d7302b7	0.05932876
49	0x3d6d793d	0.05797695
50	0xbd4f8b71	-0.05067009
51	0xbd227bc8	-0.03966883
52	0xbc0392ee	-0.008030636
53	0x3afa9384	0.0019117449
54	0x3c9c1dc1	0.019057157
55	0x3d0d648c	0.034519717
56	0x3b92afd6	0.0044765277
57	0x3dfc6ddf	0.12325644
58	0xbdaf093c	-0.08546683
59	0x3c90031f	0.017579613
60	0x3dc4b365	0.09604529
61	0x3dee7a04	0.116443664
62	0x3db09b8a	0.08623417
63	0xbdd7485a	-0.10511847

classifier.0.weight f4 [3, 64]
0	0x3d45fcf9	0.048336957
1	0x3d961089	0.073273726
2	0x3d84cda5	0.06484536
3	0x3c538ece	0.012912465
4	0x3dc986b7	0.09840148
5	0xbcdca5ee	-0.02693459
6	0xbcaf170b	-0.021373292
7	0xbc9d835f	-0.019227682
8	0xbddcaa85	-0.107747115
9	0xbd9eeb7d	-0.077597596
10	0xbb3f48dd	-0.0029187717
11	0xbd8443f4	-0.064582735
12	0x3def3eee	0.11681925
13	0xbdd95ebf	-0.106137745
14	0xbd97a0db	-0.074037276
15	0x3dc3d91e	0.09562896
16	0x3dd25bda	0.102714255
17	0x3daf59e4	0.08562067
18	0xbd3e877b	-0.046515923
19	0xbd2ea4dc	-0.04263769
20	0x3bab4803	0.0052270903
21	0xbdf068e5	-0.11738757
22	0xbda0f226	-0.07858686
23	0xbde52dda	-0.11190386
24	0x3deb5211	0.11490262
25	0x3df042ed	0.11731515
26	0xbd6ece00	-0.058301926
27	0x3d91bcbc	0.07116076
28	0x3d31c844	0.04340388
29	0x3dad93cb	0.08475455
30	0x3d1ebd47	0.038754728
31	0x3c2e029e	0.010620741
32	0x3da05d80	0.07830334
33	0xbdd599a3	-0.104296945
34	0xbdf2193e	-0.11821221
35	0x3da1d349	0.079016276
36	0xbd9544a9	-0.072884865
37	0x3dcc5832	0.099777594
38	0xbd8692e9	-0.0657099
39	0x3df214fa	0.11820407
40	0x3d995743	0.07487347
41	0x3c9bb8f2	0.019009087
42	0x3e06558d	0.13118573
43	0xbd99d8b7	-0.07512038
44	0xbda6e739	-0.08149571
45	0x3d5ac9c1	0.053415064
46	0xbd831185	-0.06399826
47	0xbe0c3f02	-0.1369591
48	0xbdf2fb83	-0.11864378
49	0x3daaaf7f	0.083342545
50	0xbd92304e	-0.0713812
51	0x3cfe2088	0.031021371
52	0xbda6fbf0	-0.08153522
53	0xbda8d217	-0.082431965
54	0xbdf8d9be	-0.12150906
55	0x3dba342a	0.09091981
56	0xbd72aad2	-0.05924494
57	0x3df1786c	0.11790547
58	0xbd903577	-0.070414476
59	0xbdcd8760	-0.10035586
60	0xbd5e3e65	-0.054258723
61	0xbdcc4dcf	-0.09975778
62	0xbdc04ec6	-0.09390025
63	0xbd9c5dba	-0.076350644
64	0x3dd0718e	0.10177909
65	0x3daddf57	0.08489864
66	0xbbb457f7	-0.0055036503
67	0x3d46dacc	0.048548505
68	0x3cd16734	0.025561906
69	0xbcdfbe9b	-0.027312567
70	0xbe0659a1	-0.13120128
71	0xbe0bfa60	-0.13669729
72	0x3da5f718	0.0810377
73	0xbda09a7b	-0.07841965
74	0xbb9aa399	-0.0047192094
75	0x3d7459ce	0.059655957
76	0xbdf986eb	-0.12183937
77	0x3d12fbb8	0.03588459
78	0x3da50695	0.08057896
79	0xbdc3163c	-0.09525725
80	0xbd9b8f8c	-0.07595739
81	0x3d425686	0.047445796
82	0x3d035812	0.032066412
83	0x3d8bab95	0.06819836
84	0xbcc6817e	-0.024231669
85	0x3dfc40f6	0.12317078
86	0xbdef739b	-0.11691972
87	0x3d4d0f64	0.050063506
88	0x3e0d47ca	0.13796917
89	0xbd7c10f1	-0.061539594
90	0xbd2f5d73	-0.04281373
91	0x3c2ad2c6	0.010426229
92	0xbd1318e4	-0.03591241
93	0x3dece83f	0.11567735
94	0x3dfeaf12	0.12435736
95	0x3d92ada7	0.07162028
96	0x3da6b67e	0.08140276
97	0x3d5bd353	0.05366833
98	0xbe06c4cd	-0.13161011
99	0x3de82ca9	0.11336643
100	0x3d86f760	0.06590152
101	0xbdab4e26	-0.08364515
102	0xbc7d4adb	-0.0154597415
103	0xbd2e3b0c	-0.04253678
104	0x3cbf523e	0.023354646
105	0xbdc91781	-0.09818936
106	0xbdcc8a82	-0.09987356
107	0x3d97bedd	0.07409451
108	0xbcec814d	-0.02887025
109	0xbdb15247	-0.08658271
110	0x3e014fb5	0.12628062
111	0xbde4da3a	-0.11174436
112	0xbd5d3903	-0.05400945
113	0xbc4c831c	-0.012482431
114	0xbdb99911	-0.09062398
115	0xbdcc82da	-0.099858955
116	0xbd2c08f4	-0.042000726
117	0xbe0b1a8a	-0.13584343
118	0x3cb78cb8	0.022405967
119	0xbdecc571	-0.115610965
120	0xbdd59cc2	-0.1043029
121	0xbddc0fda	-0.10745211
122	0x3d9d5c3d	0.07683609
123	0xbd991d5b	-0.07476302
124	0x3e04f730	0.1298492
125	0x3d9bb175	0.076022066
126	0x3e0482a8	0.12940466
127	0xbc0a377b	-0.008436079
128	0xbddb7444	-0.10715535
129	0x3d4b089a	0.04956875
130	0x3d9bf429	0.07614929
131	0xbd57c154	-0.052674606
132	0x3b064cc3	0.002049253
133	0x3d6f2c8c	0.058392093
134	0xba890f95	-0.0010456914
135	0x3db47112	0.08810629
136	0x3e04db19	0.12974204
137	0xbd751344	-0.059832826
138	0x3d1e6ae0	0.038676143
139	0x3dcc71e8	0.099826634
140	0x3d03f7c2	0.032218702
141	0xbdca735e	-0.09885286
142	0x3dbafefd	0.091306664
143	0x3d0936cf	0.033499535
144	0xbdb21cab	-0.08696874
145	0x3c0de137	0.008659652
146	0xbdf1749c	-0.117898196
147	0x3c491bfd	0.012274739
148	0xbb1e7b39	-0.0024182333
149	0x3da0ab99	0.0784523
150	0x3cf7969d	0.030223185
151	0x3dfd9298	0.12381476
152	0xbdc179b5	-0.09447042
153	0xbda505d4	-0.08057752
154	0xbc49a1c5	-0.012306635
155	0x3d8bbcb3	0.06823101
156	0x3da73699	0.081647106
157	0xbdceb96c	-0.1009396
158	0x3d964515	0.07337395
159	0xbcaf7c75	-0.02142165
160	0x3c9d0a87	0.019170059
161	0xbde23ed9	-0.110471435
162	0xbd949818	-0.07255572
163	0x3cc9473c	0.0245701
164	0xbe0861d4	-0.13318568
165	0xbd6f7a66	-0.058466338
166	0xbdb61013	-0.08889785
167	0xbd871140	-0.06595087
168	0x3d90030a	0.0703183
169	0x3d42532e	0.047442608
170	0xbddbea50	-0.10738051
171	0xbb8a47d1	-0.004219987
172	0x3dffeb69	0.12496073
173	0xbc199d97	-0.009375951
174	0x3c10ed25	0.008845602
175	0xb941b8c7	-0.00018474749
176	0x3d5e9f5b	0.054351192
177	0xbe0e950b	-0.13924043
178	0x3d85e79e	0.06538318
179	0x3d4195ff	0.047262188
180	0x3d8035cb	0.0626026
181	0x3d43a04b	0.04776029
182	0xbda810f7	-0.08206361
183	0x3ddb9ddb	0.10723468
184	0x3db92beb	0.0904158
185	0xbde956c1	-0.113935
186	0x3e0b6118	0.13611257
187	0xbbc0ca6a	-0.0058835046
188	0x3e049b6e	0.12949917
189	0x3dbdef5d	0.092741705
190	0x3dcb5db2	0.0992998
191	0xbdd272a3	-0.102757715

classifier.0.bias f4 [3]
0	0x3d25ef95	0.040511686
1	0xbde90122	-0.11377169
2	0xbdad473d	-0.08460853
