benchmark_model_data/1000_image_experiment/benchmark_experiment_increased_data/experience_1/model_experience_1.pth (torch, 854722 bytes, 36 tensors)

features.0.weight f4 [32, 3, 3, 3]
0	0x3e25cbaa	0.16190973
1	0x3b9b38f5	0.0047370144
2	0x3e0d186b	0.13778846
3	0xbe410cfd	-0.18852611
4	0xbda4791b	-0.080309115
5	0xbde0b293	-0.1097156
6	0x3dda82e2	0.10669495
7	0x3e338707	0.17531978
8	0x3ded52b6	0.115880415
9	0x3db4135e	0.087927565
10	0x3e2455f9	0.16048421
11	0xbd3ba238	-0.045809
12	0xbdf70cdd	-0.12063
13	0x3c2ec778	0.010667674
14	0x3cfb52b4	0.030679084
15	0xbdcfc126	-0.10144262
16	0xbe0b9810	-0.13632226
17	0xbddf0c72	-0.10891046
18	0x3e15de09	0.14635481
19	0xbcd3b304	-0.025842197
20	0x3d89e06a	0.06732257
21	0xbda033f1	-0.07822407
22	0x3da3e525	0.0800269
23	0xbe205c9e	-0.1566033
24	0x3d863b6f	0.06554305
25	0xbde42b72	-0.11141099
26	0x3dab4224	0.08362225
27	0x3df4137b	0.11917778
28	0xbe2fd1d2	-0.17169884
29	0xbd644441	-0.055729154
30	0x3e3cc175	0.18433173
31	0x3d0bf911	0.034173075
32	0x3a7245df	0.0009241979
33	0xbd791417	-0.060810175
34	0xbd166312	-0.036715575
35	0x3dba3870	0.09092796
36	0xbc1766fb	-0.009240861
37	0x3e212346	0.15736112
38	0x3d525891	0.051353995
39	0x3d622748	0.055213243
40	0x3dd99eb1	0.10625971
41	0xbd58e10b	-0.052948993
42	0x3d2d646a	0.04233209
43	0xbe19f34e	-0.1503422
44	0x3d4b0d01	0.04957295
45	0xbca2fb0e	-0.019895103
46	0xbd297bad	-0.041377712
47	0x3da03dbb	0.07824274
48	0x3c1954ce	0.009358598
49	0xbd940f6d	-0.07229505
50	0x3da23685	0.07920555
51	0xbab7d360	-0.0014024787
52	0xbe0ffc91	-0.1406119
53	0xbc8bf46f	-0.017084328
54	0x3db557b5	0.088546194
55	0x3e1fe661	0.15615226
56	0x3dd4c966	0.10389976
57	0xbe36a1f6	-0.1783522
58	0x3dd8ccd1	0.10585941
59	0xbd4f1977	-0.050561395
60	0xbd927ac0	-0.07152319
61	0xbdafaf18	-0.08578318
62	0x3dca472b	0.098768555
63	0xbd1870d0	-0.03721696
64	0x3e02a319	0.1275753
65	0xbc821966	-0.015881252
66	0xbdab590c	-0.08366594
67	0x3cb88687	0.022525085
68	0x3d48eb69	0.04905263
69	0x3df14920	0.117815256
70	0xbe063adb	-0.13108389
71	0x3df9756e	0.12180601
72	0xbd5d45a1	-0.05402148
73	0x3d554b28	0.052073628
74	0x3e47659f	0.19472359
75	0x3db93c20	0.09044671
76	0x3e3c62fd	0.18397136
77	0x3e2c79f5	0.16843398
78	0xba7dabea	-0.0009676801
79	0xbdc1c31d	-0.09461043
80	0x3c944342	0.018098477
81	0xbda5600f	-0.08074962
82	0x3d6f66c5	0.058447618
83	0x3c28bace	0.010298444
84	0xbdb46c82	-0.08809759
85	0xbc9b83d0	-0.018983752
86	0x3c3b8256	0.011444649
87	0xbd4c0b60	-0.049815536
88	0xbe1e2ed8	-0.15447557
89	0xbc1eef53	-0.009700614
90	0x3de937fc	0.11387631
91	0xbe3594e5	-0.1773258
92	0xbc21d439	-0.009877258
93	0x3d114916	0.03547009
94	0xbd6b8847	-0.05750301
95	0x3baff69d	0.0053699748
96	0xbe25a593	-0.16176443
97	0xbe04e437	-0.12977682
98	0xbde86d68	-0.113489926
99	0xbdc496e6	-0.09599094
100	0x3e2e2f64	0.17010266
101	0x3e2dcf1f	0.16973542
102	0xbe400d9b	-0.1875519
103	0xbe004788	-0.12527287
104	0xbd93cf36	-0.07217257
105	0x3d1cbaf9	0.03826425
106	0x3e2d17d4	0.16903621
107	0x3dd9206f	0.10601889
108	0xbddb116b	-0.106966816
109	0xbe3a6712	-0.1820338
110	0x3dd08dd1	0.10183299
111	0xbd986521	-0.07441164
112	0xbdbbc9aa	-0.09169324
113	0xbc02219c	-0.007942583
114	0xbbf143db	-0.0073628253
115	0xbda7920c	-0.08182153
116	0xbdb7222e	-0.08942066
117	0xbe1ce3f0	-0.15321326
118	0x3e46d117	0.19415699
119	0x3e20475f	0.15652226
120	0xbaed6047	-0.0018110358
121	0x3c025209	0.007954129
122	0xbc0b411a	-0.008499408
123	0x3d8cffed	0.068847515
124	0x3e3d8663	0.18508296
125	0x3e43cdc0	0.19121456
126	0x3e0b06bf	0.13576792
127	0x3c18c64a	0.00932462
128	0xbdb25f13	-0.0870954
129	0xbd31ddf9	-0.04342458
130	0xbe0e93d9	-0.13923587
131	0x3e20b30e	0.15693304
132	0xbdfa7234	-0.12228814
133	0xbda3ff13	-0.08007636
134	0xbcb54775	-0.0221288
135	0x3d9f8079	0.07788176
136	0x3d9129c9	0.07088048
137	0x3d83576e	0.0641316
138	0x3e25e1db	0.16199438
139	0x3e26a97f	0.16275595
140	0xbe2a0d07	-0.16606532
141	0xbe015e21	-0.12633564
142	0x3e4547dd	0.19265695
143	0xbe0ff23e	-0.14057252
144	0xbe05eff2	-0.13079813
145	0x3e426806	0.18984994
146	0xbc7c624b	-0.015404294
147	0xbe36ed11	-0.17863871
148	0xbe0cc0b7	-0.1374539
149	0x3e3fcc42	0.18730262
150	0x3e3571a6	0.17719135
151	0xbdeaa850	-0.11457884
152	0x3d62b0d2	0.05534441
153	0xbdcdf0ab	-0.100556694
154	0xbd5e267f	-0.05423593
155	0x3e11606e	0.14196941
156	0x3c52c47d	0.012864229
157	0xbd9c42f1	-0.076299556
158	0x3de07110	0.10959065
159	0xbd440c17	-0.047863092
160	0x3deb87b1	0.115004905
161	0xbe37aa0a	-0.17935959
162	0x3dacdbde	0.08440374
163	0xbd318992	-0.043344088
164	0x3dfe0653	0.1240355
165	0xbdda68dc	-0.106645316
166	0x3dccc803	0.09999087
167	0x3df4744a	0.11936243
168	0x3db16dda	0.08663531
169	0x3cc2e834	0.023792364
170	0x3bd73194	0.0065671895
171	0x3d79f36e	0.06102317
172	0xbde5596a	-0.11198695
173	0xbb5c566d	-0.003362085
174	0xbd20ff3c	-0.03930591
175	0x3db97360	0.09055209
176	0xbe0335cf	-0.12813495
177	0x3e02c264	0.12769467
178	0xbdbe859c	-0.09302828
179	0xbda2af26	-0.07943563
180	0xbe271484	-0.1631642
181	0xbdad39e2	-0.08458306
182	0xbbaa0be4	-0.0051894058
183	0xbe13cb45	-0.1443301
184	0x3b1927d6	0.0023369691
185	0xbe33a8b9	-0.17544831
186	0x3aeb9c1c	0.0017975601
187	0x3e2293e0	0.15876722
188	0xbe3e0cbb	-0.18559544
189	0x3e0c34d3	0.13692026
190	0x3c22fcba	0.00994795
191	0xbd746d89	-0.059674773
192	0x3dd75b52	0.10515465
193	0x3d8382cf	0.06421434
194	0x3dcb98ce	0.099412546
195	0x3e013c3d	0.12620635
196	0x3df7c9f7	0.120990686
197	0xbd832d7c	-0.0640516
198	0xbe25ccec	-0.16191453
199	0x3e46d8f0	0.19418693
200	0x3dcfe2b7	0.10150664
201	0x3dbc491c	0.09193632
202	0x3d9f6717	0.07783335
203	0xbd8283a8	-0.06372768
204	0x3d4fc6ee	0.050726824
205	0x3d088765	0.033332247
206	0xbd8971b8	-0.06711143
207	0xbe1034ca	-0.14082637
208	0x3e3944de	0.18092677
209	0x3e15c929	0.14627518
210	0xbdf35dc8	-0.11883122
211	0x3dc6ee3b	0.097134076
212	0x3d9609e4	0.07326105
213	0x3d49da5a	0.049280502
214	0xbd824d30	-0.063623786
215	0x3d299890	0.04140526
216	0x3d83d396	0.06436841
217	0xbca40d8f	-0.020025996
218	0x3e0b033b	0.13575451
219	0xbe267d0e	-0.16258642
220	0x3ccf6fcb	0.025321862
221	0x3d1585f7	0.036504712
222	0xbe04fc36	-0.12986836
223	0x3e37b4d9	0.17940082
224	0xbd182351	-0.037143055
225	0x3e08e73f	0.13369463
226	0xbdae3343	-0.08505871
227	0x3dbc7036	0.0920109
228	0x3dad7844	0.084702045
229	0x3e3ec4f7	0.18629824
230	0xbe26fe5c	-0.16307968
231	0xbddcd0fe	-0.107820496
232	0x3c8c9fde	0.017166074
233	0xbc8e5a09	-0.017376916
234	0x3d123d99	0.035703275
235	0x3e063deb	0.13109557
236	0x3c4be0aa	0.012443701
237	0xbe12852b	-0.14308612
238	0x3e3f4a62	0.18680719
239	0xbe3d3191	-0.1847594
240	0xbdf5913e	-0.119905934
241	0x3dc37bd6	0.09545104
242	0xbe3a6570	-0.18202758
243	0xbda5930a	-0.08084686
244	0x3d7408a4	0.059578553
245	0x3da41bb2	0.08013095
246	0xbc253bf3	-0.010085094
247	0xbd867620	-0.06565499
248	0x3e333fed	0.17504855
249	0xbb3779ef	-0.0027996262
250	0xbe1d22d1	-0.15345313
251	0xbd62b83f	-0.055351492
252	0x3dba7c85	0.091057815
253	0xbb2424ea	-0.0025046417
254	0x3dc9c6c6	0.09852366
255	0xbe1a75a2	-0.15083936

features.0.bias f4 [32]
0	0xbe0a14ec	-0.13484544
1	0x3e409df6	0.18810257
2	0x3c953110	0.018211871
3	0x3e311cdd	0.17296167
4	0xbdbb82d3	-0.09155812
5	0x3db9700a	0.09054573
6	0x3e344303	0.17603688
7	0x3def9a6b	0.11699375
8	0x3e351d58	0.17686975
9	0xbd032a65	-0.032022852
10	0xbd534361	-0.05157793
11	0xbe074971	-0.1321161
12	0x3e2343f9	0.15943898
13	0x3e0635e2	0.13106492
14	0xbcda65a2	-0.02665979
15	0xbac7c690	-0.0015241671
16	0x3d554900	0.05207157
17	0xbd9e933b	-0.07742926
18	0x3e17b558	0.14815271
19	0x3def56e4	0.11686495
20	0xbddb190b	-0.10698136
21	0xbe1b1119	-0.15143241
22	0x3c1effbe	0.009704528
23	0x3c420845	0.011842792
24	0x3e22ab19	0.15885581
25	0x3d6f63b5	0.058444697
26	0x3d847364	0.064673215
27	0xbe03a904	-0.12857443
28	0x3dd33b9b	0.10314103
29	0x3e115d30	0.14195704
30	0x3dbaed5b	0.09127303
31	0xbd5e6b28	-0.05430141

features.2.weight f4 [32, 32, 3, 3]
0	0x3d62b006	0.05534365
1	0x3aff87ae	0.0019495392
2	0xbc280a40	-0.01025635
3	0xbc0ec420	-0.008713752
4	0xbd0fb2e4	-0.035082713
5	0xbca588cb	-0.02020683
6	0x3af0e63c	0.0018379162
7	0x3b7af0b9	0.0038290455
8	0x3b0fa140	0.002191618
9	0x3cd31766	0.025767993
10	0xbbac2367	-0.0052532437
11	0xbd5f8c6a	-0.05457727
12	0xbd5c95f6	-0.05385395
13	0x3cba48e7	0.02273984
14	0x3d0a9a07	0.0338383
15	0x3c153306	0.009106403
16	0xbcc4ab10	-0.02400735
17	0x3cb0c4ac	0.021578155
18	0xbd453194	-0.048142985
19	0xbd5d4a35	-0.054025847
20	0x3b9b737e	0.0047439924
21	0x3cd46f7b	0.025932064
22	0xbc0b9b10	-0.0085208565
23	0xbd091327	-0.03346553
24	0x3c946cc7	0.018118275
25	0xbc33a779	-0.010965222
26	0x3d14a895	0.036293585
27	0x3c725330	0.014790341
28	0x3c394682	0.011308314
29	0xbcd4d2e0	-0.02597946
30	0xbd6da4cb	-0.058018487
31	0x3c881377	0.016610844
32	0x3d39e53f	0.04538464
33	0xbc6d3e4b	-0.014480184
34	0xbcb5d941	-0.022198321
35	0xbb962b78	-0.0045828186
36	0xbcd633b8	-0.026147708
37	0xbd2c91fd	-0.042131413
38	0x3d3292d0	0.043597043
39	0x3b118822	0.0022206386
40	0x3cc1cd9a	0.023657609
41	0xbd16ba2d	-0.036798645
42	0xbcb54c5e	-0.022131141
43	0xbd2ec4cf	-0.04266816
44	0x3c1fbfb5	0.009750296
45	0x3c8e7152	0.01738802
46	0x3c9d06c3	0.019168263
47	0xbc12012d	-0.008911413
48	0xbb90c8d1	-0.0044184704
49	0xbd018f46	-0.031630777
50	0xbd417a34	-0.047235683
51	0x3c9a2fab	0.018821558
52	0x3d302e59	0.04301295
53	0xbd22d003	-0.039749157
54	0xbd5a854c	-0.053349778
55	0x3cf9d4bd	0.03049695
56	0xbd3697e3	-0.044578444
57	0xbcdcd059	-0.026954817
58	0x3c23f6b8	0.010007553
59	0xbd5c42f8	-0.053774804
60	0x3c99e146	0.018784177
61	0x3d0eb77e	0.03484296
62	0xbbc682ca	-0.0060580717
63	0xbcfbef02	-0.030753616
64	0x3c73eb0a	0.014887581
65	0x3c3b0ac6	0.011416143
66	0xbcc46974	-0.023976065
67	0x3cf15eee	0.029464211
68	0x3d594036	0.053039752
69	0x3c615ab6	0.013754537
70	0xbc69a53c	-0.014260586
71	0xbc85b6c7	-0.016322507
72	0xbc8d593e	-0.017254468
73	0xbd2f28d0	-0.04276353
74	0xbd321646	-0.043478273
75	0xbcd92a3c	-0.026509397
76	0xbcee42a2	-0.029084507
77	0x3d44af9b	0.048019033
78	0x3cedfd5b	0.029051473
79	0xbcf09bd0	-0.029371172
80	0xbd1ae3d0	-0.037814915
81	0x3cd9da31	0.0265933
82	0xbcb29b87	-0.021802677
83	0xbcf2addd	-0.02962392
84	0x3ca18d5e	0.01972073
85	0xbd4ce695	-0.050024588
86	0xbc3e8fcc	-0.0116309635
87	0xbd11bd6f	-0.03558105
88	0x3d07f627	0.033193734
89	0x3c877523	0.016535347
90	0xbd0d656e	-0.03452056
91	0xbd4be7b0	-0.0497815
92	0xbcb75204	-0.022377975
93	0x3d6046a3	0.054754864
94	0x3c80fa13	0.015744245
95	0x3d1148f0	0.03546995
96	0xbc9015a7	-0.01758845
97	0x3c54ddde	0.01299235
98	0x3bcf1ddd	0.0063206987
99	0xbc0f0a7c	-0.008730527
100	0x3d180a71	0.037119333
101	0x3d1b2aa4	0.037882462
102	0x3d04e1ee	0.032442026
103	0xbc90c956	-0.01767413
104	0x3d09ba16	0.03362473
105	0x3d0fd3a2	0.03511394
106	0xbb153ae9	-0.002277071
107	0xbd04fea2	-0.0324694
108	0xbceca8c1	-0.028889062
109	0xbd6b3326	-0.057421826
110	0x3c90d1c8	0.017678156
111	0xbd0adba2	-0.033900864
112	0x3bcf2263	0.006321238
113	0xbc900a7c	-0.017583124
114	0x3d00a22a	0.03140465
115	0xbc614e47	-0.013751573
116	0xbcf7dbc7	-0.030256165
117	0x3a5e40ae	0.0008478266
118	0xbc185fd9	-0.009300196
119	0x3d4da82e	0.050209217
120	0xbd6b0462	-0.057377227
121	0xbd3d5e8a	-0.046232738
122	0x3d13bf76	0.036071263
123	0x3d429eeb	0.047514837
124	0xbd5e44f1	-0.054264966
125	0x3d49c5dd	0.049260963
126	0xbc63a4e3	-0.0138942925
127	0x3d6369e7	0.05552092
128	0xbcec9e53	-0.028884089
129	0x3d585ef0	0.052824914
130	0x3d75a3a1	0.0599705
131	0xbc86e44d	-0.016466284
132	0xbd56b5ba	-0.0524194
133	0x3d0841c7	0.033265855
134	0xba827317	-0.0009952512
135	0x3d09d41a	0.03364954
136	0xbccac476	-0.024751883
137	0xbd4b1706	-0.049582504
138	0x3d4c478d	0.049872924
139	0xbcfaaccc	-0.030599974
140	0x3c5217fb	0.0128231
141	0xbd1b2bce	-0.037883572
142	0x3ca5c877	0.02023719
143	0xbca17825	-0.01971061
144	0x3d26a433	0.040683936
145	0xbd1aaf3f	-0.037764784
146	0x3cc6b6ad	0.024257028
147	0x3d65a3f0	0.056064546
148	0xbd22728c	-0.03966002
149	0x3ccf936e	0.025338855
150	0xbcae039a	-0.021241952
151	0xbcdb46e8	-0.02676721
152	0x3ce4940f	0.027902631
153	0x3d47ace4	0.048748866
154	0x3d057ef2	0.032591768
155	0x3d41bc5a	0.047298767
156	0xbcc8ce55	-0.02451245
157	0x3cc823c4	0.024431117
158	0x3d7da1e1	0.061921958
159	0x3d16095d	0.036630023
160	0xbd29b022	-0.04142774
161	0xbd3e4467	-0.046451952
162	0xbc8653b6	-0.016397338
163	0xbd31f6de	-0.04344832
164	0x3d78a424	0.06070341
165	0xbcfe4eb3	-0.031043386
166	0x3d4b48ae	0.04962986
167	0xbd291fe6	-0.041290186
168	0x3b14e8be	0.0022721733
169	0x3d6bda2d	0.057581116
170	0xbc72dbee	-0.014822943
171	0x3ac5f120	0.0015101768
172	0x3c0af943	0.00848228
173	0x3d484ef2	0.048903413
174	0x3d7245b3	0.0591485
175	0xbd4d0d2a	-0.050061382
176	0xbc783d3a	-0.015151316
177	0xbd55b62c	-0.052175686
178	0x3d51802e	0.051147632
179	0x3d41c870	0.047310293
180	0xbcf072e3	-0.029351657
181	0x3cfc2e00	0.030783653
182	0x3cdc9cb9	0.0269302
183	0x3d490a26	0.049081944
184	0xbceb8d38	-0.028753862
185	0x3d6dfada	0.05810056
186	0xbd430e2b	-0.047620934
187	0x3d58638c	0.05282931
188	0xbd159f28	-0.036528736
189	0x3cdd9513	0.027048623
190	0x3d6e62b3	0.058199596
191	0xbb700724	-0.003662535
192	0xbd24cbb1	-0.040233318
193	0xbc9b6e21	-0.018973412
194	0x3d092a3a	0.033487536
195	0x3d2684bf	0.04065394
196	0x3d518264	0.05114974
197	0xbc2a2373	-0.010384428
198	0xbd34bea8	-0.044127136
199	0x3c13869d	0.009004262
200	0xbd3c075f	-0.045905467
201	0xbb557e5d	-0.003257654
202	0x3c846b67	0.016164495
203	0xbcb27a4c	-0.021786831
204	0xbc4535f9	-0.012036794
205	0x3d70b00f	0.058761653
206	0x3baaea0f	0.0052158902
207	0xbc8e7fc6	-0.017394911
208	0x3d6b390e	0.05742746
209	0xbcb24329	-0.02176054
210	0xbd0952ea	-0.03352634
211	0xbd165359	-0.03670058
212	0x3d5c939e	0.053851716
213	0x3be09d39	0.00685468
214	0xbcae7f0a	-0.021300811
215	0xba927498	-0.0011173664
216	0xbc194fb8	-0.009357385
217	0xbd2c8b85	-0.042125244
218	0x3d4658c8	0.048424512
219	0x3d4d9e86	0.050200008
220	0xbc524b6e	-0.012835367
221	0x3cd8ea9e	0.026479062
222	0x3c3f0033	0.011657762
223	0x3c3e4457	0.011612973
224	0x3c31ddc3	0.010856095
225	0xbd40392e	-0.04692953
226	0xbd08d8fc	-0.033410057
227	0xbcad1da9	-0.021132307
228	0x3d1024da	0.035191394
229	0x3d47b377	0.048755135
230	0x3c644d59	0.013934457
231	0xbd28c7e1	-0.041206244
232	0xbc86f1a7	-0.01647265
233	0xb9d60f38	-0.000408286
234	0xbd432b79	-0.04764888
235	0x3bb185e6	0.0054175733
236	0xbcf6c483	-0.030123001
237	0x3d582c34	0.05277653
238	0x3cf20acf	0.02954617
239	0x3ce9d4f6	0.02854393
240	0xbd04f8e6	-0.03246393
241	0xbcde2938	-0.027119264
242	0xbcf5bc66	-0.029997062
243	0xbc9d851f	-0.019228516
244	0xbd420db3	-0.047376346
245	0xbcd5b3fe	-0.026086804
246	0x3a2197ed	0.00061643013
247	0xbd0bf51e	-0.03416931
248	0xbcc703d2	-0.024293814
249	0xbd4515ea	-0.048116602
250	0x3cd1ebc0	0.02562511
251	0xbd2ff15b	-0.042954784
252	0x3d5bce95	0.05366381
253	0x3d69ef84	0.057113186
254	0x3cfaf587	0.030634655
255	0x3d5bb38c	0.053638026

features.2.bias f4 [32]
0	0x3c858d9d	0.016302878
1	0xbcefe86a	-0.029285628
2	0x3bdcd2e9	0.0067390096
3	0x3d2eeb17	0.042704668
4	0x3cf735fe	0.030177113
5	0x3d430315	0.04761036
6	0x3c4c2116	0.01245906
7	0x3d556b6e	0.052104406
8	0xbd503493	-0.05083139
9	0x3c22d31e	0.00993803
10	0x3d001703	0.031271946
11	0xbd3b555c	-0.045735702
12	0x3d6760f9	0.056488965
13	0xbc55d93d	-0.013052282
14	0x3d7e6d85	0.062116165
15	0xbd5ae1e4	-0.053438082
16	0x3d7dbf22	0.061949857
17	0x3c3c89d8	0.011507474
18	0xbd56257b	-0.052281838
19	0x3c170a0d	0.009218705
20	0xbcdef02f	-0.027214138
21	0xbcd959e6	-0.026532125
22	0x3c73e7df	0.014886825
23	0x3d57fe77	0.05273291
24	0xbd1bd578	-0.038045377
25	0xbd4948fb	-0.049141865
26	0x3ad87a65	0.0016515969
27	0x3c0423e7	0.0080652
28	0x38436bb7	4.659194e-05
29	0xbcb3968b	-0.02192237
30	0xbc0647aa	-0.008195797
31	0x3ae91da0	0.0017785318

features.5.weight f4 [64, 32, 3, 3]
0	0xbd046b75	-0.03232904
1	0xbd369842	-0.044578798
2	0x3d2ef9a0	0.04271853
3	0xba98536f	-0.0011621545
4	0xbcd6fd54	-0.026243843
5	0x3d254b8b	0.040355247
6	0xbd251348	-0.04030159
7	0xbd2e53b4	-0.042560294
8	0xbd4cddd8	-0.050016254
9	0x3c54b2bc	0.012982067
10	0xbcb15834	-0.021648504
11	0x3ba4437a	0.0050129266
12	0xbd1779a7	-0.03698125
13	0x3c9854fc	0.018595211
14	0x3aa3c3cc	0.0012494265
15	0xbcd5a45c	-0.02607935
16	0x3cd5d93c	0.026104562
17	0xbd56ff99	-0.05248985
18	0xbd475e14	-0.048673704
19	0xbcf10c9f	-0.029424964
20	0xbc24ff6c	-0.010070663
21	0x3d6308d1	0.05542833
22	0x3c51fb71	0.012816296
23	0xba5eef7b	-0.00085043133
24	0x3c9fe2dc	0.019517355
25	0xbca5ca2c	-0.020238005
26	0x3b931b44	0.0044893343
27	0xbbc6f81c	-0.0060720574
28	0x3d7af741	0.061270956
29	0xbbf6c1d1	-0.007530429
30	0xbcde52de	-0.027139124
31	0x3d238835	0.03992482
32	0x3d2117da	0.039329387
33	0x3d1245da	0.035711147
34	0x3ce89f25	0.028396199
35	0x3d30fa47	0.043207433
36	0x3c049313	0.008091706
37	0xbca34b1e	-0.01993328
38	0x3cd621d6	0.026139181
39	0xbd21871b	-0.039435487
40	0x3d2c3ef9	0.042052243
41	0xbd23fe04	-0.04003717
42	0xbd632fc3	-0.05546547
43	0xbd5a7325	-0.053332467
44	0xbc201444	-0.009770457
45	0x3d480a0b	0.048837703
46	0xbd2ba213	-0.041902613
47	0x3d719d11	0.05898768
48	0x3d6acba0	0.0573231
49	0x3cd9a0b1	0.026565881
50	0xbd2063bd	-0.039157618
51	0xbca49966	-0.020092677
52	0x3d6a2f37	0.057173934
53	0xbd22aa15	-0.039712984
54	0xbd4d786c	-0.05016367
55	0xbd388745	-0.045050878
56	0x3d15a643	0.036535513
57	0x3cc1f4ca	0.023676295
58	0x3c12ab15	0.008951922
59	0x3cf3fafe	0.029782768
60	0x3cd3a4b8	0.02583538
61	0xbc96cf51	-0.018409403
62	0x3cb71db4	0.02235303
63	0xbd4c7b95	-0.049922545
64	0x3c4d94f7	0.012547723
65	0xbc2883e5	-0.010285352
66	0x3c5178cc	0.012785148
67	0xbcc6aac5	-0.024251351
68	0xbb1c6358	-0.0023862924
69	0x3bc48157	0.005996864
70	0x3d1a4490	0.037663043
71	0x3ca6bd19	0.02035384
72	0x3d13f321	0.036120538
73	0xbd1197f9	-0.035545323
74	0x3d33859e	0.0438286
75	0xbd147bc1	-0.036250833
76	0x3c9a8f79	0.018867241
77	0xbd201058	-0.039078087
78	0xbd3eb8e0	-0.04656303
79	0x3c6ce2a6	0.014458334
80	0xbd327936	-0.043572627
81	0xbc1c867c	-0.009553548
82	0xbd5020df	-0.0508126
83	0x3d56fa6c	0.052484915
84	0x3b503762	0.0031771292
85	0x3d08368d	0.03325515
86	0x3a4efd5e	0.0007896031
87	0x3d5ad135	0.05342217
88	0x3d1e33db	0.038623672
89	0xbd1be772	-0.03806252
90	0xbd6fce5f	-0.05854642
91	0xbd153320	-0.03642571
92	0x3d2ab33f	0.04167485
93	0xbd6df4a3	-0.058094632
94	0x3ca7cca8	0.02048333
95	0x3cc8c5f0	0.024508446
96	0xbd4da76a	-0.050208487
97	0x3d687737	0.056754317
98	0x3cd89a89	0.026440876
99	0xbd63e273	-0.05563588
100	0xbd4c9b6a	-0.049952902
101	0xbd5b9778	-0.05361125
102	0xbc9cc989	-0.019139068
103	0x3bb117aa	0.0054044323
104	0xbc93419f	-0.017975627
105	0xbd69a223	-0.05703939
106	0xbd104120	-0.035218358
107	0x3c06015c	0.008179035
108	0x3cb8bbcc	0.022550486
109	0x3c42492d	0.011858267
110	0x3d02a52a	0.031895794
111	0xbd199176	-0.037492238
112	0x3cab0466	0.02087612
113	0x3ca76262	0.020432655
114	0xbd2a7f55	-0.04162534
115	0x3d145f44	0.036223665
116	0xbd534fde	-0.05158984
117	0x3c9ad19f	0.018898783
118	0x3c7517fa	0.01495933
119	0x3d48e8d7	0.04905018
120	0xbd3ece76	-0.046583615
121	0x3cf297ac	0.029613338
122	0x3c0145bd	0.007890162
123	0xbd31b7c9	-0.04338816
124	0x3d302673	0.043005418
125	0x3cc28701	0.023746016
126	0x3b866ac2	0.004102082
127	0xbcf11dff	-0.029433249
128	0x3d7d7dc7	0.06188753
129	0x3d4bef86	0.049788974
130	0x3d29ee7e	0.04148721
131	0xbbadd1ca	-0.00530455
132	0x3d2b4f8d	0.041823912
133	0x3d04a4d9	0.032383773
134	0x3c3bef73	0.011470663
135	0x3c8dbe07	0.017302526
136	0x3d3fb033	0.046798896
137	0xbcb3f089	-0.021965282
138	0x3b93f96e	0.0045158183
139	0x3d059917	0.0326167
140	0x3d4ae87a	0.049538113
141	0xbd0f2ab3	-0.03495283
142	0x3a7ac824	0.00095665664
143	0x3d0d46ce	0.034491353
144	0x3cecac30	0.0288907
145	0x3d177a23	0.036981713
146	0x3d2ebd17	0.0426608
147	0xbce2c31b	-0.027680924
148	0x3d3f057d	0.046636093
149	0x3cd7655a	0.026293445
150	0x3cd7df68	0.026351646
151	0xbd3a91f5	-0.04554935
152	0x3cafce3e	0.021460649
153	0xbceaf033	-0.028678989
154	0x3c2931b3	0.010326791
155	0x3d790a2d	0.06080072
156	0x3c9f2abf	0.019429563
157	0xbb56f528	-0.0032799933
158	0x3d166e3b	0.036726218
159	0x3d0e5b3c	0.034754977
160	0x3aa28f69	0.0012402359
161	0x3c433b20	0.011915952
162	0x3c4d97f3	0.012548435
163	0xbd097b06	-0.03356459
164	0xbc07673e	-0.008264361
165	0x3d1db72a	0.038504757
166	0x3a8f631f	0.0010939575
167	0xbc0c423a	-0.0085607115
168	0x3d5a7e82	0.053343304
169	0xbb95bc11	-0.0045695384
170	0xbceda2f0	-0.029008359
171	0xbc1e5b2a	-0.00966529
172	0x3d238776	0.039924107
173	0xbd5c2e0e	-0.05375486
174	0xbd022647	-0.031774785
175	0xbba553b4	-0.0050453786
176	0x3d749199	0.059709165
177	0xbd436670	-0.047705114
178	0xbd04249a	-0.03226147
179	0x3d7bf803	0.06151582
180	0x3cbbc330	0.022920221
181	0xbd25a77b	-0.040442925
182	0x3d7537bb	0.0598676
183	0x3d1ad19e	0.037797563
184	0x3d4ae5ad	0.049535442
185	0x3d38164e	0.044943146
186	0x3cd35f96	0.025802415
187	0xbcce3392	-0.025171075
188	0xbd080bd3	-0.0332144
189	0x3bd906c9	0.0066231233
190	0x3c1f11e3	0.009708854
191	0x3d22e2a9	0.03976694
192	0xbd71d7b8	-0.059043616
193	0x3ad520ef	0.0016260425
194	0xbb4f5a8b	-0.0031639661
195	0x3d1e7390	0.038684428
196	0x3cf24acf	0.029576687
197	0xbcf9a339	-0.030473338
198	0x399f7039	0.00030410456
199	0x3ca96cd9	0.020681785
200	0xbc59fdc2	-0.0133051295
201	0xbd4ca16f	-0.049958643
202	0xbc9b4c50	-0.018957287
203	0x3bcf4f85	0.006326618
204	0xbd67234a	-0.05643014
205	0xbd03592d	-0.032067467
206	0xbca59dcd	-0.020216847
207	0xbd287b6a	-0.04113332
208	0x3d53de5d	0.051725734
209	0x3c439bca	0.0119389985
210	0xbcfcec4e	-0.030874398
211	0x3d492bca	0.049114026
212	0xbd094891	-0.03351647
213	0x3d2dab94	0.042399958
214	0x3cec3f41	0.028838756
215	0x3d703f17	0.058653917
216	0xbd2eb065	-0.04264869
217	0xbc751a48	-0.014959879
218	0x3ca42a39	0.020039665
219	0x3d52a075	0.051422555
220	0x3d19b9e7	0.037530806
221	0x3d7d3466	0.06181755
222	0x3d62339b	0.055224996
223	0x3d5bcaf9	0.053660367
224	0x3d0bcab5	0.034128863
225	0x3d4c1011	0.04982001
226	0x3c86d5c3	0.016459351
227	0xbd198328	-0.037478596
228	0x3cef77ca	0.029231925
229	0x3cc2ac01	0.023763658
230	0xbb81ed90	-0.0039650872
231	0x3be9e81c	0.0071382653
232	0x3b67f9de	0.0035396735
233	0xbc550ed4	-0.013004024
234	0x3c179a08	0.0092530325
235	0xbcf96bd7	-0.03044693
236	0xba6d16bb	-0.00090442196
237	0x3d5cfbc8	0.053951055
238	0xbd302553	-0.043004345
239	0xbc462c6c	-0.012095552
240	0xbb48e629	-0.0030654764
241	0x3ca155ad	0.019694174
242	0xbb495c37	-0.003072513
243	0xbc4822cb	-0.012215327
244	0x3c87aac7	0.016560925
245	0xbd64489e	-0.055733316
246	0x3d13aec1	0.03605533
247	0x3c64eeb5	0.013972928
248	0x3d5ac712	0.053412504
249	0x3c97ec1c	0.018545203
250	0x3d731c03	0.059352886
251	0xbd24ccba	-0.040234305
252	0xbd5a5be4	-0.05331029
253	0xbcae9bf1	-0.021314593
254	0x3ad3f3cb	0.0016170678
255	0x3c730db7	0.014834813

features.5.bias f4 [64]
0	0xbd4b9fde	-0.049713008
1	0xbd540389	-0.051761184
2	0x3ca560dd	0.02018779
3	0xbc9f0ae3	-0.01941437
4	0x3d3b594c	0.045739457
5	0x3d628d28	0.0553104
6	0x3c3b0c86	0.01141656
7	0xbc8b0855	-0.016971746
8	0xbc5b51e0	-0.01338622
9	0x3b278819	0.0025563298
10	0x3d6b6472	0.05746884
11	0x3d5ddaa5	0.054163594
12	0xbd1b0129	-0.037842903
13	0x3ce2a905	0.027668485
14	0x3d7f4d68	0.06232968
15	0xbc0f925f	-0.008762925
16	0xbd49e481	-0.049290184
17	0x3d30d072	0.04316754
18	0xbd45d3c8	-0.048297673
19	0xbb9c21d6	-0.0047647757
20	0x3d4a12c9	0.04933432
21	0x3c8027a7	0.015643908
22	0x3c3156a9	0.010823884
23	0xbd0957eb	-0.03353111
24	0xbd0d37d1	-0.03447706
25	0x3cb60a47	0.022221697
26	0xbd27fe4e	-0.04101401
27	0x3d272672	0.04080815
28	0xbcd730c1	-0.026268365
29	0x3d63403d	0.055481184
30	0xbd5117fe	-0.05104827
31	0x3b98140d	0.004641062
32	0xb9880bdf	-0.00025948786
33	0xbd4f403e	-0.050598375
34	0x3d3ef80a	0.046623267
35	0x3d51e877	0.051247086
36	0xbd23d927	-0.040002014
37	0x3d42340b	0.047412913
38	0xbcba3339	-0.022729503
39	0xbb9115f1	-0.0044276644
40	0x3d50ab76	0.050944768
41	0x3d4e5676	0.050375424
42	0xbc77b03c	-0.015117701
43	0xbd09768d	-0.033560324
44	0xbd4b6a9f	-0.04966223
45	0x3cb93603	0.022608763
46	0x3c1f4c76	0.00972282
47	0x3cefed0b	0.029287836
48	0xbd0311c2	-0.031999357
49	0xbcb67801	-0.02227402
50	0x3cf5a19b	0.029984286
51	0x3d6e1d11	0.05813319
52	0x3d1c6eec	0.03819172
53	0x3d14a3b7	0.036288943
54	0xbce33cc9	-0.027738946
55	0x3b54dc0a	0.0032479786
56	0xbd1e7081	-0.03868151
57	0x3d756580	0.05991125
58	0xbcaea205	-0.021317491
59	0x3a1ba325	0.0005937091
60	0x3cdd1610	0.02698806
61	0x3d37da0f	0.04488569
62	0x3cd3b5d8	0.025843546
63	0x3c42cae3	0.011889192

features.7.weight f4 [64, 64, 3, 3]
0	0xbc92b801	-0.017910006
1	0x3ca19523	0.019724434
2	0x3c0b5813	0.008504885
3	0x3c688ba8	0.014193453
4	0xbbb7656c	-0.005596807
5	0xbd1f73cb	-0.03892879
6	0xbb2bc434	-0.0026209475
7	0x3c72d25e	0.014820663
8	0x3d28b45e	0.041187637
9	0xbca8564e	-0.020548966
10	0xbc9bc984	-0.019016989
11	0x3cace332	0.021104429
12	0x3d08fab0	0.0334422
13	0x3a2b89d2	0.0006543669
14	0x3d10faa8	0.035395294
15	0xbc8f8614	-0.017519988
16	0xbce537de	-0.027980741
17	0xbc6f4e05	-0.014606004
18	0xbc7f520e	-0.015583528
19	0xbd1b0027	-0.037841942
20	0xbd08716b	-0.03331129
21	0x39d9fe94	0.0004157914
22	0xbbeaabef	-0.0071616094
23	0x3cb8b18f	0.022545604
24	0x3c94e32b	0.018174728
25	0xbb7ed33d	-0.0038883232
26	0x3c992101	0.018692495
27	0xbd24cab3	-0.04023237
28	0x3cccc3c5	0.024995694
29	0xbc2eb598	-0.0106634125
30	0xbcda91a1	-0.02668077
31	0xbca5fe85	-0.020262966
32	0xbad874a7	-0.0016514257
33	0xbbc338bd	-0.0059576915
34	0xbc6c1d7e	-0.014411328
35	0x3ba45312	0.0050147856
36	0xba93d399	-0.0011278271
37	0xbc463fa2	-0.012100132
38	0x3cb8680b	0.022510549
39	0xbc90a0cf	-0.017654805
40	0xbc39bef9	-0.011337035
41	0xbc7eea73	-0.015558827
42	0xbc863c05	-0.016386041
43	0xbd004fd7	-0.03132614
44	0x3d2b5cf3	0.04183669
45	0x3ade27a1	0.0016949066
46	0x3b3c6cec	0.0028751446
47	0xbcab322e	-0.020897951
48	0xbc6ee2a3	-0.014580402
49	0xbc9bffca	-0.019042868
50	0x3c5bb6a0	0.01341024
51	0x3d00afe9	0.03141776
52	0x3cab730b	0.02092888
53	0x3bc759af	0.006083689
54	0xbd1f84bc	-0.038944945
55	0xbd1b1caf	-0.03786915
56	0xbcee7c34	-0.029111959
57	0xbb8f74cb	-0.0043779365
58	0x3c02166d	0.007939917
59	0x3d0c9d36	0.034329616
60	0xbcc2204f	-0.023697047
61	0xbd111608	-0.0354214
62	0xbd157759	-0.036490772
63	0xbbccf573	-0.0062548458
64	0x3ce5a2bf	0.028031705
65	0xbc819d9a	-0.01582222
66	0xbd132a0c	-0.03592877
67	0xbb8c1c53	-0.0042758374
68	0xb9159d15	-0.00014268265
69	0xbc403e00	-0.011733532
70	0x3c712aa4	0.014719639
71	0x3c882290	0.016618043
72	0x3c15e717	0.009149334
73	0x3c87bac0	0.016568542
74	0xb89f166b	-7.5858865e-05
75	0x3ce7abf0	0.028280228
76	0x3d19ed84	0.03758003
77	0xbc876fec	-0.01653286
78	0xbcea56b9	-0.028605806
79	0x3bd8bd04	0.0066143293
80	0xbcaa89c6	-0.020817649
81	0xbcf35b24	-0.029706545
82	0xbd1f0b36	-0.03882905
83	0x3c2fc0cd	0.01072712
84	0x3d05f96a	0.032708563
85	0x3cc0211e	0.023453292
86	0xb98ca16d	-0.00026823152
87	0x3d17f21b	0.037096124
88	0xbc34f0b2	-0.011043714
89	0x3a65c0f1	0.0008764407
90	0x3d2756de	0.040854327
91	0xbcb4c6a8	-0.022067383
92	0x3cc2f0ad	0.023796404
93	0xbc063864	-0.0081921555
94	0x3c6e5ba3	0.014548215
95	0x3c86727d	0.016412014
96	0x3d293eea	0.041319765
97	0x3cb672e4	0.022271581
98	0x3bfe18e1	0.0077544306
99	0x3d295ecf	0.041350182
100	0xbc0efd14	-0.008727331
101	0xbcef87d2	-0.029239569
102	0x3cf96dc8	0.030447856
103	0x3c8a5737	0.01688729
104	0x3cde64ba	0.02714764
105	0x3d208d7f	0.03919744
106	0x3c89c42e	0.016817179
107	0xbd1b0e01	-0.037855152
108	0xbcda9439	-0.026682006
109	0x3d046cdf	0.03233039
110	0xbc45cbde	-0.0120725315
111	0x3d26a231	0.04068202
112	0x3d0e8479	0.034794305
113	0xbc28acc7	-0.0102951
114	0x3d05863c	0.03259872
115	0x3cc21ec5	0.023696313
116	0x3cf83779	0.030299889
117	0x3c66d887	0.01408971
118	0x3b9da23a	0.0048105987
119	0xbbffdf26	-0.007808584
120	0x3b7af3a4	0.0038292194
121	0xbd072935	-0.032998282
122	0xbd13d01a	-0.036087133
123	0x3abd6dbf	0.0014452263
124	0xbcabbec4	-0.020964988
125	0xbd1cfd78	-0.038327664
126	0x3ceb040d	0.028688455
127	0xbc9036be	-0.017604228
128	0x3c791c34	0.015204478
129	0x3c17f485	0.009274607
130	0xbc8fc235	-0.01754866
131	0xba8cd03b	-0.001074321
132	0xbc4a15b2	-0.012334274
133	0x3ba3017f	0.0049745436
134	0xbc9e4e47	-0.019324435
135	0x3d11835c	0.035525665
136	0x3c010b93	0.007876295
137	0x3d06c304	0.032900825
138	0xbca5d541	-0.020243289
139	0xbc3c1d37	-0.011481575
140	0x3bd3ff63	0.0064696535
141	0xbd077548	-0.033070832
142	0x3d2dcf96	0.042434298
143	0x3cad66fb	0.021167269
144	0x3c13d3ed	0.009022695
145	0x3a01e39f	0.00049548777
146	0xbd022c20	-0.031780362
147	0x3cd2ec4b	0.025747439
148	0xbaa292ab	-0.001240333
149	0xbc903f11	-0.017608197
150	0x3cfd5267	0.030923082
151	0x3d0b90e8	0.03407374
152	0xbccd5850	-0.025066525
153	0x3d19c5ed	0.037542272
154	0x3cfa755c	0.03057354
155	0xbcb2d29d	-0.021828944
156	0xbcc521bf	-0.024063943
157	0x3d1888ce	0.037239842
158	0xbc89eb80	-0.016835928
159	0x3c85f8aa	0.016353924
160	0xbcd5b6f5	-0.026088217
161	0x3bf66362	0.0075191716
162	0x3cea7a43	0.028622752
163	0x3cd8a59a	0.026446152
164	0x3c1e69e9	0.009668806
165	0xbd0900bc	-0.033447966
166	0x3b9b7576	0.004744227
167	0xbc86d4c9	-0.016458886
168	0xba00d3b5	-0.00049143593
169	0x3c0c19f4	0.00855111
170	0x3c4d8b8b	0.012545477
171	0x3d172b84	0.036906734
172	0xbc1000f7	-0.008789293
173	0xbd103233	-0.035204124
174	0x3c97945b	0.018503359
175	0xbcc99907	-0.024609102
176	0xbac8df60	-0.001532536
177	0x3d169cff	0.036770817
178	0x3cfeab9a	0.031087685
179	0xbd00a341	-0.03140569
180	0xbc673fd7	-0.014114342
181	0x3be296d1	0.0069149514
182	0x3d106ca8	0.035259873
183	0xbd0260ec	-0.031830713
184	0xbc44b42d	-0.012005848
185	0xbbe7b07b	-0.0070705987
186	0x3d1e8d3d	0.038708914
187	0xbd05b04b	-0.03263883
188	0xbd10c177	-0.035340752
189	0x3c21015f	0.009826987
190	0xbd0a823a	-0.0338156
191	0xbc98a9ec	-0.018635713
192	0xbcbae1dd	-0.022812778
193	0x3ad64c6b	0.0016349679
194	0xbcda6f62	-0.02666444
195	0x3c1bbeea	0.009505967
196	0x3c57c86a	0.013170341
197	0xbca4155a	-0.020029712
198	0xbbcc73b6	-0.0062393798
199	0xbbac2da3	-0.0052544638
200	0xbbec0ef5	-0.0072039315
201	0x3cad7b27	0.021176888
202	0x3d248d70	0.040173948
203	0xbcaa8d4e	-0.020819332
204	0xbd12579a	-0.035728075
205	0xbcd017d5	-0.025401989
206	0x3c9cdd7e	0.019148584
207	0xbcf0488a	-0.029331464
208	0x3d318de3	0.043348204
209	0x3d07476f	0.03302711
210	0x3cced9bc	0.025250308
211	0xbd18cc16	-0.037304007
212	0xbc939268	-0.018014148
213	0x3d1468a1	0.036232594
214	0x3b9eb528	0.004843373
215	0x3c640c75	0.013918986
216	0xbc7d6e54	-0.015468199
217	0x3ce58b2c	0.028020464
218	0xbc0bc772	-0.008531438
219	0x3d066311	0.03280932
220	0x3d237b51	0.039912526
221	0x3ca38204	0.019959457
222	0x3bbcb7a9	0.0057591987
223	0x3cc74878	0.024326548
224	0xbb838e3f	-0.00401476
225	0xbcfacffb	-0.030616751
226	0x3cc5cfdf	0.024146972
227	0x3c75f5d9	0.015012228
228	0xbc0f953f	-0.00876361
229	0xbc32291a	-0.010874057
230	0xbc8a1475	-0.016855458
231	0x3d26861b	0.040655237
232	0x3c6da9f8	0.014505856
233	0xbcdd3c2f	-0.027006237
234	0x3ca1c564	0.019747443
235	0x3c175994	0.009237666
236	0xbc991d1c	-0.018690638
237	0x3cb9d425	0.022684166
238	0x3d1a7d10	0.037716925
239	0x3d06cdec	0.032911226
240	0xbd1dfe62	-0.038572676
241	0x3ce19a58	0.027539417
242	0x3d115889	0.035484824
243	0xbcbf7bf6	-0.023374539
244	0xbc94ca5c	-0.018162899
245	0x3cc559e0	0.024090707
246	0xbca10c00	-0.019659042
247	0x3d0abd7e	0.03387212
248	0xbcb22bc4	-0.021749385
249	0x3bd49ac8	0.006488178
250	0x3d15ab9a	0.036540605
251	0xbd0d89ce	-0.03455525
252	0x3b6d0da7	0.0036171468
253	0x3c40f7b6	0.011777809
254	0xbca6f396	-0.020379823
255	0xbce2416c	-0.027619086

features.7.bias f4 [64]
0	0x3b1f6065	0.002431893
1	0xbafb37d6	-0.0019166421
2	0x3d2a1475	0.041523416
3	0x3ca911a7	0.0206383
4	0x3cf2976d	0.029613221
5	0x3d16511f	0.036698457
6	0x3d0a3576	0.03374239
7	0x3b8976cf	0.0041950713
8	0x3d3b69af	0.045755085
9	0xbc870a6b	-0.01648446
10	0x3ce2f9d5	0.02770702
11	0x3d018b7f	0.031627174
12	0x3d1102d6	0.035403095
13	0x3c1244ad	0.008927506
14	0x3d2fc17f	0.04290914
15	0xbc1ca6da	-0.009561265
16	0x3d24a6de	0.0401982
17	0x3cd42857	0.025898142
18	0xbcb07680	-0.02154088
19	0xbcd4162e	-0.025889482
20	0xbc8babab	-0.017049631
21	0xbc3d9ca0	-0.011572987
22	0x3d0f888c	0.03504233
23	0xbc1b020b	-0.009460936
24	0xbc4dab7f	-0.012553095
25	0x3ca9bd2d	0.020720089
26	0x3c4ab200	0.01237154
27	0xbc3f0fbe	-0.011661468
28	0xbce45448	-0.02787222
29	0xbd143498	-0.03618297
30	0xbce1d345	-0.027566561
31	0x3c5a699b	0.013330842
32	0xbaa3e4de	-0.0012504121
33	0x38be502e	9.074841e-05
34	0x3d2e15b6	0.042501174
35	0xbb8373f2	-0.0040116245
36	0x3d17de54	0.037077263
37	0x3d0aab42	0.03385473
38	0xbc4d4f75	-0.012531151
39	0x3c730a1a	0.014833951
40	0xbcc68d62	-0.024237338
41	0xbc66727b	-0.01406538
42	0xbc9c1982	-0.019055132
43	0xbcc38d9f	-0.023871241
44	0xbc9d22f6	-0.01918171
45	0xbb95b845	-0.004569086
46	0x3d196c99	0.037457082
47	0x393582aa	0.00017310181
48	0xbb9d3b9a	-0.004798365
49	0x3ce387b0	0.027774662
50	0x3cb1b40a	0.021692295
51	0x3c8b10d7	0.016975803
52	0xbcd2aab6	-0.025716167
53	0xbc6f95c7	-0.014623112
54	0xbce9f024	-0.02855689
55	0x3cb1be6a	0.021697242
56	0xbce37eb2	-0.027770374
57	0xbd1d5422	-0.038410313
58	0x3c6f6383	0.014611128
59	0xbcb5685b	-0.022144487
60	0xbcf43c5f	-0.029813943
61	0x3cea438e	0.028596666
62	0xbc35acd0	-0.011088565
63	0xbaf393d4	-0.0018583485

features.10.weight f4 [64, 64, 1, 1]
0	0xbd829cc8	-0.0637756
1	0xbdcdc526	-0.10047369
2	0x3e00e632	0.12587813
3	0x3d2a2958	0.041543335
4	0xbdd1f9d4	-0.10252729
5	0xbc594e85	-0.013263349
6	0xbcb5b20c	-0.022179626
7	0xbc262809	-0.010141381
8	0xbd09ccb3	-0.033642482
9	0xbdde07ac	-0.10841307
10	0x3d946a7d	0.072468735
11	0x3dab85d4	0.08375135
12	0xbd36d1d8	-0.044633716
13	0xbca8a95d	-0.020588571
14	0x3d976a54	0.07393327
15	0x3d55a73a	0.052161433
16	0xbd46d8a9	-0.048546467
17	0xbde1c3ca	-0.11023672
18	0x3c817d96	0.015806954
19	0xbc6e6095	-0.014549394
20	0x3dcd1c7e	0.100152
21	0x3d192164	0.03738536
22	0x3b2e5292	0.0026599509
23	0x3d3399b1	0.043847743
24	0xbd9c7842	-0.07640125
25	0xbde1a161	-0.11017109
26	0xbda244f1	-0.07923306
27	0xbdf2a622	-0.118480936
28	0x3d89e3b7	0.06732886
29	0x3b055e14	0.0020350264
30	0x3c0c7867	0.008573628
31	0x3cff856d	0.031191552
32	0xbdf42377	-0.11920827
33	0x3df9897a	0.12184425
34	0x3d21bd4b	0.039487164
35	0x3df2e57b	0.11860176
36	0x3dbd4a1c	0.09242651
37	0xbd6d9d13	-0.058011126
38	0xbda23ef5	-0.07922164
39	0xbda5af67	-0.08090096
40	0x3d51c0b1	0.051209155
41	0xbdad1aa2	-0.084523454
42	0x3d03917a	0.03212116
43	0xbdbbd444	-0.09171346
44	0xbdc53d20	-0.09630799
45	0x3dded4b8	0.10880417
46	0x3dc59d0d	0.09649096
47	0xbd9ed135	-0.07754747
48	0x3da6ee82	0.081509605
49	0xbd94cc25	-0.072655
50	0x3ce05f1a	0.027389098
51	0xbc84da03	-0.016217237
52	0xbd52bf34	-0.051451877
53	0x3b0466fa	0.002020298
54	0xbdb49982	-0.08818342
55	0x3de10ff2	0.109893695
56	0x3da4db56	0.080496475
57	0x3ddbb88f	0.10728561
58	0x3d62f586	0.05540993
59	0xbd731b3a	-0.059352137
60	0xbd2fc232	-0.04290981
61	0x3dd47f99	0.103759
62	0x3b98aa5e	0.004658981
63	0xbc8c04a8	-0.017092064
64	0x3d04e8c9	0.032448564
65	0x3d7d110b	0.06178383
66	0xbcc9f00d	-0.024650598
67	0x3d0a97ce	0.03383618
68	0x3c842871	0.016132565
69	0xbd953b62	-0.07286717
70	0x3dbe2368	0.09284097
71	0xbde1b09f	-0.11020016
72	0xbdcb7fb5	-0.099364676
73	0xbd9b1c61	-0.07573772
74	0xbd64f3b1	-0.055896465
75	0x3d1b41b1	0.037904445
76	0x3d9bcaf2	0.07607068
77	0x3d82a622	0.063793436
78	0xbdd59c48	-0.10430199
79	0x3d606067	0.054779436
80	0xbda43f22	-0.08019854
81	0xbdd44139	-0.10364003
82	0x3da806f2	0.0820445
83	0xbd740f50	-0.059584916
84	0xbd8086f7	-0.062757425
85	0x3d8d9cc0	0.06914663
86	0x3d83d3a6	0.06436853
87	0xbde6857e	-0.1125593
88	0xbcc0fc55	-0.023557821
89	0x3cdfbc73	0.02731154
90	0xbc9aeb7c	-0.018911116
91	0x3dab5981	0.08366681
92	0xbddc71af	-0.10763871
93	0xbc032f02	-0.008006813
94	0xbcc1ba82	-0.023648504
95	0xbcc758a9	-0.024334269
96	0x3ca8c329	0.020600872
97	0xb8817975	-6.1738225e-05
98	0xbde5c332	-0.11218871
99	0x3c8a7a71	0.016904088
100	0x3de87c22	0.113518015
101	0x3c8b5bf1	0.017011615
102	0x3df3755d	0.1188762
103	0x3cf9244d	0.030412817
104	0xbdc8b9b9	-0.09801049
105	0x3cabe3bd	0.020982618
106	0x3d15d327	0.036578324
107	0x3d9c514e	0.07632695
108	0xbddf5b1f	-0.10906052
109	0xbddea45f	-0.10871195
110	0x3d00bac8	0.03142813
111	0xbd3048de	-0.04303824
112	0x3d14f72a	0.036368527
113	0x3d4f7e92	0.050657816
114	0x3c99b9da	0.018765379
115	0xbd136418	-0.03598413
116	0xbd88edac	-0.06685957
117	0x3dc5b18f	0.09653007
118	0x3bce5e72	0.00629788
119	0x3bf2dc81	0.00741154
120	0x3d01e141	0.03170896
121	0x3db08e01	0.08620835
122	0x3d7960f2	0.06088347
123	0x3c9f4336	0.019441228
124	0xbd1170c7	-0.035507943
125	0xbcad817f	-0.021179913
126	0x3dea54e6	0.11441974
127	0xbc9c7e48	-0.019103184
128	0x3d920e25	0.07131604
129	0xbd9790ab	-0.0740064
130	0x3ca8731e	0.020562705
131	0xbbafbe49	-0.00536326
132	0xbd786bca	-0.06064967
133	0x3d9603f4	0.07324973
134	0xbdbf1d51	-0.093317635
135	0xbd118c28	-0.035534054
136	0xbc5d9a14	-0.013525505
137	0x3d96d51a	0.07364865
138	0x3dd10635	0.10206262
139	0x3dd5e9de	0.10444997
140	0xbd3a9181	-0.04554892
141	0xbd67f4e6	-0.056630038
142	0xbdf11f93	-0.117736004
143	0xbcff25e7	-0.031146003
144	0xbcd580ea	-0.026062448
145	0xbc7fa4d1	-0.01560326
146	0xbba7b80d	-0.005118376
147	0xbdac6750	-0.08418143
148	0x3d8b432d	0.06799922
149	0xbd261252	-0.040544815
150	0xbabd2863	-0.0014431592
151	0xbcaccce6	-0.021093797
152	0x3b968c1f	0.0045943405
153	0xbd49acfa	-0.04923723
154	0xbac43d79	-0.0014971934
155	0xbcc600c8	-0.024170294
156	0x3db74c74	0.08950129
157	0xbd165f3a	-0.03671191
158	0xbdb06b3b	-0.086142026
159	0xbde38f05	-0.11111263
160	0x3dd32e8d	0.10311613
161	0x3ae16431	0.0017195997
162	0x3d1a4643	0.037664663
163	0xb7c210bb	-2.3134393e-05
164	0xbdcee46e	-0.10102163
165	0xbd64d359	-0.05586562
166	0xbd9fb61a	-0.07798405
167	0x3d333143	0.04374815
168	0x3cd14049	0.025543349
169	0xbdeb36d1	-0.11485065
170	0xbdeda067	-0.1160286
171	0xbdad8dd6	-0.08474319
172	0x3c43ae28	0.011943378
173	0xbcce6c88	-0.025198236
174	0xbca0e1a6	-0.019638848
175	0x3d3e6078	0.04647872
176	0x3dd4674d	0.103712656
177	0x3de04d12	0.109522
178	0x3cd12b59	0.025533365
179	0x3dd758be	0.10514973
180	0xbddc2418	-0.10749072
181	0x3dc46992	0.095904484
182	0x3bb360cc	0.0054741856
183	0xbdcc9d37	-0.09990924
184	0x3d2f9b07	0.042872455
185	0x3cfeacf2	0.031088326
186	0x3d1a8459	0.037723873
187	0xbddbc64e	-0.10731183
188	0xbdf866c0	-0.12128973
189	0x3df70747	0.12061935
190	0xbd8a585f	-0.06755137
191	0xbda29112	-0.07937826
192	0xbdb74154	-0.08948007
193	0x3bd02bf7	0.0063528973
194	0x3c1a8feb	0.009433727
195	0x3d6cf0da	0.05784688
196	0xbda5635a	-0.080755904
197	0xbd87ea01	-0.066364296
198	0x3dc5381c	0.09629843
199	0x3924e021	0.00015723753
200	0x3d44d8ea	0.048058428
201	0x3d0dacbd	0.034588564
202	0xbd5170c7	-0.051132943
203	0x3de382a0	0.11108899
204	0x3d102697	0.035193052
205	0xbd2ab2c8	-0.041674405
206	0xbdb0f61c	-0.08640692
207	0x3d8f3df9	0.06994242
208	0xbdc6c122	-0.09704806
209	0xbd303ee6	-0.043028735
210	0x3d0ebebe	0.034849875
211	0x3d43ac74	0.047771886
212	0x3d1cfc8a	0.038326778
213	0x3d99485a	0.07484503
214	0x3c72791f	0.014799385
215	0x3d3a04e7	0.04541483
216	0xbcf85d48	-0.030317917
217	0xbd1f01cb	-0.03882007
218	0xbc567092	-0.013088362
219	0xbd6830c3	-0.056687128
220	0x3d818c49	0.063255854
221	0x3d91c488	0.071175635
222	0x3cb2212f	0.021744339
223	0x3d40b2aa	0.047045387
224	0xbd29e36c	-0.041476652
225	0xbdbe247d	-0.09284303
226	0x3df4dd60	0.119562864
227	0xbcd6bf5e	-0.026214298
228	0xbcb94b38	-0.022618875
229	0x3db0427f	0.08606433
230	0x3c8a0a86	0.016850721
231	0x3d306602	0.043066032
232	0x3d9403ee	0.07227312
233	0x3cde896f	0.027165143
234	0xbdeeea3c	-0.116657704
235	0x3dd217a1	0.10258413
236	0x3d26e797	0.040748205
237	0xbd562e7b	-0.05229042
238	0xbd36209d	-0.044464696
239	0xbdc86b53	-0.097860955
240	0xbd296ed4	-0.04136546
241	0x3d81ee10	0.06344235
242	0x3d8ab3de	0.06772588
243	0xbc26c89b	-0.010179664
244	0x3c5a3c57	0.01332005
245	0x3dd6a61c	0.104809016
246	0xbd9ad08f	-0.07559311
247	0x3dbdf3cc	0.09275016
248	0xbd062b8b	-0.03275637
249	0x3ded0771	0.11573685
250	0xbd8dee18	-0.069301784
251	0x3c68c77c	0.014207717
252	0xbb808545	-0.003922137
253	0xbdd71c80	-0.10503483
254	0x3bb8093a	0.0056163343
255	0x3b5f89b6	0.0034109182

features.10.bias f4 [64]
0	0xbba4b4f2	-0.005026453
1	0xbd93ac63	-0.072106145
2	0xbc859100	-0.016304493
3	0xbcbffe22	-0.02343661
4	0x3c5e536c	0.013569694
5	0x3d967f1a	0.073484614
6	0xbda891c5	-0.08230928
7	0xbd23420f	-0.03985792
8	0x3cf79902	0.030224327
9	0xbd19185b	-0.037376743
10	0x3d911df8	0.07085794
11	0xbd61e7d1	-0.055152718
12	0x3db46b29	0.08809502
13	0x3d8ad2b3	0.06778469
14	0x3dc30186	0.09521775
15	0xbdb86d9b	-0.090052806
16	0xbd50de32	-0.050993152
17	0xbda74a5f	-0.08168482
18	0x3c84dc39	0.016218292
19	0xbcea9f73	-0.028640484
20	0xbdbb2d7b	-0.09139534
21	0xbddc1e77	-0.10747998
22	0x3ddc7685	0.10764793
23	0xbdc617cb	-0.09672507
24	0xbcd8b863	-0.02645511
25	0x3cb6dfcc	0.022323512
26	0x3ba95840	0.005167991
27	0x3da35dd4	0.07976881
28	0xbd9c900c	-0.07644662
29	0x3dba3e6c	0.09093937
30	0xbd63e91c	-0.055642232
31	0xbdee2d32	-0.11629714
32	0xbd9ba64f	-0.0760008
33	0xbd55f667	-0.05223694
34	0x395095a7	0.00019892176
35	0xbd4aa163	-0.049470317
36	0x3ccc29a9	0.024922209
37	0xbd692330	-0.056918323
38	0x3ca9086c	0.020633899
39	0xbdb87770	-0.09007156
40	0x3dd07144	0.10177854
41	0x3d31191a	0.04323683
42	0x3c96f39c	0.018426709
43	0x3dc4e6d3	0.09614339
44	0xbd83379e	-0.064070925
45	0x3c441bb9	0.0119695
46	0x3dfcc103	0.123415016
47	0x3d081258	0.03322062
48	0xbd20d3d4	-0.039264515
49	0x3dcf913c	0.10135123
50	0x3d391570	0.04518646
51	0x3d9da118	0.07696742
52	0x3d185342	0.037188776
53	0xbde39ca4	-0.11113861
54	0xbdb1065f	-0.08643793
55	0x3d8d5363	0.069006704
56	0x3d9e1ccc	0.07720336
57	0x3d125881	0.035728935
58	0xbd8972f7	-0.06711381
59	0x3db06d43	0.0861459
60	0xbc45dbb3	-0.012076306
61	0xbd1b897a	-0.037972905
62	0xbd647c64	-0.05578269
63	0x3c6d2b14	0.014475603

classifier.0.weight f4 [3, 64]
0	0x3daa2354	0.083075196
1	0xbb87a80a	-0.004139905
2	0xbdcba7ae	-0.09944092
3	0xbd64b29e	-0.055834405
4	0xbd7fe2e1	-0.062472228
5	0xbd809e45	-0.062801875
6	0xbd708ad7	-0.058726158
7	0xbcc88b44	-0.02448047
8	0x3e04b9cb	0.129615
9	0xbd25c231	-0.0404684
10	0x3d53028c	0.0515161
11	0x3b6623aa	0.0035116472
12	0x3d9f412a	0.07776101
13	0xbc9c285a	-0.01906221
14	0xbdeee04c	-0.11663875
15	0xb8ca4b20	-9.646104e-05
16	0xbdf2cc0a	-0.118553236
17	0xbcabbb51	-0.020963343
18	0x3dde21e1	0.10846306
19	0x3cd05420	0.025430739
20	0xbd287b00	-0.041132927
21	0xbc59ef10	-0.013301626
22	0xbca556f9	-0.020183073
23	0xbdab98a1	-0.08378721
24	0xbca5b063	-0.02022571
25	0x3d63f47e	0.055653088
26	0x3d8f0af0	0.06984508
27	0x3b4f7f3b	0.0031661529
28	0xbd86f67a	-0.065899804
29	0x3de3ccb5	0.11123029
30	0x3c3cb95a	0.011518801
31	0x3d0e55b9	0.03474972
32	0x3cc4a71a	0.024005461
33	0x3bcf45cd	0.0063254596
34	0x3dd54976	0.10414402
35	0x3d16ef14	0.036849096
36	0xbd6860af	-0.05673283
37	0x3dab4eeb	0.08364662
38	0x3bfdc1d4	0.0077440534
39	0x3cb3f544	0.021967538
40	0x3d906a0a	0.07051475
41	0xbd76e3d9	-0.060275886
42	0xbbc3dc87	-0.0059772166
43	0xbccd4c91	-0.025060924
44	0x39ca6ca2	0.0003860938
45	0xbcc66329	-0.024217205
46	0x3d649bb5	0.055812556
47	0x3d5e68c9	0.05429915
48	0xbb9ad89b	-0.0047255284
49	0xbdb4a7c5	-0.08821062
50	0x3d054b9b	0.032542806
51	0xbdbee033	-0.09320106
52	0x3d4f464c	0.05060415
53	0x3d8d2855	0.06892458
54	0xbd902377	-0.070380144
55	0xbda3e6d5	-0.08003012
56	0xbdd6ae6c	-0.10482487
57	0x3d63a255	0.055574734
58	0x3de3a984	0.11116317
59	0x3dad28b4	0.08455029
60	0xbdccd321	-0.10001207
61	0x3dae5629	0.085125275
62	0xbda2199e	-0.07915042
63	0x3d8056b6	0.06266539
64	0xbdc11ecd	-0.09429703
65	0xbd41a229	-0.04727379
66	0x3bcadd08	0.0061908998
67	0x3d323ac7	0.043513086
68	0x3d0e034e	0.03467112
69	0xbd78181e	-0.060569875
70	0x3d4062b4	0.04696913
71	0xbd180e12	-0.037122793
72	0x3a30e0aa	0.0006747345
73	0xbdb7be0f	-0.08971798
74	0x3db10147	0.08642822
75	0x3d48b635	0.04900189
76	0xbcb92e76	-0.022605162
77	0xbdd2f9e7	-0.10301571
78	0x3d3ded2a	0.046368755
79	0x3d44f361	0.048083667
80	0xbb85d369	-0.00408404
81	0x3c2a4d55	0.010394414
82	0xbe02fc57	-0.12791573
83	0xbd7c63ab	-0.06161849
84	0x3dcc3a78	0.099720895
85	0xbd48e24f	-0.04904395
86	0xbdc73ffd	-0.09729002
87	0xbcc3db7e	-0.023908373
88	0xbd56d0c7	-0.0524452
89	0xbbf25558	-0.0073954277
90	0x3d0342c3	0.03204609
91	0xbdd796bb	-0.105267964
92	0xbd17e9ae	-0.03708809
93	0x3d9e12c5	0.07718424
94	0x3d0b10f7	0.033951726
95	0x3d056f04	0.032576576
96	0xbd61eeea	-0.055159487
97	0xbd8bb391	-0.06821359
98	0xbdd0cce4	-0.1019533
99	0xbd131118	-0.035904974
100	0x3c8690b0	0.016426414
101	0xbdbef256	-0.09323566
102	0xbd40b0f7	-0.047043767
103	0xbb9855d3	-0.004648903
104	0xbdec3dd4	-0.1153523
105	0x3d2c4d46	0.04206588
106	0x3dab1035	0.083527006
107	0xbd2e0f4d	-0.04249506
108	0x3dd138d1	0.10215915
109	0xbd32c872	-0.04364819
110	0x3dd4f436	0.10398142
111	0x3db960d6	0.09051673
112	0xbdbdba35	-0.09264032
113	0x3cb3ce7c	0.021949045
114	0xbc9adc39	-0.018903838
115	0xbd63b86f	-0.05559581
116	0xbdc64a7f	-0.09682178
117	0x3d771fc8	0.060333043
118	0xbde26140	-0.11053705
119	0xbd8f0e40	-0.0698514
120	0x3d8664cf	0.065621965
121	0x3d819c0c	0.06328592
122	0x3c0765c6	0.008264011
123	0xbd85e2cc	-0.06537399
124	0x3d9ac55a	0.07557173
125	0xbb97d175	-0.0046331235
126	0xbdab89fe	-0.08375929
127	0x3cc626ad	0.024188364
128	0xbdabb988	-0.08384997
129	0x3dbb6811	0.091507085
130	0xbd07e248	-0.033174783
131	0x3b8b2ab5	0.0042470344
132	0x3da6d484	0.08146003
133	0x3d512c68	0.05106774
134	0x3ddc15fa	0.10746379
135	0xbd842f81	-0.06454373
136	0x3c5c9194	0.013462443
137	0x3cdaf0f2	0.02672622
138	0xbc51ec5d	-0.012812701
139	0xbdc9b625	-0.098491944
140	0x3da9bf49	0.08288438
141	0x3c71c60b	0.01475669
142	0x3c315d36	0.010825446
143	0xbdbff026	-0.093719766
144	0xbdb52e68	-0.08846742
145	0xbded0fdc	-0.115752906
146	0x3cd71105	0.026253233
147	0x3d49624a	0.049166
148	0xbdb7a918	-0.08967799
149	0x3dd1c7dc	0.10243198
150	0x3cacfeb7	0.021117551
151	0x3da12681	0.07868672
152	0xbd9a3c39	-0.07531018
153	0x3d149b02	0.03628064
154	0xbd4a7880	-0.049431324
155	0x3df2b89c	0.11851618
156	0x3d5d23c8	0.0539892
157	0x3da2058b	0.079112135
158	0xbd19f728	-0.037589222
159	0xbb65b1b5	-0.0035048549
160	0x3d5c4fb5	0.053786952
161	0xbdb7e6b5	-0.08979551
162	0xbced1672	-0.028941367
163	0xbdbf720a	-0.09347923
164	0x3dc06e6a	0.0939606
165	0x3c9992ec	0.018746816
166	0x3d746fee	0.059677057
167	0xbdd63729	-0.1045974
168	0xbdcb9f79	-0.09942526
169	0x3dadd0b3	0.08487072
170	0x3c50af2b	0.012737076
171	0x3dd9c94b	0.10634097
172	0x3dcda2cb	0.10040816
173	0xbdee4165	-0.11633567
174	0xbd8acd96	-0.06777494
175	0xbd788d9f	-0.060681935
176	0x3de2b90f	0.110704534
177	0x3da69c1d	0.08135245
178	0x3dd3a2bf	0.10333776
179	0xbda078a4	-0.078355104
180	0x3c130a39	0.008974605
181	0x3dc9337c	0.09824273
182	0xbdba6db5	-0.09102956
183	0xbd86df99	-0.065856166
184	0xbe01a1f3	-0.12659435
185	0xbd78adfb	-0.060712796
186	0xbd01f3d1	-0.031726662
187	0x3de13a5c	0.10997459
188	0x3d9a31bf	0.075290196
189	0xbdaa6145	-0.08319334
190	0xbdce3419	-0.100685306
191	0xbd490124	-0.049073353

classifier.0.bias f4 [3]
0	0x3df971b6	0.12179892
1	0xbcbbe801	-0.022937777
2	0x3dbaf923	0.0912955
