increased_data/benchmark_experiment_increased_data/experience_1_2_3/model_experience_1_2_3.pth (torch, 854482 bytes, 36 tensors)

features.0.weight f4 [32, 3, 3, 3]
000000 b9 72 8e 3d 97 a2 51 3d cf 9d 10 be f6 c1 36 3e
       0.06955475 0.05118045 -0.14122699 0.17847428
000010 3a 8f f9 bd ba 68 2b be 48 20 ae bc fc c0 1e 3d
       -0.121855214 -0.16739169 -0.021255627 0.038758263
000020 04 f2 51 3a d8 42 03 3e a1 06 39 3e d3 63 3a 3e
       0.00080087804 0.12818468 0.18068935 0.18202142
000030 66 12 a0 bc 19 e4 9b bb 60 80 fb bc 8a 42 c1 bd
       -0.019540023 -0.004757416 -0.030700862 -0.094365194
000040 d4 f5 85 bc cc 5d 0f bd 5f 3a 27 be a8 66 3a 3d
       -0.016352572 -0.03500156 -0.1633086 0.045508057
000050 d9 01 90 bd 22 a7 94 3d 6d e8 9d 3d 77 00 7f 3c
       -0.070316024 0.072584406 0.07710347 0.015564076
000060 f4 13 0e 3d 38 91 22 bc f4 d1 7c 3d 82 2f cc 3d
       0.034686998 -0.009922318 0.061723664 0.09969999
000070 87 2c 50 3d 8c b1 99 3d 08 41 ab bd 64 50 a4 3c
       0.050823715 0.075045675 -0.08362013 0.020057864
000080 10 67 cd bd 1e bb 3c be 24 41 8c bd 62 9b 64 3d
       -0.10029423 -0.18430755 -0.06848362 0.055812247
000090 50 77 9e bc 47 37 32 bc 56 23 07 3e 8a 89 6f bd
       -0.019344002 -0.010877437 0.13197073 -0.058480777
0000a0 1a a9 f0 3d c9 7e 43 3e 36 40 1b 3d 73 13 fd 3d
       0.117510036 0.19091333 0.037903033 0.12357225
0000b0 65 d0 9a bd 5d 04 2b be 58 c8 75 bd e8 a5 3a 3e
       -0.07559279 -0.16700883 -0.060005516 0.1822735
0000c0 78 28 ad 3c 56 32 28 3e b1 12 d9 3d 30 f8 30 be
       0.021137461 0.16425452 0.10599268 -0.17282176
0000d0 41 f3 d0 3d 36 d4 20 be 64 98 ce 3c 0f cd 33 3e
       0.10202647 -0.15705952 0.02521915 0.17558692
0000e0 29 f6 04 3e 6d 86 48 bd e1 e9 16 3d df 74 23 3e
       0.12984528 -0.048956323 0.036844138 0.15962552
0000f0 11 7d ba 3d 9b 35 14 bd 60 95 13 3e e0 2f 89 3d
       0.09105886 -0.036183935 0.14412451 0.066985846
000100 60 7b b0 3d 0e 55 9d bd a9 9b fc bb 14 af 06 bd
       0.08617282 -0.076822385 -0.007708986 -0.03288181
000110 ca fc 7c bd 5b 79 47 3e 3d 6b 22 3d 1a de 3d be
       -0.061764516 0.19479887 0.03965305 -0.18541756
000120 0a a1 24 bd d8 2c 39 be 65 8c a8 bc 3a eb 0a 3d
       -0.04019264 -0.18083513 -0.020574758 0.033915736
000130 a2 9e 86 3d e5 be db 3d 79 34 35 3d b2 4a 27 bd
       0.065732256 0.107297696 0.044239495 -0.04084272
000140 d9 2e 3c 3e ed 0e 1f bc 53 07 17 3e 9e 8a a8 bd
       0.18377246 -0.009708148 0.14748888 -0.08229564
000150 73 42 2b be 11 da d5 bd 46 de ea bd e6 ae 2b bd
       -0.16724567 -0.104419835 -0.114681765 -0.041914843
000160 07 99 20 be eb bf dc bd b3 a2 61 3d ec 4f 2d be
       -0.15683375 -0.10778793 0.055086803 -0.16925019
000170 96 f6 c1 bd 9e 4b 5f 3d 9b 89 1c 3d 72 aa b5 3b
       -0.09470861 0.054515474 0.03821717 0.0055440003
000180 9a 57 1c be f6 bb 4d be 0c f8 fd bd ff 08 30 be
       -0.15267792 -0.20091233 -0.12400827 -0.17190932
000190 0e e4 45 be 3b 6d 99 bd 16 9b 29 be ce 7b 34 3e
       -0.19325277 -0.07491537 -0.16563067 0.17625353
0001a0 9b 4d 64 3d aa 55 a1 3d ff 1e da bc d1 51 0b 3e
       0.055738073 0.07877667 -0.026626108 0.13605429
0001b0 1b bb c2 bd 7d ea 5b bd 09 55 e4 3d 40 c0 f0 bd
       -0.09508344 -0.053690422 0.11149032 -0.11755419
0001c0 b3 f5 30 be e1 08 10 3d d8 7c 18 bd 36 e7 09 3e
       -0.17281227 0.035164718 -0.037228435 0.13467106
0001d0 ca 08 14 3e 94 71 1e be 33 43 26 bb 5e 94 b1 3d
       0.14456478 -0.15473014 -0.0025369644 0.08670877
0001e0 1e 84 09 3e ca 11 5a bd c4 a2 27 3e 6f 75 be 3d
       0.13429305 -0.05323962 0.16370684 0.092997424
0001f0 b9 30 e9 3d 9d af 38 3e 53 4c 3e 3e f6 d9 98 3d
       0.11386246 0.18035741 0.18583803 0.07463448
000200 08 e5 59 bc cc a0 0e be a3 bb da 3d 5a 7f 0a be
       -0.013299234 -0.13928527 0.1068032 -0.13525143
000210 f3 7c 0b bd d1 c4 39 3e ff 59 87 bd bc f4 cc 3b
       -0.034054708 0.18141486 -0.06608962 0.0062547605
000220 cb 6b 2d 3e 59 8a 08 bd 38 85 a3 bd 3f 26 3b 3e
       0.16935651 -0.033335064 -0.07984394 0.18276308
000230 7a 6c 81 bd c3 ad ab ba 1d 5c 16 bd 1a 19 1b 3e
       -0.063195184 -0.001309805 -0.03670894 0.15146294
000240 c5 6a f8 3d 7b 99 03 be 0e e4 69 3d b7 c8 c6 3d
       0.1212974 -0.12851517 0.057102256 0.09706252
000250 c5 e5 f8 3d 8b ad 40 be ea b8 2d bd c4 35 2f 3d
       0.121532 -0.18816201 -0.042412676 0.042775884
000260 6b 52 c5 3c 06 78 a6 bd 05 5c 4e 3d 9d 9e 3a be
       0.024087152 -0.081283614 0.050380725 -0.18224569
000270 10 c9 93 bd 54 3a ae 3d 28 40 0f be 2a 73 45 3e
       -0.07216084 0.08507219 -0.13989317 0.19282213
000280 e9 06 e4 3d 3c 14 b2 3d b8 85 2f be 8f 38 3e 3e
       0.111341305 0.08695266 -0.17140853 0.18576263
000290 8c a9 88 bd d2 a9 cb 3d 98 d7 29 be 82 65 bc bb
       -0.066729635 0.099445 -0.16586149 -0.0057494054
0002a0 76 35 af bd 5d d7 2a be cd 08 45 bd 83 47 ae bd
       -0.08555119 -0.16683717 -0.048104096 -0.085097335
0002b0 c4 df 28 3e ac 70 87 bd 10 2a dd 3d 4e db 55 bd
       0.1649161 -0.06613287 0.107990384 -0.0522111
0002c0 81 f3 a1 3d 1d 07 e3 3d be 5c 66 3d d8 cd 1e be
       0.07907773 0.11085341 0.05624079 -0.1550821
0002d0 0a 03 df bb 01 51 d9 bd 4f 7e 31 be 39 6f 33 be
       -0.006805782 -0.106111534 -0.17333339 -0.17522897
0002e0 97 b5 0b 3e 5a 42 1e be 49 80 cb 3d c8 cb 2d bd
       0.1364349 -0.15454999 0.09936578 -0.04243067
0002f0 31 f7 9d bd 2d 10 c8 3c 72 c9 42 bd 59 cf f2 bd
       -0.07713164 0.024421776 -0.047555394 -0.11855955
000300 0e 25 26 be 9e 8a 68 3d d1 3d 1c 3e 79 e5 00 3e
       -0.16225073 0.05677282 0.15257956 0.12587537
000310 23 10 af 3d c9 31 2d be df 05 2f be 60 62 30 bc
       0.08548 -0.16913523 -0.17092083 -0.010765642
000320 29 33 5c bd a8 80 12 be e2 40 b7 3d b4 7a 0f be
       -0.053759728 -0.14306891 0.08947922 -0.14011651
000330 e3 6d 82 bd 82 c1 cc 3d 46 54 9d 3d e6 c1 a3 3d
       -0.063686155 0.09997846 0.076820895 0.079959676
000340 a1 43 03 bd a8 14 11 3e 44 47 00 be 15 c1 42 bd
       -0.032046918 0.14168036 -0.12527186 -0.04754742
000350 23 0d c9 3d 85 a8 c6 3d f5 4d 3b be dc b3 b8 bc
       0.09816959 0.09700111 -0.18291457 -0.022546701
000360 c1 ec 66 bd b8 bc 5f bc c1 27 42 bd c3 1b 19 be
       -0.05637813 -0.013655834 -0.047401194 -0.14951997
000370 38 9d b9 3d 5f 31 01 be 54 4d 10 be fc 09 95 bd
       0.0906319 -0.1261649 -0.14091998 -0.07277295
000380 09 ff aa bd 08 26 0d 3e b0 bd 10 be f4 bc cd 3d
       -0.08349425 0.13784039 -0.1413486 0.100458056
000390 dd 42 31 be 6a da 4f bb 12 90 c0 bd 52 b8 26 bd
       -0.17310663 -0.0031715878 -0.09402479 -0.040703125
0003a0 32 e0 aa 3d 1a e8 eb 3c 0c a1 89 bd cd 9b 03 be
       0.08343543 0.028797198 -0.067201704 -0.12852402
0003b0 4d f3 2a be 28 c1 0e 3e f0 f6 82 3d 79 9c 2f 3e
       -0.16694374 0.13940871 0.06394756 0.17149533
0003c0 95 0f e5 3c 3d 69 12 be 2c e4 23 be e9 7b 30 3e
       0.027961532 -0.14297958 -0.1600501 0.17234768
0003d0 f1 18 47 3d d4 79 77 3d f5 c4 fa bd a7 a4 60 3d
       0.04860777 0.06041892 -0.12244598 0.054844525
0003e0 c2 29 10 3e 49 fe b8 bd 7a 09 31 be 3b d2 05 bd
       0.1407843 -0.09032876 -0.17288771 -0.032671195
0003f0 62 3d fc 3d 04 3a 07 be 59 11 2a bd f3 f7 d3 bd
       0.12316395 -0.13205725 -0.04152045 -0.10350027

features.0.bias f4 [32]
000000 ed 0d 1b bc cc a6 2d bd 02 81 17 be 26 b2 a6 3d
       -0.009463769 -0.042395398 -0.14795306 0.08139448
000010 0f 6e 46 bd 3a 18 81 3d 8f 7b 39 3e 38 56 3e 3d
       -0.048444804 0.06303449 0.1811354 0.046468943
000020 2d 82 2d 3e 27 d0 34 be 8f 75 8c bc dc ef 19 bd
       0.1694419 -0.17657529 -0.0171459 -0.037582263
000030 ce fa a9 bb e7 5f 36 be ee be 4d bc 0b 6e 9e 3d
       -0.005187369 -0.17810021 -0.012557728 0.07735833
000040 7c 08 83 3b ef 06 34 bd cb b7 9e 3d ee bb c7 3c
       0.003998814 -0.043951925 0.077498995 0.024381604
000050 6f 17 d2 b9 82 20 e7 bd 1a 4a 1c 3d d1 9a 3d be
       -0.0004007178 -0.11285497 0.038156606 -0.18516089
000060 94 06 25 3e 6e 80 00 3d a8 ff 28 bd 02 d1 34 bd
       0.1611579 0.03137248 -0.041259438 -0.044144638
000070 99 90 da 3c 04 5c 26 be a8 f4 29 bd 6e 5f 5e bc
       0.026680278 -0.16246039 -0.041493088 -0.013572557

features.2.weight f4 [32, 32, 3, 3]
000000 3b 6e 01 3b 04 88 00 bd 92 b6 30 3d f0 b8 56 bd
       0.001974954 -0.031379715 0.043142863 -0.052422464
000010 c9 97 a5 bc 29 26 bc 3c 99 1c d4 bc fd 09 9e bc
       -0.020213978 0.022967415 -0.025892543 -0.019291872
000020 aa 5b 4d bd 83 8c 55 bd 20 ad 59 bd 1f fe 16 bd
       -0.050136246 -0.052135956 -0.05314362 -0.036863443
000030 22 da a9 bc cc 7e a0 3c b9 b6 1c 3c ca f9 d2 bb
       -0.020733897 0.019591711 0.009565049 -0.0064384686
000040 d4 40 fa bc 74 aa ff 3b d9 92 9b 3c 6b 7a 48 3d
       -0.03054849 0.007802302 0.01899092 0.048944872
000050 eb b0 d0 3c 6f 5d 18 bd 49 7b 39 bd 37 c2 40 3d
       0.025474986 -0.03719848 -0.04528359 0.047060218
000060 8f d9 9d bc 45 8e 07 3d bc 4d 79 bd 88 47 12 3d
       -0.01926878 0.033094663 -0.06086515 0.03571275
000070 b6 29 04 3d 37 b1 c7 3c 12 78 90 bc 2a 43 6a 3d
       0.03226634 0.024376495 -0.017635379 0.05719296
000080 5e 33 2d 3d 84 2b 3f bb 7f 8a a5 3c 2e 91 a8 3c
       0.042285316 -0.0029170224 0.020207642 0.02057704
000090 a3 1b 43 bd 8c be 4d ba ad 0e 08 bd 8b 17 ba 3c
       -0.04763378 -0.0007848523 -0.03321712 0.022716304
0000a0 4a 85 d7 bb 90 11 ae 3c 00 e6 2a bd 0b b1 ef 3b
       -0.0065771686 0.021248609 -0.04172325 0.0073148063
0000b0 f8 32 cd bc 35 30 91 3c d5 b3 62 3d 92 3c 03 3d
       -0.025048718 0.017723182 0.055347282 0.032040186
0000c0 fc 5e 87 3a 66 07 77 bd 79 98 1f 3d 0f 89 5d 3c
       0.001032799 -0.06030979 0.03896377 0.013521447
0000d0 7f d4 b8 3c 5f fe 67 3d c6 88 3d 3d 00 36 54 3d
       0.022562264 0.05663907 0.046273015 0.05180931
0000e0 73 7c 70 3d cb 34 b6 3c 14 a6 27 3d 7b d9 3c 3c
       0.058712434 0.02224197 0.04092987 0.011526461
0000f0 d1 25 46 3d 80 a4 db 3c f4 4f e8 ba 2e 84 96 bc
       0.04837591 0.026811838 -0.0017724023 -0.018373575
000100 61 16 94 bc 1b 5c 62 3d 2c c3 97 3c f2 07 06 3d
       -0.018077077 0.05526362 0.018525682 0.03272242
000110 99 07 9c bc 48 6a a7 bb 38 67 04 bd 3a 49 28 3b
       -0.019046592 -0.0051091053 -0.032325 0.0025678412
000120 ae 40 eb 3c 87 cf 48 bd 1a ca 4a bd a7 03 09 bc
       0.028717365 -0.04902604 -0.049509145 -0.008362687
000130 12 da b2 3c 6e 8b 5a bd 20 24 35 3d a6 5b 45 bb
       0.0218325 -0.053355627 0.044223905 -0.0030114441
000140 78 0e 64 3d dc 1d 2f bd 9c 7f 29 3d e4 f6 3b bd
       0.05567786 -0.042753085 0.041381463 -0.04588975
000150 8e 79 80 bc 07 50 0d 3c 63 67 06 3d 55 33 a7 3c
       -0.015682962 0.008625037 0.03281344 0.02041022
000160 5d 07 2f 3d f0 2c fb 3c 35 8a 26 3d 84 5f cb 3b
       0.04273163 0.030661076 0.04065915 0.0062064547
000170 23 a8 4d 3d 59 a9 72 3d d5 b0 5f bd d3 8a 16 3d
       0.050209176 0.059243534 -0.054612 0.036753487
000180 51 a5 92 bb 8a 3a 9f bc 66 1e 10 bd f9 a3 e6 3c
       -0.0044752737 -0.019437093 -0.03518524 0.02815436
000190 94 80 26 bd e5 b2 d6 3b d6 68 6e bc 5a 61 78 bd
       -0.040649965 0.0065520876 -0.014551362 -0.060639717
0001a0 42 3f a0 3c ec db 97 ba 8c 6f 6f bd ef ee c2 3c
       0.019561414 -0.0011585928 -0.05845599 0.023795573
0001b0 54 df 09 bd c0 36 0e 3d 96 c8 bd bc f4 f7 ab bc
       -0.033660248 0.034720182 -0.023166936 -0.020992257
0001c0 2d 11 35 bd a7 f6 15 bc 77 a9 9b bc 3e 96 48 3d
       -0.044205833 -0.009153045 -0.019001706 0.048971407
0001d0 a8 e3 1e 3d 58 be b2 bc 22 e7 12 bd 87 06 21 3d
       0.03879133 -0.021819279 -0.035864957 0.039312866
0001e0 5f 81 06 bd 41 ce 82 3c af 4f 70 3d 21 7a 13 bd
       -0.03283822 0.01596749 0.058669742 -0.036005143
0001f0 4a 8e 61 3c 53 86 0c bd b3 c3 27 bd a3 7b c7 3c
       0.0137668345 -0.03430779 -0.040958118 0.024350947
000200 77 44 38 3d 8e b8 dc 3c 4d 3f 11 3d 91 7c 72 bc
       0.04498717 0.026943471 0.03546076 -0.014800207
000210 56 32 53 bd 3a eb a5 3a f5 56 3a 3d 79 52 3a 3c
       -0.051561676 0.0012658604 0.045493085 0.011372202
000220 4d 9f d5 bc 50 75 3c 3d c2 9b ce 3a d3 2d 1d 3d
       -0.026076937 0.046010315 0.0015762972 0.03837378
000230 00 b5 3a bd 5a 90 ce bc a3 f1 bd bb d9 9d 8b bc
       -0.04558277 -0.025215317 -0.0057966276 -0.017043041
000240 0c a4 17 bd ef a3 28 3d 03 d0 1b 3b e2 05 df 3c
       -0.03702168 0.041171964 0.0023775108 0.027224485
000250 88 e4 50 3d 0d 9c 9b 3c c6 c3 de 3c 0c 98 57 bc
       0.050999194 0.01899531 0.027192961 -0.013158809
000260 19 3b 40 3d 63 bd 02 bc 70 aa 23 3d e4 77 f2 bc
       0.04693136 -0.007979724 0.039957464 -0.029598184
000270 58 0d a3 bc d5 0e 06 3d f3 7f 55 3d 25 0e 3f bd
       -0.019903824 0.03272899 0.052123975 -0.04664435
000280 1d b3 06 3d bb 9a 53 3b fc b1 75 bd 72 d6 72 bd
       0.03288566 0.0032288271 -0.059984192 -0.059286542
000290 67 f3 2c bd 36 45 89 bd 37 be 15 3d 63 c2 fe bc
       -0.042224314 -0.06702654 0.036558356 -0.03109855
0002a0 5b 5b a9 3b ab 0c 8b ba e1 4b 33 3d c5 1d 69 3d
       0.005168361 -0.0010608634 0.043773536 0.056913156
0002b0 e5 bf 80 bc e3 a1 47 3d 65 d4 1f ba 45 6c 53 3d
       -0.015716502 0.04873837 -0.0006097018 0.051616926
0002c0 b3 b4 f6 3b ed 22 22 3d 60 8f 11 bd c5 92 5f bc
       0.0075288652 0.03958409 -0.035537124 -0.013645832
0002d0 0d 48 3e bc 20 a5 9b 3c cc d2 85 3c cf 40 03 bd
       -0.011613858 0.018999636 0.016335867 -0.03204423
0002e0 76 46 d0 3c dc 74 71 bd ab c0 ac 3c 5f 6f 7c bd
       0.025424223 -0.058949336 0.021087965 -0.06162965
0002f0 5e e8 28 bc 37 73 39 3d ea c7 4b bd dc 79 04 bd
       -0.010309307 0.045275893 -0.0497512 -0.032342777
000300 21 46 fe bc 21 4a 0c 3d 89 7f 38 3d 5f d4 a3 3a
       -0.0310393 0.034250382 0.045043502 0.0012499205
000310 56 fd 90 bb e3 70 46 3d 90 f8 5b bd 96 4e 1c bd
       -0.0044247312 0.0484475 -0.053703845 -0.038160883
000320 51 9c 80 bc 8a b3 4d bc 08 a1 26 bd 5e 33 f4 3c
       -0.015699537 -0.0125550125 -0.040680915 0.02980965
000330 8e a2 61 bb d0 a3 d0 3c cd 3d 98 bc 46 4d 3c bc
       -0.0034429166 0.025468737 -0.018584156 -0.011493033
000340 01 86 a8 3c 31 00 83 bd c4 13 b9 3b 6b 74 83 bd
       0.02057171 -0.06396521 0.005648108 -0.06418689
000350 30 31 d5 3a 98 8d 6d 3c 48 08 5d bd fc 4e 7d bc
       0.0016265269 0.014499091 -0.053962976 -0.015460726
000360 5f 4b ca 3b 3f 7c 4d 3d 8d f6 fb 3b 89 49 1d 3d
       0.0061735357 0.05016732 0.0076893033 0.038400207
000370 3d 78 07 bd db 71 37 bd 27 5c e0 3b f6 6d f9 bc
       -0.033073653 -0.044786315 0.006846923 -0.030447941
000380 7d 28 ad bb 8d ad 30 3c e1 79 4d bd 0e be ed 3c
       -0.0052843676 0.010783565 -0.05016506 0.02902129
000390 44 1e 68 bd 63 0c b3 3c de fc 11 bd 76 bb 07 3d
       -0.05666949 0.021856492 -0.035641544 0.03313776
0003a0 38 17 48 3d da 14 b8 39 1c e8 ff bc f0 ef ce 3a
       0.048850268 0.0003511075 -0.031238608 0.001578806
0003b0 79 3f 51 3d 94 e3 69 3d 3d e3 0a 3c c9 9b c5 3c
       0.051085923 0.0571018 0.008477029 0.024122136
0003c0 51 79 5a 3d 6e 3a 2e 3d 67 52 a8 3c 27 1e 5d 3d
       0.053338353 0.04253619 0.020547105 0.053983834
0003d0 01 31 70 3d 3c d7 5c 3d ff d6 83 bc 1c a8 38 bd
       0.058640484 0.0539162 -0.016093729 -0.045082197
0003e0 54 73 41 3c a0 0e 42 bd 0b 9e 6a 3d 6a f9 4b bd
       0.0118072815 -0.04737723 0.057279628 -0.049798407
0003f0 ae 07 f7 bc 06 31 93 3c 66 7c 57 bd dd b2 1a 3d
       -0.03015503 0.017967712 -0.05260887 0.037768234

features.2.bias f4 [32]
000000 b7 49 1c 3d 58 d1 d9 bc 68 58 cb bc bc 6c 62 bc
       0.038156237 -0.02658908 -0.024822429 -0.01381987
000010 12 e3 f1 bc 67 ec 62 3d dc 83 45 bd 2d 28 b8 bb
       -0.02952722 0.055401232 -0.048221454 -0.0056200237
000020 9c f5 4c 3d 8a 39 0c 3d b8 77 29 bc d1 67 5b 3d
       0.05003892 0.03423456 -0.010343485 0.053565804
000030 ae f0 c8 ba d3 1b 33 bc b8 e0 24 3c 53 fb 7d 3d
       -0.0015330517 -0.010931927 0.010063343 0.06200726
000040 40 35 87 3c 04 0a 39 3d 0d 95 58 3d df 96 5b bc
       0.016504884 0.045175567 0.05287652 -0.01340267
000050 46 94 3a bd 2c 5c 1c 3c 7b fd 61 bd b9 6b e0 3c
       -0.04555156 0.00954346 -0.05517338 0.027395116
000060 b6 a3 9d bc 84 3c 06 bd 6c be f3 bb f8 e6 29 3b
       -0.019243103 -0.032772556 -0.0074384715 0.0025925022
000070 59 63 57 3d 9d 94 ac bc 6e 42 eb bc 6c f6 45 bc
       0.05258498 -0.021066958 -0.0287182 -0.012082677

features.5.weight f4 [64, 32, 3, 3]
000000 f1 2b 2d 3d 3e 14 5e 3d d6 f0 9c 3b 27 d6 44 3c
       0.042278234 0.054218523 0.004789452 0.0120139485
000010 f1 77 2b 3d 76 9a 16 3d 0f af 61 3b f5 d4 09 3c
       0.041862432 0.0367684 0.0034436618 0.008412589
000020 7f 40 64 3c 3e a1 21 bd aa 8c 1e 3d 42 f6 34 bd
       0.013931393 -0.039460413 0.038708366 -0.044180162
000030 88 d0 92 3c 10 be 16 bd 4d 9f 90 bb f2 b2 0b 3d
       0.017921701 -0.03680235 -0.0044135214 0.034106202
000040 86 ed b0 3c f8 81 96 3b 2d ee 36 bd 00 4a 15 3b
       0.021597635 0.00459313 -0.044660736 0.0022779703
000050 9c cd 6d bd b6 6c 4f 3d 37 fc 2c bc bb e9 4a 3c
       -0.058057413 0.050640784 -0.01055818 0.012384827
000060 96 b6 6b 3d 2c 18 56 bd bd a4 12 3d 22 97 3a bd
       0.057547174 -0.052269146 0.035801638 -0.045554288
000070 d9 58 ca bc a4 bc f9 bc 34 e9 42 bd 8b 7b fd 3c
       -0.024700569 -0.030485459 -0.04758568 0.030942699
000080 f4 3d 67 3d a5 15 4c bd 00 da 0c bd dc 80 1b bc
       0.056455567 -0.04982533 -0.03438759 -0.009491172
000090 ec 58 1c 3c 70 f6 60 bd be 71 4c bd e3 31 04 3d
       0.009542685 -0.05492252 -0.04991316 0.03227414
0000a0 ec 55 da bb 67 2c 5a bd 63 4a ea bc 45 87 2a bd
       -0.0066630747 -0.053265 -0.028599923 -0.04163291
0000b0 30 fe d1 ba df 24 3f bd 93 fa 6f bd 11 5b e2 3c
       -0.0016021188 -0.046666022 -0.058588576 0.027631314
0000c0 13 84 52 bd ae cf 03 bb 5d 33 3c bd bd 44 25 bd
       -0.051395487 -0.00201128 -0.04594742 -0.040348757
0000d0 f2 85 c1 bc 93 0f 50 3d 42 ad 2e bd 4b df b7 3b
       -0.02362344 0.050796103 -0.0426457 0.0056113354
0000e0 99 6b 73 3d cf 5b 2a bd ee 83 05 3d 02 82 40 3d
       0.059428785 -0.04159146 0.03259652 0.046998985
0000f0 bc f6 ff bc ae c9 cd 3c e3 04 6c 3d 9c b0 21 bd
       -0.031245582 0.025120582 0.057621848 -0.03947507
000100 b3 f0 30 bd 06 3d dc bc 36 de 0b 3c 20 83 2a 3c
       -0.0431983 -0.026884567 0.008536866 0.010407239
000110 f2 9f 1e 3d 2e 19 65 bd 1e 4b dc bc 5f 20 4e bd
       0.038726754 -0.055932216 -0.026891287 -0.05032384
000120 df 3d 29 ba cf 29 4a 3d 22 b8 14 3d 46 58 45 3c
       -0.0006456058 0.049356278 0.036308415 0.012044972
000130 42 57 cc bc 29 a7 1f bd db 75 04 3c 18 84 13 3d
       -0.024943952 -0.038977776 0.00808474 0.036014646
000140 df 84 5b bd 1b ed a7 3c 01 b9 d2 ba 20 e3 47 bd
       -0.053593513 0.020498803 -0.0016076864 -0.048800588
000150 18 d3 0e bd cf fa 3b bc 7a e9 3a 3c 74 c6 09 bd
       -0.034869283 -0.011473372 0.011408204 -0.033636525
000160 b9 cf 31 3d 62 49 42 bd 14 8d 91 bc 11 f8 bb 3c
       0.04341099 -0.047433265 -0.017767467 0.022945436
000170 53 9b da 3c ba 04 66 3d 73 16 19 3b 42 75 19 bd
       0.026685392 0.05615685 0.0023359328 -0.03746534
000180 a0 e7 a9 bc 14 9a 1e 3d da b3 05 3d 66 37 34 3d
       -0.02074033 0.03872116 0.032642223 0.043998145
000190 8d 30 48 3c 9b 97 61 bd b0 13 c9 3c 8f 2b 59 3d
       0.012218607 -0.055076223 0.02454552 0.053020056
0001a0 fe d3 89 bb a1 1e 0d bd b6 88 3b 3c b7 cd c4 bc
       -0.0042061796 -0.034453038 0.011446169 -0.024023874
0001b0 3b 8f 26 bd e7 77 67 3c ae a0 b9 bc be 71 1d 3d
       -0.04066394 0.014127708 -0.022659626 0.03843855
0001c0 b6 5a ac 3c 64 cb e2 bc e0 08 61 3c e8 d0 42 bd
       0.021039348 -0.027684875 0.013735026 -0.04756251
0001d0 cd e2 6f 3d 8f 5e d5 3c f9 28 5e 3c a9 63 30 bd
       0.058565903 0.026046066 0.013559573 -0.043063793
0001e0 1f 9a 27 3d 64 f5 80 3d c0 63 43 bd 13 84 3a bd
       0.040918466 0.062968045 -0.04770255 -0.045536112
0001f0 6b 5e 03 bd 94 43 24 bd 75 7b e2 3b 93 e2 7f 3c
       -0.032072466 -0.04010351 0.00691169 0.015617984
000200 46 3a bf bc b0 09 7e 3d b3 c7 f2 3c 63 ff 28 3d
       -0.023343217 0.062020957 0.02963624 0.04125918
000210 9e d3 05 3d ae b6 01 bc aa 75 72 3d 78 79 7c bd
       0.032672517 -0.007917089 0.059194244 -0.06163928
000220 6e 7c 41 bd 90 81 a9 3c 6d c9 cd 3c 5f 93 17 bd
       -0.047237806 0.020691663 0.025120461 -0.03700578
000230 88 b1 ef bc d4 3e 12 3d 0b 93 4e bd af 67 08 3d
       -0.029259458 0.03570445 -0.0504332 0.033302005
000240 7a 0d 2e bd b4 2e 7a ba 9a fe d1 3c 8c b8 8c bc
       -0.04249332 -0.00095437025 0.025634099 -0.017177843
000250 22 3e fd bc f3 39 ab bc 6a 33 c9 3c 0f d5 73 3d
       -0.030913416 -0.020901656 0.024560649 0.05952936
000260 2e f7 a1 bc 2e 5a 8a 3c 3a dd 57 bd 68 21 12 bd
       -0.019771185 0.016888704 -0.052701212 -0.03567639
000270 4e 33 32 bc 95 fd a6 bb 19 11 f7 bc 67 0e 66 3d
       -0.01087649 -0.0050961473 -0.03015952 0.05616608
000280 81 31 f3 bc 40 33 df 3a 54 bc 04 3c 9f af 09 ba
       -0.029686691 0.0017028823 0.008101542 -0.0005252305
000290 b1 bf 1b bd ad 27 fb bc ae f7 09 3d 11 b0 c0 3c
       -0.038024608 -0.030658567 0.03368347 0.023521455
0002a0 02 e8 2a bd 41 4a 56 3d af 4a 0c 3d ff 15 aa bb
       -0.041725166 0.052316908 0.03425091 -0.0051906104
0002b0 22 65 d6 bc 49 9f 64 bd aa 73 63 bb 5f 03 13 bd
       -0.02617127 -0.05581597 -0.0034706392 -0.035891887
0002c0 da 0e 40 3c 1c 7e cd bc 31 e2 61 bd 16 e2 18 3c
       0.011722291 -0.025084548 -0.055147354 0.009331247
0002d0 fb 66 4b bd a9 d5 8a 3c b2 d9 01 bd 4e e5 7c 3c
       -0.049658757 0.016947584 -0.03170175 0.01543553
0002e0 5f 38 22 3d db 29 70 3d 8c f0 5b 3c b9 24 12 bd
       0.03960454 0.058633666 0.01342405 -0.035679553
0002f0 46 a4 11 3d 31 da 1f 3d 10 f8 2a 3d 16 91 63 bd
       0.035557054 0.039026443 0.041740477 -0.055558287
000300 c7 bf b3 bb 94 15 61 3c 3f 75 15 3c 5a 65 01 bb
       -0.005485508 0.013738055 0.009122192 -0.0019744248
000310 d3 91 55 bd ab e9 07 3d ce b4 82 3a b3 b6 b0 bc
       -0.052141022 0.033181828 0.0009972097 -0.021571493
000320 7b 31 eb 3a bf 68 21 3d 3b 55 07 bd bf 82 4b bd
       0.0017943823 0.039406534 -0.033040266 -0.049685236
000330 56 5e d2 bb fe 18 f5 3c d4 a1 55 bd d2 a4 16 3d
       -0.006419937 0.029919144 -0.052156284 0.03677828
000340 9e 15 ff bc 02 53 21 3d 0f 8c e4 bc 6d 3d 47 3d
       -0.031138238 0.039385803 -0.027898816 0.048642565
000350 72 70 43 3d 0c 7f 12 bd 25 6e 6f bd 64 9c 34 bd
       0.047714658 -0.035765693 -0.05845465 -0.04409446
000360 7b f2 1e bd 9a 22 2e bd 60 f0 64 bd a8 52 46 bd
       -0.038805466 -0.042513467 -0.055893302 -0.04841867
000370 d6 76 4b bc 82 76 4a bd fc ad 77 bd 8e 82 98 bc
       -0.012418469 -0.049429424 -0.06046866 -0.01861694
000380 2b 37 37 bc 45 73 05 bb 76 41 77 bd 7f d0 55 3d
       -0.011182587 -0.0020362895 -0.060365163 0.05220079
000390 70 63 27 bd 81 af 13 3d 21 58 6a bd 92 50 49 3d
       -0.040866315 0.036056045 -0.057212953 0.049149103
0003a0 62 cd fe 3c 41 db 6d bd e5 6b a7 bb f3 d9 28 3c
       0.031103794 -0.058070425 -0.0051092976 0.010305869
0003b0 43 bf e2 3b c0 02 11 bd 37 34 51 bd ae 0a 10 3d
       0.006919773 -0.035403013 -0.051075187 0.035166435
0003c0 cb d7 2d bd 71 66 30 3d 85 c1 24 bc b3 c6 f9 bb
       -0.042442124 0.043066446 -0.010055904 -0.0076225637
0003d0 6e f3 bc 3c 30 01 0c 39 56 ee a5 3c 30 5c 2f bd
       0.023065295 0.00013351883 0.020255249 -0.042812526
0003e0 96 de 33 3d c3 2d 1e bd 48 71 3d 3d 0d f2 26 3d
       0.043913446 -0.03861786 0.04625061 0.04075818
0003f0 33 72 fb 39 4b 68 1c 3b 22 e2 2e 3d c4 c7 e7 3c
       0.00047959536 0.0023865874 0.042696126 0.028293498

features.5.bias f4 [64]
000000 1a 03 29 3d 01 87 75 3c d5 49 2f bd 84 6d 07 3d
       0.041262724 0.014985801 -0.04279502 0.033063427
000010 7c 8a 38 3d d9 02 4e bd 9a 18 ba 3c cb 97 ab bc
       0.045053944 -0.050295684 0.022716809 -0.020946404
000020 20 04 78 bc 28 09 a2 bc 8a 06 b3 3c 16 65 38 bd
       -0.015137702 -0.019779757 0.021853704 -0.045018278
000030 42 57 50 3c 61 43 34 3d aa 09 a4 3c f5 ff 14 bd
       0.012716116 0.04400957 0.02002414 -0.036376912
000040 23 99 35 3d 38 05 27 3d 64 a7 5d 3d 59 46 b0 bb
       0.044335496 0.04077646 0.054114714 -0.00537948
000050 70 00 6f 3d 2b ab f7 bc c5 82 a8 bc 42 8b 9b bc
       0.058350027 -0.030232986 -0.020570168 -0.018987302
000060 d4 11 27 3c 3c 7f ae bb cd bf 87 bc 20 84 0d bd
       0.010197122 -0.005325226 -0.01657095 -0.034549832
000070 b8 a6 2e bd 73 49 c4 3c 88 1c 49 3d e9 70 5f bc
       -0.042639464 0.023960805 0.049099475 -0.01363776
000080 91 59 59 bc 92 1d 35 bd 9d 16 32 3d 2d 06 50 3d
       -0.013265983 -0.044217654 0.043478597 0.05078714
000090 d1 f5 4a 3d 54 ac 94 3b ae a9 f2 3c 13 14 29 3c
       0.049550835 0.0045371447 0.029621925 0.0103197275
0000a0 fe 1e 85 3c 83 da df bc 99 1e 57 3c 3e 4a f5 3c
       0.01625013 -0.027325874 0.013129854 0.029942628
0000b0 fc 81 8f bc d8 80 10 3c 06 3a d3 3c 39 b8 00 3d
       -0.017518036 0.008819781 0.025784504 0.03142569
0000c0 5e 7c da 3c d4 88 20 3d 87 a2 1a bd 5b e2 03 bd
       0.026670631 0.03919299 -0.037752654 -0.03219829
0000d0 fc e7 a4 bc 2d 94 3c bd 36 ac 93 bc ee 33 bb bc
       -0.02013015 -0.04603975 -0.018026453 -0.02285191
0000e0 79 1a 67 3d 43 17 66 3d df c7 a0 3c b5 33 53 b9
       0.05642173 0.056174528 0.019626556 -0.0002014179
0000f0 4f ac b4 3c 60 24 33 3c f7 73 71 3d ed e1 cf bc
       0.02205482 0.010933965 0.058948483 -0.025376284

features.7.weight f4 [64, 64, 3, 3]
000000 9e ab b5 bc b1 2c a2 bb 2b 7b 0d bd cd df d9 bc
       -0.02217656 -0.0049491753 -0.03454129 -0.026595974
000010 50 ad 33 3c 01 75 06 3d 38 2b 91 bb 02 8d 47 bc
       0.010966614 0.032826427 -0.004430201 -0.012179615
000020 7e 1d 7f bc ce 93 bf 3c 57 91 fc bb 2d c3 ac bc
       -0.015570996 0.023385908 -0.0077077555 -0.02108916
000030 54 51 30 bb bc 98 92 bc a0 5c af bc 34 c1 13 3d
       -0.0026903944 -0.017895095 -0.021406472 0.036072925
000040 a4 f4 1d bd 5d c7 f5 bb 11 f6 cb 3c e0 10 e9 bb
       -0.038563386 -0.0075005726 0.024897607 -0.0071126074
000050 c6 e7 08 3d 39 1d c0 3c 80 70 49 bc fb c0 4a ba
       0.03342416 0.023451434 -0.0122948885 -0.0007734445
000060 4c 5b bf 3c 90 c7 fc 3c 39 8b ea bc ce 7f 08 3c
       0.023358963 0.030856878 -0.02863084 0.008331252
000070 43 20 8c ba 1d 73 be bc 4a ed 79 3c 92 3d 20 3c
       -0.0010690767 -0.02324825 0.015254328 0.0097803045
000080 81 fe fd 3c 9d a2 58 3c c3 6f b1 3c 5a 65 dc bc
       0.031005146 0.013222364 0.021659737 -0.026903797
000090 93 8c 08 3c 29 be 0a 3c bb 65 14 bd c5 3c 58 3c
       0.008334297 0.008468189 -0.03622983 0.013198082
0000a0 f9 cf ae bc 73 a7 2f bc dd f8 26 bd 22 e5 b1 3c
       -0.021339403 -0.010721075 -0.04076468 0.021715704
0000b0 5b ff 50 3c 24 d4 84 bc cd 5d 08 bd f5 1c 10 bc
       0.012756194 -0.016214438 -0.03329258 -0.008795966
0000c0 0a fa c2 bb 38 d4 09 3d d1 2a 95 bc ce f7 3c bc
       -0.005950217 0.033649653 -0.018208893 -0.011533691
0000d0 2f a9 b7 3c 03 e6 fd bc 25 bf de 3b ea af 24 3d
       0.02241954 -0.030993467 0.0067976885 0.040206827
0000e0 cb 4b 1d 3d 99 05 1e 3d c4 6c c5 bc 1e 55 72 bb
       0.03840236 0.038579557 -0.024099715 -0.0036977003
0000f0 ff 4f 04 bd 44 6b 05 bb a5 d0 fd bc 9b 6c 8a 3b
       -0.032302853 -0.0020358125 -0.030983279 0.0042243726
000100 26 f6 eb bc 3a 49 2a bc 21 ca 34 bc ba 91 19 bb
       -0.028803896 -0.010393435 -0.011034519 -0.0023432807
000110 32 32 61 bb 70 da 73 bc f6 51 ba bc 0b 22 99 3c
       -0.0034362194 -0.0148836225 -0.02274416 0.01869299
000120 59 23 53 bc 1e f1 eb 3b 7a 09 0f bd dd 4e f8 bc
       -0.0128868455 0.0072003743 -0.034921147 -0.030311042
000130 f2 47 3a bc bc dc 87 3c 60 60 13 3b 63 ca 8b 3c
       -0.011369692 0.016584747 0.0022487864 0.017064279
000140 c3 55 1b bc 28 15 cb bc 34 ca 23 3d 20 7a a0 bb
       -0.009480896 -0.024790362 0.039987758 -0.004897371
000150 8a a2 94 bc 8b 17 98 bb 8b 4c 96 3c bb 57 cc bc
       -0.01814391 -0.0046414784 0.018347045 -0.024944177
000160 9f 83 27 3c 1d db a6 3c 83 84 77 3c d9 93 4f 39
       0.010224252 0.020368153 0.015107277 0.00019796136
000170 1c e5 c6 3c 7e 6e 4a bc 66 7b 2c 3d 06 87 f5 bc
       0.02427917 -0.012355445 0.04210987 -0.02997161
000180 d7 27 1e bc 71 a8 e4 bc 29 82 3e 3d 62 51 46 3a
       -0.009653053 -0.02791235 0.04651085 0.00075652276
000190 33 a5 54 b9 82 32 9d 39 02 ed ac 3a ce a8 bc ba
       -0.00020279437 0.00029983005 0.0013193192 -0.001439357
0001a0 cd 1b a7 3b 64 8a 94 39 f5 24 b1 ba c7 09 9a 3b
       0.0050997497 0.0002833187 -0.0013515042 0.0047008726
0001b0 31 cc dc 3c 34 36 15 bd 6b 5f e9 3c 26 cc cc bc
       0.026952835 -0.036428645 0.028487882 -0.02499969
0001c0 f5 64 97 3c a6 a0 21 3c be 21 bd bb db 0b 13 3d
       0.018480757 0.009864962 -0.0057718446 0.035899978
0001d0 27 8d 08 3d 72 77 05 bd 19 6e 21 3b 9c bb 9f bc
       0.03333774 -0.032584615 0.0024632274 -0.019498639
0001e0 84 13 17 bd 76 2f 17 3d cf 36 c3 3c 62 36 22 3c
       -0.036883846 0.036910497 0.023829846 0.009900661
0001f0 b3 d1 b4 bb b3 65 f1 3c 72 eb 4d 3b df 6c f2 ba
       -0.005518162 0.02946744 0.0031420854 -0.0018495581
000200 b7 fb 10 bc b5 79 67 3c 9d 6b 27 bd 8a de 22 3c
       -0.008849076 0.014128138 -0.040874112 0.009940753
000210 6a 11 5a 3c cb 6d af bc 50 48 e0 bc 99 5d 7c 3c
       0.013309816 -0.021414658 -0.027378231 0.015403175
000220 a0 94 59 b8 d9 96 f9 3b 34 b0 81 3c dc 39 36 bd
       -5.187525e-05 0.0076168594 0.01583109 -0.044488773
000230 eb ab 0c bc 7a 93 31 3c 40 6b 54 3c 39 49 90 3b
       -0.00858591 0.010838384 0.0129650235 0.00440326
000240 08 32 18 bd 82 a2 0d bd cd a8 82 bb a9 f9 c7 3c
       -0.03715709 -0.034578808 -0.003987408 0.02441104
000250 4f d9 2e bd 87 de d3 3c 9a 16 26 3b 11 b6 b6 bc
       -0.04268771 0.025862945 0.0025343061 -0.022303613
000260 c0 da 04 bc 0a 20 87 3c e0 84 26 3c f9 83 f4 3b
       -0.008108795 0.01649477 0.010163516 0.0074620214
000270 86 eb 45 3c 03 22 72 3b 9a 8b f8 3c 5c 79 da bc
       0.012080079 0.0036946542 0.030340005 -0.026669197
000280 ff cb d0 3c a0 eb 30 3c b0 97 27 bc ed 19 d6 3c
       0.025487898 0.010798365 -0.010229036 0.02613541
000290 df 64 a1 bc b5 e5 c8 3c 27 64 46 3d dc 00 9b bc
       -0.01970142 0.024523595 0.048435356 -0.018921308
0002a0 53 89 41 bc ab 23 df 3c 24 2e 1c 3c 7e a9 23 b9
       -0.011812526 0.027238688 0.009532485 -0.00015608032
0002b0 29 11 c9 ba ff c8 e9 3a af 21 a8 3a 85 14 9c ba
       -0.0015340197 0.0017836391 0.0012827421 -0.0011907971
0002c0 02 d6 d2 39 b2 7f ef ba 2a c7 15 bb 59 7c f6 b9
       0.0004021377 -0.0018272309 -0.0022854307 -0.00047013423
0002d0 97 66 49 3c 59 94 af 3c 52 24 08 bd 4b 36 06 3d
       0.012292526 0.021433042 -0.033237763 0.03276662
0002e0 d3 38 ef bb 8d b7 1e bd 3e a7 d5 bb 29 ab d5 3c
       -0.007300475 -0.038749266 -0.006520181 0.026082592
0002f0 73 3a 14 bd 56 97 80 3c b8 3d 83 bb 07 a9 5b 3c
       -0.036188554 0.015697163 -0.00400516 0.0134069985
000300 a5 58 21 bd ba 0c 1f 3d 06 3e da bc 20 d6 99 3c
       -0.03939118 0.038830496 -0.026640903 0.01877886
000310 71 a4 d1 bc 7f c8 06 bd 95 63 2f 3d 8b 6a 43 3c
       -0.025591107 -0.03290605 0.04281958 0.011927257
000320 74 e5 09 3d ae ed 3d 3c b2 51 ce 3a c0 85 05 bc
       0.03366609 0.011592312 0.00157409 -0.008149564
000330 29 18 30 bc 33 8e 07 bd 00 eb e8 bc 28 d7 e7 bc
       -0.010747948 -0.033094596 -0.02843237 -0.028300837
000340 6e 4e 28 bd 55 44 08 3d c6 0f 11 bb 9d 32 9a 3c
       -0.04109042 0.03326829 -0.0022134646 0.018822962
000350 8b 8f 9d bc fa 96 22 3c 48 80 8b bc b7 18 ce 3c
       -0.019233486 0.009923691 -0.017028943 0.02515827
000360 41 39 02 bd 5f a4 7a 3b ca 0c fb bc 2d 06 1e 3d
       -0.031792883 0.0038244945 -0.030645747 0.03858011
000370 a6 1c 55 3d 80 67 0b 3d 31 98 4a 3d 75 af e5 bc
       0.052029274 0.034034252 0.049461547 -0.028037766
000380 c8 3b 9a bc 41 0e a1 bc d2 48 f9 3c 0b a5 30 3d
       -0.018827334 -0.019660117 0.030430231 0.043126147
000390 4d 1d 77 bb 07 ac d4 bc c4 6d 85 3b 53 87 1a 3d
       -0.0037706674 -0.025960935 0.004071923 0.03772671
0003a0 52 27 68 3b 35 9d b0 bb e6 4c 17 3d a4 a6 0b 3d
       0.0035423827 -0.0053898343 0.03693857 0.034094468
0003b0 fd c7 c8 bb e8 e3 82 bc e8 6c aa ba 53 a7 01 3d
       -0.006127356 -0.015977815 -0.0013002427 0.031653713
0003c0 dd 9a dc bc 3c ff 4b b9 2f ff 89 3c 4e 71 26 3c
       -0.026929313 -0.00019454671 0.016845314 0.01015885
0003d0 0d 1e d5 3b 6b 24 f9 b9 f5 62 33 3c cc 3a d3 3b
       0.0065038265 -0.00047520114 0.010948886 0.006446218
0003e0 bb 84 77 3b a2 90 a9 3b 76 0a 3f ba 1f b0 7a bc
       0.0037768323 0.0051747123 -0.00072876306 -0.01530078
0003f0 78 46 a2 3c b6 6b c8 bc b9 39 01 3d d6 8c c7 bc
       0.019808993 -0.024465423 0.03154919 -0.024359148

features.7.bias f4 [64]
000000 08 21 e7 bc 50 9e 28 bc 91 2f c5 3a 39 bf f3 3a
       -0.028213993 -0.010291651 0.0015044083 0.0018596418
000010 2a b8 b0 3c d1 50 26 bd 28 99 5b 3c b2 26 ac bc
       0.021572191 -0.040604416 0.0134032145 -0.021014545
000020 31 3c 03 3d 0d 67 2f 3d 91 f6 d6 3c 38 8e 3e 3d
       0.032039825 0.042822886 0.026240619 0.04652235
000030 53 e1 46 3d c0 f2 95 bc c1 fa 21 3d 91 8a c0 3b
       0.04855473 -0.018304229 0.03954578 0.0058758934
000040 2b 9f 10 bb 5f ef 62 bc 4b 87 83 3a 14 38 21 bd
       -0.0022067528 -0.013851016 0.0010034827 -0.03936012
000050 ec f9 64 3c 8a d6 e9 bb c5 9d fe bb c6 b1 c8 3c
       0.013975602 -0.0071361708 -0.0077702724 0.024498831
000060 5d 9e 03 3d 50 5d 10 3d ff d6 1f bc c5 7f f5 3b
       0.03213345 0.03524524 -0.009755849 0.007492038
000070 82 69 64 bc da 53 17 3c 2b 63 43 3c 10 58 03 bd
       -0.013941171 0.0092363 0.011925499 -0.032066405
000080 11 fb 83 3b e5 4b 46 bc 6b b8 03 3d 75 b9 ed 3b
       0.004027732 -0.012103056 0.032158297 0.007254774
000090 37 10 e9 3c 9f f4 24 bc 43 73 fe bb be ff e4 bb
       0.028450115 -0.010068088 -0.007765205 -0.0069884947
0000a0 5c bc 2e 3d bd 1f 81 3c fa f2 6a 3a af 1d 13 bd
       0.042660102 0.015762204 0.0008962598 -0.03591698
0000b0 dd f6 01 3c 47 96 3c 3d 66 02 6a 3c a1 48 8c 3c
       0.007932392 0.046041753 0.014282798 0.017124476
0000c0 7a fc 23 bc 28 6b 14 bc 47 cd bd 3a b6 9b 0b 3d
       -0.010008926 -0.009058751 0.0014480733 0.034084044
0000d0 e0 56 06 bd 6a d2 13 3d 8c 64 02 bc 39 09 0c bd
       -0.032797694 0.03608934 -0.007958543 -0.034188483
0000e0 26 11 72 3b 03 c7 04 3d 09 1d 19 bc 09 e4 2e bb
       0.003693649 0.032416355 -0.009345301 -0.0026686213
0000f0 e2 94 a5 3c 31 02 2d 3d ce 62 17 3d 98 ad 56 bc
       0.020212594 0.042238418 0.036959462 -0.013102911

features.10.weight f4 [64, 64, 1, 1]
000000 00 24 cb bc 06 a2 9f 3a d7 2e a1 bb e9 fc c2 3c
       -0.02479744 0.0012179024 -0.004918914 0.023802238
000010 90 71 14 3b 71 f4 ec 98 a9 21 0c bb bb a0 b8 bd
       0.0022650696 -6.1251393e-24 -0.0021382368 -0.09015032
000020 2b c8 c0 bd 47 a3 3f bb 3d 4b c1 bd 39 ea 79 bd
       -0.09413179 -0.0029241608 -0.09438179 -0.061014388
000030 27 12 04 3d 76 86 ab bd c6 a4 f5 bb cf 2e 9a 3b
       0.032243874 -0.08375256 -0.007496449 0.004705287
000040 5b 23 87 bd 29 e2 c6 3c 9c 3a 03 3d 06 d7 a7 3c
       -0.065985404 0.024277763 0.032038316 0.020488273
000050 c0 5d ab bd 36 1f b1 3c fa 32 86 bd 8b b1 2f 3b
       -0.08367491 0.021621328 -0.06552692 0.0026808705
000060 14 47 9e bd 5e c3 84 3d ad 7a 2e 1e 7c b4 ca 3c
       -0.07728401 0.06482576 9.236852e-21 0.024744265
000070 22 3f 0d 3d 41 a1 5d 3d 20 6e 0f 3a ad fb a6 3d
       0.034484036 0.05410886 0.0005471427 0.08153472
000080 35 d1 be 3d 30 db 62 3c 49 da b3 3c 52 36 71 3c
       0.09317247 0.013846204 0.021954672 0.014722424
000090 14 27 ba 3d 2a 1c 21 3c 4e 87 2c bc b6 2d 9e 37
       0.09089485 0.009833375 -0.010530306 1.8856354e-05
0000a0 b3 84 07 3d 92 da 2c b3 2b 4d 3c bc bc 11 3f bd
       0.033085536 -4.024566e-08 -0.011493008 -0.046647772
0000b0 bc 39 30 bd 7b c3 c9 bc 2b a0 c7 bc c2 02 5e 3c
       -0.04302381 -0.024629345 -0.024368366 0.013550462
0000c0 aa d5 7f 3d 70 09 a4 3d 6d a2 ac bd c5 10 90 bd
       0.062459625 0.080096126 -0.08429418 -0.070344485
0000d0 2c 8e 04 3d 3b 4a d4 3c 7d ec 25 3d 3a 18 95 b9
       0.03236215 0.025914302 0.040508736 -0.00028437545
0000e0 52 32 31 3c a5 b8 88 bd 16 f8 01 39 48 e1 f2 bc
       0.01081522 -0.06675843 0.00012394818 -0.029648438
0000f0 80 74 70 3b d7 1f 87 3d c5 6c 59 bd 25 c0 92 bd
       0.0036690533 0.0659787 -0.053082246 -0.07165555
000100 86 9c dd bc 96 50 c7 ba fb 1d bb 3d 95 33 c7 3d
       -0.027052175 -0.0015206512 0.09136578 0.09726635
000110 21 30 a5 3c 51 c5 0f 3d 8a 9e 8d bc f8 e8 4a 3d
       0.020164551 0.035100285 -0.017287511 0.049538583
000120 0d 25 af bd 13 bf a4 bd be 91 9f 3b e6 db 02 bc
       -0.08551989 -0.08044257 0.0048696687 -0.007986998
000130 fa 68 df bd 57 ee 7e bb c4 de 8e 3d 4c 8c 3b bd
       -0.109086946 -0.0038899386 0.06976083 -0.045788094
000140 95 e7 dd 3d 49 85 cc 3d 49 24 1a 3d 78 c4 5d 3c
       0.108351864 0.099863596 0.03763226 0.013535611
000150 7e c2 9a 3d 09 dc 89 3d c7 ff a3 bd 6f d9 0c 3d
       0.07556628 0.067314215 -0.0800777 0.03438705
000160 d6 94 0d 39 31 1a ab 3d 2b 26 f6 bc dd 24 a2 bd
       0.00013502254 0.08354605 -0.030047497 -0.07917187
000170 10 70 4c bd 91 e8 87 3d d8 67 dc bb 52 d0 00 3a
       -0.04991156 0.066361554 -0.0067262463 0.00049138546
000180 86 90 33 3b cb 83 e4 bb 6c f5 b8 bd 68 b8 b5 3c
       0.0027399375 -0.0069737188 -0.090311855 0.022182658
000190 7b d7 cc 3d 9a b7 da 3d 53 18 37 bd 17 e9 3f 38
       0.10002037 0.106795505 -0.04470093 4.575503e-05
0001a0 a2 16 b8 3d d3 82 6b bb b4 8b 8d bd ec 4c 00 bd
       0.08988692 -0.0035936132 -0.06911412 -0.03132336
0001b0 cf 67 a5 3c 4a d1 e4 3d 70 4b 35 bc 68 03 1c bd
       0.020191101 0.11172731 -0.011065349 -0.038089186
0001c0 38 9c 84 bd b8 45 d0 3d 64 94 bf bd 07 83 e8 bd
       -0.06475109 0.10169548 -0.09354475 -0.113531165
0001d0 48 b5 8a bb 4c ae 9a bd 31 58 8d 3d 12 40 48 bd
       -0.004233036 -0.07552776 0.06901587 -0.048889227
0001e0 35 84 d4 bd eb d0 67 bd ae d0 23 bd 43 b0 26 bd
       -0.10376779 -0.056595724 -0.039993934 -0.04069544
0001f0 46 c4 c6 bc 15 2d 4c 3d ea ad 16 bb a4 08 24 bd
       -0.024263512 0.04984768 -0.0022991844 -0.040047303
000200 98 5a 0a 3d ec 70 1f bd dc 06 85 3d c0 01 d8 3b
       0.033777803 -0.03892605 0.06495449 0.0065920055
000210 ec d3 22 3d c7 df 33 bd d5 c0 0a bd d9 d4 b7 bd
       0.039752886 -0.043914583 -0.033875305 -0.08976144
000220 6f ab 9b bb 83 ad 22 3d 48 df 35 3d df 57 f7 bc
       -0.004750661 0.039716255 0.04440239 -0.030193267
000230 8e 7b b2 3c 73 f9 c2 3c 48 d7 ae bd 95 16 24 3d
       0.021787431 0.023800587 -0.085371554 0.0400606
000240 d8 b7 f3 bd c1 29 9d bc 7a f2 b4 3d 3a 9c f1 bd
       -0.119003 -0.019184949 0.08835311 -0.11797376
000250 4d 83 aa bd ac 33 81 3d 2c 2d db 3d b8 2e 13 3d
       -0.08325825 0.06308684 0.10701975 0.035933226
000260 f1 4e cd 3d ee b1 bb 3d 01 05 3f 3a 29 64 12 3d
       0.100248225 0.09164797 0.00072868174 0.03574005
000270 9b 7a fa bd 80 e4 85 3d a1 99 26 bd b9 c1 ed ba
       -0.122304164 0.065377235 -0.040673856 -0.0018139399
000280 86 b1 47 3d 32 6e 70 3d f1 39 1b 3b 28 c0 98 3c
       0.048753284 0.05869884 0.0023685659 0.018646315
000290 6d 98 e8 3d de 90 d8 bd 0c aa e8 bd 6c fb 92 bc
       0.11357198 -0.10574506 -0.11360559 -0.017942153
0002a0 2f 02 cf 3d af b5 72 3d 3c 05 60 b8 77 f6 65 bd
       0.10107838 0.0592553 -5.3410637e-05 -0.05614325
0002b0 23 62 12 bd 6f 59 de 3d 61 49 35 3d 04 3f 6c 3c
       -0.03573812 0.10856902 0.044259433 0.014419321
0002c0 a3 4c b1 bd a4 19 14 3c 14 b3 9c bc 52 a7 91 3d
       -0.086571954 0.009039316 -0.01912836 0.07111992
0002d0 4f 24 50 3d 1c 06 d6 3d 33 84 df b9 88 99 2d bd
       0.050815877 0.10450384 -0.0004263237 -0.042382747
0002e0 ed 2c aa bd 87 1c ef bd d4 8d 44 bc a9 61 b3 bb
       -0.0830935 -0.11675363 -0.011996705 -0.0054742885
0002f0 05 9a 21 3a 94 6b f3 bc 5c e7 26 bd 00 bb b8 bc
       0.00061646133 -0.029714383 -0.040747985 -0.022550106
000300 b0 82 5e bd 24 e2 c8 3c 61 27 33 3d 59 f7 86 3d
       -0.054323852 0.024521895 0.043738727 0.065901466
000310 24 eb 9c 3c 7c 7e 1b 3c 64 29 44 bd 20 cc de 3d
       0.019155093 0.009490605 -0.047891036 0.108787775
000320 76 ff 8f 3b 03 c1 cf 3b af f7 a4 bb d5 d2 d6 bd
       0.004394467 0.0063401475 -0.005034409 -0.10489432
000330 c4 aa 2d 3d 91 63 89 bd 16 93 29 bc ce 1e c5 bc
       0.042399183 -0.06708444 -0.010350009 -0.02406254
000340 44 84 b9 bd 21 ca 73 3d ab c7 81 3d 6a 4d 85 bd
       -0.09058431 0.059518937 0.06336912 -0.06508906
000350 b2 f7 e8 bb ca 8b 71 3d 0d c3 95 bd e2 33 e2 3b
       -0.0071096057 0.058971204 -0.073125936 0.0069031576
000360 51 a7 37 ba 78 dd b5 3c 79 b1 da ba 13 3f 3b bc
       -0.0007005828 0.022200331 -0.0016684971 -0.011428612
000370 ef 1b 61 3d be 12 f5 3c 99 f4 3f 93 84 d6 ba 3d
       0.05495828 0.029916164 -2.4228185e-27 0.09122947
000380 b6 c3 ac 3d c2 ab b7 bc 97 06 83 bd 23 1a 16 ba
       0.084357664 -0.022420768 -0.06397741 -0.00057259406
000390 94 ed a4 bd 34 0c 85 3d 7c 2e 00 3b 2d 99 31 3c
       -0.08053127 0.06496468 0.0019558957 0.010839743
0003a0 2e 44 d2 3d f2 45 f4 bc 53 f6 66 12 cd 6e 70 bd
       0.102669105 -0.029818509 7.287882e-28 -0.058699418
0003b0 49 30 82 3b 66 df dc bc 00 8f 26 3b 8c 1e 91 3c
       0.003973041 -0.026961993 0.0025414824 0.017714761
0003c0 1a 2f d5 3c 5c d7 f1 3b be 95 b1 bd ba 62 2f 3d
       0.026023436 0.007380409 -0.08671139 0.042818762
0003d0 12 ee f9 3c ae 4c 05 3b 8c c5 5e 3d c3 a7 80 bd
       0.030509029 0.0020339894 0.054387614 -0.06281998
0003e0 c9 a8 04 3d 02 29 df bc 56 ee a0 bd de 1b 4b bd
       0.03238753 -0.027241234 -0.07857959 -0.049587123
0003f0 d1 66 20 3d 0b df 13 bd 88 6b 87 3b d1 bd 2f 3d
       0.039160553 -0.036101382 0.004132692 0.042905632

features.10.bias f4 [64]
000000 fc 59 2c bd b4 9b 92 bd e0 50 86 3d 71 c1 b1 bd
       -0.042078003 -0.07158604 0.065583944 -0.08679474
000010 43 3c 9b bd ee 80 6f 3d 9f f3 cd 3d 44 4d 5d bd
       -0.075798534 0.058472566 0.10056233 -0.054028764
000020 0b 50 2b bd fa dd 8d 3d 0e 2a 5a bd 30 47 df 3c
       -0.04182438 0.06927104 -0.053262763 0.027255625
000030 86 54 f2 bc e4 67 6d bc a3 5f df 3c 3e 84 8c 3d
       -0.02958132 -0.0144901015 0.027267283 0.06861161
000040 83 d5 35 bc 5a bd c8 3d 90 8a 63 bb bb d9 d8 bd
       -0.011098268 0.09801741 -0.003472004 -0.10588404
000050 40 08 99 bd ac 25 5e bd 0b 91 ab bb 08 7a ef bd
       -0.07472277 -0.054235145 -0.0052357963 -0.116931975
000060 3a 02 8f bd 16 5e 30 3d 3c 9f 4a bd 84 c1 c6 3d
       -0.069828466 0.043058477 -0.049468264 0.09704879
000070 f4 f6 83 bd 74 7e 0d 3d f0 74 11 3d d2 cb bc bd
       -0.06443587 0.034544423 0.03551191 -0.09218563
000080 92 76 d5 3d 12 f1 bb bd 9b b8 2e bd cb 5d 00 3e
       0.10423006 -0.0917684 -0.042656522 0.12535779
000090 23 a9 2d bb df ba cc 3d 17 41 a8 3d 57 50 99 bd
       -0.0026498518 0.0999658 0.0821554 -0.07486027
0000a0 0f 10 85 3c d2 9c 0a bb 40 20 a2 ba 80 61 70 3d
       0.016243009 -0.00211506 -0.001236923 0.058686733
0000b0 45 a3 f7 3d c6 59 d5 3d 35 82 00 3d d1 d1 b0 3d
       0.12091688 0.104175135 0.031374175 0.08633769
0000c0 79 d8 04 bd 7b 51 b6 3c 6d 1c 60 bd 96 89 34 bd
       -0.032433007 0.02225565 -0.05471461 -0.044076525
0000d0 fe 65 9c 3d 31 49 ac 3c fd da 22 bd 3b 58 a9 3d
       0.07636641 0.021030994 -0.039759625 0.08268782
0000e0 40 61 bc 3b bc 88 24 3d 5d 26 8a 3d ed 7f da bd
       0.005748898 0.040169463 0.067455985 -0.10668931
0000f0 73 cb 68 3c 51 9f 67 bd 5e 17 ff bc 7a 10 cb 3d
       0.014208662 -0.05654842 -0.031139072 0.09915252

classifier.0.weight f4 [3, 64]
000000 3c 8a 7e 3c c8 80 d4 3d 1c 3e a5 3d c7 6d 93 bc
       0.015535887 0.103761256 0.08068487 -0.017996682
000010 f2 f4 8c bd 47 52 1e 3d 70 6c d8 3d a3 4e 5c bd
       -0.06882657 0.038652685 0.10567558 -0.05378593
000020 91 16 cd 3c c8 73 a6 bd 2f c9 c5 3d e4 04 36 bd
       0.025035175 -0.08127552 0.09657513 -0.044438258
000030 76 7e fa bd b7 06 c9 3d 20 2c e0 bd 24 55 dc bd
       -0.12231152 0.09815734 -0.10945916 -0.10758427
000040 b6 1c 02 3d 51 c3 a4 bc 25 eb 01 be f4 fc 6a bd
       0.031765662 -0.020112665 -0.12687357 -0.05737014
000050 ef 98 5f bd 4e ae 76 3c ef cb d4 3d 63 27 6b bd
       -0.05458921 0.015056206 0.1039046 -0.05741061
000060 c9 84 46 3d f4 e6 46 bd 50 81 1a 3b 9f a9 df bd
       0.048466478 -0.048560098 0.0023575611 -0.109210245
000070 2b 1f 3a bd fb 18 21 bd 71 6c e0 bd 02 11 1f 3d
       -0.04543988 -0.039330464 -0.109581836 0.03883458
000080 9a 13 3c 3d 39 a5 c4 3d 97 eb 84 3d 2f f8 00 be
       0.04591713 0.09601826 0.06490248 -0.12594675
000090 99 fa ab bc 9d b2 89 bd b9 ac fa 3c 9d 75 14 bd
       -0.020993518 -0.06723521 0.030599939 -0.036244977
0000a0 17 ce dc bd 6b bd 61 3c 8a ff 32 91 4f 22 89 3d
       -0.10781496 0.013778071 -1.4120468e-28 0.06695997
0000b0 bb c6 ab ba be 3a 9e bd 73 01 fa 3d b1 3e c4 3c
       -0.0013105491 -0.07726048 0.12207308 0.023955675
0000c0 5f 00 fc 3d 30 d4 c1 3d 56 18 e8 bd 4d e8 96 3d
       0.12304758 0.094643 -0.11332767 0.073685266
0000d0 86 14 db bd f6 c7 95 3d 84 b5 7b 39 ff 7b 86 bc
       -0.10697274 0.0731353 0.00024004845 -0.016416548
0000e0 27 ed 07 bd fe 9e 9d 3d ce 8f a7 3d 08 5f 02 bc
       -0.03318515 0.07696341 0.081817254 -0.0079572275
0000f0 67 13 d8 3b e7 17 51 3d f5 e1 64 3d 77 88 36 bd
       0.00659411 0.051048186 0.055879552 -0.044563737
000100 d2 b3 41 3d 7b 83 d1 3b d8 a0 cc 3d 5e 3b b3 3c
       0.04729063 0.0063938475 0.09991616 0.021878894
000110 a7 85 25 bc 15 95 cf 3c 7e c9 db bd 09 b1 c6 bd
       -0.010102666 0.025339643 -0.10731791 -0.097017355
000120 61 08 e5 3d 71 9e 44 3d 48 f8 9b bc 6e 5c 02 bc
       0.11183239 0.048002664 -0.019039288 -0.007956607
000130 1e 58 0d 3d 28 22 9c bc d0 fc 2a 3d 4d 19 1d 3d
       0.034507863 -0.019059256 0.041745007 0.038354207
000140 b1 fd de 3c 9f 50 9f bd 41 b4 f3 3d 90 2a 2d bd
       0.027220579 -0.07779049 0.11899615 -0.04227692
000150 3f bb ec bd e4 48 f1 3c 67 1e b6 3d 51 7a 63 bc
       -0.11559152 0.029453702 0.088925175 -0.013884143
000160 6d 44 1c bd 31 2a ba 3d 3a e1 c2 bd 0a b0 b4 bd
       -0.038151193 0.090900786 -0.09515615 -0.08822639
000170 91 08 2c bd 72 42 5f bd c6 98 7c bb 96 33 d5 bd
       -0.042000357 -0.054506727 -0.0038543209 -0.1041023
000180 16 a0 59 3d cc 42 a0 bd e0 d4 9a bd 23 41 9b bc
       0.053131185 -0.078252405 -0.07560134 -0.018951958
000190 ea 67 e6 bd 2a 9d 9d bd b6 86 a8 bb 16 22 98 3d
       -0.11250289 -0.07695992 -0.005143012 0.074283764
0001a0 20 96 8f 3d eb 45 3e bd c1 6f 17 ba 04 e3 d2 bd
       0.07011056 -0.046453398 -0.00057768455 -0.10297206
0001b0 f6 1c d8 3d bc b9 c0 bd 9e 10 df 3d dc 4c 1f 3c
       0.10552399 -0.09410426 0.10891841 0.009722915
0001c0 17 81 d3 bc d7 8c ea bc 1e f3 7b 3d 8f f9 97 3d
       -0.02581839 -0.02863161 0.06151115 0.074206464
0001d0 5c d6 9e bd 04 25 e3 bd 55 9c 50 bd f6 76 88 bd
       -0.077557296 -0.110910445 -0.05093034 -0.06663315
0001e0 e8 ad 75 bc e4 7f ec bd 05 c6 32 bd 66 53 b4 3d
       -0.014995076 -0.11547831 -0.043645877 0.088049695
0001f0 7e b0 76 bd 5a 36 12 3d ff ac b0 3c 6b 34 ee 3d
       -0.06022691 0.035696365 0.021566866 0.11631092
000200 bd 99 c0 bd 3d ab ba 3d b2 08 a6 3d 4f 37 18 3d
       -0.09404323 0.09114692 0.08107127 0.03716212
000210 ae d8 9c 3c f6 06 f2 bd d9 95 d4 3d 87 de f4 3d
       0.01914629 -0.11817734 0.10380144 0.11956506
000220 bd 2c ba 3a 34 03 b8 3c f5 5f 7b 3d f1 ea 03 be
       0.0014204007 0.022462465 0.06137081 -0.12882592
000230 9a d4 c6 3c dd a0 92 bd 7b f6 e5 bd 12 00 e2 3d
       0.024271298 -0.071595885 -0.11228653 0.1103517
000240 e4 85 c2 bd cf a5 82 bd 44 c1 a4 3d b8 de ba 3d
       -0.09498194 -0.06379282 0.08044675 0.091245115
000250 68 a2 26 bd cb 10 8d bc c1 9f cd 3c f6 66 c8 3d
       -0.040682226 -0.017219922 0.02510059 0.09785263
000260 9b df 44 bd 06 86 81 3d ea 10 eb 3a d6 da af 3a
       -0.04806481 0.06324391 0.0017934118 0.0013416659
000270 62 72 a8 3d 10 b3 c8 3d cb 67 a3 3d 94 98 2a 3d
       0.08224942 0.097997785 0.07978781 0.041649416
000280 3a 46 e8 3d ad 19 6a 3b 35 73 06 be 10 af 76 3d
       0.1134152 0.003572087 -0.13129885 0.060225546
000290 57 0a 84 bd 09 e0 bf 3d 4b b6 f6 bd 32 e8 16 bc
       -0.06447285 0.09368903 -0.120464884 -0.009210633
0002a0 f0 3c 43 3d 6c fe 09 bd 9b 50 9d ae af 09 5f bd
       0.047665536 -0.0336899 -7.153852e-11 -0.054452594
0002b0 f7 dc ca 3d 70 00 21 bd 94 c9 d5 bc ce d2 94 3d
       0.09905427 -0.039307058 -0.026097097 0.0726677
0002c0 f2 83 25 3d f0 18 04 be c4 07 57 3d 07 aa c0 bd
       0.040409036 -0.12900138 0.05249764 -0.0940743
0002d0 d1 0b 86 bc c8 d7 cf 3d 4f 65 32 bb 1e 1e f4 3d
       -0.016363056 0.10148579 -0.002722103 0.11919807
0002e0 e8 33 0b 3c 35 cc 2a bd c9 90 4e 3c 28 3c 04 bc
       0.008496262 -0.041698653 0.012607762 -0.008070983
0002f0 81 72 b7 3d 37 73 ff 3c 41 45 f6 3d 3f 58 73 3c
       0.08957387 0.031182868 0.12024928 0.0148525825

classifier.0.bias f4 [3]
000000 0f be 81 3c 6d a6 de 3d ad 72 aa bc
       0.015837697 0.10871587 -0.020806635
