benchmark_model_data/18000_image_experiment_50_epochs/benchmark_experiment_increased_data/experience_1/model_experience_1.pth (torch, 854722 bytes, 36 tensors)

features.0.weight f4 [32, 3, 3, 3]
000000 d2 bc 6b bc 30 eb 79 3d 53 e4 36 3e 62 87 a1 ba
       -0.01438828 0.061015308 0.17860536 -0.0012323672
000010 4b 32 25 3e 65 86 3e 3e 9f 42 2a 3d 37 4e 04 bd
       0.16132466 0.18605955 0.04156744 -0.032301154
000020 da ec 15 bc c1 b7 3a be cd a9 4a 3e 28 ca 06 3e
       -0.009150708 -0.18234159 0.19791336 0.13163054
000030 9a 6d fd bd 8c 73 21 bb 76 e5 dd bd 3a 94 39 be
       -0.123744205 -0.0024635522 -0.10834782 -0.1812295
000040 1a b2 c9 3d d4 f4 c0 3d 87 42 c2 bd a7 af 0d 3e
       0.09848423 0.09421697 -0.09485345 0.13836537
000050 67 12 f5 3c e0 c3 d6 bd 78 05 ba 3c cf e2 3d 3e
       0.029916001 -0.10486579 0.022707686 0.18543552
000060 da d6 31 3e 93 9f 21 be fa 6e b2 3d 70 0e 36 be
       0.17367116 -0.15783529 0.08712573 -0.17778945
000070 cc ba 15 3e d6 9d 12 be 29 c4 f2 3c 38 08 04 be
       0.14622039 -0.14318022 0.029634552 -0.1289376
000080 e3 ef cc bc 1b bd e8 bd e8 29 25 be 0e ba 41 bd
       -0.02501673 -0.11364194 -0.16129267 -0.047296576
000090 32 af b7 3d c0 f4 03 be e0 93 95 bc dc c1 fe bc
       0.08968963 -0.12886333 -0.018258989 -0.031098299
0000a0 ce c5 3b 3e 13 6a d8 bd 5a d2 d5 bd 16 c7 36 be
       0.18337175 -0.10567107 -0.10440512 -0.17849383
0000b0 25 d4 f5 bd df 31 83 3d 2b 70 38 3e 4a e4 ed bd
       -0.12003354 0.064059965 0.18011539 -0.11615808
0000c0 58 41 c2 bc 94 f3 5a bd 76 d3 c4 bd 53 53 91 bc
       -0.023712799 -0.05345495 -0.096106455 -0.017739927
0000d0 0e e9 9b bd d3 dc a5 3d 46 00 a6 3d 09 d2 49 3c
       -0.07612811 0.080987595 0.08105521 0.012318143
0000e0 14 a3 25 be 6b fd e6 3d 7c 2f 0a bd 78 67 aa bc
       -0.1617549 0.112788044 -0.03373669 -0.02080129
0000f0 1c 15 82 3d 10 7e 1d 3e 51 12 90 3c d7 9c eb ba
       0.063516825 0.1538012 0.017586859 -0.0017975819
000100 57 a3 a5 3d 07 fc 15 bd 09 b7 ec 3c 4d da 74 bd
       0.08087795 -0.036617305 0.028895872 -0.0597785
000110 44 90 8d 3c a1 76 1f bd d5 a0 e8 bd 44 13 39 3e
       0.017280705 -0.038931493 -0.11358801 0.18073756
000120 4b 4e 34 be 1a 48 20 be 71 b4 25 3e 20 bb b1 3d
       -0.17607991 -0.15652505 0.16182114 0.086782694
000130 d1 b8 11 be 90 2f 4a 3e 0b 4d ce 3d 21 89 32 3e
       -0.14230658 0.19744706 0.100732885 0.17435123
000140 5a b3 26 3d aa 35 27 be de c6 3b 3c 3e 21 f9 bd
       0.040698387 -0.16329065 0.011460988 -0.121645436
000150 ea 57 9f 3d 4f 53 14 be 6a 2a 40 3e 2d 8e e9 3c
       0.0778044 -0.14484905 0.1876618 0.028510178
000160 e8 e3 e1 3d cb 22 85 3c eb 24 2e bd fc fd 0d 3e
       0.11029798 0.016251942 -0.042515676 0.13866419
000170 b8 38 24 bd e0 b7 b3 3d 05 6e 28 bd 0e 30 63 3d
       -0.040093154 0.08775306 -0.041120548 0.05546575
000180 46 96 32 3d d0 45 0c 3e 92 84 90 3d 26 93 35 be
       0.043600343 0.13698506 0.07056536 -0.17731914
000190 66 2c 2d be 0c b1 a0 3d 84 86 6d 3b 62 af 36 3e
       -0.16911468 0.07846269 0.0036243508 0.1784034
0001a0 b4 18 b1 3b aa 6b 46 3d aa 77 d0 bd 85 d2 3d 3e
       0.005404556 0.04844252 -0.10179074 0.18537338
0001b0 f7 50 fc 3c 9b e9 59 3d 24 97 27 3e 2e fb 55 bc
       0.030800326 0.0532013 0.1636625 -0.013060374
0001c0 81 cb 1d 3e 8e 55 af 38 8f 8d ba 3d 30 68 ba 3d
       0.15409662 8.360586e-05 0.091090314 0.091019034
0001d0 2a 6b 83 bd 08 0c e7 3d 4b 83 cb bc ff 99 4f bd
       -0.06416924 0.11281592 -0.024842879 -0.05068397
0001e0 6a b1 81 bc 65 ab 37 3e 67 5d 2b bd 09 01 db bd
       -0.015831668 0.17936476 -0.041837122 -0.10693557
0001f0 9e 92 2e 3e 37 62 88 bc ce 70 6a 3d e6 73 50 3d
       0.17048118 -0.016648395 0.057236485 0.05089178
000200 5b c4 bd 3c 79 d6 bb 3d 02 f8 31 be 27 ea 19 3d
       0.023164919 0.09171767 -0.17379764 0.03757682
000210 69 40 ba 3d c5 21 34 be 43 3c 11 be 99 e7 32 be
       0.090943165 -0.17591007 -0.14183144 -0.1747116
000220 ec 2d 2b be b1 6d 15 bd b0 02 46 3e 38 8c 29 bd
       -0.16716737 -0.036481563 0.19336963 -0.04139349
000230 69 9b e4 3d 6b 66 96 3c 3b 01 1b bd 84 3f 66 bd
       0.11162455 0.018359384 -0.03784297 -0.056212917
000240 f7 92 02 be f8 4e 91 3c 5d 27 7a 3c 09 5b 1a bd
       -0.12751375 0.01773785 0.015268174 -0.037684474
000250 17 c7 29 3e 9b 85 0e 3e 5b a9 06 3e 2b 3d 0f be
       0.16579853 0.13918154 0.13150541 -0.13988177
000260 96 b7 31 3e f2 a1 9d 3c 26 5c af 3d 23 5c 8a bd
       0.17355189 0.01924226 0.08562498 -0.06755855
000270 a2 ea 1c 3e 3b 77 16 be 4c c0 47 3e ed bc a4 3c
       0.1532388 -0.1469392 0.19506949 0.020109618
000280 82 e5 81 3c 3c b5 39 be 7e 32 a2 3c fd fc 43 be
       0.015856508 -0.18135542 0.019799467 -0.19139476
000290 72 05 33 3e 13 d4 d9 3d 42 c6 2b 3e 4e 04 71 3d
       0.17482546 0.10636153 0.16774848 0.058841996
0002a0 83 03 ce 3b 42 04 e9 3b aa a4 0d 3e 49 55 93 bd
       0.0062870397 0.0071111033 0.13832346 -0.07194001
0002b0 d3 46 c6 3d 71 51 43 be 59 6a c7 3c e4 4e 37 be
       0.096814774 -0.19074036 0.024342703 -0.17901188
0002c0 3b fa 13 be 02 fb 8d bd 87 17 db 3d 07 20 20 be
       -0.14450924 -0.069326416 0.10697847 -0.15637217
0002d0 c2 bd ef 3d 81 92 87 3c 87 54 74 bd d8 cf 13 be
       0.11706115 0.01654935 -0.059650924 -0.14434755
0002e0 e0 03 30 be c3 a0 3b bd 6d 6e ba 3d 6c 28 5e 3d
       -0.17188978 -0.04580761 0.09103093 0.054237768
0002f0 d5 90 48 bd 3d 1b 21 be 90 20 17 be 40 e6 19 3e
       -0.048966248 -0.15733047 -0.14758515 0.1502924
000300 7b ae 04 3e 92 a5 d9 bc 7a 9e b6 3b 78 c5 80 bd
       0.12957184 -0.026568208 0.005573091 -0.06287664
000310 e5 88 cc 3d 1f 8c 90 bd fa 79 47 3e 53 78 98 3d
       0.09987048 -0.07057976 0.19480124 0.07444825
000320 7a c7 f0 3c 4c bf 0f 3d 29 55 78 bd c3 52 3c be
       0.029391993 0.035094544 -0.06062809 -0.18390946
000330 c0 e9 2d bd d9 f1 39 be d0 59 37 bd 59 ce d3 bd
       -0.04245925 -0.18158664 -0.044763386 -0.10342092
000340 39 2e 42 be 89 fc 2a be 76 d3 94 3d 83 8c 21 be
       -0.18962945 -0.16697897 0.072668955 -0.15776257
000350 77 db 16 be 60 ad c7 bc 56 7f c0 3d fa 09 3c bd
       -0.14732157 -0.024374664 0.093992874 -0.045907952
000360 98 b3 f8 bd 92 4c 0c be ed 24 48 3e 24 98 c8 bb
       -0.1214363 -0.13701084 0.19545336 -0.006121652
000370 c6 38 42 3e f1 9b 12 be 67 1b 3c be 84 04 4b 3e
       0.1896697 -0.143173 -0.18369828 0.19825941
000380 45 73 c3 3d 83 4e 0d 3d 31 45 07 3e 11 3d 9c bd
       0.0954347 0.034498703 0.13209988 -0.07628835
000390 b0 d5 00 3d 71 18 42 bd b6 46 35 3e 1b dc 0f 3e
       0.03145379 -0.04738659 0.17702755 0.14048807
0003a0 2b 33 b9 bd 40 94 b3 3d 11 cd aa 3d e9 01 14 bd
       -0.09042963 0.08768511 0.083398946 -0.036134634
0003b0 de be c1 bc b6 6f 91 3d c5 b2 3c 3e c7 7d 2c 3e
       -0.023650583 0.07101385 0.1842757 0.16844855
0003c0 8d 8c 0b bd 63 98 6f bd 13 f1 38 3e 35 35 b1 3c
       -0.034069587 -0.058494937 0.18060713 0.021631816
0003d0 54 09 1e 3e 6f 39 c1 3d df 24 8e bb 8e 74 ee 3a
       0.15433246 0.09434783 -0.0043378915 0.0018192695
0003e0 7c 14 39 be 64 be 57 bc 67 03 1d bd db 6a 2d be
       -0.1807422 -0.013167951 -0.038333323 -0.16935293
0003f0 aa 47 08 3b e2 ed 09 be 07 d1 82 bc e5 87 b4 3c
       0.0020794668 -0.13469651 -0.015968813 0.022037456

features.0.bias f4 [32]
000000 6c 08 30 be 11 d3 12 be 26 8f 4f 3d 5f 41 86 bd
       -0.17190713 -0.14338328 0.050673626 -0.06555437
000010 a1 b4 a8 bd 21 bd 1f be 46 3d 2f be 2b be e6 3d
       -0.08237577 -0.1559949 -0.17113218 0.112667404
000020 2e 0c 70 3d 34 8f 72 3d 21 26 ec bd fb 09 9d 3b
       0.058605365 0.0592186 -0.1153071 0.0047924495
000030 b2 3f 24 3e 26 c0 35 3d 31 52 05 be 46 83 e6 bc
       0.16039923 0.0443727 -0.13019635 -0.028138768
000040 e6 c9 d9 bd cc 11 30 3e 41 28 6e 3d ce 06 2f 3d
       -0.10634212 0.17194289 0.058143858 0.0427311
000050 58 aa aa bd b7 63 9c bd 95 ea 32 bd 39 05 07 be
       -0.08333272 -0.076362066 -0.043680746 -0.13185586
000060 d4 5a ac bd 31 49 78 bd b5 a0 57 3c 70 52 0b 3e
       -0.084157616 -0.060616676 0.013160874 0.13605666
000070 96 48 10 be 63 96 2c 3e 20 34 99 3d 7a 98 a5 bd
       -0.1409019 0.16854243 0.07480645 -0.08085723

features.2.weight f4 [32, 32, 3, 3]
000000 4a a5 89 bb 86 8b 14 3b 52 d5 a0 bc 64 04 11 3d
       -0.004200612 0.002266617 -0.019632969 0.035404578
000010 3c c4 3a 3d 8a 5b b6 bc 5c 08 08 3c 95 80 cf bc
       0.0455973 -0.022260446 0.008302774 -0.025329867
000020 71 0f 6c 3d bd b9 3e 3d ca 28 73 bd 38 3a b9 3c
       0.057631914 0.046563853 -0.05936507 0.022610769
000030 79 4a 9f bc 59 3a 18 bd 1e e0 bf 3b 2a 0b 0c bd
       -0.019444691 -0.03716502 0.0058555743 -0.034190334
000040 75 64 00 3d 91 6f 67 bd 8e 49 bb 3c 36 7b 82 3d
       0.031345803 -0.056502882 0.022862222 0.06371157
000050 81 ca 3b bd eb 48 d6 bc e2 8a 33 3d ea 8f 07 3d
       -0.04584742 -0.026157817 0.04383362 0.03309623
000060 bd a9 08 3c 3f 0f eb bb 4a eb 74 bc f1 6a 81 bc
       0.00834125 -0.0071734483 -0.014948675 -0.015798064
000070 b5 f9 13 bd e8 ee 7f 3d af 33 20 3d 89 b0 b7 3c
       -0.03612681 0.062483698 0.03911179 0.022423046
000080 96 28 3a 3d b7 d0 ff bb 12 8b 8e 3b 80 d2 65 3c
       0.045448862 -0.007806863 0.0043500746 0.014027238
000090 8a 8d 97 bc 38 f8 3a bd 63 90 f4 3c 31 77 75 3c
       -0.018500108 -0.045646876 0.029854005 0.014982031
0000a0 d0 d2 43 3d b7 45 24 3d 58 d2 b0 bc d8 bb 19 3d
       0.04780847 0.040105548 -0.021584675 0.037532657
0000b0 ba b9 2b bd d9 80 46 bd 6e bd ae bc 0a f2 d6 3c
       -0.04192517 -0.048462722 -0.021330561 0.02623846
0000c0 4f c9 78 3d 7b 67 6d 3c c5 8a c4 bc b4 fd 0f bd
       0.060738858 0.014490004 -0.023991952 -0.03515406
0000d0 6c 7f 3c 3d 0e 64 9f bc e8 64 ac bc 38 52 3c bd
       0.046019956 -0.01945689 -0.02104421 -0.045976847
0000e0 b0 fb 51 3c 69 54 8c 3c 17 f3 1e bd 19 4c 4c bd
       0.012816355 0.017130094 -0.038806047 -0.04987726
0000f0 32 c3 49 3d 90 4a bc bc b9 f3 26 3d bb 74 01 bd
       0.04925842 -0.022984773 0.040759776 -0.031605463
000100 f1 d8 f6 3c 48 59 50 3b 08 6a 86 3b 5d e3 35 bd
       0.030132743 0.0031791497 0.0041019954 -0.044406284
000110 1e 77 cf bc ee 56 34 bd 88 41 a9 bb 44 88 5d 3b
       -0.025325354 -0.044028215 -0.0051652826 0.0033803144
000120 e8 a2 27 3d e0 4a bd bc 68 80 3a 3d e3 87 b9 3c
       0.040926844 -0.023106992 0.045532614 0.022647804
000130 00 5a 8a bb 19 ea 74 3d d9 40 5b 3c 0f 86 e8 3c
       -0.0042221546 0.059793565 0.01338216 0.028384237
000140 89 81 4b 3d 2f 9a 83 3c 84 ac a0 3c 55 fc 45 bd
       0.04968408 0.016064731 0.019613512 -0.048336346
000150 24 c1 50 3d 68 2d 1e bb 8f a9 b7 3c 4a 80 42 bc
       0.050965443 -0.002413595 0.022419719 -0.011871407
000160 c4 ef 41 bd 16 c5 5b bd 5f 73 24 bc 8d 2b cf bc
       -0.0473478 -0.053654753 -0.010037272 -0.025289321
000170 fb 21 4b 3d ba 17 d0 3c 60 b8 8d 3c 7d 59 a3 bc
       0.049592953 0.025401939 0.01729983 -0.019940132
000180 87 2f e9 bc f8 a0 17 3d 41 91 78 3d c1 2d 64 bc
       -0.028465046 0.037018746 0.0606854 -0.013926924
000190 f9 e6 65 bd c1 de fb 3c 22 37 39 bd c4 c2 b0 bc
       -0.056128476 0.030745866 -0.045218594 -0.021577246
0001a0 ee 8f 22 3d 08 3b 87 3c d0 e6 65 3c 46 1f 74 bc
       0.039688043 0.01650764 0.014032081 -0.014900034
0001b0 7a 85 55 bd 21 46 ec bc 86 9f 33 bd 92 e5 45 3d
       -0.052129246 -0.028842034 -0.043853305 0.04831464
0001c0 32 65 25 bc 16 7b f8 bc a1 61 27 bd ae fb 3f 3d
       -0.010094928 -0.03033213 -0.04086459 0.04687088
0001d0 2c df 7b 3c 21 02 e9 bc 76 35 67 bd 12 85 47 bd
       0.015373033 -0.028443398 -0.05644747 -0.04871089
0001e0 2e f0 92 3c 07 7f ca bc af bf 47 3c a1 38 f6 ba
       0.017936792 -0.024718774 0.012191697 -0.0018785187
0001f0 ce f1 3f 3d c7 88 c0 3b 7e 67 85 bb a8 b1 82 3d
       0.046861462 0.00587568 -0.004071175 0.063815415
000200 ac db 4b 3d 75 fd 5e 3d e6 c2 7f bc 9d 0c 7b 3d
       0.049770042 0.054440934 -0.015610432 0.061291326
000210 03 d9 7e 3d 20 fb 48 bd 1f fc 83 bb 4c 5f 67 bd
       0.062218677 -0.049067616 -0.004027858 -0.056487367
000220 b0 04 b9 bc 03 1d 04 bd a9 bb 69 bc 03 39 d1 bc
       -0.022585243 -0.03225423 -0.014265933 -0.02553988
000230 ae b6 05 bd b4 c8 07 3d 06 aa b1 bb cb 4d 49 3d
       -0.03264492 0.03315039 -0.0054218797 0.049146455
000240 45 b3 3f bc 5a 7e 6d 3b 8c 5b 67 3d 5c d7 6a 3d
       -0.011700456 0.0036238641 0.05648379 0.05733429
000250 be 08 46 3d 55 4f 01 bd 07 0d 07 3d 3e 5e ad bc
       0.04834818 -0.031569798 0.03297141 -0.021163102
000260 23 9a 8e bc fe 33 5a 3d 6b 77 d0 b9 91 b4 7e 3b
       -0.017407482 0.05327224 -0.00039761825 0.003886495
000270 5f 4d aa bc f2 b8 50 3d 4b 04 13 3d 62 81 1f bd
       -0.020788847 0.050957628 0.035892766 -0.03894175
000280 41 22 0e bd 25 29 9c bc 53 c2 56 bb 6c 53 ed 3c
       -0.034700636 -0.019062588 -0.0032769635 0.028970443
000290 ed 9a 21 3d 20 cd 6d 3d 2f aa d7 3c 63 4e cd bb
       0.03945439 0.05805695 0.026326267 -0.006265448
0002a0 d6 47 cb 3b f8 c6 5f 3d 10 1a 18 bb e8 9f ad 3b
       0.006203632 0.05463311 -0.0023208894 0.0052986033
0002b0 24 1b 34 3d 3b d7 16 3d 69 02 34 3d fd d7 85 3d
       0.043971196 0.036826354 0.04394761 0.06535337
0002c0 09 44 3a 3d 20 7d 87 3c 6f b4 2c bd 7f c9 0f bd
       0.04547504 0.016539156 -0.042164262 -0.03510427
0002d0 b1 98 5a 3d 3d 12 09 bd 7b 9b dc bb ce 93 24 3d
       0.053368274 -0.03346466 -0.006732402 0.04018002
0002e0 a5 1c e6 bb b0 13 38 bd 70 03 5a 3c cf 9c 66 3d
       -0.0070224577 -0.04494065 0.013306484 0.056301888
0002f0 79 f2 2d bc 22 9b 34 3d e8 8b 35 3d de be 23 bd
       -0.010616892 0.04409326 0.044322878 -0.039976947
000300 64 00 e6 bc ed 6f ff bc 91 95 45 ba 62 9e 00 3d
       -0.028076358 -0.0311813 -0.0007537241 0.031401046
000310 99 ba c8 3c d1 1c 29 b9 a1 e1 42 bc ba 4f da bc
       0.02450304 -0.00016127831 -0.011894614 -0.026649345
000320 e5 73 28 3d e6 7c 39 3d 1b 09 3b bd 26 58 15 3d
       0.04112615 0.045285128 -0.04566298 0.036461018
000330 ef 6d 10 bd d5 df d4 bc 5f dd 8b 3c 08 0f ef bc
       -0.03526109 -0.025985638 0.017073331 -0.029181972
000340 8e 50 3d 3c 98 ce 51 bd 64 7f 20 bc 13 cc 47 3b
       0.01155485 -0.051222414 -0.009795997 0.0030486628
000350 c4 fe b8 3c 16 6f 3e 3c 0c 2a 1b bc ce b6 30 3b
       0.02258242 0.011623165 -0.009470474 0.0026964429
000360 7d 08 e8 bc 23 a3 96 3b de dc 3f 3d 28 78 41 bd
       -0.02832436 0.004597084 0.046841495 -0.04723373
000370 e9 ea 3b 3d e7 77 3b bd 7c b6 02 bd 17 46 4a bc
       0.045878325 -0.045768645 -0.031912312 -0.012345812
000380 7f da 16 3d 88 ca 36 3d 15 a2 17 bd 20 6a c4 3c
       0.036829468 0.044626743 -0.037019808 0.023976386
000390 4c b9 10 bd d1 52 3c bc 68 10 1a bd 95 42 7e bb
       -0.035332963 -0.011494354 -0.037613302 -0.003879701
0003a0 87 cb ee 3c d4 41 17 bd 05 78 80 3b c2 60 63 3d
       0.029149784 -0.036928013 0.0039205574 0.055512197
0003b0 88 6a 44 bc 0b 62 c0 3c 79 5b 0e bd 29 5c c8 bc
       -0.01198829 0.02348425 -0.034755204 -0.024458008
0003c0 4c 4f f5 bb 65 fb b4 bc b2 be 5b bd 21 08 00 3d
       -0.0074862596 -0.02209253 -0.053648658 0.031257752
0003d0 3d d5 5d bc 1a 48 12 bd 88 d1 5e 3d 6a 7f 20 3d
       -0.0135396095 -0.035713293 0.054399043 0.03918401
0003e0 9c d6 81 3d 9e 14 e3 bc 34 8b 84 3c 5f 57 58 3d
       0.063397616 -0.027719792 0.016179658 0.0528177
0003f0 04 c4 06 3d 50 38 d5 bc 73 f1 bf bb 51 18 0f bd
       0.03290178 -0.026027828 -0.0058576404 -0.0349353

features.2.bias f4 [32]
000000 89 34 c1 bc 32 e8 25 3c 9a 9e a0 3c 7b 31 48 bd
       -0.023584621 0.01012616 0.019606877 -0.048875313
000010 12 be 47 3c 62 d0 92 3c b9 63 9b bc a9 45 44 bd
       0.012191312 0.01792163 -0.01896845 -0.047917996
000020 f2 59 37 3d 11 61 e3 3c bd 7f 20 bd d3 21 7a 3c
       0.044763513 0.027756246 -0.03918432 0.015266853
000030 43 15 85 3d 42 50 e5 bc dd 16 cd bc 49 7a ef bc
       0.06498196 -0.027992371 -0.025035316 -0.029233115
000040 34 5a aa 3c f8 8e 42 bc f5 cb de 3c 06 2f 2a 3d
       0.020794965 -0.011874907 0.027196864 0.04154875
000050 cc 31 d2 3c 0a d8 1c 3d da 09 0d bd e7 8a 33 3d
       0.02565851 0.03829197 -0.034433223 0.04383364
000060 83 db 0f 3d 9f 11 4d bd 49 50 f6 3c 7b 48 f5 3c
       0.035121452 -0.050065633 0.03006758 0.029941788
000070 80 54 10 3d 8b 70 8a 3c 2f 78 da bc 07 1e f2 3c
       0.035236835 0.016899368 -0.026668636 0.029555334

features.5.weight f4 [64, 32, 3, 3]
000000 b5 19 2e bd 79 b3 8c bc 2a fe ff 3c 27 ac 46 3d
       -0.042504985 -0.017175423 0.031249125 0.04850402
000010 21 7e d4 3c f6 97 c2 bc 60 4f 11 bd 6d fe d9 bc
       0.02593905 -0.023754101 -0.03547609 -0.026610577
000020 cf 5b 68 bd 2a 98 38 3c 5e 87 ba 3a 16 e3 89 3c
       -0.05672818 0.0112667475 0.0014231016 0.016831916
000030 e8 0c a1 bb ce 07 dc bb 35 4c a6 3c ca 35 2e bd
       -0.0049148686 -0.0067147976 0.02030001 -0.042531766
000040 cc c4 9f 3b d6 8d 03 bd c5 04 35 3c 54 33 18 bd
       0.004875755 -0.032117687 0.0110485 -0.037158325
000050 9b 78 40 bd 44 c0 28 3d 17 5a 14 3c 16 d8 56 3d
       -0.04699002 0.041198984 0.009054682 0.05245217
000060 68 cb b7 3c 63 3e f8 bc b6 dc 5f bd 45 e9 28 bd
       0.022435859 -0.030303186 -0.054653846 -0.04123809
000070 44 9c f0 3c a1 eb a2 3c ed 21 0d 3d 67 8c 10 3d
       0.029371388 0.019887747 0.034456182 0.035290148
000080 cf eb a0 bc 56 6e 38 bd 3f 61 c5 3a 57 f9 09 3b
       -0.019643692 -0.0450271 0.0015058889 0.002105316
000090 3d e5 d2 3b 98 0e c7 3c d6 b3 12 bb 1c 29 06 3d
       0.0064360187 0.024298951 -0.0022385023 0.03275405
0000a0 8b dc 29 bd dd 46 53 3c a0 b2 bd bc 36 b3 5e 3b
       -0.04147009 0.012895313 -0.023156464 0.003398133
0000b0 73 b7 da bb 2a ab 26 bd f3 b3 27 3d f6 33 e0 3c
       -0.006674701 -0.04069058 0.040943097 0.027368527
0000c0 07 f0 26 3d 69 90 d8 39 1f 6b 52 bd 4f fd 10 bd
       0.04075625 0.00041306324 -0.05137169 -0.035397824
0000d0 e2 2e 74 bc 6a 08 2d bd c1 ad 2f bb ad 0f 2c bd
       -0.014903756 -0.042244352 -0.0026806446 -0.042007137
0000e0 3c 55 07 bd 96 88 07 3c ec a8 25 bd 83 f9 29 bd
       -0.03304027 0.008272311 -0.0404443 -0.04149772
0000f0 9a f0 26 bd b8 a5 54 bd 99 7f 13 bd 0d 51 e7 bc
       -0.0407568 -0.051915854 -0.03601036 -0.02823689
000100 97 4b aa 38 f5 41 b7 bc 59 cc 9c 3a dd 41 9d 3c
       8.1203114e-05 -0.022370318 0.0011962756 0.019196445
000110 60 9e 8b bc a1 c6 f4 bc 78 a5 29 3d e4 d6 0e 3d
       -0.017043293 -0.02987987 0.04141757 0.034872904
000120 e4 cb 55 bd 1c 69 08 bd ac 99 37 bb 64 5a 51 3d
       -0.0521964 -0.033303365 -0.002801518 0.051111594
000130 b9 10 05 3d e8 7c 21 3c 14 17 0f 3c 38 45 d3 3a
       0.03248665 0.00985644 0.00873353 0.0016118651
000140 d1 ec 19 bd a4 d1 07 3d 4e 65 0a bd ef bb f4 3c
       -0.03757936 0.033158913 -0.033788018 0.02987477
000150 26 e8 8b 3c 7f d9 10 3c 91 c2 f5 bc 7e 6e 31 bd
       0.01707847 0.008840918 -0.030000003 -0.043318264
000160 df 75 7b bb 5f 12 03 3d ad 35 16 3d 5c 60 36 bd
       -0.0038369817 0.031999942 0.036672283 -0.04452549
000170 00 93 8c bc 3a ce 32 3c 58 81 0e 3d 23 5b ad bc
       -0.017159939 0.010913426 0.03479132 -0.021161621
000180 a9 20 8e bc 52 87 d2 3a 7f 68 1a bd fd 39 96 3c
       -0.017349558 0.0016062057 -0.03769731 0.018338198
000190 ce 47 a0 3c de 53 8f 3c c1 16 ec 3b ed 9b 39 bd
       0.01956549 0.017496046 0.007204861 -0.045314718
0001a0 b7 f8 1d 3d be c1 b5 bb 88 af 1e bd 1b a9 37 3d
       0.03856727 -0.0055467775 -0.03874162 0.044839006
0001b0 2b 4c 36 bd 79 76 3a bc f5 81 ed bc 4b 23 d0 38
       -0.044506233 -0.011380785 -0.028992632 9.924787e-05
0001c0 e8 a5 40 bb 9f 5a e7 3b c6 95 39 3d 90 97 8b bc
       -0.0029395763 0.0070603634 0.04530885 -0.017040044
0001d0 df 6b ea 3c c6 40 e0 3c 68 10 b7 bc 18 15 29 3d
       0.02861589 0.027374636 -0.02234669 0.041279882
0001e0 d1 1f e3 3c f2 61 21 bd eb 80 3b 3c a7 f4 bc ba
       0.027725132 -0.03940005 0.011444311 -0.0014416174
0001f0 a0 a1 8b bb fe 6e a6 bc f5 dc 33 3d ea 59 b2 3c
       -0.0042612106 -0.020316597 0.043911893 0.02177139
000200 8e c7 5f 3d 51 d6 e0 bc 74 ab 24 bd 48 24 86 bb
       0.05463367 -0.027445944 -0.040202573 -0.0040936805
000210 66 fd da bc 6c 02 01 3c df 94 3e bd 80 93 1d 3d
       -0.026732158 0.007874113 -0.046528693 0.038470745
000220 8b ad a7 bb 9d 2d b6 bc 00 02 2c bc 6d 0c 56 bc
       -0.0051171235 -0.022238547 -0.010498524 -0.013064486
000230 a6 45 47 bd 25 bc 21 bd 69 7a 0c bd 94 03 85 3c
       -0.048650406 -0.03948607 -0.034296427 0.016237058
000240 c1 53 12 3c 9a b8 fa 3c c9 2c 13 bc f7 62 04 3d
       0.008931101 0.030605603 -0.008982846 0.032320943
000250 14 69 ac 3c af 15 4c 3d 7c 14 00 bd 74 eb 94 3c
       0.021046199 0.049825367 -0.031269535 0.018178679
000260 bf b3 a6 3c 21 ac 72 3c 0c 5b 0f bd c7 2b 28 bd
       0.020349381 0.014811547 -0.03499894 -0.041057374
000270 f6 2d 1f bd 2e 2a 15 bd 83 a8 0f bd 71 49 95 bc
       -0.03886219 -0.03641718 -0.035072815 -0.018223496
000280 7e 46 be bc 23 e8 23 bc fd b2 17 bc e2 98 02 bc
       -0.023226973 -0.010004076 -0.009258983 -0.00797102
000290 be 90 07 3c 93 be 02 bc 87 12 f2 bb 6a 6d 3b 3d
       0.008274255 -0.007980007 -0.0073874625 0.045758642
0002a0 e4 ff 9e bc f6 53 4e bd 13 5f 4f bd 40 8a 21 3d
       -0.019409128 -0.05037304 -0.05062778 0.039438486
0002b0 6c 64 d6 b9 18 9d c4 3c 27 60 96 bc 07 3f fa 3c
       -0.0004089208 0.02400069 -0.018356396 0.030547632
0002c0 51 52 f0 3c 0a ad 50 3d a9 08 6d bc 57 0e 10 3d
       0.029336127 0.050946273 -0.014467397 0.035169926
0002d0 0d 86 05 bd dd 51 68 bc bc 17 3e 3d fd 5a ab bb
       -0.032598544 -0.014179674 0.046409354 -0.0052293525
0002e0 85 cb 4d bd d0 2d 6a bc f5 8e f0 3c 4b fb 9c 3c
       -0.05024292 -0.014293149 0.029365042 0.019162795
0002f0 87 c3 df 3c 36 bb 1f bd 48 fe fa 3c 8a 0f ef ba
       0.027314914 -0.038996898 0.030638829 -0.0018238884
000300 0c 9e ec bc e7 d4 06 3b 7b 19 05 3c 6e 8c 07 bd
       -0.028883956 0.0020573677 0.008123751 -0.03309291
000310 0d f5 3e bd 17 db 3d 3d 89 fd 38 ba 2b eb 2b 3d
       -0.046620417 0.04635152 -0.00070568227 0.04197232
000320 6d 5c 61 bd ff 6b 2a 3d b6 85 0f bc ff 35 e9 3c
       -0.055019785 0.0416069 -0.0087599065 0.02846813
000330 9f 37 35 3d ed 85 0a bd 78 86 a3 bc 3a 75 52 bc
       0.044242498 -0.033819128 -0.01996158 -0.012845332
000340 4a e2 9a 3c 47 f2 2e bb 80 51 13 bd 63 ea fb 39
       0.018906731 -0.0026694702 -0.035966396 0.00048049082
000350 ae 94 3c bd 7b cd 0c bd 4d b4 23 3d 3c 2c 0c bd
       -0.04604023 -0.03437565 0.03996687 -0.034221873
000360 55 cd 4b 3b 4f 2c 01 bd ae 9f 50 3c 7d 87 1f bd
       0.003109773 -0.031536397 0.012733383 -0.03894757
000370 81 7f 66 bd 84 10 05 3d 82 57 eb 3c a0 8d 1d bd
       -0.05627394 0.032486454 0.02872825 -0.038465142
000380 17 05 f7 3c 1b 1e 56 3d 0f fc f5 3b 1a 50 5c bd
       0.030153794 0.052274805 0.0075068544 -0.05378733
000390 9e 17 8e 3b 94 2d ec bb e5 92 37 3d 35 eb 12 3c
       0.0043363115 -0.007207582 0.044817824 0.008967211
0003a0 1e 54 3d 3c ab 27 07 3c cc 53 20 bd fa f6 57 3c
       0.0115557 0.008249204 -0.039142415 0.013181442
0003b0 ba c8 2a 3d 6a 2a 22 3c 2d 34 2a 3d 7f 5c 00 bc
       0.041695334 0.009897808 0.041553665 -0.007834553
0003c0 89 d8 d0 bc a6 36 36 3d 37 31 f1 3c be f6 f2 bb
       -0.025493877 0.04448571 0.029442413 -0.007414668
0003d0 3d 5a 53 bd 51 33 5e 3b f5 97 2d 3c f9 50 5f bd
       -0.05159973 0.0033905099 0.010595311 -0.05452058
0003e0 34 04 02 3d 50 5f 4b 3d 43 49 c7 3a 87 6c ae 3c
       0.03174229 0.049651444 0.0015204329 0.021291984
0003f0 2b 8a 14 3d 98 f7 40 3c ac 86 c5 3c 45 b3 67 bd
       0.03626458 0.011777781 0.024112068 -0.05656745

features.5.bias f4 [64]
000000 35 74 8e 3a 4f 97 c5 3a 04 9b 59 bd 72 27 2a bc
       0.0010868373 0.0015075001 -0.05312635 -0.010385381
000010 09 81 72 3d 8f bd 29 3d 48 ac 72 bd d7 76 47 bd
       0.05920509 0.041440543 -0.05924633 -0.04869732
000020 50 84 24 3d ff 1d 68 3d ad 8f 60 3c 04 34 30 bc
       0.040165246 0.05666923 0.01370613 -0.010754589
000030 89 27 2c 3d cf 52 a8 3c 36 76 e8 3c a1 24 38 bd
       0.04202989 0.020547299 0.02837668 -0.044956807
000040 40 62 03 bc 58 d1 a7 3c b7 d5 da 3c a9 fb 30 bd
       -0.00801903 0.020485565 0.026713235 -0.04320875
000050 bf 98 77 3d 83 7a 5f 3c 88 bf c5 3c 7c cc 53 bd
       0.060448404 0.013640049 0.02413918 -0.051708683
000060 1a 7e 65 3d 9d d4 49 bd 4a 4d 45 3d 9f 20 99 bb
       0.056028463 -0.04927503 0.04816941 -0.004673078
000070 37 7e 76 3d 10 a7 3d bd 71 77 ed 3c 9f a7 ba bc
       0.06017896 -0.0463019 0.028987618 -0.022785006
000080 85 6a 75 3d b3 36 63 3d e1 90 4e bd d7 55 f6 bb
       0.059916038 0.055472087 -0.050431136 -0.007517557
000090 4d 5e 5a bd 43 53 00 3d ce 87 c3 bc dd 6d 95 bc
       -0.05331259 0.031329405 -0.023868468 -0.018240863
0000a0 b2 e1 c9 bc fb 23 f1 3c 2b 22 41 bd b3 c3 b5 bb
       -0.024643753 0.029436102 -0.047151726 -0.005547011
0000b0 03 75 4d 3c b0 a0 03 bc dd 78 e0 3c 18 04 69 3d
       0.012540105 -0.008033916 0.027401382 0.05688867
0000c0 0b a3 04 bd 00 20 3f 3d 58 b0 d5 3c 2a 52 65 bc
       -0.032382052 0.046661377 0.026085064 -0.01399664
0000d0 c8 70 29 3d e8 fe 1b bc 09 39 2d bd 6e 57 50 3d
       0.041367322 -0.009521224 -0.04229072 0.05086463
0000e0 19 dd 9d 3b 7b 44 6c bc 7b 84 0c bd 5e 29 39 3d
       0.0048176167 -0.014420624 -0.03430603 0.045205466
0000f0 ed 07 4b 3b 3a 6f 71 3d 74 46 82 bb d1 81 40 bd
       0.0030980066 0.058943965 -0.003975684 -0.046998803

features.7.weight f4 [64, 64, 3, 3]
000000 5a 76 a5 3c d1 d4 c6 3c 66 64 0e bc 99 fd ca bb
       0.020198036 0.0242714 -0.008690929 -0.006194782
000010 4c 63 19 3d 28 20 dc 3c 8f 15 57 3c 68 cb 1a 3d
       0.037448213 0.026870802 0.013127699 0.03779164
000020 7f 8a b1 bc 55 4f b3 bb d1 22 b7 bc 13 e9 d2 3c
       -0.021672485 -0.0054721036 -0.022355469 0.025745904
000030 f4 a8 1c 3d 02 55 2a bc 4e 48 76 bb 10 5e ea ba
       0.038247064 -0.010396244 -0.0037579718 -0.0017880816
000040 fd 4c 0c 3b 5d 92 01 bd 82 bf 28 3c b4 61 9f bc
       0.0021408193 -0.031633724 0.010299565 -0.019455768
000050 65 75 cc 3c aa 82 09 3d 8d 18 d5 bc e0 00 d0 bb
       0.024958322 0.033571877 -0.026012683 -0.0063477606
000060 9c cb 16 3c 0b be 9f bc 45 c9 13 3d dc a8 1f bc
       0.009203818 -0.0194998 0.036080617 -0.009744849
000070 5b e1 b3 bc e1 6f 9c bc 2f 64 cc bc ce ef 93 3b
       -0.021958044 -0.019096317 -0.024950115 0.004514671
000080 83 e5 29 3d 30 48 72 3c aa b3 44 bb 24 bb 2f bb
       0.041478645 0.014787719 -0.0030014315 -0.0026814425
000090 e3 fd 1d 3d c8 12 7f bc e5 c1 61 bc 71 5a e5 bc
       0.038572203 -0.015568443 -0.013779138 -0.027997227
0000a0 73 a0 16 3d 31 10 69 bc 59 73 c2 3c 92 d0 b6 bc
       0.03677411 -0.014225052 0.023736643 -0.022316251
0000b0 4c 8e 10 3d 69 f6 87 bc 6e aa 20 bc e1 65 0f bd
       0.035291955 -0.01659699 -0.009806259 -0.03500927
0000c0 53 c9 bf bc ae 95 94 ba d0 63 82 bc 81 ed dd 3c
       -0.023411429 -0.0011336112 -0.015916735 0.02709079
0000d0 68 76 10 3d aa ee ec bb e2 be ca 3c 79 c3 24 3b
       0.03526917 -0.0072305994 0.024749223 0.0025140925
0000e0 af 08 7c bb bf f4 82 bc 3d 87 04 bd d1 15 00 bd
       -0.0038457324 -0.015985845 -0.032355536 -0.031270806
0000f0 48 3d de bc b6 0f 75 3b 60 d4 ca 3c da 11 0f 3d
       -0.02712883 0.0037393398 0.024759471 0.034929134
000100 f5 26 d3 3c 33 e5 c8 bc 82 ad 07 3c a7 75 ce bc
       0.025775412 -0.024523353 0.008281114 -0.025202585
000110 58 b8 f1 3c 03 b3 71 3c 55 b1 e2 bb c8 46 1a 3d
       0.029506847 0.014752152 -0.0069181123 0.03766516
000120 d6 7a 00 bd 9f f9 81 bc 2b 90 80 3c 2b 31 3e 3c
       -0.031367145 -0.015866099 0.015693745 0.011608402
000130 b0 04 e9 bc a4 f1 1c bd 52 5a b4 bc 30 4b be 3c
       -0.028444618 -0.038316384 -0.022015724 0.023229212
000140 ab 0a ce bb 1e 25 0b bd 53 70 b0 3b 7b 48 c9 3c
       -0.006287893 -0.033970945 0.005384484 0.024570694
000150 b9 dc 1e 3d c5 ce 56 ba a3 a3 1d 3d f9 31 07 3d
       0.038784716 -0.0008194263 0.038486134 0.033006642
000160 3b 3a 1f bc d8 8b 67 ba b7 54 3e bc c2 e2 f5 bc
       -0.009718473 -0.0008832789 -0.011616877 -0.030015353
000170 8d 9a b0 bb 24 dd 2b bd 11 13 4c bb 37 3c ef 3b
       -0.0053895176 -0.041958943 -0.0031139294 0.0073008793
000180 a0 76 a7 bc 68 b0 f0 3c 86 65 f6 3c 77 47 01 bd
       -0.020442307 0.029380992 0.030077707 -0.031562295
000190 9a af 51 bc cf 7b fd 3c da 9c ca ba 99 39 0f 3d
       -0.012798214 0.030942826 -0.0015458122 0.03496704
0001a0 fc 21 19 bd 05 fc a6 3c 72 06 18 3d 02 de c6 3c
       -0.037385926 0.020383844 0.03711552 0.024275783
0001b0 0e 6d 0e bd ad 2a a4 3c 45 e5 d6 bc a6 73 09 bd
       -0.03477197 0.02003988 -0.026232371 -0.033557557
0001c0 19 e5 bd bc f5 ab ee bc 5a 09 91 3c d5 53 22 3d
       -0.023180531 -0.02913473 0.017704654 0.03963073
0001d0 04 26 12 bc b3 c3 f5 bc a8 3b 54 3c 43 57 0d bd
       -0.008920196 -0.030000543 0.012953676 -0.034507047
0001e0 14 d4 d8 3c 76 47 98 3c 5e a8 fc bc 66 62 c7 bc
       0.026468314 0.018588763 -0.030842002 -0.024338912
0001f0 3b 09 01 bd 21 78 50 bc b4 6d 12 bb a2 4b 0f 3d
       -0.031502943 -0.012723953 -0.002234322 0.03498424
000200 36 57 03 bd 8d fe b6 ba e1 4d 1a bb d5 76 2b bc
       -0.032065593 -0.001396136 -0.0023544955 -0.0104653435
000210 15 bc 10 bb 11 ee 06 3d b6 f7 22 3d 4d 22 96 bb
       -0.0022084762 0.03294188 0.039787017 -0.0045817257
000220 ad 11 09 3c b1 e6 00 bd 5a 8e 55 ba 98 03 7a bb
       0.008366031 -0.031470004 -0.0008146517 -0.0038149115
000230 4e d9 f5 3c 8c 8d 16 3d a2 5b d5 bb 4b 42 f7 3b
       0.030010846 0.036756083 -0.0065111676 0.0075457445
000240 f8 00 a4 bb b5 2e 2d bd 26 42 14 bd f0 af 58 3a
       -0.0050049983 -0.04228087 -0.036195897 0.0008265963
000250 ef 03 b9 ba 25 fa 01 3d 03 49 52 bc b5 05 28 bd
       -0.0014115552 0.031732697 -0.01283479 -0.041021068
000260 f7 0c bf bc 41 9c e1 bb e8 8f 1e bb 33 79 05 bc
       -0.023321612 -0.006885082 -0.0024194662 -0.008146572
000270 5e 0b 8b 3a 64 b4 25 3d b9 ae da 3b 06 70 53 3b
       0.0010608246 0.040455237 0.0066736606 0.0032262816
000280 62 c5 04 3d 59 45 0c bd 78 27 de 3c e7 fe 9f bc
       0.0324148 -0.034245823 0.02711843 -0.019530727
000290 c0 9d 15 3c 5e 69 04 3c 63 f3 9e 3c 46 85 fc bc
       0.009131849 0.008081762 0.019403165 -0.030825268
0002a0 40 93 d2 3c 1e 00 0f bd d9 75 f6 bc 73 62 d0 b9
       0.02570498 -0.03491222 -0.030085491 -0.00039746202
0002b0 f2 67 80 b4 f9 a5 25 bb 44 b9 89 b4 09 78 33 ba
       -2.3917488e-07 -0.002527593 -2.5653037e-07 -0.0006846195
0002c0 ce 28 36 3b 06 e3 70 b3 cc 1b 03 35 07 36 b7 3a
       0.0027795318 -5.608583e-08 4.884175e-07 0.0013977893
0002d0 db 2b 08 bd 5c ae a4 3c 5a 2d 7f 3b 05 61 f6 bc
       -0.03324495 0.020102672 0.0038936944 -0.03007556
0002e0 8b be 01 3d 60 45 d1 bb f0 3a 5d bc 3e df 12 bd
       0.031675857 -0.006386444 -0.013502821 -0.03585743
0002f0 c8 31 f2 3b 07 b2 f8 3b 67 e3 fc bc 85 88 e3 3b
       0.0073911883 0.007589582 -0.030870153 0.0069437646
000300 7e 8e 82 bc 42 02 8b bc 23 a6 01 bd 7a 21 e9 bb
       -0.015937086 -0.01696885 -0.03165258 -0.0071145864
000310 3b 03 07 bd eb 59 31 bc ad e7 99 3c bb 5b 0b 3c
       -0.032962065 -0.010824661 0.01878723 0.008505757
000320 14 24 32 3c d2 56 96 3c dc 10 cb bc 5d a6 0f bc
       0.0108728595 0.018351946 -0.024788313 -0.008767691
000330 c5 ab f4 3c 5f f5 bf bc 71 2b 02 bd 1a 9c 32 bd
       0.029867062 -0.023432432 -0.03177971 -0.0436059
000340 31 1a a4 3c cd a9 20 bd fb 32 19 3d 88 eb 23 3c
       0.02003202 -0.039224435 0.037402134 0.0100048855
000350 56 f0 e2 3c 6e ab 10 bd 1d 55 00 3d 5b 43 c3 3a
       0.027702492 -0.035319738 0.03133117 0.0014897393
000360 3c b2 b3 3c 87 a8 41 bc a2 02 fc bc bb 2a 9d 3c
       0.021935575 -0.011819965 -0.030762974 0.019185415
000370 70 f9 9f b9 d9 15 2e bc 54 ee 2d bd 07 5a 0a bc
       -0.0003051269 -0.010625326 -0.042463616 -0.008444316
000380 69 6e 18 bd 69 11 2a bd 71 f4 9e 3c 44 1b 0f 3d
       -0.03721467 -0.04152051 0.019403668 0.034938112
000390 f6 9d 0e bc fa e4 0c bd cf c4 b7 3c 0b 86 15 3c
       -0.008704653 -0.034398057 0.022432713 0.009126197
0003a0 ae 01 47 bc 59 a2 b6 bc 85 8f 01 3d aa a8 ae bb
       -0.012146397 -0.02229421 0.03163101 -0.005330165
0003b0 8a 63 5d 3c e1 99 c6 bb 9d df 40 3c d2 28 c4 3c
       0.0135125015 -0.0060608243 0.011772064 0.023945246
0003c0 e8 5d 9e bb 54 8a ec 3c cd a2 b4 3b c4 a8 94 3b
       -0.004832972 0.028874554 0.0055125714 0.00453672
0003d0 76 96 8f 3c 99 75 c2 bc 6a e2 96 bc 7d 7e 77 3c
       0.0175278 -0.023737716 -0.01841851 0.015105841
0003e0 86 39 e7 3b 8f b1 66 3c 19 20 e2 bc 28 d1 55 3c
       0.007056418 0.014080419 -0.027603196 0.013050355
0003f0 d2 55 b6 3a b8 ea d8 3b 0e 0d 5f 3b e0 85 03 bd
       0.0013911074 0.0066197775 0.003403488 -0.032110095

features.7.bias f4 [64]
000000 4a bf f7 3c 3e 4f cd bc 2e dc 18 3d 22 4b 15 bc
       0.03024258 -0.0250622 0.037319355 -0.009112151
000010 48 a6 18 bd 60 2f fa 3a b4 7c 75 bc 46 64 81 3c
       -0.037267953 0.0019087605 -0.014983345 0.015794884
000020 3d 89 0d bc 78 f6 21 bc 7b 4b 0c 3d b1 65 ff bc
       -0.008638677 -0.009885423 0.03425167 -0.03117642
000030 ab 35 d7 bc a8 a9 81 3c b7 7f e3 bc 65 82 19 bd
       -0.026270708 0.015827969 -0.02777086 -0.03747787
000040 9a 97 de bc 88 ed 98 3c ba c3 e3 bc 12 53 c3 3c
       -0.027171899 0.018667951 -0.02780329 0.023843322
000050 98 1e 8a bc c7 8d a1 3b be 82 93 3c 1c 3b 1c 3d
       -0.016860291 0.0049302313 0.018006679 0.03814231
000060 8c 41 64 3c 97 c7 ab 3b 6d 76 2f 3d 36 d1 a7 3c
       0.013931643 0.005242299 0.04283755 0.020485502
000070 21 62 99 bc fd 20 0a 3d be bd 30 3c 7c 02 06 3d
       -0.01872355 0.033722866 0.010787426 0.032717213
000080 5f 94 2f 3c 0a f7 0e 3c 12 dd 15 3d b5 f7 75 bc
       0.010716527 0.008725891 0.036587782 -0.015012671
000090 bd 37 c9 bc 9f 13 32 bc 49 b8 18 bc c2 7e bb bc
       -0.02456271 -0.010868936 -0.009321281 -0.022887591
0000a0 54 f9 82 3c 5f 79 48 bb 21 8a a9 3c 3c 48 19 bd
       0.01598803 -0.003058992 0.020695748 -0.037422404
0000b0 13 c7 83 ba 09 08 02 3d 6a 0b 26 3d 7c 18 a1 3c
       -0.0010053836 0.031745944 0.04053823 0.019664995
0000c0 ef 4c b4 bb 4d 5a a7 3a 4b 0a 77 bb a0 72 f3 3b
       -0.0055023353 0.0012768001 -0.0037695344 0.007429436
0000d0 cc 62 e7 3b 80 05 70 bc e3 02 70 bc cc 7d 9b bc
       0.007061338 -0.014649749 -0.014649126 -0.018980883
0000e0 02 3a 34 bd 72 c4 8a 3c 1d a9 2d bd 59 67 f0 bc
       -0.044000633 0.016939376 -0.042397607 -0.029346155
0000f0 e2 ad 1e 3d 2b ca ec 3c bb 8b 67 3b 4a c8 c6 31
       0.038740046 0.028904995 0.0035331089 5.7853287e-09

features.10.weight f4 [64, 64, 1, 1]
000000 55 79 87 bd 85 8c bf bd 8d 5b 5a 3d 92 cc cd bd
       -0.06614939 -0.09352974 0.053309966 -0.10048784
000010 39 8b 21 3d a7 43 1d bb fb ef e5 3d d5 85 e8 bd
       0.039439414 -0.0023996623 0.11227413 -0.113536514
000020 02 d0 b9 bd f3 1c a8 3d a6 98 97 3c 9b 76 97 bc
       -0.090728775 0.082086466 0.018505406 -0.018489173
000030 2c 04 09 3d 5d 48 cc 3c d5 25 83 3d b3 f4 8e 3d
       0.033451244 0.02493685 0.064037 0.069802664
000040 b3 22 b5 bd e7 d8 f0 bc 12 e7 03 3e ed da c7 bd
       -0.08844509 -0.029400302 0.12881115 -0.09758554
000050 fa 87 57 bc 72 be 3b bc 0f 0e fb 3c 1c 09 94 3d
       -0.013154978 -0.01145898 0.030646352 0.072283
000060 9c 73 27 3d 40 10 2b b7 2f dd e7 3c 5b f5 51 bd
       0.040881738 -1.0196178e-05 0.02830371 -0.05125938
000070 53 92 31 b9 eb 72 82 bc 36 7a e5 bc 7d 57 a4 3d
       -0.00016934545 -0.015923938 -0.028012376 0.080244996
000080 36 6a c1 3d 8f ab fb bc fd 65 a6 3c 37 9d 2a 3d
       0.09444086 -0.030721454 0.020312304 0.041653838
000090 2c 01 ae 3c 13 c2 13 3d f2 1b 26 bd 50 41 fd 3c
       0.021240793 0.036073755 -0.040553994 0.030914932
0000a0 e4 39 60 3d 85 d4 10 bd d2 63 8a 3d 36 06 a5 bd
       0.05474271 -0.035358924 0.067573205 -0.08057825
0000b0 0d 1f 3a bc f6 f1 ae bd a3 83 59 3c ef d6 9c bc
       -0.011359942 -0.08542244 0.013276014 -0.019145457
0000c0 1d 66 d1 bc b9 be b9 3d 9c 35 84 2f e6 3f a2 bd
       -0.025561387 0.090695806 2.4048752e-10 -0.07922344
0000d0 67 b0 e5 3d c0 9d 09 3d 9c 41 00 3a 09 c2 a9 bd
       0.11215287 0.033597708 0.0004892589 -0.082889624
0000e0 6e ca 55 3d 11 75 50 bd 4c 25 e3 39 46 bd 63 bd
       0.052195005 -0.050892893 0.00043324602 -0.055600427
0000f0 7a 4f 51 bd 02 e9 b8 bd f5 4e 82 3c 98 10 0d bc
       -0.051101185 -0.09028818 0.01590679 -0.008609913
000100 e3 18 fe bc ea 07 e9 bb 2b 0e a7 bb ad 05 d3 3a
       -0.031017726 -0.007111539 -0.0050981245 0.0016099714
000110 38 43 d5 35 12 dc 56 3c f0 3c f1 32 d6 5a 61 bd
       1.58893e-06 0.013113992 2.8083804e-08 -0.05501827
000120 63 ef e9 b8 b1 4f d2 bc ed 9e 33 bd 0d 0a 27 3d
       -0.00011154895 -0.025672765 -0.043852735 0.04078107
000130 39 fc db ba 89 e0 18 3c 94 48 dc 3c b6 d7 c8 b7
       -0.0016783542 0.009330877 0.026890077 -2.3942306e-05
000140 12 04 03 bd 50 bc a4 bb 69 09 ec bc 2b 06 ea 3b
       -0.031986304 -0.0050273314 -0.02881308 0.0071418486
000150 00 6a 73 38 31 c3 b3 3a b2 e4 9f 37 42 90 2a bb
       5.8034435e-05 0.0013714788 1.9060772e-05 -0.0026025926
000160 4b 90 b9 bc 20 95 8c a5 85 23 e6 3c 2e 64 b2 3a
       -0.022651812 -2.438718e-16 0.028093109 0.0013610178
000170 ed c4 0e 39 44 52 a7 25 81 76 20 bc 55 9d 93 3c
       0.00013615536 2.9025627e-16 -0.0097938785 0.018019358
000180 23 25 df 3c 99 db e0 2d 96 02 e6 bc 6b 67 26 3c
       0.027239388 2.5563373e-11 -0.028077405 0.010156493
000190 1c ed 3d bd 31 07 e0 3b 20 db 9d 3b 21 61 e0 bc
       -0.046368703 0.006836795 0.0048173815 -0.027390065
0001a0 91 84 1e 1d d8 2d 02 3a ba 64 f5 3c 71 e8 5b 3c
       2.0979661e-21 0.00049659377 0.029955257 0.013422118
0001b0 a7 a8 33 3d 11 cd 40 bd ea 38 05 bd 68 04 22 bd
       0.04386201 -0.047070567 -0.03252498 -0.039554983
0001c0 ac 88 a5 bb 98 e5 7c 96 9a d8 7c 3c 5a be b4 b4
       -0.005051693 -2.0428845e-25 0.015432501 -3.3666112e-07
0001d0 09 8e 0d bd 19 17 48 24 1b 04 d7 3c 46 8f 99 bc
       -0.034559283 4.338765e-17 0.026247075 -0.018745076
0001e0 91 b5 2c 3d 31 b9 16 bd 5c 7e b2 bb ac 56 24 3d
       0.042165343 -0.036797706 -0.005447192 0.04012172
0001f0 11 96 78 3c 68 e0 6b b9 92 af a0 b9 c3 42 1e aa
       0.015172497 -0.00022494944 -0.00030648388 -1.4056382e-13
000200 85 ca 3d b7 47 78 90 bd f2 5e a1 bd d2 74 6c bd
       -1.1312431e-05 -0.07054191 -0.078794375 -0.057728596
000210 45 28 06 3c 96 2c 43 3d a5 e3 dc ba ac 03 8c bd
       0.008188312 0.047649942 -0.0016852511 -0.06836638
000220 91 12 f4 bd 7e 5c 3b 3d 78 02 17 bb 1e 34 be 3c
       -0.11917604 0.045742504 -0.0023042243 0.02321821
000230 1b 9e ca bd e7 22 21 bd 55 4e f8 3c a7 4d 6d bc
       -0.098934375 -0.039339926 0.03031079 -0.014483846
000240 5b d0 ab bc 14 55 67 3c ef 62 41 bd 66 af 2e 3d
       -0.020973375 0.014119405 -0.04721349 0.04264774
000250 2b c8 a3 3c 2b ce b0 3c 74 68 92 3d b6 52 77 bc
       0.019992908 0.021582684 0.07148829 -0.015095403
000260 ac 38 31 bb 3b 37 6f bc 57 1d c9 3d e4 dc 61 3d
       -0.0027041836 -0.01460057 0.09820049 0.0551423
000270 04 a0 88 3d 39 12 98 3c f1 3f 75 bb 03 a2 40 bd
       0.066711456 0.018563377 -0.0037422145 -0.047029506
000280 d6 b3 f9 3c 0c 02 4c bb 4d 9e ab b2 86 99 d7 3c
       0.03048126 -0.003112915 -1.9979007e-08 0.026318323
000290 e3 80 2b 3d be 57 a4 3c 24 e4 35 3c 6e dc 26 3d
       0.041870963 0.02006137 0.011101756 0.040737562
0002a0 06 57 d1 3d 40 2d cb bc 8a 04 e9 bb 62 15 81 36
       0.102216765 -0.02480185 -0.007111137 3.846989e-06
0002b0 c0 37 7a 3d f0 d9 e3 3c c3 85 9f 3d 40 68 70 3d
       0.061088324 0.027813882 0.07789185 0.05869317
0002c0 02 56 0e 3d 8d b0 81 bd cd bc ea 3c 35 86 eb bd
       0.034749992 -0.063325025 0.02865448 -0.11500207
0002d0 f6 87 ba 3b a0 14 03 32 22 48 2b 3d 67 b1 75 bc
       0.0056924773 7.629893e-09 0.041816838 -0.014995909
0002e0 e1 97 a2 ba d4 02 ff 3a 75 02 58 26 64 f0 ab bc
       -0.0012404883 0.0019455799 7.4943384e-16 -0.02098865
0002f0 8a 5e 4a bc 5f cc d3 bd 1a 17 7a b8 98 f2 1b bb
       -0.012351641 -0.10341715 -5.962616e-05 -0.002379572
000300 78 8e 59 bd 28 0f b8 3d 2e c0 a7 bd ce c7 6a bd
       -0.053114384 0.08987266 -0.08190952 -0.057319455
000310 8e f7 8d 3c fe f2 5f bc 42 1c fe bd a7 b8 34 3d
       0.017329957 -0.013668774 -0.124077335 0.04412141
000320 0c 21 f5 3c de f8 d6 bd ef 1c cf bd 85 d5 9a 3c
       0.029922985 -0.104966864 -0.101129405 0.018900642
000330 42 5a 97 bd 08 9d 75 32 73 a1 a1 bd 57 fe 85 bd
       -0.07390262 1.4296582e-08 -0.07892122 -0.06542652
000340 6c c2 6c 3d 92 38 b5 bc 34 e9 c6 3d 2c d6 de bd
       0.057802603 -0.022121701 0.09712449 -0.10880694
000350 d3 d5 17 3d b7 ca 98 bd 38 b1 b5 3c 01 f6 03 be
       0.037069153 -0.0746054 0.022179231 -0.12886812
000360 b6 1d 0c bd 38 08 01 ba 3b 84 9e 3d 96 d6 06 bd
       -0.034208022 -0.0004922184 0.07740065 -0.03291949
000370 e0 2d 0d 3d c9 32 a4 3c 26 8b 8c 3d a2 2c 71 bd
       0.034467578 0.020043747 0.06862478 -0.058880456
000380 a1 d4 68 3c ff 54 e1 bd d4 2d 86 bd 4e c9 ea bd
       0.014210851 -0.1100254 -0.0655171 -0.11464177
000390 62 54 a5 3d 6b 74 9f 3d 29 58 dc 3d 65 f7 7a bd
       0.08072735 0.07785877 0.10759003 -0.06127109
0003a0 7b 3d 1f 3d 15 b3 3e bd 54 28 a2 bd 3c 67 ea 3d
       0.03887699 -0.046557505 -0.07917848 0.11445472
0003b0 dd 37 9c 3d c1 77 22 3d 8d 16 a4 bd 69 bf 6e 3d
       0.076278426 0.039664987 -0.08012114 0.05828801
0003c0 e5 46 93 3b e3 82 db 3b 42 39 20 bd 5a 5d fc 3a
       0.0044945353 0.0066989525 -0.039117105 0.0019253895
0003d0 8b 14 75 3c 6d 3b 9a 3c 29 19 d4 3d 5d cc b2 bd
       0.014958511 0.018827165 0.103563614 -0.087303855
0003e0 a1 c0 ac 3d c7 26 d8 3d c5 7c b2 3d c4 29 39 bd
       0.084351785 0.10554271 0.08715204 -0.045205846
0003f0 57 93 bf bd 60 43 96 3d 5c 93 99 3d 80 ae d7 bc
       -0.09354275 0.073370695 0.0749881 -0.026328325

features.10.bias f4 [64]
000000 d7 21 f1 ba dd 77 75 bc c1 9a e8 bd 89 db d5 3d
       -0.0018396926 -0.014982191 -0.11357642 0.10442264
000010 42 38 bb 3d 72 4c 28 3d 83 0b e9 bd cf 35 b5 3d
       0.0914159 0.04108853 -0.11379149 0.08848154
000020 ea 7a e8 3d 6e 9a 1e bc 36 5a b0 3d 8f 93 ed 3d
       0.11351569 -0.009680374 0.08610956 0.1160041
000030 e7 f3 73 bc 8b 08 29 bd 79 26 ac ba c6 53 c3 bd
       -0.014889694 -0.041267913 -0.0013134024 -0.09537463
000040 f4 69 c5 bc f7 97 db b9 3a 3c c1 bc 12 75 c7 bd
       -0.024098374 -0.00041884158 -0.023588289 -0.09739126
000050 26 85 f7 3d 55 a8 6e 3d cb 1c ca 3c 22 27 85 bb
       0.12085943 0.058266003 0.024671933 -0.004063503
000060 e2 a7 ab 3d 18 8b 36 3c 06 29 6c 3d 48 aa 36 3d
       0.083816305 0.011141561 0.05765631 0.044595987
000070 d1 92 aa bc 79 56 a5 3b e5 61 09 3d 47 34 8a 3c
       -0.02082196 0.0050457087 0.033540625 0.01687063
000080 2c 67 ec 3d d6 cc 0c 3d 21 25 bd bd 9a 50 95 bd
       0.11543116 0.034375034 -0.092355974 -0.07290764
000090 a7 91 6c 3d a8 08 c1 bd cd 5f b1 3c 1d 2b af 3c
       0.057756092 -0.09425479 0.021652127 0.021382863
0000a0 b0 b8 bd bc c5 c8 68 3c 2b 0b 37 bd 96 4f d5 3d
       -0.023159355 0.014208023 -0.044688385 0.104155704
0000b0 02 3d 1a bd f0 b3 af 3d 09 d2 18 3d ce 7a d5 3d
       -0.037655838 0.08579242 0.03730968 0.10423814
0000c0 89 45 f6 3d fb 37 43 bd 03 48 c6 bd 5b df 51 bd
       0.120249815 -0.04766081 -0.09681704 -0.0512384
0000d0 2d fe d6 3c d7 18 d7 bd 6a 84 ba bc 0a 56 a7 bc
       0.026244247 -0.10502785 -0.022768218 -0.020426769
0000e0 b6 3c d9 bd d8 e2 be 3d 51 54 51 3c 6a 9e f8 bc
       -0.10607283 0.09320611 0.01277645 -0.030348975
0000f0 54 9e 9a bd ba 60 c3 bc 18 a4 c4 bd 73 f2 c0 3d
       -0.0754973 -0.023849834 -0.09601611 0.094212435

classifier.0.weight f4 [3, 64]
000000 9a d2 7b 3b db 43 b6 b3 21 47 01 3b ca e7 84 bd
       0.003842509 -8.487378e-08 0.0019726234 -0.06489523
000010 6f 01 d0 bd 41 cb 05 bd 6e a2 43 3d cb 5a f3 3d
       -0.101565234 -0.03266454 0.047762327 0.11882552
000020 99 61 e3 3d 32 bb 3f 1c 76 5f 16 bd b1 12 77 bd
       0.111026 6.3438543e-22 -0.036712132 -0.06032056
000030 4f 46 9b bc b0 26 e6 ba 8d a1 e7 3a 53 23 f6 3d
       -0.018954424 -0.0017559137 0.0017672047 0.12018456
000040 b1 e0 54 bc 8a 85 01 3a 66 e9 82 bd a6 19 af 3c
       -0.012993024 0.00049408583 -0.063921735 0.021374535
000050 60 86 ed 3d 2c 99 14 bd 61 ac 21 3d ae 2f 8a 3a
       0.115978956 -0.03627889 0.039471034 0.0010542774
000060 6d 78 bc 3c 7f 61 fd 3d 60 d9 f7 bd 5f b9 5d 3d
       0.023006642 0.123721115 -0.12102008 0.05413186
000070 5a 33 06 3d ad 2f 06 3e 89 38 59 3d 9d 94 2d 3d
       0.032763816 0.13104124 0.05303243 0.042378057
000080 df 1a 90 3d a6 23 2f bd 9f cf b5 3c ca 87 27 3d
       0.07036375 -0.042758606 0.022193728 0.040900983
000090 19 e3 96 3b 84 a4 60 3d 5a f3 1a bd fd fe e2 3c
       0.004604709 0.054844394 -0.037829734 0.027709479
0000a0 d3 06 ff bc 46 58 07 3e 8a bc 8e bd bd 79 45 bd
       -0.031131184 0.13217267 -0.06969555 -0.0482118
0000b0 fd 5f aa bd ff d1 f6 3d 5a 69 c3 bd 4b b8 a2 3d
       -0.083190896 0.12051772 -0.095415786 0.07945307
0000c0 ec af 9d 3b 36 67 ae 3d 5a a3 6f 3d 2c 47 a5 b5
       0.0048122313 0.0851578 0.058505394 -1.2314172e-06
0000d0 ff 64 0b 3d 05 fe bc 3d 3b 3c c2 bd 18 2c e6 3b
       0.034031864 0.09228138 -0.09484144 0.0070242994
0000e0 63 68 02 bd 0e 2e e6 bd a8 b1 71 bd bb f9 9f 1b
       -0.031837832 -0.11239253 -0.059007317 2.6465728e-22
0000f0 6e 83 df bc cb 73 f0 bc 59 46 80 3c 48 ee a3 3c
       -0.02728435 -0.02935209 0.015658544 0.020011082
000100 0f e8 b8 bd 65 ac a4 9e 7b 08 9b 3d 85 23 db bc
       -0.09028637 -1.7435476e-20 0.07569977 -0.026750335
000110 47 73 f7 bd 99 e2 e6 bb 9a 33 8f 3d a5 e1 89 bd
       -0.12082534 -0.0070460555 0.06992264 -0.067324914
000120 bd a5 8c bb 5f 74 cd 3c 1a 6d 26 bc ec c0 9b bd
       -0.0042922185 0.025079904 -0.010157848 -0.07605156
000130 d3 fd 6e 3c 97 91 90 ba 4f 21 14 37 a0 d6 dd 3d
       0.014586884 -0.0011029717 8.829243e-06 0.10831952
000140 e6 ef 8c 3d 40 4d 82 b3 93 68 bf bc 10 51 14 be
       0.068816945 -6.0676484e-08 -0.023365295 -0.14484048
000150 a8 4f a2 3d 05 96 f6 3b b3 61 4b bd ff e4 02 bc
       0.079253495 0.007525208 -0.04965372 -0.007989167
000160 02 59 c0 3d d8 d9 3a bd 8f 5a df bd 89 22 bd 3c
       0.09391977 -0.04561791 -0.109059446 0.023087757
000170 ff 51 00 be 65 e9 c1 bc c9 3f ae 3d 85 73 ba 3d
       -0.12531279 -0.023670861 0.0850826 0.09104065
000180 7f f7 6d 3d d6 93 aa 3d c4 40 ee bd 1a f8 fa bd
       0.05809736 0.08328979 -0.11633447 -0.12254353
000190 dc d6 6b bd 8e d2 70 3d 05 56 b2 3c a1 3b d6 3c
       -0.057577953 0.05879455 0.021769533 0.02615148
0001a0 d8 a7 b7 3d 1f 75 fe bd 3a 7e 30 3c 2f 77 36 bd
       0.089675605 -0.12424683 0.010772282 -0.044547256
0001b0 b8 76 cc 3d 5b d9 a2 3d 4e 9b a5 bd 24 a2 21 bd
       0.09983581 0.079516135 -0.08086263 -0.03946127
0001c0 82 a4 ec 3c ac 05 89 3d 8c 47 cc 3d af 33 34 9b
       0.028887037 0.06690535 0.09974584 -1.4905951e-22
0001d0 27 35 fc bd 97 05 f4 bd 92 2c dc bd a0 3a cc bd
       -0.123148255 -0.11915129 -0.107506886 -0.09972119
0001e0 e0 86 96 bd 01 ed 40 bd 1c d0 00 be 87 0a 53 bd
       -0.07349944 -0.047101025 -0.12579387 -0.05152371
0001f0 1a 9f 29 bd 04 6a a4 bd 45 fd 33 3c 44 31 59 3b
       -0.041411497 -0.080280334 0.010985677 0.0033140937
000200 c0 29 a9 3d bb 2c e7 bc 22 68 95 bb eb 82 cb bd
       0.08259916 -0.028219571 -0.0045595327 -0.0993708
000210 03 23 ff bd 95 3a 96 bd 34 5d 5b bc fa c9 2a bd
       -0.1245785 -0.073353924 -0.013388921 -0.041696526
000220 f3 ac 05 3d 71 ab fe 3b a2 31 57 3d 01 09 4e 3b
       0.03263564 0.0077719023 0.052537568 0.0031438472
000230 09 9e 1f b9 bb 9d 88 3c a3 6b 43 bd 7c e3 f8 bd
       -0.00015222294 0.016676774 -0.047710072 -0.12152764
000240 b5 af 02 3d dc f9 c3 aa e9 91 b8 bd 35 40 8d bc
       0.03190585 -3.4812333e-13 -0.09012205 -0.01724253
000250 d7 67 a2 bd c1 e1 50 3d 9e db a4 3c 52 56 ee 3c
       -0.07929962 0.050996546 0.020124253 0.029093895
000260 66 e5 97 bd 58 b8 04 be 89 91 be bb 08 20 c5 3d
       -0.07416801 -0.12960947 -0.005815689 0.0962525
000270 38 4c 0d be 58 b3 69 bd d3 d3 37 bd 9a 98 cc bd
       -0.13798606 -0.0570558 -0.044879746 -0.09990044
000280 8a fa d2 bd 88 bd c5 3d e0 9a e8 3d 54 6e 37 bd
       -0.10301693 0.09655291 0.11357665 -0.04478295
000290 da 04 db bd 7a 88 97 bd 29 a8 0a bd 3d 8c d0 bd
       -0.10694285 -0.07399078 -0.033851776 -0.10182998
0002a0 02 72 ab bd 79 0c d2 3c d9 8a 18 bd 78 f3 d1 3c
       -0.08371355 0.025640713 -0.03724179 0.02562879
0002b0 1b 08 95 3b e8 36 b5 3c 4d e1 d6 bd cc 17 94 bc
       0.0045480854 0.022120908 -0.104921915 -0.018077753
0002c0 f6 da 02 be 56 ad b3 3d bf 1e 30 bd 0b b1 45 9c
       -0.1277884 0.087732956 -0.04299807 -6.5410655e-22
0002d0 41 3b 04 be da 60 65 3d da a2 b7 3d 99 80 91 bd
       -0.12913229 0.056000568 0.08966608 -0.07104606
0002e0 7f 4c 2e bc ef d8 1a 3d 02 a6 d5 3d 68 ac 49 ba
       -0.010638355 0.03780454 0.10432054 -0.0007693232
0002f0 32 53 9f 39 00 bb 2c bd 49 cc 95 3d 8b f3 8f bc
       0.0003038883 -0.042170525 0.07314355 -0.017572185

classifier.0.bias f4 [3]
000000 73 f3 fa 3d 81 0e 87 3d 03 1e fb bd
       0.122534655 0.06594563 -0.12261584
